subspace-alignment/data/2_layer_64_vocab/ckpt_1740.pt (torch, 178561 bytes, 29 tensors)

embed.embed.weight f4 [64, 64]
-0.2272062 0.7053339 0.63867986 0.11637514 -0.010305602 -0.7125213 -1.3423723 0.034663472
-0.4662555 0.2520979 -1.4073784 0.36485478 -0.19063708 -0.8612651 0.93547463 -0.024508433
0.19732355 0.08861364 0.9324139 -0.7535414 -0.5522358 1.5774446 1.4133735 -1.0502123
-2.0707157 1.4854738 -0.7748013 2.0814197 0.9137922 0.6710694 -0.5232398 0.5226619
0.92004174 -0.93239164 0.40050927 -0.98070884 -1.1752219 0.58824104 -0.81931925 0.5622728
-1.6385286 -0.9883781 0.23594633 0.7139499 1.2903073 0.8904154 -0.45426524 -0.68280286
-0.8704306 -1.6451074 -0.03381378 -0.43665272 0.5137916 1.0826029 0.057959706 -0.8576273
0.39858264 -0.42925435 -1.1031924 -1.5342112 0.4221406 -0.34357473 -0.0733511 0.82248646
0.5344925 -1.1932641 -1.266777 0.08061001 1.9843317 -1.2129087 -0.21380784 -0.46149898
0.26525122 -0.26736915 0.14420429 0.29242817 0.45683107 0.26534855 0.0893472 0.88121456
1.2730968 -0.4581644 1.1448011 0.2539023 0.3191398 -0.45419195 1.6742687 0.41607687
0.16458492 0.9904396 -1.3096609 0.20615534 -2.0056772 1.9787536 0.10847962 -1.0775174
-1.1625146 -1.3840321 0.70337296 -0.084992126 0.8785285 0.8505965 1.2250546 0.041245624
-1.0151064 -0.1704137 1.1434847 0.373006 -0.618188 -0.14089377 -1.2993886 -1.4049282
-0.21989484 -0.24997868 1.3437191 -0.10647848 -0.55599177 0.01091842 0.3004836 -0.8329854
0.052836545 -0.72116077 -0.2705059 -0.02406177 0.36451018 -2.433313 -0.9610591 0.2720484
0.84172255 0.85784113 -0.26745918 -0.1685338 -0.20527567 0.71849656 -0.6415982 -1.5530703
0.41736966 -1.0075204 0.4243845 -0.2978863 -0.63428557 0.8227152 0.21946299 0.38794035
-0.6851091 -0.940746 -1.7953528 -0.7475528 0.1844518 1.2104963 -1.0587384 -0.47534752
0.42730132 0.46022722 -0.6692907 0.17678474 -1.0208719 1.5508281 1.2515422 0.5065992
-0.9828769 0.49043235 0.28105468 1.1885501 -1.1358658 -1.6068543 -0.38002864 2.4172454
-0.5428199 -0.9427304 0.022853004 0.057013135 -0.043565635 -0.95313805 0.8925486 -0.26232848
-0.28054118 -1.1664748 2.1258671 -0.08918881 0.20050819 -0.610231 -1.8103848 -0.46132365
0.6855414 -0.003426716 -0.5507339 0.8786925 -2.551753 0.58161813 0.34388942 0.3825487
-1.3340461 1.1752182 0.012667389 -0.17928699 -1.625014 -0.4995753 1.464937 0.45336092
-1.2659472 -1.262086 -1.7338754 -0.3076223 -2.6353087 2.3362336 -1.2667723 0.5503651
0.48453 -0.26040524 0.8216646 0.288886 0.8066883 -0.75170946 -1.4103817 0.6660889
-1.9988915 1.538993 0.30442375 0.5268268 0.36262792 -0.34338656 -0.45368204 0.9888304
0.8871529 0.83580697 -0.6775225 -0.9979689 0.06439577 -0.79373914 0.4278685 1.2947842
1.7888881 -0.042129483 -0.96012574 0.906667 0.9401835 1.7936733 0.78068584 0.78904366
0.9049159 -0.8696742 0.5034043 0.063596606 -1.3783826 1.2818104 0.41583034 -0.49852347
0.46024832 1.3497157 -2.7607086 -0.20048258 0.016573792 -0.65197176 -0.7986886 -0.16517974
00000000: bea8 68be c390 343f 8680 233f 1756 ee3d
00000010: d4d8 28bc cc67 36bf dbd2 abbf 49fb 0d3d
00000020: 0ab9 eebe fa12 813e fa24 b4bf 3fce ba3e
00000030: 5e36 43be df7b 5cbf 447b 6f3f e9c5 c8bc
00000040: 2f0f 4a3e 117b b53d adb2 6e3f 17e8 40bf
00000050: 535f 0dbf b4e9 c93f 6ce9 b43f 5b6d 86bf
00000060: 9b86 04c0 0124 be3f 6159 46bf fb35 0540
00000070: 49ee 693f 34cb 2b3f 0bf3 05bf 2ccd 053f
00000080: db87 6b3f 38b1 6ebf 8d0f cd3e bc0f 7bbf
00000090: ac6d 96bf f796 163f e8be 51bf 1cf1 0f3f
000000a0: 4ebb d1bf 5906 7dbf ea9b 713e 6cc5 363f
000000b0: ca28 a53f 43f2 633f 7495 e8be 2bcc 2ebf
000000c0: 8ad4 5ebf e192 d2bf 5180 0abd f290 dfbe
000000d0: d987 033f bb92 8a3f 2867 6d3d 768d 5bbf
000000e0: 0613 cc3e 3ac7 dbbe 6935 8dbf 0861 c4bf
000000f0: d022 d83e 07e9 afbe 1a39 96bd 798e 523f
00000100: 80d4 083f e1bc 98bf c025 a2bf dc16 a53d
00000110: 95fe fd3f 9840 9bbf 71f0 5abe 9849 ecbe
00000120: 02cf 873e 9ce4 88be 4aaa 133e 25b9 953e
00000130: c3e5 e93e c4db 873e aafb b63d 4797 613f
00000140: d6f4 a23f 8694 eabe d888 923f 7bff 813e
00000150: 4b66 a33e d98b e8be 704e d63f 0708 d53e
00000160: f388 283e 738d 7d3f f8a2 a7bf 631a 533e
00000170: 045d 00c0 cc47 fd3f 902a de3d 17ec 89bf
00000180: 47cd 94bf f727 b1bf 4010 343f 5a10 aebd
00000190: 3ee7 603f b1c0 593f 97ce 9c3f 2cf1 283d
000001a0: 02ef 81bf ee80 2ebe b55d 923f a4fa be3e
000001b0: 9241 1ebf 7546 10be 5e52 a6bf b0d4 b3bf
000001c0: 1d2c 61be 69fa 7fbe fdfe ab3f 6411 dabd
000001d0: 7a55 0ebf 2ce3 323c fdd8 993e 883e 55bf
000001e0: 226b 583d fe9d 38bf c07f 8abe 301d c5bc
000001f0: 14a1 ba3e 66bb 1bc0 f807 76bf ee49 8b3e
00000200: 217b 573f 7a9b 5b3f 69f0 88be 2094 2cbe
00000210: c933 52be 64ef 373f c83f 24bf 02cb c6bf
00000220: 7ab1 d53e 6ef6 80bf ed48 d93e 8e84 98be
00000230: 8a60 22bf 779d 523f e8ba 603e 1ea0 c63e
00000240: 4f63 2fbf bbd4 70bf 1fce e5bf 9f5f 3fbf
00000250: efe0 3c3e 8bf1 9a3f bd84 87bf c060 f3be
00000260: 3dc7 da3e e7a2 eb3e a356 2bbf 0f07 353e
00000270: eeab 82bf 8981 c63f 8932 a03f 7cb0 013f
00000280: d29d 7bbf f319 fb3e 66e6 8f3e 6922 983f
00000290: 0d64 91bf 67ad cdbf 1d93 c2be 26b4 1a40
000002a0: 3ff6 0abf c856 71bf 3936 bb3c 9b86 693d
000002b0: e171 32bd db00 74bf 117e 643f eb4f 86be
000002c0: 18a3 8fbe 0c4f 95bf 350e 0840 9fa8 b6bd
000002d0: 0552 4d3e 1938 1cbf b0ba e7bf 9d32 ecbe
000002e0: a47f 2f3f c192 60bb e6fc 0cbf fef1 603f
000002f0: ec4f 23c0 ede4 143f 4612 b03e 6cdd c33e
00000300: 06c2 aabf 8d6d 963f e18a 4f3c 0297 37be
00000310: 7500 d0bf 55c8 ffbe 0e83 bb3f ec1e e83e
00000320: 8f0a a2bf 098c a1bf a1ef ddbf ac80 9dbe
00000330: e6a8 28c0 da84 1540 9825 a2bf bae4 0c3f
00000340: 5114 f83e d653 85be 9c58 523f dee8 933e
00000350: 2083 4e3f 0870 40bf 6387 b4bf cd84 2a3f
00000360: addb ffbf b9fd c43f 6edd 9b3e 1fde 063f
00000370: 5eaa b93e 5dd0 afbe 0349 e8be fd23 7d3f
00000380: 741c 633f 72f7 553f 1d72 2dbf e47a 7fbf
00000390: eee1 833d 7d32 4bbf 9411 db3e 7dbb a53f
000003a0: 49fa e43f f78f 2cbd cdca 75bf 541b 683f
000003b0: deaf 703f 1697 e53f 07db 473f c4fe 493f
000003c0: 92a8 673f f8a2 5ebf 1bdf 003f f03e 823d
000003d0: d76e b0bf 5d12 a43f b7e7 d43e 783e ffbe
000003e0: aba5 eb3e 7cc3 ac3f 73af 30c0 4e4b 4dbe
000003f0: c3c5 873c 9fe7 26bf db76 4cbf e124 29be

h.0.mha.W_q.weight f4 [64, 64]
0.044802547 -0.10378668 0.10074335 0.045202706 -0.009036188 0.0850432 0.008708387 0.028317831
0.044515897 0.044514153 -0.017922772 0.14999782 -0.037204117 0.0017294711 -0.03087397 -0.1255465
0.12198664 -0.052614175 0.044050135 0.052849695 0.025397934 0.03541866 0.04877309 0.03267678
0.035176758 -0.040258247 0.063683964 -0.070313185 0.051939923 -0.08622237 -0.09793485 0.017347513
0.033501137 0.09848911 -0.024818188 -0.13353859 -0.222711 -0.03555105 -0.026005954 0.024299603
-0.098091476 0.11154014 0.023885353 -0.0038095897 -0.0018002 -0.03658464 -0.019015122 -0.022709059
0.002450712 0.024757726 0.074299455 0.019711269 0.0028302274 0.11298376 -0.035433058 0.0058428203
0.08669789 -0.108109795 -0.041035905 -0.08121772 -0.02018196 -0.021685416 0.07961963 0.1460615
0.044973098 0.12635042 -0.31725833 0.09898561 -0.036621097 0.0593044 0.0058302134 0.047354583
-0.08216027 0.11766014 -0.09896613 -0.039954662 -0.22349057 0.16030522 0.04559823 -0.12544474
-0.11138898 0.0537734 0.11873844 -0.06483302 -0.003843549 -0.02152043 0.052942708 -0.18156305
-0.04539265 0.05364206 -0.14364165 0.10129643 0.05006179 0.12432819 0.05282199 -0.06167123
-0.050570093 0.15668486 0.07863704 0.051757988 0.03864607 0.017409282 0.08783778 0.09497737
0.014253887 -0.23884603 -0.018757282 0.23604076 -0.03355916 0.11990498 -0.09219033 0.07812137
0.07091956 -0.02622554 0.10059601 0.04823947 -0.068435624 0.051790584 -0.14590831 -0.07981285
0.074317224 -0.077622406 -0.055358864 -0.012418527 -0.018750414 0.12689507 -0.22586778 -0.113666065
-0.098302476 0.09229159 -0.13745749 0.010118709 -0.051584594 7.577834e-05 -0.077688284 0.03434057
0.024840144 -0.059753977 -0.06178003 -0.07631273 -0.0015328821 0.102565676 -0.07427071 -0.11391905
0.010193435 0.085682146 0.101186655 0.040221162 -0.09785234 0.03803066 -0.14347008 -0.004058492
0.09661482 -0.017675834 -0.17985234 0.033184413 -0.05245377 -0.08709539 0.053467244 0.094697356
-0.019413667 -0.043745756 0.022860974 0.08176781 0.018897114 -0.024698714 0.036647618 -0.10996261
0.006673085 0.09246644 -0.0009453905 0.1166919 -0.042010248 -0.0766381 0.06822143 0.0007797267
0.00866059 0.077105924 0.012836996 -0.025255347 0.049523644 0.05230698 -0.041463863 -0.09580136
0.011515388 -0.07162486 0.038401626 -0.09366112 0.06987325 0.035276618 -0.05922475 0.06107239
0.05276111 0.15353903 -0.14161424 0.19380422 0.13457678 0.08104219 -0.08896908 0.12225439
-0.24087453 0.004352695 -0.021132194 0.019293934 -0.17888568 0.15960047 0.15651886 -0.034741573
-0.15892169 0.08413231 0.070119835 0.032434605 -0.1472903 0.15864937 0.010125939 -0.15602532
-0.08282334 -0.012298386 0.002266138 -0.043086294 -0.08996172 0.017294569 0.09298924 -0.08169438
0.00477236 0.047750883 -0.11891259 0.23475543 0.09673375 0.080184266 0.2112203 0.14597745
0.12465441 -0.060784172 9.228849e-05 0.09697025 -0.11210998 0.09284405 -0.04642574 0.0726032
-0.0020412158 0.086587206 -0.04913466 -0.039002966 -0.19190873 -0.0651886 0.04512939 -0.031660017
0.028365038 0.030611685 0.0474972 0.08079583 0.11904041 0.03248434 -0.18585686 0.059267126
00000000: e082 373d 1c8e d4bd 8852 ce3d 7926 393d
00000010: 850c 14bc 212b ae3d 9fad 0e3c ccfa e73c
00000020: 4d56 363d 7954 363d c7d2 92bc 0799 193e
00000030: 5863 18bd 6caf e23a 68eb fcbc 438f 00be
00000040: 22d4 f93d f681 57bd ea6d 343d ec78 583d
00000050: 540f d03c 2813 113d 4bc6 473d 16d8 053d
00000060: 8115 103d d5e5 24bd bd6c 823d 5c00 90bd
00000070: f5be 543d 5b95 b0bd 1192 c8bd 5f1c 8e3c
00000080: 7d38 093d a9b4 c93d 834f cbbc 57be 08be
00000090: 5a0e 64be fa9d 11bd 700a d5bc f60f c73c
000000a0: 2fe4 c8bd 286f e43d 37ab c33c 4faa 79bb
000000b0: b0f4 ebba c7d9 15bd 9ac5 9bbc 5908 babc
000000c0: 209c 203b b7d0 ca3c 502a 983d 8779 a13c
000000d0: 567b 393b 0864 e73d 4122 11bd 2175 bf3b
000000e0: aa8e b13d ab68 ddbd 4415 28bd 7a55 a6bd
000000f0: a354 a5bc 9da5 b1bc 9e0f a33d 2591 153e
00000100: b635 383d 0162 013e af6f a2be f8b8 ca3d
00000110: 0100 16bd 2ce9 723d 600b bf3b e1f6 413d
00000120: a543 a8bd cdf7 f03d c1ae cabd 80a7 23bd
00000130: b6da 64be 0d27 243e 36c5 3a3d 9674 00be
00000140: e81f e4bd 7f41 5c3d 242d f33d 2dc7 84bd
00000150: 0de4 7bbb 9d4b b0bc 74da 583d aaeb 39be
00000160: a5ed 39bd c7b7 5b3d cc16 13be 8174 cf3d
00000170: 970d 4d3d c79f fe3d df5b 583d f99a 7cbd
00000180: 9622 4fbd ff71 203e 750c a13d 2f00 543d
00000190: 574b 1e3d e99d 8e3c 4be4 b33d 7f83 c23d
000001a0: 2389 693c 0e94 74be dfa8 99bc abb4 713e
000001b0: 5475 09bd be90 f53d 49ce bcbd 19fe 9f3d
000001c0: 463e 913d f2d6 d6bc 4805 ce3d c096 453d
000001d0: fa27 8cbd 5d22 543d fd68 15be eb74 a3bd
000001e0: a133 983d 7ff8 9ebd fabf 62bd 1477 4bbc
000001f0: 789a 99bc c8f0 013e e249 67be c1c9 e8bd
00000200: cf52 c9bd 6003 bd3d a8c1 0cbe f1c8 253c
00000210: 5e4a 53bd 30eb 9e38 091b 9fbd b3a8 0c3d
00000220: 8f7d cb3c 96c0 74bd 0f0d 7dbd d949 9cbd
00000230: fdea c8ba f40d d23d 3e1b 98bd 644e e9bd
00000240: 5d02 273c 1f7a af3d f33a cf3d f2be 243d
00000250: cf66 c8bd 0ac6 1b3d d2e9 12be 19fd 84bb
00000260: fedd c53d e9cc 90bc 362b 38be 61ec 073d
00000270: c4d9 56bd 115f b2bd 7800 5b3d b0f0 c13d
00000280: 6909 9fbc c02e 33bd f046 bb3c e275 a73d
00000290: 1fce 9a3c f554 cabc d01b 163d 1434 e1bd
000002a0: e5a9 da3b 0b5f bd3d 15d4 77ba 2afc ee3d
000002b0: f012 2cbd 70f4 9cbd adb7 8b3d 9366 4c3a
000002c0: 26e5 0d3c b6e9 9d3d 4352 523c 4de4 cebc
000002d0: 4ed9 4a3d d83f 563d 03d6 29bd 8133 c4bd
000002e0: 0aab 3c3c 0eb0 92bd 064b 1d3d 67d1 bfbd
000002f0: b519 8f3d 377e 103d a795 72bd 0b27 7a3d
00000300: 091c 583d 5639 1d3e 5303 11be 9d74 463e
00000310: 7fce 093e 73f9 a53d 6c35 b6bd 8260 fa3d
00000320: d0a7 76be 0da1 8e3b 6c1d adbc 500e 9e3c
00000330: cf2d 37be 4e6e 233e 7b46 203e 2e4d 0ebd
00000340: 5ebc 22be 8f4d ac3d fd9a 8f3d 26da 043d
00000350: 45d3 16be fb74 223e 44e7 253c 1ac5 1fbe
00000360: 499f a9bd 2b7f 49bc 7d83 143b 417b 30bd
00000370: da3d b8bd 57ad 8d3c 2571 be3d 624f a7bd
00000380: 7561 9c3b 6e96 433d 7288 f3bd ba63 703e
00000390: 581c c63d a637 a43d 224a 583e 1d7b 153e
000003a0: d04a ff3d d3f8 78bd 018b c138 5798 c63d
000003b0: eb99 e5bd 0525 be3d eb28 3ebd fdb0 943d
000003c0: ebc5 05bb a254 b13d 6d41 49bd 93c1 1fbd
000003d0: b983 44be 9a81 85bd 98d9 383d efad 01bd
000003e0: cc5d e83c 5bc5 fa3c 6d8c 423d 4978 a53d
000003f0: 75cb f33d 4d0e 053d 4351 3ebe 16c2 723d

h.0.mha.W_q.bias f4 [64]
0.053785976 0.3438519 0.24705751 0.22223598 -0.09091065 0.361108 -0.09815974 0.23106858
-0.20558307 -0.31032062 0.18465844 0.383253 -0.2033463 0.3845043 0.6324158 0.08982029
0.15954699 0.71507365 0.062254794 0.25140777 -0.37339485 0.31495196 -0.18128711 -0.1371985
-0.19489038 0.07602621 0.0037895683 -0.27590993 0.08606273 -0.03301144 0.1933053 0.25721666
-0.2248077 -0.08175339 -0.07594191 0.08335514 0.12514615 0.014225326 -0.08835876 0.07595247
0.0067752 0.07704457 0.1759165 0.027346397 -0.03774521 -0.037222918 0.08280929 0.15785448
-0.00789441 0.14124888 0.094555706 0.012050142 -0.0043304134 -0.051697094 0.028569378 0.030056568
0.22877324 -0.08928537 0.02706404 -0.068428144 0.0017877318 0.19252005 0.13060042 -0.070952475
00000000: af4e 5c3d 5b0d b03e a5fc 7c3e d491 633e
00000010: 5d2f babd 26e3 b83e f907 c9bd 3e9d 6c3e
00000020: 5e84 52be 58e2 9ebe 1a17 3d3e bd39 c43e
00000030: 033a 50be bfdd c43e 00e6 213f b3f3 b73d
00000040: 4960 233e 110f 373f e2fe 7e3d 85b8 803e
00000050: 9c2d bfbe 6241 a13e 54a3 39be c37d 0cbe
00000060: 5891 47be a1b3 9b3d 685a 783b 1144 8dbe
00000070: a841 b03d 0137 07bd d3f1 453e e7b1 833e
00000080: fd33 66be 526e a7bd 6f87 9bbd 1ab6 aa3d
00000090: 5026 003e 5711 693c 70f5 b4bd f88c 9b3d
000000a0: 7f02 de3b 8bc9 9d3d 7423 343e 8d05 e03c
000000b0: b99a 1abd 0f77 18bd eb97 a93d 9ba4 213e
000000c0: 8e57 01bc 8ca3 103e 6ca6 c13d f56d 453c
000000d0: 24e6 8dbb 55c0 53bd 540a ea3c 3139 f63c
000000e0: 8843 6a3e 40db b6bd 68b5 dd3c 0e24 8cbd
000000f0: 5352 ea3a fa23 453e 1ebc 053e 884f 91bd

h.0.mha.W_k.weight f4 [64, 64]
0.054471683 -0.15322316 -0.043943834 -0.101023816 0.026813501 -0.02080197 0.10165967 0.12875204
0.057554454 -0.0075243586 0.037063222 0.1633375 -0.031779133 -0.027637979 -0.01113236 -0.059783224
-0.03183156 0.048542336 0.05136047 0.1584148 -0.11109363 -0.041131947 0.0046987887 -0.05842566
0.1151354 -0.19351417 0.13727283 -0.03563986 0.0075911265 -0.062357735 0.014525065 0.020854779
0.0009200434 0.025503434 0.092959285 -0.080606095 0.0033955025 0.03063198 0.031106632 0.0688128
0.07400059 0.032103468 -0.047717392 -0.02079472 -0.13441584 -0.09139891 0.018848728 0.08542282
0.07369411 0.118448384 -0.12628548 -0.051019587 0.073155046 -0.009482002 -0.044113506 0.029895036
0.03989122 -0.07896923 0.073471 0.044234168 -0.008326267 -0.013527137 0.0062014675 0.024421569
-0.044179883 0.04857605 -0.07459136 -0.045134366 -0.032229718 -0.009286855 -0.013104848 -0.014231559
0.08959486 -0.08247296 -0.087428436 -0.01614025 -0.20801832 0.110140756 -0.014461189 0.009462331
-0.024758153 -0.05256966 0.0041890005 -0.012612849 0.0035254008 0.12623842 0.01082124 0.017459992
-0.05029748 0.24545193 -0.06491454 0.048097473 0.07623043 0.11893635 0.053674705 0.12315714
0.009788288 0.004554824 0.1450403 0.06362234 -0.033021044 -0.1172492 -0.009364805 0.043103665
-0.13568778 -0.17026262 -0.028626598 0.0560069 0.120140396 0.04095386 -0.006217965 -0.13392147
-0.13542709 -0.3009386 0.13157672 0.06736808 -0.06435898 0.004360501 -0.15021513 -0.1530637
0.18209976 -0.012872593 -0.18559091 -0.056579612 -0.16723655 -0.10926894 -0.10845226 0.10774661
-0.13742346 0.009679174 -0.020202719 0.0635259 0.062511094 0.04886106 -0.010131233 0.012869312
-0.017272918 -0.024794545 0.10086643 0.053766366 -0.1115657 -0.029709335 -0.010856585 -0.060313623
-0.06532439 -0.08624089 0.045414027 -0.08272644 -0.009951247 0.0008992569 -0.08988423 -0.009751568
-0.12753859 0.14731313 0.0106782485 0.17947088 -0.029276114 0.04037392 0.10383488 0.10952587
0.022002153 0.0051980764 0.10068435 -0.00235369 -0.062873125 0.053007465 -0.02874305 0.055897426
0.059787206 -0.11910891 0.01889007 -0.023751616 0.09823201 0.04248671 0.023745203 0.078690775
-0.07696308 -0.0440667 0.050119225 -0.031349264 -0.03430928 -0.029707616 -0.1529007 -0.06995445
0.038913164 -0.13919576 -0.019281108 0.022105165 0.0019853243 0.09323709 -0.05639952 0.08594474
-0.07140068 0.04849351 0.08471038 0.0659083 0.07925542 -0.06744787 -0.10733139 -0.072705775
0.007188609 -0.10017671 -0.15848291 -0.08061995 -0.24561054 0.05712515 0.09515835 0.12710264
-0.09932922 0.058341354 0.08103949 0.008462674 -0.016870575 0.22212689 -0.0103977 0.0077246865
-0.07594815 0.03856045 -0.0833483 0.053976968 0.012606374 0.18933104 -0.08082555 0.11416027
-0.038644146 -0.06688624 0.09165373 0.057547454 -0.074650995 -0.017842762 0.053456362 0.23362274
-0.009277717 0.004389889 -0.008187279 0.19737299 0.099490866 0.022238925 0.11152943 -0.08586946
-0.09854893 -0.118617125 0.15218857 -0.09138898 -0.059383493 0.14064392 -0.0091727 -0.21183072
0.255984 0.021707391 -0.14756368 -0.031582385 -0.12437348 -0.062564455 -0.09572553 0.18377212
00000000: b31d 5f3d 88e6 1cbe 73fe 33bd 93e5 cebd
00000010: fda7 db3c e568 aabc f232 d03d 93d7 033e
00000020: 38be 6b3d e58e f6bb 9bcf 173d f241 273e
00000030: d62a 02bd 0b69 e2bc 8164 36bc 41df 74bd
00000040: cf61 02bd 54d4 463d 5b5f 523d 7d37 223e
00000050: 0f85 e3bd f979 28bd 4cf8 993b bf4f 6fbd
00000060: 1ccc eb3d 9428 46be 4091 0c3e 1afb 11bd
00000070: fcbe f83b d36a 7fbd 8afa 6d3c a4d7 aa3c
00000080: 112f 713a 94ec d03c 7061 be3d cf14 a5bd
00000090: 1487 5e3b ebef fa3c 56d3 fe3c baed 8c3d
000000a0: 9f8d 973d ed7e 033d 5073 43bd b059 aabc
000000b0: 4ea4 09be 5a2f bbbd a668 9a3c 29f2 ae3d
000000c0: f0ec 963d 1195 f23d fb50 01be eaf9 50bd
000000d0: 50d2 953d 665a 1bbc 5db0 34bd 6fe6 f43c
000000e0: fa64 233d 9fba a1bd f777 963d e32e 353d
000000f0: e56a 08bc eda0 5dbc ae35 cb3b be0f c83c
00000100: f7f5 34bd aef7 463d 5bc3 98bd d0de 38bd
00000110: 4f03 04bd e527 18bc b7b5 56bc 7c2b 69bc
00000120: 837d b73d 95e7 a8bd ae0d b3bd 8f38 84bc
00000130: c102 55be 7a91 e13d 9fee 6cbc e507 1b3c
00000140: 9cd1 cabc 4953 57bd e243 893b 1fa6 4ebc
00000150: 690a 673b a544 013e 924b 313c 4208 8f3c
00000160: bb04 4ebd c057 7b3e eaf1 84bd db01 453d
00000170: b31e 9c3d e794 f33d 02da 5b3d d039 fc3d
00000180: 0e5f 203c a240 953b 7285 143e 6e4c 823d
00000190: 1341 07bd 5920 f0bd d76e 19bc 788d 303d
000001a0: bdf1 0abe 5359 2ebe 5482 eabc 7e67 653d
000001b0: 2b0c f63d 3cbf 273d 12c0 cbbb b622 09be
000001c0: 66ad 0abe a014 9abe 0cbc 063e 47f8 893d
000001d0: a4ce 83bd 89e2 8e3b ffd1 19be bbbc 1cbe
000001e0: 5c78 3a3e 91e7 52bc 8b0b 3ebe 06c0 67bd
000001f0: 0f40 2bbe 65c8 dfbd 381c debd 41aa dc3d
00000200: bcb8 0cbe 6695 1e3c 2c80 a5bc de19 823d
00000210: d105 803d 8922 483d 79fd 25bc cfd9 523c
00000220: ef7f 8dbc ee1d cbbc 0f93 ce3d 1f3a 5c3d
00000230: 8f7c e4bd fe60 f3bc d1df 31bc 6b0b 77bd
00000240: cbc8 85bd 109f b0bd 0f04 3a3d 7b6c a9bd
00000250: 8e0a 23bc 1cbc 6b3a 3915 b8bd 0ac5 1fbc
00000260: 7a99 02be 41d9 163e d2f3 2e3c 37c7 373e
00000270: 76d4 efbc 205f 253d 62a7 d43d 194f e03d
00000280: dc3d b43c a054 aa3b 9933 ce3d 5e40 1abb
00000290: a0c3 80bd 5b1e 593d 8b76 ebbc b3f4 643d
000002a0: 6ee3 743d 5fef f3bd 59bf 9a3c c092 c2bc
000002b0: dd2d c93d 8b06 2e3d 4d85 c23c a128 a13d
000002c0: d29e 9dbd 497f 34bd d149 4d3d 1668 00bd
000002d0: e387 0cbd 635d f3bc 0092 1cbe 4744 8fbd
000002e0: 6963 1f3d 5589 0ebe 6af3 9dbc e415 b53c
000002f0: 371c 023b 16f3 be3d 2f03 67bd cc03 b03d
00000300: 853a 92bd 21a1 463d a37c ad3d eefa 863d
00000310: aa50 a23d 1c22 8abd 8fd0 dbbd c4e6 94bd
00000320: 6c8e eb3b 7229 cdbd 5849 22be 131c a5bd
00000330: 5481 7bbe 10fc 693d 62e2 c23d 3227 023e
00000340: 1e6d cbbd 58f7 6e3d 08f8 a53d 07a7 0a3c
00000350: 2934 8abc 3b75 633e 1d5b 2abc 5e1f fd3b
00000360: b48a 9bbd 90f1 1d3d 83b2 aabd f416 5d3d
00000370: f78a 4e3c ffdf 413e de87 a5bd dccc e93d
00000380: 5349 1ebd a7fb 88bd f3b4 bb3d e1b6 6b3d
00000390: 9fe2 98bd fc2a 92bc 0ff5 5a3d cd3a 6f3e
000003a0: 9101 18bc 0fd9 8f3b f023 06bc 251c 4a3e
000003b0: dec1 cb3d 682e b63c 8b69 e43d 54dc afbd
000003c0: 05d4 c9bd 89ed f2bd 52d7 1b3e 252a bbbd
000003d0: 1b3c 73bd f604 103e 1849 16bc 27ea 58be
000003e0: 5610 833e b3d3 b13c ef1a 17be 885c 01bd
000003f0: 86b7 febd cb21 80bd bf0b c4bd c22e 3c3e

h.0.mha.W_k.bias f4 [64]
-0.03019531 0.21450682 -0.023979632 0.29118836 0.21073426 0.21824048 -0.10755371 -0.032243807
-0.27812922 -0.15261178 0.5120594 -0.20166449 0.46003696 0.1837266 -0.5969098 -0.39502987
-0.17780699 -0.4612452 -0.16975372 0.13910225 -0.061938763 -0.21579315 -0.08023474 -0.012933442
0.0018212664 0.15037255 0.08211436 -0.23181695 0.16218139 0.04057086 -0.09717311 -0.08095937
-0.1747764 -0.17401809 -0.12385263 0.19131264 0.29190046 -0.058548275 0.0136432685 0.011080417
0.12819518 -0.053026583 -0.08692641 -0.00012467061 -0.07324027 0.051329073 -0.013985531 0.13805896
0.08467308 0.11200632 -0.1896651 0.1144159 -0.079199836 -0.23353997 0.09690177 -0.057127777
0.0058282935 -0.038782015 0.16803338 -0.08627626 0.094831325 0.074172266 0.113353446 -0.08657826
00000000: 285c f7bc ada7 5b3e ef70 c4bc a416 953e
00000010: b9ca 573e 6f7a 5f3e 1f45 dcbd 1512 04bd
00000020: f466 8ebe 4346 1cbe 5316 033f 2381 4ebe
00000030: f789 eb3e d322 3c3e 15cf 18bf 5b41 cabe
00000040: 0913 36be 5528 ecbe ebd3 2dbe d270 0e3e
00000050: 80b3 7dbd e1f8 5cbe 1d52 a4bd cae6 53bc
00000060: 8fb7 ee3a 43fb 193e 932b a83d 6c61 6dbe
00000070: e112 263e a12d 263d b202 c7bd 07ce a5bd
00000080: 96f8 32be cc31 32be 73a6 fdbd 76e7 433e
00000090: fa73 953e 51d0 6fbd 0488 5f3c a38a 353c
000000a0: 9945 033e 6732 59bd 7906 b2bd 03ba 02b9
000000b0: fffe 95bd 6f3e 523d 9223 65bc 545f 0d3e
000000c0: 1469 ad3d 9263 e53d 9137 42be e252 ea3d
000000d0: 8633 a2bd 1a25 6fbe 6f74 c63d d1fe 69bd
000000e0: 45fb be3b e4d9 1ebd f110 2c3e 9cb1 b0bd
000000f0: ed36 c23d a1e7 973d da25 e83d f14f b1bd

h.0.mha.W_v.weight f4 [64, 64]
0.09570398 0.036313225 0.1619529 -0.097871065 0.16218807 -0.02435203 -0.08230505 0.18453458
-0.051675633 0.024842132 -0.053890407 -0.0154735735 -0.062244784 -0.08775486 0.08666742 -0.02767427
0.009764157 0.1993179 0.054904185 0.11769199 0.06658314 -0.12284744 0.061852638 -0.13262595
0.007135274 -0.015690487 -0.19943659 0.054400872 0.16234668 -0.08740109 -0.013520959 -0.20629735
-0.0012127828 -0.12665388 0.09825011 0.03762656 -0.07182144 -0.06963404 0.05101163 0.12695438
-0.07388342 0.030848885 -0.002345168 -0.08316036 0.09928098 0.016396534 0.03774221 0.11601511
0.020342037 -0.007057943 0.08870405 -0.037563384 -0.11476585 -0.073871456 0.008527427 0.10068195
0.094464414 0.017460609 -0.00018215746 0.049364783 0.066789955 -0.12392186 -0.09813058 -0.19671817
-0.0409473 0.019224623 -0.0762627 -0.29535338 0.046200536 -0.054502897 0.08480104 -0.069833845
-0.026012918 -0.010063407 -0.025721258 0.09504753 -0.08047124 0.0690289 -0.055857882 -0.04675721
0.018962186 -0.030883271 0.12283746 0.030815383 0.10920185 -0.11029888 0.10324647 -0.0008539929
0.15782906 -0.03235874 -0.10711049 -0.16808376 0.04499828 -0.038403388 0.16820817 0.040920675
0.06603551 0.10333424 -0.16294369 -0.01811066 0.0014418834 0.017051842 0.13213429 0.10589184
0.030719886 0.2066469 0.045176737 0.07151569 0.015248492 -0.031343717 0.087149955 -0.05135713
0.0072794287 0.062164955 -0.13918445 0.024140015 -0.0684453 0.07023482 0.07888141 0.01784313
0.08417238 -0.0050250404 0.08003699 -0.0075476267 -0.10914262 -0.04451303 0.04202769 0.11603549
0.0050784396 -0.10576875 -0.054305784 0.17140172 -5.3989435e-05 0.039351925 -0.050644852 -0.11035152
0.04935001 0.16000195 0.09690444 -0.09085644 0.04382922 0.09497997 0.0058184373 -0.08786699
0.05145551 -0.018309407 -0.07943827 -0.08559267 -0.014404021 -0.055113386 -0.006323084 0.110440455
-0.02890077 -0.06064111 0.013746397 -0.07552809 -0.21197243 0.097746745 -0.120731436 -0.02351137
-0.04008442 -0.06629649 -0.011312589 0.031019352 -0.0721893 -0.02400417 0.08149235 0.15196766
0.1106877 -0.09191203 -0.032026783 -0.15330394 -0.08727559 0.13363984 0.059758816 0.16396217
-0.037598044 -0.10919531 0.005259794 0.12559402 0.1146437 0.076597355 -0.122543186 -0.0687157
-0.105749436 0.100958645 0.05722219 0.17427516 0.13012448 0.021757642 0.11011054 -0.042175613
0.081336886 0.10899582 0.014028522 0.056372877 -0.07019097 -0.05430575 -0.09917946 0.16406682
0.13588946 0.13366823 0.16009578 0.08697207 -0.06284265 -0.055580616 0.017906217 -0.09802869
-0.0849553 0.07993616 0.03209874 -0.021510074 -0.17040451 -0.12075305 0.01152764 -0.0056513767
0.12673384 -0.12080541 -0.11576881 -0.07512121 -0.09087087 0.043878056 0.07825622 -0.15571536
-0.1607444 -0.13591948 0.0061131986 0.16714586 0.005244236 -0.18766701 -0.1256543 0.1222162
-0.0656717 -0.0006565032 0.10970791 -0.18820912 0.10693585 0.046567313 -0.08439321 -0.09256572
-0.14496045 0.007550959 0.01134346 -0.13049385 -0.05677372 0.11476227 0.026218122 -0.054203473
-0.055423528 -0.10682673 0.04184797 0.06912929 -0.014824478 0.06215098 -0.08287853 0.020203503
00000000: 7300 c43d 2dbd 143d fbd6 253e a070 c8bd
00000010: a114 263e e97d c7bc 8d8f a8bd a2f6 3c3e
00000020: d4a9 53bd ba81 cb3c 30bc 5cbd df84 7dbc
00000030: 63f4 7ebd d2b8 b3bd b07e b13d 27b5 e2bc
00000040: d8f9 1f3c fe19 4c3e 36e3 603d 8008 f13d
00000050: be5c 883d 7097 fbbd 3159 7d3d 19cf 07be
00000060: 04cf e93b 5689 80bc 1b39 4cbe 73d3 5e3d
00000070: 353e 263e 58ff b2bd 0387 5dbc 9d3f 53be
00000080: 3df6 9eba 8eb1 01be 5b37 c93d 4f1e 1a3d
00000090: 1e17 93bd 4b9c 8ebd 92f1 503d 5400 023e
000000a0: 3150 97bd cdb6 fc3c 64b1 19bb fb4f aabd
000000b0: d453 cb3d 0652 863c 9397 1a3d 5499 ed3d
000000c0: 58a4 a63c 5146 e7bb 78aa b53d 10dc 19bd
000000d0: 5c0a ebbd eb49 97bd 9fb6 0b3c 5732 ce3d
000000e0: 8f76 c13d 8d09 8f3c 8501 3fb9 ba32 4a3d
000000f0: 2cc9 883d beca fdbd aff8 c8bd 7d70 49be
00000100: 5bb8 27bd f57c 9d3c 9e2f 9cbd 8f38 97be
00000110: c63c 3d3d 6e3e 5fbd 2bac ad3d 0c05 8fbd
00000120: 0b19 d5bc fde0 24bc 63b5 d2bc 48a8 c23d
00000130: 1bce a4bd 065f 8d3d 3ccb 64bd 7d84 3fbd
00000140: 9656 9b3c eafe fcbc 3592 fb3d 8b70 fc3c
00000150: 38a5 df3d 61e4 e1bd e372 d33d 7ede 5fba
00000160: f19d 213e 998a 04bd bf5c dbbd 261e 2cbe
00000170: 1e50 383d df4c 1dbd c33e 2c3e 709c 273d
00000180: a03d 873d e7a0 d33d b6da 26be cf5c 94bc
00000190: 94fd bc3a 4eb0 8b3c 364e 073e d2dd d83d
000001a0: 45a8 fb3c 3f9b 533e 3e0b 393d d176 923d
000001b0: d0d4 793c 4562 00bd ad7b b23d db5b 52bd
000001c0: 4688 ee3b aea0 7e3d 5e86 0ebe 48c1 c53c
000001d0: 0d2d 8cbd 46d7 8f3d 948c a13d c12b 923c
000001e0: 9262 ac3d 18a9 a4bb 6fea a33d 1552 f7bb
000001f0: 2a86 dfbd 4c53 36bd 3a25 2c3d 04a4 ed3d
00000200: 0a69 a63b 499d d8bd be6f 5ebd ef83 2f3e
00000210: b772 62b8 7c2f 213d fa70 4fbd faff e1bd
00000220: 3c23 4a3d 8dd7 233e d675 c63d f112 babd
00000230: 4586 333d dc84 c23d 97a8 be3b 9cf3 b3bd
00000240: 03c3 523d 9cfd 95bc 88b0 a2bd 364b afbd
00000250: d8fe 6bbc 93be 61bd df31 cfbb 9b2e e23d
00000260: 4fc1 ecbc d062 78bd 9138 613c 79ae 9abd
00000270: 4d0f 59be 722f c83d 0b42 f7bd eb9a c0bc
00000280: 902f 24bd 74c6 87bd 7058 39bc 4c1c fe3c
00000290: fcd7 93bd 65a4 c4bc 76e5 a63d 699d 1b3e
000002a0: 3cb0 e23d 603c bcbd 842e 03bd b5fb 1cbe
000002b0: 8bbd b2bd e2d8 083e a9c5 743d b3e5 273e
000002c0: 6800 1abd caa1 dfbd 5a5a ac3b b89b 003e
000002d0: 51ca ea3d 13df 9c3d ecf7 fabd d1ba 8cbd
000002e0: 2993 d8bd 68c3 ce3d d161 6a3d 3075 323e
000002f0: 5a3f 053e 153d b23c a381 e13d 56c0 2cbd
00000300: f493 a63d 3339 df3d e3d7 653c 3fe7 663d
00000310: 49c0 8fbd b56f 5ebd 9a1e cbbd 2201 283e
00000320: 9b26 0b3e 53e0 083e 26f0 233e 6a1e b23d
00000330: a6b3 80bd 80a8 63bd 0fb0 923c 44c3 c8bd
00000340: 0bfd adbd 92b5 a33d f879 033d e535 b0bc
00000350: 857e 2ebe 604d f7bd 6dde 3c3c 2f2f b9bb
00000360: 84c6 013e d468 f7bd 3318 edbd 26d9 99bd
00000370: 821a babd 7ab9 333d cc44 a03d d973 1fbe
00000380: 2e9a 24be 7a2e 0bbe 3a51 c83b 4928 2b3e
00000390: d7d7 ab3b c82b 40be 85ab 00be 7d4c fa3d
000003a0: e27e 86bd 2f19 2cba 8aae e03d e4b9 40be
000003b0: 2f01 db3d 5ebd 3e3d 59d6 acbd 1993 bdbd
000003c0: 8370 14be 096e f73b ebd9 393c 2ea0 05be
000003d0: 8f8b 68bd 7b08 eb3d 63c7 d63c 7604 5ebd
000003e0: c803 63bd f9c7 dabd c768 2b3d a893 8d3d
000003f0: 5ee2 72bc 0792 7e3d 38bc a9bd d181 a53c

h.0.mha.W_v.bias f4 [64]
-0.050450817 0.022872029 0.013026126 0.06496473 -0.15104572 -0.06620812 -0.023941781 -0.15422432
-0.08844664 -0.083465934 -0.028693024 -0.17777112 0.15773682 0.075533696 -0.144953 0.01666266
-0.01916864 -0.11949643 -0.11246999 0.032913625 -0.0375405 -0.094722934 0.050252233 -0.0087621035
-0.014197358 0.13790168 0.13609037 -0.021583555 0.03609298 0.16597457 0.06038967 0.17283559
-0.15498245 0.10069959 0.12637742 0.09678375 0.10736795 0.14100106 0.08072773 -0.08962297
-0.12669565 0.029599369 0.10002283 -0.06906462 -0.12418685 -0.03239878 -0.10893246 -0.07518757
-0.13405198 0.048029337 -0.1581114 -0.06443802 -0.1553182 -0.12803528 0.113772295 0.11507729
-0.121382564 -0.065013744 -0.15813136 0.09275986 0.16170736 -0.16715442 -0.007908721 -0.04685984
00000000: 84a5 4ebd 1f5e bb3c 886b 553c 3a0c 853d
00000010: bbab 1abe 1f98 87bd 8e21 c4bc fbec 1dbe
00000020: 8323 b5bd 30f0 aabd a20d ebbc a209 36be
00000030: c385 213e 69b1 9a3d 8f6e 14be 2180 883c
00000040: 8d07 9dbc 8bba f4bd ab56 e6bd 70d0 063d
00000050: 11c4 19bd 19fe c1bd 49d5 4d3d ed8e 0fbc
00000060: 099c 68bc 1936 0d3e 465b 0b3e ffcf b0bc
00000070: 3cd6 133d 3df5 293e 295b 773d d0fb 303e
00000080: b8b3 1ebe 963b ce3d 1569 013e 8f36 c63d
00000090: bae3 db3d 9562 103e 9554 a53d 3f8c b7bd
000000a0: 81bc 01be 607a f23c c5d8 cc3d c071 8dbd
000000b0: ad55 febd 95b4 04bd fb17 dfbd f1fb 99bd
000000c0: ec44 09be 69ba 443d f4e7 21be 15f8 83bd
000000d0: bc0b 1fbe ae1b 03be 7301 e93d a4ad eb3d
000000e0: 6c97 f8bd ed25 85bd 30ed 21be e2f8 bd3d
000000f0: 9d96 253e 872a 2bbe 9593 01bc 1bf0 3fbd

h.0.mha.W_o.weight f4 [64, 64]
-0.07927294 -0.12787513 0.10194564 -0.04908514 0.062989704 -0.044907395 0.019074854 0.009407476
0.0878524 0.048632085 -0.08124957 0.015638666 -0.07315088 0.014580912 -0.020729734 -0.052323412
0.062332653 -0.06337085 -0.13879623 -0.027420107 -0.1877699 -0.109360084 0.16449109 -0.12343857
-0.102861814 0.002995413 -0.0036113271 -0.0471132 -0.126437 0.029762499 -0.119873986 -0.025966683
-0.04929902 -0.067157105 -0.15056796 0.064861126 -0.029177047 0.16634336 0.054295205 0.16234167
0.14831685 0.02005652 0.045528665 -0.046960015 -0.11210615 -0.08246505 -0.05711614 -0.05392165
0.124837615 -0.012250949 0.039857168 -0.05860726 -0.06595278 0.040827613 -0.055736724 0.066413544
0.0048964187 0.038265083 0.034340132 0.054980982 -0.12673944 -0.045931537 0.03260675 0.1327411
0.121329635 -0.03940576 0.073789276 0.15212588 0.13893755 -0.06005644 0.0035370328 -0.05307306
0.050503965 0.07298047 0.08952833 -0.08427916 0.13616712 -0.075548664 0.003408007 0.11258595
-0.022917012 -0.0020005067 0.14820178 0.007067704 0.06819466 -0.037214223 -0.15512548 0.067723125
0.042685635 -0.09326303 0.059941497 0.00759674 -0.07042454 -0.0085999295 0.17514315 -0.07164233
0.053238276 -0.053778514 0.07683141 0.110264264 0.02564187 0.1305955 -0.13980909 -0.034819424
-0.028883742 0.091284245 0.03594034 0.027106794 -0.15243594 -0.016290741 0.09378068 -0.021326505
0.09461018 0.055822916 -0.09729766 -0.0042301365 -0.18407151 0.10794871 -0.051415175 -0.046467982
0.06425974 0.03605173 0.0009378231 -0.062021915 -0.018556183 -0.08120932 0.07440755 0.0058433837
0.11884721 0.10790645 -0.0641516 -0.027388358 -0.054501846 0.0023531802 0.034661844 0.0021845666
-0.05775895 -0.008510394 0.012050439 0.05246117 -0.018538602 0.10900946 0.1853362 -0.0134138735
0.055504434 -0.0078029316 0.09026981 0.19632567 -0.114122234 -0.14032504 -0.05567308 0.069178745
0.15043682 0.061450932 -0.030815477 0.09924314 -0.03645409 0.002439367 -0.00912722 -0.04002837
-0.13929994 0.08156117 -0.06651663 0.008452335 0.034071416 -0.11673768 0.17919827 -0.20098974
-0.008733472 0.012187757 0.007645585 0.082154565 0.027064951 -0.002773824 -0.050978996 0.1384075
0.02030007 0.05257721 0.0593787 -0.120773725 0.10113571 -0.05749954 -0.091872014 -0.057775814
-0.10236477 0.007314661 0.06342553 0.14507051 0.009217615 0.12633649 -0.10232006 -0.0030062522
0.01893949 -0.004199236 -0.07996169 0.028159034 -0.08355245 -0.15280482 0.18882143 -0.023005331
0.15022473 0.0107585285 0.1600716 0.026258366 -0.13626766 -0.042506356 -0.06491828 0.024772592
0.014613357 0.045286577 0.08618096 -0.09071548 -0.1312195 0.15486518 0.0077223503 0.06373729
-0.069659784 0.006391948 0.09800801 0.07990756 0.01310869 -0.14639355 -0.015033604 0.042087115
-0.101822026 0.077952795 0.009085563 -0.039550714 0.12354835 0.09539774 -0.09620891 0.11009109
-0.027715132 0.014352246 0.12653048 0.18637757 -0.12100118 0.02794311 0.16541594 0.08414829
-0.10301576 0.10401849 -0.05345055 -0.004678417 0.06963499 0.081691556 0.01273733 -0.06368065
0.077592894 -0.023483483 -0.26586643 -0.07838826 0.025920661 -0.08087356 -0.15137522 0.11871973
00000000: da59 a2bd b3f1 02be e0c8 d03d 800d 49bd
00000010: bf00 813d d1f0 37bd de42 9c3c d021 1a3c
00000020: f6eb b33d 7032 473d 2d66 a6bd a91c 803c
00000030: 21d0 95bd c7e4 6e3c 67d1 a9bc 1351 56bd
00000040: 8650 7f3d 94c8 81bd 9920 0ebe 22a0 e0bc
00000050: c146 40be 2ef8 dfbd 5a70 283e 5ccd fcbd
00000060: 37a9 d2bd b14e 443b 04ac 6cbb c5f9 40bd
00000070: b378 01be 7cd0 f33c 7e80 f5bd 15b8 d4bc
00000080: c5ed 49bd aa89 89bd 7d2e 1abe e9d5 843d
00000090: b404 efbc ea55 2a3e a664 5e3d e53c 263e
000000a0: 5fe0 173e 924d a43c 447c 3a3d 2559 40bd
000000b0: e997 e5bd 70e3 a8bd 9df2 69bd f3dc 5cbd
000000c0: ddaa ff3d 34b8 48bc 4541 233d 2b0e 70bd
000000d0: 4012 87bd db3a 273d 314c 64bd d303 883d
000000e0: 2372 a03b d9bb 1c3d 3da8 0c3d bd33 613d
000000f0: fcc7 01be b522 3cbd a88e 053d 48ed 073e
00000100: ac7b f83d ef67 21bd d51e 973d e3c6 1b3e
00000110: a545 0e3e befd 75bd 90cd 673b 2363 59bd
00000120: 3fdd 4e3d c976 953d a15a b73d 8d9a acbd
00000130: 656f 0b3e 42b9 9abd df58 5f3b 7693 e63d
00000140: 75bc bbbc ef1a 03bb 35c2 173e 3398 e73b
00000150: a4a9 8b3d f16d 18bd 37d9 1ebe 6cb2 8a3d
00000160: 22d7 2e3d b000 bfbd 3785 753d 13ee f83b
00000170: be3a 90bd b8e6 0cbc ba58 333e 37b9 92bd
00000180: 6110 5a3d dc46 5cbd c959 9d3d 3bd2 e13d
00000190: e60e d23c d4ba 053e 1d2a 0fbe d09e 0ebd
000001a0: 999d ecbc 3cf3 ba3d 2e36 133d 110f de3c
000001b0: 2b18 1cbe 2974 85bc 1610 c03d ecb4 aebc
000001c0: fbc2 c13d 92a6 643d ff43 c7bd f59c 8abb
000001d0: 3e7d 3cbe 3714 dd3d b898 52bd 3655 3ebd
000001e0: 9c9a 833d fbaa 133d 3ed8 753a b10a 7ebd
000001f0: 2303 98bc 1251 a6bd fc62 983d db79 bf3b
00000200: 2b66 f33d 0ffe dc3d ea61 83bd 8d5d e0bc
00000210: 543d 5fbd d037 1a3b 94f9 0d3d f22a 0f3b
00000220: a694 6cbd 2e6f 0bbc 346f 453c 86e1 563d
00000230: 44de 97bc 5a40 df3d c6c8 3d3e ddc5 5bbc
00000240: 9e58 633d bcaf ffbb 61df b83d 9909 493e
00000250: ebb8 e9bd 5eb1 0fbe 7509 64bd 96ad 8d3d
00000260: 1c0c 1a3e f9b3 7b3d bd70 fcbc fd3f cb3d
00000270: e250 15bd c9dd 1f3b 568a 15bc caf4 23bd
00000280: a5a4 0ebe 8b09 a73d df39 88bd aa7b 0a3c
00000290: 788e 0b3d 2a14 efbd c07f 373e 41d0 4dbe
000002a0: d616 0fbc 28af 473c d187 fa3b a740 a83d
000002b0: 51b7 dd3c 0bc9 35bb 5acf 50bd b2ba 0d3e
000002c0: 554c a63c 335b 573d 1437 733d 3758 f7bd
000002d0: 3d20 cf3d a384 6bbd 6527 bcbd 55a6 6cbd
000002e0: 9fa4 d1bd d3af ef3b 3fe5 813d 5d8d 143e
000002f0: 7b05 173c 5a5e 013e 2e8d d1bd 8b04 45bb
00000300: fd26 9b3c bf99 89bb f4c2 a3bd c6ad e63c
00000310: 8c1d abbd de78 1cbe 685a 413e ad75 bcbc
00000320: 83d4 193e 8a44 303c cfe9 233e c91b d73c
00000330: c089 0bbe 251b 2ebd e0f3 84bd e4ef ca3c
00000340: dd6c 6f3c 6b7e 393d a57f b03d 0ac9 b9bd
00000350: 685e 06be fa94 1e3e c50b fd3b b288 823d
00000360: caa9 8ebd 8c73 d13b 6cb8 c83d 93a6 a33d
00000370: d5c5 563c 31e8 15be 814f 76bc 8a63 2c3d
00000380: 1188 d0bd b7a5 9f3d 9ddb 143c eeff 21bd
00000390: eb06 fd3d e45f c33d 2d09 c5bd 7077 e13d
000003a0: d80a e3bc af25 6b3c 3591 013e c3d9 3e3e
000003b0: 77cf f7bd f3e8 e43c cc62 293e f055 ac3d
000003c0: edf9 d2bd a507 d53d f7ee 5abd 684d 99bb
000003d0: ca9c 8e3d e74d a73d 3cb0 503c 006b 82bd
000003e0: 06e9 9e3d 6f60 c0bc a51f 88be 068a a0bd
000003f0: 9157 d43c 09a1 a5bd 1b02 1bbe 5423 f33d

h.0.mha.W_o.bias f4 [64]
-0.15331139 0.08352924 0.06969029 -0.084407106 0.16860148 -0.0473481 -0.09195404 0.053813223
-0.06782465 0.15500474 -0.091171406 0.0335684 -0.09870277 0.13933183 -0.05584677 0.16523965
0.06520636 0.07472689 0.10906467 -0.0061175693 -0.10609919 0.10177978 -0.0646564 0.054891296
-0.073874675 0.11506075 0.034613874 -0.09116766 -0.09439676 0.12183795 -0.0041437712 0.04448068
0.13742381 -0.13166612 -0.112967774 0.13612458 0.022807486 -0.053766176 -0.15016109 -0.017590065
-0.11449507 -0.05271539 -0.17640515 -0.028941814 -0.13724746 0.06659081 -0.06183245 0.049796075
-0.04967331 0.1081569 0.14013128 0.034908276 -0.05117766 0.018174507 0.013819701 -0.1847912
0.11786571 0.06622116 0.113511115 -0.0049464414 -0.051093146 0.039240927 0.17918365 -0.07307284
00000000: a9fd 1cbe 6111 ab3d c8b9 8e3d a2dd acbd
00000010: dea5 2c3e 15f0 41bd 6652 bcbd 416b 5c3d
00000020: a6e7 8abd 90b9 1e3e 13b8 babd 057f 093d
00000030: ae24 cabd 01ad 0e3e 95bf 64bd 9534 293e
00000040: e98a 853d 690a 993d 4c5d df3d e475 c8bb
00000050: 884a d9bd eb71 d03d 936a 84bd b2d5 603d
00000060: 9b4b 97bd f8a4 eb3d 47c7 0d3d 1cb6 babd
00000070: 1753 c1bd 2d86 f93d 79c8 87bb 6031 363d
00000080: d4b8 0c3e 7cd3 06be a65b e7bd 3e64 0b3e
00000090: c4d6 ba3c ec39 5cbd d4c3 19be 0a19 90bc
000000a0: 647c eabd 18ec 57bd 8da3 34be 6217 edbc
000000b0: 998a 0cbe c360 883d 0644 7dbd f8f6 4b3d
000000c0: 3e76 4bbd 5d81 dd3d 937e 0f3e fbfb 0e3d
000000d0: aa9f 51bd b4e2 943c 076c 623c e839 3dbe
000000e0: 9463 f13d f69e 873d 8478 e83d c215 a2bb
000000f0: 0c47 51bd 18bb 203d eb7b 373e 37a7 95bd

h.0.ln_1.weight f4 [64]
1.0092707 0.97887075 1.0585752 1.1489468 1.0217433 1.0319731 0.9856148 1.0546257
1.0217807 0.9883837 1.0068647 1.0448176 0.99874955 1.0609502 1.0294961 1.0677956
1.023347 1.0385842 0.92525035 0.9895822 1.0107285 0.9125987 0.93609476 1.0793343
0.9314274 0.9658092 1.0250793 0.98017824 0.9793909 0.9465081 0.9428926 1.0601252
0.9889813 0.98571324 0.95108044 1.0706165 1.0539181 0.9835271 1.0256574 0.9913559
1.0052472 1.00363 0.9788429 1.0463108 1.0382318 1.0441961 0.99275154 0.9716061
1.0098186 1.0372306 1.0399885 1.0257565 0.9800621 1.0474851 0.9877604 1.0349135
1.0201957 1.0381174 1.0160908 0.9498764 0.97213084 0.8318179 1.0497963 1.0064981
00000000: c82f 813f 4697 7a3f 647f 873f b010 933f
00000010: 7cc8 823f b217 843f 4051 7c3f fafd 863f
00000020: b6c9 823f b706 7d3f f1e0 803f 95bc 853f
00000030: 0dae 7f3f 37cd 873f 87c6 833f 87ad 883f
00000040: 09fd 823f 54f0 843f 35dd 6c3f 4255 7d3f
00000050: 8d5f 813f 12a0 693f e8a3 6f3f a027 8a3f
00000060: 0772 6e3f 463f 773f cc35 833f f6ec 7a3f
00000070: 5db9 7a3f 5b4e 723f 6961 713f 2fb2 873f
00000080: e12d 7d3f b457 7c3f 027a 733f f609 893f
00000090: cae6 863f 6fc8 7b3f be48 833f 80c9 7d3f
000000a0: f1ab 803f f376 803f 7395 7a3f 83ed 853f
000000b0: c8e4 843f 38a8 853f f724 7e3f 2dbb 783f
000000c0: bc41 813f f9c3 843f 581e 853f fd4b 833f
000000d0: 5ae5 7a3f fe13 863f dedd 7c3f 0c78 843f
000000e0: c695 823f 08e1 843f 430f 823f 1a2b 733f
000000f0: 91dd 783f 05f2 543f ba5f 863f eed4 803f

h.0.ln_1.bias f4 [64]
-0.014368243 0.072506234 -0.098101854 0.0021815447 0.08606205 0.06181686 0.06151668 0.07262546
-0.083146445 0.048326377 -0.09514915 0.020452129 -0.20122667 0.11129056 0.008699379 0.015089473
-0.085810624 0.04006551 0.100783706 -0.089744166 -0.04008006 0.10688426 -0.026546147 -0.08487233
-0.08726249 0.20227456 -0.08153458 -0.015250764 -0.026491195 0.18595353 0.046542235 -0.00900666
-0.0065031433 -0.048275623 0.014138901 0.08410358 -0.015269145 0.08806247 -0.052456606 0.15105215
0.06438234 -0.1383775 -0.07581597 0.10897672 0.019633455 -0.028087012 -0.08606245 -0.0990538
-0.012402937 -0.12044812 0.09382817 0.051311888 -0.13058135 0.019593708 0.09453567 -0.1018962
0.08897065 -0.023867158 -0.09518156 0.01607863 -0.009982965 -0.09456807 -0.102570266 -0.05513601
00000000: c768 6bbc 267e 943d a0e9 c8bd 3ff8 0e3b
00000010: 4d41 b03d ad33 7d3d eaf8 7b3d a8bc 943d
00000020: af48 aabd e1f1 453d 8fdd c2bd 398b a73c
00000030: 5d0e 4ebe 4eec e33d d787 0e3c d639 773c
00000040: 7bbd afbd bb1b 243d b067 ce3d cacb b7bd
00000050: fd2a 24bd 23e6 da3d 4e77 d9bc 8bd1 adbd
00000060: adb6 b2bd 1021 4f3e 9afb a6bd 57de 79bc
00000070: 1004 d9bc 9a6a 3e3e 12a3 3e3d ac90 13bc
00000080: 5218 d5bb a9bc 45bd d9a6 673c 7f3e ac3d
00000090: 702b 7abc 195a b43d bddc 56bd 6aad 1a3e
000000a0: e3da 833d d5b2 0dbe 6745 9bbd 302f df3d
000000b0: 57d6 a03c bc16 e6bc 8341 b0bd b8dc cabd
000000c0: b035 4bbc 81ad f6bd fc28 c03d 6a2c 523d
000000d0: 1eb7 05be fc82 a03c eb9b c13d f4ae d0bd
000000e0: 3f36 b63d 0f85 c3bc 8dee c2bd 55b7 833c
000000f0: 978f 23bc e7ac c1bd 5c10 d2bd 4cd6 61bd

h.0.ln_2.weight f4 [64]
1.0 1.0 1.0 1.0 1.0 1.0 1.0 1.0
1.0 1.0 1.0 1.0 1.0 1.0 1.0 1.0
1.0 1.0 1.0 1.0 1.0 1.0 1.0 1.0
1.0 1.0 1.0 1.0 1.0 1.0 1.0 1.0
1.0 1.0 1.0 1.0 1.0 1.0 1.0 1.0
1.0 1.0 1.0 1.0 1.0 1.0 1.0 1.0
1.0 1.0 1.0 1.0 1.0 1.0 1.0 1.0
1.0 1.0 1.0 1.0 1.0 1.0 1.0 1.0
00000000: 0000 803f 0000 803f 0000 803f 0000 803f
00000010: 0000 803f 0000 803f 0000 803f 0000 803f
00000020: 0000 803f 0000 803f 0000 803f 0000 803f
00000030: 0000 803f 0000 803f 0000 803f 0000 803f
00000040: 0000 803f 0000 803f 0000 803f 0000 803f
00000050: 0000 803f 0000 803f 0000 803f 0000 803f
00000060: 0000 803f 0000 803f 0000 803f 0000 803f
00000070: 0000 803f 0000 803f 0000 803f 0000 803f
00000080: 0000 803f 0000 803f 0000 803f 0000 803f
00000090: 0000 803f 0000 803f 0000 803f 0000 803f
000000a0: 0000 803f 0000 803f 0000 803f 0000 803f
000000b0: 0000 803f 0000 803f 0000 803f 0000 803f
000000c0: 0000 803f 0000 803f 0000 803f 0000 803f
000000d0: 0000 803f 0000 803f 0000 803f 0000 803f
000000e0: 0000 803f 0000 803f 0000 803f 0000 803f
000000f0: 0000 803f 0000 803f 0000 803f 0000 803f

h.0.ln_2.bias f4 [64]
0.0 0.0 0.0 0.0 0.0 0.0 0.0 0.0
0.0 0.0 0.0 0.0 0.0 0.0 0.0 0.0
0.0 0.0 0.0 0.0 0.0 0.0 0.0 0.0
0.0 0.0 0.0 0.0 0.0 0.0 0.0 0.0
0.0 0.0 0.0 0.0 0.0 0.0 0.0 0.0
0.0 0.0 0.0 0.0 0.0 0.0 0.0 0.0
0.0 0.0 0.0 0.0 0.0 0.0 0.0 0.0
0.0 0.0 0.0 0.0 0.0 0.0 0.0 0.0
00000000: 0000 0000 0000 0000 0000 0000 0000 0000
00000010: 0000 0000 0000 0000 0000 0000 0000 0000
00000020: 0000 0000 0000 0000 0000 0000 0000 0000
00000030: 0000 0000 0000 0000 0000 0000 0000 0000
00000040: 0000 0000 0000 0000 0000 0000 0000 0000
00000050: 0000 0000 0000 0000 0000 0000 0000 0000
00000060: 0000 0000 0000 0000 0000 0000 0000 0000
00000070: 0000 0000 0000 0000 0000 0000 0000 0000
00000080: 0000 0000 0000 0000 0000 0000 0000 0000
00000090: 0000 0000 0000 0000 0000 0000 0000 0000
000000a0: 0000 0000 0000 0000 0000 0000 0000 0000
000000b0: 0000 0000 0000 0000 0000 0000 0000 0000
000000c0: 0000 0000 0000 0000 0000 0000 0000 0000
000000d0: 0000 0000 0000 0000 0000 0000 0000 0000
000000e0: 0000 0000 0000 0000 0000 0000 0000 0000
000000f0: 0000 0000 0000 0000 0000 0000 0000 0000

h.1.mha.W_q.weight f4 [64, 64]
-0.0061609764 0.021274282 0.030826695 -0.02536416 -0.033049397 -0.06470275 0.12589242 0.11827775
-0.06816797 0.02401789 0.0147283105 0.018721214 0.015775928 -0.03819844 0.029002203 0.109652385
-0.09635465 -0.07473203 -0.004493835 -0.06913807 0.013860111 0.059902668 0.061737254 -0.11366667
0.044615313 -0.10471101 0.09898159 0.030783778 -0.12263005 0.04338476 -0.003848822 -0.0013738777
0.008954475 -0.08649094 -0.051939413 0.010140659 -0.0568429 -0.0069118277 -0.07963918 -0.036795802
0.020240936 0.0034414164 0.028497403 0.024664111 -0.024551008 -0.051886756 -0.020750467 0.050722804
-0.07563993 -0.046006974 0.060927365 0.059811942 -0.026113652 0.007575869 0.15783502 -0.10811444
-0.13672079 -0.076720655 -0.09260662 0.046356197 0.0894368 0.010752336 0.09425281 -0.1586022
0.038223866 0.12979189 0.0832774 -0.03462714 -0.09241081 -0.102981746 -0.013347503 -0.05594799
0.030983908 -0.037215732 0.04177271 -0.0037249953 -0.09282202 0.018973699 -0.12393462 -0.05450294
0.021225333 0.022969332 0.0029873832 -0.094382145 0.08559362 -0.036082376 0.067682214 -0.05410013
0.032761246 0.15964662 -0.10431551 0.014438023 -0.05960638 -0.06250612 -0.13332674 0.0020975491
-0.00059324154 0.1099316 0.106450886 0.0002956004 -0.086367294 -0.04217544 0.0028928707 -0.14582887
0.011380498 0.06952154 0.061740883 0.04345043 0.074670084 -0.0349026 -0.09213337 0.103911035
-0.037369873 -0.043924455 -0.008654317 0.0026383055 0.0069182124 -0.124279104 -0.011169343 0.0452033
0.087809645 -0.044508792 0.0009840771 0.034307614 -0.012389221 -0.035812274 0.078748114 0.074604176
0.12821256 0.0060354755 0.022220494 0.06710205 -0.061304074 -0.07536684 -0.02875781 0.02324769
-0.01818616 -0.090675645 0.07758724 0.09324982 0.12120191 0.013844978 0.0050896173 -0.058276407
0.124821305 -0.0023421398 0.033379838 -0.083879076 -0.04358955 0.055058096 -0.0122845825 -0.056962807
-0.10283782 0.0892975 -0.029529022 0.048391227 -0.0947752 0.049551636 -0.028060695 -0.0313838
-0.035823457 0.02820815 -0.008270707 0.04689889 0.026458625 -0.072917275 -0.09753332 -0.09708611
0.029228322 -0.044719886 -0.00014170105 0.10960338 0.0047490653 0.12519142 0.0126813315 0.051959794
0.08297794 -0.0034942238 0.0037301444 -0.0034189515 -0.009791542 0.043275964 -0.048000593 0.06596343
0.021853697 -0.09006503 0.025971849 -0.017577194 0.025810612 -0.078458294 0.14065696 -0.08620322
-0.061421644 -0.12217248 -0.057646643 0.081493095 0.08059405 -0.10385912 -0.011037423 -0.018311486
-0.059037738 0.0299783 0.01464342 -0.08566713 0.033148844 -0.04389948 0.07096846 0.090661325
-0.10578964 -0.07117848 -0.040837005 -0.16190891 0.017847452 -0.04332532 0.007213706 0.009067198
0.07781072 -0.025545556 -0.04806018 -0.10105205 0.0063225385 -0.05220793 -0.014104683 -0.06820483
0.05801545 0.031508584 0.08354081 0.012097186 0.03984013 0.07345545 0.029302495 0.0648738
0.12153313 -0.05887943 -0.04744934 -0.15815064 0.0378061 0.116532676 0.051737756 0.0799231
-0.12797058 0.06434109 0.027811352 -0.0033362515 -0.03229626 -0.103520975 -0.09196765 -0.09699615
0.030291356 0.1489726 0.05731291 0.0009817473 -0.036248714 0.035630908 -0.01295186 -0.015499473
00000000: 04e2 c9bb 6747 ae3c 4488 fc3c 80c8 cfbc
00000010: ce5e 07bd e082 84bd f1e9 003e 9b3b f23d
00000020: a69b 8bbd 2bc1 c43c 034f 713c 3b5d 993c
00000030: 853c 813c f875 1cbd 0796 ed3c 6e91 e03d
00000040: 9655 c5bd 1b0d 99bd 0541 93bb 4398 8dbd
00000050: 8515 633c 805c 753d 34e0 7c3d 12ca e8bd
00000060: 8cbe 363d ba72 d6bd dcb6 ca3d 432e fc3c
00000070: 7725 fbbd 38b4 313d 853c 7cbb b013 b4ba
00000080: cab5 123c 2922 b1bd 6cbe 54bd 0225 263c
00000090: 1ad4 68bd 9d7c e2bb de19 a3bd 32b7 16bd
000000a0: 52d0 a53c 6389 613b 6373 e93c 640c ca3c
000000b0: 321f c9bc 3587 54bd e2fc a9bc b7c2 4f3d
000000c0: 1ce9 9abd cf71 3cbd f98e 793d 5efd 743d
000000d0: 4cec d5bc ff3e f83b 819f 213e 1b6b ddbd
000000e0: 8900 0cbe b81f 9dbd 8aa8 bdbd ffdf 3d3d
000000f0: a42a b73d 912a 303c 9e07 c13d 9d68 22be
00000100: a190 1c3d 2ae8 043e 578d aa3d 30d5 0dbd
00000110: e141 bdbd 18e8 d2bd 7caf 5abc b829 65bd
00000120: f7d1 fd3c 866f 18bd dc19 2b3d 0d1f 74bb
00000130: 7919 bebd bb6e 9b3c 6fd1 fdbd 7a3e 5fbd
00000140: c0e0 ad3c 2e2a bc3c f9c7 433b 6d4b c1bd
00000150: b54b af3d 1dcb 13bd f99c 8a3d 1998 5dbd
00000160: a830 063d 677a 233e 5fa3 d5bd 758d 6c3c
00000170: d225 74bd 3503 80bd ce86 08be 0977 093b
00000180: c483 1bba d223 e13d ec02 da3d d0fa 9a39
00000190: 56e1 b0bd 27c0 2cbd 5196 3d3b 2a54 15be
000001a0: 4575 3a3c 4f61 8e3d 02e4 7c3d 14f9 313d
000001b0: a1ec 983d 07f6 0ebd 6cb0 bcbd 4fcf d43d
000001c0: 2711 19bd 21ea 33bd d6ca 0dbc 6ce7 2c3b
000001d0: 2cb2 e23b 0b86 febd 9fff 36bc 1827 393d
000001e0: 8bd5 b33d da4e 36bd 26fc 803a 2486 0c3d
000001f0: 29fc 4abc e4af 12bd b146 a13d 13ca 983d
00000200: 274a 033e 3dc5 c53b c107 b63c cd6c 893d
00000210: fb19 7bbd ee59 9abd 8095 ebbc f171 be3c
00000220: 24fb 94bc 27b4 b9bd 0fe6 9e3d c3f9 be3d
00000230: b538 f83d 0cd6 623c cec6 a63b 3eb3 6ebd
00000240: 50a2 ff3d 967e 19bb 4cb9 083d cbc8 abbd
00000250: f58a 32bd 9984 613d 4645 49bc d551 69bd
00000260: a39c d2bd 9ce1 b63d d9e6 f1bc e135 463d
00000270: 8019 c2bd a8f6 4a3d 8bdf e5bc 4d8c 00bd
00000280: 9ebb 12bd c714 e73c dc81 07bc 0d19 403d
00000290: c2bf d83c a755 95bd 8dbf c7bd 15d5 c6bd
000002a0: 3c70 ef3c 332c 37bd 9695 14b9 bd77 e03d
000002b0: 0c9e 9b3b 2e32 003e 5cc5 4f3c cbd3 543d
000002c0: 57f0 a93d 59ff 64bb 7075 743b 7d10 60bb
000002d0: b46c 20bc 2342 313d 459c 44bd d617 873d
000002e0: 8606 b33c 0474 b8bd eac2 d43c 0cfe 8fbc
000002f0: c770 d33c beae a0bd 6108 103e 508b b0bd
00000300: 4395 7bbd 9135 fabd e31e 6cbd dae5 a63d
00000310: 7e0e a53d 17b4 d4bd 4fd6 34bc f801 96bc
00000320: 8ed1 71bd 0d95 f53c f5ea 6f3c 4072 afbd
00000330: 15c7 073d f1cf 33bd e957 913d a5ac b93d
00000340: 3da8 d8bd 06c6 91bd b444 27bd 73cb 25be
00000350: d234 923c e475 31bd f460 ec3b 968e 143c
00000360: 3a5b 9f3d ea44 d1bc c0da 44bd 61f4 cebd
00000370: 4c2d cf3b fbd7 55bd 5417 67bc f9ae 8bbd
00000380: 9ca1 6d3d 250f 013d 7217 ab3d 4733 463c
00000390: 672f 233d d06f 963d c90b f03c 8edc 843d
000003a0: 5de6 f83d 8f2b 71bd 3d5a 42bd 3ef2 21be
000003b0: 92da 1a3d afa8 ee3d f8ea 533d b9ae a33d
000003c0: b80a 03be 43c5 833d a2d4 e33c 03a5 5abb
000003d0: 1549 04bd ce02 d4bd 8959 bcbd eba5 c6bd
000003e0: 9425 f83c 468c 183e f1c0 6a3d f9ad 803a
000003f0: 8879 14bd b7f1 113d 0a34 54bc 80f1 7dbc
