subspace-alignment/data/2_layer_64_vocab/ckpt_13200.pt (torch, 178594 bytes, 29 tensors)

embed.embed.weight f4 [64, 64]
00000000: 9098 d0be 84a9 a33f e6c4 ba3e 578e de3e
00000010: b5cb 0e3e 2ddd 9cbe b807 febf b82a 8a3d
00000020: b4d0 f7be 8cd4 583e 386e adbf 6010 1f3f
00000030: fe7a c7be 10c5 64bf cb3e 233f f206 373e
00000040: d32e 043e 55d0 473e 984b f83d 8a12 46bf
00000050: f93d acbe de28 f03f 2e1d b53f df93 97bf
00000060: a023 c9bf 1b94 db3f fc00 6ebf e019 fb3f
00000070: 7bf0 443f 3f50 123f 8d05 d1be 46ed aa3e
00000080: d708 913f ef02 79bf 8f59 543e 00c0 8abf
00000090: 25b0 84bf 5e0a a33e 17b2 8ebf b019 433f
000000a0: 20c0 bdbf d3f9 89bf b55d d23e 4ba0 ee3e
000000b0: dc95 9e3f 439b 8c3f 587a fbbe 4cf0 b7be
000000c0: d2e3 febe 49e8 a2bf e828 aabd 8839 d6be
000000d0: 8561 583e 3fe2 763f eb66 a2bd 7f72 58bf
000000e0: 0cae da3e 425e 84be 79a5 5ebf fe40 a8bf
000000f0: 1529 be3e 7cac c3be 69f8 27be ad9d 403f
00000100: 985b 883e 9137 8fbf 97c5 aebf 0314 8ebd
00000110: a9e0 f33f b094 a4bf 615f d7be 449e 04bf
00000120: 3f1c 983e b6ac 63bd 1e94 f1be d22d dd3d
00000130: 3a35 983e e1ec 0e3f 7917 7a3e 5f65 463e
00000140: c705 613f 6993 17bf 4998 053f 5619 483e
00000150: 257f d23e 5671 edbe 7abf d03f d901 c03e
00000160: 51d2 e0bd 0521 8b3f b556 b1bf 1700 223e
00000170: 3de4 f8bf e95c f23f 4020 943d 08f6 0ebf
00000180: 42fc 6bbf 70d7 7fbf 1827 0f3f d9a4 f4bc
00000190: c481 be3f 267e 403f e3d8 ac3f 7061 023f
000001a0: aa54 06bf 0522 76be e821 873f 78fb c83e
000001b0: f3e9 f4be b6bc 163e 16ab 66bf e3f5 bebf
000001c0: 88ff ab3d f0f8 31bf 9e1b e23f f39a f1bd
000001d0: 912c 1bbe 4ea1 6bbe 5f5b 2c3d 70b0 2cbf
000001e0: d9df 92bd 4db4 eabe 2360 28bf a8e9 0d3e
000001f0: e14e f03e 01d8 21c0 0ca8 30be 4be1 fa3d
00000200: f5d4 9e3f 0255 6e3f 4f91 a5be 31f4 fc3b
00000210: dc6d aebe 6d6d 2e3f cfaa 4ebf 40a1 b5bf
00000220: 888b 1a3f d5b5 97be 43fe 21be 2ad3 60bf
00000230: c98e d4be ec57 363f 1481 af3e a36e e8bd
00000240: 8118 f3be cedf 9bbf a919 9bbf 263b 33bf
00000250: 7204 2f3d ea73 a93f 2107 8ebf e4ae a3be
00000260: a49f db3d ff24 063f 0174 55be a1d4 33bd
00000270: 8bf3 36bf d809 cc3f c4bb 7e3f 3671 003f
00000280: 1b09 87bf b5db fd3e bfae b63e 13a3 593f
00000290: 8dbe 90bf 1274 dcbf 97f0 a7be 2976 1540
000002a0: de4f f9be dddf 87bf caf3 083e 645c ec3d
000002b0: cd13 6138 bac7 34bf f661 6e3f c6b4 bcbe
000002c0: a99e a7be 4995 14bf da17 2140 b20b cabe
000002d0: 3f10 463e c44a 11bf adcd cabf 12cf 24bf
000002e0: 1a55 263f 93bf 1fbc 07f8 c1be 3d8f f73e
000002f0: ff94 21c0 fcf7 813e 8a63 533e 313a f63e
00000300: b979 a3bf 86cf 693f 7fb8 6bbe f3e5 203d
00000310: 9a0f b3bf a416 f0be 7353 973f 171a 853e
00000320: 7186 9dbf a52f 4fbf b908 99bf 9182 6bbf
00000330: 0187 1ac0 17c4 1440 d007 3fbf 00a9 1d3f
00000340: 277c 2a3f e424 c8be 12ca 0d3f dac1 9e3d
00000350: b4f3 923e 85cb 3fbf 8fc6 7abf 6959 0d3f
00000360: 823f cebf e09a d53f 8ed9 443e fa29 c93e
00000370: 5c6f 303e eeda 233e 175b d7bd 8cae 693f
00000380: 17b5 103f baa6 493f 25a6 16bf 8132 61bf
00000390: 1ffc bdbd f4a9 1fbf cae2 aa3e 70a4 5e3f
000003a0: 1761 953f aa76 753b a059 90bf 9da5 443f
000003b0: 3aac 373f 8d3e a63f 2376 3e3f 99b3 5d3f
000003c0: ef95 103f 737f 29bf b3b3 773f 5aa7 1fbd
000003d0: bbe0 a9bf 81de 8b3f a180 b33e 7979 12bf
000003e0: d079 d33e b562 2e3f e3f5 afbf 9873 75be
000003f0: 7db7 123e 3214 55bf 9c0d fdbe e0ff 893b
-0.40741396 1.2786107 0.36478347 0.43467972 0.13944896 -0.30637494 -1.9846106 0.06746429
-0.48401415 0.2117483 -1.3549261 0.6213436 -0.38961023 -0.89363194 0.6376769 0.17873743
0.12908487 0.19513066 0.12123793 -0.7737204 -0.3364103 1.8762472 1.414953 -1.1842002
-1.5713997 1.7154573 -0.9297025 1.9617271 0.76929444 0.57153696 -0.40824547 0.3338415
1.1330823 -0.972701 0.20737289 -1.0839844 -1.0366255 0.31843847 -1.1148099 0.7621107
-1.4824257 -1.0779365 0.41087118 0.4660667 1.2389483 1.0984882 -0.49116778 -0.3592552
-0.49783188 -1.2727138 -0.083085835 -0.41840768 0.21130951 0.96438974 -0.07929786 -0.8454971
0.42710912 -0.25853163 -0.8697124 -1.3144834 0.37140718 -0.38217533 -0.16403355 0.75240594
0.2663238 -1.1188833 -1.365405 -0.06937411 1.9052936 -1.2857876 -0.42064956 -0.51803994
0.2970905 -0.05558463 -0.47183317 0.10799755 0.2972811 0.558302 0.24423017 0.19374608
0.8789944 -0.59209305 0.52185494 0.19540915 0.4111263 -0.4637553 1.6308434 0.3750141
-0.10977615 1.0869452 -1.3854586 0.15820347 -1.9444653 1.8934604 0.07232714 -0.55844164
-0.9218179 -0.99938107 0.5591903 -0.029863762 1.4883351 0.7519249 1.3503689 0.5092993
-0.5247294 -0.24036415 1.0557222 0.39254355 -0.4783474 0.14720425 -0.90104806 -1.4918789
0.08398348 -0.69520473 1.7664678 -0.11797132 -0.1515372 -0.23010752 0.042079326 -0.6745672
-0.07171602 -0.45840684 -0.65771693 0.13858664 0.4693518 -2.5288088 -0.17251605 0.122500025
1.2408739 0.9309846 -0.32337424 0.0077195396 -0.3406819 0.6813572 -0.80729383 -1.4189835
0.6036916 -0.29630914 -0.1581965 -0.8782221 -0.41515186 0.7122791 0.34278166 -0.11349227
-0.47479632 -1.2177675 -1.2117206 -0.7001213 0.04272885 1.3238499 -1.1095926 -0.31969368
0.107238084 0.524002 -0.20845033 -0.04390395 -0.7146537 1.5940504 0.9950526 0.50172746
-1.0549654 0.49581686 0.35680196 0.85014457 -1.1308151 -1.7222922 -0.32800743 2.335337
-0.48693746 -1.0615193 0.13374248 0.115410596 5.366262e-05 -0.7061726 0.93118227 -0.3685667
-0.32738236 -0.5804029 2.5170808 -0.39462048 0.19342135 -0.5675471 -1.5844017 -0.64378464
0.64973605 -0.009750265 -0.37884542 0.4835147 -2.524719 0.2538451 0.2064344 0.48091272
-1.2771522 0.9133228 -0.23019598 0.039281797 -1.3989136 -0.46892273 1.1822342 0.25996467
-1.2306653 -0.80932075 -1.1955787 -0.91996104 -2.41449 2.3244684 -0.74621296 0.61586
0.6659569 -0.39090645 0.5538646 0.07751818 0.28701556 -0.7491992 -0.97959226 0.55214554
-1.6113131 1.6687889 0.19223616 0.39289838 0.1722998 0.16001484 -0.10515421 0.9128196
0.5652632 0.7877003 -0.58847266 -0.8796769 -0.09276604 -0.623687 0.3337615 0.8696966
1.1670254 0.0037454762 -1.1277351 0.76815206 0.7174717 1.2987839 0.7439901 0.8660217
0.5647878 -0.662101 0.96758574 -0.03897796 -1.3271707 1.0927278 0.35059074 -0.572166
0.41303873 0.68119365 -1.3746914 -0.23969877 0.14327808 -0.8323394 -0.49424446 0.004211411

h.0.mha.W_q.weight f4 [64, 64]
00000000: dcf0 0fbc 64c8 74be dbe9 3e3e 9102 9dbc
00000010: c0db fdbd 9995 2cba cc0f ed3d 705c 793d
00000020: 397d 8f3e b373 de3d ac4e 353e 841b 833c
00000030: 49ac 423e 4419 51be ec76 33bd 64b2 88bd
00000040: 761f 013e 0854 09be c70e 0abe 6371 b23d
00000050: a042 073e 7f43 07be 7e7d 8a3d 7993 313e
00000060: 1ede 1b3e 9017 5abe c912 5d3e ab6a 5dbd
00000070: 42fa 4b3e f5ac 61be a1b5 9b3c 424b fd3b
00000080: ae0e 933d cee0 bc3d af8e 79bc 9abe 27be
00000090: f7ff 6abd a037 debd 38a2 be3d ab9e 34be
000000a0: 5581 84bd 71bb 5d3e 06ee 0e3d 48bb 6fbe
000000b0: 18aa 953d dca3 4c3d 6949 863d 8a3d 8a3d
000000c0: ff66 c53c 76de d93d 17d0 63bd e9d1 d3bd
000000d0: ceb5 d03d 3aa7 37bc a772 53bd 45c6 3b3e
000000e0: 0bea c1bd f221 babd 4d5b 1e3e 4ec4 70bd
000000f0: 4211 c43d 6e4b 843d b914 e83d c1ec 6e3d
00000100: ad7f 3d3c 372b 173e 9446 53be 319e 763d
00000110: bf0c 363e 50db 203e dd31 0e3d b907 d1b8
00000120: 9742 11be efea c93d 5f2f 86bd b52f d6bc
00000130: 65e5 7dbe 919c 5f3e c2d9 2dbd cdd5 ecbd
00000140: 283f d2bd d683 5b3e e012 ad3d 36af e6bd
00000150: 8659 b3bd b45e bd3d de3e f1bc 2c0f 7fbe
00000160: 18da 6abd 5a51 943d 0ec2 75be 272a a8bb
00000170: 6a54 babd a0bc 093e def0 193d 7830 cfbd
00000180: 146e f8bc dcd3 7b3d c83d d33d 2df7 1c3e
00000190: 080c 96bc 2845 083e 3aad fbbd 2739 8a3d
000001a0: ee50 d43d 4e20 72be 53b1 a1bd 52bb 673e
000001b0: f619 19be abc0 3fbd 4275 6dbe 5551 853c
000001c0: 07ec ee3d 5f6a b93c 0e7a 10bc 6920 853e
000001d0: 9f6d 55bd 8d8c 1e3d 13a3 bfbc e627 0bbe
000001e0: fff3 0a3e 9760 083c 0a62 b1bd f41b 953d
000001f0: fcf2 1cbd 927d 863d c586 ebbd a900 2cbe
00000200: 4361 66bd 8263 133e bc57 91be 94b5 0e3d
00000210: befe a43d caec a43d 195a 91bd 598c 1d3d
00000220: 319b bfbd e70f dabc af9a 16be 45ff 2dbd
00000230: fa6f 3fbe b59c 3b3e c049 2abd 8a27 5fbd
00000240: 2535 3dbe 4900 623e 5b09 fd3d ab95 94bc
00000250: 7825 07be 1d8c 343e 52b2 34be 8c23 1abe
00000260: 8248 fbbb cbfe d13d 43ff 87be 5c39 763c
00000270: 41fb d2bd 839b 663d c63b c63c cb8a fabc
00000280: c94d 93bb 6ed3 adbd 07cf 1f3d cba1 573e
00000290: de43 02bd f2fb b33d efeb 3fbd d2a7 373d
000002a0: 2d50 3d3d d14e fcbd 3b99 b8bd 556f 7a3e
000002b0: e99f c8bd 5cb7 a2bd c3fe bebd 63d0 69bd
000002c0: 2486 063d 6d89 583c 6caf 7a3d a4f0 1d3e
000002d0: 9937 01bd c653 e739 011e 9abc e1ba 47be
000002e0: aada 1b3e 6e7e 1b3d de62 8cbd bc75 f63c
000002f0: 1b70 f4bc 8a16 45bd 6304 ccbd afd0 9bbd
00000300: f3a6 7abc d9bb 283e 90c0 263b 63bd 483d
00000310: d837 333e 30a5 ed3d 5b52 d1bd a405 e0bc
00000320: f535 2bbe 6ef7 25bd 587c 08bd af76 2a3d
00000330: a8d1 41be 0f34 513e 1c4d 943d 41c4 edbc
00000340: 993a c9bd e085 bf3d 5f81 743d 291a 36bd
00000350: 2610 abbd fecf 313e 902a 8e3b 8653 d4bd
00000360: 2826 bdbd 722c c43d 8cfe 57bd 1161 1a3b
00000370: 3fca 01be fb2a 473d b61b 1f3e 9040 f2bc
00000380: d4f7 fb3b c7b1 6e3c 7888 91bc 25c6 6a3e
00000390: 26e1 383d 3935 ff3d bdaf 55bc 9274 b03d
000003a0: 1473 e33d f909 9abd 8f51 23bd 3cf0 7b3d
000003b0: ae8e b8bd ba33 46bd 0d1e cabd c24d efbc
000003c0: ba7f 0fbb 4218 5e3d bfba fabd 2fac 243e
000003d0: a141 c3bc 6e9f 783c f124 843d abc9 e2bc
000003e0: 2d8b 8e3d 7ccc fc3d 57d8 e5bb ac20 b23d
000003f0: 4401 243d e1b9 19bc c19e 29bd c257 3d3d
-0.008785453 -0.23904568 0.18643896 -0.019166263 -0.123954296 -0.0006583571 0.11575279 0.06087917
0.28025225 0.108619116 0.17705792 0.016004331 0.19011034 -0.20419794 -0.043814585 -0.0667465
0.12609658 -0.13410962 -0.134822 0.08713033 0.13209009 -0.13209341 0.06762217 0.17341413
0.1522145 -0.21298051 0.21589197 -0.054056805 0.19919685 -0.22038634 0.019007506 0.0077299187
0.07180534 0.092225656 -0.015231772 -0.16381302 -0.057373013 -0.108504534 0.093082845 -0.17638652
-0.064699806 0.21653534 0.034894966 -0.23411286 0.073078334 0.049960956 0.065569706 0.06750019
0.024096964 0.10638134 -0.05561837 -0.103427716 0.101909265 -0.0112093035 -0.051623013 0.18337353
-0.09468468 -0.09088506 0.15464516 -0.05878096 0.09573604 0.064596996 0.113320775 0.058331255
0.011566085 0.14762579 -0.20632392 0.060209457 0.177783 0.15708661 0.034715522 -9.967335e-05
-0.14185558 0.09859263 -0.06552004 -0.026145795 -0.24794538 0.21837069 -0.042444 -0.11564217
-0.10265952 0.2143701 0.08450866 -0.112638876 -0.087573096 0.09246579 -0.029448923 -0.24908131
-0.057336897 0.07242079 -0.23999807 -0.005131978 -0.09098132 0.13450861 0.037583224 -0.101166666
-0.030325927 0.06148134 0.10314518 0.15328665 -0.018316284 0.13307631 -0.122889 0.06749182
0.103669986 -0.23645136 -0.0789515 0.22630051 -0.1495131 -0.046814602 -0.23189262 0.016274134
0.116661124 0.02263373 -0.008818163 0.2600129 -0.052106496 0.03870826 -0.02339319 -0.13589439
0.1356964 0.00832381 -0.086612776 0.07280722 -0.038317665 0.065669194 -0.115003146 -0.16797127
-0.0562451 0.14393428 -0.2838725 0.034841135 0.08056401 0.080529764 -0.07097263 0.038463924
-0.09355772 -0.026618911 -0.14707445 -0.042479772 -0.1869506 0.18321498 -0.04157424 -0.054481067
-0.18477304 0.22070421 0.123553 -0.018137773 -0.13197887 0.17631574 -0.17646149 -0.15052623
-0.0076685557 0.10253676 -0.26561937 0.015028324 -0.10301829 0.05630065 0.024198424 -0.03058376
-0.0044953567 -0.08487593 0.039015796 0.21057813 -0.031803004 0.08788289 -0.046855863 0.04483778
0.04621904 -0.123197205 -0.090136014 0.24456532 -0.097961254 -0.07945129 -0.09325936 -0.0570835
0.03284277 0.013216359 0.06120245 0.15423828 -0.031547163 0.0004412217 -0.018813135 -0.19504882
0.15220132 0.03796237 -0.06854795 0.030085437 -0.029838612 -0.048117198 -0.09961774 -0.076081626
-0.015298593 0.16477908 0.0025444366 0.04900874 0.17501771 0.11603773 -0.10220786 -0.02734644
-0.16719802 -0.04051917 -0.03332171 0.04161709 -0.18927634 0.20430015 0.0724127 -0.029024245
-0.0982563 0.093517065 0.05969369 -0.044458542 -0.083526894 0.17364499 0.00433857 -0.10367493
-0.09235793 0.0957879 -0.05273299 0.0023556391 -0.12674807 0.048624974 0.15537915 -0.029571801
0.0076894555 0.014568753 -0.017765269 0.22927149 0.045136593 0.12461323 -0.013042388 0.08615984
0.11105934 -0.075214334 -0.039872702 0.061508402 -0.09011589 -0.048389174 -0.09869013 -0.029211883
-0.00218962 0.054222353 -0.1224265 0.16081308 -0.023835005 0.01517473 0.064523585 -0.027684053
0.069601394 0.1234369 -0.007014315 0.08697638 0.04004027 -0.009382696 -0.041411165 0.04622627

h.0.mha.W_q.bias f4 [64]
00000000: b96e 48be 56bd 0f3f aa13 013f 9973 a03e
00000010: 1376 533e b145 183f 9573 59be 1af8 dc3e
00000020: a745 24bf 7dc7 abbe 973e 203e 545e 353e
00000030: 9d79 4b3d 1ef1 203f 9d84 903e 5375 dcbd
00000040: 646d 593e ad2f ed3e 0286 35bd 1b31 b33e
00000050: c386 9bbe 0ef6 1d3e 9369 c6bd bf25 81be
00000060: 5c8c aebd 0ae3 4f3d 51da 1b3d 53ea 0cbe
00000070: 3ce0 033c 886c c1bd 9be1 793d 28b0 253e
00000080: 9776 c7bd b2ad 7bbc 695e 41bc 4d85 c23c
00000090: 8c66 1a3d 9aa6 c3bc 2116 abbd 022c d6bc
000000a0: 81d5 bc3d 8411 bbbb ce4b cf3d 041b e13b
000000b0: 2211 803d 5f01 603d 737b c83d a57b 9b3d
000000c0: 5f35 7dbc daee 9c3d c8a0 003e 13f7 313d
000000d0: 995e 0abd 6335 08bd 0a70 edbc eecd 45bd
000000e0: 080c 273e d40e 5d3c 3d68 bcba d543 153d
000000f0: ffb0 403d 1a68 3c3d b4aa f63d 280c d7bd
-0.19573487 0.5614828 0.5042063 0.31338194 0.2065051 0.5948134 -0.21235497 0.43158036
-0.6416878 -0.33550635 0.15648876 0.17711765 0.049676526 0.62867916 0.28226176 -0.10764565
0.21233135 0.46325436 -0.044317253 0.34998402 -0.30376253 0.15425894 -0.096881054 -0.2522411
-0.08522865 0.05075363 0.03805 -0.13761263 0.008049067 -0.09444529 0.06100617 0.1618048
-0.09739416 -0.015361236 -0.011802294 0.023745203 0.037695453 -0.023883153 -0.0835383 -0.026144031
0.0922041 -0.005708875 0.101218805 0.0068696756 0.06253268 0.054688808 0.09789171 0.07591943
-0.015454619 0.07662745 0.12561333 0.04344852 -0.03378162 -0.03325404 -0.028984088 -0.048292093
0.16313183 0.013492305 -0.0014374327 0.036441643 0.047043797 0.045997716 0.12044278 -0.105003655

h.0.mha.W_k.weight f4 [64, 64]
00000000: aec7 ef3c acfe 4abd 46ff 293d 845f 9ebd
00000010: 3be3 6cbd c638 8abd f7fa b7bc 1504 ed3d
00000020: 6f34 973d dd3a 85bc cb50 74bc 651d 3e3d
00000030: b33d a93c dd59 96bd 84ab de3c c0e0 2d3d
00000040: b454 9b3a 3d7d df38 8c96 3e3d c15c 413d
00000050: 2bbd 2bbd 50c3 abbd 3453 523d 6874 d53c
00000060: e44b 2f3d 0bfc eebd 1bb2 a43d df41 b33c
00000070: ebb0 973c f844 2dbc 6549 0bbd 0342 7c3d
00000080: d9be 553b 9926 45bb 3e1d 083d 281d 8dba
00000090: 3c30 ccbb 4824 2e3c d861 0b3c 842c 983d
000000a0: 0c05 b03d d0ab e43c 4c0c 553b 51ba 64bd
000000b0: 595a 943b 24ed 01bc a44b 593d 8818 633d
000000c0: b68c 13bc ad1b efb9 ae83 8cbd 71f4 94bd
000000d0: 397a d03d efe4 48bc 8a01 a2bc ef64 4a3d
000000e0: b13a 813b 42e3 76bd 7339 62bc 73d7 debc
000000f0: 164a 57bc a291 5fbd 42df 303d b467 453d
00000100: 9545 38bd 15d2 543e 9f66 6fbe 5b93 073d
00000110: e365 5c3e 6718 0c3e a6aa 31bd 525d acbc
00000120: 7b79 53be ce45 cabd b9c5 1ebe 9900 273b
00000130: 6434 abbe 87fb 993e 2341 9fbc c1b1 1fbe
00000140: 37c2 07be c2a6 393e 6357 fa3d 1a78 62bd
00000150: 0f2e 31be d2b9 823e 28be 97bd feb3 5fbe
00000160: 1acd 32be 8fd2 8e3e 50e2 9cbe 699c 02bd
00000170: 3fb9 1bbe 7481 403e 46cb 79bd 5586 2fbc
00000180: 6b2e cfbb ac73 f3bd 0726 a53d 83bd 453e
00000190: 41ef cbbc 6cb8 833d 8b94 c5bd a5e0 4f3e
000001a0: ae4d 8d3b 041f 8ebe d6c9 ffbd ae9e 6c3e
000001b0: b831 dcbd 151f c6bd 1f4f 5ebe 85c2 24be
000001c0: e561 e33c 4872 64be 3425 1f3e 1722 a53e
000001d0: 0417 11be 1d86 bd3d 47d8 8abd 5162 99be
000001e0: 6891 963e 998d 613d e183 7abe a3aa ad3d
000001f0: d34c 01be 407c 50be ee76 08be f5c8 d0bd
00000200: 8e78 303c 4bbb 1bbe f8f5 123e 22c5 b43c
00000210: 9146 b8bd cfcd 9ebd 3a1c b63c c2c4 093c
00000220: 1688 1f3e f51c 9fbc 693c 233e def4 2e3d
00000230: 37f3 e13d 8883 39be eec1 c93c faee 023d
00000240: 34dc 993d 6b8a 0abe 4b88 81bd 3197 923d
00000250: b23f 293e f319 34be 48b3 553b 955a 323e
00000260: de18 763d c13c c0bd 6f9a 253e e464 663d
00000270: 3dea f33d 321b 26be fc7e 213d 08c6 e03b
00000280: ee1e 363d f0b5 d83c d444 a2bc b5aa 28be
00000290: 951b 85bc 842b cdbc d2ce 673d f13b aabd
000002a0: a4ae 463c 2ccf de3d 7f1e e13d 4e80 5cbe
000002b0: 5dd5 a83d 5d87 073d 0900 043e ae07 0b3e
000002c0: f761 d5bd 37f6 023e 9141 1cbd a7a9 59be
000002d0: 8548 8c3d 0b9a 85bd a3e8 2e3d 6a06 083e
000002e0: a924 34be 76d9 19be 117d f33d b60a 133d
000002f0: 27dd 713d 0ec7 cc3d bb8f c03c 3ea2 d83d
00000300: 135b 00be 2fe5 9b3d 767f cdbd a6c1 ca3c
00000310: 7f21 453e caf6 7c3c e305 38bd de98 d9bd
00000320: 8584 bdbd 4a55 8dbd 7c3c dcbd ae1c 44bd
00000330: bf9d a0be eed0 293e 985b 103d 6afa 483d
00000340: 0ef0 c7bd ba13 0f3e 9fb7 1a3e 27ca 2e3d
00000350: e955 4bbd fde9 393e 9093 08bd bdee d0bd
00000360: 3ebb 3cbd 9163 a03d a413 2dbe 0508 f93c
00000370: 51e6 d2bb c04d 4a3e 0145 18bc fd37 983d
00000380: 76db e5bc 80c1 04be 444f 9d3d 446d 0d3e
00000390: 37d8 3a3d 5a58 5b3d a220 1bbd 6138 4f3e
000003a0: 3d22 f03c 4ed3 23be c6c2 15bd 75c7 523e
000003b0: 9408 f8bc c6d9 46bd 89d1 1fbd 59ab cfbd
000003c0: f788 923b 44dc b7bd 9e22 093e e114 e63d
000003d0: d71b b2bd 5b36 d13d bb4b e4bb 191c 4abe
000003e0: 17b0 7c3e dcb9 1f3b d3f1 f0bd 5e90 af3c
000003f0: 507d 99bd 43e5 98bd b9c8 ddbd 8cab d83c
0.02927002 -0.04955928 0.041503213 -0.07733062 -0.05783389 -0.0674911 -0.022458537 0.11573044
0.07383048 -0.01626342 -0.014911841 0.04641475 0.020659303 -0.07341359 0.027181394 0.042450666
0.0011850805 0.00010656796 0.04653029 0.047207598 -0.04192845 -0.08386862 0.05134888 0.026056483
0.042796984 -0.11669167 0.080417834 0.021881996 0.018516978 -0.010575525 -0.03400554 0.06158639
0.0032614975 -0.003008282 0.033231013 -0.0010766136 -0.006231336 0.010628767 0.0085072145 0.07430366
0.085947126 0.027913958 0.003250855 -0.055841748 0.004527372 -0.007930074 0.053050652 0.055443317
-0.009005716 -0.00045606252 -0.068610534 -0.07273186 0.10179562 -0.012261613 -0.019776125 0.049412664
0.003943764 -0.060275324 -0.013807642 -0.027202344 -0.013140222 -0.054582246 0.043181665 0.048194602
-0.044988234 0.20783265 -0.2337899 0.033099514 0.21523242 0.13681184 -0.043375634 -0.021040592
-0.2065181 -0.098765954 -0.15505113 0.0025482534 -0.33438408 0.30074713 -0.01944024 -0.15595151
-0.13257681 0.1813002 0.12223699 -0.05529032 -0.17302726 0.25532395 -0.07409316 -0.21846005
-0.17461053 0.27895018 -0.30641413 -0.031887446 -0.15207385 0.18799382 -0.060984872 -0.01071318
-0.006322672 -0.11887297 0.08063894 0.19310574 -0.024894359 0.0643166 -0.09647473 0.20300539
0.0043122387 -0.27758038 -0.12489669 0.23107406 -0.107516706 -0.09673897 -0.2170987 -0.16089828
0.02775664 -0.2230922 0.15541536 0.3225257 -0.14168936 0.09254096 -0.06779533 -0.29957822
0.2940781 0.05506668 -0.2446437 0.08479812 -0.12626962 -0.20359898 -0.13326618 -0.101945795
0.01077093 -0.15208165 0.14351642 0.022066657 -0.089978345 -0.077540986 0.022230256 0.008408727
0.15579256 -0.019422987 0.15941013 0.042713992 0.11032718 -0.18116581 0.024628606 0.031966187
0.075127035 -0.13529365 -0.06324824 0.07157744 0.16528204 -0.17588024 0.003260808 0.17417367
0.06008231 -0.09386588 0.16172193 0.05624856 0.11909912 -0.16221312 0.039427742 0.0068595447
0.04446309 0.026453942 -0.01980821 -0.1647137 -0.016248504 -0.025045164 0.056593724 -0.08312214
0.0121265985 0.10879359 0.10992145 -0.2153332 0.08243821 0.033088077 0.12890638 0.13577148
-0.10419076 0.12789236 -0.038148466 -0.21256123 0.068497695 -0.06523522 0.04270233 0.13283697
-0.1759211 -0.15024361 0.11889089 0.035898887 0.059048798 0.09998904 0.023506036 0.1057782
-0.12534742 0.07612073 -0.10034077 0.024750542 0.19251059 0.0154396985 -0.04492749 -0.1062486
-0.09253792 -0.06901033 -0.10753724 -0.047878914 -0.3137035 0.16583607 0.0352436 0.04906694
-0.09762584 0.13972369 0.15109108 0.042673256 -0.049642477 0.18155666 -0.03334385 -0.10201786
-0.046077006 0.07831491 -0.16902024 0.030399332 -0.0064361473 0.19756222 -0.009293796 0.07432554
-0.028058749 -0.1296444 0.07681134 0.13811213 0.045616355 0.053551055 -0.037872918 0.2023635
0.029313201 -0.15998575 -0.036562704 0.205839 -0.030277528 -0.04854753 -0.039018188 -0.10140104
0.004471894 -0.08977559 0.13392112 0.11234451 -0.08696716 0.102154456 -0.0069670356 -0.19737281
0.24676548 0.0024372255 -0.11764874 0.021431144 -0.074946046 -0.07465603 -0.108293004 0.026448987

h.0.mha.W_k.bias f4 [64]
00000000: 3f1a f0bb c58c 173f cdf1 babe eee4 273f
00000010: 4ba5 a4be c1df e23e b1c5 9cbf 8761 4ebd
00000020: a7e3 e2be 9bcf 85bf eade d43e fa9c a73d
00000030: 35d3 463e 8193 9c3f 1f00 dfbd bd71 ebbe
00000040: ea45 ce3d 00a0 ba3e 49eb c0be 3142 8d3f
00000050: 5dbf 9d3c c9d0 cc3d adbe 68bf 170b ad3e
00000060: d020 a8be 7709 823f a6da a9be e1d2 0abf
00000070: 73db bc3e 0ad9 22be a029 703e fcbd 21bf
00000080: 3c8a 53bf ef9e 78be 9387 a1be 4978 d13e
00000090: a567 003e 2935 c6bd cfeb d63e 2a63 12be
000000a0: 9ecc 153f 7b4b 073d 1328 563e 22d7 edbd
000000b0: 1644 e1be b307 773d 15b1 fb3e 9238 603e
000000c0: 185e db3d cb85 a93e 019c 9cbe 0838 ecbd
000000d0: 108f ad3c db94 11bf 39aa d83e eff8 aabe
000000e0: 9d97 75be 3d27 d6be 409e a33e 80c2 e5be
000000f0: d207 0f3f 0b60 783e 1f66 ba3c 7fe8 2cbf
-0.0073273475 0.5919917 -0.36512604 0.65583694 -0.3215736 0.44311336 -1.2247831 -0.050385978
-0.4431431 -1.0453981 0.4157632 0.08184238 0.19416507 1.2232515 -0.10888695 -0.45985213
0.10071929 0.36450195 -0.37679508 1.1035825 0.019256288 0.1000076 -0.9091595 0.33797523
-0.32837534 1.0159138 -0.33174628 -0.54228026 0.36886176 -0.15903106 0.23453379 -0.6318052
-0.82632804 -0.24279378 -0.31548747 0.40912083 0.12539537 -0.09678108 0.41976783 -0.1429564
0.58515346 0.03303097 0.20913725 -0.11613299 -0.43997258 0.060310077 0.4915854 0.2189658
0.10711306 0.33109888 -0.30587772 -0.115341246 0.021186382 -0.5686776 0.4231737 -0.33393046
-0.23983617 -0.4182681 0.31956673 -0.44874954 0.5587131 0.24255387 0.022753773 -0.6754226

h.0.mha.W_v.weight f4 [64, 64]
00000000: b3ed 413b f4f0 093c 13a8 633e 27a1 39be
00000010: 91e7 223e 4dc9 34be f5db ddbd 8098 ae3e
00000020: dab7 f8bd 02ef 0d3d fdc3 d13c d4ea 263c
00000030: f280 e03c da9c acbe b8df db3d 4419 03bd
00000040: 4b85 1bbd 2682 073e 4897 acbd 7baf 793e
00000050: e706 db3d f716 5d3d a00b 103e 5f21 6fbd
00000060: f916 f6bd 6e5c dfbd c48f 8dbe 92ac 943d
00000070: 3772 863e 5483 5dbd 1b7a c03d 07fb 0dbe
00000080: f5a0 fc3d fcf2 08bd 1e5b fa3d b99f 813d
00000090: d4d5 43be b2a8 c33d 38ab eb3c dbe9 083e
000000a0: 68d7 97bd f08a cbbb 1c68 383e 7a44 7cbd
000000b0: 7f25 e23c adf9 1b3e 03a5 84bd 3093 1e3e
000000c0: 09f8 32bb b370 803d 5cad 843d fc68 10bd
000000d0: 072b 94be 682e 8fbd 2907 413e d12b a03d
000000e0: cd20 023e 2bfb 35bc 6f7f 0dbd ba2b b1bd
000000f0: e78d 453d 5eec bebd 9ffd dcbd 4151 2abe
00000100: 802d 1bbe 9091 10bc 2888 d5bc 0775 9abe
00000110: 4a9f 543d f7ed 223e a64e 8e3d 4495 473d
00000120: 9439 8e3c c356 6abd 3bb2 70bd 7edd 353e
00000130: fefd c0bd 96db 8b3d 1c4d d0bd 1df4 b8bd
00000140: 5643 39bd 460b f53d e7aa 433e f942 8a3c
00000150: 3ccc 2d3c e25d 03be 64f3 8f3d 6017 eabc
00000160: f823 013e 9ec7 8bbd 0290 5abe 54b1 a3bd
00000170: 48ef ac3c 0ed3 013c 247a 433d 6d13 acbd
00000180: a2e8 423d 9c05 a63d 8fcc 80be 4326 9a3d
00000190: e67d 6e3c 48cf b33c c37a 063e 40eb b1bc
000001a0: 1cd9 263e 4e29 953e 376d a63d eea4 a73d
000001b0: 1f78 c6bd cbdf c9bd 57b2 4d3c 9001 ebbc
000001c0: a7e0 d73d b566 723d 774e 1fbe 52be b5bc
000001d0: e73a 84be 6327 f23d 21e3 2d3e 9a13 3a3d
000001e0: 9ed1 dc3d 5b19 b6bb 0cbf 1b3e e35e 9e3d
000001f0: 7fe8 573c 0dd0 babc e259 86bd eac2 d83d
00000200: 79f6 f43c 3a17 27be 793d d1bd 77d7 8a3e
00000210: 00dd 6e3d 356e 173e a359 9cbe d070 33bd
00000220: 5061 0a3d e609 143e 3832 143e 7f4c 803b
00000230: b26e 333e 3e88 503e 4671 0d3e 60d5 c7bc
00000240: 3941 023e 744b b23e 084b 22be 37a8 dfbd
00000250: 43f2 dfbd 2f56 ffbd 05f7 86bd b94e 293e
00000260: cf71 b3bd 524a 55be 0298 2abd 1c74 243d
00000270: a7eb 5fbe 30f3 083d 4cf9 4bbe c46e 45bc
00000280: 8c3a 5cbc ecb3 32be 1fea bc3c ef96 763d
00000290: 9c8e 69be 2382 82be abfb ec3c 64d9 c83d
000002a0: 41df 9e3d 1298 d3bd 234d 89bd 6127 06be
000002b0: 2153 c7bd 5a43 c53d 4d37 9b3b 1326 143e
000002c0: ad48 f4bd 6915 c6bc c420 b6bc 7d14 403e
000002d0: 6095 d8bb cbf2 273e 8fef 843c 163c 92bd
000002e0: 4abf 03be 78f3 8e3e 0d93 283e bfc9 4c3e
000002f0: 8851 623e ea9b 3f3d b2a8 f03d 5e4c 5dbe
00000300: d794 d93d 469a 2b3e 71b7 2e3d 718a b43d
00000310: ac88 18bb 3232 1cbe 4db1 67bd 03b5 1d3e
00000320: a22e 123e 0a8d 8b3d 6c9c 7e3e 4964 3c3e
00000330: bb0f bdba dd37 f6bd 70f0 783c 8a21 dabd
00000340: de42 49bd 27d3 783d ada1 a1bd 60c8 2cbd
00000350: d7fc 34be 2059 8a3d 6af0 d63d e151 30bd
00000360: 92ad cb3d 1e2c 65be 2948 69be d62b 82bd
00000370: 9305 3fbe 7b0c ab3d 6992 6b3e 6474 49be
00000380: 8104 9abe 7b32 0cbc 6800 0ebe 13c6 963e
00000390: c5d2 3d3e 2c19 76be a704 c4bd 72b5 263d
000003a0: 4315 523b 5e80 e0bd 87f5 a03e 3c4e 7fbe
000003b0: 1947 963b bbbc a23d 155c b839 fa62 5cbe
000003c0: fba0 20be 537e d93d eedb 97bd 21ff 50bd
000003d0: be5a 25bc d0ba 023d 5d59 203d 3791 80bd
000003e0: 78e9 34be 1062 74be be4f d43d 8a54 a93c
000003f0: 8364 33bd d970 fd3d 45f2 64bd 2e7a c5bb
0.0029591143 0.008419264 0.22232084 -0.18127881 0.15908648 -0.17654915 -0.10832969 0.34100723
-0.12144442 0.034651764 0.02560615 0.010187823 0.027405236 -0.33713418 0.1073603 -0.032006517
-0.037968915 0.13233241 -0.08427292 0.24383347 0.10694676 0.05397698 0.14066935 -0.058381435
-0.120161004 -0.109063014 -0.27648747 0.07259478 0.26259014 -0.054080322 0.0939829 -0.1386529
0.123353876 -0.033434853 0.122244105 0.06329293 -0.19124538 0.095536605 0.028768167 0.13370459
-0.07414132 -0.006211631 0.18008465 -0.06158874 0.02760577 0.15231963 -0.06476786 0.15485835
-0.0027308485 0.06271496 0.06478378 -0.03525637 -0.28939077 -0.06991273 0.18850388 0.07820857
0.12707825 -0.011107246 -0.03454536 -0.08650918 0.04823103 -0.09322427 -0.10790562 -0.16632558
-0.15154076 -0.008823767 -0.0260659 -0.3016741 0.051909722 0.15911089 0.06948595 0.048726335
0.01736144 -0.05721165 -0.058763724 0.17760274 -0.09423445 0.06828992 -0.101709574 -0.09030936
-0.045230232 0.11965041 0.19108163 0.016877638 0.010607775 -0.12828782 0.07028845 -0.0285756
0.12611377 -0.06825183 -0.21343997 -0.07992807 0.021110192 0.0079238545 0.047723904 -0.08402143
0.047585137 0.08106539 -0.25156066 0.07526829 0.014556384 0.021949425 0.13132767 -0.021718621
0.16293758 0.29133075 0.081263 0.08185755 -0.0969088 -0.09857138 0.012554727 -0.028687268
0.10540896 0.05917998 -0.15557276 -0.022185478 -0.2582619 0.11823919 0.16981174 0.04542885
0.10782169 -0.005557222 0.15209597 0.07732942 0.01317799 -0.022804284 -0.065601125 0.10584052
0.029902684 -0.16317454 -0.10216803 0.27117512 0.05831623 0.14788134 -0.30537137 -0.04380876
0.03378421 0.14456901 0.14472282 0.003915369 0.17522696 0.20364472 0.13812742 -0.024393737
0.12720193 0.3482319 -0.15848935 -0.10920756 -0.1093488 -0.1246761 -0.06590084 0.16533937
-0.08761942 -0.20829132 -0.041648872 0.040149793 -0.21867238 0.033435047 -0.19919318 -0.012050334
-0.013441693 -0.17451447 0.023060856 0.060202535 -0.22808307 -0.2548991 0.028928598 0.09807089
0.07757426 -0.103317395 -0.06704166 -0.1310096 -0.097326525 0.09631987 0.004736817 0.14467649
-0.11927924 -0.024180131 -0.02223242 0.18757816 -0.0066096038 0.16401212 0.016227512 -0.07140367
-0.1286594 0.27920127 0.16462345 0.19998835 0.22101414 0.04677955 0.11750926 -0.21611163
0.10624092 0.1675807 0.042655412 0.08815468 -0.0023274822 -0.15253523 -0.05656557 0.15401082
0.14275602 0.068140104 0.24864358 0.18397631 -0.0014424244 -0.12022374 0.0151940435 -0.10650928
-0.049136035 0.060748246 -0.07892165 -0.04218328 -0.17674576 0.067552805 0.10495074 -0.043046836
0.09945215 -0.2238011 -0.22781433 -0.06356017 -0.1865447 0.0835199 0.2300507 -0.19673306
-0.3008156 -0.008556957 -0.13867342 0.29447994 0.18537433 -0.2403304 -0.095712 0.040700383
0.003205613 -0.10961984 0.31437322 -0.24932188 0.004586112 0.07946154 0.0003516382 -0.21522132
-0.15686409 0.106197976 -0.07414995 -0.05102456 -0.010092435 0.03191644 0.039147723 -0.062776975
-0.17667186 -0.23865533 0.10366772 0.020670194 -0.043797027 0.123750396 -0.05589511 -0.006026528

h.0.mha.W_v.bias f4 [64]
00000000: a92e 79bd 589d 663d c9a3 863c 0f85 913d
00000010: 5498 12be 1744 99bd a6cb 383d 5c37 2dbe
00000020: 7eb3 97bd 7e25 a1bd 51dd d3bc e2e0 33be
00000030: d4ea 053e d7d2 ac3d 246e 02be a1cf 6a3c
00000040: 0701 593c 35aa 9cbd 9fb1 94bd e4c6 9c3c
00000050: 858e 9bbd b176 8abd 33e1 7abc b8d0 c13c
00000060: cb04 4a3c 3f4a 063e 9195 0b3e a5be 843c
00000070: 7e77 6a3d fffc 183e 5995 4d3d 9009 0e3e
00000080: 77f5 14be 4ba1 853d 5ac9 0c3e e12f 8b3d
00000090: 334e 223d a4a9 2f3e 60f1 303d 8bbd 46bd
000000a0: 7b7c e2bd 8e7f ecbc 73ae 8a3d 1fed b8bd
000000b0: d622 15be 34c6 5ebd a140 f8bd 009f b9bd
000000c0: 277d 11be d2d4 123d 36c5 17be f6bb b4bc
000000d0: 1db5 3dbe cf94 e9bd 38a1 9f3d 4865 db3d
000000e0: 181f d4bd 2eac bcbd 7244 36be 30e6 a73d
000000f0: 38d4 d83d 4dd5 e1bd ab20 39bc e18d dabc
-0.060835514 0.0563024 0.01643552 0.07105457 -0.14315921 -0.0748369 0.04511609 -0.16915649
-0.07407282 -0.07868479 -0.025862368 -0.17566255 0.13077861 0.08438652 -0.12737328 0.014331729
0.013244874 -0.07649652 -0.07260441 0.019137807 -0.07595543 -0.0676092 -0.015312481 0.023659095
0.012330244 0.1311426 0.13631274 0.016204188 0.057242863 0.1494026 0.050191257 0.13870835
-0.14546762 0.06524905 0.13748685 0.067962416 0.039625358 0.17154557 0.043198943 -0.048520606
-0.11058899 -0.028869417 0.06771555 -0.09029602 -0.1456407 -0.05438824 -0.12121702 -0.0906353
-0.14207898 0.035847493 -0.14821324 -0.022062283 -0.1852612 -0.11405336 0.07794422 0.10712677
-0.10357493 -0.09212528 -0.17799547 0.08198202 0.105873525 -0.11027012 -0.011299293 -0.026678981

h.0.mha.W_o.weight f4 [64, 64]
00000000: 2896 ebbc 6502 eabd 18a0 2f3e 3827 74bd
00000010: d4a0 583d 43c6 dc3c b0eb 443d 4bf8 383d
00000020: 67b1 ea3d 6781 453d a217 64bd a0f1 31bd
00000030: 6e1f 573c 1b4e debc dd63 b6bd f815 023d
00000040: c49c 313d e486 23bd 7dc0 c4bd 3cb0 c5bd
00000050: c4df 14be 6597 2bbd 598b 113e a5cc b6bd
00000060: e4af 4fbd d6a0 72bc 6145 1fbd 477d b7bd
00000070: eec0 25bd 97a3 353a 5f57 b5bd 1e07 943b
00000080: a615 703d 6743 18be a063 90bd 1fe4 923d
00000090: 8a4c 45bd 1d68 193e c8d7 a0bb fd13 163e
000000a0: 6ff6 913d ce27 16bd f330 9e3d 0313 d3bc
000000b0: 5ff7 c9bd 98cf 2fbe c12b a83c 7c57 25bc
000000c0: 1a2f 333e 94de 3e3d de74 e93c 50ad 83bc
000000d0: 25b3 f1bc 20f0 c23d fd40 053d b6d1 90bd
000000e0: 91d1 94bc d711 c83d 0106 933c 86d2 973b
000000f0: c9d1 9f3b 52fb 47bd 70a3 24bd 4bc0 033e
00000100: 558b 7b3d 2dde 78bd eae7 fc3b 5e92 d43d
00000110: 013c 183d 3b7b f63c d22b d4bc 4e1b c4bc
00000120: e986 bebd bb22 983d 8eea 293d a963 c6bb
00000130: 0bd6 583d b15d eabd 9f62 253d 03ad b4bc
00000140: 4194 4abd f2bc 86bd 7582 1b3d b534 8dbd
00000150: 38f2 a23d 6f6f efbb 66a2 f3bd e045 3a3d
00000160: 9ba9 8b3d dfa9 73bd af5a 143d 7d27 61bd
00000170: fadc 04be e505 a93b 2471 7f3d 8157 b7bd
00000180: 6ba1 af3d 33f5 cd3b 1dbd f63c 8d4c 90ba
00000190: 3975 4c3c 8bc0 463d 8f63 90bd caa7 01bd
000001a0: 7e90 aa39 c39f 363d a7f7 cf3c d91f 8e3d
000001b0: d052 66bd 77bd ffbb fc83 3d3c a90c a3bb
000001c0: 13f4 7f3a 3bca efbc faed c9bc 7f7d 1cbd
000001d0: 434a 02be 2ade 343d b236 9cbd a3f3 33bd
000001e0: 899e 583d 0f2b d93d 1c76 1f3d 9648 39bd
000001f0: 6289 593b b83a 73bd 7937 843d 8ea9 433c
00000200: 811e d13d 4ec6 203e 3570 073d 14ad fa3d
00000210: 4ac4 2ebd 1f74 cebd 5bb0 60bd 567e e4bc
00000220: de94 d0bc ace0 c3bd b756 923c 4f55 7bbb
00000230: ee02 163d c484 0a3e 9e43 9e3e a4af 543e
00000240: 8cb8 2bbe 8303 d43d abe5 93bd 6be2 543e
00000250: d329 85bc 0982 14be edcb e7bd dfea b8bc
00000260: c66e 803e be7b 543d 4236 84bd 3420 8b3d
00000270: 37d0 c63d 1229 403d aa6f c13d 66d7 00be
00000280: 2fcb a2be 65af de3c 9410 f2bd 1dd7 c03d
00000290: 61fa 823d 5295 c2be b83c 2e3e 0496 e7bd
000002a0: a57b 61be 2123 f3bc e8a5 69bc 71e8 173e
000002b0: 2ead cbbd e598 2d3d 89dc 06be 3a82 94bc
000002c0: b690 6dbd 9e1e 60bd 47e1 503e 56ee 7b3c
000002d0: 82ed a93c d516 1dbe 08bb 9cbd 570a 5d3d
000002e0: c751 dbbd 5154 95bd c6a3 73bc a395 403d
000002f0: 194a 95bd 9c1f 4d3e 4b26 84bd e838 62bd
00000300: 8896 e8bd 87aa e7bd cf7e 27bd 4163 19bd
00000310: 6b89 003c c099 c5bc 45cc bd3d 147c 783c
00000320: 6905 853d f3e8 85bc bbf0 fe3d 6a0e 9f3a
00000330: e49c b2bd afb4 463d 0063 afbd e0da 643c
00000340: 39c2 bf3d 3d80 9b3d c2ed db3d 2f6b 72bc
00000350: 50e0 ccbd d24d 103e 6d27 16bc 4116 093d
00000360: e884 9fbb 15ed 4a3d 52e2 003d 2c4b 32bb
00000370: 16c1 89bd 4eef b9bd d006 8d3c 3cd6 3c3d
00000380: a518 04be 8adf 363d a75c a53d 5795 dabd
00000390: 6aa2 763d 8b8d 533d da4d 24be a5ae f5bb
000003a0: a31d 223d 7922 01bc f470 5d3d 9698 903d
000003b0: 2395 e4bc 8493 8a3d f6cf 123e 63b0 1f3e
000003c0: 6ba0 003c 7946 533d 8e5f 263d 05a7 4ebd
000003d0: 22ca e2bb 8d49 6bbd ee86 b73c 196b a8bb
000003e0: b39d 1e38 5591 cabd 7f9e b1bd 406e 63bd
000003f0: 42f9 ab3d b19c bcbc 883b 21be 79b6 fd3c
-0.028758124 -0.11426238 0.17150915 -0.059607714 0.052887753 0.026950007 0.04807633 0.045158666
0.11459618 0.04821911 -0.0556866 -0.043443322 0.013130052 -0.027136853 -0.08905766 0.031759232
0.043362394 -0.039923564 -0.09607027 -0.09652755 -0.14538485 -0.041892428 0.14213313 -0.089257516
-0.05070485 -0.014808854 -0.038884524 -0.08959442 -0.040467195 0.0006928979 -0.08854555 0.00451745
0.058614396 -0.14869462 -0.07050252 0.07172417 -0.048168696 0.14981122 -0.0049085356 0.14656062
0.071270816 -0.036659054 0.0772418 -0.025765901 -0.098616354 -0.17169034 0.020528676 -0.010091659
0.17498437 0.046598986 0.02849811 -0.016073853 -0.029504368 0.095184565 0.03253268 -0.07071249
-0.018166335 0.09769028 0.017947199 0.0046332506 0.0048773033 -0.048823662 -0.04019493 0.12866323
0.061412174 -0.06075876 0.007718076 0.1037948 0.0371666 0.030088058 -0.025899801 -0.023938801
-0.09303076 0.07428499 0.041483454 -0.006054361 0.052938502 -0.114436515 0.040377256 -0.022055155
-0.049457792 -0.06579007 0.03796621 -0.06894819 0.07956356 -0.007306985 -0.118962094 0.045476794
0.06819459 -0.059488174 0.036219295 -0.0549693 -0.12974921 0.0051581734 0.06236376 -0.08952237
0.0857571 0.0062853335 0.030119473 -0.0011009142 0.01247912 0.048523467 -0.07050239 -0.031654157
0.00032532582 0.044585954 0.025386645 0.06939668 -0.05623132 -0.0078045684 0.011567112 -0.0049758744
0.0009763848 -0.029271236 -0.024649609 -0.03820562 -0.12723641 0.044157185 -0.0762762 -0.043933522
0.052885566 0.10603916 0.038930997 -0.04523524 0.0033193459 -0.05938217 0.06455893 0.01194228
0.10210896 0.15700647 0.033065993 0.12240043 -0.042667665 -0.10080742 -0.054855686 -0.027892273
-0.02546161 -0.09564337 0.017863614 -0.0038350408 0.036623888 0.13527209 0.30910963 0.20770127
-0.16769618 0.10352232 -0.0722154 0.20789497 -0.016255295 -0.1450273 -0.11318193 -0.022572933
0.25084513 0.051875822 -0.06455661 0.06793252 0.097076826 0.046914168 0.09445126 -0.12582168
-0.31795642 0.027183244 -0.11819568 0.094160296 0.06395412 -0.38004547 0.1701535 -0.1130791
-0.22019823 -0.029679837 -0.014260747 0.14834763 -0.09945141 0.04238214 -0.13170065 -0.018128503
-0.057999335 -0.0547167 0.20398436 0.015376648 0.020743135 -0.15340741 -0.07652861 0.05396494
-0.10708957 -0.07291473 -0.01487059 0.047017705 -0.07289524 0.2003159 -0.06452616 -0.05523005
-0.113568366 -0.113118224 -0.04089242 -0.03744817 0.007845263 -0.024121165 0.09267477 0.015166301
0.064951725 -0.01634643 0.124482594 0.0012135033 -0.08721331 0.048512157 -0.085638046 0.0139681995
0.09363217 0.07592819 0.10738708 -0.014796062 -0.10003722 0.14092186 -0.009164673 0.03346849
-0.0048681386 0.049542505 0.031465836 -0.002720545 -0.06726281 -0.09078847 0.017215163 0.046102747
-0.12900026 0.044646777 0.08074313 -0.106730156 0.060213484 0.051648658 -0.16045323 -0.007497626
0.039579045 -0.007881754 0.0540628 0.070603535 -0.027903145 0.067664176 0.14337143 0.1559463
0.007850747 0.05158088 0.04061847 -0.05045225 -0.0069210688 -0.05744319 0.022403207 -0.00513972
3.7817004e-05 -0.09891001 -0.08672809 -0.055525064 0.083971515 -0.023023935 -0.15745366 0.030970799

h.0.mha.W_o.bias f4 [64]
00000000: a285 f9bd 5dff 933d 3846 b13c 6462 8bbd
00000010: b923 853d 17c8 d0bb 9e85 3cbd 77bd e73c
00000020: a04e e0bd 0fea 0b3d 5da4 c8bd febc 213d
00000030: 9f4b dabc 72b3 833d 9f12 82bc 4f6a a43d
00000040: 9de3 7f3d 645f 363d 2d58 c13d d510 19bd
00000050: 7d01 c3bd 7bdd 653d 7d0e e5bc 577d b4bc
00000060: 4bc4 4cbd a21d a53d 81b7 4b3c ced9 1f3b
00000070: b870 d4bd 8e23 303e cd25 dcbb b44c 093c
00000080: b0e2 823d 8bd1 e8bd ff04 83bd 3824 1b3e
00000090: d6d8 b63c 4f50 e0bb 8922 b9bd a283 3e3c
000000a0: e95a e2bd e238 08bc 670e d8bd 5e3e ad3d
000000b0: d938 6bbd 1d4b 893c 45e3 d1bd ce3f 3f3d
000000c0: eeeb 18be 23bd 853d d349 343e 8668 993d
000000d0: 1331 a2bc 2c73 473b 6d62 8fbd 8902 6cbe
000000e0: dc72 1e3e 8225 ee3d 387e df3d 4baf 70bd
000000f0: f945 25bc d4b3 903c b64e e03d 5ed4 adbd
-0.121836916 0.07226441 0.021639928 -0.06805876 0.06500954 -0.006371509 -0.046025865 0.028288586
-0.109524965 0.034158763 -0.09796975 0.039486878 -0.026647387 0.06430711 -0.01587802 0.08028089
0.06247293 0.044524565 0.09440646 -0.037369568 -0.09521768 0.056119423 -0.02796101 -0.022032423
-0.049991887 0.08062293 0.012433887 0.0024391296 -0.10373062 0.17201063 -0.0067183734 0.008380104
0.063908935 -0.11368092 -0.06397437 0.15150535 0.022320192 -0.006845511 -0.0903979 0.011628063
-0.11052496 -0.008314343 -0.10549622 0.08459161 -0.05742726 0.01675945 -0.10248426 0.04669171
-0.1493375 0.065302156 0.17606287 0.074906394 -0.019798791 0.0030433638 -0.07001195 -0.23047842
0.15473503 0.11628248 0.10912746 -0.058760922 -0.010087484 0.017663874 0.10952513 -0.084877715

h.0.ln_1.weight f4 [64]
00000000: ff72 183f df2e 4d3f 65d7 363f d47e 2a3f
00000010: ec03 6b3f 53eb 4e3f 16a0 073f c350 053f
00000020: fd75 353f d2e5 0d3f 09cd e33e ce3c f33e
00000030: 2263 5e3f 7520 7e3f 6905 d83e b04d 1f3f
00000040: 714d 2e3f f52d 593f fe2d ec3e 6582 ef3e
00000050: 4c4d 2d3f 7ede 1e3f fbaa f73e cb6f 5d3f
00000060: 6b68 1b3f 7c6e 3d3f a649 733f 6695 f33e
00000070: 3621 3f3f bb3d 213f 1cbb da3e 46ca 033f
00000080: 89f5 053f 21bf 0f3f 1373 103f 1fd2 4b3f
00000090: 8c5a f13e dcae 273f 6eb6 443f 57a9 263f
000000a0: 9c1d de3e f1c4 6d3f c7ae 1c3f 1554 3c3f
000000b0: 3e00 4e3f 66a9 213f 925e 3c3f cb6f 143f
000000c0: 35ee da3e 1f3b 923e a93f 143f c9c0 6b3f
000000d0: f575 ca3e f653 183f 7b32 d53e 49b2 313f
000000e0: 55e9 223f a596 093f 463e 3c3f 38b8 ef3e
000000f0: 23ab 063f 2cb5 ea3e 5853 0e3f 944a 1f3f
0.5955047 0.80149645 0.71422416 0.66599774 0.9180286 0.80827826 0.52978647 0.5207636
0.7088316 0.554288 0.44492367 0.47507328 0.86870015 0.99268275 0.42191628 0.62227917
0.68086916 0.8483575 0.4612884 0.4677917 0.6769607 0.62058246 0.48372635 0.8649871
0.60706204 0.7399671 0.95034254 0.4757492 0.7466005 0.6298482 0.42720878 0.5148052
0.5232778 0.56151015 0.5642559 0.79617494 0.47139394 0.6550119 0.76840866 0.6510214
0.43381965 0.92878634 0.6120419 0.735658 0.8046912 0.63149107 0.735818 0.5798308
0.42759863 0.2856073 0.5790964 0.9209104 0.3954312 0.59503114 0.41640076 0.69412667
0.63637286 0.5374549 0.7353252 0.46820235 0.52604884 0.45841348 0.5559592 0.6222317

h.0.ln_1.bias f4 [64]
00000000: 7cf0 4fbc 4730 043f a6bc 09bf 0ae0 2ebd
00000010: 10d7 2b3e 6764 8c3d cba9 ebbd f223 023c
00000020: f993 f6be bbce 84bc 6078 a9be d7cc 413d
00000030: ab90 14bf ab75 fe3e 4940 02bb 0e89 2abe
00000040: 4464 b9be 0758 a83e b0b3 b73e 10a3 a4bd
00000050: 606f 91be 4be1 fd3e 6b7e 34be d984 e5be
00000060: cc85 cfbe 7c43 1a3f c279 1bbf 5d48 f4bd
00000070: f6e6 b1be fc6e f43e 47f4 ddbd 7440 8abc
00000080: b788 80bd ae70 19be ebfe a93c 94c3 e03e
00000090: d398 41bc b784 6d3e 8320 f5bd 2741 133f
000000a0: 75a7 ce3d 1c28 33bf 5a23 dabd b8b8 063f
000000b0: dba5 d1bd c581 4fbe 7bc5 b0be 8ac5 84be
000000c0: faf6 7c3d efb1 88be 1295 0a3e a3b2 a63e
000000d0: 073d 8abe ff0b e43d 3bce 803c 7313 d5be
000000e0: 185a b73e 3c16 933d f055 ebbe faef ff3d
000000f0: d14e 82be 2d29 86be bed8 a0be ca69 1cbe
-0.012691613 0.51636165 -0.5380348 -0.04269413 0.16781259 0.06855088 -0.11506995 0.00794314
-0.4815977 -0.016211858 -0.3309965 0.04731449 -0.58033246 0.4969915 -0.0019874743 -0.16653845
-0.3620931 0.3287966 0.35879278 -0.08038914 -0.28405285 0.49585947 -0.1762635 -0.44827917
-0.40531766 0.60259223 -0.6073266 -0.11927865 -0.34746522 0.47740924 -0.10837608 -0.016876437
-0.06276076 -0.1498439 0.020751437 0.43899214 -0.011816221 0.23195158 -0.11969092 0.5752129
0.10090534 -0.6998308 -0.10651274 0.5262561 -0.102367125 -0.20264347 -0.34525666 -0.2593196
0.061758973 -0.26698253 0.13533428 0.32558164 -0.26999685 0.111351006 0.015723338 -0.416164
0.35810924 0.07181975 -0.45964003 0.12496944 -0.25450757 -0.2620329 -0.3141536 -0.1527473

h.0.ln_2.weight f4 [64]
00000000: 0000 803f 0000 803f 0000 803f 0000 803f
00000010: 0000 803f 0000 803f 0000 803f 0000 803f
00000020: 0000 803f 0000 803f 0000 803f 0000 803f
00000030: 0000 803f 0000 803f 0000 803f 0000 803f
00000040: 0000 803f 0000 803f 0000 803f 0000 803f
00000050: 0000 803f 0000 803f 0000 803f 0000 803f
00000060: 0000 803f 0000 803f 0000 803f 0000 803f
00000070: 0000 803f 0000 803f 0000 803f 0000 803f
00000080: 0000 803f 0000 803f 0000 803f 0000 803f
00000090: 0000 803f 0000 803f 0000 803f 0000 803f
000000a0: 0000 803f 0000 803f 0000 803f 0000 803f
000000b0: 0000 803f 0000 803f 0000 803f 0000 803f
000000c0: 0000 803f 0000 803f 0000 803f 0000 803f
000000d0: 0000 803f 0000 803f 0000 803f 0000 803f
000000e0: 0000 803f 0000 803f 0000 803f 0000 803f
000000f0: 0000 803f 0000 803f 0000 803f 0000 803f
1.0 1.0 1.0 1.0 1.0 1.0 1.0 1.0
1.0 1.0 1.0 1.0 1.0 1.0 1.0 1.0
1.0 1.0 1.0 1.0 1.0 1.0 1.0 1.0
1.0 1.0 1.0 1.0 1.0 1.0 1.0 1.0
1.0 1.0 1.0 1.0 1.0 1.0 1.0 1.0
1.0 1.0 1.0 1.0 1.0 1.0 1.0 1.0
1.0 1.0 1.0 1.0 1.0 1.0 1.0 1.0
1.0 1.0 1.0 1.0 1.0 1.0 1.0 1.0

h.0.ln_2.bias f4 [64]
00000000: 0000 0000 0000 0000 0000 0000 0000 0000
00000010: 0000 0000 0000 0000 0000 0000 0000 0000
00000020: 0000 0000 0000 0000 0000 0000 0000 0000
00000030: 0000 0000 0000 0000 0000 0000 0000 0000
00000040: 0000 0000 0000 0000 0000 0000 0000 0000
00000050: 0000 0000 0000 0000 0000 0000 0000 0000
00000060: 0000 0000 0000 0000 0000 0000 0000 0000
00000070: 0000 0000 0000 0000 0000 0000 0000 0000
00000080: 0000 0000 0000 0000 0000 0000 0000 0000
00000090: 0000 0000 0000 0000 0000 0000 0000 0000
000000a0: 0000 0000 0000 0000 0000 0000 0000 0000
000000b0: 0000 0000 0000 0000 0000 0000 0000 0000
000000c0: 0000 0000 0000 0000 0000 0000 0000 0000
000000d0: 0000 0000 0000 0000 0000 0000 0000 0000
000000e0: 0000 0000 0000 0000 0000 0000 0000 0000
000000f0: 0000 0000 0000 0000 0000 0000 0000 0000
0.0 0.0 0.0 0.0 0.0 0.0 0.0 0.0
0.0 0.0 0.0 0.0 0.0 0.0 0.0 0.0
0.0 0.0 0.0 0.0 0.0 0.0 0.0 0.0
0.0 0.0 0.0 0.0 0.0 0.0 0.0 0.0
0.0 0.0 0.0 0.0 0.0 0.0 0.0 0.0
0.0 0.0 0.0 0.0 0.0 0.0 0.0 0.0
0.0 0.0 0.0 0.0 0.0 0.0 0.0 0.0
0.0 0.0 0.0 0.0 0.0 0.0 0.0 0.0

h.1.mha.W_q.weight f4 [64, 64]
00000000: cc77 1dbe 791b cb3d 3dc3 f4bd 8a43 abbd
00000010: fd34 953c 323b d1bc c1ce 0dbd 7c76 e93b
00000020: 5daf d9bc 7535 2f3e e094 273c 6d27 dcbc
00000030: ec2b 5dbe b738 403d ffeb 0fbd 4fd7 d4bc
00000040: 2fca 643d 9975 0bbd 6467 4abd 2b42 b93c
00000050: d2d1 02be b49e a83d cf13 85bd cb38 c4bd
00000060: 4c3b b63d fb62 f2bb 9fbb 43be d213 30be
00000070: 79d3 d9bd a9bb 813d 6baa a53a 26b5 003d
00000080: 1c81 dbbd 90b6 4a3c cab3 e9bb f352 263e
00000090: 2576 313d d9cb 923d f225 28be f4f2 b2bd
000000a0: 8794 1abd 8fc7 aebc 7299 07bc 591e 5a3e
000000b0: c97d 5e3c cf57 bfbd 11ad f5bd be1b 503e
000000c0: cf7a 8f3c c5f0 d3bd 260c a8bd 4396 5e3d
000000d0: f8a5 89bd 39e6 05be 7873 093d 350e 99bc
000000e0: eceb 0dbb f810 87bd 71ca cbbb 9628 b13c
000000f0: 6024 563d 0c25 0bbc 0d69 a3bd bbd4 fcbc
00000100: e1ce f33c 4253 f53d 095f 4a3d 4a6b 5dbc
00000110: 5ba8 9cba d690 80bc 2efa 4d3d fc5a 49bd
00000120: f0a8 7a3d 02a2 683b 8374 9dbd bbd9 c4bd
00000130: c832 af3c 90c9 48bd 6647 2dbe 069e 9e3d
00000140: fd1e 0b3c 3388 18bd 75ab 923d 4c52 8dbc
00000150: 09b1 933b b100 45bd 377a 193e b0bd 903d
00000160: 18c5 4c3c cc1b 1e3d bc9e 9c3d 23f1 f33c
00000170: 8ee9 e33c d35f 0ebd e7c7 8cbd 40cb 44bd
00000180: 28c0 763d eccf aa3d 1db0 67bd 1822 d0bc
00000190: 85ed 083b b7e7 5bbd 0ea8 673c e251 ed3c
000001a0: 08e2 ba3c c656 a03b 6f3a b23c 934f 05be
000001b0: 2a42 75bc 63a1 a43c 6701 763c 3804 2cbe
000001c0: d493 26bd 7f18 b43d 2f1f 78bd 41fd c0bd
000001d0: 2934 01bd 75f4 d73d 2e5b 1a3e 966d a53b
000001e0: 0c72 c73c 19f0 8ebd 8342 993c 357f 023d
000001f0: b570 2fbd f041 e0bc f13e 05bc f93e d43d
00000200: 7bcc b53d 2719 c3bc 0ab6 e7bd 2999 22bd
00000210: 71d7 3fbc ba68 4a3d 9d7c 5dbc f0b9 76bd
00000220: 530a 6fbd 0529 32be d250 31be d58a d1bd
00000230: 8761 843d 8f57 9cbd b327 c3bd 9815 7c3d
00000240: ff39 a43d 6e77 d5bd f897 183d d665 e33d
00000250: fecd b53d a44f bd3c b867 373b 308c dc3c
00000260: 2242 a3bb 8fac 2a3d 9db8 ecbc bf31 8fbd
00000270: d8d2 08be 4ee2 76bc ef27 d83d f9b0 ca3d
00000280: 28c1 123e 0a1c 18bd cab9 153d e154 5a3d
00000290: 232e 803c 158f 243d 9198 0dbe 1125 e2bc
000002a0: 6aca 1a3d 3129 b63d d03b 43be cdb2 2d3d
000002b0: 9d4e 50bd 3666 8e3d 8bc7 7fbd 0772 fd3c
000002c0: 9604 c33d d3d7 97bc 9d02 8b3d 8158 8e3d
000002d0: 7970 a8bd 326c efbd 6774 2b3e d8e0 e73d
000002e0: 59cd 56bd 986f 1dbc f025 bbbd fb60 4ebb
000002f0: c03f a33d 5387 16bd af2b 303e 954f 63bc
00000300: 4949 b23d ce40 bcbd 5c94 bf3d 7957 803d
00000310: 70a8 823c 3700 a2bc 509f c4bd bc8e bb3d
00000320: ff18 81bd 71a7 713d 91d3 82bd bfec 4d3d
00000330: 3912 d8bc 1026 1e3d 81dc 56bd 2119 c3bd
00000340: 1fea cbbd f6ca af3d 5e77 28bd 7d71 9ebd
00000350: 8d84 943d 541c a23d 2922 a13b 6b11 99bd
00000360: af9c acbc cb70 e8bd 5596 d9bd 4192 a0bd
00000370: e2eb c9bb b44a 5c3c fd5d 3b3d 5303 9fbd
00000380: 9e31 c2bc 4ab7 803d 03a2 0c3e 7508 1dbe
00000390: c61b cc3d 7697 ba3d 45de 163e 53a4 40be
000003a0: a7a5 003e 57d2 12be ba90 bcbc 605f 133c
000003b0: 7bb4 dbbc 7725 bbbd 1eb3 c73d f61b 4b3e
000003c0: cbce b23a 107d a8bc 9e5f 1c3e a601 b63c
000003d0: d28c 13be 842a bfbd e291 f6bd 4f28 fcbd
000003e0: 2061 75bd 641b 083d 298e dbbd 472d e8bc
000003f0: 8db7 cbbb 42c8 923b 9821 293e 9dae 70bd
-0.1537773 0.09917349 -0.11951301 -0.083624914 0.018213743 -0.025540922 -0.034621004 0.00712472
-0.026572878 0.17110236 0.010228366 -0.026874268 -0.21598786 0.046929087 -0.035137173 -0.025981573
0.05585688 -0.034047697 -0.049415007 0.02261456 -0.12775353 0.08233395 -0.06497919 -0.09581145
0.08898029 -0.0073970533 -0.1911454 -0.17195061 -0.10636038 0.063346215 0.001263929 0.031422757
-0.10717985 0.012372628 -0.007132028 0.1624258 0.043325562 0.07167787 -0.16420725 -0.08737746
-0.037739303 -0.021335391 -0.00827633 0.21300639 0.013579794 -0.0934292 -0.119959004 0.20323083
0.017514614 -0.103486575 -0.08205442 0.05434252 -0.06721109 -0.13076104 0.033557385 -0.018683532
-0.0021655513 -0.065950334 -0.0062192013 0.021625798 0.052280784 -0.008492719 -0.07979021 -0.030863157
0.029761733 0.11978771 0.04940704 -0.013514349 -0.0011952029 -0.015694063 0.050287418 -0.049159035
0.061196268 0.0035496955 -0.076882385 -0.09611841 0.02138652 -0.04902035 -0.16921768 0.07744984
0.008491275 -0.037239265 0.07161609 -0.017251156 0.004507188 -0.048096363 0.14988028 0.0706743
0.012498163 0.038600728 0.07647464 0.029778069 0.027821328 -0.034759354 -0.06874066 -0.048045397
0.06024185 0.08340439 -0.05656444 -0.025406882 0.0020893526 -0.053687777 0.014139188 0.028969709
0.022812858 0.0048931567 0.021756379 -0.13018636 -0.014969388 0.020096486 0.015014983 -0.16798484
-0.040668324 0.08793735 -0.060576614 -0.09423304 -0.031543884 0.10544673 0.15073845 0.005048464
0.024346374 -0.06979389 0.018708473 0.031859595 -0.042832095 -0.027375191 -0.008132682 0.103635736
0.08876892 -0.023815705 -0.11314018 -0.039696846 -0.01170908 0.04941628 -0.01351848 -0.060235918
-0.058359455 -0.1739846 -0.17315987 -0.10231558 0.06463914 -0.07633888 -0.095290564 0.06154403
0.080188744 -0.1042317 0.037254304 0.11103408 0.088771805 0.023109265 0.0027985405 0.026922315
-0.004982249 0.04166847 -0.028896624 -0.0699191 -0.1336168 -0.015068604 0.10554492 0.09897036
0.14331496 -0.037136115 0.036554135 0.053303603 0.015647 0.040175516 -0.1382773 -0.027605565
0.037790693 0.088945754 -0.19065785 0.042406846 -0.05085622 0.06953089 -0.06244616 0.030938162
0.09522359 -0.01853553 0.06787608 0.069504745 -0.082245775 -0.116905585 0.16743623 0.113221824
-0.05244193 -0.009609126 -0.091380954 -0.003149091 0.07971144 -0.03675015 0.17204164 -0.013873954
0.08705384 -0.09192048 0.09354469 0.06266684 0.015949458 -0.019775493 -0.09600699 0.09158084
-0.06303596 0.058997575 -0.06388009 0.050274607 -0.026375877 0.038610518 -0.052456383 -0.09526277
-0.099567644 0.085836336 -0.041129462 -0.0773649 0.072518446 0.079155594 0.0049174023 -0.07474025
-0.021070806 -0.113496386 -0.10624377 -0.07840396 -0.0061621526 0.013445545 0.04574393 -0.07764306
-0.0237053 0.062849596 0.13733678 -0.15335257 0.09966235 0.0911092 0.14733227 -0.18812685
0.12563191 -0.14338051 -0.02301823 0.008994907 -0.026819458 -0.09138005 0.09750961 0.19834885
0.0013641951 -0.020567447 0.1527085 0.022217583 -0.14409187 -0.09334281 -0.12039544 -0.12312376
-0.05990708 0.033229247 -0.10720474 -0.028341902 -0.0062169493 0.004479439 0.16516721 -0.058760274
