subspace-alignment/data/2_layer_64_vocab/ckpt_16260.pt (torch, 178594 bytes, 29 tensors)

embed.embed.weight f4 [64, 64]
-0.4308274 1.3575772 0.29034343 0.48854092 0.15919015 -0.2754634 -2.1569533 -0.020612676
-0.47347823 0.09611205 -1.3485191 0.6367542 -0.42643112 -0.8796607 0.40090162 0.13561206
0.0778942 0.21303731 0.00082610984 -0.728216 -0.29671642 2.0733366 1.4283428 -1.1854376
-1.4245619 1.800068 -0.97914594 1.9126639 0.75854915 0.59414953 -0.4168566 0.3404934
1.149414 -0.9467602 0.1683359 -1.1129364 -1.0266552 0.29718786 -1.1843797 0.7863327
-1.4235938 -1.1143798 0.47209007 0.47225612 1.233867 1.092046 -0.515975 -0.3968884
-0.40126336 -1.1486603 -0.07779172 -0.34963337 0.21857303 0.93656653 -0.11629498 -0.8674882
0.4380565 -0.20406044 -0.818184 -1.2350744 0.31937075 -0.43388647 -0.15497656 0.7245883
0.26200232 -1.1051682 -1.3702292 -0.08189358 1.9398516 -1.2961612 -0.48954907 -0.49719498
0.31180164 -0.011875525 -0.49776003 0.12344203 0.2903155 0.5788872 0.25385475 0.09005171
0.7429443 -0.60765684 0.35593244 0.09371232 0.37107196 -0.46642128 1.6447318 0.35543197
-0.20887104 1.1367671 -1.4056464 0.2213078 -1.9877679 1.8882865 0.038973745 -0.50862217
-0.9184816 -0.8485643 0.48460698 -0.019959468 1.4943491 0.73488337 1.3573449 0.61328787
-0.4677484 -0.24577083 1.0257846 0.3986139 -0.47577825 0.19648318 -0.8305967 -1.5513177
0.007942633 -0.7049388 1.8687676 -0.1143121 -0.18994209 -0.24309076 0.056899913 -0.6570438
-0.05110039 -0.3077165 -0.6903958 0.12900683 0.50558263 -2.5891056 -0.13308646 0.16540155
1.2828851 0.9564164 -0.36401802 0.007715873 -0.33982608 0.7096989 -0.90633374 -1.3087802
0.59643203 -0.15651122 -0.28450283 -0.883568 -0.42115447 0.71571493 0.20776807 -0.229139
-0.34332722 -1.2421715 -1.0400358 -0.6783617 -0.027660638 1.4348003 -1.1172559 -0.32646427
0.0004760721 0.51422393 -0.20115292 -0.016212294 -0.7260948 1.5899316 0.9095322 0.40232512
-1.06998 0.409363 0.36813718 0.81953585 -1.129061 -1.7328925 -0.36717927 2.337056
-0.35228384 -1.0716298 0.15413329 0.18281774 0.004997437 -0.6515835 0.865388 -0.4102235
-0.33769387 -0.5219643 2.6049056 -0.3502585 0.12633595 -0.5514649 -1.5262294 -0.6823026
0.6384126 0.018779673 -0.36872974 0.4447075 -2.5455 0.21055895 0.20049025 0.4625542
-1.2928271 0.91867197 -0.26628143 0.04572539 -1.3968827 -0.46918154 1.1912532 0.19840541
-1.2374866 -0.65676314 -1.0887723 -0.93028265 -2.4404225 2.370381 -0.5636089 0.5693368
0.66465783 -0.41734964 0.45549008 0.0039121723 0.16624522 -0.76355964 -0.9321974 0.5418081
-1.5608052 1.7270191 0.18688478 0.39088055 0.16432548 0.26087862 -0.06304384 0.8847371
0.57753587 0.6824908 -0.5672933 -0.870391 -0.182849 -0.611709 0.3305514 0.8956667
1.0231303 -0.0058813295 -1.1396397 0.75006956 0.718446 1.2549577 0.71326876 0.9055372
0.3810837 -0.6738231 1.0840845 -0.030379504 -1.3689461 1.0975639 0.34398025 -0.6233995
0.44107932 0.6262576 -1.2195501 -0.2595696 0.16239771 -0.87910855 -0.41157666 0.0048069693
00000000: 6995 dcbe 17c5 ad3f e5a7 943e 0922 fa3e
00000010: be02 233e 8a09 8dbe 860b 0ac0 eadb a8bc
00000020: bd6b f2be 65d6 c43d 469c acbf 5302 233f
00000030: 2e55 dabe 7231 61bf fa42 cd3e e3dd 0a3e
00000040: ff86 9f3d 7426 5a3e 4b8f 583a 5d6c 3abf
00000050: 37eb 97be 8cb1 0440 f0d3 b63f 6bbc 97bf
00000060: 0b58 b6bf a168 e63f 4fa9 7abf 2cd2 f43f
00000070: 4730 423f 2f1a 183f 3a6e d5be 2755 ae3e
00000080: ff1f 933f e05e 72bf 3f60 2c3e b374 8ebf
00000090: 7069 83bf 0229 983e c199 97bf 1a4d 493f
000000a0: 5238 b6bf ffa3 8ebf cab5 f13e 8ecb f13e
000000b0: 5bef 9d3f 2ac8 8b3f f016 04bf f534 cbbe
000000c0: 6472 cdbe 4d07 93bf 4451 9fbd 2503 b3be
000000d0: 9cd1 5f3e d3c2 6f3f 102c eebd b513 5ebf
000000e0: f148 e03e 38f5 50be 8274 51bf eb16 9ebf
000000f0: 9084 a33e 5e26 debe 2db2 1ebe 9e7e 393f
00000100: 2b25 863e 2776 8dbf ac63 afbf d2b7 a7bd
00000110: 0f4d f83f 9ce8 a5bf 2da6 fabe 5790 febe
00000120: 77a4 9f3e 9091 42bc 67da febe 2dcf fc3d
00000130: 3ca4 943e f431 143f 40f9 813e 086d b83d
00000140: 9931 3e3f 668f 1bbf c73c b63e 3fec bf3d
00000150: 25fd bd3e c5ce eebe 9286 d23f 2efb b53e
00000160: 4ae2 55be 9681 913f 39ec b3bf 839e 623e
00000170: 2e6f febf 5fb3 f13f efa2 1f3d 1035 02bf
00000180: 9c21 6bbf 833b 59bf 681e f83e 0a82 a3bc
00000190: d546 bf3f 5121 3c3f 7abd ad3f 6f00 1d3f
000001a0: b87c efbe 59ab 7bbe e94c 833f 1f17 cc3e
000001b0: 3599 f3be e332 493e fca1 54bf 9491 c6bf
000001c0: d121 023c df76 34bf c733 ef3f 761c eabd
000001d0: 2e80 42be c9ec 78be e20f 693d 0634 28bf
000001e0: a44e 51bd 048d 9dbe c7bd 30bf 5e1a 043e
000001f0: dd6d 013f e8b3 25c0 d147 08be 065f 293e
00000200: 9435 a43f b5d7 743f 9260 babe 6fd5 fc3b
00000210: affd adbe d4ae 353f 7d05 68bf 1c86 a7bf
00000220: c5af 183f 7a44 20be 5baa 91be 8331 62bf
00000230: 8fa1 d7be 1839 373f 27c1 543e 6aa3 6abe
00000240: 96c8 afbe 7aff 9ebf e51f 85bf 1da9 2dbf
00000250: 9098 e2bc 89a7 b73f 3e02 8fbf 5326 a7be
00000260: 5199 f939 2ea4 033f 08fb 4dbe a5cf 84bc
00000270: 59e1 39bf e182 cb3f 1ad7 683f 8ffd cd3e
00000280: 1bf5 88bf 0798 d13e 7a7c bc3e 1acd 513f
00000290: 1285 90bf 6ccf ddbf ecfe bbbe 5392 1540
000002a0: 8c5e b4be 2a2b 89bf 1ed5 1d3e 9334 3b3e
000002b0: 8ac1 a33b 2dce 26bf 118a 5d3f d108 d2be
000002c0: 36e6 acbe 749f 05bf c6b6 2640 1555 b3be
000002d0: 365e 013e ce2c 0dbf 7c5b c3bf 62ab 2ebf
000002e0: 026f 233f d4d7 993c 25ca bcbe b4b0 e33e
000002f0: 79e9 22c0 c49c 573e 514d 4d3e e7d3 ec3e
00000300: 5c7b a5bf 162e 6b3f 0a56 88be 8c4a 3b3d
00000310: 0dcd b2bf 9038 f0be fc7a 983f ca2a 4b3e
00000320: f665 9ebf a121 28bf e45c 8bbf 0127 6ebf
00000330: e22f 1cc0 53b4 1740 ac48 10bf 0ec0 113f
00000340: 0427 2a3f daae d5be ff35 e93e ae31 803b
00000350: 303c 2a3e a578 43bf 7da4 6ebf f0b3 0a3f
00000360: 77c8 c7bf f60e dd3f b95e 3f3e 7f21 c83e
00000370: f044 283e e291 853e 211d 81bd 217e 623f
00000380: 64d9 133f b8b7 2e3f 223a 11bf f2d1 5ebf
00000390: c53c 3bbe f698 1cbf 083e a93e 6a4a 653f
000003a0: eff5 823f 2bb8 c0bb b7df 91bf 8f04 403f
000003b0: 14ec 373f 74a2 a03f c898 363f 49d1 673f
000003c0: 671d c33e ac7f 2cbf 48c3 8a3f 70de f8bc
000003d0: a039 afbf f97c 8c3f 2e1e b03e 1c97 1fbf
000003e0: 26d5 e13e 6b52 203f 381a 9cbf 4ee6 84be
000003f0: 964b 263e 420d 61bf 2dba d2be c883 9d3b

h.0.mha.W_q.weight f4 [64, 64]
-0.0028552841 -0.24877697 0.200931 -0.022091487 -0.13409495 -0.0056085265 0.12807623 0.058744397
0.2937519 0.1007973 0.17857751 0.018376205 0.19852087 -0.21644796 -0.03491771 -0.07100215
0.14016439 -0.13977219 -0.14414623 0.10473141 0.1306204 -0.14817555 0.075750165 0.19166999
0.15776339 -0.21671633 0.2312653 -0.05563405 0.2034786 -0.21959205 0.0065269126 -0.001433608
0.07444364 0.08980337 -0.023648264 -0.16796513 -0.045197234 -0.12264715 0.10264498 -0.18399993
-0.07200088 0.22651978 0.0407912 -0.23981456 0.078893684 0.07181725 0.07340534 0.068378545
0.020871818 0.118599445 -0.07563815 -0.13065073 0.09488948 -0.025669865 -0.031023627 0.18675186
-0.09719393 -0.08465366 0.15129201 -0.044428717 0.09469702 0.06541749 0.10754995 0.07416719
0.009490933 0.1442877 -0.21317752 0.04540042 0.18306224 0.15569197 0.0487218 0.0066097416
-0.14376135 0.09023121 -0.06330125 -0.0346187 -0.25259677 0.21918905 -0.052944485 -0.12616414
-0.11872261 0.21463366 0.09405651 -0.10818271 -0.09653587 0.096887395 -0.044665333 -0.25118038
-0.056621008 0.07860364 -0.24127853 -0.008333576 -0.09776268 0.13402751 0.03169048 -0.111696854
-0.03313482 0.051862605 0.108780034 0.16742991 -0.01887301 0.13976108 -0.117440864 0.0716453
0.10997642 -0.23984891 -0.0761329 0.22763374 -0.15675531 -0.05837729 -0.24169642 0.014928081
0.12589091 0.024726007 -0.015409519 0.262995 -0.055503786 0.036085926 -0.034476217 -0.1399125
0.1376538 0.01880049 -0.08535209 0.08701651 -0.04283477 0.06558371 -0.11514057 -0.1846655
-0.05553242 0.15699074 -0.28059343 0.044291828 0.08212424 0.09707023 -0.080432415 0.03143429
-0.09690436 -0.021429759 -0.15498821 -0.034606528 -0.1946847 0.19081968 -0.02964457 -0.051908724
-0.17798486 0.23224518 0.12165383 -0.02726427 -0.13625436 0.18188934 -0.16950887 -0.15297368
-0.016897548 0.10707705 -0.26763937 0.01836772 -0.10557936 0.06260321 0.02697699 -0.026234992
-0.013129292 -0.08221205 0.03574953 0.20943949 -0.026489493 0.08256216 -0.0608988 0.051463354
0.046176977 -0.13252674 -0.08839169 0.25292736 -0.106993996 -0.07561419 -0.09690545 -0.061231144
0.01683609 0.0069964123 0.05906399 0.15999943 -0.037076373 0.00391671 -0.009987243 -0.20714189
0.16368407 0.04969979 -0.08032483 0.034494486 -0.03699029 -0.05575435 -0.11082418 -0.068379834
-0.009070027 0.15804978 0.0045280987 0.048941914 0.17246981 0.11851062 -0.089604214 -0.020155026
-0.16373013 -0.039239466 -0.032991894 0.0453232 -0.19060606 0.20150305 0.078040935 -0.037216283
-0.11017397 0.09190505 0.06353992 -0.036774408 -0.08562093 0.16918135 -0.0017592136 -0.0961625
-0.09181908 0.09570229 -0.052462403 0.005054001 -0.13337246 0.05096001 0.14043507 -0.04007564
0.006581523 0.00052035484 -0.026635427 0.2362318 0.045183584 0.124786116 -0.0102711115 0.08663606
0.11015142 -0.07666457 -0.029867724 0.060420413 -0.08796212 -0.03794986 -0.105835184 -0.027174516
-0.0044390047 0.05894277 -0.13096887 0.15554339 -0.030941471 0.0047637993 0.061281063 -0.029233068
0.07533726 0.13598754 -0.008506777 0.09338251 0.028037565 -0.007858535 -0.043734495 0.04611776
00000000: b81f 3bbb 64bf 7ebe dbc0 4d3e 35f9 b4bc
00000010: 3050 09be bbc7 b7bb 6a26 033e f79d 703d
00000020: a666 963e d16e ce3d 06dd 363e b289 963c
00000030: 0e49 4b3e 89a4 5dbe df05 0fbd 9369 91bd
00000040: 4187 0f3e 7120 0fbe 129b 13be 6c7d d63d
00000050: 5bc1 053e 55bb 17be e722 9b3d 2345 443e
00000060: ba8c 213e e3ea 5dbe d0d0 6c3e 88e0 63bd
00000070: b25c 503e bddc 60be b6df d53b e7e7 bbba
00000080: e875 983d d4ea b73d 01ba c1bc 0dff 2bbe
00000090: bc20 39bd 6e2e fbbd 8837 d23d 7a6a 3cbe
000000a0: 3375 93bd cdf4 673e ac14 273d f391 75be
000000b0: 0393 a13d ec14 933d 8a55 963d 0d0a 8c3d
000000c0: 60fb aa3c 44e4 f23d 2de8 9abd 4ec9 05be
000000d0: 6a55 c23d 9c49 d2bc 4325 febc e13b 3f3e
000000e0: 9c0d c7bd e65e adbd 4bec 1a3e e3fa 35bd
000000f0: 83f0 c13d 9bf9 853d 2643 dc3d f8e4 973d
00000100: dc7f 1b3c 28c0 133e 354b 5abe caf5 393d
00000110: ab74 3b3e b76d 1f3e 8390 473d 8896 d83b
00000120: 2d36 13be 24cb b83d 16a4 81bd 57cc 0dbd
00000130: 5d54 81be 1873 603e 51dc 58bd 2c31 01be
00000140: d724 f3bd edc8 5b3e b3a0 c03d e68e ddbd
00000150: 99b4 c5bd e66c c63d fff2 36bd b79a 80be
00000160: 6eeb 67bd f2fa a03d b811 77be 8d89 08bc
00000170: cd37 c8bd 823e 093e e0cd 013d 52c1 e4bd
00000180: 61b8 07bd e26d 543d 11c8 de3d bf72 2b3e
00000190: 929b 9abc 871d 0f3e d684 f0bd c5ba 923d
000001a0: 513b e13d f49a 75be 91eb 9bbd d218 693e
000001b0: 7784 20be 061d 6fbd 447f 77be e994 743c
000001c0: 8ce9 003e 328e ca3c 3578 7cbc 48a7 863e
000001d0: f057 63bd d6ce 133d ef36 0dbd 3945 0fbe
000001e0: 1ef5 0c3e 7c03 9a3c 14cd aebd b635 b23d
000001f0: 8373 2fbd c150 863d d2ce ebbd f418 3dbe
00000200: f675 63bd 2ec2 203e f1a9 8fbe 596b 353d
00000210: c130 a83d c2cc c63d c0b9 a4bd 3ec1 003d
00000220: cb75 c6bd 768d afbc 3bb5 1ebe 93bf 0dbd
00000230: 6d5b 47be 3c66 433e 2bd9 f2bc 3e9e 54bd
00000240: aa41 36be aed1 6d3e a525 f93d 5159 dfbc
00000250: 4386 0bbe 3341 3a3e bc93 2dbe 22a5 1cbe
00000260: ba6c 8abc 364b db3d 0708 89be e777 963c
00000270: fe39 d8bd 1d36 803d d9fe dc3c c4ea d6bc
00000280: 3e1c 57bc cb5e a8bd 196e 123d 4e77 563e
00000290: 7e00 d9bc 5a16 a93d 0571 79bd 3dcb 523d
000002a0: 1224 3d3d 17b5 07be b406 b5bd b27f 813e
000002b0: ab1f dbbd 9ddb 9abd 5d76 c6bd 82cd 7abd
000002c0: d7eb 893c 2942 e53b 15ed 713d e4d6 233e
000002d0: 65dd 17bd bf57 803b 89a1 23bc 011d 54be
000002e0: cc9c 273e 0292 4b3d 5881 a4bd 174a 0d3d
000002f0: 2183 17bd ac5e 64bd caf7 e2bd ba0a 8cbd
00000300: 739a 14bc cdd7 213e 7260 943b 5177 483d
00000310: ed9b 303e b2b5 f23d 6a82 b7bd 271c a5bc
00000320: dfa8 27be 90b9 20bd 8222 07bd d2a4 393d
00000330: 3c2e 43be d156 4e3e edd3 9f3d 1a70 18bd
00000340: e4a2 e1bd b738 bc3d 3821 823d c3a0 16bd
00000350: 075a afbd e03d 2d3e 6a95 e6ba d8f0 c4bd
00000360: a40b bcbd 90ff c33d d1e2 56bd 099c a53b
00000370: ca92 08be 72bb 503d 36ce 0f3e 5b26 24bd
00000380: d1a9 d73b 6c68 083a 8a32 dabc c0e6 713e
00000390: 6c12 393d dd8f ff3d 2a48 28bc 3f6e b13d
000003a0: 1197 e13d 5002 9dbd 28ad f4bc 657b 773d
000003b0: 7c25 b4bd 5071 1bbd 1ec0 d8bd 179d debc
000003c0: 1275 91bb f96d 713d b41c 06be c446 1f3e
000003d0: f878 fdbc a519 9c3b da01 7b3d 307a efbc
000003e0: 6c4a 9a3d 5140 0b3e 0260 0bbc 543f bf3d
000003f0: 09af e53c 16c1 00bc f122 33bd fae5 3c3d

h.0.mha.W_q.bias f4 [64]
-0.20468664 0.5671642 0.50979567 0.31548953 0.20295852 0.6115201 -0.2269865 0.44596627
-0.6441389 -0.32939947 0.15977378 0.17787372 0.044572007 0.63378394 0.28434128 -0.08391602
0.20687239 0.44178423 -0.032359343 0.33692026 -0.2836088 0.15318419 -0.0927145 -0.27490616
-0.082786985 0.055454336 0.037107494 -0.13791817 0.010119351 -0.0938146 0.06427616 0.16091779
-0.09692301 -0.02152531 -0.0078920005 0.027977979 0.03965496 -0.028088652 -0.07987294 -0.025666237
0.09045724 -0.0050394353 0.10555983 0.009310553 0.057763238 0.05479494 0.09093672 0.072717756
-0.017115727 0.07649813 0.11934112 0.040812194 -0.031008258 -0.033312157 -0.03878243 -0.052984484
0.16509499 0.019906549 0.002904239 0.04139906 0.039772887 0.04556688 0.11824832 -0.105176315
00000000: 6099 51be ac31 113f f881 023f d887 a13e
00000010: 5cd4 4f3e 958c 1c3f 266f 68be b155 e43e
00000020: 49e6 24bf 0ca7 a8be bd9b 233e 8724 363e
00000030: 2391 363d aa3f 223f 2e95 913e 2adc abbd
00000040: 5bd6 533e 8b31 e23e 3b8b 04bd d080 ac3e
00000050: 2c35 91be 51dc 1c3e 1ae1 bdbd 80c0 8cbe
00000060: 398c a9bd 1624 633d 07fe 173d 6c3a 0dbe
00000070: a2cb 253c de21 c0bd 38a3 833d a2c7 243e
00000080: 927f c6bd d955 b0bc 734d 01bc 1332 e53c
00000090: 3d6d 223d 2c1a e6bc 6d94 a3bd 0042 d2bc
000000a0: a541 b93d d921 a5bb c12f d83d 4a8b 183c
000000b0: 2599 6c3d a970 603d 083d ba3d 0ced 943d
000000c0: 4836 8cbc 0dab 9c3d 1e69 f43d b02a 273d
000000d0: 0805 febc 5472 08bd 53da 1ebd 4206 59bd
000000e0: a90e 293e 0f13 a33c 0c55 3e3b 1092 293d
000000f0: e5e8 223d 56a4 3a3d 2d2c f23d ae66 d7bd

h.0.mha.W_k.weight f4 [64, 64]
0.014773689 -0.04162958 0.04375722 -0.06532419 -0.059514936 -0.07504755 -0.029465396 0.13050157
0.068829 -0.009473307 -0.009902318 0.05833628 0.024474662 -0.07364991 0.026127983 0.040406685
-0.014316138 0.004810371 0.04010936 0.053251166 -0.03865886 -0.08719597 0.03948757 0.022040257
0.04360718 -0.119075395 0.07375855 -1.6435326e-05 0.023717687 -0.009307526 -0.030911842 0.049988825
0.009601567 0.011627665 0.038911607 -0.0022576244 -0.0107722115 0.018816777 -0.005675641 0.07000779
0.074052595 0.038051844 0.0074121216 -0.054171614 0.009954222 -0.0028473905 0.059965696 0.05584643
0.0057421583 0.0033330882 -0.05912541 -0.07427392 0.08929613 -0.013652599 -0.015098811 0.057489786
0.010880009 -0.0764665 -0.010129638 -0.032688685 -0.010110719 -0.049257997 0.03236999 0.04631336
-0.035701323 0.2161202 -0.24675658 0.031718943 0.22636835 0.12859005 -0.03663729 -0.046307463
-0.21404122 -0.12203311 -0.16017675 0.011584976 -0.3469485 0.30849954 -0.02626019 -0.19112808
-0.13255379 0.19107153 0.13962905 -0.064587034 -0.18264264 0.24984117 -0.08166825 -0.21468204
-0.17519467 0.2842078 -0.32135153 -0.034747407 -0.17024755 0.20593661 -0.07903964 -0.019798363
-0.019777136 -0.13270108 0.08004579 0.19679424 -0.02274346 0.07516622 -0.09129375 0.21912277
0.02006901 -0.28858763 -0.13335177 0.25053197 -0.11555028 -0.11352148 -0.22742245 -0.17154694
0.03841076 -0.22685546 0.16722648 0.3387238 -0.13077745 0.106782556 -0.07167652 -0.312987
0.3019021 0.06376085 -0.25876033 0.10804222 -0.13614094 -0.20389315 -0.1353899 -0.0926035
0.014506518 -0.15769097 0.14787135 0.004706028 -0.09192333 -0.07409956 0.030993562 0.005492615
0.15758754 -0.026333809 0.16649427 0.045128096 0.11689221 -0.18521947 0.01661601 0.022411553
0.0818258 -0.12653029 -0.06629027 0.07681791 0.16124412 -0.17889501 0.014975236 0.17193836
0.07169401 -0.103785716 0.16650954 0.05079086 0.1199054 -0.16915315 0.04705123 0.015860403
0.047631647 0.023216194 -0.034794647 -0.16064705 -0.015954725 -0.023876216 0.056828402 -0.09103237
0.02390826 0.11322903 0.093973584 -0.22063257 0.07398108 0.017200584 0.12641156 0.13804291
-0.1094784 0.13470645 -0.058730498 -0.20262736 0.08203444 -0.07419911 0.041440744 0.14639343
-0.18311293 -0.14417408 0.12769644 0.040267285 0.073877424 0.11334322 0.033951756 0.10210523
-0.121800676 0.06590238 -0.09294414 0.026459664 0.19344597 0.03588408 -0.041436534 -0.10888979
-0.09679298 -0.064407155 -0.11677569 -0.051208608 -0.30697668 0.16936581 0.0357251 0.055389024
-0.10112981 0.13652384 0.1506709 0.030172242 -0.053298164 0.18860577 -0.032923255 -0.10776872
-0.052026346 0.08613769 -0.17164677 0.041863482 -0.0029413144 0.19869874 -0.0011655206 0.087380394
-0.024706053 -0.13527107 0.07127583 0.13406321 0.035174787 0.058238164 -0.03153202 0.20317319
0.031747133 -0.18380922 -0.040688355 0.20452236 -0.035565726 -0.058966335 -0.044038836 -0.10023328
0.0059760623 -0.09538901 0.13164353 0.115465336 -0.08631668 0.09720659 -0.023372501 -0.20244443
0.24112181 0.010872294 -0.117171526 0.019574279 -0.071334764 -0.07861662 -0.10756932 0.016845372
00000000: 580d 723c c783 2abd c53a 333d b0c8 85bd
00000010: efc5 73bd 88b2 99bd 6a61 f1bc 34a2 053e
00000020: 38f6 8c3d ee35 1bbc 553d 22bc 06f2 6e3d
00000030: 167f c83c c4d5 96bd 5a0a d63c 7b81 253d
00000040: 3c8e 6abc 51a0 9d3b b649 243d e51d 5a3d
00000050: c158 1ebd cd93 b2bd b8bd 213d c58d b43c
00000060: 719d 323d cddd f3bd b90e 973d 98de 89b7
00000070: 984b c23c 987e 18bc d53a fdbc 15c1 4c3d
00000080: e44f 1d3c f681 3e3c c761 1f3d a7f4 13bb
00000090: ee7d 30bc a425 9a3c bafa b9bb 3f60 8f3d
000000a0: e3a8 973d 40dc 1b3d 62e1 f23b 0ee3 5dbd
000000b0: 0817 233c 499b 3abb 979e 753d 3abf 643d
000000c0: b728 bc3b f16f 5a3b 7c2d 72bd ed1c 98bd
000000d0: e4e0 b63d 27af 5fbc 0161 77bc 697a 6b3d
000000e0: 1142 323c 789a 9cbd c8f6 25bc 92e4 05bd
000000f0: 6ea7 25bc c1c2 49bd 6596 043d 14b3 3d3d
00000100: 8d3b 12bd 9d4e 5d3e c2ad 7cbe b9eb 013d
00000110: 1bcd 673e 1cad 033e fc10 16bd e5ac 3dbd
00000120: 9f2d 5bbe 7fec f9bd 6005 24be e9ce 3d3c
00000130: 3ca3 b1be a7f3 9d3e 9c1f d7bc 14b7 43be
00000140: 2ebc 07be 41a8 433e ebfa 0e3e 3546 84bd
00000150: ac06 3bbe 5dd6 7f3e af41 a7bd 9cd5 5bbe
00000160: 3b66 33be af83 913e 3088 a4be 4c53 0ebd
00000170: 6055 2ebe 0ce1 523e 89df a1bd 2d30 a2bc
00000180: a903 a2bc cbe2 07be 0cef a33d 6e84 493e
00000190: 7e50 babc bff0 993d 38f8 babd b861 603e
000001a0: c467 a43c c2c1 93be 5e8d 08be ba45 803e
000001b0: a0a5 ecbd f37d e8bd 6ee1 68be 00aa 2fbe
000001c0: 9a54 1d3d cc4c 68be 6b3d 2b3e 356d ad3e
000001d0: 86ea 05be d0b0 da3d 24cb 92bd d53f a0be
000001e0: e992 9a3e 0c95 823d 3c7c 84be 3d45 dd3d
000001f0: 8868 0bbe 5ec9 50be a6a3 0abe e7a6 bdbd
00000200: bfac 6d3c be79 21be 966b 173e 0635 9a3b
00000210: 4d42 bcbd 83c1 97bd 36e6 fd3c 65fb b33b
00000220: a15e 213e 00ba d7bc 797d 2a3e 3dd8 383d
00000230: 2f65 ef3d 2caa 3dbe 4c1e 883c 6f98 b73c
00000240: 4994 a73d 2891 01be 31c3 87bd b552 9d3d
00000250: 2e1d 253e 4130 37be b15a 753c 9c10 303e
00000260: 4fd4 923d 9b8d d4bd 7a81 2a3e 140a 503d
00000270: f690 f53d 7c36 2dbe cab8 403d aded 813c
00000280: 6719 433d e32f be3c d584 0ebd a980 24be
00000290: 7cb3 82bc 0e98 c3bc e6c4 683d 2e6f babd
000002a0: 41db c33c 9fe4 e73d 3975 c03d 81ed 61be
000002b0: 6483 973d 3de8 8c3c 0872 013e 1f5b 0d3e
000002c0: 3636 e0bd 7df0 093e 648f 70bd 8c7d 4fbe
000002d0: ac01 a83d b4f5 97bd c5bd 293d 29e8 153e
000002e0: f581 3bbe 5fa2 13be dbc2 023e 4fef 243d
000002f0: 0c4d 973d 7d20 e83d ff10 0b3d 8c1c d13d
00000300: a272 f9bd d4f7 863d 7f59 bebd f0c1 d83c
00000310: b316 463e 2ffb 123d 5bb9 29bd 9c01 dfbd
00000320: 663b c6bd e6e7 83bd 1828 efbd 1ec0 51bd
00000330: 0c2c 9dbe 3b6e 2d3e 7c54 123d 9adf 623d
00000340: 251d cfbd e8cc 0b3e 7949 1a3e c72b f73c
00000350: 2d4f 5abd df21 413e 89da 06bd d9b5 dcbd
00000360: 9419 55bd f568 b03d 2cc4 2fbe 0b79 2b3d
00000370: 11c3 40bb af77 4b3e 62c4 98ba 7ef4 b23d
00000380: 5964 cabc 8084 0abe 10f9 913d de47 093e
00000390: 7013 103d 248b 6e3d b827 01bd a20c 503e
000003a0: 4809 023d 7c38 3cbe d5a8 26bd 4f6e 513e
000003b0: 5ead 11bd af86 71bd 1162 34bd 1b47 cdbd
000003c0: d8d2 c33b 505b c3bd 90cd 063e 1779 ec3d
000003d0: cdc6 b0bd 4014 c73d b077 bfbc 984d 4fbe
000003e0: a3e8 763e b521 323c a0f7 efbd 3d5a a03c
000003f0: f617 92bd c001 a1bd 4e4d dcbd 4eff 893c

h.0.mha.W_k.bias f4 [64]
-0.013007748 0.5991356 -0.3707574 0.674358 -0.33137792 0.46426728 -1.3557992 -0.0468957
-0.45808154 -1.087438 0.35096246 0.04786673 0.20234813 1.3103224 -0.11560476 -0.42734835
0.08275905 0.48660147 -0.38959253 1.2649765 -0.055050403 0.07786415 -1.0111122 0.30437312
-0.36449552 0.9532893 -0.23254316 -0.48244497 0.35506374 -0.07515111 0.25638938 -0.5832506
-0.790697 -0.24266152 -0.3499476 0.2996344 0.08775995 -0.13754141 0.45407686 -0.14534873
0.586935 0.0073080123 0.19065844 -0.12928334 -0.456457 0.10455212 0.47279614 0.20745566
0.14107937 0.31129432 -0.3120431 -0.2041817 0.015773868 -0.56342846 0.42537445 -0.29629448
-0.2793215 -0.42437723 0.28508702 -0.48592454 0.54768974 0.26383436 0.024532547 -0.6682328
00000000: 731e 55bc f360 193f ead3 bdbe baa2 2c3f
00000010: 5eaa a9be 71b4 ed3e d48a adbf b515 40bd
00000020: aa89 eabe 2b31 8bbf 5ab1 b33e e70f 443d
00000030: 5934 4f3e a5b8 a73f 30c2 ecbd 67cd dabe
00000040: 947d a93d d423 f93e ac78 c7be c0ea a13f
00000050: 887c 61bd 3d77 9f3d 206c 81bf cbd6 9b3e
00000060: 289f babe c40a 743f cb1f 6ebe 0703 f7be
00000070: eaca b53e d3e8 99bd 7845 833e e94f 15bf
00000080: 1e6b 4abf 437c 78be 552c b3be ae69 993e
00000090: 7dbb b33d a8d7 0cbe c37c e83e 4cd6 14be
000000a0: 5f41 163f 0d78 ef3b f73b 433e da62 04be
000000b0: bbb4 e9be 6c1f d63d 5612 f23e 426f 543e
000000c0: 1c77 103e f861 9f3e 1dc4 9fbe 0215 51be
000000d0: 3338 813c d93c 10bf aeca d93e e9b3 97be
000000e0: 3a03 8fbe f947 d9be edf6 913e 1acb f8be
000000f0: 6535 0c3f 4c15 873e 7bf8 c83c 4e11 2bbf

h.0.mha.W_v.weight f4 [64, 64]
0.0031818782 0.027650144 0.22134702 -0.19097984 0.16013749 -0.15763818 -0.10170515 0.34135437
-0.14345971 0.06567166 0.02506461 0.04490188 0.018947026 -0.3323682 0.1128192 -0.033782568
-0.054945763 0.116543286 -0.0962082 0.27662632 0.12124408 0.042557385 0.15001194 -0.05500313
-0.11183689 -0.09747824 -0.28086692 0.0261183 0.27323055 -0.061568797 0.099311344 -0.15914895
0.087303236 -0.018934013 0.13451532 0.07868804 -0.17077705 0.10193879 0.024411283 0.12314847
-0.09234306 0.00016327125 0.19693469 -0.05454922 0.050602943 0.1491281 -0.0580845 0.17041843
-0.014129156 0.06473728 0.055904772 -0.02768772 -0.29611674 -0.056157123 0.19277042 0.08368375
0.12486694 -0.0066217626 -0.0393929 -0.11610057 0.039809145 -0.11537816 -0.1236259 -0.1854991
-0.1566741 0.0134621 -0.035511784 -0.30296856 0.058872376 0.14304599 0.06810439 0.05554728
0.022894684 -0.0833368 -0.06041743 0.17368525 -0.092600614 0.063131966 -0.10226309 -0.10437916
-0.06223978 0.11467998 0.1769846 0.037930302 0.0018137296 -0.1243687 0.080269635 -0.010011521
0.11953537 -0.06970657 -0.21850275 -0.088186316 0.012836408 0.008623459 0.07672017 -0.04690651
0.051847126 0.08620952 -0.24168368 0.0721076 0.0012251725 0.0071947924 0.16320494 -0.012957867
0.15500174 0.29534107 0.107686445 0.07447084 -0.122522436 -0.076877594 0.019687885 -0.03986765
0.11960235 0.0634103 -0.16685285 -0.028559403 -0.27289858 0.12226813 0.15349486 0.044537406
0.10475509 -0.011748677 0.15664671 0.076941945 0.020600084 -0.0077098724 -0.062393054 0.10634412
0.014223603 -0.17049465 -0.092749365 0.2903162 0.022567775 0.15484744 -0.34915358 -0.018962577
0.048479877 0.12701084 0.14068364 0.052013133 0.16588564 0.21094619 0.15036543 0.021533972
0.10898139 0.37249237 -0.15997463 -0.12352401 -0.08835316 -0.115666695 -0.079087414 0.16813701
-0.08720106 -0.2145294 -0.033094957 0.07514843 -0.23541468 0.053165134 -0.16670664 0.0019214286
-0.010240522 -0.17694835 0.0061946237 0.088914484 -0.24673416 -0.27980608 0.020930843 0.09012473
0.08651913 -0.11392268 -0.056850202 -0.14210047 -0.09076624 0.088938184 -0.0054550734 0.10955688
-0.10389096 -0.038033154 -0.012528355 0.2051714 -0.039997887 0.15553871 0.021987244 -0.043722972
-0.12456298 0.30609977 0.17281306 0.16131063 0.22275403 0.05480687 0.12133236 -0.25017145
0.11867055 0.19100712 0.056480475 0.12365182 -0.012872139 -0.16587497 -0.046739925 0.16066365
0.1361127 0.09455128 0.2490321 0.20974848 -0.011116697 -0.104483254 0.01479482 -0.11402595
-0.07882554 0.0689611 -0.0889693 -0.027424352 -0.1678522 0.07000973 0.08830691 -0.0449398
0.098418795 -0.22271304 -0.22280852 -0.07499955 -0.1797173 0.07270459 0.22419016 -0.23969278
-0.30813172 0.001848435 -0.15031365 0.3104378 0.21325734 -0.23868433 -0.12150185 0.032414187
0.0037489242 -0.1068641 0.32316768 -0.25230956 0.017689597 0.05811357 0.015531453 -0.25432554
-0.16070037 0.10743837 -0.06425713 -0.046287034 -0.0222388 0.013968847 -0.00494198 -0.04150772
-0.16607343 -0.23403461 0.11068109 -0.012486998 -0.037196606 0.14121342 -0.07541763 -0.03101115
00000000: 0f87 503b 8e82 e23c cba8 623e 3890 43be
00000010: 15fb 233e e76b 21be ca4a d0bd 00c6 ae3e
00000020: 1ae7 12be dd7e 863d 4c54 cd3c 09eb 373d
00000030: cb36 9b3c 2a2c aabe c10d e73d 975f 0abd
00000040: cf0e 61bd 3fae ee3d ce08 c5bd f7a1 8d3e
00000050: d14e f83d a750 2e3d bb9c 193e f64a 61bd
00000060: bd0a e5bd aca2 c7bd cacd 8fbe 0cf6 d53c
00000070: e0e4 8b3e 902f 7cbd bf63 cb3d f1f7 22be
00000080: 0acc b23d 811b 9bbc 62be 093e 3227 a13d
00000090: 2ee0 2ebe 49c5 d03d 2cfa c73c 4435 fc3d
000000a0: 5c1e bdbd cb33 2b39 3fa9 493e 016f 5fbd
000000b0: 0845 4f3d 09b5 183e 03ea 6dbd 2b82 2e3e
000000c0: fa7d 67bc fb94 843d 67fc 643d 5bd1 e2bc
000000d0: 9d9c 97be 0305 66bd 9c65 453e 6362 ab3d
000000e0: 3dba ff3d 5ffb d8bb 735a 21bd 23c6 edbd
000000f0: ea0e 233d 624b ecbd 932f fdbd 7af3 3dbe
00000100: 2d6f 20be 2490 5c3c ce74 11bd b21e 9bbe
00000110: 2924 713d a67a 123e 507a 8b3d 8b85 633d
00000120: a28d bb3c 7cac aabd 4478 77bd 8cda 313e
00000130: 64a5 bdbd 554b 813d 506f d1bd bec4 d5bd
00000140: 24ef 7ebd 56dd ea3d 733b 353e ce5c 1b3d
00000150: abba ed3a 04b5 febd 6864 a43d 5d07 24bc
00000160: f6ce f43d 51c2 8ebd 2fbf 5fbe 079b b4bd
00000170: cc4f 523c 6949 0d3c 771f 9d3d 0a21 40bd
00000180: a75d 543d 9e8e b03d ed7b 77be 26ad 933d
00000190: f895 a03a 4bc2 eb3b 321f 273e 3c4d 54bc
000001a0: c7b8 1e3e f236 973e b68a dc3d 2b84 983d
000001b0: 0bed fabd 0072 9dbd 7d48 a13c 434c 23bd
000001c0: 14f2 f43d 42dd 813d 79db 2abe 69f5 e9bc
000001d0: 5db9 8bbe b767 fa3d c22d 1d3e db6c 363d
000001e0: d689 d63d 867d 40bc ff67 203e bd93 9d3d
000001f0: 82c1 a83c 19a3 fcbb dc8f 7fbd f2ca d93d
00000200: 1d0a 693c 2696 2ebe 61f3 bdbd 53a4 943e
00000210: 0ee0 b83c 5490 1e3e 42c4 b2be 6857 9bbc
00000220: d692 463d 210f 023e 5f0f 103e b90b 553d
00000230: eddd 293e 4702 583e 65f9 193e 0368 b03c
00000240: a331 df3d 52b7 be3e 64d0 23be 28fa fcbd
00000250: 80f2 b4bd a9e2 ecbd 95f8 a1bd 1c2c 2c3e
00000260: 7896 b2bd 98ad 5bbe 948e 07bd 6ce7 993d
00000270: 8c10 71be afc3 593d 25b5 2abe 72d8 fb3a
00000280: ddc7 27bc f331 35be 45fc ca3b cc18 b63d
00000290: e1a7 7cbe be42 8fbe 2977 ab3c 5093 b83d
000002a0: f130 b13d 4b50 e9bd c2db 68bd c982 11be
000002b0: a7e3 b9bd 3925 b63d 79c0 b2bb 5c5f e03d
000002c0: c9c4 d4bd a7c8 1bbd bb43 4dbc 7418 523e
000002d0: d3d4 23bd 8a45 1f3e 981e b43c dc16 33bd
000002e0: e01a ffbd 1cb9 9c3e e8f5 303e 9d2e 253e
000002f0: a219 643e 2b7d 603d 1a7d f83d 7916 80be
00000300: 8c09 f33d 5f97 433e 1258 673d 2a3d fd3d
00000310: aae5 52bc 21db 29be 5d72 3fbd 0385 243e
00000320: 2161 0b3e 1aa4 c13d 4502 7f3e 4ec8 563e
00000330: cf22 36bc 51fb d5bd f965 723c 7086 e9bd
00000340: 496f a1bd 7a3b 8d3d 8935 b6bd 09a9 e0bc
00000350: 72e1 2bbe 4361 8f3d 41da b43d cc12 38bd
00000360: cb8f c93d e30e 64be eb27 64be 5d99 99bd
00000370: d007 38be 25e6 943d 1b92 653e 0672 75be
00000380: 71c3 9dbe 3047 f23a d2eb 19be b4f1 9e3e
00000390: 2260 5a3e aa69 74be f6d5 f8bd bdc4 043d
000003a0: 83b0 753b 91db dabd 3c76 a53e b82e 81be
000003b0: c6e9 903c 7f08 6e3d a377 7e3c f536 82be
000003c0: a38e 24be a608 dc3d 3e99 83bd 7997 3dbd
000003d0: 252e b6bc 97dd 643c 55f0 a1bb 0004 2abd
000003e0: 270f 2abe c5a6 6fbe c4ac e23d 4496 4cbc
000003f0: 785b 18bd 409a 103e 8f74 9abd 180b febc

h.0.mha.W_v.bias f4 [64]
-0.058056988 0.055424917 0.017815655 0.07292659 -0.14301896 -0.06810651 0.042487025 -0.16682734
-0.07660318 -0.08199346 -0.02497376 -0.17564969 0.12955205 0.090482466 -0.12610243 0.017655367
0.00773519 -0.0805274 -0.07296854 0.017004725 -0.07968505 -0.07234617 -0.015843198 0.02421718
0.017892702 0.13171168 0.13623135 0.014565628 0.05486656 0.1536754 0.049038112 0.1411465
-0.14371017 0.06296266 0.13504577 0.071942635 0.03792303 0.17399864 0.043659467 -0.059018534
-0.11084726 -0.021498155 0.067558244 -0.09108457 -0.14100406 -0.051396266 -0.11691187 -0.08502086
-0.1395502 0.032188125 -0.14466429 -0.023609743 -0.18285127 -0.110564865 0.0839431 0.1087273
-0.10685321 -0.094361335 -0.17752968 0.07818872 0.102183476 -0.106634885 -0.008027656 -0.031879812
00000000: 2acd 6dbd 3d05 633d 23f2 913c 895a 953d
00000010: 9073 12be 6d7b 8bbd e006 2e3d c9d4 2abe
00000020: 21e2 9cbd 30ec a7bd c595 ccbc 83dd 33be
00000030: 4ba9 043e df4e b93d ff20 01be fda1 903c
00000040: 7a77 fd3b 8deb a4bd 8870 95bd 7e4d 8b3c
00000050: ea31 a3bd 3b2a 94bd 98c9 81bc 1c63 c63c
00000060: b793 923c 6ddf 063e 3b80 0b3e aca4 6e3c
00000070: c2bb 603d 165d 1d3e 30dc 483d b588 103e
00000080: c228 13be 91f2 803d 7049 0a3e a956 933d
00000090: 2e55 1b3d b32c 323e 45d4 323d 6bbd 71bd
000000a0: e303 e3bd e61c b0bc fa5b 8a3d 8c8a babd
000000b0: 5e63 10be e484 52bd 7e6f efbd 6b1f aebd
000000c0: 3fe6 0ebe b2d7 033d e022 14be 3869 c1bc
000000d0: 5d3d 3bbe d56f e2bd 5cea ab3d 6bac de3d
000000e0: dbd5 dabd 8440 c1bd 57ca 35be 6821 a03d
000000f0: 9245 d13d 6463 dabd 6e86 03bc 6894 02bd

h.0.mha.W_o.weight f4 [64, 64]
-0.02671089 -0.09507968 0.18094793 -0.07685372 0.058299083 -0.0048821354 0.030732756 0.05676997
0.13773929 0.02176165 -0.061039567 -0.04706812 -0.014697633 -0.025766462 -0.074025996 0.04233131
0.030619442 -0.036058024 -0.08445787 -0.112026215 -0.15718654 -0.052310232 0.13678168 -0.10086329
-0.043824874 -0.00941405 -0.039054208 -0.10103997 -0.045242485 0.0048666717 -0.11766048 0.03255812
0.08611102 -0.18832037 -0.08170285 0.06917283 -0.055441745 0.15738408 -0.005486446 0.14553449
0.043435503 -0.009936554 0.100726016 -0.0061938167 -0.09982127 -0.18721084 0.03004287 -0.026378741
0.17043579 0.057892036 0.01340777 0.0066775223 -0.025170574 0.09911037 0.050704893 -0.085378855
0.0131039135 0.08240556 -0.0013851706 -7.0333976e-05 -0.019854898 -0.04182087 -0.0407252 0.16253282
0.06265281 -0.06803846 0.013131315 0.11610809 0.009244149 0.03310951 -0.03425615 -0.011874009
-0.1227062 0.082364805 0.037494294 0.0064803744 0.04297291 -0.124680586 0.053457674 -0.024666606
-0.05437341 -0.07504492 0.020875053 -0.06418033 0.078412145 0.0017680831 -0.114914715 0.039952848
0.08838538 -0.07025709 0.04937022 -0.06048603 -0.13398805 0.004847396 0.07692717 -0.08085667
0.07879863 0.020634834 0.028822133 -0.0035003948 0.016154688 0.026025359 -0.043608136 -0.040989235
-0.008579821 0.03508783 0.014618594 0.08648667 -0.03793571 -0.036601916 0.009018201 -0.024745062
0.007455033 -0.033189822 -0.020696495 -0.041130338 -0.14530581 0.01993198 -0.08577078 -0.04972818
0.0559924 0.1210276 0.028202228 -0.07624427 0.0241005 -0.047978424 0.041821234 0.034902725
0.108376846 0.16824633 0.06761253 0.15372074 -0.040625155 -0.12371193 -0.071347624 -0.042830914
-0.011014013 -0.11339808 -0.008462614 -0.027592037 0.04607386 0.1251967 0.34031695 0.2250971
-0.18451744 0.08509953 -0.078103274 0.19852392 -0.034237504 -0.14630428 -0.11597427 -0.008670134
0.26037535 0.04657845 -0.062233403 0.047219265 0.104014866 0.04812325 0.07996413 -0.117640726
-0.3520251 0.03493575 -0.110471025 0.09523228 0.0925088 -0.39705804 0.17754938 -0.12674595
-0.26850906 -0.018759592 -0.017777486 0.13021149 -0.13335668 0.025326682 -0.15120055 -0.045777727
-0.10981416 -0.059663244 0.21270129 0.028702423 -0.008069031 -0.15440132 -0.06501562 0.06828087
-0.09184516 -0.08591965 -0.010303975 0.07189411 -0.10696434 0.18674126 -0.03731691 -0.08965245
-0.12843917 -0.14017779 -0.026579149 -0.018715441 0.008956279 -0.01974279 0.10290859 0.026410224
0.0690371 -0.004828178 0.1306395 0.007668894 -0.07667322 0.06545273 -0.08402681 0.015646785
0.11826637 0.08684538 0.10371741 0.013489217 -0.09699343 0.15945998 -0.012798262 0.047653012
0.0010868793 0.035442118 -0.0011648088 -0.015361161 -0.05062442 -0.092635386 0.024087366 0.033919316
-0.13001296 0.033553675 0.07950763 -0.110995375 0.06947138 0.054527838 -0.17360574 -0.012231493
0.06696133 -0.02533914 0.026231185 0.07661566 -0.021732468 0.076261304 0.14306383 0.17443678
0.017892448 0.078168936 0.02821701 -0.06671219 -0.0067812977 -0.048610065 0.018392822 -0.008645913
0.003634342 -0.101403296 -0.078837454 -0.05516589 0.10869097 -0.01131107 -0.18199806 0.027889423
00000000: ccd0 dabc 23b9 c2bd 6a4a 393e 7c65 9dbd
00000010: 05cb 6e3d 52fa 9fbb 43c3 fb3c a187 683d
00000020: 870b 0d3e 7d45 b23c a004 7abd 80ca 40bd
00000030: 57ce 70bc 3014 d3bc f19a 97bd 9963 2d3d
00000040: a0d5 fa3c 94b1 13bd 3ff8 acbd 006e e5bd
00000050: 82f5 20be 4143 56bd 7f10 0c3e 6a91 cebd
00000060: b681 33bd 633d 1abc 4ef7 1fbd 0bee cebd
00000070: 2f50 39bd 9a78 9f3b faf7 f0bd aa5b 053d
00000080: f95a b03d 0ed7 40be d353 a7bd 7caa 8d3d
00000090: e216 63bd 4b29 213e a5c7 b3bb fe06 153e
000000a0: 6de9 313d eecc 22bc 7149 ce3d 80f5 cabb
000000b0: 186f ccbd 33b4 3fbe 771c f63c 3b18 d8bc
000000c0: b886 2e3e 3320 6d3d 43ac 5b3c 1ecf da3b
000000d0: 8532 cebc 61fa ca3d efaf 4f3d 1cdb aebd
000000e0: ccb1 563c 3fc4 a83d 9d8e b5ba 4480 93b8
000000f0: bda6 a2bc 5c4c 2bbd 78cf 26bd 016f 263e
00000100: 1e50 803d c057 8bbd ba24 573c 14ca ed3d
00000110: c574 173c d69d 073d 2d50 0cbd 348b 42bc
00000120: 634d fbbd e1ae a83d 9e93 193d 5259 d43b
00000130: 5d04 303d 8958 ffbd 6ff6 5a3d 9f11 cabc
00000140: a7b6 5ebd 27b1 99bd 2902 ab3c fa70 83bd
00000150: 8c96 a03d 06bf e73a 6858 ebbd 99a5 233d
00000160: 6503 b53d f3e2 8fbd 6e38 4a3d 33c0 77bd
00000170: 2a34 09be e8d6 9e3b fe8b 9d3d 2f98 a5bd
00000180: 2d61 a13d 620a a93c 651c ec3c e166 65bb
00000190: d656 843c 2233 d53c 729e 32bd 54e4 27bd
000001a0: 6192 0cbc 42b8 0f3d d482 6f3c ec1f b13d
000001b0: 7a62 1bbd e4eb 15bd 14c1 133c 28b6 cabc
000001c0: 5949 f43b 0df2 07bd b28b a9bc 4978 28bd
000001d0: 0ccb 14be 6448 a33c 97a8 afbd c7af 4bbd
000001e0: 4958 653d 51dd f73d 5c08 e73c f525 9cbd
000001f0: 696e c53c 0685 44bd be4c 2b3d 29f6 0e3d
00000200: aef4 dd3d c448 2c3e 7078 8a3d f868 1d3e
00000210: 9066 26bd ae5c fdbd b41e 92bd 786f 2fbd
00000220: 1e74 34bc 413d e8bd c7a6 0abc b208 e2bc
00000230: f2b7 3c3d 9033 003e 063e ae3e db7f 663e
00000240: 24f2 3cbe aa48 ae3d 9cf4 9fbd db49 4b3e
00000250: a03c 0cbd cad0 15be eb83 edbd 2d0d 0ebc
00000260: eb4f 853e 0bc9 3e3d 74e8 7ebd fd68 413d
00000270: bf05 d53d e31c 453d 3cc4 a33d 9fed f0bd
00000280: a23c b4be ca18 0f3d a23e e2bd 2409 c33d
00000290: 4175 bd3d 314b cbbe 81cf 353e b1c9 01be
000002a0: 057a 89be b7ad 99bc 17a2 91bc 2956 053e
000002b0: a78e 08be e779 cf3c 51d4 1abe 6d81 3bbd
000002c0: 3fe6 e0bd 7261 74bd 5ece 593e 5821 eb3c
000002d0: f833 04bc 611b 1ebe e926 85bd d7d6 8b3d
000002e0: 5119 bcbd a4f6 afbd 01d2 28bc 383d 933d
000002f0: 1f10 dbbd 1a39 3f3e 9ed9 18bd b49b b7bd
00000300: 8f85 03be c48a 0fbe 84bc d9bc 2051 99bc
00000310: 5bbd 123c a2bb a1bc bdc1 d23d 415a d83c
00000320: 5363 8d3d b135 9ebb 5cc6 053e 584b fb3b
00000330: d906 9dbd 150c 863d 4016 acbd b02d 803c
00000340: a335 f23d fedb b13d cb69 d43d e001 5d3c
00000350: 7ea4 c6bd 7a49 233e cdaf 51bc ce2f 433d
00000360: 9e75 8e3a c12b 113d 7fac 98ba 61ad 7bbc
00000370: 8d5b 4fbd 9fb7 bdbd de52 c53c fbee 0a3d
00000380: 1e22 05be 946f 093d e5d4 a23d 8b51 e3bd
00000390: 0347 8e3d 9558 5f3d b4c5 31be 9a66 48bc
000003a0: 0623 893d 0794 cfbc c8e2 d63c ace8 9c3d
000003b0: 4a08 b2bc e32e 9c3d 537f 123e 8e9f 323e
000003c0: 2f93 923c 0917 a03d 5c27 e73c 67a0 88bd
000003d0: a635 debb 591b 47bd 8bac 963c 96a7 0dbc
000003e0: 242e 6e3b 88ac cfbd 8875 a1bd a1f5 61bd
000003f0: 5f99 de3d 1152 39bc b35d 3abe 5c78 e43c

h.0.mha.W_o.bias f4 [64]
-0.0993759 0.060991827 0.013115881 -0.080525614 0.033303812 -0.016498623 -0.027790602 0.028116645
-0.08181678 -0.037003614 -0.09149416 0.047318876 -0.014120677 0.03867705 -0.017409556 0.057648726
0.061876416 0.0295055 0.08120829 -0.020293495 -0.079931855 0.03503879 -0.012385229 -0.0032963725
-0.061771505 0.0565194 0.010889697 0.036048625 -0.111670054 0.16276729 0.016054822 0.03763211
0.04665766 -0.098393746 -0.05185348 0.13621521 0.04005678 -0.024574019 -0.03278768 0.024994712
-0.08550573 0.012057906 -0.09097798 0.08942227 -0.031023981 0.028116055 -0.068264194 0.0134284245
-0.16121262 0.052900087 0.17053975 0.063142665 -0.023161309 0.0199888 -0.06322821 -0.22589032
0.11373683 0.12945831 0.10340579 -0.061700165 -0.028195487 0.0009842222 0.08472701 -0.0836524
00000000: 9885 cbbd 91d2 793d fee3 563c 9dea a4bd
00000010: 9469 083d 1f28 87bc 1ea9 e3bc e154 e63c
00000020: 8e8f a7bd 1a91 17bd 4a61 bbbd 70d1 413d
00000030: 695a 67bc d46b 1e3d 7c9e 8ebc 1221 6c3d
00000040: 2072 7d3d 85b5 f13c 8850 a63d 8b3e a6bc
00000050: 50b3 a3bd d684 0f3d 6aeb 4abc f407 58bb
00000060: 1e04 7dbd e380 673d b36a 323c b9a7 133d
00000070: 45b3 e4bd 78ac 263e 6785 833c 2124 1a3d
00000080: 1a1c 3f3d a982 c9bd 5164 54bd 007c 0b3e
00000090: 9412 243d 744f c9bc 604c 06bd b6c1 cc3c
000000a0: a11d afbd 868e 453c aa52 babd 0623 b73d
000000b0: 0126 febc a453 e63c 19ce 8bbd e502 5c3c
000000c0: ec14 25be c3ad 583d f9a1 2e3e f150 813d
000000d0: c9bc bdbc 8dbf a33c cb7d 81bd cb4f 67be
000000e0: dbee e83d b890 043e 6ac6 d33d 50b9 7cbd
000000f0: 39fa e6bc 0401 813a 5b85 ad3d f351 abbd

h.0.ln_1.weight f4 [64]
0.50909656 0.74699295 0.63662344 0.56975037 0.8854362 0.757616 0.47550994 0.45834544
0.66461045 0.45630485 0.3768109 0.39533365 0.8451891 0.9606116 0.3161956 0.5554023
0.60334736 0.8010992 0.39365295 0.38916114 0.6063289 0.5707199 0.39705235 0.7944473
0.54872185 0.7070383 0.9174665 0.40224177 0.6958007 0.5745044 0.35747385 0.4258845
0.4199369 0.4665625 0.48501825 0.73887014 0.3890722 0.5823178 0.68928 0.5940213
0.32821575 0.927807 0.51431835 0.68292755 0.7610358 0.5682317 0.68735474 0.5050194
0.3479263 0.21470301 0.5009499 0.87966883 0.33688954 0.50927556 0.33154586 0.63677925
0.57181585 0.43198767 0.69611007 0.40354043 0.45765117 0.40666202 0.47334588 0.54275864
00000000: 2754 023f ee3a 3f3f c1f9 223f 29db 113f
00000010: f2ab 623f 1ff3 413f 0a76 f33e 41ac ea3e
00000020: e923 2a3f caa0 e93e 5ced c03e 2c69 ca3e
00000030: 505e 583f a4ea 753f 64e4 a13e d82e 0e3f
00000040: f974 1a3f d614 4d3f e18c c93e 2140 c73e
00000050: 5f38 1b3f b31a 123f 724a cb3e e660 4b3f
00000060: 0979 0c3f 7600 353f 16df 6a3f a2f2 cd3e
00000070: ff1f 323f b812 133f d006 b73e 880d da3e
00000080: f801 d73e 48e1 ee3e 5054 f83e 9826 3d3f
00000090: 7934 c73e c812 153f a774 303f c811 183f
000000a0: e50b a83e c284 6d3f 5eaa 033f 57d4 2e3f
000000b0: 3ed3 423f a277 113f 7bf6 2f3f f448 013f
000000c0: 6523 b23e 1bdb 5b3e 413e 003f fa31 613f
000000d0: c97c ac3e e25f 023f 61c0 a93e f703 233f
000000e0: 8662 123f 7d2d dd3e 4534 323f da9c ce3e
000000f0: 4151 ea3e 0136 d03e 645a f23e 3bf2 0a3f

h.0.ln_1.bias f4 [64]
-0.010657231 0.50432056 -0.5279221 -0.039394725 0.17529298 0.07529066 -0.08826323 0.0013493613
-0.4653647 -0.0015576172 -0.2908072 0.0518057 -0.59617484 0.5144487 0.0015152697 -0.14732473
-0.3368393 0.32645804 0.30856296 -0.055292036 -0.25532097 0.47758666 -0.16872704 -0.4475434
-0.3745917 0.60244656 -0.6277403 -0.13454145 -0.33912644 0.45142794 -0.094682105 -0.029921742
-0.06009944 -0.13475409 0.022896428 0.42281356 -0.0012176543 0.21789181 -0.1117854 0.55487573
0.09642421 -0.71992266 -0.105248794 0.5187064 -0.11359337 -0.2221103 -0.3351074 -0.24295111
0.06595402 -0.21006104 0.108611755 0.33286643 -0.23472019 0.10344734 0.022142189 -0.4033058
0.34388465 0.048049692 -0.44391176 0.11799842 -0.23602945 -0.2337923 -0.29334846 -0.14667523
00000000: ab9b 2ebc 271b 013f e725 07bf 5d5c 21bd
00000010: 0180 333e fd31 9a3d 5ac3 b4bd 0ddd b03a
00000020: 4844 eebe f628 ccba aee4 94be 3732 543d
00000030: ea9e 18bf e9b2 033f 049c c63a 4bdc 16be
00000040: 3376 acbe 8225 a73e f7fb 9d3e e779 62bd
00000050: 6eb9 82be 3d86 f43e c8c6 2cbe 6924 e5be
00000060: 7cca bfbe f039 1a3f 97b3 20bf 3cc5 09be
00000070: fba1 adbe 9021 e73e b1e8 c1bd 711e f5bc
00000080: d52a 76bd fafc 09be 4a91 bb3c 057b d83e
00000090: b399 9fba 081f 5f3e beef e4bd 560c 0e3f
000000a0: 0e7a c53d da4c 38bf ae8c d7bd f1c9 043f
000000b0: a4a3 e8bd e270 63be 3293 abbe 2dc8 78be
000000c0: e712 873d 3e1a 57be d76f de3d 786d aa3e
000000d0: 7d5a 70be 33dc d33d 8963 b53c 197e cebe
000000e0: a611 b03e c1cf 443d 6748 e3be 28a9 f13d
000000f0: b4b1 71be 4067 6fbe c531 96be 0832 16be

h.0.ln_2.weight f4 [64]
1.0 1.0 1.0 1.0 1.0 1.0 1.0 1.0
1.0 1.0 1.0 1.0 1.0 1.0 1.0 1.0
1.0 1.0 1.0 1.0 1.0 1.0 1.0 1.0
1.0 1.0 1.0 1.0 1.0 1.0 1.0 1.0
1.0 1.0 1.0 1.0 1.0 1.0 1.0 1.0
1.0 1.0 1.0 1.0 1.0 1.0 1.0 1.0
1.0 1.0 1.0 1.0 1.0 1.0 1.0 1.0
1.0 1.0 1.0 1.0 1.0 1.0 1.0 1.0
00000000: 0000 803f 0000 803f 0000 803f 0000 803f
00000010: 0000 803f 0000 803f 0000 803f 0000 803f
00000020: 0000 803f 0000 803f 0000 803f 0000 803f
00000030: 0000 803f 0000 803f 0000 803f 0000 803f
00000040: 0000 803f 0000 803f 0000 803f 0000 803f
00000050: 0000 803f 0000 803f 0000 803f 0000 803f
00000060: 0000 803f 0000 803f 0000 803f 0000 803f
00000070: 0000 803f 0000 803f 0000 803f 0000 803f
00000080: 0000 803f 0000 803f 0000 803f 0000 803f
00000090: 0000 803f 0000 803f 0000 803f 0000 803f
000000a0: 0000 803f 0000 803f 0000 803f 0000 803f
000000b0: 0000 803f 0000 803f 0000 803f 0000 803f
000000c0: 0000 803f 0000 803f 0000 803f 0000 803f
000000d0: 0000 803f 0000 803f 0000 803f 0000 803f
000000e0: 0000 803f 0000 803f 0000 803f 0000 803f
000000f0: 0000 803f 0000 803f 0000 803f 0000 803f

h.0.ln_2.bias f4 [64]
0.0 0.0 0.0 0.0 0.0 0.0 0.0 0.0
0.0 0.0 0.0 0.0 0.0 0.0 0.0 0.0
0.0 0.0 0.0 0.0 0.0 0.0 0.0 0.0
0.0 0.0 0.0 0.0 0.0 0.0 0.0 0.0
0.0 0.0 0.0 0.0 0.0 0.0 0.0 0.0
0.0 0.0 0.0 0.0 0.0 0.0 0.0 0.0
0.0 0.0 0.0 0.0 0.0 0.0 0.0 0.0
0.0 0.0 0.0 0.0 0.0 0.0 0.0 0.0
00000000: 0000 0000 0000 0000 0000 0000 0000 0000
00000010: 0000 0000 0000 0000 0000 0000 0000 0000
00000020: 0000 0000 0000 0000 0000 0000 0000 0000
00000030: 0000 0000 0000 0000 0000 0000 0000 0000
00000040: 0000 0000 0000 0000 0000 0000 0000 0000
00000050: 0000 0000 0000 0000 0000 0000 0000 0000
00000060: 0000 0000 0000 0000 0000 0000 0000 0000
00000070: 0000 0000 0000 0000 0000 0000 0000 0000
00000080: 0000 0000 0000 0000 0000 0000 0000 0000
00000090: 0000 0000 0000 0000 0000 0000 0000 0000
000000a0: 0000 0000 0000 0000 0000 0000 0000 0000
000000b0: 0000 0000 0000 0000 0000 0000 0000 0000
000000c0: 0000 0000 0000 0000 0000 0000 0000 0000
000000d0: 0000 0000 0000 0000 0000 0000 0000 0000
000000e0: 0000 0000 0000 0000 0000 0000 0000 0000
000000f0: 0000 0000 0000 0000 0000 0000 0000 0000

h.1.mha.W_q.weight f4 [64, 64]
-0.12172071 0.12589356 -0.13127701 -0.08129085 -0.00046894152 -0.005751281 -0.025541648 0.030229844
0.014008802 0.20054685 0.05161361 0.0023483979 -0.17693284 0.012991073 -0.039462514 -0.05461121
0.061490428 -0.09087347 -0.035556853 0.02679385 -0.13596833 0.07831651 -0.03552631 -0.07735419
0.11160814 -0.01966101 -0.20358494 -0.21295786 -0.11948596 0.055528007 -0.010335425 0.033706546
-0.14339939 0.061202284 -0.057106633 0.13810952 0.058260035 0.09290475 -0.15863822 -0.12677337
-0.040819786 -0.002568912 -0.021375548 0.18127736 0.043980543 -0.1794016 -0.101421155 0.16123088
0.011293561 -0.09909741 -0.08575394 0.036138117 -0.047318272 -0.14688562 0.017161423 -0.0055626608
0.01836518 -0.11381837 -0.004631994 0.024259742 0.0948099 -0.08951339 -0.10817841 -0.0064100404
-0.0040598856 0.0985448 0.043907348 -0.027092135 0.017761342 0.02149102 0.024186406 -0.016011914
0.058674365 -0.022085253 -0.06229492 -0.10815393 0.023709947 -0.084379174 -0.16030277 0.074597076
0.013245779 -0.029254826 0.07007532 0.014153111 -0.008580371 -0.022805631 0.12952356 0.078743815
0.022972628 -0.002009777 0.074217215 0.07595623 -0.04292601 -0.027027424 -0.072670385 -0.042885736
0.03551214 0.06278004 0.008145991 0.038772702 0.00080202054 -0.032191303 0.01645915 0.023389501
0.07198913 0.035266545 -0.0053285873 -0.14371973 -0.02855279 0.03467514 -0.024220614 -0.16167744
-0.034343455 0.08757153 -0.04466696 -0.08488078 -0.04355553 0.09495854 0.14660126 0.01531068
0.026930146 -0.11938154 0.05374733 0.015805114 -0.075870365 -0.011260754 0.02873964 0.012845542
0.09078837 -0.02004073 -0.05817439 -0.03498065 -0.00478876 0.10245944 -0.011240515 -0.043539353
-0.053523347 -0.15918091 -0.19905248 -0.12511703 0.07768814 -0.05919628 -0.15163419 0.040417783
0.028551416 -0.11581779 0.04739506 0.14992645 0.08134195 -0.004021953 -0.023528693 0.03285076
-0.017335223 0.030385487 0.01844991 -0.10729764 -0.12319556 -0.004800745 0.12855917 0.043918055
0.20219867 -0.024263497 0.07835006 0.04537832 0.08870719 0.06780029 -0.12310816 -0.060777854
0.01154351 0.10450604 -0.2080233 0.079517476 -0.10899356 0.044524148 -0.045345902 0.046485968
0.097516626 0.0081776325 0.07413201 0.05046499 -0.036062587 -0.14500062 0.18587065 0.13647741
-0.053625215 0.006908011 -0.07157991 -0.0075308788 0.023866564 -0.055239156 0.15013501 -0.05912539
0.09251638 -0.09356911 0.15090401 0.09570432 -0.025392868 -0.037123676 -0.053624157 0.1091623
-0.05409057 0.04842232 -0.09276731 0.067759916 -0.016196514 0.005630916 -0.029367438 -0.107455276
-0.086658664 0.027037334 -0.036167175 -0.06541698 0.05152332 0.09050299 -0.020380996 0.0061433287
-0.012793768 -0.07841951 -0.11358615 -0.075112976 0.04636574 0.014619896 0.07295473 -0.048809633
-0.019952934 0.11259365 0.113597415 -0.17834048 0.073396936 0.051077083 0.1513638 -0.20495048
0.12287349 -0.13099472 0.004662031 -0.030388176 -0.02826297 -0.10386761 0.11077222 0.21426238
-0.01679685 -0.038750134 0.18370621 -0.032035753 -0.1599923 -0.090080224 -0.088073105 -0.084870726
-0.07394208 -0.026420426 -0.13335353 -0.052251965 -0.006572136 -0.0021255778 0.16159403 -0.06339358
00000000: b548 f9bd 3eea 003e 7b6d 06be d17b a6bd
00000010: 44dc f5b9 3e75 bcbb b83c d1bc 94a4 f73c
00000020: 2d85 653c 275c 4d3e cb68 533d 94e7 193b
00000030: e22d 35be 82d8 543c 72a3 21bd 01b0 5fbd
00000040: 63dd 7b3d df1b babd 10a4 11bd c77e db3c
00000050: 483b 0bbe 6864 a03d 0984 11bd e06b 9ebd
00000060: cf92 e43d 2010 a1bc 9278 50be a011 5abe
00000070: 0eb5 f4bd 5671 633d ea55 29bc e00f 0a3d
00000080: 4ad7 12be 3faf 7a3d a5e8 69bd 956c 0d3e
00000090: 13a2 6e3d d844 be3d 0f72 22be e1d0 01be
000000a0: a632 27bd 315b 28bb c61b afbc c6a0 393e
000000b0: f124 343d 0eb5 37be e5b5 cfbd b519 253e
000000c0: a108 393c 95f3 cabd c39f afbd 9005 143d
000000d0: ced0 41bd 2f69 16be 1d96 8c3c fb46 b6bb
000000e0: 9372 963c 9b19 e9bd fbc7 97bb 5ebc c63c
000000f0: b12b c23d cc52 b7bd a48c ddbd 510b d2bb
00000100: ca08 85bb dbd1 c93d 31d8 333d 53f0 ddbc
00000110: 3c80 913c f00d b03c 9222 c63c 6b2b 83bc
00000120: 8854 703d 22ec b4bc f528 7fbd cf7f ddbd
00000130: 5d3b c23c fdce acbd 6926 24be 5ac6 983d
00000140: d304 593c d1a7 efbc a683 8f3d 73e2 673c
00000150: af94 0cbc e0d2 babc d3a1 043e 7044 a13d
00000160: 1831 bc3c 76b6 03bb 32ff 973d f18e 9b3d
00000170: 2fd3 2fbd 9e68 ddbc 36d4 94bd f4a8 2fbd
00000180: 2d75 113d d292 803d c376 053c 20d0 1e3d
00000190: b03e 523a 07db 03bd 57d5 863c 579b bf3c
000001a0: 096f 933d a773 103d 6e9b aebb 442b 13be
000001b0: 8ae7 e9bc 8507 0e3d 4f6a c6bc c58e 25be
000001c0: b9ab 0cbd b458 b33d b4f4 36bd f9d5 adbd
000001d0: 4967 32bd 9f79 c23d a41e 163e a5d9 7a3c
000001e0: 9c9c dc3c 4f7e f4bd 2926 5c3d ba79 813c
000001f0: ec61 9bbd 077f 38bc 656f eb3c 1c76 523c
00000200: 41ef b93d 752c a4bc 4548 6ebd df47 0fbd
00000210: 08eb 9cbb 41d6 d13d 232a 38bc 5256 32bd
00000220: 4c3b 5bbd 5200 23be 6ad4 4bbe ae1e 00be
00000230: f61a 9f3d cc77 72bd fe45 1bbe 1e8d 253d
00000240: a9e4 e93c e131 edbd 5321 423d 5286 193e
00000250: 9c96 a63d 96ca 83bb 3fbf c0bc 858e 063d
00000260: 9902 8ebc fcea f83c 4424 973c ddbe dbbd
00000270: f44d fcbd 914f 9dbb 04a5 033e 6be3 333d
00000280: 2b0d 4f3e 3ec4 c6bc ff75 a03d 9ede 393d
00000290: 1dac b53d e1da 8a3d 2220 fcbd 33f2 78bd
000002a0: fd20 3d3c 4307 d63d 0f04 55be 0fda a23d
000002b0: 0438 dfbd f45e 363d a0bc 39bd 1268 3e3d
000002c0: ccb6 c73d 7afb 053c 86d2 973d 61b4 4e3d
000002d0: 5db6 13bd 0b7b 14be e054 3e3e bcc0 0b3e
000002e0: 1da6 5bbd 995c e23b 7d98 92bd 97c5 f6bb
000002f0: d083 c33c 7442 62bd febc 193e 772d 72bd
00000300: 3a79 bd3d 29a1 bfbd 9586 1a3e a000 c43d
00000310: b404 d0bc ff0e 18bd 01a5 5bbd 7c90 df3d
00000320: 138e 5dbd 7c56 463d cafc bdbd b6c5 8a3d
00000330: 8dae 84bc 8c83 b83b fb93 f0bc 8311 dcbd
00000340: 197a b1bd 667d dd3c 0824 14bd 56f9 85bd
00000350: 1e0a 533d a259 b93d 0cf6 a6bc fa4d c93b
00000360: f49c 51bc 689a a0bd db9f e8bd d5d4 99bd
00000370: 01ea 3d3d 4a88 6f3c 4a69 953d 9cec 47bd
00000380: 5674 a3bc 8097 e63d c3a5 e83d e39e 36be
00000390: 2251 963d 3436 513d 1dff 1a3e 8ade 51be
000003a0: 19a5 fb3d 7b23 06be f3c3 983b a0f0 f8bc
000003b0: be87 e7bc 8bb8 d4bd 8cdc e23d 9967 5b3e
000003c0: 8c99 89bc 76b8 1ebd 7b1d 3c3e ec37 03bd
000003d0: 06d5 23be fb7b b8bd ac5f b4bd b4d0 adbd
000003e0: f26e 97bd a66f d8bc d48d 08be 2806 56bd
000003f0: 135b d7bb 474d 0bbb e878 253e 7ed4 81bd
