subspace-alignment/data/2_layer_64_vocab/ckpt_23460.pt (torch, 178594 bytes, 29 tensors)

embed.embed.weight f4 [64, 64]
000000 93 7b f5 be 44 63 bf 3f d6 79 fc 3d d9 2c 02 3f
       -0.47945842 1.4952168 0.12327926 0.5084968
000010 11 37 3d 3e 96 f8 80 be 13 a1 1a c0 60 92 d6 bd
       0.18478037 -0.25189656 -2.4160812 -0.104771376
000020 89 69 fb be 6d b5 ef bb fe 7b b1 bf ec ec 0b 3f
       -0.49103954 -0.007315329 -1.3865964 0.5465839
000030 da b1 ee be 90 3c 5d bf 78 08 89 3c 4d 33 25 3e
       -0.46620065 -0.86420536 0.016727671 0.16132851
000040 d1 1b 11 3d eb e0 6f 3e ad c3 91 be be f2 27 bf
       0.03542692 0.23425643 -0.284696 -0.6560477
000050 25 a6 9c be 9c 55 1b 40 11 57 b9 3f 87 70 90 bf
       -0.30595508 2.4271002 1.4479696 -1.1284341
000060 17 50 94 bf 15 a5 fb 3f 11 30 87 bf 03 0e e8 3f
       -1.1586941 1.9659754 -1.0561544 1.8129276
000070 7b 76 2c 3f 07 7e 31 3f c3 39 a4 be 78 cb 80 3e
       0.67368287 0.6933293 -0.3207532 0.25155234
000080 9e f8 93 3f 77 f1 5d bf c2 e8 22 3d f0 b1 90 bf
       1.1560247 -0.8669657 0.039772756 -1.1304302
000090 16 b3 78 bf 2f 4f 78 3e 0e cb 9e bf 62 18 56 3f
       -0.97148263 0.24248956 -1.2405717 0.83630955
0000a0 a3 94 9b bf 88 a9 94 bf 90 1c d9 3e c9 01 07 3f
       -1.2154735 -1.1614237 0.42404604 0.527371
0000b0 9c e4 9e 3f 6b 35 86 3f cc 4d 0c bf 79 e9 d8 be
       1.2413516 1.0485052 -0.5480621 -0.42365626
0000c0 84 32 91 be 8f 2c 68 bf 0f 8a 03 bd af 61 27 be
       -0.28358853 -0.9069299 -0.032114085 -0.16345857
0000d0 e2 65 0b 3e d3 8d 6a 3f a1 2c 1b be 02 0c 6b bf
       0.13613084 0.91622657 -0.15153743 -0.918152
0000e0 b2 c2 bb 3e 3c 10 13 bd e6 a6 39 bf 5b 93 87 bf
       0.36671978 -0.035904154 -0.7252029 -1.0591844
0000f0 64 25 8f 3e d9 07 2f bf 94 9e 25 be 3b 23 36 3f
       0.27958214 -0.6837135 -0.16173774 0.7114751
000100 64 91 76 3e a5 00 89 bf dd 48 ab bf 70 97 c2 bd
       0.240789 -1.0703322 -1.3381611 -0.09501541
000110 45 9c ff 3f dd 32 a5 bf 0c ae 22 bf 6b 8b ca be
       1.9969565 -1.2906147 -0.63546824 -0.39559492
000120 b1 f0 ae 3e 2c 30 33 3d 1f 97 08 bf 97 2a 34 3e
       0.34168008 0.043747112 -0.5335559 0.17594372
000130 29 c5 89 3e 63 85 20 3f 0b 3b 01 3e c4 c4 05 be
       0.26908234 0.6270353 0.1262018 -0.13063341
000140 48 03 ed 3e 9a 26 22 bf 4a 27 7b 3d dc ed 9a bd
       0.46291566 -0.6334015 0.061316766 -0.07564899
000150 01 12 88 3e cf f9 e9 be d1 26 cc 3f c6 36 91 3e
       0.26576236 -0.456984 1.5949346 0.283621
000160 4b f4 b4 be b5 ff 9b 3f 90 bb b9 bf 99 9a ca 3e
       -0.3534263 1.218741 -1.4510365 0.39571074
000170 08 2e 03 c0 43 ae e5 3f ca c2 da bc 63 d5 d7 be
       -2.0496845 1.7943805 -0.02670421 -0.4215499
000180 27 b6 66 bf c7 1d 12 bf c4 73 ed 3e 81 33 c7 3a
       -0.9012169 -0.57076687 0.46377385 0.0015197844
000190 5e 83 be 3f 89 4d 2e 3f 71 24 a8 3f 24 b9 55 3f
       1.488384 0.6808706 1.3136121 0.8348563
0001a0 ea 90 bd be 42 f8 86 be 00 11 77 3f b3 68 da 3e
       -0.37024623 -0.2636128 0.96510315 0.42658004
0001b0 a6 2b fd be 9d a2 8e 3e 95 4d 30 bf c1 5f d1 bf
       -0.49447364 0.2785844 -0.6886838 -1.6357347
0001c0 1c a0 58 be a2 33 18 bf b6 ac 02 40 09 99 54 bd
       -0.21154827 -0.59453785 2.0417914 -0.05190376
0001d0 04 c7 58 be 3e 1c 7e be 5a 56 30 3d c0 7f 2d bf
       -0.21169668 -0.24815461 0.0430511 -0.67773056
0001e0 be e4 5e 3d 0c c0 29 3c 0a 23 47 bf ae e6 14 3e
       0.054417364 0.010360729 -0.7778784 0.14541122
0001f0 0f 78 06 3f b1 0b 29 c0 a4 f7 4a bd 9b 71 14 3e
       0.52526945 -2.6413386 -0.049552575 0.14496462
000200 3a 77 a8 3f 62 2d 84 3f eb b6 d4 be 18 7d 79 bc
       1.3161385 1.032635 -0.41545805 -0.015227579
000210 29 96 ae be 0f 3e 4a 3f bc 7b 8f bf 6b 7d 73 bf
       -0.34098938 0.79000944 -1.1209636 -0.9511325
000220 3a 30 0d 3f 0c 10 9e bd 76 9e f3 be 62 5e 57 bf
       0.5515171 -0.077179044 -0.47581834 -0.8412839
000230 d1 1b df be dd be 37 3f 0c c7 07 3c a4 41 b3 be
       -0.4357591 0.7177561 0.008287203 -0.35011017
000240 63 ec 5e be b3 de a3 bf f2 dd 12 bf 00 74 14 bf
       -0.21769862 -1.2802337 -0.5736991 -0.579895
000250 6c 61 3c be 2f 2f e0 3f 26 0b 88 bf bd d3 a7 be
       -0.18396538 1.7514399 -1.0628402 -0.3277873
000260 de 11 4d be 1f a1 04 3f 2f fb 40 be 0b 0d 6d 3c
       -0.20026347 0.5180835 -0.18845819 0.014468442
000270 8d cf 45 bf 2e 10 bd 3f 3a d1 21 3f 43 13 7f 3e
       -0.7726982 1.4770563 0.6320988 0.24909692
000280 d6 59 8d bf 4f 3e 3e 3e 84 e5 b7 3e 94 df 40 3f
       -1.1043041 0.18578456 0.35917294 0.75341153
000290 52 15 8e bf 68 bf da bf 54 59 e2 be 8e dd 14 40
       -1.1100256 -1.7089663 -0.44208777 2.3260226
0002a0 ae a7 48 be e0 26 8d bf 97 b7 04 3e a0 76 94 3e
       -0.19595215 -1.1027489 0.12960659 0.28996754
0002b0 51 16 d4 bb cd e6 0c bf 13 34 31 3f 87 9f dd be
       -0.006472387 -0.55039674 0.69220084 -0.43285772
0002c0 6e e2 d3 be 17 94 ab be c5 df 2f 40 33 a7 4c be
       -0.4138369 -0.3351142 2.7480328 -0.19985656
0002d0 29 84 d8 3c a2 1e 0d bf e7 a1 b5 bf ca b0 39 bf
       0.026430206 -0.55124867 -1.4190034 -0.72535384
0002e0 88 ab 15 3f db 41 60 3e 4c 0e a1 be 01 8b 97 3e
       0.5846486 0.21900122 -0.3145622 0.2959824
0002f0 6d 3b 24 c0 95 8a d2 3d 60 f6 4f 3e 5d 46 dd 3e
       -2.566127 0.10280339 0.20308828 0.43217745
000300 aa cd aa bf 87 29 7f 3f f3 9c cb be 58 ff bd 3d
       -1.3344014 0.9967274 -0.3976818 0.092772186
000310 2b 60 b2 bf 6d 41 f0 be 53 83 9f 3f 56 7e e8 3d
       -1.3935598 -0.46924916 1.2461952 0.11352222
000320 f6 21 a9 bf b9 0f f2 be 1c 92 7b bf f6 02 65 bf
       -1.3213489 -0.4727762 -0.9826982 -0.89457643
000330 c7 41 1f c0 77 79 1d 40 27 b2 94 be b3 fe d2 3e
       -2.4883897 2.4605386 -0.2904217 0.41209945
000340 1f fd 12 3f ea 2e ed be fa 53 35 3e 51 ed 06 be
       0.5741748 -0.46324855 0.17707816 -0.13176467
000350 ae 46 1b bd d0 0f 4d bf b8 2f 58 bf 57 df fe 3e
       -0.037909202 -0.8010225 -0.84447813 0.4977977
000360 8e 7b ac bf e6 ee ea 3f ef 32 31 3e 81 ab e1 3e
       -1.3475206 1.8354156 0.17304586 0.4407616
000370 d9 50 23 3e 72 4a e3 3e d2 0b 81 bc 4b 3c 59 3f
       0.1594881 0.44392735 -0.015752707 0.84857625
000380 d5 4e 1c 3f 83 d4 d4 3e 99 84 0c bf 5f 8a 56 bf
       0.6105779 0.41568384 -0.5488983 -0.8380489
000390 84 a3 b3 be 71 e0 17 bf dd 1e a3 3e b9 b7 75 3f
       -0.3508569 -0.59326845 0.31859484 0.95983464
0003a0 1e 9b 43 3f 85 12 db bc a3 8a 8d bf b2 5b 45 3f
       0.76408565 -0.02674223 -1.1057934 0.7709304
0003b0 ae 87 38 3f 88 9e 8f 3f d8 41 1b 3f 84 07 7c 3f
       0.7208203 1.1220255 0.60647345 0.9844897
0003c0 44 8a e2 3d 87 3a 1a bf 08 a1 ae 3f 7f 22 1d 3c
       0.11061528 -0.60245556 1.3642893 0.009590744
0003d0 fe 75 b7 bf ec e4 91 3f 39 7a b3 3e 8d 76 40 bf
       -1.4332883 1.1397986 0.35054186 -0.75180894
0003e0 da 40 ee 3e 8c 4f 03 3f 08 d4 5e bf d3 aa 6a be
       0.46533853 0.51293254 -0.87042284 -0.22916727
0003f0 9d 48 33 3e 85 e4 76 bf 25 17 84 be 1e 92 8f bc
       0.17508169 -0.96442443 -0.25798908 -0.017525729

h.0.mha.W_q.weight f4 [64, 64]
000000 40 c2 f8 3b 78 a4 83 be bd c2 58 3e eb 6f 02 bd
       0.007591516 -0.25711417 0.21168037 -0.031845015
000010 b4 1c 28 be 76 ac 3c bd 7b 34 f6 3d 2b 93 5e 3d
       -0.164172 -0.04606291 0.120217286 0.05433957
000020 3f 95 a2 3e e9 ff 01 3e 08 d4 4a 3e fa 5c aa 3c
       0.3175449 0.12695278 0.19807446 0.020796288
000030 83 e4 68 3e 20 75 73 be 9f ed 01 bd f2 26 33 bd
       0.2274342 -0.23775148 -0.031720754 -0.043738313
000040 4a 56 31 3e 1b 62 2e be 78 92 2d be 82 27 01 3e
       0.17318073 -0.17029612 -0.16950405 0.12612727
000050 71 2e 1e 3e 60 d2 2c be b4 0a ba 3d e5 a2 63 3e
       0.15447403 -0.16877127 0.09084073 0.22230108
000060 ce 0d 39 3e 4a 68 71 be 65 2f 87 3e f2 00 84 bd
       0.18071672 -0.2357494 0.26403347 -0.06445493
000070 46 a1 60 3e b0 88 74 be f4 fd 94 3b 58 02 1e bc
       0.21936521 -0.23880267 0.004546875 -0.0096441135
000080 2b 2a c6 3d 2c 4b d3 3d 76 91 79 bc 1c ca 56 be
       0.09676012 0.10317072 -0.0152324345 -0.20975536
000090 5a 61 07 bd e3 6a 1a be a5 ea f0 3d ea 1d 46 be
       -0.033051826 -0.15079837 0.11763505 -0.19347349
0000a0 21 0c cf bd d7 cf 81 3e ee f9 60 3d eb 27 85 be
       -0.10109735 0.25353882 0.05492585 -0.26007017
0000b0 d2 af c8 3d ab a9 ad 3d b4 48 ee 3d 36 1b 9a 3d
       0.0979916 0.08479627 0.11634961 0.07524721
0000c0 3b 39 f7 3c 1f 46 0e 3e f8 13 96 bd 6c 41 31 be
       0.030178657 0.13893937 -0.073280275 -0.17310113
0000d0 72 17 eb 3d e6 bb 93 3b f7 da 3a bd 18 92 5a 3e
       0.11479081 0.004508483 -0.045618977 0.21344793
0000e0 74 d9 ec bd d9 09 d2 bd 65 47 33 3e 53 d3 82 bd
       -0.115649134 -0.102557845 0.17507704 -0.06387963
0000f0 c2 69 e6 3d ad c8 95 3d 79 c4 e2 3d 78 64 ca 3d
       0.112506405 0.073136665 0.110726304 0.09882444
000100 06 1e 82 bb 17 6c 1e 3e e5 4e 5d be ff d2 3d 3d
       -0.003970864 0.1547092 -0.21612127 0.0463438
000110 4f aa 40 3e d8 ff 25 3e 4a ce 68 3d ed 07 9e 3b
       0.18814968 0.16210878 0.056837358 0.004822722
000120 0a d4 1c be c8 49 bc 3d 40 15 8f bd 8f 4a 37 bd
       -0.15315261 0.0919376 -0.06986475 -0.04474884
000130 07 94 85 be 34 9d 62 3e 2f bb 8e bd 06 24 ec bd
       -0.26089498 0.2213028 -0.06969296 -0.115303084
000140 3f f5 fc bd a0 94 5d 3e a7 61 d1 3d 14 4e d3 bd
       -0.123514645 0.21638727 0.10223704 -0.103176266
000150 86 c6 d3 bd 32 a4 dd 3d 9e 43 60 bd f9 3b 83 be
       -0.103406 0.108223334 -0.054751985 -0.25631693
000160 ba 2f 80 bd ec 57 c0 3d 5a aa 70 be c6 cf f1 bc
       -0.06259103 0.0939177 -0.23502484 -0.02951802
000170 d7 5c c6 bd 4d 49 0a 3e 8c c5 cf 3c 41 a8 f3 bd
       -0.096856765 0.13504525 0.025362752 -0.11897326
000180 1d aa 02 bd 50 7b 21 3d 0e c2 d6 3d 00 f2 36 3e
       -0.031900514 0.03942424 0.10486232 0.17865753
000190 c5 49 ae bc fc db 1d 3e 3c 1a 02 be 53 ec 9c 3d
       -0.02127541 0.15415949 -0.1270532 0.07662263
0001a0 09 50 e8 3d 00 6d 7f be 4c 81 ae bd 54 e6 6f 3e
       0.113433905 -0.24943924 -0.08520755 0.23427707
0001b0 bb fa 2c be 22 e1 82 bd 37 d8 7a be 20 ce 82 3c
       -0.16892521 -0.06390597 -0.24496542 0.015967429
0001c0 17 ad 04 3e 5f 0e a6 3c 0e 59 b4 bc 52 d1 8b 3e
       0.12956654 0.020270525 -0.02201512 0.27308136
0001d0 79 64 70 bd 1c 34 0a 3d 77 f8 8a bc b5 19 18 be
       -0.05868957 0.0337411 -0.01696418 -0.14853556
0001e0 e1 9a 0e 3e f9 32 29 3d e5 f4 d0 bd ac 4b b7 3d
       0.13926269 0.041308377 -0.1020296 0.0894998
0001f0 82 ad 50 bd b8 b2 43 3d f2 af 01 be bd e3 4a be
       -0.05094672 0.04777786 -0.12664774 -0.19813438
000200 dd e7 7a bd c7 25 32 3e b8 28 94 be 16 8e 5b 3d
       -0.06125628 0.17397223 -0.28937316 0.0536023
000210 a3 ab c7 3d 99 7b d7 3d b1 63 a1 bd b1 e8 0f 3d
       0.09749534 0.10521621 -0.07880343 0.03513402
000220 cb 20 ed bd 87 20 2c bd 13 a7 22 be c4 8f 88 bc
       -0.115785204 -0.042023208 -0.15884046 -0.016670115
000230 9a 1b 57 be 16 ab 54 3e 2f ac 1a bd 8e e1 90 bd
       -0.21006623 0.20768389 -0.037761863 -0.07074271
000240 b4 f3 40 be 42 90 7d 3e 97 4f 07 3e fd 7f 1e bd
       -0.18842965 0.24762061 0.13213955 -0.038696278
000250 4c d5 1c be c9 4a 3b 3e 98 b0 37 be bb a9 22 be
       -0.15315741 0.18290247 -0.17938459 -0.1588506
000260 b2 d1 f2 bc d5 9a e8 3d 2e e0 8f be 3f a1 99 3c
       -0.029641006 0.11357657 -0.28100723 0.018753646
000270 d6 cd 01 be 5a e3 92 3d e4 c6 a8 3c df 7f 18 bd
       -0.12676176 0.0717227 0.020602651 -0.037231322
000280 71 79 c5 bc 25 6c 9f bd 71 bb 4b 3d b3 b0 5c 3e
       -0.02410576 -0.07784299 0.049739305 0.2155178
000290 aa bf 83 bc 4d 4f a8 3d 0d 7d 90 bd 22 10 7c 3d
       -0.016082603 0.082182504 -0.070551015 0.061538823
0002a0 ea 7b 5f 3d aa 28 11 be 6a b1 c0 bd 96 b6 86 3e
       0.054561533 -0.14175668 -0.09408839 0.26311177
0002b0 ec 5e f2 bd 3e 0f 95 bd b5 52 d8 bd 2d 6d 98 bd
       -0.11834511 -0.07278298 -0.1056265 -0.07442699
0002c0 7a 2e be 3c 28 2c 23 3a a5 ab 76 3d 90 f8 30 3e
       0.023215521 0.00062245363 0.060222287 0.17282319
0002d0 75 14 43 bd a6 9d de 3c a0 5f ab bc de 55 5e be
       -0.04762693 0.027174782 -0.020919621 -0.21712443
0002e0 f1 56 36 3e ba 5d 43 3d 7d 8f ac bd 27 ed 44 3d
       0.17806603 0.047696806 -0.08425806 0.04807773
0002f0 ad c8 04 bd ae 6b 57 bd 5f 17 e0 bd f5 34 a0 bd
       -0.03241794 -0.052592926 -0.10941958 -0.07822601
000300 2d 16 a6 bc 45 65 28 3e 25 f5 81 ba fa 36 46 3d
       -0.020274246 0.16444881 -0.0009914978 0.048392273
000310 c2 2b 34 3e ac b2 f9 3d 7b 3d b3 bd fb b4 bc bc
       0.17594817 0.12192282 -0.08751961 -0.023035517
000320 e1 33 26 be ad 14 0c bd 1e 88 09 bd 46 4f 07 3d
       -0.16230728 -0.034199405 -0.033577077 0.033034585
000330 8b 9f 3c be 6b ec 51 3e 21 d6 6d 3d 4b d9 1d bd
       -0.18420236 0.20500343 0.058065537 -0.038537305
000340 cd a0 d3 bd fa ec cb 3d e0 1e 89 3d 56 5c 26 bd
       -0.10333405 0.09957309 0.06695342 -0.040615402
000350 ed e6 b7 bd a8 50 2d 3e 4b 23 da bb 53 29 c3 bd
       -0.089795925 0.16925299 -0.0066570393 -0.09529366
000360 f3 7d c1 bd a7 2e c7 3d e2 6f 49 bd a7 86 3b bc
       -0.09447851 0.09725695 -0.049178965 -0.011445678
000370 70 fa 06 be eb 92 45 3d 02 71 07 3e e0 a9 52 bd
       -0.13181472 0.048235815 0.13226703 -0.051431537
000380 c5 4c 8b 3c 07 c9 99 bb ce 36 c1 bc 56 53 79 3e
       0.01700438 -0.004693154 -0.023585703 0.24348196
000390 03 40 84 3d 0b 62 05 3e dd b3 c4 bc 67 bc af 3d
       0.06457522 0.13025682 -0.024011547 0.08580857
0003a0 8d a6 ee 3d b6 bc a4 bd 05 62 11 bd 52 72 77 3d
       0.11652861 -0.08043806 -0.03549387 0.06041176
0003b0 9b 2e da bd 54 34 46 bd 67 0b c9 bd e1 8f d4 bc
       -0.106534205 -0.048389748 -0.09816628 -0.025947513
0003c0 88 7b c7 38 b0 ab 5e 3d e0 a4 07 be 44 d2 24 3e
       9.512069e-05 0.054362953 -0.13246489 0.16095835
0003d0 d3 b1 f8 bc ef 02 28 3c 2d 07 8b 3d 20 ae 04 bd
       -0.03035823 0.010254606 0.06788478 -0.03239262
0003e0 05 fe 98 3d 4a 16 16 3e e0 87 90 bc 7a 1a cd 3d
       0.074703254 0.1465694 -0.017642915 0.10014816
0003f0 53 f4 15 3d 49 52 72 bc 8f 09 30 bd 0b f2 29 3d
       0.03660996 -0.014790126 -0.042977866 0.041490596

h.0.mha.W_q.bias f4 [64]
000000 df 9a 6c be 97 15 14 3f 9e a9 04 3f fe a5 a4 3e
       -0.23105954 0.57845443 0.51821315 0.32157892
000010 ed 44 49 3e d1 b8 26 3f ad 34 83 be c6 b7 f9 3e
       0.196552 0.6512576 -0.25626126 0.4877302
000020 f8 71 28 bf a1 70 a4 be d4 06 18 3e c2 4e 39 3e
       -0.657989 -0.3211718 0.14846355 0.1809645
000030 96 cb 33 3d 88 8d 28 3f 76 95 8e 3e 82 73 af bd
       0.043895327 0.6584096 0.27848405 -0.08566953
000040 e6 80 45 3e b1 21 d0 3e 7b 22 b8 bb 2e 2a a7 3e
       0.19287452 0.40650705 -0.005619345 0.32649368
000050 97 17 83 be 29 da 16 3e b9 5d ba bd be ca a1 be
       -0.25603935 0.14731659 -0.090999074 -0.31599993
000060 8b 3e 9d bd 94 3f 9d 3d 43 c8 0f 3d f3 0b 10 be
       -0.07677945 0.07678142 0.035103094 -0.14067058
000070 da 5d b1 3b bc cf c6 bd 9a 8b 6b 3d 6a 6d 22 3e
       0.0054127993 -0.09707591 0.05750618 0.1586205
000080 3e 16 cc bd c6 17 d2 bc 8f 7a 18 bc 14 65 ef 3c
       -0.0996518 -0.025646102 -0.009306564 0.029223002
000090 cf 9c 0b 3d 21 2f b2 bc ff 52 a5 bd 46 d7 f2 bc
       0.03408509 -0.021750988 -0.08072471 -0.029643666
0000a0 f5 05 a9 3d 60 00 56 bc 90 aa cb 3d 24 82 5b 3b
       0.08253089 -0.013061613 0.099446416 0.0033494318
0000b0 2c fd 61 3d 87 4b 6d 3d 6d 9b b7 3d 93 32 8c 3d
       0.055173084 0.057933357 0.08965192 0.06845584
0000c0 95 a3 17 bc 4d 10 99 3d 48 20 fe 3d c8 e3 48 3d
       -0.00925531 0.07473812 0.12408501 0.049045354
0000d0 0b 8c 03 bd d7 aa 1f bd e4 0b 00 bd 25 48 5a bd
       -0.032115977 -0.038981285 -0.03126134 -0.05329146
0000e0 5e 8e 26 3e f8 79 dd 3c c7 83 6a b7 68 4a 23 3d
       0.16265246 0.027035698 -1.3978169e-05 0.03986588
0000f0 57 c8 32 3d 19 7d 25 3d 51 ee fc 3d 99 fb d2 bd
       0.04364809 0.040402506 0.12350143 -0.10301895

h.0.mha.W_k.weight f4 [64, 64]
000000 a4 8d 88 3c b1 fb 2a bd d2 96 30 3d 7b ea 4c bd
       0.016669102 -0.041743938 0.043112583 -0.050028306
000010 13 1b 71 bd e4 3e 8e bd d6 dd d0 bc d9 56 12 3e
       -0.05886371 -0.06945589 -0.025496405 0.14290942
000020 15 7e 8a 3d a7 7c d6 bc 10 15 47 bc 3d 1d 55 3d
       0.067623295 -0.026182486 -0.012151018 0.052029837
000030 45 fe f6 3c 63 f7 a2 bd 49 df 3a 3d 5b 37 33 3d
       0.030150542 -0.079573415 0.045623098 0.043753963
000040 b4 05 b6 bc 7a fd 82 3c 3f bc 2a 3d 89 d2 3f 3d
       -0.022219516 0.015990008 0.04168343 0.04683164
000050 f3 9e f6 bc 6c d3 b2 bd 54 f9 6b 3d 18 3c cd 3c
       -0.03010509 -0.08731732 0.057610825 0.025053069
000060 ce bc 1f 3d 66 fd fc bd d1 1e 8f 3d 19 54 c0 3b
       0.038998418 -0.123530194 0.069883 0.0058694
000070 d6 06 05 3d 02 f4 db bb 7e 60 ca bc 38 d0 5f 3d
       0.032477222 -0.0067124376 -0.024704214 0.054641932
000080 43 00 9f 3c ab 4b 1b 3b 93 2a 08 3d 05 58 76 bb
       0.019409304 0.0023696225 0.033243727 -0.0037589085
000090 c7 7a c2 bc 4f 0b 21 3d 99 0c c2 3a a4 40 84 3d
       -0.023740185 0.039317425 0.001480478 0.06457642
0000a0 48 fe 9c 3d 00 b2 51 3d 53 6a 26 3b fc 2a 66 bd
       0.07665688 0.051195145 0.0025392964 -0.056193337
0000b0 29 ed 5d 3c 56 c9 35 bc dd 4d 43 3d 97 52 7e 3d
       0.013545313 -0.0110953655 0.047681678 0.062090483
0000c0 53 5c 65 3c 6d cb eb 3b b1 23 84 bd 7d 86 99 bd
       0.013999063 0.007195881 -0.0645212 -0.07496355
0000d0 8b 3a a6 3d 8d 22 2f bc 03 55 0d 3b e0 83 5d 3d
       0.08116635 -0.01068939 0.0021565564 0.054080844
0000e0 14 d6 42 3c 45 04 9c bd 05 5f f8 bb 61 ea c9 bc
       0.0118918605 -0.07618002 -0.0075796866 -0.024647893
0000f0 62 3f f7 bb ce 44 35 bd d3 06 c8 3c 6f 63 39 3d
       -0.0075453976 -0.04425507 0.024417317 0.045260843
000100 39 3b 62 bd 24 62 6f 3e 50 e4 88 be 35 78 26 3d
       -0.05523226 0.23377281 -0.2673669 0.040641982
000110 dd bd 6a 3e 2a 66 02 3e 12 e3 42 bd 82 c3 3e bd
       0.2292399 0.12734285 -0.047579832 -0.04657317
000120 b1 4f 6a be 1d 19 05 be ab 65 38 be 91 f8 9e 3c
       -0.22881962 -0.12997861 -0.18007533 0.019405635
000130 6b 8a b8 be 0b 68 a3 3e b4 5f 5b ba 42 ac 58 be
       -0.36043105 0.31915316 -0.0008368448 -0.21159461
000140 f1 ac 11 be 29 64 46 3e 30 d0 26 3e 95 98 a9 bd
       -0.14226128 0.19374146 0.16290355 -0.08281056
000150 4a d8 56 be da 62 85 3e 4c 4a d3 bd d6 81 66 be
       -0.20980945 0.2605198 -0.103169054 -0.22510466
000160 87 f4 50 be 94 86 9d 3e 9f 68 ad be f9 ff 23 bd
       -0.2040578 0.30766737 -0.33868882 -0.040039036
000170 17 96 40 be 7b a3 84 3e 59 a5 b1 bd d5 a6 e7 bc
       -0.18807255 0.25905976 -0.08674116 -0.028277794
000180 cb 98 12 3b 2b 57 1e be 10 a7 cc 3d 72 bb 59 3e
       0.0022368904 -0.1546294 0.09992802 0.21262911
000190 0a b9 ee bc 2b 03 d0 3d 7a d8 b3 bd 0f 6d 84 3e
       -0.029140968 0.10156854 -0.08781524 0.25864455
0001a0 8d 13 48 3d 51 fe a5 be ef dc 19 be e4 b1 94 3e
       0.04884677 -0.3242059 -0.15025686 0.2904197
0001b0 ac b6 01 be 2a cd 02 be cd af 80 be 33 98 27 be
       -0.1266734 -0.12773576 -0.25134125 -0.16366653
0001c0 67 6f e8 3c 13 15 80 be 21 43 3c 3e 76 ed b6 3e
       0.028373433 -0.25016078 0.18384983 0.35728043
0001d0 d9 93 16 be 7c df f0 3d d7 74 85 bd 87 c9 ae be
       -0.14704837 0.11761376 -0.06516426 -0.34138128
0001e0 f8 e6 a8 3e 85 17 ab 3d 6a cf 98 be 67 5b ef 3d
       0.32988715 0.08354095 -0.29845744 0.116873555
0001f0 73 74 2c be a1 84 72 be 43 ef 1b be fa 8b d7 bd
       -0.16841297 -0.23683406 -0.1522799 -0.10524745
000200 a5 25 4e 3c f5 44 1e be 03 3b 25 3e d0 b6 af b9
       0.012582217 -0.15455993 0.16135792 -0.00033514807
000210 e4 16 bc bd 1b 24 94 bd b2 00 25 3d 46 ca c6 3c
       -0.091840535 -0.07233449 0.040283866 0.024266373
000220 b4 43 23 3e b1 56 ed bc 29 f2 38 3e 8e 17 61 3d
       0.15943795 -0.028972002 0.18061127 0.054954104
000230 de 14 05 3e 36 ab 45 be 9d e0 ca 3b 92 7d 61 3c
       0.12996241 -0.19303593 0.006191327 0.013762848
000240 75 b4 a8 3d 57 19 00 be c8 ea 99 bd 73 c5 aa 3d
       0.082375444 -0.12509666 -0.07515484 0.08338442
000250 79 9c 25 3e 83 ed 43 be 57 3f 11 3c 66 49 2b 3e
       0.16172971 -0.19133572 0.008865199 0.16727218
000260 38 9b b1 3d 67 6e f5 bd 34 c7 38 3e 85 fb 02 3d
       0.08672184 -0.11983948 0.1804474 0.03197815
000270 92 bf 03 3e 7f e8 32 be 22 8c 71 3d 44 bd 20 bb
       0.12866047 -0.17471503 0.05897153 -0.0024526874
000280 16 43 9d 3d 00 3d 33 3d d1 3f 60 bd 45 66 13 be
       0.07678811 0.043759346 -0.05474836 -0.14394481
000290 b2 2f 1e bc 93 6d 90 bc ea 00 46 3d 92 db d2 bd
       -0.009654926 -0.017630374 0.048340715 -0.10295786
0002a0 53 74 2c 3d 2b 6f e5 3d 3c d8 8b 3d e5 9b 63 be
       0.042103123 0.11202844 0.06828353 -0.22227438
0002b0 a2 3f 90 3d d5 6d 2d 3b 61 e5 02 3e b7 a4 17 3e
       0.07043387 0.002646317 0.12782814 0.14808927
0002c0 9a 19 08 be e0 8d 10 3e 25 43 9e bd a2 5c 4b be
       -0.13291016 0.14116621 -0.077276506 -0.19859555
0002d0 61 47 b3 3d f1 20 b8 bd 9a 58 60 3d 3f 30 30 3e
       0.08753849 -0.08990658 0.054771997 0.17205904
0002e0 0e b7 49 be 44 6d 15 be 37 1b 09 3e dd 5a 1f 3d
       -0.19698736 -0.14592463 0.13389288 0.038905013
0002f0 1d b9 9f 3d 4a e7 01 3e 69 39 63 3d 70 b9 a6 3d
       0.077989794 0.12685886 0.055474672 0.08140838
000300 72 47 f1 bd 60 53 6f 3d f7 e8 c3 bd 0c 4b d9 3c
       -0.11781205 0.058429122 -0.09565919 0.026525043
000310 fd 0a 4f 3e 3b 4b 0e 3d 92 17 53 bd c1 3f 00 be
       0.20219035 0.034739714 -0.05153615 -0.1252432
000320 15 cf d1 bd 0a 1b 38 bd 5c f3 05 be 92 ec 67 bd
       -0.10244576 -0.04494766 -0.13081115 -0.056622095
000330 aa 8b 9f be ee 30 3c 3e ff 8a ba 3c 18 71 64 3d
       -0.31161243 0.1837804 0.022771357 0.055771917
000340 e6 aa ca bd 50 14 08 3e 24 fc 19 3e 27 99 d6 3c
       -0.098958775 0.13288999 0.1503759 0.026196076
000350 a8 d3 6b bd 14 55 45 3e 97 05 0c bd cb 0b ef bd
       -0.057574898 0.19270736 -0.03418502 -0.11672171
000360 c7 78 7a bd 97 13 e3 3d c5 14 46 be df bc 43 3d
       -0.06115034 0.11087721 -0.1934386 0.047787543
000370 26 53 ff bb bb 21 4c 3e 49 0b e3 3b 1f bc d1 3d
       -0.0077918945 0.19934742 0.0069288355 0.102409594
000380 77 12 1e bd c5 30 09 be 0b 44 95 3d ef 5f fe 3d
       -0.03859183 -0.1339751 0.07288369 0.12420642
000390 0c 5c 19 3d 3d da 36 3d 88 7c ef bc c3 0c 50 3e
       0.0374413 0.044641722 -0.029234186 0.20317368
0003a0 c2 44 1b 3c 09 b7 55 be fa 15 01 bd e1 71 55 3e
       0.009476842 -0.20870604 -0.0315151 0.20844223
0003b0 34 f6 2b bd 06 89 5c bd 9b ec 13 bd 03 d0 dd bd
       -0.041982844 -0.053841613 -0.036114316 -0.10830691
0003c0 56 b4 9f 3c 42 fa ef bd b2 b5 16 3e e9 d2 f6 3d
       0.01949517 -0.11717655 0.14717749 0.12051947
0003d0 5a 5a b5 bd 77 b0 c6 3d 01 4e 1d bd ea 5f 53 be
       -0.08855124 0.09701627 -0.03840447 -0.20642057
0003e0 59 5c 76 3e ee 5d 89 3c ee 20 fe bd 91 35 98 3c
       0.24058665 0.016768422 -0.124086246 0.01858023
0003f0 75 8b 7f bd b5 5a bf bd f8 f3 d7 bd 2b 27 94 3c
       -0.062388856 -0.09343473 -0.1054458 0.018085083

h.0.mha.W_k.bias f4 [64]
000000 bc 57 bc bc d8 c6 1c 3f 26 61 c2 be 1f b5 35 3f
       -0.022991054 0.6124091 -0.37964743 0.70979494
000010 1b 26 b7 be 22 f5 01 3f c2 c6 d1 bf 7e 28 3c bd
       -0.3577126 0.5076467 -1.6388781 -0.045937054
000020 68 c6 f9 be 76 d8 94 bf 6a a4 aa 3e 4c d7 27 3d
       -0.48784184 -1.1628559 0.33328563 0.040976807
000030 c0 b8 55 3e 69 e4 b7 3f 1f 12 01 be 1a c7 8d be
       0.20871258 1.436658 -0.12604569 -0.27690965
000040 d3 22 0d 3d e1 cc fe 3e 05 f7 d1 be 38 c8 c0 3f
       0.03445704 0.49765685 -0.41008773 1.5061102
000050 67 4a 83 be 1f c0 0f be 6e fe 8e bf ed bc 71 3e
       -0.25642702 -0.14038132 -1.1171396 0.23607226
000060 bd 3c d2 be 5b 50 21 3f dd 6d 5d 3d 69 cc 99 be
       -0.41061965 0.6301324 0.054059852 -0.30038765
000070 e9 67 c6 3e 0c f8 a8 3e 06 9d 67 3e 33 64 c0 be
       0.38751152 0.33001745 0.22618493 -0.37576446
000080 ad d4 1f bf 3b a0 e5 be 2d 50 84 be 20 6b 5c 3e
       -0.6243389 -0.4484881 -0.2584242 0.2152524
000090 f0 6f 5c 3d e1 de 8a 3c 66 a7 d2 3e 96 27 65 bd
       0.05381769 0.01695198 0.4114334 -0.055945955
0000a0 58 05 e7 3e 28 22 4e 3d 90 ed 39 3e e2 fb 31 bd
       0.45121264 0.050325543 0.18157029 -0.043453105
0000b0 27 65 d5 be c2 5e 2e 3d 46 9b 1a 3f 20 3c a4 3e
       -0.41678736 0.042570837 0.6039318 0.32077122
0000c0 25 0e 0a 3e c6 7f a2 3e ca 2b 87 be 8b a8 de bd
       0.13481958 0.31738108 -0.26400596 -0.10871991
0000d0 0d bc 5e 3c 35 d0 19 bf 60 45 f6 3e a4 a3 8a be
       0.0135946395 -0.60083324 0.48099804 -0.27077973
0000e0 58 58 70 be 33 25 af be e8 b1 c6 3e 84 5a 03 bf
       -0.234712 -0.34208068 0.38807607 -0.5130999
0000f0 9d 6b 16 3f e9 f9 cd 3e cc f6 14 3d 3b 15 38 bf
       0.58757955 0.4022973 0.036368176 -0.71907395

h.0.mha.W_v.weight f4 [64, 64]
000000 89 a5 d3 bc 12 f8 60 3d 99 8f 6c 3e d6 4b 34 be
       -0.02583577 0.05492408 0.23101653 -0.17607054
000010 b6 da 19 3e 46 ae 21 be 59 42 0d be ce 96 ad 3e
       0.15024838 -0.15789136 -0.13794841 0.33904117
000020 29 b8 1c be 79 2b 49 3d 8c 11 53 3c 6a f1 53 3c
       -0.15304627 0.049113724 0.0128826015 0.012935976
000030 ac bd 77 3c d6 90 ad be a8 46 be 3d 3f b3 f5 bb
       0.015120905 -0.33899564 0.0929082 -0.0074981744
000040 65 84 80 bd 0b 42 f9 3d 7b 82 aa bd bb 7c 9d 3e
       -0.06275252 0.121708 -0.083256684 0.30759224
000050 ad 40 04 3e f1 18 82 3d 13 de 1e 3e 19 0b 7c bd
       0.12915297 0.063524134 0.15514402 -0.06153402
000060 4b a8 ec bd fc 47 9f bd f4 a6 90 be db 55 25 3d
       -0.11555537 -0.07777402 -0.28252375 0.04036508
000070 28 f6 97 3e 23 c4 85 bd d6 db a0 3d 76 71 05 be
       0.2967999 -0.06531551 0.078544304 -0.13031563
000080 a9 ac 09 3e 32 01 07 bd 25 1e 37 3e 51 11 96 3d
       0.13444771 -0.032960124 0.17882593 0.073275216
000090 08 d8 50 be 82 47 e6 3d 02 af 2b 3d 56 ad 04 3e
       -0.2039491 0.11244108 0.041914947 0.12956747
0000a0 0e 67 a6 bd 7b 77 2e ba 52 aa 36 3e 61 3a 8c bd
       -0.08125125 -0.0006655377 0.1783841 -0.068470724
0000b0 a6 b3 d4 bb bf 8c 1a 3e 37 21 9c bd 47 d7 47 3e
       -0.0064911423 0.15092753 -0.07623523 0.19515716
0000c0 12 6d 6a bd a3 b6 4b 3d 0c a1 da 3c 5c 1e 13 bd
       -0.057232924 0.049734723 0.026688121 -0.035917625
0000d0 82 2f a0 be 11 3d ad bc a8 7d 89 3e 8d 92 9c 3d
       -0.31286246 -0.021147283 0.2685368 0.0764514
0000e0 ad 7b 14 3e eb 29 03 3d 88 1e 4f bd b4 f0 23 be
       0.14500304 0.032022398 -0.050566226 -0.1600979
0000f0 0a 87 6f 3d 6f 72 11 be f6 9d f6 bd ac e3 5c be
       0.058478393 -0.14203809 -0.120418474 -0.21571225
000100 01 ea 3d be 5d 9a 82 3c d7 76 3b bd b0 a5 a5 be
       -0.18546297 0.015942747 -0.04576763 -0.32352972
000110 15 96 2d 3d af 28 31 3e 9c 34 be 3d d5 31 24 3c
       0.042379458 0.17300676 0.09287378 0.0100216465
000120 ce 59 a1 3c 50 a5 bf bd b5 9e b2 bd 91 f8 2c 3e
       0.019696143 -0.09357703 -0.08721677 0.16891696
000130 4b 93 a1 bd c1 28 40 3d 6c 31 c9 bd cf 8b 10 be
       -0.07889422 0.046913866 -0.098238796 -0.14115833
000140 76 0d 80 bd e5 fb bc 3d 0f 36 41 3e b5 32 50 3d
       -0.062525675 0.092277326 0.18868278 0.050829608
000150 5f e5 74 bc fd ec fb bd d2 74 ae 3d 3f 12 b8 3b
       -0.014947264 -0.12301061 0.085183755 0.0056174095
000160 de f7 02 3e 6b e1 7e bd 19 b4 70 be ef a0 7a bd
       0.12789866 -0.062226694 -0.23506202 -0.061188634
000170 51 6e 0d 3c fd 74 a4 3b 08 15 8c 3c 1a 82 9b bd
       0.0086322585 0.005018829 0.017099872 -0.07593174
000180 0c b3 fb 3c 7b 3a 04 3e 1f eb 5d be 03 1f 6c 3d
       0.030725025 0.12912934 -0.21671723 0.057646763
000190 f9 4d 32 3a be 65 b3 3c 5a fe 53 3e 20 57 10 bc
       0.000680178 0.0218991 0.20702496 -0.008809835
0001a0 fd a6 5f 3e b8 23 8d 3e e2 2c d7 3d a7 ae 6e 3d
       0.21841045 0.27566314 0.105066076 0.05827203
0001b0 a3 61 10 be c7 db b3 bd 07 59 15 3d 5e ec 7c bd
       -0.14099745 -0.087821536 0.036461856 -0.061748855
0001c0 3a 3a 42 3d 35 2f a7 3d 5d c8 4c be 2a 7e 88 bd
       0.04741881 0.08163301 -0.19998308 -0.06664689
0001d0 45 3d 78 be 4c 27 01 3e f3 87 4b 3e 2b d6 77 3c
       -0.24242122 0.12612647 0.1987608 0.015126745
0001e0 8b 2d 01 3e 33 eb 88 bb bf 7b 17 3e 16 3c f4 3d
       0.1261503 -0.0041784286 0.14793299 0.11925523
0001f0 bb 5c 91 3b c7 09 fa 3c bb 7d 80 bd 38 71 16 3e
       0.004436103 0.03052224 -0.06273981 0.14691627
000200 2e 61 04 bd ce a0 2e be 13 a8 d1 bd fe 28 95 3e
       -0.03231924 -0.1705353 -0.10237136 0.29132837
000210 91 fa 3d 3d 7e 08 26 3e 77 2c c8 be 67 39 9e bc
       0.046381537 0.16214177 -0.39096424 -0.019314481
000220 64 29 d7 3c 85 58 f7 3d 89 de 1f 3e a7 03 c9 3d
       0.026264854 0.12077431 0.15612234 0.0981515
000230 60 0d 2c 3e 41 20 4f 3e ba f6 3a 3e 36 9c 37 3d
       0.16801977 0.20227148 0.18258181 0.04482671
000240 33 a7 cc 3d 24 68 ce 3e 43 34 49 be 68 b9 98 bd
       0.09992828 0.40313828 -0.19648843 -0.074572384
000250 71 ac e3 bd 19 be da bd af 50 aa bd bf 81 24 3e
       -0.11116875 -0.106807895 -0.083161704 0.16065119
000260 f4 ca c6 bd d9 08 6b be 2c 52 b4 bc 64 47 b9 3d
       -0.09706679 -0.22952594 -0.022011839 0.0904682
000270 37 1f 72 be 4f 15 1c 3d a8 f2 40 be cf 14 0d bd
       -0.2364472 0.03810626 -0.18842566 -0.034443673
000280 d1 4b c9 3c c4 5e 1d be ca 27 c5 ba 9e 3b a7 3d
       0.024572285 -0.15368181 -0.0015041765 0.08165668
000290 ca cf 91 be 3b 23 a8 be b9 a7 3e 3c 9b 92 ed 3d
       -0.28478843 -0.3283938 0.011636668 0.116002284
0002a0 c1 6f 87 3d 45 78 de bd 16 34 2c bd 73 f7 24 be
       0.06613112 -0.10862783 -0.04204186 -0.1611002
0002b0 b3 d4 b3 bd 2d 9e 16 3e 56 7e f0 3c 29 79 a2 3d
       -0.087808035 0.14708777 0.029357117 0.07933266
0002c0 c2 38 c9 bd 8c e0 3a bc 7b 3c ed 3b 97 5d 49 3e
       -0.09825279 -0.011406075 0.007239876 0.19664608
0002d0 85 9f 33 bd c9 15 2f 3e cb 59 48 3b c9 92 17 bd
       -0.0438533 0.17098154 0.00305711 -0.03700522
0002e0 2a 98 e5 bd e7 5e a1 3e 0e aa 2a 3e 03 b6 27 3e
       -0.112106636 0.31517717 0.16666433 0.16378026
0002f0 6f 24 6d 3e 95 f8 84 3d a8 8e 01 3e e5 d1 89 be
       0.2315843 0.06492726 0.12652075 -0.2691795
000300 81 9a fd 3d f3 db 51 3e 2d 42 7a 3d 1d d3 07 3e
       0.12382985 0.2049406 0.061098266 0.13264127
000310 dd 0b a7 3b 4d a7 3a be 5a a7 76 bc 97 b7 04 3e
       0.0050978498 -0.18227883 -0.015054548 0.12960659
000320 7a 18 02 3e 5a d3 f6 3d df 95 88 3e aa 19 76 3e
       0.1270465 0.12052031 0.26676843 0.24033228
000330 9a 9d c9 bb 3b 12 06 be fb 9b b6 3b 36 8d 28 be
       -0.006152821 -0.13092892 0.0055727935 -0.16460118
000340 2a 0b 9b bd 0d 9a 64 3d 0f c8 be bd d1 62 ed bc
       -0.07570489 0.055810977 -0.09315502 -0.028977783
000350 ad e2 49 be f7 2f a7 3d e9 34 d5 3d 7b 39 45 bd
       -0.19715376 0.081634454 0.104104824 -0.04815052
000360 0b da dc 3d 81 20 69 be 32 a2 71 be 3c f5 83 bd
       0.10783776 -0.22766306 -0.23597029 -0.06443259
000370 fc da 3f be ea 2a 67 3d 49 64 73 3e 00 6a 8c be
       -0.1873588 0.05643741 0.23768725 -0.27424622
000380 e8 df a0 be af 06 53 3d 81 58 46 be d4 8b ad 3e
       -0.31420827 0.051520046 -0.19369699 0.33895743
000390 63 f1 79 3e 99 50 83 be 65 6d c8 bd 58 c4 c1 3c
       0.24408488 -0.2564743 -0.0978649 0.023653194
0003a0 4c f8 d6 3c 72 05 f6 bd cb 0c ab 3e ec a1 73 be
       0.026241444 -0.12012757 0.33408198 -0.23792237
0003b0 16 ea 96 3b 58 4e b7 3c 84 d5 a0 3c 45 f6 92 be
       0.004605542 0.022376224 0.019633062 -0.28703514
0003c0 c8 07 21 be 79 b9 db 3d c9 a3 8c bd 9d 72 50 bd
       -0.15725625 0.107287355 -0.06867177 -0.050890554
0003d0 4b c3 82 bb 25 ed 33 3c 03 04 4e bc b3 1a 29 bd
       -0.003990566 0.010981833 -0.012574199 -0.041285228
0003e0 b1 39 3d be 33 1e 7e be d7 3d e7 3d c8 9f 0a 3c
       -0.18479039 -0.24816208 0.11291092 0.008460946
0003f0 21 63 c3 bb 2f 26 19 3e ab 93 c4 bd 1e 67 04 bd
       -0.005962745 0.14955972 -0.09598478 -0.032324903

h.0.mha.W_v.bias f4 [64]
000000 87 e3 53 bd f2 ec 66 3d 92 30 81 3c 68 e3 92 3d
       -0.05173066 0.056378312 0.01577023 0.071722806
000010 90 40 1d be b5 c6 88 bd 3f 89 44 3d 14 97 23 be
       -0.1535666 -0.06678525 0.04798245 -0.159756
000020 6a 98 98 bd b9 c9 a1 bd 31 a5 05 bd 82 ee 31 be
       -0.07450946 -0.07899804 -0.032628242 -0.1737614
000030 a3 54 01 3e d7 58 b1 3d 93 44 f7 bd 26 57 24 3c
       0.12629943 0.08659523 -0.12073626 0.010030543
000040 36 4a fb 3b 3f 3e a7 bd ba af 97 bd 6b 3f 86 3c
       0.0076687587 -0.081661694 -0.07406564 0.016387662
000050 64 7b a1 bd 3d ae 92 bd 92 6f bb bc 48 67 bd 3c
       -0.07884863 -0.071621396 -0.02288035 0.023120537
000060 53 b7 9c 3c 82 d8 08 3e 70 ab 01 3e b3 8c 95 3c
       0.019130385 0.13363841 0.12663054 0.018255567
000070 46 a1 73 3d 47 46 1d 3e 72 81 37 3d ff 86 11 3e
       0.059479974 0.1535884 0.044801183 0.14211653
000080 cb fa 11 be ff 53 86 3d 1b 63 10 3e be d5 7d 3d
       -0.14255826 0.0655899 0.14100306 0.06197142
000090 c1 97 23 3d e9 00 2d 3e 87 a2 28 3d 81 28 7c bd
       0.039939646 0.16894878 0.041170623 -0.061562065
0000a0 13 5a d5 bd 8b a9 ce bc ab 9b 8b 3d bb 84 9e bd
       -0.10417571 -0.025227329 0.06816801 -0.0774016
0000b0 21 40 0a be c2 1a 48 bd cc cf f1 bd cb 15 ab bd
       -0.13501026 -0.048853643 -0.11807212 -0.08353766
0000c0 53 e9 0c be d4 76 ff 3c 71 7b 13 be 5f a9 cf bc
       -0.13760881 0.031184591 -0.14402558 -0.025349317
0000d0 ab 11 38 be 8e 17 eb bd 4e ab a9 3d 24 c1 ec 3d
       -0.1797549 -0.11479102 0.08284627 0.11560276
0000e0 7d 23 d7 bd f9 c4 c1 bd 7f 18 37 be 95 92 a7 3d
       -0.10504816 -0.09461398 -0.17880438 0.08182255
0000f0 74 86 cb 3d f7 e4 d3 bd 5c 95 c7 bb 47 a9 11 bd
       0.09937754 -0.10346406 -0.006090803 -0.035561826

h.0.mha.W_o.weight f4 [64, 64]
000000 a7 a2 41 bc aa 9c f1 bd 41 85 37 3e c3 82 85 bd
       -0.0118185645 -0.117974594 0.17921926 -0.065190814
000010 0d 72 82 3d dc 76 52 3b 78 4d 88 3c a1 ff a2 3d
       0.0636941 0.0032114303 0.016638502 0.079589136
000020 1f b3 1e 3e 6e 27 b3 3c 37 9a 5d bd f6 78 85 bd
       0.15498017 0.021869387 -0.05410215 -0.06517212
000030 31 fb 08 bd 59 9e 4c bd ff dc 8f bd 61 55 59 3d
       -0.03344268 -0.0499557 -0.070245735 0.05305994
000040 a9 29 7c 3d 0e d3 0a 3c 02 42 a8 bd e3 89 10 be
       0.061563168 0.008473171 -0.08215715 -0.141151
000050 25 bc 27 be 15 51 3c bd 2b 4b 1e 3e 3c 0a 02 be
       -0.16380365 -0.045975763 0.15458362 -0.12699217
000060 ff 93 a1 bd a7 f9 a4 3a 9b 2d 32 bd 6d ed f2 bd
       -0.07889556 0.0012586609 -0.043500524 -0.118616916
000070 ee 87 d1 bc 59 ff e0 bc f8 b3 0d be 9b 9e 35 3d
       -0.025577512 -0.02746551 -0.13838184 0.04434071
000080 92 b1 ef 3d 13 d3 21 be 51 6b 95 bd cc d3 a3 3d
       0.11703791 -0.15803175 -0.072958596 0.079993814
000090 db bb a6 bd e1 e4 1e 3e a0 b4 0b bc 1a 23 03 3e
       -0.08141299 0.15516998 -0.008526951 0.12806359
0000a0 1e a0 48 3d b2 38 46 bb c5 38 91 3d 99 be 12 3c
       0.048980825 -0.0030246195 0.07090906 0.008956575
0000b0 4e 05 dd bd 74 24 39 be dd 53 07 3d 1a de 0f bd
       -0.107920274 -0.18080312 0.033038963 -0.035123922
0000c0 e0 06 51 3e e5 67 cb 3d dd 55 16 bc cf 34 01 3d
       0.20412779 0.09931926 -0.009175745 0.031544503
0000d0 db f7 ab bc e2 7d d6 3d 11 8b a9 3d a2 49 f9 bd
       -0.02099221 0.10473229 0.08278478 -0.121722475
0000e0 2d 23 56 3c 6e 4b 9c 3d 4d 51 8d 3b 0b 50 00 3d
       0.01306991 0.076315746 0.0043126703 0.031326335
0000f0 8b 14 17 bc 74 cd 2e bd b6 21 83 bd 58 b4 29 3e
       -0.009221206 -0.042676404 -0.06402914 0.16572702
000100 a1 4c 0f 3d c4 46 83 bd 4f be c0 3b 33 c3 b5 3d
       0.03498519 -0.06409982 0.0058820616 0.08875122
000110 fd f0 7a bc 38 7b 19 3d a5 91 3a bd 23 79 77 3c
       -0.015316245 0.037471026 -0.045549054 0.015104565
000120 53 95 fb bd dc 11 ba 3d 31 a4 10 3c 6f 3e 8e 3c
       -0.12284341 0.09085438 0.008828209 0.017363755
000130 b0 94 71 3c 2b 7d ee bd ca 4a 24 3d 85 79 40 bd
       0.0147449225 -0.11644968 0.040110387 -0.04699089
000140 56 20 9d bd 98 71 8d bd b2 99 79 3c 3b a0 a5 bd
       -0.07672183 -0.06906432 0.015234398 -0.08087202
000150 f9 19 8b 3d 7c 6a 52 bc a6 1b d0 bd d9 8e 9b 3c
       0.06792063 -0.012842771 -0.101615235 0.018989014
000160 a2 a3 d6 3d fc 4e 59 bd db 39 45 3d 20 f6 95 bd
       0.10480429 -0.05305384 0.04815088 -0.07322335
000170 09 4d e7 bd ad 32 aa bc 39 e2 65 3d 98 b8 25 bd
       -0.1129399 -0.020776117 0.056123946 -0.040459245
000180 a1 34 ca 3d a1 32 24 3d b0 c2 8f 3b f1 b9 27 bd
       0.098733194 0.040087346 0.004387222 -0.040948812
000190 d3 d8 3c 3c 57 00 bc 3c 83 3d 0b bd 76 e6 4a bd
       0.011526304 0.02294938 -0.03399421 -0.04953619
0001a0 84 56 c5 3a 75 ef 8e 3c 0b b1 a1 bc 0e e0 fb 3d
       0.0015055691 0.017448166 -0.019737741 0.122985944
0001b0 a7 6f b2 bc ec 2c 12 bd ad e6 d6 3b dd 5d 2c bd
       -0.021781756 -0.035687372 0.0065582604 -0.042081703
0001c0 b9 a8 3e bc 13 cd 0f bd dd 37 87 3b cd 46 1c bd
       -0.011636906 -0.035107683 0.0041265325 -0.03815346
0001d0 b0 be ea bd 94 a5 e9 3a 3d b2 99 bd 73 73 21 bd
       -0.11462152 0.0017825835 -0.075046994 -0.03941674
0001e0 aa bd 3b 3d 8a 0f 16 3e 32 08 41 3a 33 e4 8e bd
       0.045835175 0.14654365 0.0007363587 -0.06977119
0001f0 5a ed fb 3c 37 e4 20 bd 7d 94 49 3d cd eb 9a 3d
       0.030752826 -0.039280143 0.049213875 0.07564507
000200 b9 e1 c6 3d 01 75 3a 3e aa a7 a7 3d 4b 59 2f 3e
       0.09711022 0.18208696 0.08186276 0.17123906
000210 cd 6a 8e bc d7 5e 10 be f5 33 01 be c0 a6 85 bd
       -0.017384911 -0.14098679 -0.12617476 -0.06525946
000220 92 62 05 3d 5b cc 3c be 85 65 5f bd 3c f0 f7 bc
       0.032564707 -0.1843733 -0.054540176 -0.03026592
000230 48 33 17 3d d9 97 33 3e 9a 0a c7 3e 6b c4 6d 3e
       0.03691414 0.17538394 0.38875276 0.23219459
000240 45 c0 45 be 72 f5 30 3d 9c 32 e3 bd c0 74 4a 3e
       -0.19311626 0.043202825 -0.11093637 0.19771099
000250 ac 6c ab bc 20 80 27 be 9a 10 bd bd d0 af d3 3c
       -0.020925842 -0.1635747 -0.09231682 0.02584067
000260 49 92 8c 3e e0 4d 89 3d 4f f4 16 bd d6 9e d2 3c
       0.27455357 0.067043066 -0.036854085 0.025710505
000270 c8 29 d6 3d e7 b5 72 3d 83 17 ef 3d 87 61 11 be
       0.10457188 0.059255507 0.116744064 -0.1419736
000280 d6 ce c5 be 57 bb a2 3d 61 fd 16 be cb c5 f6 3d
       -0.38634366 0.079458885 -0.14745094 0.12049445
000290 ae b0 fe 3d 03 74 df be d5 e4 3a 3e b2 e5 dd bd
       0.12436043 -0.43643197 0.18251355 -0.108348265
0002a0 af fc a6 be d6 59 fe bc e9 05 2a bc 37 e5 01 3e
       -0.32614657 -0.031048696 -0.010377386 0.12685095
0002b0 c6 bb 31 be e0 9c 65 3c 2c 75 15 be 3e b0 8d bd
       -0.17356786 0.014014453 -0.14595479 -0.06918381
0002c0 49 80 28 be 74 59 be bd 3c 27 9f 3e cb bc 30 3d
       -0.16455187 -0.092944056 0.3108462 0.043148797
0002d0 40 a0 4a bd ad 32 43 be d9 ab 02 bd b0 2f 84 3d
       -0.049469233 -0.190623 -0.031902168 0.06454408
0002e0 0c 9b 0a be c3 99 af bd 1e aa 9b bc 24 f5 5c 3d
       -0.13535708 -0.085742496 -0.019002017 0.05394472
0002f0 a9 9d 9a bd b1 f0 21 3e ca 16 74 bd ad 67 e5 bd
       -0.075496025 0.15814473 -0.059592046 -0.11201415
000300 35 eb 0c be 48 f2 1b be fe 77 b2 bc 20 0b 98 bc
       -0.137616 -0.15229142 -0.021785732 -0.018559992
000310 5e 52 8d 3d 39 ce 9b bb a6 1b 9f 3d 77 ab fc 3c
       0.06900476 -0.0047548083 0.077689454 0.03084348
000320 34 6b 8b 3d 67 a4 02 bc 63 01 12 3e d1 80 30 bc
       0.06807557 -0.007973767 0.14258341 -0.0107729
000330 1f e2 a7 bd 4b 87 cf 3d f4 6d fa bd 03 89 e9 3c
       -0.08197426 0.10133227 -0.12228003 0.028507715
000340 28 95 13 3e 89 fa 08 3e 88 31 00 3e 5d 9d 46 3d
       0.14412367 0.13376822 0.12518895 0.048489917
000350 4b ee c8 bd 7e fe 2c 3e c4 18 9b bc e1 ad 8a 3d
       -0.09811076 0.16893956 -0.018932708 0.06771446
000360 03 70 f1 3c bf 12 37 3d 8b 30 d2 bb 49 17 c8 bc
       0.029472357 0.044695612 -0.006414478 -0.024425166
000370 9e 36 34 bd 61 60 8f bd 83 62 84 3d 43 6f 8a 3c
       -0.0439974 -0.07000805 0.06464102 0.016898757
000380 57 7a 16 be 40 1b 62 3d 6f 33 ef 3d 73 85 98 bd
       -0.14695106 0.05520177 0.11679732 -0.074473284
000390 9e 88 b3 3d ba c5 8c 3d 7a 89 3d be f5 1d ba 3c
       0.08766292 0.06873651 -0.18509474 0.022719363
0003a0 b4 db 8b 3d 2b b7 1e bd 04 f1 20 3c bd 03 5e 3d
       0.068290144 -0.0387489 0.009823088 0.054202784
0003b0 07 28 d5 bc b6 7a 63 3d 19 c3 13 3e e5 19 30 3e
       -0.026020063 0.05553695 0.14429893 0.17197378
0003c0 ce 2e 7c 3d bc 9c b3 3d bb f8 8d 3c 7a 51 61 bd
       0.061568074 0.08770129 0.017330518 -0.055009343
0003d0 aa ab 1a bd b2 6a 09 bd 83 8d 4d 3d 11 64 d2 3c
       -0.037761368 -0.03354902 0.050183784 0.025682481
0003e0 9b 07 4a bd 92 c7 d7 bd 51 74 77 bd 7d 7d 5c bd
       -0.04932366 -0.10536112 -0.060413662 -0.053830612
0003f0 d5 11 03 3e d8 79 58 3c 06 e3 4a be c5 18 3e 3b
       0.12799771 0.013212644 -0.19813165 0.0029006463

h.0.mha.W_o.bias f4 [64]
000000 d0 9f e3 bc 62 75 d5 3c 89 a3 52 3d bc 5e 5d bd
       -0.027786165 0.026056949 0.05142549 -0.054045424
000010 c4 8f 7e 3c 74 10 81 bb d3 79 16 bc c1 53 a2 3c
       0.015537206 -0.003938729 -0.009184319 0.019815328
000020 8b 54 88 bd 97 94 07 be f0 57 a5 bd e9 c7 82 3c
       -0.0665675 -0.13240276 -0.08073413 0.015964465
000030 db 5b 94 3b 82 63 71 3c 49 66 68 3a db 89 99 3c
       0.0045275516 0.014733197 0.00088653393 0.018742492
000040 2b a1 85 3d e4 02 d5 3b 35 bf 2e 3d 5d c7 e8 3c
       0.06524881 0.0065005887 0.042662818 0.028415376
000050 24 96 12 bd ca 19 6f 3c e6 48 aa 3c 1d 43 32 bc
       -0.035787717 0.014593551 0.020786714 -0.010880259
000060 1c c5 11 bd 9f 05 1c 3c be 54 5a ba d5 bb 8e 3d
       -0.03558837 0.009522825 -0.00083286676 0.0696942
000070 b1 ed cf bd 34 00 05 3e 98 5a 8f 3d 33 5d 9b 3d
       -0.10152758 0.12988359 0.06999701 0.07586136
000080 91 70 e6 3c 7d f7 96 bd 15 73 4f bd ae a9 b9 3d
       0.028129848 -0.073714234 -0.05064686 0.09065567
000090 07 86 4e 3d ff 9b 3c bd 53 68 7b 3c c7 bb 04 3d
       0.050420787 -0.046047207 0.015344697 0.03240564
0000a0 7d 34 f1 bc 42 09 53 bb 8b 53 bf bd 36 8e d2 3d
       -0.029443974 -0.0032201563 -0.093421064 0.10281031
0000b0 28 f6 7f bc 3d 92 88 3c 6d e7 c3 3b d2 96 ee ba
       -0.015622653 0.016671294 0.005978516 -0.0018202907
0000c0 38 9c 50 be 33 8b 4d 3d f9 5b 1a 3e 34 30 53 3d
       -0.20372093 0.05018158 0.15074147 0.051559642
0000d0 80 76 b5 bc 90 22 5c 3c 39 c9 bc bc d9 20 40 be
       -0.022151232 0.013435975 -0.02304517 -0.1876253
0000e0 f8 a4 e6 3d b0 79 2e 3e 07 b9 3d 3d f8 c2 60 bd
       0.11261934 0.17038608 0.046319034 -0.054873437
0000f0 ed c2 b1 bd 31 23 e3 bc 5b a2 4a 3d 4e 86 5e bd
       -0.08679757 -0.027726742 0.04947124 -0.0543273

h.0.ln_1.weight f4 [64]
000000 d9 2a b4 3e 12 e9 1d 3f 8b ec 00 3f ed 3c d2 3e
       0.3518894 0.6168376 0.50360936 0.41062108
000010 fc 15 53 3f d5 b1 2d 3f 89 eb b2 3e b1 c8 9f 3e
       0.8245542 0.67849475 0.34945324 0.31207803
000020 27 47 0b 3f af 6e 9b 3e 30 97 8e 3e 66 20 86 3e
       0.54405445 0.30357882 0.27849722 0.26196593
000030 fd cc 4d 3f 02 78 63 3f ef 7b 19 3e 8b ea c6 3e
       0.8039091 0.8885499 0.14988683 0.38850817
000040 12 4a dd 3e 54 3b 33 3f 48 91 8d 3e ff f8 91 3e
       0.43220574 0.700124 0.27649903 0.2851028
000050 44 f7 f5 3e 9c e9 f5 3e 45 e2 89 3e c5 8e 27 3f
       0.4804021 0.48029792 0.26930442 0.65452224
000060 0a 44 d9 3e fe c0 2a 3f 41 87 5c 3f 6d 8d 82 3e
       0.42434722 0.6670073 0.8614388 0.25498524
000070 d9 fe 17 3f cf 37 f2 3e 25 c5 76 3e 94 87 9f 3e
       0.5937324 0.47308204 0.24098642 0.31158125
000080 99 a3 9d 3e 36 3c 9e 3e a3 0f ad 3e b3 4e 1f 3f
       0.30788878 0.30905312 0.33800992 0.6222946
000090 74 dc 92 3e 30 01 de 3e 05 1f 0b 3f 51 e3 ff 3e
       0.28683817 0.4336028 0.5434421 0.49978116
0000a0 5b f6 3a 3e e8 4a 62 3f 6b f4 aa 3e c0 18 10 3f
       0.1825804 0.8839555 0.333896 0.56287766
0000b0 87 f4 2f 3f b3 ef e1 3e 57 b4 0e 3f 94 6a bc 3e
       0.68732494 0.44128188 0.55743927 0.36800063
0000c0 ea 92 61 3e 60 46 c9 3d 1c 5e bf 3e 9f a2 4b 3f
       0.220287 0.09827876 0.37376487 0.79545015
0000d0 a0 36 81 3e 81 18 c4 3e 7e 4f 78 3e 85 b7 02 3f
       0.25236988 0.38299945 0.24249074 0.5106128
0000e0 34 20 e0 3e b3 b3 6d 3e e7 df 15 3f c8 31 7f 3e
       0.4377457 0.23213081 0.5854477 0.24921334
0000f0 5d 76 bd 3e 89 1e a6 3e bf 4c b1 3e ce e7 d8 3e
       0.37004367 0.3244517 0.34628865 0.42364353

h.0.ln_1.bias f4 [64]
000000 0e 9b b3 ba a3 7e ef 3e 40 15 f2 be ee cc 1e bd
       -0.0013702826 0.46776304 -0.47281837 -0.038769655
000010 bf 87 44 3e 0f b4 a9 3d c6 10 1a bd ca 2c 19 bb
       0.19192408 0.082862966 -0.037613653 -0.0023372644
000020 ec ad dc be 1e f8 fd 3c 73 80 57 be 44 92 42 3d
       -0.43101442 0.0310021 -0.21045093 0.04750277
000030 b9 7e 20 bf 16 ab 09 3f 5d dc ae 3b 3f b3 a3 bd
       -0.62693363 0.5377668 0.005336328 -0.07993173
000040 6b 3d 6d be 87 d4 9b 3e 1a 0a 3e 3e f3 64 96 bc
       -0.2316796 0.30435583 0.18558541 -0.018358683
000050 67 6a 2c be 14 29 dd 3e 45 2b 12 be f5 62 db be
       -0.16837464 0.43195403 -0.14274319 -0.42848936
000060 df ad 97 be e2 32 1a 3f 41 f8 27 bf 3e f5 0c be
       -0.2962484 0.6023389 -0.6561318 -0.13765427
000070 8d 2f a0 be ff bc c4 3e 17 57 80 bd 5f 51 f8 bc
       -0.31286278 0.38425443 -0.06266611 -0.030312238
000080 59 3e 2f bd 38 b7 b0 bd 3f 3f ea 3c 34 e3 c4 3e
       -0.04278407 -0.08628696 0.028594611 0.38454592
000090 9e c2 5b 3c f1 50 3f 3e 1a 11 c2 bd 06 8d 01 3f
       0.0134131 0.1868322 -0.09475918 0.5060581
0000a0 15 36 86 3d fe b5 40 bf 8c 4c bd bd 0e 11 fa 3e
       0.06553284 -0.752777 -0.09243116 0.48841137
0000b0 f8 bd 09 be c4 c5 6e be 58 bf 97 be 9f 2f 4b be
       -0.13451374 -0.23317629 -0.2963817 -0.19842385
0000c0 5c 2f 8d 3d 65 16 dd bd a6 1f 16 3d 5d aa a8 3e
       0.06893799 -0.10795287 0.036651276 0.32942477
0000d0 96 71 30 be d5 00 aa 3d e0 b8 02 3d b4 1c b6 be
       -0.1723083 0.0830094 0.03191459 -0.35568774
0000e0 ad 6e 93 3e a9 2a 1c bc 4d b9 ce be 83 35 bc 3d
       0.28795376 -0.009531655 -0.40375748 0.09189894
0000f0 6d fc 40 be 08 06 30 be 91 e9 6b be fa 83 fb bd
       -0.18846293 -0.171898 -0.23038317 -0.12281032

h.0.ln_2.weight f4 [64]
000000 00 00 80 3f 00 00 80 3f 00 00 80 3f 00 00 80 3f
       1.0 1.0 1.0 1.0
000010 00 00 80 3f 00 00 80 3f 00 00 80 3f 00 00 80 3f
       1.0 1.0 1.0 1.0
000020 00 00 80 3f 00 00 80 3f 00 00 80 3f 00 00 80 3f
       1.0 1.0 1.0 1.0
000030 00 00 80 3f 00 00 80 3f 00 00 80 3f 00 00 80 3f
       1.0 1.0 1.0 1.0
000040 00 00 80 3f 00 00 80 3f 00 00 80 3f 00 00 80 3f
       1.0 1.0 1.0 1.0
000050 00 00 80 3f 00 00 80 3f 00 00 80 3f 00 00 80 3f
       1.0 1.0 1.0 1.0
000060 00 00 80 3f 00 00 80 3f 00 00 80 3f 00 00 80 3f
       1.0 1.0 1.0 1.0
000070 00 00 80 3f 00 00 80 3f 00 00 80 3f 00 00 80 3f
       1.0 1.0 1.0 1.0
000080 00 00 80 3f 00 00 80 3f 00 00 80 3f 00 00 80 3f
       1.0 1.0 1.0 1.0
000090 00 00 80 3f 00 00 80 3f 00 00 80 3f 00 00 80 3f
       1.0 1.0 1.0 1.0
0000a0 00 00 80 3f 00 00 80 3f 00 00 80 3f 00 00 80 3f
       1.0 1.0 1.0 1.0
0000b0 00 00 80 3f 00 00 80 3f 00 00 80 3f 00 00 80 3f
       1.0 1.0 1.0 1.0
0000c0 00 00 80 3f 00 00 80 3f 00 00 80 3f 00 00 80 3f
       1.0 1.0 1.0 1.0
0000d0 00 00 80 3f 00 00 80 3f 00 00 80 3f 00 00 80 3f
       1.0 1.0 1.0 1.0
0000e0 00 00 80 3f 00 00 80 3f 00 00 80 3f 00 00 80 3f
       1.0 1.0 1.0 1.0
0000f0 00 00 80 3f 00 00 80 3f 00 00 80 3f 00 00 80 3f
       1.0 1.0 1.0 1.0

h.0.ln_2.bias f4 [64]
000000 00 00 00 00 00 00 00 00 00 00 00 00 00 00 00 00
       0.0 0.0 0.0 0.0
000010 00 00 00 00 00 00 00 00 00 00 00 00 00 00 00 00
       0.0 0.0 0.0 0.0
000020 00 00 00 00 00 00 00 00 00 00 00 00 00 00 00 00
       0.0 0.0 0.0 0.0
000030 00 00 00 00 00 00 00 00 00 00 00 00 00 00 00 00
       0.0 0.0 0.0 0.0
000040 00 00 00 00 00 00 00 00 00 00 00 00 00 00 00 00
       0.0 0.0 0.0 0.0
000050 00 00 00 00 00 00 00 00 00 00 00 00 00 00 00 00
       0.0 0.0 0.0 0.0
000060 00 00 00 00 00 00 00 00 00 00 00 00 00 00 00 00
       0.0 0.0 0.0 0.0
000070 00 00 00 00 00 00 00 00 00 00 00 00 00 00 00 00
       0.0 0.0 0.0 0.0
000080 00 00 00 00 00 00 00 00 00 00 00 00 00 00 00 00
       0.0 0.0 0.0 0.0
000090 00 00 00 00 00 00 00 00 00 00 00 00 00 00 00 00
       0.0 0.0 0.0 0.0
0000a0 00 00 00 00 00 00 00 00 00 00 00 00 00 00 00 00
       0.0 0.0 0.0 0.0
0000b0 00 00 00 00 00 00 00 00 00 00 00 00 00 00 00 00
       0.0 0.0 0.0 0.0
0000c0 00 00 00 00 00 00 00 00 00 00 00 00 00 00 00 00
       0.0 0.0 0.0 0.0
0000d0 00 00 00 00 00 00 00 00 00 00 00 00 00 00 00 00
       0.0 0.0 0.0 0.0
0000e0 00 00 00 00 00 00 00 00 00 00 00 00 00 00 00 00
       0.0 0.0 0.0 0.0
0000f0 00 00 00 00 00 00 00 00 00 00 00 00 00 00 00 00
       0.0 0.0 0.0 0.0
