subspace-alignment/data/2_layer_64_vocab/ckpt_19920.pt (torch, 178594 bytes, 29 tensors)

embed.embed.weight f4 [64, 64]
-0.4390708 1.440006 0.22225754 0.46694776 0.17703137 -0.25509244 -2.3050919 -0.10597058
-0.48939168 0.038367677 -1.3913087 0.58548295 -0.45209545 -0.86951464 0.18987218 0.1591742
0.022423202 0.23506656 -0.13341373 -0.74066496 -0.29163256 2.2632833 1.4436079 -1.1641198
-1.2844962 1.8993118 -1.0213464 1.8548877 0.71344006 0.6529895 -0.35196972 0.3133804
1.1651384 -0.9120937 0.1086518 -1.1175888 -1.0013846 0.29475364 -1.23308 0.8069084
-1.3295094 -1.1456033 0.4427829 0.49446112 1.2334803 1.0590911 -0.5445228 -0.40317824
-0.31976345 -1.0079044 -0.040871173 -0.26433337 0.18727268 0.91963106 -0.13436697 -0.91838396
0.4040849 -0.09373543 -0.77206534 -1.1446394 0.29710954 -0.58450544 -0.15919894 0.72070646
0.2483159 -1.079617 -1.3705587 -0.06448549 1.9675773 -1.2951655 -0.5528146 -0.44379273
0.33652702 0.038311716 -0.54849565 0.1431397 0.2787779 0.60344636 0.21670622 -0.025947316
0.57384115 -0.6125711 0.20066023 0.0092025325 0.30384058 -0.4562643 1.613768 0.3186058
-0.28309396 1.1820474 -1.427344 0.31623688 -2.0245538 1.831344 0.03225237 -0.47713652
-0.91153705 -0.6847807 0.4659945 0.0009837024 1.4997258 0.68184 1.3287444 0.7319328
-0.42372787 -0.2561497 0.9987965 0.41158417 -0.4854788 0.23375556 -0.7756525 -1.5970763
-0.11661399 -0.64256823 1.9415951 -0.083844006 -0.18466093 -0.22575134 0.031881027 -0.64612484
0.0006102549 -0.15225077 -0.7527426 0.13671573 0.5132047 -2.607276 -0.09507642 0.1445543
1.3022069 1.0101777 -0.38940662 -0.006629414 -0.34361407 0.7518905 -1.0297046 -1.1334106
0.56236756 -0.10845524 -0.4047267 -0.8550618 -0.4287305 0.7184376 0.10528823 -0.30057222
-0.2514999 -1.2631509 -0.8103752 -0.63244796 -0.118124895 1.5867479 -1.0929831 -0.32607678
-0.10572689 0.5117493 -0.19380648 0.010422172 -0.7513746 1.5323185 0.7360291 0.3154656
-1.0891442 0.3000587 0.39181352 0.7776112 -1.1279812 -1.7252425 -0.40573943 2.330186
-0.23668963 -1.0853294 0.14740124 0.2207691 0.0006018489 -0.5788531 0.78981644 -0.4087014
-0.34575474 -0.40765753 2.6892393 -0.2714171 0.044736773 -0.5253153 -1.4611747 -0.7187797
0.59376246 0.1261178 -0.34595406 0.3359394 -2.5556042 0.1438741 0.20978655 0.45911777
-1.3248904 0.9528251 -0.32991302 0.07394818 -1.396433 -0.4712685 1.2159145 0.1511535
-1.2847456 -0.5250793 -1.0215075 -0.9099628 -2.4648743 2.4132223 -0.40380603 0.50126165
0.6215823 -0.43779758 0.30561078 -0.0410167 0.07275986 -0.78764474 -0.8910227 0.52293956
-1.4304346 1.7790031 0.17925423 0.39371508 0.16317128 0.34444892 0.0031669536 0.8741388
0.60031015 0.52199864 -0.5701524 -0.8626866 -0.26134592 -0.6040079 0.32456905 0.9146991
0.90170795 -0.012347101 -1.1362385 0.75393707 0.72188133 1.1851563 0.6663479 0.9679859
0.24335839 -0.65170354 1.2376872 -0.010320174 -1.4111032 1.1302103 0.34681204 -0.72590095
0.43719292 0.58932865 -1.0495784 -0.23199025 0.18450461 -0.94145733 -0.32789397 0.009737197
00000000: e3cd e0be 1e52 b83f 7b97 633e c713 ef3e
00000010: b647 353e 7a9b 82be a086 13c0 1a07 d9bd
00000020: 8c91 fabe 6d27 1d3d 6716 b2bf 36e2 153f
00000030: 0e79 e7be 8398 5ebf da6d 423e 90fe 223e
00000040: ddb0 b73c 4ab5 703e 9c9d 08be 389c 3dbf
00000050: dd50 95be a2d9 1040 25c8 b83f e101 95bf
00000060: 5f6a a4bf a61c f33f 7bbb 82bf f66c ed3f
00000070: 02a4 363f 522a 273f 6035 b4be 6573 a03e
00000080: 4123 953f f97e 69bf d684 de3d 260d 8fbf
00000090: 5f2d 80bf f3e9 963e 91d5 9dbf 8d91 4e3f
000000a0: 5d2d aabf 21a3 92bf 71b4 e23e 022a fd3e
000000b0: afe2 9d3f 4c90 873f d965 0bbf 616d cebe
000000c0: 09b8 a3be 0303 81bf 8868 27bd b456 87be
000000d0: 69c4 3f3e f16c 6b3f 7f97 09be 361b 6bbf
000000e0: 37e4 ce3e 5cf8 bfbd 13a6 45bf 8b83 92bf
000000f0: be1e 983e 26a2 15bf 0c05 23be 3880 383f
00000100: 8646 7e3e e430 8abf 786e afbf f810 84bd
00000110: 93d9 fb3f fcc7 a5bf 4285 0dbf cd38 e3be
00000120: 454d ac3e bfec 1c3d 366a 0cbf 3793 123e
00000130: fabb 8e3e 767b 1a3f 3ce8 5d3e 778f d4bc
00000140: 41e7 123f 76d1 1cbf e079 4d3e 38c6 163c
00000150: fe90 9b3e 799b e9be f38f ce3f 4d20 a33e
00000160: b1f1 90be 544d 973f 35b3 b6bf cde9 a13e
00000170: 4a92 01c0 7b69 ea3f 101b 043d 3d4b f4be
00000180: 7e5a 69bf ca4d 2fbf d596 ee3e 93ef 803a
00000190: 04f7 bf3f 118d 2e3f 4c14 aa3f f35f 3b3f
000001a0: dcf2 d8be 0e26 83be 21b1 7f3f 29bb d23e
000001b0: ad90 f8be 9e5d 6f3e 2a91 46bf ff6c ccbf
000001c0: 51d3 eebd 5a7f 24bf 3086 f83f 68b6 abbd
000001d0: c117 3dbe 5c2b 67be ae95 023d 7068 25bf
000001e0: 83f9 1f3a a0e7 1bbe bdb3 40bf 35ff 0b3e
000001f0: 6261 033f 9cdd 26c0 6db7 c2bd 0b06 143e
00000200: b7ae a63f 814d 813f 4e60 c7be 8e3b d9bb
00000210: 2fee afbe e57b 403f 5ccd 83bf 9913 91bf
00000220: 52f7 0f3f c81d debd 5738 cfbe 55e5 5abf
00000230: 9082 dbbe 87eb 373f 5ba1 d73d 9ae4 99be
00000240: 98c4 80be eeae a1bf c074 4fbf 1ce8 21bf
00000250: 77eb f1bd 8e1a cb3f dfe6 8bbf 89f3 a6be
00000260: 5787 d8bd 0102 033f 3575 46be c2c1 2a3c
00000270: 165a 40bf 0323 c43f 676c 3c3f b584 a13e
00000280: 1469 8bbf 4ba1 993e c89b c83e 8711 473f
00000290: b061 90bf bfd4 dcbf 14bd cfbe c421 1540
000002a0: c45e 72be 13ec 8abf 5af0 163e 4c11 623e
000002b0: 65c5 1d3a b72f 14bf 6931 4a3f 4f41 d1be
000002c0: c406 b1be 7db8 d0be 7f1c 2c40 2ff7 8abe
000002d0: e83d 373d 107b 06bf c607 bbbf f201 38bf
000002e0: d100 183f 0625 013e e420 b1be 4000 ac3e
000002f0: 058f 23c0 bb53 133e 49d2 563e 7c11 eb3e
00000300: 0296 a9bf 59ec 733f 5cea a8be 2572 973d
00000310: 51be b2bf 1b4a f1be 16a3 9b3f fcc7 1a3e
00000320: 8b72 a4bf 996b 06bf c2c0 82bf 52f3 68bf
00000330: 80c0 1dc0 3c72 1a40 aabf cebe af52 003f
00000340: 0520 1f3f 0127 e0be 0479 9c3e 2101 28bd
00000350: 1f03 953d 16a3 49bf 101a 64bf 5edf 053f
00000360: 7b18 b7bf 60b6 e33f 6c8e 373e 0695 c93e
00000370: 5f16 273e 9c5b b03e aa8c 4f3b 8fc7 5f3f
00000380: edad 193f b4a1 053f 82f5 11bf 07d9 5cbf
00000390: 22cf 85be 43a0 1abf ea2d a63e b829 6a3f
000003a0: 55d6 663f 7f4b 4abc 4370 91bf 0502 413f
000003b0: 37cd 383f 34b3 973f c795 2a3f edcd 773f
000003c0: f132 793e 0bd6 26bf 896c 9e3f f215 29bc
000003d0: 089f b4bf bbaa 903f 5991 b13e a5d4 39bf
000003e0: c0d7 df3e 3ede 163f 9658 86bf da8e 6dbe
000003f0: c7ee 3c3e 5903 71bf b8e1 a7be c488 1f3c

h.0.mha.W_q.weight f4 [64, 64]
-0.0039875354 -0.24301134 0.192262 -0.026526753 -0.14824334 -0.034688454 0.11107939 0.06355936
0.30750284 0.12133518 0.20276025 0.0065504075 0.21721439 -0.22078247 -0.03680956 -0.04903798
0.1486953 -0.1499894 -0.15624109 0.1085834 0.15158269 -0.15358174 0.077150695 0.20418581
0.17232162 -0.22966868 0.24792078 -0.06460711 0.20854634 -0.23601809 0.01983123 -0.003682372
0.079190254 0.108650334 -0.01765161 -0.18813518 -0.044154413 -0.1481395 0.11772173 -0.1898444
-0.088254355 0.24357341 0.046243194 -0.2521963 0.08742667 0.07374438 0.10019169 0.0782253
0.040458385 0.11820677 -0.06976709 -0.15106554 0.106555216 0.0006327122 -0.059924785 0.20204231
-0.10838367 -0.09314577 0.16599232 -0.0634281 0.10338661 0.07751171 0.10892877 0.08287337
0.008329285 0.14986175 -0.21603297 0.054483466 0.18686308 0.15602224 0.0498164 0.0041562766
-0.14869882 0.09080113 -0.07172242 -0.03619009 -0.25514016 0.21554436 -0.06262825 -0.1191396
-0.12283027 0.21580824 0.10191332 -0.115215875 -0.10146871 0.107986666 -0.048381645 -0.25300524
-0.061184835 0.08519355 -0.23773065 -0.014386676 -0.09919405 0.13566324 0.025334198 -0.110157974
-0.034065504 0.04440212 0.103161134 0.17393048 -0.030856576 0.14193153 -0.1195244 0.07086601
0.10965347 -0.24717847 -0.08378665 0.22882013 -0.1631334 -0.058760773 -0.24495512 0.025005255
0.13466404 0.022025632 -0.017348597 0.26619712 -0.060813714 0.039415278 -0.020338466 -0.14558013
0.13587953 0.023414563 -0.09524894 0.086191006 -0.04258972 0.06324984 -0.1138087 -0.17857528
-0.061953954 0.16673559 -0.28810975 0.039786596 0.08893837 0.103061356 -0.08240963 0.03223855
-0.10696882 -0.03135196 -0.15381365 -0.031214638 -0.20489268 0.20590024 -0.032702763 -0.06260634
-0.18650833 0.23950581 0.122202925 -0.027121477 -0.14275074 0.18236902 -0.17413269 -0.16142645
-0.023547644 0.11316206 -0.2768685 0.014312411 -0.11744632 0.066853896 0.031681962 -0.04168278
-0.019424422 -0.077556744 0.052207902 0.21362212 -0.015593157 0.08463974 -0.070581116 0.06263043
0.04981916 -0.1348397 -0.08961934 0.25808865 -0.112184584 -0.07829715 -0.09529974 -0.08036351
0.022934724 0.0036859 0.06407716 0.16752 -0.039614826 0.01485102 -0.0295546 -0.21203826
0.17737027 0.058287166 -0.08173132 0.044229046 -0.03964032 -0.06016117 -0.11250678 -0.08754954
-0.017519223 0.16283603 -0.0061648944 0.04632194 0.17554642 0.109532215 -0.09474347 -0.019610478
-0.16311541 -0.03274084 -0.033673342 0.03356954 -0.18589458 0.20177655 0.059437238 -0.037690256
-0.113885015 0.09011889 0.071781345 -0.041487604 -0.08977853 0.17287703 -0.0028436854 -0.09591511
-0.092706315 0.0971309 -0.0473692 -0.006464404 -0.13929881 0.045064412 0.14626884 -0.03381495
0.004300696 0.008927498 -0.016757917 0.23677261 0.046791438 0.12851463 -0.011144756 0.082734995
0.10988508 -0.07621959 -0.03784345 0.060059756 -0.09672459 -0.04496914 -0.09693946 -0.026104905
0.014777196 0.05482211 -0.12926619 0.15756972 -0.031439777 0.006507093 0.06134362 -0.028759241
0.073405296 0.13155697 -0.012445528 0.08941071 0.039568506 0.0016537162 -0.0323258 0.04936175
00000000: dfa9 82bb f7d7 78be 54e0 443e a24e d9bc
00000010: 1acd 17be 7b15 0ebd 977d e33d 692b 823d
00000020: 0371 9d3e 947e f83d 62a0 4f3e cda4 d63b
00000030: 736d 5e3e cd14 62be 9fc5 16bd 0ddc 48bd
00000040: 9543 183e d296 19be aafd 1fbe f960 de3d
00000050: 7e38 1b3e 8844 1dbe 2f01 9e3d 1616 513e
00000060: 1475 303e 442e 6bbe f2de 7d3e bc50 84bd
00000070: 2c8d 553e baae 71be 1b75 a23c f353 71bb
00000080: 802e a23d 1184 de3d 1c9a 90bc 82a6 40be
00000090: 42db 34bd e2b1 17be 1718 f13d 9266 42be
000000a0: b3be b4bd 4f6b 793e 8169 3d3d e01f 81be
000000b0: c10c b33d 4b07 973d 4d31 cd3d 9634 a03d
000000c0: b1b7 253d 6416 f23d 0ce2 8ebd edb0 1abe
000000d0: 9f39 da3d 99dc 253a b173 75bd 2ee4 4e3e
000000e0: 42f8 ddbd 36c3 bebd e4f9 293e 97e6 81bd
000000f0: 5cbc d33d 76be 9e3d 0c16 df3d 83b9 a93d
00000100: 8e77 083c 5c75 193e bf37 5dbe 0e2a 5f3d
00000110: 0959 3f3e 4bc4 1f3e 480c 4c3d 6031 883b
00000120: 8144 18be f1f5 b93d 34e3 92bd 0f3c 14bd
00000130: bba1 82be a9b7 5c3e 3d43 80bd 76ff f3bd
00000140: 708e fbbd d6fc 5c3e eeb7 d03d 4df6 ebbd
00000150: d4ce cfbd 1d28 dd3d d52b 46bd e789 81be
00000160: f39c 7abd f579 ae3d aa6f 73be 18b6 6bbc
00000170: 4026 cbbd 4eeb 0a3e aa89 cf3c 819a e1bd
00000180: 4588 0bbd ffde 353d 2546 d33d d51a 323e
00000190: eec6 fcbc 8056 113e 35c9 f4bd 3322 913d
000001a0: 0092 e03d 5a1c 7dbe 5698 abbd d34f 6a3e
000001b0: 710c 27be 23af 70bd 84d5 7abe d2d7 cc3c
000001c0: 5fe5 093e 196f b43c a51e 8ebc fd4a 883e
000001d0: cd17 79bd ea71 213d db9c a6bc f512 15be
000001e0: 0124 0b3e e6cf bf3c e011 c3bd e984 b03d
000001f0: 8f72 2ebd 2289 813d 8914 e9bd 70dc 36be
00000200: 6ec3 7dbd bcbc 2a3e 1f83 93be 45f7 223d
00000210: 5225 b63d d511 d33d 61c6 a8bd 920c 043d
00000220: 7812 dbbd ea6a 00bd 5381 1dbe d7b5 ffbc
00000230: 63cf 51be 83d7 523e 55f3 05bd c137 80bd
00000240: 0afc 3ebe 0341 753e 8745 fa3d dc2d debc
00000250: 402d 12be f2be 3a3e d74f 32be fa4c 25be
00000260: fde6 c0bc 83c1 e73d b5c1 8dbe 9a7e 6a3c
00000270: b287 f0bd b2ea 883d f2c4 013d 90bb 2abd
00000280: f71f 9fbc 12d6 9ebd f4d7 553d c2bf 5a3e
00000290: 717a 7fbc 9a57 ad3d d58c 90bd 6244 803d
000002a0: 2d0f 4c3d 6b13 0abe 588a b7bd 3224 843e
000002b0: 08c1 e5bd 425a a0bd 832c c3bd a095 a4bd
000002c0: 9ae1 bb3c 248f 713b e33a 833d 5d8a 2b3e
000002d0: 2843 22bd b151 733c 7d1c f2bc 8f20 59be
000002e0: 8da0 353e 86be 6e3d c062 a7bd 8429 353d
000002f0: e35d 22bd 8f6b 76bd f469 e6bd 2c4d b3bd
00000300: 7984 8fbc 7dbe 263e e202 cabb 13bc 3d3d
00000310: 71c2 333e 6d52 e03d dd08 c2bd 27a6 a0bc
00000320: ba07 27be 421b 06bd 0fed 09bd 3780 093d
00000330: 265b 3ebe 839e 4e3e 7674 733d 1961 1abd
00000340: 8c3c e9bd 4190 b83d 1902 933d e8ee 29bd
00000350: cedd b7bd ad06 313e 205d 3abb 246f c4bd
00000360: cfdc bdbd 91ec c63d 3506 42bd 5ad3 d3bb
00000370: 59a4 0ebe 7695 383d 80c7 153e 8c81 0abd
00000380: daec 8c3b a444 123c e647 89bc 8574 723e
00000390: 61a8 3f3d 5799 033e 7f98 36bc f770 a93d
000003a0: 6e0b e13d 0419 9cbd bc01 1bbd 3801 763d
000003b0: 8b17 c6bd 9031 38bd 3288 c6bd f4d9 d5bc
000003c0: 0d1c 723c 268d 603d 5b5e 04be f559 213e
000003d0: ffc6 00bd 7439 d53b 7343 7b3d 8098 ebbc
000003e0: 8455 963d dfb6 063e 54e8 4bbc f61c b73d
000003f0: 9612 223d 82c1 d83a 0f68 04bd 8c2f 4a3d

h.0.mha.W_q.bias f4 [64]
-0.21839426 0.57268983 0.51585174 0.31749612 0.19908087 0.6273221 -0.2419704 0.46879432
-0.65050983 -0.32482368 0.14993407 0.18206905 0.040507555 0.6462007 0.2790072 -0.081601925
0.20181714 0.42152315 -0.020612873 0.3331356 -0.27057278 0.14845733 -0.088762216 -0.29848304
-0.07598592 0.06838894 0.036359303 -0.13436937 0.0032390135 -0.097085595 0.056743134 0.1570651
-0.098452434 -0.020178154 -0.008355491 0.029601706 0.036588613 -0.018627534 -0.08171134 -0.028580388
0.0803035 -0.012151747 0.10215195 0.0034872973 0.052848555 0.059673756 0.09028878 0.06462261
-0.014586545 0.07314454 0.11611992 0.0458272 -0.035244007 -0.034463644 -0.038453724 -0.049846984
0.16343912 0.02233163 0.0011912968 0.041147906 0.046615273 0.040801995 0.12384351 -0.107091755
00000000: bfa2 5fbe cd9b 123f dc0e 043f da8e a23e
00000010: dbdb 4b3e 2e98 203f 17c7 77be cf05 f03e
00000020: d087 26bf 4a4f a6be 5188 193e 4f70 3a3e
00000030: 40eb 253d 696d 253f 08da 8e3e e91e a7bd
00000040: 27a9 4e3e e2d1 d73e 54dc a8bc c090 aa3e
00000050: 8488 8abe 3305 183e f7c8 b5bd c5d2 98be
00000060: 829e 9bbd 800f 8c3d 7eed 143d 2098 09be
00000070: a145 543b d0d4 c6bd 7d6b 683d acd5 203e
00000080: 6ea1 c9bd a84c a5bc 78e5 08bc 477f f23c
00000090: f1dd 153d c598 98bc 4658 a7bd 6b21 eabc
000000a0: 2976 a43d 1f18 47bc 0b35 d13d 248b 643b
000000b0: ba77 583d 786c 743d 53e9 b83d dc58 843d
000000c0: 67fc 6ebc cecc 953d 48d0 ed3d 4db5 3b3d
000000d0: 055c 10bd c029 0dbd a781 1dbd 5a2c 4cbd
000000e0: 965c 273e d3f0 b63c 4a25 9c3a b58a 283d
000000f0: a8ef 3e3d fe1f 273d aba1 fd3d ec52 dbbd

h.0.mha.W_k.weight f4 [64, 64]
0.015912322 -0.040074944 0.04516281 -0.056398537 -0.063896105 -0.07147642 -0.034108877 0.13354829
0.07140584 -0.018823823 -0.007036709 0.05826057 0.026349597 -0.07783687 0.039323643 0.032480597
-0.017843751 0.012011593 0.04267075 0.051236786 -0.036147732 -0.08717719 0.043088757 0.02807513
0.0442401 -0.12316272 0.07476575 -0.0032984996 0.030534053 -0.009532082 -0.03126424 0.05790918
0.007555655 0.0039402815 0.042841434 -0.0012207808 -0.014164858 0.022792378 0.005001947 0.06769969
0.08692937 0.043085065 0.0072902557 -0.05316819 0.01572062 -0.01151023 0.05136336 0.0629472
-0.0027320676 0.006918778 -0.06824976 -0.069577634 0.09035973 -0.007142409 0.0035357838 0.055222683
0.0055404566 -0.07784365 -0.005669131 -0.031493034 -0.012596001 -0.045185253 0.021917956 0.04181328
-0.048085235 0.21328418 -0.2617345 0.043686796 0.2285108 0.12141061 -0.03857206 -0.044543773
-0.21742305 -0.123176776 -0.17169864 0.012594722 -0.34620926 0.31754345 -0.011532418 -0.18245764
-0.14114662 0.19157594 0.15051177 -0.07592931 -0.19998623 0.2634645 -0.09235308 -0.21978033
-0.19230765 0.2978552 -0.3251808 -0.042506393 -0.18661566 0.23263921 -0.07307459 -0.02255773
-0.009960423 -0.13795851 0.095536865 0.2080252 -0.019280078 0.08266933 -0.08628046 0.24078497
0.033438478 -0.3096473 -0.12990241 0.2703192 -0.12213648 -0.110842854 -0.23323856 -0.16035317
0.041825652 -0.2404887 0.17414805 0.35040954 -0.14351507 0.10751121 -0.06256667 -0.32851434
0.31201538 0.06605492 -0.28156802 0.10167915 -0.1547238 -0.22917332 -0.15303463 -0.10538256
0.01500815 -0.15771152 0.15459296 -0.0027198873 -0.092445716 -0.074416555 0.042369787 0.014162345
0.15681046 -0.018982414 0.16947953 0.04473639 0.12661135 -0.18688641 0.010353084 0.030517247
0.08165895 -0.12865235 -0.07126468 0.0790005 0.1627551 -0.1831618 0.013179295 0.16974273
0.07774925 -0.112872474 0.1751826 0.036190297 0.12441798 -0.17365584 0.06337979 0.0033902144
0.07058167 0.043191373 -0.049364626 -0.1554317 -0.016732115 -0.02375661 0.05023584 -0.10030681
0.031250652 0.115315884 0.08156883 -0.22062728 0.07187687 0.013582899 0.13493744 0.1525986
-0.118881464 0.13628738 -0.06771003 -0.20295742 0.075669356 -0.0825927 0.05205417 0.15899056
-0.18950555 -0.14896104 0.12837939 0.03706436 0.07755135 0.116438575 0.04652607 0.09252752
-0.11817951 0.0645528 -0.09134121 0.019897312 0.20066833 0.03708688 -0.040729377 -0.11659986
-0.10402867 -0.052299958 -0.1283333 -0.054829903 -0.31492975 0.17495804 0.024882888 0.053111456
-0.09320906 0.1304979 0.14717694 0.030551586 -0.04752841 0.18368526 -0.032901917 -0.10528162
-0.06133588 0.09627978 -0.1867793 0.04523837 -4.8192374e-05 0.20068195 -0.0016599132 0.097292945
-0.022688061 -0.13968323 0.06782235 0.12417085 0.034056827 0.06057463 -0.03449696 0.20450261
0.01555919 -0.19192185 -0.042249884 0.20808564 -0.041273046 -0.055018626 -0.04257307 -0.10640017
0.008459898 -0.10707793 0.14003888 0.11592958 -0.090116575 0.092432305 -0.03360684 -0.20463061
0.24490273 0.0175888 -0.12359878 0.027466355 -0.06812144 -0.08411874 -0.09838873 0.024987455
00000000: 8f5a 823c a025 24bd a3fc 383d 2702 67bd
00000010: f6db 82bd 3b62 92bd c0b5 0bbd e2c0 083e
00000020: 3a3d 923d 6b34 9abc 3294 e6bb a3a2 6e3d
00000030: 1cdb d73c f068 9fbd d411 213d 600a 053d
00000040: 0f2d 92bc 46cc 443c 86c7 2e3d aadd 513d
00000050: a50f 14bd f489 b2bd d67d 303d d1fd e53c
00000060: 1b35 353d bc3c fcbd c91e 993d a42b 58bb
00000070: 8d22 fa3c 732c 1cbc ef0e 00bd 2d32 6d3d
00000080: 6e95 f73b 7a1d 813b 807a 2f3d 9b02 a0ba
00000090: b813 68bc 15b7 ba3c 5fe7 a33b 23a6 8a3d
000000a0: 0708 b23d f779 303d 19e3 ee3b e3c6 59bd
000000b0: 88c8 803c 6795 3cbc 6362 523d 76ea 803d
000000c0: 7d0c 33bb ebb6 e23b 88c6 8bbd b87e 8ebd
000000d0: 860e b93d df0a eabb 9cb8 673b 2e31 623d
000000e0: b88c b53b 7e6c 9fbd 1ec4 b9bb d7fe 00bd
000000f0: 755f 4ebc 2c14 39bd 498d b33c 6744 2b3d
00000100: 06f5 44bd 2b67 5a3e 1002 86be edf0 323d
00000110: bcfe 693e 20a6 f83d bdfd 1dbd 8873 36bd
00000120: 26a4 5ebe 1b44 fcbd c5d1 2fbe 185a 4e3c
00000130: 5742 b1be 0e95 a23e 78f2 3cbc 2dd6 3abe
00000140: bd88 10be 7c2c 443e c21f 1a3e d380 9bbd
00000150: 31c9 4cbe d2e4 863e 9d23 bdbd 180e 61be
00000160: 4cec 44be 7a80 983e 197e a6be 2f1b 2ebd
00000170: 2d18 3fbe f938 6e3e 21a8 95bd fdca b8bc
00000180: 0b31 23bc ff44 0dbe d5a8 c33d 8f04 553e
00000190: 41f1 9dbc 8a4e a93d cfb3 b0bd 5690 763e
000001a0: c9f6 083d 178a 9ebe 2305 05be 4767 8a3e
000001b0: b122 fabd 9401 e3bd 17d6 6ebe 9f33 24be
000001c0: 6051 2b3d ab42 76be de53 323e e168 b33e
000001d0: 9df5 12be d62e dc3d f422 80bd 0833 a8be
000001e0: 7bc0 9f3e cd47 873d af29 90be 283d d03d
000001f0: ea6f 1ebe 69ac 6abe 1cb5 1cbe d0d2 d7bd
00000200: bee4 753c 217f 21be 9e4d 1e3e 2340 32bb
00000210: 2e54 bdbd b567 98bd f18b 2d3d 2e09 683c
00000220: ec92 203e 0281 9bbc 0b8c 2d3e 813d 373d
00000230: 68a6 013e 275f 3fbe fb9f 293c 4eff f93c
00000240: cf3c a73d 71bd 03be 37f3 91bd 04cb a13d
00000250: 46a9 263e c48e 3bbe f8ed 573c 0ad1 2d3e
00000260: 003b 9f3d af29 e7bd 1163 333e 473c 143d
00000270: dbce fe3d d6d2 31be 43cd 813d 5c2e 5e3b
00000280: 1f8d 903d 70e9 303d 9032 4abd 7d29 1fbe
00000290: ca11 89bc 399d c2bc 19c4 4d3d a86d cdbd
000002a0: af00 003d bc2a ec3d 8f0d a73d 1eec 61be
000002b0: 2e34 933d cf8a 5e3c 0a2d 0a3e cf42 1c3e
000002c0: 2078 f3bd eb8e 0b3e 8eab 8abd 12d4 4fbe
000002d0: 89f8 9a3d 5d26 a9bd c136 553d 6cce 223e
000002e0: be0d 42be 3e89 18be e375 033e ccd0 173d
000002f0: 3ed3 9e3d 5977 ee3d 1f92 3e3d 127f bd3d
00000300: 1908 f2bd 4234 843d 1a11 bbbd b0ff a23c
00000310: 007c 4d3e 6ae8 173d d9d3 26bd e8cb eebd
00000320: fc0c d5bd 7b38 56bd ce69 03be 5295 60bd
00000330: 793e a1be 3328 333e 33d7 cb3c 668b 593d
00000340: 64e4 bebd 3ea1 053e 8db5 163e 5247 fa3c
00000350: 26ad 42bd fd17 3c3e 29c4 06bd e49d d7bd
00000360: 553b 7bbd 552e c53d 1343 3fbe de4b 393d
00000370: 2b22 4ab8 927f 4d3e 7291 d9ba 8641 c73d
00000380: 50dc b9bc 1f09 0fbe 72e6 8a3d 494d fe3d
00000390: 2c7f 0b3d 1a1d 783d af4c 0dbd 2269 513e
000003a0: f9eb 7e3c 2987 44be 370e 2dbd 6714 553e
000003b0: ed0d 29bd 365b 61bd 1961 2ebd 55e8 d9bd
000003c0: 629b 0a3c ac4b dbbd 5a66 0f3e 7d6c ed3d
000003d0: 0a8f b8bd 264d bd3d 53a7 09bd b08a 51be
000003e0: c8c7 7a3e 6316 903c 5b21 fdbd 1f01 e13c
000003f0: 4183 8bbd 7246 acbd 0880 c9bd 7eb2 cc3c

h.0.mha.W_k.bias f4 [64]
-0.018665753 0.6046475 -0.37694347 0.69319874 -0.34246913 0.4862131 -1.5117104 -0.046865426
-0.47404793 -1.1288384 0.33088145 0.042893812 0.20880839 1.3817667 -0.17263336 -0.31584728
0.048313983 0.50172025 -0.39851105 1.3973298 -0.13336296 -0.090443425 -1.0573622 0.26151553
-0.40043867 0.72360384 -0.11373595 -0.4542435 0.37876204 0.18572547 0.23240688 -0.43247363
-0.75555557 -0.3759567 -0.2817647 0.22589365 0.014360171 -0.057198327 0.41177702 -0.1354474
0.5021796 0.041338664 0.24346045 -0.108650975 -0.44995433 0.08767647 0.56617224 0.23717533
0.12579446 0.29316586 -0.29776746 -0.1185023 0.01323164 -0.58570534 0.4275404 -0.30097777
-0.18752229 -0.3387685 0.33415532 -0.5011067 0.5713175 0.35414982 0.056372438 -0.71796453
00000000: ece8 98bc 2eca 1a3f bcfe c0be 7975 313f
00000010: 1d58 afbe ecf0 f83e ba7f c1bf f6f5 3fbd
00000020: 69b6 f2be c77d 90bf 4b69 a93e 6cb1 2f3d
00000030: ded1 553e bbdd b03f cdc6 30be bcb6 a1be
00000040: e2e4 453d bd70 003f a409 ccbe b4db b23f
00000050: 4d90 08be 673a b9bd a557 87bf 5de5 853e
00000060: 4c06 cdbe 1a3e 393f 65ee e8bd 9b92 e8be
00000070: 19ed c13e d12e 3e3e 12fc 6d3e 2f6d ddbe
00000080: 176c 41bf 667d c0be 7643 90be aa50 673e
00000090: ec46 6b3c cb48 6abd 70d4 d23e b9b2 0abe
000000a0: d88e 003f bb52 293d b24d 793e 6784 debd
000000b0: 6a60 e6be b98f b33d aaf0 103f 17de 723e
000000c0: 43d0 003e d619 963e fa74 98be 55b1 f2bd
000000d0: 85c9 583c c9f0 15bf 93e6 da3e c219 9abe
000000e0: d805 40be 1173 adbe 6816 ab3e 8748 00bf
000000f0: dd41 123f 2053 b53e c9e6 663d 86cc 37bf

h.0.mha.W_v.weight f4 [64, 64]
-0.016657693 0.043562163 0.21416816 -0.19780996 0.15087676 -0.14567345 -0.1444846 0.36780024
-0.13376796 0.05050671 0.004332604 0.033354875 0.023666633 -0.33285373 0.09697258 -0.028168216
-0.059820566 0.13031374 -0.086798005 0.29019597 0.14869764 0.04482478 0.14482835 -0.043260463
-0.12214253 -0.08609385 -0.2762871 0.04784603 0.28242892 -0.054261625 0.0808814 -0.1511989
0.12315173 -0.031604987 0.18983129 0.074274234 -0.19159548 0.114876084 0.032447126 0.13249293
-0.06309773 0.0008764612 0.18331006 -0.060272876 0.0027362541 0.15589528 -0.06729944 0.18121701
-0.07533435 0.049147513 0.032826573 -0.05048936 -0.3170988 -0.03742684 0.23606677 0.06335458
0.14388064 0.013985231 -0.040922113 -0.15901595 0.03505898 -0.11485888 -0.10863019 -0.18765865
-0.14347163 0.018523177 -0.04175866 -0.31043404 0.04779817 0.18129475 0.10027079 0.004952619
0.027211485 -0.11892701 -0.07951614 0.16347735 -0.0934609 0.06228702 -0.08415011 -0.12348254
-0.05474665 0.11776285 0.17652045 0.056506284 -0.017842907 -0.1215831 0.07800441 -0.019079639
0.12335709 -0.06761493 -0.21630332 -0.08326525 0.017793363 0.008396278 0.033440676 -0.07399141
0.051799856 0.10659451 -0.24245368 0.06478079 0.008609579 0.0040272954 0.17997445 -0.0053973137
0.1819653 0.28965864 0.093475394 0.06640431 -0.14960779 -0.0871476 0.033155892 -0.05190899
0.08150963 0.07755364 -0.17625241 -0.04987406 -0.26341975 0.113788925 0.1826173 0.029109389
0.11038753 -0.008736925 0.15345074 0.10621403 0.004056197 0.002339796 -0.06942407 0.13691932
-0.007507873 -0.15709333 -0.08189565 0.28134924 0.041483223 0.16150874 -0.36795947 -0.015064349
0.024048304 0.13519779 0.15782315 0.08156944 0.16213726 0.20332353 0.17051147 0.039463367
0.10907831 0.3781424 -0.19517738 -0.09056385 -0.097086646 -0.11137655 -0.09849463 0.1568998
-0.0892251 -0.21938862 -0.030707601 0.0710253 -0.2354533 0.04302913 -0.17158023 -0.04208513
0.020387856 -0.17402624 0.0012517228 0.07480568 -0.2675788 -0.2993691 0.019036466 0.10040894
0.066068426 -0.109635234 -0.06169871 -0.15157016 -0.077107996 0.09988191 0.024286142 0.108518474
-0.088292405 -0.01950112 -0.0071296464 0.20385309 -0.04456244 0.18449049 -0.014019677 -0.037712485
-0.11317737 0.33290336 0.16224517 0.14920364 0.23089005 0.039108817 0.114747226 -0.25120014
0.12388603 0.20426756 0.0490817 0.12869443 0.0052740052 -0.17044203 -0.02046673 0.14024659
0.13950223 0.08574828 0.24867034 0.2253797 -0.014343044 -0.11931602 0.021043066 -0.14992191
-0.07757016 0.054489035 -0.087960206 0.016542057 -0.19765604 0.0642674 0.10633769 -0.056743048
0.09609754 -0.22371265 -0.22488725 -0.075909905 -0.18538837 0.05915948 0.21439444 -0.25451836
-0.2975888 0.021914577 -0.15957794 0.32187665 0.24339475 -0.24315885 -0.096085235 0.033372063
0.0073733856 -0.111123204 0.3241697 -0.24224907 -0.015852055 0.04288902 0.015460198 -0.26947218
-0.17240065 0.11676021 -0.07427797 -0.04945774 -0.01840607 0.0019718164 0.0128191635 -0.045340993
-0.17446755 -0.24712798 0.11169793 0.006678669 -0.013762363 0.14905795 -0.0798302 -0.043763082
00000000: b775 88bc 3d6e 323d e64e 5b3e b28e 4abe
00000010: 707f 1a3e 6c2b 15be c5f3 13be 5050 bc3e
00000020: 78fa 08be 20e0 4e3d 84f8 8d3b 1f9f 083d
00000030: 87e0 c13c ce6b aabe 8f99 c63d 08c1 e6bc
00000040: 6906 75bd f770 053e 27c3 b1bd 9194 943e
00000050: 3244 183e 309a 373d e24d 143e e231 31bd
00000060: dd25 fabd f951 b0bd 8175 8dbe 33fa 433d
00000070: 869a 903e 7041 5ebd 26a5 a53d e2d3 1abe
00000080: f936 fc3d 3b74 01bd 2263 423e 171d 983d
00000090: 9b31 44be 2744 eb3d 47e7 043d 3aac 073e
000000a0: 6239 81bd 51c2 653a a2b5 3b3e b1e0 76bd
000000b0: ba52 333b 03a3 1f3e 4ad4 89bd f490 393e
000000c0: e548 9abd e74e 493d 2875 063d eecd 4ebd
000000d0: c65a a2be e34c 19bd 7dbb 713e 0cc0 813d
000000e0: 7255 133e 4f22 653c f29d 27bd 14d5 22be
000000f0: 019a 0f3d 223b ebbd 8179 debd 9729 40be
00000100: 3aea 12be ebbd 973c 210b 2bbd 36f1 9ebe
00000110: 04c8 433d 55a5 393e c65a cd3d 9449 a23b
00000120: 9fea de3c 0190 f3bd 5cd9 a2bd 9b66 273e
00000130: 6e68 bfbd ad20 7f3d e556 acbd 6ae4 fcbd
00000140: 063e 60bd a62d f13d c7c1 343e 2273 673d
00000150: 4a2b 92bc 8f00 f9bd c7c0 9f3d e74c 9cbc
00000160: a4a2 fc3d b279 8abd 9e7e 5dbe f986 aabd
00000170: 63c3 913c 8b90 093c 17f9 083d cf88 97bd
00000180: 162c 543d 394e da3d c745 78be caab 843d
00000190: 310f 0d3c 67f7 833b 394b 383e f3db b0bb
000001a0: 1d55 3a3e 234e 943e 0770 bf3d fcfe 873d
000001b0: c932 19be 717a b2bd 79ce 073d 859e 54bd
000001c0: 85ee a63d 71d4 9e3d 837b 34be be48 4cbd
000001d0: f4de 86be 2b0a e93d 0800 3b3e d076 ee3c
000001e0: db12 e23d 5225 0fbc 3122 1d3e be86 d93d
000001f0: d9e9 843b 4357 193b 352e 8ebd 9434 0c3e
00000200: 9a04 f6bb 13dd 20be e8b8 a7bd 020d 903e
00000210: 50ea 293d 8c62 253e 2f65 bcbe 76d0 76bc
00000220: f300 c53c 4a71 0a3e 649c 213e e10d a73d
00000230: 4f07 263e 0b34 503e 8f9a 2e3e 57a4 213d
00000240: 7364 df3d e19b c13e 94dc 47be 8a79 b9bd
00000250: 5dd5 c6bd 6319 e4bd 8db7 c9bd 57aa 203e
00000260: a6bb b6bd 69a7 60be 828e fbbc b675 913d
00000270: ab1a 71be 503f 303d bab2 2fbe 7561 2cbd
00000280: 6f04 a73c ef33 32be d910 a43a b833 993d
00000290: 1700 89be e846 99be 5df2 9b3c 34a3 cd3d
000002a0: e24e 873d 7088 e0bd c9b7 7cbd 3535 1bbe
000002b0: ccea 9dbd e38e cc3d bbf3 c63c ef3e de3d
000002c0: a6d2 b4bd d0c0 9fbc cf9f e9bb ddbe 503e
000002d0: 1b87 36bd 13eb 3c3e cab2 65bc 6878 1abd
000002e0: 89c9 e7bd 4f72 aa3e 9923 263e d7c8 183e
000002f0: 716e 6c3e 9130 203d 9800 eb3d 4e9d 80be
00000300: f5b7 fd3d 842b 513e e509 493d 79c8 033e
00000310: 90d1 ac3b 5b88 2ebe d8a9 a7bc cd9c 0f3e
00000320: acd9 0e3e cb9c af3d 70a3 7e3e f0c9 663e
00000330: 16ff 6abc f55b f4bd 8262 ac3c 2185 19be
00000340: 1bdd 9ebd e52f 5f3d 7b24 b4bd 3583 873c
00000350: 5866 4abe a09e 833d 93c7 d93d 666b 68bd
00000360: c9ce c43d ee14 65be d848 66be a776 9bbd
00000370: 73d6 3dbe 3651 723d 378a 5b3e 3b50 82be
00000380: 8f5d 98be 3386 b33c 6668 23be 04cd a43e
00000390: 793c 793e a2fe 78be 56c8 c4bd 25b1 083d
000003a0: 719c f13b 9094 e3bd 92f9 a53e 2410 78be
000003b0: 2bdc 81bc 66ac 2f3d c54c 7d3c 42f8 89be
000003c0: cc89 30be fa1f ef3d 0c1f 98bd 3394 4abd
000003d0: 54c8 96bc 9739 013b 7807 523c 7ab7 39bd
000003e0: 9fa7 32be 1e0f 7dbe e2c1 e43d bcd8 da3b
000003f0: 897b 61bc a6a2 183e 047e a3bd eb40 33bd

h.0.mha.W_v.bias f4 [64]
-0.054901924 0.057368085 0.018368471 0.074188635 -0.15091655 -0.07094629 0.044909857 -0.16649316
-0.07329755 -0.07542076 -0.028310787 -0.18221541 0.12881267 0.08829411 -0.12259511 0.018072417
0.009710044 -0.07906011 -0.076674156 0.013878343 -0.07619324 -0.07438114 -0.01667147 0.025716389
0.017550651 0.13522376 0.1297891 0.01532119 0.054982472 0.15291092 0.04460433 0.14468549
-0.14425701 0.06301046 0.13973396 0.06551608 0.039022382 0.16776545 0.038743366 -0.055369224
-0.106784046 -0.020946885 0.065360844 -0.085682526 -0.14195432 -0.04994526 -0.11819109 -0.08801798
-0.13751012 0.02955185 -0.14477348 -0.026139544 -0.17921448 -0.1107582 0.08388123 0.11286978
-0.104220495 -0.09541851 -0.17250042 0.08377567 0.10368542 -0.10521347 -0.009486235 -0.03646554
00000000: d7e0 60bd ccfa 6a3d 7a79 963c 36f0 973d
00000010: de89 1abe 4a4c 91bd 66f3 373d 2f7d 2abe
00000020: 071d 96bd 3376 9abd 06ec e7bc ad96 3abe
00000030: 78e7 033e 8bd3 b43d 2513 fbbd 9b0c 943c
00000040: e016 1f3c 44ea a1bd 5707 9dbd fd61 633c
00000050: 340b 9cbd 2455 98bd 9b92 88bc 2dab d23c
00000060: 62c6 8f3c 1978 0a3e 6fe7 043e ba05 7b3c
00000070: 4d35 613d ae94 1c3e 08b3 363d 6f28 143e
00000080: 1cb8 13be a10b 813d 6b16 0f3e 4b2d 863d
00000090: efd5 1f3d b5ca 2b3e 5db1 1e3d d7ca 62bd
000000a0: 98b1 dabd cd98 abbc e8db 853d 527a afbd
000000b0: 795c 11be 6793 4cbd 2c0e f2bd c542 b4bd
000000c0: 74cf 0cbe b916 f23c 803f 14be 9922 d6bc
000000d0: 0084 37be 32d5 e2bd ecc9 ab3d 4528 e73d
000000e0: 8e71 d5bd c86a c3bd f3a3 30be 9492 ab3d
000000f0: 0559 d43d 297a d7bd 276c 1bbc e45c 15bd

h.0.mha.W_o.weight f4 [64, 64]
-0.008613326 -0.09945813 0.17490973 -0.079788476 0.057343967 -0.006595117 0.034379773 0.0780591
0.13908881 0.019788373 -0.0723369 -0.07006916 -0.035348788 -0.028935136 -0.060238533 0.04162172
0.031922996 -0.007613238 -0.0771374 -0.13617133 -0.1752081 -0.062183607 0.14680928 -0.14056914
-0.073142186 -0.013550265 -0.036633357 -0.11078617 -0.033983916 -0.014279655 -0.12187349 0.044690516
0.09809966 -0.16404682 -0.053013723 0.08513095 -0.06728072 0.16554706 0.005646095 0.14907114
0.04753256 0.0009861962 0.095223285 0.014624631 -0.097868726 -0.17631142 0.02449758 -0.035333235
0.19030999 0.05748951 0.0030231073 0.0387484 -0.045161933 0.09857019 0.048526496 -0.10701134
0.0017003168 0.07882379 -0.016867895 0.016007088 -0.006154464 -0.05491069 -0.039084435 0.16694517
0.04336985 -0.080611184 0.008005107 0.09389617 0.0042317887 0.037005957 -0.02324236 0.0006980373
-0.12272524 0.099490546 0.020519936 -0.003039603 0.022337245 -0.11315228 0.039839443 -0.027556103
-0.05818036 -0.065843225 0.0012990762 -0.083003886 0.058569703 -0.021994315 -0.09891797 0.030875191
0.09478464 -0.070424855 0.036960524 -0.058113486 -0.12679508 -0.0056722322 0.060184386 -0.054248616
0.092450835 0.022403317 0.022870837 -0.02790034 0.0011194785 0.032265354 -0.0437016 -0.041333962
-0.012650753 0.047097366 -0.0025310828 0.10706507 -0.036179133 -0.01811932 0.000775787 -0.01917626
0.0060133515 -0.034679696 -0.02390999 -0.0359974 -0.12818313 0.018228035 -0.07268132 -0.03377456
0.043252423 0.12335461 0.019387987 -0.067865476 0.021583512 -0.057432998 0.05369903 0.047075108
0.10990183 0.19431852 0.09703737 0.17473765 -0.018330032 -0.13683414 -0.09800568 -0.07041898
0.009683111 -0.16035074 -0.03884406 -0.033079483 0.017920278 0.14523393 0.38627923 0.22189151
-0.21393181 0.06307303 -0.09324 0.18615863 -0.03420596 -0.17734005 -0.0992893 -0.009643344
0.2634835 0.03948525 -0.04824525 0.01996931 0.10561546 0.031081388 0.11568953 -0.11900217
-0.36875597 0.053947315 -0.12427676 0.10192149 0.11600259 -0.41661593 0.18900564 -0.113217846
-0.30310637 -0.0015225853 -0.006004566 0.13560101 -0.15181792 0.027718408 -0.14508961 -0.08468281
-0.11813019 -0.090024605 0.27197096 0.03424798 -0.029510913 -0.15811265 -0.043775033 0.050703745
-0.08877381 -0.08264642 -0.026688095 0.07612358 -0.11217356 0.16879712 -0.027352698 -0.08839046
-0.12906103 -0.13671517 -0.04428913 -0.0153187625 0.064392224 -0.03171503 0.069797635 0.039411865
0.06376183 -0.0026915977 0.141908 0.000775855 -0.09755423 0.09275098 -0.11101661 0.028137866
0.12422374 0.13631062 0.13536268 0.03571809 -0.09512779 0.17652206 -0.015947318 0.040269155
0.024478111 0.047827385 -0.013372971 -0.025917351 -0.06459709 -0.095023416 0.044035792 0.008222231
-0.13794266 0.048018735 0.10079647 -0.09238186 0.085414656 0.04320479 -0.17309807 -0.006627609
0.08231285 -0.0154429935 0.011262223 0.07953766 -0.030109797 0.0766723 0.13888341 0.18337573
0.039718416 0.07895661 0.027964866 -0.057045966 -0.013701247 -0.05569781 0.027419167 0.02047775
-0.011022802 -0.098315924 -0.062386587 -0.06503669 0.123331375 0.0052017374 -0.18043628 0.011753308
00000000: e81e 0dbc b4b0 cbbd 891b 333e 2468 a3bd
00000010: 82e1 6a3d da1b d8bb ced1 0c3d 73dd 9f3d
00000020: 4c6d 0e3e 3a1b a23c 5e25 94bd 6b80 8fbd
00000030: e4c9 10bd 6109 edbc aebc 76bd 897b 2a3d
00000040: b0c1 023d 7878 f9bb 37fa 9dbd 7f70 0bbe
00000050: c169 33be 3db4 7ebd 2c55 163e 5bf1 0fbe
00000060: 92cb 95bd ee01 5ebc dc0c 16bd dce3 e2bd
00000070: b832 0bbd 37f5 69bc cf98 f9bd 670d 373d
00000080: 79e8 c83d e4fb 27be eb24 59bd 2359 ae3d
00000090: 79ca 89bd 2b85 293e e102 b93b 1ba6 183e
000000a0: 80b1 423d 4143 813a 6d04 c33d 269c 6f3c
000000b0: 666f c8bd fb8a 34be 26af c83c 95b9 10bd
000000c0: 9fe0 423e 1f7a 6b3d 531f 463b a4b6 1e3d
000000d0: b8fb 38bd 2bdf c93d b8c3 463d c328 dbbd
000000e0: 2add de3a 5e6e a13d 8a2e 8abc 4c21 833c
000000f0: 63ab c9bb 08ea 60bd 0017 20bd adf3 2a3e
00000100: 95a4 313d 7a17 a5bd da27 033c a34c c03d
00000110: d1aa 8a3b 8f93 173d c366 bebc 7dfc 363a
00000120: 5f57 fbbd b3c1 cb3d 6d19 a83c 1334 47bb
00000130: 99fc b63c 62bc e7bd af2e 233d 56bd e1bc
00000140: 874e 6ebd d0d8 86bd c445 aa3a f1fd a9bd
00000150: c9e6 6f3d 6c2d b4bc 8195 cabd f8ed fc3c
00000160: 731e c23d e83a 90bd eb63 173d 6808 6ebd
00000170: 92d6 01be 22de b9bb e783 763d cc33 5ebd
00000180: dd56 bd3d 2987 b73c 9f5b bb3c 418f e4bc
00000190: 77bb 923a ad28 043d 7300 33bd cd4d 29bd
000001a0: 1b45 4fbc 2be9 403d 86e0 25bb ee44 db3d
000001b0: 9230 14bd f86e 94bc 2f5e 4b3a 8817 9dbc
000001c0: a60b c53b 4c0c 0ebd e2de c3bc 0272 13bd
000001d0: 7042 03be f652 953c f2d9 94bd 3157 0abd
000001e0: 7429 313d 57a1 fc3d 8ed3 9e3c 0efd 8abd
000001f0: e8cf b03c dd3e 6bbd 84f3 5b3d d4d1 403d
00000200: 3614 e13d 6ffb 463e 87bb c63d 6dee 323e
00000210: dd28 96bc 401e 0cbe 34b7 c8bd d437 90bd
00000220: e9a5 1e3c fc32 24be f31a 1fbd 5a7e 07bd
00000230: 8ccd 923c 34b8 143e 64c6 c53e 8737 633e
00000240: f110 5bbe 6f2c 813d 9df4 bebd 5ea0 3e3e
00000250: 8c1b 0cbd a198 35be 3058 cbbd 1eff 1dbc
00000260: 4fe7 863e 49bb 213d d09c 45bd ae96 a33c
00000270: eb4c d83d 659e fe3c a2ee ec3d 69b7 f3bd
00000280: 95cd bcbe dcf7 5c3d d084 febd 37bc d03d
00000290: c492 ed3d af4e d5be b28a 413e c2de e7bd
000002a0: c230 9bbe 7c91 c7ba f3c1 c4bb feda 0a3e
000002b0: 2876 1bbe b711 e33c 5f92 14be 2e6e adbd
000002c0: 3eee f1bd d25e b8bd c73f 8b3e 9c47 0c3d
000002d0: dfc0 f1bc 48e8 21be 734d 33bd bbae 4f3d
000002e0: 0bcf b5bd 8742 a9bd fea0 dabc aee6 9b3d
000002f0: 40bb e5bd 27d9 2c3e c412 e0bc 0f06 b5bd
00000300: 9328 04be 10ff 0bbe 8568 35bd 8cfb 7abc
00000310: 12e0 833d 9fe7 01bd 10f2 8e3d 566e 213d
00000320: 9095 823d 8465 30bb 5550 113e bf62 4b3a
00000330: 83ca c7bd 3af4 bd3d ad5c e3bd 6281 e63c
00000340: 0469 fe3d 0395 0b3e 849c 0a3e 224d 123d
00000350: 5cd2 c2bd 33c2 343e f3a3 82bc 45f1 243d
00000360: 5286 c83c a6e6 433d 4e1a 5bbc a050 d4bc
00000370: 7b4b 84bd a39b c2bd e05e 343d 89b6 063c
00000380: d740 0dbe 4baf 443d 616e ce3d b332 bdbd
00000390: e1ed ae3d 82f7 303d 9f40 31be 6a2c d9bb
000003a0: a493 a83d 9c04 7dbc 3085 383c a4e4 a23d
000003b0: d2a8 f6bc 5e06 9d3d 7437 0e3e d9c6 3b3e
000003c0: c7af 223d 01b4 a13d 9316 e53c 08a9 69bd
000003d0: 327b 60bc 6323 64bd 299e e03c f4c0 a73c
000003e0: fc98 34bc dc59 c9bd 1489 7fbd f531 85bd
000003f0: 2995 fc3d 5673 aa3b 4ac4 38be f290 403c

h.0.mha.W_o.bias f4 [64]
-0.053840756 0.042939324 0.020328877 -0.07076776 0.021377191 -0.0075730425 -0.016684474 0.015145657
-0.061320323 -0.0898505 -0.09542925 0.039270397 -0.004834987 0.012449984 0.005708791 0.037129875
0.0748502 0.0038618187 0.08022501 0.00636505 -0.05054891 0.029939065 0.01747894 -0.014256463
-0.04061379 0.03596616 0.005521952 0.06574155 -0.102002025 0.16096157 0.04808214 0.061232466
0.033754863 -0.089063674 -0.051029805 0.11015015 0.03074809 -0.041844767 -0.003372562 0.04018008
-0.062454168 0.00276232 -0.09227321 0.104950994 -0.012741963 0.014332328 -0.02991957 0.004887316
-0.18707336 0.046760432 0.15962 0.052459072 -0.017638292 0.018772757 -0.039975826 -0.20323442
0.095134184 0.16225241 0.086149305 -0.06388765 -0.07017691 -0.0318458 0.07243998 -0.066501364
00000000: 2088 5cbd 25e1 2f3d bf88 a63c b0ee 90bd
00000010: 381f af3c 4927 f8bb e1ad 88bc 7d25 783c
00000020: 052b 7bbd 8a03 b8bd 6970 c3bd ffd9 203d
00000030: d06e 9ebb 05fb 4b3c cf10 bb3b 7f15 183d
00000040: 104b 993d 9116 7d3b 034d a43d e991 d03b
00000050: 600c 4fbd c542 f53c fe2f 8f3c f193 69bc
00000060: a55a 26bd 4151 133d 7ef1 b43b 81a3 863d
00000070: 70e6 d0bd 1cd3 243e c7f1 443d e5ce 7a3d
00000080: 8a42 0a3d 0467 b6bd a104 51bd 6796 e13d
00000090: 6be3 fb3c 6b65 2bbd 3306 5dbb de93 243d
000000a0: f1cf 7fbd 0a08 353b bdf9 bcbd 8cf0 d63d
000000b0: abc3 50bc 24d2 6a3c e319 f5bc c725 a03b
000000c0: 2990 3fbe de87 3f3d 6d73 233e 53df 563d
000000d0: 2e7e 90bc 53c9 993c b1bd 23bd af1c 50be
000000e0: b6d5 c23d 7f25 263e 0c6f b03d 87d7 82bd
000000f0: e9b8 8fbd be70 02bd 6a5b 943d de31 88bd

h.0.ln_1.weight f4 [64]
0.42184964 0.678671 0.5642058 0.48659062 0.8558587 0.7180682 0.39182705 0.37366012
0.6049059 0.3706496 0.3295794 0.31714776 0.8241755 0.92216074 0.21119097 0.48628673
0.5271326 0.74593264 0.32521036 0.33955428 0.5423625 0.51882607 0.32221037 0.71861637
0.4878085 0.6835402 0.88843346 0.3130284 0.6454355 0.5219592 0.279649 0.35181835
0.34673613 0.39023745 0.38558355 0.67925686 0.32522395 0.4988567 0.6073316 0.5447976
0.24372143 0.9067155 0.4042754 0.6032253 0.72006506 0.5029799 0.6207235 0.43805796
0.26197 0.14795078 0.43297815 0.8289707 0.28665194 0.4313974 0.2808285 0.5709002
0.49804196 0.31564432 0.6366006 0.31281084 0.40522826 0.3655461 0.42309958 0.47431174
00000000: adfc d73e 62bd 2d3f cb6f 103f 6822 f93e
00000010: 8e19 5b3f 51d3 373f 8e9d c83e 6150 bf3e
00000020: 1ddb 1a3f c9c5 bd3e a2be a83e 3161 a23e
00000030: 2afd 523f ba12 6c3f 7242 583e 93fa f83e
00000040: 29f2 063f 71f5 3e3f f981 a63e 0fda ad3e
00000050: 45d8 0a3f c9d1 043f c2f8 a43e 3ef7 373f
00000060: 09c2 f93e 7efc 2e3f 6070 633f 4245 a03e
00000070: 433b 253f 1e9f 053f 272e 8f3e 8921 b43e
00000080: 6687 b13e 34cd c73e 356b c53e c7e3 2d3f
00000090: c183 a63e 256a ff3e 157a 1b3f db77 0b3f
000000a0: 1c92 793e 821e 683f 2ffd ce3e f96c 1a3f
000000b0: 2f56 383f 4ac3 003f bce7 1e3f 2249 e03e
000000c0: ef20 863e 6980 173e 50af dd3e 6c37 543f
000000d0: 0bc4 923e 1fe0 dc3e c1c8 8f3e 8426 123f
000000e0: 5bff fe3e 229c a13e 42f8 223f be28 a03e
000000f0: 147a cf3e dc28 bb3e 82a0 d83e fdd8 f23e

h.0.ln_1.bias f4 [64]
-0.0015934069 0.48590332 -0.49934468 -0.0355627 0.18124425 0.07555035 -0.05815587 -0.0021678978
-0.44825032 0.015319949 -0.24934953 0.052904904 -0.6076834 0.5219377 0.00064642314 -0.114297144
-0.2848793 0.3091311 0.2405838 -0.033863686 -0.21027973 0.44980252 -0.15348797 -0.43610257
-0.3317669 0.60213834 -0.6393903 -0.13988252 -0.32348788 0.41420048 -0.07883974 -0.026907751
-0.049827777 -0.11117343 0.025312703 0.40453607 0.0065939357 0.19814254 -0.1028308 0.5286804
0.07983699 -0.73338103 -0.09846612 0.5025962 -0.12417931 -0.22789979 -0.31442723 -0.22205077
0.0679839 -0.1488086 0.07063063 0.32757786 -0.201964 0.09262773 0.028111437 -0.3766918
0.31782648 0.013914356 -0.42073432 0.10280225 -0.21026307 -0.19774722 -0.26006144 -0.13501295
00000000: ddd9 d0ba 52c8 f83e 1baa ffbe 32aa 11bd
00000010: 1898 393e 24ba 9a3d d934 6ebd 4a13 0ebb
00000020: 1181 e5be 8600 7b3c 7c55 7fbe d0b2 583d
00000030: 2491 1bbf b69d 053f b974 293a 9f14 eabd
00000040: b3db 91be 6e46 9e3e 9a5b 763e a6b4 0abd
00000050: 9253 57be 844c e63e f32b 1dbe d648 dfbe
00000060: 5add a9be bd25 1a3f 15af 23bf 5d3d 0fbe
00000070: 34a0 a5be 1612 d43e bb76 a1bd a56d dcbc
00000080: 3618 4cbd e5ae e3bd 965c cf3c 5a1f cf3e
00000090: f111 d83b e1e5 4a3e f498 d2bd 9957 073f
000000a0: 9381 a33d dcbe 3bbf 9ba8 c9bd 25aa 003f
000000b0: b951 febd 905e 69be 9bfc a0be 4761 63be
000000c0: 253b 8b3d 4861 18be cba6 903d 49b8 a73e
000000d0: a7cf 4ebe 9bb3 bd3d f549 e63c bfdd c0be
000000e0: 27ba a23e 0af9 633c 7d6a d7be fc89 d23d
000000f0: 344f 57be 3f7e 4abe c626 85be d640 0abe

h.0.ln_2.weight f4 [64]
1.0 1.0 1.0 1.0 1.0 1.0 1.0 1.0
1.0 1.0 1.0 1.0 1.0 1.0 1.0 1.0
1.0 1.0 1.0 1.0 1.0 1.0 1.0 1.0
1.0 1.0 1.0 1.0 1.0 1.0 1.0 1.0
1.0 1.0 1.0 1.0 1.0 1.0 1.0 1.0
1.0 1.0 1.0 1.0 1.0 1.0 1.0 1.0
1.0 1.0 1.0 1.0 1.0 1.0 1.0 1.0
1.0 1.0 1.0 1.0 1.0 1.0 1.0 1.0
00000000: 0000 803f 0000 803f 0000 803f 0000 803f
00000010: 0000 803f 0000 803f 0000 803f 0000 803f
00000020: 0000 803f 0000 803f 0000 803f 0000 803f
00000030: 0000 803f 0000 803f 0000 803f 0000 803f
00000040: 0000 803f 0000 803f 0000 803f 0000 803f
00000050: 0000 803f 0000 803f 0000 803f 0000 803f
00000060: 0000 803f 0000 803f 0000 803f 0000 803f
00000070: 0000 803f 0000 803f 0000 803f 0000 803f
00000080: 0000 803f 0000 803f 0000 803f 0000 803f
00000090: 0000 803f 0000 803f 0000 803f 0000 803f
000000a0: 0000 803f 0000 803f 0000 803f 0000 803f
000000b0: 0000 803f 0000 803f 0000 803f 0000 803f
000000c0: 0000 803f 0000 803f 0000 803f 0000 803f
000000d0: 0000 803f 0000 803f 0000 803f 0000 803f
000000e0: 0000 803f 0000 803f 0000 803f 0000 803f
000000f0: 0000 803f 0000 803f 0000 803f 0000 803f

h.0.ln_2.bias f4 [64]
0.0 0.0 0.0 0.0 0.0 0.0 0.0 0.0
0.0 0.0 0.0 0.0 0.0 0.0 0.0 0.0
0.0 0.0 0.0 0.0 0.0 0.0 0.0 0.0
0.0 0.0 0.0 0.0 0.0 0.0 0.0 0.0
0.0 0.0 0.0 0.0 0.0 0.0 0.0 0.0
0.0 0.0 0.0 0.0 0.0 0.0 0.0 0.0
0.0 0.0 0.0 0.0 0.0 0.0 0.0 0.0
0.0 0.0 0.0 0.0 0.0 0.0 0.0 0.0
00000000: 0000 0000 0000 0000 0000 0000 0000 0000
00000010: 0000 0000 0000 0000 0000 0000 0000 0000
00000020: 0000 0000 0000 0000 0000 0000 0000 0000
00000030: 0000 0000 0000 0000 0000 0000 0000 0000
00000040: 0000 0000 0000 0000 0000 0000 0000 0000
00000050: 0000 0000 0000 0000 0000 0000 0000 0000
00000060: 0000 0000 0000 0000 0000 0000 0000 0000
00000070: 0000 0000 0000 0000 0000 0000 0000 0000
00000080: 0000 0000 0000 0000 0000 0000 0000 0000
00000090: 0000 0000 0000 0000 0000 0000 0000 0000
000000a0: 0000 0000 0000 0000 0000 0000 0000 0000
000000b0: 0000 0000 0000 0000 0000 0000 0000 0000
000000c0: 0000 0000 0000 0000 0000 0000 0000 0000
000000d0: 0000 0000 0000 0000 0000 0000 0000 0000
000000e0: 0000 0000 0000 0000 0000 0000 0000 0000
000000f0: 0000 0000 0000 0000 0000 0000 0000 0000

h.1.mha.W_q.weight f4 [64, 64]
-0.1477765 0.15484576 -0.1143568 -0.075022645 0.0017123941 -0.026692221 -0.048592117 0.05530285
-0.0076880152 0.190957 0.05873339 -0.054362506 -0.18459456 -0.028331231 -0.09127369 -0.047064405
0.005900141 -0.12590595 -0.0031138186 0.0007710173 -0.10882754 0.13600682 -0.07081865 -0.06492884
0.103463255 0.026324809 -0.19941221 -0.29111043 -0.075361595 0.07737742 -0.00049106707 0.009432997
-0.13502693 0.12988138 -0.041344006 0.11896754 0.02949651 0.10459443 -0.16350777 -0.087543175
-0.03710523 -0.059712954 -0.05528706 0.24861751 0.097280815 -0.17862996 -0.047242645 0.18339533
0.0069637937 -0.07900276 -0.08807268 0.012772988 -0.096148886 -0.1719125 0.049328808 -0.015690258
0.060587768 -0.14160879 -0.044848144 0.0074063344 0.1343865 -0.083426446 -0.08133352 0.028994335
-0.004626386 0.10182726 0.013254161 -0.038365107 0.006284304 0.0016748533 -0.011170745 -0.018732717
0.039147284 -0.054218628 -0.072510794 -0.10045203 -0.011719079 -0.061310854 -0.18539935 0.07288523
-0.008394061 0.0707257 0.025869172 0.0120412335 0.0035855938 -0.018182617 0.092929244 0.0912603
0.091854095 -0.031246401 0.05136684 0.047509555 -0.028366439 -0.02718698 -0.03264141 -0.1126185
0.020070253 0.10146505 0.0019795701 0.07018733 -0.019285679 0.030287648 0.021614239 0.09129518
0.11222102 0.04435524 -0.0870254 -0.17904972 -0.006695363 0.030445982 -0.06586413 -0.22511351
-0.058357175 0.09190076 0.013209884 -0.091646574 -0.058377925 0.079871915 0.20951273 0.038881943
0.017103607 -0.121865764 0.027120704 0.041652795 -0.065718725 0.044129282 0.04891105 0.047996208
0.05016398 0.004282527 0.018162157 -0.06051728 -0.022577388 0.08946784 0.0011206298 -0.056425236
-0.035299037 -0.13790916 -0.24402116 -0.12150361 0.037685912 -0.084101155 -0.119993374 0.012424769
0.033353213 -0.12432868 0.06651364 0.13750592 0.12485097 0.02845046 -0.073393516 0.0071897297
-0.040022966 0.010073216 0.05536825 -0.10294772 -0.12015592 -0.0072653927 0.10282065 0.09816381
0.30527204 -0.0681909 0.14044298 0.07180784 0.07489085 0.05467037 -0.08336804 -0.061023623
0.020251753 0.0720317 -0.22508462 0.0485964 -0.07758647 0.055393264 0.009239468 0.038208548
0.08850145 -0.014735125 0.06793599 0.08109009 -0.05254568 -0.16772158 0.21339694 0.11610408
-0.01985603 -0.046758514 -0.06560141 -0.02135229 -0.01491991 -0.060261797 0.2074123 -0.07818029
0.098044835 -0.104364656 0.16852604 0.12874822 0.016263848 -0.0025703697 -0.09403397 0.10290385
-0.10502448 0.09002668 -0.08119578 0.07570559 0.018461451 0.016291454 -0.034870613 -0.106867276
-0.067609176 0.061082847 -0.058088012 -0.12475823 0.020243056 0.111794226 -0.025924377 0.0103865545
-0.0340594 -0.091479786 -0.13925143 -0.0856844 0.021229375 0.021048844 0.07237045 -0.005146493
0.003310965 0.10886564 0.16885935 -0.21535318 0.011048876 0.0060945405 0.11799062 -0.19585975
0.12458554 -0.087144986 -0.014799961 0.015632683 -0.031270757 -0.10089302 0.07185918 0.25090593
-0.06468267 -0.023239618 0.19154665 -0.015096665 -0.17971604 -0.10492209 -0.054356936 -0.043897074
-0.066647135 -0.050559927 -0.13724479 -0.08173717 0.050074205 0.07203799 0.1433072 -0.06740612
00000000: b952 17be e38f 1e3e e633 eabd 79a5 99bd
00000010: 6972 e03a a5a9 dabc 8708 47bd 3e85 623d
00000020: bfeb fbbb 3b8a 433e 6c92 703d 38ab 5ebd
00000030: 5b06 3dbe e616 e8bc b3ed babd 9bc6 40bd
00000040: f855 c13b 7ded 00be 3511 4cbb 181e 4a3a
00000050: f9e0 debd 5f45 0b3e 5e09 91bd 69f9 84bd
00000060: 8be4 d33d 20a7 d73c b732 4cbe 6d0c 95be
00000070: 2e57 9abd 0e78 9e3d f4ba 00ba db8c 1a3c
00000080: 8044 0abe a0ff 043e 5558 29bd 41a5 f33d
00000090: aaa2 f13c 9b35 d63d 956e 27be d649 b3bd
000000a0: a7fb 17bd 9295 74bd af74 62bd 9795 7e3e
000000b0: 2a3b c73d c6ea 36be 8181 41bd fccb 3b3e
000000c0: 8930 e43b 33cc a1bd 735f b4bd cb45 513c
000000d0: b5e9 c4bd d509 30be 010d 4a3d db88 80bc
000000e0: e12a 783d e501 11be b0b2 37bd d6b0 f23b
000000f0: 9d9c 093e 7cdb aabd 3092 a6bd 8785 ed3c
00000100: f098 97bb cf8a d03d fb27 593c bb24 1dbd
00000110: 90ec cd3b c086 db3a 8005 37bc 5b75 99bc
00000120: e758 203d 5a14 5ebd 8a80 94bd cbb9 cdbd
00000130: 6101 40bc 1721 7bbd 54d9 3dbe da44 953d
00000140: 3e87 09bc a3d8 903d 96eb d33c 9848 453c
00000150: 48fc 6a3b b6f3 94bc b051 be3d aee6 ba3d
00000160: 001e bc3d 74f8 ffbc 0966 523d 6199 423d
00000170: bc60 e8bc 3bb7 debc 00b3 05bd 87a4 e6bd
00000180: 5f6a a43c e8cc cf3d adbb 013b 60be 8f3d
00000190: 00fd 9dbc cd1d f83c 5810 b13c f8f8 ba3d
000001a0: 22d4 e53d d7ad 353d 5f3a b2bd cf58 37be
000001b0: c764 dbbb da69 f93c c6e3 86bd 2884 66be
000001c0: ef07 6fbd 7736 bc3d 456e 583c 33b1 bbbd
000001d0: b11d 6fbd e393 a33d 818a 563e ac42 1f3d
000001e0: dd1c 8c3c c294 f9bd 3d2c de3c 1f9c 2a3d
000001f0: 8a97 86bd e8c0 343d f456 483d ac97 443d
00000200: bf78 4d3d 7154 8c3b cec8 943c f8e0 77bd
00000210: 37f4 b8bc ea3a b73d 19e2 923a 261e 67bd
00000220: b995 10bd 0f38 0dbe afe0 79be e2d6 f8bd
00000230: 8b5c 1a3d 3a3d acbd 16bf f5bd 4291 4b3c
00000240: 619d 083d 09a0 febd 4e38 883d 5ace 0c3e
00000250: deb1 ff3d f010 e93c 574f 96bd d397 eb3b
00000260: 1fef 23bd 210a 253c d1c9 623d 41d6 d2bd
00000270: 4f14 f6bd 8812 eebb a293 d23d 1c0a c93d
00000280: 9e4c 9c3e aca7 8bbd 49d0 0f3e fd0f 933d
00000290: 6060 993d 0aee 5f3d ddbc aabd e8f3 79bd
000002a0: 01e7 a53c 5b85 933d 957c 66be 050d 473d
000002b0: a8e5 9ebd 0ce4 623d 2361 173c 9180 1c3d
000002c0: 4040 b53d 986b 71bc 0622 8b3d 9012 a63d
000002d0: 243a 57bd 35bf 2bbe ba84 5a3e fac7 ed3d
000002e0: 1da9 a2bc db85 3fbd 085a 86bd ffea aebc
000002f0: a372 74bc 13d5 76bd e463 543e fd1c a0bd
00000300: bbcb c83d 23bd d5bd 1792 2c3e 93d6 033e
00000310: c33b 853c a673 28bb e294 c0bd 41bf d23d
00000320: 1317 d7bd e85f b83d f949 a6bd 880b 9b3d
00000330: 783c 973c a875 853c 7dd4 0ebd 3bdd dabd
00000340: ae76 8abd 0232 7a3d b2ed 6dbd 3e81 ffbd
00000350: c4d4 a53c 5ff4 e43d 5c5f d4bc 5e2c 2a3c
00000360: df81 0bbd c159 bbbd ed97 0ebe 4d7b afbd
00000370: 3ae9 ad3c a06e ac3c f536 943d eaa3 a8bb
00000380: c6fc 583b f3f4 de3d 77e9 2c3e 8b85 5cbe
00000390: 5806 353c b6b4 c73b 11a5 f13d 758f 48be
000003a0: b426 ff3d 1279 b2bd 897b 72bc 1d10 803c
000003b0: c415 00bd 00a1 cebd e82a 933d be76 803e
000003c0: 5978 84bd 0361 bebc ce24 443e 0158 77bc
000003d0: 7b07 38be 65e1 d6bd 61a5 5ebd 6bcd 33bd
000003e0: 4b7e 88bd ed17 4fbd e689 0cbe d165 a7bd
000003f0: 9c1a 4d3d a788 933d 1fbf 123e 380c 8abd
