subspace-alignment/data/2_layer_64_vocab/ckpt_11820.pt (torch, 178594 bytes, 29 tensors)

embed.embed.weight f4 [64, 64]
0	0xbebc75e4	-0.36808693
1	0x3f9f38e2	1.2439234
2	0x3ec9b9c5	0.39399543
3	0x3ec64150	0.38721704
4	0x3df34105	0.11877636
5	0xbea97913	-0.33100185
6	0xbff16553	-1.8859047
7	0x3db6f93b	0.08934256
8	0xbefb5c95	-0.49094072
9	0x3e9174c3	0.28409395
10	0xbfaad0cb	-1.3344969
11	0x3f214828	0.63000727
12	0xbeba428d	-0.363789
13	0xbf687faa	-0.908198
14	0x3f38aa54	0.721349
15	0x3e32b48f	0.1745169
16	0x3e00e678	0.12587917
17	0x3e2c3b0b	0.16819398
18	0x3e37769f	0.17916344
19	0xbf4652b2	-0.77469933
20	0xbeb727c3	-0.35772523
21	0x3fe43d6b	1.7831243
22	0x3fb36f7f	1.4018401
23	0xbf98d21b	-1.1939119
24	0xbfd022d2	-1.6260626
25	0x3fd4c210	1.6621723
26	0xbf659642	-0.896824
27	0x3fff7f8e	1.9960802
28	0x3f47cd28	0.7804742
29	0x3f1677da	0.5877663
30	0xbeda8486	-0.42679232
31	0x3eaf4fe4	0.3424064
32	0x3f8f9d57	1.1219891
33	0xbf7e35f3	-0.9930107
34	0x3e6218a7	0.22079717
35	0xbf881b4b	-1.0633329
36	0xbf8540f7	-1.0410451
37	0x3ea13f69	0.3149369
38	0xbf8c022d	-1.0938164
39	0x3f3e4e9c	0.743387
40	0xbfbed544	-1.4908834
41	0xbf866c89	-1.0501872
42	0x3eca1f6d	0.394771
43	0x3eef8a68	0.46785283
44	0x3f9f5dd4	1.2450509
45	0x3f8be8fe	1.0930479
46	0xbef404c3	-0.47659883
47	0xbebaa61b	-0.36454853
48	0xbf08228c	-0.53177714
49	0xbfa89ef1	-1.3173505
50	0xbdeb0b17	-0.114767246
51	0xbee5e7d7	-0.44903442
52	0x3e6dd1a6	0.23224506
53	0x3f7bada1	0.9831181
54	0xbd969d1f	-0.07354187
55	0xbf556d3f	-0.8336982
56	0x3edc63b1	0.43044809
57	0xbe8ff92a	-0.28119785
58	0xbf639e85	-0.88913757
59	0xbfae52c8	-1.3619013
60	0x3ec55116	0.38538426
61	0xbea4cdd8	-0.32188296
62	0xbdf0694d	-0.117388345
63	0x3f403ae7	0.7508988
64	0x3e8adc00	0.27120972
65	0xbf90e90d	-1.1321121
66	0xbfb077b2	-1.3786528
67	0xbda4fd43	-0.08056118
68	0x3ff1e5de	1.8898275
69	0xbfa4c8c0	-1.2873764
70	0xbebed020	-0.37268162
71	0xbf08bf16	-0.53416574
72	0x3e987813	0.2977911
73	0xbdb3e904	-0.087846786
74	0xbeebceec	-0.46056306
75	0x3e02f761	0.1278968
76	0x3e9c6020	0.30542088
77	0x3f0b85eb	0.5450122
78	0x3e891089	0.26770428
79	0x3e78edb1	0.24309422
80	0x3f6fccec	0.9367206
81	0xbf151bf3	-0.5824577
82	0x3f1574f6	0.58381593
83	0x3e7e267d	0.2481937
84	0x3edb353d	0.42814055
85	0xbeef7cd8	-0.46774936
86	0x3fd0d5b7	1.631522
87	0x3ec418d2	0.38300186
88	0xbd8a30a3	-0.06747558
89	0x3f8823b1	1.0635892
90	0xbfafbd00	-1.3729553
91	0x3e14e972	0.14542177
92	0xbff843c1	-1.9395677
93	0x3ff27e33	1.8944763
94	0x3da2a080	0.07940769
95	0xbf18caea	-0.5968462
96	0xbf6d5d9d	-0.9272097
97	0xbf8946fc	-1.0724788
98	0x3f0ec728	0.5577264
99	0xbd380e49	-0.0449355
100	0x3fbd2896	1.4778011
101	0x3f433423	0.7625143
102	0x3fae9ab0	1.3640957
103	0x3eecaedb	0.46227154
104	0xbf0f4771	-0.55968386
105	0xbe6f34b4	-0.23359948
106	0x3f87a5c9	1.0597469
107	0x3ec88f05	0.39171615
108	0xbef26352	-0.473414
109	0x3dffde41	0.124935634
110	0xbf6a870f	-0.91612333
111	0xbfb9f90a	-1.4529126
112	0x3e1f6f71	0.15569855
113	0xbf37deff	-0.7182464
114	0x3fdcd450	1.7252293
115	0xbdf21733	-0.11820831
116	0xbe0ab091	-0.13543917
117	0xbe685357	-0.22688042
118	0x3d3ae39e	0.04562723
119	0xbf31436d	-0.6924351
120	0xbd9a35b0	-0.07529771
121	0xbf037a17	-0.5135817
122	0xbf21bf19	-0.63182217
123	0x3e098d0d	0.13432713
124	0x3ee86145	0.4538671
125	0xc020ef5a	-2.5146089
126	0xbe68ae87	-0.22722827
127	0x3defb260	0.11703944
128	0x3f9c3a22	1.2205241
129	0x3f6820a6	0.9067482
130	0xbe9bb24d	-0.3040947
131	0xbc2e8a8f	-0.010653152
132	0xbeaebce6	-0.34128493
133	0x3f2c4717	0.67295974
134	0xbf441230	-0.7659025
135	0xbfc0f99f	-1.5076178
136	0x3f1ac19c	0.60451674
137	0xbebf5f6b	-0.37377486
138	0xbdf2280d	-0.11824045
139	0xbf5bb449	-0.8582197
140	0xbed2d11c	-0.41175163
141	0x3f34df23	0.7065298
142	0x3ec70882	0.38873678
143	0xbd45665e	-0.048193328
144	0xbf0332aa	-0.5124918
145	0xbf9b3318	-1.2124968
146	0xbfa6c1fe	-1.3027952
147	0xbf399926	-0.7249931
148	0x3d9df852	0.07713379
149	0x3fa3e039	1.2802802
150	0xbf8e9e10	-1.1141987
151	0xbe9f59fa	-0.31123334
152	0x3e1122de	0.14173457
153	0x3f07be94	0.53025174
154	0xbe5cbc3f	-0.21556185
155	0xbd50ea2b	-0.05100457
156	0xbf34819e	-0.7051028
157	0x3fcf0d13	1.6175865
158	0x3f8a2b8e	1.0794542
159	0x3f087381	0.53301245
160	0xbf84ccde	-1.037502
161	0x3f07ad1c	0.5299852
162	0x3eb9c9d5	0.36286798
163	0x3f5ca147	0.8618359
164	0xbf90c963	-1.1311458
165	0xbfdb9fa7	-1.7158097
166	0xbea77da3	-0.3271304
167	0x40152b65	2.3307736
168	0xbf050338	-0.51958036
169	0xbf867379	-1.050399
170	0x3e28096f	0.16409849
171	0x3dc919a4	0.09819344
172	0xbb8a8310	-0.0042270496
173	0xbf3a6092	-0.72803605
174	0x3f71725f	0.9431514
175	0xbeba2231	-0.3635421
176	0xbea92aca	-0.33040458
177	0xbf22578d	-0.6341484
178	0x401d911f	2.4619825
179	0xbed0033f	-0.40627477
180	0x3e568fbf	0.20953272
181	0xbf0d83c3	-0.5527918
182	0xbfcdbecd	-1.6073853
183	0xbf247fc8	-0.6425748
184	0x3f285906	0.6576084
185	0xbcc054ff	-0.02347803
186	0xbec19b38	-0.37813735
187	0x3f0991e9	0.53738266
188	0xc0212a08	-2.5181904
189	0x3e94f202	0.29090887
190	0x3e67231a	0.22571984
191	0x3efd33fb	0.4945372
192	0xbfa0ad89	-1.2552959
193	0x3f693c2b	0.91107434
194	0xbe51c2d5	-0.20484479
195	0x3cdb2261	0.026749792
196	0xbfb367fa	-1.4016106
197	0xbeedd357	-0.46450302
198	0x3f98013f	1.187538
199	0x3e8e830c	0.27834356
200	0xbf9d2b7b	-1.2278894
201	0xbf663575	-0.8992532
202	0xbf9eeb85	-1.2415625
203	0xbf69cea2	-0.9133092
204	0xc019a28e	-2.4005466
205	0x4013a6ed	2.3070633
206	0xbf51783e	-0.818241
207	0x3f238ed6	0.63889825
208	0x3f29736b	0.6619174
209	0xbec57cc3	-0.38571748
210	0x3f20a56f	0.6275243
211	0x3db95919	0.09050197
212	0x3ea303fa	0.3183897
213	0xbf3e2b84	-0.7428515
214	0xbf812a99	-1.0091125
215	0x3f0e46eb	0.5557696
216	0xbfd01c3e	-1.6258619
217	0x3fd21216	1.6411769
218	0x3e4a3385	0.19746216
219	0x3ec47b8e	0.38375515
220	0x3e403fb8	0.18774307
221	0x3dc21e3e	0.094784245
222	0xbe1f1e17	-0.15538822
223	0x3f6b03cb	0.9180266
224	0x3f15288f	0.5826501
225	0x3f54702f	0.8298368
226	0xbf173d64	-0.5907805
227	0xbf62c3fb	-0.8858029
228	0xbcef665f	-0.029223619
229	0xbf22fae1	-0.6366406
230	0x3eb957a2	0.3619967
231	0x3f5c48d6	0.8604864
232	0x3f9af4b2	1.2105925
233	0x3bbdd1ff	0.0057928558
234	0xbf8f1e74	-1.1181169
235	0x3f458b1f	0.77165407
236	0x3f362510	0.711503
237	0x3fa74524	1.3067975
238	0x3f41307d	0.7546461
239	0x3f57759c	0.8416383
240	0x3f264f3b	0.64964646
241	0xbf247e52	-0.6425525
242	0x3f69c895	0.9132169
243	0xbd0dcd0e	-0.034619384
244	0xbfa8d274	-1.3189225
245	0x3f8beb5b	1.09312
246	0x3eb19044	0.34680378
247	0xbf0f5bff	-0.5599975
248	0x3ed8797f	0.42280194
249	0x3f34d474	0.7063668
250	0xbfb958ac	-1.4480186
251	0xbe670a5a	-0.22562543
252	0x3e10aa73	0.14127521
253	0xbf4e99df	-0.8070354
254	0xbf0aef3d	-0.542713
255	0x3c0dc083	0.008651855

h.0.mha.W_q.weight f4 [64, 64]
0	0xbbe9d2ba	-0.0071357163
1	0xbe733d02	-0.23753741
2	0x3e39cce5	0.18144567
3	0xbccb54a3	-0.024820631
4	0xbde32b41	-0.110922344
5	0x3c1f559d	0.009725002
6	0x3df59e5f	0.119930975
7	0x3d5b0467	0.053470995
8	0x3e8c43e6	0.27395552
9	0x3ddebf58	0.1087634
10	0x3e2a9a76	0.16660485
11	0x3c9dc8c9	0.01926078
12	0x3e3bbc96	0.18333659
13	0xbe4cc3cd	-0.19996567
14	0xbd2e94c2	-0.042622335
15	0xbd853a18	-0.06505221
16	0x3e04f3c1	0.1298361
17	0xbde9bff1	-0.11413563
18	0xbe0a62fd	-0.13514324
19	0x3da546f8	0.08070177
20	0x3e0031fa	0.12519065
21	0xbe009835	-0.12558062
22	0x3d973128	0.07382423
23	0x3e344d4c	0.17607611
24	0x3e14a955	0.1451772
25	0xbe530954	-0.20609027
26	0x3e5a0e57	0.21294533
27	0xbd58f786	-0.05297043
28	0x3e42a12a	0.19006792
29	0xbe5bf8a8	-0.21481574
30	0x3c0729a7	0.008249677
31	0xbb8cf0d9	-0.004301172
32	0x3d89f44f	0.06736051
33	0x3dc29117	0.0950033
34	0xbc9faa57	-0.019490404
35	0xbe2202cb	-0.15821378
36	0xbd6b835c	-0.05749832
37	0xbddbc44e	-0.107308015
38	0x3db0abce	0.08626519
39	0xbe2cef39	-0.16888131
40	0xbd488a87	-0.048960235
41	0x3e599fea	0.21252409
42	0x3d03e44b	0.03220014
43	0xbe687d52	-0.22704056
44	0x3d8cf29d	0.06882212
45	0x3d44d953	0.04805882
46	0x3d7c384a	0.06157712
47	0x3d858489	0.0651942
48	0x3c87c87b	0.016575089
49	0x3dd8c442	0.10584308
50	0xbd8ac9c7	-0.06776767
51	0xbdc5de70	-0.09661567
52	0x3dc14594	0.09437099
53	0xbc80f2ee	-0.015740838
54	0xbd3a86c9	-0.045538697
55	0x3e31b192	0.17352894
56	0xbdb26c47	-0.087120585
57	0xbdb9fc01	-0.09081269
58	0x3e12dcd9	0.14342059
59	0xbd783aa3	-0.060602795
60	0x3dc06963	0.09395101
61	0x3d79100c	0.06080632
62	0x3dcc8936	0.099871084
63	0x3d8558cc	0.06511077
64	0x3c60b6c1	0.013715447
65	0x3e189da9	0.14903893
66	0xbe56e37b	-0.20985214
67	0x3d888b63	0.06667211
68	0x3e3512a6	0.17682895
69	0x3e18d854	0.14926273
70	0x3d264a96	0.040598474
71	0x3c12eadd	0.008967129
72	0xbe0ef484	-0.13960463
73	0x3db8e005	0.09027103
74	0xbd82dc9c	-0.06389734
75	0xbcd09056	-0.02545945
76	0xbe8068af	-0.25079867
77	0x3e619c44	0.22032267
78	0xbd234517	-0.03986081
79	0xbddb3dda	-0.107051566
80	0xbdd3fb0b	-0.10350617
81	0x3e553034	0.2081917
82	0x3db30a04	0.08742145
83	0xbddadbac	-0.1068643
84	0xbd9e4555	-0.07728068
85	0x3db450f2	0.088045016
86	0xbcfadb9b	-0.030622294
87	0xbe80f75d	-0.25188723
88	0xbd604713	-0.05475528
89	0x3d8b6197	0.06805723
90	0xbe7aea59	-0.24503459
91	0xba823bd6	-0.0009936045
92	0xbdb8ba17	-0.09019869
93	0x3e0af678	0.13570583
94	0x3d1396d3	0.03603251
95	0xbdd212dd	-0.10257504
96	0xbc976758	-0.018481895
97	0x3d719ecc	0.05898933
98	0x3dd06dfc	0.10177228
99	0x3e22e3fd	0.15907283
100	0xbc6ccce2	-0.014453145
101	0x3e0844cd	0.13307495
102	0xbded6aa0	-0.11592603
103	0x3d87618a	0.06610401
104	0x3dd84ada	0.10561152
105	0xbe727ed5	-0.23681195
106	0xbdae6ed8	-0.085172355
107	0x3e6485b4	0.22316629
108	0xbe164617	-0.14675175
109	0xbd1dc925	-0.038521904
110	0xbe7576d2	-0.23971108
111	0x3c9d7a93	0.019223487
112	0x3df49987	0.119433455
113	0x3cb1eef1	0.021720381
114	0xbbc24fef	-0.005929939
115	0x3e8408f6	0.25788087
116	0xbd65d5d3	-0.05611212
117	0x3cf93b2a	0.03042372
118	0xbccd09ab	-0.025029024
119	0xbe0541c1	-0.13013364
120	0x3e079945	0.13242061
121	0x3b96cbe9	0.0046019447
122	0xbdaf3df7	-0.08556741
123	0x3d950878	0.07277006
124	0xbd26a316	-0.040682875
125	0x3d933e3d	0.071896054
126	0xbde693ab	-0.11258634
127	0xbe315e11	-0.1732104
128	0xbd723ac0	-0.05913806
129	0x3e0b8613	0.13625364
130	0xbe8f821c	-0.28028953
131	0x3cdde332	0.027085874
132	0x3da0af0a	0.07845886
133	0x3d9cfd67	0.0766552
134	0xbd9bd04e	-0.0760809
135	0x3d03ea5c	0.032205924
136	0xbdb82def	-0.08993136
137	0xbcb4dbf7	-0.022077544
138	0xbe184c34	-0.14872819
139	0xbd234c99	-0.03986797
140	0xbe38bfbd	-0.18041892
141	0x3e353f5c	0.17699951
142	0xbd2edd1b	-0.04269133
143	0xbd676e88	-0.056501895
144	0xbe31894c	-0.17337531
145	0x3e6583c2	0.22413543
146	0x3df348ad	0.11879096
147	0xbca3b64e	-0.01998439
148	0xbe0df428	-0.1386267
149	0x3e372eb2	0.17888907
150	0xbe2b5dc7	-0.16734992
151	0xbe12592f	-0.14291833
152	0xbc10658b	-0.008813272
153	0x3dd28bdc	0.10280582
154	0xbe84f332	-0.25966793
155	0x3c5307d2	0.0128802825
156	0xbdcfa30d	-0.10138521
157	0x3d5f17de	0.05446612
158	0x3cecb08c	0.028892778
159	0xbcd23ca0	-0.025663674
160	0xbc1a30b5	-0.009411027
161	0xbda936a9	-0.08262379
162	0x3d0ca401	0.034336094
163	0x3e4ad4cd	0.1980774
164	0xbd0ccf27	-0.034377243
165	0x3dac2780	0.084059715
166	0xbd5519e2	-0.052026637
167	0x3d2d4fcd	0.042312432
168	0x3d26f35e	0.040759437
169	0xbdeadb6a	-0.11467631
170	0xbda95f58	-0.082701385
171	0x3e7c415d	0.24634309
172	0xbdcf6bd6	-0.1012799
173	0xbda1e87b	-0.0790567
174	0xbda63017	-0.08114641
175	0xbd5cc9a9	-0.053903256
176	0x3d064164	0.032777205
177	0x3c663133	0.014049816
178	0x3d627a99	0.0552927
179	0x3e19485e	0.14969012
180	0xbcda149f	-0.026621161
181	0x3bf44fc5	0.0074557983
182	0xbc34ce24	-0.011035476
183	0xbe480c00	-0.19535828
184	0x3e1c6a89	0.15275015
185	0x3cfa9281	0.030587437
186	0xbd8a2268	-0.06744844
187	0x3cbe789a	0.023250867
188	0xbcc2e5e1	-0.023791255
189	0xbd4f86cf	-0.050665673
190	0xbdd146a5	-0.102185525
191	0xbd7a7c24	-0.061153546
192	0xbc881ef0	-0.016616315
193	0x3e291ddb	0.16515295
194	0x3ba58993	0.0050518005
195	0x3d42165e	0.047384612
196	0x3e35ea1b	0.17765085
197	0x3de9175f	0.11381411
198	0xbdc70320	-0.09717393
199	0xbccf508e	-0.025306966
200	0xbe25e270	-0.1619966
201	0xbd3993e8	-0.04530707
202	0xbd11027b	-0.035402756
203	0x3d261960	0.040551543
204	0xbe433b96	-0.19065699
205	0x3e518e26	0.20464382
206	0x3d97a06f	0.07403647
207	0xbc97f36c	-0.01854869
208	0xbdc24905	-0.094865836
209	0x3dcb1c8e	0.09917556
210	0x3d74be61	0.059751872
211	0xbd4a6ef0	-0.049422204
212	0xbda6e5fe	-0.08149336
213	0x3e30557a	0.17220107
214	0x3ba583d1	0.005051114
215	0xbdcefbf5	-0.10106651
216	0xbdbb6bf7	-0.09151452
217	0x3dc1e7de	0.09468053
218	0xbd520466	-0.051273726
219	0x3c224d52	0.00990613
220	0xbe051b65	-0.12998731
221	0x3d4999fd	0.04921912
222	0x3e191797	0.14950405
223	0xbd1b1ad6	-0.03786739
224	0x3c89446b	0.016756257
225	0x3ca7aacf	0.02046719
226	0xbcb40d2c	-0.021978937
227	0x3e694891	0.22781588
228	0x3d3fd4fd	0.04683398
229	0x3df88a05	0.121357
230	0xbc0e2668	-0.008676149
231	0x3daca6f2	0.0843028
232	0x3df504e9	0.11963827
233	0xbd947d69	-0.072504826
234	0xbd36670d	-0.04453187
235	0x3d71983f	0.058983084
236	0xbdb49395	-0.088172115
237	0xbd3878f7	-0.045037236
238	0xbdca39cb	-0.098743044
239	0xbd064980	-0.03278494
240	0xba83a47e	-0.0010043529
241	0x3d6618a7	0.056175854
242	0xbe04fd2e	-0.12987205
243	0x3e1fa82b	0.15591495
244	0xbcc8a510	-0.02449277
245	0x3c34cf0f	0.011035695
246	0x3d896598	0.067088306
247	0xbce91adf	-0.028455196
248	0x3d8a7db1	0.06762255
249	0x3df1bae7	0.11803227
250	0xbc1877a1	-0.0093058655
251	0x3daff235	0.08591119
252	0x3d24047e	0.040043347
253	0xbb89ebda	-0.004209024
254	0xbd1e22e0	-0.03860748
255	0x3d55297d	0.05204152

h.0.mha.W_q.bias f4 [64]
0	0xbe4134c8	-0.1886779
1	0x3f0f63b6	0.5601152
2	0x3f003c72	0.5009223
3	0x3e9f7bab	0.3114904
4	0x3e54accc	0.20769042
5	0x3f16069f	0.58603853
6	0xbe526979	-0.20548047
7	0x3ed9debf	0.42552754
8	0xbf245bea	-0.6420275
9	0xbeac7458	-0.33682513
10	0x3e29003f	0.16504
11	0x3e376ca3	0.17912535
12	0x3d627806	0.055290245
13	0x3f1fe0cc	0.6245239
14	0x3e928fe2	0.286254
15	0xbdff55ff	-0.12467574
16	0x3e5ea082	0.21740916
17	0x3ef1bb46	0.4721319
18	0xbd41579a	-0.047202684
19	0x3eb5e240	0.35524178
20	0xbe9f9395	-0.31167284
21	0x3e21f21d	0.15815015
22	0xbdceffce	-0.101073846
23	0xbe770fcc	-0.2412712
24	0xbdb30175	-0.08740512
25	0x3d6c0a09	0.057626758
26	0x3d27a9e0	0.04093349
27	0xbe0b7fe1	-0.13623
28	0x3c394a8b	0.011309276
29	0xbdbbcfcf	-0.09170496
30	0x3d8bcfd5	0.0682675
31	0x3e257c8b	0.1616079
32	0xbdcecbeb	-0.10097488
33	0xbca51af5	-0.020154456
34	0xbc1a0ac8	-0.0094019845
35	0x3ce02ac1	0.027364137
36	0x3d1878b5	0.03722449
37	0xbcc6b3a8	-0.024255589
38	0xbdabe686	-0.08393578
39	0xbc9e2211	-0.019303354
40	0x3db39b15	0.08769814
41	0x393816e6	0.00017556138
42	0x3dd8df7a	0.105895
43	0x3c1181b1	0.0088810185
44	0x3d56fea3	0.052488934
45	0x3d738c09	0.05945972
46	0x3dba62fa	0.091009095
47	0x3d9a5b61	0.075369604
48	0xbc8f956a	-0.0175273
49	0x3d93a642	0.072094455
50	0x3dfb881a	0.12281819
51	0x3d2ad3c7	0.041705873
52	0xbceccded	-0.028906787
53	0xbcf64b19	-0.030065106
54	0xbd0f9c19	-0.035060976
55	0xbd3a4bbe	-0.04548239
56	0x3e2696de	0.16268489
57	0x3c8098e3	0.015697902
58	0x3b84bc7a	0.0040507885
59	0x3d36eb8e	0.044658236
60	0x3d281007	0.04103091
61	0x3d3513ac	0.044208214
62	0x3dfe3f54	0.12414423
63	0xbdd0899b	-0.10182496

h.0.mha.W_k.weight f4 [64, 64]
0	0x3cba21ac	0.022721134
1	0xbd4ca707	-0.049963977
2	0x3d28685a	0.041115142
3	0xbd94779b	-0.072493754
4	0xbd7bfe45	-0.061521787
5	0xbd7e08a4	-0.06201996
6	0xbcbe2a4e	-0.023213532
7	0x3deeb3c1	0.11655379
8	0x3da24088	0.079224646
9	0xbb523aab	-0.0032078426
10	0xbc4cd7d8	-0.012502633
11	0x3d1f5c19	0.03890619
12	0x3cc05d71	0.023482056
13	0xbd96ff2e	-0.073728904
14	0x3c9672ad	0.018365229
15	0x3d4654bd	0.048420656
16	0xbbb5e583	-0.0055510416
17	0xbb8a4eb1	-0.0042208065
18	0x3d36bd47	0.044614103
19	0x3d6837e1	0.056693915
20	0xbd32672d	-0.043555427
21	0xbdaee174	-0.085390955
22	0x3d334555	0.043767292
23	0x3d043b51	0.03228313
24	0x3d3d734a	0.046252526
25	0xbdef4c0e	-0.11684428
26	0x3daba8b9	0.08381791
27	0x3c716e20	0.0147357285
28	0x3c8e550e	0.017374542
29	0xbc658f24	-0.014011178
30	0xbd35bc7f	-0.044369217
31	0x3d5a8e13	0.05335815
32	0x3a96aef3	0.0011496231
33	0x3be3b48b	0.0069490126
34	0x3d2de94c	0.042458817
35	0xbb47402a	-0.0030403235
36	0xbba2ca6e	-0.004967979
37	0x39f03db1	0.0004582233
38	0x3c73752a	0.014859477
39	0x3da12444	0.07868245
40	0x3db48b7b	0.08815666
41	0x3cd8b294	0.02645234
42	0x3c7130c1	0.0147210965
43	0xbd75dad5	-0.060023148
44	0xbbab0560	-0.0052191466
45	0xbbdb531f	-0.0066932584
46	0x3d5433a1	0.05180705
47	0x3d57db61	0.05269945
48	0xbc18e927	-0.009332932
49	0x3b5830ef	0.003298815
50	0xbd8809cf	-0.06642496
51	0xbda5dc4a	-0.080986574
52	0x3dc3ec31	0.09566534
53	0xbc01832f	-0.007904812
54	0xbc619d00	-0.013770342
55	0x3d4adf5b	0.049529415
56	0x3c1c3079	0.009533041
57	0xbd7f2650	-0.062292397
58	0xbc485e1d	-0.01222947
59	0xbd09100b	-0.033462565
60	0xbc474daa	-0.012164513
61	0xbd6909d7	-0.05689415
62	0x3d18fc42	0.037349947
63	0x3d2f1073	0.042740297
64	0xbd375644	-0.044760004
65	0x3e4f003d	0.20214935
66	0xbe74f433	-0.2392128
67	0x3cfcaf17	0.030845208
68	0x3e5dbe33	0.21654586
69	0x3e0a7412	0.1352084
70	0xbd4bec1e	-0.049785726
71	0xbc637a08	-0.013884075
72	0xbe47dc93	-0.19517736
73	0xbdb400c9	-0.08789212
74	0xbe1ba404	-0.15199286
75	0xbc3b45ca	-0.011430213
76	0xbeaaca6a	-0.33357555
77	0x3e97388f	0.29535338
78	0xbcbc6f4c	-0.02300229
79	0xbe1bf154	-0.15228778
80	0xbe045ffc	-0.1292724
81	0x3e3d8bf8	0.18510425
82	0x3def23ad	0.116767265
83	0xbd753b99	-0.05987129
84	0xbe284fff	-0.16436766
85	0x3e82a8e5	0.2551948
86	0xbd8de78c	-0.0692893
87	0xbe5c6cad	-0.21525832
88	0xbe28a7f9	-0.16470326
89	0x3e8c09f1	0.27351335
90	0xbe9a738c	-0.3016628
91	0xbd20b0f6	-0.039231263
92	0xbe1fe85b	-0.1561598
93	0x3e4401f8	0.19141376
94	0xbd879bfe	-0.0662155
95	0xbbbb36b6	-0.005713309
96	0xbb53fa33	-0.0032345175
97	0xbdd1e666	-0.10249023
98	0x3d979f6b	0.074034534
99	0x3e42884c	0.18997306
100	0xbce31996	-0.027722161
101	0x3d8a32db	0.06747981
102	0xbdb0bb92	-0.08629526
103	0x3e4b7d7b	0.19872086
104	0xbb25e13b	-0.002531125
105	0xbe8ad357	-0.27114365
106	0xbe028a7a	-0.12748137
107	0x3e6c5d7f	0.23082541
108	0xbdd184af	-0.102303855
109	0xbdbc12cf	-0.09183275
110	0xbe59b22b	-0.21259372
111	0xbe19e127	-0.15027295
112	0x3cef5efb	0.029220095
113	0xbe6adc02	-0.22935489
114	0x3e1efd0c	0.15526217
115	0x3ea340ea	0.31885463
116	0xbe1533c7	-0.14570533
117	0x3d9ca8e9	0.076494046
118	0xbd6deaf5	-0.0580854
119	0xbe9694ee	-0.294105
120	0x3e92c3db	0.2866505
121	0x3d206cd1	0.039166275
122	0xbe78e6c8	-0.24306786
123	0x3da20e1a	0.07912846
124	0xbe028d6d	-0.12749262
125	0xbe4cf040	-0.20013523
126	0xbe0dadf9	-0.13835897
127	0xbdbff217	-0.09372347
128	0x3c7b9a6a	0.015356639
129	0xbe1d62a4	-0.1536966
130	0x3e0cdb40	0.13755512
131	0x3cd141bc	0.02554404
132	0xbdb48252	-0.08813919
133	0xbdae39e8	-0.085071385
134	0x3caf3c12	0.021390948
135	0xb8eab85e	-0.000111923306
136	0x3e1fb105	0.15594871
137	0xbcf1f7ed	-0.029537166
138	0x3e225088	0.15851033
139	0x3d2372f4	0.03990455
140	0x3dd47bff	0.10375213
141	0xbe353c8d	-0.1769888
142	0x3ce0e663	0.027453607
143	0x3d09d5ca	0.03365115
144	0x3da07a56	0.07835834
145	0xbe0b188b	-0.13583581
146	0xbd76d5dc	-0.060262546
147	0x3d689537	0.056782927
148	0x3e281753	0.16415147
149	0xbe30862e	-0.17238685
150	0x3a851527	0.0010153399
151	0x3e3062fd	0.17225261
152	0x3d7927f0	0.060829103
153	0xbdb8e50f	-0.090280645
154	0x3e237cb1	0.15965535
155	0x3d6b16c5	0.05739476
156	0x3ddacd3f	0.10683679
157	0xbe1e4b6f	-0.15458463
158	0x3d2b44fa	0.041813828
159	0x3c7bdc79	0.015372389
160	0x3d1a8552	0.0377248
161	0x3cf6c581	0.030123474
162	0xbce6d757	-0.028178854
163	0xbe2923e2	-0.16517594
164	0xbc974686	-0.018466245
165	0xbcddb9fc	-0.027066223
166	0x3d885292	0.06656374
167	0xbda87eef	-0.08227336
168	0x3c434fa9	0.011920848
169	0x3ddc5e6f	0.10760199
170	0x3dcb2ccc	0.09920654
171	0xbe575b87	-0.21031009
172	0x3dbfdfef	0.09368884
173	0x3d14f5a3	0.03636707
174	0x3e0a72d1	0.13520361
175	0x3e0b2fd7	0.13592468
176	0xbdc02f49	-0.09384019
177	0x3df74509	0.12073714
178	0xbd02cdca	-0.031934537
179	0xbe57f130	-0.210881
180	0x3d9d4d21	0.07680727
181	0xbd93057a	-0.07178779
182	0x3d0b9b3a	0.034083582
183	0x3e022ac7	0.12711631
184	0xbe385e0c	-0.18004626
185	0xbe226640	-0.15859318
186	0x3de8820f	0.11352932
187	0x3d33385d	0.043754924
188	0x3d4f16bf	0.0505588
189	0x3dcce1da	0.10004015
190	0x3cc18967	0.023625089
191	0x3dea0938	0.114275396
192	0xbdf18aae	-0.11794029
193	0x3da173eb	0.07883438
194	0xbdbc443d	-0.09192703
195	0x3cbb71c1	0.02288139
196	0x3e45ed14	0.1932872
197	0x3c8a1ba0	0.016858876
198	0xbd2b25e0	-0.041784167
199	0xbdcc6922	-0.0998099
200	0xbdc46f07	-0.09591489
201	0xbda13c8f	-0.07872879
202	0xbdcdea2e	-0.10054432
203	0xbd3f2588	-0.046666652
204	0xbea086b1	-0.3135276
205	0x3e27403d	0.16333099
206	0x3d2dd724	0.042441502
207	0x3d3ba2da	0.045809604
208	0xbdc0f4bc	-0.094216794
209	0x3e0df55a	0.13863125
210	0x3e14f400	0.14546204
211	0x3d139596	0.03603133
212	0xbd37fd39	-0.044919226
213	0x3e38d767	0.1805092
214	0xbd15d92d	-0.036584068
215	0xbdd0c284	-0.10193351
216	0xbd4d7936	-0.050164424
217	0x3d8ec7f4	0.06971732
218	0xbe298345	-0.16553982
219	0x3cf0d842	0.029399995
220	0xb9c04cf9	-0.00036678443
221	0x3e42dc81	0.19029428
222	0xbb18d462	-0.002331995
223	0x3d9a4aed	0.07533822
224	0xbcd1aba2	-0.025594536
225	0xbe0c18fb	-0.13681404
226	0x3d991dda	0.07476397
227	0x3e103ff6	0.14086899
228	0x3d3e9278	0.046526402
229	0x3d5dff8c	0.054198787
230	0xbd415950	-0.047204316
231	0x3e4ada9a	0.19809952
232	0x3cf4552e	0.029825773
233	0xbe1da3b8	-0.15394485
234	0xbd186e9c	-0.03721486
235	0x3e51583f	0.2044382
236	0xbca4c240	-0.020112157
237	0xbd425cc0	-0.047451735
238	0xbd1a5c03	-0.037685405
239	0xbdcd1af9	-0.1001491
240	0x3b10529f	0.0022021902
241	0xbdac286b	-0.084061466
242	0x3e0686c7	0.13137351
243	0x3deb8b38	0.11501163
244	0xbd9fdc64	-0.07805708
245	0x3dd2cbda	0.10292788
246	0xbc48a886	-0.01224721
247	0xbe4cb3ae	-0.19990417
248	0x3e704ce8	0.23466837
249	0x3c1d27d2	0.009592013
250	0xbdebf1f1	-0.11520756
251	0x3d02d42d	0.031940628
252	0xbd9acdff	-0.07558822
253	0xbd8c1768	-0.06840402
254	0xbdc60229	-0.09668381
255	0x3cb93ad5	0.022611061

h.0.mha.W_k.bias f4 [64]
0	0xbbdb8b97	-0.00669999
1	0x3f16d5b0	0.5891981
2	0xbeb987d5	-0.36236444
3	0x3f259845	0.6468547
4	0xbea1b4f4	-0.3158337
5	0x3edd8441	0.43264964
6	0xbf947a31	-1.159979
7	0xbd57f26d	-0.05272143
8	0xbedf4762	-0.43609148
9	0xbf83511e	-1.025913
10	0x3ef047e2	0.46929842
11	0x3e0c96f4	0.13729459
12	0x3e411e37	0.18859182
13	0x3f97f106	1.187043
14	0xbde1c4af	-0.110238425
15	0xbef1e4ac	-0.47244775
16	0x3dddf54e	0.10837804
17	0x3e8deebd	0.27721205
18	0xbebdfa0c	-0.37104833
19	0x3f83c5ea	1.0294774
20	0x3d128a85	0.035776634
21	0x3db1566f	0.08659064
22	0xbf5a5d10	-0.8529825
23	0x3eabdd27	0.33567163
24	0xbea418f9	-0.32050303
25	0x3f7c166e	0.98471725
26	0xbead6eb7	-0.3387353
27	0xbf03adcc	-0.5143707
28	0x3eb5dc07	0.3551943
29	0xbe49a364	-0.19691235
30	0x3e49e40e	0.19715902
31	0xbf29e4f6	-0.6636499
32	0xbf4baa24	-0.7955649
33	0xbe2934f0	-0.165241
34	0xbeaebf54	-0.34130347
35	0x3ed98069	0.42480782
36	0x3e0d590f	0.13803504
37	0xbdf9acf8	-0.12191194
38	0x3ece7027	0.4031994
39	0xbe0eb11e	-0.13934752
40	0x3f0b9f9e	0.5454043
41	0x3d54cd5e	0.051953666
42	0x3e7aad44	0.24480158
43	0xbe00fb7d	-0.12595935
44	0xbee9388c	-0.45550954
45	0x3ca49e02	0.020094875
46	0x3efb8cf5	0.4913098
47	0x3e554cb7	0.20830046
48	0x3e0bca94	0.13651496
49	0x3eaf7299	0.3426712
50	0xbe9d3fe1	-0.30712798
51	0xbdedf1e8	-0.116184056
52	0xbc94951d	-0.018137509
53	0xbf12b281	-0.57303625
54	0x3ee2d29e	0.44301313
55	0xbeb13c03	-0.34616098
56	0xbe6c4b9d	-0.23075719
57	0xbeda7dcc	-0.426741
58	0x3eb6d6e0	0.35710812
59	0xbeebefd0	-0.460814
60	0x3f0413a0	0.51592445
61	0x3e64276e	0.22280666
62	0x3c828c22	0.015935961
63	0xbf316cd6	-0.69306695

h.0.mha.W_v.weight f4 [64, 64]
0	0x3c906db0	0.017630428
1	0x3c757543	0.014981571
2	0x3e5fe015	0.21862824
3	0xbe57a5e0	-0.2105937
4	0x3e31a7ce	0.17349169
5	0xbe3f3b02	-0.18674853
6	0xbdfc087f	-0.12306308
7	0x3eb39a92	0.35078865
8	0xbdfd0853	-0.12355103
9	0x3d174f7d	0.03694104
10	0x3cf87c5d	0.030332739
11	0x3cbcdf88	0.023055807
12	0x3c7c08cd	0.015382958
13	0xbeae921d	-0.3409585
14	0x3dd4bc0d	0.1038743
15	0xbd417454	-0.04723008
16	0xbd483bfc	-0.04888533
17	0x3e14a1bb	0.1451482
18	0xbd96e2cb	-0.07367476
19	0x3e84873d	0.2588443
20	0x3de937c3	0.11387589
21	0x3d799ff6	0.060943566
22	0x3e07d620	0.13265276
23	0xbd5dd629	-0.054159317
24	0xbdf51cb6	-0.11968367
25	0xbddecd80	-0.1087904
26	0xbe8da1a4	-0.27662385
27	0x3d8a96e4	0.06767061
28	0x3e864adc	0.26228988
29	0xbd6fe7a9	-0.058570538
30	0x3dc3d275	0.09561626
31	0xbe162d9c	-0.14665836
32	0x3dd9dd32	0.10637893
33	0xbc9c5bc1	-0.01908672
34	0x3e08ee1d	0.13372083
35	0x3d99dcc8	0.07512814
36	0xbe4e4155	-0.2014211
37	0x3ddef5e4	0.10886744
38	0x3d0cb13e	0.03434872
39	0x3e0e23c7	0.13880835
40	0xbd961fe7	-0.07330304
41	0xbbf45c6b	-0.007457306
42	0x3e3fcb30	0.18729854
43	0xbd14b24f	-0.03630286
44	0x3c840302	0.016114715
45	0x3e0c9311	0.13727976
46	0xbda8c399	-0.08240432
47	0x3e12bdb6	0.14330181
48	0xbc2358ef	-0.009969934
49	0x3d583155	0.05278142
50	0x3d8495fa	0.06473918
51	0xbcd9e88a	-0.026600141
52	0xbe9b9989	-0.30390576
53	0xbd9c4a45	-0.07631353
54	0x3e4295e8	0.19002497
55	0x3da06e4c	0.078335375
56	0x3e02f129	0.12787308
57	0xbc48a7bd	-0.012247023
58	0xbd1e1e8c	-0.03860335
59	0xbdad8507	-0.084726386
60	0x3d408c49	0.047008786
61	0xbdb4f3a7	-0.088355355
62	0xbdf4f630	-0.11961019
63	0xbe2d52ef	-0.16926168
64	0xbe20a4ab	-0.15687816
65	0xbc471064	-0.012149904
66	0xbca53dd4	-0.020171084
67	0xbe914cca	-0.28378898
68	0x3d1debef	0.038555082
69	0x3e35ea7a	0.17765227
70	0x3d89e8d5	0.06733862
71	0x3d4845df	0.04889476
72	0x3c039d2a	0.008033076
73	0xbd48035d	-0.048831332
74	0xbd309d63	-0.043118846
75	0x3e1d39a4	0.1535402
76	0xbdcb29fd	-0.09920118
77	0x3d82f1ac	0.063937515
78	0xbe034131	-0.12817837
79	0xbd8e9e83	-0.069638275
80	0xbcdb8d4c	-0.026800774
81	0x3dc7e9ad	0.09761367
82	0x3e527992	0.20554188
83	0x3c06d581	0.008229614
84	0x3cc416ec	0.023936711
85	0xbdff0bcf	-0.12453424
86	0x3d6bd072	0.057571836
87	0xbc22dffc	-0.009941097
88	0x3e062393	0.13099508
89	0xbd8ab2df	-0.06772398
90	0xbe5fdad8	-0.21860826
91	0xbdc48429	-0.0959552
92	0x3c8155fe	0.015788075
93	0x3a21bbee	0.00061696663
94	0x3d29f5cb	0.041494172
95	0xbdcf32ad	-0.101170875
96	0x3c91595a	0.017742801
97	0x3da84f69	0.08218271
98	0xbe696835	-0.22793658
99	0x3dc01740	0.093794346
100	0x3cb99302	0.022653107
101	0x3c8e0272	0.01733515
102	0x3e0a5297	0.13508068
103	0xbcaebb30	-0.021329492
104	0x3e41ff4b	0.18945043
105	0x3e94d3ab	0.2906774
106	0x3dca0a61	0.09865261
107	0x3d9e56c8	0.07731396
108	0xbdba8543	-0.09107449
109	0xbdd47e90	-0.103757024
110	0xba68e586	-0.00088842993
111	0xbcc34571	-0.023836823
112	0x3df0f285	0.11765007
113	0x3d72cb25	0.059275765
114	0xbe1b8196	-0.15186152
115	0xbce4e755	-0.027942339
116	0xbe8269df	-0.25471398
117	0x3e0789f6	0.13236222
118	0x3e3ec262	0.18628839
119	0x3d19dae5	0.03756227
120	0x3dcde8eb	0.10054191
121	0xbaa4a725	-0.001256202
122	0x3e12da80	0.14341164
123	0x3dad6254	0.0846602
124	0x3c5eed12	0.013606327
125	0xbd139076	-0.03602644
126	0xbd8f4214	-0.06995025
127	0x3da4a48e	0.08039199
128	0x3d1c8445	0.03821208
129	0xbe256ddd	-0.16155191
130	0xbdc69b2f	-0.09697568
131	0x3e8d89d6	0.27644223
132	0x3d64ffb3	0.055907916
133	0x3e302027	0.17199765
134	0xbe9d7b9e	-0.30758375
135	0xbd32763c	-0.04356979
136	0x3d1a2807	0.03763583
137	0x3e270f80	0.16314507
138	0x3e1d35e5	0.1535259
139	0x3baff13a	0.0053693326
140	0x3e3572bd	0.1771955
141	0x3e4ffb36	0.20310673
142	0x3deda7e8	0.11604291
143	0xbd46befb	-0.048521977
144	0x3de91b20	0.11382127
145	0x3eb64c28	0.35604978
146	0xbe2d6675	-0.16933616
147	0xbdcd3850	-0.100205064
148	0xbdea4013	-0.114380024
149	0xbe0428ca	-0.12906185
150	0xbd7e1d32	-0.06203956
151	0x3e1d85d8	0.15383089
152	0xbdb25c78	-0.08709043
153	0xbe580290	-0.21094728
154	0xbd368e20	-0.044569135
155	0x3d1a04c3	0.037602197
156	0xbe624614	-0.22097045
157	0x3ceff6a0	0.029292405
158	0xbe4728aa	-0.19449106
159	0xbc4e5150	-0.012592629
160	0xbd12c3e1	-0.035831336
161	0xbe2f1a0a	-0.17099777
162	0x3d292754	0.04129727
163	0x3d580ab9	0.0527446
164	0xbe4c5246	-0.1995326
165	0xbe6dec91	-0.23234774
166	0x3c6fe54b	0.01464207
167	0x3dc67064	0.096894056
168	0x3d8996aa	0.0671819
169	0xbdd65245	-0.104649104
170	0xbd890ec6	-0.06692271
171	0xbdf9c57f	-0.121958725
172	0xbdd88e6b	-0.10574039
173	0x3da9c2a5	0.082890786
174	0x3c766c6e	0.0150405
175	0x3e11569b	0.14193194
176	0xbdec357e	-0.1153364
177	0xbcb1034c	-0.021608017
178	0xbcf0705a	-0.029350448
179	0x3e4bdbf0	0.19908118
180	0x3bcf6912	0.006329664
181	0x3e25ee19	0.16204108
182	0xbb546f3a	-0.003241493
183	0xbdaad47e	-0.08341311
184	0xbdfc2d03	-0.12313273
185	0x3e9118aa	0.2833913
186	0x3e2d8208	0.16944134
187	0x3e3043ba	0.17213336
188	0x3e5d325c	0.21601242
189	0x3d411328	0.04713741
190	0x3de25beb	0.11052688
191	0xbe4f815f	-0.20264195
192	0x3dd3c18b	0.1033965
193	0x3e1fb8e7	0.15597878
194	0x3d1cbb2b	0.038264435
195	0x3dbdff3c	0.09277198
196	0x3c0182e5	0.007904743
197	0xbe279e87	-0.16369067
198	0xbda95d1a	-0.08269711
199	0x3e44fe86	0.19237718
200	0x3e10235a	0.14075986
201	0x3daaaa0e	0.083332166
202	0x3e803ea2	0.25047785
203	0x3e39f9a2	0.18161634
204	0x3b43f7b1	0.0029902274
205	0xbdf0e464	-0.11762312
206	0x3c0ffb82	0.0087879915
207	0xbda66993	-0.081256054
208	0xbd4207d0	-0.04737073
209	0x3da103ea	0.07862075
210	0xbda02ff5	-0.07821647
211	0xbd63fbc3	-0.05566002
212	0xbe2e3270	-0.17011428
213	0x3da2d41d	0.07950614
214	0x3de850e1	0.113435514
215	0xbd4540fc	-0.048157677
216	0x3dd3bbd5	0.103385605
217	0xbe689122	-0.22711614
218	0xbe61f19c	-0.22064823
219	0xbd4f3f6b	-0.05059759
220	0xbe4a1b8f	-0.19737075
221	0x3db1a852	0.08674683
222	0x3e73c996	0.23807368
223	0xbe540095	-0.20703347
224	0xbe9b242f	-0.30301043
225	0x3b9d5f37	0.0048026103
226	0xbe2a05b1	-0.16603734
227	0x3e9d5bf5	0.3073422
228	0x3e35c635	0.17751391
229	0xbe5ade01	-0.2137375
230	0xbdff624b	-0.1246992
231	0x3d25c85e	0.04047429
232	0x3bb6d385	0.0055794143
233	0xbde98509	-0.114023276
234	0x3e9c4c5d	0.3052701
235	0xbe77b064	-0.24188381
236	0x3bf33f73	0.007423335
237	0x3d90c92d	0.07069621
238	0xbc3dc381	-0.011582256
239	0xbe5efcb6	-0.21776089
240	0xbe3515ee	-0.17684147
241	0x3dcc1f4f	0.09966909
242	0xbda53540	-0.08066797
243	0xbd4dbf07	-0.050231006
244	0xbc202485	-0.009774332
245	0x3c8186f4	0.015811421
246	0x3d09177f	0.033469673
247	0xbd8059d5	-0.06267134
248	0xbe26d385	-0.16291626
249	0xbe6f88a7	-0.23391972
250	0x3dd3f328	0.10349113
251	0x3c3d4490	0.011551991
252	0xbd5bc443	-0.053653967
253	0x3e09ff63	0.13476329
254	0xbd3f31e7	-0.04667845
255	0xbb913569	-0.004431416

h.0.mha.W_v.bias f4 [64]
0	0xbd64c7c5	-0.055854578
1	0x3d682543	0.05667616
2	0x3c91dd06	0.017805588
3	0x3d94ca1d	0.072651125
4	0xbe131b7d	-0.14365955
5	0xbd954824	-0.0728915
6	0x3d2c3471	0.0420422
7	0xbe3103ea	-0.1728665
8	0xbda07e59	-0.07836599
9	0xbda8010d	-0.082033254
10	0xbcb28e08	-0.021796241
11	0xbe36fb29	-0.17869247
12	0x3e0b82eb	0.1362416
13	0x3db4ff23	0.08837726
14	0xbdfa44e2	-0.122201696
15	0x3ca1d88c	0.019756578
16	0x3c5f2e1b	0.013621832
17	0xbd956598	-0.07294768
18	0xbd947d5d	-0.07250474
19	0x3c92969e	0.017894085
20	0xbd95a04b	-0.07305964
21	0xbd8e2fc9	-0.06942708
22	0xbc72a600	-0.014810085
23	0x3cd1eac1	0.025624635
24	0x3c904867	0.01761265
25	0x3e04f291	0.12983157
26	0x3e0dcdb4	0.13848001
27	0x3c942366	0.018083286
28	0x3d654778	0.05597636
29	0x3e1f5974	0.15561467
30	0x3d4779b6	0.048700057
31	0x3e0ab018	0.13543737
32	0xbe16f178	-0.1474055
33	0x3d891276	0.06692974
34	0x3e082997	0.13297115
35	0x3d8d34e7	0.06894856
36	0x3d244b47	0.040110853
37	0x3e340324	0.17579323
38	0x3d230ef7	0.039809193
39	0xbd46afe5	-0.04850759
40	0xbdebb12d	-0.11508403
41	0xbcd38c5c	-0.025823765
42	0x3d86a95d	0.06575272
43	0xbdad46b5	-0.08460752
44	0xbe135a6c	-0.14389962
45	0xbd6cbbcb	-0.05779628
46	0xbdef6597	-0.116892986
47	0xbdbee7f7	-0.093215875
48	0xbe10b30f	-0.14130805
49	0x3d0841c2	0.033265837
50	0xbe17524f	-0.14777492
51	0xbc8afe33	-0.016966915
52	0xbe3d5de6	-0.1849285
53	0xbde9ee4d	-0.114224054
54	0x3da49f76	0.08038227
55	0x3dd9962e	0.106243476
56	0xbdd1b732	-0.1024002
57	0xbdc55434	-0.09635201
58	0xbe374b04	-0.1789971
59	0x3da33588	0.07969195
60	0x3dd73206	0.10507588
61	0xbde6daf5	-0.112722315
62	0xbbcb24d9	-0.006199461
63	0xbcd419c3	-0.02589119

h.0.mha.W_o.weight f4 [64, 64]
0	0xbd2058a5	-0.039147038
1	0xbdeaf46e	-0.114724025
2	0x3e3696a3	0.17830901
3	0xbd6d77b1	-0.057975475
4	0x3d7349ad	0.059396435
5	0x3c9ab16a	0.018883426
6	0x3d2a562a	0.04158608
7	0x3d479199	0.048722837
8	0x3dfc2e65	0.123135366
9	0x3d593b01	0.053034786
10	0xbd3ec71e	-0.04657661
11	0xbd18cee8	-0.037306696
12	0x3ca386aa	0.019961674
13	0xbc91dfba	-0.017806876
14	0xbd92fdcb	-0.071773134
15	0x3d5a1730	0.05324477
16	0x3d3beec1	0.04588199
17	0xbcbfa49f	-0.023393927
18	0xbe0037ce	-0.12521288
19	0xbdd1b8cf	-0.102403276
20	0xbe142748	-0.1446811
21	0xbd834f2c	-0.06411585
22	0x3e034926	0.12820873
23	0xbdc9fbf1	-0.09862507
24	0xbd7fd0a2	-0.062454827
25	0x3a6d184d	0.00090444536
26	0xbd1e344c	-0.038624093
27	0xbdc57ea5	-0.09643296
28	0xbd015338	-0.031573504
29	0x3c42df10	0.011894003
30	0xbdce7322	-0.100805536
31	0x3baac3a9	0.005211313
32	0x3d5dbeac	0.054136917
33	0xbe31f913	-0.1738017
34	0xbdbe0958	-0.09279126
35	0x3d8bdde9	0.068294354
36	0xbd7da00d	-0.061920214
37	0x3e09b766	0.13448867
38	0xbbcb8a9c	-0.006211592
39	0x3e1623e6	0.14662132
40	0x3d799595	0.06093367
41	0xbcb85d92	-0.022505555
42	0x3db3bf8c	0.08776769
43	0xbc1e5a35	-0.009665062
44	0xbdbc9760	-0.0920856
45	0xbe26d41e	-0.16291854
46	0x3bc8e9bc	0.006131379
47	0xbbe3e46a	-0.0069547193
48	0x3e3c8dc1	0.1841345
49	0x3d32ad08	0.043622047
50	0x3ceabf9e	0.028655823
51	0xb94b007d	-0.0001935977
52	0xbc9fcd92	-0.019507203
53	0x3dbb7532	0.091532126
54	0x3d481edf	0.048857566
55	0xbd9f66e2	-0.07783295
56	0xb95f05dd	-0.00021269121
57	0x3dad9c39	0.08477063
58	0x3c8185c2	0.015810851
59	0x3cf11d41	0.029432895
60	0xbc64fbc7	-0.013976044
61	0xbd1a62ce	-0.037691884
62	0xbd6ca03c	-0.05777
63	0x3e01aa05	0.12662514
64	0x3d94a37a	0.07257743
65	0xbd64cbba	-0.05585835
66	0x3c3bd5be	0.011464534
67	0x3df6d097	0.12051504
68	0x3d34448d	0.044010688
69	0x3cbc0ab1	0.022954317
70	0xbd0277e9	-0.031852636
71	0xbcff4888	-0.031162515
72	0xbdaab258	-0.083347976
73	0x3da626ac	0.08112845
74	0x3d40ee73	0.047102403
75	0xbcbec05a	-0.02328508
76	0x3d6d2a7e	0.05790185
77	0xbe056354	-0.13026172
78	0x3d3b215b	0.045686107
79	0xbc08d03e	-0.00835043
80	0xbd3d854a	-0.046269692
81	0xbd60355d	-0.05473839
82	0x3ce176e6	0.027522516
83	0xbd835850	-0.06413329
84	0x3d9b74ca	0.07590635
85	0xbc85902f	-0.016304104
86	0xbdf43054	-0.1192328
87	0x3d33a630	0.04385966
88	0x3d807be4	0.0627363
89	0xbd7e660a	-0.06210903
90	0x3ca5125a	0.020150352
91	0xbd57e788	-0.05271104
92	0xbdc83b3c	-0.09776923
93	0xbc311a6b	-0.010809521
94	0x3d84e45d	0.06488869
95	0xbde7d565	-0.11319999
96	0x3daf2ee7	0.08553868
97	0x3c9cecbe	0.019155856
98	0x3cd4c49e	0.02597266
99	0x3c5cd341	0.013478101
100	0x3ba1d180	0.0049383044
101	0x3d6625b7	0.05618831
102	0xbdb0fb1e	-0.08641647
103	0xbcc88c8a	-0.024481077
104	0x3c4704bc	0.012147125
105	0x3d018dec	0.031629488
106	0x3cf3484b	0.029697558
107	0x3d9a95cd	0.075481035
108	0xbda7fe3a	-0.08202787
109	0xbc18c464	-0.009324167
110	0x3bb9649b	0.005657745
111	0xbc105923	-0.008810314
112	0xbbd136ba	-0.0063846977
113	0xbccc807d	-0.024963612
114	0xbd0f2e08	-0.03495601
115	0xbd1ccdbe	-0.03828215
116	0xbde4c1a7	-0.11169749
117	0x3d46da13	0.048547816
118	0xbd9e51e3	-0.077304624
119	0xbd2bc198	-0.041932672
120	0x3d49d9c3	0.04927994
121	0x3dc2b6d5	0.09507529
122	0x3d28d274	0.04121633
123	0xbd0bb747	-0.034110334
124	0xbc5b5911	-0.013387934
125	0xbd861b4f	-0.065481775
126	0x3d8489ef	0.06471621
127	0x3cc266e6	0.023730706
128	0x3df83c74	0.121209055
129	0x3e1692e6	0.14704475
130	0x3cfb4833	0.030674076
131	0x3dece761	0.115675695
132	0xbd88df62	-0.06683232
133	0xbdbad63e	-0.09122895
134	0xbd26d3c3	-0.040729295
135	0xbaf0236d	-0.0018321105
136	0xbceb75dc	-0.028742723
137	0xbda9573f	-0.08268594
138	0x3a970795	0.0011522645
139	0x3ca49e04	0.020094879
140	0x3cecde73	0.028914666
141	0x3de4419d	0.11145327
142	0x3e96bdd3	0.294417
143	0x3e4ace35	0.19805224
144	0xbe269a86	-0.16269884
145	0x3dc99287	0.09842401
146	0xbd6cd455	-0.057819683
147	0x3e51d6c0	0.20492077
148	0xbd0f7a30	-0.035028636
149	0xbe08debb	-0.13366215
150	0xbdb5b7b7	-0.088729315
151	0xbc950547	-0.018190993
152	0x3e6cdb2f	0.23130487
153	0x3d3f6e59	0.046736095
154	0xbd874db7	-0.0660662
155	0x3d456b60	0.048198104
156	0x3dad6429	0.0846637
157	0x3d00cd83	0.03144599
158	0x3dada8ee	0.084794864
159	0xbdd6140f	-0.104530446
160	0xbe9a17ba	-0.30096227
161	0x3cf6ec36	0.030141931
162	0xbdd57670	-0.10422981
163	0x3d987f78	0.07446188
164	0x3d8040fd	0.062623955
165	0xbeb6e0d3	-0.35718402
166	0x3e23cc88	0.15995991
167	0xbdf3d787	-0.11906343
168	0xbe46e652	-0.19423798
169	0xbd0fba3c	-0.035089716
170	0xbc4dcfa1	-0.01256171
171	0x3e0c130a	0.13679138
172	0xbdcab4e0	-0.098977804
173	0x3d03a425	0.032138962
174	0xbdffda58	-0.12492818
175	0xbd0b9ce6	-0.034085177
176	0xbcef721a	-0.029229213
177	0xbd2f2f4c	-0.042769715
178	0x3e47c890	0.19510102
179	0x3b88a058	0.004169505
180	0x3c8b49b1	0.017002912
181	0xbe0674e1	-0.13130523
182	0xbda5e80d	-0.08100901
183	0x3d3558ff	0.044274326
184	0xbdb2fe18	-0.08739871
185	0xbd40f597	-0.047109213
186	0x3b97b162	0.0046293
187	0x3d2ee212	0.042696066
188	0xbd7842ce	-0.060610585
189	0x3e4a6207	0.19763957
190	0xbd76a753	-0.060218167
191	0xbd257886	-0.040398143
192	0xbdceabe1	-0.10091377
193	0xbdc0e5c3	-0.094188236
194	0xbd13b05b	-0.036056858
195	0xbd156b74	-0.03647943
196	0xbc95ccb1	-0.018286081
197	0xbb89c87f	-0.004204809
198	0x3dd0c93e	0.10194634
199	0x3c6901e9	0.014221647
200	0x3d8c3562	0.068461195
201	0xbb8acf6c	-0.0042361524
202	0x3de70612	0.11280455
203	0xbc2bd672	-0.010488139
204	0xbd8af90f	-0.067857854
205	0x3d00b303	0.03142072
206	0xbd7eae05	-0.062177677
207	0x3c7ceb2f	0.0154369315
208	0x3d919bae	0.07109772
209	0x3d80682b	0.062698685
210	0x3db1c0c3	0.086793445
211	0xbd044c7e	-0.03229951
212	0xbd9c5eb5	-0.076352514
213	0x3de4561d	0.11149237
214	0xbb4f5d4e	-0.0031641307
215	0x3d088b49	0.033335958
216	0xbc16baa9	-0.009199777
217	0x3d0fd5b2	0.035115905
218	0x3d2b455b	0.04181419
219	0xbb8f05b2	-0.0043646926
220	0xbd2c95f2	-0.042135186
221	0xbdc06ddb	-0.09395953
222	0x3ca8ed57	0.020620985
223	0x3d4e5a84	0.05037929
224	0xbddd45a5	-0.10804299
225	0x3d012e0b	0.03153805
226	0x3d3f8359	0.046756122
227	0xbdc3a667	-0.09553223
228	0x3d9a2cb9	0.075280614
229	0x3d50910e	0.050919585
230	0xbe18cf9e	-0.1492295
231	0xbc2cb14d	-0.010540319
232	0x3c93aa8d	0.01802566
233	0xba9f4f98	-0.0012154458
234	0x3d323b15	0.043513376
235	0x3d9f0c16	0.07765977
236	0xbd179462	-0.037006743
237	0x3d5e8ae1	0.054331664
238	0x3e25e9cd	0.16202469
239	0x3dfd0518	0.12354487
240	0xbb2ae7b1	-0.002607804
241	0x3d4cc0e5	0.049988646
242	0x3cf37cc4	0.029722579
243	0xbd41ad2e	-0.047284298
244	0x3cd4424b	0.025910517
245	0xbcc3bf9b	-0.023895076
246	0x3cc15c69	0.023603635
247	0xbc3ce7e1	-0.011529894
248	0x3b07f872	0.002074745
249	0xbda0f801	-0.07859803
250	0xbdc6ee1d	-0.09713385
251	0xbd4641b5	-0.048402507
252	0x3db3f48b	0.08786877
253	0xbcff103d	-0.031135673
254	0xbe10c600	-0.14138031
255	0x3cb46bda	0.022024084

h.0.mha.W_o.bias f4 [64]
0	0xbe116507	-0.14198695
1	0x3db97f60	0.09057498
2	0x3cbd11e2	0.023079816
3	0xbd8d0c49	-0.06887109
4	0x3db31320	0.08743882
5	0x3c2ca479	0.01053726
6	0xbd76a1dd	-0.06021296
7	0x3d406870	0.0469746
8	0xbdf8603f	-0.121277325
9	0x3d80f1f5	0.0629615
10	0xbdc6f4b7	-0.097146444
11	0x3d271fdf	0.04080188
12	0xbd53adc9	-0.051679406
13	0x3db0a075	0.08624355
14	0xbcb80393	-0.022462642
15	0x3db36445	0.08759359
16	0x3d932f5e	0.07186769
17	0x3d81e68e	0.06342803
18	0x3dbfb829	0.09361298
19	0xbd37de91	-0.04488999
20	0xbdb919f3	-0.090381525
21	0x3da8df43	0.08245709
22	0xbce0c04a	-0.02743544
23	0xbcf52c1e	-0.029928263
24	0xbd823e8a	-0.06359585
25	0x3dda54b6	0.106606886
26	0xbc6ce123	-0.014457974
27	0xbcaa0e90	-0.020758897
28	0xbdd49dc6	-0.103816554
29	0x3e370270	0.17872024
30	0xbc769475	-0.015050043
31	0xbbd93be2	-0.006629453
32	0x3db23f5e	0.087034926
33	0xbde96660	-0.113964796
34	0xbd723ecd	-0.059141923
35	0x3e2cc6e6	0.16872749
36	0x3cbd7673	0.02312777
37	0x3b3a10f2	0.0028391448
38	0xbde8d2cf	-0.113683335
39	0x3b231f5c	0.0024890518
40	0xbe00434d	-0.12525673
41	0xbcaad0cc	-0.020851515
42	0xbdeeab1e	-0.11653732
43	0x3d9e77df	0.07737707
44	0xbda116ca	-0.07865675
45	0x3d02578a	0.031821765
46	0xbdeb1251	-0.11478103
47	0x3d6ecb23	0.058299195
48	0xbe071467	-0.13191377
49	0x3d948648	0.072521746
50	0x3e372bf9	0.17887868
51	0x3daccfe7	0.08438092
52	0xbcc266f8	-0.02373074
53	0xbb02caf1	-0.0019957388
54	0xbd724e21	-0.05915654
55	0xbe78f871	-0.24313523
56	0x3e1de31d	0.15418668
57	0x3de35570	0.1110028
58	0x3de742d0	0.1129204
59	0xbd6b3ba8	-0.05742994
60	0x3b9a9c4a	0.004718338
61	0x3cc5a959	0.024128603
62	0x3e028eff	0.12749861
63	0xbdb24c1c	-0.08705923

h.0.ln_1.weight f4 [64]
0	0x3f24edf4	0.6442559
1	0x3f54619f	0.8296146
2	0x3f402887	0.7506184
3	0x3f36951f	0.7132129
4	0x3f6ed99b	0.9330079
5	0x3f53dac8	0.8275571
6	0x3f146b90	0.5797663
7	0x3f1238d4	0.5711796
8	0x3f3ca10f	0.73683256
9	0x3f1d8065	0.6152404
10	0x3ef3e720	0.47637272
11	0x3f0a807e	0.54102314
12	0x3f60836a	0.8770052
13	0x3f8113ab	1.0084127
14	0x3eee784d	0.46576157
15	0x3f24d72c	0.64390826
16	0x3f36757c	0.71273017
17	0x3f5e3fe2	0.8681623
18	0x3efc6550	0.49296045
19	0x3f03c42e	0.5147122
20	0x3f353c7f	0.70795435
21	0x3f2560d7	0.6460089
22	0x3f07d57d	0.5306013
23	0x3f65afef	0.8972158
24	0x3f228885	0.6348956
25	0x3f3f78de	0.74793804
26	0x3f75d55c	0.96028686
27	0x3f077ddf	0.5292644
28	0x3f4500fd	0.76954633
29	0x3f25d871	0.6478339
30	0x3ef55ed9	0.47923926
31	0x3f0f7ea2	0.560526
32	0x3f0dd1f6	0.553985
33	0x3f1b61e4	0.60696244
34	0x3f1e070e	0.61729515
35	0x3f536ec4	0.8259089
36	0x3f03a815	0.5142835
37	0x3f304245	0.6885112
38	0x3f50520d	0.813752
39	0x3f2cebdc	0.6754739
40	0x3ef4a491	0.47781804
41	0x3f6f7679	0.9354015
42	0x3f2a3cd3	0.6649906
43	0x3f4433a0	0.76641273
44	0x3f53e6e6	0.827742
45	0x3f26b288	0.6511617
46	0x3f43ed43	0.7653391
47	0x3f217d79	0.6308208
48	0x3efba07e	0.49145883
49	0x3ea90c1f	0.3301706
50	0x3f1f6f5f	0.62279314
51	0x3f6e4d3b	0.93086594
52	0x3ed4c271	0.41554597
53	0x3f1f3e55	0.62204486
54	0x3ef70631	0.4824691
55	0x3f3966fb	0.7242276
56	0x3f29f8f5	0.66395503
57	0x3f17d16b	0.5930392
58	0x3f416926	0.7555107
59	0x3f046aa2	0.5172521
60	0x3f11c461	0.56940275
61	0x3ef4fe47	0.47850248
62	0x3f1d21f8	0.6137996
63	0x3f2759df	0.6537151

h.0.ln_1.bias f4 [64]
0	0xbc4549ff	-0.012041568
1	0x3f039a2a	0.5140711
2	0xbf0878c5	-0.5330928
3	0xbd2b846e	-0.04187434
4	0x3e280fe4	0.16412312
5	0x3d7d6671	0.061865274
6	0xbdf8e0e1	-0.12152267
7	0x3c474866	0.012163257
8	0xbef70ea6	-0.48253363
9	0xbccfa29f	-0.025346098
10	0xbeb14ac3	-0.3462735
11	0x3d30da3f	0.043176886
12	0xbf11e2b7	-0.56986564
13	0x3efa0b1a	0.48836595
14	0xbbfed579	-0.007776913
15	0xbe33d556	-0.1756185
16	0xbebd56f6	-0.36980408
17	0x3ea8fc66	0.33005065
18	0x3ec1799f	0.37788102
19	0xbdb95ab7	-0.090505056
20	0xbe944cca	-0.28964835
21	0x3f008aa3	0.5021154
22	0xbe3727c8	-0.17886269
23	0xbee07202	-0.4383698
24	0xbed6b684	-0.41936123
25	0x3f184654	0.5948231
26	0xbf187483	-0.5955278
27	0xbde6dd82	-0.11272718
28	0xbeb11f03	-0.34593973
29	0x3ef96bb0	0.48714972
30	0xbde75495	-0.112954296
31	0xbc92b83a	-0.017910112
32	0xbd6662f8	-0.056246728
33	0xbe1b558d	-0.15169354
34	0x3c82e8a0	0.015980065
35	0x3ee1550f	0.44010207
36	0xbc8fdd59	-0.017561601
37	0x3e6e3e5a	0.23265973
38	0xbdf42290	-0.11920655
39	0x3f124b6a	0.5714632
40	0x3dc95117	0.0982992
41	0xbf2f6c9d	-0.68525106
42	0xbdd6ed9b	-0.104945384
43	0x3f06c074	0.5263741
44	0xbdce4e96	-0.10073583
45	0xbe4097f9	-0.18807973
46	0xbeb0e777	-0.34551594
47	0xbe86df3e	-0.26342195
48	0x3d6beed5	0.057600815
49	0xbe926397	-0.28591606
50	0x3e19ae9b	0.15008013
51	0x3ea517d2	0.32244736
52	0xbe941231	-0.2892013
53	0x3de21d04	0.110406905
54	0x3c83deb1	0.016097398
55	0xbed6a542	-0.41922957
56	0x3eba0163	0.36329183
57	0x3da86e26	0.08224134
58	0xbee9e4ac	-0.45682275
59	0x3e022874	0.12710744
60	0xbe8831d5	-0.2660052
61	0xbe8ac6b4	-0.27104723
62	0xbea4d06e	-0.3219027
63	0xbe200f57	-0.15630852

h.0.ln_2.weight f4 [64]
0	0x3f800000	1.0
1	0x3f800000	1.0
2	0x3f800000	1.0
3	0x3f800000	1.0
4	0x3f800000	1.0
5	0x3f800000	1.0
6	0x3f800000	1.0
7	0x3f800000	1.0
8	0x3f800000	1.0
9	0x3f800000	1.0
10	0x3f800000	1.0
11	0x3f800000	1.0
12	0x3f800000	1.0
13	0x3f800000	1.0
14	0x3f800000	1.0
15	0x3f800000	1.0
16	0x3f800000	1.0
17	0x3f800000	1.0
18	0x3f800000	1.0
19	0x3f800000	1.0
20	0x3f800000	1.0
21	0x3f800000	1.0
22	0x3f800000	1.0
23	0x3f800000	1.0
24	0x3f800000	1.0
25	0x3f800000	1.0
26	0x3f800000	1.0
27	0x3f800000	1.0
28	0x3f800000	1.0
29	0x3f800000	1.0
30	0x3f800000	1.0
31	0x3f800000	1.0
32	0x3f800000	1.0
33	0x3f800000	1.0
34	0x3f800000	1.0
35	0x3f800000	1.0
36	0x3f800000	1.0
37	0x3f800000	1.0
38	0x3f800000	1.0
39	0x3f800000	1.0
40	0x3f800000	1.0
41	0x3f800000	1.0
42	0x3f800000	1.0
43	0x3f800000	1.0
44	0x3f800000	1.0
45	0x3f800000	1.0
46	0x3f800000	1.0
47	0x3f800000	1.0
48	0x3f800000	1.0
49	0x3f800000	1.0
50	0x3f800000	1.0
51	0x3f800000	1.0
52	0x3f800000	1.0
53	0x3f800000	1.0
54	0x3f800000	1.0
55	0x3f800000	1.0
56	0x3f800000	1.0
57	0x3f800000	1.0
58	0x3f800000	1.0
59	0x3f800000	1.0
60	0x3f800000	1.0
61	0x3f800000	1.0
62	0x3f800000	1.0
63	0x3f800000	1.0

h.0.ln_2.bias f4 [64]
0	0x00000000	0.0
1	0x00000000	0.0
2	0x00000000	0.0
3	0x00000000	0.0
4	0x00000000	0.0
5	0x00000000	0.0
6	0x00000000	0.0
7	0x00000000	0.0
8	0x00000000	0.0
9	0x00000000	0.0
10	0x00000000	0.0
11	0x00000000	0.0
12	0x00000000	0.0
13	0x00000000	0.0
14	0x00000000	0.0
15	0x00000000	0.0
16	0x00000000	0.0
17	0x00000000	0.0
18	0x00000000	0.0
19	0x00000000	0.0
20	0x00000000	0.0
21	0x00000000	0.0
22	0x00000000	0.0
23	0x00000000	0.0
24	0x00000000	0.0
25	0x00000000	0.0
26	0x00000000	0.0
27	0x00000000	0.0
28	0x00000000	0.0
29	0x00000000	0.0
30	0x00000000	0.0
31	0x00000000	0.0
32	0x00000000	0.0
33	0x00000000	0.0
34	0x00000000	0.0
35	0x00000000	0.0
36	0x00000000	0.0
37	0x00000000	0.0
38	0x00000000	0.0
39	0x00000000	0.0
40	0x00000000	0.0
41	0x00000000	0.0
42	0x00000000	0.0
43	0x00000000	0.0
44	0x00000000	0.0
45	0x00000000	0.0
46	0x00000000	0.0
47	0x00000000	0.0
48	0x00000000	0.0
49	0x00000000	0.0
50	0x00000000	0.0
51	0x00000000	0.0
52	0x00000000	0.0
53	0x00000000	0.0
54	0x00000000	0.0
55	0x00000000	0.0
56	0x00000000	0.0
57	0x00000000	0.0
58	0x00000000	0.0
59	0x00000000	0.0
60	0x00000000	0.0
61	0x00000000	0.0
62	0x00000000	0.0
63	0x00000000	0.0
