subspace-alignment/data/2_layer_64_vocab/ckpt_180.pt (torch, 178528 bytes, 29 tensors)

embed.embed.weight f4 [64, 64]
0	0xbe627bfe	-0.22117612
1	0x3f3bdb33	0.73381346
2	0x3f207deb	0.62692136
3	0x3e04dd83	0.12975125
4	0xbc470698	-0.012147568
5	0xbf37c653	-0.71786994
6	0xbfadf837	-1.3591374
7	0xbc76a0d3	-0.015052992
8	0xbf04e437	-0.5191073
9	0x3e74b1fe	0.23896024
10	0xbfba6aa2	-1.4563792
11	0x3ea204e0	0.31644344
12	0xbe4697d1	-0.19393851
13	0xbf61b7cf	-0.88171095
14	0x3f75d47b	0.96027344
15	0x3cbe3c40	0.023222089
16	0x3e73233c	0.2374391
17	0x3dbb5acb	0.09148177
18	0x3f6fe5b8	0.937099
19	0xbf48e2ac	-0.78470874
20	0xbf019777	-0.5062174
21	0x3fcc014a	1.5937893
22	0x3fb4e902	1.4133608
23	0xbf8abd45	-1.083901
24	0xc009ee62	-2.1551747
25	0x3fc2c0a9	1.5215045
26	0xbf49b363	-0.7878935
27	0x400ab6e7	2.1674135
28	0x3f692d85	0.9108508
29	0x3f3002ee	0.6875447
30	0xbf15f4ac	-0.58576465
31	0x3f105682	0.56382
32	0x3f706f39	0.9391971
33	0xbf6d16ae	-0.9261273
34	0x3eca4316	0.39504308
35	0xbf80edf9	-1.0072623
36	0xbf98ad70	-1.1927929
37	0x3f202394	0.6255429
38	0xbf5245b9	-0.8213764
39	0x3f1a6966	0.60317075
40	0xbfd25493	-1.643206
41	0xbf746c99	-0.95478207
42	0x3e740b14	0.23832351
43	0x3f31dfa7	0.6948189
44	0x3fa6d2fd	1.3033139
45	0x3f69bb8c	0.913018
46	0xbeedfe2d	-0.46482983
47	0xbf33419c	-0.70021987
48	0xbf64ff1f	-0.89451784
49	0xbfd65072	-1.67433
50	0xbd9c51eb	-0.07632812
51	0xbedc9c81	-0.43088153
52	0x3ef58625	0.47953907
53	0x3f8fcf75	1.1235186
54	0x3da29f2f	0.07940518
55	0xbf6332ae	-0.88749206
56	0x3ec33201	0.38124087
57	0xbeeeca92	-0.46638924
58	0xbf973967	-1.1814393
59	0xbfca6103	-1.5810856
60	0x3ee01d4b	0.4377235
61	0xbeb63882	-0.35589987
62	0xbdba6082	-0.09100439
63	0x3f59482e	0.8487576
64	0x3f0fad17	0.5612349
65	0xbf9c1b46	-1.2195823
66	0xbfa574d4	-1.2926278
67	0x3dfc7e03	0.12328722
68	0x4001a9fe	2.0260005
69	0xbf9bed46	-1.2181785
70	0xbe85ae5c	-0.26109588
71	0xbedc76d2	-0.43059403
72	0x3e789b28	0.24277937
73	0xbe7a2e12	-0.24431637
74	0x3e184f48	0.14873993
75	0x3eadb248	0.3392508
76	0x3efa6360	0.48903942
77	0x3e8c06c7	0.2734892
78	0x3e104a50	0.14090848
79	0x3f69b903	0.9129793
80	0x3fad1c69	1.3524295
81	0xbeef8de2	-0.46787935
82	0x3f9e823e	1.2383497
83	0x3e8065a3	0.25077543
84	0x3e9d64c4	0.3074094
85	0xbef07d75	-0.46970716
86	0x3fdbb4b2	1.7164519
87	0x3ed21c86	0.41037387
88	0x3e209935	0.15683444
89	0x3f824d9f	1.0179938
90	0xbfa7f0df	-1.3120383
91	0x3e8d143c	0.275545
92	0xc001d484	-2.028596
93	0x40003ae5	2.0035946
94	0x3e0e7184	0.1391049
95	0xbf905a6e	-1.1277597
96	0xbfa1d8ca	-1.2644284
97	0xbfb369d9	-1.4016677
98	0x3f37dcb0	0.7182112
99	0xbd77d0bb	-0.060501795
100	0x3f74d65a	0.95639575
101	0x3f5dd39e	0.8665103
102	0x3f9e6933	1.2375854
103	0x3d3ff639	0.046865676
104	0xbf86963d	-1.0514599
105	0xbe02c0ce	-0.12768862
106	0x3f97670d	1.1828324
107	0x3eca144c	0.3946861
108	0xbf22a16e	-0.6352757
109	0xbdc421a1	-0.09576727
110	0xbfafa876	-1.3723285
111	0xbfbb6bb3	-1.4642242
112	0xbe8bc676	-0.2729985
113	0xbe1b0e6a	-0.15142217
114	0x3fa7e13c	1.3115611
115	0xbdd91018	-0.10598773
116	0xbf1867e3	-0.5953352
117	0x3cd0c7d4	0.02548591
118	0x3e9b1858	0.3029201
119	0xbf5a4fa2	-0.8527776
120	0x3d866884	0.065629035
121	0xbf4a9a56	-0.7914175
122	0xbe574259	-0.21021403
123	0xbd7f9ab7	-0.062403407
124	0x3ed5dbda	0.41769296
125	0xc01d95e4	-2.4622736
126	0xbf825a1a	-1.0183747
127	0x3e9e8ae4	0.3096534
128	0x3f535b22	0.8256093
129	0x3f742971	0.95375735
130	0xbeae6c26	-0.34066886
131	0xbe2d91a3	-0.16950087
132	0xbe349175	-0.17633612
133	0x3f45861d	0.77157766
134	0xbf2467fe	-0.6422118
135	0xbfcb83f4	-1.5899644
136	0x3ebd00cf	0.3691468
137	0xbf83f84a	-1.0310147
138	0x3ec9a9a1	0.3938723
139	0xbec7792c	-0.38959634
140	0xbf2c1a42	-0.67227566
141	0x3f5532ff	0.8328094
142	0x3e8c14c1	0.27359584
143	0x3ee98b74	0.45614207
144	0xbf3610fb	-0.7111966
145	0xbf72096c	-0.94545627
146	0xbfe95559	-1.8229171
147	0xbf4de3e1	-0.8042584
148	0x3e1a11c4	0.1504584
149	0x3f9ee094	1.2412286
150	0xbf85fe40	-1.0468216
151	0xbf0d04a3	-0.550852
152	0x3eda53ba	0.42642003
153	0x3efb840f	0.4912419
154	0xbf2efa17	-0.68350357
155	0x3e4ec200	0.20191193
156	0xbf89357b	-1.0719446
157	0x3fcbdbfe	1.5926511
158	0x3f9fe516	1.2491786
159	0x3f0a6f4a	0.54076064
160	0xbf7d930a	-0.9905249
161	0x3ef9281a	0.48663408
162	0x3e9d1f5e	0.30687994
163	0x3fa399c6	1.2781303
164	0xbf95986e	-1.1687143
165	0xbfcafc63	-1.5858272
166	0xbedeeb58	-0.43538928
167	0x4020452d	2.5042222
168	0xbf1104df	-0.5664806
169	0xbf804fa3	-1.0024303
170	0x3cf82974	0.030293204
171	0x3da8205e	0.082092986
172	0xbd5bfb16	-0.05370625
173	0xbf725060	-0.9465389
174	0x3f6189e0	0.88101006
175	0xbe8b55b5	-0.27213827
176	0xbe6e03c6	-0.23243627
177	0xbfa1e9d2	-1.2649481
178	0x400de9a8	2.2173862
179	0xbd7f365e	-0.062307708
180	0x3e4a0fed	0.19732638
181	0xbf253f6a	-0.6454989
182	0xbfe12a16	-1.7590969
183	0xbeecbf90	-0.462399
184	0x3f38c30b	0.7217261
185	0x3c30fd10	0.010802522
186	0xbf119f5c	-0.5688379
187	0x3f6c1f74	0.92235494
188	0xc025de94	-2.59171
189	0x3f1f84e6	0.6231216
190	0x3eb8a9e2	0.3606711
191	0x3ea57b2d	0.32320538
192	0xbfb15907	-1.3855294
193	0x3f9c9ecb	1.223596
194	0x3bd05d62	0.0063587883
195	0xbe35e2af	-0.17762254
196	0xbfd2c0bb	-1.6465067
197	0xbf00c481	-0.5029984
198	0x3fbe7282	1.4878695
199	0x3ef4e66f	0.47832057
200	0xbfad594a	-1.3542874
201	0xbfa1c493	-1.2638115
202	0xbfe885e2	-1.8165858
203	0xbeb0dd79	-0.3454397
204	0xc02a0690	-2.6566505
205	0x4018ff20	2.3905716
206	0xbfaa2888	-1.3293619
207	0x3f055280	0.5207901
208	0x3ee46549	0.44608524
209	0xbe86133b	-0.26186547
210	0x3f6752a6	0.90360487
211	0x3e983e3e	0.29734987
212	0x3f5b6930	0.8570738
213	0xbf46d1fd	-0.77664167
214	0xbfbef999	-1.4919921
215	0x3f2f1fd3	0.68407935
216	0xc0028ece	-2.039966
217	0x3fc8c034	1.5683656
218	0x3e9430cc	0.2894348
219	0x3f0fba58	0.56143713
220	0x3ec388aa	0.38190204
221	0xbeab906a	-0.33508617
222	0xbeea2f65	-0.45739284
223	0x3f7f6d83	0.99776477
224	0x3f697000	0.91186523
225	0x3f584f6d	0.84496194
226	0xbf3c3c5a	-0.7352959
227	0xbf7d6fae	-0.98998535
228	0x3cad7ef8	0.021178707
229	0xbf5915ad	-0.847987
230	0x3ef15f0c	0.47142828
231	0x3faae584	1.3351293
232	0x3feb68ee	1.8391397
233	0xbc253406	-0.010083204
234	0xbf831216	-1.0239894
235	0x3f68c204	0.90921044
236	0x3f7aa537	0.9790835
237	0x3fee7d45	1.8631979
238	0x3f49892c	0.7872493
239	0x3f4f4da7	0.80977863
240	0x3f6ae432	0.9175445
241	0xbf59c4bb	-0.8506581
242	0x3f0088d9	0.5020881
243	0x3d2f6667	0.042822268
244	0xbfb5502e	-1.4165094
245	0x3fa4b357	1.286723
246	0x3edd0e1a	0.4317482
247	0xbf0840f0	-0.53224087
248	0x3ee63518	0.44962382
249	0x3fae7fa0	1.3632698
250	0xc037a8d8	-2.8696804
251	0xbe6afca8	-0.22947943
252	0x3d974933	0.073870085
253	0xbf24abea	-0.6432482
254	0xbf5bd182	-0.8586656
255	0xbe1b14c8	-0.15144646

h.0.mha.W_q.weight f4 [64, 64]
0	0x3c9f0155	0.019409815
1	0xbdeeff36	-0.116697714
2	0x3c751a28	0.014959849
3	0x3d9e9c18	0.07744616
4	0x3adff303	0.0017085973
5	0x3df5c720	0.12000871
6	0x3d78f551	0.060780827
7	0x3d388d4d	0.04505663
8	0x3ceea295	0.02913026
9	0x3b48e6cb	0.0030655141
10	0xbc13a878	-0.009012334
11	0x3de9bee3	0.11413362
12	0xbdafb268	-0.0857895
13	0x3c5d5829	0.013509789
14	0xbd5e8550	-0.054326355
15	0xbdb5719f	-0.08859562
16	0x3dfc053e	0.12305687
17	0xbd5d609a	-0.054047205
18	0x3cd7b837	0.026332958
19	0x3d97f560	0.074198484
20	0xbcdea56d	-0.02717849
21	0x3cb7b964	0.022427268
22	0x3dc3c51e	0.095590815
23	0x3d02bbe6	0.031917475
24	0x3ce54121	0.027985157
25	0x3ce65c0a	0.02812006
26	0x3c7d8277	0.015473
27	0xbdcd404a	-0.10022028
28	0x3dac2f43	0.08407452
29	0xbd8cf337	-0.06882327
30	0xbdb2e59e	-0.08735202
31	0xbc72712c	-0.01479749
32	0xbd3068be	-0.04306864
33	0x3de406e0	0.11134124
34	0x3ca2e9f8	0.019886956
35	0xbd6bc459	-0.0575603
36	0xbe001ca9	-0.12510933
37	0x3c626408	0.013817795
38	0x3d5c7f4f	0.05383235
39	0x3d8e1cc0	0.069390774
40	0xbd8d72e8	-0.06906682
41	0x3d4fe0fd	0.050751675
42	0x3d5ce5ae	0.053929977
43	0x3d310166	0.043214224
44	0xbd8d738e	-0.06906806
45	0xbda71b83	-0.08159544
46	0xbd99848a	-0.07495983
47	0xbd843e1f	-0.06457161
48	0x3d159e9a	0.036528207
49	0x3d448fd4	0.047988728
50	0x3d870de9	0.0659445
51	0x3ccbe2eb	0.024888476
52	0xbcf6c7e1	-0.030124607
53	0x3daa2fa0	0.08309865
54	0x3a8941a2	0.0010471831
55	0xbdbac357	-0.09119289
56	0x3dc0c0b7	0.094117574
57	0xbdebd308	-0.115148604
58	0xbd38b037	-0.045089927
59	0xbd265a06	-0.040613197
60	0x3c0f2062	0.008735748
61	0xbd560cd0	-0.052258313
62	0xbc5f15ea	-0.013616065
63	0x3d796e16	0.060896
64	0x3da6b084	0.081391364
65	0xbd8b1cc2	-0.067925945
66	0xbdfc98c7	-0.123338275
67	0xbc0b28da	-0.0084936265
68	0xbd6fea4e	-0.05857306
69	0x3d972775	0.07380573
70	0xbb8e73a5	-0.004347282
71	0xbdeaec9e	-0.114709124
72	0x3df7a563	0.12092092
73	0x3db21945	0.08696226
74	0xbd5582ce	-0.0521267
75	0xbd04b7c3	-0.03240181
76	0xbdd2a490	-0.10285294
77	0x3d5ab175	0.053391892
78	0xbde07b66	-0.109610364
79	0xbd91108a	-0.07083233
80	0xbd603177	-0.054734673
81	0xbd7424f2	-0.059605546
82	0x3d4bf535	0.049794395
83	0xbdb6ed42	-0.08931972
84	0x3dd72cc7	0.105065875
85	0xbde047ef	-0.1095122
86	0x3d02e313	0.031954836
87	0x3d1ccdaf	0.038282093
88	0x3ca8b926	0.020596098
89	0xbdbb46bf	-0.09144353
90	0x3d09a4e3	0.033604514
91	0x3de986c1	0.114026554
92	0xbd1ce743	-0.038306486
93	0x3dc4b817	0.09605425
94	0x3d7dbca8	0.061947495
95	0xbd8f0f6e	-0.06985365
96	0x3d6846f9	0.05670831
97	0x3dd23725	0.10264424
98	0x3dcfe6f4	0.10151473
99	0x3c2747f9	0.010210031
100	0xbd2bf02a	-0.041977085
101	0x3d260e1b	0.040540796
102	0xbcb56dea	-0.022147138
103	0x3d2c844d	0.04211836
104	0x3cf73c36	0.030180078
105	0xbdd134c5	-0.10215143
106	0x3c0125c6	0.007882541
107	0x3da090a7	0.0784009
108	0xbd4fa32a	-0.050692715
109	0x3da8f455	0.08249728
110	0xbd19e963	-0.03757609
111	0xbd69e18d	-0.057099868
112	0x3db67fc4	0.08911088
113	0x3d3e7a3c	0.04650329
114	0x3db47977	0.0881223
115	0x3dad3d3c	0.08458945
116	0x3dd2ca0d	0.102924444
117	0xbbcc8f85	-0.006242695
118	0xbe00211a	-0.12512627
119	0x3dffbbb2	0.12486972
120	0xbcc97b72	-0.024594996
121	0xbd8ea911	-0.069658406
122	0xbcf3b571	-0.029749604
123	0xbd853be1	-0.065055616
124	0xbc17a0e9	-0.009254673
125	0x3e1095cf	0.14119647
126	0xbd6f9024	-0.058487073
127	0xbde858d2	-0.11345066
128	0xbdee86b0	-0.11646783
129	0x3df4d2b8	0.11954254
130	0xbd95415d	-0.07287858
131	0x3a0743a7	0.00051599223
132	0xbdd571cc	-0.10422096
133	0x3c78e7a7	0.015191949
134	0xbdda72ec	-0.10666451
135	0xbb8bcf8c	-0.004266685
136	0x3d7c7117	0.06163129
137	0xbd84f04d	-0.06491146
138	0xbdb43a32	-0.088001624
139	0xbd3783dc	-0.044803485
140	0x3caa09fe	0.020756718
141	0x3d858da1	0.06521154
142	0xbd382d3c	-0.044965014
143	0xbde49aa3	-0.11162307
144	0x3c8f8dcc	0.017523669
145	0x3d50f778	0.051017255
146	0x3d941dde	0.07232259
147	0x3ca0a66b	0.019610604
148	0xbdd35dce	-0.10320626
149	0xbc2baa90	-0.010477677
150	0xbdbccdab	-0.092189156
151	0x3d2a8439	0.041630004
152	0x3dcd1e1d	0.10015509
153	0x3d07dbe8	0.033168703
154	0xbdeefd5d	-0.11669419
155	0xbbeac76e	-0.007164887
156	0x3b17d485	0.0023167443
157	0xbd4eb100	-0.05046177
158	0x3db52fff	0.08847045
159	0x3dc6cbd1	0.09706844
160	0xbc67264f	-0.014108255
161	0xb9deb50f	-0.0004247804
162	0xbc86c46e	-0.016451087
163	0x3c52304a	0.012828896
164	0xbc2702a2	-0.010193499
165	0x3c9aedf3	0.018912291
166	0x3ca8e018	0.020614669
167	0xbdf41896	-0.11918752
168	0xbd904d60	-0.07046008
169	0x3de44e27	0.11147719
170	0x3c2523bc	0.0100793205
171	0x3dff4698	0.124646366
172	0x3c63ee8e	0.013911856
173	0xbded85da	-0.11597796
174	0x3ddb96e4	0.107221395
175	0xbdb78c7a	-0.08962341
176	0xbd3c4a3a	-0.045969225
177	0x3dab10a0	0.0835278
178	0xbd322e14	-0.043500975
179	0xbc5a17c2	-0.013311328
180	0x3dd79d34	0.10528031
181	0x3c9702fc	0.01843404
182	0xbd42bdaf	-0.047544178
183	0xbd83c63b	-0.06434294
184	0x3d05e71a	0.0326911
185	0xbd32965b	-0.04360042
186	0x3d4fdbdb	0.05074678
187	0xbdc0b97d	-0.09410379
188	0x3d832190	0.06402886
189	0x3c8fe5e1	0.01756567
190	0x3ba09c26	0.004901427
191	0x3cd8332d	0.02639159
192	0x3de0d5bb	0.10978266
193	0x3d212795	0.03934439
194	0x3d27542e	0.040851764
195	0x3d07baac	0.03313701
196	0x3dbc6ddc	0.092006415
197	0x3d84ee92	0.06490816
198	0xbdc6c940	-0.09706354
199	0xbcfd8a02	-0.030949596
200	0xbd9ddb83	-0.07707884
201	0xbd9a4e4c	-0.07534465
202	0xbd1c05c4	-0.038091436
203	0x3d7632de	0.060107104
204	0xbddca270	-0.1077317
205	0x3d871bcd	0.065970995
206	0x3d827e3e	0.06371735
207	0x3cdd7081	0.027031185
208	0xbd91d978	-0.07121557
209	0xbce772e5	-0.028253028
210	0x3d51be60	0.051206946
211	0x3d357c4f	0.044308003
212	0x3b57fa91	0.0032955746
213	0x3da3b833	0.079941176
214	0x3d7fc58c	0.062444255
215	0x3d1df526	0.03856387
216	0xbd99057c	-0.07471749
217	0xbd82d103	-0.06387522
218	0x3dadd788	0.08488375
219	0xbabb5efb	-0.0014295274
220	0xbdd2795b	-0.10277053
221	0x3d2451b1	0.04011697
222	0x3de1e952	0.110308304
223	0xbdb65381	-0.08902646
224	0x3dc852f5	0.09781448
225	0xbcf51681	-0.029917957
226	0xbde1f8bb	-0.1103377
227	0x3e024b14	0.12723953
228	0x3dbd4761	0.0924213
229	0x3dc695dc	0.09696552
230	0x3de9bbb9	0.114127584
231	0x3de3106e	0.11087118
232	0x3daa8873	0.08326807
233	0x3d0a1f80	0.033721447
234	0x3dbfe82f	0.093704574
235	0xbd0a18ab	-0.03371493
236	0xbdcf8b6d	-0.10134015
237	0x3db811ce	0.08987771
238	0xbc0a84d1	-0.008454517
239	0xbda361c4	-0.07977632
240	0xbd822bde	-0.06356023
241	0x3dc61db6	0.09673636
242	0xbd8b15ce	-0.06791268
243	0xbd24300b	-0.04008488
244	0xbd5a753e	-0.053334467
245	0xbcf46152	-0.029831562
246	0x3dcdd5a5	0.10050515
247	0x3d64fb47	0.0559037
248	0x3c476b52	0.012171583
249	0x3d7d3629	0.06181923
250	0x3d684fa7	0.056716587
251	0x3c1ec2c0	0.009689987
252	0x3db3e914	0.087846905
253	0xbd46af8e	-0.048507266
254	0xbd0cbef2	-0.034361787
255	0x3de232c8	0.11044842

h.0.mha.W_q.bias f4 [64]
0	0x3dfaef04	0.1225262
1	0x3dc4f458	0.09616917
2	0x3e1ce0e0	0.15320158
3	0x3bbcb750	0.0057591572
4	0xbb4f036f	-0.003158774
5	0x3e17883a	0.1479806
6	0xbd080c4b	-0.03321485
7	0x3d7a3254	0.061083153
8	0xbdea2c75	-0.11434261
9	0xbdb94a09	-0.09047324
10	0xbd726d9b	-0.05918656
11	0x3d88d183	0.06680586
12	0x3dbf392c	0.093370765
13	0xbb39bd55	-0.002834161
14	0x3d4838d5	0.048882324
15	0xbcc86e59	-0.02446668
16	0x3e2c4aa3	0.16825347
17	0x3d274294	0.04083498
18	0x3dc6e7a7	0.09712153
19	0xbcb2eeae	-0.021842327
20	0xbdbe5b5f	-0.092947714
21	0x3dfd92bb	0.12381502
22	0x3cd84556	0.02640025
23	0x3dc2d54b	0.09513339
24	0x3d6279d0	0.05529195
25	0x3de6334b	0.11240252
26	0xbc852e3e	-0.016257402
27	0xbdc8ff40	-0.0981431
28	0xbd88164e	-0.06644879
29	0xbe1ffafa	-0.15623084
30	0x3da7b640	0.08189058
31	0x3e0d46e5	0.13796575
32	0xbdde137c	-0.1084356
33	0x3c5a678c	0.013330352
34	0x3d04af37	0.03239366
35	0x3d574ef3	0.052565526
36	0x3cced2e2	0.025247041
37	0x3aea88f6	0.0017893601
38	0xbd1a3c12	-0.037654944
39	0xbd866721	-0.06562639
40	0x3dd2a967	0.10286217
41	0xbda6f05b	-0.08151313
42	0x3ddaba47	0.10680061
43	0x3d0e50d8	0.034745067
44	0x3dfb95fd	0.12284467
45	0x3ddab528	0.10679084
46	0x3e007c73	0.12547474
47	0x3e00b002	0.12567142
48	0xbcc37273	-0.023858285
49	0x3d9b992f	0.07597577
50	0x3e291332	0.16511229
51	0x3deaf60d	0.11472712
52	0xbde45a79	-0.11150069
53	0xbd1e5e95	-0.03866442
54	0xbd5496bc	-0.051901564
55	0xbdcda8bd	-0.1004195
56	0x3e0b1c09	0.13584913
57	0x3cad0d1a	0.021124411
58	0xbda4c5f4	-0.08045569
59	0x3c16dc2b	0.009207766
60	0x3d1c785b	0.038200717
61	0xbd059bd0	-0.032619298
62	0x3d8c9a4e	0.06865369
63	0xbe02e094	-0.12780982

h.0.mha.W_k.weight f4 [64, 64]
0	0x3d27a6a3	0.0409304
1	0xbdce67ff	-0.100784294
2	0xbd69636c	-0.05697958
3	0xbdbc5206	-0.09195332
4	0xbd208556	-0.03918966
5	0xbc2d0349	-0.010559865
6	0x3df8adc6	0.1214252
7	0x3dc832e3	0.09775331
8	0x3d9a565b	0.07536002
9	0xbc8f22ee	-0.01747271
10	0xbc597c9c	-0.013274338
11	0x3de85d3a	0.113459066
12	0xbd11a313	-0.03555591
13	0x3cceabbd	0.025228376
14	0xbc8449fd	-0.016148562
15	0xbd5d22ef	-0.053988393
16	0xbd65acd9	-0.056073043
17	0x3c048000	0.008087158
18	0x3d99dc89	0.07512767
19	0x3db3be88	0.08776575
20	0xbd9f694b	-0.07783755
21	0x3c9c6b3d	0.019094104
22	0xbb7388bb	-0.0037160355
23	0xbd93106b	-0.07180866
24	0x3ddbdde4	0.10735682
25	0xbdfa115f	-0.122103445
26	0x3db2f28a	0.08737667
27	0x3c320cb6	0.010867288
28	0xbc44c803	-0.012010577
29	0x3d495263	0.049150836
30	0x3d9c9a78	0.0764665
31	0x3d8d9038	0.06912273
32	0x3c7ece9b	0.015552188
33	0x3d8601cd	0.06543312
34	0x3d9d84a3	0.07691314
35	0xbdb93124	-0.09042576
36	0x3caab363	0.020837491
37	0xbcda24b6	-0.026628833
38	0x3da56304	0.08075526
39	0x3d8474c7	0.06467586
40	0x3d6c0114	0.057618216
41	0xbc1d3470	-0.009595022
42	0xbd87af79	-0.06625266
43	0xbcbcd686	-0.023051511
44	0xbd9c6986	-0.076373145
45	0xbdd3f78c	-0.1034995
46	0x3d912ed2	0.070890084
47	0x3dae5c66	0.08513717
48	0x3df6e3fd	0.12055204
49	0x3cacb4f5	0.02108238
50	0xbd2f8216	-0.04284867
51	0xbdf7f532	-0.12107314
52	0x3ce8f377	0.028436406
53	0x3d04f271	0.032457773
54	0xbdbf94ce	-0.09354554
55	0xbd1aa286	-0.03775265
56	0x3d834b0a	0.06410797
57	0xbda7f8cd	-0.08201752
58	0x3cd32906	0.025776397
59	0xbcae882b	-0.021305164
60	0xbc6fc1c2	-0.014633598
61	0xbd45b6bd	-0.048269976
62	0xbd877d51	-0.06615699
63	0x3db4cc93	0.08828082
64	0xbd5003e1	-0.05078495
65	0x3cd1805f	0.025573907
66	0xbd04392e	-0.032281093
67	0xbdf445d5	-0.11927382
68	0x3c3f8249	0.011688777
69	0x3cb5c404	0.022188194
70	0x3d5c58c4	0.05379559
71	0xbb561a27	-0.0032669397
72	0x3db5f69e	0.08884929
73	0xbccb2526	-0.024797987
74	0x3d769e48	0.060209543
75	0xbbc62948	-0.0060474016
76	0xbe053efa	-0.13012305
77	0x3d432e7c	0.047651753
78	0xbd4ea8fa	-0.050454117
79	0xbdda86a7	-0.10670214
80	0x3d1fe17c	0.039033398
81	0xbc810a64	-0.015752025
82	0xbd7a4139	-0.061097357
83	0x3d841bc4	0.064506084
84	0xbd7dfcd6	-0.0620087
85	0x3cf1ada2	0.02950174
86	0xbce9f8a2	-0.02856094
87	0x3d2b4a39	0.04181883
88	0x3d79eb31	0.06101531
89	0x3dbad1e3	0.09122064
90	0x3d419857	0.047264423
91	0xbdd75560	-0.10514331
92	0x3da59b9f	0.08086323
93	0xbc706b98	-0.01467409
94	0x3c30448c	0.01075853
95	0x3d5f6126	0.054536007
96	0x3d054094	0.03253229
97	0x3cd65cd2	0.026167307
98	0x3daf8612	0.08570494
99	0x3d998ffe	0.074981675
100	0x3d8dfaf1	0.06932629
101	0xbde03f59	-0.109495826
102	0x3cf148d4	0.029453672
103	0xbd87fe2f	-0.066402785
104	0xbd5cfe62	-0.053953536
105	0xbd8bb928	-0.06822425
106	0xbd71dba2	-0.05904735
107	0xbc4adbbf	-0.012381493
108	0x3e00c149	0.12573732
109	0xbc1fb70d	-0.009748233
110	0x3be5def7	0.007015105
111	0xbdd41cf8	-0.10357088
112	0xbe114eae	-0.1419017
113	0xbe03852f	-0.12843774
114	0x3c5a5c98	0.01332774
115	0x3d7cc544	0.061711565
116	0xbd9e506c	-0.07730183
117	0xbdf21bb6	-0.11821692
118	0xbdeb9e6b	-0.11504825
119	0xbdcbd27c	-0.09952256
120	0x3d98ef15	0.07467476
121	0xbd8a0998	-0.06740111
122	0xbd8f32fe	-0.06992148
123	0xbc211edc	-0.009834018
124	0xbe111a06	-0.14170083
125	0xbd415545	-0.04720046
126	0xbd3d9760	-0.04628694
127	0x3d9c429d	0.07629893
128	0xbded6b85	-0.11592773
129	0xbd9082af	-0.07056176
130	0xbd5da8f9	-0.054116223
131	0x3dcc7caa	0.09984715
132	0x3da23053	0.07919373
133	0x3cdc32f9	0.026879774
134	0x3df68d94	0.12038723
135	0x3d4839c2	0.048883207
136	0xbaa66af7	-0.0012696673
137	0xbd1a655b	-0.037694316
138	0x3d93cf06	0.07217221
139	0x3b5437c8	0.003238188
140	0xbde04d15	-0.10952202
141	0xbc90c8ed	-0.017673934
142	0xbc127bfa	-0.008940691
143	0xbcc628c0	-0.024189353
144	0xbd288310	-0.041140616
145	0xbc9e7d25	-0.019346783
146	0x3d457f05	0.04821684
147	0xbd43db65	-0.047816653
148	0xbc92b1bb	-0.017907014
149	0xbd099b20	-0.033595204
150	0xbdd39e70	-0.10332954
151	0x3d918998	0.07106322
152	0xbdbceb38	-0.09224552
153	0x3dd9f63f	0.10642671
154	0x3db45387	0.08804994
155	0x3d6920f4	0.056916192
156	0xbd85fe40	-0.06542635
157	0xbd2014f3	-0.03908248
158	0x3db75dc9	0.08953435
159	0x3d7b6ebb	0.061384898
160	0xbd1a713c	-0.037705645
161	0x3da20096	0.07910268
162	0x3d8bcd44	0.06826261
163	0xbca4389d	-0.020046527
164	0xbd10fe9f	-0.035399076
165	0x3d8854be	0.06656788
166	0xbd28dea5	-0.041227955
167	0x3cd39720	0.025828898
168	0x3d93e2a8	0.072209656
169	0xbdcd157e	-0.10013865
170	0x3dc9a065	0.09845046
171	0xbd5cd63a	-0.05391524
172	0x3ca6710d	0.020317579
173	0x3d1ef3c1	0.03880668
174	0xbba1deb0	-0.0049398765
175	0x3d2d544f	0.04231673
176	0xbd38a4f4	-0.045079187
177	0x3d56f980	0.052484035
178	0x3cf5de79	0.03001331
179	0xbcf3e316	-0.029771369
180	0xbdc77b6e	-0.09740339
181	0xbdf4fb77	-0.119620256
182	0xbdfdf8cc	-0.1240097
183	0xbd175742	-0.03694845
184	0x3d017a8d	0.031611014
185	0xbd9aa3ef	-0.07550799
186	0x3ad71535	0.0016409518
187	0x3ddbab13	0.10725989
188	0x3d3cb422	0.046070226
189	0x3db16b8e	0.086630926
190	0xbd63865b	-0.055548053
191	0x3da169b1	0.07881487
192	0xbd708696	-0.0587221
193	0xbc9e3ffd	-0.019317621
194	0x3da5fe4d	0.08105145
195	0x3da0262e	0.07819782
196	0x3da1762c	0.078838676
197	0xbd7b28b6	-0.06131812
198	0xbd8e88a4	-0.06959656
199	0xbb5feb2a	-0.0034167268
200	0x3d7a5dd7	0.06112465
201	0xbd4b6973	-0.04966111
202	0xbc8873e0	-0.016656816
203	0xbda920b7	-0.08258193
204	0xbe041d01	-0.12901689
205	0xbb9b24ae	-0.004734597
206	0x3cd6158a	0.026133318
207	0x3d0cd667	0.034384158
208	0xbd410d67	-0.047131922
209	0x3d8c5bd7	0.068534546
210	0x3da863e8	0.082221806
211	0x3db5ff8a	0.08886631
212	0xbc8dc7c8	-0.017307177
213	0x3d60c3cb	0.054874223
214	0x3b2c2ca9	0.0026271737
215	0x3d629c87	0.055325057
216	0x3d476018	0.048675627
217	0xbdd28680	-0.1027956
218	0x3d17fa3c	0.037103876
219	0xbd71460b	-0.05890469
220	0x3cdac71a	0.026706267
221	0x3d31ba9c	0.043390855
222	0xbda17eab	-0.07885488
223	0x3d9f3c13	0.0777513
224	0xbd872d80	-0.06600475
225	0xbdb01640	-0.08597994
226	0x3d0a464b	0.033758443
227	0x3d9f35e6	0.07773952
228	0x3ce1e948	0.027577057
229	0x3ba6f5b7	0.0050952095
230	0x3d884326	0.066534325
231	0x3dad5d1f	0.08465027
232	0x3ca84704	0.020541675
233	0x3dbd917d	0.09256265
234	0xbd03bb16	-0.03216084
235	0x3dfd5969	0.12370569
236	0x3d617cd8	0.0550507
237	0xbc8565b0	-0.01628384
238	0x3db1fada	0.08690424
239	0xbd812e31	-0.063076384
240	0xbda7feae	-0.08202873
241	0x3d029c94	0.031887606
242	0x3d68501d	0.056717027
243	0xbda2813c	-0.07934806
244	0xbd59f152	-0.053208657
245	0x3da01bf7	0.07817834
246	0xbc94df09	-0.018172758
247	0xbdf07dde	-0.11742757
248	0x3e0b4a14	0.13602477
249	0x3a9099a9	0.0011032122
250	0x3d3a042e	0.045414142
251	0xbd73aca7	-0.059490826
252	0xbd4d07d2	-0.050056286
253	0x3b8ee7c9	0.004361127
254	0xbdcf7a47	-0.101307444
255	0x3df6c694	0.120495945

h.0.mha.W_k.bias f4 [64]
0	0xbd39c9a8	-0.04535833
1	0x3dc558ea	0.096361
2	0xbd6a1c68	-0.057155997
3	0x3e0a1989	0.13486303
4	0x3d7eaa9b	0.06217442
5	0x3d3ef36d	0.046618868
6	0xbd1897ec	-0.03725426
7	0xbd1a8a03	-0.037729274
8	0xbd9b1c7b	-0.075737916
9	0xbb7adf10	-0.0038279928
10	0x3e2ed63c	0.17073911
11	0xbe0388c6	-0.12845144
12	0x3d98b818	0.07456988
13	0xbd0e42b2	-0.034731574
14	0xbe10c427	-0.14137326
15	0xbdf56419	-0.11981983
16	0x3d4931e0	0.04911983
17	0xbdc5e767	-0.09663277
18	0x3c9dc788	0.019260183
19	0x3d91942a	0.07108338
20	0x3d911a5e	0.07085107
21	0xbd9159d8	-0.070972145
22	0x3d555881	0.052086357
23	0x3d992692	0.0747806
24	0x3dacdac3	0.08440163
25	0x3de1e451	0.11029876
26	0x3e01675c	0.12637085
27	0xbd1fef0c	-0.039046332
28	0xbd9f6ade	-0.07784055
29	0x3dc824f0	0.0977267
30	0xbd9142a4	-0.07092789
31	0xbd26d431	-0.040729705
32	0xbc9bf884	-0.0190394
33	0xbdbda581	-0.09260083
34	0xbdb9e54a	-0.090769365
35	0x3daab377	0.083350115
36	0x3dcdc760	0.100477934
37	0xbdb5dfbd	-0.08880565
38	0xbd347d40	-0.04406476
39	0xbc8b6067	-0.017013742
40	0xbc2c32dd	-0.010510174
41	0xbd7cd010	-0.06172186
42	0x3d08e6f2	0.03342337
43	0x3d2bdb62	0.041957267
44	0xbd675d69	-0.056485567
45	0xbdb9f819	-0.09080524
46	0x3dbe8177	0.09302037
47	0x3bd02a2d	0.006352684
48	0x3c3aa683	0.011392239
49	0x3ce69a21	0.028149666
50	0xbc109e79	-0.008826845
51	0xbda79446	-0.08182578
52	0xbdd0ddea	-0.10198577
53	0xbdc20dc9	-0.094752856
54	0xbbe61321	-0.0070213233
55	0x3d6af39d	0.057361234
56	0x3ce53fda	0.027984548
57	0x3d87960c	0.06620416
58	0x3db22f76	0.08700459
59	0xbcb43906	-0.021999847
60	0x3d8cd38a	0.068762854
61	0xbd0f2aa2	-0.034952767
62	0xbcf9813a	-0.030457128
63	0xbd33518d	-0.043778945

h.0.mha.W_v.weight f4 [64, 64]
0	0x3de7b36a	0.113135174
1	0x3d5d17f7	0.053977933
2	0x3db6a905	0.08918957
3	0xbd8f8697	-0.07008093
4	0x3e0036f7	0.12520967
5	0x3cb7ef8d	0.022453094
6	0xbd97ac51	-0.074059136
7	0x3d8f3e4b	0.06994303
8	0xbdd0fe24	-0.102047235
9	0xbc03697f	-0.008020758
10	0xbdcb03d6	-0.09912841
11	0x3d869151	0.06570686
12	0xbde7f7c9	-0.11326558
13	0xbd401320	-0.04689324
14	0x3d0ed343	0.034869444
15	0xbd002f01	-0.031294826
16	0x3d8635b8	0.06553215
17	0x3e068136	0.13135228
18	0x3dbf0b71	0.09328354
19	0x3d285901	0.041100506
20	0x3d159411	0.03651816
21	0xbd9994b0	-0.07499063
22	0x3dcc967f	0.09989642
23	0xbe0d297f	-0.13785361
24	0xbbee00a2	-0.007263259
25	0x3c97bec1	0.018523576
26	0xbe05f942	-0.13083366
27	0x3db8f665	0.09031371
28	0x3db92c6d	0.09041677
29	0xbd933bc1	-0.071891315
30	0x3da6bbd8	0.08141297
31	0xbde4696c	-0.1115292
32	0xbda4f90d	-0.08055315
33	0xbdc8fd2d	-0.098139144
34	0x3dd9a177	0.106265
35	0x3d827a7d	0.06371019
36	0xbd89a85c	-0.06721565
37	0xbda4ebdc	-0.08052799
38	0x3d0b1f29	0.033965264
39	0x3df1118e	0.117709264
40	0xbd2c5d89	-0.04208139
41	0x3b969766	0.004595685
42	0xbd279343	-0.040911924
43	0xbdf860c0	-0.121278286
44	0x3db00575	0.08594791
45	0x3d5172a2	0.051134713
46	0x3d95eef2	0.07320966
47	0x3d90f9b4	0.07078877
48	0x3c830b94	0.015996732
49	0xbd338d91	-0.04383618
50	0x3ddb71bd	0.10715053
51	0xbc9d3cef	-0.019194094
52	0xbdac0430	-0.08399236
53	0xbd97e6c2	-0.074170604
54	0xbbac6c88	-0.0052619614
55	0x3d9862e4	0.07440737
56	0x3dbdad99	0.09261627
57	0xbbfac758	-0.007653158
58	0xbd293bbb	-0.04131673
59	0x3cedf12e	0.029045667
60	0x3d933798	0.07188338
61	0xbde71998	-0.112841785
62	0xbc348216	-0.011017343
63	0xbdfae3e1	-0.12250496
64	0xbd25e1d7	-0.04049858
65	0xbb166022	-0.0022945483
66	0x3b95b06c	0.0045681503
67	0xbe06e4e1	-0.13173248
68	0x3d55d965	0.052209277
69	0xbbf8f119	-0.0075971005
70	0x3bf7f0c4	0.0075665433
71	0xbd4c49ca	-0.04987506
72	0xbaea48c1	-0.0017874466
73	0x3c94c138	0.01815854
74	0xbd209e4b	-0.03921346
75	0x3d2421e9	0.0400714
76	0xbd26adca	-0.040693082
77	0x3c0219cd	0.007940722
78	0x3c042c2a	0.00806717
79	0xbd6351b6	-0.055497847
80	0x3d84e3ca	0.0648876
81	0xbd0b73e4	-0.03404607
82	0x3dc768bf	0.097367756
83	0xbbad4a57	-0.005288403
84	0x3de85d80	0.11345959
85	0xbdaaef9f	-0.08346485
86	0x3dc8f09a	0.09811516
87	0xbd01fac2	-0.031733282
88	0x3db86291	0.09003175
89	0x3b2694c3	0.0025418259
90	0xbdaee27a	-0.08539291
91	0xbdcdbbbc	-0.10045573
92	0x3d0c290b	0.03421883
93	0xbd1c5be0	-0.038173556
94	0x3de9ab63	0.114096425
95	0x3d8fd764	0.070235044
96	0x3dccc157	0.09997814
97	0x3dae03b1	0.08496798
98	0xbdbe4079	-0.09289641
99	0x3bcdcb0a	0.0062803077
100	0xbd23568e	-0.039877467
101	0x3d1d5d08	0.0384188
102	0x3dd838ff	0.10557746
103	0x3de52d69	0.11190302
104	0xbd2205e9	-0.039556418
105	0x3de59600	0.11210251
106	0x3c4518df	0.0120298555
107	0x3e0562d8	0.13025987
108	0x3db96842	0.09053089
109	0xbd5a9f18	-0.05337438
110	0x3d872dee	0.06600557
111	0xbd414a27	-0.047189858
112	0x3c5cafc1	0.013469637
113	0x3d44a683	0.04801036
114	0xbde4ca80	-0.11171436
115	0xbd3d086b	-0.046150606
116	0xbd49d9a1	-0.049279813
117	0x3d94aaaf	0.07259118
118	0x3da1ccb7	0.079003744
119	0x3c28b680	0.010297418
120	0x3dc7dae6	0.097585484
121	0x3ba0cc6e	0.0049071824
122	0x3ccfe139	0.02537595
123	0xbd404028	-0.046936184
124	0xbdd25872	-0.10270776
125	0xbd14a81d	-0.036293138
126	0x3d3fb87f	0.04680681
127	0x3d69b927	0.05706134
128	0x3d8a015a	0.06738539
129	0xbd866715	-0.0656263
130	0xbbeefa69	-0.007293035
131	0x3dde2fce	0.10848962
132	0xbd5fcdb7	-0.054639544
133	0x3ce9733d	0.028497333
134	0xbc1ce79e	-0.009576706
135	0xbcf05745	-0.029338488
136	0x3c235d24	0.009970937
137	0x3d78d0e9	0.060746107
138	0x3d84f373	0.06491747
139	0x3a08ac7d	0.0005213691
140	0x3d66ef41	0.056380514
141	0x3d7e8b4f	0.062144574
142	0x3c17d090	0.009266034
143	0xbdbf0e24	-0.09328869
144	0x3da3dc8e	0.08001052
145	0x3d73f3a2	0.05955852
146	0xbd836dac	-0.064174026
147	0x3d765e65	0.060148615
148	0xbd3c4f6e	-0.045974188
149	0xbdab56a4	-0.08366135
150	0x3d169c26	0.03677001
151	0x3d992654	0.07478014
152	0xbd40c13b	-0.04705928
153	0xbd5e48cc	-0.054268643
154	0xbd0b3bde	-0.03399264
155	0xbd9783e8	-0.07398206
156	0xbd386c8c	-0.045025393
157	0x3db120b1	0.086488135
158	0xbde2dae3	-0.110769056
159	0xbd256fbb	-0.040389758
160	0xbd237747	-0.039908674
161	0xbd018c96	-0.031628214
162	0xbc8dff80	-0.017333746
163	0xbc8aa258	-0.016923115
164	0x3d202fc6	0.03910806
165	0xbcb61797	-0.022228045
166	0x3dd65f90	0.10467446
167	0x3d871d1b	0.06597348
168	0x3cacb413	0.02108196
169	0xbd5a2eb9	-0.053267214
170	0xbcfc3e9c	-0.030791573
171	0xbdd49bbe	-0.10381268
172	0xbd496d5e	-0.049176566
173	0x3d88e30d	0.066839315
174	0x3d7cd724	0.06172861
175	0x3df830c3	0.121186756
176	0x3c4e54fc	0.012593504
177	0xbdf91288	-0.12161738
178	0xbd5842c1	-0.052798036
179	0x3d2fda80	0.042932987
180	0x3d145a87	0.036219146
181	0x3bfe3ce2	0.0077587226
182	0xbd5b0dc1	-0.053479914
183	0xbde7db33	-0.11321106
184	0xbdc58d9b	-0.0964615
185	0x3dbcd57f	0.09220409
186	0x3dcebbf6	0.100944445
187	0x3db1f772	0.086897746
188	0x3de0c042	0.1097417
189	0x3dabb0af	0.08383309
190	0x3df54880	0.11976719
191	0x3c902f43	0.017600661
192	0x3d77bd52	0.060483284
193	0x3c6e5a60	0.014547914
194	0x3d7e83ad	0.062137295
195	0x3dc96a4b	0.09834727
196	0xbda019b0	-0.078173995
197	0xbd3049f8	-0.043039292
198	0xbd74007b	-0.05957077
199	0x3ddd8a2f	0.10817372
200	0x3e1690f1	0.14703728
201	0x3e071923	0.13193183
202	0x3dd9f3c7	0.106422
203	0xbb690fa1	-0.0035562294
204	0xb9f84dc1	-0.00047360177
205	0xbdbaff57	-0.091307335
206	0x3db537df	0.08848547
207	0xbd23fedc	-0.040037975
208	0xbcc574c3	-0.024103528
209	0x3d6a6f2a	0.05723492
210	0xbc167617	-0.009183428
211	0x3cf207cd	0.029544735
212	0xbe077af2	-0.13230494
213	0xbe0a5655	-0.13509496
214	0x3c8f3fc5	0.017486462
215	0xbd74a1a4	-0.059724465
216	0x3ddea284	0.10870841
217	0xbdfcb5a0	-0.1233933
218	0xbd88d021	-0.066803224
219	0xbd87b882	-0.06626989
220	0xbdc916be	-0.09818791
221	0x3ca2dba9	0.019880133
222	0x3de0e8d5	0.10981909
223	0xbdfeb301	-0.12436486
224	0xbe04c5a2	-0.12966016
225	0xbd47ddec	-0.048795626
226	0x3d4e9f0c	0.050444648
227	0x3d9884a7	0.074471764
228	0x3d6af9f7	0.05736729
229	0xbdfe3c4d	-0.12413845
230	0xbdaf1f03	-0.08550837
231	0x3dae4091	0.08508409
232	0xbbd85f23	-0.006603138
233	0x3cf51d65	0.029921243
234	0x3db0aebd	0.08627079
235	0xbe1b849c	-0.15187305
236	0x3cfd1adf	0.030896602
237	0xbdcfe4a0	-0.10151029
238	0xbc0d500b	-0.008625041
239	0xbd849d4c	-0.064753145
240	0xbdb3d25a	-0.08780356
241	0xbb3e131c	-0.002900309
242	0xbd225598	-0.03963241
243	0xbddf3d10	-0.109003186
244	0xbd6108f0	-0.054940164
245	0xbaede6a5	-0.0018150402
246	0x3cbfbb92	0.02340487
247	0xbd6c37d0	-0.057670414
248	0xbd60654f	-0.054784115
249	0xbda766eb	-0.08173927
250	0xbd48efc8	-0.0490568
251	0x3d96b1e2	0.07358147
252	0x3d39b382	0.045337208
253	0x3cd18d7f	0.025580166
254	0xbc04875d	-0.008088914
255	0xbc205c6b	-0.009787659

h.0.mha.W_v.bias f4 [64]
0	0xbd38d0bf	-0.04512095
1	0x3d0b5096	0.0340124
2	0xbc26b3c2	-0.010174694
3	0x3d20581e	0.039146535
4	0xbe010792	-0.12600544
5	0xbd951cda	-0.072808936
6	0xbb3f26e5	-0.002916747
7	0xbe02b4d3	-0.12764291
8	0xbd75b0c8	-0.059983045
9	0xbd9873c8	-0.074439585
10	0xbd25c37c	-0.04046963
11	0xbe252cbd	-0.16130348
12	0x3e09ec83	0.13469128
13	0x3d8c03f8	0.068366945
14	0xbe062fb0	-0.13104129
15	0x3baeecb4	0.005338276
16	0xbc714bf6	-0.014727583
17	0xbdd9885c	-0.106217116
18	0xbdc020ff	-0.093812935
19	0xba953c9e	-0.0011385863
20	0xbd2355b0	-0.03987664
21	0xbd8ebf5a	-0.06970091
22	0x3d0be891	0.03415734
23	0xbcb4d08d	-0.022072101
24	0xbc927b74	-0.017881133
25	0x3e15f21f	0.14643143
26	0x3e0ce0c6	0.1375762
27	0xbc8365f7	-0.016039832
28	0x3d1a7e1d	0.037717927
29	0x3e185fd2	0.14880303
30	0x3c8f5e0e	0.017500903
31	0x3e20c958	0.15701807
32	0xbe075711	-0.13216807
33	0x3da3f4d5	0.080056824
34	0x3dea4f2c	0.11440882
35	0x3d90bb5c	0.07066986
36	0x3dc92f9b	0.09823533
37	0x3e060f1c	0.13091701
38	0x3d6f495d	0.058419574
39	0xbd476b84	-0.04868652
40	0xbdf51c3f	-0.11968278
41	0x3cfa9e9f	0.030593215
42	0x3da62068	0.0811165
43	0xbd8a2363	-0.06745031
44	0xbdec359e	-0.11533664
45	0xbc657b4b	-0.014006446
46	0xbdb8425f	-0.08997034
47	0xbd73b92c	-0.059502766
48	0xbde1d1ca	-0.11026342
49	0x3d604aa9	0.0547587
50	0xbe1673b9	-0.14692582
51	0xbd68c719	-0.0568305
52	0xbe150c54	-0.14555484
53	0xbe019fe2	-0.12658647
54	0x3dbf5f18	0.093443096
55	0x3dc5d787	0.09660249
56	0xbddfeb26	-0.10933523
57	0xbd8919e5	-0.06694392
58	0xbe074c6e	-0.1321275
59	0x3dbbb971	0.091662295
60	0x3e1ed91b	0.15512507
61	0xbe22db64	-0.15904003
62	0xbbc8a4ab	-0.0061231456
63	0xbcf8f2a3	-0.030389136

h.0.mha.W_o.weight f4 [64, 64]
0	0xbe03f27f	-0.12885474
1	0xbdac8c1d	-0.08425162
2	0x3dd3cc17	0.103416614
3	0xbd4ad529	-0.04951969
4	0x3d90c656	0.070690796
5	0xbdd192e7	-0.102330975
6	0x3cfb186a	0.03065129
7	0xbc1b7b06	-0.00948978
8	0x3d840b5c	0.06447479
9	0xbaf859a8	-0.0018947618
10	0xbd9b52e0	-0.075841665
11	0x3c414e33	0.011798429
12	0xbd6410ef	-0.05568021
13	0x3ca27a88	0.019833818
14	0xbd12f1bb	-0.035875063
15	0xbd44e8a8	-0.04807344
16	0x3d914111	0.070924886
17	0xbd9d4d6c	-0.07680783
18	0xbdde7ee7	-0.108640485
19	0xbc77b284	-0.015118245
20	0xbe159d26	-0.14610729
21	0xbd812a80	-0.06306934
22	0x3de0461f	0.109508745
23	0xbe0776df	-0.1322894
24	0xbd1abf02	-0.037779815
25	0x3cfabc0a	0.030607242
26	0x3d300a91	0.042978827
27	0xbcf5d849	-0.03001036
28	0xbdb2c4ea	-0.087289646
29	0x3c9df3e1	0.01928133
30	0xbd9e2451	-0.077217706
31	0xbd8f96ce	-0.070111856
32	0xbdbde664	-0.09272459
33	0xbcb0ce0d	-0.021582628
34	0xbe03f6b2	-0.12887076
35	0xbc467e35	-0.012115051
36	0xbd18567b	-0.03719185
37	0x3dec9223	0.11551311
38	0xbb93b463	-0.0045075878
39	0x3e048607	0.12941752
40	0x3e21748b	0.15767114
41	0x3c6ce72a	0.014459411
42	0x3d1c0c2d	0.03809755
43	0xbd1f3755	-0.038871128
44	0xbdb0bf54	-0.08630243
45	0xbda475f9	-0.08030314
46	0x3c50ece2	0.01275179
47	0xbde2d444	-0.11075643
48	0x3e1e4ad0	0.15458226
49	0xbc91b1cc	-0.017784975
50	0x3d8cf5d4	0.068828255
51	0xbd3713dd	-0.044696677
52	0xbd688ae9	-0.0567731
53	0x3d8a17a9	0.06742794
54	0xbdd8afed	-0.1058043
55	0x3d5699a7	0.052392628
56	0xbcf1f549	-0.029535906
57	0x3da8fcfb	0.08251377
58	0x3cf01ea0	0.029311478
59	0x3c47da8e	0.012198104
60	0xbe04aacd	-0.1295578
61	0xbcc537b3	-0.024074411
62	0x3d927258	0.071507156
63	0x3dfb0764	0.12257269
64	0x3df9a9c9	0.12190587
65	0x3c449c29	0.012000122
66	0x3d0ffbfb	0.035152417
67	0x3db438a0	0.08799863
68	0x3d837fe1	0.06420875
69	0xbdda0a41	-0.10646487
70	0x3c2bb98d	0.0104812505
71	0xbdfbaf73	-0.12289324
72	0x3d947e0a	0.072506025
73	0xbbc8ffed	-0.0061340244
74	0x3db659f0	0.08903873
75	0xbe0738d7	-0.13205276
76	0x3e003247	0.1251918
77	0xbdad0dd9	-0.08449907
78	0xbb763c31	-0.0037572498
79	0x3e0ef6ab	0.13961284
80	0xbd534d77	-0.051587548
81	0x3a18b037	0.0005824598
82	0x3dad37fe	0.08457945
83	0xbcd1252f	-0.025530426
84	0x3d2815dd	0.041036475
85	0xbdec2ba5	-0.11531762
86	0x3cb941e6	0.02261443
87	0x3dc6cb0b	0.09706696
88	0x3cb5439f	0.02212697
89	0xbceb95c4	-0.028757937
90	0x3d58baa0	0.052912354
91	0xbc8a9291	-0.016915591
92	0xbd2d2783	-0.04227401
93	0x3cbfb375	0.023401001
94	0x3da5c452	0.08094086
95	0xbd90f593	-0.070780896
96	0x3d007928	0.031365544
97	0xbd954f49	-0.07290513
98	0x3d9f5b9e	0.077811465
99	0x3df57b2a	0.11986382
100	0x3d70ee80	0.0588212
101	0x3db8110f	0.08987629
102	0xbd7c05cf	-0.061528977
103	0x3d9e7a95	0.077382244
104	0xbc8adbd1	-0.01695052
105	0x3de79297	0.11307257
106	0x3d97c271	0.07410134
107	0x3dad5032	0.08462562
108	0xbdd64ee1	-0.10464264
109	0xbd626070	-0.05526775
110	0x3dea146b	0.11429676
111	0xbc73084b	-0.01483352
112	0x3d991bcf	0.07476007
113	0x3ca3dea8	0.020003632
114	0xbdbde150	-0.092714906
115	0xbd708949	-0.058724675
116	0xbd94c8d1	-0.07264865
117	0x3dd056fb	0.1017284
118	0xbcd8958b	-0.026438495
119	0x3c88143d	0.016611213
120	0x3c190717	0.009340069
121	0xbba6c382	-0.0050892243
122	0xbdcbb5ed	-0.09946809
123	0xbcf173a8	-0.029474095
124	0xbd2b4475	-0.041813333
125	0xbdbc2e0a	-0.09188469
126	0x3d0b7f1e	0.034056775
127	0x3a871be2	0.0010307992
128	0x3d98ba7c	0.07457444
129	0x3deb8196	0.11499326
130	0x3b134054	0.0022468762
131	0x3d612911	0.054970805
132	0xbbf301cf	-0.007415987
133	0x3d0e08ab	0.034676235
134	0x3ce89e69	0.028395848
135	0xbd3d939b	-0.046283346
136	0xbdd6593d	-0.104662396
137	0x3c5aed0f	0.013362183
138	0x3c09cdfa	0.008410925
139	0xba41006b	-0.0007362428
140	0x3cb9b0f2	0.022667382
141	0x3e007efc	0.1254844
142	0x3df6c28c	0.120488256
143	0xbd85d0b4	-0.065339476
144	0x3da9b7d1	0.08287013
145	0x3ba6bde5	0.005088555
146	0x3d7278be	0.05919718
147	0x3db7b729	0.08970482
148	0xbe103d92	-0.14085987
149	0xbd4303f2	-0.047611184
150	0xbdf2113b	-0.11819693
151	0x3dc72f1f	0.097257845
152	0x3dbc39db	0.091907226
153	0xbcafcde9	-0.02146049
154	0xbda745fa	-0.08167644
155	0x3cbadd4b	0.022810599
156	0x3bce5d0b	0.0062977127
157	0xbd4a41b9	-0.049379084
158	0xbd432ef8	-0.047652215
159	0x3d034b2b	0.032054108
160	0xbd93b010	-0.07211316
161	0x3da4cf28	0.080473244
162	0x3ac42356	0.0014964144
163	0x3cbd8514	0.023134746
164	0x3dc57436	0.09641306
165	0xbca5a46f	-0.02022001
166	0x3dcceb03	0.100057624
167	0xbdabbcee	-0.08385645
168	0xbb3e4e83	-0.0029038496
169	0xbd1f542f	-0.038898643
170	0x3c15df41	0.009147466
171	0x3dda2140	0.10650873
172	0x3d767e53	0.060179066
173	0xbc3ceeda	-0.011531556
174	0xbdcf2479	-0.101143785
175	0x3df7e296	0.12103765
176	0x3cf5d256	0.030007523
177	0xbd3c41d7	-0.045961227
178	0x3d949257	0.072544746
179	0xbbde884b	-0.0067911497
180	0x3cf268e2	0.029591028
181	0xbd8e3fd5	-0.06945769
182	0xbce42452	-0.02784935
183	0xbca44596	-0.020052712
184	0xbd7326c0	-0.059363127
185	0xbd33eeba	-0.04392884
186	0x3d810bf9	0.06301112
187	0x3da959ab	0.08269056
188	0x3c15bf6b	0.009139876
189	0x3d908432	0.07056464
190	0xbdfbca04	-0.12294391
191	0x3d67f343	0.056628477
192	0x3b7d3b0b	0.0038639929
193	0xbd99c30b	-0.075079046
194	0xbcf45d73	-0.029829716
195	0x3e027d5e	0.12743136
196	0xbd81c3fd	-0.0633621
197	0xbde0e10f	-0.109804265
198	0x3de9d738	0.11418003
199	0x3d098a8a	0.033579387
200	0x3cafe725	0.021472523
201	0x3d0ece54	0.03486474
202	0x3dac9138	0.08426136
203	0x3d9d2a47	0.076740794
204	0xbdcb270e	-0.099195585
205	0xbd613e1d	-0.054990876
206	0xbd7106ed	-0.058844496
207	0x3d6133bb	0.054980975
208	0xbd382327	-0.0449554
209	0xbb62ca6f	-0.0034605523
210	0x3dcbbee4	0.09948519
211	0xbdb9f3c1	-0.090796955
212	0xbdbcdcab	-0.092217766
213	0x3dd8e3fb	0.10590359
214	0x3d2d5b88	0.04232362
215	0x3d5552bb	0.05208085
216	0xbdce017d	-0.100588776
217	0x3d78b653	0.060720753
218	0x3dc634c7	0.09678035
219	0x3d5f2e49	0.0544875
220	0xbdafb651	-0.08579696
221	0xbded1644	-0.115765125
222	0x3d738ee4	0.059462443
223	0xbb6ad14f	-0.0035830324
224	0xbdf020cc	-0.117250055
225	0x3d755759	0.059897754
226	0xbca0160b	-0.01954176
227	0x3d326c93	0.043560576
228	0x3e018037	0.12646566
229	0x3da185c9	0.078868456
230	0xbda19fa8	-0.0789178
231	0x3da20ade	0.07912229
232	0xbdc9926c	-0.09842381
233	0x3d1ce30b	0.038302463
234	0x3ddb3490	0.10703385
235	0x3dd7ac54	0.10530916
236	0xbd11b23e	-0.035570376
237	0x3d8788bf	0.06617879
238	0x3db5a779	0.088698335
239	0x3cb54dc8	0.022131816
240	0xbe120a69	-0.14261784
241	0x3cded852	0.027202759
242	0xbd99f015	-0.07516495
243	0xbd8284c9	-0.06372983
244	0xbcb67ab8	-0.022275314
245	0xbba632fc	-0.005071996
246	0x3cb84409	0.02249338
247	0xbd47e4bd	-0.048802126
248	0x3d0ff628	0.035146862
249	0x3d950aa2	0.07277419
250	0xbddf4be2	-0.109031454
251	0xbb7d6544	-0.0038665095
252	0x3d4a982e	0.049461536
253	0xbdb0ef66	-0.08639412
254	0xbd9d38b2	-0.076768294
255	0x3cf25c6e	0.02958509

h.0.mha.W_o.bias f4 [64]
0	0xbe024efe	-0.12725446
1	0x3d7c1766	0.061545752
2	0x3dc44299	0.09583015
3	0xbd7ecd96	-0.06220778
4	0x3e0e24e3	0.13881259
5	0xbdb19b28	-0.08672172
6	0xbd8c8595	-0.06861416
7	0x3d97cb89	0.07411868
8	0xbcf8e301	-0.030381681
9	0x3e00de15	0.12584718
10	0xbd8a5395	-0.06754223
11	0x3ce5573f	0.027995704
12	0xbd9777dc	-0.07395908
13	0x3dfe7d77	0.12426274
14	0xbcc8b4a3	-0.024500197
15	0x3e142575	0.14467414
16	0x3d738bb6	0.05945941
17	0x3d1536a9	0.03642908
18	0x3dc6808d	0.09692488
19	0xbd24bca0	-0.04021895
20	0xbda806be	-0.08204411
21	0x3d9b583a	0.07585187
22	0xbd243475	-0.04008909
23	0x3da60239	0.08105893
24	0xbd82cf0b	-0.063871466
25	0x3dc08897	0.094010524
26	0x3d4b4723	0.049628388
27	0xbd4c6df4	-0.049909547
28	0xbd5a9d7c	-0.053372845
29	0x3dd77ead	0.10522208
30	0x3b840f54	0.0040301476
31	0x3da6b164	0.08139303
32	0x3df39b16	0.11894815
33	0xbde171cd	-0.11008034
34	0xbdb75374	-0.08951464
35	0x3dd211e0	0.10257316
36	0xbb5950e9	-0.0033159798
37	0xbde7afaf	-0.11312806
38	0xbdc920a1	-0.098206766
39	0x3d54d9a7	0.051965382
40	0xbd958aaf	-0.073018424
41	0xbcc3a647	-0.023882998
42	0xbe0db49c	-0.13838428
43	0xbdb7eb36	-0.0898041
44	0xbdda6bc9	-0.1066509
45	0x3d67febf	0.05663943
46	0xbcc63b36	-0.024198156
47	0x3d03ec4a	0.032207765
48	0xbd746841	-0.059669737
49	0x3d522d97	0.05131301
50	0x3dfc54fa	0.123208955
51	0x3a530d58	0.00080509996
52	0xbdd5aaf4	-0.10432997
53	0x3d1b3e6e	0.037901334
54	0x3d20d177	0.03926226
55	0xbe132efe	-0.14373395
56	0x3d90c8e1	0.070695646
57	0x3d36dcb0	0.044644058
58	0x3df8f186	0.12155442
59	0x3cf89d93	0.030348575
60	0xbda4f39d	-0.08054278
61	0x3c2e9087	0.010654575
62	0x3e1fa421	0.15589954
63	0xbcfd1609	-0.030894296

h.0.ln_1.weight f4 [64]
0	0x3f79d8c6	0.97596395
1	0x3f7cd22e	0.9875821
2	0x3f80f4fa	1.0074761
3	0x3f8569dd	1.0422932
4	0x3f8564e3	1.0421413
5	0x3f7c0734	0.9844849
6	0x3f80b5dc	1.0055499
7	0x3f781cae	0.9691876
8	0x3f8093d3	1.0045112
9	0x3f79e063	0.9760801
10	0x3f808971	1.0041944
11	0x3f83261d	1.0246006
12	0x3f80e2e8	1.0069246
13	0x3f825b90	1.0184193
14	0x3f801381	1.0005952
15	0x3f820fee	1.0161111
16	0x3f80ded2	1.0067999
17	0x3f7dd1ef	0.9914846
18	0x3f7f46fe	0.997177
19	0x3f80f665	1.0075194
20	0x3f7cfc99	0.98822933
21	0x3f7bce5d	0.9836176
22	0x3f7c7054	0.986089
23	0x3f859b08	1.0437937
24	0x3f7f0987	0.9962391
25	0x3f80aaf9	1.0052177
26	0x3f7e924e	0.99441993
27	0x3f7aeadf	0.98014635
28	0x3f7e189a	0.9925629
29	0x3f7c3d59	0.9853111
30	0x3f7dc51f	0.9912891
31	0x3f7e0fa0	0.9924259
32	0x3f7d2242	0.988804
33	0x3f8033d4	1.0015817
34	0x3f7e68e0	0.99378777
35	0x3f83235c	1.0245166
36	0x3f814cf1	1.0101606
37	0x3f76fbd5	0.96478015
38	0x3f7fc490	0.99909306
39	0x3f8056ec	1.0026526
40	0x3f79964b	0.97494954
41	0x3f7b3237	0.98123497
42	0x3f810f5f	1.0082816
43	0x3f7fb300	0.9988251
44	0x3f81504b	1.0102628
45	0x3f8489f0	1.0354595
46	0x3f807b32	1.0037596
47	0x3f7fa38f	0.99858946
48	0x3f7d51c5	0.98952895
49	0x3f802963	1.001263
50	0x3f815f06	1.0107124
51	0x3f8112f0	1.0083904
52	0x3f7ec023	0.9951193
53	0x3f81ef3f	1.0151137
54	0x3f76e694	0.96445584
55	0x3f806ea9	1.0033771
56	0x3f80361a	1.001651
57	0x3f81ce17	1.0141019
58	0x3f81c5a0	1.0138435
59	0x3f7b7b6f	0.9823522
60	0x3f7f26dd	0.99668676
61	0x3f7d32d7	0.989057
62	0x3f83e980	1.0305634
63	0x3f77be45	0.96774703

h.0.ln_1.bias f4 [64]
0	0x3c1b4858	0.009477697
1	0x3c4629b5	0.012094905
2	0xbd0938e6	-0.03350153
3	0xbca4032b	-0.020021042
4	0x3d54d983	0.051965248
5	0xbb03e11d	-0.0020123192
6	0x3d82540d	0.06363688
7	0x3d09ec7e	0.033672802
8	0xbcc84e37	-0.024451358
9	0x3c99c8f8	0.018772587
10	0xbcea9160	-0.028633773
11	0x3d6d35be	0.05791258
12	0xbd260071	-0.040527765
13	0x3d4113eb	0.047138136
14	0x3c9d6933	0.019215202
15	0x3bb4f317	0.0055221426
16	0xbbb2c847	-0.005456004
17	0xbcfa4adb	-0.030553272
18	0x3d366415	0.04452904
19	0xbd04e46d	-0.032444406
20	0x3c553ba9	0.013014712
21	0x3cbdee6b	0.023184976
22	0xbc97a690	-0.01851204
23	0xbd3a20de	-0.0454415
24	0xbc1251bb	-0.008930619
25	0x3cf0e7f6	0.029407483
26	0xbcdf5aaf	-0.027264921
27	0xbbbff2e1	-0.005857811
28	0x3d28d928	0.04122272
29	0xbc760172	-0.015014993
30	0x3c7ccc70	0.015429601
31	0x3ce8f115	0.02843527
32	0xbb3e4726	-0.0029034107
33	0xbd1c5afe	-0.038172714
34	0x3ca6709c	0.020317368
35	0x3b17488b	0.002308401
36	0xbc2f29e3	-0.010691139
37	0x3d470539	0.048588965
38	0xbd25c697	-0.040472593
39	0x3d2591d9	0.040422294
40	0x3d33c949	0.043893132
41	0x3c3b8d8d	0.011447323
42	0x3c89a594	0.016802587
43	0x3d2581c7	0.04040697
44	0x3ca91ddb	0.020644119
45	0xbd015e0b	-0.031583827
46	0xbd72100b	-0.05909733
47	0xbd132f2e	-0.035933666
48	0xbce7719f	-0.028252421
49	0xbcf9d8da	-0.03049891
50	0x3bc52650	0.00601653
51	0x3c02fb76	0.007994523
52	0x3a03fc24	0.00050348253
53	0x3d0c51bc	0.034257635
54	0x3d59b239	0.053148482
55	0xbd0732a2	-0.03300727
56	0x3d11b970	0.035577238
57	0xbd3974c9	-0.04527739
58	0xbd1b7dca	-0.03796176
59	0x3c2ee1cc	0.010673951
60	0xbcdc59ec	-0.026898347
61	0xbbd321e5	-0.0064432495
62	0xbd267289	-0.040636573
63	0xbc4e8145	-0.012604062

h.0.ln_2.weight f4 [64]
0	0x3f800000	1.0
1	0x3f800000	1.0
2	0x3f800000	1.0
3	0x3f800000	1.0
4	0x3f800000	1.0
5	0x3f800000	1.0
6	0x3f800000	1.0
7	0x3f800000	1.0
8	0x3f800000	1.0
9	0x3f800000	1.0
10	0x3f800000	1.0
11	0x3f800000	1.0
12	0x3f800000	1.0
13	0x3f800000	1.0
14	0x3f800000	1.0
15	0x3f800000	1.0
16	0x3f800000	1.0
17	0x3f800000	1.0
18	0x3f800000	1.0
19	0x3f800000	1.0
20	0x3f800000	1.0
21	0x3f800000	1.0
22	0x3f800000	1.0
23	0x3f800000	1.0
24	0x3f800000	1.0
25	0x3f800000	1.0
26	0x3f800000	1.0
27	0x3f800000	1.0
28	0x3f800000	1.0
29	0x3f800000	1.0
30	0x3f800000	1.0
31	0x3f800000	1.0
32	0x3f800000	1.0
33	0x3f800000	1.0
34	0x3f800000	1.0
35	0x3f800000	1.0
36	0x3f800000	1.0
37	0x3f800000	1.0
38	0x3f800000	1.0
39	0x3f800000	1.0
40	0x3f800000	1.0
41	0x3f800000	1.0
42	0x3f800000	1.0
43	0x3f800000	1.0
44	0x3f800000	1.0
45	0x3f800000	1.0
46	0x3f800000	1.0
47	0x3f800000	1.0
48	0x3f800000	1.0
49	0x3f800000	1.0
50	0x3f800000	1.0
51	0x3f800000	1.0
52	0x3f800000	1.0
53	0x3f800000	1.0
54	0x3f800000	1.0
55	0x3f800000	1.0
56	0x3f800000	1.0
57	0x3f800000	1.0
58	0x3f800000	1.0
59	0x3f800000	1.0
60	0x3f800000	1.0
61	0x3f800000	1.0
62	0x3f800000	1.0
63	0x3f800000	1.0

h.0.ln_2.bias f4 [64]
0	0x00000000	0.0
1	0x00000000	0.0
2	0x00000000	0.0
3	0x00000000	0.0
4	0x00000000	0.0
5	0x00000000	0.0
6	0x00000000	0.0
7	0x00000000	0.0
8	0x00000000	0.0
9	0x00000000	0.0
10	0x00000000	0.0
11	0x00000000	0.0
12	0x00000000	0.0
13	0x00000000	0.0
14	0x00000000	0.0
15	0x00000000	0.0
16	0x00000000	0.0
17	0x00000000	0.0
18	0x00000000	0.0
19	0x00000000	0.0
20	0x00000000	0.0
21	0x00000000	0.0
22	0x00000000	0.0
23	0x00000000	0.0
24	0x00000000	0.0
25	0x00000000	0.0
26	0x00000000	0.0
27	0x00000000	0.0
28	0x00000000	0.0
29	0x00000000	0.0
30	0x00000000	0.0
31	0x00000000	0.0
32	0x00000000	0.0
33	0x00000000	0.0
34	0x00000000	0.0
35	0x00000000	0.0
36	0x00000000	0.0
37	0x00000000	0.0
38	0x00000000	0.0
39	0x00000000	0.0
40	0x00000000	0.0
41	0x00000000	0.0
42	0x00000000	0.0
43	0x00000000	0.0
44	0x00000000	0.0
45	0x00000000	0.0
46	0x00000000	0.0
47	0x00000000	0.0
48	0x00000000	0.0
49	0x00000000	0.0
50	0x00000000	0.0
51	0x00000000	0.0
52	0x00000000	0.0
53	0x00000000	0.0
54	0x00000000	0.0
55	0x00000000	0.0
56	0x00000000	0.0
57	0x00000000	0.0
58	0x00000000	0.0
59	0x00000000	0.0
60	0x00000000	0.0
61	0x00000000	0.0
62	0x00000000	0.0
63	0x00000000	0.0
