subspace-alignment/data/2_layer_64_vocab/ckpt_1440.pt (torch, 178561 bytes, 29 tensors)

embed.embed.weight f4 [64, 64]
-0.21672603 0.70525944 0.63357735 0.11514094 -0.017447613 -0.71091163 -1.35236 0.019251056
-0.47346705 0.24577302 -1.423705 0.31363332 -0.1934872 -0.860154 0.92791706 0.015849432
0.22173546 0.0835861 0.9402239 -0.7540635 -0.5263338 1.5922102 1.4074044 -1.0547732
-2.0907269 1.4927864 -0.7733357 2.0885534 0.9014298 0.6752572 -0.53593034 0.52857184
0.93702537 -0.9231313 0.38422793 -0.98884565 -1.1787426 0.59384686 -0.80918 0.57239175
-1.6405482 -0.9850985 0.23049365 0.69985044 1.2818378 0.90796286 -0.45600748 -0.67047507
-0.84054554 -1.6419135 -0.037437435 -0.43518034 0.5019731 1.091296 0.058254167 -0.87017035
0.3948278 -0.41233587 -1.1213219 -1.5388162 0.42835355 -0.3421694 -0.068783425 0.82177824
0.53714085 -1.2076465 -1.2821392 0.113636 1.9973298 -1.2146418 -0.20543163 -0.4460167
0.24820024 -0.26672664 0.15482002 0.31587663 0.46700504 0.2553157 0.103091314 0.88572764
1.2863464 -0.4639862 1.1503223 0.25320134 0.32408705 -0.46457785 1.6884828 0.40703347
0.17626978 0.98269355 -1.3061824 0.2242927 -2.019447 1.9743999 0.11212195 -1.1039321
-1.1926041 -1.3872511 0.7112681 -0.0708626 0.90116537 0.86618537 1.2235296 0.026235793
-0.9991887 -0.15550242 1.155117 0.36894926 -0.62291396 -0.1540091 -1.3236508 -1.4207118
-0.23898625 -0.21666405 1.3210952 -0.09792369 -0.55537826 0.015399622 0.32364547 -0.8309963
0.047252607 -0.73906654 -0.23895939 -0.029529719 0.38149828 -2.4412022 -0.972112 0.27444926
0.8368409 0.87700313 -0.2926286 -0.1713893 -0.20318575 0.7225412 -0.6328747 -1.5458883
0.39770287 -1.0108736 0.4240183 -0.30542883 -0.6347728 0.8222165 0.23040585 0.39761078
-0.6829305 -0.9471159 -1.799757 -0.765266 0.18512577 1.204812 -1.0724287 -0.49062097
0.4259465 0.4619722 -0.674459 0.19505776 -1.0213573 1.5595542 1.2570747 0.5275631
-0.98944694 0.48845625 0.28482568 1.1996564 -1.1411427 -1.5962434 -0.40013596 2.4266634
-0.5583756 -0.9447523 0.025984379 0.06436685 -0.04142789 -0.9586748 0.89450884 -0.258367
-0.25868845 -1.1928643 2.1380239 -0.09487565 0.17906724 -0.61843616 -1.7933141 -0.44812873
0.6797956 0.005518994 -0.5589063 0.8938432 -2.5586138 0.60837495 0.33830923 0.36708692
-1.3452059 1.1934931 0.014114377 -0.16410199 -1.6372693 -0.5065319 1.4763075 0.46036452
-1.2858564 -1.2604661 -1.752548 -0.30130672 -2.6363904 2.3393426 -1.2651403 0.51975524
0.49007735 -0.2583843 0.8343114 0.29268196 0.8200282 -0.7563505 -1.4254866 0.67052937
-2.0132198 1.5402932 0.30294523 0.54211056 0.36168122 -0.34162262 -0.46310997 0.9809752
0.88766545 0.8405769 -0.6942574 -1.001547 0.06496224 -0.79839236 0.4410402 1.3073667
1.8045238 -0.037629545 -0.97130805 0.9085156 0.95486295 1.8049694 0.7752273 0.7984519
0.90663207 -0.8569183 0.50140035 0.057808768 -1.3887885 1.2926219 0.42295444 -0.5003698
0.44956124 1.339021 -2.7687864 -0.20615746 0.03456894 -0.64841324 -0.8103018 -0.15987188
00000000: 6eed 5dbe e28b 343f 2032 223f 03cf eb3d
00000010: 4cee 8ebc 4efe 35bf 221a adbf 64b4 9d3c
00000020: 466a f2be ecab 7b3e f73b b6bf 8c94 a03e
00000030: 8221 46be 0d33 5cbf f98b 6d3f abd6 813c
00000040: 9f0e 633e 302f ab3d 83b2 703f 4e0a 41bf
00000050: d0bd 06bf 8bcd cb3f d425 b43f cf02 87bf
00000060: 78ce 05c0 a013 bf3f 54f9 45bf dcaa 0540
00000070: 1ac4 663f a8dd 2c3f bb32 09bf 7c50 073f
00000080: e5e0 6f3f 5552 6cbf 86b9 c43e fd24 7dbf
00000090: 0ae1 96bf 5906 183f 6c26 4fbf 4488 123f
000000a0: 7cfd d1bf 6a2f 7cbf 8706 6c3e 6629 333f
000000b0: 4313 a43f 4170 683f d079 e9be 41a4 2bbf
000000c0: fe2d 57bf 392a d2bf ff57 19bd f5cf debe
000000d0: 4f81 003f 96af 8b3f ec9b 6e3d 7cc3 5ebf
000000e0: df26 ca3e b01d d3be 7a87 8fbf eef7 c4bf
000000f0: 2851 db3e d430 afbe 53de 8cbd 0f60 523f
00000100: 1082 093f 2994 9abf 231d a4bf feb9 e83d
00000110: 81a8 ff3f 6279 9bbf ab5c 52be 4d5c e4be
00000120: 3428 7e3e 6590 88be 2489 1e3e 95ba a13e
00000130: 491b ef3e bdb8 823e 8a21 d33d 0cbf 623f
00000140: 00a7 a43f 998f edbe c33d 933f 9ba3 813e
00000150: bdee a53e 26dd edbe 3420 d83f b166 d03e
00000160: 1180 343e ce91 7b3f fc30 a7bf fcac 653e
00000170: 9f3e 01c0 23b9 fc3f 31a0 e53d a64d 8dbf
00000180: 40a7 98bf 7291 b1bf ab15 363f 6920 91bd
00000190: c6b2 663f 53be 5d3f 9e9c 9c3f 72ec d63c
000001a0: d5ca 7fbf 073c 1fbe e0da 933f ebe6 bc3e
000001b0: 4a77 1fbf 90b4 1dbe 646d a9bf e2d9 b5bf
000001c0: d0b8 74be 2edd 5dbe a619 a93f 378c c8bd
000001d0: 452d 0ebf b24e 7c3c dcb4 a53e 2cbc 54bf
000001e0: f38b 413d 7733 3dbf c5b1 74be 4fe8 f1bc
000001f0: be53 c33e a83c 1cc0 55dc 78bf 9d84 8c3e
00000200: 353b 563f 4783 603f 6ad3 95be ad80 2fbe
00000210: ed0f 50be 76f8 383f 1404 22bf abdf c5bf
00000220: b69f cb3e 4e64 81bf ed18 d93e 2b61 9cbe
00000230: 7880 22bf c87c 523f 83ef 6b3e a493 cb3e
00000240: 89d4 2ebf 3076 72bf 705e e6bf 79e8 43bf
00000250: 9c91 3d3e 4837 9a3f 5845 89bf ac32 fbbe
00000260: a915 da3e 9f87 ec3e 58a9 2cbf 39bd 473e
00000270: d6bb 82bf 799f c73f d3e7 a03f 600e 073f
00000280: 654c 7dbf f016 fa3e acd4 913e 578e 993f
00000290: f710 92bf b451 ccbf 9fde ccbe 744e 1b40
000002a0: b4f1 0ebf 49db 71bf 31dd d43c c4d2 833d
000002b0: 4bb0 29bd b66b 75bf 88fe 643f ae48 84be
000002c0: d072 84be c7af 98bf 62d5 0840 2a4e c2bd
000002d0: 675d 373e d551 1ebf 518b e5bf 2171 e5be
000002e0: 1607 2e3f add8 b43b 7c14 0fbf e8d2 643f
000002f0: 54c0 23c0 76be 1b3f de36 ad3e d1f2 bb3e
00000300: b52f acbf 62c4 983f fd3f 673c 5a0a 28be
00000310: 0a92 d1bf 13ac 01bf a5f7 bc3f e6b4 eb3e
00000320: f196 a4bf f456 a1bf 7e53 e0bf e044 9abe
00000330: 9fba 28c0 cab7 1540 1ef0 a1bf ae0e 053f
00000340: 6beb fa3e f24a 84be 6f95 553f 69da 953e
00000350: 5eed 513f 30a0 41bf 5876 b6bf d0a7 2b3f
00000360: 98d8 00c0 5428 c53f a31b 9b3e c2c7 0a3f
00000370: 482e b93e 29e9 aebe c01c edbe 3121 7b3f
00000380: 0b3e 633f 0c30 573f daba 31bf b132 80bf
00000390: ec0a 853d 7163 4cbf 05d0 e13e cb57 a73f
000003a0: a3fa e63f 7021 1abd a5a7 78bf 7a94 683f
000003b0: e671 743f 3d09 e73f 4c75 463f 5867 4c3f
000003c0: 0a19 683f ff5e 5bbf c65b 003f e3c8 6c3d
000003d0: d2c3 b1bf a274 a53f 7c8d d83e 3c18 00bf
000003e0: e42c e63e 0a65 ab3f cc33 31c0 f11a 53be
000003f0: 2998 0d3d 69fe 25bf f06f 4fbf 74b5 23be

h.0.mha.W_q.weight f4 [64, 64]
0.029746586 -0.08661555 0.031385865 0.06294603 -0.0046637035 0.09803419 0.03326499 0.09678399
-0.004545548 0.08484961 -0.0066998163 0.13752131 -0.047393996 0.0011023296 -0.042151768 -0.15288918
0.091144376 -0.047545444 0.052211158 0.08142117 -0.025450671 0.029335344 0.07531232 0.019864405
0.03625309 -0.037218995 0.06731801 -0.10941583 0.058273204 -0.099166445 -0.072764695 0.0051764646
-0.00019800372 0.15614748 -0.066955864 -0.111430466 -0.1806586 0.0008011065 0.005598914 0.023053903
-0.071806096 0.10570506 0.03399328 0.050115466 -0.029089928 -0.059103664 -0.027863199 -0.013837862
-0.025728416 0.06478088 0.031622175 0.04132671 -0.050776105 0.083382726 -0.025926027 -0.034841467
0.10915743 -0.13580093 -0.023559121 -0.07323675 0.0018096367 -0.018174812 0.02635625 0.105162606
0.0639796 -0.013161977 -0.12931341 -0.013233931 -0.075579114 0.05753867 0.018366134 -0.08652311
0.07025066 0.0608289 -0.081839 -0.023695774 -0.14887165 0.08928932 -0.08920496 -0.0624381
-0.03596674 -0.05604239 0.05848019 -0.087941796 0.1071022 -0.109613016 0.048846193 0.005440579
-0.013134015 -0.02449977 -0.008768258 0.12065099 0.018815313 0.115933366 0.04591698 -0.059177652
0.04448895 0.07554282 0.09442036 -0.017815351 0.011553148 0.05476902 -0.024495434 0.075084604
0.012620987 -0.13812988 0.020279165 0.11685278 -0.009399774 0.11392846 -0.031568203 -0.04544056
0.029967207 0.012341031 0.10295837 0.0849757 0.08730564 0.0352666 -0.14352958 0.043241184
0.06364397 -0.06257898 -0.06726681 -0.07487999 -0.042506326 0.10142304 -0.07789745 -0.103029035
-0.12895258 0.07032819 -0.10737791 -0.0106623955 -0.07116773 0.010253427 -0.059720773 0.03414981
0.03167098 -0.064084135 -0.05688814 -0.07668801 0.015091619 0.07971169 -0.09983499 -0.11881189
0.037896175 0.058985393 0.09359309 0.04067135 -0.109533645 -0.015967637 -0.1332809 0.04389633
0.082576804 -0.0066193882 -0.09481967 0.01861811 -0.04736774 -0.089948714 0.066136084 0.10361561
0.00026942772 -0.014132641 -0.004603953 0.02977622 0.027926588 0.017136835 0.05269354 -0.11792506
-0.01065136 0.110488795 0.00071862387 0.14481567 -0.031649664 -0.07990868 0.095668636 -0.039217863
-0.017359158 0.10801346 -0.020965321 -0.011747573 0.06410847 0.024275966 -0.034857135 -0.09403764
0.003441133 -0.055888508 0.037434384 -0.1080954 0.09808366 0.010804011 -0.05096592 0.052661173
0.040484175 0.038674723 0.0226063 0.095378906 0.11498336 0.060696654 -0.103375755 0.024236357
-0.12828954 -0.050637554 -0.007209794 0.07069899 -0.12402696 0.08674195 0.052121077 0.04328986
-0.05602187 -0.009363133 0.05468884 0.007328572 -0.052073542 0.10182198 0.012151943 -0.014873829
-0.06927002 -0.06394151 0.11450471 -0.0014689624 -0.12053406 0.02968247 0.05905203 -0.08630129
0.09166258 -0.028907103 -0.11334749 0.16432081 0.06540151 0.116228476 0.13886876 0.12674013
0.12135968 0.01846118 0.032745212 0.0036686305 -0.09928591 0.10697891 -0.017743278 -0.05025758
-0.033653546 0.094785005 -0.04856004 -0.03467301 -0.07352643 -0.040333908 0.088436514 0.06292914
0.00066401716 0.047495767 0.021158962 0.028826814 0.10804867 -0.0153965 -0.06305925 0.08939849
00000000: 1daf f33c 7e63 b1bd 778e 003d d9e9 803d
00000010: fbd1 98bb 26c6 c83d df40 083d af36 c63d
00000020: d2f2 94bb a2c5 ad3d 228a dbbb 63d2 0c3e
00000030: 3520 42bd 0b7c 903a 55a7 2cbd fb8e 1cbe
00000040: e7a9 ba3d 03bf 42bd 5edb 553d 24c0 a63d
00000050: ed7d d0bc ad50 f03c 583d 9a3d adba a23c
00000060: 1f7e 143d f272 18bd 06de 893d 6815 e0bd
00000070: e2af 6e3d c717 cbbd a805 95bd 559f a93b
00000080: 389f 4fb9 20e5 1f3e 2820 89bd a835 e4bd
00000090: 91fe 38be 5901 523a 1877 b73b 8adb bc3c
000000a0: 130f 93bd e57b d83d 8a3c 0b3d e045 4d3d
000000b0: 004e eebc af16 72bd 5d41 e4bc 33b8 62bc
000000c0: 66c4 d2bc d7ab 843d 4186 013d 3246 293d
000000d0: 9bfa 4fbd 90c4 aa3d d262 d4bc edb5 0ebd
000000e0: ee8d df3d 660f 0bbe 0fff c0bc 26fd 95bd
000000f0: 5531 ed3a 58e3 94bc 10e9 d73c 7e5f d73d
00000100: bd07 833d 55a5 57bc bc6a 04be 21d3 58bc
00000110: 39c9 9abd abad 6b3d 9374 963c 0733 b1bd
00000120: 94df 8f3d ba27 793d 359b a7bd a41d c2bc
00000130: cf71 18be 52dd b63d 17b1 b6bd 18bf 7fbd
00000140: dc51 13bd b58c 65bd ec88 6f3d d41a b4bd
00000150: 6658 db3d ca7c e0bd f212 483d e246 b23b
00000160: 0d30 57bc beb3 c8bc bda8 0fbc de17 f73d
00000170: 9222 9a3c 796e ed3d 7113 3c3d 4464 72bd
00000180: 0c3a 363d 32b6 9a3d 765f c13d 80f1 91bc
00000190: 6a49 3d3c 7b55 603d a6aa c8bc f5c5 993d
000001a0: 42c8 4e3c eb71 0dbe 7e20 a63c 8350 ef3d
000001b0: 8201 1abc 5353 e93d a94d 01bd e11f 3abd
000001c0: ca7d f53c 0932 4a3c d6db d23d bd07 ae3d
000001d0: 4dcd b23d b673 103d 6bf9 12be ab1d 313d
000001e0: c557 823d 6929 80bd 2ec3 89bd ae5a 99bd
000001f0: 1d1b 2ebd e2b6 cf3d b388 9fbd e300 d3bd
00000200: 250c 04be 3a08 903d f3e8 dbbd 54b1 2ebc
00000210: 63c0 91bd fdfd 273c c59d 74bd ace0 0b3d
00000220: 6eb9 013d 8b3e 83bd 8a03 69bd 9a0e 9dbd
00000230: d742 773c e23f a33d 4a76 ccbd a653 f3bd
00000240: 0539 1b3d ab9a 713d bcad bf3d 0097 263d
00000250: 2d53 e0bd 90ce 82bc ca7a 08be a3cc 333d
00000260: 071e a93d 74e7 d8bb d130 c2bd 0285 983c
00000270: ad04 42bd 0837 b8bd 5b72 873d 6c34 d43d
00000280: fa41 8d39 988c 67bc c2dc 96bb 42ed f33c
00000290: 4dc6 e43c 8c62 8c3c 2ed5 573d b282 f1bd
000002a0: 0b83 2ebc f347 e23d 0862 3c3a 8f4a 143e
000002b0: 14a3 01bd 29a7 a3bd ebed c33d e9a2 20bd
000002c0: cb34 8ebc 2936 dd3d 77bf abbc e478 40bc
000002d0: 4d4b 833d 64de c63c 5bc6 0ebd ce96 c0bd
000002e0: a284 613b 59eb 64bd cc54 193d 1f61 ddbd
000002f0: 16e0 c83d 4e03 313c a4c1 50bd 3eb3 573d
00000300: bcd2 253d 6369 1e3d d930 b93c 0456 c33d
00000310: 657c eb3d 0e9d 783d abb6 d3bd 538b c63c
00000320: 555e 03be 5369 4fbd 2340 ecbb a2ca 903d
00000330: d901 febd c3a5 b13d e97c 553d b550 313d
00000340: 3077 65bd d467 19bc 6801 603d 8524 f03b
00000350: 114b 55bd 0b88 d03d f118 473c 5cb1 73bc
00000360: 71dd 8dbd c4f3 82bd 7281 ea3d 338a c0ba
00000370: 90da f6bd a728 f33c 8be0 713d bbbe b0bd
00000380: 97b9 bb3d 97ce ecbc bb22 e8bd b743 283e
00000390: 3af1 853d 3209 ee3d 9d33 0e3e 2ac8 013e
000003a0: 6d8b f83d e73b 973c d81f 063d 686d 703b
000003b0: 6956 cbbd c217 db3d 5a5a 91bc e4da 4dbd
000003c0: 4dd8 09bd a41e c23d e4e6 46bd 4905 0ebd
000003d0: 0695 96bd 2b35 25bd 341e b53d fee0 803d
000003e0: 7011 2e3a ec8a 423d 8f55 ad3c 3626 ec3c
000003f0: 9f48 dd3d 9a41 7cbc 3525 81bd 8e16 b73d

h.0.mha.W_q.bias f4 [64]
0.08238621 0.16260068 0.18011568 0.06992756 -0.06455936 0.27066672 -0.04555079 0.15320703
-0.17771071 -0.22246921 0.12895623 0.35549244 -0.19008727 0.31866938 0.60831887 0.11463452
0.1452871 0.6432952 0.104903534 0.19572361 -0.3159087 0.26631606 -0.1255453 -0.12016877
-0.13771723 0.05469685 0.01766559 -0.24873768 0.063292146 -0.027842581 0.18655683 0.2649974
-0.21715453 -0.094483174 -0.10051728 0.08016523 0.12773249 0.008770081 -0.09792334 0.089711204
0.003718512 0.08126069 0.19125357 0.029192207 -0.032532923 -0.045642227 0.083597586 0.15839054
-0.0013747531 0.15040675 0.084533535 0.006107114 0.0014285181 -0.054629415 0.035733983 0.03501871
0.24380158 -0.10218837 0.044509493 -0.07781258 -0.009721941 0.19851406 0.13794065 -0.06540504
00000000: 1aba a83d cb80 263e 3f70 383e 2e36 8f3d
00000010: b337 84bd d494 8a3e 7793 3abd 4ee2 1c3e
00000020: ccf9 35be f8ce 63be 1a0d 043e 1b03 b63e
00000030: 3da6 42be a228 a33e c9ba 1b3f 81c5 ea3d
00000040: 24c6 143e ffae 243f aad7 d63d c56b 483e
00000050: c9be a1be 945a 883e f28e 00be 0b1b f6bd
00000060: bf05 0dbe ce09 603d 6db7 903c 17b5 7ebe
00000070: 509f 813d 2016 e4bc c108 3f3e bdad 873e
00000080: c25d 5ebe 6580 c1bd 01dc cdbd ab2d a43d
00000090: 4ecc 023e 63b0 0f3c 088c c8bd 82ba b73d
000000a0: 47b2 733b 016c a63d fad7 433e 7f24 ef3c
000000b0: 3e41 05bd 58f3 3abd 3635 ab3d 2131 223e
000000c0: 0f31 b4ba 3a04 1a3e eb1f ad3d 2f1e c83b
000000d0: 1d3d bb3a 18c3 5fbd cc5d 123d c76f 0f3d
000000e0: 1fa7 793e 2348 d1bd 964f 363d 345c 9fbd
000000f0: c748 1fbc 4547 4b3e 5040 0d3e 14f3 85bd

h.0.mha.W_k.weight f4 [64, 64]
0.062046845 -0.1420031 -0.06377655 -0.100989826 0.011362857 -0.0370775 0.09885212 0.14099059
0.024558656 -0.021663725 0.004037568 0.17505105 -0.076247826 0.001634372 -0.033113193 -0.061382838
-0.014601324 0.015940232 0.07996667 0.15181282 -0.08400717 -0.03267041 0.0043012165 -0.07791297
0.058415666 -0.14722794 0.10651065 -0.007014812 -0.033515994 -0.009031615 0.038671654 0.069859825
-0.014153442 0.027793333 0.099315904 -0.10649093 -0.006255783 0.0401878 0.062302627 0.09888302
0.06296022 0.005604504 -0.063901745 0.02458332 -0.0970217 -0.0662537 0.048699345 0.08416388
0.08731636 0.068768114 -0.06932982 -0.042541087 0.008195368 0.014015623 -0.049667593 -0.0076958714
0.06310271 -0.060354345 0.012654145 0.008490958 -0.0037728362 -0.05818745 -0.008342341 0.05812707
-0.045969173 -0.010867067 -0.09866304 -0.10591917 -0.017753132 -0.010253672 0.005076746 0.008520956
0.14404196 -0.02976402 0.023630736 -0.033453558 -0.12571386 0.07513795 -0.06717254 -0.05362803
0.009584413 -0.022593398 -0.0074294526 0.06942163 -0.022308495 0.004916294 0.012998929 0.066557854
0.06566046 0.12910442 -0.00549708 -0.03723033 0.08243294 0.0073100515 0.040517807 0.059900437
-0.024643285 0.030164694 0.11924921 0.088337794 0.069096535 -0.10830428 0.0074503627 -0.06622274
-0.090306364 -0.0697983 -0.02339583 -0.02408737 0.09834493 -0.014185792 -0.033403978 -0.10311267
-0.12565896 -0.19460239 0.05083888 0.07077564 -0.049476925 -0.09421659 -0.11915197 -0.05652353
0.121070035 -0.055849325 -0.055935197 -0.030662848 -0.13717529 -0.06438658 -0.07122937 0.05495375
-0.13150522 -0.030037098 -0.041812066 0.04934026 0.095658295 0.05127092 0.027031496 0.04247386
-0.0118676005 -0.018687911 0.15241086 0.08134486 -0.07967709 -0.050456975 -0.05173657 -0.097947344
-0.019498123 -0.06980135 0.03770621 -0.026412025 -0.007919613 -0.06833807 -0.093184955 0.031955797
-0.082577504 0.074433014 0.06499922 0.13185006 -0.053345665 -0.028370695 0.09403767 0.076116584
-0.015965613 0.019296858 0.07004318 -0.01140931 0.0075789616 0.07635732 -0.012639323 -0.01856792
0.1038008 -0.079157405 0.018883133 -0.027936263 0.06313241 0.028048107 0.01604419 0.07925746
-0.07611109 0.02763645 -0.014572733 -0.024890065 -0.049915407 -0.07287869 -0.14020506 -0.04927414
0.0018633542 -0.13475293 0.031845033 0.047766674 0.027537076 0.11015586 -0.037105694 0.0716069
-0.06880451 -0.03191644 0.10193887 0.08217787 0.08268576 -0.06391203 -0.07681226 0.009948974
0.043799136 -0.046242036 -0.08786156 -0.07659511 -0.16440915 -0.012143934 0.030066283 0.09275318
-0.08879482 0.107235424 0.07968466 0.09229613 -0.037381668 0.124503225 -0.024887105 0.062482048
0.034106478 -0.113250054 0.011449206 -0.022147968 0.021293486 0.046577223 -0.1416603 0.039536733
-0.038841274 -0.063813776 0.049044766 0.0835552 -0.0004962899 0.00014707596 0.058213737 0.10109393
0.057522472 0.111430876 -0.027398108 0.10901135 0.03544734 -0.011427253 0.07396747 -0.048525944
-0.07977617 0.0049284943 0.03954443 -0.09198118 -0.064181864 0.09183525 0.04696706 -0.07556156
0.18319818 -0.003098891 -0.0013277624 -0.03882314 -0.04161713 -0.0036650312 -0.0814145 0.11783805
00000000: d524 7e3d 4369 11be 489d 82bd c1d3 cebd
00000010: 472b 3a3c 94de 17bd fb72 ca3d d65f 103e
00000020: 3c2f c93c 2078 b1bc 934d 843b 9540 333e
00000030: d227 9cbd 6d38 d63a b3a1 07bd 926c 7bbd
00000040: 643a 6fbc 1795 823c 91c5 a33d d274 1b3e
00000050: f30b acbd 68d1 05bd 38f1 8c3b d690 9fbd
00000060: 4445 6f3d ecc2 16be 4122 da3d 82dc e5bb
00000070: 1148 09bd 57f9 13bc 2b66 1e3d ab12 8f3d
00000080: d7e3 67bc d8ae e33c 2366 cb3d eb17 dabd
00000090: 50fd ccbb f69b 243d 0a31 7f3d 2e83 ca3d
000000a0: 4af1 803d fda5 b73b ebde 82bd f562 c93c
000000b0: 50b3 c6bd 05b0 87bd f778 473d 1d5e ac3d
000000c0: ebd2 b23d 4cd6 8c3d cbfc 8dbd 903f 2ebd
000000d0: dd45 063c c9a1 653c 3f70 4bbd a62d fcbb
000000e0: fe3b 813d 1e36 77bd 5553 4f3c a91d 0b3c
000000f0: b041 77bb f755 6ebd 50ae 08bc a716 6e3d
00000100: 2c4a 3cbd c80b 32bc d90f cabd 26ec d8bd
00000110: 046f 91bc 04ff 27bc d55a a63b 7b9b 0b3c
00000120: bc7f 133e add3 f3bc 3f95 c13c 9906 09bd
00000130: 22bb 00be ede1 993d c291 89bd 11a9 5bbd
00000140: f107 1d3c ca15 b9bc c472 f3bb ed2c 8e3d
00000150: 4ec0 b6bc dd18 a13b 76f9 543c 7c4f 883d
00000160: fe78 863d f333 043e d920 b4bb d57e 18bd
00000170: 9ad2 a83d 2889 ef3b 00f6 253d 295a 753d
00000180: b7e0 c9bc f31b f73c ee38 f43d 72ea b43d
00000190: 7c82 8d3d a2ce ddbd 2c22 f43b ca9f 87bd
000001a0: 8bf2 b8bd 69f2 8ebd 9da8 bfbc e052 c5bc
000001b0: 1169 c93d 866b 68bc 9cd2 08bd bc2c d3bd
000001c0: beac 00be d945 47be 6e3c 503d d2f2 903d
000001d0: 51a8 4abd a1f4 c0bd f305 f4bd 3885 67bd
000001e0: 91f3 f73d 43c2 64bd 4e1c 65bd a730 fbbc
000001f0: ae77 0cbe 1cdd 83bd b4e0 91bd 2f17 613d
00000200: 4ea9 06be 5c10 f6bc 2143 2bbd 0319 4a3d
00000210: 7fe8 c33d 7501 523d 2871 dd3c 12f9 2d3d
00000220: 5370 42bc 6417 99bc 9811 1c3e 2298 a63d
00000230: be2d a3bd f9ab 4ebd bae9 53bd 9e98 c8bd
00000240: 87ba 9fbc 03f4 8ebd d471 1a3d 085e d8bc
00000250: 44c1 01bc d4f4 8bbd c1d7 bebd 15e4 023d
00000260: 651e a9bd 5670 983d 501e 853d b403 073e
00000270: fc80 5abd a969 e8bc d296 c03d 03e3 9b3d
00000280: 51ca 82bc 7214 9e3c cc72 8f3d 1dee 3abc
00000290: f058 f83b 3a61 9c3d 2a15 4fbc c01b 98bc
000002a0: 8495 d43d 471d a2bd cdb0 9a3c 97da e4bc
000002b0: 914b 813d 25c5 e53c 1b6f 833c bc51 a23d
000002c0: 22e0 9bbd d665 e23c 79c2 6ebc 40e6 cbbc
000002d0: 1974 4cbd 6c41 95bd ea91 0fbe aed3 49bd
000002e0: cb3b f43a acfc 09be f06f 023d fda6 433d
000002f0: 6f95 e13c 6599 e13d 24fc 17bd a3a6 923d
00000300: 61e9 8cbd d0ba 02bd 54c5 d03d df4c a83d
00000310: 2757 a93d 4fe4 82bd bf4f 9dbd 0501 233c
00000320: b966 333d 4a68 3dbd c3f0 b3bd e6dd 9cbd
00000330: df5a 28be 5af7 46bc 914d f63c 61f5 bd3d
00000340: 0fda b5bd 3f9e db3d b631 a33d c105 bd3d
00000350: 851d 19bd 8cfb fe3d 0be0 cbbc 2ded 7f3d
00000360: 3cb3 0b3d a5ef e7bd 7395 3b3c a86f b5bc
00000370: ad6f ae3c c2c7 3e3d 660f 11be 45f1 213d
00000380: 0718 1fbd ccb0 82bd 2ae3 483d fd1e ab3d
00000390: 7419 02ba 6738 1a39 8771 6e3d 560a cf3d
000003a0: af9c 6b3d df35 e43d ff71 e0bc 5841 df3d
000003b0: 3b31 113d 5f39 3bbc 427c 973d 24c3 46bd
000003c0: b061 a3bd 357f a13b 57f9 213d a160 bcbd
000003d0: c871 83bd 1f14 bc3d 8860 403d 05c0 9abd
000003e0: 4e98 3b3e c316 4bbb 5008 aeba 0305 1fbd
000003f0: b976 2abd 0531 70bb a5bc a6bd 1355 f13d

h.0.mha.W_k.bias f4 [64]
0.0032386438 0.11082414 -0.069889285 0.16993363 0.22087178 0.15858278 -0.080465555 -0.06611644
-0.22497572 -0.08641958 0.4861407 -0.22896208 0.4861813 0.12398448 -0.64842016 -0.36847633
-0.2099023 -0.50757605 -0.19469035 0.07730842 -0.111635715 -0.28616467 -0.00984941 -0.093855284
0.006929776 0.08545968 0.16164018 -0.20185465 0.11111388 0.10101112 -0.17803197 -0.008971575
-0.11493872 -0.26548848 -0.19639456 0.14613914 0.21276024 -0.03478984 -0.058173407 -0.007192154
0.07419078 -0.075524986 -0.07472908 0.080389224 -0.036506157 -0.0145253735 -0.10921069 0.12998366
0.029305886 0.099352665 -0.16375688 0.039498456 -0.039180066 -0.22481258 0.048749477 -0.019505411
0.07694262 0.03006526 0.22084907 -0.10528335 0.068168126 0.06553142 0.08017398 -0.055657063
00000000: 6d3f 543b c4f7 e23d 1d22 8fbd 1503 2e3e
00000010: 362c 623e 8663 223e 20cb a4bd 0e68 87bd
00000020: 0960 66be c0fc b0bd 6fe7 f83e 0975 6abe
00000030: c1ec f83e 93eb fd3d ddfe 25bf eea8 bcbe
00000040: a1f0 56be 81f0 01bf e85c 47be e053 9e3d
00000050: 44a1 e4bd 2d84 92be 6b5f 21bc 3337 c0bd
00000060: 2d13 e33b 7c05 af3d 0185 253e fcb2 4ebe
00000070: ad8f e33d ebde ce3d 034e 36be 83fd 12bc
00000080: fe64 ebbd 1bee 87be a81b 49be 80a5 153e
00000090: d2dd 593e cb7f 0ebd 3d47 6ebd 29ac ebbb
000000a0: 56f1 973d d8ac 9abd 8f0b 99bd 1ba3 a43d
000000b0: 7b87 15bd d5fb 6dbc dba9 dfbd 701a 053e
000000c0: e612 f03c 6979 cb3d e2af 27be 22c9 213d
000000d0: 477b 20bd 4535 66be 88ad 473d d0c9 9fbc
000000e0: 1894 9d3d 6c4b f63c 4226 623e cc9e d7bd
000000f0: bb9b 8b3d 5635 863d 4132 a43d a9f8 63bd

h.0.mha.W_v.weight f4 [64, 64]
0.0967379 0.034188524 0.14532365 -0.101725616 0.1678136 -0.01249891 -0.07466798 0.17017013
-0.057204273 0.018603284 -0.048297904 0.004758076 -0.07212913 -0.06694873 0.066831134 -0.03411827
0.032797467 0.18939288 0.05602412 0.10506816 0.044958584 -0.10476093 0.071080126 -0.13295813
0.014022848 -0.00754621 -0.1843401 0.05544642 0.13869807 -0.0854877 -0.0024996668 -0.1918091
-0.021937737 -0.12661617 0.11676137 0.046238 -0.07264618 -0.053331695 0.041980542 0.13478978
-0.06699723 0.012215665 -0.02429481 -0.081311956 0.10419388 0.01184165 0.032830276 0.085909665
-0.004254786 -0.0026441654 0.08608053 -0.032333173 -0.09620497 -0.07541857 -0.0020060649 0.07793093
0.104642786 0.014922818 -0.0046109213 0.05131129 0.059474267 -0.11827693 -0.0759715 -0.19128808
-0.018985061 0.0035133467 -0.057421897 -0.24851038 0.049561948 -0.025271397 0.047567897 -0.09261333
-0.008897681 -0.0033894426 -0.03864446 0.07781539 -0.07258693 0.04447809 -0.025918268 -0.039115667
0.017948385 -0.02645853 0.11282413 -0.008857993 0.10008227 -0.073480844 0.10568731 -0.021587137
0.14528102 -0.023611931 -0.09049054 -0.15728956 0.038410716 -0.028607676 0.15407372 0.047381535
0.067859195 0.08758063 -0.12131715 -0.006966575 -0.03707901 0.01851419 0.11271444 0.12596768
3.7445385e-05 0.1751045 0.049846936 0.071563154 0.021858247 -0.029089069 0.08634456 -0.060520653
0.0059977314 0.058716036 -0.12407031 0.004989834 -0.036695596 0.07809639 0.06350582 0.005874976
0.07097374 -0.0004580046 0.083231114 -0.011455175 -0.11060183 -0.036479976 0.05984782 0.11805152
0.004511606 -0.1055569 -0.026542611 0.1423014 -0.02904998 0.01840177 -0.057449304 -0.08535842
0.03513712 0.13814323 0.07178897 -0.07281201 0.03635231 0.08299237 -0.001681826 -0.073642895
0.059123922 0.00025879397 -0.06687302 -0.047634054 -0.032651328 -0.0611128 -0.0055139842 0.08807288
-0.050643887 -0.052829772 0.0034316008 -0.063130975 -0.14518915 0.078291 -0.13343795 -0.018016854
-0.023172151 -0.044243842 -0.0024825532 0.012513181 -0.059483204 -0.014096047 0.07122183 0.13955574
0.10024431 -0.07185186 -0.026022 -0.11633055 -0.06090264 0.1290891 0.062547974 0.16442975
-0.018987214 -0.12784702 -0.00245753 0.111519225 0.10395865 0.05884207 -0.09059287 -0.06403917
-0.09912194 0.09599805 0.056515343 0.1510486 0.12828563 0.04477643 0.110151 -0.040062495
0.08033783 0.08787274 0.01638998 0.05742416 -0.0743341 -0.04708793 -0.07701158 0.14952411
0.11602997 0.13000332 0.14887336 0.054155003 -0.060085133 -0.05109322 0.00663748 -0.08062537
-0.064001404 0.072836794 0.034744095 -0.022082197 -0.16745348 -0.12591647 -0.011240751 -0.004371678
0.1163305 -0.1117104 -0.09542954 -0.07252756 -0.09169414 0.030481674 0.0735175 -0.13192387
-0.14384486 -0.121479295 0.03126929 0.14323011 0.00874886 -0.17050084 -0.12035621 0.12461628
-0.035066564 -0.0043509337 0.09130994 -0.15948887 0.110489264 0.022731397 -0.071456365 -0.081848904
-0.10423956 0.011309107 -0.000524065 -0.126734 -0.046198376 0.103641696 0.0129026305 -0.066268325
-0.062113747 -0.1028494 0.026237922 0.05563522 -0.005167401 0.054447014 -0.06756175 -0.003933428
00000000: 851e c63d 4409 0c3d b9cf 143e 8555 d0bd
00000010: 54d7 2b3e 3ac8 4cbc 87eb 98bd 1441 2e3e
00000020: 074f 6abd ea65 983c 06d4 45bd a2e9 9b3b
00000030: 70b8 93bd 6a1c 89bd c3de 883d 99bf 0bbd
00000040: a356 063d 35f0 413e 8c79 653d fa2d d73d
00000050: 7e26 383d e68c d6bd 7592 913d 2d26 08be
00000060: 16c0 653c 3346 f7bb a7c3 3cbe c91b 633d
00000070: de06 0e3e 2d14 afbd 73d1 23bb 9b69 44be
00000080: c5b6 b3bc aba7 01be 9620 ef3d 0f64 3d3d
00000090: 85c7 94bd 5672 5abd caf3 2b3d 5506 0a3e
000000a0: d835 89bd 3624 483c e905 c7bc e286 a6bd
000000b0: 9a63 d53d 7b03 423c 0a79 063d 68f1 af3d
000000c0: bb6b 8bbb bc49 2dbb fd4a b03d ca6f 04bd
000000d0: 1c07 c5bd 0d75 9abd 2f78 03bb 409a 9f3d
000000e0: f54e d63d d67e 743c 3617 97bb ca2b 523d
000000f0: 4a9b 733d 2d3b f2bd f296 9bbd 06e1 43be
00000100: 8f86 9bbc 2d40 663b 3933 6bbd 8179 7ebe
00000110: 7801 4b3d f605 cfbc 8ed6 423d 0fac bdbd
00000120: 94c7 11bc 6921 5ebb a749 1ebd ad5d 9f3d
00000130: 75a8 94bd a82e 363d 8c52 d4bc c037 20bd
00000140: 7e08 933c 8fbf d8bc 5610 e73d 1e21 11bc
00000150: eff7 cc3d 207d 96bd 9772 d83d 82d7 b0bc
00000160: 8cc4 143e cf6d c1bc 1b53 b9bd 8410 21be
00000170: 8e54 1d3d a55a eabc 80c5 1d3e 2413 423d
00000180: c3f9 8a3d 795d b33d 2075 f8bd de47 e4bb
00000190: 29e0 17bd 12ab 973c d4d6 e63d acfd 003e
000001a0: ad0e 1d38 984e 333e 4d2c 4c3d b48f 923d
000001b0: 1110 b33c 334c eebc 6bd5 b03d 81e4 77bd
000001c0: 9e88 c43b 3a80 703d 9318 febd c381 a33b
000001d0: 1f4e 16bd 00f1 9f3d 570f 823d df82 c03b
000001e0: ae5a 913d 5620 f0b9 1375 aa3d 7cae 3bbc
000001f0: 3683 e2bd 076c 15bd fd22 753d ffc4 f13d
00000200: 18d6 933b 372e d8bd e46f d9bc 75b7 113e
00000210: 39fa edbc 4fbf 963c f64f 6bbd 65d0 aebd
00000220: f1eb 0f3d 6b75 0d3e 1806 933d 771e 95bd
00000230: 29e6 143d e7f7 a93d b770 dcba 16d2 96bd
00000240: ed2b 723d bdae 8739 b9f4 88bd ed1b 43bd
00000250: 66bd 05bd 6a51 7abd a7ae b4bb 8e5f b43d
00000260: f76f 4fbd 0864 58bd b5e4 603b d04a 81bd
00000270: 77ac 14be 0857 a03d f5a3 08be 1598 93bc
00000280: 86d3 bdbc 0839 35bd 55b2 22bb 1604 4d3c
00000290: a9a4 73bd 1bf3 66bc c0dc 913d b3e7 0e3e
000002a0: e44c cd3d 1127 93bd 172c d5bc b63e eebd
000002b0: 0c75 79bd ef2f 043e 2719 803d 4660 283e
000002c0: 138b 9bbc 54ea 02be 830e 21bb 3164 e43d
000002d0: 46e8 d43d 6204 713d c188 b9bd f826 83bd
000002e0: 7200 cbbd a09a c43d a27c 673d 7cac 1a3e
000002f0: 4f5d 033e 7d67 373d d996 e13d 9218 24bd
00000300: 2988 a43d a0f6 b33d 4844 863c 9935 6b3d
00000310: 7a3c 98bd 46df 40bd 3fb8 9dbd d91c 193e
00000320: 1fa1 ed3d 971f 053e 4272 183e a3d1 5d3d
00000330: d41b 76bd 2047 51bd 387f d93b ea1e a5bd
00000340: 2b13 83bd 752b 953d d34f 0e3d b9e5 b4bc
00000350: ed78 2bbe 3ff0 00be 202b 38bc 4b40 8fbb
00000360: af3e ee3d 6cc8 e4bd 9070 c3bd 5489 94bd
00000370: 23ca bbbd b4b4 f93c 5890 963d 0d17 07be
00000380: 114c 13be 23ca f8bd 3a14 003d eaaa 123e
00000390: 6157 0f3c c697 2ebe 517d f6bd d236 ff3d
000003a0: f5a1 0fbd 4792 8ebb b500 bb3d 0d51 23be
000003b0: 3248 e23d 3237 ba3c b757 92bd 66a0 a7bd
000003c0: 8d7b d5bd d549 393c 6861 09ba 8fc6 01be
000003d0: 823a 3dbd 1942 d43d 8e65 533c b0b7 87bd
000003e0: fc6a 7ebd b5a2 d2bd e9f0 d63c c2e1 633d
000003f0: 4d53 a9bb d503 5f3d d15d 8abd fce3 80bb

h.0.mha.W_v.bias f4 [64]
-0.039549176 0.025090033 0.005219207 0.06539332 -0.15170822 -0.066574715 -0.023290688 -0.15396142
-0.083730154 -0.084737256 -0.028839502 -0.17872237 0.15725555 0.06938978 -0.1472503 0.017976576
-0.022366306 -0.11879656 -0.10478095 0.031816885 -0.037032932 -0.09310829 0.04643519 -0.016427223
-0.0174755 0.1485182 0.13972233 -0.02360437 0.04285837 0.16582024 0.053664796 0.1733808
-0.15432338 0.09740104 0.12843962 0.09074036 0.10562876 0.14214203 0.07813477 -0.08788123
-0.116519734 0.035704296 0.097029455 -0.06987325 -0.11202387 -0.021460239 -0.10506195 -0.07007152
-0.12938994 0.053648375 -0.15848784 -0.064854294 -0.15474252 -0.13088916 0.10996639 0.11040934
-0.11172025 -0.069291174 -0.1575256 0.09806346 0.16429901 -0.16743551 -0.005594159 -0.045620196
00000000: 51fe 21bd 9d89 cd3c e205 ab3b efec 853d
00000010: 6659 1bbe 5358 88bd 1dcc bebc 10a8 1dbe
00000020: b77a abbd ba8a adbd d240 ecbc ff02 37be
00000030: 9907 213e 3b1c 8e3d c8c8 16be 9d43 933c
00000040: 8b39 b7bc 9c4b f3bd 6597 d6bd 6c52 023d
00000050: d8af 17bd 8faf bebd d332 3e3d 6292 86bc
00000060: c828 8fbc 2815 183e 5f13 0f3e f45d c1bc
00000070: 428c 2f3d c8cc 293e 9ecf 5b3d bd8a 313e
00000080: f306 1ebe 327a c73d ad85 033e 15d6 b93d
00000090: e453 d83d ae8d 113e 1f05 a03d 13fb b3bd
000000a0: e6a1 eebd ab3e 123d 61b7 c63d b519 8fbd
000000b0: c56c e5bd 62cd afbc b82a d7bd a881 8fbd
000000c0: cc7e 04be 66be 5b3d a34a 22be 54d2 84bd
000000d0: d374 1ebe cf07 06be 0f36 e13d 4b1e e23d
000000e0: 96cd e4bd 88e8 8dbd 644e 21be 7fd5 c83d
000000f0: 003e 283e 3774 2bbe 354f b7bb 3edc 3abd

h.0.mha.W_o.weight f4 [64, 64]
-0.07779169 -0.102556705 0.09443707 -0.055525247 0.039565217 -0.073945336 0.019913835 0.014852091
0.070728466 0.04402097 -0.08472073 0.035476465 -0.07527743 0.018761573 -0.025734005 -0.06455452
0.050947186 -0.06582611 -0.12401383 -0.02071841 -0.20237891 -0.088178545 0.14557624 -0.14317009
-0.09132821 0.0081017 0.007573587 -0.046919987 -0.12925577 0.020996414 -0.1374159 -0.032447584
-0.075779855 -0.0736298 -0.13911606 0.05316431 -0.03631756 0.15962397 0.037452232 0.14846556
0.15262161 0.015134083 0.039026298 -0.047751825 -0.09743041 -0.0678197 -0.05186978 -0.05596379
0.1232535 -0.026100004 0.05013975 -0.06853289 -0.07092093 0.04212205 -0.088171855 0.05578499
0.011404787 0.0568796 0.034665547 0.042022314 -0.13440172 -0.04126924 0.05678517 0.13032131
0.118968904 -0.008313228 0.05914803 0.12630932 0.110246584 -0.08312739 0.0018299302 -0.074235156
0.055789594 0.03974844 0.073252924 -0.10305625 0.14391617 -0.08658216 -0.0077437307 0.116120785
-0.03856854 -0.018057851 0.13518922 -0.008589037 0.064731784 -0.05453216 -0.114515685 0.07205167
0.032238502 -0.06527777 0.053702135 0.00075074565 -0.06391433 0.009467249 0.14950886 -0.058016628
0.044394482 -0.054823395 0.091120385 0.094302446 0.045812696 0.12417348 -0.11613576 -0.0023730043
-0.022817144 0.10212793 0.052005477 0.039241653 -0.13179782 -0.010629366 0.10960064 -0.036844257
0.08298675 0.035171866 -0.09580706 -0.02256102 -0.15784843 0.10318243 -0.04702917 -0.02925058
0.039967775 0.016065633 -0.019465806 -0.034836438 -0.016408158 -0.08984417 0.071032815 -0.0071068257
0.099846326 0.09387331 -0.027028723 -0.021461532 -0.044399854 0.027586283 0.043562822 0.002973075
-0.06800857 -0.007088778 0.0074293823 0.05422259 -0.021673266 0.12551382 0.17358145 -0.03371789
0.06861709 -0.015358931 0.08568743 0.15827513 -0.10459668 -0.13262586 -0.06882515 0.07694601
0.14235729 0.04045699 -0.019762527 0.09489326 -0.02568734 -0.009346716 -0.007826491 -0.028716626
-0.12955102 0.07478349 -0.063576676 0.031077195 0.035072498 -0.08619751 0.16201723 -0.16970667
-0.023804722 -0.011149915 0.006533052 0.06855879 0.049383927 -0.005662123 -0.05724389 0.121706784
0.033050507 0.040316455 0.06002783 -0.090623 0.08789232 -0.050293513 -0.09026495 -0.057451606
-0.10297188 0.0043639285 0.05022834 0.13393067 -0.0010338796 0.11897708 -0.106122315 0.013823181
-0.006210765 -0.009457321 -0.054754693 0.029479936 -0.068133175 -0.16007495 0.17544511 -0.02401542
0.1282182 0.0013093521 0.15730849 0.023005955 -0.14447616 -0.032905456 -0.07515721 0.0033821194
-0.008276041 0.045299884 0.1041356 -0.07771312 -0.10907519 0.15758133 -0.003615822 0.056034707
-0.052532807 0.005366877 0.092682555 0.06222485 0.0119999945 -0.16383456 -0.02110774 0.03209548
-0.1096156 0.069106236 0.0072683394 -0.043863136 0.121381834 0.105462976 -0.10709052 0.11147106
-0.018047817 0.009420689 0.10129911 0.17206746 -0.097354926 0.045347605 0.17415176 0.08649036
-0.11013621 0.09179732 -0.040414695 -0.013301516 0.0705776 0.0708655 0.008061379 -0.05833757
0.07151575 -0.003091235 -0.25443527 -0.076180086 0.0127713075 -0.08055885 -0.13145624 0.118915126
00000000: 4051 9fbd 4009 d2bd 3968 c13d 716e 63bd
00000010: 230f 223d a770 97bd 5722 a33c 2f56 733c
00000020: 16da 903d 554f 343d 1082 adbd c54f 113d
00000030: 0e2b 9abd dfb1 993c 1fd0 d2bc 2935 84bd
00000040: ffad 503d d7cf 86bd f7fa fdbd a8b9 a9bc
00000050: 6b3c 4fbe f496 b4bd f011 153e 2e9b 12be
00000060: 490a bbbd febc 043c da2b f83b 2c2f 40bd
00000070: a05b 04be ac00 ac3c c1b6 0cbe c2e7 04bd
00000080: 7832 9bbd 38cb 96bd 7174 0ebe d2c2 593d
00000090: b9c1 14bd 7774 233e 8367 193d 5b07 183e
000000a0: d748 1c3e f2f4 773c 0ada 1f3d 6b97 43bd
000000b0: 9889 c7bd 0ee5 8abd 6875 54bd 493a 65bd
000000c0: 556c fc3d adcf d5bc 575f 4d3d f95a 8cbd
000000d0: fe3e 91bd 2c88 2c3d 7293 b4bd cd7e 643d
000000e0: 25db 3a3c 95fa 683d 76fd 0d3d 971f 2c3d
000000f0: 9ba0 09be ef09 29bd 9197 683d f372 053e
00000100: f8a5 f33d 3534 08bc 3445 723d 3b57 013e
00000110: f6c8 e13d b13e aabd 45da ef3a 9a08 98bd
00000120: a183 643d 43cf 223d a105 963d 280f d3bd
00000130: c35e 133e fd51 b1bd 1fbf fdbb bcd0 ed3d
00000140: 0cfa 1dbd 0fee 93bc 0b6f 0a3e 08b9 0cbc
00000150: 1992 843d 1d5d 5fbd 3387 eabd d38f 933d
00000160: 850c 043d 5ab0 85bd c5f6 5b3d b0cd 443a
00000170: 84e5 82bd 851c 1b3c da18 193e d8a2 6dbd
00000180: fdd6 353d 7f8e 60bd 539d ba3d a421 c13d
00000190: 18a6 3b3d aa4e fe3d 96d8 edbd 6884 1bbb
000001a0: 05eb babc 7328 d13d b203 553d dbbb 203d
000001b0: 02f6 06be cb26 2ebc 4d76 e03d 01ea 16bd
000001c0: f5f4 a93d 6010 103d 7e36 c4bd e3d1 b8bc
000001d0: 05a3 21be 4f51 d33d a9a1 40bd ea9e efbc
000001e0: 40b5 233d 139c 833c c176 9fbc a7b0 0ebd
000001f0: 676a 86bc 3800 b8bd a779 913d 60e0 e8bb
00000200: 3b7c cc3d a640 c03d 576b ddbc 18d0 afbc
00000210: 9fdc 35bd a1fc e13c ee6e 323d ecd7 423b
00000220: 1448 8bbd fb48 e8bb 2d72 f33b 8218 5e3d
00000230: 228c b1bc b286 003e 56bf 313e c51b 0abd
00000240: 1e87 8c3d 07a4 7bbc e47c af3d e012 223e
00000250: c936 d6bd 13cf 07be 33f4 8cbd df95 9d3d
00000260: 1cc6 113e 3bb6 253d 06e5 a1bc 6657 c23d
00000270: 426e d2bc f822 19bc af3a 00bc 213f ebbc
00000280: 06a9 04be 1628 993d 7d34 82bd 9a95 fe3c
00000290: 2ea8 0f3d 5288 b0bd d8e7 253e 96c7 2dbe
000002a0: 1f02 c3bc 22ae 36bc 3613 d63b 8d68 8c3d
000002b0: cd46 4a3d 5589 b9bb 9278 6abd 6841 f93d
000002c0: f85f 073d de22 253d bedf 753d 8d98 b9bd
000002d0: e300 b43d 9200 4ebd d5dc b8bd 6052 6bbd
000002e0: ece2 d2bd 49ff 8e3b 3bbc 4d3d 1f25 093e
000002f0: 3e83 87ba 41aa f33d a856 d9bd a07a 623c
00000300: ac83 cbbb e1f2 1abc 7546 60bd e87f f13c
00000310: 6889 8bbd b0ea 23be e2a7 333e fcbb c4bc
00000320: a24b 033e 919e ab3a 7a15 213e fc76 bc3c
00000330: 8ff1 13be dfc7 06bd 06ec 99bd 8ca6 5d3b
00000340: 3b98 07bc 5f8c 393d 0c45 d53d 0e28 9fbd
00000350: d062 dfbd 005d 213e 6df7 6cbb a684 653d
00000360: a42c 57bd a1dc af3b 5ad0 bd3d 7cdf 7e3d
00000370: a09b 443c 3fc4 27be 24ea acbc 8d76 033d
00000380: 257e e0bd 9287 8d3d 402b ee3b d5a9 33bd
00000390: 0a97 f83d f9fc d73d 4652 dbbd f04a e43d
000003a0: 04d9 93bc 3c59 1a3c e875 cf3d 7432 303e
000003b0: 0562 c7bd 69be 393d d754 323e dc21 b13d
000003c0: 188f e1bd 3c00 bc3d e189 25bd 9aee 59bc
000003d0: fd8a 903d ee21 913d e013 043c 60f3 6ebd
000003e0: d976 923d 5196 4abb 5745 82be 4e04 9cbd
000003f0: bf3e 513c 0afc a4bd 779c 06be c689 f33d

h.0.mha.W_o.bias f4 [64]
-0.1531535 0.090257876 0.07272507 -0.083543964 0.16239737 -0.05461092 -0.088973634 0.056774974
-0.06774055 0.14579132 -0.09348173 0.042652473 -0.09808179 0.13735278 -0.044773646 0.16328354
0.056567226 0.06529092 0.1096138 -0.01381345 -0.093363635 0.102917396 -0.0646142 0.05711837
-0.075443886 0.11113508 0.03212128 -0.08771606 -0.08673021 0.12456073 -0.0033477177 0.051993806
0.1354886 -0.12512127 -0.10969218 0.12594101 0.018329646 -0.062266357 -0.14928097 -0.017973911
-0.119965374 -0.049800243 -0.17259236 -0.03788623 -0.13092321 0.06804218 -0.059103318 0.040637262
-0.051875312 0.10391891 0.14361866 0.029955423 -0.06630415 0.01550286 0.018323865 -0.18049109
0.11072522 0.061809495 0.11633439 -0.0006065308 -0.06077777 0.042647637 0.17959216 -0.06664291
00000000: 45d4 1cbe 1fd9 b83d e2f0 943d 1919 abbd
00000010: 7f4b 263e b3af 5fbd cf37 b6bd e08c 683d
00000020: 8fbb 8abd 524a 153e 5973 bfbd 5cb4 2e3d
00000030: 1bdf c8bd 35a6 0c3e 9264 37bd cd33 273e
00000040: 09b3 673d 3fb7 853d 337d e03d cf51 62bc
00000050: 6f35 bfbd 5bc6 d23d 7354 84bd f4f4 693d
00000060: 5382 9abd ca9a e33d 9a91 033d 7aa4 b3bd
00000070: 9c9f b1bd b219 ff3d 6265 5bbb 75f7 543d
00000080: 86bd 0a3e ca1f 00be 4ba6 e0bd aef6 003e
00000090: 0e28 963c 020b 7fbd 1cdd 18be 063e 93bc
000000a0: 68b0 f5bd 57fb 4bbd 0dbc 30be 972e 1bbd
000000b0: bc10 06be b359 8b3d 5216 72bd 4273 263d
000000c0: 357b 54bd 70d3 d43d c510 133e 1365 f53c
000000d0: 78ca 87bd b5ff 7d3c ee1b 963c a8d2 38be
000000e0: e7c3 e23d f42b 7d3d ba40 ee3d 98ff 1eba
000000f0: 1cf2 78bd 4aaf 2e3d 02e7 373e 147c 88bd

h.0.ln_1.weight f4 [64]
1.0115516 0.9546488 1.0108474 1.0978656 1.0351113 1.0314269 0.99662334 1.0229268
0.9838808 0.97973746 1.0188323 1.0314626 0.99702924 1.027842 1.0167288 1.0322704
1.009382 1.0147078 0.92463636 0.9871882 0.99795675 0.90012044 0.96512526 1.051345
0.9259289 0.962444 0.9921573 0.97967285 0.9795514 0.9236033 0.9546294 1.0510446
0.98804873 0.9827851 0.95563394 1.0586606 1.024683 0.9871649 1.0051218 0.97407645
0.97763705 0.99220884 0.9690612 0.9974359 1.024126 1.0191559 1.0019202 0.9335513
0.99449086 1.0103596 1.0269675 1.0325109 0.96733236 1.0308875 0.98228276 1.0068532
1.007854 1.0217776 0.99135613 0.9299249 0.9439674 0.84057224 1.0250038 0.9925374
00000000: 867a 813f dd63 743f 7363 813f dc86 8c3f
00000010: 877e 843f cc05 843f b522 7f3f 44ef 823f
00000020: 9ddf 7b3f 13d0 7a3f 1969 823f f706 843f
00000030: 4f3d 7f3f 5490 833f 2b24 823f 7021 843f
00000040: 6e33 813f f2e1 813f f8b4 6c3f 5eb8 7c3f
00000050: 187a 7f3f 4b6e 663f 7312 773f 7992 863f
00000060: ad09 6d3f bb62 763f 05fe 7d3f d7cb 7a3f
00000070: e1c3 7a3f 4471 6c3f 9862 743f a188 863f
00000080: c3f0 7c3f ce97 7b3f 6da4 743f 3182 873f
00000090: d028 833f d7b6 7c3f d5a7 803f 135d 793f
000000a0: 6c46 7a3f 6601 7e3f 6514 783f f657 7f3f
000000b0: 9016 833f b373 823f ec3e 803f 38fd 6e3f
000000c0: f496 7e3f 7753 813f ac73 833f 5129 843f
000000d0: 18a3 773f 1ff4 833f e276 7b3f 91e0 803f
000000e0: 5c01 813f 9cc9 823f 84c9 7d3f 8f0f 6e3f
000000f0: d9a7 713f be2f 573f 5333 833f ee16 7e3f

h.0.ln_1.bias f4 [64]
-0.008377442 0.037354574 -0.071991265 -0.01211296 0.084883586 0.06966513 0.068031885 0.05867277
-0.05937953 0.04259433 -0.06454733 0.034037326 -0.15661338 0.089245036 0.0045520747 0.019451812
-0.057849966 0.037445966 0.07247571 -0.07684255 -0.008020572 0.06819088 -0.017052013 -0.072181225
-0.055878337 0.14268975 -0.066691935 -0.025184305 -0.032081574 0.1340607 0.041528523 -0.014099422
-0.003069367 -0.05542451 0.009280824 0.06266993 -0.023851445 0.080297194 -0.06671653 0.07682433
0.05977509 -0.07896956 -0.08359472 0.039003998 0.014930672 -0.031296946 -0.08642904 -0.09668492
-0.017480599 -0.08166232 0.05993673 0.04572693 -0.081002355 0.022366503 0.12667425 -0.0664656
0.059407942 -0.021260887 -0.061540898 0.0067901467 0.0024159814 -0.08327241 -0.0658974 -0.060411047
00000000: 8a41 09bc 1c01 193d 2870 93bd 7075 46bc
00000010: 72d7 ad3d 97ac 8e3d 4d54 8b3d dc52 703d
00000020: f337 73bd 6477 2e3d 6431 84bd b96a 0b3d
00000030: 425f 20be 1ac6 b63d 9229 953b 6859 9f3c
00000040: 16f4 6cbd f160 193d 256e 943d a05f 9dbd
00000050: b868 03bc a9a7 8b3d aab0 8bbc c0d3 93bd
00000060: afe0 64bd 431d 123e c895 88bd 514f cebc
00000070: f867 03bd 3547 093e d019 2a3d 4301 67bc
00000080: 6f27 49bb d004 63bd 990e 183c 1859 803d
00000090: 1b64 c3bc db72 a43d ada2 88bd 1356 9d3d
000000a0: bad6 743d cbba a1bd b533 abbd a8c2 1f3d
000000b0: c79f 743c 3a31 00bd b501 b1bd be02 c6bd
000000c0: 7933 8fbc 933e a7bd 3780 753d 294c 3b3d
000000d0: 90e4 a5bd f539 b73c e5b6 013e 1e1f 88bd
000000e0: be55 733d 502b aebc 4f12 7cbd e17f de3b
000000f0: 7155 1e3b ba8a aabd 37f5 86bd 9371 77bd

h.0.ln_2.weight f4 [64]
1.0 1.0 1.0 1.0 1.0 1.0 1.0 1.0
1.0 1.0 1.0 1.0 1.0 1.0 1.0 1.0
1.0 1.0 1.0 1.0 1.0 1.0 1.0 1.0
1.0 1.0 1.0 1.0 1.0 1.0 1.0 1.0
1.0 1.0 1.0 1.0 1.0 1.0 1.0 1.0
1.0 1.0 1.0 1.0 1.0 1.0 1.0 1.0
1.0 1.0 1.0 1.0 1.0 1.0 1.0 1.0
1.0 1.0 1.0 1.0 1.0 1.0 1.0 1.0
00000000: 0000 803f 0000 803f 0000 803f 0000 803f
00000010: 0000 803f 0000 803f 0000 803f 0000 803f
00000020: 0000 803f 0000 803f 0000 803f 0000 803f
00000030: 0000 803f 0000 803f 0000 803f 0000 803f
00000040: 0000 803f 0000 803f 0000 803f 0000 803f
00000050: 0000 803f 0000 803f 0000 803f 0000 803f
00000060: 0000 803f 0000 803f 0000 803f 0000 803f
00000070: 0000 803f 0000 803f 0000 803f 0000 803f
00000080: 0000 803f 0000 803f 0000 803f 0000 803f
00000090: 0000 803f 0000 803f 0000 803f 0000 803f
000000a0: 0000 803f 0000 803f 0000 803f 0000 803f
000000b0: 0000 803f 0000 803f 0000 803f 0000 803f
000000c0: 0000 803f 0000 803f 0000 803f 0000 803f
000000d0: 0000 803f 0000 803f 0000 803f 0000 803f
000000e0: 0000 803f 0000 803f 0000 803f 0000 803f
000000f0: 0000 803f 0000 803f 0000 803f 0000 803f

h.0.ln_2.bias f4 [64]
0.0 0.0 0.0 0.0 0.0 0.0 0.0 0.0
0.0 0.0 0.0 0.0 0.0 0.0 0.0 0.0
0.0 0.0 0.0 0.0 0.0 0.0 0.0 0.0
0.0 0.0 0.0 0.0 0.0 0.0 0.0 0.0
0.0 0.0 0.0 0.0 0.0 0.0 0.0 0.0
0.0 0.0 0.0 0.0 0.0 0.0 0.0 0.0
0.0 0.0 0.0 0.0 0.0 0.0 0.0 0.0
0.0 0.0 0.0 0.0 0.0 0.0 0.0 0.0
00000000: 0000 0000 0000 0000 0000 0000 0000 0000
00000010: 0000 0000 0000 0000 0000 0000 0000 0000
00000020: 0000 0000 0000 0000 0000 0000 0000 0000
00000030: 0000 0000 0000 0000 0000 0000 0000 0000
00000040: 0000 0000 0000 0000 0000 0000 0000 0000
00000050: 0000 0000 0000 0000 0000 0000 0000 0000
00000060: 0000 0000 0000 0000 0000 0000 0000 0000
00000070: 0000 0000 0000 0000 0000 0000 0000 0000
00000080: 0000 0000 0000 0000 0000 0000 0000 0000
00000090: 0000 0000 0000 0000 0000 0000 0000 0000
000000a0: 0000 0000 0000 0000 0000 0000 0000 0000
000000b0: 0000 0000 0000 0000 0000 0000 0000 0000
000000c0: 0000 0000 0000 0000 0000 0000 0000 0000
000000d0: 0000 0000 0000 0000 0000 0000 0000 0000
000000e0: 0000 0000 0000 0000 0000 0000 0000 0000
000000f0: 0000 0000 0000 0000 0000 0000 0000 0000

h.1.mha.W_q.weight f4 [64, 64]
0.008558179 0.023087975 0.0065673846 -0.066922575 -0.0062667285 -0.07617513 0.111225605 0.10569754
-0.08804896 -0.021569028 -0.005650236 0.00092460954 0.0018630999 -0.019786019 0.027760223 0.13850617
-0.08625389 -0.06813043 0.003474894 -0.0596209 0.01825618 0.061811235 0.08396677 -0.105279185
0.0243649 -0.077510305 0.06944398 0.037240583 -0.12965947 0.07575188 0.0030830163 -0.01664219
0.0054464224 -0.090033114 -0.04907207 0.03189322 -0.08061276 -0.014800158 -0.059087384 -0.009662843
-0.004494466 0.0009081762 0.0051026377 0.0174394 -0.014989136 -0.032884363 -0.031391017 0.043257758
-0.07668794 -0.038224805 0.0820757 0.078048445 -0.046477314 0.006116553 0.1532525 -0.11444853
-0.12659308 -0.054719053 -0.09524421 0.050576214 0.09779729 -0.0068996097 0.07943063 -0.14613034
0.053675666 0.1329702 0.08547625 -0.059545536 -0.08444419 -0.10946508 -0.028312128 -0.06753529
0.039457414 -0.026299627 0.04598821 -0.020852664 -0.07156043 0.0027122917 -0.116836905 -0.07093948
0.035218563 0.026054004 0.015678588 -0.096777625 0.07025145 -0.040360104 0.08206695 -0.08976748
0.035823066 0.16440734 -0.09311936 0.023179023 -0.059324216 -0.062149674 -0.121238254 0.017374394
-0.003322418 0.121636316 0.12868215 -0.013072294 -0.09860292 -0.030449763 -0.00021994863 -0.15497515
-0.0017065717 0.07014472 0.03017644 0.025726402 0.081359506 -0.04413522 -0.09280739 0.08106143
-0.050687876 -0.05353681 -0.0009847289 0.0013111166 0.028914131 -0.13413681 -0.00033266612 0.040906254
0.080001935 -0.050684124 0.009343458 0.029026927 -0.0033705062 -0.04325416 0.09089361 0.12408394
0.119944416 0.0018086742 0.002242217 0.06693597 -0.069719076 -0.09552285 -0.019763866 0.008690062
0.0105847 -0.09753285 0.086317785 0.092574745 0.14336258 0.003916087 0.013463717 -0.08460912
0.12564813 -0.02728702 0.03332301 -0.09164688 -0.048656084 0.053642977 -0.016750375 -0.044800308
-0.08328321 0.09375368 -0.017462369 0.027628845 -0.10141209 0.038633343 0.0036721558 -0.012211539
-0.06634478 0.053862464 0.0050498247 0.046933793 0.0045516477 -0.092162214 -0.090673715 -0.090365544
0.028520994 -0.015730087 0.0037626135 0.10310171 -0.000895677 0.11390164 0.015226488 0.078009725
0.09050068 0.0041978066 0.020734638 -0.009178709 -0.01049126 0.02560186 -0.07645271 0.09795996
0.028632378 -0.09884044 0.04611206 0.0039104116 -0.0032913736 -0.08185509 0.1146137 -0.10214373
-0.05310554 -0.12388515 -0.053042173 0.11991599 0.085601754 -0.10128015 -0.04537498 -0.0044330982
-0.04244511 0.015162364 0.028061302 -0.101631425 0.050919246 -0.061858125 0.06724611 0.101575926
-0.10585842 -0.08493935 -0.04596335 -0.14961895 -0.016578104 -0.03073768 0.02408755 -0.018553864
0.089010425 -0.032856103 -0.050972 -0.088035315 0.01709719 -0.04873965 -0.024980491 -0.06265412
0.046165276 0.050618444 0.07451665 0.023549983 0.011593322 0.09059078 0.021905137 0.06835577
0.10962955 -0.07525048 -0.03875743 -0.13277927 0.047644448 0.10314486 0.048942737 0.0674233
-0.15164584 0.052474476 0.035591323 -0.023227973 -0.028123576 -0.10869798 -0.09487034 -0.09188493
0.054687496 0.122347385 0.06989923 -0.011249481 -0.042569183 0.070197746 -0.020922406 -0.03350396
00000000: 9b37 0c3c fe22 bd3c 3733 d73b b40e 89bd
00000010: 2159 cdbb b501 9cbd 40ca e33d f477 d83d
00000020: 0353 b4bd 88b1 b0bc 9d25 b9bb 7f61 723a
00000030: 4233 f43a 4a16 a2bc 6869 e33c 90d4 0d3e
00000040: e1a5 b0bd f887 8bbd 0cbb 633b 0b35 74bd
00000050: fc8d 953c c72d 7d3d c5f6 ab3d 9d9c d7bd
00000060: e698 c73c b9bd 9ebd a538 8e3d 9589 183d
00000070: 74c5 04be cd23 9b3d 6e0c 4a3b 3455 88bc
00000080: e777 b23b 4863 b8bd cbff 48bd 77a2 023d
00000090: 4d18 a5bd 5d7c 72bc 9d05 72bd e750 1ebc
000000a0: 5046 93bb ac12 6e3a 0734 a73b 13dd 8e3c
000000b0: fe94 75bc c1b1 06bd de93 00bd 0c2f 313d
000000c0: 910e 9dbd 9d91 1cbd 4e17 a83d ddd7 9f3d
000000d0: ff5e 3ebd 5e6d c83b 39ee 1c3e fe63 eabd
000000e0: 9ea1 01be 1621 60bd 650f c3bd 0129 4f3d
000000f0: f249 c83d 1f16 e2bb 87ac a23d 31a3 15be
00000100: 04db 5b3d 5729 083e 2c0e af3d 05e6 73bd
00000110: 13f1 acbd 3a2f e0bd d6ee e7bc f14f 8abd
00000120: 199e 213d 5172 d7bc 225e 3c3d 35d3 aabc
00000130: 468e 92bd b4c0 313b 3048 efbd b848 91bd
00000140: 5741 103d 356f d53c 6270 803c 5933 c6bd
00000150: fedf 8f3d a350 25bd b812 a83d 03d8 b7bd
00000160: 35bb 123d 665a 283e 5db5 bebd efe1 bd3c
00000170: f3fd 72bd a890 7ebd c34b f8bd bf54 8e3c
00000180: edbc 59bb 761c f93d 41c5 033e 2d2d 56bc
00000190: 54f0 c9bd c871 f9bc 03a2 66b9 ceb1 1ebe
000001a0: 0baf dfba 09a8 8f3d 9534 f73c 2dc0 d23c
000001b0: d09f a63d 22c7 34bd cd11 bebd 8903 a63d
000001c0: 179e 4fbd 6a49 5bbd 0512 81ba c6d9 ab3a
000001d0: 54dd ec3c 295b 09be b169 aeb9 518d 273d
000001e0: 0ed8 a33d 289a 4fbd 4e15 193c e1c9 ed3c
000001f0: b6e3 5cbb 462b 31bd 6e26 ba3d b91f fe3d
00000200: 6ba5 f53d 0911 ed3a 29f2 123b ba15 893d
00000210: e0c8 8ebd 7ca1 c3bd d5e7 a1bc c360 0e3c
00000220: 736b 2d3c 4ebf c7bd 61c7 b03d d497 bd3d
00000230: a4cd 123e 8552 803b ec96 5c3c 8c47 adbd
00000240: e7a9 003e 0789 dfbc b57d 083d 5cb1 bbbd
00000250: 9a4b 47bd bdb8 5b3d 1538 89bc 8780 37bd
00000260: 6390 aabd ee01 c03d 3e0d 8fbc e355 e23c
00000270: 24b1 cfbd ff3d 1e3d 8da8 703b e812 48bc
00000280: c6df 87bd e39e 5c3d 0079 a53b a63d 403d
00000290: fd25 953b 8bbf bcbd 24b3 b9bd 9211 b9bd
000002a0: dca4 e93c 62dc 80bc 2e96 763b fd26 d33d
000002b0: decb 6aba 4345 e93d 8578 793c 90c3 9f3d
000002c0: 6c58 b93d c18d 893b b0db a93c 4c62 16bc
000002d0: 89e3 2bbc feba d13c 3d93 9cbd 3b9f c83d
000002e0: 738e ea3c db6c cabd 00e0 3c3d e922 803b
000002f0: 16b4 57bb a4a3 a7bd 96ba ea3d bb30 d1bd
00000300: 3285 59bd 7fb7 fdbd c042 59bd 8496 f53d
00000310: f94f af3d f86b cfbd 1ddb 39bd 8643 91bb
00000320: ecda 2dbd 906b 783c d1e0 e53c 2324 d0bd
00000330: b390 503d f25e 7dbd 54b8 893d 0a07 d03d
00000340: 4dcc d8bd aff4 adbd 1144 3cbd b635 19be
00000350: cece 87bc 96cd fbbc 4153 c53c 46fe 97bc
00000360: 194b b63d 1f94 06bd 04c8 50bd dc4b b4bd
00000370: 680f 8c3c 3aa3 47bd e3a3 ccbc ce50 80bd
00000380: cd17 3d3d 4955 4f3d 2f9c 983d e5eb c03c
00000390: ebf1 3d3c a987 b93d 6772 b33c 1cfe 8b3d
000003a0: 7585 e03d ec1c 9abd 1cc0 1ebd 4af7 07be
000003b0: d326 433d 9d3d d33d 2e78 483d 3a15 8a3d
000003c0: 0c49 1bbe 7aef 563d 35c8 113d 9748 bebc
000003d0: 6a63 e6bc 0c9d debd 614b c2bd 2b2e bcbd
000003e0: ffff 5f3d 4491 fa3d 5427 8f3d be4f 38bc
000003f0: 065d 2ebd d6c3 8f3d 7765 abbc 733b 09bd
