subspace-alignment/data/2_layer_64_vocab/ckpt_4020.pt (torch, 178561 bytes, 29 tensors)

embed.embed.weight f4 [64, 64]
0	0xbe3b25e0	-0.18276167
1	0x3f718c46	0.94354665
2	0x3f107d72	0.56441414
3	0x3da16f1c	0.078825206
4	0xbd9fc8d3	-0.07801976
5	0xbf152f77	-0.5827555
6	0xbfb362a6	-1.401448
7	0x3e59cce8	0.21269572
8	0xbefe6ef9	-0.4969404
9	0x3eb1aa3f	0.347002
10	0xbfa107e6	-1.2580535
11	0x3ea8eee3	0.32994756
12	0xbe34c05e	-0.17651507
13	0xbf6e5263	-0.9309446
14	0x3f869f2c	1.0517325
15	0x3d52b623	0.05144323
16	0x3e396f97	0.18108974
17	0x3d5d941b	0.054096323
18	0x3f483ed0	0.78220844
19	0xbf3ee590	-0.74569035
20	0xbf007a29	-0.501864
21	0x3fc42870	1.532484
22	0x3fb7ce81	1.4359895
23	0xbf8d0b5a	-1.1019089
24	0xbff7073b	-1.9299082
25	0x3fc06330	1.503027
26	0xbf404344	-0.7510264
27	0x40044042	2.066422
28	0x3f5f52e1	0.8723584
29	0x3f1127ea	0.5670153
30	0xbef8ba9a	-0.48579866
31	0x3ec7e2e8	0.39040303
32	0x3f807d07	1.0038155
33	0xbf71ac10	-0.9440317
34	0x3ed75cce	0.42062992
35	0xbf791743	-0.9730112
36	0xbf91bbca	-1.1385434
37	0x3eb62118	0.35572124
38	0xbf5ca407	-0.86187786
39	0x3f0deb94	0.5543759
40	0xbfc47e94	-1.5351129
41	0xbf653058	-0.8952689
42	0x3e9485fd	0.29008475
43	0x3f0325f4	0.51229787
44	0x3fa728ec	1.3059363
45	0x3f782808	0.9693608
46	0xbe9fb1e9	-0.31190422
47	0xbf100b31	-0.56267077
48	0xbf5c492b	-0.86049145
49	0xbfb9ba22	-1.4509928
50	0xbcef7de2	-0.02923483
51	0xbf146de5	-0.57980186
52	0x3ede00af	0.43359897
53	0x3f884e78	1.0648947
54	0x3bf0e9e9	0.007352103
55	0xbf525276	-0.82157075
56	0x3eb8b1fe	0.36073297
57	0xbec0f9fc	-0.37690723
58	0xbf639449	-0.8889814
59	0xbfc9ea1e	-1.5774572
60	0x3ebebe88	0.3725474
61	0xbe8633e1	-0.26211455
62	0xbdcb9e29	-0.09942276
63	0x3f435c0b	0.7631232
64	0x3edf018b	0.43555865
65	0xbf9943ef	-1.1973857
66	0xbf9b64f0	-1.2140179
67	0x3d98f7ba	0.07469125
68	0x3ff3ffae	1.9062402
69	0xbfa4f72d	-1.2887932
70	0xbe853835	-0.26019445
71	0xbf0c4c85	-0.5480426
72	0x3e86d3ac	0.26333368
73	0xbe59c5a1	-0.21266796
74	0xbbcb9e0e	-0.00621391
75	0x3e6bec25	0.230393
76	0x3ec94dd1	0.39317182
77	0x3eb990a9	0.3624318
78	0x3e7ebaf7	0.24876009
79	0x3f304b62	0.68865025
80	0x3fa0a2a6	1.2549636
81	0xbf037a84	-0.5135882
82	0x3f840422	1.0313761
83	0x3eb7f9f1	0.35932878
84	0x3ee51d08	0.44748712
85	0xbf00b9a4	-0.50283265
86	0x3fcbcfd1	1.5922796
87	0x3ed6e569	0.419719
88	0x3df3eb61	0.11910129
89	0x3f7bd258	0.98367834
90	0xbfa72867	-1.3059205
91	0x3e34ee9e	0.1766915
92	0xbff49729	-1.910863
93	0x3febac42	1.8411944
94	0x3dec5f48	0.11541611
95	0xbf5f4ff5	-0.8723138
96	0xbf8a1892	-1.0788748
97	0xbfa9f3e2	-1.3277552
98	0x3f2717df	0.652708
99	0xbdfb7b1e	-0.12279342
100	0x3f8eeb98	1.1165648
101	0x3f4fc18a	0.8115469
102	0x3fb31c55	1.3993021
103	0x3e5e7e88	0.21727955
104	0xbf6c783c	-0.92370963
105	0xbe5aa2f7	-0.21351229
106	0x3f901459	1.125621
107	0x3ecbec68	0.398288
108	0xbefee7ce	-0.49786228
109	0xbe10e3d4	-0.1414941
110	0xbf951228	-1.1646166
111	0xbfaaefb3	-1.33544
112	0xbe29bd92	-0.16576222
113	0xbeda24fc	-0.42606342
114	0x3fb8970c	1.4421096
115	0xbe3c2008	-0.18371594
116	0xbf09fe4a	-0.5390364
117	0xbda59931	-0.080858596
118	0x3dac1dc7	0.08404117
119	0xbf425571	-0.75911623
120	0x3a7f6977	0.00097431935
121	0xbf49a61f	-0.78769106
122	0xbeba0ae2	-0.36336428
123	0x3dc6e187	0.09710985
124	0x3e855708	0.26042962
125	0xc0155ffc	-2.3339834
126	0xbf3d625d	-0.73978215
127	0x3e66f2c3	0.22553544
128	0x3f76084a	0.961064
129	0x3f5d6020	0.864748
130	0xbe4fa3a2	-0.20277265
131	0xbdd993c5	-0.10623888
132	0xbe8f98fe	-0.2804641
133	0x3f2a1574	0.66438985
134	0xbf38318f	-0.7195062
135	0xbfc29cc9	-1.5204097
136	0x3f019174	0.5061257
137	0xbf77c364	-0.9678252
138	0x3ea65d57	0.32493088
139	0xbecf8eec	-0.40538728
140	0xbef2b9a9	-0.47407272
141	0x3f3ba057	0.73291534
142	0x3ebad292	0.36488777
143	0x3ebf01bc	0.3730601
144	0xbf2d50d7	-0.67701477
145	0xbf855ab9	-1.0418311
146	0xbfde9dae	-1.739187
147	0xbf4061e9	-0.751494
148	0x3e4df4a1	0.2011285
149	0x3f929933	1.1453003
150	0xbf8212cb	-1.0161985
151	0xbeb8bda1	-0.36082175
152	0x3ec8f305	0.3924791
153	0x3efc667e	0.49296945
154	0xbed3d4c0	-0.41373253
155	0x3da7bde7	0.08190518
156	0xbf4be6ce	-0.79649055
157	0x3fc02277	1.5010518
158	0x3f9cc187	1.224656
159	0x3f0fdd30	0.5619688
160	0xbf5b1234	-0.8557465
161	0x3efa0c28	0.488374
162	0x3e7be1c6	0.24597844
163	0x3f7c0f8f	0.9846124
164	0xbf8c6ab8	-1.0970068
165	0xbfd785e2	-1.6837733
166	0xbead1d6c	-0.3381151
167	0x4010a8e8	2.2603092
168	0xbf08da13	-0.53457755
169	0xbf6ba9b0	-0.920558
170	0x3cdbdc69	0.026838498
171	0xbd643161	-0.055711154
172	0x3cad3640	0.021144032
173	0xbf67ddbe	-0.90572727
174	0x3f772a61	0.9654904
175	0xbe75f3bc	-0.24018759
176	0xbeb55921	-0.35419562
177	0xbf74f86e	-0.95691574
178	0x400225e3	2.0335624
179	0xbeaa6af6	-0.3328473
180	0x3eae2e61	0.3401976
181	0xbf0969f1	-0.5367728
182	0xbfdd71f3	-1.73004
183	0xbeddd8df	-0.43329522
184	0x3f0f6fd2	0.5603
185	0xbdd0e823	-0.102005266
186	0xbf0c6976	-0.5484842
187	0x3f6288a5	0.88489753
188	0xc0221397	-2.5324457
189	0x3f041449	0.5159345
190	0x3e8da349	0.2766364
191	0x3eef24b7	0.467077
192	0xbf980aa4	-1.1878247
193	0x3f811c53	1.0086769
194	0xbd50f095	-0.051010687
195	0xbde198e9	-0.110154934
196	0xbfc3f0d1	-1.5307866
197	0xbef81371	-0.48452333
198	0x3fa37d37	1.2772588
199	0x3eb32012	0.34985405
200	0xbf950ca8	-1.1644487
201	0xbfa745da	-1.3068192
202	0xbfca6ae2	-1.5813868
203	0xbec14e71	-0.3775516
204	0xc01a432d	-2.41035
205	0x400b0665	2.1722653
206	0xbf891003	-1.0708011
207	0x3f20fd82	0.6288682
208	0x3f09d27f	0.53836817
209	0xbea06a0e	-0.31330913
210	0x3f4c6405	0.7984012
211	0x3e6aa33d	0.22913833
212	0x3f39d291	0.72586924
213	0xbf4aca98	-0.79215384
214	0xbf96e2d6	-1.1787975
215	0x3f2ef9d3	0.6834995
216	0xbfdc6fc8	-1.7221613
217	0x3fc1357c	1.5094447
218	0x3ea45e1b	0.32103047
219	0x3efadcbf	0.4899654
220	0x3e8f5fd1	0.2800279
221	0xbe85bf92	-0.2612272
222	0xbed53f0d	-0.41649666
223	0x3f780013	0.96875113
224	0x3f414166	0.75490415
225	0x3f6715b3	0.90267485
226	0xbf2ee006	-0.6831058
227	0xbf818ef0	-1.0121746
228	0x3e441773	0.1914957
229	0xbf5050ba	-0.8137318
230	0x3efe09ef	0.49616954
231	0x3f8e88b9	1.1135474
232	0x3fd21199	1.641162
233	0x3ceefd18	0.029173419
234	0xbf69ff3a	-0.9140507
235	0x3f576735	0.84141856
236	0x3f56f469	0.8396669
237	0x3fc240c3	1.5176014
238	0x3f4bd3a6	0.79619825
239	0x3f322528	0.69587946
240	0x3f5290d4	0.8225224
241	0xbf51299f	-0.81704134
242	0x3f0ce40e	0.55035484
243	0x3be14ffc	0.00687599
244	0xbfa0d495	-1.2564875
245	0x3f927434	1.1441712
246	0x3eafbd54	0.34324133
247	0xbef5cfc3	-0.48010072
248	0x3ed992c0	0.42494774
249	0x3f976f6b	1.1830877
250	0xc014ea94	-2.3268175
251	0xbd706a72	-0.058695264
252	0xbd09cf6d	-0.033645082
253	0xbf19bce0	-0.60053825
254	0xbf255d8d	-0.6459587
255	0xbde1a325	-0.110174455

h.0.mha.W_q.weight f4 [64, 64]
0	0x3a299e88	0.00064704614
1	0xbe01056f	-0.12599729
2	0x3d59c3f8	0.053165406
3	0x3d4f97b8	0.0506818
4	0xbc09dd77	-0.008414618
5	0x3e007679	0.12545194
6	0x3d70f1af	0.058824237
7	0x3d6dcca6	0.058056496
8	0x3db22333	0.0869812
9	0x3db7ed82	0.08980848
10	0x3d850b58	0.06496304
11	0x3d2d1551	0.042256657
12	0x3d2bf5aa	0.04198233
13	0xbd9a9d4d	-0.07549534
14	0xbd1a01b7	-0.03759929
15	0xbd97fdab	-0.0742143
16	0x3d781def	0.060575422
17	0xbd4c05e7	-0.049810316
18	0xbd20aade	-0.03922545
19	0x3d475eba	0.048674323
20	0x3d5a2fdb	0.053268295
21	0xbd13a7a7	-0.036048558
22	0x3d7d1bba	0.06179402
23	0x3ccd425a	0.025056053
24	0x3d67331e	0.056445234
25	0xbdb41b52	-0.087942734
26	0x3dc74314	0.09729591
27	0xbdb555eb	-0.08854278
28	0x3ddfaa2a	0.10921128
29	0xbdec2e3d	-0.11532257
30	0xbc868396	-0.016420167
31	0xbd55e9e2	-0.052225
32	0x3c80fc66	0.015745353
33	0x3db4feaf	0.088376395
34	0xbce336cd	-0.027736092
35	0xbd5b9229	-0.053606186
36	0xbdb1a28a	-0.0867358
37	0xbc1e224e	-0.009651734
38	0x3c1af25b	0.009457196
39	0xbd8d3543	-0.068949245
40	0xbd35dd29	-0.044400368
41	0x3db5beff	0.0887432
42	0x3c5d328e	0.013500823
43	0xbdb3dc99	-0.0878231
44	0xbaa2b7c6	-0.0012414388
45	0x3bed0691	0.007233449
46	0xbbc18c9d	-0.005906655
47	0x3cfb6fef	0.030693023
48	0x3d6b4711	0.05744082
49	0x3d4426e8	0.047888666
50	0x3cd0d23f	0.025490878
51	0x3d7dd97f	0.061975
52	0x3cceb4a4	0.02523262
53	0xbc789789	-0.015172848
54	0xbd4da0ec	-0.050202295
55	0x3d6d19cb	0.057885926
56	0x3c3099a7	0.010778821
57	0xbd9a2f42	-0.07528545
58	0x3cfe5f12	0.031051192
59	0xbdab86c9	-0.083753176
60	0x3d556409	0.052097354
61	0xbc835805	-0.016033182
62	0x3c9959a6	0.018719506
63	0x3d1d8c96	0.03846415
64	0x3cbcc4b0	0.023043007
65	0x3e04bdbc	0.12963003
66	0xbe6e13f3	-0.23249798
67	0x3de9db7c	0.114188164
68	0x3e0f3aa8	0.1398722
69	0x3e0c68b0	0.1371181
70	0xbc9a8f78	-0.01886724
71	0x3c80d49b	0.015726378
72	0xbde67085	-0.1125193
73	0x3e0045e4	0.12526661
74	0xbd81d1de	-0.06338857
75	0xbcea61b7	-0.028611047
76	0xbe5e3d79	-0.21703137
77	0x3e3d6291	0.18494631
78	0xbbe47c18	-0.006972801
79	0xbdab5cb9	-0.08367295
80	0xbdbae668	-0.09125978
81	0x3e1746f6	0.14773163
82	0x3db20ec5	0.08694223
83	0xbdec03a0	-0.11524129
84	0xbc235879	-0.009969824
85	0x3d3f3f4c	0.046691224
86	0x3d36b9b2	0.044610687
87	0xbe691d30	-0.2276504
88	0xbd47e4a7	-0.048802044
89	0x3d620b5b	0.05518661
90	0xbe5b8db5	-0.21440776
91	0x3b4c91c7	0.003121482
92	0xbd4af2ba	-0.04954789
93	0x3e19c080	0.15014839
94	0x3d5d345a	0.054005004
95	0xbdc14c72	-0.09438409
96	0xbc652f25	-0.013988291
97	0x3db6d5e6	0.08927517
98	0x3dfc8aa2	0.123311296
99	0x3d9c3950	0.07628119
100	0x3af327f6	0.0018551338
101	0x3e11bdcb	0.14232557
102	0xbdc53fa8	-0.09631282
103	0x3d5d4bfb	0.05402754
104	0x3d9b23c1	0.07575179
105	0xbe5a3a25	-0.21311243
106	0xbdcd29d0	-0.10017741
107	0x3e629055	0.22125371
108	0xbdb5e1e0	-0.08880973
109	0x3c3c392a	0.011488238
110	0xbe419a13	-0.18906431
111	0x3c241724	0.010015283
112	0x3e0bd8e1	0.13656951
113	0x3c576254	0.013146002
114	0x3d19d578	0.037557095
115	0x3e393ecf	0.18090366
116	0xbcf86afe	-0.030324455
117	0x3d08c63e	0.033392183
118	0xbd34affa	-0.044113137
119	0xbded4ce1	-0.11586929
120	0x3de1e4ec	0.110299915
121	0xbda8922c	-0.08231005
122	0xbdb84a2d	-0.08998523
123	0x3c3727d3	0.011178928
124	0xbcd294fa	-0.025705803
125	0x3dca7ba4	0.09886864
126	0xbdf7350a	-0.12070663
127	0xbe0642a4	-0.13111359
128	0xbd99f099	-0.075165935
129	0x3da01c6c	0.07817921
130	0xbe51bb3c	-0.2048158
131	0x3ba8da6b	0.0051529906
132	0x3d246f0d	0.04014497
133	0x3d6242ae	0.055239372
134	0xbd6d59a1	-0.057946805
135	0x3c6336a0	0.013868004
136	0xbd0ba801	-0.034095768
137	0xbd234f1f	-0.039870378
138	0xbdca872c	-0.09889063
139	0xbd4f8971	-0.050668184
140	0xbd8b0996	-0.06788938
141	0x3db48dfb	0.08816143
142	0xbd4d1e5f	-0.050077792
143	0xbd31ab76	-0.04337641
144	0xbd8b2166	-0.067934796
145	0x3e1ccf27	0.15313397
146	0x3d934535	0.071909346
147	0x3cf9b204	0.030480392
148	0xbdebbcae	-0.11510597
149	0x3dbcc52e	0.092172965
150	0xbe0b16e0	-0.13582945
151	0xbda41889	-0.08012492
152	0x3d74ed05	0.059796352
153	0x3cb49d78	0.022047743
154	0xbe37d4b1	-0.17952229
155	0x3cedb0f5	0.029015044
156	0xbd701ad7	-0.058619346
157	0xbd4d9d49	-0.050198827
158	0x3d598be9	0.053111944
159	0x3ccc8928	0.024967745
160	0x3bcd999c	0.006274415
161	0xbd927d93	-0.07152858
162	0x3ccc21a5	0.024918387
163	0x3e17e078	0.14831722
164	0xbc8451e9	-0.016152339
165	0x3c3c28bf	0.011484324
166	0xbca6891b	-0.020329049
167	0xbd98d2ed	-0.07462106
168	0x3d2259b8	0.039636344
169	0x3beaef95	0.0071696737
170	0xbd6364cd	-0.055516053
171	0x3e0799c6	0.13242254
172	0xbd652dcb	-0.055951875
173	0xbd922645	-0.071362056
174	0x3b072746	0.0020622774
175	0xbc65d903	-0.01402879
176	0x3d29f8aa	0.04149691
177	0x3da704bc	0.081552
178	0xbb985a0f	-0.0046494077
179	0x3d5bc357	0.053653087
180	0x3d3cfe37	0.046140876
181	0x3bf468c0	0.0074587762
182	0x3ccde838	0.025135145
183	0xbdb737d0	-0.08946192
184	0x3d4056c5	0.04695775
185	0xbd32d2c5	-0.043658037
186	0x3cf7e01f	0.030258236
187	0xbd6e81aa	-0.058229126
188	0x3d93eca1	0.07222868
189	0xbc15063d	-0.009095726
190	0xbd4e6c0d	-0.050396014
191	0x3b809a56	0.0039246483
192	0xba368c30	-0.00069636386
193	0x3e39b173	0.18134098
194	0x3c44c453	0.012009698
195	0x3da35263	0.079746984
196	0x3e38e45b	0.1805586
197	0x3dfb5488	0.122719824
198	0xbde729ac	-0.11287245
199	0xbcb14d29	-0.021643238
200	0xbe39698c	-0.18106669
201	0xbd116845	-0.03549983
202	0xbd1da166	-0.038484
203	0x3cad4d65	0.021155069
204	0xbe3d5a34	-0.18491441
205	0x3e5ac507	0.21364222
206	0x3dc8cf96	0.09805219
207	0xbc294102	-0.0103304405
208	0xbd998b12	-0.07497229
209	0x3daa62e6	0.08319645
210	0x3d5e4d48	0.05427292
211	0xbcc75ffd	-0.024337763
212	0xbd80ef73	-0.06295671
213	0x3dfd6dc5	0.123744525
214	0x3cc415cd	0.023936177
215	0xbdd93f12	-0.10607733
216	0xbdaa6d97	-0.08321684
217	0x3d93eeb7	0.072232656
218	0xbd3f5fc6	-0.046722196
219	0xbbad0435	-0.0052800425
220	0xbdddf304	-0.10837367
221	0x3d5515e4	0.05202283
222	0x3e266be5	0.16252096
223	0xbd574038	-0.05255148
224	0x3d31b197	0.043382253
225	0x3c4413b5	0.011967589
226	0xbcaf1fb7	-0.021377428
227	0x3e4c27b1	0.19937016
228	0x3d9ff3fb	0.078102075
229	0x3de12eb8	0.10995239
230	0xbc9f1b4d	-0.019422198
231	0x3d9f0364	0.077643186
232	0x3e14a908	0.14517605
233	0xbd37d03c	-0.044876322
234	0xbd9366cb	-0.071973406
235	0x3d39b56c	0.045339033
236	0xbdae1e42	-0.08501865
237	0xbcc8adb4	-0.02449689
238	0xbdb2bd4c	-0.08727512
239	0xbcefa6f0	-0.029254407
240	0x3bdf8810	0.00682164
241	0x3d8d8238	0.06909603
242	0xbdd8cae0	-0.1058557
243	0x3e290ab2	0.16507986
244	0xbd2cd5c8	-0.042196065
245	0xbcae719a	-0.021294404
246	0x3d865185	0.06558517
247	0xbc34ee1e	-0.0110431
248	0x3d84f215	0.06491486
249	0x3dbc90e6	0.09207325
250	0xbc652856	-0.013986668
251	0x3ce120ea	0.027481515
252	0x3d44df3f	0.048064467
253	0x3b040e13	0.002014999
254	0xbd3d1d79	-0.046170685
255	0x3dc963c7	0.09833484

h.0.mha.W_q.bias f4 [64]
0	0x3cba204b	0.022720477
1	0x3f029f8a	0.5102469
2	0x3ec22766	0.37920684
3	0x3e95f546	0.2928869
4	0x3e59594f	0.21225475
5	0x3ee13df5	0.43992582
6	0xbe15fca6	-0.14647159
7	0x3e9946b5	0.29936758
8	0xbef77ef0	-0.48339033
9	0xbebc34b7	-0.36758968
10	0x3e958e01	0.29209903
11	0x3e71e9c9	0.23624338
12	0x3dbb1eb4	0.091367155
13	0x3f0f5ab3	0.5599777
14	0x3ecf5494	0.40494215
15	0xbe598526	-0.21242198
16	0x3e95e9c9	0.29279926
17	0x3f0e5f43	0.5561411
18	0xbdfa92fe	-0.12235068
19	0x3ec27e80	0.37987137
20	0xbeb43dc1	-0.35203364
21	0x3e52ed1f	0.20598267
22	0xbe199ca3	-0.15001158
23	0xbe55878f	-0.20852493
24	0xbe2593de	-0.16169688
25	0x3d12612b	0.035737198
26	0x3dbb138e	0.09134589
27	0xbe52ff2c	-0.20605153
28	0x3d54244b	0.051792424
29	0xbd8489bb	-0.064715825
30	0x3dfd4643	0.12366917
31	0x3e76947f	0.24080084
32	0xbde41a23	-0.11137798
33	0xbdcd775a	-0.1003253
34	0xbd8699fb	-0.06572338
35	0x3cf07ab4	0.029355384
36	0x3d7714ca	0.06032256
37	0x3bb808ed	0.0056162984
38	0xbdd36ee7	-0.10323887
39	0x3d679c48	0.056545526
40	0x3d0a9c51	0.03384048
41	0x3ce2fb26	0.027707648
42	0x3e0cfd44	0.13768488
43	0x3d11b812	0.035575934
44	0x3ca50c50	0.020147473
45	0xbb8c1d37	-0.0042759436
46	0x3d9eb348	0.07749039
47	0x3dc93e8a	0.098263815
48	0xbcbf3e96	-0.023345273
49	0x3dcc3546	0.099710986
50	0x3ddbe00e	0.107360944
51	0x3d33d90f	0.043908175
52	0xbcbf7e04	-0.023375519
53	0xbcc288ea	-0.023746926
54	0xbc082b74	-0.008311141
55	0xb9b7d909	-0.00035066184
56	0x3e2cace0	0.16862822
57	0xbd7b9e90	-0.061430514
58	0x3cf1c828	0.029514387
59	0x3bd031d9	0.0063535986
60	0x3ce7867d	0.028262371
61	0x3e106597	0.14101253
62	0x3df014ba	0.11722703
63	0xbdadd27d	-0.08487413

h.0.mha.W_k.weight f4 [64, 64]
0	0x3d353575	0.044240434
1	0xbdaa1a2c	-0.08305773
2	0x3da2a475	0.07941524
3	0xbe2be486	-0.16786394
4	0xbdaf3922	-0.08555819
5	0x3a91acc8	0.0011114115
6	0x3d1b788e	0.037956767
7	0x3d9493e5	0.07254771
8	0x3df2e6c5	0.11860422
9	0xbbdb09ea	-0.0066845315
10	0x3c1d7587	0.00961054
11	0x3db0a56b	0.08625301
12	0xbca2365c	-0.019801311
13	0xbdf6a550	-0.120432496
14	0xbb8db862	-0.0043249587
15	0x3cf7068d	0.03015449
16	0x3d878865	0.06617812
17	0xbc2a7a11	-0.010405079
18	0x3cf4e76c	0.029895507
19	0x3da90b19	0.0825407
20	0xbd9be521	-0.07612062
21	0xbda06ecc	-0.07833633
22	0x3cc3bee9	0.023894744
23	0x3d2a6aca	0.04160575
24	0x3dec7808	0.11546332
25	0xbe35909a	-0.17730942
26	0x3e2063e6	0.15663108
27	0x3d34c8bf	0.04413676
28	0x3cf7be8e	0.03024223
29	0xbdb4948d	-0.08817396
30	0xbd8d689a	-0.06904717
31	0x3d3d1426	0.046161793
32	0xbb42025f	-0.0029603464
33	0x3d2ceb94	0.042216852
34	0x3cc54524	0.02408082
35	0x3c9c7cac	0.019102417
36	0x3b8e9877	0.0043516713
37	0xbddcafb2	-0.10775699
38	0x3a6d621a	0.0009055451
39	0x3d6bbeab	0.057554882
40	0x3e040711	0.1289332
41	0x3c990f56	0.01868407
42	0x3cf5dff3	0.030014014
43	0xbe00db9e	-0.12583777
44	0xbd7752cb	-0.060381692
45	0xbd36477b	-0.044501763
46	0x3cf82fe5	0.030296275
47	0x3cf0f9c2	0.029415969
48	0xbd5c090d	-0.05371957
49	0x3db23624	0.08701733
50	0xbe3ec6a7	-0.18630467
51	0xbda4d2a9	-0.08047993
52	0x3e19af2a	0.15008226
53	0x3b486260	0.0030576214
54	0x3d55195b	0.052026134
55	0x3de2327b	0.11044785
56	0xbdb20563	-0.08692434
57	0xbd338ee3	-0.04383744
58	0x3dba1d5c	0.09087631
59	0xbc937a9f	-0.018002806
60	0xbada683e	-0.0016663147
61	0xbc91d101	-0.017799856
62	0x3db1ae0b	0.08675774
63	0x3d45a76d	0.048255373
64	0xbd394f7e	-0.045241825
65	0x3dc25801	0.09489442
66	0xbe1d9a4e	-0.15390894
67	0x3c2b40c6	0.010452455
68	0x3df087a3	0.11744621
69	0x3daa59b7	0.08317893
70	0xbd0031a8	-0.031297356
71	0x3d306369	0.043063555
72	0xbdd54feb	-0.10415634
73	0xbd1b2eab	-0.037886303
74	0xbda5696d	-0.08076749
75	0xbc0b6364	-0.008507583
76	0xbe56a567	-0.20961533
77	0x3e23a93b	0.15982525
78	0xbcbb6a4a	-0.022877831
79	0xbdb27b01	-0.087148674
80	0xbd9e2da0	-0.07723546
81	0x3e081fa3	0.13293318
82	0x3ce5a238	0.028031453
83	0xbc125cd6	-0.008933267
84	0xbd358e9d	-0.04432546
85	0x3e2edcdd	0.1707644
86	0xbcea9504	-0.02863551
87	0xbdb1213f	-0.08648919
88	0xbdb5aaad	-0.088704444
89	0x3e286411	0.16444422
90	0xbe17a1a4	-0.14807755
91	0xbd55654b	-0.052098554
92	0xbd21f11a	-0.039536573
93	0x3de968e5	0.1139696
94	0x3c2a83b8	0.010407381
95	0x3cad9630	0.021189779
96	0x3d124332	0.035708614
97	0xbd2763de	-0.040866725
98	0x3d8bc75b	0.068251334
99	0x3db7d156	0.089754745
100	0xbc96e0e3	-0.018417781
101	0x3b072538	0.002062155
102	0xbd37c537	-0.044865813
103	0x3d54db1e	0.05196678
104	0xbd9f43a2	-0.07776572
105	0xbe235f15	-0.1595424
106	0xbdb99424	-0.09061459
107	0x3d9b7217	0.0759012
108	0x3b352408	0.0027639885
109	0xbc4cd7fe	-0.012502668
110	0xbdcacca7	-0.099023156
111	0xbe0bff87	-0.13671695
112	0xbbe1b132	-0.0068875784
113	0xbe4496a3	-0.19198088
114	0x3df8bc98	0.121453464
115	0x3e481898	0.19540632
116	0xbe23d1ff	-0.15998076
117	0x3c027c39	0.007964187
118	0xbd95ae47	-0.073086314
119	0xbe2aae41	-0.16668035
120	0x3e479479	0.19490232
121	0xbbfe15cc	-0.0077540632
122	0xbe172472	-0.14759997
123	0x3d26dfca	0.040740766
124	0xbdabf531	-0.08396376
125	0xbe006f29	-0.12542404
126	0xbdd85b0f	-0.10564243
127	0xbd101c2d	-0.03518312
128	0xbd4ce463	-0.050022494
129	0xbdce0728	-0.10059959
130	0x3da78d0c	0.081811994
131	0x3d8de35d	0.06928132
132	0xbd0508c0	-0.032479048
133	0xbd8718d6	-0.06596534
134	0xbbd999e8	-0.0066406615
135	0xbcab8f76	-0.020942431
136	0x3db18189	0.08667285
137	0xbd380855	-0.04492982
138	0x3ddbe400	0.10736847
139	0x3cffcf77	0.031226857
140	0x3ca83aeb	0.020535907
141	0xbde958d8	-0.11393899
142	0x3d516265	0.051119227
143	0x3d3c86a8	0.046026856
144	0x3c329b94	0.0109013505
145	0xbdcacd5a	-0.09902449
146	0xbc59eb0d	-0.013300669
147	0x3c64786a	0.013944725
148	0x3e16d5d3	0.14730005
149	0xbe003cf5	-0.12523253
150	0xbd03c7a1	-0.032172803
151	0x3e1c94f7	0.152912
152	0xbd19c400	-0.037540436
153	0x3ca88796	0.020572465
154	0x3dee9341	0.1164918
155	0x3de6d70b	0.11271485
156	0x3d4f5944	0.05062224
157	0xbd658b47	-0.05604103
158	0x3cd66a12	0.026173625
159	0x3d31d792	0.043418474
160	0x3d5c6fbc	0.053817496
161	0xbc0b3225	-0.008495842
162	0x3c670b9d	0.01410189
163	0xbe1a8891	-0.15091158
164	0xbd0a9525	-0.03383364
165	0x3cd3a9c9	0.025837796
166	0x3d2c5d3f	0.042081114
167	0xbc6a3ce1	-0.014296741
168	0xbced8bca	-0.02899732
169	0x3cc110df	0.023567615
170	0x3deb7851	0.11497558
171	0xbe1c32a9	-0.152537
172	0x3dee20d5	0.11627356
173	0x3d95a381	0.073065765
174	0x3de359b3	0.11101093
175	0x3d91f8db	0.071275435
176	0xbdbc9765	-0.09208564
177	0x3d34bb80	0.044124126
178	0x3ce29848	0.027660504
179	0xbe0d75c8	-0.13814461
180	0x3d39e6fe	0.045386307
181	0xbd455370	-0.048175275
182	0xbd2c4c47	-0.04206493
183	0x3d0c2cb0	0.034222305
184	0xbda126ac	-0.07868704
185	0xbdef4775	-0.11683551
186	0xbc37f91f	-0.011228829
187	0x3d65b2aa	0.05607859
188	0xbd189ba4	-0.037257805
189	0x3d09e384	0.03366424
190	0xbd22d220	-0.039751172
191	0x3de3b58a	0.1111861
192	0xbdd7ffe5	-0.10546855
193	0x3dab29d3	0.08357587
194	0xbddf852f	-0.10914075
195	0x3d0b0a8e	0.033945613
196	0x3e37c695	0.17946847
197	0xbd1759e2	-0.036950953
198	0xbd9cdbc9	-0.07659108
199	0xbda4b038	-0.080414236
200	0xbd2b63b1	-0.04184312
201	0xbdb24466	-0.08704452
202	0xbda2d7da	-0.07951327
203	0xbd97d8d5	-0.07414404
204	0xbe81eff4	-0.25378382
205	0x3deaa1f0	0.114566684
206	0x3d9cd793	0.07658305
207	0x3d497e63	0.049192797
208	0xbde014a7	-0.10941439
209	0x3e3929c6	0.18082342
210	0x3e037908	0.12839139
211	0x3c46e626	0.012139833
212	0xbd302ce9	-0.04301158
213	0x3e2c3a33	0.16819076
214	0xbcb9df00	-0.022689342
215	0xbda16ce3	-0.078820966
216	0xbd428681	-0.047491554
217	0x3c997513	0.018732583
218	0xbe1c32e8	-0.15253794
219	0xbc124131	-0.008926676
220	0x3c84551f	0.01615387
221	0x3e3a279a	0.1817917
222	0xbc958791	-0.01825312
223	0x3d125e98	0.035734743
224	0xbd09fe96	-0.033690058
225	0xbe241938	-0.16025245
226	0x3df55d51	0.11980689
227	0x3dfa887d	0.12233064
228	0x3d22f5f6	0.039785348
229	0x3d6f11a6	0.05836644
230	0xbb1b45f2	-0.0023692814
231	0x3e3ca33f	0.18421648
232	0x3cee0f68	0.02906008
233	0xbcbbde6c	-0.022933207
234	0xbd0e3b08	-0.034724265
235	0x3e349d13	0.17638044
236	0x3ce5500d	0.027992273
237	0x3bc2a4ca	0.0059400545
238	0x3bfcc433	0.0077138185
239	0xbd75031a	-0.05981741
240	0xba3152ee	-0.00067643716
241	0xbda6b2a0	-0.08139539
242	0x3e1ad139	0.15118875
243	0x3d81620d	0.0631753
244	0xbda0d2be	-0.07852696
245	0x3dc11f4c	0.094297975
246	0xbbd33c2c	-0.006446382
247	0xbe603c77	-0.21898066
248	0x3e5a7716	0.2133449
249	0xbc2ea9bd	-0.010660586
250	0xbdb4ac16	-0.08821885
251	0x3d28cd99	0.0412117
252	0xbd5f32ad	-0.054491688
253	0xbd22b0d2	-0.03971941
254	0xbda0d147	-0.078524165
255	0x3d26cb03	0.04072095

h.0.mha.W_k.bias f4 [64]
0	0xbd290cb6	-0.041271888
1	0x3ed7c857	0.42145035
2	0xbe841262	-0.25795275
3	0x3f086eb9	0.5329395
4	0xbe7ede53	-0.24889497
5	0x3e725495	0.23665078
6	0xbed1f229	-0.41005066
7	0xbcf09007	-0.029365553
8	0xbec248e9	-0.3794625
9	0xbf22a66e	-0.635352
10	0x3efd73e3	0.49502477
11	0x3e14bcaa	0.14525095
12	0x3e1a7aec	0.15085953
13	0x3f252069	0.6450258
14	0xbe20ab2f	-0.15690301
15	0xbeff4aa8	-0.49861646
16	0x3e4a3594	0.19747001
17	0xbdfab454	-0.12241426
18	0xbe4d83ce	-0.20069811
19	0x3f08b565	0.53401786
20	0x3cf7008d	0.03015163
21	0xbd7d588b	-0.06185202
22	0xbecc7046	-0.39929408
23	0x3e894dc7	0.26817152
24	0xbe1e732f	-0.15473627
25	0x3ef92fa0	0.48669147
26	0xbe5dcad5	-0.21659406
27	0xbeee2c5c	-0.4651822
28	0x3ea240c2	0.3169003
29	0xbe937678	-0.28801322
30	0x3df3d034	0.11904946
31	0xbed65b2f	-0.41866443
32	0xbeec64bd	-0.46170607
33	0xbe0dfb9c	-0.13865513
34	0xbea89bc5	-0.32931343
35	0x3eecf814	0.4628302
36	0x3e594210	0.21216607
37	0xbe3c3305	-0.18378837
38	0x3e7fe43b	0.24989407
39	0xba81a2e7	-0.0009890468
40	0x3ea083f1	0.31350663
41	0x3de07c04	0.10961154
42	0x3e0640ef	0.13110708
43	0xbdcd054e	-0.100107774
44	0xbea18462	-0.31546313
45	0x3e088b70	0.13334441
46	0x3e8ff68f	0.28117797
47	0x3ddda7c9	0.10823018
48	0x3e34175f	0.1758704
49	0x3e85dbd9	0.26144293
50	0xbea996ba	-0.33122808
51	0xbcec834c	-0.028871201
52	0x3d0ec2cd	0.034853745
53	0xbed6a77c	-0.41924655
54	0x3ebf48c0	0.3736019
55	0xbe8799c0	-0.2648449
56	0xbe83ae76	-0.2571904
57	0xbe97e026	-0.296632
58	0x3e3c0a48	0.18363297
59	0xbe991815	-0.29901186
60	0x3ebff1eb	0.37489256
61	0x3e46c6bd	0.1941175
62	0x3dca1359	0.098669715
63	0xbec3e6d9	-0.3826206

h.0.mha.W_v.weight f4 [64, 64]
0	0x3d7a3b58	0.06109175
1	0x3c9e3195	0.019310752
2	0x3e5e4c02	0.21708682
3	0xbe382efb	-0.17986672
4	0x3e52327b	0.2052707
5	0xbe252db6	-0.16130719
6	0xbe007ff9	-0.12548818
7	0x3ea3700d	0.31921425
8	0xbe049bf4	-0.12950116
9	0x3d86212d	0.065492965
10	0xbc4ebbd0	-0.01261802
11	0x3c3607bb	0.0111102415
12	0xbcb71bbd	-0.022352094
13	0xbe96f1e9	-0.29481438
14	0x3e45c2cc	0.1931259
15	0xbdc29b34	-0.09502259
16	0xbcc2c5be	-0.023775931
17	0x3e4d627d	0.20057102
18	0xbd48f557	-0.0490621
19	0x3e20f3a4	0.15717942
20	0x3db0e095	0.086365856
21	0x3d126c54	0.03574784
22	0x3dc97978	0.098376215
23	0xbdbe1e7e	-0.0928316
24	0xbdbf1b6c	-0.09331402
25	0xbdd92078	-0.10601896
26	0xbe72a18e	-0.2369444
27	0x3c1da501	0.0096218595
28	0x3e4caeda	0.19988576
29	0xbc8d8e21	-0.017279686
30	0x3d50dfa5	0.050994534
31	0xbe20019d	-0.15625615
32	0x3df53153	0.119722985
33	0xbda87ba5	-0.08226708
34	0x3ddf3726	0.108991906
35	0x3d92a86d	0.07161031
36	0xbe6cb815	-0.23117097
37	0x3de074fb	0.10959812
38	0x3d170226	0.036867283
39	0x3e222359	0.15833797
40	0xbde0405b	-0.10949775
41	0x3c458c5f	0.012057393
42	0x3e216136	0.1575974
43	0xbd606031	-0.054779235
44	0xbcdd1f99	-0.026992606
45	0x3da6cf2d	0.081449844
46	0xbda938db	-0.082627974
47	0x3e20898a	0.15677467
48	0xbd8bd3f6	-0.06827538
49	0x3d89dbda	0.067313865
50	0x3d8b65c7	0.06806522
51	0x3da91f63	0.0825794
52	0xbe8f8c7e	-0.28036875
53	0xbe19f39d	-0.15034337
54	0x3e1e9a37	0.15488516
55	0x3de968e7	0.11396962
56	0x3e045ae6	0.129253
57	0xbca29b2d	-0.019849384
58	0x3cbdcc57	0.023168726
59	0xbd9c27b2	-0.07624759
60	0x3d26cd1d	0.040722955
61	0xbe0250ad	-0.12726088
62	0xbd8592ab	-0.06522115
63	0xbe23eb54	-0.1600774
64	0xbdccd394	-0.10001293
65	0xbc70a255	-0.0146871405
66	0xbdd44256	-0.10364215
67	0xbea25eb9	-0.31712893
68	0x3d98419f	0.07434391
69	0x3e126649	0.14296831
70	0x3db95cb2	0.09050883
71	0x3d3ffcd2	0.046871968
72	0xbd769632	-0.06020183
73	0x3d3783d2	0.044803448
74	0x3c52d7f5	0.012868871
75	0x3e1150ed	0.14191027
76	0xbdcebc92	-0.10094561
77	0x3d49ba6c	0.04925005
78	0xbe1d0bce	-0.15336534
79	0xbddcef9c	-0.10787889
80	0x3d3bb943	0.045830976
81	0x3cb3aa11	0.02193168
82	0x3e5c448f	0.21510528
83	0x3a8e57ef	0.0010859946
84	0x3d8a8bcf	0.067649476
85	0xbdfef154	-0.124483734
86	0x3d779d1b	0.06045256
87	0xbcc3ce95	-0.023902217
88	0x3e19433d	0.14967056
89	0xbd91bf67	-0.07116585
90	0xbe3bf914	-0.18356735
91	0xbdfd022a	-0.123539284
92	0xbcfbcc69	-0.030737119
93	0xbce54a55	-0.027989546
94	0x3e12f91d	0.14352842
95	0xbcf1a215	-0.029496232
96	0xbd7d6bbd	-0.061870325
97	0x3dde5d65	0.10857657
98	0xbe368b76	-0.17826638
99	0x3d99c907	0.07509046
100	0x3a2fd271	0.00067070784
101	0x3c0e03b5	0.008667876
102	0x3e1efeb1	0.15526845
103	0x3bc2d473	0.005945736
104	0x3e28bd4c	0.16478461
105	0x3e803d2b	0.25046667
106	0x3d73ecc1	0.059551958
107	0x3d9c54d4	0.07633367
108	0xbd4786eb	-0.048712652
109	0xbdca21bf	-0.09869718
110	0x3d0f441b	0.03497706
111	0xbc2c1c78	-0.010504834
112	0x3daef778	0.08543295
113	0x3dba9394	0.091101795
114	0xbe26c70c	-0.16286868
115	0x3d55930e	0.052142195
116	0xbe5e35ab	-0.2170016
117	0x3e047e7b	0.12938873
118	0x3db21beb	0.08696731
119	0x3be7e89d	0.00707729
120	0x3d1f9115	0.03895672
121	0x3d6aea95	0.05735262
122	0x3e360e91	0.17778994
123	0x3d329588	0.043599635
124	0xbc74802a	-0.014923135
125	0xbd74ce9f	-0.05976736
126	0x3cd0af7d	0.025474304
127	0x3d0e00b7	0.03466865
128	0x3d2feec4	0.042952314
129	0xbe70b921	-0.23508121
130	0xbd8dbe08	-0.06921011
131	0x3e34e1cc	0.1766426
132	0x3d3997d4	0.04531081
133	0x3dd0cd03	0.10195353
134	0xbe3e22fa	-0.1856803
135	0xbdd1530c	-0.10220918
136	0x3d2aff3a	0.04174731
137	0x3e5678be	0.20944497
138	0x3e41d042	0.189271
139	0xbcade210	-0.021225959
140	0x3e009cad	0.12559767
141	0x3e47afc6	0.19500646
142	0x3e00632b	0.1253783
143	0xbbe8e8d9	-0.0071078357
144	0x3e4e6a58	0.20157754
145	0x3e60e3a5	0.2196184
146	0xbe48fa11	-0.19626643
147	0xbda374f0	-0.079812884
148	0xbd2c0e20	-0.04200566
149	0xbe186fdb	-0.1488642
150	0xbcd5957b	-0.026072254
151	0x3e1d6d2d	0.15373679
152	0xbd2faf95	-0.042892057
153	0xbe1ff834	-0.15622026
154	0xbbf4e56c	-0.0074736383
155	0xbc8de880	-0.017322779
156	0xbe4a642a	-0.19764772
157	0x3d258a15	0.04041489
158	0xbe2d0262	-0.1689544
159	0x3c82c28c	0.015961908
160	0xbdbfab6e	-0.093588695
161	0xbe18c65b	-0.14919417
162	0x3d510e58	0.05103907
163	0x3bd7932e	0.0065788245
164	0xbdde53ca	-0.10855825
165	0xbe058b99	-0.13041534
166	0x3dc3e950	0.09565985
167	0x3dc6906f	0.09695517
168	0x3c6a349e	0.0142947715
169	0xbe0a5ebb	-0.135127
170	0xbd0ffe81	-0.035154823
171	0xbdd0359e	-0.10166477
172	0xbd2cc230	-0.04217738
173	0x3d884a98	0.06654853
174	0x3c1e7d4f	0.009673431
175	0x3e277d59	0.1635641
176	0xbd906216	-0.070499584
177	0xbd01294d	-0.031533528
178	0xbc81a50d	-0.015825773
179	0x3e5af37f	0.21381949
180	0x3dbe9e8c	0.09307584
181	0x3dae7cdf	0.08519911
182	0xbd57de6b	-0.05270235
183	0xbdd03fe7	-0.101684384
184	0xbe2bc923	-0.16775946
185	0x3e9003ed	0.28127995
186	0x3dc954a9	0.09830601
187	0x3e484c86	0.19560441
188	0x3e211d13	0.15733747
189	0xbd1e9503	-0.038716327
190	0x3da70ac9	0.08156354
191	0xbe1b608c	-0.15173548
192	0x3e013ed4	0.12621623
193	0x3df96c97	0.12178915
194	0x3d6c1af2	0.057642885
195	0x3d3f1eb2	0.046660133
196	0xba197374	-0.00058536907
197	0xbdb0ee32	-0.08639182
198	0xbe0f75b4	-0.14009744
199	0x3e69fa4f	0.22849391
200	0x3e06a3be	0.131484
201	0x3dfd06ac	0.12354788
202	0x3e89202b	0.26782355
203	0x3df846af	0.12122857
204	0xbcc03cb8	-0.023466453
205	0xbdce22a1	-0.10065199
206	0x3dd1299e	0.10213016
207	0xbdf9b430	-0.12192571
208	0x3cabc8da	0.020969797
209	0x3df4bf76	0.11950581
210	0xbd9afeeb	-0.07568153
211	0xbdbab514	-0.09116569
212	0xbe5697e4	-0.20956379
213	0x3dbfba22	0.09361674
214	0x3da53548	0.08066803
215	0xbdc3385a	-0.095322326
216	0x3e13be57	0.14428078
217	0xbe61e021	-0.22058155
218	0xbe422357	-0.18958794
219	0xbdd73a29	-0.1050914
220	0xbe0637af	-0.13107179
221	0x3da321d8	0.079654396
222	0x3e4c98ee	0.19980213
223	0xbe3bd87b	-0.183443
224	0xbe8d8bc0	-0.27645683
225	0xbdb9511d	-0.09048674
226	0xbda272f9	-0.079320855
227	0x3e91ab83	0.28451166
228	0x3ddc4e64	0.10757139
229	0xbe55c8a4	-0.2087732
230	0xbdf647cf	-0.12025415
231	0x3ddef499	0.10886497
232	0xbd3a1522	-0.04543031
233	0xbdff08e5	-0.12452868
234	0x3e815f6f	0.25268123
235	0xbe6c7567	-0.2309166
236	0x3cf0d48e	0.029398229
237	0xbbe4a4ee	-0.006977669
238	0xbda32356	-0.07965724
239	0xbe1779c2	-0.1479254
240	0xbe8ce718	-0.2752006
241	0x3d9edd33	0.07757034
242	0xbd130585	-0.035893936
243	0xbdd5568d	-0.10416899
244	0xbcec290c	-0.028828166
245	0x3d4cb602	0.049978264
246	0xbc2a051c	-0.010377195
247	0xbdad3230	-0.08456838
248	0xbde0ec49	-0.10982568
249	0xbe4a56f9	-0.1975974
250	0x3e0149b0	0.12625766
251	0x3d37cca2	0.044872887
252	0xbd106cef	-0.035260137
253	0x3d90dc2b	0.07073244
254	0xbd9e0456	-0.07715671
255	0x3caa7510	0.020807773

h.0.mha.W_v.bias f4 [64]
0	0xbd28d391	-0.04121739
1	0x3d536978	0.051614255
2	0x3bb2cea4	0.0054567624
3	0x3da39dcc	0.07989082
4	0xbe03fd1e	-0.12889525
5	0xbd8f97fa	-0.07011409
6	0x3cc86986	0.02446438
7	0xbe368e1b	-0.17827646
8	0xbda71cca	-0.08159788
9	0xbda9b3cc	-0.08286247
10	0xbcdd74a0	-0.02703315
11	0xbe453a78	-0.19260585
12	0x3e16de0d	0.14733143
13	0x3da26198	0.07928771
14	0xbe03a150	-0.12854505
15	0x3c2ee274	0.010674108
16	0xbc0998a0	-0.008398205
17	0xbdb8530c	-0.09000215
18	0xbda9f743	-0.082991146
19	0x3c0b3f14	0.008498926
20	0xbdb80b09	-0.0898648
21	0xbd9dc2fc	-0.07703206
22	0xb86f5741	-5.7063302e-05
23	0x3d1e5670	0.038656652
24	0x3c4512bb	0.0120283915
25	0x3dd2bc10	0.10289776
26	0x3e159a51	0.14609648
27	0x3c6aec4a	0.014338562
28	0x3d87a35e	0.06622957
29	0x3e3c4eed	0.18389483
30	0x3d554217	0.05206498
31	0x3e1a4acf	0.150676
32	0xbe180731	-0.14846493
33	0x3d6e65a6	0.05820241
34	0x3e16fa69	0.14743961
35	0x3db5c2c4	0.08875039
36	0x3da4897b	0.08034035
37	0x3e36c959	0.17850246
38	0x3d6369c2	0.05552078
39	0xbd6ed8d2	-0.058312245
40	0xbdfc1037	-0.1230778
41	0xbc50ffb2	-0.012756275
42	0x3dca7b7e	0.098868355
43	0xbda43ff3	-0.0802001
44	0xbe10c3f4	-0.1413725
45	0xbd5cc414	-0.053897932
46	0xbdfc1083	-0.12307837
47	0xbdae2824	-0.0850375
48	0xbe119114	-0.14215499
49	0x3cb9e766	0.022693347
50	0xbe2891af	-0.16461824
51	0xbce93086	-0.02846552
52	0xbe580762	-0.21096566
53	0xbe070d7c	-0.13188738
54	0x3deff000	0.11715698
55	0x3df1cffb	0.11807247
56	0xbdebeff4	-0.11520377
57	0xbdc8510b	-0.09781083
58	0xbe4a3c88	-0.19749653
59	0x3dcf9b88	0.10137087
60	0x3df3d7b5	0.11906377
61	0xbdf7b525	-0.120950975
62	0xbc18cedd	-0.009326664
63	0xbd628de8	-0.055311114

h.0.mha.W_o.weight f4 [64, 64]
0	0xbd3b0a4a	-0.04566411
1	0xbe205e13	-0.15660886
2	0x3e261aad	0.16221114
3	0xbcd9b874	-0.026577212
4	0x3dd79a98	0.10527533
5	0x3d1e28ab	0.038613003
6	0x3b31030b	0.002700987
7	0x3d46fa02	0.04857827
8	0x3df879b8	0.12132591
9	0x3cfc7634	0.030818082
10	0xbdc7050a	-0.09717758
11	0xbd539262	-0.051653273
12	0xbcb109a4	-0.021611042
13	0xbd4300e3	-0.047608268
14	0xbd82b499	-0.063821025
15	0x3cf3001f	0.029663144
16	0x3ccf5e08	0.025313392
17	0xbd812a4b	-0.06306895
18	0xbdbcd1e2	-0.092197195
19	0xbdf1895b	-0.117937766
20	0xbe19d2d0	-0.15021825
21	0xbdf4172c	-0.11918482
22	0x3e13670c	0.14394778
23	0xbddd872c	-0.108167976
24	0xbd92c9ae	-0.071673736
25	0xbc0581e3	-0.008148643
26	0xbca6cbca	-0.020360846
27	0xbe05eaf5	-0.1307791
28	0xbda6a0e8	-0.08136159
29	0xbcc707a0	-0.024295628
30	0xbd9d5f97	-0.07684248
31	0x3c888ffb	0.016670218
32	0x3b2dfffc	0.0026550284
33	0xbd4096c5	-0.047018785
34	0xbdef3c92	-0.11681475
35	0x3d9726a7	0.07380419
36	0x3a931523	0.0011221509
37	0x3e2b805d	0.16748185
38	0x3d622009	0.055206332
39	0x3e06ec76	0.1317614
40	0x3e1cd2f8	0.15314853
41	0x3ca3d6c5	0.019999871
42	0x3d88870b	0.066663824
43	0xbc1b9d47	-0.009497947
44	0xbdd28267	-0.102787785
45	0xbe17e3f9	-0.14833058
46	0xbc2f4967	-0.010698653
47	0xbdcb1b23	-0.09917285
48	0x3e4dcae0	0.20096922
49	0x3cbdae51	0.02315441
50	0x3d8091eb	0.06277832
51	0x3c0690df	0.008213251
52	0xbdcaf484	-0.09909919
53	0x3d459790	0.048240244
54	0x3d6c54cf	0.057698067
55	0xbd37b617	-0.04485139
56	0x3d2f1994	0.042749003
57	0x3cd780b0	0.02630648
58	0x3cb0336c	0.021508895
59	0x3d8b67bd	0.06806896
60	0xbd77b55e	-0.0604757
61	0xbd7e7258	-0.062120765
62	0xbd073350	-0.03300792
63	0x3e08e75c	0.13369507
64	0x3e0cbea7	0.13744603
65	0xbc2ad1ea	-0.010426024
66	0x3d5760a7	0.05258241
67	0x3e4224a4	0.1895929
68	0x3e176dd6	0.14787993
69	0x3c33dcb4	0.010977913
70	0xbcd52db6	-0.026022773
71	0xbdb6c07a	-0.08923431
72	0xbde3f86b	-0.11131366
73	0x3dc8fa10	0.09813321
74	0x3db69b54	0.08916345
75	0xbe0f09e0	-0.13968611
76	0x3de23d4a	0.11046846
77	0xbdc15b1d	-0.094412066
78	0xbc43b788	-0.011945613
79	0x3d07f3a3	0.033191334
80	0xbd8d8016	-0.06909196
81	0xbd30c5e9	-0.04315749
82	0x3e0b8b8b	0.1362745
83	0xbd93c43b	-0.07215162
84	0x3db4897d	0.08815286
85	0xbb54f961	-0.0032497274
86	0xbe0f6ad4	-0.14005595
87	0x3d729a3c	0.05922912
88	0x3dc9f2ef	0.09860789
89	0xbdef0600	-0.11671066
90	0x3db0832e	0.086187705
91	0xbc946ac7	-0.018117322
92	0xbe125fde	-0.14294383
93	0x3753dba0	1.26277155e-05
94	0x3e2701f5	0.1630934
95	0xbe2f12ac	-0.17096967
96	0x3d3e9825	0.046531815
97	0x3d45be80	0.048277378
98	0x3d8251be	0.06363247
99	0x3dacdca5	0.08440522
100	0x3d7a4878	0.061104268
101	0x3deb7f3a	0.11498876
102	0xbd8741e1	-0.06604362
103	0x3c1bc204	0.009506706
104	0xbd6f37d4	-0.05840285
105	0x3d462097	0.048370924
106	0xbc913beb	-0.017728766
107	0x3d81717d	0.06320474
108	0xbdc24202	-0.09485246
109	0xbd238f82	-0.03993178
110	0xbc91f9bb	-0.017819276
111	0xbcb70c36	-0.02234469
112	0xbd0a6156	-0.033784233
113	0xbcd16e10	-0.025565177
114	0xbdc53d29	-0.09630806
115	0xba36e5bc	-0.0006976982
116	0xbe494656	-0.19655737
117	0x3d5fd77d	0.054648865
118	0xbe054573	-0.13014774
119	0xbd9d0503	-0.076669715
120	0x3d90114c	0.07034549
121	0x3dd56172	0.10418977
122	0x3d498937	0.049203124
123	0xbcc24a32	-0.02371702
124	0x3af7e026	0.0018911406
125	0xbd473ca1	-0.048641805
126	0x3db9e966	0.0907772
127	0x3c41dd8e	0.011832608
128	0x3e1ad8f2	0.1512182
129	0x3e0cd1ed	0.13751955
130	0xbd5e1a15	-0.054224093
131	0x3d649bfa	0.055812813
132	0xbd736822	-0.05942548
133	0xbe046a14	-0.1293109
134	0xbca0ca57	-0.019627733
135	0x3c5e3b97	0.013564012
136	0xbc83453a	-0.01602422
137	0xbce8b6bb	-0.028407445
138	0x3d99312e	0.074800834
139	0x3c85fc11	0.016355546
140	0xbbedcedb	-0.007257325
141	0x3de8fbfb	0.113761865
142	0x3e567e80	0.20946693
143	0x3e045c76	0.12925896
144	0xbd93ec0b	-0.07222756
145	0x3daf83df	0.08570074
146	0xbbe0b701	-0.0068577533
147	0x3e6d9067	0.23199616
148	0xbc9a8346	-0.018861424
149	0xbdf2371e	-0.11826919
150	0xbdf2c51b	-0.11854001
151	0x3cb8481d	0.022495324
152	0x3e358a04	0.1772843
153	0x3dd9f154	0.10641733
154	0xbd61fd26	-0.05517306
155	0x3dd998c0	0.10624838
156	0xbd187c10	-0.03722769
157	0x3d41bce3	0.047299277
158	0x3d0ebb66	0.034846686
159	0xbdb133f6	-0.08652489
160	0xbe1f7746	-0.15572843
161	0x3bf77d9c	0.0075528156
162	0xbe0240f4	-0.1272009
163	0x3d777906	0.06041815
164	0x3ca19d09	0.0197282
165	0xbe8ad9bf	-0.27119252
166	0x3e37eef8	0.17962253
167	0xbe40f645	-0.18843944
168	0xbda22535	-0.07917253
169	0x3d3ae15b	0.045625072
170	0xbb8f3a35	-0.0043709525
171	0x3def3917	0.11680811
172	0xbd51bdb2	-0.0512063
173	0x3c985c94	0.018598832
174	0xbd8c5787	-0.06852632
175	0x3daab380	0.08335018
176	0xbc9c3e24	-0.0190726
177	0x3d492aee	0.049113207
178	0x3da7c39c	0.081916064
179	0xbd6fb89a	-0.05852566
180	0x3dc95702	0.098310485
181	0xbd8157e2	-0.063155904
182	0xbd8851c9	-0.06656224
183	0x3cd54065	0.026031682
184	0xbd66a486	-0.056309246
185	0x3ccbf6c0	0.024897933
186	0x3d0b6c2b	0.034038704
187	0x3d33775a	0.043814994
188	0x3ca21389	0.019784706
189	0x3e4b55aa	0.19856897
190	0xbdc4fc55	-0.09618441
191	0x3c1596ac	0.009130161
192	0xbc819a8d	-0.015820766
193	0xbdc7c179	-0.09753699
194	0xbda003d2	-0.07813229
195	0xbc8ef2c1	-0.017449738
196	0xbd9415e1	-0.072307356
197	0xbd7ff11c	-0.0624858
198	0x3dce8892	0.100846425
199	0xb88e6a5b	-6.790898e-05
200	0x3dedea4d	0.11616955
201	0xbb8e0eb5	-0.0043352493
202	0x3e0f47ee	0.13992283
203	0xbc055f64	-0.008140419
204	0xbdf0f532	-0.11765517
205	0xbc80719c	-0.015679173
206	0xbe1338d8	-0.14377153
207	0x3c31db12	0.010855453
208	0x3d0309da	0.031991817
209	0x3d948dd0	0.07253611
210	0x3e1a4037	0.15063559
211	0xbc1abaff	-0.009443997
212	0xbe07c632	-0.132592
213	0x3df7bbab	0.12096342
214	0xbcb2e65f	-0.021838365
215	0x3d72cdbc	0.059278235
216	0xbc889af9	-0.01667546
217	0x3d74f4f0	0.059803903
218	0x3db81be6	0.08989696
219	0x3d535657	0.051596012
220	0xbd1fc6fe	-0.039008133
221	0xbe118fb2	-0.14214972
222	0x3d93d3ab	0.07218107
223	0x3ce13dc6	0.027495276
224	0xbdfb7c5b	-0.12279578
225	0x3d356a56	0.044290863
226	0x3db3f57c	0.08787057
227	0xbdc945d9	-0.098277755
228	0x3e0029ce	0.12515947
229	0x3dedc80d	0.11610422
230	0xbe2bd481	-0.16780283
231	0x3d19978e	0.03749805
232	0xbd562356	-0.052279793
233	0x3c1216e4	0.00891659
234	0x3df76109	0.12079055
235	0x3da55ae7	0.08073979
236	0xbdb40c0d	-0.08791361
237	0x3bb3a5de	0.0054824194
238	0x3e206a7d	0.15665622
239	0x3d0212d3	0.031756233
240	0xbc8319f6	-0.01600359
241	0x3c879d7b	0.016554585
242	0xbcdffe23	-0.027342862
243	0xbd1a1368	-0.037616163
244	0x3b851796	0.0040616496
245	0x3c3a3ecd	0.011367512
246	0x3cb6da73	0.022320962
247	0xbc869fe3	-0.016433662
248	0x3ba6e173	0.0050927936
249	0xbd666bda	-0.0562552
250	0xbe02278b	-0.12710397
251	0xbcf6246f	-0.03004667
252	0x3d8c9e0f	0.06866085
253	0xbcceb12c	-0.025230967
254	0xbe090411	-0.13380457
255	0x3d5408d5	0.051766235

h.0.mha.W_o.bias f4 [64]
0	0xbe00100d	-0.12506123
1	0x3da0e200	0.07855606
2	0x3d3f450c	0.046696708
3	0xbd626844	-0.055275217
4	0x3e50d6e0	0.20394468
5	0xbd2497ea	-0.04018394
6	0xbd9835a3	-0.074321054
7	0x3da9e521	0.08295656
8	0xbd9fb6a5	-0.077985086
9	0x3df56572	0.1198224
10	0xbdb4a949	-0.08821351
11	0x3c4b8dd1	0.012423948
12	0xbde1166d	-0.109906055
13	0x3e228dc5	0.15874393
14	0xbd20f2c4	-0.03929402
15	0x3e234db0	0.15947604
16	0x3d393ec2	0.045225866
17	0x3dd04472	0.10169305
18	0x3dd49340	0.10379648
19	0xbcd6fc46	-0.02624334
20	0xbdba9582	-0.091105476
21	0x3ddbb879	0.10728545
22	0xbd1b97a1	-0.0379864
23	0x3cfd4fe2	0.03092188
24	0xbd1011ab	-0.0351731
25	0x3dec985a	0.11552496
26	0xbc5d1e58	-0.013496004
27	0xbddafc58	-0.10692662
28	0xbdada955	-0.08479563
29	0x3dfd747e	0.12375735
30	0x3b3dca5d	0.002895973
31	0x3c7a0cc3	0.015261832
32	0x3e077cb9	0.13231172
33	0xbdeacffe	-0.114654526
34	0xbdad8b71	-0.08473862
35	0x3e22f667	0.15914308
36	0x3d29e5f7	0.041479077
37	0xbc299bcc	-0.010352086
38	0xbe28b11c	-0.16473812
39	0xbd541005	-0.05177309
40	0xbdf9c7e1	-0.12196327
41	0xbdaa502e	-0.08316074
42	0xbe2c7873	-0.16842823
43	0xbd013b92	-0.03155095
44	0xbe22b9ac	-0.1589114
45	0x3d93777c	0.07200524
46	0xbd980ea5	-0.07424668
47	0x3d97b977	0.074084215
48	0xbd80c56c	-0.06287655
49	0x3de8bc52	0.11364044
50	0x3dc53efc	0.09631154
51	0x3d8e5228	0.06949264
52	0xbd1d35ee	-0.03838151
53	0x3be690c2	0.0070362994
54	0x3cee21a2	0.029068772
55	0xbe399936	-0.18124852
56	0x3de294fc	0.11063573
57	0x3d6393b8	0.055560797
58	0x3df408a8	0.119157135
59	0xbc3b3c77	-0.01142799
60	0xbcd12422	-0.025529925
61	0x3d57a783	0.052649986
62	0x3e1b2676	0.1515139
63	0xbddb6a0f	-0.107135884

h.0.ln_1.weight f4 [64]
0	0x3f7684fb	0.9629666
1	0x3f7db5a4	0.99105287
2	0x3f7455df	0.9544353
3	0x3f83cba9	1.0296527
4	0x3f80c195	1.0059077
5	0x3f7a03e5	0.9766219
6	0x3f7364e4	0.9507582
7	0x3f7a939b	0.9788148
8	0x3f6c6b60	0.9235134
9	0x3f5edd81	0.8705674
10	0x3f5a290c	0.8521888
11	0x3f77c8b7	0.9679064
12	0x3f664627	0.89950794
13	0x3f872fc0	1.0561447
14	0x3f681464	0.90656114
15	0x3f643655	0.89145404
16	0x3f7708d0	0.9649782
17	0x3f85d66a	1.0456059
18	0x3f481b1e	0.7816638
19	0x3f5d5527	0.8645806
20	0x3f770c14	0.96502805
21	0x3f4fe5a8	0.812098
22	0x3f5d3227	0.8640465
23	0x3f86c9e7	1.0530366
24	0x3f56dba9	0.83928925
25	0x3f581a2c	0.84414935
26	0x3f81d12b	1.0141958
27	0x3f5df03b	0.8669469
28	0x3f66f0ae	0.90211
29	0x3f5b155d	0.8557947
30	0x3f5144db	0.8174569
31	0x3f695992	0.911523
32	0x3f6f9cec	0.9359882
33	0x3f6fdf3a	0.9369999
34	0x3f65ccca	0.8976561
35	0x3f80e06b	1.0068487
36	0x3f6d61d1	0.9272738
37	0x3f6f38c1	0.93445975
38	0x3f86aed6	1.0522106
39	0x3f5d4202	0.86428845
40	0x3f68b1eb	0.9089648
41	0x3f71242a	0.94195807
42	0x3f7ccaac	0.9874675
43	0x3f6b3bfe	0.91888416
44	0x3f75a799	0.9595886
45	0x3f61804b	0.88086385
46	0x3f68df56	0.90965784
47	0x3f6eba27	0.93252796
48	0x3f6f3a66	0.93448484
49	0x3f4591bb	0.7717549
50	0x3f7bf329	0.9841791
51	0x3f8690f1	1.0512983
52	0x3f614abe	0.8800467
53	0x3f75f105	0.9607089
54	0x3f526eba	0.82200205
55	0x3f6fdf15	0.9369977
56	0x3f6031ce	0.87575996
57	0x3f7b2fae	0.9811963
58	0x3f68e17c	0.9096906
59	0x3f5edff1	0.8706046
60	0x3f65619b	0.8960206
61	0x3f2db51c	0.67854476
62	0x3f81863e	1.0119092
63	0x3f70dde1	0.9408856

h.0.ln_1.bias f4 [64]
0	0x3d700cca	0.058605947
1	0x3e9294a0	0.28629017
2	0xbe3e794f	-0.18600963
3	0xbd9896ac	-0.074506134
4	0x3a32aeeb	0.0006816226
5	0xbcd37f22	-0.025817458
6	0xbdababa7	-0.083823495
7	0x3d124e1c	0.035719022
8	0xbe654e1f	-0.22393082
9	0x3d305635	0.043050963
10	0xbe510727	-0.20412885
11	0x3cddc281	0.027070286
12	0xbe956d79	-0.29185084
13	0x3e61897a	0.220251
14	0xbcad4ba2	-0.021154229
15	0xbd2186b1	-0.039435092
16	0xbe28dc9e	-0.16490409
17	0x3d9ddc86	0.07708077
18	0x3e9bdad5	0.30440393
19	0xbd1f64fb	-0.03891466
20	0xbe1b7af5	-0.15183623
21	0x3e98e779	0.298641
22	0xbdbc9ae3	-0.0920923
23	0xbdf67ad8	-0.12035149
24	0xbe7939e0	-0.24338484
25	0x3ec8dcb4	0.39230883
26	0xbe726faf	-0.23675416
27	0xbc9e19da	-0.019299436
28	0xbe194441	-0.14967443
29	0x3e9b1962	0.30292803
30	0xbde0faa2	-0.109853044
31	0x3d3283ba	0.043582655
32	0x3c9198f6	0.017773133
33	0xbd8c64b9	-0.06855149
34	0xbd628697	-0.055304136
35	0x3e3b2684	0.18276411
36	0xbd9fc3e1	-0.07801033
37	0x3d89100a	0.06692512
38	0x3d1ca9a5	0.038247723
39	0x3eac86d0	0.33696604
40	0x391088ad	0.00013783826
41	0xbeaba8b0	-0.33527136
42	0x3b67c0ab	0.0035362642
43	0x3e882639	0.26591662
44	0x3d7dbac9	0.06194571
45	0xbbcd4092	-0.006263801
46	0xbdbf2521	-0.09333254
47	0xbe5d5fa1	-0.21618511
48	0x3c8f7b8e	0.01751497
49	0xbe75df66	-0.24011001
50	0x3e18abae	0.1490924
51	0x3ca93904	0.02065707
52	0xbe691ef7	-0.22765718
53	0x3d92cfec	0.07168564
54	0xbc078de4	-0.008273575
55	0xbe534e9a	-0.20635453
56	0x3e45b990	0.19309068
57	0x3d3572d3	0.044298958
58	0xbe505ca0	-0.20347834
59	0x3d861b47	0.065481715
60	0xbe1f7253	-0.15570955
61	0xbe4fa35c	-0.2027716
62	0xbe6ca22c	-0.23108739
63	0xbd757749	-0.059928212

h.0.ln_2.weight f4 [64]
0	0x3f800000	1.0
1	0x3f800000	1.0
2	0x3f800000	1.0
3	0x3f800000	1.0
4	0x3f800000	1.0
5	0x3f800000	1.0
6	0x3f800000	1.0
7	0x3f800000	1.0
8	0x3f800000	1.0
9	0x3f800000	1.0
10	0x3f800000	1.0
11	0x3f800000	1.0
12	0x3f800000	1.0
13	0x3f800000	1.0
14	0x3f800000	1.0
15	0x3f800000	1.0
16	0x3f800000	1.0
17	0x3f800000	1.0
18	0x3f800000	1.0
19	0x3f800000	1.0
20	0x3f800000	1.0
21	0x3f800000	1.0
22	0x3f800000	1.0
23	0x3f800000	1.0
24	0x3f800000	1.0
25	0x3f800000	1.0
26	0x3f800000	1.0
27	0x3f800000	1.0
28	0x3f800000	1.0
29	0x3f800000	1.0
30	0x3f800000	1.0
31	0x3f800000	1.0
32	0x3f800000	1.0
33	0x3f800000	1.0
34	0x3f800000	1.0
35	0x3f800000	1.0
36	0x3f800000	1.0
37	0x3f800000	1.0
38	0x3f800000	1.0
39	0x3f800000	1.0
40	0x3f800000	1.0
41	0x3f800000	1.0
42	0x3f800000	1.0
43	0x3f800000	1.0
44	0x3f800000	1.0
45	0x3f800000	1.0
46	0x3f800000	1.0
47	0x3f800000	1.0
48	0x3f800000	1.0
49	0x3f800000	1.0
50	0x3f800000	1.0
51	0x3f800000	1.0
52	0x3f800000	1.0
53	0x3f800000	1.0
54	0x3f800000	1.0
55	0x3f800000	1.0
56	0x3f800000	1.0
57	0x3f800000	1.0
58	0x3f800000	1.0
59	0x3f800000	1.0
60	0x3f800000	1.0
61	0x3f800000	1.0
62	0x3f800000	1.0
63	0x3f800000	1.0

h.0.ln_2.bias f4 [64]
0	0x00000000	0.0
1	0x00000000	0.0
2	0x00000000	0.0
3	0x00000000	0.0
4	0x00000000	0.0
5	0x00000000	0.0
6	0x00000000	0.0
7	0x00000000	0.0
8	0x00000000	0.0
9	0x00000000	0.0
10	0x00000000	0.0
11	0x00000000	0.0
12	0x00000000	0.0
13	0x00000000	0.0
14	0x00000000	0.0
15	0x00000000	0.0
16	0x00000000	0.0
17	0x00000000	0.0
18	0x00000000	0.0
19	0x00000000	0.0
20	0x00000000	0.0
21	0x00000000	0.0
22	0x00000000	0.0
23	0x00000000	0.0
24	0x00000000	0.0
25	0x00000000	0.0
26	0x00000000	0.0
27	0x00000000	0.0
28	0x00000000	0.0
29	0x00000000	0.0
30	0x00000000	0.0
31	0x00000000	0.0
32	0x00000000	0.0
33	0x00000000	0.0
34	0x00000000	0.0
35	0x00000000	0.0
36	0x00000000	0.0
37	0x00000000	0.0
38	0x00000000	0.0
39	0x00000000	0.0
40	0x00000000	0.0
41	0x00000000	0.0
42	0x00000000	0.0
43	0x00000000	0.0
44	0x00000000	0.0
45	0x00000000	0.0
46	0x00000000	0.0
47	0x00000000	0.0
48	0x00000000	0.0
49	0x00000000	0.0
50	0x00000000	0.0
51	0x00000000	0.0
52	0x00000000	0.0
53	0x00000000	0.0
54	0x00000000	0.0
55	0x00000000	0.0
56	0x00000000	0.0
57	0x00000000	0.0
58	0x00000000	0.0
59	0x00000000	0.0
60	0x00000000	0.0
61	0x00000000	0.0
62	0x00000000	0.0
63	0x00000000	0.0
