subspace-alignment/data/2_layer_64_vocab/ckpt_13080.pt (torch, 178594 bytes, 29 tensors)

embed.embed.weight f4 [64, 64]
000000 2f 9a cf be 5c 26 a3 3f 3c b0 bb 3e 62 69 db 3e
       -0.4054732 1.2746081 0.36657894 0.42853838
000010 37 0f 09 3e de 3b 9e be b2 87 fd bf cb b6 8a 3d
       0.1338471 -0.3090505 -1.9807036 0.06773146
000020 a2 d1 f6 be e9 0d 5b 3e 0a 62 ac bf 88 87 21 3f
       -0.48206812 0.21392025 -1.3467419 0.6309743
000030 13 f7 c4 be a5 6a 65 bf 2c 1d 27 3f c2 44 36 3e
       -0.38469753 -0.8961585 0.6527889 0.17799667
000040 9b 7e 07 3e 84 cf 46 3e b7 1c 00 3e a8 42 47 bf
       0.1323189 0.19415098 0.12510954 -0.77836084
000050 f1 e6 a9 be ee 9b ee 3f 4a 42 b3 3f e7 07 98 bf
       -0.33184007 1.8641336 1.4004605 -1.1877412
000060 8c db c9 bf 34 78 da 3f cf cd 6c bf 43 4f fc 3f
       -1.5770125 1.7067933 -0.9250154 1.9711689
000070 f3 f3 44 3f 60 b8 12 3f 7d 05 d0 be 9d e4 b0 3e
       0.76934737 0.57312584 -0.40629187 0.34549418
000080 40 71 90 3f c2 9a 7a bf fc 20 54 3e 5e 5a 8a bf
       1.1284561 -0.9789239 0.20715708 -1.0808828
000090 0d ac 84 bf 2e aa a1 3e 7e 93 8e bf 6c f5 42 3f
       -1.0365006 0.3157515 -1.1138761 0.76155734
0000a0 da 73 bd bf 2d 5c 89 bf 51 e1 d6 3e eb 43 ee 3e
       -1.480098 -1.0731255 0.41968778 0.46536192
0000b0 d9 f8 9e 3f ed 13 8c 3f 08 3f f8 be da a5 b4 be
       1.2419692 1.0943581 -0.4848559 -0.35282785
0000c0 6a 0c 01 bf 73 c8 a2 bf 5c 8e b3 bd fe 3c d8 be
       -0.5040957 -1.2717422 -0.08767387 -0.42234033
0000d0 93 15 5f 3e c3 41 77 3f 1c 71 ad bd 12 77 57 bf
       0.21785574 0.9658472 -0.084688395 -0.8416606
0000e0 bd 22 d9 3e 9d 44 8c be 36 bb 5f bf cb be a8 bf
       0.42409316 -0.27396098 -0.87395036 -1.3183225
0000f0 98 bd c0 3e 88 3d c1 be 1c b5 1c be 8b e3 3f 3f
       0.3764465 -0.37742257 -0.15303463 0.7495658
000100 c1 9a 89 3e cc 50 8f bf d5 e8 ad bf 3e 8b 9d bd
       0.2687588 -1.1196532 -1.358668 -0.07692574
000110 0c ed f3 3f 3c 73 a4 bf b9 77 d6 be bd 77 03 bf
       1.9056716 -1.2847667 -0.41888216 -0.5135458
000120 79 b7 99 3e e9 d1 42 bd 1a 0e f6 be f1 45 dc 3d
       0.3002279 -0.047563467 -0.48057634 0.10755528
000130 99 97 98 3e 78 f4 0e 3f 9f 41 81 3e dc fe 46 3e
       0.2980316 0.5584178 0.25245377 0.19433159
000140 10 35 60 3f 4c f4 17 bf 29 53 05 3f cd 01 4d 3e
       0.87580967 -0.5935714 0.5208002 0.20020218
000150 b4 fc d3 3e 15 8e ed be c5 07 d2 3f 06 28 c0 3e
       0.41403735 -0.46397462 1.6408621 0.37530535
000160 eb 1b d4 bd 4f fe 8a 3f db 13 b1 bf 39 6f 14 3e
       -0.103568874 1.0858859 -1.3834184 0.14495553
000170 ad fc f7 bf 6d fa f1 3f 3f 4d b1 3d 43 b4 13 bf
       -1.9373986 1.8904549 0.08657312 -0.5769693
000180 ce 95 6a bf af f7 81 bf 77 c1 0c 3f 03 49 1c bd
       -0.91634834 -1.0153712 0.54982704 -0.038155567
000190 dc ca be 3f f5 41 43 3f 76 07 ad 3f 4d 51 ff 3e
       1.4905658 0.7627252 1.3517902 0.49866715
0001a0 68 c8 0a bf cd f4 75 be d9 92 86 3f 52 1c ca 3e
       -0.54212046 -0.24019165 1.0513564 0.39474732
0001b0 d0 53 f6 be ad 38 17 3e 23 66 67 bf 5c c0 be bf
       -0.4811082 0.14767714 -0.90390223 -1.4902453
0001c0 d8 47 cb 3d 49 f1 34 bf f9 62 e1 3f 7e 0a ef bd
       0.099258125 -0.7068067 1.7608329 -0.11671923
0001d0 94 6e 0e be ed 6c 6f be 82 0f 3b 3d 2b 4b 2e bf
       -0.1390937 -0.23381396 0.045669086 -0.6808345
0001e0 5a 0f 91 bd ce 68 ed be 85 43 27 bf 8e 9a 04 3e
       -0.07083006 -0.46369022 -0.653374 0.12949583
0001f0 b0 6b ef 3e 83 b3 21 c0 81 1a 39 be bc 9a 08 3e
       0.46761847 -2.5265815 -0.18076517 0.13340276
000200 b7 fb 9d 3f 38 e9 6d 3f 38 97 a6 be 83 78 d7 3b
       1.2342442 0.9293399 -0.32537246 0.0065756454
000210 14 78 ad be 8e bf 2e 3f 28 0f 4f bf 29 23 b8 bf
       -0.33880675 0.6826104 -0.808825 -1.438573
000220 18 09 1b 3f 41 ce 96 be 53 90 23 be c3 42 61 bf
       0.6056075 -0.29454234 -0.15973024 -0.87992495
000230 18 1c d5 be 4f 81 36 3f c9 26 b3 3e 75 69 da bd
       -0.41622996 0.7129106 0.34990528 -0.106646456
000240 25 5b f6 be 16 8b 9b bf 30 1c 9c bf c3 67 34 bf
       -0.48116413 -1.2151821 -1.2196102 -0.7047083
000250 66 d4 3f 3d fb 00 a9 3f fc 4a 8e bf 15 0a a3 be
       0.04683342 1.3203424 -1.1116633 -0.3184363
000260 d3 68 d9 3d c5 84 06 3f 71 6e 57 be 85 9e 5e bd
       0.10615697 0.5254634 -0.21038224 -0.054350395
000270 a7 be 36 bf 3a 44 cd 3f 41 db 80 3f e7 eb ff 3e
       -0.7138466 1.6036446 1.0066911 0.49984667
000280 7d 69 86 bf 56 25 ff 3e 7e c0 b7 3e c3 81 59 3f
       -1.0500942 0.49833173 0.35889047 0.84963626
000290 d7 9b 90 bf d9 04 dc bf 98 1e aa be 9f 2e 15 40
       -1.1297559 -1.7188979 -0.33226466 2.3309705
0002a0 23 d1 f8 be b6 b3 87 bf 28 0c 09 3e 40 b8 eb 3d
       -0.4859706 -1.0601718 0.13383543 0.11509752
0002b0 f6 e6 e0 39 d1 4c 34 bf ee 2f 6e 3f e1 83 b7 be
       0.0004289669 -0.7042971 0.93041885 -0.35842803
0002c0 a4 ff a5 be cb 61 15 bf fa 55 20 40 4d 5d ca be
       -0.324216 -0.58352345 2.5052476 -0.39524308
0002d0 ed 15 38 3e 79 e8 12 bf 5b 36 ca bf ec 75 24 bf
       0.17977114 -0.57385975 -1.5797838 -0.64242435
0002e0 8b 7a 26 3f be 50 74 bc dc 87 bf be bb ee fd 3e
       0.65030736 -0.014911829 -0.3740834 0.495962
0002f0 d3 71 21 c0 fd 79 82 3e 9f 68 56 3e 20 b3 f6 3e
       -2.5225723 0.25483695 0.20938347 0.48183537
000300 36 92 a2 bf 95 28 69 3f 36 e1 67 be 47 e3 22 3d
       -1.270087 0.9107755 -0.22644505 0.03976753
000310 82 00 b3 bf 96 3f f0 be 42 3a 97 3f 3d f9 86 3e
       -1.398453 -0.46923512 1.1814654 0.2636203
000320 a3 c2 9d bf cf 71 51 bf 5c ed 98 bf 53 e8 6a bf
       -1.2325023 -0.81814283 -1.1947436 -0.9176075
000330 ee 66 1a c0 2a d9 14 40 0a 9f 3f bf 9b 36 1e 3f
       -2.4125323 2.3257546 -0.7485205 0.6180207
000340 3e ad 2a 3f 82 05 c8 be f8 cb 0f 3f ed cf 97 3d
       0.66670597 -0.39066702 0.56170607 0.074127056
000350 e9 64 8f 3e bf 4b 3f bf 37 33 78 bf c2 c7 0d 3f
       0.28006676 -0.74724954 -0.9695315 0.5538293
000360 24 57 cf bf 03 43 d5 3f 68 1f 44 3e 57 97 c6 3e
       -1.6198468 1.6661075 0.19152606 0.38787338
000370 93 14 2d 3e cc 6e 25 3e 4b 27 d3 bd 33 a0 67 3f
       0.1690238 0.16155547 -0.10310229 0.9047882
000380 ab 3b 0f 3f 1d 52 4a 3f f3 e5 14 bf 17 16 61 bf
       0.5595042 0.79031545 -0.58163375 -0.8792433
000390 b1 ef b9 bd a2 5e 20 bf f7 bf a9 3e a1 77 5e 3f
       -0.09078921 -0.626444 0.3315427 0.8690129
0003a0 8f c0 95 3f 4a 96 3d 3b 55 99 90 bf bd fc 44 3f
       1.1699389 0.002892869 -1.1296793 0.7694815
0003b0 37 5f 37 3f e4 46 a6 3f 0c 23 3e 3f 6b ce 5c 3f
       0.7162966 1.2990384 0.7427223 0.8625247
0003c0 fd ea 11 3f d5 e9 27 bf 93 5b 76 3f b5 85 0c bd
       0.5699919 -0.65591174 0.9623348 -0.0343072
0003d0 12 6d a8 bf 59 f3 8b 3f b3 fc ad 3e c7 fc 12 bf
       -1.3158286 1.0933639 0.33981857 -0.5741696
0003e0 b0 a4 d3 3e 32 45 2e 3f 12 12 b1 bf 45 ef 75 be
       0.41336584 0.68074334 -1.383364 -0.24017055
0003f0 f6 d5 17 3e fa a8 52 bf a0 7e fe be 47 07 09 3b
       0.14827713 -0.8228909 -0.49705982 0.0020908879

h.0.mha.W_q.weight f4 [64, 64]
000000 f4 79 61 bb 31 bd 78 be d1 dc 3a 3e 74 a4 f2 bc
       -0.0034404965 -0.24290921 0.18248297 -0.029619433
000010 63 77 f8 bd b9 65 2d bb df d6 f1 3d c7 4f 82 3d
       -0.12132146 -0.0026458337 0.118085615 0.063628726
000020 c2 e9 90 3e df da da 3d 44 62 34 3e ac f8 8d 3c
       0.28303343 0.106862776 0.1761561 0.01733049
000030 5f bc 41 3e 55 75 53 be 7f 7e 3c bd 63 03 87 bd
       0.18919514 -0.20650227 -0.046019074 -0.06592443
000040 37 2d 02 3e 0e 6f 02 be 12 45 09 be 20 d9 aa 3d
       0.1271256 -0.12737677 -0.13405254 0.083421946
000050 1c 26 06 3e 04 39 01 be 25 83 95 3d 25 5e 31 3e
       0.13100475 -0.12619406 0.073004045 0.1732107
000060 cb 06 1e 3e 65 1d 5d be 44 d7 60 3e 62 33 50 bd
       0.15432279 -0.21593244 0.21957117 -0.050830252
000070 08 6d 44 3e b1 2f 62 be 7b fd 84 3c 82 28 47 bb
       0.19182217 -0.22088505 0.01623415 -0.0030389135
000080 79 31 93 3d c5 9c c7 3d 49 92 7a bc 20 84 2a be
       0.071871705 0.09746698 -0.015293666 -0.16651964
000090 4a e1 5f bd 70 d4 d8 bd 4c b1 c3 3d 64 67 33 be
       -0.05465821 -0.10587394 0.09555301 -0.17519909
0000a0 20 56 77 bd 47 1e 5e 3e 58 f5 1e 3d 81 b1 71 be
       -0.06038487 0.21691237 0.038808197 -0.23602869
0000b0 3e fc 8c 3d 65 a1 3b 3d 5f f0 86 3d 5f 7c 76 3d
       0.06884049 0.045808215 0.06588816 0.060177203
0000c0 94 eb 8f 3c 32 a3 dd 3d 74 58 6a bd 8f 2e db bd
       0.017568387 0.10822143 -0.05721326 -0.1070224
0000d0 71 7c cc 3d 23 54 6e bb 03 53 64 bd cf 9c 35 3e
       0.09984673 -0.0036366067 -0.05574323 0.17735599
0000e0 7e f3 bc bd 64 f7 be bd 44 c2 21 3e 23 5b 78 bd
       -0.0922613 -0.0932453 0.15796763 -0.06063379
0000f0 13 3c ce 3d 00 52 80 3d 28 35 ed 3d e3 0c 8b 3d
       0.10070052 0.0626564 0.115824044 0.06789567
000100 52 9a 0f 3c 03 02 17 3e 07 b0 52 be 4b a4 6f 3d
       0.00876482 0.14746861 -0.20574962 0.05850629
000110 ec 83 34 3e eb 0b 1d 3e 3e 4c 20 3d 7f 5f d7 3b
       0.17628449 0.15336578 0.03913521 0.0065726633
000120 79 44 0e be ef 85 c9 3d 40 6c 82 bd 3d 35 f6 bc
       -0.13893308 0.09839999 -0.06368303 -0.030054683
000130 14 ae 7f be 82 f6 5f 3e ca f0 4d bd e1 ac ef bd
       -0.2496875 0.21871379 -0.050278462 -0.11702896
000140 da a5 dc bd 24 73 55 3e 0e 7e ab 3d 6b ff e5 bd
       -0.10773821 0.20844704 0.083736524 -0.11230358
000150 99 f0 a6 bd f2 a4 b7 3d 35 a0 0c bd f0 af 7a be
       -0.08151359 0.08967008 -0.034332473 -0.24481177
000160 18 df 6d bd 3c fd 91 3d 03 84 79 be e4 86 a3 bb
       -0.058074087 0.07128379 -0.24366765 -0.0049904454
000170 ba 42 be bd 0e cd 0b 3e c4 a1 1e 3d 3d b6 d0 bd
       -0.09290071 0.13652441 0.03872849 -0.10191009
000180 05 9e c5 bc 8b f6 80 3d 38 a8 d7 3d da 8d 20 3e
       -0.024123201 0.06297024 0.10530132 0.15679112
000190 6c a7 6f bc db 85 0d 3e 90 a5 fb bd a5 4f 8c 3d
       -0.014627319 0.13820593 -0.12287438 0.068511285
0001a0 79 95 dd 3d 6d 42 74 be ce d1 9d bd a1 38 67 3e
       0.10819525 -0.23853464 -0.07706033 0.22580196
0001b0 7e fb 18 be f9 48 33 bd 64 64 70 be 42 86 80 3c
       -0.14939687 -0.043770764 -0.23475796 0.01568902
0001c0 21 1b f8 3d cf c7 ba 3c 00 1c e8 bb d2 95 86 3e
       0.121145494 0.022800354 -0.007083416 0.2628618
0001d0 8e 1a 60 bd f3 41 0b 3d b5 76 db bc 05 03 0c be
       -0.054712825 0.03399844 -0.026790002 -0.13673027
0001e0 4f 6b 0c 3e 54 78 20 3c 99 1d b4 bd e1 5b 96 3d
       0.1371281 0.009794313 -0.08794708 0.07341743
0001f0 1c bb 2d bd 55 e0 8a 3d 8d af e0 bd d0 5a 32 be
       -0.04241477 0.06781069 -0.10970984 -0.17417455
000200 61 86 4e bd fb 0e 14 3e 53 f4 91 be 80 7b 15 3d
       -0.050421122 0.1445884 -0.28506717 0.036494732
000210 03 ea a7 3d 9e f5 a9 3d ba 87 9a bd 83 3b 0a 3d
       0.08198931 0.08298801 -0.07545419 0.03374816
000220 2a 78 c6 bd 49 af d8 bc da 81 18 be 6a 7a 1b bd
       -0.09690888 -0.02645077 -0.14893284 -0.03795854
000230 c6 47 3e be 99 09 3c 3e a0 6d 09 bd f0 47 58 bd
       -0.18582067 0.18363036 -0.033551812 -0.05280298
000240 58 b6 38 be 1f 94 69 3e 02 39 fe 3d 38 93 97 bc
       -0.18038309 0.2281041 0.12413217 -0.018502817
000250 ba 42 0c be 2a bf 38 3e ce 62 2f be 8e b3 1e be
       -0.13697329 0.18041673 -0.17127535 -0.15498182
000260 2f 78 d8 bb b4 67 d2 3d 13 ab 85 be 07 a6 66 3c
       -0.006606124 0.10273686 -0.26107082 0.01407767
000270 d7 c3 d1 bd e9 64 5c 3d 1c d5 b9 3c 75 be 01 bd
       -0.102424316 0.053807173 0.022684626 -0.031675775
000280 29 79 2f bc f7 6a af bd c0 27 11 3d f4 fe 51 3e
       -0.010710039 -0.08565324 0.0354383 0.20507413
000290 8e 93 0f bd 10 66 aa 3d 27 1b 39 bd a2 e5 33 3d
       -0.03505283 0.08320248 -0.04519191 0.043920167
0002a0 8a 8c 2b 3d 8d 02 f7 bd c3 ad bb bd 7c 62 7b 3e
       0.041882075 -0.120610334 -0.09164002 0.24549288
0002b0 0a f4 c8 bd 34 fa a8 bd 9b 48 b6 bd ce 53 67 bd
       -0.09812172 -0.082508475 -0.08900567 -0.056476407
0002c0 45 e2 dc 3c d9 c8 54 3c 86 8e 74 3d 5f b0 19 3e
       0.026963362 0.012987339 0.059706233 0.15008686
0002d0 c3 23 f7 bc a5 79 04 3c 90 8f 8d bc 58 fc 47 be
       -0.03016842 0.008085643 -0.01728037 -0.19529855
0002e0 9e 4e 1a 3e 9c 50 15 3d e4 a0 89 bd 18 4c e3 3c
       0.15069053 0.03645383 -0.067201406 0.027746245
0002f0 94 e9 d0 bc c7 77 51 bd ea 06 da bd c3 1b 8a bd
       -0.025502004 -0.05113962 -0.1064585 -0.067435764
000300 d6 d3 6a bc 0f 07 27 3e 5d e6 1c 3b 0d ca 2d 3d
       -0.014332732 0.16311286 0.0023941018 0.04242902
000310 5a 22 33 3e f1 59 e4 3d 01 aa c9 bd a9 ef aa bc
       0.17493573 0.111499675 -0.09846879 -0.020866232
000320 8e 91 26 be e5 47 25 bd ee 5c 01 bd 16 a6 28 3d
       -0.16266462 -0.040351767 -0.031582765 0.041174017
000330 86 45 42 be 8f 62 4e 3e e6 8d 8c 3d e6 02 ec bc
       -0.18971834 0.20154785 0.068630025 -0.028809976
000340 5a 97 cb bd 3f 72 bf 3d 57 6e 6d 3d a7 4c 3f bd
       -0.099409774 0.093479626 0.057966556 -0.04670396
000350 85 7b a2 bd dd 52 32 3e 47 4d 96 3b 9f 33 cf bd
       -0.07933716 0.17414422 0.004586849 -0.10117268
000360 6b 57 ba bd 46 cf be 3d fe ab 59 bd 77 2f b9 3b
       -0.09098705 0.09316878 -0.05314254 0.00565141
000370 82 b6 05 be 48 60 4a 3d d5 d4 1d 3e c2 29 19 bd
       -0.13057902 0.049408227 0.1541322 -0.03739334
000380 b9 42 41 3c db 6d 91 3c 8a a4 88 bc a8 3a 6b 3e
       0.011795693 0.017752578 -0.01668002 0.22971594
000390 07 ef 4a 3d 4f 40 02 3e 15 de 3d bc 57 10 b0 3d
       0.04954436 0.12719844 -0.011588593 0.085968666
0003a0 bc 12 e9 3d 01 f4 99 bd bf 4f 0e bd 8c 81 70 3d
       0.113805264 -0.07517243 -0.03474402 0.058717296
0003b0 70 5c b8 bd 72 97 40 bd 11 d5 cb bd 46 cd 03 bd
       -0.09002006 -0.04701943 -0.099527486 -0.032178186
0003c0 a1 19 66 bb 1f 3f 64 3d 19 0f fc bd 35 53 22 3e
       -0.003511049 0.05572426 -0.12307567 0.15852053
0003d0 1c af d3 bc f1 4f 88 3c 60 5c 76 3d 80 10 f5 bc
       -0.025840335 0.016639682 0.06014669 -0.029915094
0003e0 1e 23 8f 3d af 0e fb 3d 56 a5 b0 bb eb f7 ad 3d
       0.0698912 0.1225866 -0.0053908033 0.08494552
0003f0 0e d5 24 3d cb 32 10 bc 28 6f 17 bd e0 fb 4a 3d
       0.040242247 -0.0088011725 -0.03697124 0.049556613

h.0.mha.W_q.bias f4 [64]
000000 f2 c9 48 be 98 d7 0f 3f 64 f6 00 3f 23 db 9f 3e
       -0.19608286 0.56188345 0.5037596 0.31221876
000010 35 b0 53 3e b3 85 17 3f cb a3 57 be 39 cd dc 3e
       0.20672686 0.59188384 -0.21058576 0.43125322
000020 9a 44 24 bf b1 cf ab be d5 96 20 3e f9 75 37 3e
       -0.6416718 -0.33556893 0.15682538 0.17916097
000030 54 8a 4d 3d 76 a8 20 3f c5 b5 8f 3e 49 ae df bd
       0.050180748 0.6275705 0.28068367 -0.10921914
000040 a1 3d 57 3e 7d aa ec 3e 91 fd 33 bd db 48 b0 3e
       0.21019603 0.46223822 -0.04394299 0.34430584
000050 e7 a6 9c be 4a a6 1c 3e d5 96 be bd 44 d8 80 be
       -0.30596086 0.15297809 -0.09306113 -0.25164998
000060 ec d9 a6 bd b8 1e 47 3d 25 b5 19 3d d3 61 0a be
       -0.08147034 0.04861328 0.03752627 -0.1351388
000070 e8 7a f3 3b 60 20 bb bd ed 2c 7c 3d 1d 6e 25 3e
       0.007430423 -0.091370344 0.061566282 0.16155286
000080 69 f8 c1 bd 19 e7 80 bc e4 6a 0e bc 09 17 de 3c
       -0.094712086 -0.015735196 -0.008692477 0.027110593
000090 2f 8d 28 3d d2 9f bd bc 60 0f ad bd 26 65 c9 bc
       0.04115027 -0.023147497 -0.08450198 -0.024584364
0000a0 80 9a b0 3d ca 22 33 bc 76 0f d5 3d 42 fe 06 3c
       0.086232185 -0.010933587 0.104033396 0.008239331
0000b0 ec f0 73 3d b7 70 5d 3d 93 a0 c0 3d 3c 74 97 3d
       0.059555933 0.05406257 0.09405627 0.07395217
0000c0 ed 93 87 bc f4 3e 99 3d 23 3a fc 3d 48 af 25 3d
       -0.016550029 0.074827105 0.12315776 0.040450364
0000d0 92 ce f9 bc a6 0c 05 bd ec 31 fb bc 0c ad 44 bd
       -0.030494008 -0.032482766 -0.030663453 -0.048016593
0000e0 20 b1 27 3e 5c a4 5b 3c 03 5f 9b 3a fc 92 2a 3d
       0.16376162 0.013405886 0.0011853877 0.04164408
0000f0 8d d5 46 3d c2 9b 3f 3d 79 bd f4 3d 14 a5 db bd
       0.0485435 0.0467794 0.119502015 -0.107248455

h.0.mha.W_k.weight f4 [64, 64]
000000 29 24 be 3c e6 90 58 bd 69 1c 23 3d 5b 32 a6 bd
       0.023210602 -0.05287256 0.039822016 -0.08115073
000010 68 70 5b bd c1 97 86 bd 71 a3 b4 bc 03 15 fc 3d
       -0.053573996 -0.065719135 -0.022050591 0.12308695
000020 0d bb 95 3d 13 d4 a5 bc 0f 1a 6c bc a1 3a 38 3d
       0.07311068 -0.020242726 -0.01441051 0.044977788
000030 1e 2b a9 3c f0 21 99 bd 92 c6 ac 3c 9d 76 39 3d
       0.020650443 -0.07477176 0.02109078 0.045279134
000040 1e f1 24 b9 84 a9 8c bb 7a 0c 40 3d c4 8c 5d 3d
       -0.00015730082 -0.004292669 0.0468869 0.054089323
000050 74 2f 17 bd 98 c0 ac bd 75 4e 44 3d 92 43 d9 3c
       -0.03691049 -0.08435172 0.047926385 0.026521478
000060 cb cc 34 3d a5 3c f2 bd ed fb a1 3d b9 2a 88 3c
       0.04414062 -0.11827973 0.07909379 0.016621934
000070 da 06 8a 3c 60 47 18 bc 9d 59 2d bd 99 c4 70 3d
       0.01684897 -0.009294361 -0.04232179 0.05878124
000080 24 21 1a 3c d5 61 cb 3a af 04 19 3d 36 b5 7d bb
       0.009407315 0.0015516827 0.037357982 -0.0038712746
000090 88 66 1b bc 31 53 9b 3c d7 35 3d 3c 2d 07 9d 3d
       -0.009484895 0.018960567 0.011548481 0.07667384
0000a0 28 77 b1 3d 6a 4a 02 3d e0 f1 87 3b bf dd 5f bd
       0.086653054 0.031809248 0.004148707 -0.054654833
0000b0 7d ca 1f bb 59 de 01 bc d4 2d 4f 3d 96 12 6f 3d
       -0.0024382167 -0.007926547 0.050580814 0.058367334
0000c0 95 97 a4 bb 37 2e 8f 3a 2f 0c 85 bd 23 43 95 bd
       -0.005022953 0.0010923807 -0.064964645 -0.07288196
0000d0 eb b2 c9 3d 23 d9 51 bc 86 47 6e bc a8 8b 57 3d
       0.09848579 -0.012808117 -0.01454342 0.05262342
0000e0 f8 fe d2 3b 57 88 89 bd 37 b3 4b bc d2 8d 00 bd
       0.006439086 -0.06715458 -0.012432865 -0.03138525
0000f0 3b ee 64 bc af 28 64 bd 79 d9 1f 3d c0 c0 3c 3d
       -0.013972814 -0.05570286 0.039025757 0.04608226
000100 b1 2b 2c bd fc 5a 51 3e e5 ef 72 be 2c 38 09 3d
       -0.042033855 0.20444864 -0.23724325 0.033500835
000110 7f 57 61 3e 97 08 07 3e 11 a2 31 bd ab d1 95 bc
       0.22006033 0.1318687 -0.04336745 -0.018288454
000120 3a 55 4f be 87 f3 c7 bd a5 35 1f be ac de 43 3b
       -0.20247355 -0.09763246 -0.15547808 0.0029887361
000130 49 e4 ab be 79 28 9b 3e 89 e4 b1 bc b5 67 1c be
       -0.33572605 0.30304316 -0.02171542 -0.15273936
000140 ec 3c 0a be f1 99 39 3e 8c d9 ff 3d 5f 05 63 bd
       -0.13499802 0.1812513 0.12492666 -0.055425044
000150 81 59 31 be 6b f7 83 3e 59 70 9c bd e9 4c 60 be
       -0.173193 0.25774702 -0.07638616 -0.21904339
000160 3b 49 2c be 60 86 8e 3e 37 29 9d be 24 fd 2a bd
       -0.1682481 0.27836895 -0.30695507 -0.04174532
000170 32 25 20 be cd 38 46 3e ca cf 74 bd 7c 80 3b bc
       -0.15639189 0.19357605 -0.059768476 -0.011444207
000180 97 c1 1c bc 9a ca e6 bd cb 73 9d 3d d5 6a 4c 3e
       -0.00956764 -0.11269112 0.076881014 0.19962628
000190 47 e7 e7 bc d6 e3 87 3d 9f 4d cc bd d8 9c 4c 3e
       -0.028308524 0.06635253 -0.099757425 0.19981706
0001a0 63 a2 15 bb 84 7a 8c be 31 10 02 be 22 67 71 3e
       -0.0022832386 -0.27437222 -0.12701489 0.23574498
0001b0 49 5e e3 bd e1 4a cb bd 34 6c 63 be 1a fd 20 be
       -0.11101968 -0.099263914 -0.22209245 -0.1572155
0001c0 28 7a f8 3c b6 a7 66 be 61 a2 22 3e 22 76 a6 3e
       0.030331686 -0.22524914 0.15882255 0.32512003
0001d0 26 65 13 be 14 8d a6 3d d3 78 6f bd 63 21 96 be
       -0.14394054 0.08132377 -0.058464836 -0.29322347
0001e0 7a a9 95 3e 79 8c 43 3d 28 bc 7a be df d1 b9 3d
       0.29230863 0.047741387 -0.24485838 0.09073233
0001f0 d9 3f 08 be b0 cd 4e be 8b 4c 05 be 66 21 d4 bd
       -0.13305606 -0.20195651 -0.1301748 -0.10357933
000200 3e 43 a2 3c e6 7f 1b be 11 23 12 3e fc 1c dc 3c
       0.019807454 -0.15185508 0.1427119 0.02686929
000210 cf b8 bb bd f3 c6 a8 bd a4 15 b4 3c fc 0c 2c ba
       -0.09166109 -0.082410716 0.021982975 -0.0006563214
000220 af 10 23 3e 0e ab 89 bc 40 f9 23 3e c8 c5 39 3d
       0.15924333 -0.016805198 0.1601305 0.045354635
000230 bd 5e e0 3d a6 f2 37 be f9 80 ec 3c e5 bd 07 3d
       0.1095557 -0.17963657 0.028870093 0.033140082
000240 d1 30 92 3d 0f c9 06 be 4c 23 7e bd bc 57 88 3d
       0.07138217 -0.13162635 -0.06204538 0.06657359
000250 ba f7 22 3e 7e f0 32 be f0 cd ad 3b a6 ad 32 3e
       0.15914813 -0.17474553 0.0053040907 0.17449054
000260 2e 25 83 3d 4b 62 be bd 03 3f 26 3e 5b 56 65 3d
       0.06403576 -0.09296092 0.16234975 0.055990558
000270 4c b5 f4 3d f3 da 25 be 32 48 3a 3d 66 13 2b 3c
       0.11948642 -0.16196804 0.045479007 0.010441637
000280 ff 49 10 3d d2 4b d4 3c f9 a0 cf bc 48 3e 22 be
       0.03522682 0.02591506 -0.025345312 -0.15844071
000290 2d bf a0 bc fe 87 07 bd 55 64 58 3d 56 84 af bd
       -0.01962241 -0.033088677 0.05283006 -0.08570163
0002a0 f2 0d b6 3b 35 f4 da 3d 27 17 de 3d e7 08 5c be
       0.0055558616 0.1069111 0.1084426 -0.21487771
0002b0 38 c4 ae 3d 99 87 0b 3d dd 30 01 3e 2a 23 0a 3e
       0.085335195 0.034064863 0.12616296 0.13489977
0002c0 30 08 d7 bd 63 9c 01 3e ce 1f 28 bd f9 75 58 be
       -0.104996085 0.12657313 -0.041045956 -0.21138753
0002d0 01 1a 97 3d 0d 5d 97 bd d9 94 2d 3d e4 83 09 3e
       0.07378007 -0.07390795 0.04237828 0.13429219
0002e0 f3 ec 36 be 81 c8 1a be 11 05 f4 3d 0b 12 34 3d
       -0.17863826 -0.15115549 0.11915029 0.04396252
0002f0 24 a5 61 3d 43 e3 d7 3d 8e 07 ef 3c d3 29 d7 3d
       0.05508913 0.105413936 0.029178407 0.10506024
000300 53 c6 fe bd 15 d2 a4 3d b6 ed c3 bd 36 30 cd 3c
       -0.12440171 0.080478825 -0.09566824 0.025047403
000310 e6 56 3e 3e c9 f8 97 3c bc f2 33 bd 38 60 e1 bd
       0.18587837 0.018551247 -0.04393266 -0.110046804
000320 b3 7f c0 bd 90 36 8b bd 84 ae da bd eb 9f 4c bd
       -0.09399357 -0.06797516 -0.106778175 -0.049957197
000330 d6 6a a0 be e2 37 29 3e 2c 7b 1f 3d 81 36 3d 3d
       -0.3133151 0.16525224 0.038935825 0.046194557
000340 ef da c0 bd df 37 10 3e 95 1d 18 3e 9f fd 13 3d
       -0.09416758 0.14083813 0.14855035 0.036130544
000350 c3 f8 54 bd 47 5d 38 3e c0 52 04 bd 5a 86 d1 bd
       -0.05199505 0.18004332 -0.03230548 -0.10230704
000360 5e bd 4c bd 72 4e a1 3d 65 52 29 be 01 ce 19 3d
       -0.049985282 0.078762904 -0.16535337 0.037549976
000370 5f 9d 16 bb 95 81 45 3e a0 e5 5b bb 41 3f a0 3d
       -0.0022981984 0.19287713 -0.0033553615 0.07824565
000380 93 fe eb bc 85 b6 07 be 63 9c 98 3d 97 2e 0d 3e
       -0.028807914 -0.1325322 0.074517034 0.13787304
000390 3e a7 44 3d b1 db 3b 3d 5a e1 20 bd f3 2e 4d 3e
       0.048011057 0.04586381 -0.039277412 0.20037441
0003a0 b4 46 09 3d 82 4c 29 be 28 16 1d bd ae ec 4d 3e
       0.033514693 -0.16533092 -0.038351208 0.20109817
0003b0 ba 06 c8 bc 02 da 40 bd 16 4a 09 bd 36 8c d0 bd
       -0.02441727 -0.04708291 -0.03351792 -0.10182993
0003c0 d9 af 68 3a 3d 74 b7 bd 07 90 04 3e d7 e3 e1 3d
       0.0008876301 -0.089577176 0.12945567 0.11029785
0003d0 71 82 ab bd 49 61 db 3d a8 e5 55 bc 22 2a 50 be
       -0.08374489 0.10711915 -0.013055243 -0.20328572
0003e0 1b 15 7a 3e 5b 79 3a 3c db 9a f1 bd 77 e0 bc 3c
       0.24422114 0.011381472 -0.117971145 0.023056252
0003f0 d3 ad 94 bd 06 7a 95 bd 6f 72 d7 bd 72 9f ea 3c
       -0.07259717 -0.07298665 -0.10519873 0.028640483

h.0.mha.W_k.bias f4 [64]
000000 25 eb f1 bb b6 d7 17 3f a4 e6 ba be d2 71 27 3f
       -0.0073827677 0.59313524 -0.3650409 0.6540805
000010 64 44 a4 be d1 01 e2 3e 09 ba 9b bf 5c d9 51 bd
       -0.32083428 0.4414201 -1.2166148 -0.05123268
000020 3d 60 e2 be 13 7d 85 bf 36 f1 d2 3e 2d cb af 3d
       -0.4421405 -1.0428795 0.41199654 0.085836746
000030 92 1a 46 3e e4 24 9c 3f 4a 5b e0 bd 6c 48 e9 be
       0.19346073 1.2198758 -0.10954912 -0.45563066
000040 d1 5b d0 3d 91 23 b4 3e f8 0b c0 be 38 0c 8c 3f
       0.101737626 0.35183385 -0.3750913 1.0941229
000050 d8 5a fa 3c 44 eb c8 3d 29 28 67 bf 93 78 ae 3e
       0.030560896 0.09810498 -0.90295655 0.34076366
000060 b7 2f a1 be d0 a4 81 3f 88 cd a9 be 30 d8 08 bf
       -0.31481716 1.0128422 -0.3316462 -0.53454876
000070 e4 25 bc 3e 27 36 29 be f9 b4 77 3e 54 90 23 bf
       0.36747658 -0.16524564 0.2419013 -0.638921
000080 d2 67 4e bf 41 2e 6b be 5e 9c a3 be e7 ec d1 3e
       -0.8062717 -0.22966863 -0.31955236 0.41001055
000090 8b e6 ec 3d 6e f0 c4 bd 35 83 dc 3e 48 d6 0b be
       0.1156741 -0.09616171 0.43068853 -0.1365596
0000a0 a3 f2 15 3f 5b 63 33 3d 7f 91 58 3e 29 bd d4 bd
       0.5857336 0.043795925 0.21149252 -0.10387642
0000b0 34 b1 db be 66 48 7c 3d 7b e6 fc 3e 9f 53 66 3e
       -0.42908633 0.061592482 0.49394593 0.22492836
0000c0 31 ac ea 3d 96 ef ac 3e 41 c2 9b be fc 8d fe bd
       0.11458624 0.3377654 -0.3042164 -0.12429425
0000d0 85 a6 ac 3c 41 92 12 bf a8 e5 d1 3e 8f 49 ae be
       0.021075496 -0.57254416 0.40995526 -0.34040496
0000e0 0c 50 72 be fe 20 df be b5 eb a6 3e dd 90 dc be
       -0.23663348 -0.4357986 0.32601705 -0.43079272
0000f0 35 52 0e 3f 60 04 81 3e 63 7b b1 3c e0 cb 2c bf
       0.5559419 0.2519865 0.02166528 -0.6749859

h.0.mha.W_v.weight f4 [64, 64]
000000 4b 72 68 bb ce d2 01 3c fb f2 5a 3e 9f 7b 38 be
       -0.0035468515 0.007923795 0.21381752 -0.18015908
000010 4a 51 28 3e bf 91 34 be e7 8e ee bd c8 38 b3 3e
       0.1643726 -0.17633723 -0.1164835 0.35004258
000020 86 fe f5 bd ce 01 30 3d 22 5b ef 3c 45 bc 1f 3c
       -0.12011437 0.04297047 0.02921826 0.009749477
000030 41 d2 02 3d 0d 7e ad be c6 53 ea 3d 29 38 15 bd
       0.031938795 -0.33885232 0.1144176 -0.03643051
000040 46 d3 34 bd fd d7 0b 3e 85 34 ae bd 22 e8 83 3e
       -0.0441468 0.13656612 -0.08506111 0.2576304
000050 fd bf d2 3d 3f ae 60 3d 9a ac 1a 3e f7 9c 89 bd
       0.10290525 0.054853674 0.15104905 -0.06719392
000060 22 0e f0 bd 44 cc e3 bd f3 7f 8c be 0c b9 75 3d
       -0.117214456 -0.11122945 -0.27441368 0.059990928
000070 1b 05 88 3e f1 de 6f bd 68 87 d0 3d d1 c7 16 be
       0.26566395 -0.058562223 0.10182077 -0.14724661
000080 5d 3e f4 3d db 7e 8f bc fd 25 eb 3d 0c b4 84 3d
       0.11925957 -0.017516544 0.11481855 0.06479654
000090 3e 6e 46 be bf 2d c7 3d 0f 10 d7 3c 79 75 08 3e
       -0.19377992 0.09725522 0.026252775 0.13326062
0000a0 9d a1 9f bd 41 2f d0 bb a5 b9 3b 3e c4 8b 75 bd
       -0.07794497 -0.0063532894 0.18332537 -0.059947744
0000b0 ba e8 44 3c 2f ca 15 3e 30 8a 81 bd 37 da 1d 3e
       0.012018377 0.14627908 -0.06325185 0.15415274
0000c0 bb 3e 2e bb 37 2a 8c 3d 3f 05 7a 3d 5c df 16 bd
       -0.0026587683 0.06843989 0.06104016 -0.036834106
0000d0 e0 b0 94 be fd e9 a2 bd 7f a8 48 3e cf 59 9c 3d
       -0.29041195 -0.07954786 0.19595526 0.07634317
0000e0 87 5b 06 3e a6 2a f5 bb d5 d3 08 bd 95 df 92 bd
       0.13120852 -0.0074818907 -0.033405144 -0.07171551
0000f0 28 c0 49 3d c9 10 b7 bd 06 a3 db bd 91 ba 30 be
       0.04925552 -0.089387484 -0.10724454 -0.1725867
000100 68 c5 20 be 03 fe c3 bb ad 80 da bc 18 11 99 be
       -0.15700305 -0.0059812083 -0.026672686 -0.29895854
000110 af dd 5a 3d d6 f6 25 3e f7 65 89 3d 89 da 5f 3d
       0.05343407 0.16207442 0.067089014 0.05465177
000120 6b 8d 5e 3c 40 48 77 bd 93 02 4a bd 04 71 33 3e
       0.013583521 -0.060371637 -0.04931886 0.17523581
000130 40 5c b9 bd 26 2a 88 3d 84 f2 dd bd be e4 b7 bd
       -0.090507984 0.06648664 -0.10837272 -0.08979176
000140 98 f2 4b bd 72 0a e5 3d 67 16 40 3e 2a 52 b8 3c
       -0.049791902 0.11183633 0.18758546 0.022500116
000150 cd 9a ef 3b 36 27 fc bd 98 e4 6a 3d f7 d6 06 bd
       0.007312155 -0.123121664 0.05734691 -0.03291985
000160 44 4d 03 3e 06 11 90 bd ad fb 5c be 6c 79 c0 bd
       0.12822443 -0.07034497 -0.21580382 -0.093981594
000170 cb 29 9b 3c 3b 16 8f 3b 98 4c 66 3d 85 29 a7 bd
       0.018940827 0.0043666638 0.05622539 -0.08162216
000180 53 e4 22 3d da 46 c1 3d b3 6c 74 be 7b 96 ab 3d
       0.03976853 0.09437342 -0.2386959 0.08378311
000190 dd 4d ad 3b 6e b8 52 3c 77 10 07 3e 2a 0d a4 bc
       0.005288823 0.012861354 0.13189875 -0.020025808
0001a0 96 c0 20 3e 46 91 95 3e a8 29 ae 3d c0 18 a5 3d
       0.15698466 0.29212397 0.08504039 0.08061361
0001b0 aa 56 d3 bd a8 d5 c3 bd 7f 17 62 3c 8d 5a e2 bc
       -0.10319264 -0.09562236 0.013799547 -0.027631069
0001c0 c4 d9 f3 3d fc b0 81 3d 59 45 1c be a0 29 d0 bc
       0.1190677 0.06332585 -0.15260829 -0.025410473
0001d0 50 1c 86 be 87 bd ec 3d ba ca 30 3e 16 56 42 3d
       -0.26193476 0.11559587 0.17264834 0.04744538
0001e0 63 c2 d3 3d 2a 5d f0 bb 9c 12 1f 3e 7c 92 ae 3d
       0.10339811 -0.007335325 0.15534443 0.085240334
0001f0 d7 d1 5e 3c 1f cb 9a bc 0e 67 7b bd 94 1b c8 3d
       0.013599834 -0.018895684 -0.061377577 0.09770885
000200 e5 db e4 3c 2d c7 20 be 75 be c7 bd c7 0f 8b 3e
       0.027936885 -0.1570098 -0.09753124 0.27160475
000210 a5 06 50 3d 84 81 21 3e 90 c8 9c be c3 50 24 bd
       0.050787587 0.15772063 -0.30621767 -0.040116083
000220 ef e1 15 3d d8 c1 17 3e 55 23 12 3e a4 f8 06 3c
       0.03659242 0.1482004 0.1427129 0.0082379915
000230 5b 34 2a 3e ea 51 4d 3e 6b 13 13 3e 3f 2e f9 bc
       0.16621535 0.20050779 0.14362876 -0.03041756
000240 0e 46 fc 3d 23 dd ae 3e d8 0c 24 be e2 f0 e9 bd
       0.12318049 0.3415309 -0.16020525 -0.11422898
000250 9e ca d2 bd 7b d5 00 be 80 dd 94 bd 17 6a 2c 3e
       -0.102925524 -0.12581436 -0.0726881 0.16837345
000260 f0 f0 b6 bd ad fd 51 be a5 dd 1c bd a2 7f 54 3d
       -0.08932674 -0.20506926 -0.038297314 0.051879533
000270 e3 86 64 be ea 32 1d 3d de ca 48 be 96 a2 6b bb
       -0.2231708 0.038378634 -0.19608638 -0.0035955063
000280 2a 89 57 bc 46 cd 37 be 70 f0 c6 3c 2e 0b 94 3d
       -0.013155261 -0.179494 0.024284571 0.07228695
000290 1a e1 6e be 4b 84 86 be 7c fa e0 3c ce d0 cb 3d
       -0.23328057 -0.26272807 0.02746319 0.09951936
0002a0 f7 69 ad 3d e2 82 de bd 12 38 89 bd fd 86 05 be
       0.08467477 -0.10864808 -0.06700148 -0.13039775
0002b0 b3 60 b9 bd ee e7 b4 3d 89 c1 45 bb d2 c6 1a 3e
       -0.09051647 0.088332996 -0.003017517 0.15114906
0002c0 0d 8a 00 be 6d 06 e2 bc d4 7e d0 bc 73 83 45 3e
       -0.12552662 -0.027590955 -0.025451101 0.19288425
0002d0 bf 0d 62 bc 64 26 26 3e bf 9b 30 3c ea 2e 8a bd
       -0.013797223 0.16225582 0.01077932 -0.067472294
0002e0 d4 4a 00 be e5 5a 94 3e e2 ef 27 3e 26 44 43 3e
       -0.12528545 0.28975597 0.16400102 0.19068965
0002f0 14 5b 5c 3e 01 3e 51 3d c6 d2 ea 3d f3 fc 62 be
       0.21519119 0.051084522 0.11465983 -0.22166805
000300 c3 41 cc 3d c7 4b 33 3e d6 71 4b 3d 81 3f bd 3d
       0.099734806 0.17509376 0.04966911 0.09240628
000310 18 15 1f bc 2d 6f 1b be 70 db 86 bd e4 e4 26 3e
       -0.009709619 -0.15179129 -0.06584823 0.16298252
000320 b9 68 0b 3e 59 a9 98 3d 6c 86 7b 3e 09 5d 38 3e
       0.13614167 0.074541755 0.24562997 0.1800424
000330 a0 92 82 bb d5 79 ec bd a5 2e 2b 3c dd 16 da bd
       -0.003984764 -0.11546675 0.010448133 -0.10648892
000340 78 e4 5d bd bc 84 97 3d c3 1f 9b bd 0a 83 06 bd
       -0.054172963 0.07398364 -0.075744174 -0.032839812
000350 19 7d 40 be b1 bb 8f 3d 36 01 e1 3d ed fc 24 bd
       -0.18797721 0.07018221 0.10986559 -0.04028027
000360 4e a7 c8 3d 4d ed 60 be bb 6a 6c be f4 8d 89 bd
       0.09797536 -0.21965523 -0.2308759 -0.067165285
000370 26 5c 37 be 6b 31 a0 3d a4 9a 68 3e 2d 28 4d be
       -0.17906246 0.07821926 0.2271524 -0.20034857
000380 82 b1 9b be 66 e4 04 bc bc 00 12 be c6 66 93 3e
       -0.30408865 -0.008111095 -0.14258093 0.28789347
000390 2a f9 3b 3e eb c6 70 be 2b 59 d8 bd a0 54 2a 3d
       0.18356767 -0.23513381 -0.105638824 0.04158461
0003a0 af 0e db 3b 68 5b de bd a2 28 a3 3e 70 83 7e be
       0.0066851 -0.10857278 0.31866938 -0.24854827
0003b0 db bc 06 3b 71 10 9b 3d 44 32 c7 ba 08 c1 65 be
       0.0020559344 0.07571495 -0.0015197475 -0.22436917
0003c0 e0 28 2a be b9 4f dc 3d ef 5f b1 bd f6 24 48 bd
       -0.16617155 0.107573934 -0.08660876 -0.048863374
0003d0 57 2c 55 bc 66 3e 02 3d b4 fe 3d 3d ac 68 7f bd
       -0.01301106 0.03179779 0.046385482 -0.062355682
0003e0 3d c2 28 be 37 22 68 be 11 81 d0 3d d9 ef cc 3c
       -0.16480346 -0.22669302 0.101808675 0.025016712
0003f0 38 68 25 bd 7d 1a 01 3e 0b 41 83 bd 26 32 1f bc
       -0.040382594 0.1260776 -0.0640889 -0.009716546

h.0.mha.W_v.bias f4 [64]
000000 d7 bf 79 bd f8 74 65 3d 6d aa 96 3c 1b 80 95 3d
       -0.06097397 0.056019753 0.018391812 0.07299825
000010 e5 67 10 be cb 87 95 bd 2d 0c 2a 3d a7 89 2b be
       -0.14102133 -0.07301291 0.041515518 -0.16751729
000020 cd 08 9e bd f9 17 99 bd 64 5a df bc 5d 2a 36 be
       -0.07716522 -0.074752755 -0.027264781 -0.17789598
000030 56 7b 04 3e 47 2c b2 3d 7f 8f 02 be bc df 87 3c
       0.12937674 0.086998515 -0.12750052 0.016586177
000040 d8 46 7c 3c c5 0e 9b bd f3 9b 8f bd ba 60 88 3c
       0.01539775 -0.075711764 -0.07012167 0.016647685
000050 a2 92 93 bd 23 ae 90 bd d3 05 8f bc d7 46 bd 3c
       -0.07205702 -0.07064464 -0.017458832 0.023105068
000060 5e 2c 81 3c 16 af 05 3e 01 6a 08 3e ca 08 58 3c
       0.015768226 0.13055071 0.13321687 0.013185689
000070 f9 7b 5b 3d 4b 8f 1c 3e e8 5f 3f 3d dd 73 0d 3e
       0.053585026 0.15289037 0.046722323 0.1381373
000080 68 fb 15 be 46 ce 7f 3d 9a a3 0a 3e 63 c7 8c 3d
       -0.14646685 0.062452577 0.13538972 0.068739675
000090 fa 0c 20 3d 98 e1 2f 3e 0a 1a 23 3d ac 17 51 bd
       0.039074875 0.17175901 0.039819755 -0.051047966
0000a0 44 06 e4 bd 90 8b ae bc 96 90 82 3d 1e 67 b3 bd
       -0.111340076 -0.021306783 0.06375234 -0.087599024
0000b0 76 19 13 be 30 f7 62 bd 08 f9 f3 bd 1a 22 b2 bd
       -0.14365181 -0.055411518 -0.11912733 -0.086979106
0000c0 cc 4b 0c be c8 d9 08 3d 43 d8 15 be 4c 31 92 bc
       -0.13700789 0.033410817 -0.14633279 -0.017845772
0000d0 ab dd 3c be bf ed ea bd 7e 59 9c 3d 1c ee d9 3d
       -0.18443935 -0.11471128 0.07634257 0.10641119
0000e0 88 6e d1 bd b8 db b9 bd 5b 90 33 be 3c c1 a4 3d
       -0.1022616 -0.09075111 -0.17535536 0.08044669
0000f0 84 40 dd 3d 00 d6 e0 bd 19 f2 48 bc bd e6 ea bc
       0.10803321 -0.10978317 -0.012264752 -0.028674478

h.0.mha.W_o.weight f4 [64, 64]
000000 7b 5a bc bc 3f 5b de bd 0a 20 37 3e 7b 96 72 bd
       -0.022992363 -0.108572476 0.17883316 -0.05922554
000010 40 62 34 3d 37 0e ec 3c 37 17 25 3d f1 9d 51 3d
       0.04403901 0.028815372 0.040305343 0.051176015
000020 dd c7 dc 3d 40 d0 53 3d 9e ca 73 bd 93 e4 2b bd
       0.107803084 0.051712275 -0.059519403 -0.041966032
000030 23 ce 78 3c d5 e6 03 bd 83 eb 90 bd d4 9c 0f 3d
       0.015185866 -0.03220256 -0.0707617 0.035061672
000040 01 8b 24 3d 44 ee 01 bd 4c 80 bf bd f5 1b d0 bd
       0.040171627 -0.03172137 -0.093506426 -0.101615824
000050 55 6d 0c be d1 d7 4d bd bd df 0a 3e 71 eb c7 bd
       -0.13713582 -0.050254647 0.13561912 -0.09761704
000060 e9 71 54 bd f4 a8 97 bc a7 83 25 bd d9 70 c6 bd
       -0.051866446 -0.01851318 -0.040408757 -0.09689493
000070 d4 fb 05 bd a5 98 66 3b be fc c2 bd 42 0d 34 3c
       -0.032710865 0.0035186198 -0.09520863 0.010989489
000080 07 32 63 3d 1a 1c 20 be 8f b0 a8 bd 01 10 98 3d
       0.05546763 -0.1563572 -0.08236801 0.074249275
000090 49 37 36 bd 0d 7e 12 3e 38 d0 73 bb e7 82 19 3e
       -0.044486318 0.14305897 -0.0037202965 0.14991342
0000a0 71 0e 82 3d 1a 47 cf bc d6 c9 98 3d 33 04 58 bc
       0.06350411 -0.025302459 0.07460372 -0.013184595
0000b0 e7 e4 c8 bd 8a 2f 30 be d6 f4 59 3c 11 04 a3 bc
       -0.09809285 -0.17205635 0.013303002 -0.0198994
0000c0 5e 43 31 3e f4 b9 33 3d 39 c2 b2 3c 95 e9 34 bc
       0.17310855 0.04387851 0.021821128 -0.011042018
0000d0 2c bd c7 bc ac 22 c6 3d b2 64 08 3d fa 2f 88 bd
       -0.024382196 0.09674582 0.033299156 -0.06649776
0000e0 f3 7d 56 bc e0 b3 c4 3d ce e1 f8 3b db 04 41 3c
       -0.013091552 0.09604621 0.0075952774 0.011780943
0000f0 ad 54 00 bc 7a 92 38 bd ae 27 13 bd 4b 03 0b 3e
       -0.007832688 -0.045061566 -0.035926513 0.13575475
000100 d8 e9 84 3d 0b dc 84 bd 88 1e 50 3c 0f b4 e1 3d
       0.06489915 -0.06487282 0.012702592 0.110206716
000110 f9 00 1e 3d 71 96 fb 3c 58 a1 f3 bc 6f 1f be bc
       0.038575146 0.030711384 -0.02974002 -0.023208348
000120 59 1a bc bd 90 9e 94 3d e5 40 26 3d 0d 28 04 bb
       -0.09184713 0.07256806 0.040589232 -0.0020165474
000130 3e 71 49 3d 0d 91 df bd 74 4f 3e 3d a6 96 66 bc
       0.04918026 -0.10916338 0.04646249 -0.014074003
000140 0c 80 5d bd d1 47 8c bd 70 14 19 3d da ce 81 bd
       -0.054077193 -0.068496354 0.037373006 -0.06338282
000150 34 99 94 3d f1 61 7c bc ad c3 ef bd f5 c3 3e 3d
       0.07255784 -0.01540421 -0.11707244 0.046573598
000160 b1 b9 92 3d 64 ff 70 bd 96 2c 00 3d fa 79 45 bd
       0.07164324 -0.05883731 0.03129252 -0.04821203
000170 1c 97 04 be b7 7c e4 3a ef bb 96 3d 6b 47 d0 bd
       -0.12948269 0.0017432187 0.07360064 -0.10169872
000180 e4 da 9b 3d f3 06 94 3c 56 35 f9 3c b6 fd a2 3b
       0.076101094 0.01806972 0.03042094 0.0049740924
000190 15 fb 48 3c 7d 3b 36 3d 82 19 8d bd 61 7f 10 bd
       0.012266894 0.044490326 -0.06889631 -0.035277728
0001a0 63 33 cb bb bd 4f 36 3d 2c 05 f0 3c f0 f9 81 3d
       -0.006201194 0.044509638 0.029299341 0.063465
0001b0 b3 0f 8a bd 94 e2 c0 bb 36 5f ba 3b c4 26 21 bc
       -0.06741276 -0.005886385 0.0056876196 -0.009835903
0001c0 cf b6 db 3a dd 78 07 bd 04 50 af bc 1a af 0e bd
       0.0016762855 -0.03307425 -0.02140046 -0.03483496
0001d0 6d 81 0a be 41 bf 0b 3d 55 26 a2 bd 34 64 40 bd
       -0.13525935 0.03411794 -0.079174675 -0.04697056
0001e0 eb 92 3a 3d 92 af ca 3d 00 ed 2d 3d 33 7c 38 bd
       0.04555027 0.09896769 0.04246235 -0.04504032
0001f0 b9 36 27 3b 42 ee 5c bd 41 d5 80 3d 59 95 6a 3c
       0.0025514795 -0.053938158 0.06290675 0.014317834
000200 cb 32 e5 3d 16 22 28 3e 14 d2 35 3d f8 da 03 3e
       0.111913286 0.16419253 0.0443898 0.12876499
000210 02 ed 1e bd 8b dc e1 bd 8a b7 31 bd 14 6b 02 bd
       -0.038800247 -0.11028393 -0.043387927 -0.0318404
000220 3e 02 c3 bc c9 78 c7 bd ed 25 39 3c 7c a4 3b bc
       -0.02380478 -0.09739835 0.011300546 -0.01145279
000230 c3 d2 18 3d b0 de 08 3e 7b 4c 9d 3e 4a 72 61 3e
       0.037310373 0.13366199 0.30722412 0.22016254
000240 7f 91 28 be 1b a0 da 3d 20 49 98 bd 04 a3 47 3e
       -0.16461752 0.10675069 -0.074358225 0.1949578
000250 ff db e8 bc f2 aa 11 be 96 2a e5 bd 3a 3c ae bc
       -0.028425215 -0.14225367 -0.11189763 -0.021268953
000260 de 02 7b 3e af 65 41 3d e7 35 81 bd 3c 9d 8a 3d
       0.24512812 0.047216114 -0.06309109 0.06768271
000270 69 41 c4 3d d2 02 40 3d 78 2d c0 3d cb 51 ee bd
       0.095827885 0.04687769 0.093836725 -0.116366945
000280 d2 dc a7 be 5e 85 00 3d 48 63 e0 bd 34 3c d4 3d
       -0.3278566 0.03137719 -0.109564364 0.10363045
000290 99 18 86 3d 48 e0 c1 be b8 65 33 3e c7 83 db bd
       0.065476604 -0.37866426 0.17519271 -0.10718494
0002a0 86 65 68 be 93 64 01 bd e2 9b 2d bb e4 3d 11 3e
       -0.22694978 -0.031590056 -0.0026490618 0.14183766
0002b0 ac 3d f1 bd 66 ec 29 3d e2 47 0f be d3 9b 9a bc
       -0.11779341 0.041485213 -0.13992265 -0.01887313
0002c0 f4 6e 65 bd 72 20 48 bd 59 34 4e 3e 64 51 c8 3c
       -0.056014016 -0.048859067 0.20137157 0.024452873
0002d0 b9 fa 0b 3c 6d 38 17 be da dc 8a bd ec 64 7b 3d
       0.008543664 -0.14767618 -0.06780405 0.061375543
0002e0 68 e0 d9 bd 2f 4a a1 bd 9e 06 48 bc 9b c7 5a 3d
       -0.10638505 -0.078754775 -0.012208609 0.053413015
0002f0 3d 8f 9f bd 43 72 3f 3e 5e 8a 65 bd af f0 79 bd
       -0.077909924 0.18695931 -0.05604016 -0.06102055
000300 b3 33 f1 bd 40 8b e9 bd ba ed 4f bd 49 e3 17 bd
       -0.11777439 -0.11403513 -0.050763823 -0.03708199
000310 14 86 da 3b 42 d5 ad bc 23 f5 a5 3d 9a 41 93 3c
       0.0066688154 -0.021219853 0.08103397 0.017975617
000320 6b ac 52 3d 28 92 58 bc 11 49 01 3e 66 0b 96 3b
       0.05143396 -0.01321844 0.12625529 0.0045789955
000330 b3 f5 9c bd 52 44 0a 3d 9f 2b 9b bd d4 85 9f 3c
       -0.07664051 0.03375656 -0.075766794 0.019472994
000340 7b cf bf 3d c4 c9 99 3d c3 bb d1 3d 9b 98 5c bc
       0.09365746 0.07509187 0.10240891 -0.013464118
000350 f0 68 a3 bd 92 00 0f 3e 13 83 25 bc 7d 0d 03 3d
       -0.079789996 0.13965061 -0.010102051 0.031995285
000360 21 4e b6 ba f1 b9 4d 3d f9 11 0b 3d d1 a0 7c bc
       -0.0013908782 0.050226156 0.033952687 -0.015419201
000370 db 0d 8e bd 17 ce b8 bd 03 21 ff 3b 67 9e 20 3d
       -0.069362365 -0.090236835 0.0077859177 0.039213564
000380 62 43 f7 bd 32 f9 19 3d 84 a8 60 3d 1c 26 e4 bd
       -0.12073399 0.037591167 0.05484821 -0.11140081
000390 92 03 65 3d 16 0b 26 3d 16 10 1e be c8 a7 6d bc
       0.055911608 0.040537916 -0.15435824 -0.014505334
0003a0 89 1a 27 3d 44 35 4e bb 59 b3 1d 3d 65 00 9c 3d
       0.04079679 -0.0031464854 0.038501117 0.07617263
0003b0 74 b3 8f bc 30 42 76 3d b2 36 15 3e 29 e2 1c 3e
       -0.017541625 0.060121715 0.14571646 0.15320648
0003c0 a4 47 ae 37 a4 69 5e 3d a7 61 16 3d c0 ab 46 bd
       2.0775777e-05 0.054299966 0.036714222 -0.048503637
0003d0 51 a7 61 3b f4 bd 86 bd e7 14 91 3c 6a 4a a6 bc
       0.0034432004 -0.065791994 0.017710162 -0.020299155
0003e0 d2 43 19 3c 57 7d be bd 65 ba a7 bd 9e 0a 4a bd
       0.0093545485 -0.093012504 -0.08189849 -0.04932653
0003f0 34 a5 bb 3d 12 14 83 bc 52 7a 2a be 7d 43 0b 3d
       0.09162369 -0.016000781 -0.16648224 0.03399991

h.0.mha.W_o.bias f4 [64]
000000 0f 5d f3 bd 21 cc 99 3d bf 3e cb 3c fd c1 8d bd
       -0.11882984 0.075096376 0.024810193 -0.06921766
000010 f2 b5 85 3d 66 76 f2 bb c0 d4 3e bd cc d0 e7 3c
       0.06528844 -0.007399368 -0.046589613 0.028297804
000020 41 a9 cd bd 06 c6 17 3d dc 8c d3 bd 88 2f 2b 3d
       -0.10042048 0.037054084 -0.10329601 0.041793376
000030 34 0d c2 bc 7c cd 80 3d 89 7d 5e bc 67 c7 a8 3d
       -0.023687936 0.06289193 -0.013579735 0.08241158
000040 91 4e 88 3d 11 94 34 3d cd 95 c1 3d 3b 2d 0e bd
       0.0665561 0.04408652 0.094524 -0.034711104
000050 8c 2a cf bd 95 8b 60 3d 06 aa d4 bc 90 5b cb bc
       -0.10115537 0.054820616 -0.02595998 -0.024823934
000060 94 28 5e bd f9 4d ac 3d 03 78 23 3c 6b 22 99 b9
       -0.054237917 0.084133096 0.0099773435 -0.00029208077
000070 52 50 dd bd 40 82 30 3e 0a 6e 3b bb 46 e5 14 3c
       -0.108063355 0.17237186 -0.0028599524 0.009087866
000080 ac 1d 90 3d d0 af f6 bd 81 9b 6f bd af d5 18 3e
       0.070369095 -0.12045252 -0.05849791 0.14925264
000090 76 1c aa 3c f6 2b bf bb 69 e3 c0 bd d6 d6 1b 3c
       0.020765524 -0.005834098 -0.09418375 0.00951167
0000a0 26 50 eb bd a4 08 dd bb a7 de dd bd 50 66 9c 3d
       -0.114898965 -0.006745415 -0.10833483 0.07636702
0000b0 2f cd 71 bd 24 19 88 3c ce 4c d6 bd 90 a0 40 3d
       -0.05903357 0.01661355 -0.10463868 0.047028124
0000c0 52 7e 18 be 43 fc 81 3d cd 93 31 3e 1b 00 ac 3d
       -0.14891937 0.06346943 0.17341538 0.083984576
0000d0 b9 ef a2 bc 62 10 ca ba cf 41 88 bd 15 2c 69 be
       -0.0198897 -0.0015416259 -0.06653177 -0.22770722
0000e0 fd 1b 1c 3e 15 53 ee 3d 78 c9 e1 3d d4 aa 78 bd
       0.15245052 0.116369404 0.11024755 -0.06070979
0000f0 84 4e 48 bb 58 e8 5e 3c 2d 24 f5 3d cc 59 b4 bd
       -0.0030564377 0.0136052 0.119697906 -0.0880619

h.0.ln_1.weight f4 [64]
000000 ca c0 1a 3f 31 69 4e 3f a6 16 36 3f e7 8d 2a 3f
       0.6045042 0.8062926 0.7112831 0.66622776
000010 c7 42 6a 3f 62 67 4e 3f 2c 38 0a 3f e0 69 07 3f
       0.91508144 0.806265 0.5399196 0.5289593
000020 5c 4b 36 3f 7a 8b 10 3f ee 7a e5 3e 50 d7 f4 3e
       0.7120874 0.56462824 0.4482035 0.4782052
000030 d0 b1 5e 3f 04 65 7e 3f c0 fe db 3e 13 f5 1f 3f
       0.8699007 0.9937289 0.42967796 0.6248333
000040 b3 88 2e 3f d6 85 58 3f 72 e0 ec 3e 94 91 f1 3e
       0.68177336 0.8457922 0.46264988 0.4718138
000050 ea ec 2d 3f d2 9d 1f 3f f3 27 fb 3e 25 ab 5d 3f
       0.6793963 0.6235019 0.49053916 0.8658927
000060 b5 45 1d 3f b4 81 3d 3f 42 d7 72 3f 24 a0 fb 3e
       0.6143449 0.74026036 0.9485971 0.49145615
000070 1b f0 3e 3f 61 7b 21 3f 1d 9b d7 3e b5 51 04 3f
       0.7458512 0.63078886 0.4211053 0.51687175
000080 37 4a 04 3f 77 28 11 3f 98 af 10 3f 97 35 4c 3f
       0.5167574 0.5670237 0.56517935 0.7976927
000090 db 27 ee 3e 90 fb 27 3f ea 28 45 3f c7 d2 26 3f
       0.46514782 0.6561823 0.77015555 0.6516537
0000a0 d8 7a e2 3e e9 5d 6f 3f b2 85 1e 3f c0 19 3c 3f
       0.44234347 0.9350267 0.6192275 0.7347679
0000b0 86 f1 4d 3f c7 5a 21 3f ec c3 3b 3f 03 31 13 3f
       0.8044666 0.6302914 0.7334583 0.5749666
0000c0 6e 81 d8 3e bf 71 99 3e b6 7c 16 3f cf 6a 6b 3f
       0.42286247 0.29969594 0.58784044 0.9195985
0000d0 c4 17 cc 3e ed 77 18 3f 9e 31 d8 3e f7 ba 32 3f
       0.39861882 0.5955799 0.42225355 0.69816536
0000e0 a7 d7 22 3f 80 c6 0b 3f 17 47 3d 3f 49 1a f1 3e
       0.6361031 0.5459976 0.739366 0.47090366
0000f0 98 93 06 3f 5e a1 eb 3e 1d 2a 10 3f ff 37 20 3f
       0.5256896 0.4602155 0.5631426 0.62585443

h.0.ln_1.bias f4 [64]
000000 86 3d 1d bc 44 5a 04 3f 6c d0 08 bf c6 6f 28 bd
       -0.009597188 0.51700234 -0.53443027 -0.04112222
000010 11 cf 29 3e a2 f6 80 3d 17 f4 e6 bd e7 48 04 3c
       0.16582896 0.062970415 -0.11277025 0.008074022
000020 67 5e f5 be 93 d9 93 bc 48 ae ab be 1a 07 3b 3d
       -0.47923586 -0.018048083 -0.33531404 0.04566107
000030 95 74 14 bf cb b5 fd 3e f4 c0 09 bb 06 e6 2a be
       -0.5799039 0.4955276 -0.002101955 -0.1668931
000040 67 19 ba be 91 89 a9 3e 3b 8d b8 3e 61 e8 ab bd
       -0.36347505 0.33112767 0.3604525 -0.08393932
000050 e0 4c 91 be 2b 45 fe 3e 2c bc 34 be 57 20 e3 be
       -0.28378963 0.49662146 -0.17649907 -0.4436061
000060 84 1a d1 be ed 73 19 3f 14 43 1b bf f1 9f f1 bd
       -0.40840542 0.59942514 -0.6064923 -0.117980845
000070 5a 67 b2 be 2c 4f f4 3e 85 23 e4 bd 30 1d 9a bc
       -0.34844476 0.47716653 -0.11139587 -0.018812746
000080 0a 94 6d bd 73 50 19 be 7d e4 98 3c 14 e4 de 3e
       -0.05800251 -0.14972095 0.01866364 0.43533385
000090 ca fe 55 bc cd 98 68 3e c4 5a f6 bd a3 3f 13 3f
       -0.013061235 0.22714539 -0.12029031 0.57518977
0000a0 ec 04 c9 3d f1 e9 32 bf 1f 03 d6 bd dd 37 06 3f
       0.09815392 -0.69888216 -0.10449814 0.5242899
0000b0 25 c6 d1 bd 39 7f 4c be eb d6 af be 81 6a 85 be
       -0.10242871 -0.19970407 -0.34343657 -0.2605782
0000c0 92 65 76 3d 83 6e 89 be e7 af 0c 3e fc b9 a6 3e
       0.06015546 -0.26842126 0.13738976 0.3256377
0000d0 bf b9 8b be 5a 93 e4 3d 9c ed 90 3c c4 7f d4 be
       -0.2729015 0.111609176 0.017691426 -0.41503727
0000e0 6e 54 b8 3e 76 1e 97 3d 5b b8 ec be 4a c6 01 3e
       0.36001915 0.07378857 -0.46234402 0.12673298
0000f0 7a cb 84 be 1f d7 86 be 87 f2 9f be 9a 85 1b be
       -0.2593649 -0.26336 -0.3123972 -0.15187684

h.0.ln_2.weight f4 [64]
000000 00 00 80 3f 00 00 80 3f 00 00 80 3f 00 00 80 3f
       1.0 1.0 1.0 1.0
000010 00 00 80 3f 00 00 80 3f 00 00 80 3f 00 00 80 3f
       1.0 1.0 1.0 1.0
000020 00 00 80 3f 00 00 80 3f 00 00 80 3f 00 00 80 3f
       1.0 1.0 1.0 1.0
000030 00 00 80 3f 00 00 80 3f 00 00 80 3f 00 00 80 3f
       1.0 1.0 1.0 1.0
000040 00 00 80 3f 00 00 80 3f 00 00 80 3f 00 00 80 3f
       1.0 1.0 1.0 1.0
000050 00 00 80 3f 00 00 80 3f 00 00 80 3f 00 00 80 3f
       1.0 1.0 1.0 1.0
000060 00 00 80 3f 00 00 80 3f 00 00 80 3f 00 00 80 3f
       1.0 1.0 1.0 1.0
000070 00 00 80 3f 00 00 80 3f 00 00 80 3f 00 00 80 3f
       1.0 1.0 1.0 1.0
000080 00 00 80 3f 00 00 80 3f 00 00 80 3f 00 00 80 3f
       1.0 1.0 1.0 1.0
000090 00 00 80 3f 00 00 80 3f 00 00 80 3f 00 00 80 3f
       1.0 1.0 1.0 1.0
0000a0 00 00 80 3f 00 00 80 3f 00 00 80 3f 00 00 80 3f
       1.0 1.0 1.0 1.0
0000b0 00 00 80 3f 00 00 80 3f 00 00 80 3f 00 00 80 3f
       1.0 1.0 1.0 1.0
0000c0 00 00 80 3f 00 00 80 3f 00 00 80 3f 00 00 80 3f
       1.0 1.0 1.0 1.0
0000d0 00 00 80 3f 00 00 80 3f 00 00 80 3f 00 00 80 3f
       1.0 1.0 1.0 1.0
0000e0 00 00 80 3f 00 00 80 3f 00 00 80 3f 00 00 80 3f
       1.0 1.0 1.0 1.0
0000f0 00 00 80 3f 00 00 80 3f 00 00 80 3f 00 00 80 3f
       1.0 1.0 1.0 1.0

h.0.ln_2.bias f4 [64]
000000 00 00 00 00 00 00 00 00 00 00 00 00 00 00 00 00
       0.0 0.0 0.0 0.0
000010 00 00 00 00 00 00 00 00 00 00 00 00 00 00 00 00
       0.0 0.0 0.0 0.0
000020 00 00 00 00 00 00 00 00 00 00 00 00 00 00 00 00
       0.0 0.0 0.0 0.0
000030 00 00 00 00 00 00 00 00 00 00 00 00 00 00 00 00
       0.0 0.0 0.0 0.0
000040 00 00 00 00 00 00 00 00 00 00 00 00 00 00 00 00
       0.0 0.0 0.0 0.0
000050 00 00 00 00 00 00 00 00 00 00 00 00 00 00 00 00
       0.0 0.0 0.0 0.0
000060 00 00 00 00 00 00 00 00 00 00 00 00 00 00 00 00
       0.0 0.0 0.0 0.0
000070 00 00 00 00 00 00 00 00 00 00 00 00 00 00 00 00
       0.0 0.0 0.0 0.0
000080 00 00 00 00 00 00 00 00 00 00 00 00 00 00 00 00
       0.0 0.0 0.0 0.0
000090 00 00 00 00 00 00 00 00 00 00 00 00 00 00 00 00
       0.0 0.0 0.0 0.0
0000a0 00 00 00 00 00 00 00 00 00 00 00 00 00 00 00 00
       0.0 0.0 0.0 0.0
0000b0 00 00 00 00 00 00 00 00 00 00 00 00 00 00 00 00
       0.0 0.0 0.0 0.0
0000c0 00 00 00 00 00 00 00 00 00 00 00 00 00 00 00 00
       0.0 0.0 0.0 0.0
0000d0 00 00 00 00 00 00 00 00 00 00 00 00 00 00 00 00
       0.0 0.0 0.0 0.0
0000e0 00 00 00 00 00 00 00 00 00 00 00 00 00 00 00 00
       0.0 0.0 0.0 0.0
0000f0 00 00 00 00 00 00 00 00 00 00 00 00 00 00 00 00
       0.0 0.0 0.0 0.0
