subspace-alignment/data/2_layer_64_vocab/ckpt_29100.pt (torch, 178594 bytes, 29 tensors)

embed.embed.weight f4 [64, 64]
-0.5223204 1.5547563 0.03772182 0.5209282 0.19318251 -0.2471939 -2.5548797 -0.1295529
-0.49601096 -0.03820623 -1.36649 0.48277447 -0.48001328 -0.85657 -0.09120292 0.11437143
0.016814377 0.24789515 -0.36488092 -0.6004544 -0.30713004 2.6882942 1.4285725 -1.106085
-0.959514 2.0520878 -1.0986655 1.721644 0.6058252 0.71216387 -0.250188 0.22047557
1.1409918 -0.74807864 -0.08179039 -1.1213712 -0.9659873 0.20848311 -1.248712 0.8711886
-1.0054041 -1.1839108 0.3822069 0.55986184 1.2486464 1.0055246 -0.5521019 -0.4341973
-0.2700132 -0.75348324 -0.08397046 -0.028049631 0.12089168 0.8791277 -0.160665 -0.9094841
0.32200947 0.17500854 -0.66119415 -0.90693015 0.23830937 -0.78869295 -0.14171669 0.68472034
0.19399671 -1.0323396 -1.2587442 -0.13386841 2.0386875 -1.2799932 -0.6969053 -0.2857631
0.34664807 -0.013643846 -0.46877176 0.1373146 0.2473964 0.66443044 0.05801481 -0.18406953
0.29416564 -0.65229964 -0.066463284 -0.17766826 0.18903662 -0.4470865 1.5407463 0.2400882
-0.42804798 1.2743957 -1.4831017 0.49313927 -2.0785613 1.71089 -0.03778261 -0.4067945
-0.9061001 -0.45095363 0.41532275 -0.008035856 1.4505537 0.67673004 1.2757807 0.9540078
-0.30947262 -0.2784929 0.88221455 0.48656422 -0.51288366 0.29949656 -0.58543146 -1.6451188
-0.31037298 -0.4810115 2.1423347 0.033425618 -0.22435479 -0.26383325 -0.0022124406 -0.7197533
0.12940855 0.09090266 -0.77025485 0.110235974 0.53034997 -2.6707487 0.021638874 0.11018117
1.3142724 1.0888183 -0.45180604 -0.020164799 -0.33972186 0.8472375 -1.2134827 -0.6713492
0.4940003 -0.11861149 -0.57705253 -0.8257083 -0.44643435 0.72320384 -0.05577847 -0.34424365
-0.12868354 -1.2971671 -0.33036587 -0.5638178 -0.27498648 1.9905616 -1.0025814 -0.3577635
-0.34848085 0.52452487 -0.18579063 0.021926163 -0.77249 1.3059087 0.5259364 0.12501958
-1.1354944 0.0695128 0.3745501 0.7134342 -1.0679067 -1.677367 -0.48074022 2.340392
-0.049700446 -1.125112 0.13604051 0.37095276 -0.0049134907 -0.51318187 0.5486669 -0.45035994
-0.53826874 -0.23099107 2.8324342 -0.055428788 -0.035517834 -0.5532357 -1.3138095 -0.69605863
0.551532 0.36004952 -0.3005749 0.23206633 -2.5949428 0.060852144 0.20118248 0.40638232
-1.3218263 1.0497737 -0.4485049 0.14159 -1.387932 -0.47654572 1.2742395 0.065977775
-1.3725414 -0.47503248 -0.94295514 -0.8630802 -2.514649 2.515036 -0.20118468 0.32679176
0.48870102 -0.48298603 0.008310714 -0.15833671 -0.15487392 -0.8196918 -0.755932 0.4134505
-1.1903876 1.8954542 0.16553777 0.46966568 0.12371297 0.6091253 -0.029786525 0.81441665
0.6287343 0.22464865 -0.5494732 -0.80382496 -0.42009243 -0.5932296 0.305978 1.0502434
0.5234084 -0.037747093 -1.0219939 0.7591583 0.7204878 1.0555316 0.49373093 0.9881765
-0.068019144 -0.57267755 1.5275686 0.04271745 -1.4542047 1.1588033 0.31919152 -0.80656576
0.46197975 0.46293435 -0.64668685 -0.17843279 0.20054756 -1.0587441 -0.17082861 -0.030309996
00000000: cab6 05bf 4102 c73f 3282 1a3d 8d5b 053f
00000010: a3d1 453e 6620 7dbe 2683 23c0 84a9 04be
00000020: 26f5 fdbe 237e 1cbd 25e9 aebf 372e f73e
00000030: 4dc4 f5be 2c48 5bbf 99c8 babd 913b ea3d
00000040: 4ebe 893c 3ad8 7d3e acd1 babe 61b7 19bf
00000050: 2640 9dbe 030d 2c40 77db b63f 3194 8dbf
00000060: b6a2 75bf 6855 0340 12a1 8cbf d55e dc3f
00000070: 5c17 1b3f 5f50 363f a418 80be 59c4 613e
00000080: 050c 923f 1582 3fbf b881 a7bd 1789 8fbf
00000090: f24a 77bf 997c 553e cbd5 9fbf 3706 5f3f
000000a0: 15b1 80bf 648a 97bf 9fb0 c33e 1b53 0f3f
000000b0: a5d3 9f3f 08b5 803f 8d56 0dbf 1c4f debe
000000c0: 2c3f 8abe 47e4 40bf b4f8 abbd 57c8 e5bc
000000d0: 0f96 f73d 830e 613f 5e85 24be f3d3 68bf
000000e0: 6dde a43e 7035 333e 0544 29bf 932c 68bf
000000f0: 5f07 743e c8e7 49bf 2e1e 11be d549 2f3f
00000100: 13a7 463e b423 84bf 881e a1bf cd14 09be
00000110: db79 0240 d1d6 a3bf 6368 32bf 8b4f 92be
00000120: db7b b13e 708a 5fbc da02 f0be 339c 0c3e
00000130: 7b55 7d3e 1d18 2a3f f0a0 6d3d b97c 3cbe
00000140: e19c 963e 1cfd 26bf e71d 88bd abee 35be
00000150: d192 413e 86e8 e4be 2d37 c53f aed9 753e
00000160: 1b29 dbbe 661f a33f 47d6 bdbf c07c fc3e
00000170: 2607 05c0 72fe da3f f0c1 1abd 5e47 d0be
00000180: 2df6 67bf 65e3 e6be 2fa5 d43e d3a8 03bc
00000190: beab b93f 2e3e 2d3f c84c a33f db39 743f
000001a0: 3273 9ebe 9f96 8ebe d0d8 613f f21e f93e
000001b0: 584c 03bf 9d57 993e d6de 15bf 4193 d2bf
000001c0: 35e9 9ebe 2447 f6be 031c 0940 4de9 083d
000001d0: 43bd 65be 2715 87be 98fe 10bb c141 38bf
000001e0: ad83 043e 2c2b ba3d 6c2f 45bf 66c3 e13d
000001f0: 04c5 073f 8ced 2ac0 0244 b13c aaa6 e13d
00000200: 143a a83f 665e 8b3f 1f53 e7be a630 a5bc
00000210: 06f0 adbe 8fe4 583f 6753 9bbf 8bdd 2bbf
00000220: 9bed fc3e 95ea f2bd b7b9 13bf 9f61 53bf
00000230: 0b93 e4be e323 393f f777 64bd b440 b0be
00000240: 9ec5 03be 9209 a6bf b725 a9be 5d56 10bf
00000250: 07cb 8cbe b9ca fe3f 9654 80bf c72c b7be
00000260: 156c b2be 4347 063f e63f 3ebe 7f9e b33c
00000270: e8c1 45bf 0428 a73f c5a3 063f 2205 003e
00000280: e157 91bf ba5c 8e3d 08c5 bf3e a0a3 363f
00000290: 2bb1 88bf f6b3 d6bf 9523 f6be fcc8 1540
000002a0: b292 4bbd ac03 90bf 344e 0b3e 85ed bd3e
000002b0: 5901 a1bb e35f 03bf 6f75 0c3f 9495 e6be
000002c0: fbcb 09bf ec88 6cbe 9a46 3540 4c09 63bd
000002d0: 267b 11bd dba0 0dbf e92a a8bf e630 32bf
000002e0: 3331 0d3f 6958 b83e f4e4 99be cca2 6d3e
000002f0: 8b13 26c0 1940 793d c802 4e3e 5811 d03e
00000300: 9b31 a9bf fc5e 863f 6fa2 e5be f8fc 103e
00000310: c1a7 b1bf cdfd f3be 481a a33f 5b1f 873d
00000320: 70af afbf 7537 f3be 8265 71bf d3f2 5cbf
00000330: 02f0 20c0 5af6 2040 5b03 4ebe 4051 a73e
00000340: 0537 fa3e f249 f7be a929 083c 0523 22be
00000350: 4597 1ebe 52d7 51bf c284 41bf c9af d33e
00000360: 9f5e 98bf 3e9e f23f bc82 293e 0578 f03e
00000370: 3a5d fd3d a3ef 1b3f df02 f4bc 9c7d 503f
00000380: bbf4 203f 4c0a 663e 47aa 0cbf 79c7 4dbf
00000390: 5b16 d7be e5dd 17bf 26a9 9c3e 606e 863f
000003a0: 18fe 053f b29c 1abd b2d0 82bf 3358 423f
000003b0: e371 383f a91b 873f 4dca fc3e 23f9 7c3f
000003c0: 9f4d 8bbd ff9a 12bf 5e87 c33f 7ef8 2e3d
000003d0: 6123 babf ab53 943f 126d a33e 187b 4ebf
000003e0: 9c88 ec3e bb05 ed3e 458d 25bf 16b7 36be
000003f0: 575c 4d3e ed84 87bf b2ed 2ebe ab4c f8bc

h.0.mha.W_q.weight f4 [64, 64]
0.023031468 -0.26670948 0.2262117 -0.03463385 -0.18089025 -0.06726529 0.102204114 0.09256425
0.32963762 0.13943818 0.22977905 0.013353396 0.25370333 -0.2607993 -0.04864126 -0.042251084
0.1932714 -0.19148824 -0.19961977 0.119300835 0.1890455 -0.1822505 0.103702165 0.23888882
0.19628726 -0.259836 0.2848545 -0.048533536 0.22288251 -0.2546903 0.021723615 0.018818263
0.11119162 0.11969295 -0.026199305 -0.22648712 -0.05006132 -0.15730402 0.12765981 -0.2081688
-0.102678195 0.26916492 0.043095876 -0.27382398 0.11815229 0.102235615 0.12779248 0.08145169
0.045752507 0.15597981 -0.081877455 -0.20049275 0.11355685 0.0008822061 -0.07952203 0.2337076
-0.13610806 -0.10125025 0.20146096 -0.092992894 0.12618387 0.100980185 0.1263229 0.1118696
-0.01595313 0.15780714 -0.2216861 0.057736102 0.20182148 0.17979057 0.06762419 -0.003315089
-0.17324865 0.07197068 -0.07507907 -0.04136704 -0.26542875 0.22475788 -0.09101299 -0.12542151
-0.14496496 0.23301311 0.12074393 -0.10458359 -0.13600865 0.11343982 -0.070597604 -0.2697374
-0.06695298 0.1028188 -0.24258974 -0.045655116 -0.10430437 0.12986006 0.013529856 -0.12658085
-0.045487557 0.041932352 0.09460606 0.19176312 -0.031166026 0.16129333 -0.14112501 0.07621345
0.11865513 -0.25795454 -0.083302155 0.24292068 -0.18842255 -0.07369092 -0.25874308 0.025190998
0.13475454 0.019677246 -0.021302441 0.2846651 -0.061379477 0.039963137 -0.012138447 -0.1528198
0.15571614 0.05684544 -0.11303828 0.11286724 -0.041994233 0.045921214 -0.124206 -0.19779457
-0.052402344 0.18535584 -0.29887933 0.04307451 0.102969155 0.10501062 -0.08681009 0.04867891
-0.11571712 -0.040111814 -0.15955508 -0.018502953 -0.22103707 0.21420392 -0.028255345 -0.07218356
-0.17455749 0.24428251 0.12458823 -0.035719234 -0.13260467 0.18769838 -0.17120583 -0.15849048
-0.03506352 0.114501275 -0.28295857 0.01921262 -0.13642576 0.0870145 0.02463168 -0.039734736
-0.020553634 -0.08502883 0.058814857 0.22242472 -0.00619794 0.093110524 -0.06785115 0.07483664
0.06331838 -0.14609 -0.10997613 0.26576695 -0.12196347 -0.07451012 -0.10821237 -0.087775126
0.008561994 -0.007141331 0.06006265 0.17828213 -0.054830015 0.020667242 -0.020773958 -0.22255625
0.17517614 0.0420986 -0.08598365 0.039837245 -0.04810223 -0.056188025 -0.12131706 -0.093297444
-0.006418648 0.16592419 -0.008806551 0.052994624 0.17889182 0.13056684 -0.078377664 -0.024100369
-0.17318636 -0.05037003 -0.032667976 0.036944713 -0.18685988 0.20163637 0.015781887 -0.04028215
-0.118989356 0.099675514 0.07356083 -0.047751546 -0.09537536 0.16807869 -0.008656031 -0.096649505
-0.096109904 0.10034735 -0.051336274 0.00020113304 -0.14061058 0.0445863 0.12773962 -0.051921863
0.0008807538 -0.0030685824 -0.027960874 0.26173657 0.058558222 0.13517201 -0.03447915 0.086800985
0.13148649 -0.08848399 -0.043697916 0.061613046 -0.10844004 -0.045585074 -0.11365158 -0.025688238
0.00037077445 0.055231195 -0.13274856 0.16623059 -0.032258283 0.018402867 0.060382307 -0.031727437
0.07947335 0.1532408 -0.017989427 0.090246014 0.04019586 -0.007934237 -0.03608577 0.036662757
00000000: 7dac bc3c 258e 88be 0aa4 673e 39dc 0dbd
00000010: 4b3b 39be 62c2 89bd 6450 d13d 5392 bd3d
00000020: 43c6 a83e e2c8 0e3e 334b 6b3e 34c8 5a3c
00000030: 67e5 813e 7c87 85be 0f3c 47bd 790f 2dbd
00000040: f0e8 453e 7e15 44be 2069 4cbe ff53 f43d
00000050: 2595 413e e09f 3abe cd61 d43d 459f 743e
00000060: 87ff 483e 3909 85be 73d8 913e 1acb 46bd
00000070: 503b 643e c466 82be b9f5 b13c c228 9a3c
00000080: 6fb8 e33d 9421 f53d ed9f d6bc 3dec 67be
00000090: 190d 4dbd 4e14 21be 41b9 023e 342a 55be
000000a0: f248 d2bd fccf 893e 4d85 303d a832 8cbe
000000b0: d4f9 f13d e860 d13d 08dc 023e 25d0 a63d
000000c0: fb66 3b3d 2cb9 1f3e 5eaf a7bd f94d 4dbe
000000d0: 7e90 e83d d943 673a 72dc a2bd 0c51 6f3e
000000e0: e95f 0bbe 4b5c cfbd c84b 4e3e 0f73 bebd
000000f0: 5836 013e b3ce ce3d ca5a 013e e41b e53d
00000100: 23b0 82bc 3298 213e ae01 63be b17c 6c3d
00000110: 4aaa 4e3e 051b 383e 8d7e 8a3d f741 59bb
00000120: 1868 31be 5d65 933d 0ec3 99bd 7c70 29bd
00000130: 47e6 87be ee26 663e 0565 babd 7f6e 00be
00000140: b271 14be fd9a 6e3e 9848 f73d ec2f d6bd
00000150: da45 0bbe 2353 e83d 7a95 90bd 051b 8abe
00000160: a51e 89bd aa92 d23d 7269 78be dc00 3bbd
00000170: 889d d5bd 09fa 043e 54ac 5d3c 699e 01be
00000180: 2951 3abd 42c1 2b3d d2c0 c13d 8d5d 443e
00000190: e54f ffbc 142a 253e 1383 10be cc15 9c3d
000001a0: 7601 f33d 9e12 84be 529a aabd 33c0 783e
000001b0: d7f1 40be 44eb 96bd f979 84be 5a5d ce3c
000001c0: 18fd 093e 2d32 a13c 7582 aebc a0bf 913e
000001d0: 0c69 7bbd 63b0 233d 56e0 46bc cb7c 1cbe
000001e0: 0d74 1f3e c4d6 683d 9d80 e7bd f126 e73d
000001f0: 2502 2cbd e217 3c3d b75f febd a98a 4abe
00000200: d7a3 56bd eccd 3d3e b606 99be e66e 303d
00000210: 7ee1 d23d cf0f d73d 7dc9 b1bd 8963 473d
00000220: 19fd ecbd 494c 24bd 6862 23be 8193 97bc
00000230: 8b57 62be 4658 5b3e c177 e7bc f9d4 93bd
00000240: 33bf 32be 3225 7a3e 1d28 ff3d 554e 12bd
00000250: 85c9 07be 0134 403e 9550 2fbe 544b 22be
00000260: c49e 0fbd a57f ea3d f2df 90be c963 9d3c
00000270: 32b3 0bbe a834 b23d 61c8 c93c e4c0 22bd
00000280: 1860 a8bc 9823 aebd d9e7 703d 4ec3 633e
00000290: 1718 cbbb bbb0 be3d 8bf5 8abd f443 993d
000002a0: 11ad 813d 9e98 15be 2a3b e1bd 9b12 883e
000002b0: fcc7 f9bd c398 98bd 729e ddbd 72c3 b3bd
000002c0: 9b47 0c3c d401 eabb 4104 763d 978f 363e
000002d0: 7095 60bd 594e a93c 262e aabc c9e5 63be
000002e0: 6061 333e 956f 2c3d 3218 b0bd 612c 233d
000002f0: d806 45bd 6a25 66bd 1475 f8bd bb12 bfbd
00000300: 8653 d2bb 08e8 293e 5a49 10bc e410 593d
00000310: 6b2f 373e 50b3 053e 7884 a0bd 236e c5bc
00000320: c457 31be ce50 4ebd dbce 05bd 5753 173d
00000330: 3258 3fbe c479 4e3e 0449 813c e5fe 24bd
00000340: b1b0 f3bd ad22 cc3d 0fa7 963d 2097 43bd
00000350: 2854 c3bd d21c 2c3e 07d2 0dbc 2df0 c5bd
00000360: 45d5 c4bd e982 cd3d fc45 52bd 3de7 5239
00000370: 38fc 0fbe 20a0 363d 2dce 023e 05ac 54bd
00000380: 63e2 663a 451a 49bb 340e e5bc 5602 863e
00000390: bfda 6f3d 886a 0a3e 023a 0dbd b7c4 b13d
000003a0: 65a4 063e 1837 b5bd 96fc 32bd f65d 7c3d
000003b0: d015 debd 6ab7 3abd 29c2 e8bd 2470 d2bc
000003c0: 8164 c239 1b3a 623d 3def 07be 5a38 2a3e
000003d0: 4321 04bd 9cc1 963c 7053 773d a1f4 01bd
000003e0: ecc2 a23d 28eb 1c3e 905e 93bc e7d2 b83d
000003f0: 6aa4 243d 9afe 01bc acce 13bd b02b 163d

h.0.mha.W_q.bias f4 [64]
-0.25145277 0.58962613 0.5206942 0.32822332 0.19402313 0.68515885 -0.27292016 0.5154201
-0.66455245 -0.31717846 0.14650184 0.18168339 0.04259012 0.68611866 0.28336397 -0.07735308
0.18895684 0.38531184 0.003745678 0.31141987 -0.25213614 0.15147032 -0.09572844 -0.3552827
-0.072410084 0.07366296 0.036600247 -0.1341353 0.00797517 -0.09673595 0.056013897 0.15539283
-0.10294409 -0.024130104 -0.0049739447 0.026160067 0.03908984 -0.024205074 -0.08162658 -0.028864255
0.08073262 -0.010178712 0.0964792 0.0003903499 0.047050707 0.05708963 0.07931376 0.06357587
-0.01804833 0.07488434 0.12847193 0.047404926 -0.03444327 -0.03559847 -0.037810694 -0.0517625
0.16534266 0.02089083 -0.0040514143 0.041040204 0.035271287 0.035954405 0.12617342 -0.10312866
00000000: 6bbe 80be bdf1 163f 374c 053f e30c a83e
00000010: 00ae 463e 9266 2f3f 31bc 8bbe 92f2 033f
00000020: 1c20 2abf 3765 a2be 9404 163e 360b 3a3e
00000030: fa72 2e3d 79a5 2f3f 1515 913e 4b6b 9ebd
00000040: e77d 413e 9847 c53e 0d7a 753b 6d72 9f3e
00000050: fd17 81be 091b 1b3e 460d c4bd 9de7 b5be
00000060: bd4b 94bd 9bdc 963d 24ea 153d c45a 09be
00000070: 4aaa 023c 7f1d c6bd d46e 653d 4c1f 1f3e
00000080: 5ad4 d2bd 7fac c5bc 79fc a2bb a34d d63c
00000090: ab1c 203d b849 c6bc d62b a7bd bb74 ecbc
000000a0: 2557 a53d 9dc4 26bc e396 c53d e0a7 cc39
000000b0: 3eb8 403d d1d6 693d 416f a23d 1134 823d
000000c0: 17da 93bc f65c 993d 258e 033e ab2b 423d
000000d0: 6314 0dbd b4cf 11bd 63df 1abd ea04 54bd
000000e0: 964f 293e 3f23 ab3c bac1 84bb c619 283d
000000f0: a078 103d ed44 133d 9b33 013e 1e35 d3bd

h.0.mha.W_k.weight f4 [64, 64]
0.007425893 -0.04373713 0.056838054 -0.036586456 -0.069439344 -0.07602803 -0.012848532 0.12187849
0.06641974 -0.016380018 -0.004297367 0.06675638 0.035297524 -0.087072395 0.024827346 0.06164327
-0.01934463 0.013148564 0.03442473 0.053957038 -0.04718625 -0.09512296 0.05693287 0.012872711
0.044907775 -0.119955435 0.072651334 -0.010171924 0.03915217 -0.016070206 0.0033029288 0.0560118
0.021429118 0.013811801 0.035132926 -0.0033753808 -0.010957445 0.029288001 -0.0016115495 0.056004822
0.07325437 0.053639024 -0.0005268011 -0.06102655 0.02895848 -0.016681103 0.06195251 0.06138055
0.037049647 0.01555869 -0.07171093 -0.06477577 0.09630059 -0.010426617 0.013174792 0.05983377
-0.0008160092 -0.0896562 -0.0010214801 -0.02945678 0.0053262203 -0.039919425 0.03250059 0.03655038
-0.061173975 0.25556576 -0.297756 0.038538694 0.23724794 0.1260196 -0.050576 -0.072847165
-0.24441203 -0.13951346 -0.20100288 -0.0073912903 -0.37746602 0.3334496 -0.0219922 -0.22235036
-0.15321214 0.2143206 0.2054547 -0.08920443 -0.24696364 0.28217003 -0.10584618 -0.2463789
-0.23199119 0.33433834 -0.35469094 -0.033827752 -0.20811039 0.2841164 -0.099861726 -0.023536965
-0.019273054 -0.16427031 0.11814738 0.23432457 -0.03824375 0.09720048 -0.09386758 0.29396567
0.07879711 -0.34702757 -0.16537355 0.30471474 -0.14083788 -0.14110506 -0.26464036 -0.17075023
0.05531373 -0.2678529 0.19364424 0.37966102 -0.15407631 0.12631287 -0.052765306 -0.36800098
0.35427645 0.09828 -0.3383508 0.14832579 -0.17509522 -0.24850515 -0.15398034 -0.10643684
0.021459498 -0.15668336 0.15782566 -0.010845225 -0.08660813 -0.056313504 0.05493877 0.040249053
0.1594221 -0.05840225 0.18588398 0.039662875 0.13269588 -0.1946709 0.0053513558 0.001443738
0.08134509 -0.105577126 -0.06998944 0.079031505 0.15849727 -0.19437487 0.0063333316 0.16653298
0.085864544 -0.13129872 0.18608312 0.038447686 0.13222575 -0.17986771 0.047295857 0.011243708
0.06403222 0.03877626 -0.057499234 -0.13340451 -0.017806869 -0.0106271915 0.0452717 -0.108157
0.043986734 0.11619128 0.058410734 -0.22078645 0.056064136 0.0031636248 0.117883295 0.1688243
-0.12656133 0.14482203 -0.09699863 -0.19679129 0.08515982 -0.106423624 0.049354628 0.1765391
-0.20066722 -0.13710764 0.12936799 0.049872223 0.08569173 0.14345877 0.055609483 0.08049649
-0.116424516 0.062332045 -0.09774454 0.012435187 0.20588444 0.042631462 -0.062002156 -0.119956605
-0.10342885 -0.054162424 -0.15205358 -0.061026372 -0.31526297 0.19872883 0.04249102 0.048989452
-0.10184301 0.12531735 0.14607525 0.032614894 -0.043501616 0.19656675 -0.03620732 -0.11036095
-0.072022565 0.12374375 -0.20205747 0.058868174 -0.0039213817 0.21311943 -0.0029619816 0.11377859
-0.0228511 -0.14312275 0.06614838 0.11049134 0.027879426 0.055778023 -0.02777069 0.21837544
0.006313439 -0.22092506 -0.03516565 0.22052503 -0.051007804 -0.053214855 -0.04678189 -0.11849918
-0.0060947603 -0.1308567 0.16137841 0.109036095 -0.112133585 0.09151153 -0.035878245 -0.21368253
0.25372913 0.021930428 -0.1278851 0.015142971 -0.07112533 -0.10492615 -0.11908686 0.016618358
00000000: e854 f33b b425 33bd 05cf 683d aedb 15bd
00000010: 3736 8ebd 95b4 9bbd a682 52bc 6e9b f93d
00000020: 1307 883d 632f 86bc edd0 8cbb 92b7 883d
00000030: 2394 103d 0353 b2bd b862 cb3c a77d 7c3d
00000040: a178 9ebc 136d 573c f200 0d3d 0e02 5d3d
00000050: 5f46 41bd d4cf c2bd 7132 693d 10e8 523c
00000060: 37f1 373d 32ab f5bd 39ca 943d 24a8 26bc
00000070: 075e 203d aaa5 83bc f375 583b a16c 653d
00000080: 1e8c af3c e44a 623c 8be7 0f3d 7e35 5dbb
00000090: db86 33bc 64ed ef3c a13a d3ba 5065 653d
000000a0: 6306 963d 98b4 5b3d 0619 0aba faf6 79bd
000000b0: 563a ed3c cfa6 88bc eac1 7d3d 2c6a 7b3d
000000c0: 5fc1 173d e0e9 7e3c 2edd 92bd 29a9 84bd
000000d0: 3e39 c53d 67d4 2abc 15db 573c 4114 753d
000000e0: 73e9 55ba ab9d b7bd 2fe3 85ba 584f f1bc
000000f0: 9387 ae3b 8d82 23bd 571f 053d dab5 153d
00000100: 9091 7abd 84d9 823e 7973 98be c0da 1d3d
00000110: 20f1 723e 480b 013e c828 4fbd e530 95bd
00000120: 2647 7abe 9edc 0ebe b3d3 4dbe a332 f2bb
00000130: 3a43 c1be e8b9 aa3e fc28 b4bc d0af 63be
00000140: a5e3 1cbe dc76 5b3e b862 523e d0b0 b6bd
00000150: 09e4 7cbe 9778 903e e2c5 d8bd c04a 7cbe
00000160: 198f 6dbe 652e ab3e 0d9a b5be f88e 0abd
00000170: e41a 55be b477 913e 4e84 ccbd 98d0 c0bc
00000180: 86e2 9dbc 7a36 28be 41f7 f13d c8f2 6f3e
00000190: 7aa5 1cbd 0c11 c73d a53d c0bd ab82 963e
000001a0: 6160 a13d 99ad b1be af57 29be 9203 9c3e
000001b0: ce37 10be d87d 10be f17e 87be 26d9 2ebe
000001c0: a690 623d 0424 89be ad4a 463e ee62 c23e
000001d0: 2ec6 1dbe 2958 013e 6f20 58bd a06a bcbe
000001e0: b963 b53e 0647 c93d 513c adbe b7e2 173e
000001f0: 294c 33be 2278 7ebe 06ad 1dbe 8ffb d9bd
00000200: d4cb af3c 9a71 20be 0d9d 213e 2cb0 31bc
00000210: 9a5f b1bd fda8 66bd 7a07 613d 31dc 243d
00000220: 8c3f 233e 3337 6fbd 5f58 3e3e 8a75 223d
00000230: 6ee1 073e cf57 47be 6d5a af3b cf3b bd3a
00000240: 4198 a63d d238 d8bd a056 8fbd 45db a13d
00000250: 1c4d 223e 350a 47be d687 cf3b 9f87 2a3e
00000260: c0d9 af3d 2c73 06be 938c 3e3e 527b 1d3d
00000270: 3066 073e 3e2f 38be 4db9 413d 8837 383c
00000280: 5323 833d dbd3 1e3d 5184 6bbd 319b 08be
00000290: b6df 91bc ac1d 2ebc d16e 393d 6b81 ddbd
000002a0: 6f2b 343d b2f5 ed3d 1840 6f3d d815 62be
000002b0: 82a3 653d d154 4f3b cc6c f13d 47e0 2c3e
000002c0: 4b99 01be 3a4c 143e 38a7 c6bd a883 49be
000002d0: 4668 ae3d a1f4 d9bd 1428 4a3d aac6 343e
000002e0: b57b 4dbe f265 0cbe 0b79 043e d146 4c3d
000002f0: 257f af3d dbe6 123e c5c6 633d 58db a43d
00000300: fa6f eebd e34f 7f3d 4a2e c8bd f4bc 4b3c
00000310: 5fd3 523e 549e 2e3d f9f5 7dbd cfab f5bd
00000320: 81d2 d3bd 6bd9 5dbd efb3 1bbe caf6 79bd
00000330: 266a a1be 927f 4b3e 100b 2e3d 2aa9 483d
00000340: 1193 d0bd 3153 003e c094 153e 3297 053d
00000350: c02e 32bd cb48 493e 204e 14bd ec04 e2bd
00000360: 9180 93bd 5d6d fd3d 27e8 4ebe c11f 713d
00000370: ef7e 80bb fb3b 5a3e ce1d 42bb c004 e93d
00000380: 3b32 bbbc c58e 12be cd78 873d 4949 e23d
00000390: 6563 e43c 7f77 643d 5c7f e3bc d09d 5f3e
000003a0: f7e0 ce3b 2e3a 62be db09 10bd 50d1 613e
000003b0: 8fed 50bd d2f7 59bd 5e9e 3fbd b3af f2bd
000003c0: 8eb6 c7bb 4cff 05be 6240 253e 514e df3d
000003d0: 4ba6 e5bd 666a bb3d 11f5 12bd 98cf 5abe
000003e0: c9e8 813e 71a7 b33c 50f4 02be 391a 783c
000003f0: 28aa 91bd 85e3 d6bd d0e3 f3bd 3923 883c

h.0.mha.W_k.bias f4 [64]
-0.032211974 0.6307984 -0.38191244 0.7352894 -0.37929374 0.53522474 -1.8106537 -0.044722795
-0.5096953 -1.2042794 0.31897363 0.051262394 0.20965813 1.5150193 -0.1513766 -0.26976123
0.005945918 0.42927855 -0.4017477 1.6114929 -0.275583 -0.25484696 -1.1707394 0.19131652
-0.40560636 0.43729654 0.060367648 -0.28739113 0.37491903 0.42150712 0.15954016 -0.17291526
-0.5375401 -0.5058458 -0.32278767 -0.008262244 0.100459255 -0.031031286 0.4082047 -0.1136687
0.30130076 0.012253246 0.19357254 -0.0751691 -0.42231914 0.009521783 0.55772614 0.27447706
0.09957681 0.35545993 -0.2743887 -0.15095758 -0.016349947 -0.5482571 0.47303227 -0.28049764
-0.21588974 -0.340041 0.412747 -0.47807416 0.6491149 0.45008904 0.050845135 -0.726641
00000000: b4f0 03bd 017c 213f 078a c3be ed3b 3c3f
00000010: ca32 c2be 7d04 093f 80c3 e7bf 402f 37bd
00000020: 647b 02bf d425 9abf 8350 a33e 84f8 513d
00000030: 9fb0 563e 27ec c13f 7802 1bbe 251e 8abe
00000040: fad5 c23b 66ca db3e e0b1 cdbe 6645 ce3f
00000050: 3719 8dbe 4d7b 82be cada 95bf 7ae8 433e
00000060: a3ab cfbe 55e5 df3e 1144 773d ee24 93be
00000070: 63f5 bf3e c8cf d73e 7f5e 233e b310 31be
00000080: 3a9c 09bf 1c7f 01bf 6d44 a5be 5d5e 07bc
00000090: 95bd cd3d 5335 febc 3500 d13e 23cb e8bd
000000a0: 1844 9a3e d7c1 483c e137 463e 42f2 99bd
000000b0: 373a d8be 4101 1c3c 24c7 0e3f 4288 8c3e
000000c0: edee cb3d d8fe b53e ad7c 8cbe a094 1abe
000000d0: 53f0 85bc 945a 0cbf 4931 f23e 639d 8fbe
000000e0: 3312 5dbe db19 aebe 9353 d33e 23c6 f4be
000000f0: 652c 263f 1272 e63e fd42 503d 2505 3abf

h.0.mha.W_v.weight f4 [64, 64]
-0.04948183 0.059565518 0.2155564 -0.18853922 0.12790744 -0.16613758 -0.14125748 0.36130494
-0.16557717 0.03923909 -0.007266959 0.09359892 0.005549557 -0.32603598 0.2021923 0.021813635
-0.0645173 0.13330632 -0.114142165 0.35676578 0.18383268 0.04715682 0.1896198 -0.068488255
-0.13058965 -0.060860954 -0.25824144 0.007288495 0.32607532 -0.0417029 0.075677596 -0.13172047
0.1578099 -0.06300118 0.17799816 0.064966194 -0.20364024 0.12907287 0.062175244 0.11137628
-0.14189751 0.0036033264 0.18107307 -0.07848312 -0.021573776 0.16612346 -0.053906877 0.22612007
-0.06552523 0.048415046 0.003802213 -0.031281285 -0.3440201 -0.020338133 0.27515015 0.0810889
0.14967658 0.08564465 -0.05083275 -0.19518535 0.036875676 -0.18098111 -0.11910695 -0.25003815
-0.21986267 0.025060233 -0.04465659 -0.35841948 0.048956674 0.18151765 0.10108126 0.02362281
0.021352958 -0.10214166 -0.10811665 0.17837225 -0.0756735 0.054679945 -0.08888717 -0.1422172
-0.03884894 0.087033115 0.18635267 0.053406045 -0.014807687 -0.13531365 0.046568867 0.0005286643
0.12971112 -0.05820886 -0.24682395 -0.053825174 0.0049542557 0.023442425 -0.02804297 -0.09781774
0.031453397 0.16273177 -0.21740487 0.06421187 0.009732771 0.010108976 0.21029182 -0.011114336
0.2401738 0.27053377 0.07605738 0.058666006 -0.16330096 -0.10411644 0.041955367 -0.08308509
0.036892343 0.08412337 -0.1941056 -0.08019984 -0.27219614 0.13510674 0.24857417 0.01569701
0.12672372 -0.007972997 0.14632823 0.13834806 -3.47087e-05 0.047444563 -0.068515554 0.1710176
-0.08571936 -0.16199933 -0.07767792 0.28007188 0.03063747 0.15350808 -0.43680564 -0.0016921697
0.0075609665 0.16816317 0.19321278 0.12871094 0.15238504 0.19523378 0.21765435 0.031946044
0.10767276 0.40028936 -0.22020186 -0.08285049 -0.1034062 -0.107065104 -0.09400407 0.16322407
-0.10225425 -0.23998855 -0.025708977 0.10699343 -0.2475451 0.025104204 -0.14295143 -0.0049264734
0.04097859 -0.16179904 -0.014918465 0.07538808 -0.30284396 -0.3817743 0.0066204225 0.114207715
0.054752342 -0.11023617 -0.015766412 -0.16540012 -0.054020647 0.15405689 0.047775388 0.08468734
-0.018127587 -0.013152165 0.015164378 0.2196863 -0.03300212 0.21351859 -0.07464812 -0.023928534
-0.099603765 0.3887665 0.16724052 0.18651791 0.2451638 0.061525498 0.15057182 -0.28324312
0.13508287 0.2276269 0.04132958 0.1492371 0.0026033933 -0.19807146 0.021597043 0.1356467
0.13786668 0.096824996 0.2791385 0.26460773 -0.008524553 -0.13535263 -0.011384518 -0.17051865
-0.12050321 0.05641244 -0.07173234 0.016124075 -0.21899547 0.06876524 0.11091956 -0.04204778
0.10487331 -0.22427757 -0.23505335 -0.082765214 -0.18035449 0.03501803 0.24043256 -0.29095888
-0.36100638 0.066623785 -0.17674474 0.35218796 0.29627514 -0.26707613 -0.09125662 0.018653207
-0.02553238 -0.11687811 0.37354282 -0.23507278 -0.024635937 0.05176729 0.0137167 -0.31229657
-0.14784932 0.106569305 -0.07824742 -0.068304785 -0.006073723 -0.0018660439 -0.031307135 -0.051472835
-0.18859282 -0.27091506 0.11646568 0.010007017 -0.0019233484 0.17179528 -0.0869195 -0.012280888
00000000: 76ad 4abd f9fa 733d d1ba 5c3e 6d10 41be
00000010: 2bfa 023e f81f 2abe cda5 10be f6fc b83e
00000020: 108d 29be 2bb9 203d ac1f eebb cab0 bf3d
00000030: 0fd9 b53b 30ee a6be 800b 4f3e 82b2 b23c
00000040: a521 84bd 7481 083e 5ec3 e9bd 01aa b63e
00000050: a23e 3c3e 8227 413d b12b 423e 9243 8cbd
00000060: 4bb9 05be 5649 79bd 3938 84be 54d4 ee3b
00000070: 58f3 a63e a9d0 2abd dbfc 9a3d bbe1 06be
00000080: eb98 213e c306 81bd 2645 363e ff0c 853d
00000090: 1187 50be ae2b 043e 78ab 7e3d 3f19 e43d
000000a0: 954d 11be c925 6c3b 386b 393e c2bb a0bd
000000b0: 7dbb b0bc 451c 2a3e 75cd 5cbd 058c 673e
000000c0: 1732 86bd db4e 463d 8c2e 793b ce20 00bd
000000d0: 6723 b0be 289c a6bc 7be0 8c3e f011 a63d
000000e0: d144 193e 7666 af3d 0036 50bd abde 47be
000000f0: f30a 173d 1d53 39be 58ee f3bd 0005 80be
00000100: ae23 61be 1e4b cd3c d4e9 36bd c282 b7be
00000110: cb86 483d c3df 393e b103 cf3d a084 c13c
00000120: 66ec ae3c a62f d1bd 436c ddbd 37a7 363e
00000130: b5fa 9abd 14f8 5f3d 7a0a b6bd 63a1 11be
00000140: 1120 1fbd 6b3e b23d 3cd3 3e3e 4cc0 5a3d
00000150: f19b 72bc a98f 0abe ffbe 3e3d 1096 0a3a
00000160: fed2 043e 6a6c 6ebd 6bbf 7cbe c977 5cbd
00000170: 4f57 a23b 540a c03c 5fba e5bc ab54 c8bd
00000180: 47d5 003d 28a3 263e 629f 5ebe 8381 833d
00000190: 3376 1f3c 1ea0 253c bd56 573e e718 36bc
000001a0: 1ff0 753e 6783 8a3e f9c3 9b3d c44b 703d
000001b0: 5e38 27be 003b d5bd 64d9 2b3d 8428 aabd
000001c0: 6d1c 173d e048 ac3d 9ec3 46be d03f a4bd
000001d0: 4b5d 8bbe 6c59 0a3e 3a8a 7e3e 0497 803c
000001e0: ddc3 013e 2ca1 02bc 11d7 153e 1dab 0d3e
000001f0: 2f94 11b8 3b55 423d e251 8cbd 3d1f 2f3e
00000200: a28d afbd 27e3 25be 9a15 9fbd 9565 8f3e
00000210: 6efb fa3c 3931 1d3e fda4 dfbe cbcb ddba
00000220: fcc1 f73b f732 2c3e 92d9 453e cdcc 033e
00000230: d30a 1c3e 5deb 473e c8e0 5e3e dbd9 023d
00000240: 8983 dc3d baf2 cc3e 997c 61be 85ad a9bd
00000250: a1c6 d3bd f344 dbbd 3585 c0bd 3624 273e
00000260: ad6a d1bd 8fbf 75be a29b d2bc 5f1f db3d
00000270: 767c 7dbe 55a7 cd3c dc61 12be 416e a1bb
00000280: 2ad9 273d a6ae 25be 946c 74bc 1165 9a3d
00000290: 5d0e 9bbe ec77 c3be 21f0 d83b bce5 e93d
000002a0: fe43 603d 80c3 e1bd 9028 81bc a65e 29be
000002b0: c144 5dbd 17c1 1d3e 20b0 433d 8e70 ad3d
000002c0: 4e80 94bc 2e7c 57bc 0374 783c 72f5 603e
000002d0: 3b2d 07bd 9ea4 5a3e 1de1 98bd c605 c4bc
000002e0: 0ffd cbbd 670c c73e 1941 2b3e 8dfe 3e3e
000002f0: 380c 7b3e 2902 7c3d 802f 1a3e 3e05 91be
00000300: 2a53 0a3e 0717 693e 3549 293d 9cd1 183e
00000310: b19d 2a3b 3fd3 4abe 48ec b03c f8e6 0a3e
00000320: ec2c 0d3e 2f4c c63d 3eeb 8e3e aa7a 873e
00000330: 91aa 0bbc e199 0abe 2186 3abc 719c 2ebe
00000340: 63ca f6bd bb10 673d 68e8 92bd a316 843c
00000350: 5940 60be cad4 8c3d cb29 e33d 4b3a 2cbd
00000360: d1c7 d63d 05a9 65be d3b1 70be cf80 a9bd
00000370: d9ae 38be 116f 0f3d f433 763e 90f8 94be
00000380: d4d5 b8be 0d72 883d 93fc 34be fb51 b43e
00000390: 60b1 973e 34be 88be c0e4 babd 9cce 983c
000003a0: 4829 d1bc ca5d efbd 0141 bf3e ebb6 70be
000003b0: 4ed1 c9bc f009 543d 02bc 603c 56e5 9fbe
000003c0: d065 17be 0241 da3d 2f40 a0bd 61e3 8bbd
000003d0: 1506 c7bb 0b96 f4ba e93b 00bd 2ed5 52bd
000003e0: 7a1e 41be 61b5 8abe 8f85 ee3d 79f4 233c
000003f0: dd18 fcba 1aeb 2f3e da02 b2bd c735 49bc

h.0.mha.W_v.bias f4 [64]
-0.051614847 0.059538465 0.013595463 0.06965585 -0.15248251 -0.065050654 0.047743343 -0.15992877
-0.067690946 -0.08149547 -0.030769788 -0.17351376 0.12205405 0.08877819 -0.12293083 0.008135411
0.0038046918 -0.0841533 -0.07635622 0.009444292 -0.07702555 -0.07465566 -0.022712663 0.024695573
0.023988942 0.13466941 0.12275543 0.021455143 0.05946421 0.14848226 0.045192234 0.14255151
-0.14283821 0.05822877 0.13434489 0.06295239 0.038185347 0.16677798 0.039252877 -0.060600456
-0.0999812 -0.019860432 0.06637 -0.07512827 -0.13452573 -0.04751452 -0.111929305 -0.0864465
-0.13493048 0.031593308 -0.14161852 -0.026810586 -0.17668314 -0.11099589 0.084048145 0.118234
-0.10893177 -0.09897649 -0.17492369 0.08281909 0.09607984 -0.10254561 -0.009650388 -0.037946954
00000000: 176a 53bd 9bde 733d 81bf 5e3c baa7 8e3d
00000010: 6024 1cbe 4739 85bd 868e 433d 5ec4 23be
00000020: 8da1 8abd 19e7 a6bd ec10 fcbc 97ad 31be
00000030: 79f7 f93d 57d1 b53d 29c3 fbbd 634a 053c
00000040: 2358 793b 9158 acbd a660 9cbd 3bbc 1a3c
00000050: 92bf 9dbd 11e5 98bd e80f babc 5f4e ca3c
00000060: 7584 c43c c7e6 093e 3367 fb3d b2c2 af3c
00000070: be90 733d bc0b 183e 7e1b 393d 06f9 113e
00000080: 2e44 12be 4a81 6e3d b591 093e 2fed 803d
00000090: 3d68 1c3d d9c7 2a3e a0c7 203d 2f38 78bd
000000a0: f2c2 ccbd 58b2 a2bc ffec 873d dadc 99bd
000000b0: 1dc1 09be 969e 42bd 313b e5bd dd0a b1bd
000000c0: 372b 0abe fc67 013d 7204 11be e0a1 dbbc
000000d0: 6dec 34be d051 e3bd 6f21 ac3d ab24 f23d
000000e0: 9f17 dfbd 30b4 cabd 321f 33be 0e9d a93d
000000f0: 82c5 c43d 6f03 d2bd a91c 1ebc 446e 1bbd

h.0.mha.W_o.weight f4 [64, 64]
-0.0020121147 -0.12196278 0.16642392 -0.058997646 0.052887846 0.0027446682 0.04308013 0.087632634
0.15302904 0.034604423 -0.05662871 -0.08449683 -0.015479345 -0.020612627 -0.052677624 0.038162626
0.062259182 0.027390294 -0.0712611 -0.16224755 -0.15932547 -0.042411465 0.12444535 -0.13701822
-0.089138776 -0.002424348 -0.04452845 -0.09431422 -0.020256542 0.007917346 -0.15813053 0.039966993
0.12217991 -0.15227911 -0.04195461 0.08670639 -0.09026267 0.16994259 0.00979784 0.13288338
0.031090459 0.0025477146 0.067822136 0.013455239 -0.08525192 -0.15335506 0.017107666 -0.016788252
0.19454388 0.091599464 -0.019720184 0.05207577 -0.04241829 0.09776612 0.06662566 -0.11605033
0.010047685 0.062104814 -0.022589847 0.04074624 -0.02772047 -0.057852793 -0.06133466 0.159524
0.038318936 -0.072401166 -0.011300798 0.09620356 -0.015710752 0.045305785 -0.05517329 0.0140430685
-0.16889839 0.12131232 0.011578389 0.01100622 0.035607353 -0.12018178 0.03691067 -0.035108194
-0.08317337 -0.06167293 0.0122927055 -0.075575136 0.053321924 -0.015687002 -0.08225658 0.008710878
0.10798227 -0.058299582 0.06601885 -0.081247576 -0.121708736 0.0078117633 0.061753016 -0.060196355
0.0897207 0.06246441 0.009594192 -0.04884649 -0.02332174 0.022084396 -0.009271784 -0.032763742
-0.01599507 0.027683346 -0.05846536 0.08946216 0.008667438 -0.04074439 -0.013255487 -0.04439165
-0.012524582 -0.03461159 -0.009697574 -0.019987082 -0.111747235 0.006695307 -0.080175266 -0.053296585
0.0400681 0.15766916 0.0076832264 -0.04715792 0.042443626 -0.04751352 0.057059687 0.048260912
0.06520558 0.18663354 0.092368595 0.17300674 0.0066098114 -0.16073532 -0.1675506 -0.10940147
0.06837836 -0.24982725 -0.052332327 -0.057203036 0.0149072325 0.18938018 0.43580565 0.22157454
-0.22899555 0.037687816 -0.11001124 0.23162988 0.0034593218 -0.18028453 -0.08192306 0.030340122
0.28286633 0.029960472 -0.039444376 0.028340252 0.14102925 0.047092088 0.107601054 -0.1419793
-0.38880923 0.04700919 -0.19682822 0.1209721 0.13656461 -0.45068315 0.15769279 -0.086706415
-0.3636623 -0.0132022435 -0.021471899 0.13070919 -0.17838301 0.014101259 -0.13593313 -0.09312122
-0.14515515 -0.09841649 0.31225148 0.04002186 -0.02898567 -0.16400625 -0.015620632 0.07020922
-0.15348469 -0.088472985 -0.04306086 0.04134393 -0.09720674 0.15556033 -0.06645634 -0.10435303
-0.13814092 -0.15436608 -0.029620804 0.0033219291 0.07811569 -0.012871101 0.06478946 0.01870531
0.070137605 0.0021648265 0.1386445 -0.039004717 -0.09526543 0.0737886 -0.101203986 0.03977959
0.1833665 0.13561332 0.10779333 0.058897857 -0.1273124 0.18019259 0.003123159 0.06542666
0.0006682846 0.050114967 -0.022670813 -0.034710422 -0.02506282 -0.09218034 0.08986353 0.014141419
-0.14076594 0.09605193 0.1427494 -0.07661929 0.0883854 0.052099127 -0.16639589 -0.009660133
0.10642351 -0.06750779 0.014097793 0.054798547 -0.040986348 0.02695087 0.10428241 0.15573642
0.07350405 0.08058361 0.025098298 -0.06958771 -0.04988395 -0.03521317 0.06661161 0.023067279
-0.055563863 -0.110458866 -0.07856434 -0.053541362 0.15227312 0.0036996678 -0.21587199 -0.0024212354
00000000: afdd 03bb 9fc7 f9bd 086b 2a3e 84a7 71bd
00000010: eda0 583d e4df 333b ca74 303d bd78 b33d
00000020: a5b3 1c3e 5ebd 0d3d 82f3 67bd ad0c adbd
00000030: 149d 7dbc d0db a8bc 7ec4 57bd 6a50 1c3d
00000040: 7c03 7f3d 9c61 e03c 57f1 91bd 3924 26be
00000050: 3726 23be a5b7 2dbd 34dd fe3d 814e 0cbe
00000060: 648e b6bd cfe1 1ebb 7763 36bd d027 c1bd
00000070: 0cf1 a5bc c2b7 013c f8ec 21be 6eb4 233d
00000080: 7639 fa3d 0eef 1bbe 99d8 2bbd 1f93 b13d
00000090: a2db b8bd 6e05 2e3e 1f87 203c 9512 083e
000000a0: 6bb1 fe3c 8ff7 263b 55e6 8a3d 5d73 5c3c
000000b0: 8f98 aebd 1c09 1dbe 6025 8c3c 8487 89bc
000000c0: 8336 473e 8098 bb3d 398c a1bc 674d 553d
000000d0: cdbe 2dbd 9b39 c83d 0973 883d ccab edbd
000000e0: 0c9f 243c 9e61 7e3d 580e b9bc 88e5 263d
000000f0: 0a16 e3bc 0df7 6cbd 0d3a 7bbd 425a 233e
00000100: 51f4 1c3d 1047 94bd fb26 39bc 5f06 c53d
00000110: d6b3 80bc 8f92 393d 63fd 61bd e614 663c
00000120: b3f3 2cbe 9872 f83d 49b3 3d3c 6f53 343c
00000130: 04d9 113d dd21 f6bd a52f 173d 9ccd 0fbd
00000140: cd56 aabd c19c 7cbd 5867 493c 23c7 9abd
00000150: 1768 5a3d 0782 80bc 2376 a8bd 12b8 0e3c
00000160: cf25 dd3d 8bcb 6ebd e434 873d 2165 a6bd
00000170: 6e42 f9bd d2f9 ff3b bbf0 7c3d 7490 76bd
00000180: 7dbf b73d aeda 7f3d f530 1d3c 4213 48bd
00000190: 3c0d bfbc 56ea b43c aee8 17bc 4633 06bd
000001a0: 1808 83bc 2fc8 e23c 6079 6fbd f037 b73d
000001b0: df01 0e3c 97e3 26bd 8b2d 59bc 05d4 35bd
000001c0: e833 4dbc e2c4 0dbd 93e2 1ebc f3bb a3bc
000001d0: bcdb e4bd 4e64 db3b ee32 a4bd 854d 5abd
000001e0: 731e 243d 0674 213e 93c3 fb3b aa28 41bd
000001f0: 5ed9 2d3d 899d 42bd 6bb7 693d 3cad 453d
00000200: 818a 853d dd1c 3f3e bf2b bd3d ae28 313e
00000210: 1e97 d83b cd97 24be 6292 2bbe e10d e0bd
00000220: f409 8c3d b7d2 7fbe 6c5a 56bd bb4d 6abd
00000230: 773d 743c e1ec 413e eb21 df3e 70e4 623e
00000240: cf7d 6abe 8a5e 1a3d 934d e1bd 6230 6d3e
00000250: cab5 623b 829c 38be 47c7 a7bd d98b f83c
00000260: dbd3 903e aa6f f53c 6d90 21bd d129 e83c
00000270: f969 103e a2e3 403d f15d dc3d 0663 11be
00000280: 0112 c7be b58c 403d 568d 49be 38c0 f73d
00000290: 98d7 0b3e f1bf e6be 387a 213e 2293 b1bd
000002a0: f231 babe 394e 58bc d6e5 afbc a1d8 053e
000002b0: 09aa 36be f808 673c 0e32 0bbe 57b6 bebd
000002c0: 8da3 14be 968e c9bd 6ddf 9f3e f6ed 233d
000002d0: 5b73 edbc 41f1 27be aeed 7fbc dac9 8f3d
000002e0: 172b 1dbe 5331 b5bd 9660 30bd 4158 293d
000002f0: 5414 c7bd 354b 1f3e 431a 88bd 0bb7 d5bd
00000300: d074 0dbe 2412 1ebe 54a7 f2bc b9b4 593b
00000310: 1efb 9f3d 4fe1 52bc 56b0 843d e13b 993c
00000320: 4ea4 8f3d c3df 0d3b d3f8 0d3e 69c3 1fbd
00000330: 861a c3bd 7a1e 973d 0944 cfbd ecef 223d
00000340: 6ec4 3b3e 38de 0a3e c0c2 dc3d e13e 713d
00000350: 2f5e 02be 6884 383e eaad 4c3b 6afe 853d
00000360: d22f 2f3a 5a45 4d3d 24b8 b9bc 842c 0ebd
00000370: 8b50 cdbc 0cc9 bcbd 5f0a b83d 69b1 673c
00000380: f224 10be e0b6 c43d e62c 123e 93ea 9cbd
00000390: 6803 b53d e565 553d af63 2abe 8945 1ebc
000003a0: 92f4 d93d 8641 8abd 6efa 663c 7174 603d
000003b0: 4de1 27bd 12c8 dc3c 0492 d53d 5e79 1f3e
000003c0: 4b89 963d 0509 a53d f29a cd3c 0084 8ebd
000003d0: 1d53 4cbd af3b 10bd ab6b 883d 97f7 bc3c
000003e0: ef96 63bd 4238 e2bd 57e6 a0bd 304e 5bbd
000003f0: 7ced 1b3e 2076 723b 8c0d 5dbe 97ad 1ebb

h.0.mha.W_o.bias f4 [64]
-0.011965189 0.015441893 0.06681575 -0.054866377 0.004677274 -0.0024901605 -0.014238163 0.01908972
-0.06300778 -0.1920237 -0.093097284 0.009422257 -0.010330264 0.010057297 -0.012270729 0.009230406
0.062166262 0.014971267 0.019628545 0.03853042 -0.012140523 0.008789106 0.041273896 -0.0053939405
-0.04877383 0.026162608 -0.008793678 0.10154963 -0.09565629 0.101936705 0.08522734 0.087243624
0.036480874 -0.084013656 -0.052552443 0.059397027 0.055391427 -0.049835004 0.04004137 0.012470523
0.001461848 -0.0071606217 -0.08528744 0.076345816 -0.013888733 0.03623807 0.018578155 -0.009576904
-0.2210641 0.041864477 0.120673776 0.06628943 -0.02159463 0.039922 0.01176692 -0.17449309
0.08811222 0.16921312 0.03161679 -0.058901455 -0.085030355 -0.03702874 0.03427183 -0.02829864
00000000: a409 44bc feff 7c3c b2d6 883d 91bb 60bd
00000010: d143 993b f631 23bb 2f47 69bc 0b62 9c3c
00000020: 390a 81bd dca1 44be caa9 bebd cf5f 1a3c
00000030: 4540 29bc 5cc7 243c 2b0b 49bc 213b 173c
00000040: 0da2 7e3d 0c4a 753c 0bcc a03c 13d2 1d3d
00000050: 0be9 46bc 2f00 103c d10e 293d a7bf b0bb
00000060: 11c7 47bd f752 d63c 5c13 10bc 41f9 cf3d
00000070: 72e7 c3bd 31c4 d03d ac8b ae3d c9ac b23d
00000080: f86c 153d 5a0f acbd 3b41 57bd 4c4a 733d
00000090: 1fe2 623d ca1f 4cbd 6b02 243d 2a51 4c3c
000000a0: 7b9b bf3a a6a3 eabb 2eab aebd 325b 9c3d
000000b0: 928d 63bc 5f6e 143d 3731 983c 72e8 1cbc
000000c0: a15e 62be 167a 2b3d d023 f73d c1c2 873d
000000d0: 39e7 b0bc 4085 233d 0aca 403c 51ae 32be
000000e0: 2e74 b43d 3446 2d3e 9b80 013d a742 71bd
000000f0: 6524 aebd 73ab 17bd 9e60 0c3d 8dd2 e7bc

h.0.ln_1.weight f4 [64]
0.28287002 0.53634995 0.4242843 0.33927006 0.77676547 0.63296646 0.28292984 0.21292104
0.47335112 0.2053932 0.22531311 0.1957189 0.77096975 0.83849454 0.102193825 0.24939325
0.33834678 0.63622046 0.22222388 0.22038534 0.3996098 0.4247594 0.20235048 0.5668197
0.33022586 0.6356057 0.8068567 0.21512683 0.51653486 0.42107788 0.15043958 0.23423122
0.23881045 0.23962644 0.26240408 0.5395785 0.23631144 0.3589336 0.45778623 0.4442554
0.1317651 0.85715073 0.25450388 0.4785475 0.6452484 0.37982714 0.48428184 0.3372561
0.15850747 0.047118045 0.30903018 0.745575 0.1963594 0.31273356 0.19553575 0.438361
0.356621 0.142917 0.50172627 0.19134688 0.31004608 0.2965507 0.29516405 0.355464
00000000: 57d4 903e 3b4e 093f cb3b d93e ceb4 ad3e
00000010: 1ada 463f 170a 223f 2edc 903e f907 5a3e
00000020: 145b f23e 9852 523e 7bb8 663e 896a 483e
00000030: 465e 453f 94a7 563f ff4a d13d f260 7f3e
00000040: ca3b ad3e 58df 223f a88e 633e b2ac 613e
00000050: a899 cc3e 107a d93e f734 4f3e 191b 113f
00000060: 5d13 a93e 0eb7 223f 298e 4e3f 354a 5c3e
00000070: a13b 043f 8597 d73e d50c 1a3e 4fda 6f3e
00000080: ba8a 743e a260 753e d459 863e d121 0a3f
00000090: a0fb 713e 25c6 b73e f562 ea3e 7275 e33e
000000a0: 6eed 063e 3b6e 5b3f 554e 823e 2e04 f53e
000000b0: 002f 253f b478 c23e caf3 f73e d5ac ac3e
000000c0: c84f 223e dafe 403d 3439 9e3e 01de 3e3f
000000d0: 7012 493e 9d1e a03e 863a 483e da70 e03e
000000e0: 0797 b63e d658 123e 2271 003f 70f0 433e
000000f0: 5cbe 9e3e 7ed5 973e be1f 973e 61ff b53e

h.0.ln_1.bias f4 [64]
0.00228112 0.43118596 -0.43009853 -0.038424954 0.2081141 0.09185717 -0.008161044 -0.0047684778
-0.40824944 0.037648242 -0.1579977 0.035351723 -0.65073884 0.55021334 0.0027006809 -0.03662635
-0.15455124 0.2983586 0.11048879 -0.004126692 -0.10216852 0.40064257 -0.12698892 -0.40317237
-0.22971234 0.6025647 -0.67348844 -0.13470477 -0.2891443 0.33906385 -0.03604857 -0.03162843
-0.03438387 -0.05318974 0.030899374 0.3580692 0.02101727 0.16935557 -0.08225725 0.4675304
0.04003854 -0.77733135 -0.07944557 0.46156868 -0.15018786 -0.2206023 -0.2643568 -0.16813554
0.065162994 -0.039981008 -0.0018103891 0.31784612 -0.1328884 0.06765487 0.031490114 -0.31231683
0.24275073 -0.036779024 -0.36057565 0.07379693 -0.15970136 -0.13408822 -0.19092391 -0.10709586
00000000: d87e 153b 68c4 dc3e e035 dcbe 7c63 1dbd
00000010: dd1b 553e 9d1f bc3d e6b5 05bc e440 9cbb
00000020: 1206 d1be 0b35 1a3d 26ca 21be f8cc 103d
00000030: d296 26bf c8da 0c3f e8fd 303b 8305 16bd
00000040: ae42 1ebe 75c2 983e f247 e23d 3439 87bb
00000050: bb3d d1bd 0621 cd3e 6209 02be 9c6c cebe
00000060: b639 6bbe ae41 1a3f bd69 2cbf 0cf0 09be
00000070: b90a 94be c799 ad3e aaa7 13bd d08c 01bd
00000080: 1ad6 0cbd 7cdd 59bd af20 fd3c d954 b73e
00000090: 692c ac3c 8c6b 2d3e 7d76 a8bd 2560 ef3e
000000a0: 74ff 233d 30ff 46bf 5cb4 a2bd bb52 ec3e
000000b0: d9ca 19be 92e5 61be c659 87be b92b 2cbe
000000c0: 2d74 853d 20c3 23bd 944a edba babc a23e
000000d0: e613 08be a38e 8a3d c7fb 003d fee7 9fbe
000000e0: a693 783e 9aa5 16bd 5f9d b8be d822 973d
000000f0: c188 23be 6c4e 09be 8f81 43be 1355 dbbd

h.0.ln_2.weight f4 [64]
1.0 1.0 1.0 1.0 1.0 1.0 1.0 1.0
1.0 1.0 1.0 1.0 1.0 1.0 1.0 1.0
1.0 1.0 1.0 1.0 1.0 1.0 1.0 1.0
1.0 1.0 1.0 1.0 1.0 1.0 1.0 1.0
1.0 1.0 1.0 1.0 1.0 1.0 1.0 1.0
1.0 1.0 1.0 1.0 1.0 1.0 1.0 1.0
1.0 1.0 1.0 1.0 1.0 1.0 1.0 1.0
1.0 1.0 1.0 1.0 1.0 1.0 1.0 1.0
00000000: 0000 803f 0000 803f 0000 803f 0000 803f
00000010: 0000 803f 0000 803f 0000 803f 0000 803f
00000020: 0000 803f 0000 803f 0000 803f 0000 803f
00000030: 0000 803f 0000 803f 0000 803f 0000 803f
00000040: 0000 803f 0000 803f 0000 803f 0000 803f
00000050: 0000 803f 0000 803f 0000 803f 0000 803f
00000060: 0000 803f 0000 803f 0000 803f 0000 803f
00000070: 0000 803f 0000 803f 0000 803f 0000 803f
00000080: 0000 803f 0000 803f 0000 803f 0000 803f
00000090: 0000 803f 0000 803f 0000 803f 0000 803f
000000a0: 0000 803f 0000 803f 0000 803f 0000 803f
000000b0: 0000 803f 0000 803f 0000 803f 0000 803f
000000c0: 0000 803f 0000 803f 0000 803f 0000 803f
000000d0: 0000 803f 0000 803f 0000 803f 0000 803f
000000e0: 0000 803f 0000 803f 0000 803f 0000 803f
000000f0: 0000 803f 0000 803f 0000 803f 0000 803f

h.0.ln_2.bias f4 [64]
0.0 0.0 0.0 0.0 0.0 0.0 0.0 0.0
0.0 0.0 0.0 0.0 0.0 0.0 0.0 0.0
0.0 0.0 0.0 0.0 0.0 0.0 0.0 0.0
0.0 0.0 0.0 0.0 0.0 0.0 0.0 0.0
0.0 0.0 0.0 0.0 0.0 0.0 0.0 0.0
0.0 0.0 0.0 0.0 0.0 0.0 0.0 0.0
0.0 0.0 0.0 0.0 0.0 0.0 0.0 0.0
0.0 0.0 0.0 0.0 0.0 0.0 0.0 0.0
00000000: 0000 0000 0000 0000 0000 0000 0000 0000
00000010: 0000 0000 0000 0000 0000 0000 0000 0000
00000020: 0000 0000 0000 0000 0000 0000 0000 0000
00000030: 0000 0000 0000 0000 0000 0000 0000 0000
00000040: 0000 0000 0000 0000 0000 0000 0000 0000
00000050: 0000 0000 0000 0000 0000 0000 0000 0000
00000060: 0000 0000 0000 0000 0000 0000 0000 0000
00000070: 0000 0000 0000 0000 0000 0000 0000 0000
00000080: 0000 0000 0000 0000 0000 0000 0000 0000
00000090: 0000 0000 0000 0000 0000 0000 0000 0000
000000a0: 0000 0000 0000 0000 0000 0000 0000 0000
000000b0: 0000 0000 0000 0000 0000 0000 0000 0000
000000c0: 0000 0000 0000 0000 0000 0000 0000 0000
000000d0: 0000 0000 0000 0000 0000 0000 0000 0000
000000e0: 0000 0000 0000 0000 0000 0000 0000 0000
000000f0: 0000 0000 0000 0000 0000 0000 0000 0000

h.1.mha.W_q.weight f4 [64, 64]
-0.014690277 0.19791491 -0.14797938 -0.1212993 0.06545296 -0.0009748353 -0.025687845 0.016446799
0.019909903 0.21634206 0.08514389 -0.14639796 -0.16163364 -0.041644443 -0.14613469 -0.081041336
0.016572706 -0.14642808 0.06054545 0.07112503 -0.1225281 0.10883549 -0.11819365 -0.033158123
0.11569911 0.042015772 -0.16725111 -0.33796358 -0.085893996 0.16368678 -0.1053465 -0.068117745
-0.15163898 0.14831331 -0.07186102 0.09255572 -0.04195498 0.19377312 -0.20574422 -0.066338174
-0.027441865 -0.07719504 -0.04796236 0.22380637 0.10052115 -0.11227958 -0.0071655004 0.12412071
-0.01833099 -0.08180504 -0.06221226 -0.046951745 -0.15425383 -0.15627511 0.12519366 -0.0039459714
0.1532609 -0.12867762 -0.09952088 0.019865582 0.14289697 -0.10682875 -0.10113843 0.053868692
0.023548784 0.10220413 -0.050763506 -0.07959897 -0.050951656 -0.016765527 -0.015638627 -0.06338447
0.008670156 -0.025000272 -0.06788704 -0.05846231 -0.0072425893 -0.0353416 -0.1524379 0.10447552
-0.008732188 0.12501603 -0.047703408 0.12933321 -0.012597913 -0.008787052 0.04414497 0.15278138
0.056123152 -0.08103311 0.0037723712 -0.008161273 0.04058307 -0.07541069 -0.08871915 -0.049706288
-0.012328119 0.110225 0.005400766 0.10119275 0.02543691 0.006448273 0.03813902 0.13113406
0.055153165 0.08980289 -0.11962934 -0.13153493 0.09933236 -0.0010625185 0.0067571606 -0.19120808
-0.11154307 0.0031546596 0.011058222 -0.084646136 -0.07662081 0.031957276 0.20590444 0.0324759
0.031666577 -0.13052446 0.046881277 0.09912735 -0.1045637 0.014900583 -0.01510118 0.08228941
0.055650245 0.05047051 0.020440578 -0.020145955 0.015620951 0.06619496 0.07504928 -0.05090093
-0.09056213 -0.17520039 -0.16042456 -0.112779155 0.018802866 -0.11156916 -0.17849185 -0.033968322
0.008028203 -0.0989117 0.11446494 0.08524252 0.07951017 0.046892058 -0.015957387 -0.0023501257
-0.06111134 0.038125403 -0.0006031499 -0.086072825 -0.029860655 -0.00010149095 0.11262598 0.16684908
0.21469188 -0.12647349 0.107717365 0.12479386 0.10392392 0.17441513 -0.05658527 -0.14022669
-0.0069725187 0.057220217 -0.14015362 0.071990855 -0.09351707 0.05458161 0.015686037 0.006560934
0.05992007 -0.015368272 0.06233079 0.14272828 -0.064397335 -0.09261853 0.16789532 0.19584824
0.035705872 -0.007915977 -0.06951597 -0.11918396 -0.068429165 -0.1266071 0.13778658 -0.028715933
0.055764817 -0.10050808 0.22909664 0.13893686 0.019822726 -0.022488602 -0.05450558 0.123060055
-0.22790486 0.10534421 -0.10093798 0.09210484 -0.010065364 0.049077958 0.009127684 -0.18288755
0.009262853 0.06401464 -0.12847449 -0.14691299 0.08115753 0.0577689 0.08935785 0.047169756
0.0051203943 -0.106592536 -0.1539001 0.026269272 0.039302826 0.019222884 0.121516086 -0.0045560403
0.08406548 0.14090385 0.13760944 -0.21055311 0.038983792 -0.009693032 0.17255048 -0.23865016
0.14682195 -0.08506816 -0.023328878 -0.119575605 -0.061138004 -0.10768773 0.13082506 0.12167141
-0.10824931 -0.06868064 0.21613744 0.025912946 -0.26496086 -0.17422718 -0.12176171 -0.042777378
-0.07892172 -0.06778025 -0.14870551 -0.08473355 0.13731901 0.0955432 0.22218768 -0.15385735
00000000: 7daf 70bc 35aa 4a3e e887 17be c46b f8bd
00000010: 340c 863d 178c 7fba 516f d2bc 70bb 863c
00000020: 181a a33c c688 5d3e eb5f ae3d 59e9 15be
00000030: 4a83 25be 5d93 2abd 55a4 15be 00f9 a5bd
00000040: 7cc3 873c 3ef1 15be 81fe 773d 00aa 913d
00000050: 03f0 fabd 24e5 de3d 830f f2bd d0d0 07bd
00000060: a8f3 ec3d bb18 2c3d e043 2bbe 9009 adbe
00000070: 31e9 afbd 829d 273e e8bf d7bd 5181 8bbd
00000080: 4047 1bbe 72df 173e df2b 93bd da8d bd3d
00000090: fcd8 2bbd 766c 463e 9dae 52be 4fdc 87bd
000000a0: c3cd e0bc 6f18 9ebd 2e74 44bd 7f2d 653e
000000b0: 08de cd3d d6f2 e5bd 93cc eabb 0033 fe3d
000000c0: df2a 96bc 6789 a7bd 48d2 7ebd 7950 40bd
000000d0: b7f4 1dbe 9506 20be c432 003e 354d 81bb
000000e0: 6df0 1c3e 11c4 03be 9ad1 cbbd 25bd a23c
000000f0: 9553 123e 08c9 dabd aa21 cfbd 6ba5 5c3d
00000100: 61e9 c03c 6650 d13d 65ed 4fbd c904 a3bd
00000110: afb2 50bd dc57 89bc 941c 80bc b8cf 81bd
00000120: 450d 0e3c 5fcd ccbc 5c08 8bbd 2d76 6fbd
00000130: 3e53 edbb 5bc2 10bd ae18 1cbe 43f7 d53d
00000140: 7311 0fbc 3404 003e a664 43bd ed6f 043e
00000150: 7a67 4ebc 91f7 0fbc 5bd1 343d b972 1c3e
00000160: 64e1 653d b0f4 a5bd e339 773b dcb6 05bc
00000170: 6f3a 263d eb70 9abd 63b2 b5bd d298 4bbd
00000180: e1fb 49bc a5bd e13d e9f8 b03b 253e cf3d
00000190: 1161 d03c 094c d33b a937 1c3d 0248 063e
000001a0: 49e8 613d 94ea b73d 3a00 f5bd 18b1 06be
000001b0: c46e cb3d 3444 8bba 2c6b dd3b 0dcc 43be
000001c0: b170 e4bd 68be 4e3b 8b2d 353c f45a adbd
000001d0: 5feb 9cbd a2e5 023d 9dd8 523e 7305 053d
000001e0: d0b4 013d 34a8 05be 9506 403d 4803 cb3d
000001f0: 7e25 d6bd 9321 743c f16a 77bc 5a87 a83d
00000200: 83f1 633d 2aba 4e3d 0073 a73c 2109 a5bc
00000210: 04ef 7f3c 3991 873d 70b3 993d 7e7d 50bd
00000220: a378 b9bd bb67 33be 5646 24be c2f8 e6bd
00000230: 7808 9a3c 5f7e e4bd 91c6 36be 5e22 0bbd
00000240: b988 033c 3892 cabd 986c ea3d a193 ae3d
00000250: 3ad6 a23d e311 403d 11b9 82bc 9104 1abb
00000260: e24f 7abd 6229 1c3d b41c 1eba f346 b0bd
00000270: 559e f4bc 8ad7 d4b8 73a8 e63d 7cda 2a3e
00000280: 30d8 5b3e 4482 01be ec9a dc3d ec93 ff3d
00000290: 10d6 d43d e199 323e f5c5 67bd 9697 0fbe
000002a0: ba79 e4bb bf5f 6a3d 6e84 0fbe f16f 933d
000002b0: e185 bfbd f790 5f3d 0180 803c 1afd d63b
000002c0: bf6e 753d 34cb 7bbc 924e 7f3d 5d27 123e
000002d0: c0e2 83bd c9ae bdbd c0ec 2b3e 718c 483e
000002e0: 5240 123d 04b2 01bc 645e 8ebd b816 f4bd
000002f0: 9724 8cbd 4ba5 01be ed17 0d3e ad3d ebbc
00000300: a669 643d 2ed7 cdbd 4f98 6a3e 7745 0e3e
00000310: 4563 a23c 043a b8bc 3e41 5fbd e906 fc3d
00000320: e45f 69be b5be d73d 92b8 cebd 76a1 bc3d
00000330: 32e9 24bc f805 493d 488c 153c e046 3bbe
00000340: 39c3 173c 1c1a 833d d18e 03be 5c70 16be
00000350: eb35 a63d 159f 6c3d 4001 b73d 1335 413d
00000360: fbc8 a73b 304d dabd fd97 1dbe a832 d73c
00000370: 00fc 203d 4f79 9d3c 6ddd f83d d64a 95bb
00000380: 862a ac3d 1949 103e 7de9 0c3e 3c9b 57be
00000390: 78ad 1f3d 86cf 1ebc 13b1 303e b560 74be
000003a0: 7e58 163e 3738 aebd 341c bfbc 0ee4 f4bd
000003b0: d86b 7abd 628b dcbd 01f7 053e dc2e f93d
000003c0: d0b1 ddbd 6fa8 8cbd 2253 5d3e 6347 d43c
000003d0: f3a8 87be 9c68 32be 345e f9bd 5537 2fbd
000003e0: b6a1 a1bd 5fd0 8abd 4246 18be c988 adbd
000003f0: 5b9d 0c3e 27ac c33d 2b85 633e c88c 1dbe
