subspace-alignment/data/2_layer_64_vocab/ckpt_140.pt (torch, 211552 bytes, 29 tensors)

embed.embed.weight f4 [128, 64]
000000 a8 75 47 be 29 5f 31 3f a3 c3 20 3f 9b bc df 3d
       -0.19478476 0.6928583 0.6279852 0.109246455
000010 d3 30 68 bd 33 09 43 bf a5 38 ac bf a5 11 27 bd
       -0.056687187 -0.7618591 -1.3454787 -0.04078831
000020 ff ba 0b bf 4c 8a 64 3e 78 25 be bf 20 b7 b0 3e
       -0.5458221 0.22318381 -1.4855185 0.34514713
000030 95 f7 24 be 71 87 65 bf c2 20 81 3f 2f ff 12 3d
       -0.1611007 -0.8965979 1.0088122 0.035887893
000040 98 9a 86 3e 6c 15 86 3d 43 e6 66 3f 52 88 4a bf
       0.2628982 0.06547055 0.901951 -0.7911426
000050 56 70 0c bf b9 9a c8 3f 81 5c b9 3f 37 84 85 bf
       -0.5485891 1.5672218 1.4481355 -1.0430974
000060 dd 24 0a c0 a0 33 bc 3f b0 cd 3f bf a4 82 0a 40
       -2.1585 1.4703255 -0.7492323 2.1642237
000070 f2 0c 6c 3f 60 26 33 3f 50 b6 1a bf 14 60 18 3f
       0.9220725 0.6998043 -0.60434437 0.59521604
000080 93 e8 73 3f 73 2a 6e bf 38 3f d8 3e 94 17 84 bf
       0.95276755 -0.9303352 0.42235732 -1.0319695
000090 f8 c3 9b bf 2e 46 1a 3f f0 aa 56 bf 90 bd 1e 3f
       -1.216918 0.60263336 -0.8385458 0.62008
0000a0 fc 9d d1 bf af 3c 69 bf e7 2f 5d 3e d2 f7 2f 3f
       -1.6376338 -0.9110822 0.21600305 0.6873752
0000b0 18 f5 a2 3f a1 0d 62 3f 24 96 ec be 1c 95 3f bf
       1.2731047 0.88302046 -0.46208298 -0.748369
0000c0 c7 c2 6d bf 7f 45 d3 bf af f0 92 bd 7e 92 cc be
       -0.9287533 -1.6505584 -0.07174813 -0.39955515
0000d0 bf b8 e7 3e 1f 9c 8e 3f b1 d0 98 3d 4d 22 64 bf
       0.45258138 1.1141394 0.0746168 -0.8911484
0000e0 77 a9 cd 3e 86 f4 ec be 40 a6 95 bf ae fe c7 bf
       0.40168354 -0.46280307 -1.169136 -1.5624597
0000f0 71 70 e0 3e 16 dd ac be 13 14 ba bd 26 ed 4f 3f
       0.43835786 -0.33762425 -0.0908586 0.81221235
000100 e3 bc 23 3f ab f1 96 bf 2c 5a a0 bf 44 bb 02 3e
       0.63960093 -1.1792501 -1.2527518 0.12766749
000110 b1 c0 01 40 a4 ec 94 bf 0c 41 8a be f6 18 e2 be
       2.027386 -1.1634717 -0.27002752 -0.4415967
000120 3c b5 8d 3e 20 48 9b be e7 1e 3c 3e 62 e2 bc 3e
       0.27677333 -0.30328465 0.18371163 0.36891466
000130 e7 2f 05 3f d2 bd 8c 3e 35 45 3d 3e 8b 1b 70 3f
       0.5202622 0.2748857 0.18483432 0.9379203
000140 47 94 ad 3f c3 c0 f1 be ac 01 9d 3f 46 b4 9d 3e
       1.3560876 -0.47217378 1.2266135 0.308016
000150 be 4c a6 3e 52 8a da be ff 25 d5 3f 12 ba d8 3e
       0.32480425 -0.42683655 1.665222 0.4232946
000160 42 c5 e5 3d d2 cd 8a 3f de f0 a5 bf 26 ed b8 3e
       0.112192646 1.0844061 -1.2964132 0.3611843
000170 15 04 03 c0 31 cd ff 3f 22 b2 14 3e 82 49 8d bf
       -2.0471241 1.9984494 0.14521077 -1.1038058
000180 cd 0e a1 bf 90 fd b2 bf 60 da 2f 3f 7a 95 20 bc
       -1.2582642 -1.3983631 0.6869259 -0.009801263
000190 f7 04 81 3f 49 ed 4a 3f bd 6a 9d 3f b9 09 b5 3d
       1.007964 0.7926832 1.2298199 0.08839745
0001a0 35 c2 8a bf e9 7a f9 bd 66 0f 92 3f 77 db ba 3e
       -1.0840517 -0.121816464 1.1410949 0.36495563
0001b0 a0 50 1f bf a3 05 19 bd 78 dc b7 bf 1f 8f c0 bf
       -0.622324 -0.03735889 -1.4364157 -1.5043677
0001c0 ed c5 b1 be 66 52 f5 bd 81 c9 a0 3f a3 ed 90 bd
       -0.34721318 -0.11978607 1.2561494 -0.070765756
0001d0 6d cf 2b bf d0 89 13 3d 38 b7 84 3e 28 fc 6b bf
       -0.6711338 0.0360201 0.25921035 -0.92181635
0001e0 3e 6b b9 3d 6e 31 4e bf 5c ca 31 be 6e b5 d1 bd
       0.09053658 -0.80544174 -0.1736235 -0.10239683
0001f0 d2 64 f8 3e b7 69 1d c0 6b 8e 88 bf dd f4 c3 3e
       0.4851442 -2.4595773 -1.0668463 0.38272753
000200 f6 3c 59 3f 37 d4 77 3f 46 ca ba be 41 5b 4e be
       0.84858644 0.9680819 -0.36482447 -0.20151998
000210 7e e2 31 be 37 0a 49 3f 2f 44 1f bf 6e cf d1 bf
       -0.17371556 0.7853121 -0.62213415 -1.6391428
000220 14 91 ac 3e 6c e4 86 bf 26 e1 d6 3e d7 10 e3 be
       0.33704436 -1.0538459 0.4196865 -0.44348785
000230 40 8e 2a bf a9 a6 4f 3f 75 93 a5 3e b9 39 e2 3e
       -0.66623306 0.8111368 0.32339063 0.44184664
000240 78 4d 31 bf a0 4e 71 bf 99 95 eb bf 76 7f 4d bf
       -0.6925883 -0.942606 -1.8405029 -0.80272615
000250 c8 1a 1b 3e 0a 94 a0 3f 50 15 87 bf 9c 1d 0e bf
       0.15146935 1.2545178 -1.0553379 -0.5551393
000260 f9 a6 d6 3e e6 2a f9 3e 9b 7d 2d bf cb a5 5a 3e
       0.41924265 0.4866554 -0.67769784 0.21352307
000270 df 4c 8c bf 95 db d0 3f 7b 6f 98 3f 3c 5c 15 3f
       -1.0960959 1.6317011 1.1909021 0.58343863
000280 77 f1 75 bf b6 1f f5 3e 2b 1c b0 3e 48 38 a9 3f
       -0.9607157 0.47875756 0.3439649 1.3220301
000290 7c 4c 92 bf b0 c2 c4 bf d3 ea d5 be c2 d8 21 40
       -1.1429591 -1.5371914 -0.4178072 2.5288548
0002a0 c5 03 11 bf 78 f0 87 bf cb 97 4f bb 62 8d b8 3d
       -0.56646377 -1.062026 -0.003167617 0.09011342
0002b0 ba d3 43 bd 00 99 6e bf 65 04 5d 3f 4b 7f 9d be
       -0.04780934 -0.9320221 0.8633483 -0.3076118
0002c0 ef aa 7e be f1 70 a4 bf 1c d7 0e 40 d2 a0 ec bc
       -0.24869893 -1.2846967 2.2318792 -0.028885279
0002d0 46 01 35 3e 7d 06 22 bf 9d 07 da bf ac a6 ec be
       0.17676267 -0.6329115 -1.7033573 -0.4622091
0002e0 04 b8 47 3f c3 53 e6 3c 3a bc 14 bf a9 26 6c 3f
       0.7801516 0.028116113 -0.5809971 0.9224649
0002f0 44 51 26 c0 05 19 1b 3f ac 7a c1 3e b4 4b 88 3e
       -2.59871 0.6058505 0.37788904 0.26620257
000300 91 22 ae bf ef 1d 9f 3f 60 82 32 3d 78 00 27 be
       -1.3604299 1.243101 0.043581367 -0.16308773
000310 49 5e d1 bf 03 73 f7 be 0f 4b bf 3f 07 32 f1 3e
       -1.6356899 -0.48329934 1.4944781 0.4710848
000320 79 64 b1 bf 68 89 a0 bf 74 c0 ec bf b0 e2 c2 be
       -1.3858787 -1.2541933 -1.8496232 -0.38063574
000330 55 ec 2a c0 15 72 18 40 98 7d a8 bf 16 a3 f1 3e
       -2.6706746 2.381963 -1.3163328 0.47194737
000340 61 57 e4 3e 10 67 79 be 3a 07 60 3f 0a 7d a4 3e
       0.44597915 -0.24355721 0.87511027 0.32126647
000350 e0 37 66 3f 59 bf 45 bf 1a 6d c3 bf cd 0e 31 3f
       0.8992901 -0.772451 -1.526767 0.6916321
000360 b0 24 04 c0 32 eb cb 3f 1c bd 89 3e 98 65 13 3f
       -2.0647392 1.5931151 0.26902092 0.57576895
000370 25 a0 ce 3e d0 63 a8 be ae 80 df be e0 12 85 3f
       0.40356556 -0.3288865 -0.43652862 1.0396385
000380 f0 b4 62 3f c4 a3 56 3f b8 94 3a bf 4f 2f 73 bf
       0.8855734 0.83843637 -0.72883177 -0.9499406
000390 ca 1e 53 3d 3c 66 6b bf 97 15 ef 3e ac 4c ad 3f
       0.051543035 -0.9195287 0.4669616 1.3539023
0003a0 e8 bf e7 3f f3 c6 d4 bc 2d 1c 80 bf 80 87 5c 3f
       1.810544 -0.025973773 -1.0008599 0.86144257
0003b0 d2 0e 7c 3f c5 3f f0 3f ff bc 46 3f 55 74 4a 3f
       0.98460114 1.8769461 0.77632135 0.7908376
0003c0 1a ce 5e 3f 60 58 5a bf 41 7f f3 3e 51 23 22 3d
       0.87033236 -0.852911 0.47558025 0.03958446
0003d0 5b 74 b9 bf 37 86 a2 3f 5a 6f d7 3e 3b cb fb be
       -1.4488634 1.2697209 0.42077142 -0.4917849
0003e0 46 46 f0 3e 0f d0 aa 3f 8e f7 35 c0 5b 5e 83 be
       0.46928614 1.3344744 -2.8432345 -0.25657925
0003f0 ef 3b e4 3d 95 3c 27 bf aa 77 63 bf a4 79 e8 bd
       0.11144244 -0.65326816 -0.8885447 -0.11351326

h.0.mha.W_q.weight f4 [64, 64]
000000 a3 73 c2 3d 9e 23 89 3d 5f c8 bb 3d 71 d0 fd 3c
       0.09494712 0.066962466 0.09169077 0.030983182
000010 42 ed cc bc 52 aa cd 3d 0e 9b 2c 3c 98 e6 67 3d
       -0.025015477 0.10042252 0.010535015 0.056616396
000020 0c 59 7a bd 71 88 81 bd 9a 8a ea bd 9d a7 82 3d
       -0.061120078 -0.06324852 -0.114522174 0.06379626
000030 f3 a6 be 3d c9 29 73 bc 87 23 e6 b9 72 f0 43 bd
       0.09309187 -0.014841505 -0.00043895488 -0.04783673
000040 0a a7 0e 3e b7 b4 57 3d cf 54 d3 3d 36 42 92 bd
       0.13930908 0.052662577 0.1031891 -0.07141535
000050 cf 3c a5 bc 15 23 f8 3d 0e 89 dc 3b a3 d6 36 3d
       -0.020170597 0.12116066 0.0067302054 0.044638287
000060 3e 4f c5 3c 12 b5 ba 3d 40 25 01 3d 9e b8 bd bd
       0.024085637 0.09116568 0.031529665 -0.092637286
000070 79 48 83 bd 7b e0 a3 bd 66 16 e5 3d 45 e6 f3 3d
       -0.064103074 -0.080018006 0.11185913 0.11909155
000080 bc b7 e5 bd d5 f2 fd bc 4b c9 e8 bc 63 0b 07 bb
       -0.11216685 -0.03099958 -0.028416296 -0.0020606152
000090 b8 3a 89 bb b3 b5 49 3d 5e e8 8b bd 0a 10 1e bd
       -0.004187908 0.049245548 -0.0683143 -0.038589515
0000a0 c1 9b f3 3d 90 8e c6 bc b6 9b de 3d f1 c1 a4 3c
       0.11894942 -0.024237901 0.10869543 0.02011201
0000b0 5a 8c a7 3d fb 70 b1 3d 88 71 8b 3d e9 f8 65 3d
       0.08181067 0.086641274 0.06808764 0.056145582
0000c0 fb 95 7f bc 63 d6 af 3d 3d 6c 02 3e 48 19 cb 3d
       -0.015599723 0.08585813 0.12736602 0.099169314
0000d0 a2 97 63 bd 71 73 d1 bd 33 c3 0e bd 33 af 7b bd
       -0.05556453 -0.10227097 -0.034854125 -0.06144638
0000e0 37 2d be 3d 58 0f 86 3d d0 a9 7c bd e9 d1 26 3d
       0.09285968 0.06545895 -0.061685383 0.04072753
0000f0 10 8e 15 3d 02 bf b2 bd 2c f6 c6 3d 09 3d ad bd
       0.036512434 -0.08727838 0.09714922 -0.08458907
000100 26 a7 ac 3c 95 75 b6 bd 91 02 2e bd ab 22 88 bd
       0.021075796 -0.08909146 -0.042482916 -0.066472374
000110 74 6a 93 bd 77 ea cc 3c ba 97 f8 3d b0 82 29 3d
       -0.07198039 0.025014145 0.121383145 0.0413844
000120 db ae d9 3d 56 12 e5 bc 9f 6e 6e bd 64 9a c8 3d
       0.10629054 -0.027962845 -0.058210965 0.09795073
000130 bb 07 ab bd d2 22 5c 3d 1e ab 65 3c a7 21 29 bd
       -0.08351084 0.053744145 0.014017848 -0.04129186
000140 30 26 3f bd bf 92 20 3c dd 98 c1 3d da c9 7a 3d
       -0.046667278 0.009800612 0.094529845 0.061227657
000150 0c 63 e9 bd b1 3c f0 3c d3 45 c7 bb d2 23 a0 bd
       -0.11395845 0.029325815 -0.0060813217 -0.07819332
000160 dc 2e b3 3d 24 00 c4 bd bd 9f 9d 3d 7f 30 43 3d
       0.08749172 -0.09570339 0.07696483 0.04765367
000170 55 07 20 3a 1c 5a 88 3d c5 9a af 3d 42 4e 9f 3d
       0.0006104608 0.06657812 0.08574442 0.07778598
000180 3c dd 4b 3d a2 4d bc 3d ef af 7b 3d 0e 69 a8 bd
       0.049771532 0.09194495 0.06144708 -0.082231626
000190 a7 0d b6 3c 96 c2 8a bd b0 68 36 3d e3 82 c2 3d
       0.022223307 -0.067753956 0.04453343 0.09497621
0001a0 38 c4 5d 3d 7c d9 50 bb 5c 5b 57 bd 3d cf 72 bc
       0.054142207 -0.0031867912 -0.05257736 -0.014819917
0001b0 72 dc 73 bd 3f 63 c1 bd a1 f9 b8 3d b9 fd d0 3c
       -0.059536405 -0.09442758 0.09031988 0.02551161
0001c0 70 71 d2 3d c0 8b 9e bb 91 e9 1d bd e2 72 d9 bd
       0.10275543 -0.004838437 -0.038552824 -0.10617615
0001d0 48 a8 4b 3d 9b a9 e7 3c 89 30 b4 bd d8 e2 37 bd
       0.049721032 0.028279116 -0.0879832 -0.04489407
0001e0 48 7f 9a 3d c2 a1 d2 bd c1 a4 0b 3c d8 0f ba bc
       0.07543808 -0.10284759 0.008523167 -0.022712633
0001f0 50 f1 59 bd 38 69 4c bd 57 02 8b bd 0f 8d d2 3d
       -0.05320865 -0.049905032 -0.06787556 0.10280811
000200 a1 77 84 bd ab 79 d2 bb 51 ab a8 bd 5f e5 b0 bd
       -0.0646813 -0.0064231954 -0.08235801 -0.08637499
000210 c0 97 80 bb d4 34 38 bc a6 3c 71 3d 8a 38 a1 3c
       -0.00392434 -0.011243064 0.05889573 0.01968028
000220 6b c9 8b 3d 22 15 50 bd 0e 61 9b 3d f5 c5 2e bc
       0.06825527 -0.050801404 0.07586871 -0.010667314
000230 b2 02 d7 bd ab 1d 22 3d a7 bb 34 bd b1 33 c1 bd
       -0.10498561 0.039579075 -0.04412427 -0.094336875
000240 80 ce 01 3d 32 c4 09 3d dd 57 e5 bc 97 57 a7 3d
       0.031691074 0.033634372 -0.027995998 0.08171003
000250 83 ef 72 bd 64 ea 95 3c 0b 9b 34 bb ff bf 42 3d
       -0.059310447 0.018300243 -0.0027558233 0.047546383
000260 3a 3d 7a 3d 69 32 a0 3d 16 03 f0 3c bd ed ae bd
       0.061093546 0.07822115 0.029298346 -0.08541439
000270 23 17 df 3d 89 f1 f0 bb 0c 8b 1f bd 13 66 40 3d
       0.10893085 -0.007353012 -0.038950965 0.046972346
000280 b6 6f 91 3d 9a 4d 33 bc c7 34 95 3d 44 13 a8 3d
       0.07101385 -0.010943795 0.07285457 0.082067996
000290 b7 15 bd 3d 55 49 05 be 73 66 9f 3d 2c 2b a5 bd
       0.092326574 -0.13016255 0.077832125 -0.08064875
0002a0 23 77 4d bd a2 85 a6 bd dd 68 2a bd ce 1e 19 bd
       -0.050162446 -0.08130957 -0.04160391 -0.037382893
0002b0 1e 0e 02 3e f0 c5 11 3d 6f c4 0f bd ab 3e fa bd
       0.12700698 0.03558916 -0.035099443 -0.12218984
0002c0 ff ad de bd f5 cc f8 bd 73 e1 9e 3b 1a 3b 01 3d
       -0.10873031 -0.121484675 0.004848653 0.031550504
0002d0 7b 1f 9f bd 91 bd b0 bd 52 1f dc bd de ae c3 bd
       -0.07769676 -0.08629907 -0.107481614 -0.09554838
0002e0 07 8a 08 3d fa 66 3f bd 13 3f 28 bd bf db 75 bd
       0.033334758 -0.046729065 -0.041075777 -0.06002402
0002f0 a3 b4 d8 bd c7 4a 24 bd 53 35 be bd ec a2 24 3d
       -0.10581329 -0.040110376 -0.092875145 0.040194437
000300 b6 a2 02 be 44 d8 8b bd b6 50 ff bb 5c 1b db 3d
       -0.12757382 -0.06828359 -0.007791604 0.10698578
000310 a5 1b d8 3d 20 06 9b 3c 43 99 ea 3d d4 00 a1 3d
       0.10552148 0.018923819 0.114550136 0.07861486
000320 da ac d8 bc c2 fc 03 3c 5e 61 a7 3d eb c5 f0 bb
       -0.02644961 0.008055868 0.08172868 -0.0073478124
000330 11 f9 94 bd 5f 39 a6 bc 8d 0d 94 bc d7 ce 77 bc
       -0.07274068 -0.020291029 -0.018072868 -0.015124998
000340 f5 3d 5a bd 73 2d 8f bb 9f f8 53 3d 73 bb 7b bd
       -0.053281743 -0.0043694316 0.051750775 -0.061458062
000350 6f 16 73 bd ee 0e 58 3a 25 ed d5 bd 56 d3 8d 3d
       -0.059347566 0.0008241971 -0.10445622 0.06925075
000360 60 25 c1 bd a5 ae e9 3d 5e ae 8c 3d d1 a4 f3 3c
       -0.09430957 0.11410264 0.068691954 0.029741677
000370 0a 91 27 bd 0a 20 a8 bd 10 9c b8 3d 2f 60 91 3d
       -0.040909804 -0.08209236 0.090141416 0.07098424
000380 57 db b2 bc 60 34 a3 3d 7f 33 97 3d 31 48 83 bd
       -0.021833105 0.07968974 0.07382869 -0.06410254
000390 01 cc 59 bd 45 c7 b2 3d 32 56 de bd cc 2d 57 3d
       -0.05317307 0.08729414 -0.10856284 0.05253391
0003a0 3a 41 18 3d ff c3 8f bd 90 ca b5 3d e1 9a 30 bd
       0.03717158 -0.07019805 0.08876526 -0.043116454
0003b0 9d d7 77 3b 49 08 e3 3b d7 ef 5b bb c0 60 58 3d
       0.0037817725 0.006928478 -0.0033559704 0.052826643
0003c0 c3 b2 15 bd e0 78 a4 3d 3a bf 2b 3b 89 01 ae bc
       -0.036547434 0.080308676 0.002620651 -0.021240966
0003d0 54 e2 a3 bd 7f a9 d2 bd a7 d8 a2 bd a9 77 2e bd
       -0.08002153 -0.10286235 -0.079514794 -0.042594586
0003e0 8d e5 80 3d 56 41 d6 bd aa eb 6f bc 14 f1 d8 3d
       0.06293783 -0.104616806 -0.014643589 0.10592857
0003f0 5a 00 67 3d 41 db 9b 3d 63 da 55 bd 44 c4 ae 3d
       0.05639682 0.07610179 -0.052210223 0.085335284

h.0.mha.W_q.bias f4 [64]
000000 66 1e e2 3d 66 d8 a2 bd cf ec d8 bd 39 99 ca 3d
       0.11040954 -0.07951431 -0.10592043 0.09892506
000010 38 86 a4 3d 2f 8e fe bd 75 1e cc bd 08 b6 00 be
       0.08033413 -0.12429463 -0.09966747 -0.1256944
000020 19 84 c0 bd a3 4e 03 3e 0a ec 42 be 5f 96 88 3d
       -0.09400196 0.12822966 -0.19035354 0.06669306
000030 c0 52 1f 3e d8 f3 b8 3d 24 d3 3f bd b9 12 46 be
       0.1555891 0.090308845 -0.04683222 -0.1934308
000040 91 00 bf 3a 20 06 34 be c0 2e 34 be 4b 25 fd 3d
       0.0014572312 -0.17580462 -0.17595959 0.12360629
000050 12 5f 3b 3e 39 a7 06 3e 74 42 5d 3d 00 23 45 3d
       0.18297985 0.13149728 0.054018453 0.04812908
000060 31 11 6f 3d e2 8e a0 bd f4 55 54 3d e6 6d ac bc
       0.058366004 -0.07839753 0.051839784 -0.021048497
000070 e6 d6 0d bd 38 ef 3d 3c 88 a0 13 3d b8 95 95 3d
       -0.03462877 0.011592679 0.036041766 0.07303947
000080 09 76 f2 3d af 1d dd bd 48 dc ac bc af cf d3 bd
       0.1183892 -0.10796677 -0.021101132 -0.10342347
000090 34 f0 53 bc c7 77 56 bd 3f cd 0f be 25 29 0e 3e
       -0.012935687 -0.052360322 -0.14043139 0.13882883
0000a0 de d2 4e bc 2c 0f 28 be f8 cd 90 bc 03 67 44 bc
       -0.012623517 -0.16412038 -0.017676339 -0.0119874505
0000b0 7d 70 32 3e 65 69 a4 bd cd 83 cb bd 23 9b 08 be
       0.17425723 -0.08027915 -0.099372484 -0.1334043
0000c0 03 46 8e bd 08 28 6f 3d 9f 78 22 be 08 8b 15 3e
       -0.069469474 0.058387786 -0.15866326 0.14603817
0000d0 c2 c4 17 be cd a9 b5 bd b6 a4 9e bd ad b1 9e bd
       -0.14821151 -0.088702776 -0.0774626 -0.07748733
0000e0 5e 95 65 bd 2b 46 da 3d f5 01 8d bd 8c 8c dc bc
       -0.05605065 0.10657915 -0.06885139 -0.026922487
0000f0 86 db 34 be 8b 35 4a 3e 19 fd c8 3d 31 60 bb 3d
       -0.17661867 0.19746988 0.098138995 0.091492064

h.0.mha.W_k.weight f4 [64, 64]
000000 96 cb da bd d9 75 1b 3e b0 1e 4e bd 67 48 c4 3d
       -0.10683362 0.15181674 -0.050322235 0.09584122
000010 c2 86 1f 3d 9b 2c 02 3d 1c e9 47 3c 3e 8d a8 bc
       0.038946874 0.03178082 0.012201574 -0.020575162
000020 bf 29 c4 bd 1f 75 97 bd 7b e2 e0 3d e2 04 d6 bd
       -0.09578275 -0.07395386 0.10980698 -0.1045015
000030 0e 9b 8d bc 08 bc ac bc 16 55 e6 bd 2e 99 94 bd
       -0.01728585 -0.021085754 -0.112466976 -0.07255779
000040 07 69 0b 3c 24 09 af bd d3 5e 52 3d 89 49 ca 3d
       0.008508927 -0.08546665 0.051359963 0.09877307
000050 1f 02 d8 3d 7d 1c fa bc 5f 99 26 3c fc 51 ed 3d
       0.105472796 -0.030531162 0.010168402 0.11587903
000060 ff 4c a1 3d d7 ac e3 3d 0d c4 fd 3d 4f 44 db bc
       0.07876014 0.11116951 0.12390909 -0.02676597
000070 16 b2 94 bd d3 be e1 3d 70 f8 77 bd 4e bb 60 bd
       -0.0726053 0.11022725 -0.060539663 -0.054866128
000080 d2 63 94 3b 05 17 fa b9 15 f9 d7 bd 6d 47 7a 3d
       0.004528501 -0.00047700867 -0.105455555 0.061103273
000090 96 d9 db 3d 3f e3 16 be 6f b1 7f bd 5f 28 3a bc
       0.107348606 -0.14735125 -0.062425073 -0.011362164
0000a0 96 2c 60 3d 50 18 7c bd 12 c7 63 bc 26 bf 83 3d
       0.05473002 -0.061546624 -0.0139024425 0.06432943
0000b0 0d 98 3a bd c2 fa 8d bd 66 91 1c 3e 01 4e 35 3d
       -0.045555163 -0.06932594 0.1528984 0.044263843
0000c0 28 29 b2 3c 46 12 7d bc a0 55 82 bc 32 63 c8 bd
       0.02174814 -0.015446251 -0.01590997 -0.09784545
0000d0 a3 6f 0b be 30 ac 8c bd 01 a8 81 bc ca bf 9f 3d
       -0.13616805 -0.0686878 -0.01582718 0.07800253
0000e0 04 82 15 3d ae 6f db 3d 6b c6 39 3d e5 a9 4e 3c
       0.036500946 0.107146606 0.04535524 0.012613748
0000f0 f5 3f 3a 3d a2 ec 9f 3c 5f ae 05 bd d1 60 38 bd
       0.04547115 0.019522015 -0.032636996 -0.045014206
000100 9c 90 bc 3d 8b 90 bc 3d 1a e0 10 3e 34 47 e5 bd
       0.092072695 0.09207257 0.14147988 -0.111952215
000110 19 fc a3 3d bf 95 f1 3c 5a 44 b6 bd c9 3f 89 3d
       0.08007068 0.02949035 -0.08899756 0.06701619
000120 8c 27 00 be e9 15 31 bc 6e 14 fd bd 39 ce 9a 3c
       -0.12515086 -0.010808446 -0.12357412 0.018897163
000130 bd ca 0d be 98 56 bb bc 96 bc b0 3c 00 70 50 bc
       -0.1384687 -0.02286844 0.0215743 -0.012722015
000140 c7 da 81 3d 6d d3 fd 3d b9 9a cc 3d 75 e8 92 3c
       0.063405566 0.12393842 0.099904485 0.01793311
000150 96 23 13 3d 31 95 7a bd cb f4 b9 3d 10 48 e1 bd
       0.03592261 -0.061177436 0.09079894 -0.11000073
000160 c8 89 05 bd 10 4b 0f 3d ad 5f 05 be 73 6d dd 3d
       -0.0326021 0.034983695 -0.13024779 0.108118914
000170 b6 d6 ed 3d 6c 76 87 bd af 96 8f 3d 04 d1 7d bd
       0.116132185 -0.06614384 0.070111625 -0.06196691
000180 96 4d 8b bd c5 9e 95 bd 0d 48 c5 3d d0 13 5e 3d
       -0.06801908 -0.073056735 0.09632883 0.054218113
000190 c5 41 b8 bd fb 39 00 be 8c 71 65 3b f9 2e 0e 3e
       -0.089969195 -0.12522118 0.0035010306 0.13885106
0001a0 df bc e1 bc be 0e a2 bc 75 6c 82 bd 7f 88 b7 bd
       -0.027555881 -0.01978242 -0.06368343 -0.089615814
0001b0 39 76 d8 3d 0c 94 a0 3d 82 34 eb 3d 53 0a b0 3d
       0.10569424 0.07840738 0.114846244 0.08595719
0001c0 ec 50 58 bc 1b 2b 96 bd 2e d8 d8 3d 76 8d 12 bd
       -0.013202887 -0.073324405 0.10588108 -0.03577944
0001d0 19 8c ad bd 39 60 6e bd 4f dd 33 bc 56 1b 9a 3d
       -0.08473987 -0.058197234 -0.010978057 0.07524745
0001e0 5e 45 cb 3d 8c 7a 49 3d 11 12 8b bd 96 b1 00 3c
       0.0992534 0.049189135 -0.06790555 0.00785484
0001f0 25 74 6e 3d 97 d0 bf bd 7e 3a 00 3c 78 0a ec bd
       0.058216233 -0.09365957 0.007826446 -0.11525434
000200 07 55 85 bc cb 73 45 bd 95 69 65 3b c8 8a b2 bd
       -0.016275896 -0.048206132 0.0035005559 -0.08717877
000210 3b cd 88 3d 99 26 04 3c 12 bb 80 3c 04 58 21 bd
       0.066797696 0.008065843 0.015714202 -0.03939058
000220 d5 1b f6 3c a2 a2 60 3c e8 96 1a bd 01 75 3a 3d
       0.030042568 0.01371065 -0.03774157 0.04552174
000230 44 3a 60 bc cb 5e b7 bc b5 f3 0f 3c ec 88 b4 bd
       -0.013685767 -0.022384068 0.008786132 -0.08815178
000240 7f d3 59 3d 94 66 9b 3c 08 6b c3 3d 50 78 bd bc
       0.053180214 0.018969811 0.09541899 -0.023128659
000250 90 1f e5 3d 90 27 b7 bd 01 38 cf 3d 2e 43 dd bc
       0.11187661 -0.08943093 0.10118104 -0.027009573
000260 63 c3 d9 3d c7 c7 1e bd 27 c4 41 bd 31 35 d0 bd
       0.1063297 -0.03876474 -0.047306206 -0.101663955
000270 3f 07 15 3d d0 37 93 bd 21 23 ac 3d 3a 77 43 3d
       0.036383864 -0.0718838 0.08405138 0.047721125
000280 93 31 dc 3d d3 5a cb 3d dc 63 0e be 5b b4 92 3b
       0.10751643 0.09929433 -0.13905281 0.0044770665
000290 45 82 12 bd 26 b8 98 3d 0a 3c e0 3d b9 c8 75 3d
       -0.035768766 0.074569985 0.109489515 0.060005877
0002a0 a9 a8 d8 bc da 45 07 3e cb 00 99 3a 44 d8 cd 3d
       -0.02644761 0.1321024 0.001167321 0.10051015
0002b0 c2 c0 ad 3d 93 07 ae bd 00 cd 44 3d 20 4f 49 bc
       0.08484031 -0.084975384 0.048047066 -0.012286931
0002c0 34 43 bc 3c ff df cc 3d 66 48 06 be ad 35 3a bd
       0.022981264 0.10003661 -0.13113555 -0.045461345
0002d0 e4 42 e4 bb 0a d3 8a 3d f7 ef df 3d 6e ed 62 3d
       -0.006965982 0.06778534 0.109344415 0.05540221
0002e0 b7 36 2b 3d 53 b9 82 bd c3 f5 81 3d 2c 0c 41 bd
       0.041800227 -0.06383004 0.063457035 -0.04713075
0002f0 ed c4 76 bd 16 91 f7 bc 0c 87 72 3d e5 b4 f5 3c
       -0.060246397 -0.03022055 0.059210822 0.029993484
000300 0e 20 2f 3d ec da f8 bc b4 a8 59 ba 46 cc e2 3d
       0.04275518 -0.030377828 -0.0008303032 0.11074118
000310 82 01 8a bd 60 69 52 3d 23 1a 3c 3c 77 5f b3 bc
       -0.06738569 0.051370025 0.011480841 -0.021896107
000320 76 df f2 bc 5a 5a 71 3d 79 d9 52 3d 01 48 46 3c
       -0.02964757 0.058924057 0.05147693 0.012102128
000330 93 e8 39 3c b7 fd d0 3d db 7a fe bc 67 e4 c1 bd
       0.011346954 0.10204642 -0.031064441 -0.094673924
000340 12 9c 8f 3d 85 12 93 3d 46 9a 82 bd c2 5e 2f 3d
       0.0701219 0.07181267 -0.063770816 0.042814977
000350 bb 0f d3 bc e8 70 bc bd d8 11 84 3c 7e 84 37 3d
       -0.025764337 -0.09201223 0.01612179 0.04480409
000360 81 35 43 bd 73 27 83 bd b8 c0 b5 bc 5a 92 7d bd
       -0.047658447 -0.06404009 -0.022186622 -0.06190715
000370 40 2e 10 bd 99 db 7c 3d 85 30 e6 bd 7e 60 36 bd
       -0.035200357 0.061732862 -0.11239723 -0.044525616
000380 ea cd 1d bd 74 da 7e bc 0a 89 1a bd cb 0b 32 bb
       -0.038526453 -0.015555013 -0.037728347 -0.0027167674
000390 41 37 65 3d 1a 19 85 bc 33 b0 c6 3d cf 85 6c 3d
       0.055960897 -0.01624732 0.09701576 0.057744797
0003a0 30 bd 92 3d d2 70 3b bd 58 8e 92 bd 66 96 ab bd
       0.07164991 -0.04576189 -0.07156056 -0.083782956
0003b0 48 89 da bc 1a 66 44 3d 33 80 11 3d 4c ea 1a 3e
       -0.026676789 0.047948934 0.03552265 0.1512844
0003c0 cb dc 1a 3d 2a b0 03 be ec 5c 63 bd c8 ce 24 3e
       0.03780822 -0.1286017 -0.05550854 0.16094506
0003d0 68 3b 71 3c e6 77 39 3d ba ce 65 bd 0f bd c6 bd
       0.014723636 0.04528036 -0.056105353 -0.09704029
0003e0 2d 37 e0 bd ae 38 18 3e 60 1f b1 3d d3 bc 54 3d
       -0.10948024 0.14865372 0.086485624 0.05193789
0003f0 64 f4 dc 3d 5d 0f 9e 3d 14 d6 ef 3d b5 59 8a bc
       0.10788801 0.07717774 0.11710754 -0.016888479

h.0.mha.W_k.bias f4 [64]
000000 b6 4e 9e 3c b5 f8 d7 bd 3f f1 3d 3d f4 1d 70 bd
       0.019324642 -0.10545484 0.04637265 -0.058622316
000010 84 d8 52 3d a0 f5 d4 3d 72 7b 49 3d 47 fd 8d bd
       0.051476017 0.10398412 0.049189992 -0.069330744
000020 43 0d 93 bd 6e 95 f5 3d e1 f0 92 3d dc 8b 54 bd
       -0.07180264 0.11991392 0.0717485 -0.051891193
000030 93 fe 2c be b8 9b 5f bd b6 a5 a5 3d 08 43 a7 bd
       -0.16893987 -0.054591864 0.080882475 -0.08167082
000040 bd fa 1f 3d fa 2d a7 bd 13 64 45 bc 2b 4d 5d bd
       0.039057482 -0.08163066 -0.012047785 -0.05402867
000050 2e 68 e0 3d 05 3a 98 bc 4d 8e b1 bd f3 a7 c3 3d
       0.10957371 -0.018582353 -0.0866972 0.09553518
000060 f2 4b b9 3d cf 98 93 bd 16 23 a8 bd ef 54 86 3d
       0.090476885 -0.0720688 -0.08209817 0.065591685
000070 09 b0 4a 3d c2 28 9f bd 40 34 69 3d 99 74 4f bd
       0.049484286 -0.07771446 0.056934595 -0.050648306
000080 b9 b9 e9 bd 96 db ad 3c fc 16 d7 3d 5b f9 a5 3d
       -0.11412377 0.02122287 0.10502431 0.081042014
000090 bb 71 ca 3d 86 40 e6 ba fd f5 b4 bd a2 eb 2a bd
       0.098849736 -0.0017566837 -0.08835981 -0.041728623
0000a0 d1 f8 e4 3c f9 b0 05 3e eb 7f f0 bd 93 49 5f bd
       0.027950676 0.13055791 -0.117431484 -0.054513525
0000b0 73 d0 81 3c 7d 3e 2a bd b7 f6 ac 3b b6 f7 fa 3c
       0.015846467 -0.0415635 0.005278434 0.030635696
0000c0 11 8a 2e bd ca 58 4f bd 44 66 0e 3d 2d 2a 04 be
       -0.04261214 -0.050621785 0.034765497 -0.12906714
0000d0 88 2b a1 3d a2 a7 16 bc 9b 4d 47 3d 4a 3d 04 be
       0.07869631 -0.00919524 0.048657995 -0.12914005
0000e0 65 6e d7 bd 8c bf f1 bc 6c 9e 75 3b fd af 50 3d
       -0.10519103 -0.029510282 0.003747846 0.050949086
0000f0 9d 5a f1 bd 6c 82 c3 3d 87 6a d7 3b 00 2f bb 3c
       -0.11784861 0.095463604 0.0065739783 0.02284956

h.0.mha.W_v.weight f4 [64, 64]
000000 fa c6 70 bd bb 5b 87 3c 35 0d 78 3d e6 99 34 3d
       -0.05878351 0.016523233 0.06055947 0.04409208
000010 9c 44 23 be 37 95 94 bd 17 7e 41 3d 57 b7 b5 bd
       -0.15944141 -0.07255023 0.04723939 -0.0887286
000020 d9 ad 83 bd 68 ae c3 bc dc 73 59 bb 7a 06 26 be
       -0.06429643 -0.023886874 -0.003318063 -0.16213408
000030 3e 5a df 3d 90 7c b4 3d 0c fa f2 bd de 6a 37 bd
       0.10905884 0.08812821 -0.11864099 -0.04477965
000040 3e e4 33 bc b0 46 82 bd be ac 8b bd 46 20 5a 3d
       -0.01097971 -0.06361139 -0.06820057 0.053253435
000050 c4 c6 b1 bc 12 f5 4c bd 97 ad 77 bc 52 35 a8 bc
       -0.021701224 -0.050038405 -0.015117071 -0.020533238
000060 82 fb fb 3c 4e 90 d7 3d 9b 08 fe 3d c3 ee cb 3b
       0.030759577 0.10525571 0.12403985 0.006223531
000070 da f1 81 3d 9f 62 ad 3d a7 af e6 3c 9b a4 d3 3d
       0.06344958 0.08466076 0.02815993 0.103341304
000080 4e 0d 89 bd ac 68 a4 3d 9a f8 95 3d 0d 43 93 3d
       -0.06691991 0.08027777 0.073228076 0.07190523
000090 53 ed 8a 3d e9 45 bb 3d d0 f6 00 3d 5c ae 7d bd
       0.06783547 0.09144194 0.03148538 -0.06193386
0000a0 c3 f6 cc bd 54 0c 21 3c c9 80 91 3b 1f b9 76 bd
       -0.100080036 0.009829599 0.004440401 -0.06023514
0000b0 95 74 f4 bd f4 42 ee bb ac d6 f9 bc 88 23 53 bd
       -0.11936299 -0.007271165 -0.030497871 -0.051547557
0000c0 51 58 ca bd b9 41 ab 3d 47 30 03 be 72 1f a3 bd
       -0.09880126 0.08362145 -0.12811385 -0.07964982
0000d0 15 83 d8 bd bf cc dc bd 8a 15 7c 3d 0a 09 c2 3d
       -0.10571877 -0.1078124 0.06154398 0.0947438
0000e0 5a 21 a4 bd 40 0e 1a bc a9 d7 c1 bd b4 dd 9c 3d
       -0.08014174 -0.0094028115 -0.09464962 0.07659474
0000f0 a9 75 03 3e 70 4a d8 bd 3f 05 25 bc 0a 5c 1b bd
       0.12837853 -0.10561073 -0.010072052 -0.037929572
000100 f3 60 14 be 35 33 c2 bd a3 5b 9f 3d ab fe 2b bd
       -0.14490108 -0.09482423 0.0778115 -0.041990917
000110 a6 55 8f 3d e4 cd 02 be ba d8 a8 3c ce 36 8b bd
       0.06998758 -0.12773854 0.020611156 -0.067975625
000120 c8 b4 0f 3d f1 26 c0 bc aa 8a d1 bd 43 32 e2 3c
       0.035084516 -0.023456069 -0.10231526 0.027611857
000130 c0 f3 90 bd 00 12 04 3d cc 89 ac bc ee 60 0e bd
       -0.070777416 0.03224373 -0.0210618 -0.034760408
000140 ca be 9f 3d 79 e2 db bd 15 8f db bd ad 9d 19 bd
       0.07800062 -0.107365556 -0.1072065 -0.037503887
000150 3c d2 d3 bd c1 57 52 bd e6 c0 10 3e 69 e7 f4 bd
       -0.103428334 -0.05135322 0.14136085 -0.119582005
000160 37 7d 3e bd 1e 78 70 3d 29 82 18 3d ad 85 bd bc
       -0.046506133 0.058708303 0.037233505 -0.02313503
000170 2e 35 c6 bd f1 33 29 3d fa fc 9f bd 65 fd 44 bd
       -0.09678112 0.0413093 -0.07811923 -0.04809322
000180 08 93 1b be 65 ef 80 bb d0 d8 e2 bd db 5e 88 3c
       -0.15192807 -0.003934788 -0.1107651 0.016646793
000190 d5 15 1d bd e9 82 f6 3d 05 b6 32 bc c5 75 04 3e
       -0.0383509 0.12036688 -0.010907655 0.1293555
0001a0 7c ef e4 3d a9 0f d7 3b 02 9e 7e 3d 8e 49 70 ba
       0.111784905 0.006563146 0.062162407 -0.0009166234
0001b0 86 e9 8e bd 46 d1 a9 bd 41 69 50 3b c8 eb fa bd
       -0.06978135 -0.08291869 0.0031801017 -0.12252003
0001c0 bb 33 e1 3d e8 20 fd bc 94 c5 98 3d 5f 5e 15 3b
       0.10996195 -0.03089948 0.0745956 0.0022791845
0001d0 e8 70 a8 bd fc de 6f 3d 20 23 d2 bd 25 a6 15 3d
       -0.0822466 0.058562264 -0.10260606 0.0365354
0001e0 b5 5a b2 bc e0 9f a8 3d d7 c4 29 3c 44 f1 ab 3b
       -0.021771768 0.08233619 0.010361872 0.005247267
0001f0 aa 99 08 be 05 76 37 bd b8 60 7c 3d 36 3a 05 3e
       -0.13339868 -0.044790287 0.061615676 0.13010487
000200 f8 58 e0 3d 12 f4 01 3d c3 a3 96 3d e9 10 88 3d
       0.109544694 0.031726904 0.07355454 0.0664385
000210 55 49 3a 3d 71 54 a3 bd 53 5a 83 3c 21 c6 a5 bd
       0.04548009 -0.0797509 0.01603428 -0.08094431
000220 9c 9c 8b 3d cd 81 7d 3a d3 3f f7 3d 85 32 0c be
       0.0681698 0.0009670526 0.120727204 -0.13691147
000230 68 39 c3 3d a5 88 82 bd c2 96 bf bb 42 c3 f3 3d
       0.09532434 -0.06373719 -0.005846829 0.11902477
000240 be e4 73 bd 07 20 90 3c a9 9c bc 3d 09 b8 5b 3b
       -0.059544317 0.017593397 0.09209568 0.0033526442
000250 f2 15 e6 3c 4c 3c c3 bd 5e f2 a8 bc ff 2b ad 3d
       0.028086636 -0.09532985 -0.020623382 0.08455657
000260 61 d8 56 3d 24 d8 51 bd 58 38 0a 3d cc 0b 8b 3b
       0.05245245 -0.05123152 0.03374514 0.0042433497
000270 63 b1 5a bd 0c 43 03 bb 11 16 c2 3d 92 03 b9 bd
       -0.053391825 -0.0020028977 0.09476865 -0.09033884
000280 df 60 9f 3d 9c 93 ba bd 2c f9 65 3d 83 80 e0 3d
       0.077821486 -0.091101855 0.056145832 0.10962012
000290 e7 0d 8d 3c 6c ed 1e 3d 88 06 be bd b6 a3 e5 3d
       0.017218543 0.038800642 -0.092785895 0.11212866
0002a0 6d 69 01 3c 4f cc bb 3d e2 7b 92 3c f8 e1 b8 3d
       0.007898671 0.09169828 0.017881338 0.09027475
0002b0 dd 58 e9 bd 1a fb 6c bd 2b 56 16 3e 30 52 4e ba
       -0.113939025 -0.057856657 0.14681308 -0.0007870523
0002c0 57 de dd 3d 0c 96 9c 3c ba fe 8d bd 33 3d a8 bd
       0.108334236 0.019114517 -0.06933351 -0.08214798
0002d0 1d d4 44 bd 56 5e 00 3e 2a d5 84 bd 8a fa 15 3c
       -0.04805385 0.12535986 -0.0648597 0.009153971
0002e0 c1 e7 c4 3c c2 20 52 3d 9b 8d c8 bd a8 26 0b bd
       0.02403629 0.05130077 -0.09792634 -0.033972412
0002f0 9a 30 94 bd ed e5 62 bd 9a 98 cd 3c 4b 2e ad 3c
       -0.072358325 -0.055395056 0.02509718 0.021140238
000300 f8 8c e2 3d 29 00 ec 3d d4 55 e3 3c e8 8b 93 3d
       0.11062044 0.11523468 0.027750887 0.072044194
000310 ab 01 9b bd 47 78 53 3d b9 53 24 3b 5b 6d 95 bd
       -0.075686775 0.051628377 0.0025074317 -0.072962485
000320 d0 d2 cc bd aa da a6 3b e7 83 6a 3b 9e 90 1b bd
       -0.10001147 0.0050919848 0.0035784186 -0.037979715
000330 3c 66 7d 3d 2c bd b0 3d 91 4f a5 3d 21 99 7d bd
       0.061865076 0.08629832 0.08071817 -0.061913613
000340 d5 86 4e 3d fc 76 bc b7 23 ca ff 3c bc 23 a3 3d
       0.050421555 -2.2466753e-05 0.031224316 0.079658
000350 40 56 05 be c5 1f 67 bd 8c a5 0c be 82 ad c4 3d
       -0.13021183 -0.056426782 -0.13735026 0.096034065
000360 99 a9 a1 3d 50 95 32 bc 2b 89 7d bd 27 1b 89 bb
       0.07893676 -0.010899857 -0.06189839 -0.004184145
000370 ae ab 93 3d f4 92 35 bd 3e 18 f0 bc a7 20 55 3d
       0.0721048 -0.0443296 -0.029308435 0.052033093
000380 8f d4 2e bd 04 fc 07 3e f9 d2 2c 3d ff 6e fb 3c
       -0.04268318 0.1327973 0.042193387 0.030692575
000390 e2 16 ea 3d aa 8a 22 bd fb 06 b4 3d 18 01 bd bd
       0.11430146 -0.03968302 0.08790394 -0.09228724
0003a0 2e fa ce bc 24 38 86 bc 35 0c da 3b e9 4f f2 3d
       -0.02526578 -0.016384192 0.006654287 0.11831648
0003b0 76 7d ae 3d 62 29 24 bd 1d 83 4b bd be 66 d1 3d
       0.085200235 -0.04007853 -0.049685586 0.10224675
0003c0 c9 94 7c 3c cd 26 66 bd 86 c1 56 3d 2c bd 99 bd
       0.0154163325 -0.056189347 0.052430652 -0.07506785
0003d0 67 90 75 3d 42 5a 9a bd dd 61 a4 bc c3 d9 7d 3c
       0.059952166 -0.075367466 -0.020066196 0.015493813
0003e0 bd 7c 45 bd 4f 8e 03 bd 63 e6 87 3d f5 48 4b 3d
       -0.048214663 -0.032118138 0.0663574 0.049630124
0003f0 f6 06 09 3d 71 5f 92 3d 03 70 bb bd 54 1c 85 3d
       0.033453904 0.0714711 -0.09152224 0.06499544

h.0.mha.W_v.bias f4 [64]
000000 7f 6c f4 bd f1 9b a5 3d c7 28 86 3b b0 1f 27 be
       -0.119347565 0.08086384 0.0040942165 -0.16320682
000010 27 d4 30 bd 68 cb 9f bd 54 34 00 3d ee 55 5a bd
       -0.043171074 -0.078024685 0.031299904 -0.053304605
000020 06 d0 b1 bd f3 84 e0 bc ad 06 a2 bd 99 5f 12 bd
       -0.086822554 -0.027407145 -0.079114296 -0.0357357
000030 5c d9 5c 3d f5 f1 31 3d fb b5 1a 3e 6e 12 db 3d
       0.053918228 0.04344364 0.15108483 0.106968746
000040 98 8a af 3d 5b ee 44 3d b3 20 5b 3c 51 47 ab bd
       0.085713565 0.048078876 0.013374495 -0.08363212
000050 a6 9c 37 bc c9 1f 8a 3d 7d 38 01 3d 01 12 cc bd
       -0.0112067815 0.06744344 0.031548012 -0.099643715
000060 fd 42 90 bd eb e1 24 3d f6 ba 03 3e 03 56 f1 3d
       -0.07044027 0.040254515 0.12864289 0.117839836
000070 fb 25 3d bb 8d 4c f0 3d 97 e3 59 3c ff ad 7c bd
       -0.002886175 0.11733351 0.013298891 -0.061689373
000080 ad f9 b9 3d 4d ea 2f bc 31 ab db bd a2 81 f9 bc
       0.09080825 -0.010737014 -0.107260115 -0.030457322
000090 29 1a 2c 3e 84 a0 b4 3d 13 0c b3 3b ef 25 11 3d
       0.16806854 0.088196784 0.005464086 0.035436567
0000a0 7e ba 07 3e b1 16 8e bd 3f 41 77 bd 9e c6 f7 3d
       0.13254735 -0.06937922 -0.060364958 0.1209843
0000b0 2e f5 e3 3d f2 99 07 3e ac 8d 02 be 26 8b b9 bc
       0.11130749 0.13242319 -0.12749356 -0.022649359
0000c0 8c e0 ad 3d 81 31 b6 bc 07 2f 39 bd 52 86 dd bd
       0.084900945 -0.022240402 -0.045210864 -0.10816635
0000d0 22 3d f0 3d 45 38 15 3e fa 8f 8f bd 9e b3 15 3c
       0.1173041 0.14572246 -0.07009883 0.009137062
0000e0 0a 3f a5 3c 30 18 7f bc ac b0 59 bd b2 35 16 3e
       0.02017166 -0.015569732 -0.053147003 0.1466892
0000f0 eb a3 12 3e 69 0e 1a be 78 8c 0e be 43 c9 66 bd
       0.14320342 -0.1504456 -0.13920772 -0.056344282

h.0.mha.W_o.weight f4 [64, 64]
000000 c7 16 fb bd 5b 06 53 3d f2 8c aa 3d 20 d1 e0 bd
       -0.12260204 0.051519733 0.083276644 -0.109773874
000010 11 81 00 3e 81 d8 0f be bd 76 64 bd 93 fa 94 3d
       0.12549235 -0.14047433 -0.0557773 0.07274356
000020 58 51 d7 bc 09 be ac 3d c1 93 3a bd 8f e7 e7 3c
       -0.026283905 0.08434684 -0.045551065 0.028308658
000030 49 e9 62 3b 0c e7 8f 3d 89 b7 37 3d 73 0d 03 3e
       0.0034623912 0.070264906 0.044852767 0.12798099
000040 7d f0 5b 3d 5a 0f 9a 3c dc 1b 58 3d 74 64 43 bd
       0.053696144 0.018806148 0.052760944 -0.04770322
000050 b9 ae b6 bd 3b b6 88 3d 7d 84 21 bd 16 0e 76 3d
       -0.089200445 0.06675383 -0.03943299 0.060072027
000060 9a b0 05 bd b8 ee 04 3d 62 f2 e9 3d e5 cf cf ba
       -0.032639123 0.032454222 0.11423184 -0.0015854804
000070 57 22 ec bc 77 13 cb 3d a5 7b 29 bc d4 3d a4 3d
       -0.028824968 0.09915822 -0.010344421 0.08019605
000080 58 95 e4 3d aa 2e e2 bd 28 ba ba bd e0 34 0e 3d
       0.111612976 -0.11044057 -0.09117538 0.034718394
000090 a9 03 65 3d 4e d4 9b bd 38 f5 f2 bd 63 82 bf 3d
       0.055911694 -0.07608853 -0.11863178 0.09351041
0000a0 f1 c2 b3 bc 69 8f 14 bc 76 29 0f be d9 da a4 bd
       -0.021943541 -0.009067395 -0.1398066 -0.080495544
0000b0 1a b9 3b bd 2f b0 4f 3d da 9f 05 bd 0d 61 e8 bc
       -0.045830823 0.05070513 -0.03262315 -0.02836659
0000c0 47 24 31 bd d1 1d 3b 3d bd 7e b4 3d 59 0c 79 bd
       -0.043247487 0.045682732 0.08813236 -0.06080279
0000d0 4a b8 a3 bd 08 42 d7 3d 07 d3 9e 3c 64 69 a6 bd
       -0.07994135 0.10510641 0.019387735 -0.081255704
0000e0 1d 80 0b 3d e4 3c 24 bc c4 52 ce 3d 70 b2 9e 3d
       0.034057725 -0.010024283 0.1007438 0.07748878
0000f0 69 c8 8b bd 8a 37 08 bd d6 e8 b5 3d c5 0e 40 3c
       -0.068253346 -0.03325609 0.088823006 0.011722271
000100 d4 bc 94 3c f6 56 03 3e 87 60 31 3d 26 ec e3 bd
       0.018156447 0.12826142 0.043304946 -0.11129026
000110 ae 7f d6 3c 24 b5 c5 bd b4 d9 e1 3d d0 ba a6 3b
       0.02618393 -0.096536905 0.11027852 0.0050881878
000120 2a f8 bb bd 4b 8e 69 bd 0b 93 02 3d dd 9c 86 bd
       -0.09178193 -0.057020467 0.031878512 -0.06572888
000130 98 a6 b0 3b e9 49 6b bd ef a1 5a 3d a5 c1 cd 3d
       0.0053909533 -0.057443533 0.05337709 0.100467004
000140 1f 23 8e bd bf 3d 97 bd c3 84 39 bd d1 bb c5 bd
       -0.069402926 -0.07384824 -0.045292627 -0.09654964
000150 bd f3 61 3c 02 48 c1 3d fd 5c fb 3d f6 85 ff bd
       0.013791022 0.094375625 0.122735955 -0.12476723
000160 62 35 04 3d 61 57 8f bd d2 69 31 3d a5 07 19 3e
       0.032277472 -0.06999088 0.04331381 0.14944322
000170 a7 a7 b7 bd 63 02 04 3e 43 21 8a bc 23 52 91 bc
       -0.08967524 0.12891535 -0.016861564 -0.017739361
000180 71 e1 af 3c aa 84 f1 bd 28 6e 0b be 25 93 c5 3c
       0.021469804 -0.11792882 -0.1361624 0.024118016
000190 5f bf 99 bd 35 7f e8 3c 64 03 e7 bd 80 7b c3 3c
       -0.07507204 0.02838097 -0.112799436 0.0238626
0001a0 ca a7 26 bd 34 d7 14 bd dd 5f 39 bd 72 ba eb 3d
       -0.04068736 -0.036338046 -0.045257438 0.11510171
0001b0 f2 25 72 3d fd 84 32 3c 7f f2 c7 bd e8 84 14 3c
       0.05911822 0.010895965 -0.09763049 0.00906489
0001c0 6d ca b1 bd c6 99 bc bd 94 84 ac 3d 23 7b 15 3c
       -0.08681188 -0.092090175 0.08423725 0.009123596
0001d0 36 fc 18 bd 9d 42 af 3c 88 3f 0e 3e 2e e6 d5 bd
       -0.037349902 0.021394068 0.13891423 -0.10444294
0001e0 e8 74 d4 bd 89 08 a0 bd 32 6f d3 bd 7e 5e 33 3d
       -0.103738606 -0.07814128 -0.10323943 0.043791287
0001f0 5f 99 2e 3e 08 b0 99 3b d7 da 9f 3d d6 6a 6d bd
       0.17050694 0.004690174 0.07805412 -0.057963215
000200 56 2d 9d 3d 12 31 cd 3d e8 f4 e3 3d 14 40 c1 bc
       0.07674663 0.10019125 0.111306965 -0.023590125
000210 e0 55 ca bd 40 53 c5 bd b9 f2 5f bc 1c b1 c2 bd
       -0.098796606 -0.09635019 -0.013668709 -0.09506437
000220 73 25 b1 3d 1a b6 4d bd f1 75 ed 3d 78 fe fc bb
       0.08649721 -0.050222494 0.11594761 -0.0077207647
000230 19 ee 4a bd 43 0b 20 3d 17 dc b0 bd a6 ce a7 bd
       -0.049543474 0.03907324 -0.08635729 -0.08193712
000240 73 9e 0f 3c 99 2f 13 bc e8 cd 02 bd 99 c3 e9 bd
       0.008765805 -0.008983516 -0.03193465 -0.114142604
000250 8e 5f c1 3d 4b 66 b4 bd 41 7f 58 3d d9 71 cc bd
       0.09442054 -0.08808573 0.052855734 -0.09982652
000260 17 6c f5 3d 0f db 01 3e 3f b4 e2 bd 23 1b fb 3c
       0.11983507 0.1268122 -0.110695355 0.030652588
000270 3d e9 bd bc a1 42 17 be f3 cd d6 bd fd de 55 3d
       -0.023182506 -0.1477151 -0.104885004 0.05221461
000280 b2 f8 f2 bc 7e d7 04 3e b7 54 d3 3d 6c 7f 36 3b
       -0.029659603 0.12972829 0.103188924 0.0027846945
000290 da f0 fc bd 8f d1 0a be 30 50 c8 bc 7f 52 d8 bd
       -0.12350626 -0.13556503 -0.024452299 -0.1056261
0002a0 bb 0a 4c 3c c3 e9 cd 3d ff 1a 2e 3d ac 21 0f bc
       0.01245373 0.10054352 0.042506214 -0.008736055
0002b0 2d 86 b0 3d 3c dc df bd 46 27 57 bd 6a 02 95 3d
       0.08619342 -0.10930678 -0.05252769 0.07275851
0002c0 6a 62 79 bd ed 83 a1 bd e0 db 6e 3b 7f 37 5a bc
       -0.06088487 -0.07886491 0.0036446974 -0.013318895
0002d0 00 15 c4 3c f9 a5 f7 bd 96 59 a8 bd 02 62 c3 3d
       0.023935795 -0.12092204 -0.08220212 0.09540178
0002e0 c3 51 cb 3d 7a 63 8e bd eb 11 f4 3a 7f 38 cd 3d
       0.09927704 -0.069525674 0.0018621063 0.100205414
0002f0 8d dd a2 bd 4b 40 42 bc 61 c7 d3 3d 27 0d c4 3d
       -0.07952414 -0.011856149 0.10340763 0.09572821
000300 f2 68 81 3d 32 65 e3 3c 3d 24 48 bd 5f d2 d1 3c
       0.06318845 0.027758215 -0.048862685 0.025613008
000310 dd bd 07 bd 10 f9 de bd 03 fd 09 bd 17 56 0f 3c
       -0.033140052 -0.10887349 -0.033688556 0.008748553
000320 b2 0d 80 bc d0 2d 08 be e1 6b a5 3d b8 0d f8 3c
       -0.01563153 -0.13298726 0.08077217 0.03027998
000330 98 dd 0b 3e 99 56 f1 3c f5 74 14 bd 56 17 8a bd
       0.1365875 0.029460238 -0.03624435 -0.06742732
000340 5b a6 cf 3d ed f5 05 3d a8 08 77 3d 8b e8 9e bd
       0.10139152 0.032705236 0.06031099 -0.07759198
000350 e5 21 c8 bd 44 6a bf 3d 37 be c4 3c 6f 7f ae bd
       -0.0977209 0.093464404 0.024016483 -0.085204
000360 70 6f ad bd c8 87 d7 3d 1e 65 57 bd 97 1c f4 3d
       -0.08468521 0.10523945 -0.052586667 0.119195156
000370 1f 05 ca bd d7 ef 9d 3d 6c 86 8b 3c 69 87 ac bd
       -0.09864258 0.077117614 0.01703187 -0.08424265
000380 ff e0 cd bc f5 5e 04 3d 04 24 6a bd 1d 55 ef 3c
       -0.0251317 0.03231712 -0.057163253 0.02921539
000390 62 02 dc 3d df a3 2b bd 01 43 02 be 35 d7 ba bd
       0.10742642 -0.041904327 -0.12720872 -0.09123079
0003a0 5d 54 b8 3d c9 4e a3 bc 02 c4 b2 bc ad 00 ec 3d
       0.09000466 -0.019935029 -0.02182198 0.115235664
0003b0 27 2b 8a bc 59 f6 0e 3e 98 7d 89 bc a4 4b b5 3d
       -0.01686628 0.13961162 -0.01678352 0.08852318
0003c0 5b 91 09 3e f0 8f 89 3c e3 dd c2 3c 7c 6b 69 bb
       0.13434355 0.016792268 0.023787444 -0.0035617044
0003d0 54 80 47 bd e6 08 48 3d d9 43 04 be 4f ba fa 3d
       -0.048706368 0.04883661 -0.12916507 0.12242567
0003e0 e7 ee 55 3d bb 37 d3 bd f3 27 69 3c c2 7b 00 bb
       0.05222979 -0.10313364 0.014230716 -0.0019605015
0003f0 a5 f0 9e 3d 59 47 f6 bd ca a3 70 3d d5 b2 fd bd
       0.07760743 -0.12025327 0.05874995 -0.12387625

h.0.mha.W_o.bias f4 [64]
000000 dd 65 a9 3d 59 c5 1d bd 68 a3 58 3d fa 8b 74 3d
       0.08271382 -0.038518284 0.05289021 0.059703805
000010 03 75 14 bd 85 ec 27 bd 1c 92 b5 3d d1 38 1f 3d
       -0.036244404 -0.040997047 0.08865759 0.038872544
000020 25 97 dd bc e8 ca 1a be 44 4c 4a bd f4 16 2b bd
       -0.02704961 -0.15116465 -0.04938914 -0.041769937
000030 c8 3a 2d bd 5c d7 fc bd ef ec 49 3b 02 3f c5 bd
       -0.042292386 -0.12345764 0.003081139 -0.096311584
000040 77 68 0d be 73 21 30 3d f7 01 9d bd 41 cd 1b 3c
       -0.13809381 0.04300065 -0.076663904 0.009509386
000050 8d d6 19 be ba ca 15 3e 31 fc b2 3c f7 78 8b bd
       -0.15023251 0.14628115 0.02184877 -0.068101816
000060 5d 7b 6b 3d 7a 1c 5c bd d9 98 fc bd cf e9 1b bc
       0.057490695 -0.053738095 -0.12333841 -0.0095161935
000070 44 a2 12 bd cb 53 a1 bc 08 3c 0c be fd 4f 4a 3c
       -0.03579928 -0.019693276 -0.13694775 0.012348172
000080 05 06 21 3e 2e d8 72 3d 87 66 0e be 04 fe 96 bd
       0.15724953 0.059288196 -0.13906299 -0.073726684
000090 ea 32 b6 3d c1 44 13 be fd db 9e bc 7f bb 24 3e
       0.0889643 -0.14381696 -0.019392008 0.16087149
0000a0 ed 37 1e bd 21 85 26 bd d2 c2 2e 3e 6f cb c7 bb
       -0.038627554 -0.040654305 0.17066506 -0.006097249
0000b0 f5 56 08 3e 53 ce e8 3c 47 98 53 3c 84 b3 c2 bd
       0.13314421 0.028418696 0.012914724 -0.09506896
0000c0 55 a6 da bb 06 13 23 bd ee 78 35 bd 77 0d 71 3d
       -0.0066726604 -0.039813064 -0.04430478 0.05885073
0000d0 b3 60 50 3d f7 4a 7f 3d 30 85 96 bd a2 3e 89 bd
       0.05087347 0.06232735 -0.07349622 -0.067013994
0000e0 4a b6 ac 3d de 0b 4e bd fa a9 30 3d e4 e6 17 be
       0.084332064 -0.050304286 0.043130852 -0.14834172
0000f0 2c af 10 3e d5 41 12 3e 81 8f 02 3d 8a a1 42 3d
       0.14129323 0.14282925 0.031875137 0.047517337

h.0.ln_1.weight f4 [64]
000000 be 43 82 3f 39 51 80 3f 2f 7d 80 3f 0b 41 7b 3f
       1.0176923 1.0024787 1.0038203 0.9814612
000010 3f a4 85 3f 16 92 7d 3f a6 9f 79 3f 6e 1f 7c 3f
       1.0440749 0.99051034 0.9750923 0.9848546
000020 77 ab 80 3f c3 7d 7c 3f 48 d2 80 3f 13 e4 83 3f
       1.0052327 0.986294 1.0064173 1.0303978
000030 2f 8d 82 3f 27 89 80 3f 0a 06 77 3f 36 ec 7e 3f
       1.0199336 1.0041856 0.9649359 0.9957918
000040 c8 d8 82 3f f8 73 7d 3f 75 ec 77 3f fe 45 7d 3f
       1.0222406 0.9900508 0.9684518 0.98934925
000050 93 bc 7b 3f ac 35 81 3f 58 d5 81 3f 45 3b 79 3f
       0.98334616 1.0094504 1.0143232 0.97356063
000060 91 2a 81 3f 8c 03 81 3f b9 ce 81 3f 38 a6 7f 3f
       1.0091115 1.0079207 1.0141212 0.99863005
000070 72 aa 7a 3f 0b 07 81 3f f5 e8 7e 3f 42 6e 7b 3f
       0.9791633 1.0080274 0.99574214 0.98215115
000080 5b 48 84 3f 3b d1 82 3f 28 c5 7b 3f e3 ea 7a 3f
       1.0334581 1.0220102 0.9834771 0.9801466
000090 85 14 7e 3f 8c df 7a 3f 9b f6 7b 3f 94 22 81 3f
       0.9925006 0.97997355 0.98423165 1.0088677
0000a0 fd e9 7a 3f 13 6b 80 3f de 2d 7e 3f 3f 77 80 3f
       0.9801329 1.0032676 0.9928874 1.0036391
0000b0 0c 6a 80 3f b3 89 7d 3f 6e 91 81 3f 68 8c 80 3f
       1.0032363 0.9903824 1.0122507 1.0042849
0000c0 c7 e1 7f 3f 83 71 81 3f af 4d 81 3f f5 24 88 3f
       0.99953884 1.0112766 1.0101832 1.0636278
0000d0 aa 82 80 3f 08 5b 80 3f 78 b7 7f 3f 2f 2b 83 3f
       1.0039876 1.002778 0.99889326 1.0247554
0000e0 f4 0e 81 3f 1d 45 84 3f 34 33 7a 3f b9 bc 7f 3f
       1.0082688 1.0333592 0.9773438 0.9989734
0000f0 44 da 80 3f 44 19 7b 3f 63 13 82 3f aa c9 7f 3f
       1.0066609 0.9808543 1.0162166 0.9991709

h.0.ln_1.bias f4 [64]
000000 d9 ae 5f bd 16 8f 0e 3d 29 da 2e bd 61 7a 6d bd
       -0.054610107 0.034804426 -0.042688522 -0.057978038
000010 df da 48 3d 6b c0 5e bd 86 f5 d6 3c 92 20 b0 bb
       0.049036857 -0.054382723 0.026240122 -0.0053749764
000020 87 08 32 bd 66 6e ed bb 20 4e 35 bd 8d d8 95 3d
       -0.043465164 -0.0072458265 -0.04426396 0.073166944
000030 9c fa 57 bd ec 15 33 3d 26 90 d1 3c 67 ac e4 bc
       -0.052729234 0.04372208 0.02558143 -0.02791424
000040 80 9b 52 3d 84 c9 7e 3c 66 e2 c5 3c e1 f1 a0 bc
       0.051417828 0.015550975 0.024155807 -0.019646587
000050 2a 22 38 3b ab a1 34 3d 73 b3 36 3d 24 76 20 3d
       0.0028096535 0.04409949 0.04460473 0.039175168
000060 38 90 2a bd 69 08 23 3d 94 af 3d bd 62 a8 9c bc
       -0.041641444 0.039802942 -0.046310022 -0.01912326
000070 09 18 86 bb 42 40 25 3d 80 ab 76 3c 79 e4 18 bc
       -0.0040922207 0.040344484 0.015055537 -0.009331816
000080 e1 45 1d bd 56 7d 41 bd 18 4b 52 bc bb 9d 0d 3d
       -0.03839672 -0.04723867 -0.012835287 0.03457425
000090 39 26 f7 bc 2b 55 0f 3d 10 03 f2 3c 14 56 2e 3d
       -0.030169593 0.034993332 0.029542476 0.04256256
0000a0 f1 34 3f 3d 95 cd fe bc ae fa db 3c 7f 36 24 3d
       0.04668135 -0.031103889 0.026852932 0.040091034
0000b0 61 19 19 3d 30 af 76 bb 1a 12 9f bc b3 8b 18 bd
       0.03737772 -0.003764104 -0.019417811 -0.037242603
0000c0 be 3c 55 bd f4 c9 e2 bc b8 2e 29 3d 12 c6 6c 3d
       -0.05205988 -0.02768419 0.04130432 0.057806082
0000d0 90 e3 0c bd 4d c4 f6 3c e0 44 07 bd 82 54 3c bd
       -0.034396708 0.0301229 -0.03302467 -0.04597903
0000e0 d1 48 f1 3c 99 38 3d bd 51 bc ca 3a f8 83 21 bd
       0.029453667 -0.046196554 0.00154675 -0.039432496
0000f0 af 27 55 bd cb 0d 92 39 a8 8c 0b bd 01 26 cf 3c
       -0.0520398 0.00027857567 -0.034069687 0.025286676

h.0.ln_2.weight f4 [64]
000000 00 00 80 3f 00 00 80 3f 00 00 80 3f 00 00 80 3f
       1.0 1.0 1.0 1.0
000010 00 00 80 3f 00 00 80 3f 00 00 80 3f 00 00 80 3f
       1.0 1.0 1.0 1.0
000020 00 00 80 3f 00 00 80 3f 00 00 80 3f 00 00 80 3f
       1.0 1.0 1.0 1.0
000030 00 00 80 3f 00 00 80 3f 00 00 80 3f 00 00 80 3f
       1.0 1.0 1.0 1.0
000040 00 00 80 3f 00 00 80 3f 00 00 80 3f 00 00 80 3f
       1.0 1.0 1.0 1.0
000050 00 00 80 3f 00 00 80 3f 00 00 80 3f 00 00 80 3f
       1.0 1.0 1.0 1.0
000060 00 00 80 3f 00 00 80 3f 00 00 80 3f 00 00 80 3f
       1.0 1.0 1.0 1.0
000070 00 00 80 3f 00 00 80 3f 00 00 80 3f 00 00 80 3f
       1.0 1.0 1.0 1.0
000080 00 00 80 3f 00 00 80 3f 00 00 80 3f 00 00 80 3f
       1.0 1.0 1.0 1.0
000090 00 00 80 3f 00 00 80 3f 00 00 80 3f 00 00 80 3f
       1.0 1.0 1.0 1.0
0000a0 00 00 80 3f 00 00 80 3f 00 00 80 3f 00 00 80 3f
       1.0 1.0 1.0 1.0
0000b0 00 00 80 3f 00 00 80 3f 00 00 80 3f 00 00 80 3f
       1.0 1.0 1.0 1.0
0000c0 00 00 80 3f 00 00 80 3f 00 00 80 3f 00 00 80 3f
       1.0 1.0 1.0 1.0
0000d0 00 00 80 3f 00 00 80 3f 00 00 80 3f 00 00 80 3f
       1.0 1.0 1.0 1.0
0000e0 00 00 80 3f 00 00 80 3f 00 00 80 3f 00 00 80 3f
       1.0 1.0 1.0 1.0
0000f0 00 00 80 3f 00 00 80 3f 00 00 80 3f 00 00 80 3f
       1.0 1.0 1.0 1.0

h.0.ln_2.bias f4 [64]
000000 00 00 00 00 00 00 00 00 00 00 00 00 00 00 00 00
       0.0 0.0 0.0 0.0
000010 00 00 00 00 00 00 00 00 00 00 00 00 00 00 00 00
       0.0 0.0 0.0 0.0
000020 00 00 00 00 00 00 00 00 00 00 00 00 00 00 00 00
       0.0 0.0 0.0 0.0
000030 00 00 00 00 00 00 00 00 00 00 00 00 00 00 00 00
       0.0 0.0 0.0 0.0
000040 00 00 00 00 00 00 00 00 00 00 00 00 00 00 00 00
       0.0 0.0 0.0 0.0
000050 00 00 00 00 00 00 00 00 00 00 00 00 00 00 00 00
       0.0 0.0 0.0 0.0
000060 00 00 00 00 00 00 00 00 00 00 00 00 00 00 00 00
       0.0 0.0 0.0 0.0
000070 00 00 00 00 00 00 00 00 00 00 00 00 00 00 00 00
       0.0 0.0 0.0 0.0
000080 00 00 00 00 00 00 00 00 00 00 00 00 00 00 00 00
       0.0 0.0 0.0 0.0
000090 00 00 00 00 00 00 00 00 00 00 00 00 00 00 00 00
       0.0 0.0 0.0 0.0
0000a0 00 00 00 00 00 00 00 00 00 00 00 00 00 00 00 00
       0.0 0.0 0.0 0.0
0000b0 00 00 00 00 00 00 00 00 00 00 00 00 00 00 00 00
       0.0 0.0 0.0 0.0
0000c0 00 00 00 00 00 00 00 00 00 00 00 00 00 00 00 00
       0.0 0.0 0.0 0.0
0000d0 00 00 00 00 00 00 00 00 00 00 00 00 00 00 00 00
       0.0 0.0 0.0 0.0
0000e0 00 00 00 00 00 00 00 00 00 00 00 00 00 00 00 00
       0.0 0.0 0.0 0.0
0000f0 00 00 00 00 00 00 00 00 00 00 00 00 00 00 00 00
       0.0 0.0 0.0 0.0
