subspace-alignment/data/2_layer_64_vocab/ckpt_28980.pt (torch, 178594 bytes, 29 tensors)

embed.embed.weight f4 [64, 64]
000000 b1 3f 04 bf 60 a4 c6 3f 2d 63 2f 3d cd 9d 03 3f
       -0.51659685 1.5518913 0.04281919 0.5141266
000010 e5 32 45 3e 03 94 7d be e8 8c 23 c0 be 81 04 be
       0.19257696 -0.24763493 -2.5554752 -0.12940118
000020 e9 61 fa be 61 69 e2 bc 15 fe ae bf 90 58 f4 3e
       -0.48902825 -0.02763814 -1.367129 0.47723818
000030 5a 5a f5 be cc 96 5b bf 35 2b bb bd ff 1d ed 3d
       -0.47920495 -0.8577697 -0.091391005 0.11577987
000040 b1 dd 8f 3c bf 82 7d 3e 8d 1e bc be 78 33 17 bf
       0.017561765 0.24756907 -0.36742058 -0.5906291
000050 0f a9 9c be 85 bb 2b 40 6d 1e b7 3f 94 d8 8d bf
       -0.3059773 2.6833203 1.430616 -1.1081719
000060 f9 b9 78 bf b7 0a 03 40 77 78 8c bf c2 ec dc 3f
       -0.9715877 2.047529 -1.0974263 1.7259753
000070 a2 43 1c 3f da 9e 35 3f 4d 4b 85 be 35 cd 66 3e
       0.610407 0.70945513 -0.26034012 0.22539218
000080 8a dd 92 3f ab f3 40 bf 7c 09 9f bd 92 72 8f bf
       1.1473858 -0.7537181 -0.07765481 -1.1206839
000090 59 99 78 bf 27 4b 54 3e ac 71 a0 bf 68 90 5d 3f
       -0.9710899 0.20731793 -1.253469 0.8654847
0000a0 b3 53 81 bf f5 68 97 bf 28 1e c5 3e 42 04 0d 3f
       -1.0103668 -1.1828905 0.3849957 0.5508462
0000b0 3b 01 a0 3f bd 50 81 3f 58 a0 0a bf 1e 43 df be
       1.2500376 1.0102764 -0.54150915 -0.43605894
0000c0 3b 90 8d be bd 00 42 bf 48 cb b1 bd 08 9d f1 bc
       -0.27649102 -0.75782377 -0.08681351 -0.029493824
0000d0 af 15 01 3e 1c 43 63 3f 56 be 1f be 5f 7a 6a bf
       0.12605928 0.88774276 -0.15599951 -0.91592973
0000e0 25 06 a1 3e 53 b0 2c 3e 38 a0 28 bf cc 02 69 bf
       0.3145 0.16864137 -0.65869474 -0.9101989
0000f0 82 93 7e 3e fc a9 49 bf e3 b1 12 be 53 e7 2f 3f
       0.24860957 -0.78775 -0.14325671 0.6871235
000100 e2 29 4a 3e 3c fa 84 bf 4f 3a a0 bf d6 67 04 be
       0.1974254 -1.0388865 -1.2517794 -0.12930235
000110 9f 3d 02 40 5f fe a3 bf b2 69 33 bf 98 e1 91 be
       2.035011 -1.2812003 -0.70083153 -0.28492427
000120 f5 c8 b2 3e c8 ad 6b bc d2 c4 f1 be 59 7c 07 3e
       0.34918943 -0.014384694 -0.47220474 0.13231029
000130 e3 0d 7f 3e f7 69 29 3f 28 45 6e 3d c4 e9 45 be
       0.24907641 0.66177315 0.05817142 -0.19327456
000140 4c 50 a1 3e e1 7e 26 bf 94 e1 84 bd 4e 0a 3d be
       0.31506574 -0.6503735 -0.06488338 -0.18460962
000150 1a 5b 38 3e 61 56 e6 be d0 12 c5 3f a1 86 71 3e
       0.18003502 -0.44987777 1.5396366 0.23586513
000160 05 d0 df be 5c cc a2 3f b6 8a bd bf e8 e5 fc 3e
       -0.43713394 1.2718616 -1.4807956 0.49394155
000170 ca da 04 c0 1c 14 dc 3f 81 df 35 bd 15 d7 cf be
       -2.0758538 1.7193637 -0.044402603 -0.40593782
000180 8a de 68 bf 68 a3 e6 be 26 a2 d7 3e 56 bb b4 bb
       -0.9096457 -0.45046544 0.42115897 -0.0055154962
000190 4b c7 b9 3f a8 62 2d 3f 62 81 a3 3f fb 88 75 3f
       1.4513944 0.6772866 1.277386 0.9591214
0001a0 95 14 9e be 2b 33 8e be c7 35 63 3f 93 a6 f8 3e
       -0.30875078 -0.27773413 0.8875393 0.48564586
0001b0 2c 8b 01 bf 0c f4 99 3e 99 05 17 bf b5 79 d2 bf
       -0.50602984 0.30069005 -0.58992916 -1.6443392
0001c0 bc 5e a3 be 31 d7 fc be 5e 44 09 40 be 0b 0d 3d
       -0.31908214 -0.49382928 2.1447978 0.034435026
0001d0 c5 5f 5e be ef e6 86 be f9 7d 67 bc 01 40 37 bf
       -0.2171622 -0.26348063 -0.014129155 -0.7158204
0001e0 03 00 0c 3e de 60 db 3d c0 0c 46 bf c0 61 dc 3d
       0.1367188 0.10711835 -0.77363205 0.10760832
0001f0 a2 6b 07 3f a7 a3 2a c0 ed 45 e8 3c 23 60 bf 3d
       0.5289861 -2.6662385 0.028353656 0.093445085
000200 5d b8 a7 3f ef 46 8b 3f 24 f4 e2 be 3a ad af bc
       1.3103138 1.0881022 -0.4432689 -0.021444906
000210 04 a9 ae be a0 cf 58 3f e5 fb 9a bf 55 70 2b bf
       -0.34113324 0.8469181 -1.2108122 -0.6696828
000220 3f 7b fe 3e 83 f5 fc bd 2c 06 14 bf 55 4c 50 bf
       0.49703404 -0.12351515 -0.5782192 -0.81366473
000230 c3 11 e4 be a3 9a 38 3f 8b ec 84 bd 3e c0 b5 be
       -0.445448 0.72110957 -0.064904295 -0.35498232
000240 25 5b 05 be 07 98 a5 bf f2 ac ac be ca 3e 0c bf
       -0.1302305 -1.293702 -0.33725697 -0.5478331
000250 b8 da 8f be 08 c8 fe 3f 09 44 80 bf c2 56 b7 be
       -0.28096557 1.9904795 -1.0020763 -0.35808378
000260 6c 64 b5 be eb c6 04 3f 2a 74 3d be 62 4a 1f 3d
       -0.35428178 0.51866025 -0.18501344 0.038889296
000270 5f 58 45 bf b7 90 a6 3f 13 97 05 3f a0 23 01 3e
       -0.7708797 1.3012913 0.52183646 0.12611246
000280 d2 86 8f bf 8e 06 a1 3d 0e 2a c1 3e c3 d1 35 3f
       -1.1213019 0.07862578 0.37727398 0.71023196
000290 86 71 89 bf 45 be d6 bf f4 4c f6 be e7 da 15 40
       -1.073777 -1.6776816 -0.48105586 2.3414857
0002a0 bc 56 4c bd da d0 8f bf 14 88 07 3e 82 4d bd 3e
       -0.049887404 -1.1235611 0.13235503 0.36973196
0002b0 b3 8c 89 bb 26 7d 00 bf ec 6b 0c 3f 48 96 e3 be
       -0.004197681 -0.5019096 0.54852176 -0.44450593
0002c0 9d c0 09 bf 8b 4b 73 be 84 1f 35 40 e3 99 60 bd
       -0.5380953 -0.23759286 2.8300486 -0.054834258
0002d0 b1 e8 04 bd fd b0 0c bf a0 52 a8 bf 39 61 34 bf
       -0.032448474 -0.5495756 -1.3150215 -0.7046085
0002e0 f1 9a 0f 3f 82 43 bc 3e 68 de 9a be 95 7f 76 3e
       0.56095797 0.36770254 -0.30247808 0.24072106
0002f0 bf 87 26 c0 a5 2d 7a 3d db 39 4d 3e af 44 d0 3e
       -2.6020353 0.061078686 0.20041601 0.406774
000300 b3 64 a9 bf 9c be 86 3f 76 fe e7 be 3e 26 18 3e
       -1.3233856 1.0526919 -0.45311326 0.14858338
000310 1a 6b b1 bf 98 37 f3 be b5 73 a2 3f 41 a1 72 3d
       -1.386081 -0.47503352 1.2691561 0.059235815
000320 c9 88 af bf 3c d0 f5 be eb 29 74 bf f4 c0 5d bf
       -1.3713619 -0.48010433 -0.9537646 -0.8662255
000330 87 0c 21 c0 63 14 21 40 15 92 51 be 66 79 ab 3e
       -2.5163896 2.5168693 -0.20465882 0.33491057
000340 20 af fe 3e a2 5a f8 be 45 a5 c7 bb 24 cb 23 be
       0.49742985 -0.48506647 -0.0060926997 -0.15995461
000350 8e af 17 be 92 6a 51 bf 0d f4 40 bf 67 2e d7 3e
       -0.14813063 -0.8180324 -0.7537239 0.4202759
000360 0e 3b 99 bf 65 33 f3 3f dd 42 27 3e c9 d1 fa 3e
       -1.1971147 1.9000059 0.163341 0.48988178
000370 c2 b6 fe 3d 96 e2 1b 3f ef af 05 bd f6 4a 51 3f
       0.12437202 0.6089262 -0.032638486 0.81755006
000380 c5 f4 21 3f 48 c3 62 3e f6 aa 0d bf 34 2d 4f bf
       0.63264114 0.22144806 -0.5533899 -0.8092835
000390 48 4d cf be e4 16 17 bf 5e 8e 9b 3e e4 0d 86 3f
       -0.40488648 -0.59019303 0.30382055 1.0472989
0003a0 20 bb 08 3f cf fe 20 bd c8 c1 82 bf a4 37 43 3f
       0.5341053 -0.039305504 -1.0215387 0.76256776
0003b0 d5 dd 37 3f 50 54 87 3f e2 76 fc 3e 71 01 7d 3f
       0.71822864 1.0572605 0.4930945 0.98830324
0003c0 71 34 86 bd 1c 79 14 bf f1 87 c2 3f d0 0d 1f 3d
       -0.06552971 -0.579973 1.5197736 0.038831532
0003d0 dc 74 b9 bf 99 bd 93 3f 4d c4 a2 3e bb 95 4b bf
       -1.4488788 1.1542236 0.3179039 -0.79525346
0003e0 fa 14 ea 3e 04 06 ef 3e 99 25 27 bf 55 a9 3f be
       0.4571913 0.46684277 -0.65291744 -0.18716939
0003f0 4e 03 50 3e 15 07 87 bf 9c f3 31 be db 7c c1 bc
       0.2031376 -1.0549036 -0.17378086 -0.023619106

h.0.mha.W_q.weight f4 [64, 64]
000000 54 f3 d7 3c ca 36 88 be 63 13 6c 3e 55 cd 1e bd
       0.026361145 -0.266043 0.2305427 -0.03877004
000010 11 16 3a be be 61 84 bd d8 c7 bf 3d 7f 02 b1 3d
       -0.1817248 -0.06463955 0.09364289 0.08643054
000020 10 85 ab 3e 9d fb 16 3e a8 5b 65 3e f5 02 4a 3c
       0.33499956 0.1474442 0.22398245 0.012329807
000030 4b 4e 81 3e bb cd 83 be ea ed f5 bc 9f ad 2f bd
       0.25255045 -0.25742897 -0.030020673 -0.042890187
000040 59 20 44 3e 29 ae 38 be 4e 93 4c be a4 b5 f8 3d
       0.19152965 -0.18035187 -0.19978067 0.1214402
000050 e2 fb 3b 3e f2 f8 37 be 1e d8 de 3d 4f bb 6c 3e
       0.18357804 -0.17966059 0.10881065 0.23118328
000060 04 fc 46 3e 1d 55 85 be 84 36 8f 3e 15 4f 55 bd
       0.19432074 -0.260415 0.2797128 -0.05207737
000070 e0 b7 65 3e 46 2c 81 be 49 1d bf 3c 8a 24 b0 3c
       0.22433424 -0.2522909 0.023329394 0.021501798
000080 58 12 ef 3d df 6a ee 3d 46 63 07 bd e8 c7 6e be
       0.11673421 0.11641478 -0.03305366 -0.23318446
000090 64 0a 40 bd 91 ab 21 be 76 ab fd 3d 65 ce 56 be
       -0.04688491 -0.15788104 0.12386219 -0.20977171
0000a0 93 12 db bd 47 7d 8a 3e cc b4 51 3d a6 72 8b be
       -0.10696902 0.27048704 0.051197812 -0.27235907
0000b0 4d 59 ee 3d 91 1b bf 3d 2f 58 06 3e a4 a4 9f 3d
       0.116381265 0.0933143 0.13119577 0.077950746
0000c0 d2 d0 36 3d bc c9 1e 3e 02 c3 b0 bd 40 75 45 be
       0.04463274 0.15506643 -0.08630945 -0.19283009
0000d0 42 3d e7 3d 60 6b 49 bc ad f4 99 bd 53 db 6d 3e
       0.11290981 -0.012293667 -0.07517371 0.23228197
0000e0 76 e0 08 be 95 26 bb bd bd 46 4b 3e a1 82 a9 bd
       -0.13366875 -0.09138218 0.19851203 -0.082768686
0000f0 1b 91 01 3e ac 6a c4 3d c3 09 fd 3d 8e e0 ed 3d
       0.1265301 0.095906585 0.123553775 0.11615096
000100 e5 d7 8c bc eb 5a 22 3e 77 df 64 be 95 1b 52 3d
       -0.01719279 0.15854995 -0.2235087 0.051295836
000110 79 ab 4d 3e b6 4a 37 3e e6 d6 81 3d 97 05 cf bb
       0.20084943 0.17899594 0.06339817 -0.006317805
000120 33 bd 2c be 7c 80 9c 3d 1f 24 96 bd 69 c9 39 bd
       -0.16869049 0.07641694 -0.07331108 -0.045358095
000130 ba 13 88 be 5e ff 63 3e e1 86 b8 bd 4a 18 04 be
       -0.2657755 0.22265384 -0.09010101 -0.1289989
000140 70 7a 12 be 43 91 6e 3e 34 67 f4 3d fb a0 d7 bd
       -0.14304519 0.232976 0.11933747 -0.105287515
000150 3a af 07 be 1a 42 e6 3d 89 01 90 bd 7a 4c 89 be
       -0.13250437 0.112430766 -0.07031543 -0.2681616
000160 13 89 84 bd 76 c4 d2 3d 1c da 79 be 3a cb 5a bd
       -0.06471457 0.10291378 -0.24399608 -0.05341647
000170 c3 c1 cb bd 51 f3 06 3e 93 a6 82 3c 18 7b 02 be
       -0.099490665 0.13178755 0.01594857 -0.12742269
000180 32 7a 3f bd cc cc 2b 3d a6 9d d9 3d 3a 2c 45 3e
       -0.046747394 0.041943356 0.10625772 0.19255152
000190 70 d2 e2 bc 36 6c 2a 3e 71 48 0f be 5c 3c 9e 3d
       -0.027688235 0.16642842 -0.13992478 0.077263564
0001a0 45 73 e2 3d 1c 97 81 be 83 99 a5 bd be 36 78 3e
       0.11057142 -0.253106 -0.08085921 0.24239632
0001b0 84 c6 3f be 05 aa 94 bd b8 c7 83 be e3 77 9b 3c
       -0.18728071 -0.07258991 -0.2573831 0.018978065
0001c0 db 7c 0d 3e 33 f2 94 3c 5d f3 a8 bc 9c 24 92 3e
       0.1381716 0.018181896 -0.020623857 0.28543556
0001d0 7b 3b 69 bd 1f 4e ea 3c 79 53 3e bc ea 33 19 be
       -0.05694149 0.028601704 -0.011616581 -0.1496121
0001e0 10 89 19 3e 25 5a 43 3d 39 f5 e2 bd d4 d9 ea 3d
       0.14993691 0.04769339 -0.11081929 0.11467329
0001f0 10 74 34 bd d7 2e 45 3d 3b cb fc bd 99 6e 50 be
       -0.044056 0.048140373 -0.12343451 -0.2035469
000200 01 d6 51 bd 73 7d 3c 3e ef 8d 97 be 03 84 47 3d
       -0.05122948 0.1840723 -0.29600474 0.04870988
000210 2b b2 d3 3d d9 0b dd 3d b3 7b ac bd f9 37 4f 3d
       0.10336717 0.107932754 -0.08422031 0.05059049
000220 7e bb f4 bd ff 48 35 bd ee 2a 27 be 5b 13 5f bc
       -0.11949824 -0.044259068 -0.1632497 -0.013615455
000230 2a fa 61 be 1f dd 5e 3e 36 56 d6 bc 9e fc 8b bd
       -0.22068086 0.21764039 -0.026164155 -0.06835292
000240 9e e8 35 be db ba 7d 3e ea e5 00 3e c7 b2 16 bd
       -0.17764518 0.24778311 0.12587705 -0.03679159
000250 fa 8a 0c be 25 43 42 3e be 68 2f be e1 18 25 be
       -0.1372489 0.18970926 -0.171298 -0.16122772
000260 68 af 1b bd 23 41 e9 3d cd 17 90 be cf 87 e2 3c
       -0.038009077 0.11389377 -0.2814316 0.02765265
000270 f2 e9 10 be c9 5c af 3d 5b a5 b3 3c 5d 0d 21 bd
       -0.14151743 0.08562619 0.021929434 -0.039319385
000280 11 c6 85 bc b1 8d ae bd 3a 8c 36 3d dc 0d 61 3e
       -0.016329797 -0.08523119 0.044567324 0.21977943
000290 4f d8 39 bc 55 82 b3 3d 84 63 90 bd dd ea 96 3d
       -0.011343076 0.08765093 -0.07050231 0.07369015
0002a0 82 3f 95 3d 0b 8e 1a be 44 47 e6 bd 5c 4a 88 3e
       0.07287504 -0.15093248 -0.112440616 0.26619232
0002b0 b5 57 fc bd 87 58 9e bd b4 08 de bd 29 a1 a9 bd
       -0.12321416 -0.07731729 -0.10841504 -0.08282692
0002c0 28 f0 82 3b 9a c8 bd bb 60 d0 70 3d 7e 0b 37 3e
       0.003995914 -0.005791736 0.058792472 0.17875478
0002d0 02 ca 73 bd 0d 40 fc 3c 40 e5 ac bc 10 72 67 be
       -0.05951882 0.03079226 -0.021105409 -0.22602105
0002e0 e6 3d 3a 3e 69 de 54 3d bd 1c b5 bd 13 50 20 3d
       0.18187675 0.05196992 -0.08843372 0.039138865
0002f0 ab fd 39 bd 20 b3 6f bd c0 20 f9 bd cf 03 b3 bd
       -0.045407932 -0.058520436 -0.1216445 -0.08740961
000300 fa cf f6 bb 42 4d 2b 3e ee 30 03 bc 22 8f 34 3d
       -0.007532117 0.1672869 -0.008007271 0.044081815
000310 a5 21 37 3e 87 65 07 3e 22 31 af bd c7 fb dd bc
       0.17883928 0.13222323 -0.08554293 -0.027097596
000320 71 a1 2d be b6 88 31 bd be f7 0e bd b5 3c 04 3d
       -0.16956116 -0.04334327 -0.034904234 0.032284457
000330 56 a2 40 be a5 a3 4f 3e 10 41 db 3c cf 1b 30 bd
       -0.18811926 0.20277269 0.026764423 -0.04299527
000340 a9 d4 f3 bd 76 bb da 3d b4 94 92 3d 5b 25 44 bd
       -0.11905796 0.106802866 0.07157269 -0.047887187
000350 25 f9 c1 bd 6b d3 2d 3e d3 e0 c1 bb f8 10 cd bd
       -0.09471349 0.16975181 -0.0059166937 -0.10013002
000360 08 7b c7 bd 91 73 cd 3d e9 29 62 bd 33 37 ec bb
       -0.09740263 0.10031808 -0.05521575 -0.0072087287
000370 79 a2 0c be fd 1a 42 3d 6d de 04 3e 23 55 4f bd
       -0.13733853 0.04738902 0.12975474 -0.050618302
000380 87 8b 94 3b 60 a3 9e bb 14 a6 c0 bc d2 fe 83 3e
       0.0045332345 -0.004841253 -0.023516692 0.2578035
000390 bd 47 7b 3d ee 4d 0e 3e 8e 36 19 bd 89 b8 b2 3d
       0.06134771 0.13896915 -0.037405543 0.087266035
0003a0 4a 83 fc 3d 36 3a ad bd 80 0d 1e bd e0 b6 7b 3d
       0.12329729 -0.084583685 -0.038587093 0.0614537
0003b0 ac 63 dd bd aa 4f 42 bd 6e 16 e1 bd b8 1a 01 bd
       -0.108100265 -0.047439255 -0.10990606 -0.03151962
0003c0 d7 0e 83 3b 47 7b 5b 3d 59 41 09 be 84 ac 2f 3e
       0.003999572 0.053584363 -0.13403834 0.17155653
0003d0 34 70 00 bd 6e 06 ba 3b 47 aa 80 3d 92 64 01 bd
       -0.031357005 0.005677036 0.06282478 -0.031590052
0003e0 f6 21 9f 3d b2 e7 1e 3e 4d c8 99 bc 2f 60 c8 3d
       0.077701494 0.15518072 -0.018772269 0.097839706
0003f0 cd b5 20 3d f0 3b 33 bc d8 88 0e bd a5 6c 11 3d
       0.03923588 -0.010939583 -0.034798473 0.035504002

h.0.mha.W_q.bias f4 [64]
000000 3b 16 80 be 45 a8 16 3f be a7 05 3f 13 48 a8 3e
       -0.2501696 0.5885051 0.5220908 0.32867488
000010 a4 9a 47 3e d3 17 2f 3f d2 e9 8b be ca d1 03 3f
       0.19492584 0.6839573 -0.27326828 0.5149199
000020 94 0e 2a bf 7d 9c a2 be 72 10 18 3e a8 e0 3f 3e
       -0.66428494 -0.31760016 0.14850023 0.18738043
000030 14 34 27 3d d9 9d 2f 3f 11 e1 91 3e 8c fa 91 bd
       0.04082115 0.6860023 0.28492025 -0.07127866
000040 34 21 3e 3e e2 eb c3 3e d5 4b 10 3b d7 5f 9d 3e
       0.18567353 0.38265902 0.0022017856 0.30737182
000050 5b a1 82 be cf 2d 19 3e 1a 46 bc bd b5 9f b8 be
       -0.2551373 0.14958881 -0.09193058 -0.36059347
000060 a7 7c 95 bd 05 32 9c 3d 50 d3 13 3d 4d 11 0c be
       -0.07299166 0.07626728 0.036090195 -0.13678475
000070 c5 41 e0 3a 20 3d cb bd 9d 3e 67 3d e2 e7 1c 3e
       0.0017109445 -0.09923768 0.056456197 0.15322831
000080 ba f2 cc bd d6 06 b3 bc da a0 8c bb bf b4 cb 3c
       -0.10007234 -0.021853846 -0.004291636 0.02486646
000090 5d 2b 1e 3d 67 ac aa bc 66 fa 99 bd 7e ae e4 bc
       0.038615573 -0.020834161 -0.07518463 -0.027915236
0000a0 9b b4 a1 3d 4f b7 26 bc 63 d4 d4 3d d3 50 4b 3b
       0.07895776 -0.01017554 0.10392072 0.0031023517
0000b0 8e dd 2f 3d db 24 5b 3d a0 da ac 3d bf b7 81 3d
       0.0429359 0.053501945 0.08440137 0.06333875
0000c0 3a 04 8d bc 4c 42 9d 3d 7a f8 f6 3d d9 60 3b 3d
       -0.01721393 0.07678661 0.12059112 0.045746658
0000d0 fe d7 0b bd d6 4f 0b bd f5 63 19 bd f0 a0 5c bd
       -0.034141533 -0.034011684 -0.037448842 -0.05386442
0000e0 e2 e1 2e 3e 43 0d d8 3c 71 6f 17 bb 54 74 48 3d
       0.17078355 0.026373511 -0.0023107196 0.048939064
0000f0 d5 a2 2f 3d ec bd 23 3d db 4f ff 3d 4d 35 da bd
       0.042879898 0.039976045 0.12466403 -0.106546976

h.0.mha.W_k.weight f4 [64, 64]
000000 2d d4 38 3b e1 fe 37 bd b7 57 5a 3d e1 f7 4b bd
       0.0028202638 -0.044920806 0.053306308 -0.049796943
000010 16 93 89 bd f2 1d 99 bd 96 47 9e bc fe e8 ff 3d
       -0.067175075 -0.07476415 -0.019321244 0.124956116
000020 a9 d8 88 3d 8b f5 bb bc e6 8c 87 bb cf 9c 81 3d
       0.0668195 -0.022944232 -0.0041366694 0.06328737
000030 a6 9c 17 3d 5f 8c a6 bd 5e 21 51 3c d7 96 7c 3d
       0.037014626 -0.081322424 0.012764303 0.06166729
000040 50 a1 6b bc 5a b4 45 3c 8b 8d 28 3d c8 38 5c 3d
       -0.014381722 0.012066925 0.04115061 0.05376509
000050 34 9b 38 bd ad c8 ca bd 6f 5a 6c 3d 33 08 87 3c
       -0.04506989 -0.09901557 0.05770343 0.016483402
000060 a9 50 2b 3d a9 d3 f5 bd 03 18 8f 3d e2 5a 8c bb
       0.04182497 -0.120032616 0.06987002 -0.004283295
000070 d7 ba 22 3d 28 79 7b bc 85 c9 db 3b a7 67 96 3d
       0.039728966 -0.01534871 0.0067073726 0.07343989
000080 62 e1 a0 3c 25 5a 8f 3c 3c af 10 3d 61 58 1e bb
       0.01963872 0.017499039 0.035323367 -0.0024161565
000090 c6 b9 10 bc c4 90 f0 3c 64 4a 82 bb 8d 27 6e 3d
       -0.008833354 0.029365905 -0.003976153 0.058143187
0000a0 0c a2 9c 3d 0a 39 6a 3d 5a c1 e1 bb 85 f2 64 bd
       0.076480955 0.057183303 -0.0068895044 -0.055895347
0000b0 69 8d 02 3d 0f 4b 56 bc 6b 94 6d 3d 43 30 69 3d
       0.03187314 -0.013079419 0.05800287 0.05693079
0000c0 60 c1 2d 3d 62 a8 1e 3c ac fd 87 bd 62 48 86 bd
       0.042420745 0.0096837 -0.06640181 -0.06556775
0000d0 7f e2 bc 3d a8 0c 45 bc 71 92 90 3c 3b 64 74 3d
       0.09222888 -0.012026943 0.017647954 0.0596659
0000e0 0c 1c 9e bb 29 80 c8 bd fa 0a b2 ba 75 e8 0a bd
       -0.004825121 -0.097900696 -0.0013583594 -0.033913095
0000f0 7e d8 19 3c 7c 14 25 bd e1 86 07 3d 91 c0 04 3d
       0.009389995 -0.04030274 0.033087615 0.032410208
000100 67 61 8c bd 14 11 81 3e d3 4c 97 be b3 27 16 3d
       -0.068545155 0.25208342 -0.295508 0.036658954
000110 ab 7b 73 3e 36 2f 06 3e 7e 6d 56 bd 0e 19 92 bd
       0.23777644 0.13103947 -0.052350514 -0.07133685
000120 86 e0 7a be f2 b7 0c be 70 21 4f be 75 3c 85 bb
       -0.24499711 -0.13742045 -0.20227599 -0.004066045
000130 6f 98 bf be 7e 37 a9 3e a9 5d d5 bc 1a 28 65 be
       -0.37420985 0.3305015 -0.026045637 -0.22378579
000140 26 d0 1d be 2d 05 58 3e a6 1d 54 3e 24 4b aa bd
       -0.15411434 0.21095724 0.20714435 -0.08315113
000150 c9 26 7f be 34 9e 8d 3e 6c 2a cd bd fb d9 79 be
       -0.24917139 0.27659762 -0.10017857 -0.24399559
000160 37 43 6a be a3 3a aa 3e 5d 30 b5 be d3 23 03 bd
       -0.22877203 0.3324786 -0.3538846 -0.032016587
000170 ea fa 52 be 8c 8d 8f 3e 55 90 dd bd c8 5d a5 bc
       -0.20603529 0.2803768 -0.10818545 -0.02018632
000180 83 af 67 bc 84 83 23 be 6f 38 ec 3d 19 9e 68 3e
       -0.014140966 -0.15968138 0.11534201 0.2271656
000190 a0 1a 1d bd 15 6b d9 3d 84 b6 be bd c2 d5 95 3e
       -0.03835547 0.106161274 -0.09312156 0.29264647
0001a0 f7 77 a3 3d d1 13 b0 be 76 b1 27 be 21 1a 9c 3e
       0.07981866 -0.3439012 -0.1637629 0.30488685
0001b0 6a 27 11 be 27 b4 13 be c6 4b 88 be 08 e3 34 be
       -0.14175192 -0.14424191 -0.2662031 -0.1766473
0001c0 2c dd 44 3d 5b d4 86 be bd 06 43 3e bb 4b c1 3e
       0.04806249 -0.2633389 0.19045539 0.3775309
0001d0 42 57 1a be 7a a4 f8 3d 38 fe 43 bd 84 00 bb be
       -0.15072349 0.121407464 -0.047849864 -0.3652383
0001e0 97 21 b7 3e c7 b0 b5 3d b2 0d ac be 50 42 17 3e
       0.35767815 0.08871608 -0.336042 0.1477139
0001f0 e6 3b 2f be 2d b4 78 be 3d bf 1f be 8b e9 d3 bd
       -0.17112693 -0.24287482 -0.15600295 -0.10347279
000200 27 b0 7d 3c c6 cf 1f be ae 44 25 3e b2 6c df ba
       0.0154838925 -0.15606603 0.1613948 -0.0017045944
000210 60 db b8 bd f1 93 66 bd 76 e7 68 3d 79 8a 1d 3d
       -0.090262175 -0.05629343 0.056861363 0.038462136
000220 0a 91 21 3e 88 9d 4f bd eb c3 3c 3e da e0 27 3d
       0.15777984 -0.050687343 0.18434112 0.04098592
000230 4a e1 06 3e ae 45 4c be 15 2a 56 3c b4 50 6e 3b
       0.13171878 -0.19948456 0.013071557 0.003636402
000240 a1 69 9e 3d f6 d6 dd bd 05 88 99 bd 8b 54 ac 3d
       0.07734991 -0.10832016 -0.07496647 0.08414563
000250 5b 70 20 3e 65 6a 46 be 46 9d 1b 3c e8 ed 29 3e
       0.1566786 -0.19376524 0.009497946 0.1659466
000260 ac 4d b3 3d 07 0a 05 be 2a 62 40 3e 32 4f 19 3d
       0.08755049 -0.12992106 0.18787447 0.037429042
000270 a5 c7 0a 3e c4 45 39 be 5c 2b 15 3d 81 9b ba 3b
       0.13552721 -0.1809302 0.036418304 0.005694807
000280 af 83 99 3d a3 82 11 3d 55 35 6b bd 00 db 0e be
       0.0749582 0.035524976 -0.05742391 -0.1395073
000290 45 55 ac bc a9 f5 a8 bb ae 48 3f 3d 4f 00 dd bd
       -0.021036753 -0.005156238 0.046700172 -0.107910745
0002a0 73 76 22 3d 6a 6e ea 3d 82 71 86 3d a9 83 66 be
       0.039663743 0.11446841 0.06564619 -0.22511162
0002b0 b7 3d 61 3d 7b c2 d4 3a 47 0b f2 3d 0a 6a 2b 3e
       0.054990496 0.0016232276 0.11818557 0.1673967
0002c0 e0 2e 08 be c1 2f 19 3e df 9f cd bd f1 d4 49 be
       -0.13299131 0.14959623 -0.100402586 -0.19710137
0002d0 b9 52 b4 3d 68 30 da bd 82 46 3e 3d f8 8f 35 3e
       0.088048406 -0.10653764 0.04645396 0.17730701
0002e0 8d 88 46 be ae 9a 09 be 71 d0 04 3e 2b 55 51 3d
       -0.19388027 -0.13437912 0.12970139 0.051106613
0002f0 1d 28 ac 3d b4 c9 13 3e 7e e9 59 3d 2a 95 ab 3d
       0.084060885 0.14432412 0.05320119 0.0837806
000300 b5 76 e1 bd 0c 68 83 3d 2f cf c7 bd 6a 33 b3 3c
       -0.1100897 0.0641633 -0.09756314 0.021875102
000310 e3 7c 53 3e bc cd 18 3d 96 1f 67 bd bf f9 fb bd
       0.20653109 0.03730558 -0.056426607 -0.12303495
000320 06 8a d5 bd f3 8e 52 bd d6 c3 1a be 5d 59 73 bd
       -0.104267165 -0.05140586 -0.15113768 -0.059411395
000330 5b 75 a3 be 79 c5 46 3e 0d b5 53 3d fb e5 4b 3d
       -0.31925473 0.19411267 0.051686335 0.049779873
000340 cd 6d d4 bd cc 14 01 3e e9 8a 0f 3e 84 1e f9 3c
       -0.10372505 0.1260559 0.14017834 0.030410059
000350 b5 b0 36 bd 65 8c 4e 3e 03 1f 1b bd c3 3a ed bd
       -0.044602115 0.20170744 -0.037871372 -0.115834735
000360 1e 3d 90 bd 73 55 00 3e b7 df 4e be 45 f5 60 3d
       -0.07042907 0.12532596 -0.20202528 0.054921407
000370 9c cd 01 bc 6d d2 5b 3e 9b 9b 5c bb 4b 47 cc 3d
       -0.007922556 0.2146699 -0.0033662084 0.099745356
000380 1e 75 d1 bc 62 a9 16 be 8c f0 8a 3d c2 81 ea 3d
       -0.025568541 -0.14713052 0.06784162 0.114505306
000390 73 77 e8 3c 16 5a 4f 3d 72 81 d3 bc 1a 99 5d 3e
       0.02837727 0.050623022 -0.02581856 0.21640435
0003a0 e6 1d 56 3b 55 6a 67 be 77 91 09 bd 61 24 5d 3e
       0.003267163 -0.22599156 -0.03358599 0.21595909
0003b0 2a 45 50 bd 2d 78 53 bd 55 02 2f bd 32 43 e6 bd
       -0.05084721 -0.05162828 -0.042726833 -0.11243285
0003c0 08 ac 44 bb 58 3f 01 be e7 30 24 3e 8d c1 e2 3d
       -0.0030009765 -0.1262182 0.1603428 0.11072073
0003d0 a9 04 e1 bd 68 6d c5 3d fa 9a 1c bd fd 81 5c be
       -0.10987217 0.09640008 -0.038233735 -0.21533962
0003e0 d4 21 82 3e 99 bf fd 3c 18 f8 04 be 7e a9 97 3c
       0.25416434 0.03097515 -0.12985265 0.018513437
0003f0 70 b1 98 bd fa a9 de bd a4 fb f0 bd fd 57 94 3c
       -0.074557185 -0.10872264 -0.11766747 0.018108362

h.0.mha.W_k.bias f4 [64]
000000 5c 25 02 bd a6 ed 20 3f 38 cf c3 be 96 7c 3c 3f
       -0.03177391 0.6286262 -0.38244033 0.73627603
000010 21 4b c2 be 0b ba 08 3f 42 99 e7 bf 1d 2c 36 bd
       -0.37947944 0.5340888 -1.8093646 -0.044475663
000020 6b 8e 02 bf 7a 10 9a bf f6 02 a4 3e 04 be 4f 3d
       -0.5099856 -1.2036278 0.3203351 0.050718322
000030 12 c2 58 3e 34 1c c1 3f df 95 21 be 88 bc 8a be
       0.21167782 1.5086732 -0.15779828 -0.27096963
000040 e4 90 3d 3c 04 f7 e0 3e ca 16 cc be a4 67 cd 3f
       0.011570189 0.43938458 -0.39861137 1.6047254
000050 b5 11 87 be c0 e4 71 be f3 5d 95 bf 0e 0d 4a 3e
       -0.26380697 -0.23622417 -1.1669296 0.19731542
000060 43 32 d0 be eb 88 e2 3e 86 a5 84 3d 07 07 93 be
       -0.40663347 0.44245085 0.064768836 -0.287163
000070 80 10 c7 3e 0e a4 d9 3e 9f 01 29 3e 4e 59 2d be
       0.38879776 0.42507976 0.16504525 -0.16928598
000080 b8 75 0c bf 3a 4b 02 bf d8 5e a5 be 4e a6 2c bc
       -0.54867125 -0.50896037 -0.32298923 -0.010537697
000090 9f 43 bf 3d c7 39 ee bc c0 16 cb 3e 0f f6 ea bd
       0.093390696 -0.029080285 0.39665794 -0.11472713
0000a0 1d 01 9b 3e d6 c6 a8 3b 32 1c 3b 3e 52 d3 91 bd
       0.30274287 0.005150656 0.18272474 -0.07120384
0000b0 fd 0b d1 be 59 c9 93 3a 36 f6 0e 3f f7 5c 91 3e
       -0.4082946 0.0011275216 0.5584444 0.2839124
0000c0 7f 26 bf 3d 32 94 ba 3e 7d d3 89 be e3 20 1c be
       0.093335144 0.3644119 -0.26919165 -0.1524692
0000d0 ca 8b aa bc 9c 7b 0d bf 9a a1 ef 3e 5e c5 92 be
       -0.02081861 -0.5526674 0.4680298 -0.28666204
0000e0 78 94 5c be f3 61 a6 be cc dd d2 3e e5 24 f2 be
       -0.21541011 -0.32496604 0.41184843 -0.47293773
0000f0 8a 4f 25 3f 3b 63 ec 3e ab 54 80 3d a1 f0 39 bf
       0.6457449 0.46169457 0.06266149 -0.72632796

h.0.mha.W_v.weight f4 [64, 64]
000000 56 81 1f bd 68 ab 63 3d 03 c7 5b 3e d5 a0 4f be
       -0.038941704 0.055583388 0.21462636 -0.20276196
000010 1e ad 04 3e d2 0c 2c be 7a 28 1a be 78 bd b5 3e
       0.12956664 -0.16801766 -0.15054503 0.35496116
000020 15 a8 23 be d3 1f 5c 3d b9 b3 0d bc 55 17 d0 3d
       -0.15982087 0.053741287 -0.008648806 0.101607
000030 2d 1e 2c 3c 3f cd aa be b4 92 56 3e 3d 70 5c 3c
       0.010505241 -0.33359715 0.209544 0.013454494
000040 6e b9 84 bd b2 fb 09 3e e7 f6 f2 bd 8a c0 b4 3e
       -0.064806804 0.1347492 -0.11863499 0.35303146
000050 c6 a0 3e 3e 0e d3 57 3d 03 e5 4c 3e 0a 4e 90 bd
       0.18616018 0.05269151 0.20009236 -0.07046135
000060 8e f8 06 be f9 af 81 bd 74 96 85 be ee f0 8f 3c
       -0.13180754 -0.06332392 -0.2609135 0.017570939
000070 35 94 a5 3e 1e 53 2d bd 02 b2 a5 3d ee b9 06 be
       0.32339635 -0.042315595 0.08090593 -0.13156864
000080 3c 24 1f 3e 84 41 8e bd 5d 76 46 3e 96 42 83 3d
       0.15541166 -0.0694609 0.1938109 0.06409185
000090 3d e2 49 be 8e 90 00 3e f5 1a 82 3d 15 06 e2 3d
       -0.1971521 0.12555143 0.06352798 0.11036316
0000a0 c0 98 15 be d6 15 1c 3b 14 a4 46 3e dd a0 a9 bd
       -0.14609051 0.0023816726 0.19398528 -0.08282635
0000b0 48 e9 a5 bc aa 2e 29 3e fd 74 51 bd 9d 4e 65 3e
       -0.020252839 0.16521707 -0.05113696 0.2239327
0000c0 86 b8 91 bd a2 6e 47 3d 74 62 21 3a 84 62 01 bd
       -0.07115273 0.048689492 0.0006156333 -0.031588092
0000d0 aa c9 ae be 4f d6 75 bc 32 e6 86 3e 57 3d 9e 3d
       -0.34138232 -0.015004708 0.263475 0.077265434
0000e0 aa ad 17 3e 95 eb b4 3d f2 f0 46 bd 7c b3 4e be
       0.14812341 0.08833996 -0.048569627 -0.20185655
0000f0 0a 32 28 3d b7 44 3c be 25 13 e1 bd 82 a4 75 be
       0.041063346 -0.18385588 -0.1098998 -0.23988536
000100 fc de 5c be a5 b9 c4 3c d5 ae 39 bd 83 7d b8 be
       -0.21569437 0.024014303 -0.04533275 -0.36033258
000110 75 eb 59 3d 52 10 46 3e 0d 7a c7 3d e7 ea 91 3c
       0.053203065 0.19342163 0.09740076 0.017812205
000120 df 71 8c 3c 90 df c7 bd c4 d8 d7 bd ad ab 38 3e
       0.017144142 -0.09759438 -0.10539392 0.18034239
000130 18 21 9e bd e6 67 4d 3d 2b 2d aa bd 75 8b 14 be
       -0.07721156 0.050147913 -0.08309396 -0.14506324
000140 c6 39 00 bd c5 a0 a1 3d fe 78 3c 3e a7 77 64 3d
       -0.031305097 0.078919925 0.1840553 0.055778172
000150 d2 f7 6e bc dc eb 0b be 37 58 7c 3d ca 54 a4 ba
       -0.014585452 -0.13664192 0.061607566 -0.0012537476
000160 38 a8 07 3e b1 37 74 bd 37 43 79 be e2 87 3f bd
       0.13247764 -0.059623424 -0.24342047 -0.046760447
000170 1b 59 9f 39 a2 f3 b0 3c c8 5b cf bc ff 82 c2 bd
       0.00030393232 0.021600548 -0.02531232 -0.09497642
000180 33 24 d7 3c 3b e5 1c 3e e1 1d 63 be 09 ca 87 3d
       0.026262378 0.1532182 -0.22179367 0.06630332
000190 f7 dc 87 3c 38 ed 4e 3c 6d 44 55 3e ab 6a 3f bc
       0.016584856 0.0126298 0.20826884 -0.0116831465
0001a0 80 77 78 3e 69 8f 8b 3e b9 b5 95 3d ba cc 69 3d
       0.24264336 0.2725785 0.073100515 0.057080008
0001b0 c0 04 27 be 89 8b e5 bd 44 2c 2a 3d 88 01 9e bd
       -0.16310406 -0.11208255 0.04154612 -0.07715136
0001c0 60 0c ca 3c 6b bc ae 3d 3a 57 4b be 2e 9e a0 bd
       0.024664104 0.085320316 -0.19857493 -0.078426704
0001d0 ae 38 87 be d1 ff 0a 3e b9 03 73 3e e3 41 95 3c
       -0.2641043 0.13574149 0.23731889 0.018219894
0001e0 de 2b 05 3e 94 26 44 bb db 34 17 3e 5e 9c 09 3e
       0.13005015 -0.002993022 0.14766257 0.13438556
0001f0 6d e0 55 ba 96 0a 3f 3d 3a 55 94 bd f4 7f 34 3e
       -0.0008158747 0.046640955 -0.07242818 0.17626935
000200 ed c3 6e bd 0e 12 25 be 1f ef a8 bd 2f eb 89 3e
       -0.058292318 -0.16120169 -0.08248734 0.26937243
000210 05 25 2c 3d 8d 4d 14 3e 69 be de be 4c 02 07 bc
       0.042027492 0.14482708 -0.43504646 -0.008240294
000220 4e d1 09 3c fd 79 30 3e e5 eb 3f 3e bc 9b fc 3d
       0.0084117185 0.17234035 0.1874233 0.123343915
000230 bf f7 1c 3e 75 0c 43 3e 1a 8f 68 3e bd 1b 18 3d
       0.15328883 0.1904772 0.22710839 0.03713583
000240 57 df e4 3d 0f 45 d2 3e 67 a8 68 be fa d4 92 bd
       0.11175411 0.41068313 -0.2272049 -0.07169528
000250 5e f9 c5 bd 8c e3 c9 bd f1 0e a1 bd 59 45 25 3e
       -0.09666704 -0.09857854 -0.07864178 0.16139735
000260 e5 55 d3 bd b7 7f 75 be 9f 3b c3 bc bd b1 d5 3d
       -0.103191175 -0.239745 -0.02383214 0.104342915
000270 14 d7 7b be b6 88 ca 3c 0f 07 1c be 84 d4 b3 bc
       -0.24593765 0.024723392 -0.15237068 -0.021951921
000280 88 39 2b 3d ad aa 2d be ca d8 3e bc c2 3d a0 3d
       0.041802913 -0.16959639 -0.011648366 0.07824279
000290 3d 56 98 be ca 75 c4 be f9 2c 89 3c 4d ef f7 3d
       -0.29753295 -0.38371116 0.016745077 0.1210619
0002a0 f2 1b 6d 3d fa b2 e9 bd d7 1d 30 bc 64 d3 2a be
       0.05788798 -0.1141109 -0.010749302 -0.16682202
0002b0 45 4b 61 bd 0c 59 1d 3e a7 7e 33 3d c4 91 a4 3d
       -0.055003423 0.15366 0.043821957 0.08035615
0002c0 9f bf 1b bd 48 ac 39 bc e2 8d 48 3c 42 fd 5e 3e
       -0.03802454 -0.011332579 0.012240859 0.21776298
0002d0 d3 51 1f bd d3 1c 56 3e 30 60 8c bd ed 63 f1 bc
       -0.038896393 0.20909433 -0.06854284 -0.029466594
0002e0 1a 1b d5 bd b5 e7 c8 3e 3c d6 28 3e 69 63 3d 3e
       -0.1040556 0.39239278 0.16487974 0.18494953
0002f0 5b 5a 7a 3e f6 dd 42 3d 1e 0b 0e 3e 09 0b 94 be
       0.2444853 0.04757496 0.13871428 -0.2891467
000300 1d 80 0a 3e e4 29 64 3e af 3e 37 3d 3f 73 23 3e
       0.13525434 0.22281605 0.044737514 0.15961932
000310 c7 c9 8c 3b d4 05 3e be a3 c5 7d 3c 55 2d 05 3e
       0.0042965147 -0.18556911 0.015489015 0.13005574
000320 bc 0c 0c 3e 39 0b d0 3d 93 7f 90 3e c1 94 8a 3e
       0.13676733 0.101583906 0.2822233 0.27066615
000330 09 6e c6 bb 11 60 0d be 5d 84 eb ba 45 eb 30 be
       -0.0060555977 -0.13806178 -0.0017968524 -0.17277248
000340 bf 24 ef bd 53 df 80 3d cf 99 9b bd 9d 1e 23 b9
       -0.11676931 0.06292596 -0.07597696 -0.00015556296
000350 8b 73 5d be ab 70 95 3d c5 e4 e5 3d ac 0c 21 bd
       -0.21626107 0.0729688 0.11225275 -0.039318725
000360 80 a9 de 3d 0c 74 6a be c7 fb 70 be 88 93 a0 bd
       0.10872173 -0.22895831 -0.23533545 -0.07840639
000370 ba 56 3a be 7d de 0e 3d 29 b6 6f 3e b3 1f 9c be
       -0.18197146 0.03488015 0.23409332 -0.30492935
000380 bb 19 b9 be cf 37 78 3d fd 23 40 be a1 ab b5 3e
       -0.36152443 0.0606001 -0.18763728 0.35482505
000390 27 b5 92 3e bc 4b 8a be a3 11 c6 bd 1d de 8f 3c
       0.28653833 -0.27010906 -0.09671333 0.017561967
0003a0 73 2a 90 bc 4d 8a f0 bd bb 38 c1 3e 2b 47 73 be
       -0.017598366 -0.11745129 0.37738594 -0.23757617
0003b0 76 9a ba bc 0f 67 37 3d b4 07 3c 3c b5 86 9b be
       -0.02277873 0.04477602 0.011476446 -0.3037621
0003c0 d1 61 20 be 08 a8 dd 3d b3 53 a8 bd 79 1c 85 bd
       -0.15662314 0.10823065 -0.08219089 -0.06499571
0003d0 7e 0d a3 3b 56 2c e0 3b f1 0b 0f bd 77 a8 46 bd
       0.0049759736 0.0068412228 -0.034923498 -0.048500504
0003e0 f1 2e 41 be ec 13 88 be 21 cd f2 3d a5 23 33 3c
       -0.18865563 -0.265777 0.118555315 0.010933791
0003f0 de cc 2c bb 1a 47 2f 3e 2f d5 be bd c8 b6 a1 bc
       -0.0026367228 0.17116967 -0.09318005 -0.019740477

h.0.mha.W_v.bias f4 [64]
000000 a0 67 59 bd b4 03 71 3d f8 1a 73 3c 9c ab 8d 3d
       -0.05307734 0.058841422 0.014837973 0.069174975
000010 4b d4 20 be a3 4a 87 bd 25 20 39 3d 83 4d 21 be
       -0.15705983 -0.06606033 0.04519667 -0.15752225
000020 e5 44 89 bd a7 11 a1 bd 25 3a 05 bd 82 1f 32 be
       -0.06702594 -0.07864695 -0.032526154 -0.17394832
000030 c0 8c fe 3d 36 4d b4 3d ca 03 f4 bd f7 a6 2f 3c
       0.1242919 0.08803789 -0.11914785 0.01072096
000040 a6 09 46 3b d9 ea ae bd 6d 04 9b bd b4 08 23 3c
       0.0030218153 -0.085408874 -0.075692035 0.009950805
000050 54 1f a3 bd 6a bb 97 bd ea 8f ba bc f2 88 b5 3c
       -0.0796496 -0.07408793 -0.022773702 0.022160027
000060 a1 e5 a4 3c b9 95 07 3e 83 79 f6 3d 30 72 af 3c
       0.020129027 0.13240708 0.12034895 0.021416754
000070 93 95 68 3d a4 56 1a 3e 01 66 39 3d ca f2 14 3e
       0.05678327 0.15072113 0.045263294 0.14545742
000080 c2 a0 11 be 77 57 6d 3d f0 99 09 3e 2b b8 7b 3d
       -0.1422148 0.05794474 0.13437629 0.061454933
000090 3b 95 1d 3d bd b9 2b 3e 6a 94 1a 3d b8 8e 7b bd
       0.038472395 0.16770072 0.037739195 -0.061415404
0000a0 2f 3c d0 bd d9 dd a4 bc e3 11 91 3d 6c d4 9e bd
       -0.10167729 -0.020125316 0.0708349 -0.0775536
0000b0 2d d3 0d be 20 99 48 bd a8 d9 ed bd 2a 8f ad bd
       -0.13850088 -0.048974156 -0.1161378 -0.08474572
0000c0 6a 1f 0e be 55 25 f6 3c 94 87 14 be c4 ad d2 bc
       -0.13879171 0.030047098 -0.14504844 -0.025717624
0000d0 4a d6 38 be fe 0d e6 bd 5d 95 ab 3d be f3 f6 3d
       -0.18050495 -0.112331375 0.08378098 0.12058209
0000e0 f6 2b e2 bd 0e 66 c6 bd 39 12 36 be 1b 81 a6 3d
       -0.11043541 -0.09687434 -0.17780389 0.08130094
0000f0 f7 99 c8 3d 7d 73 d6 bd 11 0f 33 bc d7 a4 15 bd
       0.097949915 -0.104712464 -0.010928885 -0.036534157

h.0.mha.W_o.weight f4 [64, 64]
000000 1c 39 26 3c 1c 86 f7 bd 48 31 2c 3e 23 c6 63 bd
       0.010145452 -0.12086126 0.16815674 -0.05560888
000010 a0 ba 6f 3d af 95 81 3a a3 b0 1e 3d 17 18 d0 3d
       0.05852759 0.0009886528 0.038742673 0.10160845
000020 27 44 15 3e d8 ea ed 3c 75 a6 8e bd 3a 51 9c bd
       0.1457678 0.029042646 -0.06965343 -0.0763268
000030 9b 5d c1 bc b0 78 88 bc 6b 8c 51 bd 8d 78 27 3d
       -0.023604205 -0.01665911 -0.051159304 0.04088645
000040 64 f4 66 3d 98 9c 59 3c 30 e9 8a bd a8 b3 24 be
       0.056385413 0.013281964 -0.06782758 -0.16084158
000050 d7 b7 27 be db 99 31 bd e4 d7 10 3e dc 6a 15 be
       -0.16378723 -0.04335962 0.14144856 -0.14591545
000060 de a5 ae bd 2d 1c a6 bc 68 28 3c bd 1d 68 d2 bd
       -0.085277304 -0.020277107 -0.045936972 -0.10273764
000070 c7 42 0f bd 9e 02 e3 bb 79 37 20 be c1 3a c5 3c
       -0.034975793 -0.006927802 -0.15646161 0.024075868
000080 29 ee e5 3d 0f 12 1b be 84 d4 4d bd 62 82 d1 3d
       0.11227066 -0.15143608 -0.0502515 0.10229947
000090 92 ae a7 bd 20 a8 2e 3e 49 10 dd 3c d3 bb fa 3d
       -0.081875935 0.17056322 0.026985304 0.12242856
0000a0 fc 06 b4 3c a8 35 41 3c 64 13 65 3d 81 b6 f4 3b
       0.021975987 0.011792578 0.055926695 0.007468045
0000b0 d9 5d ab bd 60 f4 20 be b0 19 db 3c bf 0b ae bc
       -0.083675094 -0.15718222 0.026745647 -0.021245835
0000c0 db 2c 4a 3e 8e f2 ce 3d 54 b5 7a bc 82 5b 83 3d
       0.19743674 0.101048574 -0.015302021 0.06413938
0000d0 c8 c0 67 bd 36 7d ca 3d f7 bb 6b 3d b5 66 04 be
       -0.056580335 0.09887163 0.057552304 -0.12929805
0000e0 dd 38 6f 3c fb f2 95 3d 66 55 10 bc 32 7d 0c 3d
       0.01460096 0.073217355 -0.008809423 0.034299083
0000f0 7c fa 80 bc 81 81 7c bd ba e5 84 bd 1d 38 23 3e
       -0.01574444 -0.061646942 -0.06489129 0.15939374
000100 c8 f5 09 3d d5 0e 9e bd bd e9 aa bb c8 f2 bb 3d
       0.03368166 -0.07717673 -0.005215852 0.09177166
000110 0c 9c d7 bc 73 66 78 3d 58 88 73 bd ed 0b 9d 3c
       -0.026319526 0.06064458 -0.0594562 0.019170726
000120 03 57 32 be fe 83 02 3e b9 ec ad 3b 0f f0 5f 3c
       -0.17416005 0.12745664 0.0053077606 0.013668074
000130 b0 3c 24 3d da be fa bd 4b 93 26 3d a3 65 34 bd
       0.04009694 -0.12243433 0.040667813 -0.04404224
000140 80 52 b9 bd b0 27 82 bd 96 ab b9 3c cb 71 a0 bd
       -0.09048939 -0.06355226 0.022664826 -0.07834204
000150 6f 01 83 3d ed af 65 bc a8 40 ae bd 70 ab f0 3b
       0.06396758 -0.014018995 -0.08508426 0.0073446557
000160 5e 7c e2 3d 2a 75 4e bd b8 b2 8f 3d a9 68 be bd
       0.110588774 -0.050404705 0.0701651 -0.09297306
000170 8c 38 02 be 48 6b b9 3b 68 47 7b 3d 27 cd 3e bd
       -0.12716883 0.005658541 0.061347395 -0.046582367
000180 f2 7e c0 3d 25 7d 89 3d 64 aa e2 3b 14 5a 70 bd
       0.09399213 0.067133226 0.006917285 -0.058679655
000190 56 bd bc bc 75 5e af 3c 4c 73 83 bc e2 1f 08 bd
       -0.023039501 0.021407345 -0.016046189 -0.03323353
0001a0 ce 8f b8 bb 68 73 e9 3c 6a 27 7d bd 59 e1 b5 3d
       -0.005632377 0.028497413 -0.061805166 0.08880872
0001b0 0b 7c 41 3c c1 b1 11 bd 23 87 24 bc 82 7c 3d bd
       0.011809359 -0.03556991 -0.010041985 -0.046261318
0001c0 be 5e b0 bc 65 60 16 bd bb a9 78 bb d4 73 f0 bc
       -0.021529552 -0.036713023 -0.0037942964 -0.029352106
0001d0 67 2e e7 bd 5b 96 48 3b a5 47 ad bd a4 b6 76 bd
       -0.112881474 0.0030607197 -0.08460931 -0.060232773
0001e0 54 a5 15 3d 36 5c 2c 3e 61 c6 94 3b 2c c7 34 bd
       0.036534622 0.1683205 0.00454025 -0.044135258
0001f0 6d 02 58 3d 82 2b 44 bd cc 22 7c 3d 89 19 52 3d
       0.05273669 -0.047893055 0.061556622 0.051293883
000200 df 58 82 3d 01 b2 34 3e 02 64 a5 3d 34 d0 33 3e
       0.06364607 0.17646028 0.080757156 0.17559892
000210 ae a0 31 3c cc 6e 1d be 91 98 32 be e5 69 dd bd
       0.010841532 -0.15374297 -0.17441012 -0.108112134
000220 62 44 74 3d da 23 78 be 25 30 54 bd bd f8 8d bd
       0.059635527 -0.24232426 -0.051803727 -0.06932209
000230 86 61 72 3c 66 82 37 3e 72 c0 db 3e 9e 2f 63 3e
       0.014793759 0.17920837 0.42920262 0.22186133
000240 fb 71 6f be 2d b1 3c 3d dc ac c6 bd 1a fe 69 3e
       -0.23383324 0.046067405 -0.09700939 0.22850838
000250 04 e8 d9 3b d0 56 33 be 17 ac 98 bd af 64 1a 3d
       0.006649973 -0.17513585 -0.074546985 0.037693676
000260 9f 60 96 3e 07 b5 01 3d ac 5c 03 bd 12 95 90 3c
       0.2937059 0.03166678 -0.0320708 0.017649207
000270 2c 4c 02 3e 9b 61 3f 3d c7 fc f0 3d 4c 95 0f be
       0.1272437 0.046723943 0.117669635 -0.14021796
000280 45 e1 c3 be 3f 80 3b 3d c2 ed 43 be 12 b3 e6 3d
       -0.38257805 0.045776602 -0.19133666 0.11264624
000290 07 98 1a 3e 53 86 e8 be 1a af 25 3e bd f3 a6 bd
       0.15097056 -0.4541498 0.16180077 -0.08151958
0002a0 00 96 ba be 7a 11 37 bc 01 0b f5 bc 06 91 09 3e
       -0.36442566 -0.0111736 -0.029912474 0.13434228
0002b0 57 4d 30 be de 30 64 38 f9 c4 0e be 37 57 db bd
       -0.17217003 5.4404947e-05 -0.13942327 -0.10709994
0002c0 aa 5d 0d be 90 1d d4 bd 09 03 a2 3e 2e ec fa 3c
       -0.13805261 -0.10357201 0.3164294 0.030630197
0002d0 3f 2e 1a bd 48 70 2a be c6 5f 8f bc 86 e8 90 3d
       -0.03764176 -0.16644394 -0.017501723 0.070756
0002e0 3c 71 16 be 55 fb 9a bd cd 8c 29 bd ae ce 23 3d
       -0.14691633 -0.07567469 -0.041394044 0.039992027
0002f0 2a 67 97 bd 68 dc 26 3e a6 99 89 bd a2 75 db bd
       -0.07392724 0.16295016 -0.06718759 -0.10715796
000300 71 dd 15 be f4 8e 25 be 7d 3f ac bc 03 60 d6 3b
       -0.14635254 -0.16167814 -0.021026367 0.006542207
000310 7a bf 9f 3d a9 ef 03 3b f6 3b 88 3d e4 67 81 3c
       0.07800193 0.0020131862 0.06652062 0.01579661
000320 2a 7a 96 3d 7b 16 19 3c 4d 64 0a 3e 78 9d 0f bd
       0.0734752 0.009343739 0.13514824 -0.035062283
000330 2b a8 95 bd 4f a1 a5 3d b2 a4 e7 bd 61 a6 f8 3c
       -0.07307466 0.08087408 -0.1131071 0.030352773
000340 ba ec 30 3e 04 d0 04 3e 06 f7 f8 3d b2 35 57 3d
       0.17277804 0.12969977 0.12156491 0.052541442
000350 06 bd f7 bd 57 4f 3a 3e 71 78 90 bb 22 99 98 3d
       -0.120966 0.18194328 -0.004408889 0.07451083
000360 d1 89 59 3c 45 e8 5d 3d c3 56 c6 bc 0d cb 25 bd
       0.013277487 0.054176588 -0.024211293 -0.040476847
000370 4f 13 01 bd 67 de b6 bd ac 71 c6 3d 3b fe c4 3c
       -0.031512555 -0.08929139 0.0968965 0.024047008
000380 0f 1b 10 be c3 80 c5 3d 11 be 12 3e bf 18 bb bd
       -0.14072822 0.096437 0.14330317 -0.09135579
000390 35 15 b4 3d 65 ca 4d 3d 9d 78 3f be 59 79 11 bc
       0.087931074 0.050241847 -0.18698354 -0.008879029
0003a0 75 13 d4 3d 37 38 99 bd f4 28 79 3c 28 7f 0e 3d
       0.10355274 -0.07481425 0.015207518 0.034789234
0003b0 47 52 46 bd 4b 60 0d 3d 09 15 e4 3d 30 bf 1a 3e
       -0.04841831 0.03451566 0.11136825 0.15111995
0003c0 91 6f 98 3d 8a ba a1 3d d6 6b 29 3d c3 4b 8a bd
       0.074431546 0.07896908 0.041362606 -0.06752732
0003d0 54 d7 5b bd 3c 51 1d bd 70 ca 75 3d 2d 96 c5 3c
       -0.05367215 -0.03840755 0.060007513 0.024119461
0003e0 f0 3e 63 bd 0e 3c d1 bd e8 ea 6f bd 64 06 38 bd
       -0.055479944 -0.10216533 -0.058573633 -0.04492797
0003f0 0f f5 28 3e 59 99 cb 3b 61 d1 54 be 31 34 2a bc
       0.16499732 0.006213349 -0.20782997 -0.01038842

h.0.mha.W_o.bias f4 [64]
000000 7e 5a 86 bb 3c 1e 61 3c 9b 7d 80 3d 62 28 42 bd
       -0.004100143 0.013740119 0.06273957 -0.047401793
000010 31 41 54 3b c7 2d e6 3a b4 bb 82 bc df 11 a0 3c
       0.003238749 0.001756125 -0.015958644 0.019539772
000020 49 19 6f bd f4 5a 44 be 47 04 c0 bd ed 51 47 3c
       -0.058373723 -0.19175321 -0.09375816 0.012165529
000030 a5 9f a6 bb 4e 94 a6 bb 76 6e e7 bb f4 8f 5d 3c
       -0.005084949 -0.0050835973 -0.0070627285 0.013523091
000040 ab 1c 6a 3d 77 97 bc 3c 86 d5 bb 3c 44 51 09 3d
       0.057156246 0.023021443 0.022928964 0.033524767
000050 79 ab ef bb 54 58 bb 3b b4 16 1e 3d 31 a5 90 bb
       -0.0073141423 0.0057173166 0.03859587 -0.0044142236
000060 92 7e 53 bd 04 78 a1 3c e9 d3 e2 38 42 48 cf 3d
       -0.05163438 0.019710548 0.00010815991 0.10121204
000070 fa a3 c2 bd f1 d2 d0 3d 7e 28 b3 3d e7 f4 b6 3d
       -0.09503932 0.10196484 0.08747958 0.0893343
000080 2f c7 1b 3d e4 d2 b9 bd da f7 5c bd 44 68 52 3d
       0.038031753 -0.09073427 -0.053947307 0.051368967
000090 95 ee 47 3d 18 04 4b bd d9 75 2b 3d 8d ca ed 3b
       0.048811514 -0.04956445 0.041860435 0.007256812
0000a0 c0 af 8a bb d2 f7 a4 bb 9d c7 b2 bd f3 6c 92 3d
       -0.004232377 -0.0050344253 -0.087294795 0.07149687
0000b0 d6 16 fe bb e8 22 2d 3d 47 ee a0 3c 96 e0 30 bc
       -0.007754187 0.042269617 0.01964487 -0.010795733
0000c0 60 b5 60 be b8 70 25 3d f3 f3 f7 3d 51 29 8c 3d
       -0.21944189 0.0403907 0.121070765 0.06843818
0000d0 b3 3c 9c bc 43 75 3c 3d 48 56 bb 3b 89 5f 31 be
       -0.019071912 0.046010267 0.0057170726 -0.173216
0000e0 35 be aa 3d 1e d9 32 3e 6e 1e 0f 3d 58 61 6d bd
       0.0833706 0.17465636 0.03494113 -0.057954162
0000f0 e9 e5 b2 bd d3 3e 1d bd 42 b5 2c 3d e4 d4 ed bc
       -0.08735258 -0.038389992 0.04216505 -0.029032178

h.0.ln_1.weight f4 [64]
000000 41 9d 8f 3e 42 04 0a 3f 9f 56 db 3e cf f9 ab 3e
       0.28049663 0.53912747 0.42839524 0.33589026
000010 7a 77 47 3f f3 9f 21 3f 73 11 93 3e 10 70 5c 3e
       0.7791668 0.6313469 0.2872425 0.21527123
000020 df 04 f5 3e 51 9d 53 3e ee 40 69 3e cd a2 4d 3e
       0.4785528 0.2066548 0.22778675 0.20081635
000030 4d fb 45 3f 89 24 56 3f e4 1a db 3d 04 cd 81 3e
       0.7733658 0.836495 0.10698488 0.25351727
000040 a0 39 ae 3e be c9 23 3f 8a c4 68 3e fe 16 68 3e
       0.3402834 0.6397971 0.22731224 0.22665021
000050 ca ab ca 3e a6 b7 d9 3e 00 a1 4a 3e 46 98 10 3f
       0.3958419 0.42522925 0.19787979 0.5648235
000060 2b f2 ac 3e 05 50 23 3f 77 f7 4e 3f 1e a5 62 3e
       0.3377851 0.63793975 0.8084635 0.221333
000070 f1 4a 05 3f 9d ef d8 3e 5d 07 20 3e 17 f4 75 3e
       0.52067477 0.4237031 0.15627809 0.24018894
000080 3a 5b 84 3e 2d e8 76 3e 0d 8b 88 3e e7 c5 0b 3f
       0.2585085 0.24112006 0.26668587 0.5459885
000090 bb 6a 77 3e 74 26 b9 3e ad 84 eb 3e 08 75 e1 3e
       0.24161808 0.3616215 0.4599966 0.440346
0000a0 ae 8c 09 3e 09 cd 5b 3f 0c f2 84 3e d2 6c fa 3e
       0.13432571 0.85859734 0.25965917 0.48911148
0000b0 37 33 25 3f e5 96 c2 3e 03 83 f6 3e 64 33 a8 3e
       0.6453127 0.38005748 0.4814683 0.32851708
0000c0 4e 6a 28 3e e5 c9 54 3d 1a db 9d 3e ac c1 3e 3f
       0.16446802 0.051950354 0.30831224 0.7451427
0000d0 cc f6 4e 3e 67 a1 9f 3e e0 c0 3e 3e 4a ce e4 3e
       0.20211333 0.31177828 0.18628263 0.44688636
0000e0 b2 25 b3 3e ac 9d 16 3e ba dd 01 3f a1 32 4d 3e
       0.34989697 0.14708585 0.5072895 0.20038845
0000f0 c3 06 9e 3e b5 89 99 3e ef 95 95 3e ed 70 b9 3e
       0.30864534 0.29987875 0.29215953 0.36218968

h.0.ln_1.bias f4 [64]
000000 49 79 04 3b a4 b5 dd 3e 76 17 de be 8f d3 15 bd
       0.0020213893 0.43302643 -0.43377274 -0.03657871
000010 b2 35 54 3e 4a fb bd 3d 66 2b 2e bc 4a a7 b7 bb
       0.20723608 0.09276445 -0.010630464 -0.005604659
000020 8a 0a d1 be ba e3 1e 3d 9d c9 21 be 43 a6 15 3d
       -0.40828353 0.038791396 -0.15799566 0.036535513
000030 83 a1 26 bf 6c 87 0c 3f db f0 b8 3b 3d fc 1b bd
       -0.650902 0.5489414 0.0056439466 -0.03808235
000040 38 6e 21 be 3d 61 98 3e 5f 96 e0 3d 1d 88 23 bb
       -0.15764701 0.29761687 0.10966181 -0.0024952956
000050 26 75 d8 bd 3c 8f cc 3e 7b cb 00 be 76 fe cf be
       -0.10569219 0.3995303 -0.12577622 -0.40623826
000060 4a 9d 6d be f7 54 1a 3f 9f cd 2c bf a9 1f 06 be
       -0.23204532 0.60285896 -0.6750125 -0.13098015
000070 a2 93 94 be 48 77 ad 3e df 03 13 bd ce 45 f1 bc
       -0.29018885 0.33880067 -0.035892364 -0.02945223
000080 19 64 08 bd a3 b6 70 bd a4 39 01 3d cd 9c b7 3e
       -0.033298586 -0.058767926 0.03154911 0.35861817
000090 74 28 b4 3c 94 78 2f 3e 33 aa a6 bd d4 71 f0 3e
       0.021991946 0.1713584 -0.08137932 0.46961844
0000a0 78 87 22 3d bd 4c 47 bf e0 d0 a4 bd 0c 24 ed 3e
       0.039679974 -0.7785147 -0.08047652 0.46316564
0000b0 95 a2 15 be 7d 1a 60 be 74 1f 88 be aa 0e 2d be
       -0.14612801 -0.21885104 -0.26586497 -0.16900125
0000c0 9f eb 85 3d 17 7d 33 bd 5a 79 ad ba b3 90 a4 3e
       0.06539082 -0.043820467 -0.0013235018 0.32141647
0000d0 9c 5c 08 be 4d 95 8d 3d 6f 0d eb 3c 69 12 a1 be
       -0.13316578 0.069132425 0.02869293 -0.31459358
0000e0 f2 5c 78 3e a7 a7 0d bd e9 68 b9 be 8c 30 8f 3d
       0.24254206 -0.034583714 -0.36212853 0.069916815
0000f0 06 f8 21 be 1f f4 08 be f6 09 45 be 07 48 dd bd
       -0.1581727 -0.13374375 -0.19242081 -0.10804754

h.0.ln_2.weight f4 [64]
000000 00 00 80 3f 00 00 80 3f 00 00 80 3f 00 00 80 3f
       1.0 1.0 1.0 1.0
000010 00 00 80 3f 00 00 80 3f 00 00 80 3f 00 00 80 3f
       1.0 1.0 1.0 1.0
000020 00 00 80 3f 00 00 80 3f 00 00 80 3f 00 00 80 3f
       1.0 1.0 1.0 1.0
000030 00 00 80 3f 00 00 80 3f 00 00 80 3f 00 00 80 3f
       1.0 1.0 1.0 1.0
000040 00 00 80 3f 00 00 80 3f 00 00 80 3f 00 00 80 3f
       1.0 1.0 1.0 1.0
000050 00 00 80 3f 00 00 80 3f 00 00 80 3f 00 00 80 3f
       1.0 1.0 1.0 1.0
000060 00 00 80 3f 00 00 80 3f 00 00 80 3f 00 00 80 3f
       1.0 1.0 1.0 1.0
000070 00 00 80 3f 00 00 80 3f 00 00 80 3f 00 00 80 3f
       1.0 1.0 1.0 1.0
000080 00 00 80 3f 00 00 80 3f 00 00 80 3f 00 00 80 3f
       1.0 1.0 1.0 1.0
000090 00 00 80 3f 00 00 80 3f 00 00 80 3f 00 00 80 3f
       1.0 1.0 1.0 1.0
0000a0 00 00 80 3f 00 00 80 3f 00 00 80 3f 00 00 80 3f
       1.0 1.0 1.0 1.0
0000b0 00 00 80 3f 00 00 80 3f 00 00 80 3f 00 00 80 3f
       1.0 1.0 1.0 1.0
0000c0 00 00 80 3f 00 00 80 3f 00 00 80 3f 00 00 80 3f
       1.0 1.0 1.0 1.0
0000d0 00 00 80 3f 00 00 80 3f 00 00 80 3f 00 00 80 3f
       1.0 1.0 1.0 1.0
0000e0 00 00 80 3f 00 00 80 3f 00 00 80 3f 00 00 80 3f
       1.0 1.0 1.0 1.0
0000f0 00 00 80 3f 00 00 80 3f 00 00 80 3f 00 00 80 3f
       1.0 1.0 1.0 1.0

h.0.ln_2.bias f4 [64]
000000 00 00 00 00 00 00 00 00 00 00 00 00 00 00 00 00
       0.0 0.0 0.0 0.0
000010 00 00 00 00 00 00 00 00 00 00 00 00 00 00 00 00
       0.0 0.0 0.0 0.0
000020 00 00 00 00 00 00 00 00 00 00 00 00 00 00 00 00
       0.0 0.0 0.0 0.0
000030 00 00 00 00 00 00 00 00 00 00 00 00 00 00 00 00
       0.0 0.0 0.0 0.0
000040 00 00 00 00 00 00 00 00 00 00 00 00 00 00 00 00
       0.0 0.0 0.0 0.0
000050 00 00 00 00 00 00 00 00 00 00 00 00 00 00 00 00
       0.0 0.0 0.0 0.0
000060 00 00 00 00 00 00 00 00 00 00 00 00 00 00 00 00
       0.0 0.0 0.0 0.0
000070 00 00 00 00 00 00 00 00 00 00 00 00 00 00 00 00
       0.0 0.0 0.0 0.0
000080 00 00 00 00 00 00 00 00 00 00 00 00 00 00 00 00
       0.0 0.0 0.0 0.0
000090 00 00 00 00 00 00 00 00 00 00 00 00 00 00 00 00
       0.0 0.0 0.0 0.0
0000a0 00 00 00 00 00 00 00 00 00 00 00 00 00 00 00 00
       0.0 0.0 0.0 0.0
0000b0 00 00 00 00 00 00 00 00 00 00 00 00 00 00 00 00
       0.0 0.0 0.0 0.0
0000c0 00 00 00 00 00 00 00 00 00 00 00 00 00 00 00 00
       0.0 0.0 0.0 0.0
0000d0 00 00 00 00 00 00 00 00 00 00 00 00 00 00 00 00
       0.0 0.0 0.0 0.0
0000e0 00 00 00 00 00 00 00 00 00 00 00 00 00 00 00 00
       0.0 0.0 0.0 0.0
0000f0 00 00 00 00 00 00 00 00 00 00 00 00 00 00 00 00
       0.0 0.0 0.0 0.0
