subspace-alignment/data/2_layer_64_vocab/ckpt_25860.pt (torch, 178594 bytes, 29 tensors)

embed.embed.weight f4 [64, 64]
00000000: aa46 fabe 5288 c33f 81a8 af3d 1d61 023f
00000010: f545 403e 36a7 7ebe e545 1ec0 ca1a 09be
00000020: 6643 f9be df42 6cbb 81d5 afbf f280 ff3e
00000030: 1c8c f1be 0241 5cbf a9cf a8bc 19c3 133e
00000040: 04ea d53c 45c0 723e 0afb a9be a7b7 1ebf
00000050: f428 96be 0627 2240 8303 b73f a05b 8ebf
00000060: ed1c 8bbf 0839 0040 93b4 89bf 02b5 e23f
00000070: 6c0b 273f 2d5b 393f 28df 94be cf16 843e
00000080: 6ce7 933f f173 58bf 0e2f 143c b7c5 8fbf
00000090: 1f27 75bf 19d3 6e3e c0f7 9cbf a01b 593f
000000a0: 0f9c 90bf f83b 96bf c0e4 c43e 3ce0 0b3f
000000b0: 3d7f 9f3f ba28 823f 2747 0abf 2715 d8be
000000c0: f018 a4be 2b04 57bf d9b9 88bd 6e67 d2bd
000000d0: 4657 143e a11e 643f 6d01 29be 0348 6fbf
000000e0: dcfa b73e 5c8e 083d 6d99 33bf 25ba 7ebf
000000f0: 7139 823e b561 3cbf 8d33 1cbe 9e43 343f
00000100: 6cdf 603e 21e7 86bf 6e95 a6bf ad68 d2bd
00000110: 8fcb 0040 8ae7 a4bf 9ad8 2dbf 8c01 afbe
00000120: 5a2d b23e 698a e33c 9583 fdbe 313a 153e
00000130: 2a68 863e 49ee 233f 5ce2 de3d a506 13be
00000140: d65f d63e a4b0 22bf 6573 67bb d679 0abe
00000150: 254e 723e 2f2f e7be eed8 c83f 2367 823e
00000160: ae0f c8be 3e40 9f3f c908 bbbf cfc5 e13e
00000170: e01c 04c0 ca07 e03f 05a6 88bd 070a d8be
00000180: 3e36 6bbf 8a50 f8be 178e e13e 49ca 80ba
00000190: ed0f bc3f 76bd 283f 8554 a63f 6250 623f
000001a0: c289 b7be 1bfd 89be 2bfa 6f3f 3db5 e03e
000001b0: 3538 ffbe cda3 9d3e a575 24bf 4710 d3bf
000001c0: 0adb 83be f4c8 0dbf 2730 0540 c7ac 9dbc
000001d0: 80d5 4fbe e2f2 7fbe 2042 69bc d3c4 2fbf
000001e0: 3c67 d23d 1c96 a73d 242b 48bf a8a7 113e
000001f0: 858d 043f d9d0 29c0 6197 56bc 0334 fd3d
00000200: 9594 a83f 8d35 873f 28de dbbe 7b7b 3cbd
00000210: c843 adbe 4e73 523f 2800 95bf cb6f 53bf
00000220: 958d 053f a39e 8ebd 9001 0abf ccdc 56bf
00000230: 0584 e3be 4b0c 383f 1833 c2bb 1ac1 aebe
00000240: 39fc 54be 42d4 a4bf ad34 e1be d349 0fbf
00000250: cfe7 75be dd5d ee3f dc7c 86bf 93c3 b5be
00000260: 80fa 86be 86e5 033f f247 45be 59b6 1d3c
00000270: d657 45bf 7cb4 b23f 4226 183f cf2b 483e
00000280: 08d1 8dbf 417d 153e eadd bc3e 6d43 3b3f
00000290: f3a8 8cbf d935 d9bf 4f9a e6be df0a 1540
000002a0: bda0 f6bd 1056 8ebf 424c e33d 0e36 a33e
000002b0: 6466 cdbb 9851 05bf dcc8 1f3f 7cbe d1be
000002c0: 7828 e4be 5afd 86be f85f 3240 c578 00be
000002d0: ce50 0fbc 17fe 06bf f52c adbf 452f 36bf
000002e0: 30ab 123f 63f6 8a3e 8ba5 a1be 2952 883e
000002f0: 851b 25c0 595c 983d 7662 463e 7726 d23e
00000300: 4fa5 aabf 861f 833f 8251 dcbe e053 0c3e
00000310: d907 b2bf e335 f3be 0440 a13f 7cbf ab3d
00000320: f5cb abbf 84a6 f3be fdf0 75bf 5041 62bf
00000330: c9ef 1fc0 b1bb 1e40 bdad 73be 54c0 ca3e
00000340: 2dd4 033f 2899 edbe 51dd 973d 95b2 02be
00000350: ec07 90bd 8e5a 50bf fb51 4fbf 03ac ec3e
00000360: 9c1c a6bf e83a ee3f eed1 2f3e 83d8 eb3e
00000370: 8e69 133e 6051 033f 3e71 51bb 45e8 553f
00000380: 2f99 1d3f 3210 943e ed01 13bf ca74 54bf
00000390: 0b45 c9be e74a 19bf 411f a53e 0bbd 813f
000003a0: 99d5 2f3f 405a e3bc e247 89bf 827d 453f
000003b0: 39ba 3a3f 0c05 8d3f 0ee7 0f3f 7872 7d3f
000003c0: 49e9 cd3b e537 1fbf 4f16 b83f 8fb8 003c
000003d0: 7253 b9bf bf55 933f 7041 b13e 6b7c 4cbf
000003e0: e07a ea3e 6c9f 063f f263 45bf 4cd0 69be
000003f0: 7114 4f3e 6dd0 80bf 5b10 69be aafa 56bc
-0.48882037 1.5275977 0.085770614 0.50929433 0.18776686 -0.24868473 -2.473016 -0.13389125
-0.48684233 -0.00360506 -1.3737031 0.49903065 -0.47177207 -0.86036694 -0.020606833 0.14429893
0.026112564 0.23706158 -0.3319934 -0.6199898 -0.2932812 2.5336318 1.4297947 -1.1121712
-1.0868202 2.003481 -1.0758232 1.7711489 0.65251803 0.7240475 -0.29076505 0.25798652
1.1554999 -0.8455191 0.009044422 -1.1232213 -0.9576282 0.23322715 -1.2263107 0.8480778
-1.1297625 -1.1737051 0.38455772 0.5463903 1.2460705 1.0168679 -0.5401482 -0.42203638
-0.32050276 -0.83990735 -0.066760726 -0.10273634 0.14486417 0.89109236 -0.1650445 -0.93469256
0.35933578 0.03333889 -0.70155984 -0.99502784 0.2543445 -0.7358659 -0.1525404 0.70415676
0.21960229 -1.0539285 -1.3014352 -0.102738716 2.0124242 -1.288316 -0.6790863 -0.34180868
0.34800225 0.02777596 -0.49514452 0.1457298 0.26251346 0.6403547 0.108830184 -0.14358003
0.41869992 -0.6355078 -0.0035316583 -0.13523039 0.23662622 -0.45153186 1.5691202 0.25469312
-0.39074463 1.244148 -1.4612056 0.44096228 -2.0642624 1.7502377 -0.06672291 -0.4219515
-0.9187964 -0.48498946 0.44053718 -0.0009825911 1.469236 0.65914094 1.2994543 0.88403904
-0.35847288 -0.26950917 0.937411 0.43888274 -0.4984757 0.30789033 -0.6424201 -1.6489342
-0.2575305 -0.55384755 2.081064 -0.019247426 -0.20296288 -0.24994996 -0.014236957 -0.68659705
0.10273597 0.08182928 -0.7819083 0.14224112 0.5177844 -2.653372 -0.013097615 0.12363436
1.3170344 1.0563217 -0.4294293 -0.046016198 -0.33840775 0.8220719 -1.1640673 -0.8259246
0.5216916 -0.06963851 -0.53908634 -0.8393066 -0.4443666 0.7189376 -0.005926501 -0.341317
-0.2079934 -1.2877276 -0.439855 -0.5597202 -0.24014209 1.8622395 -1.0506854 -0.35500774
-0.2636299 0.515221 -0.19265726 0.009625995 -0.7708715 1.396133 0.59433377 0.19547962
-1.1079416 0.14598562 0.36888057 0.7314976 -1.0989059 -1.6969558 -0.45039603 2.3287885
-0.12042377 -1.1120014 0.110985294 0.31877178 -0.0062683094 -0.5207763 0.6241586 -0.4096564
-0.44562125 -0.26365167 2.7871075 -0.1254607 -0.008747293 -0.5273146 -1.3529345 -0.7116588
0.5729246 0.27141103 -0.31571612 0.26625183 -2.5798047 0.07439489 0.19373497 0.4104497
-1.3331698 1.0243995 -0.43030936 0.13703871 -1.3908645 -0.4750205 1.2597661 0.08386132
-1.3421618 -0.4758798 -0.96070844 -0.8838091 -2.4990103 2.4802058 -0.23796745 0.3959986
0.5149563 -0.4640591 0.0741526 -0.12763436 -0.07032761 -0.81388175 -0.8098447 0.46224985
-1.2977481 1.8611727 0.17169926 0.46063623 0.14395735 0.51296043 -0.0031958367 0.8355754
0.61561865 0.28918606 -0.57424814 -0.82990706 -0.39310488 -0.59879917 0.32250407 1.0135816
0.686853 -0.027752995 -1.0725062 0.77144635 0.72940403 1.1017165 0.56211936 0.9900279
0.0062839133 -0.62194663 1.4381808 0.007856502 -1.447859 1.1510543 0.34620237 -0.79877347
0.4579687 0.5258701 -0.7710563 -0.22833365 0.20222642 -1.0063607 -0.22760145 -0.013121286

h.0.mha.W_q.weight f4 [64, 64]
00000000: da21 b43c bc4e 84be bda8 643e 8c71 17bd
00000010: 1394 2cbe 0b24 9abd 621b fa3d c37b 993d
00000020: 8bff a43e 41db 123e 7150 523e 85d9 803c
00000030: 94a6 773e 518e 77be eebe d3bc 469b 10bd
00000040: 23b4 323e 7d85 35be 621f 38be a7dc f83d
00000050: 7168 3f3e fa7c 31be fe4c dd3d a970 6a3e
00000060: 3c1e 3b3e 197c 7dbe 0785 883e 9d48 34bd
00000070: ca46 643e 3daa 79be 8b28 113c 59b2 713c
00000080: 8073 e93d 3554 de3d d1f7 5abd 820e 66be
00000090: 6e35 22bd 47e1 1ebe 6c90 fd3d 2399 52be
000000a0: b449 d9bd 6220 833e 6e3f 6c3d 9e2d 89be
000000b0: 8d40 d23d edd6 b63d 4d19 e53d f475 a23d
000000c0: e0b3 ff3c e838 123e bfd1 a1bd b350 38be
000000d0: b8f4 cf3d 9826 293c 7638 59bd 7f21 623e
000000e0: 9319 f7bd f657 a5bd 43da 3b3e d901 95bd
000000f0: 4f8a ea3d 7e28 9b3d 780e fa3d 34e7 ed3d
00000100: 0169 62bc 3921 203e a791 5ebe 935e 543d
00000110: 1964 493e a640 313e b750 4c3d ff0a e1ba
00000120: 670d 28be 42a4 c03d 7d15 8dbd 7800 3fbd
00000130: 67ee 85be 75c8 5f3e 8225 bebd 716e 02be
00000140: ab32 0dbe dd6e 5b3e 5efd e03d 6773 d0bd
00000150: b05d febd 6fb8 ea3d 2246 81bd 4282 87be
00000160: f8c1 81bd f18e c83d 9d64 73be 213c 19bd
00000170: f372 cfbd d546 053e 66fa c83c 3ff7 f1bd
00000180: 822d 08bd ed75 213d e026 e13d 5353 3e3e
00000190: 2410 d6bc e3c4 253e 470a 07be 5f75 a23d
000001a0: e42e e43d 3240 82be 468c a2bd 8e4b 753e
000001b0: d26a 35be 1fb9 92bd 4949 80be 4bb1 893c
000001c0: 873c 003e 8116 973c 7b6e 52bc be38 8e3e
000001d0: 3128 6abd 5e13 0f3d 3c8a b6bc a640 1bbe
000001e0: 67e5 173e 56fa 053d 7850 debd edd0 ae3d
000001f0: 9bef 35bd b59b 413d fbeb 02be f91f 4dbe
00000200: 6578 45bd e11c 3a3e 3b99 97be 1ae9 453d
00000210: 0f5c cd3d cf8a c83d 3de0 99bd abd8 2f3d
00000220: 16e2 e6bd 8de7 3bbd 0280 28be 336f 4ebc
00000230: 8803 5dbe 7f99 5b3e b661 89bc ffd1 85bd
00000240: 25ea 37be 6dfc 813e 166e 053e 66a1 2ebd
00000250: fd7e 0abe 299d 3e3e 300a 2fbe dab3 20be
00000260: 0df8 07bd 4942 eb3d faf2 91be 17e4 a03c
00000270: c2be 05be d84a ac3d 3ec9 b13c d84d 26bd
00000280: 4270 e3bc 4c1a aabd ae44 293d 4e32 603e
00000290: 33b8 62bc 848b a53d e351 9abd b70e 863d
000002a0: 9150 693d 5251 12be 0dae d3bd 80d8 863e
000002b0: f0c5 f8bd db58 94bd 11c3 debd 4f70 9cbd
000002c0: f7d0 b43c bc08 99bb 821f 543d 9fe2 343e
000002d0: 90c6 5cbd ab03 cf3c a003 5fbc a46e 5ebe
000002e0: 822a 353e b558 803d 8758 acbd 442e 713d
000002f0: e943 43bd 24ca 62bd 2148 e6bd c54d a3bd
00000300: e1b2 21bc e278 2c3e d603 71bb bbc9 483d
00000310: 9533 323e 6b1f f93d 0e86 b8bd f202 dcbc
00000320: cc75 2ebe 5745 0ebd 2320 07bd 8b3a 163d
00000330: 5b1d 3fbe 1c64 543e 1818 143d f3a6 35bd
00000340: 7e7f f0bd 256b c53d ae6d 973d 0ba3 3bbd
00000350: 8b09 babd 24f6 303e dedd f3bb d7ff c5bd
00000360: 7b37 c5bd 87df c53d f756 60bd 7aca c4bb
00000370: 580f 0bbe c5b3 363d fd7d 0c3e 5770 26bd
00000380: b1d3 5f3c 3a51 f8bb 8371 00bd abc5 7f3e
00000390: e8b4 703d 3ca3 0a3e 97d3 c2bc be81 ae3d
000003a0: 14fa f33d ba21 acbd 4f8b 12bd a024 7f3d
000003b0: ebf7 dfbd 1353 55bd f8a9 d6bd a1da e5bc
000003c0: 8ec0 6aba 5e22 503d 428f 00be 895e 2b3e
000003d0: 229c 09bd e52b 9f3c 0009 6f3d 54d0 09bd
000003e0: b68e 9b3d 4f45 1c3e 7e51 92bc 6af2 b93d
000003f0: da1e 213d 4f7c 58bc 19b7 1abd 44b3 1c3d
0.021988798 -0.2584132 0.22329994 -0.03697352 -0.16853361 -0.07526406 0.12212254 0.07494309
0.32226214 0.14341451 0.20538498 0.015728721 0.24184638 -0.24175383 -0.025847878 -0.03530433
0.17451529 -0.17726703 -0.17980722 0.12151461 0.18692185 -0.17332831 0.10805701 0.22894539
0.18273252 -0.24754371 0.26663992 -0.044014562 0.22292629 -0.24381347 0.008859764 0.014751994
0.11398983 0.10855905 -0.053458992 -0.22466472 -0.039601736 -0.15515624 0.12381062 -0.2056623
-0.10609761 0.25610644 0.05767768 -0.26792616 0.10266218 0.089277126 0.11186466 0.07932654
0.0312137 0.1427952 -0.07901334 -0.17999534 0.10154098 0.010324143 -0.05303236 0.2208309
-0.12065425 -0.08073418 0.18344979 -0.07275743 0.114521615 0.07576083 0.12209791 0.11616364
-0.01381898 0.15637673 -0.2173525 0.051848006 0.1966709 0.17309818 0.049881663 -0.0017169415
-0.16411363 0.0940633 -0.06888864 -0.046631306 -0.2615845 0.21853812 -0.09284498 -0.12737443
-0.1378886 0.2142901 0.10985826 -0.10178261 -0.12420213 0.11460959 -0.06312205 -0.26466566
-0.06335825 0.09792889 -0.2376885 -0.03741086 -0.10129347 0.13015302 0.024533462 -0.118147366
-0.033246525 0.039419103 0.10993743 0.18586473 -0.026130743 0.16188388 -0.13187514 0.07932543
0.11141756 -0.25439602 -0.07936911 0.23954603 -0.1771653 -0.07164215 -0.25055912 0.016808173
0.1252309 0.018443348 -0.012843723 0.27777666 -0.057167236 0.03493058 -0.022282712 -0.1516138
0.14833604 0.032709442 -0.10855192 0.08535943 -0.04441796 0.047267634 -0.12785332 -0.20031728
-0.04821052 0.18175079 -0.29609093 0.048318006 0.100273244 0.09792101 -0.07513473 0.04293124
-0.11273591 -0.04587512 -0.16455081 -0.012599754 -0.21583378 0.21445273 -0.016770225 -0.06534194
-0.17960413 0.25387898 0.13030276 -0.04263439 -0.13525005 0.1861464 -0.1709373 -0.15693608
-0.033195544 0.11487252 -0.2850569 0.019640012 -0.1306105 0.08412713 0.021702405 -0.04060158
-0.02776349 -0.08305797 0.041325264 0.2189419 -0.013837862 0.08083251 -0.0753515 0.065457754
0.0569616 -0.14288834 -0.10335932 0.2633705 -0.121471286 -0.0724351 -0.1087705 -0.07638609
0.022072298 -0.0046702307 0.05178786 0.17664574 -0.0539003 0.025270304 -0.013611704 -0.21721894
0.17691997 0.062669195 -0.08415323 0.058882013 -0.047672186 -0.055368558 -0.11244226 -0.07973818
-0.009869308 0.16842988 -0.0036775968 0.04902051 0.1740249 0.121641956 -0.09009944 -0.026856873
-0.17037123 -0.034734096 -0.032989632 0.036676925 -0.18663542 0.20741314 0.03615579 -0.04434867
-0.11743067 0.09639577 0.073939666 -0.045809787 -0.090838514 0.17281395 -0.00744222 -0.09667938
-0.09629723 0.09661775 -0.054770436 -0.0060055824 -0.13580072 0.044605035 0.13719936 -0.04063448
0.013661311 -0.0075780423 -0.031358253 0.24977748 0.058766276 0.13538831 -0.023782535 0.0852084
0.11912933 -0.0840487 -0.035777386 0.062290788 -0.109359585 -0.05208118 -0.10481638 -0.028058352
-0.00089550845 0.050814025 -0.12554649 0.16735281 -0.033596165 0.01943011 0.058358192 -0.033645943
0.07595579 0.15260814 -0.017861124 0.0907944 0.039336063 -0.013213231 -0.03777227 0.0382569

h.0.mha.W_q.bias f4 [64]
00000000: da5f 74be 235c 153f 2c36 053f 628b a63e
00000010: b35b 483e 8e7a 2a3f 202e 87be a1a0 ff3e
00000020: a7d7 28bf 09e0 a3be 5296 193e 3293 393e
00000030: 322f 1d3d e899 2b3f 2693 903e ef73 97bd
00000040: c080 413e e9b9 cb3e 1290 b9bb 9947 a23e
00000050: 7e12 83be 287b 193e 0a07 b5bd 768f acbe
00000060: 785f 99bd 0b77 963d e83c 103d f6ba 08be
00000070: d82d ed3b ea64 c3bd 512f 613d 0a53 213e
00000080: 2f59 cebd bdf8 bdbc 97c3 2bbc b51a 003d
00000090: 304d 123d 91dc c1bc 19f2 a2bd 2296 e5bc
000000a0: 0a86 a93d ab69 dbbb d44a d13d f389 143b
000000b0: 2a3d 643d 4996 6e3d a5c3 a53d 1fcc 883d
000000c0: b753 3ebc 20ed 983d 9506 003e 6bb9 4e3d
000000d0: 46bc fcbc 16ea 20bd 16c1 18bd fd03 4fbd
000000e0: e3ac 2b3e 128e c03c 9322 fdb8 0419 313d
000000f0: a382 253d ef94 1e3d 99be fb3d 99ec cbbd
-0.2386469 0.58343714 0.52035785 0.32528216 0.1956623 0.66593254 -0.26402378 0.49927238
-0.6595406 -0.32006863 0.14998749 0.18122557 0.038375087 0.6703172 0.28237265 -0.073951595
0.1889677 0.39790276 -0.0056629265 0.3169525 -0.25600046 0.14988387 -0.08839233 -0.33703202
-0.07488912 0.073469244 0.035214335 -0.1335257 0.007238131 -0.09540732 0.054976765 0.15754333
-0.10075604 -0.023189897 -0.010483644 0.03127547 0.035718143 -0.023664745 -0.07956333 -0.02802569
0.08277519 -0.006695946 0.102193505 0.0022665232 0.055722393 0.05824879 0.08093957 0.06679558
-0.011616639 0.07467103 0.12502511 0.050469797 -0.030851495 -0.03928574 -0.037293516 -0.050540913
0.1676517 0.023505244 -0.0001207042 0.043236747 0.040407788 0.038716253 0.12292213 -0.09957237

h.0.mha.W_k.weight f4 [64, 64]
00000000: 9c37 bf3b 76d5 42bd 2f93 353d 674d 50bd
00000010: cadb 84bd ac9a 98bd a8a2 e4bc aaee 093e
00000020: 9a7f 883d 368f d9bc dcc2 bdbb 3cb2 933d
00000030: 8b2f 163d 62d2 a9bd 8d7d 1b3d 4b40 323d
00000040: 3774 9cbc 92d8 813c f132 243d b089 713d
00000050: 7e02 2fbd f521 b7bd ab1f 873d 52a1 8a3c
00000060: ede0 203d dfdf fabd 4cfe 8a3d f275 3c3b
00000070: 33c1 fb3c 703b 49bc 1150 ab3a ca7c 8e3d
00000080: fcee be3b 7532 283c fbf1 1e3d 91d3 3f3b
00000090: 8086 28bc 9f69 053d e59a a93a 2621 753d
000000a0: 4c88 963d 36a1 4d3d 9134 85ba 5584 69bd
000000b0: 37b7 473c 1b96 12bc 371c 513d 2e39 683d
000000c0: 3c92 063d c9e7 533c 89bc 8fbd 274e 8fbd
000000d0: 69a9 b23d 73c9 1bbc 4bb6 023c 65d6 613d
000000e0: 16b4 5f3b 1d0b 98bd bd5f 66bb 8da9 e3bc
000000f0: 190f b63b a56b 25bd d880 0f3d 2a11 0c3d
00000100: 9f91 83bd d44d 753e 7fdd 8fbe 2f68 0d3d
00000110: 60ca 6d3e fe74 073e dd60 2fbd d06b 88bd
00000120: abc4 6dbe 96ea 0abe 0ee5 4ebe e016 9f3c
00000130: eafa bbbe 9cfa a53e d7a0 7cbb 9183 5dbe
00000140: 4e84 17be 335b 533e d3a6 3f3e 02ab b6bd
00000150: 0d9a 70be b0b1 893e 1e00 bdbd 5696 6ebe
00000160: 6a4c 59be 8961 a63e c8bd b3be dacf 10bd
00000170: 2ad5 45be 5d50 8b3e bf0f cebd bd4c ffbc
00000180: d848 3bbc 2f46 28be a710 dc3d d5b2 653e
00000190: f67c d1bc 8f8f d13d a0ad d0bd 17d0 883e
000001a0: 491d 7d3d 062c a9be c94d 19be b110 973e
000001b0: 95fe 04be 7d67 05be 1079 83be a79f 27be
000001c0: a903 173d 8323 84be b82c 303e cb16 bc3e
000001d0: 9213 17be a9b2 f63d 6785 55bd 973f b2be
000001e0: 8b0b af3e 0e88 9b3d 6039 a0be 8424 003e
000001f0: 407b 2bbe 1974 74be 1257 21be 0b31 d9bd
00000200: b39d a53c 5900 1ebe 6e66 263e e5eb 1bbb
00000210: c94e b6bd 7e36 7fbd 3518 583d abf2 bd3c
00000220: 88f6 243e ac90 ffbc 1154 363e 5dbf 3c3d
00000230: 780b 033e c785 48be 8d2e 6c3c 45b6 3b3c
00000240: 1fc7 a03d b017 e4bd 72ae 92bd 489a 8d3d
00000250: 17fd 203e ede2 45be d24e a63b 7eaf 293e
00000260: 0e67 b43d 738e fdbd 6873 3e3e e44f f23c
00000270: 7de1 083e b694 34be d6df 273d 3792 20bc
00000280: 7b23 a43d 1641 093d 9b78 5ebd 4a09 15be
00000290: d225 7abc 4ec5 1dbc ba67 283d 7aa2 dbbd
000002a0: 3885 283d 77ad ea3d fe3d 893d 09d2 63be
000002b0: 1c7c 8d3d 0c18 b03a 674d 023e 58f5 283e
000002c0: 03e9 0abe 3a87 103e 0a11 b5bd 5e99 48be
000002d0: 6169 be3d 5f22 c4bd ee89 3a3d 1b68 313e
000002e0: 1257 49be ca1b 18be 964b 073e 3d6b 323d
000002f0: 3c76 9a3d 0078 083e e151 5d3d 772d b33d
00000300: 82c3 e9bd fde5 723d 048b c6bd 2272 d73c
00000310: 8263 593e af74 f53c 4743 5fbd 01d3 fabd
00000320: ddee d0bd f9de 33bd 4098 0ebe 66ed 84bd
00000330: 8cd2 a1be 5bce 443e 0184 e23c 49d9 603d
00000340: 88a4 d2bd 4111 073e 558a 1a3e 650b d73c
00000350: 626f 37bd 89f9 463e 6822 2bbd 9063 e6bd
00000360: b7f9 7dbd 7873 eb3d 14fe 4abe 8dd0 553d
00000370: a5bd 00bc 2d36 533e cd24 40bc 1755 bc3d
00000380: 0820 d1bc 8175 11be b94c 913d 0475 eb3d
00000390: d712 ff3c 0a44 643d f49f b9bc 4fd6 583e
000003a0: 0763 443c fc13 5bbe 9d71 edbc cf44 573e
000003b0: 0243 35bd 83dd 5fbd 1acc 37bd c20e f0bd
000003c0: 3a76 843b 7799 00be 47e3 243e 707f e93d
000003d0: 66be c3bd f158 c23d 70e0 1fbd 42d3 59be
000003e0: a999 7c3e 956e 8d3c 49b3 04be 3cdc 9d3c
000003f0: c585 8abd a244 d1bd 6d2d eabd 76e4 b43c
0.0058354866 -0.047566853 0.04432982 -0.050855067 -0.06487234 -0.07451376 -0.027909592 0.1346995
0.06664963 -0.026557546 -0.0057910513 0.0721173 0.036666434 -0.082920805 0.03796153 0.043518346
-0.019098384 0.01585034 0.040087644 0.0589692 -0.042726986 -0.08942024 0.06597837 0.016922627
0.039277006 -0.12249731 0.067867845 0.0028756824 0.030731773 -0.012282237 0.0013070126 0.069573954
0.005826829 0.010265936 0.03880499 0.002927039 -0.010285974 0.03257143 0.0012939839 0.059846066
0.07350215 0.05020257 -0.0010162761 -0.057010967 0.012189678 -0.008946921 0.0510523 0.056695156
0.032854304 0.01293368 -0.07018382 -0.06997328 0.08723719 -0.009508478 0.007978032 0.055136103
0.003413444 -0.07423995 -0.003515228 -0.027790809 0.005555999 -0.04038586 0.035034984 0.034196056
-0.064242594 0.2395547 -0.28098676 0.034523185 0.23221731 0.13228223 -0.042816985 -0.066611886
-0.23219554 -0.1356605 -0.20204565 0.019420087 -0.3671487 0.32417762 -0.0038548016 -0.2163222
-0.14796564 0.20640258 0.18715982 -0.08919336 -0.23496266 0.26893377 -0.09228538 -0.23299536
-0.21220556 0.32496288 -0.3510573 -0.035354473 -0.19319597 0.2720975 -0.10061597 -0.031164521
-0.0114309415 -0.16433023 0.10745364 0.224315 -0.025572281 0.1023246 -0.10189366 0.2672126
0.061795507 -0.330414 -0.14971079 0.29504922 -0.1298774 -0.13027759 -0.256783 -0.16369496
0.036868725 -0.25808343 0.17204559 0.3673614 -0.14753559 0.120457955 -0.052129176 -0.3481414
0.34188494 0.0759431 -0.31293774 0.1251393 -0.16746235 -0.23872413 -0.15755871 -0.10605057
0.020216798 -0.1542982 0.16250011 -0.0023791727 -0.08901746 -0.062307827 0.05275746 0.023187002
0.16109669 -0.031196915 0.17805506 0.046080936 0.12797344 -0.19582282 0.014415395 0.011457031
0.07850479 -0.111373305 -0.07162179 0.069141924 0.15721546 -0.19324847 0.005075314 0.16570851
0.088087186 -0.12380686 0.18598711 0.02957911 0.13367267 -0.17634854 0.04098495 -0.009800485
0.0801458 0.033509336 -0.054314237 -0.14554325 -0.015267806 -0.009629561 0.041114546 -0.10724349
0.041142672 0.11458867 0.06701277 -0.22248091 0.069084376 0.0013434901 0.12724839 0.16499841
-0.1356545 0.14114085 -0.088411406 -0.19589755 0.09297443 -0.09576868 0.045541696 0.1732487
-0.19662121 -0.1485435 0.13212427 0.0435593 0.07542083 0.13327026 0.054033164 0.08748906
-0.11414243 0.059301365 -0.09694484 0.02629954 0.21229365 0.029962866 -0.05450752 -0.12247277
-0.102018096 -0.043913815 -0.13925266 -0.06490593 -0.31605947 0.19219343 0.027650835 0.05489472
-0.10285288 0.13190176 0.15091832 0.02625055 -0.044783957 0.19431128 -0.04178086 -0.11249459
-0.062005725 0.11496633 -0.19823486 0.052200843 -0.007857715 0.20626135 -0.011727524 0.09195917
-0.025527969 -0.1420498 0.07094712 0.11496928 0.031136913 0.05572895 -0.02265928 0.21175502
0.011986501 -0.21394342 -0.02898484 0.21022342 -0.044253357 -0.05465461 -0.04487238 -0.11721565
0.004042414 -0.12558542 0.16102324 0.1140126 -0.095578 0.094896205 -0.0390324 -0.21271995
0.24667992 0.017264644 -0.12959017 0.019270055 -0.06763796 -0.10218169 -0.114344455 0.022081595

h.0.mha.W_k.bias f4 [64]
00000000: de01 debc eeaa 1e3f f608 c3be cde1 383f
00000010: a6e4 bbbe 730a 053f 3430 dcbf 1cdf 37bd
00000020: ad3b ffbe 4231 97bf 9faf a43e e927 493d
00000030: cbf5 5a3e 34d5 bb3f 459c 29be ace1 8abe
00000040: 5a15 ab3c c75f f13e f9b6 cbbe 213d c73f
00000050: f753 74be 35be 46be 3e0f 92bf e451 613e
00000060: ee38 ddbe 0151 023f 9fce 9c3d 2c6d 92be
00000070: babd 993e 6f7b b13e 2b4f 2f3e afec 6ebe
00000080: be80 14bf 55be f5be 729f 96be 62ab d33d
00000090: 7479 a03d 9882 63bd 1616 c63e e38c bbbd
000000a0: 0a7c be3e 17e8 503d 6800 443e b552 9bbd
000000b0: bd4a dabe 11ad 9f3d 9e01 103f 83ee 8b3e
000000c0: 9c69 ee3d 31be a73e 4655 6fbe b5a1 01be
000000d0: 151a ad3c 4df2 0dbf dab9 ec3e 008d adbe
000000e0: cc4b 6fbe eefd babe d549 ae3e b40c 07bf
000000f0: 8e3b 163f e8cf d03e 73c8 c53c 03ca 3abf
-0.0271005 0.6197957 -0.38092774 0.72219545 -0.36697882 0.5196907 -1.720221 -0.044890508
-0.49850217 -1.1811907 0.32165238 0.049110327 0.21382825 1.467444 -0.16563518 -0.271253
0.020884205 0.47143385 -0.39788035 1.556553 -0.23860155 -0.19408496 -1.1410902 0.22003895
-0.43207496 0.5090485 0.07656597 -0.28598917 0.30027562 0.34664485 0.17120044 -0.23332475
-0.58008945 -0.47996774 -0.29418522 0.10335423 0.07835665 -0.055544466 0.38688725 -0.091577314
0.3720401 0.051002588 0.1914078 -0.075841345 -0.42635146 0.07796682 0.5625247 0.27330408
0.11641237 0.32762292 -0.23372373 -0.12659343 0.021130601 -0.55447847 0.46235543 -0.33896637
-0.23368758 -0.36521858 0.34040704 -0.5275376 0.58684623 0.4078362 0.024143433 -0.72964495

h.0.mha.W_v.weight f4 [64, 64]
00000000: 82a6 22bd becf 7b3d aae9 653e 1f28 53be
00000010: cc95 123e a3e4 2dbe bbe4 11be e6b0 b43e
00000020: 308d 20be a77c 813d ce01 943b 0f48 6f3d
00000030: 585e 7f3c 3cd8 acbe 1fbb d83d 3155 1fbc
00000040: 1e2a 0cbd 84bb e53d 6d35 dbbd 4eea 943e
00000050: 30b8 313e 7cc3 6f3d cb5a 2c3e d47a 28bd
00000060: f3fb 00be 5777 98bd 7848 84be e841 c73c
00000070: c478 9e3e db66 2ebd ffe1 cd3d 14e4 f3bd
00000080: 70a8 293e 83b2 55bd 72b4 243e 87a6 8a3d
00000090: c588 4dbe 8471 f13d e0db 3a3d 8c92 f93d
000000a0: 906d d1bd 0336 d93a 10ac 333e 1dbe 82bd
000000b0: d260 1abb e0a9 293e efc1 65bd 8c7a 553e
000000c0: 8e8f 92bd d14d 313d 1d82 9b3c 7339 32bd
000000d0: 75cd a6be 264b 91bc f3ab 7f3e 7969 a33d
000000e0: a855 073e 77e7 b43c 3f3e 4abd 4d4e 3cbe
000000f0: f7e4 363d 3073 1dbe d338 fbbd 07cc 5cbe
00000100: afaf 5abe dea2 663c bd32 3bbd bb99 c0be
00000110: f185 5c3d f6f8 293e 2ff3 ea3d b39c b5bb
00000120: 0bff c43c 78e3 fdbd bde3 b1bd 3d0b 3d3e
00000130: 803f 89bd 9d10 3f3d 7e82 f9bd 3c01 08be
00000140: f649 6abd 33c8 a83d 2498 383e a447 8b3d
00000150: 0423 dcbc 4e3e 0cbe 07a4 6e3d 5f11 3b3b
00000160: fc99 0b3e b2c9 7fbd 4f1d 79be e854 12bd
00000170: 6b8c ef3b 778e e43b 5439 363c e4d9 acbd
00000180: b9ca 393d 7e3b 183e aa50 4dbe 171a 8f3d
00000190: 7e5e 1b3b 5727 f23a fbf5 563e 5da9 2ebc
000001a0: 40ec 6f3e 8258 8d3e aeb7 923d bf9e 5f3d
000001b0: b466 1fbe 5e2e c2bd 32fc 2f3d aa92 82bd
000001c0: ad62 413d 39ad af3d 4aec 4fbe e858 97bd
000001d0: a0fe 79be b6a7 0e3e 55ff 513e 6804 e53c
000001e0: 7858 fd3d 64c1 f6bc 5cc5 1c3e 7fa2 eb3d
000001f0: 475a 8f3b e6c5 403d fb6c 31bd 7728 1e3e
00000200: 1f83 54bd 1620 3abe ba04 b5bd 9d85 8b3e
00000210: 1e5b 033d e08b 273e d5ca dabe 1c61 20bd
00000220: 0b63 7c3c 140f 203e f0ab 213e 3a73 d43d
00000230: be64 2c3e 0974 453e 4431 423e 995b 283d
00000240: 5bc1 e63d 9106 c93e 35d2 3ebe 9270 99bd
00000250: 304b e9bd 3ce0 d2bd efb0 74bd 1e3b 293e
00000260: b424 aebd 13b5 71be 2fa9 2dbd 0e37 ae3d
00000270: 7958 70be 1964 073d 2036 20be 5416 99bc
00000280: 34e1 363c 0a2a fabd bac2 12bd 851e b83d
00000290: e6a6 9abe 0c08 b7be 079b 983c d920 df3d
000002a0: 16bb d23d 51d8 d8bd bed1 17bd e164 28be
000002b0: ef02 98bd 06a9 f83d 370f 2f3d 68b0 a23d
000002c0: 1ecf 89bd c780 6bbc 1d1d 923c 0b00 603e
000002d0: 6a00 08bd 6665 363e 8390 133d fe42 8abc
000002e0: 5930 e3bd 1dcc a83e 29d4 2b3e 7506 403e
000002f0: 192b 813e 4eb8 683d a162 063e 4ad0 94be
00000300: dc8a 0e3e 22b1 563e bdf4 423d 5ea0 0a3e
00000310: b7e0 163b 9aff 38be 0af8 363c 9db7 f33d
00000320: 4a87 013e 2d3d f13d 369c 863e 66bd 823e
00000330: 00e9 9bbb 9153 0bbe fdb7 8f39 bf31 25be
00000340: 5e5d b1bd 6223 7f3d 427e babd 8b4b c5bc
00000350: 4e4c 3ebe 3228 973d 27b0 033e 81eb fbbc
00000360: 0630 e43d bd7d 5bbe a5ed 69be dddc 93bd
00000370: e5f0 3fbe 90ea 543d 078e 703e 0a0b 99be
00000380: 294d b6be 6529 8c3d c395 43be ba16 ae3e
00000390: 181f 773e 796f 84be 039f b8bd fcbf b63c
000003a0: 0b5c 823c a54d f0bd 8278 ae3e 8480 76be
000003b0: c600 593c 12b3 903c c6fb 8d3c 16f9 97be
000003c0: 1274 10be c0ed e33d 2667 b5bd d2ac 82bd
000003d0: 3f6a 93bb e7c1 493c c4bb 7fbc a296 13bd
000003e0: da0e 44be ad34 81be 214f f83d 55b0 803a
000003f0: 98b8 9738 08a1 183e c22e dfbd 403c 14bd
-0.039709575 0.061477415 0.22452417 -0.20620774 0.14314955 -0.16981749 -0.1424741 0.35291213
-0.15678859 0.06322604 0.0045168167 0.05841833 0.015586458 -0.33758724 0.105825655 -0.009724901
-0.034219854 0.112174064 -0.107035495 0.2908501 0.17355418 0.058536038 0.1683151 -0.041132763
-0.12596111 -0.07444637 -0.2583654 0.024323419 0.30951512 -0.04257856 0.10052871 -0.11908737
0.1656816 -0.052172195 0.1608446 0.06770044 -0.20071705 0.117892295 0.045619845 0.12186155
-0.102259755 0.0016571883 0.17546105 -0.063839175 -0.0023556245 0.16568708 -0.056093153 0.20847529
-0.07156287 0.043287102 0.018982941 -0.04351182 -0.32578626 -0.017736029 0.24967937 0.07979102
0.13216269 0.022083027 -0.04937577 -0.18389244 0.04465195 -0.15375972 -0.12266698 -0.21562205
-0.2135608 0.0140769165 -0.045702685 -0.37617287 0.053838674 0.16598877 0.11472165 -0.0055423616
0.024047395 -0.12396902 -0.08686016 0.18461318 -0.06701565 0.046646703 -0.121830925 -0.13281721
-0.05719944 0.0824131 0.18026787 0.06800774 -0.026872166 -0.13695642 0.058261897 0.002854429
0.13632959 -0.06244821 -0.24327587 -0.035725504 0.0073104403 0.006974991 0.0111220665 -0.08439997
0.045359347 0.14866444 -0.20050302 0.06987398 0.0023707445 0.0018474859 0.20992272 -0.010660497
0.23429966 0.2760659 0.0716394 0.05459475 -0.15566522 -0.094815 0.04296512 -0.0637563
0.047213245 0.085779615 -0.20304981 -0.073900044 -0.24413538 0.13931164 0.20507558 0.027956203
0.1237039 -0.030121513 0.15309662 0.11505603 0.0043747756 0.04706373 -0.043316822 0.15445124
-0.05188286 -0.18176302 -0.08838792 0.27250376 0.032069318 0.16361952 -0.42732874 -0.03915511
0.015404473 0.15630752 0.15788245 0.1037354 0.16835305 0.19282545 0.18964106 0.04110298
0.112673484 0.39262822 -0.18634875 -0.07492174 -0.11391294 -0.102966756 -0.05973905 0.16526458
-0.08503094 -0.2360423 -0.042397674 0.085065946 -0.2347125 0.033054445 -0.15645647 -0.018687405
0.011162091 -0.122150496 -0.035830237 0.08990196 -0.30205458 -0.35748327 0.01862861 0.10894937
0.1028959 -0.10588134 -0.03706526 -0.16444732 -0.074224345 0.12141614 0.04273912 0.07943803
-0.067289576 -0.014373965 0.017836148 0.21875016 -0.03320352 0.17812118 0.03602649 -0.016877647
-0.11093206 0.32968226 0.16780151 0.18752463 0.25228193 0.05681639 0.13123561 -0.29065162
0.13920158 0.20966008 0.047596682 0.13537738 0.0023022124 -0.18066254 0.011167536 0.11900256
0.12649265 0.117792465 0.26291054 0.25535125 -0.0047580004 -0.13606097 0.00027412167 -0.16132258
-0.086603865 0.062289603 -0.09106113 -0.024083873 -0.18583795 0.073807135 0.12860166 -0.030751945
0.11141972 -0.21434684 -0.2284456 -0.07219861 -0.18744238 0.05198151 0.23491679 -0.29891235
-0.35605744 0.06843833 -0.19100098 0.34001714 0.24132955 -0.25866297 -0.09014704 0.022308342
0.01591303 -0.117335595 0.34076315 -0.24072462 0.013244813 0.017663512 0.017331969 -0.29682225
-0.14106777 0.111293316 -0.08857565 -0.06380619 -0.0044987495 0.012314296 -0.015608732 -0.036032327
-0.1914629 -0.252355 0.12124468 0.0009818176 7.234624e-05 0.14905179 -0.1089759 -0.03619027

h.0.mha.W_v.bias f4 [64]
00000000: ae1f 67bd 7c4d 5e3d 9306 503c 472c 8f3d
00000010: f75a 1dbe b97e 8dbd 9f83 383d fda5 25be
00000020: e8a9 8fbd d6ca a3bd 8a57 e8bc 59fc 32be
00000030: 5edd 023e cd2b ae3d bfbc f6bd 326a 433c
00000040: c6be c43b 5bca a2bd e775 98bd a628 613c
00000050: 1f8c a7bd 3adc 96bd 3f8f acbc 60af c43c
00000060: f2c3 943c 3be9 073e f62d fc3d 37d3 a43c
00000070: 82b2 693d adac 193e e026 243d 1674 153e
00000080: f808 14be 3a2f 693d a774 0b3e dfc6 753d
00000090: 123d 273d 747e 273e cd19 2a3d fd06 80bd
000000a0: cdef d8bd d881 a7bc fdf7 8b3d fb0c a1bd
000000b0: 7fea 0cbe ec9c 40bd 1573 f2bd ac69 aebd
000000c0: 94e0 09be 61ac 0f3d 8b6f 13be e5fc debc
000000d0: a147 37be 806f e1bd e696 ad3d f473 ed3d
000000e0: 0b75 d9bd 9761 c4bd f3a5 32be 31eb a93d
000000f0: 153b c93d c4ef d5bd 614a 00bc 51c8 18bd
-0.056426696 0.054273114 0.01269688 0.06990867 -0.15366732 -0.06908936 0.0450474 -0.16176601
-0.07014829 -0.07997672 -0.028362054 -0.17479075 0.12779757 0.08504448 -0.12047719 0.011927174
0.0060041873 -0.079487525 -0.07444363 0.0137426015 -0.08181023 -0.07366224 -0.021064399 0.024009407
0.01815984 0.13272564 0.12313454 0.020120246 0.057055004 0.15007277 0.040076137 0.14595065
-0.14456546 0.056929804 0.13618718 0.06000411 0.040829726 0.16356832 0.04152851 -0.06251333
-0.10592613 -0.020447657 0.068344094 -0.07863804 -0.13761328 -0.047024652 -0.118383564 -0.08516249
-0.13464576 0.035076503 -0.14398019 -0.027220199 -0.17898418 -0.11007595 0.08476047 0.11594382
-0.10618027 -0.09588926 -0.17446117 0.08296812 0.09825722 -0.10446122 -0.007830233 -0.03730041

h.0.mha.W_o.weight f4 [64, 64]
00000000: c245 d63c cb8f dabd 5efe 3c3e 1acd 74bd
00000010: f544 b93c b239 80bb 9685 433d 8636 ac3d
00000020: ad0b 293e 5e6e 9f3c 7837 87bd e7b6 9cbd
00000030: a625 83bc 1864 95bc 841b 8dbd acdf 373d
00000040: ea1c 4b3d 9b09 0cbb b160 97bd 6093 0fbe
00000050: a88a 30be 257e 3abd 3ae1 153e 9be9 00be
00000060: 8901 8dbd 5177 b8bc f02a 68bd 9660 adbd
00000070: 14cd 1dbc 5cda 17bc eb27 04be e2df 313d
00000080: bef8 dc3d 484a 1ebe 1007 54bd 80a8 a13d
00000090: d1b4 8dbd 6176 233e ce38 93bc 0e05 fe3d
000000a0: f6d2 b83c 16f1 86ba 4527 8c3d c866 843c
000000b0: 3bd2 efbd 3bca 28be 6266 203d 5bcf 06bd
000000c0: 1228 563e 7afb dd3d 7afa 84bc c243 0b3d
000000d0: 3b00 20bd e5ad ee3d 9ce2 703d 45a3 d8bd
000000e0: 7b78 8f3c d21e 873d 5d51 3e3c ed10 053c
000000f0: cbe9 94bb 9012 22bd f432 6ebd 6e11 243e
00000100: 4ddc 163d 9e58 a1bd cede 82bb a834 b93d
00000110: a026 bebc b8d0 5a3d b8d9 19bd 9eea 973c
00000120: aca5 13be 9c77 cf3d dc6b 84ba bd3e b63c
00000130: cfc7 c33c 3cdb 01be 089e 063d a61c 08bd
00000140: 14a5 92bd 5901 9fbd 39e7 93ba b6e1 8ebd
00000150: 2066 453d ceab 34bc c2d2 b9bd 0dd5 9c3c
00000160: 3f1f e33d a298 83bd db65 3a3d be4d a6bd
00000170: c188 e9bd bda0 bdba e8de 403d 2740 19bd
00000180: 0c5a af3d 5bed 1b3d a258 6d3b ca13 4dbd
00000190: c4b2 9ebc 6be2 f03c dd91 08bd 391e 06bd
000001a0: 0447 7fbc b473 763c 45e5 04bd e515 d83d
000001b0: 740f 9dba 993c 2ebd b969 323a c0f1 19bd
000001c0: ce2e 10bc ce3e 09bd 0eb3 98bc 9556 9fbc
000001d0: fcd0 e6bd 00f6 b83a dad6 b2bd eb4c 3bbd
000001e0: f98c 263d d414 153e d9ce b53c a8ae 8bbd
000001f0: 8b77 ff3c 56a1 47bd 7ee1 653d 0369 7d3d
00000200: ac5f ad3d 37f6 313e e51e 8f3d db8a 123e
00000210: 7ba7 b8bc 2cd3 11be 19b8 e6bd ab0a bbbd
00000220: feed 0d3d 9b94 52be fdc0 72bd 9c67 ebbc
00000230: ae32 1c3d f592 153e a248 cb3e b8dd 583e
00000240: a3de 4abe 7da2 123d 177a dcbd a813 483e
00000250: d02c a2bc fca4 2dbe cd66 aabd fa6f e33c
00000260: 7e26 8a3e 3dc2 4d3d 1168 0bbd 62b2 153d
00000270: e37f f13d f73d 8a3d 9aaf cf3d 244e 10be
00000280: d920 c0be 6762 763d 5d33 1abe 2aa1 d43d
00000290: 6e08 033e c24f d3be ccb9 353e 33ab c6bd
000002a0: 58e2 abbe 445f f8bc bcbc 6dbc b41d 0a3e
000002b0: 9fd6 0ebe 4ef2 c63b 68c5 06be 4757 a5bd
000002c0: bc92 1abe 872b b6bd e08c 963e 8071 2b3d
000002d0: a9f9 0cbd ad49 2ebe 437a 23bd 3938 843d
000002e0: f5a0 03be 8aeb cabd 07df ccbc 3a74 813d
000002f0: b109 b0bd 18a8 133e 2a44 5dbd db17 e3bd
00000300: a69c 0fbe 0cc7 02be b6be 6dbc f091 903b
00000310: f50a 993d 8f38 36bc b482 b13d 2735 2e3c
00000320: fb01 573d 640c 3e3b 01e2 143e e958 d4bc
00000330: af28 8ebd 494f a83d 9661 eebd 0214 173d
00000340: 5a4e 223e 371a f43d 6116 fa3d f682 5a3d
00000350: dfdb cebd 31ff 353e 2a17 5b3b b080 763d
00000360: 1504 373c 7092 9a3c bf5d c5bc 8fa0 19bd
00000370: 9533 1abd 5e7a 8cbd 5e1e 883d 2b5f 063c
00000380: 9915 21be c640 b03d 41f0 093e 2756 abbd
00000390: 4e80 a73d a9aa 663d 07cf 41be 4cd5 413c
000003a0: 244a a73d 974c 3dbd b58f b03c 50a1 313d
000003b0: 9d1d 00bd 2f82 343d 2812 073e ac57 393e
000003c0: 569a 963d e732 953d 5f66 c33c ef01 91bd
000003d0: 7c84 3abd 9c41 2bbd 5f41 d73c 9f4a 2d3b
000003e0: 19f2 e0bc 039d b0bd 28b9 84bd 888a 95bd
000003f0: 07cb 243e 91f5 0dbc 323b 4dbe c5d5 0a3b
0.02615631 -0.106719576 0.18456408 -0.059765913 0.02261589 -0.003913128 0.04773482 0.08408837
0.1650836 0.019461807 -0.06602377 -0.07652073 -0.016009163 -0.018236205 -0.06890014 0.044891044
0.04958812 -0.002136803 -0.07391489 -0.14021063 -0.17240393 -0.045530457 0.14636698 -0.12589113
-0.068850584 -0.022517832 -0.056681573 -0.08465688 -0.009631414 -0.0092683695 -0.12905852 0.043426402
0.10789631 -0.15458024 -0.051764548 0.07893467 -0.069192536 0.15963127 -0.017971423 0.12403308
0.022561532 -0.0010295238 0.068434276 0.016162291 -0.1171002 -0.16483395 0.03916014 -0.032912593
0.20913723 0.10838981 -0.016232718 0.034000166 -0.03906272 0.116542615 0.05880986 -0.10578016
0.017513504 0.065976754 0.011616078 0.008121711 -0.004544472 -0.039568484 -0.05815406 0.16022274
0.03683119 -0.078782305 -0.0039938455 0.090432465 -0.023211777 0.053421706 -0.03756115 0.018544491
-0.14418668 0.101302356 -0.0010102945 0.022246713 0.023898987 -0.12681288 0.032865554 -0.033230446
-0.071603924 -0.07763929 -0.001128412 -0.06976645 0.048193097 -0.01102729 -0.09073402 0.01914456
0.11089944 -0.06425597 0.045507293 -0.08120297 -0.11403037 -0.0014467459 0.04708758 -0.037414696
0.08562097 0.038068157 0.003621616 -0.0500677 -0.019372351 0.02940484 -0.03334223 -0.032743666
-0.015580896 0.015042234 -0.03244521 0.10551051 -0.0011982755 -0.04253826 0.0006805915 -0.037584066
-0.008800222 -0.03350716 -0.018640067 -0.019450465 -0.11270329 0.00141114 -0.08732386 -0.04572765
0.040661786 0.14558727 0.02219336 -0.068204224 0.031184932 -0.048737846 0.05612325 0.061867725
0.084655136 0.1737908 0.069883145 0.14310782 -0.022540798 -0.14240712 -0.112655826 -0.09132894
0.034650795 -0.20564501 -0.05926608 -0.028735928 0.03813427 0.14606841 0.39703852 0.21178329
-0.19811492 0.035799492 -0.10765474 0.19538748 -0.019796759 -0.16957468 -0.08320389 0.027763356
0.26982492 0.05023407 -0.034034792 0.036547072 0.117919706 0.067501 0.10140915 -0.14092308
-0.3752506 0.060152438 -0.15058656 0.10382302 0.12796184 -0.41271788 0.17746657 -0.097006224
-0.33571124 -0.030318864 -0.01451033 0.13487893 -0.13949059 0.0060713654 -0.13161242 -0.080732875
-0.15095037 -0.08895021 0.29404354 0.04185629 -0.034417782 -0.17020293 -0.03991152 0.06456036
-0.12854369 -0.09908207 -0.025008691 0.063209966 -0.085955985 0.14419591 -0.054020084 -0.110885344
-0.140246 -0.12771243 -0.014510801 0.0044119284 0.07472793 -0.011121883 0.08667508 0.01063279
0.052492123 0.0028999085 0.14539339 -0.025921302 -0.069413535 0.082182474 -0.11639707 0.036884315
0.15850201 0.119190626 0.122113 0.05334755 -0.10100531 0.17773129 0.0033430555 0.06018132
0.011170407 0.018868655 -0.024092553 -0.037506636 -0.03764685 -0.06859277 0.06646417 0.008201401
-0.15730895 0.086061046 0.13470556 -0.08366042 0.08178769 0.056315098 -0.18926631 0.011830639
0.08168438 -0.04621562 0.0215529 0.04336673 -0.03127824 0.044069465 0.1319052 0.1809985
0.07353656 0.072850995 0.023852525 -0.07080447 -0.045536503 -0.041810617 0.026276289 0.0026442183
-0.027459191 -0.086236976 -0.06480628 -0.07301813 0.16093074 -0.008664505 -0.20042112 0.0021184545

h.0.mha.W_o.bias f4 [64]
00000000: 438c a0bc df95 ae3c 774a 693d 75d9 6cbd
00000010: b2ba f13b 0cd0 39bb b963 a2bc 7eb8 a03c
00000020: 5ddb 8dbd 03c8 26be e347 cbbd 6479 763c
00000030: 8397 c7bb dcff 563b af44 c3bb e1bb c13c
00000040: ebed 953d 35b7 853c 982d 293d 2453 233d
00000050: d747 b3bc 11cd 583c ab10 123d c01b 043c
00000060: 1cbc 38bd c412 ec3c 4108 68bc d870 a73d
00000070: 569d cfbd 9ae3 ff3d 8d05 a43d 7e4a a13d
00000080: 9afa 073d e00e 9ebd d822 3fbd 5a90 a33d
00000090: 1261 393d e80e 28bd bbb0 a83c 8846 193d
000000a0: b49a 37bc d837 183b 2b32 bebd 1412 c73d
000000b0: e71e 48bc e4ff f43c 7414 7f3c 30ca 6fba
000000c0: b600 53be 8823 223d ce61 0e3e 4d2b 6f3d
000000d0: 5173 b1bc f684 193d 9f3f f13a c2bd 38be
000000e0: ce9b d63d e4de 3c3e 51b1 0a3d 5bc1 7cbd
000000f0: 6667 a5bd 3efe 5dbd 5b71 403d 1f02 3abd
-0.019598132 0.021311698 0.05695578 -0.05782457 0.007376992 -0.0028352765 -0.019822942 0.019619223
-0.06926606 -0.16287236 -0.09925821 0.01504359 -0.0060910597 0.0032806313 -0.0059591155 0.023649158
0.0732077 0.016322711 0.041303247 0.03987421 -0.021884842 0.013232485 0.035660427 0.008063257
-0.04510127 0.028817542 -0.014162124 0.0817582 -0.10137431 0.124945834 0.08008871 0.078755364
0.033197977 -0.07717681 -0.04666409 0.07986517 0.04525859 -0.04102984 0.020592084 0.03742078
-0.011206318 0.0023226645 -0.092869125 0.09720245 -0.012214399 0.029907174 0.015568841 -0.0009147255
-0.2060574 0.039584666 0.13904497 0.058390904 -0.021661432 0.037480317 0.0018405801 -0.18041137
0.10478936 0.18444401 0.03386051 -0.061707836 -0.08076362 -0.054197542 0.046983104 -0.04541218

h.0.ln_1.weight f4 [64]
00000000: 1da6 a43e f48e 163f e1a5 ef3e a807 c23e
00000010: 453f 4e3f 3892 283f 8fc1 a53e 76e0 813e
00000020: 2fae 023f 93ec 863e 1a7d 733e 69c4 5a3e
00000030: 7bd4 493f 3566 5d3f aa12 0e3e 8b30 ab3e
00000040: f860 c33e 5b13 2b3f 9631 823e 0357 783e
00000050: f423 e13e 10a6 ea3e a92f 743e 9823 1c3f
00000060: 2734 c53e a831 273f 46ce 553f 7083 773e
00000070: 24ce 0e3f a8cf e63e a60c 563e eb29 8a3e
00000080: aca3 903e 91c3 923e 3939 9a3e d703 163f
00000090: 12b7 813e b2d0 cd3e b0ac 003f 7195 f33e
000000a0: 9a91 2e3e f8b4 5f3f 8d1d 9d3e 3868 063f
000000b0: 607a 2c3f 0ebe d23e 28d7 073f d47c af3e
000000c0: 5804 403e fe3d 8f3d 5c4d b43e 1c4e 453f
000000d0: 9356 693e 1683 ab3e 0824 583e 450d f63e
000000e0: b252 cf3e 9be6 2e3e 8b26 0f3f 6538 6b3e
000000f0: 547c ae3e b74e a23e 1df8 a83e 2b26 c93e
0.32157984 0.5881188 0.46806243 0.37896466 0.8056529 0.6584811 0.32374236 0.25366563
0.51047033 0.26352367 0.23778191 0.21363987 0.78839844 0.8648408 0.13874307 0.33435473
0.3815992 0.6682641 0.25428456 0.24251942 0.43972743 0.4582982 0.23846306 0.6099181
0.38516352 0.65310144 0.83517873 0.24171233 0.55783296 0.45080304 0.20903262 0.26985106
0.28249872 0.2866483 0.30121782 0.5859961 0.25334984 0.40198284 0.502635 0.47574952
0.1704773 0.8738551 0.30686608 0.52502775 0.6737423 0.41160625 0.5306268 0.34274924
0.18751657 0.06994246 0.3521527 0.7707231 0.22786932 0.33498448 0.21107495 0.48057
0.4049278 0.17080157 0.55918187 0.22970732 0.3407923 0.3170068 0.33001795 0.39286932

h.0.ln_1.bias f4 [64]
00000000: 68f9 ec3a bc34 e83e 3250 eabe 1cbd 17bd
00000010: 60dc 4d3e 60d3 ae3d a8ac c3bc fed3 84bb
00000020: 4d70 d8be 32e3 173d 3fe1 42be 8146 413d
00000030: 276c 24bf b0c2 0a3f 7405 a93b 47c2 79bd
00000040: a028 4dbe 71ad 9a3e c47c 1e3e 699e 69bc
00000050: 25a5 0ebe 1576 d73e 7be5 0dbe 1c86 d6be
00000060: dbd4 88be af62 1b3f c31b 2abf e91b 0cbe
00000070: 36a5 9cbe d445 bb3e 97e1 56bd cccc e9bc
00000080: c860 1fbd 9ea6 98bd 7225 003d c928 c03e
00000090: 10d0 713c 67e5 383e 413e b5bd 8d9c fc3e
000000a0: 0fb6 553d 5e57 44bf 93c7 b8bd 8841 f63e
000000b0: 3425 11be e5ea 68be 9765 92be 8b34 40be
000000c0: ecde 8e3d 6402 a6bd cb74 ad3c d0bc a73e
000000d0: bd9b 1dbe e26f 9f3d bd37 f83c 4602 aebe
000000e0: df77 8a3e 5464 cdbc 9c77 c5be 68e6 a73d
000000f0: 00f2 34be d0f9 1ebe 17e3 5bbe 8763 ebbd
0.00180797 0.45352733 -0.4576431 -0.037045583 0.20103598 0.0853641 -0.02388604 -0.0040535918
-0.4227318 0.037081905 -0.19031237 0.04718638 -0.6422753 0.5420332 0.0051581208 -0.060976293
-0.20035028 0.3021045 0.15477282 -0.014258959 -0.13930185 0.42082277 -0.13857071 -0.41899192
-0.26724896 0.60697454 -0.6644861 -0.13682522 -0.30594796 0.36576712 -0.052461233 -0.028540038
-0.038910657 -0.07453655 0.03128571 0.37531117 0.014759079 0.1805626 -0.088497646 0.4933819
0.052175578 -0.7669581 -0.09022441 0.4809687 -0.14174348 -0.22745855 -0.28593132 -0.18770044
0.06976113 -0.08105925 0.021173855 0.3276124 -0.1539144 0.07785012 0.030300016 -0.3398611
0.2704458 -0.025072254 -0.38567817 0.081982434 -0.1767044 -0.15524983 -0.21473347 -0.11493593

h.0.ln_2.weight f4 [64]
00000000: 0000 803f 0000 803f 0000 803f 0000 803f
00000010: 0000 803f 0000 803f 0000 803f 0000 803f
00000020: 0000 803f 0000 803f 0000 803f 0000 803f
00000030: 0000 803f 0000 803f 0000 803f 0000 803f
00000040: 0000 803f 0000 803f 0000 803f 0000 803f
00000050: 0000 803f 0000 803f 0000 803f 0000 803f
00000060: 0000 803f 0000 803f 0000 803f 0000 803f
00000070: 0000 803f 0000 803f 0000 803f 0000 803f
00000080: 0000 803f 0000 803f 0000 803f 0000 803f
00000090: 0000 803f 0000 803f 0000 803f 0000 803f
000000a0: 0000 803f 0000 803f 0000 803f 0000 803f
000000b0: 0000 803f 0000 803f 0000 803f 0000 803f
000000c0: 0000 803f 0000 803f 0000 803f 0000 803f
000000d0: 0000 803f 0000 803f 0000 803f 0000 803f
000000e0: 0000 803f 0000 803f 0000 803f 0000 803f
000000f0: 0000 803f 0000 803f 0000 803f 0000 803f
1.0 1.0 1.0 1.0 1.0 1.0 1.0 1.0
1.0 1.0 1.0 1.0 1.0 1.0 1.0 1.0
1.0 1.0 1.0 1.0 1.0 1.0 1.0 1.0
1.0 1.0 1.0 1.0 1.0 1.0 1.0 1.0
1.0 1.0 1.0 1.0 1.0 1.0 1.0 1.0
1.0 1.0 1.0 1.0 1.0 1.0 1.0 1.0
1.0 1.0 1.0 1.0 1.0 1.0 1.0 1.0
1.0 1.0 1.0 1.0 1.0 1.0 1.0 1.0

h.0.ln_2.bias f4 [64]
00000000: 0000 0000 0000 0000 0000 0000 0000 0000
00000010: 0000 0000 0000 0000 0000 0000 0000 0000
00000020: 0000 0000 0000 0000 0000 0000 0000 0000
00000030: 0000 0000 0000 0000 0000 0000 0000 0000
00000040: 0000 0000 0000 0000 0000 0000 0000 0000
00000050: 0000 0000 0000 0000 0000 0000 0000 0000
00000060: 0000 0000 0000 0000 0000 0000 0000 0000
00000070: 0000 0000 0000 0000 0000 0000 0000 0000
00000080: 0000 0000 0000 0000 0000 0000 0000 0000
00000090: 0000 0000 0000 0000 0000 0000 0000 0000
000000a0: 0000 0000 0000 0000 0000 0000 0000 0000
000000b0: 0000 0000 0000 0000 0000 0000 0000 0000
000000c0: 0000 0000 0000 0000 0000 0000 0000 0000
000000d0: 0000 0000 0000 0000 0000 0000 0000 0000
000000e0: 0000 0000 0000 0000 0000 0000 0000 0000
000000f0: 0000 0000 0000 0000 0000 0000 0000 0000
0.0 0.0 0.0 0.0 0.0 0.0 0.0 0.0
0.0 0.0 0.0 0.0 0.0 0.0 0.0 0.0
0.0 0.0 0.0 0.0 0.0 0.0 0.0 0.0
0.0 0.0 0.0 0.0 0.0 0.0 0.0 0.0
0.0 0.0 0.0 0.0 0.0 0.0 0.0 0.0
0.0 0.0 0.0 0.0 0.0 0.0 0.0 0.0
0.0 0.0 0.0 0.0 0.0 0.0 0.0 0.0
0.0 0.0 0.0 0.0 0.0 0.0 0.0 0.0

h.1.mha.W_q.weight f4 [64, 64]
00000000: 22f3 62bd 067b 373e b7c0 14be 5422 f0bd
00000010: b2e7 823d 70f4 d5bc 6f2c 10bc cac3 023d
00000020: 0c30 b3bc 4741 623e ae0b 053e f034 c0bd
00000030: 3be3 45be df4f 2dbd c3a8 efbd 57b3 1abd
00000040: 18b6 923c f1ff 23be 80ac 593c 580f 43bb
00000050: 4a2a 05be b26f 143e 07bb 01be f906 90bc
00000060: dc0b ca3d f189 073d 2117 4cbe d3b8 a4be
00000070: 2f1e f6bd bce6 fe3d 9810 80bd 16eb 64bd
00000080: d507 22be 83d1 033e e25d b3bd f3bd 003e
00000090: 1bbb 6dbc 84d6 023e f3b8 5dbe c32a 7dbd
000000a0: c285 57bd 0f83 9cbd 63ad d8bc b82b 8b3e
000000b0: 3974 113e d62a 0bbe fe33 1d3b 1cfe ec3d
000000c0: 58d8 60bb d45d 71bd 675a b2bd 6f96 74bc
000000d0: c0d8 a4bd b5c4 f9bd 92f4 903d f8f4 4b3b
000000e0: 84d1 133e 003b 12be 8dd4 91bd eb43 8bbb
000000f0: 80a0 0a3e 4fe5 66bd 99c6 07be f8ef 4cbc
00000100: f7d2 72bc e115 913d 0dd3 3b3c fed8 8cbd
00000110: 83d5 0dbd 4603 febb cb6b 42bd c7c1 88bd
00000120: cd13 103c 7724 11bd a1fe a4bd 5d8d cabd
00000130: f15a 043c 132c 08bd 8239 0cbe a0a7 d53d
00000140: a3d6 debc 4b01 153e 42df 913b 3c23 373d
00000150: 1939 8f3b c8cd 8abc c8e4 aa3d 6e22 153e
00000160: 1e7e 673d ccf5 b9bd 9031 11bb 82c4 413c
00000170: 0642 863c 0499 33bd a57c bebd 7bc4 d4bc
00000180: 7e79 d23c ece5 c83d 3f57 1ebc 7194 a23d
00000190: 317a cb3b 0182 033d a0f2 bb3d 700c 0b3e
000001a0: 703b 413d e8b2 9c3d 5a5a d4bd 3b02 2ebe
000001b0: f03c b43d d556 143d 7009 42bd 5984 60be
000001c0: 5762 eebd 57db 0a3d de6c 353d ebb2 abbd
000001d0: 5040 e6bd f81c 0b3d 1c22 6b3e 0faf 1a3d
000001e0: 6eb9 ba3b 5878 05be 2344 853d dfd0 923d
000001f0: dc6e 9abd b94f 403b c09d ed3c 883c 973d
00000200: 03ae d23d 4ee7 fb3c 3389 003d 08d2 a7bd
00000210: 2f1a a43c 85fc 953d ab68 463d 9971 8ebd
00000220: f342 3dbd ec5d 22be 51f8 2bbe 8588 fdbd
00000230: 2e72 7d3d 558b cdbd 47d5 17be 05d1 f1bc
00000240: bf4f 443d dd4f d6bd 59ad fe3d 885c 153e
00000250: ac0e 913d 38ae 453d 522c e0bc 0602 44bd
00000260: a973 97bd 502b b23c ebd8 85bb fd32 b1bd
00000270: 31c7 7dbd 8b82 283d dde4 dc3d 8a05 273e
00000280: bab1 903e 0a4f 04be f0f2 c53d 928c 5f3d
00000290: 89d9 9f3d 7a0b e73d f5b7 0dbe 2247 d6bd
000002a0: e39c f4bc 1e6f b23d da46 28be 93a6 843d
000002b0: 8aa9 69bd 9a88 433d c61b 773d 999f f839
000002c0: 42ef 943d fb8f 09bd 6703 803d ee10 fd3d
000002d0: 6807 85bd f934 06be 1e6e 323e 8be9 0d3e
000002e0: b213 243d 9974 5fbd 163b 91bd 4f34 00be
000002f0: 0641 3fbd 84bf 9abd 608c 003e 78f6 233d
00000300: ca1f 743d 17f0 c0bd 6e2a 3e3e 5d1b 963d
00000310: 8737 0a3c 1f37 2d3d ecd7 9bbd 184e e93d
00000320: 1cde 3fbe d440 0e3e f633 bebd 7a2e ca3d
00000330: 9d16 513c b54f 0a3d 58da 6b3c bb58 22be
00000340: 860b b8bc eed6 983d 93c4 bcbd 8724 e0bd
00000350: 8fa1 d43c 1ebc 903d 163e f03c 6792 ec3c
00000360: 88f6 0c3d b584 b8bd ed82 31be 894a 6dbc
00000370: de60 443d 3113 933c 7e64 c33d 1057 e93a
00000380: 5e5f 5d3d f234 093e 32ac 253e 9f8f 37be
00000390: dcc4 8a3c 451e 14bd 46a4 263e 629e 58be
000003a0: 2540 fb3d c871 83bd 7aba 9bbc 287d cbbd
000003b0: ab8f 89bd 7290 fcbd ea2f d63d 10b8 463e
000003c0: 4bed bfbd e639 74bd 3f4e 583e 2e36 7dbc
000003d0: 17dd 84be ab44 1bbe 13d0 f5bd 2743 00bc
000003e0: 43c5 ecbd 705a 6abc 0754 f9bd cd91 c6bd
000003f0: 9511 d03d 485e c33d 9e92 313e bb92 d9bd
-0.05540765 0.17918023 -0.1452664 -0.117252976 0.063918486 -0.026117533 -0.008799656 0.031925
-0.021873496 0.22095214 0.12992737 -0.09385097 -0.19324963 -0.0423125 -0.117021106 -0.037768688
0.017909095 -0.16015603 0.013285756 -0.0029763784 -0.13004413 0.14495733 -0.12669002 -0.01758145
0.09865543 0.033090536 -0.19930698 -0.3217226 -0.12017476 0.12446353 -0.06253165 -0.055888258
-0.158233 0.12872891 -0.08758141 0.1257246 -0.014509941 0.12777144 -0.21652584 -0.06180836
-0.052617796 -0.07642185 -0.026449865 0.27181792 0.14204492 -0.1359056 0.0023987289 0.11571905
-0.0034308638 -0.058927372 -0.08708649 -0.014928444 -0.08049154 -0.12195722 0.07077898 0.0031121355
0.14435393 -0.14280319 -0.07120619 -0.00425004 0.13537788 -0.05637103 -0.13259353 -0.012508385
-0.014820806 0.07084251 0.011463893 -0.068773255 -0.03462745 -0.007751855 -0.04746608 -0.06677585
0.008793783 -0.035435166 -0.08056379 -0.09890244 0.008078323 -0.033245157 -0.13693812 0.104323626
-0.027201956 0.14551274 0.0044516632 0.044711336 0.0043708202 -0.016943827 0.08344418 0.14563915
0.05651676 -0.09080085 -0.0022154786 0.011826636 0.016388904 -0.0438471 -0.09301118 -0.025972595
0.025692698 0.09809479 -0.009664356 0.07938469 0.0062096347 0.032106403 0.091771364 0.13578963
0.047175825 0.07651311 -0.10368796 -0.16993038 0.088006854 0.036215622 -0.04737228 -0.21925487
-0.116398506 0.033900585 0.044293277 -0.08383735 -0.112427354 0.033963174 0.2296223 0.037764605
0.0056983745 -0.13034189 0.06507137 0.07168745 -0.07540676 0.0029344393 0.029005885 0.07384592
0.10287096 0.030749943 0.031380843 -0.08194357 0.020032017 0.07323555 0.048439663 -0.06955261
-0.046206426 -0.15856141 -0.16793944 -0.12379555 0.06187647 -0.10036341 -0.14827453 -0.029518614
0.047927614 -0.104644515 0.12435407 0.14586079 0.070828766 0.04826185 -0.027364884 -0.047853492
-0.07395107 0.021749169 -0.0040846965 -0.08652303 -0.06195754 0.04114012 0.1078584 0.16310707
0.28260595 -0.12920776 0.09665477 0.054577418 0.078051634 0.11281486 -0.13839705 -0.10462786
-0.029859966 0.087126 -0.16433278 0.06477084 -0.05704645 0.047737695 0.06032922 0.00047421156
0.07272197 -0.033584576 0.06250649 0.12356745 -0.06495553 -0.13106145 0.17424819 0.13858621
0.040057845 -0.054554556 -0.07091348 -0.12519954 -0.04669287 -0.0755606 0.12553549 0.040029973
0.05960063 -0.094207935 0.18570873 0.07329438 0.00843609 0.042288896 -0.07609543 0.11391848
-0.18737072 0.13891917 -0.092872545 0.09872146 0.012761739 0.03376742 0.014395319 -0.1585416
-0.022466432 0.074628696 -0.09217181 -0.10944467 0.025955943 0.070671305 0.02932648 0.028878404
0.034414798 -0.09009687 -0.173351 -0.014483103 0.047943942 0.017953487 0.09540652 0.0017802436
0.054046027 0.13399103 0.16178969 -0.17925881 0.016939573 -0.03616168 0.16273603 -0.21154168
0.12268094 -0.064181864 -0.019009817 -0.09935981 -0.067168556 -0.12332238 0.10458358 0.19406152
-0.09371432 -0.05962553 0.21123599 -0.015454812 -0.25949928 -0.15162914 -0.12002578 -0.00782851
-0.11561062 -0.014303789 -0.1217423 -0.09695778 0.101596035 0.09539467 0.17341086 -0.1062369
