subspace-alignment/data/2_layer_64_vocab_traindata/ckpt_5300.pt (torch, 178561 bytes, 29 tensors)

embed.embed.weight f4 [64, 64]
-0.17143828 1.0111004 0.57231027 0.114256315 -0.046472393 -0.513635 -1.4225985 0.21338594
-0.490859 0.36688262 -1.2111301 0.4449391 -0.18598932 -0.9614513 1.0390269 0.07247113
0.14483622 0.064968534 0.66288674 -0.77182156 -0.5013711 1.5237525 1.4049368 -1.1452607
-1.8634045 1.4878725 -0.7290753 2.0552535 0.8603773 0.55350447 -0.5378075 0.33724427
1.02532 -0.9548894 0.35024762 -0.98981214 -1.1328768 0.31913167 -0.910219 0.6112877
-1.5007038 -0.8948935 0.3039267 0.4892514 1.2925937 1.0025274 -0.34235463 -0.5215701
-0.7976906 -1.4557987 -0.10757766 -0.5674241 0.3770611 1.0561266 0.010191257 -0.8131835
0.35541788 -0.35230172 -0.87962824 -1.5605427 0.4320592 -0.20666002 -0.100966774 0.7960131
0.36788663 -1.213522 -1.2388313 0.027739989 1.8804468 -1.2957917 -0.24991865 -0.53389704
0.26505676 -0.1653245 -0.04961181 0.18085733 0.36713782 0.40047917 0.22596616 0.58072126
1.2228017 -0.51111156 0.9841649 0.3974066 0.441639 -0.5120443 1.5640258 0.42431635
0.09919288 0.9568332 -1.3357426 0.15946352 -1.8877609 1.8038585 0.12363725 -0.78203535
-1.0511522 -1.2885847 0.62519354 -0.12755524 1.2393811 0.80770236 1.3983489 0.21358795
-0.80699795 -0.20608377 1.0936822 0.37989613 -0.47017804 -0.089359336 -1.1010779 -1.3252426
-0.0098867025 -0.48255533 1.4483242 -0.15974206 -0.4574402 -0.13697748 0.03894562 -0.7228346
-0.03742967 -0.7461039 -0.41511688 0.092857346 0.30013776 -2.3465889 -0.6370905 0.17265268
1.0411279 0.86367464 -0.19876002 -0.09437334 -0.32256934 0.62127477 -0.7093025 -1.565028
0.5681198 -0.8925508 0.22902934 -0.53530973 -0.43239543 0.6933588 0.43840224 0.30794796
-0.67698365 -1.086639 -1.7149947 -0.7792646 0.21324742 1.1575637 -1.03835 -0.33099926
0.39447835 0.51021934 -0.3379223 0.011005539 -0.7320879 1.4747714 1.1979004 0.59468764
-0.8914052 0.51983 0.264731 0.9631419 -1.0923934 -1.6948004 -0.30557477 2.2858918
-0.532483 -0.9234887 0.060413957 -0.063063435 0.021441588 -0.88842785 0.9679118 -0.23188877
-0.41546473 -0.8664131 2.0469298 -0.3769462 0.3425937 -0.51703703 -1.6842389 -0.4774867
0.56409746 -0.11316877 -0.4990125 0.8821501 -2.5187948 0.47020265 0.29456007 0.49923542
-1.167537 0.9574772 -0.07251082 -0.093259424 -1.4941423 -0.48297063 1.2581257 0.36754373
-1.1764789 -1.230716 -1.5079216 -0.4959017 -2.352217 2.150855 -1.0750933 0.64145434
0.565032 -0.32789332 0.8222009 0.18149644 0.64213485 -0.7939867 -1.1371605 0.6638423
-1.6523063 1.4998717 0.30060813 0.4743073 0.28454626 -0.21464956 -0.37340614 0.9437218
0.6957553 0.89130366 -0.68264055 -0.9901926 0.22763255 -0.7981592 0.4796704 1.0077782
1.555758 0.05201677 -0.9336383 0.79850787 0.7989908 1.4292355 0.80079406 0.7402197
0.79462856 -0.7583172 0.54477495 0.007213729 -1.217051 1.1171472 0.39101863 -0.47802582
0.40579367 1.0963601 -2.0787122 -0.09013398 -0.014829696 -0.64503247 -0.60073376 -0.11650542
00000000: 848d 2fbe bd6b 813f ed82 123f 37ff e93d
00000010: d659 3ebd 957d 03bf b517 b6bf d881 5a3e
00000020: df51 fbbe 0ad8 bb3e 5006 9bbf 0fcf e33e
00000030: fc73 3ebe ac21 76bf d5fe 843f be6b 943d
00000040: f24f 143e 390e 853d f2b2 293f 1996 45bf
00000050: db59 00bf 520a c33f f8d4 b33f e797 92bf
00000060: 0a84 eebf 9b72 be3f aea4 3abf 4689 0340
00000070: b041 5c3f 78b2 0d3f c1ad 09bf 48ab ac3e
00000080: b03d 833f a273 74bf a853 b33e 5464 7dbf
00000090: 1b02 91bf 3a65 a33e 1d04 69bf 5a7d 1c3f
000000a0: 1017 c0bf be17 65bf 489c 9b3e 297f fa3e
000000b0: b673 a53f d152 803f 1b49 afbe 9e85 05bf
000000c0: 7335 4cbf 9d57 babf ad51 dcbd b542 11bf
000000d0: 270e c13e 282f 873f 3bf9 263c cb2c 50bf
000000e0: 55f9 b53e e460 b4be 512f 61bf ddbf c7bf
000000f0: dd36 dd3e af9e 53be abc7 cebd 84c7 4b3f
00000100: a35b bc3e b054 9bbf 0692 9ebf f93e e33c
00000110: 7bb2 f03f 81dc a5bf adea 7fbe 7aad 08bf
00000120: 85b5 873e d34a 29be c135 4bbd aa32 393e
00000130: 7df9 bb3e 9b0b cd3e ac63 673e 26aa 143f
00000140: c484 9c3f 35d8 02bf 3bf2 7b3f e178 cb3e
00000150: 821e e23e 5615 03bf ff31 c83f fe3f d93e
00000160: a325 cb3d 05f3 743f 9df9 aabf 684a 233e
00000170: 26a2 f1bf d6e4 e63f 8735 fd3d 7833 48bf
00000180: 288c 86bf 58f0 a4bf af0c 203f d79d 02be
00000190: 0aa4 9e3f 95c5 4e3f 19fd b23f cdb6 5a3e
000001a0: 6b97 4ebf a007 53be c7fd 8b3f bf81 c23e
000001b0: 2dbb f0be 0702 b7bd 1ff0 8cbf 8da1 a9bf
000001c0: d6fb 21bc 7e11 f7be b062 b93f 6c93 23be
000001d0: 9a35 eabe d343 0cbe 7185 1f3d b00b 39bf
000001e0: db4f 19bd aa00 3fbf 338a d4be fe2b be3d
000001f0: a8ab 993e 832e 16c0 5d18 23bf ddcb 303e
00000200: ae43 853f c819 5d3f bf87 4bbe cf46 c1bd
00000210: cf27 a5be dd0b 1f3f d994 35bf d652 c8bf
00000220: 4d70 113f 367e 64bf ab86 6a3e 0f0a 09bf
00000230: ef62 ddbe f67f 313f 4276 e03e 5bab 9d3e
00000240: cd4e 2dbf fd16 8bbf f284 dbbf e37d 47bf
00000250: 885d 5a3e 0c2b 943f a7e8 84bf bc78 a9be
00000260: 11f9 c93e bc9d 023f 2704 adbe 9450 343c
00000270: 1d6a 3bbf 4fc5 bc3f cd54 993f 733d 183f
00000280: 2233 64bf 9413 053f d28a 873e 7890 763f
00000290: 8cd3 8bbf 38ef d8bf 4c74 9cbe 0d4c 1240
000002a0: ce50 08bf c169 6cbf a074 773d 6727 81bd
000002b0: 45a6 af3c 0270 63bf 11c9 773f 4074 6dbe
000002c0: cbb7 d4be 40cd 5dbf e600 0340 18ff c0be
000002d0: 7168 af3e 8a5c 04bf 2495 d7bf 2379 f4be
000002e0: b168 103f 07c5 e7bd 917e ffbe 97d4 613f
000002f0: ef33 21c0 67be f03e 94d0 963e c99b ff3e
00000300: da71 95bf 3a1d 753f 8e80 94bd ccfe bebd
00000310: 0e40 bfbf ed47 f7be 430a a13f b12e bc3e
00000320: dc96 96bf 1a88 9dbf 9303 c1bf d4e6 fdbe
00000330: b98a 16c0 9ca7 0940 a89c 89bf 5a36 243f
00000340: f0a5 103f a2e1 a7be c27b 523f 34da 393e
00000350: f362 243f b642 4bbf 7a8e 91bf 92f1 293f
00000360: c67e d3bf ccfb bf3f 4fe9 993e 68d8 f23e
00000370: 0cb0 913e 18cd 5bbe 172f bfbe c097 713f
00000380: 051d 323f 7a2c 643f 88c1 2ebf 437d 7dbf
00000390: 8218 693e 2954 4cbf 5c97 f53e e0fe 803f
000003a0: 1423 c73f 890f 553d eb02 6fbf 036b 4c3f
000003b0: a98a 4c3f 30f1 b63f d700 4d3f 0a7f 3d3f
000003c0: c76c 4b3f 1321 42bf 5f76 0b3f 2561 ec3b
000003d0: 54c8 9bbf aefe 8e3f 9833 c83e cdbf f4be
000003e0: 30c4 cf3e 8755 8c3f 9f09 05c0 2a98 b8bd
000003f0: 41f8 72bc d920 25bf b0c9 19bf 659a eebd

h.0.mha.W_q.weight f4 [64, 64]
-0.013828594 -0.18151022 0.104387015 0.009844234 -0.052482903 0.08687491 0.069913015 0.061384983
0.18090095 0.077682436 0.1195435 0.008141277 0.120979086 -0.12598887 -0.033437174 -0.0642095
0.08332474 -0.07356996 -0.08759681 0.03622706 0.09970915 -0.07710865 0.076139264 0.10578694
0.08692915 -0.14347583 0.1537021 -0.06980463 0.13761425 -0.1538127 0.012456278 -0.023372484
0.04023042 0.092644826 -0.024715941 -0.0978715 -0.08374969 -0.04952806 0.042688895 -0.103213
-0.041782796 0.15192662 0.041077424 -0.15826365 0.02459313 0.021642186 0.017845094 0.04128213
0.03689449 0.064531006 -0.008256901 -0.01035402 0.056222912 -0.028526654 -0.06838788 0.10160643
-0.03371466 -0.075388566 0.074695244 -0.07979649 0.06980869 0.019730873 0.050765436 0.0470651
0.020836422 0.13290575 -0.22301358 0.08992504 0.15050831 0.1287226 0.0055906773 0.023976875
-0.12105296 0.11127607 -0.04870073 -0.028289724 -0.20965478 0.19222693 -0.023436144 -0.09097408
-0.086195394 0.18106268 0.06775622 -0.11690414 -0.033153262 0.06182254 0.013311019 -0.23045255
-0.04655545 0.046306275 -0.22597127 -0.0028597866 -0.062861346 0.13529058 0.057531115 -0.09825352
-0.01479901 0.083228104 0.109172344 0.10859955 6.380179e-05 0.14137578 -0.096220374 0.05361887
0.08531269 -0.20636886 -0.09613375 0.2197376 -0.11937446 0.0027329228 -0.21065375 0.031349495
0.13238989 0.010378449 0.015644051 0.20972735 -0.05131923 0.015804494 -0.030637348 -0.10962367
0.11728893 -0.05937902 -0.080444165 0.042997267 -0.014134386 0.09866018 -0.11661655 -0.14959562
-0.06263709 0.06602876 -0.22667009 0.022175731 0.038655218 0.04505731 -0.06412712 0.018145947
-0.023080438 -0.03968092 -0.119688526 -0.062184736 -0.1068508 0.13205244 -0.049067046 -0.039253782
-0.105488494 0.1714568 0.09869046 0.017157804 -0.117664784 0.120615706 -0.13702354 -0.10328363
0.03821275 0.050094865 -0.21521625 0.026238503 -0.0710517 -0.0014967377 0.058870796 0.021707427
0.013792281 -0.08163598 0.0244509 0.15472852 -0.026793566 0.039202258 -0.029368699 -0.032199353
0.038074303 -0.040396225 -0.05443315 0.17844763 -0.071209766 -0.086112976 -0.025026092 -0.01763445
0.04145 0.049216896 0.033768732 0.095291436 0.027082445 -0.0021390424 0.0047186976 -0.12864774
0.09747006 -0.019374214 -0.012009177 -0.041029423 0.034785062 -0.029705502 -0.07644852 -0.0065707583
-0.014385502 0.17953576 0.024140567 0.0483097 0.16545731 0.11376395 -0.10287875 -0.017654894
-0.16255797 -0.040829238 -0.024085872 0.030473636 -0.17756468 0.2090529 0.08280541 -0.0092997765
-0.08525668 0.099685945 0.047058035 -0.046954338 -0.07183622 0.13894859 0.011366721 -0.093284145
-0.076720215 0.07484245 -0.04025356 0.023013614 -0.11514077 0.044974755 0.1710538 -0.03489908
0.04245389 0.02448848 -0.041580256 0.20883885 0.06278015 0.11244886 -0.0015507017 0.07334595
0.14660935 -0.05060414 -0.054873332 0.044919983 -0.0940167 -0.03859624 -0.10290579 -0.033006053
-0.014375662 0.05713528 -0.12997441 0.17680314 -0.041314717 -0.022866452 0.07246621 -0.0072687003
0.06303678 0.10744049 -0.0032004016 0.045761894 0.050102595 0.0077465037 -0.040711418 0.08161643
00000000: 5491 62bc d1dd 39be dcc8 d53d b649 213c
00000010: 50f8 56bd 79eb b13d 8e2e 8f3d d26e 7b3d
00000020: 193e 393e f817 9f3d 39d3 f43d fe62 053c
00000030: e2c3 f73d 3a03 01be 6bf5 08bd 4580 83bd
00000040: 29a6 aa3d d9ab 96bd f565 b3bd d362 143d
00000050: 5034 cc3d 24eb 9dbd e7ee 9b3d d3a6 d83d
00000060: e907 b23d 54eb 12be 1564 1d3e bbf5 8ebd
00000070: c0ea 0c3e 1481 1dbe 6b15 4c3c a777 bfbc
00000080: a7c8 243d 92bc bd3d 1679 cabc da70 c8bd
00000090: f584 abbd efdd 4abd 8dda 2e3d 5661 d3bd
000000a0: 7024 2bbd a792 1b3e cd40 283d de0f 22be
000000b0: 8877 c93c f44a b13c e02f 923c 7317 293d
000000c0: ad1e 173d d528 843d f447 07bc e8a3 29bc
000000d0: ff49 663d bbb0 e9bc f20e 8cbd 0817 d03d
000000e0: 6218 0abd 5265 9abd d2f9 983d 586c a3bd
000000f0: dcf7 8e3d a4a2 a13c 6bef 4f3d 56c7 403d
00000100: 25b1 aa3c 7218 083e ac5d 64be 9f2a b83d
00000110: da1e 1a3e dbcf 033e 0032 b73b 276b c43c
00000120: 9dea f7bd b5e4 e33d 6b7a 47bd dabf e7bc
00000130: beaf 56be 23d7 443e 28fd bfbc 9e50 babd
00000140: 3687 b0bd 7f68 393e c6c3 8a3d 706b efbd
00000150: b7cb 07bd a239 7d3d 7616 5a3c c1fb 6bbe
00000160: edb0 3ebd a6ab 3d3d 0365 67be 426b 3bbb
00000170: 73bd 80bd 9d89 0a3e bfa5 6b3d 2439 c9bd
00000180: 8c77 72bc 7f73 aa3d c095 df3d 7169 de3d
00000190: 53cd 8538 d0c4 103e 300f c5bd 769f 5b3d
000001a0: 6bb8 ae3d 5c52 53be c6e1 c4bd e502 613e
000001b0: 997a f4bd d61a 333b 9eb5 57be 5468 003d
000001c0: 3791 073e 5f0a 2a3c f427 803c c4c2 563e
000001d0: 1d34 52bd 6d78 813c 2dfb fabc 6082 e0bd
000001e0: 2e35 f03d 6a37 73bd e9bf a4bd e71d 303d
000001f0: e993 67bc 590e ca3d a8d4 eebd 982f 19be
00000200: e047 80bd 163a 873d 341c 68be e1a9 b53c
00000210: ef54 1e3d 048e 383d 1455 83bd cfa6 943c
00000220: 3013 bdbc 7688 22bd 421f f5bd 6cb5 7ebd
00000230: 98d4 dabd c138 073e 87fa 48bd 93c8 20bd
00000240: 5a0a d8bd 5f92 2f3e 391e ca3d 868e 8c3c
00000250: 3cfa f0bd 5e05 f73d e64f 0cbe 5e86 d3bd
00000260: f984 1c3d 4630 4d3d a661 5cbe 21f2 d63c
00000270: 8e83 91bd 2f2e c4ba 8122 713d c6d3 b13c
00000280: 05f9 613c c430 a7bd 414d c83c 2771 1e3e
00000290: 2e7e dbbc 8c92 203d a096 f0bc 78e3 03bd
000002a0: cdf3 1b3d 8376 25bd 4bf5 5ebd faba 363e
000002b0: 6dd6 91bd 005c b0bd 8503 cdbc 1f76 90bc
000002c0: 7ac7 293d a897 493d 1551 0a3d 2828 c33d
000002d0: 01dc dd3c 2d2f 0cbb 4e9f 9a3b 3cbc 03be
000002e0: 629e c73d acb6 9ebc 24c2 44bc 780e 28bd
000002f0: c87a 0e3d f458 f3bc 0b91 9cbd 844f d7bb
00000300: 2bb1 6bbc 39d8 373e 70c2 c53c 64e0 453d
00000310: a46d 293e 13fd e83d 18b2 d2bd ffa0 90bc
00000320: 9975 26be 8f3c 27bd bc4f c5bc d9a3 f93c
00000330: 84d3 35be f711 563e e295 a93d 175e 18bc
00000340: 0e9b aebd 2528 cc3d edbf 403d 3153 40bd
00000350: de1e 93bd 8a48 0e3e 7c3b 3a3c c20b bfbd
00000360: 7d1f 9dbd 0047 993d ebe0 24bd 0c87 bc3c
00000370: edce ebbd 7337 383d ba28 2f3e 56f2 0ebd
00000380: 21e4 2d3d 119c c83c 0f50 2abd dad9 553e
00000390: e192 803d 974b e63d ea40 cbba 6736 963d
000003a0: c320 163e 4946 4fbd dcc2 60bd 04fe 373d
000003b0: d48b c0bd 1717 1ebd 45c0 d2bd 5b31 07bd
000003c0: e687 6bbc af06 6a3d 0318 05be e20b 353e
000003d0: 9f39 29bd 6d52 bbbc 2a69 943d 472e eebb
000003e0: 6d19 813d c209 dc3d d4bd 51bb d370 3b3d
000003f0: 6138 4d3d 62d6 fd3b 04c1 26bd 8426 a73d

h.0.mha.W_q.bias f4 [64]
-0.09383732 0.51970047 0.42872155 0.28795183 0.21921097 0.48700815 -0.16805385 0.34192833
-0.5781332 -0.34563854 0.26519284 0.20110147 0.09634724 0.5642925 0.3748234 -0.18899654
0.27210683 0.5479696 -0.10897551 0.37761635 -0.34985968 0.1731135 -0.10681191 -0.21225959
-0.13103059 0.02707074 0.07345515 -0.17155534 0.016839262 -0.067927346 0.079081446 0.21725817
-0.08549915 -0.0725421 -0.021768523 0.02248802 0.04852635 -0.004824479 -0.0961469 0.019849807
0.057416677 0.0050389385 0.11375999 0.01377011 0.036874883 0.030345367 0.08004721 0.07795891
-0.019629152 0.09055368 0.11148341 0.041446116 -0.026305584 -0.03569216 -0.025137536 -0.01993886
0.15488316 -0.020694198 0.0015069854 0.024248185 0.04249407 0.10433961 0.1074145 -0.09270142
00000000: c82d c0bd 170b 053f 6481 db3e 6c6e 933e
00000010: d778 603e 2259 f93e 4f16 2cbe 3b11 af3e
00000020: 8a00 14bf 89f7 b0be 5bc7 873e 8bed 4d3e
00000030: b451 c53d 7975 103f dae8 bf3e 4f88 41be
00000040: 9651 8b3e bc47 0c3f 8d2e dfbd ee56 c13e
00000050: cf20 b3be aa44 313e 34c0 dabd 945a 59be
00000060: e22c 06be 75c3 dd3c a76f 963d 34ac 2fbe
00000070: 7ef2 893c 7e1d 8bbd 74f5 a13d ed78 5e3e
00000080: 2e1a afbd f490 94bd e753 b2bc cc38 b83c
00000090: 91c3 463d aa16 9ebb aae8 c4bd 109c a23c
000000a0: c02d 6b3d ae1d a53b fffa e83d 079c 613c
000000b0: 1e0a 173d d996 f83c cbef a33d eca8 9f3d
000000c0: 51cd a0bc 3574 b93d 6a51 e43d 67c3 293d
000000d0: cf7e d7bc f131 12bd 3ced cdbc d256 a3bc
000000e0: b199 1e3e e186 a9bc 0a86 c53a 21a4 c63c
000000f0: 430e 2e3d 01b0 d53d 22fc db3d 3eda bdbd

h.0.mha.W_k.weight f4 [64, 64]
0.049676754 -0.067657545 0.06601727 -0.119260326 -0.06779448 -0.03502196 0.0033496656 0.06819765
0.09664339 -0.009925815 -0.020311626 0.063105345 -0.0009925829 -0.07604811 0.010051106 0.06485259
0.030565245 -0.02063552 0.039838977 0.057767164 -0.055458043 -0.06003118 0.035119154 0.0378133
0.06583141 -0.12563176 0.09417206 0.044376872 -0.002465308 -0.027616851 -0.08419594 0.053797457
-0.00847634 0.009443808 0.03198762 -0.0039528674 -0.013144946 -0.072008215 0.013680092 0.091948695
0.09677216 0.01450989 0.035773333 -0.08163502 -0.017840127 -0.0135667315 0.045857545 0.03183321
-0.037066575 0.02231112 -0.10605247 -0.10131263 0.12567677 0.02594749 0.012412619 0.060244903
-0.012668889 -0.052036747 0.0019706772 -0.0038214019 -0.02648397 -0.06361976 0.052007083 0.056356635
-0.032170083 0.13059212 -0.18719615 0.00743229 0.16684893 0.1239735 -0.050241318 0.041967772
-0.16169886 -0.035776526 -0.10138021 -0.015153662 -0.25831115 0.21053892 -0.03743764 -0.08628598
-0.08577079 0.1691285 0.056141686 -0.024074564 -0.094189934 0.21896566 -0.029865788 -0.14486799
-0.119189546 0.19662423 -0.21866792 -0.053102847 -0.09222926 0.13547458 -0.025969626 -0.008261976
0.01597336 -0.07872609 0.062607095 0.14877032 -0.014994607 0.05692759 -0.077863686 0.12391205
-0.04225735 -0.19396585 -0.100339204 0.13504045 -0.052415088 -0.05033131 -0.15995735 -0.15925519
-0.0128523465 -0.1965831 0.12754303 0.2462958 -0.16561227 0.029750567 -0.07094462 -0.21090606
0.24159665 0.0010360018 -0.1600809 0.055015482 -0.09533878 -0.14910246 -0.12961332 -0.0698206
-0.027323628 -0.1228208 0.0956871 0.06484187 -0.06180909 -0.078529745 0.008329359 -0.01782726
0.11130492 -0.04511187 0.12527324 0.03260896 0.04163488 -0.13473685 0.04138184 0.065627776
0.05050752 -0.13289168 -0.029412542 0.035535946 0.16123213 -0.14733748 -0.035642445 0.17132826
-0.006743692 -0.016506594 0.13045281 0.10270375 0.07238637 -0.102743015 0.016526679 0.037237175
0.043552525 -0.0058645518 0.017845355 -0.15396185 -0.011846361 -0.010818906 0.056911454 -0.017820237
0.00051376753 0.045853704 0.12255029 -0.1738229 0.11071375 0.06722256 0.11714743 0.08457137
-0.06964676 0.075456016 0.027482675 -0.18888393 0.046262097 -0.04057745 -0.030240934 0.05194519
-0.1122104 -0.1418162 0.028255055 0.050839882 -0.022579193 0.05319292 -0.027855381 0.11585586
-0.10958519 0.09061772 -0.09722072 0.017396295 0.17086333 -0.01675808 -0.054808274 -0.07813795
-0.055553917 -0.09139747 -0.07883401 -0.060628843 -0.28914905 0.11603084 0.07085594 0.048370216
-0.09129787 0.16562414 0.14066881 0.022357475 -0.049110435 0.1663154 -0.03603076 -0.082049325
-0.035404053 0.03546223 -0.14437166 0.016488463 0.02956047 0.17219374 -0.014443652 0.04413529
-0.0272927 -0.1379768 0.10877681 0.13544378 0.03631231 0.045533217 -0.022504967 0.18735488
0.037980303 -0.07947296 -0.032571606 0.18521708 0.020063372 -0.017174335 -0.015270372 -0.075878195
-0.016267851 -0.075683594 0.13580637 0.08008763 -0.07653225 0.09841487 -0.001507773 -0.20589317
0.2011184 0.00051184656 -0.07063687 0.021357972 -0.058006406 -0.039086968 -0.08046267 0.04079538
00000000: da79 4b3d 0a90 8abd 1034 873d c23e f4bd
00000010: d5d7 8abd 3073 0fbd 1086 5b3b 36ab 8b3d
00000020: f8ec c53d e39f 22bc 9164 a6bc 603d 813d
00000030: 8e19 82ba 1dbf 9bbd 65ad 243c 6fd1 843d
00000040: f763 fa3c d20b a9bc 322e 233d 439d 6c3d
00000050: f927 63bd 41e3 75bd 1ad9 0f3d 1ee2 1a3d
00000060: 9ed2 863d 9da5 00be 48dd c03d 86c4 353d
00000070: 0191 21bb bc3c e2bc ec6e acbd b95a 5c3d
00000080: 59e0 0abc 34ba 1a3c 7305 033d 0e87 81bb
00000090: e65d 57bc 0b79 93bd 7722 603c 994f bc3d
000000a0: 7b30 c63d e4ba 6d3c 0f87 123d 4330 a7bd
000000b0: 7525 92bc ff46 5ebc 1fd5 3b3d 8a63 023d
000000c0: 1fd3 17bd cfc5 b63c 0a32 d9bd ff7c cfbd
000000d0: 69b1 003e d58f d43c 4c5e 4b3c 5cc3 763d
000000e0: 2c91 4fbc 7c24 55bd 7a26 013b 7c70 7abb
000000f0: e9f4 d8bc 144b 82bd 6105 553d 37d6 663d
00000100: c7c4 03bd f1b9 053e 59b0 3fbe 918a f33b
00000110: 72da 2a3e d2e5 fd3d d7c9 4dbd 66e6 2b3d
00000120: 6394 25be 688a 12bd 6da0 cfbd 1147 78bc
00000130: 5c41 84be 8497 573e 3658 19bd b4b6 b0bd
00000140: 99a8 afbd 0630 2d3e d3f4 653d 0538 c5bc
00000150: a7e6 c0bd 8938 603e 19a9 f4bc 4658 14be
00000160: a619 f4bd dd57 493e 7cea 5fbe 5f82 59bd
00000170: b2e2 bcbd d9b9 0a3e 41be d4bc 3d5d 07bc
00000180: 90da 823c 253b a1bd 2638 803d 3f57 183e
00000190: f1ab 75bc e82c 693d ff76 9fbd 9ac5 fd3d
000001a0: 0b16 2dbd fc9e 46be a47e cdbd 0b48 0a3e
000001b0: 34b1 56bd 3428 4ebd dccb 23be cb13 23be
000001c0: a692 52bc 154d 49be a49a 023e f734 7c3e
000001d0: 4396 29be 76b7 f33c 6a4b 91bd c2f7 57be
000001e0: 1d65 773e 74ca 873a 3fec 23be ea57 613d
000001f0: fa40 c3bd 51ae 18be 5bb9 04be 1afe 8ebd
00000200: cdd5 dfbc 7989 fbbd 99f7 c33d d0cb 843d
00000210: 872b 7dbd 34d4 a0bd dd77 083c 790a 92bc
00000220: d5f3 e33d 39c7 38bd a147 003e f990 053d
00000230: 5689 2a3d 75f8 09be 0180 293d db67 863d
00000240: f9e0 4e3d c214 08be 92f2 f0bc 248e 113d
00000250: 091a 253e a3df 16be d0fd 11bd ad70 2f3e
00000260: 30fa dcbb d638 87bc 6c95 053e 5856 d23d
00000270: 4e3f 943d ee6a d2bd f562 873c 0286 183d
00000280: 2264 323d 6d2b c0bb 6c30 923c 2da8 1dbe
00000290: 3d17 42bc c841 31bc fc1b 693d bffb 91bc
000002a0: 5bae 063a 18d1 3b3d a5fb fa3d a1fe 31be
000002b0: e4bd e23d fbab 893d feea ef3d c133 ad3d
000002c0: f6a2 8ebd af88 9a3d 5923 e13c ca6a 41be
000002d0: 537d 3d3d 8a34 26bd d6bb f7bc 7bc4 543d
000002e0: 91ce e5bd 4438 11be 2577 e73c 7b3d 503d
000002f0: 00f8 b8bc d2e0 593d f830 e4bc d645 ed3d
00000300: 336e e0bd c895 b93d a81b c7bd ad82 8e3c
00000310: ccf6 2e3e 3e48 89bc a47e 60bd ca06 a0bd
00000320: 818c 63bd 992e bbbd ba73 a1bd f355 78bd
00000330: 580b 94be 94a1 ed3d eb1c 913d d91f 463d
00000340: 61fa babd 6099 293e 7c0b 103e 0627 b73c
00000350: 0628 49bd 964e 2a3e fd94 13bd 7a09 a8bd
00000360: d703 11bd d840 113d 2ad6 13be d012 873c
00000370: cc28 f23c 8e53 303e 11a5 6cbc 35c7 343d
00000380: f194 dfbc ca49 0dbe 60c6 de3d c6b1 0a3e
00000390: 37bc 143d 0a81 3a3d 565c b8bc f5d9 3f3e
000003a0: 3c91 1b3d b8c2 a2bd ce69 05bd 8ca9 3d3e
000003b0: f15b a43c 31b1 8cbc 9530 7abc 0766 9bbd
000003c0: 2844 85bc 0000 9bbd d310 0b3e fc04 a43d
000003d0: f1bc 9cbd bc8d c93d 77a0 c5ba a9d5 52be
000003e0: fbf1 4d3e 712d 063a 10aa 90bd eaf6 ae3c
000003f0: 2098 6dbd a819 20bd 9dc9 a4bd 0e19 273d

h.0.mha.W_k.bias f4 [64]
0.005002692 0.504147 -0.30316624 0.55655897 -0.27593315 0.31017146 -0.6535013 -0.042016864
-0.37908283 -0.81903315 0.51653963 0.18351759 0.14340167 0.78107685 -0.12215596 -0.5101105
0.1994269 -0.10404872 -0.21666178 0.6299197 0.056256782 -0.061316065 -0.46999034 0.36062723
-0.14496537 0.630636 -0.30949166 -0.49848312 0.32889926 -0.3004103 0.11806872 -0.5363922
-0.5170063 -0.16032918 -0.3677719 0.48947603 0.1602292 -0.19104429 0.3059355 -0.03113428
0.380518 0.058981705 0.20100895 -0.06720933 -0.35214326 0.12393497 0.33765745 0.07720145
0.16857313 0.3281376 -0.314786 -0.059360623 0.055002782 -0.5092055 0.38517916 -0.28414696
-0.26584738 -0.30612764 0.24953835 -0.32887053 0.35712448 0.1629954 0.047487475 -0.5184314
00000000: 9fed a33b c70f 013f 9b38 9bbe a67a 0e3f
00000010: 1c47 8dbe cbce 9e3e dc4b 27bf e019 2cbd
00000020: 2517 c2be 28ac 51bf f13b 043f 09ec 3b3e
00000030: e3d7 123e a7f4 473f e72c fabd 9a96 02bf
00000040: 9136 4c3e 7f17 d5bd 96dc 5dbe 6b42 213f
00000050: 836d 663d 8e26 7bbd 93a2 f0be 22a4 b83e
00000060: cd71 14be 5c71 213f b175 9ebe 2e39 ffbe
00000070: 7c65 a83e 61cf 99be 03ce f13d 0051 09bf
00000080: 865a 04bf 552d 24be 994c bcbe 9a9c fa3e
00000090: 2013 243e 1da1 43be 94a3 9c3e 510d ffbc
000000a0: 41d3 c23e cd96 713d 4ad5 4d3e 0ca5 89bd
000000b0: 1f4c b4be 9ed1 fd3d 70e1 ac3e cb1b 9e3d
000000c0: 6f9e 2c3e a701 a83e a12b a1be 2024 73bd
000000d0: 994a 613d 4b5b 02bf 3436 c53e b67b 91be
000000e0: 261d 88be c3bc 9cbe fb86 7f3e b861 a8be
000000f0: 05d9 b63e 44e8 263e 3a82 423d ecb7 04bf

h.0.mha.W_v.weight f4 [64, 64]
0.048586845 0.007678068 0.23920871 -0.2017572 0.19020315 -0.19099025 -0.12535276 0.31070593
-0.14113073 0.06825635 -0.0022353753 0.009717996 -0.008813836 -0.31240353 0.16361667 -0.034795847
-0.035468757 0.1812601 -0.03926284 0.16909237 0.07282306 0.07339803 0.09308746 -0.055348277
-0.09325492 -0.11450458 -0.26389763 0.020364078 0.22228712 -0.019912584 0.06390248 -0.14377585
0.14993083 -0.07050705 0.11508358 0.055055667 -0.26090318 0.14570154 0.05532525 0.16387267
-0.08258633 0.011008584 0.18583329 -0.047363453 -0.049537938 0.091677256 -0.10762548 0.13598977
-0.05698415 0.0467412 0.07729059 0.07221718 -0.29506725 -0.14577822 0.19536845 0.10628891
0.13549386 -0.03918368 0.0018699663 -0.049822863 0.027800761 -0.124641016 -0.07422171 -0.16244921
-0.12119445 5.9032463e-05 -0.06505025 -0.30811754 0.07466868 0.18376018 0.03622414 0.0647107
-0.04240465 0.02408324 0.004359075 0.16249414 -0.11189937 0.05116151 -0.15183894 -0.14941557
0.029776217 0.03728797 0.24151558 -0.0059286184 0.06836556 -0.13817243 0.07288079 -0.01600818
0.12695436 -0.0746914 -0.2160331 -0.08690293 -0.022490328 -0.017274745 0.11417619 -0.060769245
-0.025909401 0.07695918 -0.18805468 0.10472749 0.023701893 0.018985787 0.120941736 -0.016614802
0.21159835 0.2609568 0.07645579 0.09042785 -0.053159952 -0.09978012 0.013839547 -0.0031270948
0.070149325 0.07421517 -0.15672022 0.029610882 -0.22603835 0.1562796 0.10522306 -0.009222718
0.06253976 0.036937308 0.16053504 0.023062633 -0.0051798024 -0.055055693 0.006598845 0.04525254
0.03239801 -0.2290048 -0.07360645 0.19729982 0.052899435 0.082412176 -0.22996867 -0.06773529
0.031274363 0.2068236 0.19286081 0.013127801 0.13847013 0.20915502 0.14878677 -0.042964634
0.2325735 0.26765522 -0.20268753 -0.09318664 -0.06148097 -0.14546257 -0.04134826 0.14794353
-0.094922595 -0.16717622 8.603935e-05 0.00935894 -0.22084388 0.050807595 -0.15074909 0.011408699
-0.07422113 -0.18934444 0.04576637 0.022634195 -0.13255155 -0.19674739 0.09170323 0.103906095
0.015079614 -0.1279133 -0.060175072 -0.092944756 -0.081619605 0.07446906 0.010094536 0.1819355
-0.086749576 -0.02337041 -0.004870391 0.20974064 0.038681827 0.14753754 -0.0412314 -0.115350105
-0.13507484 0.3288359 0.11346895 0.20396352 0.17730097 -0.06318602 0.07173117 -0.17184676
0.12138903 0.1773888 0.0437805 0.040453177 0.014243988 -0.076497644 -0.11446632 0.23835316
0.11322089 0.10615469 0.28753325 0.11704312 -0.031014962 -0.1271598 0.038324367 -0.11162172
-0.011603448 0.08793077 -0.06156616 -0.09951973 -0.20778199 0.1010617 0.12525855 -0.098880075
0.12259887 -0.22595939 -0.18815722 -0.06610673 -0.1662779 0.07733912 0.24749088 -0.15902343
-0.2773683 -0.053363238 -0.14697614 0.3082789 0.15467148 -0.20405725 -0.12290822 0.10169066
-0.01636531 -0.12592234 0.27807853 -0.23785731 0.02357757 0.06175639 -0.07808528 -0.1811556
-0.2778009 0.08628485 -0.06929595 -0.08350174 -0.0244433 0.060655873 0.0018712966 -0.101968884
-0.15568924 -0.2104438 0.12005661 -0.001263162 -0.047417868 0.07707739 -0.07983387 0.01907782
00000000: 0003 473d 4d98 fb3b 21f3 743e 7099 4ebe
00000010: 9dc4 423e f392 43be 795c 00be d914 9f3e
00000020: 9384 10be fcc9 8b3d 607f 12bb 3b38 1f3c
00000030: e867 10bc 5bf3 9fbe 218b 273e 1786 0ebd
00000040: b047 11bd 3f9c 393e 12d2 20bd 8d26 2d3e
00000050: 4224 953d b551 963d a3a4 be3d e0b4 62bd
00000060: 6ffc bebd 6181 eabd 971d 87be 91d2 a63c
00000070: 3c9f 633e b71f a3bc 4edf 823d fa39 13be
00000080: 7887 193e 0066 90bd f1b0 eb3d 0d82 613d
00000090: 1a95 85be c932 153e bb9c 623d 3dce 273e
000000a0: 0623 a9bd 595d 343c 154b 3e3e 2e00 42bd
000000b0: 4be8 4abd 49c1 bb3d bf6a dcbd e740 0b3e
000000c0: 3668 69bd b373 3f3d 874a 9e3d 9ae6 933d
000000d0: 0e13 97be e346 15be ab0e 483e 00ae d93d
000000e0: e7be 0a3e 117f 20bd a819 f53a 0f13 4cbd
000000f0: 6cbe e33c ca43 ffbd 8d01 98bd 1659 26be
00000100: cc34 f8bd a099 7738 1139 85bd 95c1 9dbe
00000110: e5eb 983d a12b 3c3e c45f 143d 0b87 843d
00000120: 80b0 2dbd 374a c53c 92d6 8e3b dd64 263e
00000130: 7f2b e5bd bb8e 513d ab7b 1bbe 6500 19be
00000140: 41ed f33c 45bb 183d dc4f 773e db44 c2bb
00000150: 3e03 8c3d 137d 0dbe 8642 953d 9623 83bc
00000160: 5300 023e cef7 98bd c837 5dbe 2afa b1bd
00000170: a33d b8bc c483 8dbc 35d5 e93d 2ce9 78bd
00000180: f43f d4bc c69c 9d3d 6891 40be 5e7b d63d
00000190: 792a c23c 1588 9b3c 4db0 f73d c41b 88bc
000001a0: 3dad 583e 219c 853e da94 9c3d 3d32 b93d
000001b0: 40be 59bd 8559 ccbd 44bf 623c f2ef 4cbb
000001c0: 73aa 8f3d 20fe 973d 447b 20be 8592 f23c
000001d0: 9976 67be c207 203e 307f d73d e21a 17bc
000001e0: d814 803d 934b 173d 4c63 243e d9ed bc3c
000001f0: 55bb a9bb 1482 61bd 203b d83b ba5a 393d
00000200: c7b3 043d 3c80 6abe fabe 96bd f708 4a3e
00000210: 14ad 583d b7c7 a83d e87c 6bbe cdb8 8abd
00000220: 8c19 003d 91c9 533e 4e7d 453e fd15 573c
00000230: 1dcb 0d3e bc2c 563e 8f5b 183e affb 2fbd
00000240: bf27 6e3e 1b0a 893e 528d 4fbe a3d8 bebd
00000250: 78d3 7bbd 24f4 14be cb5c 29bd 827e 173e
00000260: c766 c2bd 3e30 2bbe 0670 b438 3d56 193c
00000270: e624 62be a01b 503d f85d 1abe 8deb 3a3c
00000280: 3f01 98bd 82e3 41be 8475 3b3d 596b b93c
00000290: 98bb 07be 2678 49be e7ce bb3d b8cc d43d
000002a0: 7c10 773c b4fb 02be 237a 76bd d259 bebd
000002b0: 2e28 a7bd 3c83 983d 8d63 253c 4d4d 3a3e
000002c0: c3a9 b1bd 4d73 bfbc cd97 9fbb 40c6 563e
000002d0: d670 1e3d 1514 173e 42e2 28bd ad3c ecbd
000002e0: 0f51 0abe 2e5d a83e 6962 e83d d0db 503e
000002f0: 638e 353e ac67 81bd cbe7 923d 99f8 2fbe
00000300: d09a f83d 69a5 353e 2e53 333d 3bb2 253d
00000310: 9e5f 693c ccaa 9cbd 516d eabd da12 743e
00000320: 5be0 e73d a167 d93d 8f37 933e 4eb4 ef3d
00000330: 1713 febc 2e36 02be 03fa 1c3d ee99 e4bd
00000340: 631c 3ebc 0c15 b43d cc2c 7cbd 00d1 cbbd
00000350: cdc4 54be 70f9 ce3d c743 003e a381 cabd
00000360: 1e15 fb3d e661 67be 49ac 40be f762 87bd
00000370: c144 2abe f963 9e3d 406e 7d3e 0ad7 22be
00000380: 3803 8ebe 6993 5abd ea80 16be bbd6 9d3e
00000390: 3362 1e3e 62f4 50be 4eb7 fbbd 3143 d03d
000003a0: 8b10 86bc c9f1 00be 4f60 8e3e de90 73be
000003b0: c025 c13c 45f4 7c3d 2deb 9fbd db80 39be
000003c0: eb3b 8ebe 1db6 b03d 09eb 8dbd f602 abbd
000003d0: 513d c8bc 4b72 783d 4b46 f53a 10d5 d0bd
000003e0: 006d 1fbe 947e 57be 3de0 f53d af90 a5ba
000003f0: 3d39 42bd c0da 9d3d f17f a3bd 1749 9c3c

h.0.mha.W_v.bias f4 [64]
-0.044849448 0.062218636 0.016174925 0.08529974 -0.13734673 -0.078008816 0.02679671 -0.19383536
-0.07840865 -0.08736406 -0.022728844 -0.19499823 0.16259904 0.079082295 -0.14175323 0.01712803
-0.013876449 -0.09134588 -0.080800794 0.008046146 -0.093132846 -0.067041114 -0.00793486 0.0457217
0.015914712 0.10762831 0.15155606 0.019034635 0.060661346 0.17079788 0.06005222 0.14926705
-0.14650309 0.06516347 0.13921693 0.07978904 0.07600518 0.18048318 0.04271079 -0.05314313
-0.11620176 -0.016813736 0.095273584 -0.08589703 -0.14033562 -0.055994246 -0.11778274 -0.0811519
-0.14671092 0.02194865 -0.17142579 -0.021355089 -0.20694642 -0.12745337 0.11492228 0.12302974
-0.112257436 -0.104389936 -0.19052008 0.10031793 0.11071042 -0.12173096 -0.0049513085 -0.051353153
00000000: 0eb4 37bd f8d8 7e3d 4781 843c a1b1 ae3d
00000010: 9fa4 0cbe 16c3 9fbd c684 db3c c77c 46be
00000020: b794 a0bd eeeb b2bd d731 babc 9ead 47be
00000030: 5d80 263e e6f5 a13d c227 11be 1550 8c3c
00000040: 0c5a 63bc 8c13 bbbd e37a a5bd fbd3 033c
00000050: 6fbc bebd da4c 89bd 3701 02bc ad46 3b3d
00000060: 925f 823c 3b6c dc3d 8331 1b3e 86ee 9b3c
00000070: 0878 783d a4e5 2e3e 51f9 753d 76d9 183e
00000080: e804 16be 6d74 853d e28e 0e3e 7068 a33d
00000090: 9ba8 9b3d 95d0 383e 82f1 2e3d 9cac 59bd
000000a0: 30fb edbd f6bc 89bc cc1e c33d c8ea afbd
000000b0: 24b4 0fbe 395a 65bd 1438 f1bd f832 a6bd
000000c0: 633b 16be a8cd b33c 3e8a 2fbe def0 aebc
000000d0: c3e9 53be 2383 02be 5f5c eb3d 04f7 fb3d
000000e0: 3ae7 e5bd 64ca d5bd b217 43be 7d73 cd3d
000000f0: 25bc e23d 154e f9bd 963e a2bb af57 52bd

h.0.mha.W_o.weight f4 [64, 64]
-0.056881517 -0.16071287 0.1798087 -0.03673139 0.10281351 0.08337701 -0.004450708 0.08424908
0.11981043 0.056193285 -0.109185405 -0.030062787 -0.03752163 -0.027315931 -0.03339317 0.019866282
0.040876985 -0.04018066 -0.089389056 -0.119172424 -0.11943304 -0.101953276 0.1248092 -0.10013099
-0.05848684 -0.0015791245 -0.02082614 -0.13475917 -0.07079836 -0.021929568 -0.09751661 0.012293865
0.01671513 -0.07161635 -0.13389727 0.07699429 -0.021952212 0.16712761 0.0511966 0.14384776
0.12815788 0.0017398517 0.02909694 0.011554312 -0.0908983 -0.14534135 -0.012169667 -0.09464052
0.18122232 0.0282299 0.05335702 0.011704859 -0.050326616 0.07299208 0.05280318 -0.054357566
0.03696637 0.064719476 0.0152575085 0.04997179 -0.065866254 -0.04433635 -0.008776465 0.14223509
0.11908644 -0.055156462 0.06636509 0.15519537 0.11558376 0.028731689 -0.02972607 -0.08480265
-0.10659089 0.10849011 0.08841141 -0.12221866 0.088910714 -0.10501942 -0.044219304 0.012949622
-0.0457905 -0.06527947 0.122766584 -0.080541596 0.0981216 -0.0038621156 -0.15053128 0.07631011
0.11905431 -0.084836006 0.07549905 -0.02648988 -0.16855344 -0.021583857 0.15620506 -0.1677673
0.07056081 0.061672766 0.051518902 0.06627713 0.04046979 0.13277555 -0.08802611 0.00058138993
-0.0004250089 0.045028172 -0.015497976 0.055596933 -0.09579778 -0.03865672 0.010135732 -0.0013599618
-0.065535404 0.012807054 -0.08753295 -0.018421566 -0.19911578 0.042119533 -0.11707428 -0.07479737
0.07178993 0.08082662 0.04037497 -0.0042998744 0.018669663 -0.059315827 0.048732687 0.032201815
0.16546033 0.1493702 -0.029002426 0.07907127 -0.07758488 -0.11683476 -0.03162109 0.012394942
-0.009282284 -0.052809283 0.06091579 0.030260049 -0.01613625 0.14261025 0.2518938 0.15710126
-0.13557625 0.09092488 -0.023878736 0.260655 -0.04834706 -0.1243678 -0.1111852 -0.020089032
0.18225533 0.09235542 -0.06324302 0.10189788 -0.004804236 0.020004373 0.07174763 -0.10209435
-0.20100099 0.021918388 -0.11775149 0.064623155 0.04231242 -0.29698312 0.1759275 -0.16807787
-0.10771577 0.021939622 0.012310758 0.09890331 -0.086462244 0.01482438 -0.097896315 0.027772661
-0.022348084 0.009511221 0.119792655 -0.056488525 0.054199632 -0.054943565 -0.08085134 0.027759306
-0.073603906 0.032376822 0.0011860152 0.025535535 -0.009377137 0.2406665 -0.07898687 0.013766929
-0.045944076 -0.08928158 -0.08143161 -0.029503744 -0.054763902 -0.0627003 0.081321664 -0.009915152
0.09616705 -0.01696187 0.12794267 0.0018606744 -0.101873346 -0.023927905 -0.13213591 -0.0065404866
0.03650392 0.05826712 0.1503435 -0.016682642 -0.11671092 0.12130723 -0.009633977 0.048447236
-0.034196343 0.06024326 0.0755283 0.012140503 -0.05505477 -0.14160612 0.04118343 0.037841663
-0.10938486 0.04619515 0.069509804 -0.12799455 0.09839636 0.0947595 -0.18203835 0.019504774
3.2957127e-05 0.010123725 0.099363305 0.073840044 -0.05605329 0.032297958 0.1762151 0.050180193
-0.015178418 0.03148928 -0.0022432918 -0.03511099 0.017379366 -0.0066197542 0.024277309 -0.028913682
0.016988335 -0.054894682 -0.091134526 -0.0144385435 0.071800776 -0.039871886 -0.1316273 0.041598316
00000000: 98fc 68bd ea91 24be c61f 383e a773 16bd
00000010: e48f d23d 91c1 aa3d 3fd7 91bb c88a ac3d
00000020: 2c5f f53d ee2a 663d 999c dfbd 3c46 f6bc
00000030: 48b0 19bd a9c5 dfbc 47c7 08bd 9dbe a23c
00000040: a06e 273d 7a94 24bd 9c11 b7bd ac10 f4bd
00000050: 4f99 f4bd e1cc d0bd f79b ff3d 7a11 cdbd
00000060: e68f 6fbd a0fa ceba 959b aabc 4ffe 09be
00000070: bbfe 90bd a3a5 b3bc cab6 c7bd 356c 493c
00000080: 2bee 883c 98ab 92bd 5e1c 09be 2faf 9d3d
00000090: 20d5 b3bc 8023 2b3e 87b3 513d d44c 133e
000000a0: d23b 033e bc0b e43a b55c ee3c 4c4e 3d3c
000000b0: e328 babd 5dd4 14be 4863 47bc e4d2 c1bd
000000c0: 5892 393e 6442 e73c e48c 5a3d bdc5 3f3c
000000d0: 4823 4ebd df7c 953d 2648 583d 0aa6 5ebd
000000e0: 0c6a 173d a58b 843d a1fa 793c 38af 4c3d
000000f0: e3e4 86bd 089a 35bd 2acb 0fbc 13a6 113e
00000100: 97e3 f33d beeb 61bd 6cea 873d 89eb 1e3e
00000110: 2eb7 ec3d b85e eb3c 1684 f3bc 03ad adbd
00000120: 534c dabd 1030 de3d 0b11 b53d c74d fabd
00000130: d216 b63d 6c14 d7bd 4d1f 35bd a72a 543c
00000140: d28e 3bbd 3eb1 85bd 0c6d fb3d fef2 a4bd
00000150: faf3 c83d 8c1b 7dbb df24 1abe 7a48 9c3d
00000160: bfd2 f33d 80be adbd 3f9f 9a3d 4e01 d9bc
00000170: 4699 2cbe a1d0 b0bc 38f4 1f3e 31cb 2bbe
00000180: 3082 903d 959c 7c3d 7c05 533d 4ebc 873d
00000190: a7c3 253d 50f6 073e 0847 b4bd 6b68 183a
000001a0: bbd3 deb9 766f 383d 39eb 7dbc 9cb9 633d
000001b0: a031 c4bd 8256 1ebd 5710 263c bf40 b2ba
000001c0: 6d37 86bd aed4 513c 7a44 b3bd d3e8 96bc
000001d0: 02e5 4bbe 8885 2c3d a4c4 efbd 5d2f 99bd
000001e0: 9906 933d 6d88 a53d 3960 253d f6e5 8cbb
000001f0: 1ff1 983c 27f5 72bd ed9b 473d 0de6 033d
00000200: 6f6e 293e 80f4 183e 7f96 edbc 1ef0 a13d
00000210: d2e4 9ebd 1047 efbd 1e85 01bd 2814 4b3c
00000220: b914 18bc 8c4e 58bd d682 793d ece3 f73c
00000230: 2b30 84bc 6c08 123e 39f8 803e 27df 203e
00000240: 80d4 0abe d336 ba3d 579d c3bc 9274 853e
00000250: 9107 46bd 8cb4 febd 11b5 e3bd c191 a4bc
00000260: 24a1 3a3e d724 bd3d 8e85 81bd d6af d03d
00000270: da6c 9dbb 36e0 a33c 6cf0 923d d816 d1bd
00000280: 34d3 4dbe 318e b33c b127 f1bd 2559 843d
00000290: ca4f 2d3d 2c0e 98be 5726 343e 9b1c 2cbe
000002a0: 169a dcbd b9ba b33c 10b3 493c d28d ca3d
000002b0: 1e13 b1bd f5e1 723c dd7d c8bd 7e83 e33c
000002c0: 5413 b7bc f4d4 1b3c da55 f53d 8360 67bd
000002d0: 6f00 5e3d 810c 61bd 6395 a5bd 7c67 e33c
000002e0: a5bd 96bd 8f9d 043d 1174 9b3a e62f d13c
000002f0: 90a2 19bc 4771 763e dec3 a1bd af8e 613c
00000300: db2f 3cbd 43d9 b6bd 9ec5 a6bd d6b1 f1bc
00000310: 1d50 60bd 0469 80bd f98b a63d 2973 22bc
00000320: 3bf3 c43d 9ff3 8abc 6703 033e dfe1 f33a
00000330: f9a2 d0bd 7404 c4bc a34e 07be 9451 d6bb
00000340: 2285 153d 81a9 6e3d a5f3 193e 09aa 88bc
00000350: 2306 efbd ed6f f83d d4d7 1dbc 9c70 463d
00000360: 7711 0cbd a3c1 763d 95ae 9a3d f6e8 463c
00000370: 1c81 61bd 3201 11be f5af 283d dcff 1a3d
00000380: 2b05 e0bd 2037 3d3d 285b 8e3d 0111 03be
00000390: 0884 c93d 4511 c23d 4368 3abe 7ac8 9f3c
000003a0: 723b 0a38 fbdd 253c fd7e cb3d 7339 973d
000003b0: 2298 65bd dd4a 043d bb71 343e bf89 4d3d
000003c0: e6ae 78bc e7fa 003d 3104 13bb 8bd0 0fbd
000003d0: 2c5f 8e3c 86ea d8bb 35e1 c63c 63dc ecbc
000003e0: 1f2b 8b3c 3fd9 60bd bda4 babd a48f 6cbc
000003f0: 490c 933d b450 23bd 4fc9 06be ff62 2a3d

h.0.mha.W_o.bias f4 [64]
-0.15127762 0.09288772 0.028741013 -0.04359343 0.23285556 -0.009630234 -0.08026903 0.097168125
-0.11336458 0.12097348 -0.096714295 0.0070576463 -0.15217826 0.19019061 -0.05653835 0.17046182
0.054149933 0.12348265 0.09571868 -0.039941028 -0.08376223 0.14631367 -0.03125631 0.0020998148
-0.05932867 0.16222279 -0.05364986 -0.104901135 -0.113975905 0.15696272 0.006667604 -0.0024096342
0.14313693 -0.109921716 -0.09320242 0.17702863 0.030970722 0.010651683 -0.19862394 -0.03064945
-0.13825731 -0.1311735 -0.17282334 -0.004664815 -0.17438039 0.083366975 -0.111691 0.09318307
-0.06196874 0.109843016 0.10905247 0.10238237 -0.035920177 -0.014272222 0.007157379 -0.19987842
0.14418319 0.08193149 0.11475851 -0.02051639 -0.02341539 0.06815497 0.16808954 -0.12283842
00000000: 85e8 1abe eb3b be3d 4672 eb3c 068f 32bd
00000010: b071 6e3e 21c8 1dbc 1764 a4bd 1500 c73d
00000020: b02b e8bd f2c0 f73d 2512 c6bd d443 e73b
00000030: 9ed4 1bbe 54c1 423e c294 67bd 8b8d 2e3e
00000040: 52cc 5d3d 79e4 fc3d 2808 c43d 3499 23bd
00000050: 888b abbd 40d3 153e 9e06 00bd 0c9d 093b
00000060: 9f02 73bd bb1d 263e f5bf 5bbd 68d6 d6bd
00000070: 336c e9bd d6ba 203e eb7b da3b f4ea 1dbb
00000080: 7d92 123e a31e e1bd e9e0 bebd fe46 353e
00000090: 50b6 fd3c 6684 2e3c 1364 4bbe 8e14 fbbc
000000a0: 5393 0dbe 5952 06be 9af8 30be 4edb 98bb
000000b0: c690 32be 4ebc aa3d 40be e4bd c4d6 be3d
000000c0: efd2 7dbd 60f5 e03d e756 df3d d9ad d13d
000000d0: 0921 13bd 0ad6 69bc 7288 ea3b eeac 4cbe
000000e0: c2a4 133e b2cb a73d 8206 eb3d fd11 a8bc
000000f0: a2d1 bfbc d594 8b3d aa1f 2c3e b692 fbbd

h.0.ln_1.weight f4 [64]
0.9203954 0.9707398 0.9378245 0.9616979 0.99565154 0.95017743 0.8972038 0.9194883
0.91010356 0.82947755 0.79073614 0.9061444 0.90128505 1.0475717 0.8199869 0.8262492
0.92805654 1.0140826 0.73262644 0.7948772 0.9313562 0.79555804 0.8205246 1.0431163
0.79443866 0.81653184 1.0003935 0.82556885 0.8804987 0.8159683 0.78055793 0.85286355
0.8827915 0.8835769 0.8546053 0.97595793 0.87885994 0.90105337 1.0179417 0.82494795
0.851561 0.9361031 0.9614916 0.9104284 0.93388265 0.8320821 0.8867635 0.91089696
0.8839459 0.68953127 0.8936653 1.0445945 0.7992633 0.90784585 0.8187973 0.8918001
0.8438565 0.93433857 0.85111856 0.8172413 0.832483 0.63247687 0.9655879 0.8965507
00000000: 089f 6b3f 6782 783f 4415 703f d531 763f
00000010: 05e3 7e3f d43e 733f 26af 653f 9663 6b3f
00000020: 8cfc 683f a458 543f af6d 4a3f 14f9 673f
00000030: 9eba 663f d416 863f a9ea 513f 1185 533f
00000040: 1d95 6d3f 75cd 813f 688d 3b3f 127d 4b3f
00000050: 5c6d 6e3f b1a9 4b3f e60d 523f d684 853f
00000060: 5560 4b3f 3b08 513f e50c 803f 7b58 533f
00000070: 5d68 613f 4ce3 503f a5d2 473f 4455 5a3f
00000080: a0fe 613f 1932 623f 6ac7 5a3f 61d8 793f
00000090: f7fc 603f 6fab 663f ea4b 823f ca2f 533f
000000a0: e7ff 593f 74a4 6f3f 5024 763f d611 693f
000000b0: ef12 6f3f 5503 553f ef02 633f 8b30 693f
000000c0: 474a 623f 1f85 303f 40c7 643f 46b5 853f
000000d0: 859c 4c3f 9668 683f b39c 513f 034d 643f
000000e0: fb06 583f d030 6f3f e8e2 593f ba36 513f
000000f0: 9b1d 553f 01ea 213f c530 773f 5984 653f

h.0.ln_1.bias f4 [64]
0.04224212 0.352082 -0.3043317 -0.077035606 0.04396688 -0.011070752 -0.10062813 0.04156223
-0.30133075 0.020956427 -0.25975364 0.031846184 -0.37186977 0.2934986 -0.024139132 -0.102826595
-0.2454493 0.16100642 0.3359525 -0.05827084 -0.20965303 0.36987928 -0.12610614 -0.2196959
-0.2842586 0.43920723 -0.3340108 -0.044215858 -0.21246675 0.34852594 -0.12403937 0.028082246
-0.009968847 -0.09909213 -0.039056603 0.27292046 -0.052100535 0.117322244 -0.016722033 0.41129327
0.03556116 -0.43161434 -0.03255118 0.33941212 0.010719865 -0.062113702 -0.17050485 -0.24055138
0.02104985 -0.2719549 0.14355764 0.10269953 -0.26388347 0.07482422 0.01516146 -0.25959232
0.24692439 0.058448534 -0.25567573 0.09615728 -0.21173145 -0.23895773 -0.25557625 -0.10281028
00000000: 1306 2d3d 1844 b43e 5dd1 9bbe d8c4 9dbd
00000010: 9d16 343d 1962 35bc 1f16 cebd 283d 2a3d
00000020: 0648 9abe d0ac ab3c 6efe 84be 2571 023d
00000030: b765 bebe 7345 963e 6ebf c5bc c096 d2bd
00000040: 1057 7bbe dede 243e f701 ac3e 68ad 6ebd
00000050: 49af 56be d160 bd3e f821 01be f6f7 60be
00000060: 588a 91be c5df e03e 7703 abbe b01b 35bd
00000070: e290 59be fe71 b23e 5a08 febd bd0c e63c
00000080: 6054 23bc d1f0 cabd d1f9 1fbd 3bbc 8b3e
00000090: 5f67 55bd a546 f03d a5fc 88bc 0895 d23e
000000a0: 94a8 113d 8efc dcbe 6354 05bd 6dc7 ad3e
000000b0: 5fa2 2f3c f06a 7ebd d398 2ebe 1a53 76be
000000c0: bc70 ac3c ac3d 8bbe c600 133e 2254 d23d
000000d0: bc1b 87be 713d 993d c667 783c 49e9 84be
000000e0: bfd9 7c3e bb67 6f3d eee7 82be 1cee c43d
000000f0: 21d0 58be 56b1 74be e4da 82be 328e d2bd

h.0.ln_2.weight f4 [64]
1.0 1.0 1.0 1.0 1.0 1.0 1.0 1.0
1.0 1.0 1.0 1.0 1.0 1.0 1.0 1.0
1.0 1.0 1.0 1.0 1.0 1.0 1.0 1.0
1.0 1.0 1.0 1.0 1.0 1.0 1.0 1.0
1.0 1.0 1.0 1.0 1.0 1.0 1.0 1.0
1.0 1.0 1.0 1.0 1.0 1.0 1.0 1.0
1.0 1.0 1.0 1.0 1.0 1.0 1.0 1.0
1.0 1.0 1.0 1.0 1.0 1.0 1.0 1.0
00000000: 0000 803f 0000 803f 0000 803f 0000 803f
00000010: 0000 803f 0000 803f 0000 803f 0000 803f
00000020: 0000 803f 0000 803f 0000 803f 0000 803f
00000030: 0000 803f 0000 803f 0000 803f 0000 803f
00000040: 0000 803f 0000 803f 0000 803f 0000 803f
00000050: 0000 803f 0000 803f 0000 803f 0000 803f
00000060: 0000 803f 0000 803f 0000 803f 0000 803f
00000070: 0000 803f 0000 803f 0000 803f 0000 803f
00000080: 0000 803f 0000 803f 0000 803f 0000 803f
00000090: 0000 803f 0000 803f 0000 803f 0000 803f
000000a0: 0000 803f 0000 803f 0000 803f 0000 803f
000000b0: 0000 803f 0000 803f 0000 803f 0000 803f
000000c0: 0000 803f 0000 803f 0000 803f 0000 803f
000000d0: 0000 803f 0000 803f 0000 803f 0000 803f
000000e0: 0000 803f 0000 803f 0000 803f 0000 803f
000000f0: 0000 803f 0000 803f 0000 803f 0000 803f

h.0.ln_2.bias f4 [64]
0.0 0.0 0.0 0.0 0.0 0.0 0.0 0.0
0.0 0.0 0.0 0.0 0.0 0.0 0.0 0.0
0.0 0.0 0.0 0.0 0.0 0.0 0.0 0.0
0.0 0.0 0.0 0.0 0.0 0.0 0.0 0.0
0.0 0.0 0.0 0.0 0.0 0.0 0.0 0.0
0.0 0.0 0.0 0.0 0.0 0.0 0.0 0.0
0.0 0.0 0.0 0.0 0.0 0.0 0.0 0.0
0.0 0.0 0.0 0.0 0.0 0.0 0.0 0.0
00000000: 0000 0000 0000 0000 0000 0000 0000 0000
00000010: 0000 0000 0000 0000 0000 0000 0000 0000
00000020: 0000 0000 0000 0000 0000 0000 0000 0000
00000030: 0000 0000 0000 0000 0000 0000 0000 0000
00000040: 0000 0000 0000 0000 0000 0000 0000 0000
00000050: 0000 0000 0000 0000 0000 0000 0000 0000
00000060: 0000 0000 0000 0000 0000 0000 0000 0000
00000070: 0000 0000 0000 0000 0000 0000 0000 0000
00000080: 0000 0000 0000 0000 0000 0000 0000 0000
00000090: 0000 0000 0000 0000 0000 0000 0000 0000
000000a0: 0000 0000 0000 0000 0000 0000 0000 0000
000000b0: 0000 0000 0000 0000 0000 0000 0000 0000
000000c0: 0000 0000 0000 0000 0000 0000 0000 0000
000000d0: 0000 0000 0000 0000 0000 0000 0000 0000
000000e0: 0000 0000 0000 0000 0000 0000 0000 0000
000000f0: 0000 0000 0000 0000 0000 0000 0000 0000

h.1.mha.W_q.weight f4 [64, 64]
-0.008789303 0.07369177 -0.091284096 -0.0029367823 0.054961316 0.036077373 0.03576293 -0.0015237757
-0.12670928 0.07578459 -0.039215486 -0.003723643 -0.044821434 0.04521859 0.056588054 -0.02318522
-0.015764924 -0.005901385 -0.009453086 -0.06394587 -0.12759784 0.07638366 -0.039383017 -0.06796428
0.09592358 -0.054269142 -0.012477927 -0.082230635 -0.04694845 0.021585017 -0.003836211 0.020233141
-0.03270362 -0.06344856 -0.046919245 0.13784827 -0.046532847 0.07549435 -0.10639158 -0.04092152
0.019441934 -0.033993475 -0.020704633 0.045895625 -0.037241783 -0.10361257 -0.094363734 0.152532
0.0162905 0.009208773 -0.07542533 0.057834193 0.005984381 -0.14521489 0.11392309 -0.07229057
-0.037292153 -0.0053335093 0.0239531 0.041939955 0.090560086 0.05159489 -0.0013418125 -0.11450369
0.020600261 -0.015984837 0.100027695 -0.017023655 -0.1080213 -0.07307132 -0.01964552 -0.041055605
0.04070722 -0.06857361 0.04798558 0.029582152 -0.020439865 0.01253488 0.015043285 0.017075678
0.03929323 -0.049412925 -0.0025727828 -0.08377613 0.08424638 -0.04431558 0.042404965 0.048243266
0.0009762937 0.06502639 -0.058517937 0.025493393 -0.035408556 -0.036867294 -0.041391052 -0.017566644
-0.042255774 -0.0110431705 0.043864135 -0.04246879 -0.06678468 -0.08025922 0.01437247 -0.10329402
-0.015050385 0.022215717 0.0058056545 -0.0140397595 0.039055467 -0.012871607 0.010308774 0.037350617
-0.027885012 -0.007867476 -0.016391277 0.035689835 0.029450616 -0.048393838 0.017364634 -0.0007139642
0.042065244 -0.04041828 0.030445118 0.016327398 0.0030180695 -0.07002204 0.009124478 0.10825678
0.057348173 -0.04596701 0.04101753 -0.0104579115 -0.083136715 -0.03602565 0.0027145636 -0.0189307
0.01374435 -0.026471956 -0.037944622 -0.10051813 0.08409899 0.0108605875 -0.079062335 -0.039201025
-0.02317736 -0.06463108 -0.090928435 0.03425101 0.02174744 -0.043672025 -0.066322975 0.034012113
0.020850927 0.12094502 -0.013115074 0.043181613 0.008063828 0.051935185 0.02831972 0.06592676
0.026366385 -0.026581237 0.0002564606 0.059442397 0.032990437 0.034891758 -0.12848452 -0.02871771
0.041557435 -0.022028286 -0.037955556 0.0488333 -0.09582608 0.10324389 -0.013146316 -0.044893786
0.09270068 0.031768948 0.01234964 0.018906338 -0.038060967 -0.058117446 -0.0017374475 0.1320921
0.056349803 0.043814998 0.06530478 -0.06418585 0.07615356 -0.06756385 0.11861266 -0.0018721978
0.005114962 -0.12252733 0.00713557 0.05509587 0.08280133 -0.024573496 -0.10848236 0.08351494
-0.045896724 0.020401698 -0.0853053 0.03671435 0.0067321486 0.045943905 0.006888041 -0.008385885
-0.1355826 0.045161925 -7.522173e-05 -0.12915863 -0.00065567665 0.021860005 -0.029433925 -0.13115194
-0.024226638 -0.01826856 -0.05900077 -0.04420576 0.03303336 -0.05696449 -0.02080431 -0.02778603
-0.007906417 0.062481597 0.08058817 0.0013219593 0.025473297 0.06930003 0.033122018 0.0039389557
0.08320981 -0.09448039 -0.074624784 0.010666431 -0.034607828 0.025751375 0.07341608 0.07869424
-0.017493684 -0.018842472 0.025104767 0.050491385 0.015986035 -0.07063636 -0.08652859 -0.053449873
0.010898761 0.055669423 -0.008815969 0.015160303 0.010883089 -0.00877114 0.07134371 0.028119856
00000000: 0201 10bc b6eb 963d 28f3 babd 0877 40bb
00000010: 1e1f 613d dec5 133d 267c 123d 6eb9 c7ba
00000020: 14c0 01be f334 9b3d 6ba0 20bd 5d08 74bb
00000030: ae96 37bd 2137 393d e0c8 673d eeee bdbc
00000040: 7125 81bc 6860 c1bb 1ee1 1abc 0df6 82bd
00000050: 02a9 02be 096f 9c3d 1650 21bd db30 8bbd
00000060: 9573 c43d 5249 5ebd 3870 4cbc 8968 a8bd
00000070: 054d 40bd 10d3 b03c f168 7bbb f9bf a53c
00000080: 3bf4 05bd 52f1 81bd 652e 40bd 1928 0d3e
00000090: 3a99 3ebd c89c 9a3d d4e3 d9bd 539d 27bd
000000a0: b144 9f3c be3c 0bbd c39c a9bc 0dfd 3b3d
000000b0: d78a 18bd d432 d4bd c641 c1bd 5931 1c3e
000000c0: a873 853c 65e0 163c 9878 9abd 8ce3 6c3d
000000d0: a018 c43b 36b3 14be 8250 e93d 140d 94bd
000000e0: a8bf 18bd b8c4 aebb 4b39 c43c 3bc9 2b3d
000000f0: 9177 b93d 2a55 533d c2df afba e980 eabd
00000100: e1c1 a83c a2f2 82bc 52db cc3d 3175 8bbc
00000110: 453a ddbd 6ba6 95bd a4ef a0bc ec29 28bd
00000120: 9dbc 263d 5270 8cbd 878c 443d 4556 f23c
00000130: 8171 a7bc 195f 4d3c 1c78 763c 4be2 8b3c
00000140: f0f1 203d 3565 4abd 229c 28bb d292 abbd
00000150: 5e89 ac3d 4184 35bd d4b0 2d3d bb9a 453d
00000160: f6ed 7f3a 8e2c 853d 81b0 6fbd 85d7 d03c
00000170: 9008 11bd 2902 17bd aa89 29bd ece7 8fbc
00000180: 6414 2dbd 6aee 34bc e1aa 333d c1f3 2dbd
00000190: 68c6 88bd f25e a4bd 827a 6b3c d18b d3bd
000001a0: e495 76bc bcfd b53c 5c3d be3b 0507 66bc
000001b0: a0f8 1f3d 6fe3 52bc 22e6 283c f6fc 183d
000001c0: 1c6f e4bc 96e6 00bc 0047 86bc 812f 123d
000001d0: 6b42 f13c 9e38 46bd 4740 8e3c 5429 3bba
000001e0: 9b4c 2c3d a38d 25bd 0a68 f93c 09c1 853c
000001f0: ceca 453b b767 8fbd d67e 153c bbb5 dd3d
00000200: ebe5 6a3d e747 3cbd ff01 283d a957 2bbc
00000210: 9543 aabd a28f 13bd d2e6 313b 8e14 9bbc
00000220: fb2f 613c b7db d8bc d26b 1bbd 73dc cdbd
00000230: 173c ac3d 9bf0 313c 6feb a1bd 4191 20bd
00000240: 72de bdbc 4d5d 84bd b038 babd c94a 0c3d
00000250: b027 b23c 70e1 32bd 57d4 87bd 4950 0b3d
00000260: 90cf aa3c 06b2 f73d 9be0 56bc 34df 303d
00000270: 251e 043c fdb9 543d c2fe e73c 9c04 873d
00000280: 51fe d73c e5c0 d9bc 8f75 8639 df79 733d
00000290: fb20 073d a9ea 0e3d 7291 03be 6741 ebbc
000002a0: 2138 2a3d aa74 b4bc 4977 1bbd 6d05 483d
000002b0: 7740 c4bd 8871 d33d a563 57bc 8ce2 37bd
000002c0: dbd9 bd3d 2820 023d 2556 4a3c 77e1 9a3c
000002d0: d1e5 1bbd 8f0c 6ebd 10bb e3ba 2743 073e
000002e0: 0dcf 663d 5b77 333d 83be 853d df73 83bd
000002f0: 66f6 9b3d ea5e 8abd 32eb f23d 8964 f5ba
00000300: 699b a73b 9cef fabd 80d1 e93b 35ac 613d
00000310: be93 a93d 5b4e c9bc 002c debd e209 ab3d
00000320: 34fe 3bbd 7621 a73c 8cb4 aebd c961 163d
00000330: 5b99 dc3b ad2f 3c3d 13b5 e13b f364 09bc
00000340: 2ad6 0abe b6fb 383d 5cc0 9db8 2942 04be
00000350: b7e1 2bba c113 b33c 6a1f f1bc b24c 06be
00000360: f176 c6bc f2a7 95bc cbaa 71bd 1911 35bd
00000370: fd4d 073d 9953 69bd cd6d aabc 879f e3bc
00000380: eb89 01bc b4ec 7f3d 690b a53d 9845 ad3a
00000390: 60ad d03c 2ded 8d3d f4aa 073d 5b12 813b
000003a0: e869 aa3d ef7e c1bd e1d4 98bd 41c2 2e3c
000003b0: f0c0 0dbd 8cf4 d23c 2b5b 963d 722a a13d
000003c0: ea4e 8fbc 875b 9abc 83a8 cd3c 0ed0 4e3d
000003d0: 25f5 823c cca9 90bd e735 b1bd 41ee 5abd
000003e0: b890 323c 9f05 643d db70 10bc eb62 783c
000003f0: fc4e 323c d4b4 0fbc a71c 923d 9d5b e63c
