subspace-alignment/data/2_layer_64_vocab_traindata/ckpt_8200.pt (torch, 178561 bytes, 29 tensors)

embed.embed.weight f4 [64, 64]
0	0xbe79d086	-0.24395952
1	0x3f8f8e7c	1.1215358
2	0x3f0310d5	0.5119756
3	0x3e7daf60	0.24773932
4	0x3d16c71d	0.036810983
5	0xbed2a5e8	-0.411422
6	0xbfd17dbd	-1.6366497
7	0x3dfdbac4	0.12389138
8	0xbefb4110	-0.49073076
9	0x3ece88b3	0.40338668
10	0xbf9baf1a	-1.2162812
11	0x3f15c06e	0.5849675
12	0xbe86911e	-0.2628259
13	0xbf721c8a	-0.945748
14	0x3f6f4963	0.93471354
15	0x3e2180b7	0.15771757
16	0x3e02bcf8	0.12767398
17	0x3dcff252	0.10153641
18	0x3eca32ee	0.3949198
19	0xbf4c0e5c	-0.7970941
20	0xbedb507b	-0.4283484
21	0x3fc812c3	1.5630726
22	0x3fb2d39f	1.3970832
23	0xbf974e37	-1.1820744
24	0xbfdfb71e	-1.7477758
25	0x3fc3154e	1.5240877
26	0xbf4b106d	-0.7932194
27	0x40020104	2.031312
28	0x3f52d1c8	0.8235135
29	0x3f13ac63	0.57684916
30	0xbefa2a6c	-0.4886049
31	0x3eae5a36	0.340532
32	0x3f860a38	1.0471869
33	0xbf7e833b	-0.9941899
34	0x3e888ad0	0.26668406
35	0xbf8170ab	-1.0112509
36	0xbf8b192e	-1.0867059
37	0x3e94b672	0.29045445
38	0xbf7d0ed9	-0.9885078
39	0x3f2a9cb1	0.6664534
40	0xbfbf860d	-1.4962784
41	0xbf74c63f	-0.95615
42	0x3ea09c95	0.31369463
43	0x3ef13bb7	0.4711587
44	0x3fa2cc2a	1.2718556
45	0x3f891941	1.0710832
46	0xbed44b74	-0.41463816
47	0xbecb4195	-0.39698473
48	0xbf252699	-0.6451202
49	0xbfb53d2e	-1.4159296
50	0xbe252f7c	-0.16131395
51	0xbf045aff	-0.5170135
52	0x3e9bec6e	0.3045382
53	0x3f80c239	1.0059272
54	0xbd6521b5	-0.05594035
55	0xbf547248	-0.8298688
56	0x3ec59a6e	0.38594383
57	0xbe98c4b2	-0.29837567
58	0xbf61998b	-0.8812491
59	0xbfbd1e7c	-1.4774928
60	0x3ed4c274	0.41554606
61	0xbe3a2052	-0.18176392
62	0xbdc01e30	-0.09380758
63	0x3f4241f6	0.758819
64	0x3ea43709	0.32073238
65	0xbf96ffc6	-1.1796806
66	0xbfa446d8	-1.283412
67	0xbd1d28dc	-0.038369045
68	0x3fed2bfe	1.852905
69	0xbfa54da9	-1.2914325
70	0xbe892c5d	-0.2679166
71	0xbf06b43f	-0.52618784
72	0x3e86aacd	0.26302186
73	0xbe1202cc	-0.1425888
74	0xbe6e02e5	-0.23243292
75	0x3e11db86	0.14243898
76	0x3eabade7	0.33531114
77	0x3ef61c57	0.48068497
78	0x3e69893b	0.22806256
79	0x3ecdf240	0.40223885
80	0x3f8d2d71	1.1029493
81	0xbf0b9d95	-0.54537326
82	0x3f4af9b6	0.7928728
83	0x3eaaabbb	0.33334145
84	0x3eea6ff3	0.45788535
85	0xbefbdf81	-0.49193957
86	0x3fce5d34	1.6122193
87	0x3ecfbef6	0.4057538
88	0x3c9ae8d3	0.018909847
89	0x3f77ba06	0.96768224
90	0xbfabdb1d	-1.3426243
91	0x3dcaa690	0.098950505
92	0xbff04e0a	-1.8773816
93	0x3feb6fff	1.8393553
94	0x3e072846	0.13198957
95	0xbf2d52f9	-0.6770473
96	0xbf7ebf26	-0.9951042
97	0xbf9d1ed9	-1.2275039
98	0x3f1c2670	0.6099615
99	0xbdd3b295	-0.10336796
100	0x3fb23b61	1.3924371
101	0x3f49cef6	0.7883142
102	0x3fb28993	1.3948234
103	0x3e989330	0.29799795
104	0xbf1fc1df	-0.624052
105	0xbe5d44ff	-0.21608351
106	0x3f87eeea	1.0619786
107	0x3ec1d41a	0.37857133
108	0xbeedea35	-0.46467748
109	0x3cee0d09	0.02905895
110	0xbf7ef72e	-0.99595916
111	0xbfae6cc3	-1.3626941
112	0x3e4c4bde	0.19950816
113	0xbf2495d0	-0.64291096
114	0x3fc6e6db	1.5539201
115	0xbe0ce252	-0.1375821
116	0xbe8d4d99	-0.27598265
117	0xbe3593f7	-0.17732225
118	0x3c544750	0.012956455
119	0xbf2fb971	-0.68642336
120	0xbd9d51f8	-0.0768165
121	0xbf2ace3e	-0.6672095
122	0xbf078ebe	-0.5295218
123	0x3de05323	0.10953357
124	0x3ecc1a15	0.3986365
125	0xc0198013	-2.398442
126	0xbed65222	-0.41859537
127	0x3db9ee9b	0.090787135
128	0x3f90086d	1.1252571
129	0x3f5f8f21	0.8732777
130	0xbe693c04	-0.227768
131	0xbd8a2ff2	-0.06747426
132	0xbeb087dd	-0.34478655
133	0x3f1e90ab	0.61939496
134	0xbf2a8b43	-0.66618747
135	0xbfcafc39	-1.5858222
136	0x3f21e0f0	0.6323385
137	0xbf271cb9	-0.652782
138	0x3d903924	0.07042149
139	0xbf37f5ad	-0.71859246
140	0xbece74d7	-0.40323517
141	0x3f2c21b0	0.67238903
142	0x3edd6f5e	0.4324903
143	0x3df79233	0.12088432
144	0xbf1e165d	-0.61752874
145	0xbf954857	-1.1662701
146	0xbfc6290d	-1.5481278
147	0xbf4a4482	-0.79010785
148	0x3e342a69	0.17594303
149	0x3f96a4a2	1.1768992
150	0xbf8a2291	-1.0791799
151	0xbe9dafb6	-0.3079812
152	0x3e911558	0.28336596
153	0x3f06416d	0.5244358
154	0xbe785409	-0.24250807
155	0xbd010c19	-0.031505678
156	0xbf2dec65	-0.67938834
157	0x3fc24c97	1.5179623
158	0x3f979719	1.1842986
159	0x3f1cb40f	0.6121225
160	0xbf7f55d2	-0.99740326
161	0x3f0cff45	0.5507701
162	0x3ea743a1	0.32668784
163	0x3f63482a	0.8878199
164	0xbf9022e6	-1.126065
165	0xbfd8d8f7	-1.6941212
166	0xbe968651	-0.2939935
167	0x4011bf16	2.277288
168	0xbf0cbab5	-0.5497239
169	0xbf7bb7df	-0.9832744
170	0x3e2d8e30	0.16948771
171	0xbb29003a	-0.0025787489
172	0x3c4ad229	0.012379208
173	0xbf475eb9	-0.7787891
174	0x3f7c75e4	0.98617387
175	0xbe9c011c	-0.30469596
176	0xbeeb84fe	-0.45999902
177	0xbf378f02	-0.7170259
178	0x400d4268	2.207178
179	0xbed5c8cb	-0.41754755
180	0x3e966704	0.2937547
181	0xbf09410f	-0.53614897
182	0xbfd051c3	-1.6274952
183	0xbf112b70	-0.56706905
184	0x3f1f93e9	0.6233507
185	0xbd9fe9c9	-0.07808263
186	0xbecfdeed	-0.40599766
187	0x3f3b7919	0.73231655
188	0xc01f6547	-2.4905565
189	0x3eba9f17	0.364495
190	0x3e8000dd	0.2500066
191	0x3f045c03	0.517029
192	0xbf974793	-1.1818718
193	0x3f67bd47	0.9052319
194	0xbdfe47c5	-0.12416033
195	0xbd186074	-0.03720136
196	0xbfb894c3	-1.4420398
197	0xbef59500	-0.4796524
198	0x3f9d2b1c	1.2278781
199	0x3eae9071	0.34094575
200	0xbf99ce3c	-1.2016063
201	0xbf8ba4da	-1.0909684
202	0xbfb2c900	-1.396759
203	0xbf3e5b70	-0.7435827
204	0xc015d383	-2.3410347
205	0x400ccb20	2.1998978
206	0xbf7fc561	-0.9991055
207	0x3f25dcb7	0.6478991
208	0x3f21e2e6	0.63236845
209	0xbeb87b45	-0.36031547
210	0x3f4d5766	0.80211484
211	0x3e08aa70	0.13346267
212	0x3eec9169	0.4620469
213	0xbf4867bd	-0.7828329
214	0xbf88520f	-1.0650042
215	0x3f19e23e	0.60110843
216	0xbfcfe162	-1.6240656
217	0x3fc3841b	1.527469
218	0x3e780239	0.24219598
219	0x3ee13cfc	0.4399184
220	0x3e74c576	0.2390345
221	0xbd9cb950	-0.07652533
222	0xbe968864	-0.29400933
223	0x3f6e422d	0.93069726
224	0x3f214d43	0.6300852
225	0x3f5ce11c	0.8628099
226	0xbf22b87f	-0.6356277
227	0xbf6ee842	-0.9332315
228	0x3e0c7e9a	0.1372017
229	0xbf346be2	-0.70477116
230	0x3ede3c4a	0.43405372
231	0x3f612cd5	0.87959033
232	0x3facdfd4	1.3505807
233	0x3d340974	0.043954328
234	0xbf815bd5	-1.010615
235	0x3f425a26	0.75918806
236	0x3f3f9ff2	0.7485343
237	0x3faed9cd	1.3660218
238	0x3f48ffaa	0.7851511
239	0x3f42e7d6	0.76135004
240	0x3f3bb331	0.733203
241	0xbf247fbf	-0.64257425
242	0x3f2990dd	0.6623667
243	0xbc810de6	-0.015753698
244	0xbfa2dc80	-1.2723541
245	0x3f8fb7cc	1.1227965
246	0x3ed06138	0.40699172
247	0xbef7593a	-0.48310262
248	0x3ec45f95	0.38354173
249	0x3f64e6a2	0.8941442
250	0xbfd890b7	-1.6919163
251	0xbe40147f	-0.18757819
252	0x3dabf4b5	0.083962835
253	0xbf3a6afc	-0.72819495
254	0xbf17dfb1	-0.593257
255	0xbd04d371	-0.03242821

h.0.mha.W_q.weight f4 [64, 64]
0	0xbc9cc7e8	-0.019138291
1	0xbe596d96	-0.2123321
2	0x3e1d2310	0.15345407
3	0xbc31ef5e	-0.010860292
4	0xbda23e74	-0.07922068
5	0x3d4deca3	0.050274502
6	0x3dd3e723	0.1034682
7	0x3d89ffb0	0.06738222
8	0x3e77e581	0.24208643
9	0x3db6de42	0.08929111
10	0x3e1662c6	0.14686117
11	0x3c6c3ebd	0.014419255
12	0x3e1c7ffd	0.15283199
13	0xbe3160e3	-0.17322116
14	0xbd36d1bc	-0.044633612
15	0xbd9709bc	-0.073749036
16	0x3ddd71ab	0.10812696
17	0xbdcb24f8	-0.099191606
18	0xbdd94982	-0.10609724
19	0x3d86ab59	0.06575651
20	0x3ddbde68	0.1073578
21	0xbddf2512	-0.108957425
22	0x3d7abd06	0.061215423
23	0x3e1952af	0.14972948
24	0x3dfbe423	0.12299373
25	0xbe36c91d	-0.17850156
26	0x3e4101d7	0.18848358
27	0xbd833a3b	-0.06407591
28	0x3e33ec45	0.17570598
29	0xbe414d6b	-0.18877189
30	0x3c37a312	0.011208313
31	0xbcd13404	-0.025537498
32	0x3d73c822	0.059517033
33	0x3d999f1c	0.07501051
34	0xbc59c62e	-0.013291879
35	0xbe0610a6	-0.13092288
36	0xbd80e5f7	-0.06293862
37	0xbda469dc	-0.080280036
38	0x3d6805ca	0.056646146
39	0xbe100a85	-0.14066513
40	0xbd4e12cb	-0.05031089
41	0x3e42c822	0.19021657
42	0x3ccd2800	0.025043488
43	0xbe4c9b6d	-0.19981165
44	0x3d2a2886	0.041542552
45	0x3cf8df26	0.030379843
46	0x3d17f4b7	0.037098613
47	0x3d8b12b6	0.06790678
48	0x3cd8fca9	0.026487665
49	0x3db5d6d4	0.08878866
50	0xbd569028	-0.052383572
51	0xbd6ad182	-0.05732871
52	0x3da4f1db	0.08053943
53	0xbc8ff7b2	-0.017574165
54	0xbd539db2	-0.05166406
55	0x3e15c4a1	0.14625789
56	0xbd81895c	-0.06325027
57	0xbda402e7	-0.08008366
58	0x3dfffcc8	0.12499386
59	0xbd483b0d	-0.04888444
60	0x3d916ec0	0.07101202
61	0x3d372213	0.04471023
62	0x3db2e188	0.08734423
63	0x3d322cc3	0.04349972
64	0x3c5ce549	0.0134824
65	0x3e10dfa0	0.14147806
66	0xbe5e23d3	-0.21693353
67	0x3dab5ce5	0.083673276
68	0x3e312de7	0.17302667
69	0x3e1184d6	0.14210829
70	0x3cbe12ff	0.023202417
71	0x3cd7a9b0	0.02632603
72	0xbe0d17ab	-0.1377856
73	0x3dd575c7	0.10422855
74	0xbd6c9cbd	-0.057766665
75	0xbc9a9fce	-0.018875029
76	0xbe710798	-0.23538053
77	0x3e570e54	0.2100156
78	0xbcf66594	-0.030077733
79	0xbde325fa	-0.11091228
80	0xbdd1106e	-0.10208212
81	0x3e5aa0e1	0.21350433
82	0x3da07122	0.07834078
83	0xbde51c6c	-0.11187062
84	0xbd7c4425	-0.061588425
85	0x3da2fd62	0.07958485
86	0xbc93c89b	-0.018039992
87	0xbe7dc0d4	-0.2478059
88	0xbd4b2c2e	-0.04960268
89	0x3d527131	0.05137748
90	0xbe7060cf	-0.2347443
91	0xbc770622	-0.015077146
92	0xbd9a44ff	-0.07532691
93	0x3e0404b8	0.12892425
94	0x3d33d8d6	0.043907963
95	0xbdd005f7	-0.10157388
96	0xbc320aef	-0.010866865
97	0x3d8a924b	0.067661844
98	0x3dc97000	0.098358154
99	0x3e0e6a87	0.13907824
100	0xbc1dd00a	-0.00963212
101	0x3e1544a1	0.14576961
102	0xbde79ff9	-0.11309809
103	0x3d77d073	0.060501527
104	0x3dcca7cc	0.09992942
105	0xbe638246	-0.22217664
106	0xbdc22d2c	-0.09481272
107	0x3e678784	0.22610289
108	0xbe1a45e2	-0.1506572
109	0xbca49820	-0.02009207
110	0xbe6b78ea	-0.22995344
111	0x3cdb15b2	0.026743744
112	0x3df98d65	0.12185172
113	0x3c76ff80	0.015075564
114	0xba204efb	-0.00061152846
115	0x3e7e4c1f	0.24833725
116	0xbd6aba7d	-0.057306755
117	0x3c3df4b5	0.011593987
118	0xbca2459e	-0.019808587
119	0xbde84959	-0.11342115
120	0x3dfd2585	0.12360672
121	0xbcbadf9a	-0.0228117
122	0xbd9ff07f	-0.07809543
123	0x3d83781c	0.064193934
124	0xbcd2f73b	-0.025752654
125	0x3dbca81e	0.09211753
126	0xbdfb3b07	-0.12267118
127	0xbe336e6a	-0.17522588
128	0xbd7adb46	-0.06124427
129	0x3ddf2038	0.10894817
130	0xbe856b85	-0.26058593
131	0x3cc5fa77	0.024167283
132	0x3d72f1f3	0.059312772
133	0x3d88a1ac	0.066714615
134	0xbd76fc72	-0.060299344
135	0x3d0b8b4e	0.0340684
136	0xbd8af1fd	-0.06784437
137	0xbd0774b9	-0.0330703
138	0xbe0acc60	-0.13554525
139	0xbd3ca6a6	-0.046057366
140	0xbe201131	-0.15631558
141	0x3e2884c7	0.164569
142	0xbd5b205f	-0.05349767
143	0xbd4bdeac	-0.049772903
144	0xbe10d635	-0.14144213
145	0x3e468cb9	0.19389619
146	0x3de345f4	0.11097327
147	0x3baf1117	0.0053426134
148	0xbe053dfb	-0.13011925
149	0x3e18f763	0.1493812
150	0xbe1f5ad9	-0.15562
151	0xbdfe6c3b	-0.12422987
152	0x3b9e4c57	0.0048308778
153	0x3db78b68	0.089621365
154	0xbe809f29	-0.2512143
155	0x3cb8f94a	0.022579808
156	0xbdb665e9	-0.089061566
157	0x3d149ce8	0.03628245
158	0x3d0be13a	0.03415034
159	0xbc09bbcd	-0.008406592
160	0xbb28b6bd	-0.0025743686
161	0xbdb8f0f5	-0.09030334
162	0x3d04aed8	0.032393306
163	0x3e3fa138	0.18713844
164	0xbcfcfce2	-0.030882303
165	0x3d8b80fc	0.06811711
166	0xbd27d012	-0.040969916
167	0x3c825ef0	0.01591441
168	0x3d18930b	0.037249606
169	0xbdb3501c	-0.08755514
170	0xbd9bfc2d	-0.07616458
171	0x3e66a150	0.22522473
172	0xbd944bd3	-0.07241025
173	0xbd9e4676	-0.07728283
174	0xbd805023	-0.06265285
175	0xbcfb1632	-0.030650232
176	0x3d1d44dc	0.038395748
177	0x3d0e5cd1	0.034756485
178	0x3d2faa34	0.042886928
179	0x3e013dbd	0.12621208
180	0xbbbad786	-0.005701962
181	0x3bc1b2df	0.0059112157
182	0xbc9c0eb5	-0.019049982
183	0xbe33c690	-0.17556214
184	0x3e097fbe	0.13427636
185	0x3c84a079	0.0161898
186	0xbd425309	-0.04744247
187	0xbb4aff4d	-0.0030974925
188	0xbb7c9ee8	-0.0038546864
189	0xbd2a8c12	-0.041637488
190	0xbdb0edf7	-0.08639138
191	0xbd38ce12	-0.0451184
192	0xbc93719a	-0.017998505
193	0x3e2cea20	0.16886187
194	0x3c32f758	0.010923229
195	0x3d39d564	0.04536952
196	0x3e313a41	0.17307378
197	0x3dfb145e	0.12259744
198	0xbddc282f	-0.10749852
199	0xbc3e071f	-0.0115983775
200	0xbe2ad0f7	-0.16681276
201	0xbd2ad9e7	-0.041711714
202	0xbd1541be	-0.03643965
203	0x3d269eaa	0.040678658
204	0xbe473f90	-0.19457841
205	0x3e574b6c	0.21024865
206	0x3da658d9	0.08122415
207	0xbc8e7f18	-0.017394587
208	0xbdaa7d9e	-0.08324741
209	0x3dc297d4	0.09501615
210	0x3d678b10	0.056529105
211	0xbd5fcd45	-0.05463912
212	0xbd9445c5	-0.0723987
213	0x3e281a2f	0.16416238
214	0x3b67e77c	0.0035385778
215	0xbdcf307e	-0.10116671
216	0xbdbf18ca	-0.093309
217	0x3dad032c	0.084478706
218	0xbd43f1c5	-0.04783799
219	0x3c21bea1	0.00987211
220	0xbe03ecf9	-0.12883367
221	0x3d451098	0.04811153
222	0x3e29264a	0.16518512
223	0xbd056909	-0.032570872
224	0x3cb0f8f7	0.02160309
225	0x3c8b383b	0.016994586
226	0xbce9a551	-0.028521212
227	0x3e6270a1	0.22113277
228	0x3d67af49	0.05656365
229	0x3ded2b7c	0.115805596
230	0xbc78d8a1	-0.015188367
231	0x3db0e7b2	0.086379424
232	0x3e02399f	0.12717293
233	0xbd65023e	-0.05591034
234	0xbd56f6ef	-0.052481588
235	0x3d62bd07	0.05535605
236	0xbdb72387	-0.08942323
237	0xbd23bf4f	-0.039977368
238	0xbdb3bf4c	-0.08776721
239	0xbcfaaccf	-0.03059998
240	0xbc73ec34	-0.014887858
241	0x3d537c6d	0.051632334
242	0xbe00c621	-0.1257558
243	0x3e2d48cb	0.169223
244	0xbcf4294c	-0.029804848
245	0x3a1251d0	0.0005581649
246	0x3d921517	0.07132929
247	0xbc920afb	-0.017827502
248	0x3d886334	0.066595465
249	0x3ded4a00	0.1158638
250	0xbb7e7cff	-0.0038831828
251	0x3d94ec91	0.07271684
252	0x3d1209d1	0.035653893
253	0x3ae56c52	0.0017503595
254	0xbd0fe1c4	-0.035127416
255	0x3d717f25	0.058959145

h.0.mha.W_q.bias f4 [64]
0	0xbe1d358d	-0.15352459
1	0x3f0bce1a	0.5461136
2	0x3ef4a7ef	0.47784373
3	0x3e9bfc5d	0.30465975
4	0x3e5ce5a8	0.21571982
5	0x3f0971f5	0.5368951
6	0xbe3f3c3e	-0.18675324
7	0x3ecbbff9	0.397949
8	0xbf21f31b	-0.63261575
9	0xbeae1354	-0.3399912
10	0x3e5c04fd	0.21486278
11	0x3e2c9fd5	0.16857846
12	0x3d8243fa	0.06360622
13	0x3f17c8fb	0.59291047
14	0x3ea3d917	0.32001564
15	0xbe2742ad	-0.16334029
16	0x3e76706a	0.2406632
17	0x3f02c334	0.51079106
18	0xbda60f94	-0.0810844
19	0x3ebb39c6	0.36567515
20	0xbeacb273	-0.33729896
21	0x3e29c3e0	0.16578627
22	0xbdc0e697	-0.094189815
23	0xbe6f262b	-0.23354404
24	0xbdc88125	-0.09790257
25	0x3d293e9d	0.04131948
26	0x3d4baf17	0.049727526
27	0xbe0ad377	-0.1355723
28	0x3c4dbe7a	0.01255762
29	0xbdacc747	-0.08436447
30	0x3d7c7bf6	0.061641656
31	0x3e36722e	0.17816994
32	0xbdba4095	-0.09094349
33	0xbcfd9c60	-0.030958354
34	0xbbeb2dee	-0.007177106
35	0x3cc32852	0.023822937
36	0x3d210718	0.039313406
37	0xbcd388a4	-0.025821991
38	0xbdb3c162	-0.08777119
39	0xbc8dafe9	-0.017295795
40	0x3db24b7f	0.08705806
41	0xbb128e75	-0.0022362743
42	0x3dd54c09	0.10414893
43	0x3bdec1f4	0.0067980234
44	0x3d664b59	0.0562242
45	0x3d74ea46	0.059793733
46	0x3db9ab59	0.09065885
47	0x3d9102a8	0.07080585
48	0xbc93b8a0	-0.018032372
49	0x3d9be0e6	0.07611255
50	0x3e01f292	0.1269019
51	0x3d3e9ab6	0.046534263
52	0xbd02b385	-0.031909484
53	0xbd292b4f	-0.041301068
54	0xbd03dae9	-0.03219119
55	0xbd285210	-0.041093886
56	0x3e2582b0	0.16163135
57	0x3c0b3224	0.008495841
58	0x3ae56257	0.0017500621
59	0x3d1ccc23	0.038280617
60	0x3d391e92	0.04519517
61	0x3d6706dd	0.05640303
62	0x3dff902f	0.12478673
63	0xbdce2b1f	-0.100668184

h.0.mha.W_k.weight f4 [64, 64]
0	0x3d434a4d	0.04767828
1	0xbd6ecc1f	-0.058300134
2	0x3d58b6bd	0.052908648
3	0xbdbc8572	-0.0920514
4	0xbd856a19	-0.06514377
5	0xbd42ded8	-0.0475758
6	0xbb88d831	-0.0041761626
7	0x3da989d1	0.082782395
8	0x3daf8975	0.0857114
9	0xbc132efa	-0.008983368
10	0xbc803662	-0.015650932
11	0x3d2a1c43	0.04153086
12	0x3c920c1d	0.017828042
13	0xbd9c1b8f	-0.07622444
14	0x3c05a98d	0.0081581
15	0x3d5e8fce	0.05433636
16	0x3bb62165	0.00555818
17	0xbc1eccc5	-0.009692376
18	0x3d32a67d	0.043615807
19	0x3d593a4c	0.05303411
20	0xbd3d2b77	-0.04618403
21	0xbd9d963e	-0.07694672
22	0x3d0c0aaa	0.034189858
23	0x3d278466	0.04089775
24	0x3d54b14a	0.05192689
25	0xbdf2d5e5	-0.118572034
26	0x3db7c343	0.0897279
27	0x3cd56aef	0.026051966
28	0x3bfaee0b	0.0076577715
29	0xbc66bc92	-0.014083045
30	0xbd7385bd	-0.059453715
31	0x3d6f2aca	0.058390416
32	0xbb9b89ec	-0.004746666
33	0x3b96ea9b	0.004605604
34	0x3d2ae4ed	0.041722227
35	0xbb9db690	-0.004813023
36	0xbc72dc37	-0.014823011
37	0xbd1564b3	-0.036472987
38	0x3cc4e8fd	0.024036879
39	0x3da9b8d6	0.08287208
40	0x3db7a25c	0.089665145
41	0x3c6812ce	0.01416464
42	0x3c752412	0.014962213
43	0xbd847bf7	-0.06468957
44	0xbb56252f	-0.0032675972
45	0xbbdc9e92	-0.0067327702
46	0x3d6e18a6	0.058128975
47	0x3d1ae13e	0.037812464
48	0xbc924cef	-0.01785895
49	0x3c21f71e	0.0098855775
50	0xbd9cff9f	-0.07665943
51	0xbdb2deb5	-0.08733884
52	0x3ddaf648	0.10691506
53	0x3b7a6d13	0.0038211986
54	0xbc09bbb8	-0.008406572
55	0x3d5048ff	0.050850864
56	0xbc327948	-0.0108931735
57	0xbd572d48	-0.052533418
58	0xbb687eeb	-0.003547604
59	0xbc829359	-0.015939401
60	0xbcec8b50	-0.028875023
61	0xbd7967ab	-0.06088988
62	0x3d345988	0.044030696
63	0x3d43000c	0.047607467
64	0xbd4aa02a	-0.04946915
65	0x3e35498c	0.17703837
66	0xbe61b9da	-0.22043553
67	0x3ce2548e	0.02762821
68	0x3e5b0f68	0.21392596
69	0x3e0c8a0e	0.13724539
70	0xbd4b05c4	-0.049566045
71	0x3c46732a	0.012112418
72	0xbe3c5b22	-0.1839414
73	0xbd63f99b	-0.055657964
74	0xbdfe49cb	-0.12416419
75	0xbc470982	-0.012148263
76	0xbe9cdce6	-0.30637282
77	0x3e888f1f	0.26671693
78	0xbcef2bf4	-0.029195763
79	0xbe035070	-0.12823653
80	0xbde59f74	-0.11212054
81	0x3e4e5f55	0.20153554
82	0x3da9ab3b	0.08284613
83	0xbd2d5025	-0.04231276
84	0xbe15cf54	-0.1462987
85	0x3e7036f8	0.23458469
86	0xbd4bf019	-0.04978952
87	0xbe56b215	-0.2096637
88	0xbe1daefd	-0.15398784
89	0x3e77b51c	0.24190181
90	0xbe8de77f	-0.2771568
91	0xbd359107	-0.044327762
92	0xbe047177	-0.12933908
93	0x3e1dddfb	0.1541671
94	0xbd6aca85	-0.057322044
95	0xbc9912ff	-0.018685816
96	0x3b5bbb70	0.003352847
97	0xbdd32aa7	-0.1031087
98	0x3d86c336	0.06580202
99	0x3e3d3678	0.1847781
100	0xbc381a87	-0.011236793
101	0x3d8f453a	0.06995626
102	0xbdcd0453	-0.100105904
103	0x3e253d6c	0.16136712
104	0xbcd4d3a8	-0.025979832
105	0xbe6bf94a	-0.23044315
106	0xbdfe8b52	-0.12428917
107	0x3e49a16b	0.19690482
108	0xbddfa8ec	-0.10920891
109	0xbd8a943f	-0.06766557
110	0xbe4bddf6	-0.1990889
111	0xbe0a258b	-0.13490884
112	0x3c910052	0.017700348
113	0xbe5ba201	-0.21448518
114	0x3dfe1c27	0.124077134
115	0x3e9cfdda	0.30662423
116	0xbe120b6c	-0.1426217
117	0x3d3617cb	0.044456284
118	0xbd7db410	-0.0619393
119	0xbe838b7e	-0.25692362
120	0x3e8a978d	0.2706875
121	0x3d1d5f07	0.038420703
122	0xbe53b5ca	-0.20674816
123	0x3d802f5e	0.062590346
124	0xbdcd9348	-0.10037857
125	0xbe30039d	-0.17188878
126	0xbe0a7fff	-0.13525389
127	0xbdbf2140	-0.09332514
128	0x3b57ed52	0.003294785
129	0xbe0f0ce7	-0.13969766
130	0x3df822a2	0.12115981
131	0x3d4b74fa	0.049672104
132	0xbd9e3725	-0.07725362
133	0xbdc6d88f	-0.09709274
134	0x3c500ec7	0.012698836
135	0xbc55a7c9	-0.013040491
136	0x3e14ffe4	0.1455074
137	0xbd0fe51e	-0.035130613
138	0x3e0f82a5	0.1401468
139	0x3d1a3c3a	0.037655093
140	0x3da79cf3	0.081842326
141	0xbe213f8a	-0.15746894
142	0x3d12b0c7	0.03581312
143	0x3d7d2b21	0.06180871
144	0x3d88ba38	0.066761434
145	0xbe0b059a	-0.13576356
146	0xbd3d4223	-0.04620565
147	0x3d481f3b	0.04885791
148	0x3e237751	0.15963484
149	0xbe256cd6	-0.16154799
150	0xbc01871e	-0.00790575
151	0x3e2b5ea3	0.1673532
152	0x3d0e10ab	0.034683865
153	0xbd84836d	-0.0647038
154	0x3e12e2bd	0.14344306
155	0x3da23b69	0.07921488
156	0x3dcd96a4	0.10038498
157	0xbe0f4430	-0.13990855
158	0x3c9896a9	0.018626528
159	0x3c8795fa	0.016551007
160	0x3d199306	0.037493728
161	0x3c583451	0.013196067
162	0xbc035d09	-0.008017787
163	0xbe2b3d02	-0.16722491
164	0xbc5dd1a7	-0.013538755
165	0xbc8b6081	-0.01701379
166	0x3d762797	0.06009635
167	0xbd661ab1	-0.0561778
168	0xbc0b595e	-0.0085051935
169	0x3dc6948c	0.09696302
170	0x3df430a6	0.119233415
171	0xbe48bb04	-0.19602591
172	0x3daf7688	0.0856753
173	0x3d74b7be	0.059745543
174	0x3dfd2a81	0.123616226
175	0x3df15463	0.117836736
176	0xbda633b6	-0.08115332
177	0x3dc20c48	0.09474999
178	0xbbca9148	-0.0061818697
179	0xbe59a145	-0.21252926
180	0x3d8d16bf	0.06889104
181	0xbd64e3b5	-0.05588122
182	0x3c726d11	0.014796511
183	0x3dcb25a0	0.09919286
184	0xbe19218b	-0.14954202
185	0xbe1ec7b8	-0.15505874
186	0x3da3d850	0.08000243
187	0x3d277196	0.04087981
188	0x3ce30969	0.027714448
189	0x3d9e68c6	0.07734828
190	0x3aeddd17	0.0018147555
191	0x3df54e7b	0.119778596
192	0xbdfaebba	-0.122519925
193	0x3db46cd9	0.088098235
194	0xbdbc0a20	-0.09181619
195	0x3ccd1a35	0.02503691
196	0x3e3eb170	0.18622375
197	0x3c1c9194	0.009556193
198	0xbd46a2ed	-0.048495222
199	0xbda5efd5	-0.08102385
200	0xbda1f79d	-0.079085566
201	0xbda8d91d	-0.08244536
202	0xbdacb941	-0.08433772
203	0xbd5d570c	-0.054038092
204	0xbe9d5ddc	-0.30735672
205	0x3e159ead	0.14611311
206	0x3d739bb4	0.059474662
207	0x3d55b5cb	0.052175324
208	0xbdc27d59	-0.094965644
209	0x3e11b51e	0.14229247
210	0x3e0c0046	0.1367198
211	0x3d06ad3c	0.032880053
212	0xbd32ee3b	-0.043684226
213	0x3e341633	0.17586593
214	0xbd15c123	-0.036561143
215	0xbdc15b7c	-0.094412774
216	0xbd25b567	-0.040456202
217	0x3d73e283	0.05954219
218	0xbe18c399	-0.14918365
219	0x3c8c6318	0.017137095
220	0x3c7d9724	0.015477929
221	0x3e37fdd4	0.17967921
222	0xbc1f9181	-0.009739281
223	0x3d806f03	0.06271174
224	0xbcd87210	-0.026421577
225	0xbe060948	-0.13089478
226	0x3daabdc6	0.08336978
227	0x3e0d2053	0.13781862
228	0x3d30b34e	0.04313975
229	0x3d77bfee	0.060485773
230	0xbd51ab5d	-0.051188815
231	0x3e4d53b9	0.20051469
232	0x3ceb132b	0.028695663
233	0xbdfac93a	-0.12245412
234	0xbcf5c6e8	-0.030002072
235	0x3e4fb49c	0.20283741
236	0x3a350fa4	0.00069069327
237	0xbd228d8b	-0.039685767
238	0xbd189020	-0.037246823
239	0xbdb68b6b	-0.089133106
240	0xbbe0d70b	-0.0068615726
241	0xbd9b914d	-0.07596073
242	0x3e078e40	0.13237858
243	0x3dc55df1	0.096370585
244	0xbd8fd9df	-0.070239775
245	0x3dd4ae10	0.10384762
246	0xbbbddba8	-0.0057940073
247	0xbe51d806	-0.20492563
248	0x3e6eadb6	0.23308453
249	0x3b41e102	0.0029583578
250	0xbde02e83	-0.109463714
251	0x3cf70e61	0.030158224
252	0xbd917f6c	-0.07104382
253	0xbd7431e5	-0.059617896
254	0xbdcac7a6	-0.09901361
255	0x3cd3e3ab	0.025865396

h.0.mha.W_k.bias f4 [64]
0	0xba58085d	-0.00082409923
1	0x3f10b64f	0.5652818
2	0xbeaf5e0b	-0.34251437
3	0x3f1c4a5b	0.6105096
4	0xbe989078	-0.2979772
5	0x3ec273a4	0.37978852
6	0xbf722590	-0.94588566
7	0xbd5edeb2	-0.054411598
8	0xbed0c055	-0.40771738
9	0xbf743061	-0.9538632
10	0x3f077599	0.52913815
11	0x3e527c92	0.20555332
12	0x3e312461	0.17299034
13	0x3f7b0149	0.98048836
14	0xbdefa452	-0.117012635
15	0xbef04516	-0.46927708
16	0x3e177f0e	0.14794561
17	0x3d1a8e89	0.03773359
18	0xbe95cd10	-0.29258013
19	0x3f4cea7e	0.80045307
20	0x3da1eead	0.07906852
21	0x3b9b7a7a	0.004744825
22	0xbf210f05	-0.62913543
23	0x3eca0f21	0.39464667
24	0xbe5836aa	-0.21114603
25	0x3f4f8732	0.81065667
26	0xbec3bc2b	-0.38229498
27	0xbf0097ca	-0.5023161
28	0x3e9c71f6	0.30555695
29	0xbeab975f	-0.33513924
30	0x3e05a356	0.13050589
31	0xbf2bcdbe	-0.6711081
32	0xbf2f0192	-0.6836177
33	0xbe0c0535	-0.13673861
34	0xbebd1d1a	-0.36936265
35	0x3f046543	0.51717013
36	0x3dffac3a	0.124840215
37	0xbe2e8151	-0.17041518
38	0x3eb9411c	0.36182487
39	0xbd8a55ce	-0.06754647
40	0x3ee61b4f	0.4494271
41	0x3cf6e410	0.030138046
42	0x3e585597	0.211264
43	0xbd763ae7	-0.060114767
44	0xbeb93338	-0.3617189
45	0x3d32a1f2	0.043611474
46	0x3ee7fd89	0.4531062
47	0x3dd52b5e	0.10408662
48	0x3de0d8a0	0.10978818
49	0x3eb34712	0.3501516
50	0xbe911cb2	-0.28342205
51	0xbdbb25c7	-0.09138065
52	0x3d00d31f	0.03145134
53	0xbf129fcc	-0.5727508
54	0x3ebb631a	0.36599046
55	0xbeb99e9f	-0.3625383
56	0xbe7536cf	-0.23946689
57	0xbead7baf	-0.33883426
58	0x3e90f7ec	0.2831415
59	0xbed951b5	-0.4244515
60	0x3ed97fd6	0.42480344
61	0x3e32a17b	0.17444412
62	0xbd845f53	-0.06463494
63	0xbf1d1c92	-0.6137172

h.0.mha.W_v.weight f4 [64, 64]
0	0x3b332ce2	0.0027339985
1	0x3bae40af	0.0053177695
2	0x3e749ce1	0.2388797
3	0xbe5804ff	-0.21095656
4	0x3e34faf2	0.17673853
5	0xbe58b342	-0.21162131
6	0xbe0c48b5	-0.1369961
7	0x3ea9fead	0.33202115
8	0xbde3cc6c	-0.11122975
9	0x3d8b1f4b	0.06793078
10	0x3ceee5bc	0.02916228
11	0x3c0354aa	0.008015791
12	0x3c719e7d	0.014747259
13	0xbeac4980	-0.33649826
14	0x3ded3461	0.11582256
15	0xbd16e5b3	-0.036840152
16	0xbd22c440	-0.03973794
17	0x3e225688	0.15853322
18	0xbd88eba6	-0.06685571
19	0x3e5289bd	0.20560355
20	0x3dba7bfc	0.091056794
21	0x3d5ee8a1	0.05442107
22	0x3ddb28a9	0.10701115
23	0xbd3150a5	-0.0432898
24	0xbdbb49e8	-0.09144956
25	0xbde3ebca	-0.111289576
26	0xbe8c5ae4	-0.27413094
27	0x3d7a9b53	0.061183285
28	0x3e7246a6	0.23659763
29	0xbd16d16e	-0.03682082
30	0x3daa668f	0.08320343
31	0xbe07c523	-0.13258795
32	0x3df66388	0.12030703
33	0xbd187685	-0.037222404
34	0x3e04f8d7	0.1298555
35	0x3d6b4dc5	0.057447214
36	0xbe6d5c8d	-0.23179837
37	0x3df8e35e	0.12152742
38	0x3d215cc8	0.039395124
39	0x3e0f3412	0.13984707
40	0xbda7c4a9	-0.08191807
41	0x3c2fe9b4	0.0107368715
42	0x3e5027ba	0.20327654
43	0xbd3ed47f	-0.04658937
44	0xbbd9a23d	-0.0066416548
45	0x3dd5f378	0.104468286
46	0xbdce93b8	-0.10086769
47	0x3e0e84db	0.13917868
48	0xbcd2aeb3	-0.025718069
49	0x3d0c7404	0.03429033
50	0x3d922d79	0.071375795
51	0x3c920795	0.017825881
52	0xbe962a99	-0.29329374
53	0xbe068528	-0.13136733
54	0x3e3d6890	0.18496919
55	0x3de80159	0.11328382
56	0x3e15313f	0.14569567
57	0xbcfb7b64	-0.030698486
58	0xbcb9c6c5	-0.022677789
59	0xbd8e696f	-0.069537036
60	0x3d408cba	0.047009207
61	0xbda8cb74	-0.082419306
62	0xbdbfb194	-0.09360042
63	0xbe09301b	-0.13397257
64	0xbe359aa3	-0.1773477
65	0xbcb18a7f	-0.021672485
66	0xbd190a96	-0.03736361
67	0xbe916517	-0.28397438
68	0x3d1517f2	0.03639979
69	0x3e492a86	0.19645128
70	0x3d02e068	0.03195229
71	0x3da73d83	0.08166029
72	0xbcac690b	-0.021046182
73	0x3ba2129e	0.004946067
74	0x3b099f43	0.0020999468
75	0x3e160be7	0.14652978
76	0xbdb8a297	-0.090153866
77	0x3d4d0f6b	0.05006353
78	0xbe210ae7	-0.15726815
79	0xbe11a472	-0.14222887
80	0x3c92adb3	0.017905092
81	0x3da84bed	0.08217607
82	0x3e6e7514	0.2328685
83	0xbc0eb524	-0.0087101795
84	0x3d296d1d	0.041363824
85	0xbe0bbcb8	-0.13646209
86	0x3d59b947	0.05315521
87	0x3acedb1d	0.0015781854
88	0x3e0852ec	0.13312882
89	0xbdc3ce8f	-0.09560882
90	0xbe5a6bc3	-0.2133017
91	0xbde72813	-0.112869404
92	0x3c0d289c	0.008615639
93	0xbc95229e	-0.018204983
94	0x3d92101c	0.07131979
95	0xbd8c94f8	-0.06864351
96	0x3d083834	0.033256724
97	0x3db60bf4	0.08888999
98	0xbe700d65	-0.2344261
99	0x3da831e3	0.0821264
100	0x3ced7ed7	0.028991146
101	0x3d7d7992	0.061883517
102	0x3e0c3fca	0.13696209
103	0xbcbe50b9	-0.023231851
104	0x3e68c479	0.22731198
105	0x3e91e295	0.2849318
106	0x3da10773	0.07862749
107	0x3dc645fa	0.09681316
108	0xbdaf5e3f	-0.08562898
109	0xbdacee18	-0.0844385
110	0x3bb03276	0.005377109
111	0x3be3d1b2	0.006952488
112	0x3da8e41b	0.08246633
113	0x3d6babe9	0.057536993
114	0xbe1b67c7	-0.15176307
115	0xbb85ff58	-0.0040892772
116	0xbe75e52b	-0.24013202
117	0x3df542a3	0.119756006
118	0x3e152157	0.145635
119	0x3c45a12f	0.012062355
120	0x3dab2c36	0.08358042
121	0xbaea6b0d	-0.0017884687
122	0x3e18a673	0.14907245
123	0x3d829cee	0.06377588
124	0x3cddf109	0.027092474
125	0xbced4fa4	-0.02896864
126	0xbd45b5ea	-0.04826919
127	0x3d859efe	0.06524466
128	0x3cb561cb	0.022141358
129	0xbe5dee34	-0.21672899
130	0xbddd6909	-0.108110495
131	0x3e7c5e18	0.24645269
132	0x3d7cdc20	0.061733365
133	0x3e30f577	0.17281137
134	0xbe901117	-0.2813804
135	0xbd23ac79	-0.039959405
136	0x3cc924bf	0.024553655
137	0x3e53222d	0.20618506
138	0x3e3dd93a	0.18539897
139	0xbb13350a	-0.0022462034
140	0x3e22d9c7	0.15903388
141	0x3e522568	0.20522082
142	0x3dff254f	0.12458288
143	0xbd503f3e	-0.050841562
144	0x3e40c4b7	0.18825041
145	0x3ea1cefd	0.31603232
146	0xbe1fa6df	-0.15591
147	0xbdc32f33	-0.09530487
148	0xbdcfd6f9	-0.10148425
149	0xbe1789fd	-0.14798732
150	0xbcd3a513	-0.02583555
151	0x3e1440ec	0.1447789
152	0xbdd17b2e	-0.10228573
153	0xbe44a1e0	-0.19202375
154	0xbd05f3fb	-0.03270338
155	0x3d13dd87	0.036099937
156	0xbe65347b	-0.22383301
157	0x3cd907a7	0.026492907
158	0xbe42d900	-0.19028091
159	0xbb78e999	-0.0037981032
160	0xbdafe4a4	-0.085885316
161	0xbe329852	-0.17440918
162	0x3d189d8e	0.03725963
163	0x3d429de9	0.047513876
164	0xbe1f32c1	-0.15546705
165	0xbe668cce	-0.2251465
166	0x3d4a8660	0.049444556
167	0x3dc8991e	0.0979483
168	0x3d633e85	0.055479545
169	0xbdff4308	-0.12463957
170	0xbd870c0a	-0.06594093
171	0xbdbc2859	-0.09187383
172	0xbdbdc7ad	-0.09266601
173	0x3db16908	0.08662611
174	0xbb89bf7e	-0.004203736
175	0x3e375ec1	0.1790724
176	0xbdbf3cbc	-0.09337756
177	0xbc276b34	-0.01021843
178	0xbb771a67	-0.0037704946
179	0x3e4c6381	0.19959833
180	0x3cb2a723	0.021808213
181	0x3e3f9b3b	0.1871156
182	0x3b7feb94	0.0039050328
183	0xbe0a5c27	-0.13511716
184	0xbe0909a7	-0.13382588
185	0x3ea13997	0.3148925
186	0x3e1068aa	0.14102426
187	0x3e40c902	0.18826678
188	0x3e54e251	0.20789458
189	0xbcddb0e4	-0.027061887
190	0x3dc2aabb	0.095052205
191	0xbe5caca9	-0.2155024
192	0x3dc81c5a	0.09771033
193	0x3e356e81	0.17717935
194	0x3d1f4165	0.038880724
195	0x3dd18d7d	0.10232065
196	0x3b00929f	0.0019618643
197	0xbdc054ff	-0.09391212
198	0xbddbc060	-0.10730052
199	0x3e653dc8	0.22386849
200	0x3e0a6aaa	0.13517252
201	0x3daf4574	0.08558169
202	0x3e8ead26	0.27866477
203	0x3e28ed7e	0.16496846
204	0xbc7cbebe	-0.015426336
205	0xbe05c6ab	-0.13064067
206	0x3cce5c65	0.025190542
207	0xbdd30b84	-0.10304931
208	0xbcb44d63	-0.022009557
209	0x3d6c34dc	0.057667598
210	0xbd92454b	-0.07142123
211	0xbd8868fd	-0.0666065
212	0xbe48f17b	-0.19623367
213	0x3d927eb1	0.07153071
214	0x3df32cfe	0.11873816
215	0xbd9ddd6e	-0.0770825
216	0x3dfc966c	0.12333378
217	0xbe703f85	-0.23461731
218	0xbe51786a	-0.2045609
219	0xbd401f28	-0.046904713
220	0xbe4bd8b3	-0.19906883
221	0x3dac983e	0.084274754
222	0x3e743fe6	0.238525
223	0xbe439c1d	-0.19102521
224	0xbe908769	-0.2822831
225	0xbc891359	-0.016732858
226	0xbe3f337c	-0.18671983
227	0x3ea01ae8	0.31270528
228	0x3e28dc96	0.16490397
229	0xbe55065a	-0.20803204
230	0xbde86536	-0.113474295
231	0x3d968d0c	0.07351121
232	0x3c98dc51	0.018659743
233	0xbe05e0f3	-0.13074093
234	0x3e97e72f	0.29668567
235	0xbe74a7cf	-0.23892139
236	0x3b9976a3	0.004683332
237	0x3d7a1fd3	0.061065506
238	0xbd543e34	-0.051817134
239	0xbe527763	-0.20553355
240	0xbe7ccbf6	-0.2468718
241	0x3dd86bef	0.10567462
242	0xbda5551a	-0.080728725
243	0xbd7406a1	-0.059576634
244	0xbc7a4801	-0.015275956
245	0x3d0dd392	0.034625597
246	0xbaf6e92c	-0.0018837801
247	0xbdb3592f	-0.08757245
248	0xbe2142d5	-0.1574815
249	0xbe628459	-0.22120799
250	0x3de5167b	0.111859284
251	0x39ea1d03	0.00044653573
252	0xbd2b1c3f	-0.041774984
253	0x3df399d5	0.118945755
254	0xbd8116c3	-0.063031696
255	0x397cae4b	0.00024097522

h.0.mha.W_v.bias f4 [64]
0	0xbd72e9bb	-0.059304934
1	0x3d531dac	0.05154197
2	0x3cb914cb	0.022592923
3	0x3da24f9a	0.07925339
4	0xbe0d42ea	-0.13795057
5	0xbd900866	-0.07032852
6	0x3d19960e	0.03749662
7	0xbe3a090e	-0.18167517
8	0xbda9b729	-0.08286888
9	0xbda83208	-0.08212668
10	0xbcce4b26	-0.025182318
11	0xbe3bdef6	-0.18346772
12	0x3e165146	0.14679441
13	0x3da8428e	0.08215819
14	0xbe078946	-0.1323596
15	0x3cd07574	0.025446631
16	0x3c1bb6ef	0.009504064
17	0xbdadd763	-0.084883474
18	0xbda6d706	-0.08146481
19	0x3c8655ea	0.016398389
20	0xbda2b734	-0.079450995
21	0xbd8ae9fd	-0.06782911
22	0xbc5ff69e	-0.013669638
23	0x3d2475aa	0.040151276
24	0x3cb885c2	0.022524718
25	0x3dfef4a3	0.124490045
26	0x3e124866	0.1428543
27	0x3c62254e	0.013802839
28	0x3d5d0c93	0.05396707
29	0x3e226f4c	0.15862769
30	0x3d628054	0.055298164
31	0x3e14909d	0.1450829
32	0xbe16b19c	-0.1471619
33	0x3d8d3b8d	0.06896124
34	0x3e0a5428	0.13508666
35	0x3d8d60ce	0.0690323
36	0x3d4f441c	0.050602064
37	0x3e36a8f4	0.17837888
38	0x3d23d916	0.04000195
39	0xbd75f236	-0.060045443
40	0xbde5f68b	-0.11228665
41	0xbcc9ed72	-0.024649356
42	0x3d9b2654	0.0757567
43	0xbdb26232	-0.087101355
44	0xbe176594	-0.14784843
45	0xbd62e609	-0.05539516
46	0xbdf3587e	-0.11882113
47	0xbdafd908	-0.08586317
48	0xbe12045f	-0.1425948
49	0x3cf5540b	0.029947301
50	0xbe1f9984	-0.15585905
51	0xbca871bb	-0.020562043
52	0xbe484410	-0.19557214
53	0xbdf47bca	-0.119376734
54	0x3dc9babb	0.09850069
55	0x3de4711c	0.111543864
56	0xbdd3d228	-0.103428185
57	0xbdc10c4a	-0.09426172
58	0xbe38adbc	-0.18035024
59	0x3dadf1f9	0.08493418
60	0x3dd343cd	0.10315666
61	0xbde2a17a	-0.110659555
62	0xbbc2ff83	-0.0059508695
63	0xbd1c488c	-0.038155124

h.0.mha.W_o.weight f4 [64, 64]
0	0xbd622c60	-0.0552181
1	0xbdecc589	-0.11561114
2	0x3e3b1eae	0.18273422
3	0xbd4afe4a	-0.049558915
4	0x3d9636da	0.07334681
5	0x3d704d6f	0.058667596
6	0x3cd6b217	0.026207967
7	0x3d72f36e	0.059314184
8	0x3df17b60	0.1179111
9	0x3d4481c4	0.047975317
10	0xbd92cc6d	-0.071678974
11	0xbd1b0ba3	-0.037852895
12	0xbc720449	-0.0147715295
13	0xbd096e4b	-0.03355245
14	0xbd1eb9a9	-0.038751278
15	0x3d011af2	0.031519838
16	0x3cce301c	0.025169425
17	0xbce5a3c9	-0.0280322
18	0xbe01a7b4	-0.1266163
19	0xbdf17566	-0.1178997
20	0xbdfc23a9	-0.12311489
21	0xbda8ccae	-0.082421646
22	0x3df89dd3	0.121394776
23	0xbdba9842	-0.09111072
24	0xbd7c4c8e	-0.061596446
25	0xbb404369	-0.0029337055
26	0xbcd414a3	-0.025888747
27	0xbdf5278b	-0.11970433
28	0xbd152d31	-0.03642005
29	0x3c46414c	0.012100529
30	0xbdd32ce6	-0.10311298
31	0x3c93044a	0.017946381
32	0x3d216794	0.03940542
33	0xbdeebb5d	-0.116568305
34	0xbde65259	-0.11246175
35	0x3d7e1e3e	0.06204056
36	0xbcc9f44c	-0.024652623
37	0x3e12fc34	0.1435402
38	0x3cf02942	0.029316548
39	0x3e1d1155	0.15338643
40	0x3dc75ceb	0.097345196
41	0xbcfedfb9	-0.031112539
42	0x3d86ca03	0.065814994
43	0x3cc92a0a	0.024556179
44	0xbd9591b2	-0.0730318
45	0xbe26e3c1	-0.16297819
46	0xba1d94b1	-0.00060112315
47	0xbd687163	-0.05674876
48	0x3e3e330e	0.18574163
49	0x3cc5a2b8	0.024125442
50	0x3d33bd33	0.043881606
51	0x3c0b8547	0.0085156625
52	0xbca7e59c	-0.020495228
53	0x3dc1604c	0.09442195
54	0x3d7154c7	0.05891874
55	0xbd4f70ad	-0.050644565
56	0x3c3573e2	0.011074992
57	0x3db84b49	0.089987345
58	0xbae05619	-0.0017115503
59	0x3d1e02a4	0.038576737
60	0xbd822f77	-0.063567095
61	0xbd4f010e	-0.050538115
62	0xbc9ec94b	-0.019383093
63	0x3e0a1291	0.13483645
64	0x3dbbadc2	0.09164001
65	0xbd5c1ad7	-0.053736534
66	0x3d0380cd	0.032105256
67	0x3e00c751	0.12576033
68	0x3d9e0274	0.07715312
69	0x3c65491a	0.01399448
70	0xbd018fff	-0.031631466
71	0xbd72bd63	-0.059262644
72	0xbdb45912	-0.08806051
73	0x3dc4ba23	0.09605815
74	0x3d8af7d6	0.06785552
75	0xbd88e96f	-0.06685149
76	0x3db87445	0.09006552
77	0xbdf2c55a	-0.11854048
78	0x3c28bad3	0.010298449
79	0x3c6b95d5	0.014378984
80	0xbd1ae192	-0.037812777
81	0xbd5497df	-0.051902648
82	0x3d86533e	0.06558846
83	0xbda54253	-0.08069291
84	0x3daa4808	0.0831452
85	0xbcde0bf8	-0.027105317
86	0xbe0cb3a2	-0.137404
87	0x3d478312	0.048708983
88	0x3d9eef6c	0.0776051
89	0xbd97e0c9	-0.07415921
90	0x3d7869f5	0.060647923
91	0xbd29c804	-0.041450515
92	0xbdfc854e	-0.12330113
93	0xbc89ea52	-0.016835365
94	0x3defddd3	0.117122315
95	0xbe06b811	-0.13156153
96	0x3daa0282	0.083012596
97	0x3ce19706	0.027537834
98	0x3cb7b678	0.022425875
99	0x3d0308c1	0.03199077
100	0x3ca5289f	0.020160971
101	0x3dcbdbd2	0.09954037
102	0xbdc5af34	-0.09652558
103	0xbca59faa	-0.020217735
104	0x3c041ee2	0.008064004
105	0x3d6dfc82	0.05810214
106	0x3c1cda24	0.009573493
107	0x3d8a282b	0.06745943
108	0xbd9d79c2	-0.07689239
109	0xbcc6ba78	-0.024258837
110	0x3cea523e	0.02860367
111	0xbc481ac2	-0.012213411
112	0xbcd49caf	-0.025953619
113	0xbc01daf9	-0.007925742
114	0xbd9769dd	-0.07393239
115	0xbcce65b5	-0.025194982
116	0xbe13c608	-0.14431012
117	0x3d43f322	0.04783929
118	0xbdd59ce3	-0.104303144
119	0xbd683a68	-0.056696326
120	0x3d98180e	0.07426463
121	0x3d6bfa7a	0.05761192
122	0x3d2755ed	0.04085343
123	0xbc44ebe3	-0.01201913
124	0x3bb6ba12	0.0055763805
125	0xbd6c8656	-0.0577453
126	0x3d564409	0.052310977
127	0x3d360c71	0.04444546
128	0x3df6ed56	0.12056987
129	0x3e0e057c	0.1386928
130	0x3c7e6bec	0.01552866
131	0x3da7ab38	0.08186954
132	0xbd8a19fb	-0.06743237
133	0xbde3d39b	-0.11124345
134	0xbcdd48f4	-0.027012326
135	0xbacf834f	-0.001583198
136	0xbce0cd33	-0.027441597
137	0xbd89b8cc	-0.067247
138	0x3d2bd7f8	0.04195401
139	0xba75c206	-0.000937492
140	0x3a46f5fe	0.0007589756
141	0x3de7e57e	0.11323069
142	0x3e876db1	0.26450875
143	0x3e349eb6	0.17638668
144	0xbe1d6e93	-0.15374212
145	0x3dc9d23c	0.09854552
146	0xbd3e705b	-0.04649387
147	0x3e5fbdae	0.21849701
148	0xbd40abd8	-0.047038883
149	0xbe02b7f7	-0.1276549
150	0xbdd9514a	-0.10611208
151	0xbd108249	-0.0352805
152	0x3e456c5c	0.19279617
153	0x3da72b1a	0.08162518
154	0xbd83f040	-0.064423084
155	0x3d906599	0.07050628
156	0x3d6c8593	0.057744574
157	0x3c2400a1	0.010009916
158	0x3dc15e52	0.09441818
159	0xbdbbd68a	-0.091717795
160	0xbe74a1ef	-0.23889898
161	0x3ca709f4	0.020390488
162	0xbdc23c82	-0.09484197
163	0x3d834fb1	0.06411684
164	0x3d02bed0	0.031920254
165	0xbea55a17	-0.32295296
166	0x3e2c6f0d	0.16839238
167	0xbe1412d2	-0.14460304
168	0xbdea33ba	-0.11435647
169	0xbca51f93	-0.020156657
170	0x3c832047	0.016006602
171	0x3e076a66	0.13224182
172	0xbd9c5752	-0.076338425
173	0x3c3e0e4c	0.011600088
174	0xbde27543	-0.11057522
175	0x3c1158f3	0.008871305
176	0xbc2c7943	-0.010526958
177	0xbabc4553	-0.0014363922
178	0x3e227074	0.1586321
179	0xbd315402	-0.043293007
180	0x3cc14506	0.023592483
181	0xbda8d039	-0.0824284
182	0xbd687745	-0.05675437
183	0x3d067b7d	0.03283261
184	0xbda2a472	-0.07941522
185	0xbbc998e9	-0.0061522615
186	0xbd18d4c7	-0.037312295
187	0x3d44dfc4	0.048064962
188	0xbd101c08	-0.035182983
189	0x3e5958e5	0.21225317
190	0xbd9bf770	-0.07615554
191	0xbc9d6167	-0.019211484
192	0xbd802190	-0.062564015
193	0xbda2d1d3	-0.07950177
194	0xbd8943fd	-0.06702421
195	0xbcdee4a1	-0.027208628
196	0xbd0733f1	-0.03300852
197	0xbd3adfd5	-0.04562362
198	0x3d8a5ec6	0.06756358
199	0xbbae0e45	-0.0053117597
200	0x3da1ff1a	0.07909985
201	0xbc311791	-0.010808841
202	0x3df952a9	0.12173969
203	0x3a3b2e5b	0.00071403914
204	0xbd9deb8c	-0.077109426
205	0xbc17e297	-0.009270332
206	0xbdbd0fad	-0.092315055
207	0x3bfbbe79	0.007682618
208	0x3d77b117	0.06047162
209	0x3d8149d8	0.06312913
210	0x3dc0723b	0.09396788
211	0xbc727038	-0.014797263
212	0xbdb80222	-0.08984782
213	0x3de301bd	0.11084316
214	0x3b150660	0.0022739395
215	0x3d192be1	0.03739536
216	0xbcb0738e	-0.021539476
217	0x3d58a598	0.052892298
218	0x3d7714a5	0.060322423
219	0xbc77e265	-0.01512966
220	0xbd615c74	-0.05501981
221	0xbdfa0303	-0.12207606
222	0x3c8ad916	0.016949218
223	0x3cc1a2e9	0.023637252
224	0xbdd08054	-0.10180727
225	0x3c8e252c	0.01735171
226	0x3d1652eb	0.03670017
227	0xbddaa49c	-0.10675928
228	0x3da4ece0	0.08052993
229	0x3d8ca64b	0.06867655
230	0xbe232490	-0.15931916
231	0x3c90c443	0.01767171
232	0x3a125b5a	0.00055830705
233	0x3c9b870f	0.0189853
234	0x3d81b278	0.06332868
235	0x3d9d20b4	0.07672253
236	0xbd3004af	-0.042973217
237	0x3d0a2ed7	0.033736076
238	0x3e2f1438	0.17097557
239	0x3da3ca69	0.07997591
240	0xbcc08ac1	-0.023503663
241	0x3d2a2aba	0.041544653
242	0x3c724317	0.014786503
243	0xbd112c39	-0.035442565
244	0x3d2e6f72	0.04258675
245	0xbbec0343	-0.0072025373
246	0x3cdbac6f	0.026815621
247	0xbcde103d	-0.027107352
248	0x3cbb54b2	0.022867534
249	0xbd360e19	-0.04444704
250	0xbd938d97	-0.072047405
251	0xbc675721	-0.014119894
252	0x3d99383c	0.07481429
253	0xbd53e9ef	-0.05173677
254	0xbe0eea7e	-0.13956639
255	0x3cfdd554	0.030985512

h.0.mha.W_o.bias f4 [64]
0	0xbe2d7c96	-0.16942057
1	0x3df958ac	0.12175116
2	0x3b94ab87	0.004537049
3	0xbcedd70c	-0.029033206
4	0x3e5b43a2	0.21412519
5	0x3d3c4768	0.045966536
6	0xbdc60bbe	-0.096702084
7	0x3db8c6c7	0.09022289
8	0xbe05ee22	-0.13079122
9	0x3e03759c	0.12837833
10	0xbdcd2759	-0.100172706
11	0xb9cd4e61	-0.00039159044
12	0xbe136ec0	-0.14397717
13	0x3e4bd07a	0.19903746
14	0xbd5148b5	-0.05109473
15	0x3e229c71	0.1587999
16	0x3d86828d	0.06567869
17	0x3e114512	0.14186504
18	0x3dcccbd8	0.099998176
19	0xbd63ce6e	-0.05561679
20	0xbdb6c4e2	-0.08924271
21	0x3e206724	0.15664345
22	0xbca1519d	-0.019692237
23	0xbd16d3a0	-0.036822915
24	0xbd834471	-0.064095385
25	0x3e4da337	0.20081793
26	0xbda1864f	-0.078869455
27	0xbda66635	-0.08124963
28	0xbdf07f40	-0.11743021
29	0x3e328d19	0.17436637
30	0xbbe3b1ff	-0.006948709
31	0xbc79ceb0	-0.015247032
32	0x3e02f34b	0.12788121
33	0xbdd4c449	-0.10389001
34	0xbda75a49	-0.081715174
35	0x3e4b3656	0.19844946
36	0x3c98756f	0.018610684
37	0x3d14205f	0.036163684
38	0xbe4835a1	-0.19551708
39	0xbc212821	-0.009836228
40	0xbe09100a	-0.13385025
41	0xbdeb0200	-0.11474991
42	0xbe2a21e4	-0.16614491
43	0x3d0aacb6	0.033856116
44	0xbe3852f1	-0.1800039
45	0x3d98b026	0.07455473
46	0xbe0d082c	-0.13772649
47	0x3dd45b00	0.103689194
48	0xbd9fc98b	-0.07802113
49	0x3db2d0a5	0.08731202
50	0x3e05fded	0.13085146
51	0x3e0251fb	0.12726586
52	0xbc787023	-0.015163454
53	0xbd3abda6	-0.04559102
54	0xbc0e301e	-0.008678464
55	0xbe6bfd58	-0.23045862
56	0x3e2a6b29	0.16642441
57	0x3dc5e352	0.096624985
58	0x3ddbad38	0.10726398
59	0xbd06378d	-0.03276782
60	0x3bf76e84	0.0075510163
61	0x3d8d137d	0.06888483
62	0x3e2f9e36	0.17150196
63	0xbe0132a1	-0.1261697

h.0.ln_1.weight f4 [64]
0	0x3f4c29bc	0.7975118
1	0x3f64fc34	0.8944733
2	0x3f5b5d68	0.856894
3	0x3f56424c	0.8369491
4	0x3f78b681	0.9715348
5	0x3f63d35f	0.889944
6	0x3f3d6d94	0.7399533
7	0x3f394067	0.72363895
8	0x3f5313b4	0.8245194
9	0x3f3c0bb2	0.73455346
10	0x3f23793d	0.6385687
11	0x3f372ec7	0.7155575
12	0x3f658cf7	0.8966822
13	0x3f84f513	1.0387291
14	0x3f29b091	0.66285044
15	0x3f401f68	0.7504792
16	0x3f52cc77	0.8234324
17	0x3f739278	0.9514537
18	0x3f1aa65b	0.6041009
19	0x3f29b1d2	0.6628696
20	0x3f518f15	0.8185895
21	0x3f388ca3	0.72089595
22	0x3f2cbd55	0.674764
23	0x3f7e099f	0.9923343
24	0x3f38b4ee	0.72151077
25	0x3f4727e1	0.77795225
26	0x3f7ba50b	0.9829871
27	0x3f2c523e	0.6731299
28	0x3f55bfc5	0.8349574
29	0x3f394258	0.7236686
30	0x3f2329d4	0.637357
31	0x3f376d05	0.71650726
32	0x3f3716e1	0.71519285
33	0x3f3e99a3	0.7445318
34	0x3f3ecec3	0.74534243
35	0x3f67ebfe	0.9059447
36	0x3f34df2e	0.70653045
37	0x3f4fd3c8	0.8118253
38	0x3f6d7d4a	0.927693
39	0x3f3f3971	0.74697024
40	0x3f2d7d21	0.67769057
41	0x3f6f7515	0.9353803
42	0x3f58915e	0.8459681
43	0x3f592872	0.8482734
44	0x3f5fc7b5	0.87414104
45	0x3f39dcb9	0.7260242
46	0x3f55e7ca	0.8355681
47	0x3f474b32	0.77849114
48	0x3f321077	0.69556373
49	0x3f023bf0	0.5087271
50	0x3f3d8ccc	0.74042964
51	0x3f7ed89e	0.9954928
52	0x3f198441	0.5996743
53	0x3f40e95b	0.7535607
54	0x3f2f1118	0.6838546
55	0x3f506b1a	0.81413424
56	0x3f428f5c	0.76
57	0x3f48acf4	0.78388906
58	0x3f4e1ce3	0.8051283
59	0x3f2a861a	0.6661087
60	0x3f3443cf	0.7041597
61	0x3f0ec847	0.5577435
62	0x3f4fd1aa	0.81179297
63	0x3f484d82	0.7824327

h.0.ln_1.bias f4 [64]
0	0x3c2dc228	0.0106053725
1	0x3ee5d538	0.44889235
2	0xbee9322d	-0.45546094
3	0xbd4c1562	-0.04982508
4	0x3df26f15	0.118375935
5	0x3cff6711	0.031177076
6	0xbdfc4caf	-0.12319314
7	0x3d01b47a	0.031666256
8	0xbed38c94	-0.4131819
9	0xbbd37706	-0.0064533977
10	0xbea76839	-0.32696703
11	0x3ce96bb9	0.028493749
12	0xbef9f101	-0.48816684
13	0x3ed0ce65	0.40782467
14	0xbc586d57	-0.013209662
15	0xbe1d8c02	-0.1538544
16	0xbeabf69f	-0.33586594
17	0x3e8abcc2	0.27097136
18	0x3ebe86f4	0.37212336
19	0xbdc740f0	-0.09729183
20	0xbe878ac8	-0.2647307
21	0x3eef4a9c	0.4673661
22	0xbe26b553	-0.16280107
23	0xbeb4a046	-0.3527853
24	0xbec0c152	-0.37647492
25	0x3f06af6c	0.5261142
26	0xbef8f1e1	-0.4862204
27	0xbda275de	-0.07932638
28	0xbe98d04c	-0.29846418
29	0x3edd145e	0.431796
30	0xbdf593de	-0.11991094
31	0x3a4404be	0.0007477513
32	0xbd1d81f1	-0.038454
33	0xbe08ed7e	-0.13371846
34	0xbc0f6e3e	-0.008754311
35	0x3ec6dfd6	0.38842648
36	0xbd113e49	-0.03545979
37	0x3e44e85d	0.19229265
38	0xbdb23a0c	-0.08702478
39	0x3f02e639	0.5113254
40	0x3d9149e0	0.07094169
41	0xbf13dc57	-0.57758087
42	0xbda586f1	-0.08082379
43	0x3ee8e880	0.45489883
44	0xbd5e67bc	-0.054298148
45	0xbdf36b58	-0.118857086
46	0xbe914f0d	-0.28380623
47	0xbe86dc57	-0.2633998
48	0x3d242faa	0.04008452
49	0xbe9b8564	-0.30375206
50	0x3e2277b0	0.1586597
51	0x3e733cd0	0.23753667
52	0xbe97d21b	-0.29652485
53	0x3dc4244c	0.095772356
54	0x3c25b635	0.010114242
55	0xbeb8481a	-0.3599251
56	0x3ea475f4	0.3212124
57	0x3da5d3a3	0.08097007
58	0xbebfd7f4	-0.37469447
59	0x3def0d9d	0.116725184
60	0xbe828e89	-0.2549937
61	0xbe863d23	-0.2621852
62	0xbe9c7de3	-0.30564794
63	0xbe13dd5c	-0.1443991

h.0.ln_2.weight f4 [64]
0	0x3f800000	1.0
1	0x3f800000	1.0
2	0x3f800000	1.0
3	0x3f800000	1.0
4	0x3f800000	1.0
5	0x3f800000	1.0
6	0x3f800000	1.0
7	0x3f800000	1.0
8	0x3f800000	1.0
9	0x3f800000	1.0
10	0x3f800000	1.0
11	0x3f800000	1.0
12	0x3f800000	1.0
13	0x3f800000	1.0
14	0x3f800000	1.0
15	0x3f800000	1.0
16	0x3f800000	1.0
17	0x3f800000	1.0
18	0x3f800000	1.0
19	0x3f800000	1.0
20	0x3f800000	1.0
21	0x3f800000	1.0
22	0x3f800000	1.0
23	0x3f800000	1.0
24	0x3f800000	1.0
25	0x3f800000	1.0
26	0x3f800000	1.0
27	0x3f800000	1.0
28	0x3f800000	1.0
29	0x3f800000	1.0
30	0x3f800000	1.0
31	0x3f800000	1.0
32	0x3f800000	1.0
33	0x3f800000	1.0
34	0x3f800000	1.0
35	0x3f800000	1.0
36	0x3f800000	1.0
37	0x3f800000	1.0
38	0x3f800000	1.0
39	0x3f800000	1.0
40	0x3f800000	1.0
41	0x3f800000	1.0
42	0x3f800000	1.0
43	0x3f800000	1.0
44	0x3f800000	1.0
45	0x3f800000	1.0
46	0x3f800000	1.0
47	0x3f800000	1.0
48	0x3f800000	1.0
49	0x3f800000	1.0
50	0x3f800000	1.0
51	0x3f800000	1.0
52	0x3f800000	1.0
53	0x3f800000	1.0
54	0x3f800000	1.0
55	0x3f800000	1.0
56	0x3f800000	1.0
57	0x3f800000	1.0
58	0x3f800000	1.0
59	0x3f800000	1.0
60	0x3f800000	1.0
61	0x3f800000	1.0
62	0x3f800000	1.0
63	0x3f800000	1.0

h.0.ln_2.bias f4 [64]
0	0x00000000	0.0
1	0x00000000	0.0
2	0x00000000	0.0
3	0x00000000	0.0
4	0x00000000	0.0
5	0x00000000	0.0
6	0x00000000	0.0
7	0x00000000	0.0
8	0x00000000	0.0
9	0x00000000	0.0
10	0x00000000	0.0
11	0x00000000	0.0
12	0x00000000	0.0
13	0x00000000	0.0
14	0x00000000	0.0
15	0x00000000	0.0
16	0x00000000	0.0
17	0x00000000	0.0
18	0x00000000	0.0
19	0x00000000	0.0
20	0x00000000	0.0
21	0x00000000	0.0
22	0x00000000	0.0
23	0x00000000	0.0
24	0x00000000	0.0
25	0x00000000	0.0
26	0x00000000	0.0
27	0x00000000	0.0
28	0x00000000	0.0
29	0x00000000	0.0
30	0x00000000	0.0
31	0x00000000	0.0
32	0x00000000	0.0
33	0x00000000	0.0
34	0x00000000	0.0
35	0x00000000	0.0
36	0x00000000	0.0
37	0x00000000	0.0
38	0x00000000	0.0
39	0x00000000	0.0
40	0x00000000	0.0
41	0x00000000	0.0
42	0x00000000	0.0
43	0x00000000	0.0
44	0x00000000	0.0
45	0x00000000	0.0
46	0x00000000	0.0
47	0x00000000	0.0
48	0x00000000	0.0
49	0x00000000	0.0
50	0x00000000	0.0
51	0x00000000	0.0
52	0x00000000	0.0
53	0x00000000	0.0
54	0x00000000	0.0
55	0x00000000	0.0
56	0x00000000	0.0
57	0x00000000	0.0
58	0x00000000	0.0
59	0x00000000	0.0
60	0x00000000	0.0
61	0x00000000	0.0
62	0x00000000	0.0
63	0x00000000	0.0
