subspace-alignment/data/2_layer_64_vocab_traindata/ckpt_600.pt (torch, 178528 bytes, 29 tensors)

embed.embed.weight f4 [64, 64]
-0.21840642 0.718419 0.63017017 0.123666905 -0.0049939374 -0.7134702 -1.3638446 0.008744892
-0.50884044 0.23050682 -1.4479592 0.32123715 -0.19405937 -0.87396187 0.94973713 0.019004898
0.23092724 0.08907574 0.9514244 -0.77683663 -0.5291264 1.609786 1.4176486 -1.0805972
-2.1308722 1.5105835 -0.7814087 2.1390474 0.897989 0.69348866 -0.57035273 0.55285966
0.9293719 -0.9282239 0.3891139 -0.9969171 -1.189263 0.6168425 -0.82127595 0.57821727
-1.6316698 -0.9716185 0.23443423 0.6992211 1.3008201 0.91130066 -0.4701207 -0.6812938
-0.86237097 -1.6670622 -0.05180827 -0.42919588 0.4962823 1.1100253 0.085315146 -0.89293563
0.39433074 -0.42961535 -1.1599928 -1.5662237 0.4441189 -0.34349585 -0.08733411 0.83585155
0.55414855 -1.219196 -1.3168945 0.12037941 2.019273 -1.220195 -0.22733304 -0.45100203
0.23829305 -0.24487822 0.1397 0.33025655 0.47348 0.26321357 0.1113218 0.91678953
1.318269 -0.46127632 1.2092596 0.2638604 0.31134003 -0.45688805 1.7173066 0.40429446
0.17530191 1.0077412 -1.3210723 0.23713094 -2.0365336 2.0013702 0.12177817 -1.1283348
-1.2163348 -1.4083638 0.71108085 -0.050240885 0.92986894 0.8690507 1.2359766 0.01722101
-1.0201386 -0.1538865 1.1757469 0.38111246 -0.6374917 -0.124637716 -1.3502706 -1.4391886
-0.25789934 -0.19764307 1.3254075 -0.11482539 -0.5820018 0.016898675 0.3169501 -0.8439059
0.05502459 -0.7501025 -0.21666217 -0.042840034 0.41259804 -2.4681892 -1.0027083 0.28347144
0.828075 0.92880064 -0.33290955 -0.17490877 -0.18297645 0.7567266 -0.6280119 -1.5640334
0.36862054 -1.0234373 0.40230873 -0.36913854 -0.66018605 0.8322677 0.23330691 0.43068904
-0.6979023 -0.9454601 -1.8052574 -0.78289336 0.16408269 1.2324764 -1.0636116 -0.53746027
0.4195567 0.4765922 -0.6855754 0.21367139 -1.0557112 1.5956584 1.2559413 0.53122747
-1.0020807 0.48068583 0.29603982 1.2475609 -1.1629382 -1.5909512 -0.42946693 2.4810913
-0.55911005 -0.9781112 0.031379323 0.08431662 -0.04357605 -0.9499612 0.8855908 -0.26268238
-0.22457749 -1.2519307 2.1787083 -0.071985215 0.19287527 -0.62984675 -1.7869052 -0.45863113
0.69993263 0.016756557 -0.567995 0.91071135 -2.585554 0.62420356 0.34604508 0.34001163
-1.3629848 1.2162019 0.0072229095 -0.16349272 -1.6434362 -0.50931096 1.4855593 0.47306904
-1.3340384 -1.2647069 -1.7923193 -0.33512205 -2.6588895 2.365591 -1.3002368 0.51555765
0.46199337 -0.255081 0.88048637 0.2954718 0.8546611 -0.76682734 -1.4748697 0.6716879
-2.0286438 1.5663004 0.28970262 0.5558914 0.37537286 -0.34491855 -0.45941883 0.98869056
0.90145046 0.85189813 -0.726325 -0.99769944 0.043110497 -0.8318786 0.46283808 1.339342
1.8355519 -0.020594954 -1.0089871 0.91032237 0.9755624 1.8472246 0.77995145 0.8071207
0.9139368 -0.85450333 0.48995265 0.051460966 -1.423868 1.2978526 0.42359403 -0.5178442
0.44754854 1.3467015 -2.833236 -0.215044 0.056096707 -0.6436664 -0.8425875 -0.15881644
00000000: efa5 5fbe 4fea 373f d552 213f 1345 fd3d
00000010: 2fa4 a3bb fca5 36bf 7692 aebf bc46 0f3c
00000020: 5e43 02bf fb09 6c3e ba56 b9bf 3279 a43e
00000030: 80b7 46be f7bb 5fbf f921 733f 29b0 9b3c
00000040: 3178 6c3e 576d b63d 8d90 733f c4de 46bf
00000050: d474 07bf 780d ce3f 8275 b53f 0251 8abf
00000060: 3660 08c0 cd5a c13f 670a 48bf 27e6 0840
00000070: 9be2 653f 7988 313f a302 12bf 3688 0d3f
00000080: 51eb 6d3f 15a0 6dbf f039 c73e f635 7fbf
00000090: c539 98bf 64e9 1d3f 243f 52bf 0c06 143f
000000a0: 8eda d0bf fdbb 78bf 870f 703e 2700 333f
000000b0: 4681 a63f 004b 693f a9b3 f0be 4569 2ebf
000000c0: 58c4 5cbf 4b62 d5bf e934 54bd 90bf dbbe
000000d0: b718 fe3e 4f15 8e3f b5b9 ae3d 6e97 64bf
000000e0: b8e5 c93e 8bf6 dbbe a57a 94bf 057a c8bf
000000f0: 8d63 e33e b0de afbe 3adc b2bd 5efa 553f
00000100: aedc 0d3f 9d0e 9cbf 0090 a8bf 7b89 f63d
00000110: c53b 0140 5a2f 9cbf fec9 68be bde9 e6be
00000120: 1803 743e 5bc1 7abe 840d 0f3e 6317 a93e
00000130: f86b f23e eec3 863e affc e33d b8b2 6a3f
00000140: 0abd a83f 692c ecbe 05c9 9a3f b618 873e
00000150: f667 9f3e 3bed e9be b4d0 db3f afff ce3e
00000160: 5882 333e aafd 803f e618 a9bf 74d2 723e
00000170: 9156 02c0 7316 0040 d566 f93d 466d 90bf
00000180: dcb0 9bbf 4445 b4bf 6509 363f 63c9 4dbd
00000190: e40b 6e3f 1b7a 5e3f 7b34 9e3f 1313 8d3c
000001a0: e793 82bf 6c94 1dbe e07e 963f 2c21 c33e
000001b0: a832 23bf 0f42 ffbd abd5 acbf 5537 b8bf
000001c0: 620b 84be f262 4abe f4a6 a93f 9329 ebbd
000001d0: 12fe 14bf 176f 8a3c 4947 a23e 380a 58bf
000001e0: 7761 613d b806 40bf b0dc 5dbe 0879 2fbd
000001f0: 0d40 d33e d0f6 1dc0 bf58 80bf 2b23 913e
00000200: b9fc 533f e1c5 6d3f 1f73 aabe 491b 33be
00000210: 2e5e 3bbe d6b8 413f 63c5 20bf 3f32 c8bf
00000220: d5bb bc3e feff 82bf 69fb cd3e baff bcbe
00000230: f401 29bf 7f0f 553f 02e8 6e3e 4683 dc3e
00000240: baa9 32bf ac09 72bf ad12 e7bf b36b 48bf
00000250: 4b05 283e c9c1 9d3f 6d24 88bf ff96 09bf
00000260: 23d0 d63e e503 f43e df81 2fbf accc 5a3e
00000270: 8b21 87bf 893e cc3f afc2 a03f 86fe 073f
00000280: 2e44 80bf 741c f63e 8892 973e 13b0 9f3f
00000290: 29db 94bf 4aa4 cbbf 17e3 dbbe 33ca 1e40
000002a0: d621 0fbf 7f65 7abf 9b87 003d 31ae ac3d
000002b0: cd7c 32bd a830 73bf 14b6 623f 4e7e 86be
000002c0: a4f7 65be 443f a0bf f56f 0b40 fc6c 93bd
000002d0: 1881 453e a33d 21bf 4fb9 e4bf b3d1 eabe
000002e0: c92e 333f 0c45 893c 1f68 11bf 6124 693f
000002f0: b779 25c0 cecb 1f3f d22c b13e 0116 ae3e
00000300: 4976 aebf 81ac 9b3f 28ae ec3b a36a 27be
00000310: 1e5c d2bf 3462 02bf cf26 be3f 1b36 f23e
00000320: c5c1 aabf eae1 a1bf b86a e5bf 1e95 abbe
00000330: 3f2b 2ac0 d865 1740 296e a6bf 96fb 033f
00000340: 658a ec3e fa99 82be 8e67 613f 1448 973e
00000350: 12cb 5a3f cc4e 44bf 88c8 bcbf bdf3 2b3f
00000360: 4dd5 01c0 887c c83f e753 943e e64e 0e3f
00000370: df30 c03e 2a99 b0be f238 ebbe d31a 7d3f
00000380: 75c5 663f ff15 5a3f 6ff0 39bf 3b69 7fbf
00000390: a294 303d fff5 54bf 1df9 ec3e 8f6f ab3f
000003a0: 5df3 ea3f c0b6 a8bc 7d26 81bf e30a 693f
000003b0: 75be 793f db71 ec3f e6aa 473f 769f 4e3f
000003c0: c3f7 693f bbc0 5abf 13db fa3e bcc8 523d
000003d0: 4e41 b6bf 0920 a63f 51e1 d83e 7091 04bf
000003e0: 1525 e53e b760 ac3f bd53 35c0 7f34 5cbe
000003f0: a9c5 653d 52c7 24bf d0b3 57bf c7a0 22be

h.0.mha.W_q.weight f4 [64, 64]
0.048128534 -0.1424324 -0.013040433 0.07682824 0.011944716 0.12402498 0.061212793 0.060237166
0.03430762 0.03518206 0.009123115 0.14408702 -0.06721299 0.017819459 -0.058599498 -0.11176636
0.11428451 -0.055752013 0.024261992 0.07368731 -0.019278042 0.0348423 0.07305061 0.034381717
0.04600718 -0.018632157 0.054797195 -0.13148415 0.038493156 -0.08505368 -0.06597135 -0.01432947
-0.051912997 0.1425905 -0.018034304 -0.066140346 -0.14594717 0.004396809 0.033745054 0.054126583
-0.06086184 0.09822506 0.058453713 0.07109123 -0.07155621 -0.09425487 -0.043576706 -0.025561476
0.04302276 0.06383788 0.038512774 0.024058219 -0.031547118 0.06383279 -0.03280699 -0.058445048
0.07646902 -0.14858368 -0.013751253 -0.037446663 -0.0009173913 -0.04004374 -0.011293079 0.06635686
0.09260922 -0.051007297 -0.114555955 -0.03334111 -0.06931328 0.09758965 0.013108052 -0.13553159
0.11071287 0.051145468 -0.04461024 -0.029430512 -0.101808555 0.049781796 -0.10566197 -0.0783038
-0.08150337 -0.08204005 0.013341353 -0.08364756 0.10987179 -0.1116797 0.027174138 0.036600064
0.030159684 -0.07807996 0.03350325 0.10752974 -0.0147096105 0.09810869 0.08802322 -0.047830284
0.04170213 0.103512526 0.12043301 0.025989234 -0.04199282 0.02862038 -0.0087641515 0.049808342
0.0056009633 -0.10693905 0.0034156109 0.03949357 -0.03293295 0.07647867 -0.028238531 -0.06450571
0.081419684 0.056214683 0.10599435 0.073408596 0.124474004 -0.014006188 -0.16831705 0.12908533
-0.011406031 -0.060217906 -0.0035171325 -0.06841376 -0.031551298 0.15325652 -0.028527182 -0.13183054
-0.09836363 0.10206821 -0.11317609 -0.015171851 -0.06770088 0.021734023 -0.09148512 0.0013697428
0.06499636 -0.05381869 -0.04151518 -0.038657475 0.022567421 0.074913725 -0.062351897 -0.13103965
0.029526344 0.045871764 0.097770825 0.0314782 -0.11850612 -0.0022913634 -0.111609794 0.036433913
0.11013458 0.010025038 -0.12101666 -0.0040858365 -0.06315247 -0.069524325 0.09912161 0.072428375
-0.038288265 0.009863925 -0.024732389 0.016669365 0.0044231773 0.02753691 0.053719092 -0.12121851
-0.03832725 0.11512709 0.020845009 0.16783535 0.010316983 -0.12349464 0.11144696 -0.079856016
-0.04586095 0.09028489 -0.051265687 -0.016683284 0.100620136 -0.0005787809 -0.07088903 -0.073768586
-0.0054710754 -0.08858884 0.058625966 -0.06334131 0.07936453 0.02712585 -0.019778717 0.033003002
0.09481986 0.0025195815 0.038403083 0.0866172 0.13055748 0.037723534 -0.07686821 -0.0016576459
-0.07340165 -0.07009893 -0.02016899 0.06822474 -0.11836936 0.07461604 0.025701277 0.04911869
-0.039568517 -0.049263433 0.08538167 0.0539904 -0.0190535 0.09681394 0.046272196 0.080621965
-0.074818864 -0.07515757 0.09542426 -0.00044250104 -0.15354836 0.037824273 0.068630345 -0.10722631
0.096157975 -0.055083413 -0.10306311 0.11927445 0.07583714 0.124970034 0.12518261 0.13286132
0.099936664 0.039081156 0.09743852 0.009613801 -0.12770148 0.10487704 -0.04630509 -0.08269474
-0.054367643 0.10198106 -0.067926474 -0.060151342 -0.067880854 -0.01645017 0.119008526 0.05497386
0.015205116 0.038140353 0.02363449 0.022553988 0.10698552 -0.05837455 -0.061520908 0.11774042
00000000: 6d22 453d cdd9 11be 8aa7 55bc 2058 9d3d
00000010: c5b3 433c cf00 fe3d 44ba 7a3d 3fbb 763d
00000020: 2686 0c3d 101b 103d 1e79 153c 8c8b 133e
00000030: f7a6 89bd 1dfa 913c 0706 70bd c3e5 e4bd
00000040: ff0d ea3d 395c 64bd 16c1 c63c 5fe9 963d
00000050: fcec 9dbc cdb6 0e3d 8f9b 953d d8d3 0c3d
00000060: 0672 3c3d 77a2 98bc 0673 603d c8a3 06be
00000070: 00ab 1d3d a030 aebd fd1b 87bd 27c6 6abc
00000080: b9a2 54bd 3e03 123e adbc 93bc 9774 87bd
00000090: 2d73 15be 1b13 903b 4138 0a3d d6b3 5d3d
000000a0: 444a 79bd 382a c93d 296d 6f3d 4798 913d
000000b0: 108c 92bd b308 c1bd 7d7d 32bd 4d66 d1bc
000000c0: a238 303d 6fbd 823d 92bf 1d3d be15 c53c
000000d0: 8d37 01bd c4ba 823d 9f60 06bd 1364 6fbd
000000e0: ca9b 9c3d 5226 18be ef4c 61bc ac61 19bd
000000f0: 177d 70ba e804 24bd 9b06 39bc 1be6 873d
00000100: e7a9 bd3d 07ed 50bd 509c eabd b090 08bd
00000110: 1ff4 8dbd 15dd c73d 28c3 563c cbc8 0abe
00000120: 6ebd e23d e97d 513d 3ab9 36bd 4218 f1bc
00000130: 0181 d0bd ffe7 4b3d 4e65 d8bd be5d a0bd
00000140: 3deb a6bd 9d04 a8bd b195 5a3c 694f abbd
00000150: 7604 e13d 54b8 e4bd 4c9c de3c f3e9 153d
00000160: 7111 f73c 63e8 9fbd b43a 093d 8d38 dc3d
00000170: 9400 71bc 35ed c83d 8545 b43d b0e9 43bd
00000180: dacf 2a3d 60fe d33d 95a5 f63d 60e7 d43c
00000190: aa00 2cbd 4a75 ea3c 8497 0fbc d503 4c3d
000001a0: 4988 b73b dc02 dbbd 71d8 5f3b 02c4 213d
000001b0: b3e4 06bd d9a0 9c3d 7e54 e7bc 921b 84bd
000001c0: 5dbf a63d 5e41 663d 9113 d93d 3f57 963d
000001d0: 3aec fe3d 367a 65bc 4e5b 2cbe f22e 043e
000001e0: 5de0 3abc 0da7 76bd b17f 66bb 831c 8cbd
000001f0: ef3b 01bd 47ef 1c3e d6b1 e9bc 96fe 06be
00000200: df72 c9bd 2309 d13d dec8 e7bd 5b93 78bc
00000210: c2a6 8abd 8d0b b23c 8d5c bbbd f188 b33a
00000220: d01c 853d fd70 5cbd d20b 2abd 4d57 1ebd
00000230: 50df b83c 5e6c 993d b464 7fbd 422f 06be
00000240: 3be1 f13c 08e4 3b3d 123c c83d 49ef 003d
00000250: 56b3 f2bd b32a 16bb ad93 e4bd ba3b 153d
00000260: 3d8e e13d 0f40 243c 95d7 f7bd 7be2 85bb
00000270: 1556 81bd c562 8ebd 4500 cb3d 5455 943d
00000280: 28d4 1cbd 4d9c 213c 949b cabc 318e 883c
00000290: 4df0 903b 1695 e13c 8d08 5c3d 6941 f8bd
000002a0: 09fd 1cbd c0c7 eb3d 27c3 aa3c 08dd 2b3e
000002b0: 9008 293c c2ea fcbd 4e3e e43d 8d8b a3bd
000002c0: b1d8 3bbd 49e7 b83d f8fb 51bd 62ab 88bc
000002d0: ee11 ce3d 54b9 17ba 452e 91bd fc13 97bd
000002e0: b546 b3bb 116e b5bd c821 703d 17b9 81bd
000002f0: df89 a23d 0837 de3c fa06 a2bc 282e 073d
00000300: ea30 c23d 901f 253b 8d4c 1d3d 5c64 b13d
00000310: dcb0 053e fe83 1a3d 156d 9dbd 5e45 d9ba
00000320: 9b53 96bd 0790 8fbd 7039 a5bc 6ab9 8b3d
00000330: a36b f2bd 4bd0 983d 7c8b d23c ae30 493d
00000340: 9912 22bd 74c8 49bd 96dc ae3d 0a25 5d3d
00000350: 1616 9cbc 6346 c63d ea87 3d3d 211d a53d
00000360: a23a 99bd 36ec 99bd cb6d c33d 7cff e7b9
00000370: c83b 1dbe a0ed 1a3d 118e 8c3d 7899 dbbd
00000380: 79ee c43d 259f 61bd c012 d3bd 2a46 f43d
00000390: 8150 9b3d 4af0 ff3d df2f 003e cc0c 083e
000003a0: 98ab cc3d 9013 203d d98d c73d 3483 1d3c
000003b0: 2dc4 02be c6c9 d63d 68aa 3dbd dc5b a9bd
000003c0: 9bb0 5ebd 72db d03d 091d 8bbd 4161 76bd
000003d0: 1e05 8bbd 82c2 86bc beba f33d 452c 613d
000003e0: e11e 793c 0f39 1c3d 1e9d c13c 24c3 b83c
000003f0: 391b db3d 271a 6fbd 59fd 7bbd e421 f13d

h.0.mha.W_q.bias f4 [64]
0.099904045 0.081602424 0.17239372 0.021860503 0.011729799 0.20326103 -0.06999062 0.082238376
-0.13755554 -0.12525426 0.024198217 0.19567004 -0.0022249052 0.06270653 0.25822407 0.012080319
0.14887887 0.22880305 0.089625984 -0.004217847 -0.13030837 0.13307868 0.004299111 0.021633117
0.008888377 0.07450484 -0.0035771257 -0.1389825 -0.026211157 -0.11975962 0.08523771 0.15964359
-0.11495085 -0.006316214 -0.009772132 0.03080651 0.041112926 -0.017787982 -0.07224848 -0.03214316
0.093024574 -0.034880523 0.11777648 0.02320564 0.08805649 0.05881579 0.10656735 0.10208735
-0.039879717 0.11148876 0.12985048 0.08875527 -0.079033606 -0.03538408 -0.034019567 -0.06957092
0.16186924 -0.01653666 -0.019896077 0.006465526 0.02134512 0.045573443 0.09240389 -0.10717832
00000000: 7e9a cc3d 2c1f a73d fb87 303e cc14 b33c
00000010: 582e 403c a923 503e 3e57 8fbd 986c a83d
00000020: 5cdb 0cbe a742 00be 573b c63c ba5d 483e
00000030: b7cf 11bb 486c 803d f235 843e 88ec 453c
00000040: b473 183e 594b 6a3e d48d b73d dd35 8abb
00000050: 8f6f 05be c745 083e 8fdf 8c3b ef37 b13c
00000060: 8ea0 113c fe95 983d 366e 6abb 6e51 0ebe
00000070: c8b8 d6bc 8844 f5bd 1c91 ae3d 9c79 233e
00000080: 5a6b ebbd 3ef8 cebb 4b1b 20bc ef5d fc3c
00000090: 0766 283d 1ab8 91bc 03f7 93bd 8ca8 03bd
000000a0: ab83 be3d e1de 0ebd cc34 f13d c119 be3c
000000b0: f656 b43d d3e8 703d fc3f da3d 2c13 d13d
000000c0: ea58 23bd 3854 e43d 86f7 043e 53c5 b53d
000000d0: 5fdc a1bd e6ee 10bd 1a58 0bbd 337b 8ebd
000000e0: 0dc1 253e e477 87bc 19fd a2bc c3dc d33b
000000f0: f6db ae3c 38ab 3a3d 403e bd3d 4f80 dbbd

h.0.mha.W_k.weight f4 [64, 64]
0.074905984 -0.13225591 -0.098815486 -0.093990885 0.0039189677 -0.05161696 0.09450312 0.10265102
0.039497286 -0.0097188195 -0.0063783303 0.1754627 -0.044952802 0.03045783 -0.010990334 -0.07146961
-0.025344454 0.011638198 0.101145476 0.12623903 -0.05845453 -0.0042519397 0.01354181 -0.046364065
0.10992521 -0.1353986 0.10349917 -0.012166465 -0.04686832 0.050875723 0.06774871 0.048987042
-0.014817264 0.025720717 0.091939725 -0.11673078 -0.011247913 0.008545259 0.07740938 0.08502714
0.043533493 0.012657361 -0.058981594 0.019129543 -0.11831095 -0.109091185 0.044717435 0.074398555
0.10752771 0.040438917 -0.038066603 -0.09892004 0.003888869 0.043853473 -0.0679821 -0.03203993
0.0784872 -0.093023226 0.03143579 0.025997633 -0.018536977 -0.06359242 -0.045196816 0.09236664
-0.06196099 0.004262537 -0.05671711 -0.11754494 -0.02016776 0.03656721 0.05131713 -0.017246071
0.10037812 -0.03681896 0.027392004 0.0020341447 -0.14188427 0.0786193 -0.05586843 -0.09310605
0.004479789 -0.052548677 -0.04118284 0.07689607 -0.022137996 -0.0068306844 -0.027855 0.071924575
0.05297326 0.121071704 0.024057643 -0.09347535 0.075382575 0.019121852 0.05586011 0.050585058
0.0006007949 0.040814433 0.096353665 0.06864879 0.07115399 -0.08892845 0.05247691 -0.0814164
-0.05805147 -0.04309764 -0.05009432 -7.25083e-05 0.11596335 -0.022303928 -0.0035327007 -0.10798593
-0.11219122 -0.15242237 0.03671362 0.07562529 -0.07335898 -0.12308917 -0.13255492 -0.07291342
0.08677635 -0.05404105 -0.041563924 -0.025531791 -0.14225326 -0.0622199 -0.07870972 0.059385404
-0.080800384 -0.04744582 -0.06405644 0.108940914 0.10130456 0.031099671 0.095743515 0.013858619
0.003571664 -0.0069711185 0.09649344 0.0017904745 -0.06486705 -0.0639615 -0.0075936303 -0.058313206
-0.04771967 -0.022023534 0.07070401 -0.052563485 -0.048067015 -0.026506236 -0.07833425 0.07645834
-0.083600216 0.09903381 0.07174943 0.099300586 -0.09599189 -0.04452391 0.085908234 0.06257922
-0.058213696 0.048721716 0.09056074 -0.002608798 -0.025398558 0.059916496 -0.034986757 0.0018935612
0.06625046 -0.115730375 0.11977562 -0.049119867 0.041051276 0.049088024 -0.021159897 0.024665277
-0.057451814 0.047293052 0.013813455 -0.047714632 -0.076272525 -0.123964265 -0.15773723 -0.054002445
-0.0062894737 -0.14487365 0.042686146 0.078587234 0.075860575 0.112602584 -0.036353473 0.09386959
-0.03394233 -0.03656905 0.091795966 0.09600652 0.0879062 -0.082571685 -0.036453396 0.0012898269
0.035856277 -0.05729429 -0.067753494 -0.07550873 -0.16400994 0.009818063 -0.00047396118 0.05247636
-0.054536093 0.097213045 0.121965036 0.08706437 -0.04833433 0.116985455 -0.007448163 0.088743344
0.029309014 -0.13786688 0.03007278 -0.027350046 -0.0045444407 0.03341846 -0.10196675 0.07242368
-0.050890785 -0.088079646 0.0018965355 0.07645709 0.0070511186 0.011260359 0.05625121 0.09972458
0.06414914 0.098834306 -0.042188656 0.13541752 0.013206192 0.0093269665 0.069421776 -0.062274933
-0.09431177 0.013139806 0.030413592 -0.060919575 -0.07826728 0.09040021 0.029084418 -0.10190782
0.16417576 -0.004549761 0.027041033 -0.036544878 -0.03317429 0.0066151163 -0.0816734 0.15414435
00000000: 4f68 993d 186e 07be c65f cabd 4b7e c0bd
00000010: af6a 803b 4e6c 53bd da8a c13d b33a d23d
00000020: e8c7 213d af3b 1fbc 5001 d1bb 7eac 333e
00000030: 6e20 38bd b382 f93c cd10 34bc a95e 92bd
00000040: 2c9f cfbc 24ae 3e3c 5c25 cf3d ce44 013e
00000050: 046e 6fbd db53 8bbb 78de 5d3c 3fe8 3dbd
00000060: 7820 e13d eea5 0abe 5ff7 d33d da55 47bc
00000070: fff8 3fbd 1063 503d d6bf 8a3d a3a6 483d
00000080: 1cc4 72bc 41b4 d23c e54a bc3d 8c10 efbd
00000090: 2b49 38bc 6a01 0c3c cf88 9e3d b622 ae3d
000000a0: 2d50 323d d260 4f3c af96 71bd 8fb5 9c3c
000000b0: 034d f2bd 336b dfbd a129 373d 455e 983d
000000c0: 7d37 dc3d 47a3 253d baeb 1bbd 9796 cabd
000000d0: 65dc 7e3b b39f 333d 333a 8bbd 4d3c 03bd
000000e0: e6bd a03d f682 bebd d1c2 003d fdf8 d43c
000000f0: dcda 97bc be3c 82bd 4c20 39bd b92a bd3d
00000100: cfca 7dbd c1ac 8b3b 3350 68bd 67bb f0bd
00000110: dc36 a5bc 80c7 153d e931 523d a247 8dbc
00000120: 0b93 cd3d 7acf 16bd 3265 e03c 494f 053b
00000130: 1c4a 11be 2803 a13d 4bd6 64bd 62ae bebd
00000140: 32cb 923b 483d 57bd 56af 28bd b07b 9d3d
00000150: be5a b5bc efd3 dfbb 2b30 e4bc 314d 933d
00000160: 7dfa 583d 71f4 f73d 8914 c53c 0170 bfbd
00000170: 2e62 9a3d 6ea5 9c3c 92cd 643d 4732 4f3d
00000180: aa7e 1d3a 092d 273d 1255 c53d bd97 8c3d
00000190: 2fb9 913d 1f20 b6bd 07f2 563d a4bd a6bd
000001a0: 61c7 6dbd 2787 30bd b42f 4dbd 990f 98b8
000001b0: 317e ed3d bab6 b6bc e284 67bb ba27 ddbd
000001c0: 83c4 e5bd 9c14 1cbe 0561 163d 6fe1 9a3d
000001d0: 3c3d 96bd 2d16 fcbd 7abc 07be a253 95bd
000001e0: cdb7 b13d 265a 5dbd ef3e 2abd 0c28 d1bc
000001f0: d7aa 11be 4bda 7ebd 9032 a1bd 1c3e 733d
00000200: ac7a a5bd 8c56 42bd 0630 83bd 6a1c df3d
00000210: c478 cf3d bdc4 fe3c 2d15 c43d 430f 633c
00000220: 9412 6a3b fb6d e4bb 5a9e c53d 5bae ea3a
00000230: 04d9 84bd 3ffe 82bd fdd3 f8bb d4d9 6ebd
00000240: b375 43bd b36a b4bc 44cd 903d cf4c 57bd
00000250: ebe1 44bd 9b23 d9bc b56d a0bd 3196 9c3d
00000260: 9736 abbd 3dd2 ca3d 5df1 923d 1b5e cb3d
00000270: 6597 c4bd b45e 36bd a8f0 af3d 8929 803d
00000280: 7c71 6ebd 6c90 473d e977 b93d 5ef8 2abb
00000290: a310 d0bc 006b 753d 464e 0fbd 5f31 f83a
000002a0: 52ae 873d 0c04 edbd ec4c f53d ea31 49bd
000002b0: 6225 283d 8610 493d 8557 adbc d60e ca3c
000002c0: 9852 6bbd 5cb6 413d d451 623c 6b70 43bd
000002d0: c534 9cbd fae0 fdbd de85 21be ab31 5dbd
000002e0: ee17 cebb c259 14be abd7 2e3d 58f2 a03d
000002f0: ca5c 9b3d 2f9c e63d 61e7 14bd b33e c03d
00000300: 1d07 0bbd 6ec9 15bd 86ff bb3d 119f c43d
00000310: 2a08 b43d 581b a9bd 2850 15bd 690f a93a
00000320: 08de 123d 6bad 6abd 58c2 8abd 52a4 9abd
00000330: 39f2 27be f1db 203c fe7d f8b9 74f1 563d
00000340: 3d61 5fbd a217 c73d cec8 f93d ce4e b23d
00000350: 38fa 45bd 1296 ef3d b80f f4bb 12bf b53d
00000360: 7519 f03c fa2c 0dbe 315b f63c 340d e0bc
00000370: 88e9 94bb cce1 083d f2d3 d0bd de52 943d
00000380: db72 50bd 1a63 b4bd 2c95 f83a 8995 9c3d
00000390: 120d e73b 5e7d 383c ab67 663d 673c cc3d
000003a0: a060 833d a469 ca3d 03ce 2cbd e4aa 0a3e
000003b0: c95e 583c 22d0 183c 012d 8e3d 0014 7fbd
000003c0: 8726 c1bd 5748 573c ed25 f93c ce86 79bd
000003d0: 984a a0bd bf23 b93d 7242 ee3c 0cb5 d0bd
000003e0: b11d 283e 2916 95bb 2885 dd3c 15b0 15bd
000003f0: c4e1 07bd 9ec3 d83b 6244 a7bd 04d8 1d3e

h.0.mha.W_k.bias f4 [64]
-0.013095422 0.10346155 -0.075205304 0.17385553 0.13115355 0.06424576 0.00042414264 -0.02312495
-0.11312644 0.016856212 0.3410074 -0.1871779 0.27422857 0.05998089 -0.41248864 -0.3003333
0.01877683 -0.3420658 -0.08799514 0.0046364963 0.058073204 -0.25020006 0.06218671 0.012983479
0.1497096 0.032171562 0.2096069 -0.09110684 -0.017461194 0.08219644 -0.16157348 0.037741143
-0.0011921145 -0.16773555 -0.092422135 0.05618973 0.14000456 -0.015192985 -0.036896978 0.024083085
-0.04419635 -0.12515226 0.06155704 0.03140297 -0.015363295 -0.078903034 0.03367104 0.10140299
0.06296487 0.1160887 -0.01852522 -0.05060581 -0.05259582 -0.11396724 0.034887884 0.061858945
0.09444623 0.1521989 0.15280922 -0.029536963 -0.00013941279 -0.01672147 -0.04308854 -0.040846176
00000000: 2e8e 56bc a6e3 d33d 3d05 9abd 2f07 323e
00000010: 1e4d 063e 4893 833d 765f de39 8970 bdbc
00000020: d6ae e7bd 0a16 8a3c 8698 ae3e 90ab 3fbe
00000030: b067 8c3e 86ae 753d b631 d3be 49c5 99be
00000040: ded1 993c 4023 afbe cc36 b4bd c0ed 973b
00000050: 2bde 6d3d 391a 80be 7eb7 7e3d a8b8 543c
00000060: 794d 193e 54c6 033d 31a3 563e 3996 babd
00000070: c70a 8fbc 9b56 a83d 8573 25be 7596 1a3d
00000080: ba40 9cba dec2 2bbe d147 bdbd 3427 663d
00000090: 5b5d 0f3e ffeb 78bc 4921 17bd e449 c53c
000000a0: 3b07 35bd ea27 00be 3c23 7c3d 67a0 003d
000000b0: 54b6 7bbc ea97 a1bd a5ea 093d 5fac cf3d
000000c0: baf3 803d eabf ed3d 34c2 97bc 0a48 4fbd
000000d0: b76e 57bd a867 e9bd 99e6 0e3d ce5f 7d3d
000000e0: 066d c13d 07da 1b3e 057a 1c3e 80f7 f1bc
000000f0: 562f 12b9 77fb 88bc 9c7d 30bd 524e 27bd

h.0.mha.W_v.weight f4 [64, 64]
0.076573454 0.051905595 0.1001465 -0.09053651 0.12871343 -0.0054930616 -0.07844091 0.10003902
-0.09427187 -0.0049333526 -0.08112089 0.026286667 -0.09083149 -0.05763347 0.04981555 -0.028734008
0.07121392 0.16081482 0.08849788 0.056450315 0.026888305 -0.08210301 0.09161505 -0.1380691
-0.006854258 0.021247702 -0.13952594 0.08467006 0.12820888 -0.07783291 0.055899654 -0.13349009
-0.061771475 -0.11096297 0.12493666 0.054947417 -0.06795623 -0.06861441 0.04149714 0.12047096
-0.07416077 -0.006226103 -0.04767423 -0.11304716 0.10731147 0.06517408 0.060090594 0.077549525
0.009959817 -0.041468773 0.10431738 -0.029652497 -0.07657588 -0.070800014 0.0007028302 0.066786446
0.098234564 0.0106544895 -0.03734204 0.023849629 0.07422231 -0.112497434 -0.03804532 -0.13863316
-0.03547326 -0.005745159 -0.009786287 -0.16333982 0.04991297 -0.021658173 0.008800393 -0.054965828
-0.00550721 0.03865406 -0.050219152 0.08119564 -0.04759059 0.006940562 0.014597132 -0.067500904
0.05074621 -0.038545027 0.09315226 -0.0069620158 0.119265586 -0.087450534 0.1082912 -0.03169849
0.09460801 -0.00071692566 -0.0650762 -0.112645455 0.04043239 -0.044554744 0.10888992 0.07133368
0.10830789 0.07000541 -0.08894127 -0.0010243148 -0.05008387 0.03372068 0.08266162 0.11462645
-0.022839222 0.12663479 0.02782139 0.10715457 0.0660114 -0.048084714 0.070611715 -0.0445683
0.00988067 0.056773193 -0.124119684 -0.035014965 -0.054802336 0.07767814 0.06477468 0.02234043
0.099713184 0.022586932 0.035063792 -0.026955185 -0.10067997 -0.02971382 0.07109572 0.05643995
0.043483343 -0.0767416 -0.034872733 0.11270623 -0.035073612 0.003683397 -0.008652256 -0.03910801
0.00485422 0.07773328 0.061428655 0.008172764 0.03676134 0.062181618 -0.029108346 -0.06290163
0.09108899 0.031405244 -0.039194833 0.0412395 -0.06794686 -0.05223732 0.040770844 0.068214014
-0.061192103 -0.04116738 -0.017753404 -0.054171313 -0.08196108 0.08960588 -0.11168704 -0.033830747
-0.035350934 -0.021425992 -0.03078876 -0.014631825 0.010158752 -0.011017367 0.09384388 0.08917973
0.034565363 -0.07078556 -0.015685003 -0.08201342 -0.063858785 0.10967101 0.05297368 0.11593041
0.0038943347 -0.13504757 -0.043523952 0.056838248 0.04490357 0.017429544 -0.023763018 -0.108391404
-0.0978086 0.062499315 0.08247701 0.1071734 0.116140254 0.057050772 0.08916145 0.027540948
0.038917873 0.04608119 0.05020106 0.052802786 -0.07152804 -0.05938903 -0.030036362 0.11538755
0.13268009 0.11850122 0.091908514 0.0007408318 -0.013055557 -0.076642014 0.044164307 -0.04447623
-0.034857515 0.06921588 0.0008410827 0.036581807 -0.12498735 -0.14149524 -0.0077159456 -0.03237006
0.098528236 -0.11137236 -0.062680274 -0.07257917 -0.08606331 0.024887502 0.104590975 -0.12080774
-0.119315125 -0.04890563 0.039253827 0.09793753 0.041265678 -0.12987003 -0.11358665 0.08893516
-0.016769625 0.01065517 0.094862774 -0.14775565 0.055041123 -0.03561357 -0.034586873 -0.060313936
-0.07454058 -0.0036953776 -0.028513612 -0.106882244 -0.0790606 0.0018431877 0.040060114 -0.055034317
-0.049780503 -0.05777255 -0.047290415 0.067914054 0.03476458 0.018133363 -0.041030888 -0.010455259
00000000: 8bd2 9c3d f69a 543d 9c19 cd3d 356b b9bd
00000010: 74cd 033e 24ff b3bb a1a5 a0bd 42e1 cc3d
00000020: 9c11 c1bd f6a7 a1bb b622 a6bd 2357 d73c
00000030: dc05 babd 1311 6cbd 640b 4c3d 9563 ebbc
00000040: 9bd8 913d a4ac 243e 603e b53d 7238 673d
00000050: dd44 dc3c 9f25 a8bd aca0 bb3d fc61 0dbe
00000060: af99 e0bb a90f ae3c e3df 0ebe 7f67 ad3d
00000070: 3049 033e dc66 9fbd 09f7 643d a0b1 08be
00000080: 1604 7dbd 8e40 e3bd cbde ff3d 8b10 613d
00000090: a32c 8bbd b685 8cbd e8f8 293d 7bb9 f63d
000000a0: 9ae1 97bd 5604 ccbb 0e46 43bd 4585 e7bd
000000b0: 1ec6 db3d fd79 853d 8e21 763d 49d2 9e3d
000000c0: 802e 233c 29db 29bd 5aa4 d53d cbe9 f2bc
000000d0: d1d3 9cbd 99ff 90bd 233e 383a 55c7 883d
000000e0: 342f c93d 2b90 2e3c f8f3 18bd 4c60 c33c
000000f0: de01 983d 0e65 e6bd 69d5 1bbd daf5 0dbe
00000100: 694c 11bd e341 bcbb aa56 20bc 8e42 27be
00000110: 8b71 4c3d 7b6c b1bc 862f 103c d923 61bd
00000120: d375 b4bb b853 1e3d 99b2 4dbd e649 a63d
00000130: 5aee 42bd a76d e33b cf28 6f3c ea3d 8abd
00000140: 42db 4f3d 64e1 1dbd 9dc6 be3d 9f21 e4bb
00000150: 8441 f43d 4419 b3bd c7c7 dd3d 47d6 01bd
00000160: d8c1 c13d 11f0 3bba ac46 85bd a9b2 e6bd
00000170: 6f9c 253d 097f 36bd ae01 df3d 6417 923d
00000180: 87d0 dd3d ff5e 8f3d d726 b6bd 4d42 86ba
00000190: be24 4dbd b21e 0a3d 7f4a a93d 46c1 ea3d
000001a0: 5219 bbbc 8dac 013e afe9 e33c db73 db3d
000001b0: fc30 873d 7af4 44bd e09c 903d 408d 36bd
000001c0: 89e2 213c 028b 683d 7632 febd da6b 0fbd
000001d0: 6a78 60bd b715 9f3d 96a8 843d 4703 b73c
000001e0: 6d36 cc3d 3b08 b93c 0d9f 0f3d 1fd1 dcbc
000001f0: 4d31 cebd 666a f3bc a29a 913d 942d 673d
00000200: 971b 323d b32a 9dbd b6d6 0ebd 86d2 e63d
00000210: 59a9 0fbd 2665 713b 31c2 0dbc b82f 20bd
00000220: 2610 9f3b a032 9f3d 9d9c 7b3d 0fe7 053c
00000230: 0f93 163d 27b2 7e3d a074 eebc 92d2 80bd
00000240: dd8c ba3d c9a2 003d c38a 20bd c0ea 283d
00000250: b927 8bbd cdf6 55bd 54ff 263d cab3 8b3d
00000260: 92a4 7abd 209f 28bd 966f 91bc bde2 5dbd
00000270: 36db a7bd 4a83 b73d 2dbc e4bd 1c92 0abd
00000280: 24cc 10bd 9085 afbc b638 fcbc 52ba 6fbc
00000290: e570 263c 3082 34bc 3831 c03d dda3 b63d
000002a0: 6994 0d3d 05f8 90bd d67d 80bc a7f6 a7bd
000002b0: 65c8 82bd 329b e03d eefa 583d ec6c ed3d
000002c0: 1838 7f3b e949 0abe 2c46 32bd 39cf 683d
000002d0: ceec 373d 67c8 8e3c a9aa c2bc 50fc ddbd
000002e0: e04f c8bd 48ff 7f3d b5e9 a83d ba7d db3d
000002f0: f1da ed3d 12ae 693d 479a b63d 8e9d e13c
00000300: 5968 1f3d a1bf 3c3d a09f 4d3d bc47 583d
00000310: 4b7d 92bd e941 73bd d10e f6bc 4f50 ec3d
00000320: 4add 073e c5b0 f23d 883a bc3d 6134 423a
00000330: fae6 55bc 7df6 9cbd a2e5 343d b52c 36bd
00000340: c1c6 0ebd 0ec1 8d3d 1b7c 5c3a ced6 153d
00000350: 5ef9 ffbd 21e4 10be 0bd6 fcbb 7896 04bd
00000360: 2cc9 c93d 3117 e4bd 845e 80bd 63a4 94bd
00000370: f641 b0bd e0e0 cb3c cb33 d63d 0c6a f7bd
00000380: 7d5b f4bd 4551 48bd 9fc8 203d 7993 c83d
00000390: 3306 293d a6fc 04be 1ea0 e8bd a323 b63d
000003a0: 7460 89bc 0693 2e3c 6a47 c23d 424d 17be
000003b0: cd72 613d 89df 11bd f7aa 0dbd bf0b 77bd
000003c0: bba8 98bd 262e 72bb 6195 e9bc 14e5 dabd
000003d0: 86ea a1bd 1e97 f13a 1316 243d aa6b 61bd
000003e0: a4e6 4bbd e9a2 6cbd 98b3 41bd 8616 8b3d
000003f0: 4e65 0e3d 6b8c 943c 0110 28bd 894c 2bbc

h.0.mha.W_v.bias f4 [64]
-0.0410953 0.02451746 -0.0073944293 0.05434065 -0.13753656 -0.07611796 -0.01749676 -0.14191939
-0.07980147 -0.08162935 -0.048132014 -0.17442323 0.14723757 0.062955 -0.14169724 0.014856315
-0.024354586 -0.116987176 -0.101301454 0.017011087 -0.039114047 -0.08154449 0.04532506 -0.013352052
-0.01827487 0.14656125 0.13570921 -0.032313183 0.04984025 0.15997791 0.030414216 0.16807586
-0.1480043 0.08872496 0.121540494 0.08684223 0.105709754 0.1393991 0.07131294 -0.064524315
-0.12362729 0.0358612 0.09078798 -0.07622958 -0.11531747 -0.022010982 -0.10093502 -0.07212314
-0.1289688 0.04655999 -0.15496619 -0.063088186 -0.15127769 -0.13210057 0.10201243 0.10412757
-0.10838434 -0.07462035 -0.14413214 0.09837671 0.16197342 -0.16363414 -0.0046282094 -0.04584733
00000000: 8c53 28bd d7d8 c83c f84c f2bb 4d94 5e3d
00000010: 62d6 0cbe bce3 9bbd 5d55 8fbc 5153 11be
00000020: f46e a3bd 4a2d a7bd 1326 45bd 019c 32be
00000030: 72c5 163e 8dee 803d 1519 11be e767 733c
00000040: 4583 c7bc f996 efbd 2377 cfbd d65a 8b3c
00000050: 0d36 20bd cc00 a7bd c5a6 393d 91c2 5abc
00000060: 2eb5 95bc 2714 163e 5bf7 0a3e d45a 04bd
00000070: 4a25 4c3d 40d1 233e 3c27 f93c 141c 2c3e
00000080: 708e 17be 6fb5 b53d 39ea f83d 57da b13d
00000090: 5b7e d83d a3be 0e3e 850c 923d 5325 84bd
000000a0: 4e30 fdbd 32e3 123d 0cef b93d 411e 9cbd
000000b0: 912b ecbd 6050 b4bc 05b7 cebd 4cb5 93bd
000000c0: 6610 04be b0b5 3e3d 75af 1ebe 6134 81bd
000000d0: 8ae8 1abe 5f45 07be e5eb d03d d640 d53d
000000e0: 9cf8 ddbd 8ed2 98bd 6097 13be bb79 c93d
000000f0: 5cdc 253e b58f 27be 3ca8 97bb 69ca 3bbd

h.0.mha.W_o.weight f4 [64, 64]
-0.12101161 -0.093363166 0.09455731 -0.03368241 0.07978523 -0.088292286 0.023735281 -0.001610201
0.06186195 0.013583905 -0.07521661 0.02396011 -0.051438548 0.017706778 -0.03814571 -0.03797779
0.057805087 -0.068718344 -0.1117445 -0.010778167 -0.16835994 -0.06348273 0.10163141 -0.14387459
-0.05251562 0.024444537 0.024673307 -0.03232465 -0.105298355 0.015365558 -0.08992705 -0.06981022
-0.08549774 -0.024293063 -0.120701894 -0.003044676 -0.03361067 0.11050257 0.0040836935 0.12454282
0.16223383 0.015524882 0.050591845 -0.044617012 -0.09320332 -0.049113814 -0.01818394 -0.08823115
0.14208919 -0.042113956 0.058697373 -0.057057347 -0.08631508 0.054526404 -0.0981353 0.056719083
-0.013067558 0.08422507 0.053968895 0.02309832 -0.12624374 -0.027189491 0.064941294 0.120205
0.11710922 0.0070630736 0.029016672 0.088828065 0.06476329 -0.08931139 -0.0010454415 -0.10752038
0.07534003 0.0022404508 0.08269246 -0.1338101 0.13550398 -0.089182705 -0.0054076617 0.13298483
-0.052552287 -0.008095588 0.08287791 -0.011814128 0.06442473 -0.109483644 -0.0116765415 0.07717258
0.021176916 -0.021875858 0.064001955 -0.011446033 -0.042538714 0.030252757 0.12304324 -0.053781383
0.02002733 -0.07450616 0.07151775 0.11787088 0.06289199 0.11946312 -0.061738797 0.03597801
-0.009649587 0.12023282 0.06245156 0.064555995 -0.112552 -0.03213486 0.10962479 -0.023454586
0.07791021 0.028301382 -0.100545384 -0.06506488 -0.0953735 0.09620534 -0.018718733 0.014797124
-0.012545436 -0.015251697 -0.099101946 -0.008172596 -0.025019297 -0.09751516 0.050258238 -0.018827919
0.06671677 0.11000073 -0.008890711 0.02900569 -0.008041908 0.019506946 0.051345695 -0.019841287
-0.08595778 0.023082456 0.009166014 0.031252142 -0.0049180104 0.1324507 0.14520332 -0.07609332
0.10573284 0.0056191334 0.07270676 0.10692982 -0.12762958 -0.065216936 -0.10679097 0.10347349
0.10394483 -0.02802635 -0.04872364 0.062397864 0.008034128 -0.037282486 -0.0423768 0.018762011
-0.06002156 0.04720322 -0.040886268 0.029251931 0.06465888 -0.02884918 0.11707139 -0.09206216
0.010352697 -0.046516024 -0.008563002 0.086172625 0.06850485 -0.00991614 -0.0975318 0.11565893
0.032433137 -0.02104389 0.0663238 0.0043764 0.05414675 -0.05232914 -0.05765353 -0.039762378
-0.060820505 -0.03972221 0.049052235 0.08825402 -0.01845982 0.085395604 -0.12560181 0.044698752
-0.00724638 -0.0391868 -0.032781284 0.10626883 -0.06259846 -0.12964416 0.1346563 0.022153419
0.045026865 0.026212359 0.106501214 0.06284863 -0.11293765 -0.045791052 -0.054225065 0.034874614
-0.02182501 0.021384345 0.1114129 -0.07800041 -0.07243282 0.117657736 0.011697674 0.09215634
-0.06921966 0.04870042 0.094214536 0.0731764 -0.051859654 -0.13548172 0.04346588 0.00077649654
-0.090801224 0.05531517 -0.02967405 -8.138179e-05 0.11666271 0.08375262 -0.09258108 0.08455905
-0.04946079 0.029616585 0.09047485 0.126084 -0.05586163 0.055173326 0.11787746 0.018541828
-0.13745573 0.04599018 -0.060288657 -0.03799423 0.02087128 0.03133093 0.013244487 -0.053989477
0.039604418 0.060373854 -0.14390272 -0.024594333 0.026922232 -0.07664635 -0.08143533 0.06597698
00000000: efd4 f7bd 3035 bfbd 43a7 c13d 91f6 09bd
00000010: 7066 a33d 96d2 b4bd 7e70 c23c 610d d3ba
00000020: f562 7d3d 078f 5e3c 2b0b 9abd fe47 c43c
00000030: 3ab1 52bd ce0d 913c ad3e 1cbd 998e 1bbd
00000040: 07c5 6c3d 34bc 8cbd 4dda e4bd e996 30bc
00000050: 8c66 2cbe 3c03 82bd 2124 d03d dc53 13be
00000060: 9e1a 57bd e93f c83c ad1f ca3c da66 04bd
00000070: aaa6 d7bd d2bf 7b3c ac2b b8bd a9f8 8ebd
00000080: 7019 afbd 3f02 c7bc 8e32 f7bd 3089 47bb
00000090: 58ab 09bd 2c4f e23d 81d0 853b 4e10 ff3d
000000a0: a020 263e 135c 7e3c 6539 4f3d 54c0 36bd
000000b0: 62e1 bebd 912b 49bd 7cf6 94bc 88b2 b4bd
000000c0: d47f 113e af7f 2cbd a86c 703d f7b4 69bd
000000d0: f6c5 b0bd 1457 5f3d 29fb c8bd 4552 683d
000000e0: 5019 56bc 327e ac3d 7d0e 5d3d b038 bd3c
000000f0: 0a46 01be 7fbc debc f1ff 843d 0a2e f63d
00000100: f5d6 ef3d 5b71 e73b 5fb4 ed3c 7deb b53d
00000110: 9ea2 843d e4e8 b6bd 3207 89ba a533 dcbd
00000120: e04b 9a3d 87d4 123b aa5a a93d 8405 09be
00000130: 8ec1 0a3e 6ca5 b6bd c132 b1bb 2d2d 083e
00000140: 1141 57bd 5ba3 04bc e5bb a93d 0b90 41bc
00000150: 1df1 833d f638 e0bd f74e 3fbc a80c 9e3d
00000160: 367b ad3c 0035 b3bc 7513 833d 2488 3bbc
00000170: 133d 2ebd a1d4 f73c 18fe fb3d de49 5cbd
00000180: 5b10 a43c b096 98bd e677 923d 4a66 f13d
00000190: 84cd 803d 15a9 f43d d2e1 7cbd ae5d 133d
000001a0: 4d19 1ebc a03c f63d 35cd 7f3d ef35 843d
000001b0: aa81 e6bd d89f 03bd f682 e03d d523 c0bc
000001c0: 638f 9f3d 4dd8 e73c bdea cdbd bc40 85bd
000001d0: 2e53 c3bd 4e07 c53d 0758 99bc a36f 723c
000001e0: 5f8b 4dbc 41e2 79bc f6f5 cabd 5ae6 05bc
000001f0: 45f5 ccbc 07b6 c7bd 95db 4d3d 023d 9abc
00000200: cda2 883d 1048 e13d 58aa 11bc 579d ed3c
00000210: 35c2 03bc 08cd 9f3c dd4f 523d 328a a2bc
00000220: a20a b0bd 6b17 bd3c 0d2d 163c 3f02 003d
00000230: 4327 a1bb 28a1 073e 2eb0 143e d1d6 9bbd
00000240: 768a d83d b520 b83b 48e7 943d 05fe da3d
00000250: 54b1 02be 7590 85bd 39b5 dabd e9e9 d33d
00000260: 07e1 d43d 8497 e5bc 7192 47bd e794 7f3d
00000270: 93a1 033c 85b5 18bd 4c93 2dbd cab2 993c
00000280: 2bd9 75bd 2a58 413d 5c78 27bd bfa1 ef3c
00000290: e06b 843d 1e55 ecbc 20c3 ef3d 168b bcbd
000002a0: 5c9e 293c 9687 3ebd d54b 0cbc 467b b03d
000002b0: 454c 8c3d 4e77 22bc c1be c7bd 97de ec3d
000002c0: 9cd8 043d 3c64 acbc c6d4 873d e767 8f3b
000002d0: fcc8 5d3d 1557 56bd 1c26 6cbd e0dd 22bd
000002e0: ec1e 79bd c2b3 22bd ffea 483d 86be b43d
000002f0: 0c39 97bc e4e3 ae3d c39d 00be 0a16 373d
00000300: 0b73 edbb 5782 20bd ab45 06bd 79a3 d93d
00000310: 9f33 80bd 70c1 04be 57e3 093e 167b b53c
00000320: 176e 383d 4dbb d63c 4f1d da3d c8b6 803d
00000330: db4b e7bd 668f 3bbd 1a1b 5ebd afd8 0e3d
00000340: 5dca b2bc 392e af3c 722c e43d aebe 9fbd
00000350: a957 94bd 8af6 f03d 9aa7 3f3c 77bc bc3d
00000360: 09c3 8dbd 177a 473d 8df3 c03d 82dd 953d
00000370: ca6a 54bd b8bb 0abe 4709 323d cd8d 4b3a
00000380: fef5 b9bd 2992 623d fe16 f3bc 84ab aab8
00000390: dcec ee3d 7e86 ab3d 269b bdbd 4c2d ad3d
000003a0: 6697 4abd 7b9e f23c e14a b93d 2a1c 013e
000003b0: 2acf 64bd 6dfd 613d bd69 f13d 08e5 973c
000003c0: 32c1 0cbe 3360 3c3d 3df1 76bd d69f 1bbd
000003d0: 3ffa aa3c dc54 003d 68ff 583c 1224 5dbd
000003e0: 3e38 223d 934a 773d 3c5b 13be 0e7a c9bc
000003f0: 038c dc3c c3f8 9cbd 91c7 a6bd f01e 873d

h.0.mha.W_o.bias f4 [64]
-0.13874406 0.082001835 0.08136612 -0.07051988 0.15090324 -0.07058873 -0.072428994 0.07013323
-0.048185464 0.14394543 -0.07374568 0.03400888 -0.09008351 0.12991929 -0.033923086 0.15273549
0.05130895 0.05073124 0.09944125 -0.027975263 -0.091335975 0.091209695 -0.050421283 0.06816939
-0.06684206 0.10369985 0.042498097 -0.07447396 -0.066852234 0.11478159 -0.0048311413 0.06818161
0.11741513 -0.12264609 -0.09454303 0.11050912 0.012901208 -0.0935336 -0.11884311 0.022266489
-0.09189577 -0.036465116 -0.15350473 -0.07221035 -0.12094444 0.059312787 -0.043390237 0.03697897
-0.05959512 0.06316131 0.143807 0.0139618 -0.08652024 0.020998009 0.031417135 -0.16532895
0.09445076 0.054013062 0.1220598 0.020761149 -0.0783599 0.023290569 0.16685043 -0.052780807
00000000: ec12 0ebe 94f0 a73d 48a3 a63d ba6c 90bd
00000010: 6186 1a3e d390 90bd a755 94bd 03a2 8f3d
00000020: 1f5e 45bd 6e66 133e fa07 97bd e54c 0b3d
00000030: b47d b8bd 9009 053e eff2 0abd b166 1c3e
00000040: 5529 523d 90cb 4f3d dba7 cb3d 612c e5bc
00000050: 5b0e bbbd 26cc ba3d 8c86 4ebd 659c 8b3d
00000060: 7de4 88bd 9660 d43d 7c12 2e3d ce85 98bd
00000070: d3e9 88bd 9c12 eb3d 8d4e 9ebb cda2 8b3d
00000080: 5877 f03d e02d fbbd c79f c1bd 9b52 e23d
00000090: 975f 533c 8b8e bfbd 0464 f3bd 3668 b63c
000000a0: d933 bcbd 725c 15bd 5830 1dbe 05e3 93bd
000000b0: b8b1 f7bd f7f1 723d f6b9 31bd 4377 173d
000000c0: 031a 74bd b85a 813d 2442 133e 09c0 643c
000000d0: 8631 b1bd 0404 ac3c 41af 003d fe4b 29be
000000e0: 666f c13d cd3c 5d3d 7dfa f93d 4913 aa3c
000000f0: 287b a0bd ddcb be3c d7da 2a3e b030 58bd

h.0.ln_1.weight f4 [64]
0.9404047 0.9691806 1.0112787 1.0569255 1.032812 0.98153037 0.98814386 0.9879582
0.97740906 0.98094445 0.99002004 1.0211197 0.98666567 1.0125138 0.9827497 1.0216357
0.9914731 1.0056585 0.9721269 0.9703715 0.9991442 0.97190946 0.9809623 1.0364745
0.96455216 0.98976403 0.9947743 0.97648215 0.9845359 0.9870412 0.95262647 0.9958221
0.97840303 0.9820243 0.96758616 1.041896 1.0055125 0.95478 0.9718763 0.99366534
0.9645282 0.97853494 1.0007961 1.0023495 0.9933751 1.0206709 0.99126077 0.9404647
0.9743776 0.9968196 1.0101049 1.009836 0.9776325 1.0114971 0.9621722 0.9943369
1.005358 1.0087581 0.9943088 0.9517565 0.9557028 0.9494103 1.0180156 0.97009706
00000000: 5dbe 703f 381c 783f 9571 813f 5649 873f
00000010: 2f33 843f 9345 7b3f fff6 7c3f d4ea 7c3f
00000020: 7b37 7a3f 2d1f 7b3f f471 7d3f 0db4 823f
00000030: 1f96 7c3f 0d9a 813f 7c95 7b3f f5c4 823f
00000040: 2ed1 7d3f 6bb9 803f 4fdd 783f 446a 783f
00000050: eac7 7f3f 0fcf 783f 5820 7b3f 32ab 843f
00000060: e4ec 763f 2d61 7d3f 87a9 7e3f bcfa 793f
00000070: 8b0a 7c3f bbae 7c3f 54df 733f 32ee 7e3f
00000080: 9f78 7a3f f265 7b3f bab3 773f d95c 853f
00000090: a2b4 803f 766c 743f e3cc 783f da60 7e3f
000000a0: 52eb 763f 4481 7a3f 161a 803f fd4c 803f
000000b0: d54d 7e3f 58a5 823f 44c3 7d3f 4bc2 703f
000000c0: cf70 793f 922f 7f3f 1e4b 813f 4e42 813f
000000d0: 2046 7a3f bd78 813f eb50 763f dd8c 7e3f
000000e0: 92af 803f fc1e 813f 068b 7e3f 50a6 733f
000000f0: f0a8 743f 8e0c 733f 564e 823f 4858 783f

h.0.ln_1.bias f4 [64]
0.0129719805 0.014731855 -0.048430115 -0.014422578 0.06211992 0.004250079 0.066930056 0.036936693
-0.031761967 0.023949724 -0.033944216 0.057478283 -0.05354515 0.059087433 0.016626498 0.002941693
-0.03008497 0.0045173597 0.051959727 -0.0347952 0.009972179 0.024142556 -0.030391937 -0.05483989
-0.0109214485 0.045325562 -0.038813535 -0.024087612 0.005242509 0.023701064 0.01962419 0.017935267
0.0017097084 -0.035380326 0.0126897525 0.013295554 -0.02808884 0.05580247 -0.046061553 0.039615903
0.057027686 -0.005275336 -0.031033978 0.017768523 0.03014654 -0.036176417 -0.06568732 -0.04664732
-0.008147685 -0.04610547 0.007566423 0.015501207 -0.024950298 0.035472393 0.08028542 -0.040242985
0.03815322 -0.04599157 -0.032713342 -0.0005669158 0.0037129947 -0.028783487 -0.038364302 -0.0155629255
00000000: 6e88 543c e15d 713c a85e 46bd ad4c 6cbc
00000010: 7571 7e3d 3f44 8b3b a012 893d ee4a 173d
00000020: d618 02bd 3632 c43c 1709 0bbd 596e 6b3d
00000030: 2952 5bbd aa05 723d 4b34 883c 6bc9 403b
00000040: c174 f6bc 5c06 943b b9d3 543d 6985 0ebd
00000050: 5a62 233c 9cc6 c53c 83f8 f8bc cb9f 60bd
00000060: e0ef 32bc 4ca7 393d f1fa 1ebd 6253 c5bc
00000070: 5ac9 ab3b bc28 c23c e9c2 a03c fbec 923c
00000080: 4b18 e03a f6ea 10bd aee8 4f3c 98d5 593c
00000090: 911a e6bc 2191 643d 0aab 3cbd 4944 223d
000000a0: dd95 693d badc acbb f83a febc 4b8f 913c
000000b0: e0f5 f63c b92d 14bd 1387 86bd 4311 3fbd
000000c0: de7d 05bc 17d9 3cbd c2ef f73b c6f8 7d3c
000000d0: 9164 ccbc 804b 113d af6c a43d d4d5 24bd
000000e0: 8d46 1c3d a861 3cbd 6dfe 05bd 139d 14ba
000000f0: b755 733b 59cb ebbc e323 1dbd a4fb 7ebc

h.0.ln_2.weight f4 [64]
1.0 1.0 1.0 1.0 1.0 1.0 1.0 1.0
1.0 1.0 1.0 1.0 1.0 1.0 1.0 1.0
1.0 1.0 1.0 1.0 1.0 1.0 1.0 1.0
1.0 1.0 1.0 1.0 1.0 1.0 1.0 1.0
1.0 1.0 1.0 1.0 1.0 1.0 1.0 1.0
1.0 1.0 1.0 1.0 1.0 1.0 1.0 1.0
1.0 1.0 1.0 1.0 1.0 1.0 1.0 1.0
1.0 1.0 1.0 1.0 1.0 1.0 1.0 1.0
00000000: 0000 803f 0000 803f 0000 803f 0000 803f
00000010: 0000 803f 0000 803f 0000 803f 0000 803f
00000020: 0000 803f 0000 803f 0000 803f 0000 803f
00000030: 0000 803f 0000 803f 0000 803f 0000 803f
00000040: 0000 803f 0000 803f 0000 803f 0000 803f
00000050: 0000 803f 0000 803f 0000 803f 0000 803f
00000060: 0000 803f 0000 803f 0000 803f 0000 803f
00000070: 0000 803f 0000 803f 0000 803f 0000 803f
00000080: 0000 803f 0000 803f 0000 803f 0000 803f
00000090: 0000 803f 0000 803f 0000 803f 0000 803f
000000a0: 0000 803f 0000 803f 0000 803f 0000 803f
000000b0: 0000 803f 0000 803f 0000 803f 0000 803f
000000c0: 0000 803f 0000 803f 0000 803f 0000 803f
000000d0: 0000 803f 0000 803f 0000 803f 0000 803f
000000e0: 0000 803f 0000 803f 0000 803f 0000 803f
000000f0: 0000 803f 0000 803f 0000 803f 0000 803f

h.0.ln_2.bias f4 [64]
0.0 0.0 0.0 0.0 0.0 0.0 0.0 0.0
0.0 0.0 0.0 0.0 0.0 0.0 0.0 0.0
0.0 0.0 0.0 0.0 0.0 0.0 0.0 0.0
0.0 0.0 0.0 0.0 0.0 0.0 0.0 0.0
0.0 0.0 0.0 0.0 0.0 0.0 0.0 0.0
0.0 0.0 0.0 0.0 0.0 0.0 0.0 0.0
0.0 0.0 0.0 0.0 0.0 0.0 0.0 0.0
0.0 0.0 0.0 0.0 0.0 0.0 0.0 0.0
00000000: 0000 0000 0000 0000 0000 0000 0000 0000
00000010: 0000 0000 0000 0000 0000 0000 0000 0000
00000020: 0000 0000 0000 0000 0000 0000 0000 0000
00000030: 0000 0000 0000 0000 0000 0000 0000 0000
00000040: 0000 0000 0000 0000 0000 0000 0000 0000
00000050: 0000 0000 0000 0000 0000 0000 0000 0000
00000060: 0000 0000 0000 0000 0000 0000 0000 0000
00000070: 0000 0000 0000 0000 0000 0000 0000 0000
00000080: 0000 0000 0000 0000 0000 0000 0000 0000
00000090: 0000 0000 0000 0000 0000 0000 0000 0000
000000a0: 0000 0000 0000 0000 0000 0000 0000 0000
000000b0: 0000 0000 0000 0000 0000 0000 0000 0000
000000c0: 0000 0000 0000 0000 0000 0000 0000 0000
000000d0: 0000 0000 0000 0000 0000 0000 0000 0000
000000e0: 0000 0000 0000 0000 0000 0000 0000 0000
000000f0: 0000 0000 0000 0000 0000 0000 0000 0000

h.1.mha.W_q.weight f4 [64, 64]
0.015661001 0.07904017 0.013267236 -0.055065166 0.006673609 -0.11341091 0.084242225 0.11094059
-0.10397537 -0.04231616 -0.008686054 -0.02637975 0.00997107 -0.03285541 0.016097417 0.13791047
-0.07897445 -0.082488835 0.03644015 -0.07034465 0.022767015 0.09660853 0.09107459 -0.12129935
0.005319342 -0.05219857 0.040586893 0.077511646 -0.13095447 0.10893224 0.012037673 0.013831873
0.0668119 -0.11582637 -0.09169074 0.042598177 -0.154365 -0.022904163 -0.098139785 0.04162209
-0.043465987 -0.017064957 -0.039999302 0.053600397 -0.007989911 -0.012471009 -0.07045731 0.03765879
-0.06961252 -0.108011745 0.11645587 0.02782844 -0.07075003 0.0272392 0.15544821 -0.107933015
-0.08660287 -0.07224924 -0.10378134 0.013780938 0.100060344 0.018079909 0.08922642 -0.118113935
0.060786963 0.12717763 0.07540084 -0.014772003 -0.08749827 -0.1349316 -0.026184348 -0.07779701
0.05639905 -0.014017349 0.074775994 0.0017981704 -0.07200533 0.052698765 -0.12381729 -0.033016324
0.003916982 0.018735845 0.02741218 -0.08368375 0.08313213 -0.070949875 0.09567292 -0.07703536
0.05470782 0.1770413 -0.14384283 0.051800255 -0.05887417 -0.061119948 -0.124156885 0.018543761
-0.016914604 0.09722336 0.09236237 -0.0015162996 -0.07448577 -0.053543583 0.02485982 -0.13570885
-0.007319792 0.074365005 0.055763233 0.024905464 0.07615832 -0.057193246 -0.117941335 0.07939887
-0.011575273 -0.077876076 0.021354182 -0.0063341837 0.015905183 -0.12386244 -0.03617446 0.04045694
0.09642396 -0.033168785 -0.024244083 0.03562289 -0.0337861 -0.06204285 0.054039933 0.10700761
0.10399288 -0.00699434 -0.042623635 0.06237166 -0.049458023 -0.109996736 -0.020777922 0.011031941
0.03172135 -0.12016919 0.07519215 0.0849524 0.1418016 0.0015375445 -0.022261493 -0.069498435
0.10183827 0.008871949 0.0713224 -0.09512418 -0.063220434 0.066903636 0.0033990717 -0.04096762
-0.083484 0.11683454 -0.050609604 0.04637616 -0.10069769 0.05502203 -0.0018004982 -0.055745706
-0.027793733 0.028206274 0.007868014 0.07318292 0.040963367 -0.056178562 -0.1004594 -0.10895731
0.03513603 -0.010380697 -0.0058835875 0.08705278 -0.033800703 0.1051361 -0.014255239 0.093100026
0.1380451 -0.0070898845 0.037109554 -0.006559291 -0.015198171 0.020140667 -0.08925697 0.09970791
0.026310718 -0.10610623 0.03341665 0.00012515321 0.028787736 -0.083515875 0.11870228 -0.13892595
-0.10249002 -0.12873039 -0.0740282 0.103243165 0.057687603 -0.11878022 -0.014369396 0.004423307
-0.06371344 -0.018842159 -0.0033186523 -0.045585006 0.016822407 -0.04211131 0.0551339 0.11995157
-0.11544282 -0.11282437 -0.047858983 -0.14263727 -0.028957153 -0.080174424 -0.0016862701 -0.06187697
0.07708723 0.005171613 -0.030878782 -0.06196972 0.06020568 -0.055757955 -0.046795726 -0.052228305
0.079327576 0.0958414 0.060367536 -0.015540804 0.02521232 0.08480937 0.055522043 0.08958387
0.12071855 -0.08487103 -0.04982516 -0.08953057 0.09702084 0.12749016 0.09574962 0.08129509
-0.14070521 0.047986917 0.054019123 -0.025381193 -0.025734175 -0.10301117 -0.10866375 -0.0770592
0.07810813 0.12544675 0.02907468 -0.0027220505 -0.06236528 0.06611411 -0.08736703 -0.07615587
00000000: 804b 803c d0df a13d d25e 593c 038c 61bd
00000010: 4aae da3b fb43 e8bd 3087 ac3d d234 e33d
00000020: 0af1 d4bd b653 2dbd f34f 0ebc 581a d8bc
00000030: b35d 233c 6593 06bd bbde 833c 6738 0d3e
00000040: 5bbd a1bd e8ef a8bd 4442 153d db10 90bd
00000050: e481 ba3c b1da c53d 5185 ba3d cb6b f8bd
00000060: e04d ae3b 2bce 55bd 713e 263d 6dbe 9e3d
00000070: ee18 06be de17 df3d a939 453c 159f 623c
00000080: add4 883d 6036 edbd 5bc8 bbbd 6d7b 2e3d
00000090: dc11 1ebe 83a1 bbbc 83fd c8bd ed7b 2a3d
000000a0: 6409 32bd cfcb 8bbc 4fd6 23bd 178c 5b3d
000000b0: 1ee8 02bc 3453 4cbc ec4b 90bd 1a40 1a3d
000000c0: 0291 8ebd 4335 ddbd 6a80 ee3d 78f8 e33c
000000d0: 64e5 90bd be24 df3c d12d 1f3e fc0b ddbd
000000e0: d85c b1bd 69f7 93bd 508b d4bd 72c9 613c
000000f0: 70ec cc3d 511c 943c 57bc b63d b8e5 f1bd
00000100: c0fb 783d da3a 023e c16b 9a3d 4506 72bc
00000110: 4b32 b3bd 822b 0abe 8f80 d6bc 0a54 9fbd
00000120: b102 673d 06a9 65bc 2824 993d 96b0 eb3a
00000130: 8877 93bd a9da 573d eb93 fdbd 203c 07bd
00000140: 075a 803b ea7b 993c 828f e03c 6362 abbd
00000150: 2e41 aa3d 2b4e 91bd 2af0 c33d b7c4 9dbd
00000160: 4f15 603d 514a 353e 894b 13be 812c 543d
00000170: 0b26 71bd e958 7abd f745 febd 16e9 973c
00000180: 7f90 8abc 0a1d c73d 7b28 bd3d 92be c6ba
00000190: ff8b 98bd 8450 5bbd d2a6 cb3c 43f7 0abe
000001a0: deda efbb ae4c 983d fd67 643d 8b06 cc3c
000001b0: e5f8 9b3d 7743 6abd 3a8b f1bd e09b a23d
000001c0: 37a6 3dbc 7e7d 9fbd f7ee ae3c fc8e cfbb
000001d0: 964b 823c 97ab fdbd ac2b 14bd 2db6 253d
000001e0: ed79 c53d fedb 07bd 879b c6bc 4fe9 113d
000001f0: 4b63 0abd a520 7ebd fa58 5d3d ce26 db3d
00000200: 38fa d43d c730 e5bb 1f96 2ebd 6d79 7f3d
00000210: 7f94 4abd f845 e1bd 7636 aabc 50bf 343c
00000220: 3fee 013d 441b f6bd 58fe 993d 86fb ad3d
00000230: 7034 113e 6f87 c93a bc5d b6bc 3255 8ebd
00000240: 9590 d03d a75b 113c 7a11 923d 77d0 c2bd
00000250: b779 81bd c604 893d f6c2 5e3b aacd 27bd
00000260: a9f9 aabd f346 ef3d 044c 4fbd eef4 3d3d
00000270: 973a cebd c85e 613d b2fe ebba 9c55 64bd
00000280: afaf e3bc d810 e73c d8e8 003c ede0 953d
00000290: 34c9 273d 7e1b 66bd a8bd cdbd 0325 dfbd
000002a0: ccea 0f3d cd13 2abc 1ccb c0bb ba48 b23d
000002b0: 9b72 0abd 9851 d73d ce8e 69bc 3aab be3d
000002c0: b25b 0d3e 4352 e8bb 3000 183d 52ef d6bb
000002d0: c001 79bc 0afe a43c 5ccc b6bd a933 cc3d
000002e0: 9389 d73c 394e d9bd e6df 083d 8f3b 0339
000002f0: 42d4 eb3c 5f0a abbd 2e1a f33d 9b42 0ebe
00000300: 4ae6 d1bd e6d1 03be 199c 97bd 2771 d33d
00000310: d649 6c3d 0b43 f3bd 9d6d 6bbc 63f1 903b
00000320: 317c 82bd df5a 9abc bf7d 59bb 58b7 3abd
00000330: 25cf 893c e97c 2cbd 16d4 613d 2ba9 f53d
00000340: 496d ecbd 7710 e7bd c807 44bd 810f 12be
00000350: 8d37 edbc 7d32 a4bd d605 ddba b572 7dbd
00000360: e9df 9d3d a276 a93b 80f5 fcbc f6d3 7dbd
00000370: 3b9a 763d 7462 64bd e0ac 3fbd 59ed 55bd
00000380: 7f76 a23d 7f48 c43d f343 773d db9e 7ebc
00000390: 118a ce3c 89b0 ad3d 156b 633d bf77 b73d
000003a0: 4a3b f73d ddd0 adbd 7815 4cbd ce5b b7bd
000003b0: ddb2 c63d c88c 023e 6018 c43d 0a7e a63d
000003c0: 0715 10be ee8d 443d 2843 5d3d 38ec cfbc
000003d0: 7ad0 d2bc 85f7 d2bd 1a8b debd 37d1 9dbd
000003e0: 28f7 9f3d 1d75 003e 062e ee3c 6e64 32bb
000003f0: bc72 7fbd d666 873d 7ced b2bd 9cf7 9bbd
