subspace-alignment/data/1_layer_32_vocab/ckpt_2400.pt (torch, 90637 bytes, 17 tensors)

embed.embed.weight f4 [32, 64]
00000000: c37d 26be ceba 243f 9b71 1d3f ca44 123e
00000010: b812 babc 6e6a 2abf 636c 9bbf d83c 2ebd
00000020: 1159 fdbe cda8 723e daeb c4bf 655d bb3e
00000030: a99e 65be 5d14 58bf 7b28 683f 8efe c53c
00000040: d86a 4f3e 57c1 753d 5f29 4c3f a263 32bf
00000050: 071d 0fbf 4adb c83f 8514 b53f 4caf 81bf
00000060: bb24 08c0 f304 b83f 4176 53bf 21a1 0740
00000070: bf4f 5c3f df04 353f ad77 08bf bbe7 0c3f
00000080: 275d 6f3f 67a2 5cbf 7fd2 b13e 11dc 7fbf
00000090: c353 99bf 2ed9 203f 7711 60bf 49ea 2d3f
000000a0: 8554 dbbf 72f2 6abf 41eb 603e 5958 3c3f
000000b0: 2083 9f3f 5655 4b3f 0f41 e6be 089c 28bf
000000c0: dee3 58bf 81d3 c8bf 6cce f6bd 7302 b7be
000000d0: a6e2 c13e ac0a 8f3f add1 a13d 0ef5 6ebf
000000e0: 35e3 bf3e 73fa 03bf 75d2 9dbf 0e87 c9bf
000000f0: e863 f93e 9087 9ebe 0b59 75bc d4c1 573f
00000100: abf8 1c3f 9a28 9bbf f523 93bf 7a9e 073e
00000110: 89e8 f93f 9274 8cbf ff8c 90be d717 06bf
00000120: dcc3 a33e 5ed1 9fbe 0f07 023e e898 de3e
00000130: 760f d83e 7c3f c03e a38b 8f3d 2140 593f
00000140: 603c a13f 2f2c 06bf d58d 8f3f 6fc9 a23e
00000150: ebbb 8c3e 56fd d6be 2cde d13f 13fb 033f
00000160: 308c 833d d300 703f 593b a7bf 7328 d43e
00000170: 6ace febf 1417 fe3f 1ebb 7a3e 7c48 94bf
00000180: a055 a5bf 4709 aabf bf76 163f 8763 edbc
00000190: 9e44 703f 96fc 4f3f 1a0e 983f f52c 1e3e
000001a0: b322 9cbf cf7c 09be 4d8a 893f aff8 e23e
000001b0: 7403 12bf cbfb f8bd 6f51 afbf b5bd b3bf
000001c0: 7b82 94be 34e1 b4bd 7c91 973f bd33 98bb
000001d0: ebdf 39bf b63e e83d 4360 a03e b506 78bf
000001e0: 1dee 813d 7760 6bbf 66c1 91be e161 17be
000001f0: 3a78 eb3e fe0f 18c0 d2ca 71bf e974 e03e
00000200: 7919 5b3f 15e0 6b3f 10c4 cabe 06df 82be
00000210: ff2e 39be 6de1 3c3f 33d2 13bf a1a9 c2bf
00000220: 1494 a73e 1d5d 72bf 63fa bb3e 38a0 d4be
00000230: 746b 28bf 7e08 4d3f 11ff a23e 347d cf3e
00000240: 72ad 39bf 16a2 5fbf 7f0a e8bf b392 46bf
00000250: ad9f 493e de32 9e3f e8a4 7bbf 80d9 11bf
00000260: 4e85 c33e ce08 e63e 51e3 17bf 8f30 363e
00000270: c32c 8ebf 1330 c83f 9459 973f 1e67 f73e
00000280: 859a 5fbf 04c1 ff3e e3ee b33e f3a4 953f
00000290: 7f4d 8ebf 827f c8bf 670c ddbe 87ed 1d40
000002a0: 11b9 16bf fac7 7abf 122b 093d 0ef1 993d
000002b0: f005 28bd 40ca 5abf bdda 5d3f f2d1 70be
000002c0: 45b8 81be e907 9bbf ccb5 0b40 fbb5 71bd
000002d0: ecf9 5d3e 82bc 13bf 4540 ddbf 8a8b eabe
000002e0: 56d2 3b3f e61c 50bd ab6a 12bf 5e58 6f3f
000002f0: d0a2 1cc0 5cbb 0b3f 876f 913e 29b8 8e3e
00000300: b90c a9bf f96f 8e3f c6ff a73d 0786 1dbe
00000310: 63e2 cabf 3df1 f6be eeea b53f 4f0d 033f
00000320: 8c41 acbf 93c6 a1bf 40d0 ebbf 941c 94be
00000330: 1c9d 2cc0 49ad 1840 f052 a6bf 61a6 f03e
00000340: e9e0 dc3e fe50 9abe 36c6 573f 124b 963e
00000350: e973 513f f48b 35bf b485 b8bf 35e6 333f
00000360: 81b7 00c0 c56b bd3f 583e 483e 63de 133f
00000370: ef77 af3e 80dd b1be fa32 bebe 68a8 773f
00000380: da33 543f 3339 483f 587a 44bf 7e8f 6abf
00000390: 9c94 80bb 99c0 5bbf b41b e53e 1933 b23f
000003a0: e8e3 de3f dea2 86bd 7cb3 72bf c7bb 5e3f
000003b0: e525 693f 1e4f e53f 890a 3a3f 9edb 4a3f
000003c0: b0dd 513f 939a 45bf f515 f83e 0086 953d
000003d0: 1f8c b9bf d6c9 983f cccb c53e d750 0dbf
000003e0: a972 c63e 6e62 9f3f 5c7d 39c0 a21f 95be
000003f0: 8eca 6a3d e693 1bbf fdfb 50bf 8350 5fbd
-0.16258912 0.6434754 0.61501473 0.14284053 -0.022714004 -0.6656865 -1.2142452 -0.042538494
-0.49482015 0.23697205 -1.5384476 0.36594692 -0.22423805 -0.8440607 0.9068677 0.024169233
0.20255601 0.059998836 0.7975063 -0.6968328 -0.5590367 1.5691922 1.4146887 -1.0131621
-2.1272418 1.437651 -0.82602316 2.1192095 0.8605918 0.7071056 -0.5330761 0.5504109
0.93501514 -0.86185306 0.34730908 -0.9994517 -1.1978687 0.6283139 -0.8752665 0.67935616
-1.7135168 -0.9177619 0.21964742 0.7357231 1.2461891 0.7942709 -0.4497151 -0.65863085
-0.847227 -1.5689546 -0.120510906 -0.35744056 0.37868232 1.1175132 0.079013206 -0.93342674
0.37478033 -0.5155403 -1.2329851 -1.574434 0.48709035 -0.309628 -0.014974843 0.84280133
0.6131694 -1.2121766 -1.1495348 0.13244048 1.9524089 -1.0973074 -0.2823257 -0.52380127
0.31985366 -0.31214422 0.12698005 0.43476033 0.42199296 0.37548435 0.070090555 0.8486348
1.259655 -0.5241117 1.1215159 0.31794307 0.2748712 -0.41990155 1.6395926 0.51554984
0.06423223 0.9375126 -1.3064986 0.4143711 -1.9906743 1.9850793 0.24485442 -1.158462
-1.2916756 -1.3284081 0.5877494 -0.028978122 0.938547 0.8124479 1.1879303 0.15446837
-1.2198089 -0.13426517 1.0745331 0.44330356 -0.5703652 -0.12157401 -1.3696727 -1.4042269
-0.290058 -0.088320166 1.1841273 -0.0046448396 -0.72607297 0.11340086 0.31323442 -0.96885234
0.06344245 -0.9194407 -0.28467864 -0.14783432 0.45990163 -2.375976 -0.94450104 0.43839195
0.85585743 0.921388 -0.3960271 -0.25560778 -0.18084334 0.7378147 -0.57742614 -1.5208017
0.32730162 -0.9467333 0.36714467 -0.41528487 -0.6578896 0.80091083 0.31835225 0.4052521
-0.7253028 -0.873567 -1.8128203 -0.77567595 0.19689818 1.2359273 -0.982985 -0.56972504
0.3818764 0.44928592 -0.5933123 0.17791961 -1.110741 1.5639671 1.1824212 0.4832086
-0.87345153 0.49951947 0.35143194 1.1690964 -1.11174 -1.5663912 -0.43173525 2.4676225
-0.5887614 -0.9796139 0.03348834 0.07516681 -0.041021287 -0.8546486 0.86661893 -0.23517588
-0.253359 -1.2111789 2.182971 -0.05901144 0.21677369 -0.57709515 -1.7285239 -0.45809585
0.7336782 -0.05080881 -0.5719401 0.9349421 -2.4474373 0.5458276 0.284054 0.27874878
-1.3207008 1.1127921 0.08203082 -0.15383159 -1.5850338 -0.48230925 1.421232 0.5119218
-1.3457503 -1.2638725 -1.8422928 -0.28928053 -2.6970892 2.3855765 -1.299406 0.47001937
0.43140343 -0.30139917 0.8428682 0.2935415 0.8181749 -0.70916677 -1.4415803 0.70273143
-2.0112002 1.4798514 0.19555032 0.5776121 0.3427119 -0.34739304 -0.37148267 0.9674134
0.8289162 0.7821228 -0.7674918 -0.916252 -0.0039239656 -0.85840756 0.44747698 1.3921844
1.7413301 -0.06574033 -0.9480512 0.87005275 0.9107345 1.791477 0.72672325 0.7924136
0.81978893 -0.77188987 0.48454252 0.07300949 -1.4495887 1.1936595 0.38632047 -0.55201477
0.38759354 1.2451913 -2.8982763 -0.29125696 0.057322077 -0.6077255 -0.81634504 -0.05452014

h.0.mha.W_q.weight f4 [64, 64]
00000000: 7bc8 88bd a800 4f3c d0e2 73bb 5261 573d
00000010: 2903 013e 08bd e1bc 0c3e cfbd d654 0abd
00000020: 5e69 35bc 5d51 11be 64ea e4bd fdde dc3c
00000030: 984c 9dbd 92c8 d33d 0183 03bd eeef 09be
00000040: 152c bd3d dbbe e23d 3ae3 9cbd 4c56 803d
00000050: d59d 943d e33c 88bc f015 ab3d 05bc 2bbd
00000060: 4f5a 593d 42b5 a73d 9e97 4f3d 7de4 b03d
00000070: c4f8 cfbd ab1a cabd 73c0 04be a64f 113c
00000080: ef31 9dbc d88a ac3c 999d e0bd 25de 0dbe
00000090: 18be 133d fc5c 64bd c9da 803d fc89 6d3c
000000a0: f61c c1bc e21e c9bd 4b8e 983d bf00 1a3e
000000b0: 9ef7 613b d42c 3cbd 0578 62bc ab92 c2bd
000000c0: d8b3 443d c511 21bd 44ad 8abc 044c 4e3d
000000d0: d905 4abd 4393 f5bc 8257 a1bd b81f b0bc
000000e0: 6775 a0bb 019b 2a3c 3548 203d a014 a5bc
000000f0: dd27 85bd ceba a93d 0f9f b4bc 219d 0a3d
00000100: 9e09 a6bd 06fc 7eba f421 adbd a06b 9b3d
00000110: 064b ddbd 91b0 f3bd 4d1a 62bd 209a 1cbc
00000120: 8376 933d 9412 afbc ae08 d6bd 0ca2 8fbd
00000130: c119 a5bd 30e5 57bc 2060 103c 42b3 103d
00000140: 54a8 063c 1cb2 22bd 6233 b03c 8708 aabd
00000150: f8e2 8c3d 6494 28ba e16c 9cbd edb1 dabc
00000160: 8d69 833c 8767 153d c287 97bd 99dd bfbd
00000170: e92e 003e 4f20 683d 6e92 73bd 8e58 afbd
00000180: d54b c5bc b816 36bd ed57 39bd d19b 733d
00000190: aa62 cb3d ce50 17bd 69c8 61bc 3bc5 e6bb
000001a0: 1b0f cd3d 0fc3 64bd c7cc 45bd b3f1 a8bd
000001b0: 450f 2c3c cc88 d1bd 6482 1f3d 280f b8bc
000001c0: 3260 a1bc 21c1 32bd 987e b1bd d9ad 69bd
000001d0: f622 6c3d 4d62 4b3c 2620 353c c52c fd3c
000001e0: 5365 0bbd a817 09bd 5a1c 103d 52f0 843c
000001f0: 505d fc3c 70ca c93d 43dd eebc 9e1f 3ebd
00000200: 3245 90bd 7ba8 e4bd 4ab2 babd de8e 5d3c
00000210: 60d3 18bd 2bde f5bc 7e73 743c d071 f5bd
00000220: c2fd c4bd 3843 05bd da02 953d 818f 55bd
00000230: 9558 f73b 61d7 29bd fe2f 3cbd 0baa 043d
00000240: 5e68 48bd 7542 493d 9369 2cbe 96d0 a53d
00000250: e098 68bc cd29 6ebd 0405 eb3c dffc 27bc
00000260: 7363 343d 5e22 dd3d 2fbb b93a ee0d 54bd
00000270: ad7c 52bc c4b6 25bd 9551 a03d 67ce d33d
00000280: f011 763d 3e22 57bc a855 863d f58f 093d
00000290: ff16 3fbc 1352 a2bd 634a 24bd 1545 11bd
000002a0: a330 d53d a84e 01be 4834 b83c 5532 f73c
000002b0: 47a9 083d 5027 14be 0b4e 54bc 0b4a 923d
000002c0: 00c5 b5bc 590e 71bd 573e bc3d 85a8 cd3d
000002d0: 0952 a3bc 78f7 eb3c ef97 893d 3f00 70bd
000002e0: eca1 a93d c3d8 99bd c387 97bd 54cf 78ba
000002f0: 80ce 873b 1464 a1bd 4311 613b c85f 75bd
00000300: c730 7b3a 3e90 1f3c 262e a43d e712 b33d
00000310: 83e5 f3bc 9259 fcbd 71b6 4dbd f2ab 95bd
00000320: 70d2 d03c c309 ebba 75b5 743d 1f1b 3abd
00000330: 9818 82bd 534f b8bc fa26 103e 6826 873d
00000340: 45f0 a73c a71c 57bd 8417 97bd 79c6 b23c
00000350: de71 e5bc 4b86 d43c b504 45bc 891e 83bd
00000360: 315c 71bc 1c87 4f3b 519a 9abc bde6 84bd
00000370: 3567 86bd b71b e03c e180 b5bd 63ba f3bd
00000380: f718 94bb 5a17 a73c ee21 113d ca15 79bd
00000390: abe1 ba3c 9bc3 01bc df8e 3f3d dff0 173d
000003a0: 1c4e 93bc bf78 8cbd bc94 213c 39bd d8bd
000003b0: b54f 063c 2446 3c3d 3f23 903c 79d4 e4bd
000003c0: dc6b 713d b7fb c93c c9df 51bd 601f 73bd
000003d0: 13af 4ebd b764 e1bc fef5 01bc c381 933d
000003e0: 250f a13c e243 443d 5ea9 283d 9caa 74bd
000003f0: d0b1 e63a 88e5 67bc 7e05 743d 4463 53bd
-0.066788636 0.012634434 -0.0037214048 0.052583046 0.12598862 -0.027555957 -0.101192564 -0.033772312
-0.011072485 -0.14191194 -0.11177519 0.026961798 -0.07680625 0.1034099 -0.032107357 -0.13470432
0.092369236 0.11071559 -0.076605275 0.0626646 0.072566666 -0.016630596 0.083537936 -0.041927356
0.05306464 0.08188869 0.050681703 0.08637331 -0.1015487 -0.09868368 -0.12964039 0.008869087
-0.01918885 0.0210623 -0.10967559 -0.13854273 0.03606996 -0.05575274 0.0629173 0.01449823
-0.02357338 -0.098203436 0.07449015 0.15039347 0.0034479867 -0.04594119 -0.01382256 -0.09500631
0.048023075 -0.039323587 -0.016928323 0.050365463 -0.049321983 -0.029977446 -0.07878019 -0.0214995
-0.004896808 0.010412932 0.039131362 -0.020151436 -0.06501744 0.08287583 -0.022048501 0.033841256
-0.08107303 -0.00097268855 -0.08453742 0.07588887 -0.10805325 -0.11898912 -0.055200864 -0.009558231
0.07200339 -0.021371163 -0.10450874 -0.0701333 -0.08061553 -0.013177201 0.0088119805 0.035327204
0.0082188435 -0.03972064 0.021508876 -0.08302408 0.06879228 -0.00064308033 -0.076379545 -0.02669617
0.016041541 0.036475684 -0.073989406 -0.09368438 0.12517895 0.056671437 -0.059465818 -0.08561812
-0.024084011 -0.04445526 -0.04524987 0.05947477 0.09930928 -0.036942296 -0.013780692 -0.0070425547
0.10012647 -0.055850085 -0.048290994 -0.082492255 0.010501687 -0.1023117 0.03894271 -0.022468165
-0.01969919 -0.043641213 -0.08666724 -0.05705056 0.05765053 0.012413573 0.011055028 0.030905137
-0.034032177 -0.033469826 0.03518329 0.016227875 0.030806214 0.09853065 -0.02915824 -0.04641687
-0.07044448 -0.111649476 -0.09116037 0.013522832 -0.037310958 -0.030013165 0.014920114 -0.11984599
-0.09618713 -0.032534808 0.072759345 -0.05213881 0.0075484016 -0.041465167 -0.045944206 0.032388728
-0.048927657 0.049135644 -0.16837148 0.08096425 -0.0141966045 -0.058145333 0.028688915 -0.01025316
0.044040155 0.10797571 0.0014170165 -0.051771097 -0.012847108 -0.040457502 0.078280605 0.103421025
0.0600757 -0.013130723 0.065593064 0.033584554 -0.011663198 -0.07925811 -0.040110003 -0.035466272
0.10409667 -0.12627661 0.022485867 0.030175367 0.03336456 -0.14468122 -0.01295806 0.07143029
-0.022188663 -0.058851574 0.09191578 0.10041908 -0.019936578 0.028804526 0.06718432 -0.058593985
0.08282837 -0.07512047 -0.07398941 -0.00094913435 0.0041444898 -0.078804165 0.0034342564 -0.059905797
0.00095821585 0.00973898 0.080166146 0.0874384 -0.029772526 -0.12321772 -0.050222818 -0.073081866
0.02549097 -0.0017931986 0.059743363 -0.04543602 -0.06352347 -0.022498762 0.14077368 0.06599122
0.020500312 -0.05251756 -0.07377532 0.021823155 -0.028008398 0.025942942 -0.012025048 -0.064023085
-0.014731453 0.0031666225 -0.018872412 -0.06489322 -0.06562654 0.027356965 -0.08862472 -0.11900785
-0.0045195776 0.020396877 0.03543275 -0.060811795 0.022812685 -0.007920171 0.046767112 0.037094947
-0.017981581 -0.06858968 0.009862121 -0.10582966 0.008197715 0.04596533 0.017594932 -0.111733384
0.058940753 0.02465616 -0.05123881 -0.059356093 -0.050459933 -0.027513845 -0.007932184 0.072024845
0.019660542 0.0479163 0.041177146 -0.05973302 0.00176006 -0.014153846 0.05957555 -0.05160834

h.0.mha.W_q.bias f4 [64]
00000000: 10f0 fc3d 3dbf cdbd 349a cabd a04f e13c
00000010: cef6 5bbc 45ca aa3d 15a5 3ebe df15 0ebe
00000020: 0fe3 6d3e 5ec2 acbe c91f 04bd 7586 953e
00000030: abd0 e73e f2a9 7b3e b1fd 25bf 2285 69be
00000040: 4aa2 903e 39a9 033f d275 823d 6f01 9d3e
00000050: 9d67 773e 2d1b efbd f564 8b3e 7a0f cdbd
00000060: 21fa 33be e5c0 d6bd c937 12bd 58db 1c3e
00000070: 87f0 14be e4d1 4abd f508 c23d 12b3 13be
00000080: 2bc1 bdbc 9b14 b1bd 28df 95bc dd2a b9bc
00000090: 2ff6 d4bd 0b0b 06be 751e 0abe d64b 59bb
000000a0: ea5e 953c 0840 523d e8e0 b53d 5b80 893d
000000b0: 4209 9bbd e3ac d8bd f737 293c 774d 29bd
000000c0: 4d32 043d ad41 113e 96f3 01bd 3c5d 5f3c
000000d0: 1cd3 fabc f623 9abc c6c0 d0bd 696d 363d
000000e0: 7f7c b73d 66ac 223e 3382 fabc 3ea1 043d
000000f0: 7e06 f4bc 5fac 90bb d258 493d f755 763d
0.12350476 -0.100462414 -0.09892693 0.027503788 -0.013425542 0.08339361 -0.18617661 -0.1387553
0.23231147 -0.3374204 -0.032256875 0.29204145 0.4527639 0.24576548 -0.6484023 -0.22804692
0.28248817 0.5143009 0.06370129 0.30665156 0.24160619 -0.11675105 0.27225462 -0.100127175
-0.17575885 -0.104860105 -0.035697732 0.15318048 -0.14544879 -0.049516574 0.09474365 -0.14423779
-0.023163399 -0.08646508 -0.018294886 -0.022603447 -0.10398518 -0.1309015 -0.13488181 -0.0033156774
0.018233735 0.051330596 0.08880788 0.06713935 -0.07570125 -0.105798505 0.010328284 -0.04133364
0.032274533 0.1418521 -0.031726442 0.013633069 -0.030618243 -0.018815976 -0.101930186 0.044537935
0.089592926 0.15886077 -0.030579662 0.032380335 -0.029788252 -0.0044150795 0.04915697 0.060140576

h.0.mha.W_k.weight f4 [64, 64]
00000000: bfff abbd 553a 813c 0bb4 393d de18 203d
00000010: 1830 803c 79f0 b13d 8b40 f23d 6277 fd3d
00000020: 9813 ddbd b051 9abd f9fe 1bbd 404e 1bbd
00000030: e20d 113d ce9b 993c fb86 c2bc 82a6 74bd
00000040: 5fae 8bbd 98d5 adbd b817 243d 7466 e4bd
00000050: 8246 313d 66cb c6bd 6e53 893d 63af 26bd
00000060: 02fa 503d 0ef6 b03d bc5c c4bb fedf 0d3e
00000070: 1e2b 323c 185b a6bd a093 83bd 3b97 a9bd
00000080: e174 98bd 47bb 95bd e492 8cbd e60f cabc
00000090: 91c7 00be 36ad f73c 8a61 083d 0eb6 c33d
000000a0: 760c 3c3d 610c 033c c52f b93d 449e 103d
000000b0: 0d43 d73d eea8 5fbc 9a1a a9bd 274a 073d
000000c0: 297a 943a 064f 44bc 1327 693b 8558 31bc
000000d0: 40a0 3f3d d171 52bd b0dd 66bd 575a e1bc
000000e0: 3277 e2bc 3e6c bebd f634 dbbd 3d25 64bd
000000f0: 8c47 8d3d 4f16 1a3b 7eba d83d 89a8 953d
00000100: 012b 6d3b 38b7 ea3d 4e0a a5bc 8ea3 6ebd
00000110: eadc 1abd 7bad 25bd 0643 22bd 49c3 193d
00000120: 7a1a e03c f230 c1bc a525 42bd e669 e4bd
00000130: 722a 683d bc08 1b3d fb97 913d 01bd ea3d
00000140: 3dd6 233d 0187 753d b572 b8bc 1ed4 acbd
00000150: 6c18 9dbc 7f25 1bbd 0f79 a9bd fa4c f4ba
00000160: 4051 a23d 7e8f eabc 50fe d73d d69e 183b
00000170: 857d c33d 3934 d1bd efd7 53bd abaf d5bd
00000180: 07ac 6abc 95e6 4f3d 1bbd aabd 4497 30bd
00000190: 9640 3e3d 749a a03d d6d9 423c abef 063c
000001a0: f943 74bd 2f84 d43d 16cc 1cbd 794a f6bc
000001b0: b2dc 743d e93b 87bd b838 153d b7b5 773d
000001c0: c861 c43d 4c5c 583d 4718 1b39 4bed a3bd
000001d0: 1b59 d2bb 84a6 f4bd 83ba d2bd 4374 7f3d
000001e0: 01d5 633d e647 fcbd b987 b13d efb8 943d
000001f0: d1ea b2bd 1e3c a53c ec95 d0bd eac2 52bd
00000200: 955d a9bd 8e62 dabc 5a1d cbbc 1ea5 45bd
00000210: 4e48 b83d 0d13 123d c845 093d 321e 03bd
00000220: 5bb6 203d 941f 493d 9c91 543d 83a5 0cbd
00000230: 1d9f 1ebd 64f1 773d fdcd c73d 96ea 99bd
00000240: 52bd cebd 69ef c3bd 77de 6ebd 73f4 823c
00000250: 353b 88bd 8721 71bd f49d 203d 9949 bdbc
00000260: eb7d 9d3d 534f 0c3d 2d29 193c c51a a9bc
00000270: b19c 78bb dd97 9cbb 6ec1 c83d 35fa 35bd
00000280: 1f5f acbd 7ce5 2fba 118b 693c ae39 963c
00000290: da92 66bd d672 723d 94af a9b9 c09c 923d
000002a0: e96a e53b e66f 9c3a 5b2b 27be 0d8c 613d
000002b0: 8cb8 babd 89d4 edbc 88fc 07be 7484 c53d
000002c0: 7398 94bc 5534 21bd b0a2 5c3d 63a9 53bd
000002d0: 0e9c a53d c8a9 b7bd 14a5 a83d 3b07 1d3d
000002e0: 49f8 e73c 477f d13d af54 99bd 8731 f73c
000002f0: 1be4 a6bd 03e1 b93c 86bf b8bd e50d 8d3d
00000300: ae4a a8bd 8265 f2bb ba51 363d 8198 81ba
00000310: f918 073d e29d 79bd 3ea5 93bd fc3e 563d
00000320: eb0d cb3a 5034 2c3d c9a5 54bd c7e7 28bd
00000330: a077 8d3d da6a 53bd 9fe9 573c 42df c3bd
00000340: 5026 b13d 443a 823b 76cf b7bd 6634 df3c
00000350: d6e4 97bd 6579 dcbd b8aa 8bbd 86aa 6f3d
00000360: bdda d03d 01ed 6e3d c8d6 a23b f873 c9bd
00000370: 9951 0ebd 770d dd3d c3ea 413c 43af b9bd
00000380: fe27 15be f1f2 843d 8ba6 49bd e2a9 5b3d
00000390: 8221 65bd 4219 133d 9098 00bd 3bea 03bc
000003a0: 3735 b73d 7067 d3bc 2e2d 1f3b 181d cebd
000003b0: 4e24 2fbd 3456 503c ef36 abbd 2bd1 323d
000003c0: 8fcc 533d 9b3a 8ebd 4c1f 11bd 2246 563c
000003d0: c428 883d 839c 853d 2fa2 c1bb 8421 c6bd
000003e0: 0b9a 0c3d 57af 9bbc 8e1f b1bc 0ec2 10be
000003f0: 81f1 7c3d 6e65 dcbc 557f 4bbd dceb b13d
-0.08398389 0.015774885 0.045337718 0.039086215 0.015647933 0.08688445 0.11828717 0.12376286
-0.10794753 -0.07535112 -0.038084958 -0.037916422 0.03541363 0.018751051 -0.023746004 -0.059729107
-0.06820368 -0.084880054 0.040061682 -0.11152354 0.043280132 -0.09706764 0.06705366 -0.040694606
0.051019676 0.08640681 -0.0059925 0.13854977 0.010874538 -0.081228435 -0.064246416 -0.08280798
-0.07444168 -0.07311111 -0.06863955 -0.024665784 -0.12576129 0.03023396 0.033296145 0.095562086
0.04591032 0.007998557 0.090423144 0.035307184 0.10510836 -0.013651116 -0.08257027 0.0330297
0.001132791 -0.011981731 0.0035576269 -0.010824327 0.046783686 -0.051378075 -0.05636376 -0.027508898
-0.027644727 -0.09297989 -0.10703461 -0.055699576 0.06898412 0.0023511832 0.105824456 0.07307536
0.0036188962 0.114607275 -0.020146515 -0.058261447 -0.037808336 -0.040448647 -0.0396147 0.037539754
0.027356375 -0.02358291 -0.047399182 -0.11153011 0.056681104 0.037850127 0.07109066 0.11461831
0.039999235 0.059943203 -0.022515634 -0.08438896 -0.019176684 -0.037877556 -0.08275043 -0.0018638663
0.079256535 -0.028632876 0.10546553 0.0023288033 0.09545425 -0.10215039 -0.051719602 -0.10433897
-0.014323241 0.05075701 -0.0833685 -0.04311301 0.046448313 0.078419596 0.011892756 0.008235852
-0.059635136 0.103767745 -0.03828057 -0.030064808 0.059780784 -0.06603224 0.036431044 0.06047603
0.09588963 0.052822396 0.00014790996 -0.080042444 -0.0064193136 -0.11945823 -0.102894805 0.062366735
0.05562306 -0.12318401 0.08668465 0.07261836 -0.08736194 0.020170268 -0.10184845 -0.051455416
-0.082698025 -0.026658323 -0.02479427 -0.04825317 0.08998166 0.0356627 0.033513814 -0.03201122
0.039236408 0.04910238 0.051896676 -0.03433753 -0.03872596 0.060532942 0.09756086 -0.07515447
-0.10094704 -0.09567148 -0.058317628 0.015985703 -0.06651918 -0.058869865 0.039213136 -0.023106383
0.076900326 0.034255337 0.009348196 -0.020642648 -0.0037935192 -0.0047788457 0.09802519 -0.04442807
-0.084165804 -0.0006709916 0.014254347 0.01833805 -0.056292392 0.059191547 -0.00032365008 0.07158804
0.00700127 0.0011935204 -0.16325133 0.055065203 -0.09117231 -0.029032009 -0.13279927 0.09644404
-0.0181391 -0.03935655 0.05386609 -0.05167521 0.08086406 -0.0896793 0.08234611 0.038336974
0.028316634 0.10229354 -0.07486855 0.030174984 -0.081489764 0.022690302 -0.09020905 0.06887416
-0.08217369 -0.0073973546 0.044511534 -0.0009887369 0.0329828 -0.060941584 -0.07209252 0.05230616
0.0015491819 0.042042077 -0.051915918 -0.041236665 0.06907582 -0.051615573 0.013178258 -0.095640674
0.08649886 0.003974231 -0.08975117 0.027246665 -0.07416694 -0.10765342 -0.068196714 0.058512233
0.10197971 0.058331493 0.0049694516 -0.098365724 -0.034745786 0.10793584 0.011835757 -0.09066632
-0.14566037 0.0649165 -0.049231093 0.05362881 -0.05594016 0.03591276 -0.031395495 -0.00805145
0.08945697 -0.025806159 0.0024288404 -0.10064143 -0.042759232 0.012715865 -0.08360087 0.04365651
0.051708754 -0.06944772 -0.035430238 0.013078244 0.066484004 0.06523993 -0.0059092264 -0.09674361
0.034326594 -0.019004507 -0.021621492 -0.14136526 0.061753754 -0.026903834 -0.04968198 0.08687565

h.0.mha.W_k.bias f4 [64]
00000000: a8db f13d a326 2fbd 92d7 253d 3ae8 53bd
00000010: 029e 02bb 9153 cbbd e528 8f3d f226 26be
00000020: ecf5 e0bd 57de 80be 2844 9f3e b52f e0bb
00000030: 28ed 503e ebf5 04bf 624f 023f 164e a23e
00000040: c506 1fbf 7891 8abe b551 efbe c850 9e3d
00000050: 1393 69bc 5cb3 3f3e 091a 1a3e 042e 643e
00000060: f0cb 803d 3a8d 37be 4bb7 f33d 5bf3 13be
00000070: 810c 0d3e 3ad2 83be f32d ac3d 0da4 92bc
00000080: 3b74 c8bd 8305 5cbc 5916 463c 3b97 493d
00000090: a3e6 cbbc 0b6f cd38 14ee 3cbe 28be 62bd
000000a0: 5f63 3cbc be82 463e 95d9 8cbd d8b4 b83d
000000b0: 08ef 423e 87d8 b5bd 346d c5bc 5063 93be
000000c0: c7d3 d3bc 5269 d43d 73f6 a7bc b8ce 1bbe
000000d0: 96c4 ba3d cdda 50bd 9200 253e c4a3 683d
000000e0: e234 b73b 32f6 cfbd 7541 cdbd 391a e9bd
000000f0: 69c0 eb3d 3da0 1dbd 35fc a6be e5c5 0fbe
0.11809474 -0.042761456 0.040488787 -0.05173514 -0.0019930606 -0.099280484 0.06990222 -0.16225794
-0.10984406 -0.25169632 0.31106687 -0.0068416246 0.20402968 -0.5193774 0.5090238 0.317002
-0.62119704 -0.2706411 -0.46742025 0.077302516 -0.014256257 0.18720764 0.15048994 0.22283179
0.06288898 -0.17924967 0.11900195 -0.14448301 0.13774301 -0.25746328 0.084072016 -0.017900491
-0.09787794 -0.0134290485 0.012090289 0.04921649 -0.02489025 9.795845e-05 -0.18450195 -0.05535713
-0.011498301 0.19385812 -0.06877438 0.09018868 0.19036496 -0.0887919 -0.024099924 -0.28786707
-0.02585782 0.10371651 -0.020503258 -0.15215576 0.09119527 -0.050989915 0.16113499 0.056796804
0.005591021 -0.1015438 -0.100222506 -0.11381955 0.11511309 -0.038482893 -0.32614294 -0.14040335

h.0.mha.W_v.weight f4 [64, 64]
00000000: 96ea 9abc fae2 cfbd ed2e 773d 2b72 513e
00000010: f228 22bc 7081 4f3d 56aa ed3d ed32 0b3d
00000020: 639b 6f3c 9d29 c83c ea78 f23c b8db 5f3c
00000030: 2a2f 4abd a119 cabc b2fa 193d 9a55 0cbe
00000040: ddcb 023e 0d14 9b38 96bf 2a3c b051 9dbd
00000050: 3416 f43d 4e67 9c3d bb3c b4bd ce56 2b3e
00000060: ecc7 c8bc 81bd a53d 7f2a 833d 5999 a2bd
00000070: 9c20 c7ba 4e86 a33c 20af 973d 4181 5bbd
00000080: af3b 22be 3a1f d43c be00 47be 627f 08be
00000090: dc37 27be 9e82 dd3c 290b 863d da44 fb3b
000000a0: fd16 c5bd 6ec8 3ebd 8b26 09bd 85b9 223d
000000b0: 6128 4abe d085 25bd ee86 d6ba 5af1 0f3e
000000c0: 1468 75bd e0e2 6bbd 4b27 0dbd 47ab 843d
000000d0: 3240 c13d 7514 ec3d b0bc 4cbc ecef df3d
000000e0: c273 1d3e 9f82 97bc dfc9 a13d 99ea 2abe
000000f0: 5e74 b7bd aece 5bbd 7bb0 0fbd ec77 003d
00000100: 65e1 513d d56b 46bd 97a3 f83d 033d 30bd
00000110: 8015 ea3d 7501 b83c 6d37 943e 2e66 e03d
00000120: e027 243e e134 a6bd 30c7 32bc e4da 853d
00000130: 3825 0f3e 72d4 ccbd da66 b0bc 04cf 3d3e
00000140: 05f4 143d a6cc 12be 1704 15be c7df 313e
00000150: c7bc 163d c958 d1bd 2df6 153c e9cf e93c
00000160: 1802 403e bf36 6f3e 4b48 07be 7cda 293d
00000170: 4a42 fd3c fb17 a9bd ec69 10bd 8098 753d
00000180: b9c5 febb 76bb 6a3d 9802 14bd a220 97bd
00000190: a9fa 08bc c596 263e ca4d 14be dd17 31bd
000001a0: c8f0 babd 1e1b 563d 6c78 cbbd fa5f 443d
000001b0: 16f4 483d 3ff7 3bbd 4c6a cabc 8be0 78bd
000001c0: b7d8 f43d ea91 c9bd b7b4 9b3d b219 15be
000001d0: 2cfe e0bd a917 033e 5c43 2fbe a334 9fbd
000001e0: 34ab 563d a3eb 223e 63a2 14bd 2d09 82bd
000001f0: a869 a2bc ba93 193e 0da5 1c3e 1268 f9bb
00000200: 1bd8 8f3c 7fd8 c53c 96ff b33d d8e8 5a3d
00000210: 98d6 cb3d afe8 99bd e251 973a 5e47 c9bd
00000220: 3d0d e8bd 1cf1 2fbd 2e62 f6bd 3dde b33d
00000230: 9a1a 49bd 7d34 063e e16b 813d 0daa d2bd
00000240: d3cf 8c3d d6f9 dbbd 5ca3 213d 4eba 2f3e
00000250: e193 c9bd ff04 563d 6964 003d 4efa ee3d
00000260: 2b46 44bd 4224 843d ef4a 3c3d b8e1 013e
00000270: 8c3d f0bd 963a d93d 4269 433c f513 f83d
00000280: 0214 1bbe 419b ea3d a129 0ebd df4c 60bc
00000290: 933f 31bd 41db b13d a50a 04be b82d ccbd
000002a0: 7388 103d a949 fdbd cc44 b03d be4e 8a3c
000002b0: 65df 13bd 4ade f2bd bfcc 8aba d00d d13d
000002c0: 14ba 86bd 5477 e73d 60d3 f3bd 2f85 113d
000002d0: 0f0b 0fbe 2d71 083e 46b7 523d 5bbe 88bc
000002e0: 9726 243d a99a 84bd c65c 3cbd 9877 aabb
000002f0: 750f 86bb 8e10 d23d 70a5 f3bc 767a 8c3d
00000300: add7 96bb 4310 07bd edeb 97bd 9cf7 5e3d
00000310: fa79 93bc 279d 7d3e fd7f 44be 0c56 9bbd
00000320: 4150 23be 8b4a 7ebd d2e5 9b3c 5ddd a6bd
00000330: 6f07 46bc 0a31 55be faa9 ddbc 7613 bcbc
00000340: 2db0 f8bd 92ea cebd 3dcb b9bd 04bb 103e
00000350: 1212 683d 59ed 98bd 63a1 cd3d 9eb7 193e
00000360: a476 11bc 2ee5 abbc 9bd3 d83d dfa1 873c
00000370: fec3 e33d 2e78 afbd 46c8 6abd 08c7 debd
00000380: 471b 07bb 7612 7e3d a7a7 1f3e 41a8 8c3d
00000390: dd3f cabd 2b03 163e 41f4 8ebc 376b 1a3e
000003a0: 9c7a 14be ae08 563e 73eb 9e3d e417 cc3c
000003b0: 3ad8 1cbe 9a9e 223e ad17 c1bd 9fe7 06bc
000003c0: 41a9 983d c3b4 d1bd 3849 f7bb 8c2f ab3d
000003d0: f756 14bd 3a9a 71bd 6a2f 9f3c b5bd 9fbd
000003e0: 29e1 3b3d 5352 87bc c15d 79bd 312c 86bd
000003f0: e91a b2bc 1ba2 ea3d 6867 0ebe c3ad 37be
-0.018910687 -0.10150714 0.060347486 0.20453708 -0.009897457 0.05066055 0.116047546 0.033984113
0.014624449 0.024433905 0.029598672 0.013663225 -0.049361385 -0.024670424 0.037592597 -0.1370453
0.1277308 7.394711e-05 0.010421654 -0.07681596 0.119182974 0.07636891 -0.08800646 0.16732332
-0.024509393 0.080927856 0.0640459 -0.07939405 -0.0015192213 0.019961502 0.07406449 -0.053590063
-0.1584308 0.025893796 -0.19433877 -0.13329843 -0.16329902 0.027039822 0.065450974 0.00766812
-0.09623525 -0.046577863 -0.033484023 0.039727706 -0.19741966 -0.040410817 -0.0016367116 0.14056912
-0.05991371 -0.05758941 -0.0344613 0.06477981 0.094360724 0.11527339 -0.0124961585 0.10934433
0.1537619 -0.018494902 0.07899832 -0.16691054 -0.08957742 -0.053663902 -0.035080414 0.031364366
0.051240344 -0.04844268 0.12140577 -0.043026935 0.11429882 0.022461632 0.28948537 0.10956989
0.16030836 -0.081155546 -0.010911748 0.06535891 0.13979042 -0.10001458 -0.021533418 0.18536001
0.036365528 -0.1433588 -0.14552341 0.1737052 0.036801126 -0.102220125 0.009152931 0.028541522
0.18750799 0.23360728 -0.13211171 0.04146813 0.030915398 -0.08256527 -0.035257265 0.05995989
-0.007775035 0.057307683 -0.036135286 -0.07379271 -0.008360543 0.16268452 -0.14482799 -0.04323565
-0.09127957 0.052271955 -0.09935078 0.047943093 0.049060903 -0.04589009 -0.02470889 -0.060761016
0.119553976 -0.09842284 0.07602828 -0.14560583 -0.109859794 0.12801994 -0.1711554 -0.077737115
0.052409366 0.15910201 -0.036287677 -0.063494064 -0.019825771 0.1499776 0.15297337 -0.007611283
0.017559102 0.024151085 0.087889835 0.053444713 0.0995304 -0.07515084 0.0011544789 -0.09828065
-0.1133065 -0.04295455 -0.12030445 0.08782623 -0.049097635 0.1310596 0.063194044 -0.10286341
0.06875577 -0.10741012 0.039462432 0.17160913 -0.09842659 0.05225086 0.03134576 0.116688356
-0.04791848 0.06452228 0.0459699 0.12683761 -0.11730489 0.106068775 0.011926951 0.121131815
-0.15144351 0.114553936 -0.03470767 -0.0136902025 -0.04327352 0.086843975 -0.12894686 -0.09969658
0.035286378 -0.12367565 0.08606872 0.01688325 -0.036101718 -0.118588045 -0.0010589584 0.10207713
-0.0657846 0.11302057 -0.11905551 0.035527404 -0.13969062 0.13324423 0.051444314 -0.016692331
0.040075865 -0.064748116 -0.045986913 -0.005202245 -0.004091198 0.10257064 -0.029741973 0.06859295
-0.0046033473 -0.032974493 -0.07418046 0.054435357 -0.018002499 0.2476698 -0.19189449 -0.075847715
-0.15948583 -0.06208281 0.019030485 -0.081476904 -0.012086733 -0.20819488 -0.02705859 -0.022958498
-0.12142978 -0.101033345 -0.09071968 0.14133841 0.05665786 -0.074671455 0.10040548 0.1501145
-0.008878384 -0.020983305 0.105872355 0.016556678 0.11121367 -0.08567844 -0.057319902 -0.10877806
-0.0020615624 0.062029324 0.15591298 0.068680294 -0.09875462 0.14649646 -0.017450454 0.15079962
-0.14499897 0.20901749 0.07759752 0.024913736 -0.15316859 0.15880814 -0.09428344 -0.008233934
0.074541576 -0.10239556 -0.00754657 0.08358678 -0.03621575 -0.058984973 0.019431788 -0.077998556
0.045869026 -0.016518747 -0.060880426 -0.065513976 -0.021741347 0.114567004 -0.13906634 -0.17937379

h.0.mha.W_v.bias f4 [64]
00000000: 9726 763d 5767 3fbc e48a c9bc 8f50 073d
00000010: 9846 b83d 3bb4 a1bb 8290 de3d f6ef 1e3c
00000020: 3cb1 c3bd f317 a13d a472 9d3d 1e3d f9bc
00000030: 276e 113d 81aa b9bc 800f c4ba c4e4 fdbd
00000040: 035f 76bd 8e4f dbbc 633f 05bd 5943 b63d
00000050: 7184 16bd c7a7 92ba 4de5 e53d 1fc9 d23c
00000060: 04a2 bd3d 4a5e d9bb 1e32 3b3d 9e87 ed3c
00000070: 9f83 a13c 718c 81bd 9fb7 dcbd e838 0ebe
00000080: 8d1a a9bd 67ee a9bd aa9c e63d d68b 9a3d
00000090: 0297 0c3d b0a7 983d 0e75 c8bd b3bf 7ebd
000000a0: e1cc 9d3c 1183 183d 03d8 d8bc 5728 bbbd
000000b0: cad9 6b3d 5450 edbd bf96 2ebd 8faf a7bd
000000c0: 4256 f73c 259e 2c3d 0942 5e3d a354 06bd
000000d0: 5c8a 5bbd 0dbc 78bc fef4 bbbd 232a 8d3d
000000e0: 2cf2 abbd 3368 a7bd 9704 823c b9ba 843d
000000f0: 2d4f c1bd d1b7 933b 1ad3 a73d 3db9 a03d
0.060095396 -0.011682353 -0.024602361 0.03303581 0.0899784 -0.004934815 0.108674064 0.009700766
-0.09555289 0.07865896 0.076878816 -0.03042465 0.03550544 -0.02266431 -0.0014958233 -0.12397149
-0.060149204 -0.026771333 -0.032531153 0.08899564 -0.0367474 -0.0011188918 0.11225376 0.025730668
0.09259418 -0.0066335546 0.045702092 0.028995331 0.019716082 -0.06325615 -0.107772104 -0.13888896
-0.08257017 -0.08297425 0.1126035 0.07546203 0.0343237 0.07453859 -0.097879514 -0.062194537
0.019262733 0.03723437 -0.02647019 -0.091385536 0.057580747 -0.11587587 -0.04262423 -0.08187782
0.030192498 0.042143006 0.054262195 -0.03279556 -0.053598747 -0.015181554 -0.09177588 0.068928026
-0.083958 -0.08174171 0.01587133 0.06480927 -0.0943893 0.0045079966 0.08194561 0.078478314

h.0.mha.W_o.weight f4 [64, 64]
00000000: b82d 88bc 60b1 d4bc 814b 94bd a1f4 f03d
00000010: 594e 9cbb e828 5ebd 6a73 e9bd f296 06bb
00000020: e14d 6c3d 5c33 7cbd bd82 17bc 32fc cabc
00000030: 16c0 8dbd 4665 383e 064c ff3d 5f01 49bd
00000040: eabd e23b 9c2c 913c 7477 b83c 84ef e33d
00000050: db14 2c3e e0a4 9fbc 28b3 9abd 61ef fc3d
00000060: 9de5 a1bc 2cfc 0ebe 3528 d8b9 cc49 dfbd
00000070: 62d3 abbb fad1 a2ba 1a8e 453d 1f96 99bd
00000080: 5ae3 cd3d a7f0 863d ee53 14be a0fc 0c3e
00000090: 94c7 fd3c 8e84 15bc 3c73 a73d cfca 9f3c
000000a0: 7e8e 28bd caec 6a3c 063a b73d c77c 2d3e
000000b0: 8917 57bd e473 2fbd b134 d73c f45e 063d
000000c0: 6cfc 98bd 15f3 813d f751 3abd d4f2 943d
000000d0: 6766 e8bc 88bf 92bc 30bf b73d 0b55 6abd
000000e0: ebdc 56bd 4839 a7bc 574f 813d 5508 00be
000000f0: 13cb 983d d605 ad3c ccd2 db3d 8dd6 923d
00000100: faf1 84bd f196 9f3e f306 143d 2723 96bd
00000110: bed8 ee3c 8291 3f3d 9b84 c2bd 1b58 433e
00000120: 966e 33bc 31c5 803d 9001 1dbe 683d 3fbd
00000130: 3e0d ad3d 0ed9 5e3d 1ee8 31be 1537 9f3c
00000140: 864f aa3d 0745 6d3d 92a8 c63d 300b 25be
00000150: b560 0e3e 4597 17bd 2233 4abd 7168 55be
00000160: ed7d 813d e59a ce3c 52f8 c93d faa3 8ebd
00000170: 53f4 a1bd 542f 20bd 15e8 9e3d 4e71 823a
00000180: 2763 e5bd e20f f23d 5846 86bb e014 54bd
00000190: e61d 703d a297 52be 470d ffbd 2600 99bd
000001a0: c69c a6bc 123a 793e 175e 1cbe 17ed 833d
000001b0: 0e4b 3c3d c6cc e83c 457e 623d 2571 0cbc
000001c0: 0fab f73d d61d a9bc 49a4 b0bc 20d2 cf3d
000001d0: 1e17 b5bd e7a3 0cbd f5c1 db3d 52f8 e5bd
000001e0: acc0 b13d 6164 fcbc f19f 3cbd 5eb0 083e
000001f0: 9a6e ed3d 07f7 01be 8d07 9bbd 83cb e7bd
00000200: a841 cebd 27a7 303d a22d 023e 9763 98bd
00000210: 0cb3 923c a985 20bd 4da5 22be e01b b6bd
00000220: ccc2 863c 76a2 2f3e 3ae5 433d 251a 603e
00000230: cf73 f8bd 87e0 0e3e 3cd5 753d 3859 e3bd
00000240: be5c 003d 4e1e ecbd 74f1 35bd 97e0 30be
00000250: 110a 84bc 3d3f 9d3d be90 dabd 1df9 b73c
00000260: eda7 9e3d 801f 97bd b797 4bbe 9fa3 093e
00000270: da87 0a3b 303c 8ebd f035 cf3c 7a19 c1bd
00000280: 4756 69bd 9042 dfbd acf4 4ebd a3c8 b8bd
00000290: 86bb 84bc ab89 f73d 740e 003e 9c19 943b
000002a0: 3c85 27be 703d 86bd 17ff 9c3d e46a 043e
000002b0: d8d0 293c 61b7 533d 0651 d8bd d9db 2dbd
000002c0: 6e41 8e3d 072a 9f3d 7eda cfbd 143f 73be
000002d0: 2265 42bd 268b b2bd 534b bd3d 66e0 cabd
000002e0: 8797 703d 65db 913d ddcc a1bc 7834 b9bd
000002f0: ec26 bf3d b69f 343d 0f4e 4cbd 1a42 203d
00000300: e16c ef3c e4c5 bd3d b769 ddbd cfc7 a63d
00000310: 6d54 033e 5cc5 0f3d 65bb 483e 0bb6 6d3d
00000320: b500 e9bd 7f89 2cbd 6a91 163d 6060 a1bc
00000330: f4ba 4fbe dfbc acbd 66d8 83bc 6af4 d0bd
00000340: a614 86be 4c27 153c d423 c83d 573a 2dbc
00000350: 308e 9cbc e4ef 7ebd 0c76 7dbd 7028 e3bd
00000360: b306 c7bd 0f52 88bd 606d 0b3a 2d1c b5bd
00000370: fa72 54bd 7bcc bfbd ce89 f33d 5590 863d
00000380: 5577 a9bd c1d0 043e 004e 2abc 8bda 19bd
00000390: 4668 f0bc 4845 f9bd 0b82 e3bc 4f03 a43e
000003a0: 02f6 613e 1f62 31bd 3353 a43d c3d3 3d3d
000003b0: 5ba9 99ba 9f90 e3bd 9385 dabc 4a03 963d
000003c0: ebdd 213e 6c94 4cbe e8f1 45be 1438 043e
000003d0: efbd 9bbd baf2 0fbd 24b4 533d b7ac 073c
000003e0: 28fe b33d 204a 98bd 4dcf b4bd c0d4 9bbc
000003f0: a328 393d 4542 3cbc 68ef 85bd b4a7 de3d
-0.016623363 -0.025963485 -0.07240964 0.11765409 -0.004770082 -0.05423823 -0.113989666 -0.0020536748
0.05769146 -0.061572418 -0.009247479 -0.02477846 -0.06921403 0.18007383 0.12465672 -0.049073573
0.006919612 0.017721467 0.022517897 0.11129668 0.1680483 -0.019487798 -0.075537026 0.123503454
-0.019762808 -0.13963383 -0.00041228687 -0.109027475 -0.0052437047 -0.0012422197 0.04823122 -0.074993365
0.100531295 0.065888695 -0.14485142 0.13768244 0.030978955 -0.009125842 0.08176276 0.019505886
-0.041151516 0.0143386815 0.08946614 0.1694213 -0.05251268 -0.04283513 0.026270242 0.032805398
-0.07470021 0.06345192 -0.045488324 0.07272878 -0.028369142 -0.017913595 0.08972013 -0.05721001
-0.052456778 -0.020413056 0.06313961 -0.12503178 0.07460608 0.021120947 0.10733566 0.071698286
-0.06491466 0.31169847 0.03613944 -0.073309235 0.029156085 0.046769626 -0.09497949 0.19076578
-0.010951659 0.06287611 -0.15332627 -0.04668942 0.08449791 0.05440622 -0.17373702 0.019435445
0.08315949 0.057927158 0.09700121 -0.16117549 0.13904078 -0.037009496 -0.04936517 -0.20840622
0.063228466 0.025220344 0.098618165 -0.0696487 -0.07907929 -0.039107636 0.0775911 0.000995198
-0.112005524 0.11819436 -0.004097741 -0.05177772 0.058622263 -0.20565656 -0.12453704 -0.074707314
-0.020338427 0.24338558 -0.15270267 0.06441706 0.045970015 0.028417956 0.0552962 -0.008571898
0.12093174 -0.02064411 -0.021562712 0.101475 -0.088423 -0.034335997 0.10730354 -0.11229004
0.08679327 -0.030809583 -0.04605097 0.13348529 0.11593361 -0.1269189 -0.075697996 -0.11318114
-0.10071117 0.04312816 0.1271272 -0.0744087 0.017907642 -0.03918997 -0.1588337 -0.088920355
0.016450308 0.17151818 0.04782603 0.21884973 -0.12131464 0.13952838 0.06001781 -0.111010015
0.031338446 -0.11529218 -0.04441972 -0.17273174 -0.016118081 0.07678077 -0.10672139 0.022457654
0.07746873 -0.07379055 -0.19882093 0.13441323 0.0021138103 -0.069450736 0.025294274 -0.094286874
-0.056967046 -0.10901368 -0.050526306 -0.090226434 -0.0162027 0.12086805 0.12505513 0.0045196544
-0.16359419 -0.06554687 0.07665842 0.129314 0.010364734 0.051688556 -0.10562329 -0.04244599
0.069460735 0.07771688 -0.10149096 -0.23754531 -0.04745973 -0.08717947 0.092428826 -0.09906082
0.058738258 0.07121924 -0.019751007 -0.09043211 0.09333596 0.044097625 -0.04987913 0.03912554
0.029226722 0.0926626 -0.10811179 0.08143579 0.12825175 0.035100326 0.19602735 0.058034938
-0.11377088 -0.042123314 0.03675977 -0.019699275 -0.2028616 -0.08434462 -0.016094398 -0.10202868
-0.26187629 0.009103607 0.09772459 -0.010572991 -0.019110769 -0.062240496 -0.061880156 -0.11091697
-0.09718075 -0.066562764 0.00053187273 -0.08843265 -0.051867463 -0.093651734 0.118915185 0.06570498
-0.08274714 0.12970258 -0.010394573 -0.037561934 -0.029346596 -0.121714175 -0.02777197 0.32033774
0.22066501 -0.043306466 0.080236815 0.04634453 -0.0011723445 -0.11111569 -0.026675021 0.07324846
0.15807311 -0.19978493 -0.19330561 0.12912017 -0.07604586 -0.03514359 0.051685467 0.0082809245
0.08788711 -0.07436013 -0.08828602 -0.019022346 0.04520477 -0.011490409 -0.06539804 0.108718306

h.0.mha.W_o.bias f4 [64]
00000000: 873a 20be 1fbe 233d ca27 1b3e f654 eabc
00000010: a1be c3bd b7f2 153e 232e 373e 3c9c d1bd
00000020: b7a2 d13c f8e5 08be 9ca3 2b3d 68e0 a43d
00000030: f65b e4bc 7704 b5bc a559 f1bd bf3e f13d
00000040: 0681 d1bc 8ca2 9abd 36a9 69bd 8b3e ec3b
00000050: e437 edbd 3cd6 22bd 63e0 d7bd 1278 14bd
00000060: ebf3 f73c 0c98 7cbd 0d69 4b3c 7c03 093e
00000070: d7a5 5abd eb5c 053e 7ec8 193e 60d0 503d
00000080: 9385 34bd 8c36 d0bd 8a64 0ebe 6189 1b3e
00000090: 225c a83d 3007 3a3e 4b3d d2bd 8c16 70bd
000000a0: c449 5bbd deb5 07be 5b6f 683d ebdf 74bc
000000b0: 1bda 84bd 6f1f 1839 a971 85bd 492d be3d
000000c0: e295 003e f8c3 39bd 7e8b 1ebe c59f 8c3d
000000d0: af57 edbb 7695 223e ceb0 b93d 4e5f 3b3d
000000e0: bdfa 36bd 2d47 88bd 3582 223d 9ead 43bd
000000f0: 1783 cf3d 6260 9d3d 5e42 f33d c88b b43d
-0.15647326 0.039976235 0.15151897 -0.028604966 -0.09557844 0.1464337 0.17888694 -0.102348775
0.025590284 -0.13368976 0.041904077 0.080506146 -0.027875882 -0.022096856 -0.117846765 0.11779546
-0.025574218 -0.075505346 -0.057046138 0.007209604 -0.11582926 -0.03975509 -0.10540845 -0.03624732
0.030267676 -0.06166844 0.012415183 0.13380235 -0.053380813 0.13023727 0.15017888 0.050979972
-0.0440727 -0.10166654 -0.1390554 0.15189125 0.08220698 0.18166804 -0.10265597 -0.058615252
-0.053537145 -0.1325297 0.05674682 -0.014945964 -0.06486913 0.0001450756 -0.065158196 0.09285981
0.12557176 -0.045352906 -0.154829 0.06866411 -0.0072431187 0.15877327 0.09066926 0.045745187
-0.044672716 -0.06654201 0.039674956 -0.047772996 0.10132425 0.07684399 0.11877893 0.08815724

h.0.ln_1.weight f4 [64]
00000000: 872f 873f 6987 743f e645 863f 99ce 833f
00000010: 911b 713f a6a5 823f 6cb9 753f ca1e 833f
00000020: 8166 7a3f 1b25 813f e5cd 7d3f b9ed 7f3f
00000030: 39e3 793f 6c27 753f cef0 743f facc 823f
00000040: 4ed0 7f3f c088 723f 9331 623f 0f0d 753f
00000050: 0627 8c3f 0200 7b3f bcb2 6f3f 06ab 803f
00000060: fed9 713f 127b 643f b50b 863f 3dca 6e3f
00000070: a850 763f 1480 703f cc72 833f 3f12 813f
00000080: ace9 6b3f 01b3 6e3f a016 753f 4463 813f
00000090: dfb6 803f 316d 863f dd2d 813f dad8 703f
000000a0: 7294 5a3f 9dbc 853f dca3 7a3f 6d7a 823f
000000b0: d106 813f 2508 7d3f 289d 853f 1ca9 763f
000000c0: 58a0 803f f511 783f 0acd 6e3f 6995 883f
000000d0: 69a6 753f 7bbd 823f b99f 723f 0467 843f
000000e0: 7419 833f 8297 7c3f 98da 833f a384 783f
000000f0: ce83 753f 6b89 703f 3deb 7d3f 5450 7e3f
1.0561379 0.9551912 1.0490081 1.0297424 0.9418269 1.0206802 0.95986056 1.0243771
0.9781266 1.0089449 0.99142295 0.9997211 0.9761234 0.9576328 0.9567994 1.0218804
0.9992722 0.94739914 0.88356894 0.9572305 1.0949409 0.98046887 0.936321 1.0052192
0.94473255 0.8925029 1.0472323 0.9327734 0.9621682 0.9394543 1.0269408 1.0083693
0.9215343 0.9324189 0.9573765 1.0108418 1.0055808 1.0502073 1.0092121 0.9408089
0.8538276 1.0448185 0.9790628 1.0193611 1.0080205 0.9884055 1.0438585 0.9635179
1.0048933 0.969024 0.93281615 1.0670596 0.95957047 1.0214075 0.9477497 1.0343938
1.0242143 0.9866868 1.0301085 0.9707739 0.95904243 0.93959683 0.9918707 0.9934132

h.0.ln_1.bias f4 [64]
00000000: 8d8b a3bc f34c 48bd fb04 3abc 1dc8 303d
00000010: 9338 1cbd 5769 d5bc 6e30 c63b 9c4f a6bb
00000020: 2890 92bc 6ad5 81bd 7948 b4bc eab0 413d
00000030: 2e52 49bd 88e8 afb9 709d 8fbc f14b 30bd
00000040: f434 633d f8df 2bbd bf6c 093d 114a d7bb
00000050: 70e9 7dbd 871d 263b 7eb2 4f3d 004b f0bc
00000060: e281 3bbd cbec bd3a c13a 38bd 1582 993d
00000070: c7c2 a6bd 208b 1f3d 7f10 133d 37a3 393d
00000080: 1d2c 0e3d 5edf 3e3c 14fa acbc 9cd0 013d
00000090: 42df e63b 77f5 1e3c 920c bdbc 5685 3b3d
000000a0: b269 a2bc 22a6 7abc d772 933c a28f c73d
000000b0: 7e94 2d3d 2598 923c ce09 74bc 991d 6e3d
000000c0: 0541 e0bc 4292 843d e8c7 41bb 02a9 843d
000000d0: 7d25 e5bc 3c23 f8bc 2019 5abc 9c99 f0bc
000000e0: a920 353d 98b8 32bc 564e e4bc 3b59 21bd
000000f0: 6059 63bd 11ae e73c 5a80 cf3c c725 283d
-0.019964004 -0.04890151 -0.0113537265 0.043159593 -0.03813989 -0.026051207 0.0060482537 -0.005075408
-0.017891005 -0.063395336 -0.022007214 0.04728786 -0.04915064 -0.0003355185 -0.017531127 -0.043041173
0.055470422 -0.04196164 0.033550974 -0.0065701087 -0.0619902 0.002534719 0.050707333 -0.029332638
-0.045778163 0.0014490125 -0.044977907 0.07495514 -0.081426196 0.03895104 0.035904404 0.04532167
0.03471004 0.011649935 -0.02111534 0.031693086 0.0070456574 0.009702078 -0.023077283 0.045781456
-0.01982579 -0.015298398 0.017999096 0.09744193 0.04237794 0.017894814 -0.014894916 0.058133695
-0.027374754 0.06473209 -0.0029568616 0.06477548 -0.027971977 -0.030290239 -0.013311654 -0.029370122
0.0442206 -0.010908268 -0.027869385 -0.039391737 -0.055505157 0.028281244 0.025329757 0.041051652

h.0.ln_2.weight f4 [64]
00000000: 0000 803f 0000 803f 0000 803f 0000 803f
00000010: 0000 803f 0000 803f 0000 803f 0000 803f
00000020: 0000 803f 0000 803f 0000 803f 0000 803f
00000030: 0000 803f 0000 803f 0000 803f 0000 803f
00000040: 0000 803f 0000 803f 0000 803f 0000 803f
00000050: 0000 803f 0000 803f 0000 803f 0000 803f
00000060: 0000 803f 0000 803f 0000 803f 0000 803f
00000070: 0000 803f 0000 803f 0000 803f 0000 803f
00000080: 0000 803f 0000 803f 0000 803f 0000 803f
00000090: 0000 803f 0000 803f 0000 803f 0000 803f
000000a0: 0000 803f 0000 803f 0000 803f 0000 803f
000000b0: 0000 803f 0000 803f 0000 803f 0000 803f
000000c0: 0000 803f 0000 803f 0000 803f 0000 803f
000000d0: 0000 803f 0000 803f 0000 803f 0000 803f
000000e0: 0000 803f 0000 803f 0000 803f 0000 803f
000000f0: 0000 803f 0000 803f 0000 803f 0000 803f
1.0 1.0 1.0 1.0 1.0 1.0 1.0 1.0
1.0 1.0 1.0 1.0 1.0 1.0 1.0 1.0
1.0 1.0 1.0 1.0 1.0 1.0 1.0 1.0
1.0 1.0 1.0 1.0 1.0 1.0 1.0 1.0
1.0 1.0 1.0 1.0 1.0 1.0 1.0 1.0
1.0 1.0 1.0 1.0 1.0 1.0 1.0 1.0
1.0 1.0 1.0 1.0 1.0 1.0 1.0 1.0
1.0 1.0 1.0 1.0 1.0 1.0 1.0 1.0

h.0.ln_2.bias f4 [64]
00000000: 0000 0000 0000 0000 0000 0000 0000 0000
00000010: 0000 0000 0000 0000 0000 0000 0000 0000
00000020: 0000 0000 0000 0000 0000 0000 0000 0000
00000030: 0000 0000 0000 0000 0000 0000 0000 0000
00000040: 0000 0000 0000 0000 0000 0000 0000 0000
00000050: 0000 0000 0000 0000 0000 0000 0000 0000
00000060: 0000 0000 0000 0000 0000 0000 0000 0000
00000070: 0000 0000 0000 0000 0000 0000 0000 0000
00000080: 0000 0000 0000 0000 0000 0000 0000 0000
00000090: 0000 0000 0000 0000 0000 0000 0000 0000
000000a0: 0000 0000 0000 0000 0000 0000 0000 0000
000000b0: 0000 0000 0000 0000 0000 0000 0000 0000
000000c0: 0000 0000 0000 0000 0000 0000 0000 0000
000000d0: 0000 0000 0000 0000 0000 0000 0000 0000
000000e0: 0000 0000 0000 0000 0000 0000 0000 0000
000000f0: 0000 0000 0000 0000 0000 0000 0000 0000
0.0 0.0 0.0 0.0 0.0 0.0 0.0 0.0
0.0 0.0 0.0 0.0 0.0 0.0 0.0 0.0
0.0 0.0 0.0 0.0 0.0 0.0 0.0 0.0
0.0 0.0 0.0 0.0 0.0 0.0 0.0 0.0
0.0 0.0 0.0 0.0 0.0 0.0 0.0 0.0
0.0 0.0 0.0 0.0 0.0 0.0 0.0 0.0
0.0 0.0 0.0 0.0 0.0 0.0 0.0 0.0
0.0 0.0 0.0 0.0 0.0 0.0 0.0 0.0

ln_f.weight f4 [64]
00000000: 0000 803f 0000 803f 0000 803f 0000 803f
00000010: 0000 803f 0000 803f 0000 803f 0000 803f
00000020: 0000 803f 0000 803f 0000 803f 0000 803f
00000030: 0000 803f 0000 803f 0000 803f 0000 803f
00000040: 0000 803f 0000 803f 0000 803f 0000 803f
00000050: 0000 803f 0000 803f 0000 803f 0000 803f
00000060: 0000 803f 0000 803f 0000 803f 0000 803f
00000070: 0000 803f 0000 803f 0000 803f 0000 803f
00000080: 0000 803f 0000 803f 0000 803f 0000 803f
00000090: 0000 803f 0000 803f 0000 803f 0000 803f
000000a0: 0000 803f 0000 803f 0000 803f 0000 803f
000000b0: 0000 803f 0000 803f 0000 803f 0000 803f
000000c0: 0000 803f 0000 803f 0000 803f 0000 803f
000000d0: 0000 803f 0000 803f 0000 803f 0000 803f
000000e0: 0000 803f 0000 803f 0000 803f 0000 803f
000000f0: 0000 803f 0000 803f 0000 803f 0000 803f
1.0 1.0 1.0 1.0 1.0 1.0 1.0 1.0
1.0 1.0 1.0 1.0 1.0 1.0 1.0 1.0
1.0 1.0 1.0 1.0 1.0 1.0 1.0 1.0
1.0 1.0 1.0 1.0 1.0 1.0 1.0 1.0
1.0 1.0 1.0 1.0 1.0 1.0 1.0 1.0
1.0 1.0 1.0 1.0 1.0 1.0 1.0 1.0
1.0 1.0 1.0 1.0 1.0 1.0 1.0 1.0
1.0 1.0 1.0 1.0 1.0 1.0 1.0 1.0

ln_f.bias f4 [64]
00000000: 0000 0000 0000 0000 0000 0000 0000 0000
00000010: 0000 0000 0000 0000 0000 0000 0000 0000
00000020: 0000 0000 0000 0000 0000 0000 0000 0000
00000030: 0000 0000 0000 0000 0000 0000 0000 0000
00000040: 0000 0000 0000 0000 0000 0000 0000 0000
00000050: 0000 0000 0000 0000 0000 0000 0000 0000
00000060: 0000 0000 0000 0000 0000 0000 0000 0000
00000070: 0000 0000 0000 0000 0000 0000 0000 0000
00000080: 0000 0000 0000 0000 0000 0000 0000 0000
00000090: 0000 0000 0000 0000 0000 0000 0000 0000
000000a0: 0000 0000 0000 0000 0000 0000 0000 0000
000000b0: 0000 0000 0000 0000 0000 0000 0000 0000
000000c0: 0000 0000 0000 0000 0000 0000 0000 0000
000000d0: 0000 0000 0000 0000 0000 0000 0000 0000
000000e0: 0000 0000 0000 0000 0000 0000 0000 0000
000000f0: 0000 0000 0000 0000 0000 0000 0000 0000
0.0 0.0 0.0 0.0 0.0 0.0 0.0 0.0
0.0 0.0 0.0 0.0 0.0 0.0 0.0 0.0
0.0 0.0 0.0 0.0 0.0 0.0 0.0 0.0
0.0 0.0 0.0 0.0 0.0 0.0 0.0 0.0
0.0 0.0 0.0 0.0 0.0 0.0 0.0 0.0
0.0 0.0 0.0 0.0 0.0 0.0 0.0 0.0
0.0 0.0 0.0 0.0 0.0 0.0 0.0 0.0
0.0 0.0 0.0 0.0 0.0 0.0 0.0 0.0
