subspace-alignment/data/1_layer_32_vocab/ckpt_1380.pt (torch, 90637 bytes, 17 tensors)

embed.embed.weight f4 [32, 64]
00000000: 962a 1dbe e008 2b3f 9757 233f aff3 003e
00000010: 88b2 18bd 3b22 31bf e236 a2bf aca3 bbbc
00000020: 3361 febe 2a93 7c3e 1c33 c4bf e60b bd3e
00000030: ff6d 5dbe 9d82 5bbf 6120 703f f1ed 1a3d
00000040: c4bc 4f3e ba14 883d ba75 523f 792f 3abf
00000050: d29b 0dbf f67b cb3f b6d1 b53f 6016 84bf
00000060: 747a 09c0 5345 bc3f e45a 4fbf 4a87 0840
00000070: a574 603f 2195 313f 4258 0ebf b84b 0f3f
00000080: 7723 723f 74c7 5fbf 50c6 ba3e bd6c 81bf
00000090: 76a0 9bbf bc2a 1e3f 9a7b 61bf 8817 293f
000000a0: d10c dcbf a20c 68bf 019c 633e 2394 3c3f
000000b0: bc07 a33f f566 503f bb9f e8be e9b4 2cbf
000000c0: f6a7 5fbf 4a4a cdbf 4519 d7bd 04c5 bcbe
000000d0: 826c cf3e edfb 8f3f a27c ac3d a219 6fbf
000000e0: 7d6c c33e 6cf7 03bf 0cfb 9cbf 63b0 cbbf
000000f0: effe f33e 84a3 97be 5ee3 43bd a4a7 553f
00000100: f353 1d3f 3c3e 9cbf 739b 97bf c5f2 063e
00000110: d68a fd3f 0a63 8ebf d61a 92be 62a9 01bf
00000120: 4068 963e 489c 9fbe 5945 1d3e 9145 d33e
00000130: 91c6 e03e 3ab9 b33e 8daf 9e3d 9b4b 5b3f
00000140: 18dd a73f bf6c 06bf 7ab7 953f 9d0a a43e
00000150: b1df 943e 8c65 dbbe a860 d33f 7c51 083f
00000160: abb7 a73d ffe6 793f c9eb a6bf bb94 cc3e
00000170: 1046 01c0 9bb2 fe3f 7e53 5f3e 5b3f 94bf
00000180: a100 a6bf 6858 abbf aaaa 1e3f 7ad2 1cbd
00000190: 5b33 763f 74fb 523f f0e2 9a3f 33ab f93d
000001a0: 8991 99bf 582b 02be 151c 8c3f f5fa d93e
000001b0: ecbd 19bf 71d2 e7bd dfc6 b0bf 897d b6bf
000001c0: b16c 9bbe 2a5c cfbd 917e 9b3f 3e00 3cbc
000001d0: 1a18 38bf a1c6 983d 1ef1 9d3e 69cb 72bf
000001e0: 5109 503d af9e 66bf f2d4 80be 926d 16be
000001f0: 1115 e13e c62f 1ac0 c6f0 76bf 92b1 da3e
00000200: 8a1c 593f e249 703f 6ff0 c5be c9f3 88be
00000210: 7004 47be ab35 3f3f c085 19bf 13bc c2bf
00000220: be36 aa3e 8b20 76bf 97bb c93e 09b6 d5be
00000230: d145 2bbf 496a 4c3f 164b a93e 84c2 d63e
00000240: b0c1 36bf 916e 63bf 44f9 e8bf 8192 4ebf
00000250: 7b83 443e e16c 9d3f 366c 84bf bae2 15bf
00000260: 05c3 ca3e 44b8 f53e 75bb 18bf e592 3b3e
00000270: 0985 91bf 421d c93f 48c0 973f d1ff 033f
00000280: 8115 64bf 3fd0 033f 4974 bc3e b2c6 983f
00000290: bda4 8fbf 535d cabf eb31 e1be e669 1e40
000002a0: 3783 18bf 510c 7ebf 7f9a b63c 2acb a53d
000002b0: c16f 6cbd e2e2 5cbf 5ee6 603f d6a0 7bbe
000002c0: 3069 83be 05c4 9bbf 7743 0e40 f94f 5cbd
000002d0: f5ad 603e 6493 1ebf 355c e1bf cff6 e5be
000002e0: 2bf3 373f 4a02 36bc 59b8 0ebf 37d3 723f
000002f0: e9c7 20c0 104b 133f 9ef3 973e 7f30 8c3e
00000300: 0b18 aebf 3698 913f 9f82 a03d 7f35 2fbe
00000310: 97ae cdbf 8b62 ffbe 31df b93f 564a 083f
00000320: cffc adbf 4400 a4bf 3d94 edbf 5b31 9ebe
00000330: 4cac 2dc0 6a1a 1940 f832 aabf 9f09 f33e
00000340: 0b39 e93e 824b 96be e958 593f e6c0 983e
00000350: 91a5 553f bbec 39bf 55b7 bebf 53c5 393f
00000360: d431 02c0 8e3f c13f 8304 573e 7044 153f
00000370: 9ee1 ba3e bfab b8be 8e1d c7be aedd 7f3f
00000380: d9a7 5a3f 63d9 4f3f 4d3c 43bf 2821 6ebf
00000390: 9399 0d3c 3bef 5dbf 215e e93e d85a b13f
000003a0: c415 e33f 1ba7 79bd 6c8d 77bf 050b 5e3f
000003b0: 0aff 693f 35bc e83f 04b5 3d3f 14b2 4f3f
000003c0: 2e7a 563f f6e5 47bf d22f 003f 621f 8f3d
000003d0: f1b4 b9bf ddff 9b3f 9812 c93e e3e2 0abf
000003e0: e89c c63e b051 a33f 5943 39c0 2b61 95be
000003f0: eb6a 7e3d f3e8 1cbf 2b40 56bf 218f 6bbd
-0.15348276 0.6681042 0.63805526 0.12592958 -0.037279636 -0.69192857 -1.2672999 -0.022905193
-0.49683532 0.24665514 -1.5328097 0.3692314 -0.21623991 -0.85746175 0.93799406 0.037824575
0.20286852 0.06644578 0.82210886 -0.7272869 -0.5531589 1.5897205 1.4204624 -1.0319328
-2.148099 1.4708656 -0.80998063 2.1332574 0.87677985 0.6936818 -0.5560342 0.5597491
0.94585365 -0.87413716 0.36479425 -1.0111309 -1.2158344 0.6178396 -0.88079226 0.6605153
-1.7191411 -0.90644276 0.2222748 0.7366354 1.2736735 0.814071 -0.45434365 -0.67463547
-0.87365663 -1.6038296 -0.10502867 -0.3686906 0.40512472 1.1248757 0.08422209 -0.9339849
0.38168707 -0.5154941 -1.2264113 -1.5913204 0.47655436 -0.2961694 -0.047824256 0.83458924
0.6145622 -1.2206492 -1.1844314 0.13178547 1.9807994 -1.1123974 -0.285361 -0.5064908
0.2937641 -0.3117392 0.15358485 0.41264012 0.43901494 0.35102254 0.077483274 0.8566224
1.3114347 -0.52509683 1.1696618 0.32039347 0.29076913 -0.42850912 1.6513872 0.53249335
0.08189329 0.976181 -1.3040706 0.39957222 -2.0199013 1.9898256 0.21809193 -1.1581835
-1.2968942 -1.3386354 0.6197916 -0.038286664 0.9617211 0.82414937 1.2100506 0.12190857
-1.1997539 -0.12711847 1.094607 0.42574278 -0.6005542 -0.113194354 -1.3810691 -1.425706
-0.30356362 -0.10125001 1.2148 -0.011474667 -0.71911776 0.074597605 0.3084802 -0.9484163
0.050790135 -0.9008588 -0.25162464 -0.14690235 0.43961385 -2.4091659 -0.9646114 0.427136
0.8480917 0.93862736 -0.3866 -0.26748493 -0.19435287 0.74691266 -0.5996971 -1.5213646
0.3324489 -0.96143407 0.39400932 -0.41740444 -0.66903406 0.7984968 0.330651 0.4194528
-0.71389294 -0.88840586 -1.820107 -0.806923 0.19190781 1.2298852 -1.0345523 -0.5854908
0.39601913 0.47992146 -0.59661037 0.18317755 -1.1368724 1.5712054 1.1855555 0.5156222
-0.8909531 0.51489633 0.3680747 1.1935637 -1.1222149 -1.580973 -0.43983397 2.4752135
-0.5957522 -0.99237543 0.022290466 0.08095391 -0.057723764 -0.86283696 0.8785151 -0.24573073
-0.2566619 -1.2169195 2.2228677 -0.053787205 0.2194136 -0.6194365 -1.7606264 -0.44914863
0.7185542 -0.011108944 -0.5575004 0.9485354 -2.5122015 0.5753641 0.29678053 0.2738075
-1.3601087 1.1374576 0.07837414 -0.17110251 -1.6068906 -0.4987987 1.4521238 0.5323843
-1.3592776 -1.2812581 -1.8560864 -0.3089703 -2.7136412 2.3922372 -1.3296804 0.47468278
0.45551333 -0.29354483 0.8490129 0.2983467 0.8345576 -0.7262685 -1.4899698 0.7256672
-2.0342913 1.509752 0.20997815 0.5830755 0.36500257 -0.36068532 -0.38889736 0.9994763
0.85412365 0.8119108 -0.76263887 -0.9301934 0.008642572 -0.8669316 0.45579627 1.3855848
1.7741017 -0.06095038 -0.9670017 0.86735564 0.91404784 1.8182436 0.7410433 0.811311
0.8378018 -0.7808527 0.5007297 0.06988408 -1.4508344 1.2187458 0.39271998 -0.5425245
0.38791585 1.2759304 -2.8947356 -0.29175696 0.062113684 -0.6129295 -0.8369166 -0.057509545

h.0.mha.W_q.weight f4 [64, 64]
00000000: 6bfc 7abd 7ab8 77bc dae4 d3bc 78ff e23d
00000010: 5dac e13d 6ee5 56bd 834e 0abe 1e12 6ebc
00000020: 4811 64bc 6c86 02be f8dd d4bd 13b5 3b3d
00000030: ccd1 98bd bb8b a73d f1df 613c b778 16be
00000040: 2d64 b73d bce6 fc3d f39c 3fbd a1ad 913d
00000050: b32e 2e3c ac7d 2b3d 7745 f13d ade2 9bbd
00000060: e9b4 163d 9258 c03d e7a8 293d 148f f03d
00000070: 163b 97bd 26cb c3bd 531c f0bd 945c 89bb
00000080: b021 0ebc 6740 d03c d3ef f8bd 828c 17be
00000090: 3993 a3bc 2b33 35bd 7951 7e3d d0d2 9f3c
000000a0: 0f40 a1bd c20d 01be a883 813d 6fcd 243e
000000b0: 3160 9d3b 03b8 73bd bd9f 2fbd 30ab e3bd
000000c0: 0c18 7e3c 19fe 11bd 76fc 65bc f96b 4a3d
000000d0: 612f 12bc 2701 bbbb 2b71 c8bd 8015 2c3c
000000e0: 4527 0f3d e9ef a8bc cfa4 9d3d b3f4 7cbd
000000f0: d94c 22bd 31ff b23d 48e3 98bd 4439 d13c
00000100: 3d51 94bd 4e3a e53c 45ef 9cbd d917 883d
00000110: 3e51 cebd a4dc d5bd 8d47 c5bd 351e 64bd
00000120: c20c a73d 1492 aebc 2fc9 d1bd bde6 03bd
00000130: a7f0 bdbd b5a3 3e3b d122 753d cefa a33c
00000140: bbe5 453d 9167 e4bc accc 183d 747e 0abe
00000150: 489f 683d e48b c53b dc76 90bd bb0e 89bd
00000160: da23 743c 04ac 433d 6189 c6bd f160 f2bd
00000170: e5c0 e33d d4e6 ca3d d389 e4bc c25e eabd
00000180: 37a4 85bc aa05 9dbd 3ddd 5bbd 5535 843d
00000190: c175 d63d e9ad c9bc 8bf6 11bc 448a 6abc
000001a0: 5a56 c63d fc15 c2bb f819 54bd 328e 67bd
000001b0: 4f87 6c3d d205 efbd 3bb2 663d dc6a b7bc
000001c0: 3970 46bd 045c c6bd 2061 b2bd ec13 80bd
000001d0: 5d95 713d 4b52 963b 6dc6 debb e632 003c
000001e0: 5f97 98bd 0f59 96bd 07e5 be3c 941c 223d
000001f0: dcad c63c d17c dd3d 65a5 1fbd 9c16 d0bb
00000200: 2e93 79bd ba4a b4bd e03a 8fbd 0199 ef3c
00000210: ac4c bbbc da05 80bd 231a 183d 4574 b6bd
00000220: c089 a2bd 33d1 49bb 488f 833d 897a 85bd
00000230: e989 043d af67 57bd 3eaa b7bd 3121 9a3c
00000240: ba77 72bd f779 673d 83ed 14be 3b6e a03d
00000250: 499e 57bd 1155 fcbb 9f26 2d3d d12b 5bbc
00000260: 912b 3f3d f8c5 dc3d 615a 183d 465a e4bc
00000270: 2c1e 6dbd 84c6 5fbd 0525 5f3d 671d cc3d
00000280: 086b b23d e211 d6b9 3d8a 263d 361c b73b
00000290: ff39 87bb 0d52 edbd 9763 93bd ebcb 7dbd
000002a0: 7002 a63d ae39 fdbd 7855 873c 4efb 15bc
000002b0: 0aeb e23c c09d 04be a6ec 12bc 79bf 773d
000002c0: 05f3 02bd 4f0d 06bd 74da 8f3d e6ef 963d
000002d0: 2945 a5bb e7ee a83d 1af5 6e3d 8a91 71bd
000002e0: cf45 ff3d 99cd d8bd e4c5 94bd 7d52 6ebd
000002f0: 1852 d03c fc07 9cbd a648 953b d8a5 5cbb
00000300: 5571 b9bc efae d8bc 432f a63d 5b7c a43d
00000310: cc8b aabc 8827 97bd 7c77 dfbc 1c4e bcbd
00000320: 1f2a dabb d9dc 13bc b9cf 6c3d 20e9 4abd
00000330: decb 9bbd 32d5 b4bc 201f b73d f90b a23d
00000340: 8ebb 763d f4a8 a8bd 0d99 4cbd fbe0 1e3c
00000350: 5435 9abd 9b66 6abc f624 03bc fc15 33bd
00000360: 7539 abbc 09c5 f4bb 9235 16bc 052b 96bd
00000370: 0d33 80bd cb49 573b 42a1 f4bc bcbe dcbd
00000380: 8e9a 4abd cdbc 063d 147f d23c 70af 8fbd
00000390: 6ea8 ad3d a817 c03c 9b39 f53c d387 1dbc
000003a0: 9883 4fbc c488 b3bc fb1a 5e3b 384b cabd
000003b0: 5b68 af3b dc73 023d 44f0 213c 8630 08be
000003c0: 1c28 d93d 1180 7e3d 1e88 a7bd 6da4 85bc
000003d0: 262a 22ba 5882 0ebd ce11 293d fa85 ca3d
000003e0: efcb 97bc 601d 40bb 1bdf 773d 34f8 9abd
000003f0: b4f3 d53c 2bb2 d9bc e44d 9f3d 4deb a4bd
-0.06127588 -0.015119666 -0.02586596 0.11083883 0.11019204 -0.052464895 -0.13506512 -0.014530687
-0.013920136 -0.1274659 -0.103939 0.045826983 -0.074618906 0.08180948 0.013786302 -0.14694487
0.08954654 0.123486966 -0.046780538 0.07113195 0.010631251 0.041867897 0.117808275 -0.07611594
0.036793623 0.093918934 0.041420843 0.1174604 -0.073843166 -0.09560232 -0.117241524 -0.0041919444
-0.008675024 0.025421334 -0.12155118 -0.14799693 -0.019967662 -0.04423825 0.062089417 0.019509703
-0.07873546 -0.12602904 0.063239396 0.16093992 0.0048027267 -0.05950166 -0.042876948 -0.11116636
0.015508663 -0.035642717 -0.014037242 0.049419377 -0.008922429 -0.0057069245 -0.0978721 0.010503173
0.03494956 -0.02062221 0.0769745 -0.0617568 -0.03962407 0.0874008 -0.074652255 0.025540002
-0.072420575 0.027981903 -0.076628245 0.066451736 -0.100740895 -0.104424745 -0.09632788 -0.05569287
0.0815673 -0.02130989 -0.10243451 -0.03220247 -0.092744164 0.0029089276 0.059847657 0.020017054
0.04831479 -0.027881416 0.037304565 -0.135248 0.056792527 0.006028639 -0.070539206 -0.06692263
0.014901126 0.04777147 -0.09694172 -0.11834896 0.11120776 0.09907308 -0.027897751 -0.11443855
-0.016313655 -0.07667096 -0.053677786 0.06455485 0.104716785 -0.02461906 -0.008908878 -0.014315192
0.09684439 -0.005923031 -0.05178258 -0.056532092 0.057746228 -0.11671032 0.056322318 -0.022389822
-0.048446868 -0.09685519 -0.087099314 -0.062538 0.058980335 0.004587447 -0.0067985565 0.007824635
-0.07450747 -0.07341205 0.023302568 0.039578035 0.024252824 0.108148225 -0.038976092 -0.0063503515
-0.060931377 -0.088033155 -0.069936514 0.029247763 -0.022863708 -0.06251116 0.0371343 -0.089088954
-0.0793643 -0.0030794858 0.06423813 -0.06517512 0.032358084 -0.052589115 -0.08968018 0.018814655
-0.05919621 0.0565128 -0.14543729 0.07833525 -0.052641187 -0.0077005704 0.04227316 -0.013377146
0.046672408 0.10779947 0.037195567 -0.027875077 -0.057890102 -0.05463268 0.054478664 0.099665456
0.08711821 -0.00040830584 0.040659178 0.00558808 -0.0041267867 -0.115879156 -0.0719673 -0.06196205
0.08105934 -0.12364517 0.016520247 -0.009154154 0.027699966 -0.12950802 -0.008967554 0.060485337
-0.031970043 -0.032727536 0.070240885 0.07369976 -0.005043645 0.08248692 0.058339216 -0.058976687
0.12464487 -0.1058609 -0.07264307 -0.058184136 0.02542977 -0.076187104 0.0045557795 -0.0033668187
-0.022637049 -0.026450602 0.08114483 0.080315314 -0.020818613 -0.07380587 -0.027278654 -0.09194586
-0.0066578533 -0.009024822 0.057815287 -0.04953873 -0.07607244 -0.022074316 0.089414835 0.0791244
0.06023746 -0.0823535 -0.049950648 0.009697194 -0.07529703 -0.01430669 -0.008004418 -0.043722138
-0.020901421 -0.0074697775 -0.009168046 -0.07332424 -0.06259737 0.003285038 -0.02986205 -0.10778567
-0.0494638 0.0328949 0.025695361 -0.07015884 0.08479391 0.02344878 0.029934695 -0.009614903
-0.012665652 -0.0219158 0.0033890593 -0.09877628 0.0053530163 0.031848773 0.009883944 -0.1329976
0.106033534 0.062133852 -0.08180259 -0.016313756 -0.000618609 -0.034792274 0.041276745 0.09888835
-0.01852986 -0.0029314384 0.060515504 -0.07566872 0.026117183 -0.026574215 0.07778528 -0.080526926

h.0.mha.W_q.bias f4 [64]
00000000: 6e1d 003e d8c2 a8bd daaa f1bd 0d2c 6a3d
00000010: 73bc 43bd 6f58 483d 6d19 41be 21a3 eebd
00000020: 6398 413e 94e2 87be 5345 ac3c b5fb 8c3e
00000030: f393 da3e 2fe2 893e 6cc6 0ebf 54bc 71be
00000040: 004d 7a3e f807 cf3e 2c55 6d3d 74ca 9c3e
00000050: c6a8 5a3e d25c 40bd cd96 713e 40bf 01be
00000060: 569c 2dbe 7f1e 8ebd 487e aebc 9645 183e
00000070: 3157 18be 9314 7bbd 7795 a43d f8d3 29be
00000080: 0e9b 1fbd b28b 86bd b27a 48bd 1a44 4fbc
00000090: d812 c6bd c855 15be abfa 04be ff26 81bc
000000a0: b1fa 02bc 583d 253d 09a1 fd3d 36de 873d
000000b0: 9fe9 a0bd eaa9 bebd db10 53bc 3320 72bd
000000c0: 71dc 953c 35fc 213e 7c86 3cbd 5f93 493c
000000d0: 1c9f 5abd 381e 71bc 2d82 c4bd 695f 203d
000000e0: cbfb 043e e697 3a3e 453f 30bd a092 e13c
000000f0: 48dc 51bd 737d 2bbc edab 723d ab9a 983d
0.12511227 -0.082402885 -0.118001655 0.057170916 -0.04778714 0.04891246 -0.18857355 -0.11652208
0.18905787 -0.26540053 0.02102915 0.27535787 0.42691 0.26930377 -0.5577152 -0.23606998
0.24443436 0.40435767 0.057942554 0.3062321 0.21353444 -0.04696352 0.23592682 -0.12670612
-0.16954169 -0.069394104 -0.02130045 0.14870295 -0.14877011 -0.061298918 0.08036321 -0.16584766
-0.03896623 -0.065696135 -0.048945136 -0.012650514 -0.09671563 -0.14583504 -0.12986247 -0.015765665
-0.00799434 0.040341705 0.12384231 0.0663418 -0.0785706 -0.09309752 -0.012882437 -0.05911274
0.018293591 0.15818866 -0.04602669 0.012303202 -0.053374395 -0.014716677 -0.095951416 0.03915349
0.12986676 0.18222007 -0.04302909 0.027535737 -0.051235467 -0.010466921 0.059245992 0.074513756

h.0.mha.W_k.weight f4 [64, 64]
00000000: 13af b9bd 5f77 3bbc cc81 793d 5847 c33c
00000010: ad54 e13c c495 883d 5ff9 be3d c750 0c3e
00000020: 37ea febd 934d c1bd bf4e 8ebd faef 96bc
00000030: 0d68 4a3d 274e 463c de1d b7bc 26f1 50bd
00000040: 836a 50bd e036 9cbd b9b9 f73c 9a39 b2bd
00000050: 1f18 7b3d 62b6 07be baa6 d03d 8e2f 4abd
00000060: 152a 773d acfc 8b3d 26c6 01bc cc4b 0e3e
00000070: a1c8 a23c 2906 90bd 61b2 81bd 3406 a1bd
00000080: d771 8abd e143 4abd 1204 a1bd 3f5c 9bbc
00000090: 88fb 22be 2871 4b3d ec58 45ba 0569 633d
000000a0: b590 243c 3622 83ba 004b 6c3d 3073 8bb6
000000b0: 78d8 0e3e cef0 e43a c6e0 cabd 5610 c63c
000000c0: 992a 3abc 0ebf ae3c 4ea5 d33c 6a23 743c
000000d0: 400d 3a3d 97fa 96bd 4027 4cbc 7cbd 723c
000000e0: e172 93bc e661 9ebd 12ae 0cbe 9850 95bd
000000f0: 602b 723d 62c4 343c 4553 1d3e 512c 9e3d
00000100: 3285 9ebc 0875 ef3d f924 13bb 2728 a4bc
00000110: a9bd 59bd 5c5d 84bd 46ee 77bc 4e0e 783d
00000120: 62c9 b33c 3a9e 92bc 0ac4 45bd b6cc c4bd
00000130: 5b97 393d 98a4 113d 77e0 6e3d 469a 113e
00000140: 18f3 703d f1ed 0f3d a0c3 e8bc 47eb d9bd
00000150: 15f7 39bd 0020 0ebd 2671 81bd 2629 bcbc
00000160: 782e a53d 6eac e33c 8aac ef3d d071 e83b
00000170: 9c5c ca3d 94bd 99bd ecb2 13bc f5e9 f2bd
00000180: 5597 d7bc 5a98 173d f9db bfbd d72d bfbc
00000190: b68d 8e3d 3297 bf3d 29c1 a6bc 7613 0e3b
000001a0: de21 b0bd 1894 533d 7add 64bc 842f 34bd
000001b0: cfcd 693d 24b8 90bd 3fec 013d b270 f53c
000001c0: 512c d43d dfca 473d 86aa fa3a f4a7 80bd
000001d0: ed9e 8abc 4067 0abe d931 eebd eba0 323d
000001e0: 9892 c83d f5b2 c9bd 7490 2c3d 1641 963d
000001f0: b3ee d8bd e280 443c 8bae a4bd 2105 36bd
00000200: 476b aabd f0ce 6ebd 604a 8bbd 6e0a 90bc
00000210: f26e a03d 3b3e e43c 1e54 843d 11ae 13bd
00000220: 5534 123d 0621 8b3d bcaf 4a3b 1f23 debc
00000230: 9657 c5bc 7d31 763d d231 cb3d 21aa 5fbc
00000240: 436b bcbd 3b7c b8bd 290c babc 5812 a23c
00000250: e1c6 abbd 41d8 d1bc fc75 403d e9ca 44bc
00000260: 49e8 873d 97a0 733c 1fd2 0ebc f08a 803b
00000270: 8fdf aabc 4cb8 1ebd dd0a 3c3d 9561 71bd
00000280: fb1b a0bd 1e3b 33bb daa4 e13c 653f 403d
00000290: 1dca e2bc 4803 673d d0a2 7c3c d0bc 2b3d
000002a0: 7838 e73c 4a3c eabb 6ae8 05be 28bd 443d
000002b0: b59d c1bd f75b 4b3c 84c6 0ebe 0d91 ce3d
000002c0: f074 28bb 5e59 2abd be7d 663d 96ec 90bd
000002d0: f16e 943d 628f c8bd f436 003e 151a 563c
000002e0: c181 033c 0baa b83d 5ca6 cdbd 8b59 113d
000002f0: e045 babd c5ec b93c 0cca c8bd fb5c 853d
00000300: e147 4bbd e59c 0fbc ee9a 8b3d f38c f4bc
00000310: 7b22 993d d4b0 8abd 88e1 87bd 47b7 613d
00000320: be85 c6bc fbd4 dd3c 49ac b5bd d527 04bc
00000330: edfc 653d 6e82 b2bd fe82 3cbc 4cc2 6cbd
00000340: 2877 dc3d 5fe6 90bc 23dc bcbd efa7 5d3d
00000350: 0936 77bd 7686 fabd 9dbc 40bd 6b2c fd3c
00000360: e93e c03d 2fa9 953d c67e 38bd 6712 8dbd
00000370: 47e2 09bd c7ef db3d e43b 29bc 1149 eabd
00000380: 3370 18be 7f66 9b3d a5e7 89bc c8f5 be3d
00000390: fbb2 85bd 250b a33d 1962 6fbd 1104 c4bc
000003a0: 117a ad3d 1674 04bc 81cc 213c 5daf b8bd
000003b0: 4af1 a8bb 978f ea3c 2767 a6bd 45ba c43c
000003c0: cdc7 253d 1151 e0bd bd16 4cbb 3f2d c23b
000003d0: 1d61 0c3d f73f 783d 4930 033d 2f41 d2bd
000003e0: c468 b73b 2824 a83c 4f72 9ebd 2eb5 fcbd
000003f0: c2a0 063d c50e d3bc 6e25 bcbc a657 cd3d
-0.09066596 -0.0114420345 0.0609148 0.02383773 0.027506197 0.066691905 0.093249075 0.13702689
-0.12447017 -0.09438624 -0.069486134 -0.018424977 0.049415637 0.012103594 -0.022353109 -0.051011227
-0.050882827 -0.07627654 0.030239927 -0.08702393 0.0613023 -0.13253167 0.101880506 -0.049361758
0.060342867 0.06835303 -0.007920777 0.13896102 0.019871058 -0.07032425 -0.06332851 -0.07862511
-0.067599945 -0.04938114 -0.078621045 -0.018964885 -0.15916264 0.04966846 -0.0007528204 0.055520076
0.0100442665 -0.0010004702 0.057688713 -4.1559324e-06 0.13949764 0.0017466785 -0.099061534 0.024177711
-0.011362695 0.021331336 0.02583566 0.0149010215 0.045422792 -0.07372015 -0.01246053 0.014815684
-0.017999114 -0.077335164 -0.13738278 -0.07290763 0.059123397 0.011033149 0.15363796 0.077232964
-0.019350622 0.11692244 -0.0022452457 -0.020038677 -0.05315939 -0.064631194 -0.015132492 0.060560517
0.021946613 -0.017897714 -0.04828266 -0.09609358 0.04531036 0.03555736 0.058319535 0.14219007
0.058825582 0.035139028 -0.028413594 -0.10640579 -0.04540165 -0.034698486 -0.063204095 -0.02296884
0.08065504 0.027792182 0.11702831 0.0070936456 0.09880945 -0.07506862 -0.009014826 -0.1186103
-0.026317278 0.03701053 -0.09368128 -0.023337288 0.06960623 0.0935501 -0.020355778 0.002167908
-0.0860021 0.051654905 -0.01396882 -0.043990627 0.05708104 -0.07066372 0.031719442 0.029960964
0.10360015 0.048777457 0.0019124306 -0.062820345 -0.016921485 -0.13515949 -0.116306014 0.043610495
0.097935855 -0.098485865 0.04212995 0.07336633 -0.10592403 0.011993619 -0.08041104 -0.044438485
-0.08321243 -0.05830282 -0.06801295 -0.017583098 0.07833661 0.027861705 0.064613566 -0.036054675
0.03569444 0.06793408 0.00309275 -0.027116356 -0.024089616 0.06010579 0.09921612 -0.013651402
-0.09200146 -0.0900807 -0.022710877 0.019784138 -0.083875425 -0.025615813 0.04698752 -0.012011268
0.06636102 0.014869831 -0.008717089 0.0039228126 -0.020858554 -0.038749978 0.045908798 -0.058930952
-0.07817837 -0.002734847 0.027544428 0.046935458 -0.027684266 0.056399614 0.015419677 0.041928113
0.028225169 -0.0071483003 -0.1307694 0.048031956 -0.09453908 0.012412063 -0.13942915 0.1008626
-0.0025704466 -0.041589133 0.05627226 -0.07076375 0.07247723 -0.09792973 0.12520963 0.013067742
0.008026541 0.09016808 -0.10041496 0.035485785 -0.09095359 0.022695908 -0.098041624 0.06511875
-0.049629096 -0.008765434 0.0681666 -0.029852366 0.0747728 -0.067720085 -0.066348135 0.055106428
-0.024233695 0.027079096 -0.088707514 -0.008066137 0.056149412 -0.08716284 -0.01150584 -0.057802483
0.10764915 -0.017687974 -0.09221675 0.054115232 -0.060354266 -0.12232678 -0.047054876 0.03090497
0.09386999 0.0730766 -0.045042776 -0.068882756 -0.03366306 0.10739093 -0.01032922 -0.114397176
-0.1488655 0.07587909 -0.01683409 0.09324223 -0.065282784 0.0796111 -0.058443163 -0.02392772
0.08470548 -0.008084318 0.009875418 -0.09017823 -0.005155717 0.028632922 -0.081251435 0.024014601
0.040473748 -0.10952962 -0.0031141483 0.005925804 0.034272302 0.060607877 0.03202847 -0.10266339
0.005597206 0.020525053 -0.077366464 -0.12339245 0.032868154 -0.025763879 -0.022967067 0.10026483

h.0.mha.W_k.bias f4 [64]
00000000: b34a 053e 6b61 94bb 6f47 133d 8a2d 04bd
00000010: e898 a3bc 2e94 51bd d7ef a13d a236 28be
00000020: 1513 94bd 94b3 34be 6b81 993e bb78 083d
00000030: 2ba2 583e 705b ffbe 3edc f03e 4ec2 a33e
00000040: e8d9 19bf cff8 91be fa8a f0be 0e15 803d
00000050: 87f3 203a 3b77 3e3e 409f 2d3e 62b2 6a3e
00000060: 4484 453d 1c2b 43be 9e5e d83d 3251 10be
00000070: e4a9 233e 0760 73be fee3 863d c9b1 7b3c
00000080: b28f f2bd dd92 92bc 76a1 9e3b 3fb3 7c3c
00000090: 5f54 febc 1bba ec3c b104 52be 5ca7 37bd
000000a0: 5d5e 523a 3b4b 3e3e 87ea 96bd aef0 af3d
000000b0: acea 363e aec7 c5bd 5b54 05bd 7730 83be
000000c0: 761a 3c3c 40a3 d53d 89c5 0e3c 7ae1 12be
000000d0: 02fc c53d c9d2 3fbd a62e 2b3e fb6c 843d
000000e0: 6606 903c 93bc c5bd 0b6f fdbd 660a acbd
000000f0: 4489 193e 75e0 fbbc d759 99be 1f85 10be
0.13016777 -0.0045282147 0.035956796 -0.032269992 -0.019970372 -0.051166706 0.07907074 -0.16427091
-0.07230202 -0.17646629 0.2998155 0.033318263 0.21155612 -0.4987445 0.4704303 0.3198418
-0.60098124 -0.28510138 -0.4698103 0.06254016 0.0006139804 0.1860017 0.1695528 0.2291961
0.04822184 -0.19059414 0.10564922 -0.14093474 0.15982777 -0.237671 0.06586455 0.0153622115
-0.11843814 -0.017892295 0.004841025 0.015423595 -0.03104609 0.028897336 -0.20509602 -0.04483734
0.00080249255 0.18583386 -0.07368951 0.08590828 0.17862958 -0.096572265 -0.03255115 -0.25622913
0.011480918 0.10431528 0.008714088 -0.14343825 0.09667207 -0.04683188 0.16717014 0.06466099
0.017581176 -0.09655108 -0.123746954 -0.08400421 0.14993769 -0.030746678 -0.29951355 -0.14113282

h.0.mha.W_v.weight f4 [64, 64]
00000000: 0cee 91bc f142 f9bc 453d 8a3b 471c 1b3e
00000010: ad3d 363c dcb7 3e3d 1684 be3d 3066 58ba
00000020: 5e2d 623d 3c75 fc3b 06d5 83bb c9f2 023d
00000030: fcc8 28bd 52d0 2dbc 0feb f43c 7826 f4bd
00000040: 8b32 0b3e 321e 15bd 379b 013c 7015 95bd
00000050: d63d e53d 8f1c 933d 915d 89bd 2617 143e
00000060: b40f 8ebc 1dcf d93d 3c7a 8a3d 94d9 b5bd
00000070: b494 f7bc 152a 3e3d 89ed af3d 74aa 9cbd
00000080: 5554 1fbe 24d9 f83c 645d 1dbe e775 f4bd
00000090: e5ae 05be c398 05bd 159d c23d 2978 5dbb
000000a0: eade 9dbd faa4 18bd c64c 7d3c c00f 333c
000000b0: b89e 03be 48db 02bc 07e3 98ba 5f59 063e
000000c0: 61d9 81bd dca0 6cbd d501 d8bc 0817 253d
000000d0: 74c3 b53d a079 e93d 0fe5 c03c 050f 953d
000000e0: 3f4e fb3d 1e78 78bd cd96 683d 3645 03be
000000f0: 7ac4 b8bd 6d71 2cbd 2af5 5ebd 0baa 003d
00000100: 1944 c83c f933 02bd 3268 263e d3ca fbbc
00000110: 629b ce3d 3a5b cb3c 405a 6d3e 8204 d33d
00000120: 79ae 2d3e 4790 9fbd 3dcd a63a 145b 963d
00000130: c5dd e73d 1326 72bd 95a5 a0bc 5346 303e
00000140: 9f6e 3f3d 6621 fabd 998f 2cbe 7c42 0d3e
00000150: 66a9 283c bf40 c9bd 9afc 44bd 89a1 813c
00000160: 3025 2d3e 02f7 443e da3c d8bd e3ba 223d
00000170: dd6b 973c bd11 90bd e612 08bd 2327 723d
00000180: 01c9 813c 9169 403d eed4 22bd b265 9abd
00000190: 6971 6abc 9023 063e 3eeb 0dbe f9a1 81bc
000001a0: 7f9b 1fbd 9f7d 3e3d 2563 eabd d76a 783d
000001b0: 80ad 673d a652 00bd 9d9c 2abd d9e0 73bd
000001c0: 62e6 f23d 4991 c0bd 538a 9c3d bdca dfbd
000001d0: 4c77 b8bd 5203 d03d cd8c 17be 2488 21bd
000001e0: 91c1 fa3c e12f 0a3e 8154 c5bc c28d 4fbd
000001f0: f78e 3dbc 653d 223e fcac d53d b89e 83bb
00000200: ff0c aa3c c3d4 a73c 27a1 cf3d df4f 653d
00000210: 4a88 c83d e489 91bd 237b 7d3b 0d45 d4bd
00000220: c916 05be e1e8 24bd e71b f3bd 9d94 be3d
00000230: 3821 6ebd 0cca 043e a69c 763d d3e5 b6bd
00000240: 0ab4 963d cb02 d6bd fd93 213d 1bf1 0b3e
00000250: 31c3 c9bd 369c 6e3d d7b2 2d3d c96e e03d
00000260: e46a 63bd ee88 953d 3d1c 3b3d f6e8 f83d
00000270: ff62 dabd f9b2 de3d ee6c ca3c 1b79 f53d
00000280: 64dc 15be 3def bc3d 3d45 43bd 2f35 cbbc
00000290: 3bc3 e7bc 2676 b63d 541b 01be 87c4 c2bd
000002a0: 789b d23c 76b0 ecbd e3af 973d 95f2 da3c
000002b0: 3e70 23bd 8ae3 e9bd 7beb 623c 5e1b c23d
000002c0: 39d2 83bd 63cb db3d 158b e7bd 892a 163d
000002d0: 4b4c 12be 3fab 103e bf4d 3d3d 4b50 f5bc
000002e0: 7804 583d 0f50 90bd 71c2 30bd e338 dfbc
000002f0: e81f 34bb 64c1 ab3d 8f17 0abd 33e0 9f3d
00000300: 6662 a5bc cd52 8cbd d545 babd d67c 933d
00000310: 7d2c 3dbd b9da 553e c86a 45be 3e11 cfbd
00000320: a4b6 febd a889 87bd 53b7 5d3a 02ac ffbc
00000330: bcfe c9bb c749 3fbe 6164 733c 775f a7bc
00000340: bbcd f9bd b77e 9fbd 162e c9bd 06e7 d73d
00000350: f9f2 163d a075 cebd a0d3 c43d e193 1c3e
00000360: 81f5 0b3c aaa2 11bd c577 cc3d 17db 923c
00000370: 9c2a e43d cdce 98bd 45a9 8dbd a8c4 c6bd
00000380: b185 ae3c fc46 8e3c 9159 173e 285a 983d
00000390: 3757 c3bd 9a3c f53d 1a87 2d3c dc1b 073e
000003a0: 1276 0ebe e7f8 453e e11b ba3d e776 d53c
000003b0: aeda 13be e913 1a3e aef9 eabd 7f48 8abc
000003c0: 4cdb 833d 5ab1 b3bd 736a e73c 0213 b63d
000003d0: c2a9 ebbc dec3 87bd 1c18 d53b e36c 83bd
000003e0: f4a4 1b3d 618f c3bc 6658 0abd 3a06 59bd
000003f0: 8682 14bd 5228 103e b8f3 edbd a39c 38be
-0.017813705 -0.030427428 0.0042187297 0.15147506 0.011123103 0.04656206 0.09302537 -0.0008254973
0.055219047 0.007704405 -0.004023197 0.03196982 -0.0412073 -0.010608749 0.02989724 -0.119214
0.135935 -0.03640575 0.007910541 -0.072794795 0.11193435 0.071831815 -0.067072995 0.14461955
-0.017341472 0.10635207 0.067615956 -0.0887939 -0.030222274 0.04642685 0.08590228 -0.07649699
-0.15559514 0.030376978 -0.15367657 -0.119365506 -0.13054998 -0.032616388 0.09502617 -0.0033793545
-0.07708533 -0.03726671 0.015460199 0.010929048 -0.12853515 -0.007986851 -0.0011664339 0.1312003
-0.0634029 -0.057770595 -0.026368061 0.040305167 0.0887517 0.11400151 0.023546724 0.072782554
0.12270784 -0.060661428 0.05678444 -0.1281937 -0.0902185 -0.04210036 -0.054433025 0.031412166
0.024446534 -0.031787846 0.16250685 -0.030736363 0.10088231 0.024823774 0.23178959 0.10303594
0.16961087 -0.077911906 0.0012725961 0.073415905 0.11321596 -0.05911834 -0.019610206 0.17214327
0.046736356 -0.122134015 -0.16851653 0.13794893 0.010294294 -0.098268025 -0.048092462 0.015824096
0.16908717 0.19234851 -0.105584815 0.03972901 0.01848405 -0.07034633 -0.033221148 0.059119355
0.015842916 0.046975676 -0.039753847 -0.07538928 -0.014309266 0.13099504 -0.13859269 -0.015824305
-0.038966652 0.04650652 -0.114446916 0.060648765 0.056561947 -0.03132882 -0.041653264 -0.059540603
0.11860348 -0.09402711 0.07643571 -0.10927341 -0.09007129 0.10156883 -0.14799805 -0.039436474
0.030609878 0.13494827 -0.024088146 -0.0506723 -0.01156973 0.15843733 0.10433385 -0.0040167235
0.02075815 0.020487195 0.10138159 0.055984374 0.0979162 -0.07106379 0.0038678132 -0.10364733
-0.12996973 -0.040261153 -0.11870556 0.093056895 -0.05813715 0.129677 0.060207985 -0.08930554
0.073585585 -0.104497515 0.039447773 0.13666193 -0.09851683 0.058254443 0.042406883 0.109586306
-0.05552186 0.07301508 0.045681227 0.12153809 -0.10663413 0.1087398 0.024710145 0.1198599
-0.14634854 0.092253186 -0.047673453 -0.024805633 -0.028291335 0.08909254 -0.12608081 -0.09510141
0.025708899 -0.11557095 0.074065946 0.026727 -0.039901964 -0.11420353 0.013850088 0.09477876
-0.06436581 0.10732152 -0.11305825 0.03666166 -0.14286916 0.14127825 0.046216723 -0.029945513
0.052738637 -0.0704652 -0.043154184 -0.027248805 -0.0027484838 0.08386496 -0.033713873 0.078064345
-0.020188522 -0.068517305 -0.09095351 0.07201545 -0.046185005 0.20884217 -0.19279015 -0.101107106
-0.1243718 -0.06618053 0.00084577984 -0.03120995 -0.0061644 -0.18680488 0.014855475 -0.020431263
-0.12197443 -0.07787841 -0.09823243 0.10542111 0.03685281 -0.10081029 0.09610677 0.15290786
0.008542419 -0.03555552 0.09983782 0.017926736 0.111409396 -0.07461319 -0.06917051 -0.09705478
0.021303983 0.017367832 0.1478026 0.07439071 -0.09538119 0.119744495 0.010591293 0.13194221
-0.13912228 0.1933323 0.09087349 0.026057674 -0.14438888 0.15046658 -0.11473404 -0.016880272
0.06438312 -0.087740615 0.028249001 0.08890344 -0.02876747 -0.066291556 0.006503118 -0.06417253
0.03799911 -0.02387208 -0.03377571 -0.052984454 -0.03625729 0.14077881 -0.11618751 -0.18028502

h.0.mha.W_v.bias f4 [64]
00000000: 121c 593d 9f07 b1bb 0c5a c4bc 0ae8 093d
00000010: c651 bc3d df0c a83a 097c ef3d 9f30 4dbb
00000020: b2e2 bfbd 1a4c b03d b2d5 a73d ff93 ecbc
00000030: 3e8c d63c 22a0 a8bc b4d6 bc3b fc30 edbd
00000040: 731f 8abd 14db adbc 66ea 16bd b8be c33d
00000050: 4b20 b4bc c7cb e2bb b2ec fd3d b4f9 0e3d
00000060: 5f56 b73d 781a feb9 3c28 3d3d a72a a83c
00000070: ba5d ef3c 2e02 8fbd 159f bdbd 3ac5 12be
00000080: 4f0a a7bd 3c79 c5bd 5524 f53d 02e8 913d
00000090: ba0c 223d 5acc aa3d 8460 d6bd dfc5 74bd
000000a0: a86b b63c e772 093d fe16 e0bc dd82 bfbd
000000b0: 7e96 8d3d 53e5 dabd 632d 2dbd ed30 b0bd
000000c0: e17d d03c b539 273d 495d 5e3d fae0 f1bc
000000d0: d18c 52bd 2910 f6b9 2061 9ebd 04f1 7e3d
000000e0: 6db5 b0bd 147c a1bd fdbf 753c 7ecf 863d
000000f0: 4fcf c8bd 090a 703c bdf5 9b3d 3ec0 bb3d
0.053005286 -0.00540252 -0.023968719 0.033668555 0.091952845 0.0012821219 0.1169358 -0.0031309498
-0.093694106 0.08608265 0.08195056 -0.028879164 0.02618992 -0.02058417 0.0057628993 -0.11581609
-0.0674428 -0.021222629 -0.036844634 0.09557861 -0.021988055 -0.006921265 0.12398662 0.034906104
0.08952021 -0.00048466376 0.04618095 0.02052815 0.029219497 -0.069828376 -0.09258858 -0.14333048
-0.08156263 -0.09642264 0.119698204 0.0712433 0.03956292 0.08339758 -0.10467628 -0.059759017
0.022268131 0.033556845 -0.027354714 -0.09351132 0.0691347 -0.106882714 -0.042279612 -0.08603082
0.025450649 0.040826518 0.054288182 -0.029526222 -0.051403824 -0.00046932817 -0.07733369 0.06224157
-0.08628354 -0.07884994 0.014999387 0.06582545 -0.09805166 0.01465083 0.0761523 0.09167527

h.0.mha.W_o.weight f4 [64, 64]
00000000: 113c 30bc 32e8 c4bc c390 afbd e6ef 0e3e
00000010: 6b9f 56bc 5e62 92bd c642 d7bd c87f 043c
00000020: b1ae 8b3d 3e7f 7fbd e4d5 cdbc 7567 93bd
00000030: f2da a3bd 207d 323e 48db c63d 50ee a1bc
00000040: 54bc 773b 5c13 993c e4ae 2f3d a2c5 be3d
00000050: 8187 1a3e 39a0 17bd 4a98 36bd 46cc cd3d
00000060: 3cf6 dbbc fb4f 1dbe ea56 8abc 1cb3 dfbd
00000070: 0fa9 5abd 7338 3cbd de49 3f3d f64f 89bd
00000080: 4f56 ef3d e641 963d 5647 b0bd 27e9 c43d
00000090: 345a 053d 89e8 dcbc 8084 8b3d bc71 493d
000000a0: c165 2dbc 1c80 ab3c b4a4 993d 97ef fa3d
000000b0: 7387 87bd b36c b1bd 6021 7d3d a3b9 013d
000000c0: 8480 52bd fb0c c03c 9fc0 58bd e246 d33d
000000d0: 81b3 35bd 6359 8abc f769 863d 38a0 e5bc
000000e0: 097c 9abd ce87 6ebd 6c65 873d e87e efbd
000000f0: b8ff 843d 3acc 683c 4688 bf3d daec 9f3d
00000100: 8007 71bd ae97 713e 3b7d e33c ff1a b2bd
00000110: 1ef3 af3c 0598 ba3c 4ad3 04be a15a 2b3e
00000120: d9a8 91bc 1b63 903d 426b 1fbe c6fe 8ebd
00000130: 4ecb 8d3d 819c 853d c241 2dbe 9925 363c
00000140: 2ece 003e 28cb 0f3d 4686 013d 682a 28be
00000150: c2c5 173e f561 64bd 727b 70bd 8f74 30be
00000160: 7134 383d ecef 0b3b 38c7 0a3d 7315 4fbd
00000170: 0d66 75bd 94ef debc 8df1 4b3d edd7 d7bb
00000180: 0330 b6bd 1967 c13d 418d e53b c242 4abd
00000190: 46c6 713d 12f6 36be 66f3 c6bd 60ad 67bd
000001a0: 9cf7 58bd 2b44 6a3e d7c6 11be 2553 783d
000001b0: 270e 243d bc79 a33b fcb3 533d eabf 56bc
000001c0: 6a56 de3d d5d1 24bd 5055 1abc dc59 b53d
000001d0: 6dd2 c5bd 1f1e 8bbd 3600 bf3d d1d2 d0bd
000001e0: 778d 8c3d f477 1ebc 3f91 19bd cbfb 0c3e
000001f0: ac30 df3d 36f5 0bbe 7e2d 87bd a5d1 01be
00000200: a62e cdbd 07f8 ba3c ebae 083e 6d00 7fbd
00000210: 3770 053d 437b 01bd 9770 f5bd 76dd d3bd
00000220: bef9 013d c212 313e 04e1 683d bfba 3e3e
00000230: 31f6 ffbd f5d9 c13d 7462 bb3d ffea e7bd
00000240: a31c 573d ee00 27bd f663 aabc 3c12 11be
00000250: dc17 cdbc 280f 993d b988 0ebd 79ad 20bd
00000260: 5503 023d 3bda b9bd b754 15be 9a49 d43d
00000270: 33f4 2e3d 6605 b4bd 7994 d23c 5380 a9bd
00000280: 4ab4 5ebd 3c99 dabd 98f3 3fbd fd02 b3bd
00000290: f3ad 16bb 17c8 a43d 42d3 f43d 8c77 133d
000002a0: 0613 a4bd 4306 32bd 9ffe 8b3d cd8f 943d
000002b0: 7fc6 543c f25e 5a3b 248f 7cbd 861a 68bd
000002c0: df9c 7d3d 476e 0e3d ff6d efbd 3491 3fbe
000002d0: f26d 01bd d714 31bd fe66 bc3d 9ace 8ebd
000002e0: 9960 273d 3a3b 4d3d 9b6f 65bd ad5f 83bd
000002f0: c09d 873d 60f1 433d ae9d b5bd 809d 903d
00000300: 1d4f 9fbb 7ce0 a33d 9814 e9bd 5cb0 483d
00000310: 6180 da3d e405 203d e4c9 1a3e 8999 bd3c
00000320: 5928 b9bd 971a f9bb 9c32 423d 243f 5e3c
00000330: 943e 1cbe f7ac d2bc 449a b3bb a041 b3bd
00000340: b58d 66be 358c 653c 4df7 e13d ca1b 01bd
00000350: f142 0cbd ebd3 bcbc 1888 aabd a2af 05be
00000360: eada d8bd 746b 3abd 67cb efbc a586 ccbd
00000370: b036 96bd c721 8dbd 6570 1c3e ae95 8b3d
00000380: 46d7 71bd eb3b f83d 9074 96bc cbd2 91bc
00000390: be3d 8bbd 1ed3 e9bd 6a27 b5b9 51f2 853e
000003a0: ec50 333e 6f8a 45bd 7b3b 043e f924 3b3d
000003b0: 70ed e7bc 3870 86bd 607f 46bc 7999 313d
000003c0: ea31 1c3e 910a 02be 9da6 26be 5ccd db3d
000003d0: 87b5 93bd 05d1 9ebd cf86 303d 5a31 1a3c
000003e0: e615 603d 357f 08bd ba2e 8cbd 60a1 35bd
000003f0: a2d5 803d d336 01bb c4c7 f1bc 3c13 f23d
-0.010756508 -0.0240365 -0.08572533 0.13958701 -0.013099532 -0.07147668 -0.10510783 0.008087106
0.06820429 -0.062377207 -0.025126405 -0.07197467 -0.08000745 0.17430544 0.09709793 -0.019766957
0.0037801461 0.01868599 0.042891398 0.09315039 0.15090753 -0.037018035 -0.044578828 0.10048728
-0.026850812 -0.15362541 -0.016887147 -0.10922834 -0.053383883 -0.04595227 0.046701305 -0.067047045
0.11686384 0.07336788 -0.08607356 0.09614783 0.032556728 -0.02696635 0.06812382 0.04918073
-0.010583342 0.02093511 0.07502118 0.122527294 -0.06617632 -0.08663311 0.061799407 0.031671178
-0.051392093 0.02344369 -0.052918073 0.10316254 -0.04436064 -0.016888326 0.0656318 -0.0280305
-0.07543189 -0.058234982 0.066111416 -0.11694127 0.06494087 0.014208848 0.09352164 0.07808848
-0.058845043 0.23593017 0.027769675 -0.08696555 0.021478232 0.022777567 -0.12971225 0.16733791
-0.017780708 0.07050153 -0.1556826 -0.06982188 0.06923543 0.065239914 -0.16919616 0.011117362
0.12578651 0.035105854 0.031622194 -0.16422427 0.14821532 -0.05575748 -0.058711477 -0.17231964
0.044971887 0.0021352721 0.033881396 -0.050557565 -0.059911776 -0.02721385 0.049790908 -0.0065870197
-0.08895876 0.094434924 0.007005364 -0.04938007 0.05902698 -0.17867306 -0.09714393 -0.056561828
-0.052970514 0.22877567 -0.14236008 0.060626168 0.04005256 0.004988877 0.05168532 -0.013107279
0.10856326 -0.040239174 -0.009419754 0.0885503 -0.09659276 -0.067928545 0.09326212 -0.1019646
0.0686292 -0.009672154 -0.037492033 0.13767926 0.10897955 -0.1366776 -0.06600474 -0.1267763
-0.10018663 0.022823347 0.13347976 -0.062256265 0.03257772 -0.031611692 -0.119843654 -0.10344975
0.031732313 0.17292312 0.056855217 0.18625925 -0.12498129 0.094654 0.09149638 -0.11324119
0.052517544 -0.04077237 -0.020799618 -0.14167112 -0.025035791 0.07473594 -0.034798358 -0.039227936
0.03174146 -0.09074827 -0.14583097 0.10365601 0.042713355 -0.08790092 0.025705563 -0.08276429
-0.054371156 -0.106737584 -0.04686317 -0.08740804 -0.0022991865 0.080459766 0.11954357 0.03600268
-0.08011441 -0.043463003 0.068356745 0.0725399 0.012986778 0.0033320752 -0.061659947 -0.05666592
0.061917182 0.034773137 -0.11690902 -0.18707734 -0.031598993 -0.043232765 0.09199332 -0.06973
0.040863607 0.05010531 -0.05601464 -0.06414733 0.06621885 0.047837615 -0.08867966 0.07061291
-0.004861726 0.08001801 -0.11380881 0.048996314 0.106690176 0.039068118 0.15116078 0.0231445
-0.09040899 -0.0076020467 0.047411546 0.013564859 -0.15258247 -0.025717242 -0.0054810364 -0.08752751
-0.22514994 0.014010479 0.11033497 -0.031520642 -0.034243528 -0.02305027 -0.08326739 -0.1305528
-0.105886295 -0.04551263 -0.029271794 -0.09986619 -0.073346496 -0.06891208 0.1527725 0.068156585
-0.05904319 0.121208034 -0.018366128 -0.01780071 -0.06798886 -0.114172205 -0.00034552376 0.26161435
0.17511338 -0.048227724 0.12913315 0.045689557 -0.028311461 -0.06564373 -0.0121153295 0.043359254
0.15253416 -0.12699343 -0.16274495 0.107325286 -0.07212358 -0.07754711 0.043097313 0.00941118
0.054708384 -0.03332444 -0.0684485 -0.044343352 0.06290747 -0.0019716516 -0.029514201 0.11820075

h.0.mha.W_o.bias f4 [64]
00000000: a24f 0fbe e188 633d 7ed7 1c3e e4a1 5abd
00000010: 9e22 ccbd b018 073e b168 2e3e d52a b4bd
00000020: f6b5 a03c ac22 fcbd 0bac 6d3d f4f9 903d
00000030: ce8f 71bc d413 0cbd 597a eebd 041a f53d
00000040: db72 bdbc c5d5 80bd 0e6c 49bd 2082 3dba
00000050: 2514 dbbd e78e e5bc 0036 d7bd e9d1 cebc
00000060: 7706 2d3d 968a 46bd 3bc9 d63c 0bef fe3d
00000070: 9505 49bd 7e5d e93d 0a78 083e 779a 433d
00000080: 85b7 f2bc 9159 a8bd 300e 01be f742 0c3e
00000090: 2da0 8f3d e7de 2b3e 1759 b4bd 33c6 8ebd
000000a0: e453 2cbd 474d f6bd 7ac8 733d 55be 26bd
000000b0: 8825 a3bd 20e2 873c e19c 43bd 2cde d53d
000000c0: 4af3 053e 55a0 55bd 81b6 12be 0ec4 383d
000000d0: 3e43 243c 5041 133e fdd3 933d 2bcc 803d
000000e0: 5f79 1abd 8f2b 85bd 063e 783d 5518 04bd
000000f0: dba6 c73d ebcf 7c3d 0407 d33d c148 a73d
-0.13995221 0.05555046 0.15316579 -0.053377047 -0.0996754 0.13193011 0.17032124 -0.08797232
0.019618016 -0.12311301 0.0580254 0.07078925 -0.014743758 -0.034198597 -0.1164443 0.11967853
-0.023126056 -0.06290773 -0.049175315 -0.0007229168 -0.10697202 -0.028022243 -0.105083466 -0.025246577
0.042242493 -0.04847201 0.026219001 0.124479376 -0.04907759 0.11394785 0.13327041 0.04775473
-0.029628525 -0.082202084 -0.12603068 0.1369742 0.07012973 0.16784249 -0.08806055 -0.06971397
-0.04207219 -0.12026458 0.05951736 -0.04070886 -0.07966143 0.016587317 -0.047757033 0.104427665
0.13081089 -0.052154858 -0.14327432 0.045108847 0.010025797 0.14380383 0.07218168 0.06288942
-0.037713405 -0.06502449 0.060606025 -0.032249767 0.09748622 0.061721724 0.103040725 0.081681736

h.0.ln_1.weight f4 [64]
00000000: ef69 883f a412 753f 6219 863f 74fd 863f
00000010: 04f4 753f 88c2 843f e265 7b3f a6cc 803f
00000020: 479a 6c3f 918c 823f 1e15 7c3f 7084 7e3f
00000030: fbba 813f c0a1 783f 9b07 793f 7e43 803f
00000040: 5499 7f3f 35ba 783f 0ae6 693f aee5 7e3f
00000050: 475e 8c3f 5c02 7b3f d657 773f ff04 833f
00000060: c0ad 773f f9f2 643f b1f8 843f 6651 773f
00000070: 36b1 7e3f 4d43 773f d88a 803f 086a 813f
00000080: 5d37 6e3f 110b 713f 50b2 753f f4b9 813f
00000090: 6d1c 853f 2f7f 803f 87d8 823f 1d7d 713f
000000a0: 3cb3 673f eb14 813f 905d 803f 878c 823f
000000b0: 10eb 7c3f 8a3f 7c3f 0212 843f 5c65 7c3f
000000c0: 279c 803f d7e6 743f 5034 743f 774a 893f
000000d0: e13e 783f 61cc 813f 0ff1 753f c596 823f
000000e0: 01a9 813f 297d 803f 059c 823f 01fa 783f
000000f0: ff25 7b3f f4c9 6f3f 3001 7a3f d4b8 7d3f
1.0657328 0.9573157 1.0476496 1.0546098 0.96075463 1.0371866 0.98202336 1.0062454
0.9242291 1.0199147 0.9846972 0.99420834 1.0135187 0.9712181 0.9727723 1.0020597
0.99843335 0.9715913 0.91366637 0.99569213 1.0966271 0.98050475 0.966184 1.02359
0.96749496 0.89433247 1.0388395 0.9660858 0.9948915 0.9658707 1.0042372 1.0110483
0.9305323 0.9415751 0.9597521 1.0134873 1.03993 1.0038813 1.0222329 0.9433153
0.90507865 1.0084509 1.0028553 1.0199136 0.98796177 0.9853445 1.0317996 0.9859216
1.0047654 0.95664734 0.9539232 1.072585 0.96970946 1.0140496 0.9607095 1.0202261
1.0129701 1.0038196 1.0203863 0.97256476 0.9810485 0.9366753 0.9765806 0.9911015

h.0.ln_1.bias f4 [64]
00000000: e109 c4bc c841 1fbd 700a cabc 7515 163d
00000010: 2206 72bc c23f c8bc b858 99bb 712c a7bc
00000020: 7047 6bbc 8ddd 81bd 365d e2bc caa4 5d3d
00000030: b853 61bd 2690 f53b 35da 29ba 00c6 edbc
00000040: d45f 553d 00ef 5bbd 5e9d f43c 2fbd 16bc
00000050: 7a8e 83bd 7483 243c a16b 273d 566c 0cbd
00000060: d231 5bbd 81fd 293d e5f4 30bd bba7 ad3d
00000070: 1c0e 89bd 2819 373d 7347 1f3d 8dbc 363d
00000080: bf2b 023d 68fa 19bc f823 48bc c166 0f3d
00000090: 5fa0 2a3a ee21 e13b 7dc2 e6bc 9219 4e3d
000000a0: bf8b 0cbd 6052 e0bc f5bc bd3c e96f d73d
000000b0: 856e 523d 2558 df3c b27a f8bc 8dde 2d3d
000000c0: ac21 0dbd e7ad 143d 8d92 c83b 76ae 6c3d
000000d0: 0a76 0dbd 87b7 03bd 2fe5 89bc 3921 f9bc
000000e0: 78bd 523d 6703 c1bc 65e1 dbbc 7450 1abd
000000f0: f739 7bbd ed8e 083d 46a1 003d 50df 083d
-0.023930492 -0.038881093 -0.02466318 0.036641557 -0.01477197 -0.024444465 -0.0046797656 -0.020406934
-0.014360294 -0.063410856 -0.027632337 0.054112233 -0.05501148 0.0074939905 -0.0006479354 -0.029025078
0.052093342 -0.053694725 0.029860195 -0.009200378 -0.064236596 0.0100411065 0.040874127 -0.034283005
-0.05351431 0.041501526 -0.0432023 0.08479258 -0.06692144 0.044701725 0.0388865 0.04461341
0.03178 -0.00939808 -0.012215607 0.035010103 0.00065088825 0.0068705 -0.028168911 0.050317355
-0.03431296 -0.02738303 0.02316139 0.10519392 0.05137493 0.02726371 -0.030331943 0.04244857
-0.03445594 0.03629866 0.006120986 0.057783566 -0.0345364 -0.032157447 -0.016832916 -0.03041135
0.051450223 -0.023561193 -0.026840875 -0.037674382 -0.061334576 0.03333943 0.031403802 0.033416092

h.0.ln_2.weight f4 [64]
00000000: 0000 803f 0000 803f 0000 803f 0000 803f
00000010: 0000 803f 0000 803f 0000 803f 0000 803f
00000020: 0000 803f 0000 803f 0000 803f 0000 803f
00000030: 0000 803f 0000 803f 0000 803f 0000 803f
00000040: 0000 803f 0000 803f 0000 803f 0000 803f
00000050: 0000 803f 0000 803f 0000 803f 0000 803f
00000060: 0000 803f 0000 803f 0000 803f 0000 803f
00000070: 0000 803f 0000 803f 0000 803f 0000 803f
00000080: 0000 803f 0000 803f 0000 803f 0000 803f
00000090: 0000 803f 0000 803f 0000 803f 0000 803f
000000a0: 0000 803f 0000 803f 0000 803f 0000 803f
000000b0: 0000 803f 0000 803f 0000 803f 0000 803f
000000c0: 0000 803f 0000 803f 0000 803f 0000 803f
000000d0: 0000 803f 0000 803f 0000 803f 0000 803f
000000e0: 0000 803f 0000 803f 0000 803f 0000 803f
000000f0: 0000 803f 0000 803f 0000 803f 0000 803f
1.0 1.0 1.0 1.0 1.0 1.0 1.0 1.0
1.0 1.0 1.0 1.0 1.0 1.0 1.0 1.0
1.0 1.0 1.0 1.0 1.0 1.0 1.0 1.0
1.0 1.0 1.0 1.0 1.0 1.0 1.0 1.0
1.0 1.0 1.0 1.0 1.0 1.0 1.0 1.0
1.0 1.0 1.0 1.0 1.0 1.0 1.0 1.0
1.0 1.0 1.0 1.0 1.0 1.0 1.0 1.0
1.0 1.0 1.0 1.0 1.0 1.0 1.0 1.0

h.0.ln_2.bias f4 [64]
00000000: 0000 0000 0000 0000 0000 0000 0000 0000
00000010: 0000 0000 0000 0000 0000 0000 0000 0000
00000020: 0000 0000 0000 0000 0000 0000 0000 0000
00000030: 0000 0000 0000 0000 0000 0000 0000 0000
00000040: 0000 0000 0000 0000 0000 0000 0000 0000
00000050: 0000 0000 0000 0000 0000 0000 0000 0000
00000060: 0000 0000 0000 0000 0000 0000 0000 0000
00000070: 0000 0000 0000 0000 0000 0000 0000 0000
00000080: 0000 0000 0000 0000 0000 0000 0000 0000
00000090: 0000 0000 0000 0000 0000 0000 0000 0000
000000a0: 0000 0000 0000 0000 0000 0000 0000 0000
000000b0: 0000 0000 0000 0000 0000 0000 0000 0000
000000c0: 0000 0000 0000 0000 0000 0000 0000 0000
000000d0: 0000 0000 0000 0000 0000 0000 0000 0000
000000e0: 0000 0000 0000 0000 0000 0000 0000 0000
000000f0: 0000 0000 0000 0000 0000 0000 0000 0000
0.0 0.0 0.0 0.0 0.0 0.0 0.0 0.0
0.0 0.0 0.0 0.0 0.0 0.0 0.0 0.0
0.0 0.0 0.0 0.0 0.0 0.0 0.0 0.0
0.0 0.0 0.0 0.0 0.0 0.0 0.0 0.0
0.0 0.0 0.0 0.0 0.0 0.0 0.0 0.0
0.0 0.0 0.0 0.0 0.0 0.0 0.0 0.0
0.0 0.0 0.0 0.0 0.0 0.0 0.0 0.0
0.0 0.0 0.0 0.0 0.0 0.0 0.0 0.0

ln_f.weight f4 [64]
00000000: 0000 803f 0000 803f 0000 803f 0000 803f
00000010: 0000 803f 0000 803f 0000 803f 0000 803f
00000020: 0000 803f 0000 803f 0000 803f 0000 803f
00000030: 0000 803f 0000 803f 0000 803f 0000 803f
00000040: 0000 803f 0000 803f 0000 803f 0000 803f
00000050: 0000 803f 0000 803f 0000 803f 0000 803f
00000060: 0000 803f 0000 803f 0000 803f 0000 803f
00000070: 0000 803f 0000 803f 0000 803f 0000 803f
00000080: 0000 803f 0000 803f 0000 803f 0000 803f
00000090: 0000 803f 0000 803f 0000 803f 0000 803f
000000a0: 0000 803f 0000 803f 0000 803f 0000 803f
000000b0: 0000 803f 0000 803f 0000 803f 0000 803f
000000c0: 0000 803f 0000 803f 0000 803f 0000 803f
000000d0: 0000 803f 0000 803f 0000 803f 0000 803f
000000e0: 0000 803f 0000 803f 0000 803f 0000 803f
000000f0: 0000 803f 0000 803f 0000 803f 0000 803f
1.0 1.0 1.0 1.0 1.0 1.0 1.0 1.0
1.0 1.0 1.0 1.0 1.0 1.0 1.0 1.0
1.0 1.0 1.0 1.0 1.0 1.0 1.0 1.0
1.0 1.0 1.0 1.0 1.0 1.0 1.0 1.0
1.0 1.0 1.0 1.0 1.0 1.0 1.0 1.0
1.0 1.0 1.0 1.0 1.0 1.0 1.0 1.0
1.0 1.0 1.0 1.0 1.0 1.0 1.0 1.0
1.0 1.0 1.0 1.0 1.0 1.0 1.0 1.0

ln_f.bias f4 [64]
00000000: 0000 0000 0000 0000 0000 0000 0000 0000
00000010: 0000 0000 0000 0000 0000 0000 0000 0000
00000020: 0000 0000 0000 0000 0000 0000 0000 0000
00000030: 0000 0000 0000 0000 0000 0000 0000 0000
00000040: 0000 0000 0000 0000 0000 0000 0000 0000
00000050: 0000 0000 0000 0000 0000 0000 0000 0000
00000060: 0000 0000 0000 0000 0000 0000 0000 0000
00000070: 0000 0000 0000 0000 0000 0000 0000 0000
00000080: 0000 0000 0000 0000 0000 0000 0000 0000
00000090: 0000 0000 0000 0000 0000 0000 0000 0000
000000a0: 0000 0000 0000 0000 0000 0000 0000 0000
000000b0: 0000 0000 0000 0000 0000 0000 0000 0000
000000c0: 0000 0000 0000 0000 0000 0000 0000 0000
000000d0: 0000 0000 0000 0000 0000 0000 0000 0000
000000e0: 0000 0000 0000 0000 0000 0000 0000 0000
000000f0: 0000 0000 0000 0000 0000 0000 0000 0000
0.0 0.0 0.0 0.0 0.0 0.0 0.0 0.0
0.0 0.0 0.0 0.0 0.0 0.0 0.0 0.0
0.0 0.0 0.0 0.0 0.0 0.0 0.0 0.0
0.0 0.0 0.0 0.0 0.0 0.0 0.0 0.0
0.0 0.0 0.0 0.0 0.0 0.0 0.0 0.0
0.0 0.0 0.0 0.0 0.0 0.0 0.0 0.0
0.0 0.0 0.0 0.0 0.0 0.0 0.0 0.0
0.0 0.0 0.0 0.0 0.0 0.0 0.0 0.0
