subspace-alignment/data/1_layer_32_vocab/ckpt_8080.pt (torch, 90637 bytes, 17 tensors)

embed.embed.weight f4 [32, 64]
000000 d7 2a 25 be ca 36 0b 3f a6 12 15 3f cc 82 08 3e
       -0.16129623 0.54380476 0.5823158 0.13331145
000010 3a 9e 22 bd 87 fd 19 bf 65 9f 88 bf f9 c3 c7 bd
       -0.039701678 -0.6015248 -1.0673643 -0.09754176
000020 03 89 d0 be 3c e3 33 3e 43 36 bf bf b4 8e c2 3e
       -0.40729532 0.17567152 -1.4938434 0.379995
000030 64 22 8f be 33 f4 44 bf b8 60 49 3f 78 fa 8d 3c
       -0.27955925 -0.7693512 0.78663206 0.017331347
000040 57 87 3e 3e 14 0a 3a 3d de 13 37 3f 6f 80 1c bf
       0.18606316 0.045419767 0.7151469 -0.61133474
000050 41 21 0e bf bc 75 b5 3f 88 52 a8 3f 86 16 66 bf
       -0.5551949 1.4176555 1.3150187 -0.8987812
000060 63 3d 03 c0 f7 7a a5 3f 2a 6b 57 bf 36 37 02 40
       -2.0506217 1.2928151 -0.84147894 2.0346198
000070 8d 85 49 3f cd 6a 3c 3f 49 65 e5 be 28 a0 02 3f
       0.7871941 0.73600465 -0.44803837 0.5102563
000080 b5 01 58 3f 7e cf 50 bf d6 90 81 3e fe 1d 6d bf
       0.84377605 -0.8156661 0.25305814 -0.9262389
000090 85 e4 86 bf 52 c9 19 3f 8a c8 59 bf b6 b3 36 3f
       -1.0538489 0.60072815 -0.85071623 0.7136797
0000a0 15 a9 d6 bf 26 13 61 bf 78 3f 46 3e 80 43 32 3f
       -1.677035 -0.87919843 0.19360149 0.69634247
0000b0 9a bc 8f 3f 8d 2a 32 3f 0e b9 f1 be 9c 71 11 bf
       1.1229432 0.6959618 -0.47211498 -0.5681398
0000c0 c1 4e 37 bf dd 6a b7 bf 09 d2 04 be 20 9e 92 be
       -0.71604544 -1.4329487 -0.12970747 -0.28636265
0000d0 6a 90 a0 3e fe a8 85 3f b9 c9 77 3d 3d 5f 6c bf
       0.3136018 1.0442197 0.060495112 -0.9233282
0000e0 df d3 a0 3e 80 d6 fc be cd 36 9e bf ed 2a ba bf
       0.31411645 -0.493824 -1.2360474 -1.454435
0000f0 0f d3 e2 3e 80 c8 97 be 56 8a 26 3d 80 c0 49 3f
       0.4430165 -0.29645157 0.04065927 0.78809357
000100 ae 11 0d 3f 4b 82 8c bf 73 37 84 bf de 63 05 3e
       0.551051 -1.0977262 -1.0329422 0.13026378
000110 8c 03 e3 3f 6a 8c 7a bf ef c0 86 be 49 18 0e bf
       1.7735457 -0.97870505 -0.26319072 -0.55505806
000120 b1 43 9b 3e 17 2d a6 be 6e da 92 3d e1 59 e4 3e
       0.30325082 -0.32456276 0.071705684 0.44599822
000130 b8 70 b9 3e 20 25 e0 3e 7b 77 58 3c 18 f6 42 3f
       0.3621881 0.43778324 0.01321208 0.7615676
000140 c0 5e 8c 3f ea ae 05 bf 2b 4c 7f 3f 4f 07 9f 3e
       1.0966415 -0.5222002 0.997256 0.31060264
000150 fd 02 70 3e 73 29 cd be aa d7 c1 3f 3d 83 e2 3e
       0.2343864 -0.40070686 1.514394 0.44240752
000160 40 d6 44 3c c5 9f 51 3f 0b 94 a4 bf a2 d3 e4 3e
       0.012013972 0.81884414 -1.2857679 0.44692713
000170 f9 9d ec bf 1a 9a f6 3f 70 bd 99 3e 1b e5 88 bf
       -1.848571 1.9265778 0.30027342 -1.0694917
000180 35 4d 9d bf e1 fa 9f bf 5c 9f fc 3e 17 b5 3f 3c
       -1.2289187 -1.2498437 0.49340332 0.01170089
000190 88 70 57 3f 91 a3 4a 3f 89 c5 89 3f 3c b6 6f 3e
       0.84156084 0.7915583 1.0763408 0.2340936
0001a0 e6 3a 9b bf b9 80 2c be 94 fb 6a 3f 37 cd e4 3e
       -1.2127349 -0.16845979 0.9179013 0.44687817
0001b0 0b 5a e8 be 9f 0f 12 be 56 f5 a9 bf f8 3a a4 bf
       -0.45381197 -0.14263771 -1.3277996 -1.2830496
0001c0 4f 2c 82 be 49 1b b6 bd 11 f3 87 3f 9b 90 46 3d
       -0.2542443 -0.08891923 1.0621053 0.04847775
0001d0 c9 83 3b bf cc 5d 06 3e 70 f5 9c 3e db 72 7b bf
       -0.73247963 0.13121718 0.30656004 -0.9822213
0001e0 3d 91 bd 3d 1b 72 68 bf c4 df b6 be c4 86 0b be
       0.09256218 -0.9079911 -0.35717595 -0.13625628
0001f0 c3 a7 d4 3e 3c ac 0c c0 c5 0b 57 bf 80 99 e5 3e
       0.41534242 -2.1980124 -0.84002334 0.44843674
000200 8a bc 48 3f ca 50 52 3f 47 80 bf be a4 e0 61 be
       0.7841269 0.82154524 -0.37402555 -0.2205835
000210 84 55 35 be de da 30 3f ab 11 0b bf e6 af ba bf
       -0.17708403 0.69083965 -0.54323834 -1.458493
000220 c5 22 a3 3e c1 1c 63 bf 03 c0 9e 3e 3d 4c ba be
       0.31862465 -0.8871575 0.31005868 -0.3638629
000230 dd 5f 27 bf 6f 5b 4d 3f 21 cd 91 3e d5 24 b6 3e
       -0.6538065 0.8021764 0.28476813 0.35574976
000240 44 37 2d bf 32 4a 50 bf 24 7e d9 bf f9 c2 29 bf
       -0.67662454 -0.81363213 -1.699162 -0.6631313
000250 08 93 2a 3e 12 b2 90 3f 5e 58 64 bf 82 db 08 bf
       0.1665765 1.1304343 -0.8919734 -0.5345994
000260 30 39 ab 3e 6b 06 cc 3e ad 08 17 bf 05 7e 44 3e
       0.33442068 0.39848647 -0.58997613 0.19188698
000270 0f 50 84 bf 81 b6 c1 3f 06 b2 92 3f cd 4e ce 3e
       -1.0336932 1.5133821 1.1460578 0.40294495
000280 08 e3 56 bf ce 82 d7 3e d4 1e 9b 3e 0b a0 8b 3f
       -0.8394017 0.42091984 0.30296957 1.0908216
000290 d6 ba 81 bf 2c c5 b8 bf f8 f4 cc be 66 71 18 40
       -1.0135143 -1.4435172 -0.40030646 2.3819213
0002a0 3f bf 16 bf a7 e7 6c bf 84 b7 f5 3c c8 0f 93 3d
       -0.5888557 -0.92540973 0.029994734 0.071807444
0002b0 fb 21 9a bc 56 85 4e bf 6f 4b 4c 3f ac bd 53 be
       -0.018815031 -0.80672204 0.798026 -0.20677823
0002c0 2c 54 68 be 5d bb 8d bf 1c eb 00 40 75 cc 0e bd
       -0.22688359 -1.1072804 2.01435 -0.034862954
0002d0 7a bf 39 3e dc a6 f2 be 2b 8f c7 bf 3b ea ea be
       0.18139449 -0.4739293 -1.5590566 -0.4588183
0002e0 ad 23 2a 3f f8 06 9d bd d2 69 1a bf 1a 00 5b 3f
       0.66460687 -0.07667345 -0.6031772 0.8554703
0002f0 ea c4 0d c0 9e 11 ee 3e 28 1a 7f 3e 4d 84 99 3e
       -2.2151437 0.46497816 0.24912322 0.2998375
000300 ab a8 95 bf 48 86 7f 3f 1a f7 98 3d f5 e4 e9 bd
       -1.1692098 0.9981427 0.07469006 -0.11420623
000310 eb 37 b9 bf a2 da d7 be 50 9c a6 3f 77 48 d2 3e
       -1.447019 -0.4215899 1.3016453 0.4107091
000320 7c ca 9a bf d5 db 99 bf e8 a0 e4 bf f1 50 78 be
       -1.2093043 -1.2020212 -1.7861605 -0.24249627
000330 c6 51 27 c0 be 31 15 40 f2 5d 96 bf 5a 35 d4 3e
       -2.614366 2.331161 -1.174742 0.41446954
000340 74 83 b6 3e f3 c6 94 be 6b e8 42 3f 23 93 8d 3e
       0.35647166 -0.29058036 0.7613589 0.2765132
000350 f6 4c 3f 3f 8c 1b 25 bf 20 d7 a2 bf 88 e3 15 3f
       0.7472681 -0.6449516 -1.2721901 0.5855031
000360 c7 cf f5 bf e1 18 ad 3f 58 eb 0a 3e 94 bb 14 3f
       -1.9204034 1.3523217 0.13566339 0.5809872
000370 6b 4f 86 3e b1 61 83 be 38 71 9b be 29 45 58 3f
       0.26232466 -0.2566047 -0.30359817 0.8448053
000380 71 09 3e 3f d0 80 2f 3f aa 13 3d bf 0d b8 55 bf
       0.74233156 0.6855593 -0.7385813 -0.83483964
000390 55 6d 1e bc 62 c9 47 bf 8b ce c1 3e ef 88 b0 3f
       -0.0096696215 -0.7804166 0.37852892 1.3791789
0003a0 10 a1 cc 3f c5 dc b7 bd 63 3d 57 bf 0d d7 55 3f
       1.5986652 -0.08977655 -0.84078044 0.83531266
0003b0 f5 aa 56 3f 80 a0 cd 3f 3c c8 28 3f ec c1 33 3f
       0.8385461 1.6064606 0.65930533 0.70217776
0003c0 22 9c 35 3f e1 d2 38 bf fa be d9 3e 88 f5 c7 3d
       0.70941365 -0.72196776 0.42528516 0.09763628
0003d0 4e 97 b3 bf 3b ed 8b 3f 10 4e b2 3e 2c 99 18 bf
       -1.403055 1.0931772 0.34825182 -0.5960872
0003e0 44 82 bf 3e 5b 4b 8d 3f 6d 74 36 c0 aa 89 85 be
       0.37404072 1.1038622 -2.850856 -0.26081592
0003f0 27 81 98 3d 03 de 11 bf 21 ae 3c bf 94 ed c6 bc
       0.07446509 -0.5697939 -0.737032 -0.024283208

h.0.mha.W_q.weight f4 [64, 64]
000000 1e 14 96 bd e0 78 09 3d ec c4 9f 3d 9c 91 17 3e
       -0.07328056 0.03356254 0.07801232 0.1480164
000010 51 8e 92 3d b1 80 9d 3d 9a 5b e2 bd 25 e5 b7 bc
       0.07156051 0.076905616 -0.11052628 -0.022448132
000020 98 4e 6c bd 9c f6 c0 bd 62 84 da bd db 0d 53 bc
       -0.05769214 -0.09422037 -0.10669781 -0.012881721
000030 45 d5 2a bd 5f 36 ba 3d 81 13 ff bc 4f 70 83 bd
       -0.041707296 0.09092402 -0.03113723 -0.064179055
000040 0b 98 e7 3c 1a 57 c1 3d 8f 41 91 bd 90 8b f1 3c
       0.028270742 0.094404414 -0.070925824 0.029485494
000050 06 58 af 3c 2e 72 b3 bb 80 c9 d0 3d 41 a7 91 bd
       0.021404278 -0.0054762578 0.10194683 -0.07111979
000060 f5 80 8c 3d aa c6 15 3d 57 1a 9b 3c 6c a5 85 3d
       0.06860534 0.036566414 0.018933458 0.06525692
000070 93 ea fc bd fa c5 9a bd 99 2e d9 bd 5b 24 e6 bb
       -0.12349429 -0.07557292 -0.10604591 -0.007023377
000080 0a ad 87 bd 0f a4 7a bd b8 95 bb bd 76 ec 96 bd
       -0.066248015 -0.061191615 -0.09159416 -0.0736932
000090 cc 8f c8 3c 1a 4d 12 3c 48 9a 29 3c e2 ac 43 3b
       0.02448263 0.008929515 0.010351725 0.0029857685
0000a0 74 2e cd bc f4 6a 0b be 28 0e f5 3c 8c ed 70 3d
       -0.025046565 -0.13615018 0.029913977 0.058820292
0000b0 4d 4d e6 3c 31 ad 52 bc 8f 8d 8f bc 96 f0 96 bd
       0.028113032 -0.012858675 -0.017523555 -0.07370107
0000c0 29 b4 02 3d 0a ad 6b bc fd 12 bd bc 1f c6 09 3e
       0.031910095 -0.014384517 -0.023080343 0.13454483
0000d0 b1 47 34 bd e1 82 53 bd 64 b4 7b bd 86 7d b9 bc
       -0.044013683 -0.051638488 -0.06145133 -0.022642862
0000e0 07 02 59 3c f4 ac c3 bb 5c da 16 3d 29 7d b1 bd
       0.013245112 -0.0059715454 0.036829337 -0.086664505
0000f0 92 85 9c bd d5 c0 c1 3d 4e 67 2f 3d f4 8f 12 3d
       -0.07642664 0.09460608 0.04282313 0.035781816
000100 09 be 70 bb 60 28 46 bd f7 2d 85 bd cb 25 6a 3d
       -0.0036734364 -0.04837835 -0.06502908 0.05716495
000110 4d 81 78 bd 41 8e ef bd 74 af 9a bd d5 9c cf 3c
       -0.060670186 -0.11697055 -0.07552996 0.025343338
000120 45 1b 0d 3d 5a c9 c0 bc b5 0f d3 bd 31 c1 2b bd
       0.034449834 -0.023533512 -0.1030573 -0.04193229
000130 13 c4 f0 bc f8 ee e4 bc 33 e2 3d 3d 86 e8 74 3c
       -0.02939037 -0.02794598 0.0463583 0.014948016
000140 52 a2 3c 3b 26 df be bc d1 77 b0 3c d0 ce 36 bd
       0.0028783274 -0.023299765 0.021541508 -0.044630826
000150 8e 71 bc 3d 06 c7 65 bd b7 36 e0 bc 33 f0 6d bd
       0.09201346 -0.056098007 -0.02736984 -0.0580904
000160 7e 44 6c 3c d5 b4 ff 3c ba 94 e2 bd be 70 9b bd
       0.014420627 0.031214157 -0.110635236 -0.07589863
000170 1d cc c1 3d bc fd 4b 3d 81 88 9a bd c6 cd 64 bc
       0.0946276 0.049802527 -0.07545567 -0.013965076
000180 3b 16 3c bd 88 d2 69 bd 39 42 75 3c 13 37 92 3d
       -0.045919638 -0.057085544 0.014969402 0.07139411
000190 d9 f3 1f 3d 76 12 b9 bb d8 07 04 3d 21 35 a7 3b
       0.03905091 -0.0056479527 0.032234043 0.005102769
0001a0 21 9d c8 3c 8a bd 0e bd c6 b9 b3 bd 94 80 1a bd
       0.024488987 -0.034848727 -0.08775668 -0.037720278
0001b0 fc d8 80 3d 27 7f ee bd f7 90 b0 bc 8a a9 f4 bb
       0.062913865 -0.11645346 -0.0215535 -0.0074664997
0001c0 62 07 5c bd 4a d6 1b bc eb 98 d9 bd 3f 68 ac 3c
       -0.05371798 -0.00951154 -0.1062487 0.021045802
0001d0 3a 39 34 bb 71 42 33 3d d1 14 60 bd e7 f8 7c bc
       -0.002749993 0.043764535 -0.054707352 -0.015440202
0001e0 9b a8 c2 bd dc 03 0e bd d3 4d e6 3c e2 0a 55 bd
       -0.09504815 -0.03467165 0.028113281 -0.05201233
0001f0 e7 0f a9 3c e4 ab ad 3d 9b a0 e5 3b 7a fb 82 bd
       0.020637466 0.08480051 0.007007671 -0.063956216
000200 16 bb 89 bd 28 0b 8f bd 0e 46 f6 bd a3 05 24 3d
       -0.06725137 -0.0698455 -0.120250806 0.040044438
000210 2c bf 5c bd 40 88 99 bd 36 8c 1d bd 02 6c 44 bd
       -0.053893253 -0.07496691 -0.038463794 -0.047954567
000220 f1 a8 30 be 0e e4 1b bd 6b da ae 3d 9e 96 36 bd
       -0.17251946 -0.038059287 0.08537754 -0.044577233
000230 1c a0 e3 bc 04 ff d2 bd ac 67 d1 bd d0 1d 56 bc
       -0.027786307 -0.103025466 -0.10224852 -0.013068631
000240 3a c1 9e bd 00 61 b5 3d 36 3e c0 bd 80 8a 01 3e
       -0.07751699 0.08856392 -0.09386866 0.1265049
000250 7e 7c bc bd 5f 8b f8 3b 3a 39 a3 3d a5 fe b1 bb
       -0.092034325 0.0075849737 0.079698995 -0.0054319673
000260 ec 7d 9f bc c9 65 d3 3d d9 ed d5 bb c3 e8 ce bc
       -0.019469224 0.10322148 -0.006528598 -0.025257474
000270 74 fc ad bc 1d 17 2b bd 32 8e 63 3d a3 45 a9 3c
       -0.021238543 -0.04177009 0.05555553 0.020663088
000280 aa c4 94 3d 9c 42 a6 bb 1d 46 65 3d 70 71 26 3d
       0.07264073 -0.0050738584 0.05597507 0.040635526
000290 55 fc ec bc 18 19 2b bd f9 a7 0d bc 1a 47 cb bc
       -0.028928915 -0.04177198 -0.008646005 -0.024814177
0002a0 58 2f 90 3d 1e 0b 94 bd 2e a9 5b bb 7a f3 f2 3b
       0.0704028 -0.07228683 -0.0033517587 0.0074142786
0002b0 61 89 4e 3d 6b 8c 25 bd aa 6b db 3b 8a 48 8b 3c
       0.050423983 -0.040417116 0.006696184 0.017002363
0002c0 4c 48 a0 bd 6b 3e 34 bd 00 e7 3f 3d 45 23 10 3e
       -0.078262895 -0.04400484 0.04685116 0.14075954
0002d0 99 41 e7 bc 85 cf df 3c be ea 9d 3d c8 f4 b0 bd
       -0.028229522 0.027320633 0.07710789 -0.08640438
0002e0 19 04 d4 3d 67 9d aa bd 25 e0 0b bd 5c af 7d bc
       0.10352344 -0.08330803 -0.034149308 -0.015483703
0002f0 87 76 88 3d c3 31 27 bd 67 a5 ad bc ae 27 49 bd
       0.06663232 -0.04081894 -0.021197034 -0.049110107
000300 fb 4e c4 ba 93 67 86 bc fd 7c c9 3d 55 73 0c bd
       -0.0014977151 -0.01640681 0.09838293 -0.034289677
000310 d1 ae 18 bd ff 8e cd bd 0f bf dd bc fd 60 a8 bd
       -0.037276093 -0.1003704 -0.027068643 -0.08221624
000320 28 2e 86 3d 60 ce 9b bc 4d a5 2f 3d f1 cd b0 bd
       0.06551772 -0.019019306 0.042882252 -0.0863303
000330 a3 27 40 bd 0a f1 03 ba 80 07 ab 3d d6 af 2c 3c
       -0.0469128 -0.0005033171 0.0835104 0.010539969
000340 a8 f7 90 bd 3e 09 a3 bd 9a 8c c8 bd 02 14 40 3c
       -0.07078487 -0.07960747 -0.097924426 0.01172352
000350 5e a3 a0 3b e4 08 86 bc 1f be 82 bd 7f de bf bd
       0.0049022874 -0.016361661 -0.06383919 -0.0936861
000360 2b b5 90 3c fb c9 64 bc 89 1b 05 bd ec ae 43 bd
       0.017664513 -0.0139641715 -0.032496963 -0.04777424
000370 b1 a9 9e b9 a9 a3 a8 bc 25 6e c7 bd 59 74 52 bd
       -0.00030262538 -0.020585852 -0.09737805 -0.05138049
000380 22 c7 d4 bb 49 63 84 3d 00 49 bd 3d 56 3b eb bd
       -0.006493465 0.0646425 0.09242439 -0.11485927
000390 56 24 4e 3d 53 81 55 bd e8 ab 81 3d 01 8b 8a ba
       0.05032762 -0.052125286 0.06331617 -0.0010569991
0003a0 7b a3 98 3c fd ea 85 bd 29 f0 ea 3c 35 17 0f be
       0.018632641 -0.06538961 0.02867897 -0.13973697
0003b0 86 6e a3 3c ef 82 c3 3c 83 4c 67 3d bc 25 4c bd
       0.019950163 0.023866145 0.05646945 -0.049840674
0003c0 90 87 17 3e 9d 19 5c 3c 21 96 9e bc 5c da ab bd
       0.14797807 0.013433841 -0.019358696 -0.08391258
0003d0 8c 43 e7 3c aa 88 0f 3c 97 ca 4d bd b5 0b ca 3d
       0.028230451 0.008760611 -0.050242033 0.09865514
0003e0 05 a3 12 bc 55 4e 1b 3d 5b 66 d3 3d 3d 00 8d bd
       -0.00895 0.0379165 0.10322257 -0.06884811
0003f0 c9 76 97 3c 38 8c 9e bc b9 87 57 3d 13 3e 48 bd
       0.018489258 -0.01935397 0.05261967 -0.048887324

h.0.mha.W_q.bias f4 [64]
000000 f0 17 28 3e c5 60 9c bd 97 04 d6 bd 36 b0 9c bc
       0.16415381 -0.07635645 -0.10450094 -0.019126993
000010 b9 e2 b4 3c 8d 51 19 3b e9 61 1d be d1 f5 08 be
       0.022080766 0.0023394555 -0.15369381 -0.13375022
000020 d2 10 93 3e 85 f9 db be b2 5e 8f bd b4 7e a2 3e
       0.2872377 -0.42963806 -0.070004836 0.31737292
000030 90 08 f7 3e 65 33 44 3e c0 da 4d bf 38 f0 28 be
       0.4824872 0.1916023 -0.8041191 -0.16497886
000040 0d ee 95 3e db 8a 46 3f 2c 67 71 bc 3b e4 b2 3e
       0.2928318 0.77555627 -0.014734071 0.3493975
000050 03 97 b2 3e 54 c4 d4 bd 99 26 c0 3e 4c a4 45 3d
       0.34880838 -0.10389009 0.37529448 0.04825239
000060 d6 61 d5 bd cd 2b 2e be 32 32 f4 bc f5 aa fa 3d
       -0.10419051 -0.17008896 -0.029809091 0.12239639
000070 3e 57 f9 bd cb 73 46 bd 5b 57 b3 3d 9f 61 ee bd
       -0.12174843 -0.048450273 0.08756896 -0.116397135
000080 bf a9 87 3c 43 e8 90 bd 3b 01 49 3a 25 23 f9 bc
       0.016560433 -0.070755504 0.0007667725 -0.030412266
000090 08 e7 f1 bc 79 f1 f0 bd 14 7d bb bd 6f 1c eb 3b
       -0.02952911 -0.11764807 -0.09154716 0.0071750204
0000a0 ca 56 03 3d ae a6 77 3c a4 45 c1 3d 33 9e 20 3d
       0.03206519 0.015115423 0.09437111 0.03921337
0000b0 45 ba 8e bd 4d 06 b9 bd 3b ad e9 3b e7 fc 42 bd
       -0.06969122 -0.09034405 0.0071312464 -0.047604468
0000c0 2c ca 8a 3d fa e2 0c 3e 20 ad 5b bd 07 c1 fa bc
       0.067768425 0.1375846 -0.0536319 -0.03060962
0000d0 bf 17 03 3d 1a 98 40 bd 20 53 74 bd 6b c9 70 3c
       0.032005068 -0.047020055 -0.059649587 0.014696459
0000e0 78 3b 26 3b 4b 57 e8 3d 33 49 12 3c 87 86 44 3d
       0.0025365036 0.11344775 0.008928585 0.047979858
0000f0 28 01 33 3d 20 10 cb 3b d6 d3 fc bb cd cf 49 3d
       0.043702275 0.0061969906 -0.0077156825 0.04927044

h.0.mha.W_k.weight f4 [64, 64]
000000 31 9c 1f be bc 9a eb bc 5c d8 cd 3c 1b 9f c2 3d
       -0.15586926 -0.028760307 0.025127582 0.09503003
000010 dd f5 b1 bd 16 16 c9 3d 6c 2a 48 3d 6f 72 46 3e
       -0.08689473 0.09818666 0.04886858 0.1937959
000020 e5 83 a4 bd cb b7 62 bd b8 51 13 3c 85 e2 cb bc
       -0.080329694 -0.05535106 0.008991651 -0.024888286
000030 bb ba 5b bb 54 ac 73 3d 50 7a e4 3c b0 d2 49 bd
       -0.0033528048 0.059490517 0.027890354 -0.049273193
000040 0c c6 e5 bc 16 2a 28 3c 94 94 b0 bb 4d 7b 29 be
       -0.028048538 0.01026394 -0.0053888056 -0.16550942
000050 5b 06 c5 3c 5e 89 5e bd ab 36 57 bd 52 69 00 bc
       0.024050882 -0.054330222 -0.05254237 -0.00783761
000060 62 25 cb 3b 90 ad 15 3b 8f 0b 83 3d c2 75 be 3d
       0.0061995247 0.0022839047 0.06398689 0.09299804
000070 32 49 b7 3c 36 e4 7f bd 5e 50 aa bd a8 95 c3 bd
       0.02237377 -0.0624735 -0.0831611 -0.09550029
000080 52 37 8d bd 0a 96 97 bc cb dc 02 be b6 56 97 3c
       -0.06895317 -0.018504161 -0.12779538 0.018473964
000090 af e8 c2 bd 80 2e ec 3c 4f 32 a0 3c e9 8e ba 3d
       -0.09517037 0.028830767 0.019555239 0.09109289
0000a0 61 b9 c4 3c 20 9c 71 3d c2 3e e0 3d c8 0a 59 3d
       0.024014177 0.058986783 0.1094947 0.052988797
0000b0 d3 74 f1 bb 65 c1 80 bd 19 41 8f bd fe ea 6d 3c
       -0.007368663 -0.06286887 -0.06994838 0.014521359
0000c0 be 7a d4 bb 37 91 fa bb 4d 28 42 3a f9 34 e7 3c
       -0.0064843586 -0.0076467055 0.0007406518 0.028223502
0000d0 d7 3a 22 3d 7f f9 a6 bd 68 9c 24 bc d2 d4 ac 3c
       0.039606895 -0.08153056 -0.010047056 0.021097574
0000e0 2c 69 9e bd 5b de d1 3a 5d 09 40 bd cf 53 fd bc
       -0.07734904 0.0016011702 -0.04688393 -0.030923752
0000f0 b1 df 55 3d cf 7d 92 3c d9 ae a3 3d 75 0e bf 3c
       0.052215282 0.017882256 0.07992334 0.023322323
000100 45 2f c4 bc eb ba 91 3d e3 96 18 bc 70 e2 54 bd
       -0.023948321 0.0711573 -0.009313318 -0.05197376
000110 52 cd 74 3b a6 2b 0b bd 49 00 84 bd 77 21 73 3d
       0.0037353826 -0.033977173 -0.06445367 0.059358086
000120 39 58 04 3c 61 5d 76 3c d2 ea eb bb fc f0 21 bd
       0.008077675 0.015036912 -0.0071996236 -0.03953646
000130 ce 6e 63 3d 23 16 b3 bc 63 2c a2 3d cc e4 ba 3d
       0.055525593 -0.021861142 0.07918622 0.09125671
000140 63 0b 87 3d 45 4a 8c 3d d4 62 8d bd c7 dd ce bd
       0.06593969 0.06850103 -0.069036156 -0.101008944
000150 a9 a5 3b bd a0 00 d2 3c b3 8f e4 bd 4e f8 f3 bc
       -0.045812283 0.025635064 -0.11160221 -0.029781487
000160 93 b0 0f 3d a1 6a 96 bd f5 35 f7 3d 5b 4e 89 3d
       0.035080504 -0.073445566 0.12070838 0.06704398
000170 76 1f 78 3d e5 79 03 be dd 2f d9 bd bd e7 55 bd
       0.06057688 -0.12839468 -0.10604832 -0.052222956
000180 98 28 06 bc 58 8a 06 3d ca c0 4d bd 9c 33 af bc
       -0.008188389 0.03284678 -0.050232686 -0.021386914
000190 16 65 9e 3d bd d0 f2 3d e2 5a 3d 3d 2c b6 c3 3b
       0.07734124 0.1185622 0.04622925 0.0059726443
0001a0 24 b7 3e bd 85 05 b8 3d 8b 43 83 bd cd cc c6 3b
       -0.046561375 0.08985428 -0.06409367 0.0060668946
0001b0 7a 3d 30 bc fc 85 a8 bd cb c5 f7 bb 9f f1 af 3d
       -0.010756845 -0.082286805 -0.0075614206 0.085910074
0001c0 de f3 c4 3d f0 24 c2 3d d6 08 86 bd a3 8b 51 bd
       0.096168265 0.094797015 -0.06544654 -0.05115856
0001d0 ec be 05 3c 5b 89 bd bd b0 e7 a5 bd ba c9 10 3c
       0.008163195 -0.09254714 -0.081008315 0.008837158
0001e0 a3 11 5f bc 42 0f ff bd 23 e0 86 3d 5d 4c 67 3d
       -0.013615045 -0.12454082 0.065857194 0.05646931
0001f0 d7 34 00 be c7 d8 49 3d a2 33 b2 bd e6 49 3c bd
       -0.12520157 0.049279 -0.087012544 -0.045968913
000200 e6 be 81 bd 29 0b 31 bc 1b 14 c3 3c 51 7d 98 bc
       -0.06335239 -0.010805883 0.023813298 -0.018614443
000210 75 69 8c 3d 43 58 33 3d 45 c5 0b 3d be 95 b8 3c
       0.06856052 0.043785345 0.034123678 0.02253234
000220 ba 4c d9 3c e1 29 bd 3c 86 6c 91 3d 72 03 83 bc
       0.026525844 0.023091258 0.07100777 -0.015992854
000230 4d be 92 bd 37 a1 a2 3c 42 66 a6 3c 37 b9 a1 bd
       -0.07165203 0.019852264 0.020312432 -0.07896655
000240 a9 f8 91 bd f9 67 8c bd 3e d8 d9 bd 86 e6 58 bd
       -0.07127506 -0.06855769 -0.10636948 -0.05295422
000250 6a 8d 15 be a4 62 65 bb 51 c8 f8 bc ef 01 76 bd
       -0.14604726 -0.0035001421 -0.030368956 -0.060060438
000260 46 ea 62 3c 69 15 dd bc fb a4 66 3d 0a ba e9 3b
       0.0138498 -0.026987748 0.05630968 0.0071327733
000270 10 db 44 bd e1 e8 1a bd c8 a1 d8 3d 32 9d 4c bd
       -0.048060477 -0.037819747 0.10577732 -0.0499546
000280 29 a6 93 bd a9 da 5f 3d 5e 51 e4 3b 8f bc 1d 3d
       -0.07209427 0.05465189 0.0069677075 0.0385099
000290 4e 21 cf bc 62 e2 61 3c b6 3a 04 bc 18 4e 18 3d
       -0.025284436 0.013786884 -0.008070638 0.03718385
0002a0 db c5 ed bc 18 0d d4 bb c6 e1 00 be 9d 62 8e 3b
       -0.029025009 -0.0064712875 -0.12586126 0.0043452517
0002b0 9c b1 c7 bc 03 56 0e bd c2 dc 03 be 78 c6 26 3d
       -0.024376683 -0.034749996 -0.12877181 0.04071662
0002c0 e3 2f ee 3c 63 93 7d 3d 87 9b 21 3d 30 1b c7 bb
       0.029075569 0.061908137 0.039454963 -0.006076239
0002d0 9e 82 09 3e 20 28 7d bc 98 3a 15 3d d4 b1 ca 3c
       0.13428733 -0.015451461 0.036432832 0.024742998
0002e0 3a 3b b8 bc 63 62 cf 3d ea 7a 46 bc d1 ef a2 bc
       -0.022489179 0.10126188 -0.012114266 -0.019889744
0002f0 0e e5 65 bd aa b9 73 3d 10 56 a8 bd 15 5d 85 3d
       -0.056126647 0.059503235 -0.0821954 0.065118946
000300 35 b1 a8 bd 51 9f c4 bc 65 6c 20 3d 12 eb 08 bd
       -0.082369246 -0.02400175 0.039165873 -0.033427306
000310 18 82 75 bc 29 7b 9b 3c 9b 7d b5 bc e0 7b 05 3d
       -0.01498463 0.018979626 -0.02215462 0.03258884
000320 b9 8a 79 bd 53 2e 6c 3c 73 85 9c bc 88 5d 58 bc
       -0.06092331 0.014415341 -0.019106602 -0.013205893
000330 7a 73 13 bd 60 f0 6d bd 59 21 2f bc ba 75 55 bd
       -0.0359988 -0.058090568 -0.010689103 -0.052114226
000340 3a b6 e8 3d 94 1b 76 39 2b 6f 26 be 1d 02 0c bb
       0.11362882 0.00023470662 -0.16253345 -0.0021363564
000350 a3 2e 44 bd 76 d5 09 be ec ca 27 be ee 84 0a 3d
       -0.04789604 -0.13460335 -0.16386002 0.033818178
000360 0c 89 5e 3d a4 a7 42 bd 8a c3 3a bc b9 83 9f bd
       0.054329917 -0.047523156 -0.011399159 -0.07788796
000370 31 60 1b 3d 23 a6 c1 bc 2b 22 c2 ba 9c ac 89 bd
       0.037933532 -0.02363879 -0.0014811208 -0.06722376
000380 dd 9a 29 be ab e7 ae 3d 6d b5 ad bd be 8c be 3d
       -0.16562982 0.08540281 -0.0848187 0.09304188
000390 84 04 8c bc 22 0a 6b 3d f1 9e f3 bc 04 22 03 bd
       -0.017091997 0.05738271 -0.029738875 -0.03201486
0003a0 93 ce 2f 3e 0c 7a 50 bd 2c 92 29 bd 57 6c b4 bd
       0.17168646 -0.050897643 -0.041399166 -0.08809727
0003b0 cb 89 e2 bc f6 25 74 3b d9 ba 24 bd b2 16 4e 3d
       -0.027653595 0.0037254072 -0.040217254 0.050314613
0003c0 a5 60 99 3d c3 e4 21 bd a7 9b 75 bb 3b 47 03 3d
       0.074891366 -0.039524805 -0.003747681 0.032050353
0003d0 cf b5 11 3e 74 ad a4 3d 07 31 65 3d ad 60 9b bc
       0.1422951 0.08040896 0.05595496 -0.018966997
0003e0 17 24 9b bd 10 b1 19 3d ce 5e 91 3d 5e a5 0d be
       -0.07575243 0.037522376 0.07098161 -0.13832614
0003f0 6f 89 38 3d ca 95 f7 bc 64 ac b2 bc 94 a3 b8 3c
       0.045052942 -0.030222792 -0.021810718 0.022538938

h.0.mha.W_k.bias f4 [64]
000000 51 2c eb 3d 51 99 bb bc 22 1d 87 3d 86 1e 62 bd
       0.11483062 -0.022900255 0.065973535 -0.05520489
000010 e2 1b 27 bd ef a4 d1 bd 7f b5 19 bc 6d 6b d1 bd
       -0.040798075 -0.10236537 -0.009381651 -0.10225568
000020 78 fa 4c be c1 13 bc be da e2 70 3e 69 8b 1a be
       -0.20017421 -0.3673382 0.23524037 -0.15092243
000030 02 0d 7d 3e 8d 52 12 bf e6 f5 2d 3f b5 1c 9c 3e
       0.24711993 -0.5715721 0.67953336 0.30490652
000040 7b 44 30 bf 1d ae 6e be 2c 1c b1 be 08 66 25 3e
       -0.6885449 -0.23308606 -0.34591806 0.16152203
000050 c7 b0 3c bd 00 72 99 3d 60 79 bb 3d 8e 42 75 3d
       -0.046067026 0.07492447 0.0915401 0.059877925
000060 23 3e 82 3d b1 65 2d bd cd 9a 85 3e 0b cb 35 be
       0.06359508 -0.04233331 0.26094666 -0.17753236
000070 9c 85 99 3e 7c 11 81 be 4f d3 c6 3c 3c b0 04 bd
       0.29984748 -0.25208652 0.024270682 -0.032394633
000080 06 ff 70 bd ca 73 fe 3d 94 0c 35 bd dd 2c ea bc
       -0.05883696 0.12424429 -0.04420145 -0.028585846
000090 6d 7d a7 b8 4e 09 4b 3d 2f 36 80 be a8 11 95 3c
       -7.986543e-05 0.04956942 -0.2504134 0.018196896
0000a0 2c 9a 94 ba c1 df 61 3e 77 e4 61 be 3b c1 6a 3d
       -0.0011337451 0.22058012 -0.22059809 0.057313185
0000b0 1a 0f 8e 3e 40 fb 3c be 9a e9 8c bd 30 02 c3 be
       0.27745897 -0.1845522 -0.068804935 -0.38087606
0000c0 8e f7 9f bd f9 be 50 3e 14 b7 9a 3c 7a e3 1e be
       -0.07810889 0.2038535 0.018886127 -0.15516463
0000d0 30 45 0d 3e 81 60 f0 bd 5b 98 35 3e 7a b4 b7 3d
       0.13795924 -0.11737157 0.177339 0.0896997
0000e0 ce 84 52 3c 4f 78 32 be d3 26 36 be dd a6 3f be
       0.012849046 -0.17428707 -0.17788248 -0.18715997
0000f0 63 bc fd 3c bd 54 ef bc 80 7c ce be 2c 9c 1c be
       0.030973619 -0.029215211 -0.4032936 -0.1529395

h.0.mha.W_v.weight f4 [64, 64]
000000 f4 55 68 3d 89 6e 40 be 56 f3 81 3d f7 71 88 3e
       0.056722596 -0.18792166 0.06345241 0.26649448
000010 9c d7 a6 bb 70 e0 7c 3c 21 01 c5 3d f7 eb d0 bb
       -0.0050916206 0.015434369 0.09619356 -0.0063757855
000020 6c b8 a9 bc 97 18 3e bb 2e 8e 7a 3d 28 df 01 3d
       -0.020717822 -0.0029006356 0.06117075 0.03170696
000030 6d 9a 02 be 0d aa ab bd cb 72 61 3c 74 b0 fa bd
       -0.12754221 -0.08382044 0.013760279 -0.12240687
000040 3e 7b 19 3e 33 21 46 3d c9 5a 21 bc ba 68 f5 bd
       0.1498842 0.048371505 -0.009848305 -0.11982866
000050 19 6d 04 3e ae 4d 1b 3e c9 70 89 bd 11 1f 54 3e
       0.12932242 0.15166351 -0.06710965 0.20714976
000060 98 86 6f bd d1 cd 26 3d 5c 21 9a 3d 48 98 e2 bd
       -0.058477968 0.040723626 0.07525894 -0.110642016
000070 83 9b b1 3c 95 2a 34 3b fa 55 ea 3d b7 69 57 bd
       0.0216806 0.0027491201 0.1144218 -0.052591052
000080 84 41 0d be a7 a2 df 3b 83 75 97 be 32 53 2b be
       -0.13794523 0.0068248096 -0.29581842 -0.16730955
000090 48 7b 19 be e8 e4 4c bd 67 17 96 3d 1c 9c 9d 3c
       -0.14988434 -0.05002299 0.073286824 0.019239478
0000a0 64 93 22 be 63 80 12 3d 6e 34 73 bc 4f cb 4e 3d
       -0.15876538 0.03576697 -0.014844043 0.05048686
0000b0 84 d1 80 be a9 a3 4f 3b bc 90 84 3c df 96 63 3e
       -0.25159848 0.0031683242 0.016182296 0.22225522
0000c0 c9 7c 09 bc 82 05 97 bd 10 e8 25 bd ea 20 50 3d
       -0.0083915675 -0.073740974 -0.040504515 0.05081264
0000d0 af c3 cf 3d 54 14 67 3e 8d 23 7f bd 8c de 17 3e
       0.101447456 0.22566348 -0.062289763 0.14830989
0000e0 68 33 26 3e 63 09 91 bc 31 5a be 3d d8 d0 2c be
       0.16230547 -0.017704671 0.092945464 -0.16876543
0000f0 86 9f b7 bd 93 d6 84 bd ab 6b 2b 3b 45 fa 82 3d
       -0.089659736 -0.06486239 0.0026156704 0.063953914
000100 39 89 21 3d 2a 50 d7 bc 36 f4 d3 3d 67 ef 32 bd
       0.039437506 -0.026283342 0.10349314 -0.043685343
000110 ff 14 a4 3d 3b 49 be 3c 6f 12 bf 3e ee 78 f5 3d
       0.08011817 0.023228278 0.3731875 0.11985956
000120 31 54 5c 3e a7 bc ce bd 96 b3 5f bc bd 9d 78 3d
       0.21516491 -0.10094576 -0.0136536565 0.060697306
000130 db 7b 0e 3e 78 8f b8 bd 44 24 6e bb 74 0d 80 3e
       0.13914435 -0.090117395 -0.0036337534 0.25010264
000140 c3 6e 7a 3d 2f d5 26 be f5 26 0c be dc c0 36 3e
       0.061140787 -0.1629226 -0.13686736 0.17847008
000150 7b 5f 33 3d 44 7e 11 be 58 af 2d 3c 3e da 6d 3d
       0.04379223 -0.14208323 0.010600887 0.05806946
000160 d6 4f 70 3e 97 b3 8a 3e 50 6b 22 be 40 9d ac 3c
       0.23467955 0.2709014 -0.15861249 0.021071076
000170 06 7c a0 3b 6d 7d 8e bd d1 a3 01 bd 46 48 8b 3d
       0.0048975972 -0.06957517 -0.031650368 0.068008944
000180 7c 3c e5 bc f9 22 02 3d b1 a5 74 bd 48 80 70 bd
       -0.027982943 0.031771634 -0.05972833 -0.05871609
000190 c1 0d 1d bd cf 80 4e 3e bc 68 0a be 0d 37 8a bd
       -0.038343195 0.20166324 -0.13516515 -0.06748781
0001a0 d9 d3 9a bd 0f 8f ef 3c d5 ef bf bd 8f 58 29 3d
       -0.07559938 0.02924302 -0.09371916 0.04134422
0001b0 23 ef 92 3d cb 05 98 bd 20 3d 1f bd f2 99 90 bd
       0.07174518 -0.0742298 -0.038876653 -0.07060613
0001c0 d1 7a 76 3d 68 07 b3 bd 8b fa ce 3d 17 44 2b be
       0.06017572 -0.08741647 0.10106381 -0.16725193
0001d0 f2 9a 21 be 66 72 0b 3e c8 aa 42 be 52 39 a0 bd
       -0.15781763 0.13617858 -0.1901046 -0.07823433
0001e0 7d 4e 51 3d 67 0c 5c 3e c6 d6 60 bd 46 03 9e bd
       0.051100243 0.21489106 -0.054892324 -0.07715468
0001f0 5e c1 12 bd 1f 73 32 3e 96 c7 5d 3e 49 9a 48 bd
       -0.03582894 0.17426728 0.21658167 -0.048975263
000200 7c 47 81 3d 3b 48 50 3d 57 7b d7 3c e5 14 7d 3b
       0.06312463 0.050850134 0.02630393 0.003861719
000210 d4 41 03 3e 17 46 31 bd 30 fe 3e bc 12 c7 84 bd
       0.1281808 -0.043279734 -0.011657283 -0.06483282
000220 71 7d db bd cb 01 4d bc 92 8d a9 bd 20 65 4c 3c
       -0.107172854 -0.0125126345 -0.082789555 0.012475282
000230 19 38 44 3c 7e 1b 06 3e 9c c0 c5 3d 9f a6 fb bd
       0.011976265 0.13096425 0.09655878 -0.1228764
000240 a6 71 20 3d 0a ae e7 bd 73 e3 9d 3d 98 1e 69 3e
       0.039170884 -0.11312492 0.07709398 0.22765577
000250 b1 97 34 bd 56 9e 55 3d 8e 7e cb bc c5 c7 b1 3d
       -0.044089977 0.052152954 -0.02484062 0.08680681
000260 09 ae df 3b b2 51 5d 3d 53 09 aa 3d 7d b3 ea 3d
       0.0068261665 0.05403299 0.0830256 0.11460016
000270 ca 35 00 be f3 22 b0 3d 3d 9c d8 bc df ea 67 3d
       -0.12520519 0.08600416 -0.026441688 0.056620475
000280 39 3c 36 be be 96 24 3e e4 30 f6 3c 88 b3 e1 3a
       -0.1779641 0.16073129 0.03005261 0.0017219642
000290 5c 6c 85 bd eb 22 72 3d f3 ee bb bd 27 71 09 be
       -0.065148085 0.05911533 -0.09176435 -0.1342207
0002a0 0b 22 8d 3d e1 d1 01 be ef ed 6c 3d 88 34 64 bd
       0.06891259 -0.12677719 0.0578441 -0.05571416
0002b0 de ba b1 bc cb 77 26 be 09 8d e4 3c fe b3 f2 3d
       -0.02169555 -0.16256635 0.027899282 0.11850737
0002c0 5c 7b 28 bd 84 4f c5 3d 5d 7a f5 bd 02 eb 8c bb
       -0.04113327 0.09634307 -0.119862296 -0.004300476
0002d0 09 45 a9 bd b4 b3 f3 3d 09 b6 b7 3c e1 50 9b bc
       -0.082651205 0.1189951 0.022425668 -0.018959465
0002e0 db d0 1f bd f2 90 4f bd 5e 3a c1 bc 1d f0 61 3d
       -0.03901754 -0.05067534 -0.023587402 0.05516063
0002f0 ae 01 c1 3c 54 87 8a 3d fe 80 f2 bd 0a be 56 3d
       0.023560371 0.06764093 -0.118410096 0.05242733
000300 15 d3 0b bd db 51 5f bd 61 d4 bd bd 85 05 31 3d
       -0.03413685 -0.054521423 -0.09269024 0.043218154
000310 2a e1 17 3c 3f 9b 7b 3e 9e 5c 82 be 77 0b b6 bc
       0.009269992 0.2457094 -0.25461286 -0.022222264
000320 50 94 2c be 8c 5d b0 bd 87 c9 cd 3c a0 82 0f be
       -0.16853452 -0.08611593 0.02512051 -0.14014673
000330 02 65 c4 3c a4 42 39 be f2 4c 1a bd ad 1a 20 bd
       0.023973946 -0.18091828 -0.037671037 -0.03908794
000340 21 45 d7 bd 4d 69 f8 bd 23 d4 77 bc 6e 7f 5d 3e
       -0.10511232 -0.121294595 -0.015126261 0.21630642
000350 c0 c2 bc 3d 37 7f 9b bd 67 d6 7c 3d 40 e4 33 3e
       0.09216833 -0.07592624 0.061727908 0.17567539
000360 93 ce 83 ba 68 50 1b bc 1b 38 c6 3d d0 c8 07 3d
       -0.0010056071 -0.00947962 0.0967867 0.033150494
000370 cb ad e9 3d b4 19 65 bd d4 34 ad bd 02 69 31 be
       0.114101015 -0.055932716 -0.08457342 -0.17325214
000380 bf 91 f9 bb 93 b6 1e 3e 6d fa 42 3e db 2d ac 3d
       -0.0076162512 0.15499334 0.19040842 0.08407184
000390 17 b4 ab bd 28 66 0a 3e d9 46 47 bd ba 59 28 3e
       -0.08383959 0.13515532 -0.04865155 0.16440478
0003a0 d5 16 21 be 64 22 6d 3e 47 db de 3d d2 43 cd 3c
       -0.15731366 0.2315765 0.108816676 0.025056753
0003b0 90 3c 17 be 9c 34 37 3e 47 89 90 bd 05 9a db 3c
       -0.14769197 0.17891163 -0.070574336 0.02680684
0003c0 aa 18 c0 3d dc f9 20 be 8c 2d 0f bd 81 db d6 3d
       0.09379704 -0.15720314 -0.034955546 0.10491086
0003d0 8b 76 d8 bc c0 a7 b5 bd 00 a0 f2 3c e7 39 c4 bd
       -0.026423713 -0.088698864 0.02961731 -0.095813565
0003e0 4c 70 05 3d 76 40 bd bc 69 11 c7 bd 1c 04 56 bc
       0.032577798 -0.023102026 -0.097201176 -0.013062503
0003f0 ce b5 42 bd 94 f0 73 3d cf 2a 75 be f2 5d 3e be
       -0.047536664 0.059555605 -0.23942111 -0.18590525

h.0.mha.W_v.bias f4 [64]
000000 0b 4e 5d 3d e4 88 c3 bb 1b 45 8e bd 85 4d 13 3d
       0.054029506 -0.0059672464 -0.069467746 0.0359626
000010 30 d4 87 3d b3 b0 02 bd 90 ad b8 3d 84 c4 4a 3b
       0.066322684 -0.031906795 0.090174794 0.0030939886
000020 ca 65 ab bd 03 01 64 3d cc 0b 3a 3d 9f c5 e4 bc
       -0.08369024 0.055665027 0.045421407 -0.027926264
000030 16 b2 8c 3d 85 3b 9f bb 49 8b b0 bc 44 1a fe bd
       0.06869905 -0.00485939 -0.021550791 -0.124073535
000040 b4 92 26 bd 67 5e 00 bd 28 b7 d5 bc cc 78 a0 3d
       -0.04066725 -0.03134003 -0.026088312 0.0783554
000050 a5 9d 19 bd c1 9a 81 3c 0a 19 bc 3d 39 ed f0 3c
       -0.037503857 0.015820863 0.09184463 0.029409992
000060 c5 d9 ca 3d e4 1d a2 bc 2f 7f 45 3d 7e 5d 0c 3d
       0.099048175 -0.019789644 0.048216995 0.03426885
000070 4f fc 47 3c 05 6e 83 bd 43 0a f4 bd da 44 ba bd
       0.012206151 -0.06417469 -0.1191602 -0.09095164
000080 d1 3a 75 bd 38 bd aa bd d3 d8 cc 3d a0 3d 98 3d
       -0.059870545 -0.08336872 0.100022934 0.07433629
000090 4e 20 da 3c 11 67 81 3d 6d 32 c1 bd ef b9 80 bd
       0.026626732 0.063184865 -0.09433446 -0.06285464
0000a0 5e 11 66 3c ff ac 24 3d 37 b9 bc bc ae 64 88 bd
       0.014042227 0.040204044 -0.023037536 -0.06659828
0000b0 63 96 a0 3c 01 08 f5 bd 17 c6 47 bd 06 95 a7 bd
       0.01960296 -0.11964417 -0.048772898 -0.08182721
0000c0 a2 62 53 3d eb 2a 2f 3d 31 39 6c 3d f1 ab 94 bc
       0.051607735 0.04276554 0.05767173 -0.018148394
0000d0 37 c4 a3 bd ca d5 9e bc fc 73 d3 bd e8 fc a4 3d
       -0.079964094 -0.019389052 -0.10324857 0.080560505
0000e0 e3 29 9c bd 19 cb a7 bd ad e1 5e 3d 5f e9 7b 3d
       -0.07625177 -0.08193035 0.05441444 0.061501857
0000f0 fc 02 a6 bd 33 6e 27 bc 1d cb b3 3d fd 04 30 3d
       -0.08106038 -0.010219145 0.08778975 0.042973507

h.0.mha.W_o.weight f4 [64, 64]
000000 b8 e1 b4 bd 4f e8 24 bd e7 1e ca bb 5f f2 0e 3e
       -0.08832115 -0.04026061 -0.0061682346 0.13959645
000010 9d f1 a3 bc 64 81 90 3b 34 d7 b5 bd 19 c7 f7 bb
       -0.020012671 0.004409956 -0.08878937 -0.007561576
000020 a1 31 5c 3c 2f 30 c1 bd 3b b3 c0 bc 2b df 4d bd
       0.013439567 -0.094330184 -0.023522964 -0.050261658
000030 3d e9 62 bd bb 95 22 3e 21 93 41 3e f2 b8 bd bd
       -0.055398215 0.1587743 0.18903781 -0.09263791
000040 09 3c 6e 3d 32 27 16 bd f5 51 01 3d 35 78 39 3e
       0.058162723 -0.036658473 0.0315723 0.18112262
000050 c1 76 33 3e ba 18 c0 bc 9a 89 36 be 70 aa 3a 3e
       0.1752577 -0.02344929 -0.17825928 0.18229079
000060 f0 68 93 3c d7 a4 08 be af e1 8d 3d 25 f2 e3 bd
       0.017994374 -0.13344131 0.06927811 -0.1113017
000070 c7 cd 4c 3a 6c 80 21 3d da ff 08 3d af 84 cb bd
       0.00078126456 0.039429113 0.033447124 -0.09937417
000080 60 ca 9e 3c 01 0b d2 3c 58 10 53 be 38 c6 4a 3e
       0.01938361 0.025640013 -0.20611703 0.19802177
000090 1f df 87 3d c1 7a 9e bc 63 1e 31 3d 3e ff 1f bd
       0.06634354 -0.019345643 0.04324187 -0.039061777
0000a0 66 b7 82 bc 2c 8a 6a 3d 08 81 ae 3d 0d 79 28 3e
       -0.015956592 0.057260677 0.085207045 0.16452427
0000b0 be 23 26 be cc f2 36 bd c6 c4 22 bd e5 23 a5 3d
       -0.16224572 -0.044665143 -0.03973844 0.08063487
0000c0 f3 d6 34 be b2 8a f0 3b 05 cb bc 3a 65 05 86 3d
       -0.17660122 0.0073407525 0.0014403766 0.06543998
0000d0 2a 21 d1 3c 81 0b 8b bc d3 1c ca 3d 42 11 ef 3a
       0.02552851 -0.016973259 0.09868779 0.0018239396
0000e0 2c 98 70 bd bb ae f1 bd b9 75 79 3c f9 6b a0 bd
       -0.058738872 -0.11800905 0.015225821 -0.07833094
0000f0 07 0d d2 3d 80 38 fc 3c 99 48 9e 3d 2e bd 86 3d
       0.10256391 0.03078866 0.07728691 0.06579052
000100 65 80 3f bd 21 d6 ac 3e 59 7c f8 3c 88 23 9e bc
       -0.046753306 0.33757117 0.030332731 -0.019304052
000110 d9 6f 4c bc 44 db b3 3b 35 c5 79 bc a6 b7 59 3e
       -0.012477838 0.005488785 -0.015244772 0.21261463
000120 a5 86 0d bd d6 83 97 bd 5c e1 29 be fb a0 0a bd
       -0.034552235 -0.073981926 -0.16589874 -0.03384493
000130 68 2b 8c 3d 4e 4d 36 3d 98 2c d8 bd d6 ff d1 3c
       0.068442166 0.044507317 -0.105553806 0.025634687
000140 2c c1 29 3d 84 42 a4 3d 40 a4 d1 3d e3 2d ea bd
       0.04144399 0.08020499 0.10236406 -0.114345334
000150 67 94 21 3e 6d 8a 56 3d f4 ab b1 bd 3d 59 15 be
       0.15779267 0.052378107 -0.086753756 -0.14584823
000160 b8 41 9d 3d 83 f5 f1 3c 86 f5 df 3d 8d 77 08 be
       0.076785505 0.029536014 0.10935502 -0.13326855
000170 dc 29 e8 bd 71 d2 14 3c d6 6e c4 3d 51 49 82 3d
       -0.11336109 0.009083376 0.09591453 0.0636164
000180 67 10 c0 bd f9 c2 11 3e a8 11 a0 bd 50 c3 43 bc
       -0.093781285 0.14234532 -0.07815868 -0.011948422
000190 32 32 9a 3d a7 f9 3c be 2e 68 5c be 45 c9 f5 bd
       0.07529105 -0.1845461 -0.21524116 -0.1200128
0001a0 00 5b 04 bc d3 0b 86 3e 2a 12 53 be 86 f7 8e 3d
       -0.008078337 0.26180896 -0.20612398 0.06980805
0001b0 17 91 15 3d 14 46 93 3c 8c 84 a2 3d 8e 8c 7b 3d
       0.03651532 0.017977752 0.079354376 0.06141334
0001c0 27 74 21 3e b0 e2 91 bc 7a d5 07 3c a6 34 dc 3d
       0.15766965 -0.017808288 0.008290643 0.107522294
0001d0 c2 6a 6f bd a4 60 99 39 91 57 c7 3d df ba bc bd
       -0.05845142 0.00029254437 0.09733499 -0.0921533
0001e0 12 97 de 3d b3 4d 9a bd e9 34 1d bd 96 59 db 3d
       0.10868658 -0.07534351 -0.038380537 0.107104465
0001f0 3a 03 ed 3d 7f 7f d9 bd 09 6c d0 bd fd 1e 1d be
       0.11572881 -0.10620021 -0.10176856 -0.15343852
000200 94 ac 6c bb 36 84 37 3d 39 18 24 3d ea e0 65 bd
       -0.0036113607 0.04480382 0.040062163 -0.056122698
000210 1e c8 fb 39 c2 fb 8a bd 62 3e 47 be 6b 73 a2 bd
       0.0004802355 -0.067863 -0.19457391 -0.079321705
000220 ff db b8 bc ca d5 d3 3d 35 64 6f 3d b3 d0 5e 3e
       -0.02256584 0.103435114 0.058445174 0.217593
000230 9f fe 1d be 6b 8f 3f 3e 60 c6 28 3d 92 41 9e bd
       -0.15429161 0.18707053 0.04120481 -0.0772735
000240 54 7c 69 bd d6 0a da bd bc 5e a8 bc 8c 36 6d be
       -0.057003334 -0.10646598 -0.020552985 -0.23165339
000250 4a d8 ea 3c ae 8b ea 3d 95 b9 00 be f7 33 f9 3c
       0.028667588 0.11452423 -0.12570794 0.030420287
000260 30 26 56 3d 86 fb 93 bd 98 34 40 be 45 16 31 3e
       0.052282512 -0.07225709 -0.18770063 0.17293651
000270 3f b0 2c bd b2 d3 e2 3c e6 19 9a bb b3 cf a6 bd
       -0.04216027 0.027688835 -0.0047027944 -0.08145084
000280 c8 d2 f0 bd 2f eb c4 bd 45 e2 00 bc 8d 3f 91 bd
       -0.11758953 -0.0961517 -0.007866447 -0.070921995
000290 de d0 97 bd 71 f3 17 3e 32 53 58 3d d7 3d bb 3c
       -0.07412885 0.1483896 0.052813716 0.022856636
0002a0 f9 4d 2b be c1 65 b6 ba c2 74 52 3d e6 c2 28 3e
       -0.16728963 -0.0013915823 0.05138088 0.16480598
0002b0 74 a2 05 3d 15 94 d2 3d 55 b9 51 bd 5b 53 76 bd
       0.03262563 0.10282151 -0.051202137 -0.060138088
0002c0 e1 1d 93 3d 79 5e 31 3e c3 9b 35 be 7c 63 5d be
       0.07183433 0.17321195 -0.177352 -0.21619982
0002d0 ce c6 59 bd 45 23 23 bd 24 0d ad 3d 4f 7b d7 bd
       -0.05316811 -0.039828558 0.08449772 -0.10521566
0002e0 05 57 ec 3d 32 f6 96 3d 1f 2f 55 3c ec b2 f9 bc
       0.11540035 0.07371177 0.013011723 -0.030480824
0002f0 9c 1b 8d 3d d0 b1 2f 3b 4b a2 85 bd ba 8b f3 bc
       0.06890032 0.0026808865 -0.065250956 -0.029729713
000300 78 79 69 3d ab 9a 9b 3d b3 46 01 be 84 e4 ba 3d
       0.057000607 0.0759786 -0.12624626 0.09125617
000310 cd 19 12 3e 42 50 bd 3b e3 05 e8 3d 9c df c1 3d
       0.14267655 0.0057773897 0.11329248 0.09466478
000320 6a 50 ed bd 32 f2 41 bd 2d f8 83 3c 2e 22 05 bd
       -0.115876034 -0.047350116 0.01610955 -0.0325033
000330 a7 4a 7d be 28 29 06 be 1b 97 ab bc 33 f5 10 be
       -0.24735509 -0.13101637 -0.020946076 -0.14156036
000340 96 31 8b be 2e 4f 19 3c e0 30 ce 3d 08 f6 e4 3a
       -0.2718627 0.009357257 0.10067916 0.0017468343
000350 44 5b a0 3d 92 a9 bc bd de 03 38 bd 6c 40 ee bd
       0.078299075 -0.092120305 -0.044925563 -0.11633381
000360 69 d8 20 be a2 9d 81 bd 7b ed 9a bc 18 16 91 3c
       -0.15707554 -0.06328894 -0.018912068 0.01771073
000370 54 e9 a4 bc b6 ed 8f bd f4 ad 4b 3d 70 93 45 3d
       -0.02013079 -0.07027762 0.04972644 0.04823631
000380 63 c2 0d be 1d 65 83 3d a7 66 df bb b6 88 1a bc
       -0.13843684 0.0641577 -0.006817657 -0.0094320085
000390 e8 62 b6 bc 08 51 41 be af 63 9f bc f9 27 a8 3e
       -0.022263959 -0.18878567 -0.019456713 0.32842997
0003a0 17 d2 71 3e 7b 71 95 bc fc 96 80 3d 66 c5 58 3d
       0.23615299 -0.018242588 0.06278798 0.05292263
0003b0 56 00 04 bd 35 e9 ad bd c8 93 ac bc ac af 80 3d
       -0.032226883 -0.08491746 -0.021066561 0.06283507
0003c0 90 fd dd 3d 69 f0 39 be 0b 7d 69 be c6 54 b7 3d
       0.10839379 -0.18158115 -0.22801606 0.08951716
0003d0 9f 63 9b bd d5 32 15 3c 53 ec be 3d f9 79 2c 3d
       -0.075873606 0.009106358 0.09322419 0.04210851
0003e0 59 52 c8 3d 92 ec db bd c1 ca bc bd 72 dd 78 3d
       0.097813316 -0.107384816 -0.0921836 0.06075806
0003f0 33 c4 fc 3c 43 03 48 bc 7d 4c d7 bd 24 b2 b2 3d
       0.030855274 -0.012207809 -0.10512636 0.08725384

h.0.mha.W_o.bias f4 [64]
000000 4e 31 05 be fe bd 0c bd 24 bb 06 3e 36 7a b4 3b
       -0.1300709 -0.03436088 0.13157326 0.0055077327
000010 fc f7 a3 bd 18 8b 0c 3e fd 8d 07 3e de a2 c6 bd
       -0.08006284 0.13724935 0.13237758 -0.09699033
000020 ce 4d de 3c e6 84 c9 bd 78 49 8e 3b 0a 6d 94 3d
       0.02713671 -0.098398015 0.0043422543 0.0724736
000030 93 f4 2f bd 41 67 1c 3c 49 89 e7 bd a6 6a 75 3d
       -0.042957854 0.009546102 -0.11305482 0.05991616
000040 b6 d6 8d bc b9 7e 3c bd d9 ec 92 bd 07 9c da 3c
       -0.017314296 -0.04601929 -0.07174081 0.026685728
000050 c0 cd d0 bd 3b c9 8c bd ac b4 9a bd 68 6b fc bc
       -0.10195494 -0.06874319 -0.07553992 -0.030812934
000060 b5 fb 23 3c 7f dc bc bd 38 c4 bc bc 92 ae e8 3d
       0.010008742 -0.09221744 -0.023042783 0.11361422
000070 fd a5 54 bd 4c 2e da 3d b5 48 bf 3d 3c 97 d9 3c
       -0.05191611 0.10653362 0.0934004 0.026561372
000080 c2 5f 75 bd fc 98 a5 bd bf 24 0d be bb 97 ff 3d
       -0.059905775 -0.0808582 -0.13783549 0.12480112
000090 70 8f ad 3d 96 e7 23 3e 4f 3c d7 bd dd 39 8b bc
       0.08474624 0.16006312 -0.1050955 -0.016995365
0000a0 67 3a 9a bd 38 a6 d7 bd 53 aa 15 3d 75 8b 4a 3d
       -0.075306706 -0.105297506 0.036539387 0.049449403
0000b0 37 0f 00 bd 24 68 23 bd c8 cd 5e bd 4d 4a 5e 3d
       -0.03126451 -0.039894238 -0.054395467 0.054270077
0000c0 13 f3 d7 3d 8f bf 1e bb 9a 77 15 be 25 69 8e 3d
       0.105444096 -0.0024223065 -0.14596406 0.069536485
0000d0 0c 5f 83 bd e7 6a d5 3d 2d 19 df 3d 9c 50 b7 3b
       -0.06414613 0.10420781 0.10893474 0.005594326
0000e0 cc d1 0b bd 2f e4 a6 bd a4 e4 7f 3b 4f bb 7b bd
       -0.034135625 -0.08148991 0.0039046193 -0.06145793
0000f0 37 41 b5 3d 8d 12 74 3d a3 9f c7 3d 01 33 a3 3d
       0.08850329 0.059588004 0.09747245 0.079687126

h.0.ln_1.weight f4 [64]
000000 25 71 6b 3f 40 af 58 3f d3 dc 7c 3f e1 de 63 3f
       0.9196952 0.8464241 0.9877445 0.8901196
000010 7b 35 38 3f 1a 43 5a 3f d1 15 52 3f 0a 1a 75 3f
       0.71956605 0.8525864 0.8206454 0.9574286
000020 46 cf 5f 3f eb 57 57 3f 6c 03 65 3f 40 02 65 3f
       0.8742565 0.8411853 0.89458346 0.8945656
000030 dc 52 57 3f f3 30 60 3f c7 8b 41 3f b1 05 70 3f
       0.8411081 0.8757469 0.7560391 0.93758684
000040 f5 15 6f 3f bc f0 4b 3f d4 8f 49 3f 2f 2b 3e 3f
       0.9339288 0.79664207 0.7873509 0.7428464
000050 64 91 81 3f 21 2c 55 3f d4 ab 3e 3f d2 30 5e 3f
       1.0122495 0.8327046 0.7448094 0.86793244
000060 aa ff 59 3f 91 5e 53 3f a7 5d 76 3f e8 eb 45 3f
       0.8515574 0.8256617 0.9623665 0.7731309
000070 a4 fe 46 3f 9a 78 4e 3f e1 01 73 3f ce 1f 63 3f
       0.777323 0.80652773 0.9492474 0.88720405
000080 30 15 4b 3f d2 3c 5c 3f b1 42 5f 3f 1c 13 69 3f
       0.79329205 0.86030304 0.8721114 0.91044784
000090 09 de 4f 3f c4 62 77 3f 2d fa 72 3f 0d e5 53 3f
       0.81198174 0.9663508 0.9491299 0.8277138
0000a0 ef 3f 30 3f 8e 84 6b 3f 0b 6f 5e 3f 66 68 64 3f
       0.68847555 0.9199914 0.8688819 0.892218
0000b0 e5 d9 6c 3f 61 53 63 3f 7a 51 7d 3f 57 ce 5b 3f
       0.9251998 0.887991 0.9895245 0.85861725
0000c0 11 46 56 3f e0 d9 63 3f b9 3f 54 3f 7b 04 83 3f
       0.8370066 0.89004326 0.82909733 1.0235742
0000d0 a9 bb 49 3f 80 ad 73 3f d5 9d 52 3f af 1e 78 3f
       0.7880197 0.95186615 0.8227208 0.9692182
0000e0 c4 a7 67 3f b1 3b 4a 3f dd 26 6f 3f 13 2f 55 3f
       0.90490365 0.7899733 0.93418676 0.83274955
0000f0 c9 2b 48 3f 3f cc 5a 3f c3 aa 73 3f 7b ae 56 3f
       0.7819181 0.85467905 0.95182437 0.83859986

h.0.ln_1.bias f4 [64]
000000 7f 24 05 3c c1 96 9a bd f0 2f 39 bc ec 16 34 bb
       0.008126377 -0.07548285 -0.011302933 -0.0027479483
000010 f9 53 8b bd ed 29 65 bd 74 9c c3 3b f3 93 2c 3d
       -0.06803126 -0.055948187 0.0059695784 0.042133283
000020 e2 6e 8e ba b8 c4 bd ba 9a 0e a0 3c 99 92 09 3c
       -0.0010866786 -0.0014478182 0.019538213 0.008396768
000030 65 c2 2d 3d d7 61 82 bd 4d d4 f1 bb 11 04 91 bd
       0.042421717 -0.06366318 -0.0073800446 -0.07080854
000040 e2 5e a9 3c 16 17 e5 3c f3 ae 46 3d 21 c4 c9 3c
       0.020675126 0.02796511 0.04850669 0.024629654
000050 1d de 93 bc 87 6b 88 bc 6b 48 89 3d d5 d6 87 3b
       -0.018050248 -0.016652836 0.06703266 0.004145483
000060 63 e1 99 3c f8 6d 84 bd 1a 50 74 ba 57 87 2b bb
       0.01878423 -0.064662874 -0.00093197974 -0.0026173198
000070 c6 af 69 bd 1b 6c 26 bd 9f 52 57 bc a8 39 38 bc
       -0.057052396 -0.04063044 -0.013142257 -0.011244215
000080 95 d2 87 3d 09 51 70 3d ba 79 5b ba 81 3e 5f bc
       0.06631962 0.05867103 -0.00083723257 -0.013625742
000090 81 e0 05 3d d4 29 a4 3b 33 3e c6 3c 25 87 cb bc
       0.032684807 0.005009869 0.02419958 -0.024844715
0000a0 90 a4 be 3b 80 09 a3 3d bb a4 84 bb 03 1d c9 3c
       0.005817957 0.07960796 -0.0040479577 0.024549967
0000b0 1f a1 94 bc 00 d2 d6 3a 52 48 15 3d 92 40 e3 3d
       -0.018143235 0.0016389489 0.036445923 0.110963
0000c0 96 2c 08 3d 3e eb ec 3d 54 6e 55 bd cd 52 fa 3c
       0.033245645 0.115683064 -0.05210717 0.03055706
0000d0 26 48 da 3c 53 59 87 bd a1 05 03 ba 35 40 9d 3c
       0.026645731 -0.06608834 -0.0004998092 0.019195655
0000e0 a5 4a 74 bc aa f9 b5 3c bc 76 22 3d 12 8b 32 bc
       -0.014910375 0.022213776 0.039664015 -0.010897415
0000f0 a1 58 0d 3d 5b a9 ec 3b 91 41 b4 bc 61 83 89 3c
       0.03450835 0.007222337 -0.02200392 0.01678628

h.0.ln_2.weight f4 [64]
000000 00 00 80 3f 00 00 80 3f 00 00 80 3f 00 00 80 3f
       1.0 1.0 1.0 1.0
000010 00 00 80 3f 00 00 80 3f 00 00 80 3f 00 00 80 3f
       1.0 1.0 1.0 1.0
000020 00 00 80 3f 00 00 80 3f 00 00 80 3f 00 00 80 3f
       1.0 1.0 1.0 1.0
000030 00 00 80 3f 00 00 80 3f 00 00 80 3f 00 00 80 3f
       1.0 1.0 1.0 1.0
000040 00 00 80 3f 00 00 80 3f 00 00 80 3f 00 00 80 3f
       1.0 1.0 1.0 1.0
000050 00 00 80 3f 00 00 80 3f 00 00 80 3f 00 00 80 3f
       1.0 1.0 1.0 1.0
000060 00 00 80 3f 00 00 80 3f 00 00 80 3f 00 00 80 3f
       1.0 1.0 1.0 1.0
000070 00 00 80 3f 00 00 80 3f 00 00 80 3f 00 00 80 3f
       1.0 1.0 1.0 1.0
000080 00 00 80 3f 00 00 80 3f 00 00 80 3f 00 00 80 3f
       1.0 1.0 1.0 1.0
000090 00 00 80 3f 00 00 80 3f 00 00 80 3f 00 00 80 3f
       1.0 1.0 1.0 1.0
0000a0 00 00 80 3f 00 00 80 3f 00 00 80 3f 00 00 80 3f
       1.0 1.0 1.0 1.0
0000b0 00 00 80 3f 00 00 80 3f 00 00 80 3f 00 00 80 3f
       1.0 1.0 1.0 1.0
0000c0 00 00 80 3f 00 00 80 3f 00 00 80 3f 00 00 80 3f
       1.0 1.0 1.0 1.0
0000d0 00 00 80 3f 00 00 80 3f 00 00 80 3f 00 00 80 3f
       1.0 1.0 1.0 1.0
0000e0 00 00 80 3f 00 00 80 3f 00 00 80 3f 00 00 80 3f
       1.0 1.0 1.0 1.0
0000f0 00 00 80 3f 00 00 80 3f 00 00 80 3f 00 00 80 3f
       1.0 1.0 1.0 1.0

h.0.ln_2.bias f4 [64]
000000 00 00 00 00 00 00 00 00 00 00 00 00 00 00 00 00
       0.0 0.0 0.0 0.0
000010 00 00 00 00 00 00 00 00 00 00 00 00 00 00 00 00
       0.0 0.0 0.0 0.0
000020 00 00 00 00 00 00 00 00 00 00 00 00 00 00 00 00
       0.0 0.0 0.0 0.0
000030 00 00 00 00 00 00 00 00 00 00 00 00 00 00 00 00
       0.0 0.0 0.0 0.0
000040 00 00 00 00 00 00 00 00 00 00 00 00 00 00 00 00
       0.0 0.0 0.0 0.0
000050 00 00 00 00 00 00 00 00 00 00 00 00 00 00 00 00
       0.0 0.0 0.0 0.0
000060 00 00 00 00 00 00 00 00 00 00 00 00 00 00 00 00
       0.0 0.0 0.0 0.0
000070 00 00 00 00 00 00 00 00 00 00 00 00 00 00 00 00
       0.0 0.0 0.0 0.0
000080 00 00 00 00 00 00 00 00 00 00 00 00 00 00 00 00
       0.0 0.0 0.0 0.0
000090 00 00 00 00 00 00 00 00 00 00 00 00 00 00 00 00
       0.0 0.0 0.0 0.0
0000a0 00 00 00 00 00 00 00 00 00 00 00 00 00 00 00 00
       0.0 0.0 0.0 0.0
0000b0 00 00 00 00 00 00 00 00 00 00 00 00 00 00 00 00
       0.0 0.0 0.0 0.0
0000c0 00 00 00 00 00 00 00 00 00 00 00 00 00 00 00 00
       0.0 0.0 0.0 0.0
0000d0 00 00 00 00 00 00 00 00 00 00 00 00 00 00 00 00
       0.0 0.0 0.0 0.0
0000e0 00 00 00 00 00 00 00 00 00 00 00 00 00 00 00 00
       0.0 0.0 0.0 0.0
0000f0 00 00 00 00 00 00 00 00 00 00 00 00 00 00 00 00
       0.0 0.0 0.0 0.0

ln_f.weight f4 [64]
000000 00 00 80 3f 00 00 80 3f 00 00 80 3f 00 00 80 3f
       1.0 1.0 1.0 1.0
000010 00 00 80 3f 00 00 80 3f 00 00 80 3f 00 00 80 3f
       1.0 1.0 1.0 1.0
000020 00 00 80 3f 00 00 80 3f 00 00 80 3f 00 00 80 3f
       1.0 1.0 1.0 1.0
000030 00 00 80 3f 00 00 80 3f 00 00 80 3f 00 00 80 3f
       1.0 1.0 1.0 1.0
000040 00 00 80 3f 00 00 80 3f 00 00 80 3f 00 00 80 3f
       1.0 1.0 1.0 1.0
000050 00 00 80 3f 00 00 80 3f 00 00 80 3f 00 00 80 3f
       1.0 1.0 1.0 1.0
000060 00 00 80 3f 00 00 80 3f 00 00 80 3f 00 00 80 3f
       1.0 1.0 1.0 1.0
000070 00 00 80 3f 00 00 80 3f 00 00 80 3f 00 00 80 3f
       1.0 1.0 1.0 1.0
000080 00 00 80 3f 00 00 80 3f 00 00 80 3f 00 00 80 3f
       1.0 1.0 1.0 1.0
000090 00 00 80 3f 00 00 80 3f 00 00 80 3f 00 00 80 3f
       1.0 1.0 1.0 1.0
0000a0 00 00 80 3f 00 00 80 3f 00 00 80 3f 00 00 80 3f
       1.0 1.0 1.0 1.0
0000b0 00 00 80 3f 00 00 80 3f 00 00 80 3f 00 00 80 3f
       1.0 1.0 1.0 1.0
0000c0 00 00 80 3f 00 00 80 3f 00 00 80 3f 00 00 80 3f
       1.0 1.0 1.0 1.0
0000d0 00 00 80 3f 00 00 80 3f 00 00 80 3f 00 00 80 3f
       1.0 1.0 1.0 1.0
0000e0 00 00 80 3f 00 00 80 3f 00 00 80 3f 00 00 80 3f
       1.0 1.0 1.0 1.0
0000f0 00 00 80 3f 00 00 80 3f 00 00 80 3f 00 00 80 3f
       1.0 1.0 1.0 1.0
