subspace-alignment/data/1_layer_32_vocab/ckpt_2840.pt (torch, 90637 bytes, 17 tensors)

embed.embed.weight f4 [32, 64]
-0.15852691 0.6350256 0.61362237 0.12458156 -0.028349368 -0.65831256 -1.1922628 -0.049627863
-0.4984201 0.23400001 -1.5346986 0.37303767 -0.22346786 -0.83895034 0.8909427 0.020525564
0.19423404 0.061398607 0.7895139 -0.6835212 -0.5541264 1.5609674 1.401514 -0.9962855
-2.130017 1.4319595 -0.82398903 2.1131985 0.8618392 0.7137673 -0.5310999 0.53759617
0.93319404 -0.85895175 0.33699852 -0.9877128 -1.1816224 0.6257713 -0.87400967 0.6765283
-1.7122538 -0.91658527 0.21409884 0.73488843 1.2262448 0.7902202 -0.44674328 -0.6553767
-0.84526986 -1.5610261 -0.11415634 -0.353214 0.37670112 1.1050279 0.07630995 -0.9326405
0.36511979 -0.51769775 -1.2305307 -1.5659086 0.48995185 -0.30771685 -0.01081733 0.8383121
0.6086941 -1.2046089 -1.1273513 0.14110349 1.9328465 -1.0788828 -0.28235912 -0.53733337
0.3216275 -0.328507 0.118096 0.44329822 0.40826413 0.38825825 0.05891639 0.8389099
1.2453046 -0.52557343 1.1087312 0.32003683 0.26675886 -0.41897038 1.6337588 0.50869906
0.06266954 0.92253137 -1.3134103 0.42199346 -1.9821286 1.9822127 0.26310208 -1.1566164
-1.294314 -1.3362745 0.5694307 -0.02818899 0.92684615 0.8176976 1.1677899 0.17549147
-1.2272265 -0.1457625 1.061881 0.44804284 -0.5469014 -0.13620692 -1.3759582 -1.3865358
-0.28416243 -0.09266109 1.1670765 0.0061134333 -0.74139166 0.11660713 0.32452768 -0.9799751
0.07955874 -0.92724127 -0.30367982 -0.14385737 0.45596892 -2.3664892 -0.93249905 0.44280708
0.85589635 0.9050791 -0.39058417 -0.25503367 -0.18554786 0.7300566 -0.58085585 -1.522997
0.3311444 -0.93416077 0.36233425 -0.41043094 -0.6556495 0.79872733 0.31829226 0.3995103
-0.7264026 -0.86946267 -1.8019592 -0.76338196 0.20307586 1.2210989 -0.97401065 -0.5665148
0.37506968 0.44261494 -0.58911437 0.178245 -1.1010339 1.5635579 1.1741643 0.46677154
-0.86312556 0.50150025 0.35117298 1.1581138 -1.110106 -1.5575563 -0.4239938 2.46297
-0.59143525 -0.9733415 0.03506609 0.07805198 -0.040874403 -0.8483617 0.86561614 -0.22446327
-0.25335717 -1.1975216 2.1722534 -0.06257365 0.21260208 -0.56880224 -1.7161052 -0.46097714
0.7240897 -0.047417182 -0.56996655 0.93786114 -2.4339287 0.54268783 0.27470863 0.28578106
-1.2917364 1.1045198 0.07795911 -0.15445815 -1.57216 -0.48522 1.409233 0.49346775
-1.3318474 -1.2506745 -1.8458166 -0.28198716 -2.6872118 2.380091 -1.2852111 0.4652379
0.4179816 -0.2973055 0.8300403 0.29378864 0.8181979 -0.700394 -1.4222506 0.6957489
-2.0065732 1.4815874 0.19172485 0.5739122 0.33067548 -0.33835292 -0.36366457 0.9553663
0.82893765 0.76732844 -0.7701823 -0.9118936 -0.013828153 -0.85714555 0.44221723 1.3940842
1.7235411 -0.06406872 -0.9375563 0.86960125 0.91631323 1.7798697 0.72510296 0.7861017
0.80319065 -0.7664128 0.48095796 0.06901142 -1.4448335 1.1965878 0.37959623 -0.5682958
0.39622855 1.2295091 -2.8961163 -0.2848688 0.076296285 -0.609328 -0.81277126 -0.052377686
00000000: e154 22be 0a91 223f 5b16 1d3f 9e24 ff3d
00000010: ef3c e8bc 2c87 28bf 119c 98bf 9646 4bbd
00000020: eb30 ffbe b39d 6f3e 0171 c4bf cbfe be3e
00000030: c2d4 64be 73c5 56bf d214 643f 3a25 a83c
00000040: 4ae5 463e 1b7d 7b3d 951d 4a3f 3ffb 2ebf
00000050: 3adb 0dbf c8cd c73f d064 b33f 910c 7fbf
00000060: 3352 08c0 734a b73f f2f0 52bf a53e 0740
00000070: 7ea1 5c3f 74b9 363f 2af6 07bf e79f 093f
00000080: cee5 6e3f 43e4 5bbf 128b ac3e bfda 7cbf
00000090: 673f 97bf 8c32 203f 19bf 5fbf f530 2d3f
000000a0: 222b dbbf 55a5 6abf ba3c 5b3e a621 3c3f
000000b0: 97f5 9c3f df4b 4a3f 89bb e4be c4c6 27bf
000000c0: 9b63 58bf b4cf c7bf cdca e9bd 77d8 b4be
000000d0: f8de c03e 8e71 8d3f 6448 9c3d 87c1 6ebf
000000e0: fbf0 ba3e d787 04bf 0882 9dbf b16f c8bf
000000f0: f8da fa3e 108d 9dbe 2c3b 31bc 9f9b 563f
00000100: 60d3 1b3f a030 9abf 0c4d 90bf 6f7d 103e
00000110: 8467 f73f d518 8abf 6091 90be ae8e 09bf
00000120: 5cac a43e 1232 a8be 51dc f13d fcf7 e23e
00000130: ff07 d13e c9c9 c63e 5052 713d cdc2 563f
00000140: 2466 9f3f fb8b 06bf e7ea 8d3f dedb a33e
00000150: 9e94 883e 4983 d6be 021f d13f 1a3a 023f
00000160: e358 803d 042b 6c3f d41d a8bf 870f d83e
00000170: 64b6 fdbf 25b9 fd3f 51b5 863e 020c 94bf
00000180: 15ac a5bf 0b0b abbf 36c6 113f 99ec e6bc
00000190: ca45 6d3f a154 513f 247a 953f 09b4 333e
000001a0: c215 9dbf c442 15be b7eb 873f df65 e53e
000001b0: bb01 0cbf d479 0bbe 661f b0bf 017a b1bf
000001c0: bd7d 91be 19c5 bdbd c362 953f 3253 c83b
000001d0: d8cb 3dbf b8cf ee3d 7e28 a63e a6df 7abf
000001e0: b1ef a23d af5f 6dbf ec7b 9bbe 594f 13be
000001f0: c274 e93e 8f74 17c0 42b8 6ebf 9cb7 e23e
00000200: 061c 5b3f 44b3 673f a6fa c7be c693 82be
00000210: 4200 3ebe fde4 3a3f f8b2 14bf 91f1 c2bf
00000220: c28b a93e 2925 6fbf e083 b93e 0124 d2be
00000230: a5d8 27bf 6579 4c3f 34f7 a23e 9d8c cc3e
00000240: 85f5 39bf 1b95 5ebf 99a6 e6bf 006d 43bf
00000250: 1ef3 4f3e f84c 9c3f c358 79bf 1d07 11bf
00000260: 2209 c03e 6d9e e23e 33d0 16bf db85 363e
00000270: aeee 8cbf aa22 c83f 044b 963f aefc ee3e
00000280: ccf5 5cbf 5262 003f f2cc b33e 133d 943f
00000290: f417 8ebf 015e c7bf b715 d9be 4da1 1d40
000002a0: 4d68 17bf e92c 79bf 76a1 0f3d b7d9 9f3d
000002b0: eb6b 27bd 3b2e 59bf 0599 5d3f b3d9 65be
000002c0: 08b8 81be 6348 99bf 3306 0b40 9d26 80bd
000002d0: 5cb4 593e 069d 11bf 56a9 dbbf 3205 ecbe
000002e0: f15d 393f 8538 42bd 54e9 11bf ab17 703f
000002f0: 7dc5 1bc0 97ed 0a3f 9ca6 8c3e e551 923e
00000300: 9e57 a5bf e860 8d3f 07a9 9f3d 472a 1ebe
00000310: 8a3c c9bf c16e f8be bf61 b43f cea7 fc3e
00000320: fa79 aabf 1a16 a0bf b843 ecbf 9f60 90be
00000330: 47fb 2bc0 6953 1840 cc81 a4bf a933 ee3e
00000340: af01 d63e 6d38 98be 857d 543f 776b 963e
00000350: 6b75 513f 054d 33bf 4f0c b6bf 9a1c 323f
00000360: b26b 00c0 a8a4 bd3f 8553 443e e9eb 123f
00000370: 4c4e a93e 983c adbe 3e32 babe e392 743f
00000380: 4235 543f a36f 443f ab2a 45bf dc71 69bf
00000390: 7a8f 62bc e46d 5bbf 4c6a e23e 5a71 b23f
000003a0: ff9c dc3f 7636 83bd b103 70bf 309e 5e3f
000003b0: 8193 6a3f c5d2 e33f 59a0 393f f63d 493f
000003c0: e79d 4d3f a133 44bf 1f40 f63e dc55 8d3d
000003d0: 4ef0 b8bf ca29 993f 705a c23e d57b 11bf
000003e0: 78de ca3e 8e60 9d3f f859 39c0 53da 91be
000003f0: 3a41 9c3d ebfc 1bbf c711 50bf fc89 56bd

h.0.mha.W_q.weight f4 [64, 64]
-0.05838561 0.020499188 0.0408731 0.049345486 0.116922446 0.009374002 -0.0821615 -0.054024376
-0.0024492424 -0.13679758 -0.099113174 0.007253376 -0.064789236 0.1122539 -0.027540896 -0.14845246
0.076342985 0.116194636 -0.098677054 0.04418525 0.06551656 -0.04610294 0.054968327 -0.031766176
0.07537475 0.06666309 0.051784113 0.058247197 -0.108935535 -0.10058587 -0.12205019 0.0030414234
-0.027243001 0.018059036 -0.10016796 -0.1421071 0.035529494 -0.063098446 0.07186316 0.010787093
0.0065128687 -0.1069976 0.07277645 0.13424897 0.03224124 -0.06925523 0.00096354797 -0.09158923
0.06343731 -0.011365102 -0.024460671 0.06591764 -0.046612266 -0.049874753 -0.113525756 -0.030446352
-0.016190547 0.0028299945 0.047171578 -0.0033581094 -0.07081194 0.093998656 -0.008353455 0.0332568
-0.05766228 -0.00089072564 -0.10058408 0.04695917 -0.058521237 -0.09426371 -0.06485829 -0.053474117
0.081978776 -0.0120067755 -0.10136995 -0.09417091 -0.049950615 -0.028789856 0.005527672 0.057190757
0.011357983 -0.046544876 0.03356801 -0.08604775 0.034081914 0.0051437193 -0.030156497 -0.018535255
0.020338502 0.07004249 -0.08547568 -0.077785194 0.105317585 0.06748248 -0.0424667 -0.08358663
-0.04859661 -0.058314282 -0.005667775 0.051613916 0.10358761 -0.04342692 -0.013544588 0.0051195547
0.06557341 -0.05410079 -0.01931046 -0.069640584 0.004036568 -0.119532526 0.0192295 -0.07431443
-0.029709138 -0.033703703 -0.09427509 -0.05678393 0.07436676 0.009279217 0.015053287 0.0107033085
-0.021910269 -0.076612696 0.051763967 0.005406718 0.041004032 0.06671108 -0.03752103 -0.058762144
-0.05802714 -0.097870186 -0.11292702 -0.0044444366 -0.009815819 -0.035797365 -0.009190931 -0.119903065
-0.08242159 -0.012233415 0.09686072 -0.043368597 0.04763273 -0.063042864 -0.029050123 0.012135264
-0.04376697 0.060054813 -0.15059485 0.10527083 0.00025470872 -0.05804738 0.05696065 0.011099367
0.06519302 0.109561905 -0.0060003786 -0.06670545 -0.027750624 -0.02039352 0.05886196 0.074334756
0.063453205 -0.023936331 0.07044986 0.028901001 -0.028047012 -0.07265473 -0.024551997 -0.04546809
0.07237238 -0.093287304 0.019777095 0.02978457 0.022801582 -0.15831907 -0.028195327 0.057998393
-0.057085108 -0.04296027 0.0842897 0.075108774 -0.028328026 0.042618167 0.06405912 -0.04253239
0.07546517 -0.10942388 -0.03877549 -0.027645545 0.01879924 -0.08979268 -0.031000515 -0.065430194
0.011764612 0.00035482825 0.047905304 0.032314043 -0.010148884 -0.10264845 -0.046443045 -0.10670556
0.011318787 0.012088182 0.06606506 -0.064427145 -0.048826024 -0.02652936 0.15676194 0.05096007
0.02297233 -0.042586554 -0.088328086 0.032165673 -0.021830777 0.024992678 0.0041570375 -0.08435083
-0.014486016 0.019463621 -0.011078169 -0.06907144 -0.0580483 0.008919347 -0.06097966 -0.101331316
-0.03444329 0.043032564 0.04948006 -0.074535966 0.034835257 -0.0333329 0.059360035 0.030636137
-0.038264472 -0.061349653 0.0060176654 -0.13046849 0.007207681 0.028223887 0.037751902 -0.106732905
0.072022356 0.023759935 -0.060266737 -0.069325134 -0.03466121 -0.051660858 -0.01929456 0.079500884
0.010673049 0.059518076 0.05498863 -0.039054833 0.025576448 -0.026365805 0.079412974 -0.053302646
00000000: c025 6fbd eaed a73c 8d6a 273d 7e1e 4a3d
00000010: 0975 ef3d 6a95 193c 4a44 a8bd aa48 5dbd
00000020: 7883 20bb aa14 0cbe d9fb cabd baad ed3b
00000030: 38b0 84bd 5fe5 e53d 729d e1bc ec03 18be
00000040: b659 9c3d 74f7 ed3d 3217 cabd 98fb 343d
00000050: 8c2d 863d 70d6 3cbd 7826 613d 401d 02bd
00000060: 145e 9a3d a886 883d 941b 543d 9d94 6e3d
00000070: 9819 dfbd f7ff cdbd 73f5 f9bd 9e52 473b
00000080: b72c dfbc 8bf0 933c dc24 cdbd 8684 11be
00000090: 6087 113d c239 81bd fe2c 933d 59bc 303c
000000a0: e769 d53b 8f21 dbbd d20b 953d 9078 093e
000000b0: 640f 043d b0d5 8dbd 9c96 7c3a 2293 bbbd
000000c0: 6ceb 813d b134 3abc bf61 c8bc d4ff 863d
000000d0: 81ec 3ebd 7849 4cbd 3180 e8bd a16a f9bc
000000e0: 0aa2 84bc 6e77 393b fc36 413d ba13 5cbb
000000f0: da05 91bd 5e82 c03d eedc 08bc 4838 083d
00000100: 482f 6cbd 967f 69ba 07ff cdbd 4258 403d
00000110: f7b3 6fbd 550d c1bd 6cd4 84bd ad07 5bbd
00000120: 7de4 a73d 11b8 44bc 0c9b cfbd aedc c0bd
00000130: 0499 4cbd b4d8 ebbc 7921 b53b db40 6a3d
00000140: d516 3a3c d7a5 3ebd 9c7e 093d ce39 b0bd
00000150: 7a99 0b3d a58c a83b c20a f7bc 3fd7 97bc
00000160: ee9c a63c 7072 8f3d e00d afbd d84d 9fbd
00000170: bfb0 d73d 4134 8a3d 90f1 2dbd 782f abbd
00000180: 3d0d 47bd f5da 6ebd beb8 b9bb 1d69 533d
00000190: be25 d43d 6de0 31bd 1fea 5dbc f0c1 a73b
000001a0: 5a4b 863d ca98 5dbd f830 9ebc b99f 8ebd
000001b0: 3045 843b 78cd f4bd 2f87 9d3c 2a32 98bd
000001c0: 9460 f3bc e50c 0abd 4c13 c1bd 4496 68bd
000001d0: 9a4d 983d db07 183c 10a2 763c ee5c 2f3c
000001e0: 2a7d b3bc 1ee7 9cbd 7406 543d d62a b13b
000001f0: d8f3 273d d29f 883d a7af 19bd 93b0 70bd
00000200: dead 6dbd 2a70 c8bd 4846 e7bd a3a2 91bb
00000210: 87d2 20bc 42a0 12bd 8f95 16bc bd8f f5bd
00000220: a7cc a8bd a96e 48bc ea5e c63d 45a3 31bd
00000230: 8a1a 433d 9e1c 81bd 86fa edbc fdd2 463c
00000240: ff44 33bd 09fc 753d 8935 1abe 3c98 d73d
00000250: 6d8a 8539 17c3 6dbd 924f 693d 1fda 353c
00000260: eb83 853d fe61 e03d d39e c4bb de9c 88bd
00000270: 4755 e3bc 5010 a7bc 3d19 713d d23c 983d
00000280: c1f3 813d 2016 c4bc 0448 903d cbc1 ec3c
00000290: d9c2 e5bc 01cc 94bd 4521 c9bc bf3c 3abd
000002a0: f837 943d 6a0d bfbd 9303 a23c c5fe f33c
000002b0: 62ca ba3c 651e 22be e3f9 e6bc b98f 6d3d
000002c0: 13d2 69bd 1cf7 2fbd 14a0 ac3d a1d2 993d
000002d0: 2d10 e8bc 6390 2e3d 6e31 833d 7236 2ebd
000002e0: 7c8d 9a3d a119 e0bd 0cd3 1ebd e978 e2bc
000002f0: dd00 9a3c 3ae5 b7bd cbf4 fdbc 4400 86bd
00000300: 5cc0 403c 3e08 ba39 5a38 443d bb5b 043d
00000310: 8147 26bc 5a39 d2bd 103b 3ebd 7288 dabd
00000320: 6f72 393c 830d 463c 1e4d 873d 61f2 83bd
00000330: ccfd 47bd 1a54 d9bc 3486 203e 82bb 503d
00000340: 7830 bc3c 3d6f 2ebd 5be5 b4bd 27c0 033d
00000350: 75d6 b2bc 72bd cc3c c237 883b 21c0 acbd
00000360: c156 6dbc 2c72 9f3c 3581 35bc 5475 8dbd
00000370: 0ec4 6dbd 7422 123c cfc5 79bd cb86 cfbd
00000380: 6814 0dbd ea42 303d 9aab 4a3d 50a6 98bd
00000390: 6aaf 0e3d 1488 08bd 8223 733d a3f8 fa3c
000003a0: 35bb 1cbd c649 7bbd d62f c53b 8899 05be
000003b0: 692e ec3b c835 e73c bda1 1a3d c896 dabd
000003c0: 7580 933d 32a4 c23c 41da 76bd 56fa 8dbd
000003d0: eaf8 0dbd 569a 53bd a00f 9ebc 5cd1 a23d
000003e0: 03de 2e3c 3ac9 733d c23b 613d f6f7 1fbd
000003f0: b385 d13c 1afd d7bc 45a3 a23d e053 5abd

h.0.mha.W_q.bias f4 [64]
0.12080448 -0.09763624 -0.1294725 0.0077943495 0.01756545 0.08110511 -0.1853941 -0.13709037
0.253588 -0.349884 -0.03482853 0.2709289 0.45513132 0.22914225 -0.67977977 -0.20867887
0.2940805 0.54488915 0.05510037 0.3029598 0.25410888 -0.13223463 0.2729305 -0.08268804
-0.17357492 -0.11722206 -0.032016736 0.14883915 -0.14673184 -0.047834754 0.08604634 -0.14411253
-0.01732676 -0.09935006 -0.010947774 -0.020538993 -0.10151365 -0.1240628 -0.1234964 -0.007768137
0.026083838 0.048723154 0.09595988 0.07458604 -0.07398524 -0.10297123 0.012612445 -0.03480409
0.042676676 0.13614695 -0.03277522 0.017713238 -0.025689485 -0.026841624 -0.088025294 0.040845394
0.07636318 0.16273874 -0.027248135 0.035439078 -0.031264618 0.008664112 0.03722995 0.05820828
00000000: 5768 f73d 82f5 c7bd 7094 04be be67 ff3b
00000010: 6be5 8f3c 701a a63d f3d7 3dbe 6b61 0cbe
00000020: 49d6 813e ff23 b3be 5ca8 0ebd 31b7 8a3e
00000030: f906 e93e 44a4 6a3e 0c06 2ebf eaaf 55be
00000040: b891 963e db7d 0b3f edb0 613d 8c1d 9b3e
00000050: 8f1a 823e 8468 07be 8cbd 8b3e 5958 a9bd
00000060: a0bd 31be 1f12 f0bd fb23 03bd 4a69 183e
00000070: df40 16be 60ee 43bd 1039 b03d 3c92 13be
00000080: d9f0 8dbc 0b78 cbbd 4b5e 33bc 6441 a8bc
00000090: 63e6 cfbd a314 febd aeeb fcbd db8b febb
000000a0: c6ad d53c ee91 473d 9d86 c43d 91c0 983d
000000b0: 9385 97bd 95e2 d2bd 6ea4 4e3c bc8e 0ebd
000000c0: bdcd 2e3d 1b6a 0b3e 4f3f 06bd 5a1b 913c
000000d0: c172 d2bc f7e2 dbbc 9b46 b4bd 804d 273d
000000e0: 4d64 9c3d fca4 263e 7b37 dfbc 9128 113d
000000f0: 540f 00bd ebf3 0d3c 6f7e 183d ce6b 6e3d

h.0.mha.W_k.weight f4 [64, 64]
-0.070203535 -0.01865556 0.046873655 0.05305988 0.018401388 0.089950316 0.096598074 0.12703818
-0.08845833 -0.07557743 -0.041653153 -0.06340155 0.05522939 0.032833274 -0.0277685 -0.04056319
-0.07096249 -0.049204845 0.044708833 -0.14031102 0.030476961 -0.07542793 0.05671919 -0.05211606
0.052960414 0.057468377 0.012106844 0.14260995 -0.015693115 -0.07850117 -0.080510095 -0.07380958
-0.051126376 -0.082648985 -0.07194592 -0.031973075 -0.12414185 0.032208547 0.043249864 0.09665094
0.03553039 -0.0034884166 0.08506455 0.017981691 0.09062943 -0.011352606 -0.08525539 0.028961234
0.011592832 -0.007438083 0.025542723 -0.008748561 0.055419218 -0.057328727 -0.04757098 -0.059410766
-0.030812789 -0.08542293 -0.12577322 -0.054833803 0.07952864 -0.0017681206 0.11226314 0.08520318
0.015579241 0.09824539 -0.042126246 -0.060419906 -0.027451918 -0.052854944 -0.043246668 0.04643878
0.0312564 -0.03394485 -0.046366524 -0.11338179 0.04308402 0.038481563 0.059996247 0.13176286
0.035468925 0.07248402 -0.0010082042 -0.068208836 -0.025190823 -0.01941791 -0.05234132 0.0059874607
0.079375 -0.036747623 0.11807094 0.03236408 0.07919918 -0.12859161 -0.064452626 -0.104848444
-0.015723618 0.06456051 -0.104691274 -0.04021582 0.029463131 0.078427464 0.0054660193 0.014654544
-0.073973745 0.11226144 -0.062088054 -0.02948076 0.033256304 -0.048258804 0.022733342 0.053222347
0.05542316 0.061766297 -0.008120169 -0.06890674 0.008626588 -0.09602354 -0.087172635 0.06459366
0.06440122 -0.101394415 0.08053659 0.07663324 -0.097757794 0.021531072 -0.083659954 -0.05772001
-0.061142232 -0.054056536 -0.006686005 -0.019171674 0.082928285 0.027954029 -0.01327879 -0.001109152
0.038873136 0.0650238 0.054355506 -0.053645037 -0.032516945 0.02824501 0.108602636 -0.061474822
-0.10969033 -0.07011217 -0.06271152 -0.0054654977 -0.050798714 -0.039156467 0.038712725 -0.029325567
0.05485518 -0.001253747 0.020469097 -0.04944561 -0.005009179 0.014324842 0.0834984 -0.058053806
-0.07466415 -0.0057367506 0.030556617 0.011063047 -0.074157655 0.111340895 0.014929516 0.082887046
-0.012936983 -0.011440485 -0.1534633 0.05580161 -0.10530924 -0.02702328 -0.14008564 0.083055615
-0.0024946742 -0.04155215 0.086800985 -0.055588253 0.06380105 -0.10236886 0.102570236 0.017475402
0.010104218 0.11808351 -0.082299165 0.017825982 -0.053393148 0.0093027465 -0.09648882 0.07227038
-0.1091096 -0.000109748624 0.054796595 -0.013787123 0.0033536693 -0.05441542 -0.07899782 0.045959063
-0.017163211 0.041329015 -0.042598084 -0.03360867 0.023282709 -0.022652255 0.024491703 -0.08048615
0.08376006 0.02169199 -0.109114654 0.006783348 -0.091962285 -0.11497793 -0.08526629 0.066222124
0.08069223 0.070045836 0.028043376 -0.08153288 -0.03551352 0.11048359 0.037420977 -0.07893846
-0.17494293 0.083749145 -0.06442155 0.05715583 -0.073970675 0.022953076 -0.03406435 0.015343253
0.08689461 -0.04967648 -0.013289672 -0.09923537 -0.03455102 0.012966345 -0.07766783 0.015944429
0.016685698 -0.050024223 -0.052206956 0.07084353 0.091317125 0.06384167 -0.01876049 -0.07942585
0.032985743 0.025875214 -0.009613611 -0.13132435 0.040285245 -0.022762127 -0.016523426 0.061336454
00000000: dfc6 8fbd 8cd3 98bc 97fe 3f3d 5155 593d
00000010: 82be 963c df37 b83d 36d5 c53d 4c16 023e
00000020: a429 b5bd 57c8 9abd 7f9c 2abd acd8 81bd
00000030: 3638 623d 2f7c 063d c47a e3bc 9625 26bd
00000040: c854 91bd 058b 49bd 9c20 373d b1ad 0fbe
00000050: d2aa f93c f579 9abd 6252 683d a677 55bd
00000060: 05ed 583d f663 6b3d c95b 463c 5808 123e
00000070: d98e 80bc 39c5 a0bd 7ae2 a4bd 7a29 97bd
00000080: e469 51bd df43 a9bd 6258 93bd 33f6 02bd
00000090: 153e febd 1ced 033d c526 313d eef0 c53d
000000a0: 5088 113d eb9d 64bb 5336 ae3d 574e 933c
000000b0: ec9b b93d 4800 3abc 619a aebd 1c40 ed3c
000000c0: ddef 3d3c 2abb f3bb f93e d13c 2056 0fbc
000000d0: 43ff 623d 87d1 6abd cad9 42bd b458 73bd
000000e0: 1a6b fcbc 38f2 aebd b2ca 00be 6999 60bd
000000f0: e9df a23d 48c0 e7ba 38ea e53d 017f ae3d
00000100: 1340 7f3c e134 c93d 928c 2cbd dd7a 77bd
00000110: d8e2 e0bc 6d7e 58bd 6b23 31bd 9736 3e3d
00000120: b606 003d c109 0bbd d3ea 3dbd b634 e8bd
00000130: df78 303d d89e 1d3d a0be 753d d8ec 063e
00000140: dd47 113d 8072 943d b825 84ba 13b1 8bbd
00000150: fc5c cebc 4f12 9fbc da63 56bd 7632 c43b
00000160: 5c8f a23d ad84 16bd 2dcf f13d 3390 043d
00000170: 2e33 a23d 85ad 03be bdff 83bd c8ba d6bd
00000180: d1ce 80bc 4d38 843d 6168 d6bd 58b9 24bd
00000190: aa5c f13c 949e a03d 4b1c b33b 9d19 703c
000001a0: 8c7f 97bd 53e9 e53d 0b50 7ebd a381 f1bc
000001b0: c337 083d 06ab 45bd 463b ba3c adff 593d
000001c0: 6503 633d a8fe 7c3d 750a 05bc fa1e 8dbd
000001d0: 8856 0d3c fda7 c4bd 9187 b2bd ae49 843d
000001e0: c9e4 833d e0a7 cfbd 5ef0 a43d e3f1 9c3d
000001f0: 3d35 c8bd ee61 b03c e955 abbd d16b 6cbd
00000200: 4770 7abd 636a 5dbd 4616 dbbb ea0d 9dbc
00000210: 4ed6 a93d d9ff e43c 488f 59bc f760 91ba
00000220: 7039 1f3d 332b 853d e1a3 5e3d e6ba 5bbd
00000230: 7d30 05bd 1462 e73c 0f6b de3d 06cd 7bbd
00000240: 53a5 e0bd f896 8fbd e66e 80bd eb17 b3bb
00000250: 5012 50bd 8862 20bd 3c91 1e3d 2c3c f0bc
00000260: d3af 603d c554 a4ba cfae a73c 7b87 4abd
00000270: 0a24 a4bb beb2 6a3c 3601 ab3d d4c9 6dbd
00000280: 85e9 98bd 5afb bbbb df51 fa3c c841 353c
00000290: f8df 97bd b206 e43d ee9a 743c afc0 a93d
000002a0: a4f5 53bc df70 3bbc 7c25 1dbe 3b90 643d
000002b0: 5fac d7bd ed5f ddbc 9c72 0fbe 1019 aa3d
000002c0: b07d 23bb 9632 2abd b7c4 b13d 82b0 63bd
000002d0: 20aa 823d c4a6 d1bd 5810 d23d 9328 8f3c
000002e0: 298c 253c c4d5 f13d 778c a8bd cb07 923c
000002f0: c6b2 5abd 8c6a 183c ee9b c5bd 7e02 943d
00000300: db74 dfbd d828 e6b8 6572 603d 63e3 61bc
00000310: 3cc9 5b3b b4e2 5ebd 9cc9 a1bd 923f 3c3d
00000320: dd99 8cbc 9d48 293d 547b 2ebd 3fa9 09bd
00000330: 61bb be3c 3991 b9bc d3a2 c83c ecd5 a4bd
00000340: 658a ab3d 66b3 b13c 8177 dfbd d946 de3b
00000350: b956 bcbd 8d79 ebbd 18a0 aebd 779f 873d
00000360: f841 a53d 3174 8f3d 39bb e53c b6fa a6bd
00000370: a076 11bd 3845 e23d bd46 193d 7daa a1bd
00000380: 3d24 33be ac84 ab3d 72ef 83bd 3b1c 6a3d
00000390: f07d 97bd 1708 bc3c 0f87 0bbd 4462 7b3c
000003a0: cdf5 b13d 9179 4bbd edbc 59bc ea3b cbbd
000003b0: 5f85 0dbd cb70 543c 5010 9fbd e49d 823c
000003c0: 72b0 883c 33e6 4cbd f6d6 55bd 6a16 913d
000003d0: 7904 bb3d 6cbf 823d 99af 99bc 05aa a2bd
000003e0: 0f1c 073d 42f8 d33c 6882 1dbc e479 06be
000003f0: 2402 253d a477 babc 235c 87bc ef3b 7b3d

h.0.mha.W_k.bias f4 [64]
0.1147 -0.040541515 0.029935427 -0.024859631 -0.0025354875 -0.09006707 0.066036314 -0.15951258
-0.13915446 -0.27426386 0.2963649 -0.03106551 0.20903441 -0.516174 0.5133501 0.32065627
-0.60445124 -0.27591005 -0.45462278 0.065500714 -0.049457897 0.19492234 0.10961304 0.22715642
0.096351266 -0.11475072 0.16573405 -0.17958152 0.16928864 -0.28980905 0.08935845 -0.023492357
-0.05782177 -0.026643388 9.5749594e-05 0.03873075 -0.009126594 -0.0312739 -0.1983656 -0.055126816
-0.062062584 0.18639135 -0.14809544 0.06976764 0.24116206 -0.108880185 -0.035212528 -0.33285275
-0.06601588 0.06705626 -0.048601583 -0.11681351 0.08929729 -0.09036332 0.140004 0.024167988
-0.008485394 -0.07784923 -0.10306145 -0.15193751 0.08818301 -0.060522042 -0.35947657 -0.11519265
00000000: d5e7 ea3d dc0e 26bd 243b f53c 6da6 cbbc
00000010: 6c2a 26bb 1675 b8bd 0c3e 873d 4457 23be
00000020: 827e 0ebe 506c 8cbe 24bd 973e 197d febc
00000030: 1e0d 563e fb23 04bf ea6a 033f 0f2d a43e
00000040: 51bd 1abf 1544 8dbe 51c4 e8be 3d25 863d
00000050: 5d94 4abd b999 473e cd7c e03d b19b 683e
00000060: d053 c53d 6d02 ebbd 30b6 293e 38e4 37be
00000070: 005a 2d3e da61 94be 9001 b73d 0b73 c0bc
00000080: 85d6 6cbd 3c43 dabc 2ccd c838 23a4 1e3d
00000090: b687 15bc 1019 00bd 5a20 4bbe a8cc 61bd
000000a0: 5635 7ebd 60dd 3e3e 55a6 17be 56e2 8e3d
000000b0: 30f3 763e 93fc debd 033b 10bd ad6b aabe
000000c0: 5533 87bd cb54 893d 7412 47bd ec3b efbd
000000d0: 7fe1 b63d 6810 b9bd 355d 0f3e f2fb c53c
000000e0: 5206 0bbc 6b6f 9fbd e211 d3bd 8295 1bbe
000000f0: 4b99 b43d f6e5 77bd 500d b8be 20ea ebbd

h.0.mha.W_v.weight f4 [64, 64]
-0.013233842 -0.10861134 0.044482473 0.22907668 0.0036849582 0.03406094 0.11924153 0.05270334
0.009749776 0.0066521633 0.06535888 0.02874793 -0.06793321 -0.03132405 0.005500353 -0.13951813
0.15353543 -0.007731492 -0.0029662682 -0.067708515 0.11139778 0.08097228 -0.09419299 0.15666755
-0.018691678 0.0711741 0.093351446 -0.08162228 -0.011250766 0.010778974 0.105846815 -0.05806518
-0.16896394 0.015022127 -0.23841637 -0.120431885 -0.14251025 0.003381866 0.052052002 0.0063867313
-0.10560101 -0.025589893 -0.06486494 0.027417747 -0.2411759 -0.04424786 -0.012568661 0.1536281
-0.057659063 -0.056123633 -0.048156627 0.073120244 0.09868721 0.1306254 -0.018931488 0.13774927
0.16858943 -0.009551754 0.08805271 -0.14732209 -0.08673471 -0.04816193 -0.025875226 0.035115916
0.04587729 -0.05344348 0.1039928 -0.061886154 0.10718414 0.03267966 0.30101383 0.102252685
0.1836294 -0.091789775 -0.016922837 0.05022757 0.1519358 -0.08056846 -0.0009941489 0.19496982
0.038654413 -0.12689875 -0.13740882 0.18506664 0.04379243 -0.12730849 0.012050867 0.052468218
0.19741736 0.23914859 -0.14848197 0.03678943 0.02160491 -0.07551126 -0.05019086 0.058327597
-0.011160662 0.056184433 -0.030974755 -0.07484394 -0.012910243 0.16986902 -0.13038722 -0.041790724
-0.08401228 0.050225116 -0.08844551 0.050290715 0.050120704 -0.052724272 -0.024878094 -0.06960388
0.09577719 -0.09220223 0.08049812 -0.14727767 -0.13046537 0.10806476 -0.17572385 -0.095663436
0.050629504 0.18511756 -0.038754042 -0.044161003 -0.023673104 0.15259612 0.16182913 -0.025297647
0.020698305 0.020642279 0.08750611 0.04835059 0.110050105 -0.071367554 -0.005968626 -0.10625776
-0.110528626 -0.04667136 -0.1110332 0.090052344 -0.048379775 0.1314077 0.052704565 -0.1033837
0.067857504 -0.11251991 0.026663661 0.17363018 -0.09725328 0.053480554 0.02023815 0.11419163
-0.037574258 0.061501026 0.0509207 0.12541506 -0.12630893 0.11128041 0.01590175 0.11721473
-0.15204005 0.12203829 -0.03084471 -0.0054670754 -0.04520626 0.077012725 -0.12780674 -0.09994804
0.038224876 -0.124055564 0.081605 0.008918135 -0.04136208 -0.12787123 -0.0014266445 0.101502575
-0.055716854 0.11732651 -0.110402204 0.037279397 -0.13091263 0.12821734 0.05118449 -0.012243327
0.03873632 -0.067739405 -0.04803919 0.008855133 -0.014016789 0.104901776 -0.02709736 0.07105994
-0.006310041 -0.04744129 -0.06555021 0.05289842 -0.015827527 0.23563834 -0.19745106 -0.07039045
-0.13911998 -0.06403723 0.017757634 -0.08426804 -0.011914058 -0.19473132 -0.022206923 -0.01584498
-0.13537389 -0.105583616 -0.08652298 0.1425592 0.0659067 -0.07253432 0.096708775 0.15093502
-0.002389398 -0.012394525 0.09556291 0.021733101 0.11418099 -0.07271447 -0.06287147 -0.11232095
-0.0024716635 0.062111862 0.16467285 0.06436214 -0.108972244 0.15303053 -0.012412266 0.15889104
-0.14475335 0.19519463 0.08945744 0.031944327 -0.15940008 0.15428664 -0.101197995 -0.0058053485
0.06646002 -0.11213545 0.005691242 0.08883065 -0.03808486 -0.059548836 0.0028187176 -0.09080896
0.06311625 -0.009200499 -0.06928069 -0.066811755 -0.03236706 0.09843279 -0.15716934 -0.17646298
00000000: c2d2 58bc 9f6f debd 4133 363d 1493 6a3e
00000010: 577f 713b 7c83 0b3d e734 f43d 75df 573d
00000020: 86bd 1f3c 64fa d93b e0da 853d c780 eb3c
00000030: 9120 8bbd a64d 00bd 4e3c b43b d7dd 0ebe
00000040: 6438 1d3e 7558 fdbb b965 42bb c3aa 8abd
00000050: 8524 e43d cbd4 a53d 41e8 c0bd 756d 203e
00000060: 4a1f 99bc bac3 913d 0b2f bf3d 9529 a7bd
00000070: 2255 38bc 4b9a 303c 37c6 d83d c1d5 6dbd
00000080: e204 2dbe 5e1f 763c 6c23 74be fea4 f6bd
00000090: 35ee 11be 4ca2 5d3b 7b34 553d c947 d13b
000000a0: 5845 d8bd e5a1 d1bc e9d7 84bd 2f9b e03c
000000b0: d1f6 76be 3e3d 35bd c9ec 4dbc af50 1d3e
000000c0: e92b 6cbd e5e1 65bd e23f 45bd 11c0 953d
000000d0: 851c ca3d aac2 053e 3516 9bbc 250e 0d3e
000000e0: b5a2 2c3e f67e 1cbc fb54 b43d 9adb 16be
000000f0: f8a1 b1bd 7245 45bd 48f8 d3bc b5d5 0f3d
00000100: d3e9 3b3d 8de7 5abd 2dfa d43d 567c 7dbd
00000110: 5c83 db3d 1bdb 053d 7c1e 9a3e db69 d13d
00000120: 5809 3c3e 47fc bbbd c3a1 8abc 6dbb 4d3d
00000130: 0f95 1b3e 1401 a5bd 1a4e 82ba 2ba6 473e
00000140: 1754 1e3d bff1 01be e6b4 0cbe 1c82 3d3e
00000150: b15f 333d 285d 02be 0071 453c eae8 563d
00000160: c727 4a3e 5ee3 743e a80b 18be 83b0 163d
00000170: c8fc b03c a6a5 9abd ee94 4dbd ebe8 6e3d
00000180: 36db 36bc a621 663d c5be fdbc c847 99bd
00000190: 7c85 53bc 25f2 2d3e 3a84 05be c02c 2bbd
000001a0: a10e acbd dab8 4d3d eb22 b5bd a3fd 4d3d
000001b0: 5e4b 4d3d 68f5 57bd 25cd cbbc 7b8c 8ebd
000001c0: d526 c43d 86d4 bcbd 33dc a43d f5cf 16be
000001d0: b798 05be 0f51 dd3d f4f0 33be 31eb c3bd
000001e0: e260 4f3d 758f 3d3e 8fbc 1ebd 2be2 34bd
000001f0: 19ee c1bc 2842 1c3e 89b6 253e 033d cfbc
00000200: 7e8f a93c ff19 a93c 6736 b33d 450b 463d
00000210: f361 e13d 2729 92bd 7794 c3bb ab9d d9bd
00000220: d55c e2bd 782a 3fbd 6065 e3bd 5d6d b83d
00000230: df29 46bd bd8f 063e bee0 573d d5ba d3bd
00000240: e0f8 8a3d d770 e6bd c06d da3c 1ccc 313e
00000250: ba2c c7bd 6d0e 5b3d 7aca a53c 4ddd e93d
00000260: 77e7 19bd 80e8 7b3d 3992 503d ce6c 003e
00000270: 2157 01be fce6 e33d 6344 823c 470e f03d
00000280: 63b0 1bbe 36ef f93d 0cae fcbc 2725 b3bb
00000290: 332a 39bd d9b8 9d3d c5df 02be 8fb1 ccbd
000002a0: b091 1c3d d810 febd 8620 a73d 5f1d 123c
000002b0: 496b 29bd adf0 02be 3ffe baba 95e0 cf3d
000002c0: 5b37 64bd e248 f03d 8d1a e2bd 48b2 183d
000002d0: f60d 06be 684b 033e d4a6 513d 3c98 48bc
000002e0: faa9 1e3d f5ba 8abd bec4 44bd 1f15 113c
000002f0: ada6 65bc bed6 d63d 48fb ddbc e087 913d
00000300: 76c4 cebb cc51 42bd 303f 86bd 03ac 583d
00000310: bba8 81bc 2d4b 713e 9c30 4abe de28 90bd
00000320: 7875 0ebe f425 83bd 7578 913c b994 acbd
00000330: 2e33 43bc a667 47be 4beb b5bc 55cd 81bc
00000340: 749f 0abe 393c d8bd f632 b1bd 0afb 113e
00000350: 18fa 863d e08c 94bd 400f c63d b68e 1a3e
00000360: 7297 1cbb 6812 4bbc 7db6 c33d 9e09 b23c
00000370: b9d7 e93d 53eb 94bd c2c2 80bd 8708 e6bd
00000380: a2fb 21bb 0269 7e3d 00a0 283e 4cd0 833d
00000390: d72c dfbd 09b4 1c3e d15c 4bbc 55b4 223e
000003a0: 393a 14be 1ae1 473e 7635 b73d 0ed8 023d
000003b0: c639 23be 51fd 1d3e e540 cfbd cb3a bebb
000003c0: 311c 883d 45a7 e5bd 997d ba3b d8ec b53d
000003d0: dffe 1bbd 7be9 73bd 3cba 383b 0cfa b9bd
000003e0: 1843 813d b1bd 16bc 09e3 8dbd 9ad4 88bd
000003f0: 5393 04bd 2197 c93d 00f1 20be b6b2 34be

h.0.mha.W_v.bias f4 [64]
0.062939994 -0.011589082 -0.023957757 0.03672279 0.08191177 -0.002712556 0.10549871 0.004451934
-0.10122078 0.07100428 0.07652288 -0.032826215 0.043750215 -0.016398022 -0.002768595 -0.12167106
-0.055623386 -0.020875365 -0.0352753 0.08630399 -0.038917355 -0.0033451698 0.10455358 0.026081705
0.09422841 -0.010725945 0.051040195 0.029863859 0.018138258 -0.05607473 -0.11270139 -0.1350968
-0.07626781 -0.08805005 0.10615684 0.07271849 0.024967892 0.070310585 -0.090098836 -0.059373543
0.02312211 0.03982581 -0.029739065 -0.092502244 0.052456126 -0.12179677 -0.047826093 -0.08292234
0.03607373 0.04544434 0.05630033 -0.026977614 -0.056653783 -0.01750502 -0.09312193 0.07671462
-0.0815473 -0.084126115 0.017446123 0.07066396 -0.0951158 0.004229829 0.084145255 0.07336667
00000000: afe6 803d 22e0 3dbc 0f43 c4bc a36a 163d
00000010: 5cc1 a73d 23c5 31bb b50f d83d 87e1 913b
00000020: d74c cfbd b16a 913d 07b8 9c3d c874 06bd
00000030: 6d33 333d 2555 86bc 5171 35bb ad2e f9bd
00000040: 59d5 63bd d002 abbc d57c 10bd 25c0 b03d
00000050: ce67 1fbd a33a 5bbb 3020 d63d 4da9 d53c
00000060: d3fa c03d e0bb 2fbc 860f 513d 0da5 f43c
00000070: af96 943c 9eae 65bd fdcf e6bd d156 0abe
00000080: 4c32 9cbd 9653 b4bd c268 d93d 6fed 943d
00000090: 7789 cc3c fffe 8f3d bd85 b8bd ac31 73bd
000000a0: 946a bd3c 6320 233d 579f f3bc d171 bdbd
000000b0: 3cdc 563d 9670 f9bd 4be5 43bd 30d3 a9bd
000000c0: 0cc2 133d d823 3a3d 2d9b 663d 2800 ddbc
000000d0: cc0d 68bd b066 8fbc b6b6 bebd 8e1c 9d3d
000000e0: 4502 a7bd 504a acbd 2ceb 8e3c 44b8 903d
000000f0: 13cc c2bd 619a 8a3b 5954 ac3d 4441 963d

h.0.mha.W_o.weight f4 [64, 64]
-0.026399953 -0.0331337 -0.06455397 0.100779355 -0.0149582885 -0.05485115 -0.115189314 -0.0076459246
0.04784307 -0.08220266 0.00022265302 -0.024934703 -0.055778623 0.16777477 0.12990344 -0.060744494
0.0064507057 -0.0036443854 0.03506108 0.12894772 0.18752031 -0.01943222 -0.07902009 0.1356952
-0.024362765 -0.1357985 -0.010983335 -0.11116376 0.0043476 0.005832318 0.038851686 -0.086443305
0.081227 0.06870655 -0.17180766 0.14356765 0.025214419 -0.009537736 0.065111876 0.004768647
-0.041802496 0.011453686 0.08572843 0.15050398 -0.06691327 -0.035132974 0.020457858 0.059098143
-0.08965103 0.049335208 -0.04735614 0.07071279 -0.022615489 -0.011458487 0.07786952 -0.04554434
-0.055342704 -0.011217704 0.06401177 -0.12664756 0.08331713 0.010530701 0.09594503 0.0726767
-0.076547146 0.329186 0.03752514 -0.06863656 0.046253968 0.030352976 -0.08380784 0.19561076
0.0022547569 0.036297344 -0.15597701 -0.04228011 0.075524524 0.052286584 -0.17296107 0.02835791
0.078395374 0.05437349 0.098918885 -0.13650064 0.15400138 -0.029282004 -0.043976773 -0.19599134
0.04756826 0.021384247 0.09709062 -0.07030214 -0.07695887 -0.02487505 0.09471103 0.005445044
-0.12388664 0.124960415 0.0070918933 -0.054054223 0.06552298 -0.24106348 -0.15023051 -0.074837334
-0.010925351 0.2545964 -0.14245333 0.06887026 0.055102747 0.035845008 0.06749355 0.029687734
0.1279273 -0.020680742 -0.013073676 0.118424654 -0.0846918 -0.025333239 0.10615456 -0.09590522
0.084312946 -0.03588382 -0.049397387 0.1329504 0.12182281 -0.12018798 -0.080222316 -0.115808815
-0.082932495 0.033141848 0.12151113 -0.06934126 0.015651707 -0.049396012 -0.17279582 -0.09648379
0.014361829 0.17414783 0.03758862 0.21254571 -0.12244037 0.13018444 0.03776756 -0.10378151
0.024268651 -0.13281569 -0.05738167 -0.19676681 -0.017855054 0.077349216 -0.1270639 0.036020588
0.07984358 -0.059264395 -0.20182328 0.15867107 -0.012775836 -0.05281311 0.03765513 -0.098801315
-0.082574315 -0.10798297 -0.056980345 -0.09026448 -0.027557367 0.14277783 0.120249644 -0.0040623513
-0.16252851 -0.0498273 0.07016545 0.13698055 0.020271644 0.06481276 -0.099869974 -0.02730926
0.07165193 0.10214569 -0.098940656 -0.25826788 -0.060241777 -0.0824797 0.08743409 -0.093938045
0.06356412 0.07594666 -0.012332157 -0.10011952 0.098692045 0.035290316 -0.042340606 0.02462762
0.018665072 0.08392872 -0.11061851 0.085148744 0.118040845 0.034414407 0.18752472 0.07859108
-0.12660903 -0.058680847 0.021468854 -0.02108872 -0.21490137 -0.09921792 -0.020939594 -0.10022713
-0.25764787 0.005275828 0.08187439 -0.0014778456 0.0057586767 -0.07748744 -0.060357876 -0.11456606
-0.09896162 -0.08253334 -0.009113828 -0.07878689 -0.05918155 -0.07195464 0.11430339 0.06990223
-0.09565638 0.12780146 -0.014060147 -0.018424159 -0.023810223 -0.14739439 -0.024549844 0.32277536
0.24551152 -0.021796877 0.057052337 0.05611656 0.001034744 -0.10038841 -0.036225136 0.069986954
0.14566721 -0.19977155 -0.18366936 0.12884459 -0.07123315 -0.04160676 0.08023316 0.02335416
0.087786816 -0.09066621 -0.09264896 -0.022405442 0.03855608 -0.005643177 -0.073171176 0.10214789
00000000: b744 d8bc 34b7 07bd df34 84bd 6865 ce3d
00000010: 9c13 75bc 99ab 60bd 60e8 ebbd aa8a fabb
00000020: 18f7 433d de59 a8bd f777 6939 dd43 ccbc
00000030: 2078 64bd 26cd 2b3e 6805 053e 38cf 78bd
00000040: 7160 d33b a4d6 6ebb 359c 0f3d df0a 043e
00000050: 5305 403e 5230 9fbc 49d5 a1bd aff3 0a3e
00000060: 6c94 c7bc c30e 0bbe 72f3 33bc d3a9 e3bd
00000070: 5076 8e3b 081d bf3b f222 1f3d 3009 b1bd
00000080: 575a a63d 05b6 8c3d 59ee 2fbe 6603 133e
00000090: 788e ce3c 2a44 1cbc 6059 853d 4f42 9c3b
000000a0: 1839 2bbd 3ea8 3b3c 6392 af3d b71d 1a3e
000000b0: d309 89bd 98e7 0fbd 3d97 a73c e510 723d
000000c0: f69a b7bd b713 4a3d 83f8 41bd ded1 903d
000000d0: 1e44 b9bc 61bc 3bbc 0e7a 9f3d b48c 3abd
000000e0: 08af 62bd 76ca 37bc 9a18 833d e6af 01be
000000f0: 2ca2 aa3d f688 2c3c d47e c43d 86d7 943d
00000100: c0c4 9cbd 118b a83e f6b3 193d 5391 8cbd
00000110: cd74 3d3d cea6 f83c 72a3 abbd 304e 483e
00000120: 8bc4 133b 86ac 143d 70b8 1fbe e92d 2dbd
00000130: 9aac 9a3d 752a 563d b51c 31be d94e e83c
00000140: c18d a03d bdb6 5e3d fc95 ca3d d3c6 0bbe
00000150: 8ab2 1d3e d0e0 efbc fd20 34bd f4b1 48be
00000160: f0d6 423d 042e af3c 72d7 c63d 92fa 8fbd
00000170: 9d9c 9dbd c3c6 cbbc dbf7 c13d 576c b23b
00000180: 47b8 fdbd 3feb ff3d 1d63 e83b f667 5dbd
00000190: ea30 863d 58d9 76be 07d6 19be 5144 99bd
000001a0: 3e00 33bc 765a 823e 49df 11be da0b 8d3d
000001b0: 6bb3 613d 37d2 123d 0f3a 8a3d b133 f33c
000001c0: 60ff 023e a96a a9bc f932 56bc a088 f23d
000001d0: e572 adbd a787 cfbc 9067 d93d f569 c4bd
000001e0: 44ac ac3d eafa 12bd ea54 4abd 2624 083e
000001f0: 3d7e f93d 1e25 f6bd 994b a4bd 2c2d edbd
00000200: 83d8 a9bd bfbf 073d d4da f83d ca02 8ebd
00000210: 0238 803c 7953 4abd 63f1 30be 4b99 c5bd
00000220: e04d 6b3c cf53 323e 86f6 193d 95a5 593e
00000230: 04c2 fabd 124f 053e 28b2 1a3d 668b d4bd
00000240: 0dcf c63c d600 08be 0b09 6bbd 3d7d 49be
00000250: c344 92bc 4469 9e3d 0a1d 02be 538a 133d
00000260: 0885 a33d 39bf 72bd c3aa 4ebe ab7a 223e
00000270: bd51 51bc 8f52 58bd 443c 1a3d 5858 cabd
00000280: b91c a9bd 2d26 ddbd 3964 69bd 95dc b8bd
00000290: fdbf e1bc 5a34 123e 7245 f63d 791d 85bb
000002a0: e06d 26be b617 4cbd e7b2 8f3d a144 0c3e
000002b0: b810 a63c 8dbc 843d a188 ccbd abb7 dfbc
000002c0: 3fbe 923d c231 d13d 66a1 cabd b03b 84be
000002d0: 15c0 76bd 1eeb a8bd a510 b33d 9762 c0bd
000002e0: e82d 823d ec89 9b3d d10c 4abc 770b cdbd
000002f0: 0e1f ca3d 948c 103d 586d 2dbd ddbf c93c
00000300: 7ee7 983c d2e2 ab3d f58b e2bd 7762 ae3d
00000310: 66bf f13d 1ff6 0c3d 7b06 403e 5cf4 a03d
00000320: cca5 01be 545b 70bd 73df af3c 40c2 acbc
00000330: 1b0f 5cbe c432 cbbd 8389 abbc e243 cdbd
00000340: 6cea 83be dae0 ac3b c3ad a73d 45b4 c1ba
00000350: 48b3 bc3b bcb1 9ebd d239 77bd 9ca1 eabd
00000360: 64ac cabd 3d07 a9bd 2a52 15bc 055b a1bd
00000370: 5a68 72bd f45c 93bd e517 ea3d e628 8f3d
00000380: 7ee7 c3bd 63de 023e 885c 66bc 43ee 96bc
00000390: a80d c3bc 8eee 16be c11c c9bc d042 a53e
000003a0: 5f67 7b3e 5d8f b2bc b6af 693d 7ada 653d
000003b0: 3fa0 873a 7098 cdbd cf60 14bd 5255 8f3d
000003c0: c929 153e ea90 4cbe d213 3cbe d6ef 033e
000003d0: b0e2 91bd da6b 2abd 4851 a43d 3951 bf3c
000003e0: 93c9 b33d 35af b9bd bdbe bdbd 9e8b b7bc
000003f0: fbec 1d3d 66ea b8bb c5da 95bd ea32 d13d

h.0.mha.W_o.bias f4 [64]
-0.16326593 0.03145657 0.15223671 -0.02067031 -0.10217834 0.14824283 0.18768224 -0.103450395
0.03252573 -0.14031713 0.03341582 0.08790759 -0.036971994 -0.012688076 -0.12673041 0.10606681
-0.014624147 -0.078402326 -0.06768604 0.01715306 -0.12149521 -0.050185427 -0.1070048 -0.042008996
0.027738653 -0.059381012 0.0035500403 0.13816419 -0.05331309 0.13615963 0.15160567 0.049480695
-0.058740646 -0.10847527 -0.15042455 0.1453791 0.08830244 0.18853837 -0.11389895 -0.049203873
-0.06801127 -0.13800488 0.057158384 -0.0041887774 -0.057911344 -0.004202169 -0.07078851 0.08295713
0.12465155 -0.03507236 -0.15958607 0.07699044 -0.01866149 0.15905869 0.09337986 0.040843878
-0.03553127 -0.073708996 0.034499813 -0.05188262 0.10016892 0.07944783 0.12688728 0.089087516
00000000: 2f2f 27be 9bd8 003d f1e3 1b3e c854 a9bc
00000010: e142 d1bd f8cc 173e c62f 403e cddd d3bd
00000020: b339 053d 4baf 0fbe 07df 083d e508 b43d
00000030: f26f 17bd a6e1 4fbc 9ec5 01be 8e39 d93d
00000040: 1e9a 6fbc 6691 a0bd fb9e 8abd 9384 8c3c
00000050: 7bd2 f8bd 3c8f 4dbd 5525 dbbd a011 2cbd
00000060: 2c3c e33c 8139 73bd cba7 683b ea7a 0d3e
00000070: d45e 5abd 6e6d 0b3e 843e 1b3e 45ac 4a3d
00000080: 089a 70bd 4828 debd e508 1abe 42de 143e
00000090: e9d7 b43d 3410 413e da43 e9bd 008a 49bd
000000a0: 7e49 8bbd 2751 0dbe e91e 6a3d 0342 89bb
000000b0: 7234 6dbd 59b2 89bb 91f9 90bd 6ee5 a93d
000000c0: 5049 ff3d 09a8 0fbd 886a 23be 2aad 9d3d
000000d0: fbdf 98bc 48e0 223e f13d bf3d e94b 273d
000000e0: 3d89 11bd bef4 96bd ad4f 0d3d df82 54bd
000000f0: 5d25 cd3d 8bb5 a23d bdee 013e 8473 b63d

h.0.ln_1.weight f4 [64]
1.0328133 0.9484209 1.0564775 1.017828 0.914253 1.0093019 0.9441542 1.0199419
0.9788108 0.99112093 0.9914056 0.9938066 0.9589396 0.9476728 0.93374145 1.0273263
0.99599224 0.9261234 0.88939804 0.9236649 1.0909681 0.9730402 0.9079825 1.0092443
0.9387095 0.9002085 1.041153 0.9128689 0.94112235 0.9383265 1.0313518 0.9974155
0.92083 0.9445033 0.9533394 0.99809694 0.97686154 1.0492421 1.0061419 0.9273266
0.844209 1.0232016 0.9691577 0.9983127 1.014701 0.98989844 1.0469524 0.9592424
0.9919455 0.97931737 0.92626774 1.0609846 0.960385 1.0179188 0.9463521 1.0443518
1.0261993 0.9823597 1.006431 0.95800203 0.9556179 0.9424707 0.9967169 1.0000976
00000000: 3a33 843f b6cb 723f a83a 873f 3048 823f
00000010: 7c0c 6a3f ce30 813f 17b4 713f 758d 823f
00000020: 5893 7a3f 1aba 7d3f c2cc 7d3f 1c6a 7e3f
00000030: 117d 753f af9a 723f ae09 6f3f 6e7f 833f
00000040: 59f9 7e3f 6c16 6d3f 97af 633f 4e75 6c3f
00000050: d8a4 8b3f 2a19 793f 8b71 683f eb2e 813f
00000060: 444f 703f 1074 663f 8044 853f c7b1 693f
00000070: 65ed 703f 2a36 703f 5603 843f 9f56 7f3f
00000080: 84bb 6b3f f8ca 713f 0d0e 743f 4883 7f3f
00000090: 9913 7a3f 914d 863f 42c9 803f 4765 6d3f
000000a0: 151e 583f 45f8 823f b81a 783f 6c91 7f3f
000000b0: b9e1 813f fc69 7d3f 8902 863f e990 753f
000000c0: 24f0 7d3f 8bb4 7a3f e21f 6d3f 58ce 873f
000000d0: cbdb 753f 2a4b 823f 2244 723f 52ad 853f
000000e0: 805a 833f ed7b 7b3f bbd2 803f 9f3f 753f
000000f0: 60a3 743f c345 713f d728 7f3f 3303 803f

h.0.ln_1.bias f4 [64]
-0.01673286 -0.04693529 -0.008215737 0.031006144 -0.045497578 -0.030950373 0.005319017 0.005195966
-0.022645088 -0.05088188 -0.018569877 0.05004498 -0.040107533 -0.0113999015 -0.016915394 -0.047172382
0.050643835 -0.025288314 0.029509837 -0.009020481 -0.05794255 -0.0027923246 0.049739633 -0.02296125
-0.035926312 -0.00365977 -0.034601897 0.066936225 -0.07887442 0.032328714 0.02596962 0.036045857
0.04246133 0.017278494 -0.023161506 0.03105589 0.0068752356 0.011689216 -0.015233761 0.03622292
-0.015944976 0.0022469454 0.017601471 0.09392186 0.031092085 0.018024193 -0.005669054 0.06208995
-0.023253245 0.0649988 -0.0035571156 0.057865705 -0.026754443 -0.032926615 -0.011652699 -0.021299813
0.037562583 -0.0023011854 -0.014275816 -0.037788913 -0.05248048 0.022761278 0.016604243 0.034496576
00000000: 5a13 89bc 383f 40bd 4c9b 06bc 9900 fe3c
00000010: ab5b 3abd a38b fdbc 264b ae3b ec42 aa3b
00000020: 3182 b9bc 8569 50bd db1f 98bc f7fb 4c3d
00000030: cc47 24bd a7c6 3abc 2792 8abc d437 41bd
00000040: e96f 4f3d 7029 cfbc 9dbe f13c a4ca 13bc
00000050: 2b55 6dbd 6fff 36bb c9bb 4b3d 3b19 bcbc
00000060: 7827 13bd c0d8 6fbb b8ba 0dbd dc15 893d
00000070: e988 a1bd 1d6b 043d 3ebe d43c d2a4 133d
00000080: eeeb 2d3d a18b 8d3c 33bd bdbc ec68 fe3c
00000090: a849 e13b 2084 3f3c 0697 79bc 7c5e 143d
000000a0: 0a9f 82bc 7d41 133b f630 903c 1b5a c03d
000000b0: d4b4 fe3c 79a7 933c 79c3 b9bb 0852 7e3d
000000c0: 977d bebc 171e 853d 7f1e 69bb 9704 6d3d
000000d0: 222c dbbc 0fde 06bd f6ea 3ebc f27c aebc
000000e0: 39db 193d 7ccf 16bb 1de5 69bc 8cc8 1abd
000000f0: c6f5 56bd dc75 ba3c 9f05 883c 484c 0d3d

h.0.ln_2.weight f4 [64]
1.0 1.0 1.0 1.0 1.0 1.0 1.0 1.0
1.0 1.0 1.0 1.0 1.0 1.0 1.0 1.0
1.0 1.0 1.0 1.0 1.0 1.0 1.0 1.0
1.0 1.0 1.0 1.0 1.0 1.0 1.0 1.0
1.0 1.0 1.0 1.0 1.0 1.0 1.0 1.0
1.0 1.0 1.0 1.0 1.0 1.0 1.0 1.0
1.0 1.0 1.0 1.0 1.0 1.0 1.0 1.0
1.0 1.0 1.0 1.0 1.0 1.0 1.0 1.0
00000000: 0000 803f 0000 803f 0000 803f 0000 803f
00000010: 0000 803f 0000 803f 0000 803f 0000 803f
00000020: 0000 803f 0000 803f 0000 803f 0000 803f
00000030: 0000 803f 0000 803f 0000 803f 0000 803f
00000040: 0000 803f 0000 803f 0000 803f 0000 803f
00000050: 0000 803f 0000 803f 0000 803f 0000 803f
00000060: 0000 803f 0000 803f 0000 803f 0000 803f
00000070: 0000 803f 0000 803f 0000 803f 0000 803f
00000080: 0000 803f 0000 803f 0000 803f 0000 803f
00000090: 0000 803f 0000 803f 0000 803f 0000 803f
000000a0: 0000 803f 0000 803f 0000 803f 0000 803f
000000b0: 0000 803f 0000 803f 0000 803f 0000 803f
000000c0: 0000 803f 0000 803f 0000 803f 0000 803f
000000d0: 0000 803f 0000 803f 0000 803f 0000 803f
000000e0: 0000 803f 0000 803f 0000 803f 0000 803f
000000f0: 0000 803f 0000 803f 0000 803f 0000 803f

h.0.ln_2.bias f4 [64]
0.0 0.0 0.0 0.0 0.0 0.0 0.0 0.0
0.0 0.0 0.0 0.0 0.0 0.0 0.0 0.0
0.0 0.0 0.0 0.0 0.0 0.0 0.0 0.0
0.0 0.0 0.0 0.0 0.0 0.0 0.0 0.0
0.0 0.0 0.0 0.0 0.0 0.0 0.0 0.0
0.0 0.0 0.0 0.0 0.0 0.0 0.0 0.0
0.0 0.0 0.0 0.0 0.0 0.0 0.0 0.0
0.0 0.0 0.0 0.0 0.0 0.0 0.0 0.0
00000000: 0000 0000 0000 0000 0000 0000 0000 0000
00000010: 0000 0000 0000 0000 0000 0000 0000 0000
00000020: 0000 0000 0000 0000 0000 0000 0000 0000
00000030: 0000 0000 0000 0000 0000 0000 0000 0000
00000040: 0000 0000 0000 0000 0000 0000 0000 0000
00000050: 0000 0000 0000 0000 0000 0000 0000 0000
00000060: 0000 0000 0000 0000 0000 0000 0000 0000
00000070: 0000 0000 0000 0000 0000 0000 0000 0000
00000080: 0000 0000 0000 0000 0000 0000 0000 0000
00000090: 0000 0000 0000 0000 0000 0000 0000 0000
000000a0: 0000 0000 0000 0000 0000 0000 0000 0000
000000b0: 0000 0000 0000 0000 0000 0000 0000 0000
000000c0: 0000 0000 0000 0000 0000 0000 0000 0000
000000d0: 0000 0000 0000 0000 0000 0000 0000 0000
000000e0: 0000 0000 0000 0000 0000 0000 0000 0000
000000f0: 0000 0000 0000 0000 0000 0000 0000 0000

ln_f.weight f4 [64]
1.0 1.0 1.0 1.0 1.0 1.0 1.0 1.0
1.0 1.0 1.0 1.0 1.0 1.0 1.0 1.0
1.0 1.0 1.0 1.0 1.0 1.0 1.0 1.0
1.0 1.0 1.0 1.0 1.0 1.0 1.0 1.0
1.0 1.0 1.0 1.0 1.0 1.0 1.0 1.0
1.0 1.0 1.0 1.0 1.0 1.0 1.0 1.0
1.0 1.0 1.0 1.0 1.0 1.0 1.0 1.0
1.0 1.0 1.0 1.0 1.0 1.0 1.0 1.0
00000000: 0000 803f 0000 803f 0000 803f 0000 803f
00000010: 0000 803f 0000 803f 0000 803f 0000 803f
00000020: 0000 803f 0000 803f 0000 803f 0000 803f
00000030: 0000 803f 0000 803f 0000 803f 0000 803f
00000040: 0000 803f 0000 803f 0000 803f 0000 803f
00000050: 0000 803f 0000 803f 0000 803f 0000 803f
00000060: 0000 803f 0000 803f 0000 803f 0000 803f
00000070: 0000 803f 0000 803f 0000 803f 0000 803f
00000080: 0000 803f 0000 803f 0000 803f 0000 803f
00000090: 0000 803f 0000 803f 0000 803f 0000 803f
000000a0: 0000 803f 0000 803f 0000 803f 0000 803f
000000b0: 0000 803f 0000 803f 0000 803f 0000 803f
000000c0: 0000 803f 0000 803f 0000 803f 0000 803f
000000d0: 0000 803f 0000 803f 0000 803f 0000 803f
000000e0: 0000 803f 0000 803f 0000 803f 0000 803f
000000f0: 0000 803f 0000 803f 0000 803f 0000 803f

ln_f.bias f4 [64]
0.0 0.0 0.0 0.0 0.0 0.0 0.0 0.0
0.0 0.0 0.0 0.0 0.0 0.0 0.0 0.0
0.0 0.0 0.0 0.0 0.0 0.0 0.0 0.0
0.0 0.0 0.0 0.0 0.0 0.0 0.0 0.0
0.0 0.0 0.0 0.0 0.0 0.0 0.0 0.0
0.0 0.0 0.0 0.0 0.0 0.0 0.0 0.0
0.0 0.0 0.0 0.0 0.0 0.0 0.0 0.0
0.0 0.0 0.0 0.0 0.0 0.0 0.0 0.0
00000000: 0000 0000 0000 0000 0000 0000 0000 0000
00000010: 0000 0000 0000 0000 0000 0000 0000 0000
00000020: 0000 0000 0000 0000 0000 0000 0000 0000
00000030: 0000 0000 0000 0000 0000 0000 0000 0000
00000040: 0000 0000 0000 0000 0000 0000 0000 0000
00000050: 0000 0000 0000 0000 0000 0000 0000 0000
00000060: 0000 0000 0000 0000 0000 0000 0000 0000
00000070: 0000 0000 0000 0000 0000 0000 0000 0000
00000080: 0000 0000 0000 0000 0000 0000 0000 0000
00000090: 0000 0000 0000 0000 0000 0000 0000 0000
000000a0: 0000 0000 0000 0000 0000 0000 0000 0000
000000b0: 0000 0000 0000 0000 0000 0000 0000 0000
000000c0: 0000 0000 0000 0000 0000 0000 0000 0000
000000d0: 0000 0000 0000 0000 0000 0000 0000 0000
000000e0: 0000 0000 0000 0000 0000 0000 0000 0000
000000f0: 0000 0000 0000 0000 0000 0000 0000 0000
