subspace-alignment/data/1_layer_32_vocab/ckpt_80.pt (torch, 90019 bytes, 17 tensors)

embed.embed.weight f4 [32, 64]
00000000: 305d 2cbe e165 333f 38b3 233f e1b8 093e
00000010: 5c2b 4ebd 8b6c 36bf 98b5 aabf fd4c 0bbd
00000020: 05bd 05bf aaab 5c3e 99f9 c1bf 0b3c b63e
00000030: 5e4e 56be 4562 62bf b20c 773f 3ea4 813c
00000040: 883a 6b3e 8317 583d 0fda 623f 5817 4cbf
00000050: 783d 0cbf f34b cd3f 0e4a b93f e2bc 86bf
00000060: ec74 0ac0 90a6 c23f e33f 4abf fda8 0940
00000070: 587c 6a3f ff3b 2f3f 334a 17bf 9160 163f
00000080: ba45 713f 061e 67bf e54f cc3e f266 82bf
00000090: 29dd 9cbf 6417 1a3f 15ac 5dbf e15a 233f
000000a0: 01ba d8bf 934b 6cbf 7154 5c3e 0059 373f
000000b0: 1f63 a53f 519b 5c3f bc0b ecbe 7fc7 36bf
000000c0: 631e 70bf 5b11 d3bf 91e6 bfbd 1c7e c8be
000000d0: 0d59 e23e f8b0 8e3f 10a5 a43d 9e84 69bf
000000e0: 9cce be3e 2ece fbbe da88 9bbf fcd5 cdbf
000000f0: 94a6 e03e 8a76 acbe 7bbd 94bd 37ee 573f
00000100: 84b8 223f 09e5 99bf f32a 9dbf 799b e73d
00000110: ea1f 0240 7db6 96bf 821d 9bbe 5153 f1be
00000120: 307d 8d3e 454a 8fbe 4011 3a3e d6f1 b83e
00000130: 6d96 f43e 702b a33e 8936 103e 50e8 593f
00000140: 3bba ad3f 38f8 02bf 613e 9e3f 4c06 a03e
00000150: 0080 a33e 72ba e0be 0d70 d73f 9ca1 fb3e
00000160: fbea b13d d96f 843f a424 a5bf 7567 bb3e
00000170: 0bf1 02c0 d8e3 0040 68df 353e 20cd 93bf
00000180: 34d1 a0bf 8a00 b0bf ab27 2c3f fd0a 51bd
00000190: a304 7f3f b10c 503f 4e1f 9e3f d5cc b33d
000001a0: 166e 92bf 1b45 c1bd a49d 8f3f c1c1 cc3e
000001b0: ed11 1dbf c455 abbd 0cb9 b0bf 6d89 bcbf
000001c0: 832a 9bbe fd59 d6bd ae48 a53f f38d 8abc
000001d0: 7f1d 29bf 3ea2 653d 0737 893e 8429 67bf
000001e0: 3d8d a03d 7308 5abf 2917 50be a00f dabd
000001f0: 7dba d93e b688 1dc0 5021 82bf d570 c63e
00000200: d3c1 513f 040a 733f 0a0c b3be 68f6 7dbe
00000210: dc15 31be 675d 4b3f cd5e 1bbf 0a28 c9bf
00000220: ed27 b33e 6fda 81bf 37eb c23e f16e c7be
00000230: b6de 34bf 3281 563f adee 9f3e 55ec de3e
00000240: 9fd0 32bf 958f 6bbf 19fd ecbf 30be 58bf
00000250: 89e9 163e 961b a33f 4a5f 87bf 09cc 16bf
00000260: aadd cb3e 3bc2 f53e 49ea 23bf 26a2 613e
00000270: 7c1a 93bf 0339 d13f 4b40 9c3f 971a 0c3f
00000280: 0a20 75bf 25e0 023f 7e95 b13e f629 a13f
00000290: 5131 8fbf c7ae c8bf 4be4 eabe cd67 2140
000002a0: c726 1bbf 2c13 84bf abf8 f0ba 8f00 f23d
000002b0: 72f4 cabc 37cc 65bf 1613 5c3f 21f6 93be
000002c0: ecd2 7fbe a884 9fbf d375 0e40 e508 a1bc
000002d0: 9087 393e 5a5f 1fbf c455 dfbf e54e f5be
000002e0: a73f 3c3f 2048 27bc 9139 18bf fcad 723f
000002f0: df4f 25c0 9529 163f 67d1 b53e 2d33 923e
00000300: 7565 afbf dd7f 983f 2c58 873d 90ad 2ebe
00000310: a97d d2bf 01d3 febe 6df7 b93f 26ba 093f
00000320: 48d2 b0bf 0dc3 a4bf a2d3 ebbf 48df abbe
00000330: f59f 2dc0 f754 1940 97fa acbf 2cd8 f53e
00000340: 88ad e73e c2d3 97be 33e2 633f 18b3 a33e
00000350: 8cc3 5d3f 4fcf 42bf aa0e c3bf 60fc 393f
00000360: cff8 03c0 31f4 c63f cf3a 793e 6629 183f
00000370: 1756 bd3e 1c83 bcbe 4951 d7be 3a0f 823f
00000380: 0dcf 603f 3c87 5b3f bca5 41bf 0fcd 79bf
00000390: 4143 683c f5c5 66bf ef58 f33e f6ca ac3f
000003a0: 006c e83f ca36 d9bc bdbb 7dbf f60e 5f3f
000003b0: c716 753f 3ada ec3f a2ca 473f 9601 4d3f
000003c0: 507a 5f3f ea42 51bf 6430 053f 1597 633d
000003d0: 5f2f babf 278c a03f f4b9 d63e 1f07 07bf
000003e0: eca1 dc3e 777d aa3f 3492 3ac0 02ba 87be
000003f0: 1da3 2c3d c356 21bf 0310 5dbf 03b9 acbd
-0.16832423 0.7007733 0.6394534 0.13449432 -0.05033432 -0.71259373 -1.3336668 -0.03400897
-0.52241546 0.2154986 -1.5154296 0.35592684 -0.20928332 -0.884312 0.96503747 0.015825387
0.22971547 0.052756798 0.8861398 -0.7972312 -0.54781294 1.6038803 1.4475725 -1.0526392
-2.1633863 1.5207081 -0.79003733 2.1509392 0.91595984 0.6845092 -0.59097594 0.587411
0.9424702 -0.9028019 0.39904705 -1.0187666 -1.2254993 0.6019194 -0.865907 0.63810545
-1.6931764 -0.9230282 0.21516587 0.7162018 1.2920874 0.86174494 -0.46102703 -0.71398157
-0.93796366 -1.6489671 -0.09370149 -0.39158714 0.44208565 1.1147757 0.08039296 -0.9121798
0.37267005 -0.4918074 -1.2151139 -1.6080928 0.4387709 -0.33684188 -0.07262703 0.8434786
0.635628 -1.2023021 -1.2278732 0.11308951 2.0331979 -1.1774441 -0.3029595 -0.47133878
0.27634573 -0.2798635 0.18170643 0.36122006 0.47771016 0.31869078 0.14083304 0.85120106
1.3572458 -0.5116 1.2362787 0.31254804 0.31933594 -0.43892246 1.683107 0.49146736
0.08687397 1.0346633 -1.2901807 0.3660237 -2.045962 2.0139065 0.17761004 -1.1546974
-1.2563844 -1.3750165 0.6724803 -0.05103587 0.9961645 0.81269366 1.2353303 0.08779303
-1.1439846 -0.09437009 1.1219983 0.39991572 -0.6135548 -0.08365968 -1.3806472 -1.4729439
-0.3030587 -0.10466383 1.2912805 -0.01691339 -0.6606063 0.05606293 0.26799795 -0.9029772
0.07839439 -0.8516914 -0.20321335 -0.106475115 0.42525092 -2.4614692 -1.0166416 0.3875796
0.8193638 0.9493716 -0.34970123 -0.24801028 -0.17293495 0.79439396 -0.6069153 -1.5715344
0.34991398 -1.0144786 0.3807008 -0.3895183 -0.7065233 0.83790886 0.31236783 0.43539682
-0.6984958 -0.92015964 -1.8514739 -0.84665203 0.14737524 1.2742794 -1.0575955 -0.5890508
0.39817554 0.4799975 -0.64029366 0.22034511 -1.1492457 1.6345524 1.2207121 0.5472807
-0.9575201 0.5112327 0.34684366 1.259093 -1.1186925 -1.5678338 -0.458773 2.5219605
-0.60606045 -1.0318351 -0.0018384656 0.11816513 -0.024774764 -0.8976473 0.8596662 -0.2889872
-0.24982804 -1.2462358 2.2259414 -0.019657562 0.18118119 -0.6225487 -1.7448049 -0.47911754
0.73534626 -0.010210067 -0.5946284 0.9479673 -2.583 0.586572 0.35511324 0.2855467
-1.3702837 1.1914021 0.06608614 -0.17058396 -1.6444598 -0.49770358 1.4528633 0.53799665
-1.3814173 -1.2872025 -1.842396 -0.33568788 -2.712888 2.3958108 -1.3513974 0.4801649
0.4524958 -0.29653746 0.8901703 0.31972575 0.86626506 -0.7609758 -1.523885 0.7265072
-2.062061 1.5543271 0.2433884 0.5943817 0.36979744 -0.3681878 -0.42054203 1.0160897
0.87815934 0.85753226 -0.75643516 -0.9757852 0.014176191 -0.9014581 0.47528788 1.3499439
1.8157959 -0.026515383 -0.9911459 0.87132204 0.9573788 1.8504097 0.7804357 0.80080545
0.8729601 -0.8174273 0.52026963 0.055564005 -1.4545707 1.2542771 0.41938746 -0.5274524
0.43092287 1.3319539 -2.9151735 -0.265091 0.042147744 -0.6302301 -0.86352557 -0.08433726

h.0.mha.W_q.weight f4 [64, 64]
00000000: 89d6 50bd f34e 03bd 6323 66bd d933 d23d
00000010: 42ef c53d 80d5 81bd b172 e3bd c677 a43a
00000020: 8b06 0dbc 95e8 c4bd 4a38 bbbd a986 683d
00000030: 4ed4 c0bd 40ce e23d 6099 7fbc 8007 ccbd
00000040: 88e4 b13d 6168 c43d 144d 8dbd a1bd 883d
00000050: ba52 ad3b 6e85 a03d 5208 bc3d a748 b6bd
00000060: 65b9 4d3d b067 833d 9781 4d3d 3d25 983d
00000070: 16a0 c9bd fd5d ebbd f839 95bd 8614 14bd
00000080: 4384 6dbd 32d2 a33d 45a3 f0bd 07b5 d5bd
00000090: 60ac 0e3d 9665 dfbd 2ed7 963d f5d0 11bc
000000a0: 78d2 9dbd f1cc 7abd 4ba1 883d 4171 053e
000000b0: b838 e7bb a005 64bd e237 c93c 6525 8fbd
000000c0: 0155 063d 8fcb 22bd 88df 1ebc 5053 533d
000000d0: 276c 76bc 4dbb e3bc 80ff bebd a123 493d
000000e0: b460 813c 9e3e 22bc e184 d53d 5ade 78bd
000000f0: 1a13 77bd 3754 8c3d d0c5 d2bd 7a33 bd3c
00000100: 1eda cbbc afb1 fe3c 7ddb cabd d7d3 b03d
00000110: 3749 6ebd e162 acbd 0eb9 b1bd ba53 88bd
00000120: 3309 923d 2b5e 0ebd f942 6ebd e6f7 41bd
00000130: 7ee4 f4bd c53b 85bc bda5 393d 64bb 443d
00000140: 0fe6 9b3d 51fa 8cbd 1f03 003d c3b2 dcbd
00000150: c7c0 ae3d 28a8 783a 4773 96bd d3b4 73bd
00000160: 5a41 e73c e422 d13c 3305 e9bd fd59 efbd
00000170: c85c 853d 097d c33d 6a98 053a 6931 cebd
00000180: 93c9 99bd 110d cbbd 9a90 88bd 9d79 eb3d
00000190: 810f ec3d 4208 a6bc 55d3 92bc cea1 b53c
000001a0: 3fc1 d53d 4c3c dcba ee6a 83bd ccb7 c7bc
000001b0: 95c9 e73c 6e91 eebd 6c46 cc3c e0fa 9dbb
000001c0: 30f9 88bd 1abe f3bd 958c 9bbd 2dba 4ebd
000001d0: 3b41 083d fe5c 3c3a a224 923a 844b 3c3d
000001e0: 6650 e6bd 754a a6bd c666 a73c 9bdd 423d
000001f0: 1fbf b63c 0379 e13d 10d2 8fbc ccd1 c1bb
00000200: fe51 c9bd e231 c4bd 12df 00be a73e 8d3d
00000210: eff4 2dbd ac0a eebd b9fa 8f3d 93be 14bd
00000220: b902 b7bd d796 35bc 56ac 803d 31cd 53bd
00000230: ff61 173b 6196 80bc 4dc1 ebbd ab2c 973c
00000240: f9b3 f7bc 3794 633d cfcf cdbd 3d0c 003e
00000250: 340b f8bc faa3 8ebc 0f55 1c3d dd25 9f3c
00000260: 193c 113d 762b c93d 4af0 683d 7e47 bebc
00000270: 1eb2 a5bd a6ba 97bd fe3c b43c 2cf8 b03d
00000280: ba5a d83d 2243 2b3c 7331 ebbc 12af 133c
00000290: f561 0d3d 85dd fbbd ece6 05bd 89e2 a6bd
000002a0: a435 e83d 164f e0bd e2ad 9b3b 1b98 07bb
000002b0: b382 993a 87ca 9abd 44a4 cdbc 2065 be3d
000002c0: 7ffe 16bd 9035 32bc f3bd 4e3d fc01 a33d
000002d0: e122 5ebd a692 d13d 0faa d53d bbf1 82bd
000002e0: c5ec f93d 92e3 d1bd bf20 d1bd 052d 8bbd
000002f0: 6065 3f3d b90e c7bd 9b94 47bd 778b 85bc
00000300: 7261 a5bd 9a7e 9bba 32ed 5f3d d7b5 853d
00000310: d7fd 92bd 78d9 90bd f49b 383c 60df a6bd
00000320: 24c4 d0bc 3773 9fbc 160b 4b3d 2cf4 7bbd
00000330: 4f73 02be 61d5 b9bb c585 693d b699 973d
00000340: be1f 663d fd90 65bd f165 01bc be79 a9bb
00000350: a24b febd d860 4abd f209 c4bc 12c8 fdbc
00000360: 0592 1cbd 6a47 7d3c 7d40 4c3c 46d4 81bd
00000370: 28e9 83bc c4a6 11bd 5e23 37bd 3d83 dabd
00000380: 96a4 e5bc 6b96 c93c 363e f3bc f523 9dbd
00000390: 7f9f f13d a515 923c 8a64 603d cc4d a9bc
000003a0: d6c1 0d3d 6c4c 13bb 8d47 95bc cf02 bcbd
000003b0: ae5d c03c d6a2 9c3d 8b80 b43c 78a2 05be
000003c0: 31f9 db3d e1ea 603d f01a d7bd 50e3 8f39
000003d0: dea8 833b 904d c1bc 3a17 633d b4f2 c73d
000003e0: b553 58bd 687d c93c 5a2e 993d b4cb 85bd
000003f0: dfaa 5e3d 3ee9 a8bb 29da 8c3d a271 09be
-0.050985847 -0.032057714 -0.05618609 0.102637954 0.096647754 -0.0633955 -0.1110586 0.0012547902
-0.008607517 -0.09614674 -0.09141596 0.056769047 -0.09415494 0.11074495 -0.015600532 -0.09962368
0.08686167 0.09590221 -0.06899467 0.06676794 0.005289403 0.0783795 0.091812745 -0.08900576
0.050225634 0.06416261 0.050172415 0.07428978 -0.09844987 -0.11492536 -0.07286447 -0.036152385
-0.057987463 0.07999076 -0.11749891 -0.10434919 0.03483236 -0.10908048 0.07365261 -0.008899917
-0.07706159 -0.061230604 0.06671389 0.13031484 -0.007056322 -0.055669427 0.02456278 -0.06989554
0.03279591 -0.03974491 -0.009696849 0.051593125 -0.015040434 -0.027799273 -0.093260765 0.049106244
0.015793182 -0.009902624 0.10425735 -0.060758926 -0.06032095 0.06852 -0.10291636 0.023095835
-0.02488428 0.031090586 -0.09905145 0.08634155 -0.058175292 -0.08417297 -0.086778745 -0.066565946
0.07130661 -0.034757774 -0.05816934 -0.047355555 -0.11957644 -0.016263852 0.045324076 0.048030272
0.076122396 -0.068836816 0.031252977 -0.107762836 0.08532863 0.00094855065 -0.07346206 -0.05949862
0.028229404 0.025529332 -0.11377945 -0.11687086 0.06511837 0.09545333 0.0005096259 -0.10068018
-0.0750915 -0.099146016 -0.066682056 0.11497805 0.11526395 -0.02026761 -0.017923037 0.022171881
0.104372494 -0.0016802638 -0.064168796 -0.024379633 0.028294364 -0.11648832 0.024935924 -0.0048211664
-0.06688154 -0.11901493 -0.07595173 -0.05047052 0.033265334 0.0007185488 0.0011149833 0.045970455
-0.112458035 -0.0811967 0.020434748 0.04757462 0.02230793 0.11009409 -0.01755622 -0.0059149023
-0.09830092 -0.09579827 -0.12585095 0.068967156 -0.042469915 -0.11623129 0.070302434 -0.03631456
-0.08936066 -0.011083326 0.062828705 -0.051709358 0.0023099182 -0.015696706 -0.115114786 0.018453917
-0.030237185 0.05556127 -0.10049402 0.12504669 -0.03027878 -0.017412174 0.038167056 0.019427234
0.035457704 0.09822743 0.056869783 -0.02322745 -0.08090614 -0.07408647 0.02200174 0.08641085
0.1056418 0.010453017 -0.028710103 0.009013908 0.034517247 -0.12298111 -0.032690927 -0.08148677
0.11338356 -0.109525844 0.004750953 -0.0020690027 0.0011711925 -0.0755816 -0.025102742 0.09296632
-0.0368638 -0.010877028 0.05047412 0.07959363 -0.054232482 0.10233049 0.10432827 -0.06393763
0.12203363 -0.10248484 -0.10211324 -0.06795696 0.046727538 -0.09719605 -0.048725706 -0.016301854
-0.08075227 -0.0011863292 0.054669566 0.06528824 -0.07177322 -0.07072729 0.011267651 -0.08148074
-0.025484152 -0.019464118 0.04957112 -0.061512157 -0.12739299 -0.0056711887 0.05701234 0.07402365
0.056182615 -0.056046475 -0.00789784 -0.0051719835 -0.124167696 -0.049408764 -0.023930524 -0.03097919
-0.038225193 0.015458921 0.012466547 -0.06339316 -0.016102389 -0.03555943 -0.044711463 -0.10669563
-0.028032582 0.024607858 -0.02969275 -0.07672874 0.117979996 0.017832587 0.05478338 -0.02066698
0.034608684 -0.002247597 -0.018222595 -0.09180223 0.02348217 0.07648246 0.02203395 -0.13050258
0.10740889 0.054911498 -0.10503185 0.00027444446 0.0040179333 -0.023596555 0.055442072 0.09763089
-0.052814204 0.024595931 0.07479544 -0.06532994 0.054362174 -0.0051547578 0.06877548 -0.13422254

h.0.mha.W_q.bias f4 [64]
00000000: 8ee3 c63d 6d57 66bd 237e ecbd 6762 293d
00000010: 404f d63c 74fb b63b 4a00 3ebd ee17 ffbd
00000020: cc9a 953d 773d e1bd b485 2d3d 9d5c 93bc
00000030: 80ce d73d 90ba 5f3c 5736 81bd c93e 2abb
00000040: 91ab 933d 5e2c 523c 9da8 2cbd bdf7 dd3d
00000050: 5510 223d bd9b 833d a87f b83d 4ce8 0fbe
00000060: b974 c1bd 1563 113d b420 333d b795 c23d
00000070: c5df 90bd 6add ddbd 4cd6 ef3d a263 0bbe
00000080: 370d 2a3d 0fdc 6cbc cc12 e1ba 529e 96bc
00000090: adeb 57bd ab6b a1bd a78d dabd c752 873d
000000a0: d3f2 203d 4360 9f3c 0f16 cc3d 7357 dc3d
000000b0: 1870 e5bd 9097 f2bd d4fc 90bd 2c4e be3b
000000c0: b315 fc3d 58fb ef3c 007a e3bd 3045 69bd
000000d0: c406 213c 87be dfbd 3e41 9dbc 8fec 5fbd
000000e0: 89c8 b03c 8011 073e b154 243d 82e8 dd3d
000000f0: 9111 d13b 97a2 43bd 792e c3bc 4722 f73d
0.09711371 -0.05623572 -0.11547496 0.04135361 0.026160836 0.0055841748 -0.046386994 -0.12455736
0.07304916 -0.109980516 0.042363837 -0.017988497 0.105374336 0.01365532 -0.06309193 -0.0025977364
0.07210458 0.012827961 -0.04215299 0.10838268 0.039566357 0.06426189 0.090087235 -0.14053458
-0.09446091 0.035494883 0.04373236 0.09501212 -0.07073931 -0.10833247 0.11710796 -0.13612226
0.04151651 -0.014456763 -0.001717174 -0.01838604 -0.052714992 -0.07881864 -0.10671549 0.066075854
0.039294075 0.01945508 0.09965145 0.10758867 -0.11203021 -0.118453145 -0.07079473 0.0058076587
0.12308826 0.029294655 -0.11107254 -0.056950748 0.009828273 -0.10925012 -0.019196149 -0.05466896
0.021579998 0.1319027 0.04011983 0.10835363 0.006380268 -0.04776248 -0.02382587 0.12067085

h.0.mha.W_k.weight f4 [64, 64]
00000000: fd79 5bbd d0aa 5ebd 7598 b93d c037 2cbc
00000010: 0c29 043d b108 df3d 9208 e13d fa31 0f3e
00000020: 3e79 d4bd 9f52 9abb aed8 03bd 8fba 28bd
00000030: d9ba a43d df4a 03bd 1dd6 2dbb 3c28 84bd
00000040: 86e4 b2bd 8393 8abd 5151 53bc 7f1f d7bd
00000050: 96cb d33d ab1d aebd 1c0c 433d 19b1 5dbd
00000060: e9c4 a13d cb06 b93b 16f5 f8b9 60c7 9d3d
00000070: bca9 0a3c 51ab dabd f585 bdbd 8102 dbbd
00000080: 1b4f dcbd e6e3 bebb ab85 1fbc 9a43 4ebd
00000090: 15f6 eebd 203d 8c3d 9123 ac3d dfef 9f3b
000000a0: c5ac 483d 9d1a bd3b 0520 c23d 98b6 1dbd
000000b0: 9351 053e 6c51 6bbd c4cc 22bd 5782 843d
000000c0: 0dba 4c3d a78f 6c3d 9d03 e13a 9f61 31bd
000000d0: 510d 9c3d 3056 a3bd a993 e2bc 83e2 ccbc
000000e0: 8b98 c4bd 48de a3bd cc6f c8bd 61e9 88bd
000000f0: 9400 ba3d 30aa 17bc f968 013e 6c36 a13d
00000100: 297b 45bc 1eec a43d 4ec0 ccbb 4cfe 0abd
00000110: 861c cebc 39a2 acbd 7f49 893b 437c a63d
00000120: b3c1 053d e5d6 85bd 0e64 0cbd 5376 b9bd
00000130: 917f 403d c9e7 363d 3f35 a73c e4c9 f73d
00000140: 85e1 8d3d 1a5d 283d 83bb 4dbc 4677 9fbd
00000150: 70a8 8fbd 0fb4 03bd edfa 16bd c4bf 39bd
00000160: c355 ac3d 1421 953b 10b7 c63d 4e3d 833d
00000170: 783c a13d 0067 cdbd ef19 03bd 8c19 d2bd
00000180: 934d 41bc 75d2 413c d4a4 e7bd c0ee 2abd
00000190: 1809 a73d 7fdf d63d 22d5 2cbc 3c11 cfbb
000001a0: fb56 91bd b3d9 0d3c 46ef 39bd efbc 93bd
000001b0: 7d04 463d 1bcd 3cbd 44eb 713a ed7e ec3c
000001c0: e54a 8e3d ca1e a63d a3a4 7fbb 9f38 20bd
000001d0: 1719 1b3c 743b f1bd 391e e0bd 7620 f83c
000001e0: 1275 ff3d 6a75 b7bd 1cbe 053d 4820 893d
000001f0: 9491 92bd 5d44 f13c fb6f 5ebd b8d0 e3bc
00000200: caa7 ccbd 1eac 1abd 9d94 bfbd 7a3d a0bc
00000210: a8c3 8e3d 9a67 283d d82a af3d ac96 a0bd
00000220: 0c0b 943d 54b6 6d3d c41d 6d3d 6dd4 18bd
00000230: 79d0 0ebd 5230 983d 66f5 fa3d 3a99 f6bc
00000240: aa73 5abd 3809 acbd 3d20 1ebd 10dd f73b
00000250: baa7 c1bd f627 28bd ad8f af3c 4782 833c
00000260: d98e bf3d 400f c53c 2dca a8bb 71e0 2abd
00000270: b817 d7bc 5131 8dbc 22aa be3d 5ab6 d5bd
00000280: 61e1 d8bd 6768 32bc 6514 e0bb 5a30 753d
00000290: aa59 223c 57d0 bb3c 24e9 f83c 6766 713d
000002a0: 7e0d 7d3d 2c49 313b e54d b2bd 1631 4d3d
000002b0: 696c d2bd 01a1 bebc 4c13 fabd d2e0 bf3d
000002c0: 78a8 7abc d9c1 05bd ba41 093d b766 7dbd
000002d0: 6934 ac3d 86cb 05be c537 a93d 05b8 c03c
000002e0: 6c2e e93a 74e1 9e3d cf4c 82bd c361 c33d
000002f0: 2a41 c9bd 58f2 bf3c e41f d9bd 98b4 3c3d
00000300: 9e55 83bb 8c27 913b 1bf5 483d 1b97 a2bc
00000310: 19d3 813d 8caa 6abd b1f1 66bd 2e10 033d
00000320: 7017 7abc ebb3 b2bc 8980 cebd f599 d6bb
00000330: 7ce2 9a3d be45 8fbd 2b69 18bd d78a debc
00000340: 3b31 513d 5425 cdbc 62e0 05be 5b93 ae3d
00000350: c2ff 66bd 8e45 c8bd 8efe 94bd 3f71 053d
00000360: b75e 023e c720 383d 8a4a 36bd 4d15 2dbd
00000370: 1861 5ebd 9918 ce3d fabe 68bd 6e07 debd
00000380: 3672 d1bd 16ba a83d 2111 bbbb b42b 043e
00000390: ed47 e7bd 1453 7f3c 2757 66bd b2f2 423c
000003a0: be06 d63d 943a 36bd 3973 b0bc 6608 f3bd
000003b0: d4fe 37bc fe56 233d 14f8 a5bd bc47 3b3d
000003c0: 8ceb 333d 973f b3bd 85ca 233d 46ac 1ebd
000003d0: 39d5 273d fef1 b63d 59d2 b53c 9061 e5bd
000003e0: c64c 293d 784e 0c3d 5a3d a9bd d161 bfbd
000003f0: ee59 c2bc 26b0 313c 37ba ccbc 302f d33d
-0.053583134 -0.05436212 0.09062282 -0.010511339 0.032265708 0.1089033 0.10987963 0.13983908
-0.103746876 -0.0047095562 -0.032189064 -0.04119354 0.08043451 -0.032053825 -0.0026525327 -0.064529866
-0.08734994 -0.06766417 -0.012897805 -0.10504054 0.10341565 -0.085017525 0.04761897 -0.05412397
0.07898886 0.0056465617 -0.0004748485 0.077040434 0.008463319 -0.10677207 -0.09254066 -0.10693837
-0.10757276 -0.0058255075 -0.009736459 -0.05035744 -0.1166803 0.06847596 0.08405221 0.00488089
0.04899289 0.005770995 0.094787635 -0.038504213 0.130194 -0.057450697 -0.03974606 0.06470173
0.04998212 0.057754185 0.0017167215 -0.04330599 0.076197274 -0.07975423 -0.0276583 -0.025010353
-0.09599408 -0.08001381 -0.097869486 -0.066851385 0.090821415 -0.009256884 0.126377 0.07871708
-0.012053289 0.08052848 -0.0062485104 -0.033933923 -0.025160085 -0.08429379 0.0041896696 0.0812917
0.03265543 -0.065351285 -0.034275107 -0.09055772 0.046996657 0.04465464 0.020411132 0.120990545
0.0692778 0.041104414 -0.012556913 -0.077864215 -0.07014549 -0.03215414 -0.036860395 -0.045348898
0.08414795 0.0045510624 0.09702885 0.06408177 0.078728616 -0.10029411 -0.032007154 -0.10258779
-0.01179828 0.011829962 -0.11310735 -0.041731596 0.08156031 0.10491847 -0.010548862 -0.006319193
-0.07096668 0.008657861 -0.045394205 -0.072137706 0.048344124 -0.04609404 0.0009228478 0.028869117
0.06947879 0.08111341 -0.0039008043 -0.039116498 0.009466431 -0.11778918 -0.109432645 0.030288916
0.12473501 -0.08957942 0.032652006 0.0669561 -0.07156673 0.029451543 -0.05430601 -0.027809486
-0.09992941 -0.0377618 -0.093545176 -0.019560564 0.06970912 0.041114427 0.08553094 -0.078412384
0.072286695 0.05803521 0.057889715 -0.03731196 -0.034866784 0.07431091 0.12253837 -0.030102361
-0.053332962 -0.08400196 -0.038604964 0.0075641945 -0.094558194 -0.041053735 0.021430815 0.016053332
0.09353418 0.024055123 -0.0051510544 -0.04171795 -0.026256427 -0.01723543 0.09309794 -0.104351714
-0.105898626 -0.010889149 -0.0068383687 0.059860565 0.009909073 0.022926493 0.030384608 0.05893555
0.061780445 0.002705167 -0.087062635 0.05009564 -0.10274584 -0.023270132 -0.12210712 0.09369053
-0.015298955 -0.03265557 0.033509947 -0.061865535 0.08408434 -0.1306592 0.0826259 0.023525247
0.0017790324 0.077578455 -0.06362306 0.09540131 -0.09826882 0.023430988 -0.10601786 0.046070665
-0.004008009 0.004429763 0.049061876 -0.019847443 0.06339092 -0.057291552 -0.05638284 0.031997852
-0.015264377 -0.021814307 -0.1008311 -0.006549115 0.0756273 -0.06995724 -0.03720967 -0.027165813
0.05107234 -0.025042213 -0.13073877 0.085241996 -0.056396253 -0.097788915 -0.07275115 0.032578703
0.12731443 0.044953134 -0.04450468 -0.042256642 -0.054291815 0.100632854 -0.056822754 -0.10841261
-0.10226862 0.08238618 -0.005708829 0.12907296 -0.11293016 0.015583772 -0.05623546 0.011898683
0.10450505 -0.04448946 -0.021539317 -0.11866836 -0.011230189 0.039877884 -0.08103958 0.045722708
0.043925807 -0.08752363 0.03998806 -0.03873851 0.04097483 0.08932875 0.022195028 -0.11200249
0.041332982 0.03425452 -0.08263655 -0.09344829 -0.023724522 0.01084522 -0.024991138 0.10311735

h.0.mha.W_k.bias f4 [64]
00000000: bb3f 383d 28f6 8c3c c864 ca3c 7391 6ebd
00000010: 3a27 44bd 8b89 7ebd f981 b53d 3421 77bd
00000020: 8027 b6bd e2a3 e23c 42cd 51bb db1e af3c
00000030: c075 d13d a455 7abd 5cf6 333d 0894 4e3d
00000040: 25fd ecbd 8ba4 b4bd 771c 70bd 40d5 d63d
00000050: ae09 cdbc 6ca8 8dbb 619d 18bd 3901 8f3d
00000060: fecb ca3d 62be 94bc 3f69 d93d 4bc8 a4bd
00000070: da25 f43d 6513 ddbd d48e 96bd 8afa 7bbd
00000080: f93f 10bd a0ba dcbd 0135 c9bc 7c0d dcbc
00000090: 6cb7 b63d 62c4 ab3d 57a5 2fbd d0e7 40bd
000000a0: b3da 64bd a26b 9c3d 3699 97bb 4fb7 c23d
000000b0: 0c6b 8e3d ce64 cfbd ce2f 8a3d 200d 40bd
000000c0: 0c86 163b f563 413c 88b5 423b aa0b 22bd
000000d0: 1597 003d 588e 58bd e8d0 ed3d 9114 1c3d
000000e0: 307a 133d c80e ebbb 9551 08bd 5159 8cbd
000000f0: 8ab1 323d 0c62 dbbc 935e 25be de1d 0dbd
0.044982653 0.01720722 0.02470626 -0.05824418 -0.047888972 -0.06214289 0.08862681 -0.0603344
-0.08894253 0.027666036 -0.0032013212 0.021377018 0.10227537 -0.06111683 0.04393612 0.050434142
-0.11571721 -0.088204466 -0.058620896 0.10489893 -0.02502903 -0.004323056 -0.037259463 0.06982655
0.0990219 -0.018157188 0.10615777 -0.08046015 0.11921282 -0.10794715 -0.07351461 -0.06151823
-0.03521726 -0.107777834 -0.024561407 -0.026861899 0.08921704 0.083870664 -0.04288229 -0.047096074
-0.05587263 0.07637717 -0.0046264185 0.095076196 0.06954011 -0.10126649 0.06747399 -0.046887517
0.0022968082 0.011803617 0.0029710252 -0.039561905 0.031394083 -0.052870125 0.11612111 0.03810555
0.0360052 -0.007173393 -0.033280928 -0.06852973 0.043626346 -0.02678015 -0.16149358 -0.03445231

h.0.mha.W_v.weight f4 [64, 64]
00000000: 67c1 d2bc af04 05bd 1829 6bbc 5b8d 013e
00000010: 2d18 883d 7ceb 8fbb 6362 9e3c 21fe 33bd
00000020: 07d8 9a3d 56c1 4abc fa2f 6fbd fd7e 333d
00000030: be30 2fbd 8695 e1bb 3ef4 a23b b950 c9bd
00000040: c283 0c3e 0b6e 40bd 9cec fa3c 8f78 9abd
00000050: c9d4 803d 30bd 993d 505b 49bd ecf3 d13d
00000060: c4b6 19bd 0ce3 db3d 1837 003d 75f4 74bd
00000070: 685e 37bd 0161 a73d b4ba 873d 54df dfbd
00000080: 3bc1 05be 5528 07bd 5459 b9bd 1d3f b7bd
00000090: 0b15 b9bd 212d c5bc 1414 d23d 7602 4a3c
000000a0: faba 2cbd 9378 54bd 08c6 a43d 9550 293b
000000b0: 5a28 bcbd 4826 b83d e895 14bd c317 ed3d
000000c0: 3e61 88bd e4d7 c6bd d3ed 693b 176e 613d
000000d0: a622 ad3d 2dbd ec3c 1b30 d93d 2c17 163d
000000e0: 2fd8 eb3d f54d dabd 7854 de3c e85a 82bd
000000f0: 9ad6 afbd fd33 bdbc 2816 68bd bcee 9d3d
00000100: dc2f 943c fa99 213c db13 3a3d 3df5 06bc
00000110: 3cb6 9c3d 77ae 7c3d d548 753d e73a e63c
00000120: 0107 093e a878 4abd bda0 1d3d 20fb 893c
00000130: 72a3 963d 1714 78bc 7842 4a3d bf5e c93d
00000140: fcbc 383d 7336 a1bd 3be5 09be dc45 b93d
00000150: 1590 073d 83bb 26bd 73f3 23bd e9a7 933d
00000160: 0d57 dd3d d3e3 d43d 6655 38bd f2b7 24bc
00000170: 8a9d 99bd d145 20bd 3255 fe3c 6ff6 5b3d
00000180: 56a2 1fbd 7bd8 cb3d 952c dfbd 783e e6bd
00000190: fe5f 013c d606 f23d 2d98 53bd 76d9 d53c
000001a0: 6de3 7fbc 5646 af3d 5cba e6bd 8f5c a53d
000001b0: e89e 6b3d 2151 c73c 5399 ffbc 3e7d 7ebd
000001c0: 91ab c33d 4c51 71bd 34d7 863d 8f9f 8bbd
000001d0: 8e73 af3c 7ee3 8e3d f8ce 58bd a6f3 3a3c
000001e0: 1d4b 56bd 6914 14bd 9e80 0f3c 3b47 81bd
000001f0: 0f5e 403d b2f7 093e 0edd 0b3d a914 0b3c
00000200: 08c2 8f3c a453 433c 7473 b63d aa54 593d
00000210: a014 d13d f9ad c3bd 5b62 f1bc dbb1 e0bd
00000220: 3055 0bbe f97a e9bc ec5f 00be 5e00 c53d
00000230: 383d 5ebd 7608 fe3d 7d46 b93d 3686 9bbd
00000240: f485 8d3d 76b2 c9bd d030 143d 3a14 d63d
00000250: af44 d6bd 22d5 493d 493b 853d cc1e ad3d
00000260: d184 74bd c181 a83d 5ec0 563d c75f 053e
00000270: 6efa 8dbd fb21 e33d 8ec6 0c3d fd55 073e
00000280: e388 e9bd 27d5 773d d721 80bd 054a 0abd
00000290: 64ae 3ebd 3011 ef3d cc09 12be ea41 aabd
000002a0: 5e03 993c 07c5 0abe 2937 833d 49fc 453d
000002b0: 43ce 23bd 97fb ccbd bdb7 803c e64c 993d
000002c0: 27c8 b1bd 197c b83d 3e50 c3bd 2a07 343d
000002d0: 9d49 f7bd 25d3 b43d 14ef 983d d2f9 f0bc
000002e0: c7af 813d 41c0 b8bd 2e3c 37bd e8dd 05bd
000002f0: bf72 b6bb b45f aa3d 1157 aebc 356e 8f3d
00000300: 440f 79bd 142b acbd c37f d2bd 256d 7b3d
00000310: c942 b2bd cd3a 013e 83fa c7bd 05a9 cebd
00000320: feec c8bd 65e7 93bd 2271 7dbc 8833 8f3d
00000330: d10c 83bc b673 fcbd 96f8 9e3d 8fe0 1bbc
00000340: 65b2 02bd f802 a9bd 79f7 00be dc90 0d3d
00000350: 1e39 123d 67cd e8bd 6595 783d 700e 993d
00000360: fbca cb3c b9d8 15bd 9e4e b43d 6682 273d
00000370: 1c50 be3d 72cb 88bd c520 8abd d8e2 e2bd
00000380: 3905 043d 839a f4bc 6f16 9a3d 73c7 9a3d
00000390: 8437 4bbc 0409 dc3d d40d 8a3c b548 9e3d
000003a0: 29ed bfbd 6e4a ea3d bd0c da3d 3721 24bc
000003b0: e094 bcbd 7e39 d53d 8152 c4bd ac54 68bd
000003c0: 786b 153d f487 a7bd 8fb4 873d 1ee2 c03d
000003d0: 8c5d 1a3d 1c06 60bd 7306 95bc 65b4 55bd
000003e0: 36b4 fd3c e573 4e3c bf29 21bd 8205 3cbd
000003f0: 2078 14bd 5e41 003e 81e5 a4bd dda5 e1bd
-0.025726987 -0.03247517 -0.014353059 0.12651579 0.06645236 -0.0043920856 0.019334024 -0.043943528
0.07560735 -0.012375196 -0.058395363 0.043822277 -0.042771094 -0.0068842797 0.0049729636 -0.0982985
0.13722137 -0.046979945 0.030630402 -0.07542526 0.062905855 0.07506788 -0.049159348 0.102516025
-0.037527815 0.10736665 0.03130254 -0.059803445 -0.044767767 0.08172799 0.06627408 -0.10931268
-0.13061993 -0.032997448 -0.09050241 -0.08947585 -0.09037217 -0.02406937 0.10257736 0.012329688
-0.042170502 -0.0518728 0.08045584 0.0025835384 -0.09187384 0.089916766 -0.036275774 0.11576798
-0.066591725 -0.097091466 0.0035694733 0.05503663 0.08453874 0.0288988 0.106048785 0.036643192
0.11515843 -0.106594004 0.027139887 -0.06364995 -0.08585854 -0.023096079 -0.056661755 0.077115506
0.018089227 0.009863371 0.045429092 -0.00823718 0.07651946 0.06168982 0.05988391 0.028104259
0.13381578 -0.049431473 0.03848337 0.016843379 0.073553935 -0.015141509 0.049379796 0.098325245
0.045102105 -0.078717135 -0.1346635 0.09046528 0.03309639 -0.04070617 -0.040027093 0.07209761
0.10807619 0.103950165 -0.045003317 -0.010053622 -0.07500751 -0.039129082 0.031046484 0.053701814
-0.038973175 0.099534 -0.10897175 -0.11242384 0.0078964215 0.1181771 -0.051658798 0.02610467
-0.015618187 0.085583374 -0.11266014 0.08074295 0.05752459 0.024330677 -0.03120104 -0.06213116
0.09554208 -0.05891542 0.065840155 -0.06817543 0.021417405 0.069769844 -0.052931756 0.011410629
-0.052317727 -0.036152277 0.008758692 -0.06312414 0.0469647 0.13473395 0.03414636 0.0084888125
0.017548576 0.011921797 0.0890874 0.053059258 0.10209012 -0.09554667 -0.029465845 -0.10971423
-0.13606715 -0.02850102 -0.12536591 0.09619211 -0.0542576 0.124039575 0.09046648 -0.07593958
0.06910315 -0.09848492 0.036179364 0.10453077 -0.10462319 0.049275525 0.06505448 0.0845314
-0.059696976 0.082278736 0.05242955 0.13024817 -0.06932531 0.11090466 0.034369044 0.13216396
-0.11403062 0.060506012 -0.062564544 -0.033761997 -0.04655303 0.116732 -0.1426155 -0.08313353
0.018678363 -0.13551722 0.06407005 0.0483363 -0.03999163 -0.100089245 0.015712613 0.0748537
-0.08680754 0.09008045 -0.09536789 0.043952145 -0.120745875 0.08829335 0.074674755 -0.029415999
0.06332355 -0.090210445 -0.044735126 -0.03268233 -0.005567878 0.08319035 -0.02128175 0.07003442
-0.060805574 -0.08406654 -0.10278275 0.061383385 -0.087041445 0.12620087 -0.09764578 -0.10090832
-0.09810828 -0.072218694 -0.0154688675 0.06992251 -0.015997322 -0.123267576 0.07762258 -0.009513988
-0.03190841 -0.08252519 -0.12594403 0.034561977 0.035699002 -0.113673024 0.06068935 0.07473457
0.024877062 -0.036583636 0.088040575 0.040895842 0.092926234 -0.06679429 -0.067445315 -0.11078423
0.032231543 -0.029858833 0.0752381 0.07557573 -0.012403373 0.10743907 0.016852297 0.077287115
-0.093714066 0.114399776 0.10646961 -0.010017685 -0.09208083 0.104113564 -0.09586049 -0.056721374
0.036479443 -0.08180228 0.06626236 0.094181284 0.03768687 -0.054693326 -0.018191552 -0.05217399
0.03096972 0.012600874 -0.039346453 -0.04590369 -0.036247373 0.12524936 -0.08051587 -0.11017964

h.0.mha.W_v.bias f4 [64]
00000000: c557 7b3d c179 62bc 36df f0bc 8e08 243d
00000010: b345 ba3d a575 9e3b a4ef ff3d 7523 cebc
00000020: d30c c9bd 3bb8 ce3d 1d88 af3d 75bc 46bd
00000030: 5e9b 463c 5d7d f3bc 2ad1 653c 2a5e ebbd
00000040: 8a9d 85bd 4058 9ebc 6e34 4ebd 46e8 b33d
00000050: f466 b3bc 70d7 c0bc 388b 0f3e 50f3 6b3d
00000060: 5541 b53d d623 0d3c 82af 013d a8ad 653b
00000070: a4e6 2d3d 8837 a6bd ef49 94bd be0d 16be
00000080: 4da1 a8bd d522 debd 30d0 073e 49a2 8b3d
00000090: 1fd2 893d 272a b33d f86c d1bd 070e 11bd
000000a0: 8c4e 103d d12d 553d 15e9 5abd b4d4 b1bd
000000b0: 1677 9a3d 60ea cbbd a9c6 55bd 5ae8 c0bd
000000c0: e678 d13c 5a80 9c3c 765a 403d 6aff 6dbc
000000d0: 0abb 61bd 6bd3 103d 34e3 c6bd 8cc3 973d
000000e0: ee41 a5bd 4430 96bd a561 a63c 8a2f 793d
000000f0: 4bbc d0bd 26ec 933c e191 943d aac7 d53d
0.061363 -0.013822974 -0.02940331 0.04004722 0.09095325 0.0048358017 0.1249688 -0.025163392
-0.09816899 0.10093733 0.085708834 -0.04851957 0.012122003 -0.029722864 0.014026919 -0.1149257
-0.06524189 -0.01932919 -0.05034297 0.08784537 -0.021899678 -0.023540229 0.14017951 0.057605088
0.08850352 0.008614501 0.031661518 0.0035046134 0.042456284 -0.081160605 -0.07240664 -0.1465368
-0.08233891 -0.108464874 0.13263011 0.06818063 0.067295305 0.08748274 -0.10225862 -0.03541377
0.035231158 0.052045647 -0.05344494 -0.08683148 0.07542245 -0.09956813 -0.05219141 -0.094193175
0.025570344 0.019104172 0.04696127 -0.0145262275 -0.055110015 0.035357874 -0.09711304 0.074103445
-0.08069216 -0.07333425 0.020310232 0.060836352 -0.10192164 0.01805694 0.07254387 0.104384735

h.0.mha.W_o.weight f4 [64, 64]
00000000: 633d 7fbb 265a 7e3b a131 b4bd 5efd f33d
00000010: 81d9 563d ca7d 81bd 67ac ebbd c3c6 f53c
00000020: 6f8c 6b3d d8a1 e0bd 1ed9 29bd 31b9 a8bd
00000030: 0bc3 ccbd 2281 cc3d 4535 de3d ed71 313c
00000040: 76fe 97bc 3317 673c a38f 943d f0b5 8e3d
00000050: f31d 113e aa1d a1bc 792a fdbc 0ec9 9f3c
00000060: 5c42 81bd 45cb a5bd a611 013a d4d0 07be
00000070: 9d97 7bbd f5ce 81bd 24df 483c bad6 a5bd
00000080: 7a82 e33d cbce 6e3d e96f a4bc 28ff 7b3d
00000090: d312 243d 365a 26bd 39a1 c13c 6dab 9c3d
000000a0: 523b 253d 3dcc 78bd 1368 ac3d c714 f73d
000000b0: 227e b6bd 63d5 edbd 6a51 c73d 7011 2a3c
000000c0: d953 3dbc 3f5f adbc 1282 9fbd 6c27 d03d
000000d0: 2daf 14bd 4328 fabc 2f35 4d3d f11c f83c
000000e0: 9ca6 d2bd 28e5 83bd c7ba 783d 14ca b2bd
000000f0: 9d7f 9e3d 64b9 703c 15e9 c33d 59e9 a83d
00000100: 3b79 edbc 1f42 ae3d 8786 463d a526 92bd
00000110: accb d7b9 24a1 1b3b 031b 11be 9df4 fa3d
00000120: 0766 cdbb c543 963d c7ce 10be 5ba0 8cbd
00000130: cff8 713d 9c64 913d 03bf 10be e960 ae3d
00000140: df26 0e3e 1a9e 26bd 4450 f4bc 756c 08be
00000150: a9b9 d83d 31ae 66bd 3613 21bd f545 02be
00000160: 759e 2e3d e215 543c 03ea 9bbd ff1e 11bd
00000170: 1eda 8abd 55e6 b6bd 3505 cbbc b129 4dbc
00000180: f080 afbd 9a36 8c3d abd2 b33c 2d89 b7bb
00000190: 232b 963d 0a27 0abe a4d5 a4bd 1fee c03c
000001a0: 3a05 99bd 3cab bd3d ad95 afbd 8ddc 853d
000001b0: ec76 813c f7fe a23d e012 d1bc 04e0 ab3b
000001c0: cf6a d63d 5608 78bd ba44 e0bc cb55 8e3d
000001d0: e8c2 4dbd f48c 9cbd 7942 963d 267b 19ba
000001e0: ca0e 903d 9d3c 8fbd 05ca 4fbd 4443 c13d
000001f0: e4b9 d13d d08f ccbd e687 9bbd 9de0 febd
00000200: 53ce c0bd d0f6 b63d 8e59 f63d 471b abbd
00000210: 0b6f 153c c5da bbbc b8e6 71bd ab83 e3bd
00000220: ae59 d23d 5690 0e3e a13b a33d e75b ab3d
00000230: c932 ecbd 2fdb 9d3d ab9a b83d f2b9 d7bd
00000240: abfa 893d aa8d c0bc 7c2c 95bb 3655 a3bd
00000250: 22c5 89bd 45a6 963d 81b1 283c c4fe 17bd
00000260: b106 553c e47e c5bd 93c6 0bbe 1f8e a03d
00000270: d038 a23d 15b1 d3bd 8a7b be3c 5852 94bd
00000280: 7580 173d 4e0a c8bd 9382 b6bd 320e a1bd
00000290: b553 34bc c1ac 583d 3deb 553d 173c e73c
000002a0: 065e 5fbd 924b aebd fd81 2c3d 1ec7 433d
000002b0: fede 85bb 62c6 c93b 950b 1ebd d6a6 0dbd
000002c0: 5c3d 7a3d 46c3 b43c 4914 b7bd 14eb 9ebd
000002d0: 33ca 5dbc 9429 7abd c9e8 c73c 59c1 143c
000002e0: a2e6 3d3c d766 1c3d a880 b3bd 7d37 c73b
000002f0: 0e67 3b3c 0f68 553d c6c1 fcbd 6cc1 973d
00000300: 2020 a2bb 2468 3dbc 0c40 02be 09a9 513c
00000310: 2a1e 4a3b 0171 fa3b 9fa6 d03d 3eee dbbb
00000320: 1984 96bd 5a25 93bc 6d29 753d 129b 463d
00000330: cd20 d4bd f8d2 b53d b878 70bc affb 80bd
00000340: c32b c0bd c3e2 29bd a0f1 ca3d b68f 6cbd
00000350: 3210 e0bc dd1f 463d 36fc 06be d9b5 9cbd
00000360: 7255 2cbd 8eab 2ebc 6aca a6bd 9786 88bd
00000370: 9929 a1bd 015a 11bd b80d df3d 0f85 943d
00000380: 16a4 0d3d a832 df3d d67d af3b b4b0 b83d
00000390: f379 9cbc 7db5 d6bd 3a3b 0ebc 8e40 143e
000003a0: 8935 e03d 71d0 7dbd 6747 063e bd2a 1c3c
000003b0: 69c0 c9bd 4553 36bc a11e b33c 394f 993d
000003c0: ed1c e73d d29e 80bd f7f5 edbd 6d54 bf3d
000003d0: 5755 91bd bcd6 03be 1b51 f9bb 474e a6bc
000003e0: c0c6 fa3c 53d3 abbd 92d6 1cbd 0273 a4bc
000003f0: 68f1 e43c 2c59 83bd 2fbd 843d 9399 313d
-0.0038946501 0.0038811057 -0.087985285 0.1191356 0.05245352 -0.063228205 -0.115074925 0.030002004
0.057506975 -0.10968369 -0.041466825 -0.082384475 -0.09998139 0.09985568 0.10850004 0.010830385
-0.018553954 0.014104652 0.07253959 0.069682956 0.14171581 -0.019667465 -0.030904042 0.01950505
-0.06311485 -0.08095411 0.00049235893 -0.13263255 -0.061423887 -0.06338302 0.012260232 -0.080975965
0.11108871 0.058302682 -0.020072894 0.061522633 0.040057015 -0.040613376 0.023636447 0.076498844
0.040339775 -0.06074165 0.08418288 0.1206451 -0.08910777 -0.11612966 0.097323254 0.010380134
-0.011555635 -0.021163581 -0.07788481 0.10163769 -0.036299873 -0.030536776 0.050099548 0.030287238
-0.102856845 -0.064401925 0.060725 -0.087299496 0.07739184 0.014692638 0.09565941 0.082476325
-0.028988471 0.08508705 0.04846814 -0.07136277 -0.00041159743 0.002374717 -0.1417046 0.122536875
-0.006268266 0.07337145 -0.1414138 -0.06866523 0.059075173 0.07099268 -0.14135365 0.08514578
0.13882016 -0.04067812 -0.02982343 -0.13322623 0.10582287 -0.056318466 -0.03932496 -0.12721999
0.042631585 0.01294467 -0.076129936 -0.03542995 -0.06779884 -0.08930651 -0.024782756 -0.012522147
-0.08569515 0.06846352 0.02195104 -0.0056010694 0.073324464 -0.13491455 -0.08048561 0.023551045
-0.074717 0.09261176 -0.0857347 0.06536207 0.015803777 0.07958787 -0.025521696 0.0052452106
0.10469591 -0.060554825 -0.027376521 0.069499575 -0.050234705 -0.07644072 0.073368974 -0.00058548374
0.07034071 -0.06993983 -0.05072977 0.09436658 0.10240534 -0.099883676 -0.0759428 -0.12445185
-0.09414353 0.089337945 0.120288 -0.08354812 0.009120713 -0.022931466 -0.05905792 -0.11109098
0.10271011 0.13922247 0.07970358 0.08367138 -0.11533124 0.077078216 0.090138756 -0.10533513
0.06737264 -0.02350505 -0.004552422 -0.07975237 -0.06727053 0.07355932 0.0102962265 -0.037108198
0.013002084 -0.09643343 -0.13649969 0.078396074 0.079209924 -0.1033651 0.023252267 -0.07242268
0.03698774 -0.097675905 -0.08911624 -0.07864036 -0.011006285 0.052899126 0.052226294 0.028226895
-0.054533027 -0.08510508 0.042116154 0.047797315 -0.0040854206 0.0061576823 -0.038585264 -0.034582935
0.061093673 0.02206577 -0.08939416 -0.07759681 -0.013536978 -0.06107481 0.024402993 0.009079301
0.011590632 0.038184013 -0.087647736 0.0060796128 0.011438144 0.05210119 -0.12341647 0.07409939
-0.0049476773 -0.011560474 -0.12719744 0.012796649 0.0030840733 0.0076428656 0.101880305 -0.0067117503
-0.073494144 -0.017962147 0.05985396 0.04848773 -0.10357819 0.0887813 -0.014677219 -0.06298005
-0.09383347 -0.041476022 0.099093676 -0.05775424 -0.027351473 0.04837023 -0.13182148 -0.07651872
-0.042073674 -0.010661019 -0.08144076 -0.06666296 -0.07869262 -0.035486225 0.108912885 0.072519414
0.034580313 0.10898334 0.005355577 0.090180784 -0.019101119 -0.10483835 -0.008681113 0.1447775
0.10947711 -0.061966363 0.13113175 0.009531674 -0.098511524 -0.011128251 0.021865191 0.07485814
0.11284814 -0.062802926 -0.1161918 0.09342275 -0.070963554 -0.12874883 -0.0076085455 -0.020300997
0.03061235 -0.08389916 -0.038290568 -0.020074371 0.027947143 -0.064134926 0.064813964 0.04335935

h.0.mha.W_o.bias f4 [64]
00000000: 8ced ebbd f1be a03d e14b 0c3e 8f03 bdbd
00000010: 7047 c9bd 616a ff3d 616e 173e cc14 86bd
00000020: eb8e ab3c cf60 dfbd 50b6 953d e989 633d
00000030: ea44 46bc 1604 4ebd 999c e0bd 1d63 093e
00000040: 7f20 acbc 7c92 8dbd 6bee 0ebd a203 98bc
00000050: fb1c b8bd 5ba4 453c 9bb0 efbd 680c b1ba
00000060: 1280 493d c1d2 8ebc 9246 723d 198f 9d3d
00000070: b15e 5cbd 4810 aa3d f845 093e 00f6 163d
00000080: cc55 03bc f989 41bc c69b dabd 624d 033e
00000090: d83f 8a3d 17f6 0f3e 6a41 7cbd 7001 a3bd
000000a0: 6b68 a3bc 1eff 8dbd 9adf 863d 6466 62bd
000000b0: 97b4 a3bd 3c2b 383d 34f3 be3c 6dd6 e03d
000000c0: 6883 de3d 4d1c 61bd efce 11be a133 a73c
000000d0: 2986 e43c 0b25 063e 7eff 543d f0db 9a3d
000000e0: 282f 3abd d535 29bd ee94 bc3d a0f8 01bd
000000f0: 2114 843d 5935 563d db07 b43d e225 ae3d
-0.11519918 0.07848919 0.1370082 -0.092291944 -0.09828079 0.12471462 0.147882 -0.065469354
0.020942172 -0.10907137 0.07310164 0.055551443 -0.012101391 -0.050296865 -0.10967369 0.13416715
-0.02101159 -0.06912705 -0.03489534 -0.01855642 -0.089899026 0.012063111 -0.11703607 -0.0013507726
0.049194403 -0.01743448 0.059149332 0.07693309 -0.053801242 0.08303887 0.13405597 0.036855698
-0.008016061 -0.01181268 -0.10674243 0.12822488 0.067504585 0.1405872 -0.06158582 -0.079592586
-0.019947251 -0.06933425 0.06585617 -0.05527343 -0.07993429 0.044963107 0.023309328 0.109783985
0.108649075 -0.05495863 -0.14239095 0.02041036 0.027896004 0.13100068 0.05200147 0.07561481
-0.045455128 -0.041311104 0.092080936 -0.031731248 0.06449152 0.05229697 0.08790561 0.08503319

h.0.ln_1.weight f4 [64]
00000000: 2052 803f 2514 7b3f 1a15 7f3f d0de 863f
00000010: 9e28 803f 87b8 813f e592 803f 2fa5 823f
00000020: 9ae2 7f3f 4abf 823f 7184 7e3f b4ee 803f
00000030: b208 843f 8a3a 7c3f ed44 803f c4d2 7a3f
00000040: 4a19 803f c932 823f 7b07 7d3f 0ac3 803f
00000050: 0a84 823f 24fe 803f c11c 7f3f 0cf3 813f
00000060: efd6 803f 498f 813f a1f1 7d3f 4fe2 813f
00000070: c739 823f 211d 803f 6e48 823f 7e96 7f3f
00000080: 7613 773f 2aaa 833f ddc3 793f c3b6 803f
00000090: eb36 813f ff50 813f 4ce7 813f 0bbb 7c3f
000000a0: e12e 813f 45fd 813f 1df5 813f 5b2c 823f
000000b0: 0671 803f 9f29 803f 1a3f 873f d360 793f
000000c0: 1884 813f 412b 7a3f 3ad7 7e3f 2110 863f
000000d0: 7c9f 783f 67f9 793f 4671 7e3f 8efd 7a3f
000000e0: 0c74 7f3f 5025 7b3f 58ea 7e3f 3c8f 7f3f
000000f0: 4770 823f bcd8 793f 1561 783f 6eb9 803f
1.0025063 0.98077613 0.99641573 1.0536747 1.0012395 1.0134438 1.0044829 1.020666
0.9995514 1.0214627 0.9942084 1.0072846 1.0315154 0.98526824 1.0021034 0.9797785
1.0007718 1.0171748 0.9883954 1.0059521 1.0196545 1.0077558 0.9965325 1.0152297
1.0065593 1.0121852 0.9919682 1.0147189 1.0173882 1.000889 1.0178354 0.9983901
0.9651407 1.0286305 0.9756449 1.0055774 1.0094885 1.0102843 1.0148711 0.98722905
1.0092431 1.0155417 1.0152928 1.0169786 1.0034492 1.0012702 1.0566132 0.9741337
1.0118437 0.9772225 0.9954716 1.0473672 0.97118354 0.9764618 0.9939159 0.98043144
0.9978645 0.9810381 0.9957633 0.99827933 1.0190514 0.97596335 0.97023135 1.0056589

h.0.ln_1.bias f4 [64]
00000000: 4ea1 fdbc c5c0 34bc 5332 bebc ad8e 023d
00000010: f81a 623b 80b6 f9bc 7c7a e9bc 12af 02bd
00000020: bfdb acbc 913d 07bd 07b4 aabc 6e55 fc3c
00000030: d020 0cbd bf12 b5ba e8ca fd3c ef1a dbbc
00000040: 1887 db3b 1781 04bd 1068 693c def6 e6bc
00000050: 28d3 0bbd 1f81 ce3c 75bc 993c 234b debc
00000060: 39b0 b3bc 2cd7 ec3c 5146 4e3a e919 f03c
00000070: a3b1 edbc acaa c33c 43f7 f63c ef66 5b3c
00000080: f8b7 a93c ddde eabc 61aa 61bc 6039 823c
00000090: 0176 d7bc c84d 52bc 78c6 f9bc 1b73 363c
000000a0: 776e b8bc 39a2 f2bc 0677 f93c 9aa4 053d
000000b0: 7e4b e53c 4e40 e03c d7b4 0dbd ec71 163c
000000c0: ef03 e9bc 2ba5 7e3c 5716 ab3c 02a5 013d
000000d0: c757 60bc a15f e4bc 2ec6 6fbc ad7a e93b
000000e0: 17ee 913c e341 b7bc b3a0 33bc d478 95bc
000000f0: e1c6 11bd dc22 4d3c b421 003d 23a2 ef3c
-0.030960705 -0.011032288 -0.023217356 0.031874347 0.0034500938 -0.03048253 -0.028500788 -0.03190524
-0.021100877 -0.0330177 -0.020837797 0.030802455 -0.03421098 -0.0013814791 0.030980542 -0.026746241
0.006699454 -0.032349672 0.014246002 -0.028193887 -0.03413692 0.025208054 0.018766621 -0.027135437
-0.021934615 0.028911196 0.00078687543 0.02930923 -0.029015368 0.023885094 0.0301472 0.0133912405
0.020717606 -0.028670723 -0.013773532 0.0158965 -0.026301386 -0.012835927 -0.030490145 0.011135842
-0.022513611 -0.02961837 0.030452263 0.03262768 0.027990099 0.027374413 -0.03459629 0.0091824345
-0.028444258 0.015542309 0.020884676 0.031651504 -0.013692803 -0.02787763 -0.014634652 0.00712522
0.017813725 -0.022370284 -0.010963607 -0.018246092 -0.035590056 0.012520518 0.03128214 0.029252117

h.0.ln_2.weight f4 [64]
00000000: 0000 803f 0000 803f 0000 803f 0000 803f
00000010: 0000 803f 0000 803f 0000 803f 0000 803f
00000020: 0000 803f 0000 803f 0000 803f 0000 803f
00000030: 0000 803f 0000 803f 0000 803f 0000 803f
00000040: 0000 803f 0000 803f 0000 803f 0000 803f
00000050: 0000 803f 0000 803f 0000 803f 0000 803f
00000060: 0000 803f 0000 803f 0000 803f 0000 803f
00000070: 0000 803f 0000 803f 0000 803f 0000 803f
00000080: 0000 803f 0000 803f 0000 803f 0000 803f
00000090: 0000 803f 0000 803f 0000 803f 0000 803f
000000a0: 0000 803f 0000 803f 0000 803f 0000 803f
000000b0: 0000 803f 0000 803f 0000 803f 0000 803f
000000c0: 0000 803f 0000 803f 0000 803f 0000 803f
000000d0: 0000 803f 0000 803f 0000 803f 0000 803f
000000e0: 0000 803f 0000 803f 0000 803f 0000 803f
000000f0: 0000 803f 0000 803f 0000 803f 0000 803f
1.0 1.0 1.0 1.0 1.0 1.0 1.0 1.0
1.0 1.0 1.0 1.0 1.0 1.0 1.0 1.0
1.0 1.0 1.0 1.0 1.0 1.0 1.0 1.0
1.0 1.0 1.0 1.0 1.0 1.0 1.0 1.0
1.0 1.0 1.0 1.0 1.0 1.0 1.0 1.0
1.0 1.0 1.0 1.0 1.0 1.0 1.0 1.0
1.0 1.0 1.0 1.0 1.0 1.0 1.0 1.0
1.0 1.0 1.0 1.0 1.0 1.0 1.0 1.0

h.0.ln_2.bias f4 [64]
00000000: 0000 0000 0000 0000 0000 0000 0000 0000
00000010: 0000 0000 0000 0000 0000 0000 0000 0000
00000020: 0000 0000 0000 0000 0000 0000 0000 0000
00000030: 0000 0000 0000 0000 0000 0000 0000 0000
00000040: 0000 0000 0000 0000 0000 0000 0000 0000
00000050: 0000 0000 0000 0000 0000 0000 0000 0000
00000060: 0000 0000 0000 0000 0000 0000 0000 0000
00000070: 0000 0000 0000 0000 0000 0000 0000 0000
00000080: 0000 0000 0000 0000 0000 0000 0000 0000
00000090: 0000 0000 0000 0000 0000 0000 0000 0000
000000a0: 0000 0000 0000 0000 0000 0000 0000 0000
000000b0: 0000 0000 0000 0000 0000 0000 0000 0000
000000c0: 0000 0000 0000 0000 0000 0000 0000 0000
000000d0: 0000 0000 0000 0000 0000 0000 0000 0000
000000e0: 0000 0000 0000 0000 0000 0000 0000 0000
000000f0: 0000 0000 0000 0000 0000 0000 0000 0000
0.0 0.0 0.0 0.0 0.0 0.0 0.0 0.0
0.0 0.0 0.0 0.0 0.0 0.0 0.0 0.0
0.0 0.0 0.0 0.0 0.0 0.0 0.0 0.0
0.0 0.0 0.0 0.0 0.0 0.0 0.0 0.0
0.0 0.0 0.0 0.0 0.0 0.0 0.0 0.0
0.0 0.0 0.0 0.0 0.0 0.0 0.0 0.0
0.0 0.0 0.0 0.0 0.0 0.0 0.0 0.0
0.0 0.0 0.0 0.0 0.0 0.0 0.0 0.0

ln_f.weight f4 [64]
00000000: 0000 803f 0000 803f 0000 803f 0000 803f
00000010: 0000 803f 0000 803f 0000 803f 0000 803f
00000020: 0000 803f 0000 803f 0000 803f 0000 803f
00000030: 0000 803f 0000 803f 0000 803f 0000 803f
00000040: 0000 803f 0000 803f 0000 803f 0000 803f
00000050: 0000 803f 0000 803f 0000 803f 0000 803f
00000060: 0000 803f 0000 803f 0000 803f 0000 803f
00000070: 0000 803f 0000 803f 0000 803f 0000 803f
00000080: 0000 803f 0000 803f 0000 803f 0000 803f
00000090: 0000 803f 0000 803f 0000 803f 0000 803f
000000a0: 0000 803f 0000 803f 0000 803f 0000 803f
000000b0: 0000 803f 0000 803f 0000 803f 0000 803f
000000c0: 0000 803f 0000 803f 0000 803f 0000 803f
000000d0: 0000 803f 0000 803f 0000 803f 0000 803f
000000e0: 0000 803f 0000 803f 0000 803f 0000 803f
000000f0: 0000 803f 0000 803f 0000 803f 0000 803f
1.0 1.0 1.0 1.0 1.0 1.0 1.0 1.0
1.0 1.0 1.0 1.0 1.0 1.0 1.0 1.0
1.0 1.0 1.0 1.0 1.0 1.0 1.0 1.0
1.0 1.0 1.0 1.0 1.0 1.0 1.0 1.0
1.0 1.0 1.0 1.0 1.0 1.0 1.0 1.0
1.0 1.0 1.0 1.0 1.0 1.0 1.0 1.0
1.0 1.0 1.0 1.0 1.0 1.0 1.0 1.0
1.0 1.0 1.0 1.0 1.0 1.0 1.0 1.0

ln_f.bias f4 [64]
00000000: 0000 0000 0000 0000 0000 0000 0000 0000
00000010: 0000 0000 0000 0000 0000 0000 0000 0000
00000020: 0000 0000 0000 0000 0000 0000 0000 0000
00000030: 0000 0000 0000 0000 0000 0000 0000 0000
00000040: 0000 0000 0000 0000 0000 0000 0000 0000
00000050: 0000 0000 0000 0000 0000 0000 0000 0000
00000060: 0000 0000 0000 0000 0000 0000 0000 0000
00000070: 0000 0000 0000 0000 0000 0000 0000 0000
00000080: 0000 0000 0000 0000 0000 0000 0000 0000
00000090: 0000 0000 0000 0000 0000 0000 0000 0000
000000a0: 0000 0000 0000 0000 0000 0000 0000 0000
000000b0: 0000 0000 0000 0000 0000 0000 0000 0000
000000c0: 0000 0000 0000 0000 0000 0000 0000 0000
000000d0: 0000 0000 0000 0000 0000 0000 0000 0000
000000e0: 0000 0000 0000 0000 0000 0000 0000 0000
000000f0: 0000 0000 0000 0000 0000 0000 0000 0000
0.0 0.0 0.0 0.0 0.0 0.0 0.0 0.0
0.0 0.0 0.0 0.0 0.0 0.0 0.0 0.0
0.0 0.0 0.0 0.0 0.0 0.0 0.0 0.0
0.0 0.0 0.0 0.0 0.0 0.0 0.0 0.0
0.0 0.0 0.0 0.0 0.0 0.0 0.0 0.0
0.0 0.0 0.0 0.0 0.0 0.0 0.0 0.0
0.0 0.0 0.0 0.0 0.0 0.0 0.0 0.0
0.0 0.0 0.0 0.0 0.0 0.0 0.0 0.0
