subspace-alignment/data/1_layer_32_vocab/ckpt_5320.pt (torch, 90637 bytes, 17 tensors)

embed.embed.weight f4 [32, 64]
000000 99 2b 23 be b1 6c 15 3f 5a 16 1b 3f 86 0d 0c 3e
       -0.159346 0.58368975 0.6058098 0.13677034
000010 0f 63 0a bd bc cb 22 bf d6 d9 90 bf ab 02 8f bd
       -0.033785876 -0.63592124 -1.1316478 -0.06982931
000020 38 b3 e7 be 19 37 4b 3e 9d b9 c2 bf 11 e2 c5 3e
       -0.4525392 0.19845237 -1.5212895 0.38649037
000030 01 b2 82 be 1a 91 4c bf 5e 5d 51 3f 15 20 9d 3c
       -0.2552643 -0.7990891 0.8178309 0.019180337
000040 70 9e 4c 3e a5 8e 40 3d 71 3f 41 3f d2 2a 26 bf
       0.19982314 0.047011036 0.7548743 -0.6490909
000050 59 17 12 bf 07 c1 bc 3f b8 08 af 3f fe 4c 73 bf
       -0.57066876 1.4746407 1.3674536 -0.95039356
000060 cc d4 06 c0 94 b4 af 3f 6c 64 59 bf 05 b1 05 40
       -2.106738 1.3726983 -0.84918857 2.0889294
000070 45 8b 54 3f 08 3b 39 3f 52 1a f9 be 29 ca 06 3f
       0.8302501 0.723557 -0.48652893 0.5265222
000080 8c c3 62 3f ea 9c 55 bf 94 76 95 3e 46 4c 75 bf
       0.8857963 -0.83442557 0.2919203 -0.9581951
000090 f9 8f 8e bf b4 79 1f 3f 45 14 5d bf 26 4f 34 3f
       -1.1137687 0.6229508 -0.86359054 0.7043327
0000a0 53 c8 d9 bf 55 e8 65 bf 1d 31 4c 3e 6c ec 38 3f
       -1.7014259 -0.89807636 0.1994061 0.7223575
0000b0 b5 18 97 3f 94 eb 3e 3f 71 1b ed be 95 6d 19 bf
       1.1804415 0.74578214 -0.4631 -0.59932834
0000c0 9a 1a 48 bf 7c d7 bf bf 70 85 fa bd ba b5 a2 be
       -0.7816559 -1.4987636 -0.122324824 -0.3177927
0000d0 0c 79 b0 3e 12 39 8a 3f 91 d2 a0 3d 88 61 6d bf
       0.3446735 1.0798666 0.07852662 -0.92726946
0000e0 a2 7f af 3e 61 a9 02 bf c6 bb 9e bf 06 d2 c1 bf
       0.34277064 -0.510397 -1.2401054 -1.5142219
0000f0 a4 8b e6 3e ff f1 98 be 5a 13 bc 3c 41 f6 53 3f
       0.45028412 -0.29872128 0.022958446 0.8279763
000100 75 42 18 3f 40 d1 94 bf 51 59 89 bf c4 e7 19 3e
       0.59476405 -1.1626358 -1.0730382 0.15029818
000110 04 98 ec 3f 22 95 83 bf 8d c5 87 be d6 b8 0d bf
       1.8483891 -1.0279887 -0.26517907 -0.5536016
000120 23 34 a4 3e f2 a7 a6 be 33 c0 b6 3d 31 9d e5 3e
       0.32071027 -0.32550007 0.08923378 0.4484649
000130 10 05 c4 3e 41 e9 d4 3e 36 a0 0b 3d 7a b9 4e 3f
       0.38285112 0.4158421 0.034088336 0.80751765
000140 c7 fd 95 3f 33 ee 06 bf c3 7a 85 3f ea b5 a4 3e
       1.1718072 -0.52707213 1.0428089 0.3217004
000150 10 3a 7a 3e 30 52 cd be 61 28 ca 3f 63 27 f2 3e
       0.24436212 -0.40101767 1.5793573 0.47295675
000160 bd db e6 3c 64 53 5b 3f 3d c8 a6 bf a9 24 df 3e
       0.028180951 0.8567412 -1.3029858 0.43582657
000170 07 96 f6 bf 58 8a fb 3f c7 78 92 3e b4 d1 8f bf
       -1.9264535 1.9651594 0.2860777 -1.1235871
000180 62 9b a1 bf 02 12 a7 bf 94 c8 05 3f 1a 5a a7 bb
       -1.2625544 -1.305237 0.5225918 -0.0051071765
000190 43 74 63 3f 19 de 4d 3f 9a 8e 8f 3f f0 57 56 3e
       0.88849276 0.8041702 1.1215394 0.20931983
0001a0 bf 09 9d bf 82 af 28 be 33 49 7d 3f b3 fe e8 3e
       -1.2268599 -0.16473201 0.9893982 0.4550682
0001b0 62 61 00 bf f7 b9 18 be bf 77 ad bf 5b 86 ab bf
       -0.50148594 -0.1491469 -1.3552169 -1.3400377
0001c0 9f b1 8c be cf cc b0 bd 3a 00 8f 3f f5 83 ff 3c
       -0.27479264 -0.08632814 1.1171944 0.031190852
0001d0 a5 21 3c bf 3c f1 0a 3e 89 e4 a1 3e e9 e1 7b bf
       -0.7348884 0.13568586 0.3161967 -0.98391587
0001e0 5b 3f aa 3d 23 ae 6f bf 06 87 a8 be 35 19 1c be
       0.08312865 -0.93625087 -0.32915515 -0.1524399
0001f0 8e 6a e0 3e 21 c7 11 c0 94 d7 62 bf cd 78 e6 3e
       0.43831295 -2.2777789 -0.88610196 0.4501404
000200 3e 29 51 3f 2d 07 5e 3f 4e d7 c9 be 1a 56 70 be
       0.81703556 0.867297 -0.39422077 -0.23470345
000210 90 66 32 be 53 5a 36 3f d4 5f 10 bf 87 82 bf bf
       -0.17421937 0.71231574 -0.5639622 -1.4961709
000220 16 0a a8 3e 4e 2c 6b bf fd dd a7 3e 0f 9a c5 be
       0.32820195 -0.9186448 0.3278655 -0.385941
000230 4e 09 27 bf 43 40 4d 3f a5 1f 9b 3e 38 4c be 3e
       -0.6524857 0.8017618 0.3029758 0.37167525
000240 03 df 35 bf b8 28 58 bf 8b fe e0 bf 2d fa 35 bf
       -0.71043414 -0.8443713 -1.757768 -0.7108486
000250 1c f2 40 3e 93 5f 97 3f 24 4b 6f bf 32 7d 10 bf
       0.18842357 1.1826042 -0.9347403 -0.5644103
000260 7f d6 b5 3e 36 ff d7 3e d1 e0 16 bf 52 43 3c 3e
       0.3551521 0.42186898 -0.5893679 0.18385056
000270 23 fe 88 bf ca 9f c5 3f ad c2 94 3f 89 d8 dc 3e
       -1.0702556 1.5439389 1.162191 0.43133953
000280 33 bb 5a bf a8 ea ec 3e cf 4c a4 3e b6 86 8f 3f
       -0.85441893 0.4627278 0.3208985 1.1212986
000290 2e b3 89 bf d9 18 c0 bf 46 c5 d2 be 68 55 1b 40
       -1.0757806 -1.5007583 -0.41166133 2.4270878
0002a0 c2 18 17 bf ed 4c 74 bf e2 ab 05 3d 80 a2 93 3d
       -0.5902215 -0.9542988 0.032634623 0.07208729
0002b0 80 cb a4 bc c4 cf 54 bf 86 e2 56 3f 72 9e 5f be
       -0.020116568 -0.83129525 0.839394 -0.21837786
0002c0 c0 fa 7a be 89 f0 93 bf c2 fa 05 40 e3 8b 3e bd
       -0.24509716 -1.155778 2.09343 -0.046520125
0002d0 d6 e3 44 3e 30 e0 04 bf 97 7d d1 bf bc db ec be
       0.19227538 -0.5190458 -1.6366452 -0.46261394
0002e0 3f f4 31 3f e7 23 a5 bd 42 75 17 bf 8d e1 65 3f
       0.69513315 -0.080634885 -0.59163296 0.8979729
0002f0 95 d7 13 c0 0a 16 00 3f dc 06 8b 3e 90 6f 94 3e
       -2.310033 0.5003363 0.2715367 0.28991365
000300 cb 21 9f bf b4 5c 87 3f fd 0b 9b 3d 44 6a ef bd
       -1.2432188 1.0575166 0.07570646 -0.116901904
000310 59 44 c2 bf d3 56 e6 be 1b 8c ad 3f c8 28 e1 3e
       -1.5177108 -0.44988117 1.3558382 0.43976426
000320 2c 00 a3 bf c2 40 9d bf 03 14 ea bf a8 f6 80 be
       -1.2734427 -1.2285388 -1.8287357 -0.25188184
000330 33 de 29 c0 13 34 17 40 1d 7f 9c bf a1 09 e5 3e
       -2.654187 2.3625534 -1.2226292 0.4473391
000340 92 e7 c0 3e 47 1b 97 be 0a 0a 4b 3f 47 da 97 3e
       0.37676674 -0.29512998 0.79312193 0.2965872
000350 80 ae 49 3f c6 25 2c bf 27 81 ab bf a5 f2 22 3f
       0.7878189 -0.6724514 -1.3398789 0.63651496
000360 12 3b fb bf b8 5b b6 3f bd ae 1f 3e 46 47 14 3f
       -1.9627402 1.424674 0.15594001 0.57921255
000370 20 cc 92 3e 64 82 98 be 2b 48 a8 be 79 6b 63 3f
       0.2867136 -0.2978698 -0.3286756 0.88835865
000380 cd 8f 47 3f f5 29 38 3f 98 a0 41 bf dc 11 61 bf
       0.779538 0.7193902 -0.7563567 -0.87917876
000390 7d 6d b6 bb dd cb 51 bf e6 04 d5 3e c9 f7 b2 3f
       -0.0055672512 -0.81951696 0.416053 1.3981868
0003a0 8a f7 d4 3f 2d c9 a3 bd 2b c3 64 bf 1b e6 5b 3f
       1.6638043 -0.079973556 -0.893603 0.8589799
0003b0 80 dd 64 3f e6 71 d8 3f 52 c5 30 3f a0 8b 3d 3f
       0.8940048 1.6909759 0.69051087 0.74041176
0003c0 83 ea 42 3f 84 79 3f bf 7b c7 e6 3e 86 32 a6 3d
       0.76139086 -0.74794793 0.45074067 0.08115105
0003d0 99 f3 b6 bf f8 71 93 3f 38 d1 c2 3e 3a 22 16 bf
       -1.429309 1.1519156 0.38050246 -0.58645976
0003e0 39 06 c8 3e 94 6e 95 3f 24 54 38 c0 d7 4a 90 be
       0.39067248 1.1674371 -2.8801355 -0.28182098
0003f0 f6 bd 91 3d 79 ef 18 bf aa f5 45 bf 8f 18 04 bd
       0.0711631 -0.59740406 -0.7732798 -0.032249983

h.0.mha.W_q.weight f4 [64, 64]
000000 8f 7a c4 bd c6 a0 62 3c a9 8a 30 3d bf 4d 0d 3e
       -0.09593689 0.013832277 0.043100987 0.13799189
000010 38 80 87 3d 05 57 13 3d 7c 7e ce bd e7 a5 88 3c
       0.06616253 0.03597166 -0.10082719 0.01668067
000020 50 16 18 3d 24 2c d5 bd fe c1 af bd 2c 41 0d bd
       0.037130654 -0.1040881 -0.08581923 -0.03448598
000030 2f 63 51 bc 4d 2a ce 3d 65 4a 82 bd c4 c1 9c bd
       -0.012779995 0.10066662 -0.06361846 -0.07654145
000040 6f 68 cf 3c 25 ef 4b 3d 48 b6 b5 bd 4e 0e f0 3a
       0.025318353 0.049788613 -0.08872658 0.001831481
000050 c6 55 3a 3d c7 58 96 3b dc ae 3a 3d 91 63 9c bd
       0.045491956 0.00458822 0.045576915 -0.07636178
000060 7f e7 08 3e 9d ae 5e 3d ff 29 80 3d 78 18 4b 3c
       0.13369559 0.054365743 0.0625801 0.0123959705
000070 9c 31 dd bd 1e b7 9a bd ba 94 a5 bd b6 4b 36 bb
       -0.10800478 -0.07554458 -0.08085008 -0.0027816123
000080 24 da 22 bd d1 6a 6f 39 6f 5f ab bd c3 80 ba bd
       -0.039758816 0.00022832608 -0.08367812 -0.091065906
000090 57 7c 48 3d 74 23 8f bc 67 a3 49 3c 06 bc 16 bd
       0.048946705 -0.01747296 0.012307025 -0.036800407
0000a0 65 22 3a bc 5b ec b5 bd e4 bd 03 3d ec 0c 8c 3d
       -0.011360739 -0.08882972 0.032163516 0.06838402
0000b0 c4 9e 9e bc 99 a7 9d bd ca f3 c9 3c d8 8c 50 bd
       -0.019362815 -0.07697982 0.02465238 -0.05091557
0000c0 2b 8d c0 3d d5 e9 19 bd 75 0b 9e 3c 50 d0 06 3d
       0.09401926 -0.037576515 0.019292573 0.032913506
0000d0 ba ad 06 bd c8 84 98 bd 39 91 ab bd 42 0a 83 bc
       -0.032880522 -0.07447201 -0.083773084 -0.015996102
0000e0 08 3e bf 3c fb ff be bc 81 17 5a 3d 70 89 97 bd
       0.023345008 -0.02331542 0.05324507 -0.07399261
0000f0 79 99 c2 bd 8b 9a ea 3d 5b d1 87 bc 4f a7 5f 3c
       -0.09501929 0.11455258 -0.01657932 0.013650729
000100 4b 78 2a bc 07 11 0c bc 85 be 66 bd 39 b8 10 3d
       -0.010404657 -0.0085489815 -0.056334037 0.03533194
000110 91 b9 c8 bc 4b 24 b8 bd c4 d9 73 bd 9e f4 2f bd
       -0.024502547 -0.08991297 -0.05953385 -0.042957895
000120 92 b0 8b 3c 2c 18 41 3b 1a 73 80 bd ef b7 9c bd
       0.017051969 0.002946387 -0.06271954 -0.0765227
000130 16 b0 77 bd 71 35 07 bd 10 14 d3 3b 13 e6 bb 3c
       -0.060470663 -0.03300995 0.0064416006 0.022936856
000140 92 92 07 3b 10 a4 12 bd d7 bb c5 3c cb 0f 62 bd
       0.0020686728 -0.035800993 0.02413742 -0.055190843
000150 e0 bd 69 3d 4e 3b 69 bc bc a3 1e bd d7 cf 18 bd
       0.057065845 -0.014235331 -0.038730368 -0.037307587
000160 6b 4f 12 3d 95 86 26 3d 43 30 bb bd cd 6a 92 bd
       0.03572027 0.04065569 -0.091400646 -0.07149277
000170 86 0c 8a 3d d2 94 62 3d 6f a8 93 bd fd 50 72 bd
       0.0674067 0.055317707 -0.072098605 -0.059159268
000180 3d 62 83 bc 0c 43 f6 bc 82 62 34 bd d5 93 92 3d
       -0.016038055 -0.030061267 -0.044039257 0.07157103
000190 b0 98 4f 3d 50 3e 1c bd 8a d3 e9 3c 05 ae ff 3c
       0.050682724 -0.038145363 0.028543252 0.031210909
0001a0 3f ed 9d 3d 1a f9 95 bd ac 16 c8 bd 87 f1 39 bd
       0.07711267 -0.07322903 -0.09769949 -0.045396354
0001b0 23 9f 5e 3d ad dc cd bd 8d c4 39 3c ab 1c 3d bd
       0.054350983 -0.10051856 0.011338365 -0.046169918
0001c0 8e 76 90 bd 69 36 e5 3c 73 8d cc bd 45 5e f0 3c
       -0.070538625 0.027980046 -0.09987917 0.029341826
0001d0 cb c9 e6 3c 1d f1 b3 3b 21 aa 4a bc 91 db 95 bc
       0.028172394 0.0054913894 -0.012369663 -0.018293174
0001e0 2b d3 88 bd 54 35 be bd 18 77 ce 3b de 51 1c bd
       -0.06680902 -0.09287515 0.006300818 -0.038164012
0001f0 bc 77 2a 3b 0d 39 8c 3d bb a8 f3 bc 50 ea 73 bd
       0.0026011309 0.06846819 -0.029743543 -0.05954963
000200 95 88 e6 bd 76 61 df bd b7 6e bf bd 56 88 81 3b
       -0.1125652 -0.10907261 -0.09347289 0.00395302
000210 00 29 33 bd da a9 2e bd d6 60 bc bd 66 d3 bb bd
       -0.043740273 -0.04264245 -0.091981575 -0.091711804
000220 d2 f0 f7 bd 31 21 17 bc 3f 3f ca 3d a4 bc 38 bd
       -0.1210648 -0.009224222 0.098753445 -0.045101777
000230 d6 47 08 39 69 7c b7 bd b0 5b 05 bd 59 cc 41 bd
       0.00012996732 -0.08959276 -0.032558143 -0.04731402
000240 66 71 02 bd af 46 e0 3d a3 77 ac bd a3 05 83 3d
       -0.031846426 0.10950982 -0.084212564 0.063975595
000250 46 3a 95 bd c1 1a 7d 3c e8 32 59 3d d1 3a 92 bc
       -0.072865054 0.015448273 0.053027064 -0.017850311
000260 a0 5a 73 3c a0 72 b8 3d d0 51 54 bc 15 68 11 bd
       0.01485315 0.09006238 -0.012958959 -0.03549965
000270 47 f8 85 bc 9a c8 44 bc f2 23 81 3d 5f ce 6d 3d
       -0.01635374 -0.012010718 0.06305684 0.05805814
000280 5e 1a a2 3d db 3a 43 3b 61 7c 00 3d 40 29 e8 3b
       0.079151854 0.002978972 0.031368617 0.0070849955
000290 d7 5a 30 bd 2f 20 3d bb f3 ca 7a bd 9a 29 92 bd
       -0.04305538 -0.0028858294 -0.061228704 -0.07136841
0002a0 64 cb 50 3d 10 00 19 bd 9d 19 24 bd 37 03 4e 3d
       0.05097522 -0.037353575 -0.04006349 0.050296035
0002b0 68 e0 c0 3c 6c 2d 01 be e7 84 0f 3c 7a 09 03 3d
       0.023544505 -0.12614983 0.008759714 0.03199146
0002c0 b6 c5 b6 bd d7 7c d5 bd 8d cf 8e 3d 0b 8c 03 3e
       -0.08924429 -0.10424202 0.06973181 0.12846391
0002d0 23 a3 43 3d 1a 68 87 3c cb 8c c3 3d 3f a6 ff bb
       0.047763 0.016529132 0.095483385 -0.0078018005
0002e0 96 a9 3d 3d ad 62 09 be 10 c0 b6 bc ca 55 56 bd
       0.046304308 -0.13416548 -0.02230838 -0.05232791
0002f0 04 4a 8e 3d c1 e5 0b bd ec 89 21 bb 27 14 ad bc
       0.06947711 -0.034154657 -0.0024648858 -0.021127773
000300 69 48 62 bc c2 3b 5d 3d f5 01 9b 3d 81 63 76 3d
       -0.013811209 0.054012068 0.07568733 0.060153488
000310 48 d3 58 bd 34 6b ab bd ea 0d 1f bd d4 7b 2e bd
       -0.05293587 -0.08370057 -0.03883163 -0.04259856
000320 8e a4 18 3d de b7 22 bd e0 cd 6d 3d e8 a0 cc bd
       0.037266307 -0.03972613 0.058057666 -0.09991628
000330 de cb 52 bd 69 d5 5c bc ce 72 b2 3d e8 0d bb bc
       -0.051463954 -0.013478615 0.087133035 -0.02283378
000340 23 dd 30 bd ea 28 a9 bd 4e db 90 bd 2e 25 bb 3d
       -0.043179642 -0.08259757 -0.07073079 0.09137951
000350 4e 53 a9 bc 6f 68 a0 bc 93 fc 3b bc bd a9 a2 bd
       -0.020669606 -0.019581048 -0.011473793 -0.07942531
000360 09 e3 35 bc 6e 42 fa bc 62 77 28 bd 8e f4 8e bd
       -0.011101493 -0.030549254 -0.041129477 -0.06980239
000370 d4 67 19 bd d0 b5 b3 bb 31 60 9c bd 43 e1 7e bd
       -0.037452534 -0.00548432 -0.076355346 -0.062226545
000380 c2 ca 53 bc 38 4a 47 3d 86 3e 09 3c c8 6c 63 bd
       -0.012926759 0.048654765 0.008376723 -0.055523664
000390 82 2c 11 3d 97 2b b6 bc 67 8f 97 3c 39 da 04 3d
       0.035442837 -0.022237582 0.018500997 0.032434676
0003a0 6c 63 e4 ba f9 ba 3a bd bb 79 97 ba 81 31 12 be
       -0.001742465 -0.045588467 -0.0011556664 -0.14276697
0003b0 95 b4 ad 3c f9 d5 8d 3d 5a 12 d9 3a 23 b9 25 bd
       0.021204272 0.06925578 0.0016561255 -0.040459763
0003c0 c7 5d 9b 3d 23 ab 26 3d ec 68 8f bd 2c 2b 4d bd
       0.07586246 0.040690552 -0.07002434 -0.05009
0003d0 4c 9f 97 bd 92 8c 67 bc 93 ff ba bb a3 b7 f0 3d
       -0.0740343 -0.014132636 -0.0057067364 0.11753776
0003e0 7b 92 04 3d 97 86 ed 3c f9 eb 94 3d 39 0f bc bd
       0.032366257 0.028994842 0.07271571 -0.09182591
0003f0 5a 19 67 3d 60 22 fd 3c 9c 61 85 3d 65 2c 74 bd
       0.05642066 0.03090018 0.06512758 -0.05961265

h.0.mha.W_q.bias f4 [64]
000000 a2 d5 d8 3d dc 14 95 bd 5c 0b e2 bd d6 c1 df 3c
       0.10587622 -0.07279369 -0.11037323 0.027314108
000010 7d 93 9f bb da e2 7f 3c 5e c7 3e be 75 14 1b be
       -0.004869877 0.0156180505 -0.1863074 -0.15144522
000020 3a 2e 8e 3e dd fd d1 be 97 7f 86 bd ee 0d 8d 3e
       0.27769643 -0.41013995 -0.065673046 0.2754969
000030 33 98 ef 3e ea d9 59 3e 30 cf 41 bf 26 91 3e be
       0.46795806 0.21274534 -0.7570677 -0.18610057
000040 96 75 93 3e e3 6b 31 3f 44 a3 63 3b ba d8 ab 3e
       0.28800648 0.6930525 0.0034734765 0.33563787
000050 08 63 a3 3e 74 c6 cf bd 90 10 aa 3e 66 d1 05 3c
       0.31911492 -0.10145274 0.3321576 0.0081676
000060 66 48 dc bd f7 00 20 be a0 4a 19 bd a2 41 0a 3e
       -0.107559964 -0.15625368 -0.037424684 0.135016
000070 f4 87 10 be 38 31 3c bd 17 29 a3 3d f8 5f 11 be
       -0.14114362 -0.045945376 0.07966822 -0.14196765
000080 20 dc 8e 3b f8 f5 b8 bd 8d f2 11 bb d5 5b f2 bc
       0.004359737 -0.0903129 -0.0022269816 -0.029584805
000090 bd b0 8b bd af cd ec bd 0f 80 cc bd c6 30 d4 bb
       -0.068208195 -0.115626685 -0.09985363 -0.006475541
0000a0 1b 9a b4 3c 55 9b 3f 3d f9 6b c4 3d 99 80 90 3d
       0.02204614 0.046778996 0.09590907 0.07055778
0000b0 c0 1b 9d bd 11 1d a9 bd 35 1a b5 3b 12 f1 f0 bc
       -0.076713085 -0.08257497 0.0055268058 -0.029411826
0000c0 7c 55 56 3d 60 1a 13 3e 70 b4 0a bd d7 44 46 3a
       0.052327618 0.1436553 -0.033863485 0.00075633585
0000d0 54 54 c4 b9 e9 b5 2d bd 04 93 91 bd 96 d8 a7 3c
       -0.00037446863 -0.04240981 -0.07108119 0.020489018
0000e0 04 47 e8 3c 6f b5 03 3e ad 98 ca bb 5e ea 59 3d
       0.028354175 0.1286218 -0.006182751 0.053202026
0000f0 67 44 65 bb 0d 21 1b b9 2a 16 e6 3c 9d 3e 74 3d
       -0.0034983398 -0.00014794264 0.02808674 0.059630025

h.0.mha.W_k.weight f4 [64, 64]
000000 a0 b2 e3 bd de 8c 34 bd 97 9c 72 3d 21 f6 56 3d
       -0.111180544 -0.044079654 0.059231367 0.05248082
000010 e5 88 e4 bb 1e c0 e2 3d b1 cf aa 3d a4 24 ea 3d
       -0.006974327 0.110718 0.08340395 0.1143277
000020 37 a0 a7 bd 5d b8 d1 bc 8d 68 c2 bc bd 21 91 bc
       -0.081848554 -0.025600607 -0.023731494 -0.017716283
000030 63 f9 75 3d 51 6e 79 3d c3 98 dc 3c 59 29 34 bc
       0.060052287 0.06089622 0.026928311 -0.010996186
000040 97 8f f6 bc 38 4b ff 38 70 6a d7 3b 91 ea 42 be
       -0.030097766 0.00012173358 0.0065739676 -0.19034792
000050 fa 97 a7 3c 64 e0 21 bd 11 23 0a bb d3 2d d7 bc
       0.02045821 -0.039520636 -0.002107803 -0.026266968
000060 45 20 9b 3d d8 27 43 3d 70 56 80 3d 44 49 d6 3d
       0.07574514 0.04764542 0.06266487 0.10463193
000070 f4 9b 31 3c 45 a8 ac bd 59 89 cf bd 36 6f d5 bd
       0.010840405 -0.08430532 -0.10133619 -0.104216024
000080 3a 9b bb bc d8 29 64 bd 45 62 c2 bd 1c 0b 12 bd
       -0.022901166 -0.055703968 -0.094914 -0.035655126
000090 d8 94 bd bd 65 12 4a bc e2 6e 06 3d c7 1a 59 3d
       -0.09256905 -0.012333487 0.03282059 0.053004052
0000a0 74 5d 12 3d 35 1a 89 3d d7 81 95 3d b1 2b f9 3c
       0.035733655 0.06694452 0.073001556 0.030416341
0000b0 fe 9b 3e 3d e6 57 85 bd 22 f3 16 bd 85 23 12 3d
       0.046535484 -0.06510906 -0.036852963 0.035678405
0000c0 1d c3 01 bc 87 64 ac 3b a6 0e fc bc 9b 4f d0 ba
       -0.007920054 0.005261007 -0.030768704 -0.0015892865
0000d0 e3 86 a6 3d a3 ac 4a bd 86 d6 23 bd 51 ed 5b bd
       0.08131196 -0.049481045 -0.039999507 -0.05369312
0000e0 a7 71 41 bd 03 b4 7c bd e9 93 dd bd 54 fc 04 bd
       -0.047227528 -0.06169511 -0.10819227 -0.0324672
0000f0 ed 74 bb bb f2 ff e7 bc c0 89 b1 3d 20 2c 89 3d
       -0.0057207257 -0.028320286 0.08668852 0.06697869
000100 2c e9 91 bb ab cd 6c 3d 3b bb 37 3c 1c 69 4f bd
       -0.004452845 0.057813328 0.011214073 -0.05063735
000110 23 92 7e bc f4 62 b4 bc b4 04 c3 bc ec 23 6c 3d
       -0.015537771 -0.02201984 -0.023805954 0.057651445
000120 46 65 86 3c c7 d6 b6 bc 33 18 25 bd e8 91 8c bd
       0.016405713 -0.02231921 -0.04030628 -0.06863767
000130 44 a7 f6 3c 58 41 92 3b 2e fe 85 3d e9 02 fc 3d
       0.030109055 0.004463356 0.065426216 0.123052426
000140 31 33 57 3d 33 0c 28 3d fb 20 62 bd f6 b2 63 bd
       0.052539054 0.04102726 -0.055207234 -0.055590592
000150 ea a1 7b bc f6 01 d2 39 76 64 e0 bd a0 0c c2 3b
       -0.015358428 0.00040055782 -0.109566614 0.005921915
000160 88 88 5e 3c c7 3a b6 bd 47 60 58 3d f0 e4 90 3d
       0.013582356 -0.0889793 0.052826192 0.07074916
000170 eb ed 91 3d 35 70 f7 bd ff 11 da bd a9 df a4 bd
       0.071254574 -0.12081949 -0.10647964 -0.08050472
000180 71 23 4a bd 3e ea 25 3d 25 84 16 bd 2d f8 1d bd
       -0.049350206 0.040506594 -0.036747117 -0.038566757
000190 3a 3a 74 3d ab 4a 14 3e d3 08 ef 3c b5 e6 c8 3c
       0.05962584 0.14481609 0.029179012 0.024524072
0001a0 8b 8f aa bc fe 80 4f 3d d3 b5 9b bc d4 3d f6 3b
       -0.0208204 0.050660126 -0.019007599 0.0075146947
0001b0 2c 25 2a 3c fc d1 a9 bd 88 6c a4 bc cb 64 8b 3d
       0.010384839 -0.082920045 -0.020071283 0.06806334
0001c0 02 06 c2 3d c8 0f cd 3d 55 58 0a bd 08 e6 8a bd
       0.09473802 0.10012776 -0.033775646 -0.06782156
0001d0 4d 15 10 3b 66 d7 8c bd ab 82 96 bd f2 93 29 3d
       0.0021985353 -0.068770215 -0.07349142 0.041400857
0001e0 81 26 9b 3c c8 54 d0 bd 33 62 91 3d 54 23 5f 3d
       0.018939259 -0.10172421 0.07098808 0.05447705
0001f0 b4 7c c4 bd 67 93 8e 3c 5c 3f ca bd 08 68 28 bd
       -0.09594098 0.017404271 -0.09875366 -0.041114837
000200 ba 64 c1 bd 6c 51 90 3c a2 02 2e bd 95 39 e0 bc
       -0.0944304 0.01761695 -0.04248298 -0.027371207
000210 89 54 7b 3d e4 72 4b 3d 9b 89 12 3c ea 35 60 bc
       0.061359916 0.049670115 0.0089439405 -0.013684729
000220 25 1b 16 bd 85 48 40 3d af f9 88 3d 53 fc c2 b9
       -0.03664698 0.04694416 0.06688248 -0.0003719056
000230 ca 43 6a bd 75 68 14 bc 8e 2d 63 3d 7e 07 96 bd
       -0.057193555 -0.009058108 0.055463366 -0.07325648
000240 23 66 67 bd ce 79 8f bd f6 99 ab bd 11 7b 19 bd
       -0.05649389 -0.07005654 -0.08378975 -0.03747088
000250 e3 b9 ef bd 54 04 66 bc 5c 46 6e 3d a2 d6 f4 bc
       -0.11705377 -0.014039118 0.05817257 -0.029887501
000260 60 bb 83 bc 65 e6 a6 bc c8 b9 5b 3d b6 1c 0d bd
       -0.016080558 -0.020373533 0.05364397 -0.03445121
000270 3a 13 bf bc 27 46 c9 bc 0b 4e d1 3d 4c 2e a3 bd
       -0.023324598 -0.024569584 0.10219964 -0.07967815
000280 a8 19 71 bd cc 36 e0 3c b7 cb 4a bc a3 c4 59 3d
       -0.05886236 0.02736988 -0.012377671 0.053166043
000290 dd 88 09 bc c8 9c 77 3d 63 fe 94 ba e7 a7 37 3d
       -0.008394447 0.060452253 -0.0011367317 0.04483786
0002a0 d7 46 da bc de 10 cc 3c f0 e8 18 be 34 b5 8b 3c
       -0.026645107 0.024910387 -0.14932609 0.017054178
0002b0 ef 11 60 bd 79 71 aa 3c 60 32 bd bd 05 7d cd 3c
       -0.054704603 0.020806061 -0.09238124 0.025084028
0002c0 33 93 d8 3b 94 f2 1c 3d 9c b9 1f 3d de d2 15 bd
       0.0066093444 0.038317278 0.03899537 -0.03657805
0002d0 2e d2 de 3d 04 71 e0 bd fc 71 04 3e 1e 92 12 3d
       0.10879932 -0.10959056 0.12934107 0.03578388
0002e0 8d ca 81 bc 97 e6 a5 3d 2d 88 a1 bc 7d a8 63 3c
       -0.015843654 0.08100622 -0.019718254 0.013895151
0002f0 e4 67 81 bd 3c 52 8a 3d cd b6 6b bd 28 8a 68 3d
       -0.06318644 0.06753966 -0.05754738 0.05677238
000300 90 cb c4 bd 69 36 28 bc 52 a8 df 39 29 9b 14 bc
       -0.09609139 -0.010266879 0.00042659283 -0.009070196
000310 ff 0a 6c bd f6 7f 9b bd 41 a7 79 bd e5 0d 78 3d
       -0.057627674 -0.07592766 -0.06095052 0.060560126
000320 e9 7f 90 bb 89 90 72 bb dd 62 27 bd 90 ce 88 bd
       -0.0044097793 -0.003701242 -0.040865768 -0.06680024
000330 a0 57 50 bc 7d 5c 55 bd 5c ea 3a 3d 3f 1b 7d bd
       -0.012716204 -0.052090157 0.04563366 -0.061793562
000340 02 c8 d5 3d 4b c2 f2 3c 9f 71 00 be 5d 1d 4f 3c
       0.10438539 0.029633662 -0.12543343 0.012641278
000350 5b a0 1a bd 4b e2 dd bd df 27 e7 bd 55 21 9a 3d
       -0.037750583 -0.108341776 -0.11286902 0.07525889
000360 2b 41 1b 3d 12 56 a8 3c c0 23 96 bc 42 e4 1d be
       0.037903946 0.020548854 -0.018327594 -0.15419105
000370 50 c9 15 3d be fe 59 3d 5b 81 f1 3b 48 92 d6 bd
       0.03656894 0.053221457 0.0073701567 -0.1047712
000380 34 31 01 be 93 e7 ac 3d 85 cc b9 bd a8 e2 a5 3b
       -0.12616426 0.08442607 -0.09072212 0.00506242
000390 2b 34 a2 bd 6c 69 43 3d 1a fd 14 3d b2 16 b3 3c
       -0.079201065 0.04770796 0.03637419 0.021861408
0003a0 c4 08 28 3e 5f 6e 88 bd 88 ae 0a ba 67 e9 a1 bd
       0.16409594 -0.066616766 -0.00052902894 -0.07905846
0003b0 f0 f4 2d 3a 03 63 56 3d 8b e9 4b bc d0 11 25 3d
       0.0006635925 0.05234052 -0.012445818 0.04030019
0003c0 f1 dc d7 3c fe b2 6d bd 1c de e8 3b 3d 68 9a bc
       0.02635047 -0.05803203 0.0071065556 -0.018848533
0003d0 88 03 9a 3d 9f 73 12 3d 7b b6 9e 3c 61 16 87 bd
       0.07520205 0.035754796 0.019374123 -0.06596065
0003e0 d9 3d 39 3c cf 70 e6 3c e6 ab d3 3c f2 4d f3 bd
       0.01130625 0.028129963 0.025838803 -0.11880101
0003f0 47 8c 09 3e 02 44 3a 3b de cc 5c bd 30 1b b1 3c
       0.13432418 0.0028421883 -0.053906314 0.02161941

h.0.mha.W_k.bias f4 [64]
000000 ce 5a bb 3d 28 92 45 bc 02 a7 37 3d 2c 37 c5 bd
       0.09148179 -0.012058772 0.044837005 -0.09629664
000010 6b 95 04 bd b2 73 7e bd a8 1f 02 3d f5 87 0d be
       -0.03236906 -0.062122054 0.03176847 -0.13821395
000020 da 74 41 be 38 2a b1 be 94 c9 85 3e 4a 64 f4 bd
       -0.18892232 -0.34602523 0.26130354 -0.11933191
000030 45 ac 65 3e b4 46 0d bf c2 92 1c 3f 50 4f 9a 3e
       0.22428997 -0.5518601 0.61161435 0.30138636
000040 4a 5b 26 bf 9d cd 80 be 69 a7 bd be 6f 75 e8 3d
       -0.64983046 -0.2515687 -0.37041786 0.11350524
000050 30 22 97 bd 87 ce 14 3e d3 3c 90 3d c0 43 0f 3e
       -0.073795676 0.14531909 0.07042851 0.13990688
000060 b6 27 e1 3d 79 14 4e bd 19 89 84 3e 9f e7 5f be
       0.109939024 -0.050312493 0.25885847 -0.218657
000070 5b c2 65 3e 63 7a a5 be 83 81 ad 3d 61 48 47 3c
       0.22437422 -0.32319936 0.08471968 0.012163253
000080 03 d2 31 3b ef 2f dd 3c b8 31 ff bc d6 b1 61 3d
       0.0027133233 0.027000396 -0.031151637 0.05510124
000090 1d 86 4f 3d 2a 36 cf 3c 11 94 48 be 96 6a a9 bd
       0.05066501 0.025294382 -0.19587733 -0.08272283
0000a0 43 ef 8b bd d0 55 3b 3e ba 63 76 be ef 27 7e 3d
       -0.06832745 0.18294454 -0.2406148 0.062049802
0000b0 15 2a 7c 3e d9 37 2b be 7c 3f 77 bd 0e 90 b4 be
       0.24625428 -0.16720523 -0.060363278 -0.35266155
0000c0 93 e0 ce bd 0a cb de 3d e1 46 a7 bd 3c 4f cf bd
       -0.10101428 0.108785704 -0.08167816 -0.10122535
0000d0 ee e4 d1 3d d0 8f 1f be 28 6a e1 3d 68 7f e9 3c
       0.10248743 -0.15582204 0.11006576 0.028503135
0000e0 46 8e 8b bd 5e 7b ca bd e7 c8 19 be e9 dd 56 be
       -0.06814246 -0.09886812 -0.15018044 -0.2098309
0000f0 de 27 b9 3d 68 87 37 bd 51 af d3 be b7 ee b8 bd
       0.09040807 -0.044806868 -0.41344693 -0.09029906

h.0.mha.W_v.weight f4 [64, 64]
000000 94 ce 67 3d c2 fe 2b be c8 af 67 3d a4 4c 81 3e
       0.056593493 -0.16796401 0.056564122 0.25253785
000010 41 a1 3d 3c 66 71 0b 3d 07 10 b8 3d f9 f3 25 3c
       0.01157409 0.034043692 0.08987432 0.010128968
000020 15 d2 a8 bb 78 47 12 ba c5 e6 47 3d 78 7a 87 3c
       -0.005151997 -0.00055801077 0.048804063 0.01653789
000030 db 37 c7 bd dc e2 6f bd dd 2c a3 3c 40 f6 e7 bd
       -0.097274505 -0.05856596 0.019918853 -0.11326265
000040 c6 b0 22 3e e3 32 15 3d 6a ad 3f 3b 55 e8 e6 bd
       0.15887746 0.036425482 0.002924765 -0.112747826
000050 fc b4 e4 3d 6e ba fe 3d d9 08 86 bd 33 e4 2e 3e
       0.111673325 0.124379024 -0.06544656 0.17079239
000060 9c a7 5e bd 17 bf 2d 3d cb 89 93 3d 19 de d6 bd
       -0.054359064 0.042418566 0.07204016 -0.104915805
000070 b3 f3 4f 3c 1e a7 89 3b 41 69 e8 3d d2 9d 70 bd
       0.01269238 0.00420083 0.113482006 -0.05874426
000080 67 2e 16 be b0 ff 0a ba 12 e3 82 be f5 76 23 be
       -0.14666139 -0.00053023826 -0.25563866 -0.15963347
000090 bc d6 0a be 60 78 28 bd d6 33 9a 3d 7b f9 69 3c
       -0.13558477 -0.041130424 0.07529418 0.014280672
0000a0 44 09 16 be d6 0a f1 3c fc f9 99 bc 82 da 35 3d
       -0.14651972 0.029424112 -0.01879596 0.04439784
0000b0 af 28 5e be ef fe a6 ba 28 9f 34 3c 7a 41 50 3e
       -0.21695207 -0.0012740771 0.011024274 0.20337477
0000c0 c8 db ab bc 92 44 94 bd 81 be 40 bd 66 e9 60 3d
       -0.020978823 -0.07239641 -0.04705668 0.054910086
0000d0 db 4d bf 3d a7 75 40 3e 41 7e 1c bd 7c 08 0d 3e
       0.093410216 0.18794881 -0.038206343 0.13772768
0000e0 b9 5d 1f 3e 63 ee 07 bd 28 66 c0 3d f2 92 28 be
       0.15563096 -0.033186328 0.09394485 -0.16462305
0000f0 67 8b 85 bd 5d c4 90 bd 8b 09 fb bc ff 30 7c 3d
       -0.065207295 -0.07068703 -0.030644199 0.061570164
000100 4d f0 ed 3c 96 ab 9a bc 12 7f e0 3d 3d e2 62 bd
       0.029045248 -0.018880647 0.10961737 -0.05539154
000110 09 83 af 3d 47 14 38 3d 69 e1 ab 3e 82 34 de 3d
       0.08569915 0.044941213 0.33570412 0.10849859
000120 20 28 40 3e a8 f9 ac bd ad 80 a6 bc 7f da 8f 3d
       0.18765306 -0.08446056 -0.02032503 0.07024097
000130 63 df 18 3e 86 01 c3 bd be 55 96 3c 3f a1 6a 3e
       0.14928965 -0.09521775 0.018351432 0.22913073
000140 ef 95 58 3d 81 f8 20 be 6c 56 05 be 4f 24 2d 3e
       0.052877363 -0.15719797 -0.13021249 0.16908382
000150 f4 9c 5e 3d 6c 41 08 be a3 7a 06 3c 1e 68 23 3d
       0.0543489 -0.13306206 0.00820795 0.039894216
000160 66 44 5f 3e b8 2e 89 3e f2 3a 18 be fd fb 16 3d
       0.21803436 0.26793456 -0.14866236 0.03686141
000170 22 f3 fb 3c 44 b0 9c bd 02 d0 3f bd d3 cb 9a 3d
       0.030755583 -0.076508075 -0.04682923 0.07558408
000180 79 6c a8 bc c6 ec bb 3c da 2a 12 bd 35 e3 84 bd
       -0.020559536 0.02294005 -0.035685398 -0.06488649
000190 2c 61 25 bd 37 fc 4b 3e e5 0d 13 be 02 39 82 bd
       -0.040375873 0.19920431 -0.14360769 -0.063585296
0001a0 52 9d a2 bd c3 a3 0d 3d b1 59 ed bd 31 06 49 3d
       -0.07940163 0.034580003 -0.11589373 0.04907817
0001b0 23 46 83 3d 51 3a 9e bd b0 23 0d bd 04 e4 7a bd
       0.06409862 -0.07725967 -0.034457862 -0.06125261
0001c0 7c a4 96 3d fd 83 e8 bd c7 dc ac 3d 74 45 2b be
       0.07355592 -0.113533 0.084405474 -0.16725713
0001d0 e1 45 fc bd ef ad 11 3e 8f 10 3f be 42 19 a4 bd
       -0.12318016 0.14226507 -0.1865866 -0.0801263
0001e0 f1 c9 09 3d 0f 35 4d 3e d8 f0 53 bd 60 41 88 bd
       0.033639852 0.20039771 -0.05174336 -0.06653094
0001f0 b1 dc 19 bd f5 dc 27 3e d8 9d 4f 3e 8a 93 12 bd
       -0.037563983 0.16392882 0.20275056 -0.035785235
000200 49 47 f0 3c c4 fd 56 3d ef cf 39 3d 7f 0a 20 bb
       0.029330866 0.052488104 0.045364317 -0.0024420319
000210 65 c8 00 3e ca 40 28 bd 68 ce 7c 3b a6 2f a7 bd
       0.12576444 -0.041077413 0.0038575176 -0.08163385
000220 d5 93 e7 bd ee e0 fe b9 7f a2 c3 bd 3f fd 1e 3d
       -0.113074936 -0.0004861424 -0.09552478 0.038815733
000230 b3 06 c3 3b d4 31 ea 3d 84 88 c2 3d 49 5a 07 be
       0.0059517263 0.11435285 0.094986945 -0.13218035
000240 22 e7 5a 3d 7f 5d d1 bd 01 1b 33 3d fa d2 70 3e
       0.05344308 -0.10222911 0.043726925 0.23517981
000250 2f 4a 4e bd 0f 4a 68 3d 4f 5e 1b bc 7b e9 05 3e
       -0.050363716 0.056711253 -0.009482934 0.13077347
000260 c9 34 07 bc 06 f4 78 3d 13 ba b7 3d f7 f3 ca 3d
       -0.008252331 0.060779594 0.08971038 0.09909814
000270 bf 0b f5 bd 7a 67 a3 3d e7 32 ea bc 89 24 9b 3d
       -0.11965131 0.07978721 -0.028588725 0.07575328
000280 4f 3e 28 be 99 6f 3a 3e 76 b2 a3 3c 90 d8 2c bc
       -0.16430019 0.18206634 0.019982558 -0.010549679
000290 af d5 7a bd c5 7d 95 3d a8 25 d5 bd 0d d2 04 be
       -0.06123894 0.07299379 -0.10407573 -0.12970753
0002a0 2e 7a 89 3d f4 7e d5 bd a4 a3 80 3d 0a 9b e2 bc
       0.06712757 -0.10424605 0.06281212 -0.027661819
0002b0 47 44 54 bd 94 8d 2f be 85 9e c0 3c cf 77 de 3d
       -0.051822927 -0.17143852 0.023513088 0.108626954
0002c0 03 19 26 bd b7 b8 f9 3d 54 99 15 be d4 ce 4c bc
       -0.040551197 0.12193435 -0.14609271 -0.012500484
0002d0 34 60 ed bd 34 78 e1 3d 91 94 74 3d 8e 6e 21 bb
       -0.11590615 0.11009255 0.059711996 -0.0024632546
0002e0 e2 5a 83 bc 4d 65 45 bd 59 77 02 bd 23 19 39 3d
       -0.016034547 -0.04819231 -0.0318521 0.045189988
0002f0 2e c3 63 3c 6a 5f b1 3d 08 a5 c5 bd 65 b6 24 3d
       0.013901515 0.08660777 -0.09650618 0.040213007
000300 33 86 f5 bc 1d 95 aa bc 63 98 6a bd 37 17 de 3c
       -0.029971218 -0.020823056 -0.057274234 0.02711068
000310 f3 c8 87 3b c8 f9 84 3e 54 99 63 be 23 a2 5b bd
       0.004143828 0.25971818 -0.22226459 -0.053621422
000320 1e 89 10 be ee 90 83 bd 6f cc 58 3c ea 48 f9 bd
       -0.14114806 -0.064241275 0.0132323345 -0.121721104
000330 c7 5a 7d 3c 76 27 45 be 0c 3a 33 bd 11 07 31 bd
       0.015463538 -0.19253334 -0.04375653 -0.04321963
000340 23 e3 f0 bd ce 59 d3 bd 32 22 8c bd c7 68 39 3e
       -0.11762073 -0.10319863 -0.0684246 0.18106376
000350 51 00 83 3d b5 30 62 bd 56 78 93 3d 31 f9 24 3e
       0.06396545 -0.055222232 0.07200687 0.16110684
000360 1d 37 9f bb 47 20 0a bc 13 18 cc 3d a2 7a ce 3c
       -0.004858865 -0.008430547 0.09965529 0.02520496
000370 5d 79 d1 3d 84 69 87 bd 11 31 a9 bd 3c 1e 1b be
       0.10228226 -0.066119224 -0.08261312 -0.15148252
000380 fd 38 57 ba ff 42 0d 3e eb 25 3d 3e 19 c9 a5 3d
       -0.0008210091 0.13795088 0.18471496 0.08094997
000390 01 a4 c9 bd f5 c2 0c 3e 1e 06 50 bd 21 8f 25 3e
       -0.098457344 0.13746245 -0.050787084 0.1616788
0003a0 6d a5 18 be 3d 2a 65 3e 81 7a db 3d 60 bc c5 3c
       -0.14906855 0.22379394 0.10716725 0.024137676
0003b0 1b 4d 1c be 66 17 23 3e f3 d7 9a bd 14 85 cf bb
       -0.15263788 0.15926895 -0.0756072 -0.006333003
0003c0 95 0d a6 3d d8 23 03 be a0 54 e9 bc 8d 1d b5 3d
       0.08108059 -0.12806642 -0.028482735 0.08843527
0003d0 3d 47 34 bd d1 5d b5 bd dc 13 c8 3c bc 4b c0 bd
       -0.04401325 -0.08855785 0.024423532 -0.09389445
0003e0 47 11 5e 3d a2 46 6a bc 91 d9 b9 bd 81 3c 0d bd
       0.054215696 -0.014299067 -0.090747006 -0.03448153
0003f0 12 1a 2c bd d3 5a b8 3d 56 6c 49 be ab e9 2e be
       -0.04201705 0.09001698 -0.19670233 -0.17081325

h.0.mha.W_v.bias f4 [64]
000000 c0 a0 62 3d 1a c9 2d bc 84 c4 86 bd d5 0b 0e 3d
       0.055329084 -0.010607028 -0.06580451 0.034679253
000010 a5 e6 93 3d b1 60 02 bd ed c6 b9 3d 3a 0e 13 ba
       0.07221726 -0.031830493 0.09071145 -0.0005609725
000020 c6 b5 b4 bd 36 76 6b 3d 0e f4 55 3d 93 a6 0a bd
       -0.08823733 0.05748578 0.0522347 -0.033850264
000030 73 7d 87 3d 44 28 18 bb 9f 89 c6 bc 8f 72 fe bd
       0.066157244 -0.002321736 -0.024235545 -0.12424194
000040 da ea 42 bd 54 fb 11 bd 48 0d 0c bd 39 36 a0 3d
       -0.047587253 -0.035640076 -0.034192353 0.07822842
000050 16 b9 15 bd 1c 81 6a 3c ca ad c3 3d 98 f7 b2 3c
       -0.036553465 0.014313009 0.09554632 0.021846578
000060 83 6f cb 3d 4d 32 92 bc 01 99 61 3d a2 12 05 3d
       0.099333785 -0.01784625 0.055077557 0.032488473
000070 9d 6b 25 3c b7 d8 5d bd 2e bd fb bd 3d 2e d4 bd
       0.010096458 -0.054161754 -0.122919425 -0.10360382
000080 1e 4d 87 bd 22 5b a5 bd 7d 6e d3 3d ab 22 9c 3d
       -0.06606506 -0.08074023 0.10323808 0.076238
000090 fc 63 d0 3c 9e 72 7b 3d 9b 00 ba bd f1 1e 83 bd
       0.025438301 0.061388604 -0.09082147 -0.06402386
0000a0 f9 48 68 3c 55 79 27 3d 70 55 00 bd 90 41 a4 bd
       0.014177554 0.040887196 -0.03133148 -0.080203176
0000b0 09 55 a7 3c f1 75 ee bd 6f 24 31 bd d6 c2 a5 bd
       0.02042629 -0.11643589 -0.043247636 -0.08093803
0000c0 34 7d 4a 3d b2 07 32 3d 5f 43 63 3d 54 d5 d9 bc
       0.04943581 0.04346437 0.055484172 -0.02659098
0000d0 14 46 9f bd a4 5d a4 bc fc 0c d5 bd 49 9e a3 3d
       -0.07777038 -0.020064183 -0.10402867 0.07989175
0000e0 63 eb a0 bd d6 f2 a7 bd a8 4e 4e 3d 74 1c 89 3d
       -0.078573965 -0.08200614 0.05036798 0.0669488
0000f0 bf 24 ae bd 82 5c 18 bc 9b f8 be 3d 5e 0b 27 3d
       -0.085031025 -0.009299399 0.093247615 0.040782325

h.0.mha.W_o.weight f4 [64, 64]
000000 66 8a 8f bd a5 f8 2f bd 73 ee 65 3c 44 b5 e9 3d
       -0.07008819 -0.042961735 0.0140339015 0.11411527
000010 71 8b a9 bb 5e 70 c2 39 32 97 a5 bd 99 47 49 bc
       -0.0051740934 0.00037086284 -0.08085479 -0.012285137
000020 46 eb fa 3b 35 43 c8 bd ca a5 e9 bc 1e 5d b1 bc
       0.0076574413 -0.09778444 -0.028521437 -0.021650847
000030 ed 00 9a bd e9 1f 04 3e 35 d0 39 3e 33 b1 a9 bd
       -0.07519708 0.12902798 0.18145831 -0.08285751
000040 e5 39 10 3d 83 d4 0f bd b3 74 19 3d ac ed 28 3e
       0.035211463 -0.035114776 0.03746481 0.16496915
000050 31 51 45 3e 5d 24 9e bc 8c a0 19 be e5 51 29 3e
       0.19269253 -0.019304449 -0.1500265 0.16535147
000060 a4 1f 49 3c 7e 86 f8 bd 5d 3b 32 3d 8e 42 f8 bd
       0.01227561 -0.12135027 0.043513644 -0.12122069
000070 d4 cd ee 3c ac 18 8e 3c 9a 7b b9 3c 61 97 ea bd
       0.02915088 0.017345749 0.022641946 -0.114546545
000080 dc c4 27 3d c2 ea 9e 3c b0 9b 5f be e9 81 5d 3e
       0.040959224 0.01939905 -0.21836734 0.21631588
000090 10 fd 6b 3d c1 a4 22 3b fc c0 e4 3c 98 35 8b bc
       0.057614386 0.002481744 0.027924053 -0.016993329
0000a0 6c 22 55 bc 6a 8c 13 3d 03 ec dc 3d db 54 35 3e
       -0.013008695 0.03602258 0.10787203 0.17708151
0000b0 5d 02 f0 bd f9 fd 7d bd 42 2c d5 bb 0a ea 53 3d
       -0.11719201 -0.062009785 -0.00650552 0.05173687
0000c0 2d 13 f8 bd 33 eb ae bb 6d 7a c3 bc 49 5d 18 3d
       -0.121130325 -0.0053380965 -0.023862088 0.03719834
0000d0 d6 db 51 3c 90 3f 48 bb 22 02 ee 3d 90 b7 f6 bc
       0.012808761 -0.0030555464 0.116215006 -0.030116826
0000e0 dc d5 b7 bd b1 24 5b bd d8 c8 22 3c 70 4e 02 be
       -0.08976337 -0.05350179 0.00993558 -0.12725234
0000f0 5c 6a e1 3d 40 69 68 3c bf 9e 96 3d 54 7d 95 3d
       0.110066146 0.01418525 0.07354497 0.07299295
000100 56 81 97 bd 94 13 ab 3e 7b 94 46 3d 24 a5 91 bd
       -0.07397716 0.33413374 0.048481446 -0.07111576
000110 3a dc 15 3d bf d5 a6 3c 18 95 31 bd 20 3b 3d 3e
       0.036586978 0.020365594 -0.043355078 0.18479586
000120 3b e4 86 bc e9 63 9b bc d2 49 18 be 5c 8a d3 bc
       -0.01646625 -0.01896854 -0.1487191 -0.02582281
000130 f1 73 8f 3d 50 c8 8a 3d fe c6 0f be 76 45 17 3d
       0.07004536 0.06776488 -0.14040753 0.036931477
000140 a8 29 92 3d be e6 83 3d 9b 8c b0 3d 5d 8b ee bd
       0.071368515 0.06440495 0.08620568 -0.11647675
000150 1f bd 1f 3e 2a d1 c2 3c e6 72 bc bd be 2a 1e be
       0.15599488 0.023781378 -0.09201603 -0.15445992
000160 5a 57 7f 3d 37 44 80 3c e2 14 cd 3d 64 e8 f0 bd
       0.062339164 0.015657527 0.10013749 -0.11763075
000170 9b d3 d1 bd 2b 27 7a 3a 31 97 c3 3d 9f 54 1d 3d
       -0.10245439 0.00095425796 0.09550322 0.03841078
000180 e5 5c bd bd 56 cc df 3d 1a cc c7 bc 52 59 ec bc
       -0.09246234 0.10927646 -0.024389315 -0.028851185
000190 57 d3 b1 3d de 16 4c be 88 33 36 be e8 e7 06 be
       0.08682888 -0.19930598 -0.17793095 -0.13174403
0001a0 48 18 4e bc 55 14 8f 3e be 8c 20 be 3a ba 8e 3d
       -0.012579031 0.279452 -0.15678689 0.06969114
0001b0 ce 25 41 3d 99 54 36 3d ad f6 82 3d 00 a2 a8 3c
       0.047155194 0.044514272 0.06394706 0.02058506
0001c0 40 ec 00 3e 4f ce 51 bc 09 2d b2 bb 72 ed da 3d
       0.12590122 -0.012805535 -0.0054374975 0.1068982
0001d0 7a f1 89 bd 5c 10 3c bd d6 f9 fa 3d c2 22 da bd
       -0.06735511 -0.04591404 0.12254684 -0.10651161
0001e0 72 e5 b0 3d 10 9f 75 bd 83 80 62 bd 3f 63 e4 3d
       0.08637513 -0.059966147 -0.05529834 0.11151742
0001f0 21 c8 0e 3e c7 b2 e4 bd a4 6e b7 bd 6a 56 06 be
       0.1394353 -0.111669116 -0.0895665 -0.13118902
000200 7f be fc bc ff d5 27 3d a9 c5 8d 3d 3a 86 84 bd
       -0.030852554 0.040975567 0.06922466 -0.06470914
000210 59 f5 f4 3b 69 6d 9e bd bf 4a 40 be 35 72 aa bd
       0.007475537 -0.07735712 -0.18778513 -0.083225645
000220 24 02 b1 3c fa d8 02 3e 36 95 d0 3c a5 7c 56 3e
       0.021607466 0.12778082 0.025461774 0.20945986
000230 36 9b 2c be e1 71 0c 3e 9a 2f cd 3c 13 62 f2 bd
       -0.16856083 0.13715316 0.025047112 -0.118351124
000240 c6 e6 0c bd ff 57 0d be df 57 26 bd 19 0e 5f be
       -0.03439977 -0.13803099 -0.040611144 -0.21782722
000250 de 0d 12 3c 48 f7 bd 3d 62 ad c3 bd e5 26 1b 3d
       0.008914439 0.09275681 -0.095545545 0.03787889
000260 c0 80 82 3d 31 47 8e bd bf a6 46 be 78 d9 3b 3e
       0.06372213 -0.069471724 -0.19399546 0.18344676
000270 14 f9 0b bd c9 e4 2e 3c 3f f0 a3 3b 9e 8d a1 bd
       -0.034173086 0.010674664 0.005003005 -0.078883395
000280 a1 2b e0 bd ff 0d 80 bd 42 9d 1e bd 6c 22 90 bd
       -0.109458216 -0.062526695 -0.03872419 -0.070378155
000290 45 97 58 bd af 38 fe 3d 67 0d a3 3d 39 98 32 3d
       -0.052878637 0.12413155 0.07961541 0.043602202
0002a0 7d b0 25 be 48 a1 d3 bc 53 46 94 3d 30 07 31 3e
       -0.16180606 -0.02583374 0.07239976 0.17287898
0002b0 70 14 2d 3d 2e fa a4 3d 1a 15 87 bd 0a 96 10 bd
       0.04225582 0.080555305 -0.06595822 -0.03529934
0002c0 f9 05 b1 3d a9 45 12 3e 64 91 19 be 27 a5 68 be
       0.08643717 0.14284386 -0.14996868 -0.2271925
0002d0 b7 b5 9d bd b6 60 05 bd d2 73 9d 3d 25 04 c4 bd
       -0.07700675 -0.032562934 0.076881066 -0.09571103
0002e0 4f 55 e7 3d b8 bb b0 3d 19 a7 9e 3c 05 60 a6 bd
       0.11295568 0.086295545 0.019366788 -0.08123783
0002f0 9e 8a 9e 3d ca 3c 72 bc 5c 19 82 bd 65 ce 03 3c
       0.07741283 -0.014785001 -0.06352493 0.008044814
000300 85 af 71 3d 23 ab 99 3d 54 56 07 be e7 0d c4 3d
       0.05900528 0.07503345 -0.13216525 0.09572964
000310 4a e2 1e 3e 65 37 81 3c 09 67 08 3e dd 55 b4 3d
       0.1551601 0.015773484 0.13320555 0.088054396
000320 6c f0 e2 bd f7 b6 28 bd a3 32 a9 3c 43 49 1c bd
       -0.11081013 -0.041190114 0.020654028 -0.038155805
000330 f8 f3 70 be d2 83 eb bd 02 da 1d bd 4b a4 0b be
       -0.23530567 -0.11499752 -0.038537987 -0.13636892
000340 a5 39 83 be cf 4c 68 3a 5a 5a b0 3d 15 82 b6 3a
       -0.25629917 0.0008861543 0.08610983 0.0013924266
000350 08 33 7b 3d e1 81 cd bd 06 38 bb bc d6 2c e4 bd
       0.061327964 -0.10034538 -0.022853862 -0.11141364
000360 7e 53 f7 bd 28 38 87 bd 60 d5 ad bc 72 6a 0e bc
       -0.12076472 -0.06602508 -0.02121991 -0.008692371
000370 c7 23 96 bc 3a 6a 95 bd c2 e2 2f 3d 3f 25 80 3d
       -0.018327607 -0.07295652 0.042940862 0.06257104
000380 c8 9c c8 bd 99 46 a8 3d 60 54 88 3c 9d ed f1 bb
       -0.09795529 0.082165904 0.016641796 -0.007383062
000390 b4 aa 83 ba a2 9f 2d be 0b 33 9b bc fb 86 a6 3e
       -0.001004538 -0.16955426 -0.018945238 0.32524857
0003a0 4e 95 74 3e f5 71 b9 bc dd bc 3d 3d d5 1f 63 3d
       0.2388508 -0.022637347 0.046322692 0.05545028
0003b0 84 f4 79 bc 40 ec a8 bd 52 42 39 bc 7d ae 5f 3d
       -0.015256051 -0.08248186 -0.011307316 0.054609764
0003c0 0d 4a dd 3d 3d a9 47 be 84 f5 6d be 25 8f d4 3d
       0.1080514 -0.19498153 -0.23238188 0.10378865
0003d0 5a be c3 bd 64 39 4f bc 84 5c b9 3d 92 44 54 3c
       -0.09557791 -0.01264796 0.09050849 0.012955802
0003e0 4f ab e8 3d ff ab b6 bd 11 15 ce bd a3 64 26 3d
       0.113607995 -0.089195244 -0.10062612 0.04062332
0003f0 13 5e 1d 3d b8 a3 21 bc 5e 00 95 bd 20 fc db 3d
       0.038419794 -0.009865694 -0.07275461 0.107414484

h.0.mha.W_o.bias f4 [64]
000000 be 00 20 be cf ae 67 bc e1 42 19 3e 9c ed 05 3c
       -0.15625283 -0.014140799 0.14966919 0.008174326
000010 35 ba be bd 63 09 1f 3e 46 90 27 3e ae 6b e8 bd
       -0.0931286 0.15530924 0.1636363 -0.11348663
000020 ff 59 df 3c d4 46 05 be 11 8f c7 3b 27 91 c1 3d
       0.027264593 -0.130153 0.006090053 0.09451514
000030 db ee 71 bd a1 d1 56 3c c3 59 04 be 2b ec a9 3d
       -0.05906568 0.013111503 -0.12924866 0.082969986
000040 17 f6 51 bc 77 12 98 bd 70 c6 a9 bd 0a c9 dc 3c
       -0.01281502 -0.07425397 -0.08289802 0.026951332
000050 33 99 04 be fc 2e 84 bd 41 e8 c4 bd d3 41 2a bd
       -0.12949066 -0.06454274 -0.096146114 -0.04156668
000060 05 6f 69 3c a0 58 b6 bd d8 99 bc bc 24 b1 15 3e
       0.0142476605 -0.089036226 -0.023022577 0.14618355
000070 0c 64 79 bd 59 b0 09 3e 2a fc 15 3e 5c 0a 44 3d
       -0.060886428 0.13446178 0.14646974 0.047861442
000080 2e df 9b bd 36 17 f1 bd b9 f8 27 be b5 d1 11 3e
       -0.076109275 -0.11772005 -0.16403474 0.14240153
000090 08 13 c2 3d 16 0b 46 3e d4 cd f2 bd 51 a8 f8 bc
       0.09476286 0.19340166 -0.11855665 -0.030353697
0000a0 54 5b a1 bd 02 2e 0b be 61 4e 63 3d 9e 58 09 3d
       -0.078787476 -0.1359177 0.05549467 0.033531778
0000b0 6e 97 39 bd 74 19 0d bd 7a 80 a6 bd f7 75 80 3d
       -0.04531043 -0.034448102 -0.08129974 0.062725
0000c0 b0 f5 f6 3d 69 07 07 bd 27 a1 1f be 6b 26 bc 3d
       0.1205858 -0.03296605 -0.15588818 0.09187015
0000d0 c4 5b 52 bd 35 0c 1f 3e cd c4 e5 3d 49 0d a2 3a
       -0.051357046 0.15532 0.112191774 0.0012363578
0000e0 1b 5d 0e bd 81 26 c3 bd 76 51 ee 3b 32 ed 72 bd
       -0.03475676 -0.095288284 0.0072728945 -0.05930824
0000f0 0c e0 d0 3d 66 3d 9b 3d 64 ac 03 3e 65 85 d3 3d
       0.101989836 0.0758007 0.1285873 0.10328177

h.0.ln_1.weight f4 [64]
000000 7d a9 7b 3f 6b 91 65 3f 5b 30 83 3f 84 5d 73 3f
       0.98305494 0.89675015 1.0249132 0.9506457
000010 7a e7 4f 3f 36 ae 6d 3f 26 0d 66 3f 99 e0 7c 3f
       0.8121258 0.9284395 0.8986381 0.9878021
000020 72 bf 6b 3f ed 4d 69 3f 98 0a 72 3f 70 68 72 3f
       0.92089 0.9113453 0.94547415 0.9469061
000030 01 de 65 3f bb 75 6a 3f 0e 2e 53 3f 7b 2a 7c 3f
       0.89791876 0.9158589 0.8249215 0.9850232
000040 b5 a7 77 3f 1c c9 5c 3f 64 32 55 3f 10 f0 56 3f
       0.96740276 0.8624437 0.83280015 0.83960056
000050 51 5a 86 3f 9c 68 65 3f 8e f9 53 3f c2 49 6b 3f
       1.0496312 0.89612746 0.82802665 0.9190942
000060 82 91 67 3f 03 94 5e 3f 4d 30 81 3f 01 c3 59 3f
       0.904564 0.869446 1.0092865 0.8506318
000070 83 77 5c 3f 47 b0 5e 3f fc 51 81 3f 67 fd 71 3f
       0.8611986 0.8698773 1.0103145 0.94527286
000080 16 6e 5b 3f ad 9d 6c 3f 9e b0 68 3f 0d ce 73 3f
       0.8571485 0.92428094 0.90894496 0.95236284
000090 f2 5d 67 3f a4 31 81 3f ee 9d 7a 3f f6 f6 62 3f
       0.90377724 1.0093274 0.9789723 0.8865808
0000a0 d8 16 44 3f a3 48 7e 3f ff 9f 68 3f 24 db 72 3f
       0.76597357 0.99329585 0.90869135 0.9486563
0000b0 3a ff 79 3f c7 75 74 3f a4 85 82 3f 5b 70 6a 3f
       0.9765507 0.95492214 1.0197034 0.9157769
0000c0 8a b3 6c 3f ba 0e 73 3f 97 d5 61 3f cb 58 85 3f
       0.92461455 0.94944346 0.8821654 1.0417722
0000d0 17 05 5b 3f e7 e0 7b 3f 9c 2b 5f 3f ec 58 81 3f
       0.8555464 0.9839005 0.8717592 1.0105262
0000e0 29 0e 75 3f b9 88 61 3f 4c 48 7b 3f de 74 67 3f
       0.9572473 0.8809925 0.9815719 0.904127
0000f0 14 e7 5b 3f 26 fb 67 3f b3 33 7b 3f 88 20 69 3f
       0.8589947 0.906176 0.9812576 0.91065264

h.0.ln_1.bias f4 [64]
000000 a1 38 86 b8 d0 50 79 bd 68 39 87 bb c2 fd a0 3c
       -6.400166e-05 -0.060868084 -0.0041267164 0.019652251
000010 a6 f4 96 bd b5 b9 51 bd b8 79 99 3b b1 9b af 3c
       -0.07370882 -0.051202495 0.0046836995 0.021436544
000020 d7 04 5c bc 69 75 10 bd 91 a5 fe b9 b3 39 19 3d
       -0.013428888 -0.03526822 -0.00048570012 0.037408542
000030 82 1d 6c 3a 9a 18 02 bd a4 e5 80 bc 74 73 6f bd
       0.00090070826 -0.031761743 -0.015734501 -0.058459714
000040 b7 49 17 3d 31 04 28 b7 c8 e2 2a 3d 04 24 13 3c
       0.036935534 -1.0014556e-05 0.04172018 0.008980755
000050 ba 45 21 bd 40 64 4c bc e9 21 84 3d 23 28 56 bc
       -0.039373137 -0.012475073 0.0645178 -0.013071093
000060 d8 9e 74 bc 96 87 0e bd 46 42 c2 bc ae 8c 42 3d
       -0.014930449 -0.034797274 -0.023713242 0.047497444
000070 0b fa 9b bd 9b 4c 55 3b c7 66 01 3c f7 d7 72 3c
       -0.07616051 0.003254688 0.007898039 0.014821998
000080 07 d7 58 3d b5 3f 31 3d 7d 0c 75 bc 1c 3d 81 3c
       0.05293944 0.043273646 -0.014956591 0.01577621
000090 3a 27 f3 3c fc df 36 3c 1a 1c e6 3b e6 2b 5e 3c
       0.02968179 0.0111618005 0.007022393 0.013560271
0000a0 b1 db 5a bc e6 f8 1c 3d 2b 87 fd 3b 72 c0 87 3d
       -0.013358043 0.038323306 0.0077370605 0.06628503
0000b0 4a 05 d9 3b ca cc 4b 3c 97 7e 5e 3c ee b1 b8 3d
       0.006622945 0.012438962 0.013579986 0.090183124
0000c0 6c cd 0e 3c 0a dc b6 3d 02 8e a4 bc 43 cd 50 3d
       0.008715969 0.08928688 -0.020087246 0.050977003
0000d0 1b 46 a0 3b 2a a5 54 bd 2a 16 09 bc 31 60 1c ba
       0.0048911697 -0.051915325 -0.008367101 -0.00059652614
0000e0 d4 4e 29 3c 6f f2 3e 3c 44 74 23 3c 84 d7 ac bc
       0.0103337355 0.01165448 0.00997645 -0.02109886
0000f0 4b 66 4d bc 1f 1a 82 3c db 37 e7 ba ce f2 02 3d
       -0.012536596 0.015881596 -0.0017640548 0.031969838

h.0.ln_2.weight f4 [64]
000000 00 00 80 3f 00 00 80 3f 00 00 80 3f 00 00 80 3f
       1.0 1.0 1.0 1.0
000010 00 00 80 3f 00 00 80 3f 00 00 80 3f 00 00 80 3f
       1.0 1.0 1.0 1.0
000020 00 00 80 3f 00 00 80 3f 00 00 80 3f 00 00 80 3f
       1.0 1.0 1.0 1.0
000030 00 00 80 3f 00 00 80 3f 00 00 80 3f 00 00 80 3f
       1.0 1.0 1.0 1.0
000040 00 00 80 3f 00 00 80 3f 00 00 80 3f 00 00 80 3f
       1.0 1.0 1.0 1.0
000050 00 00 80 3f 00 00 80 3f 00 00 80 3f 00 00 80 3f
       1.0 1.0 1.0 1.0
000060 00 00 80 3f 00 00 80 3f 00 00 80 3f 00 00 80 3f
       1.0 1.0 1.0 1.0
000070 00 00 80 3f 00 00 80 3f 00 00 80 3f 00 00 80 3f
       1.0 1.0 1.0 1.0
000080 00 00 80 3f 00 00 80 3f 00 00 80 3f 00 00 80 3f
       1.0 1.0 1.0 1.0
000090 00 00 80 3f 00 00 80 3f 00 00 80 3f 00 00 80 3f
       1.0 1.0 1.0 1.0
0000a0 00 00 80 3f 00 00 80 3f 00 00 80 3f 00 00 80 3f
       1.0 1.0 1.0 1.0
0000b0 00 00 80 3f 00 00 80 3f 00 00 80 3f 00 00 80 3f
       1.0 1.0 1.0 1.0
0000c0 00 00 80 3f 00 00 80 3f 00 00 80 3f 00 00 80 3f
       1.0 1.0 1.0 1.0
0000d0 00 00 80 3f 00 00 80 3f 00 00 80 3f 00 00 80 3f
       1.0 1.0 1.0 1.0
0000e0 00 00 80 3f 00 00 80 3f 00 00 80 3f 00 00 80 3f
       1.0 1.0 1.0 1.0
0000f0 00 00 80 3f 00 00 80 3f 00 00 80 3f 00 00 80 3f
       1.0 1.0 1.0 1.0

h.0.ln_2.bias f4 [64]
000000 00 00 00 00 00 00 00 00 00 00 00 00 00 00 00 00
       0.0 0.0 0.0 0.0
000010 00 00 00 00 00 00 00 00 00 00 00 00 00 00 00 00
       0.0 0.0 0.0 0.0
000020 00 00 00 00 00 00 00 00 00 00 00 00 00 00 00 00
       0.0 0.0 0.0 0.0
000030 00 00 00 00 00 00 00 00 00 00 00 00 00 00 00 00
       0.0 0.0 0.0 0.0
000040 00 00 00 00 00 00 00 00 00 00 00 00 00 00 00 00
       0.0 0.0 0.0 0.0
000050 00 00 00 00 00 00 00 00 00 00 00 00 00 00 00 00
       0.0 0.0 0.0 0.0
000060 00 00 00 00 00 00 00 00 00 00 00 00 00 00 00 00
       0.0 0.0 0.0 0.0
000070 00 00 00 00 00 00 00 00 00 00 00 00 00 00 00 00
       0.0 0.0 0.0 0.0
000080 00 00 00 00 00 00 00 00 00 00 00 00 00 00 00 00
       0.0 0.0 0.0 0.0
000090 00 00 00 00 00 00 00 00 00 00 00 00 00 00 00 00
       0.0 0.0 0.0 0.0
0000a0 00 00 00 00 00 00 00 00 00 00 00 00 00 00 00 00
       0.0 0.0 0.0 0.0
0000b0 00 00 00 00 00 00 00 00 00 00 00 00 00 00 00 00
       0.0 0.0 0.0 0.0
0000c0 00 00 00 00 00 00 00 00 00 00 00 00 00 00 00 00
       0.0 0.0 0.0 0.0
0000d0 00 00 00 00 00 00 00 00 00 00 00 00 00 00 00 00
       0.0 0.0 0.0 0.0
0000e0 00 00 00 00 00 00 00 00 00 00 00 00 00 00 00 00
       0.0 0.0 0.0 0.0
0000f0 00 00 00 00 00 00 00 00 00 00 00 00 00 00 00 00
       0.0 0.0 0.0 0.0

ln_f.weight f4 [64]
000000 00 00 80 3f 00 00 80 3f 00 00 80 3f 00 00 80 3f
       1.0 1.0 1.0 1.0
000010 00 00 80 3f 00 00 80 3f 00 00 80 3f 00 00 80 3f
       1.0 1.0 1.0 1.0
000020 00 00 80 3f 00 00 80 3f 00 00 80 3f 00 00 80 3f
       1.0 1.0 1.0 1.0
000030 00 00 80 3f 00 00 80 3f 00 00 80 3f 00 00 80 3f
       1.0 1.0 1.0 1.0
000040 00 00 80 3f 00 00 80 3f 00 00 80 3f 00 00 80 3f
       1.0 1.0 1.0 1.0
000050 00 00 80 3f 00 00 80 3f 00 00 80 3f 00 00 80 3f
       1.0 1.0 1.0 1.0
000060 00 00 80 3f 00 00 80 3f 00 00 80 3f 00 00 80 3f
       1.0 1.0 1.0 1.0
000070 00 00 80 3f 00 00 80 3f 00 00 80 3f 00 00 80 3f
       1.0 1.0 1.0 1.0
000080 00 00 80 3f 00 00 80 3f 00 00 80 3f 00 00 80 3f
       1.0 1.0 1.0 1.0
000090 00 00 80 3f 00 00 80 3f 00 00 80 3f 00 00 80 3f
       1.0 1.0 1.0 1.0
0000a0 00 00 80 3f 00 00 80 3f 00 00 80 3f 00 00 80 3f
       1.0 1.0 1.0 1.0
0000b0 00 00 80 3f 00 00 80 3f 00 00 80 3f 00 00 80 3f
       1.0 1.0 1.0 1.0
0000c0 00 00 80 3f 00 00 80 3f 00 00 80 3f 00 00 80 3f
       1.0 1.0 1.0 1.0
0000d0 00 00 80 3f 00 00 80 3f 00 00 80 3f 00 00 80 3f
       1.0 1.0 1.0 1.0
0000e0 00 00 80 3f 00 00 80 3f 00 00 80 3f 00 00 80 3f
       1.0 1.0 1.0 1.0
0000f0 00 00 80 3f 00 00 80 3f 00 00 80 3f 00 00 80 3f
       1.0 1.0 1.0 1.0
