subspace-alignment/data/1_layer_32_vocab/ckpt_9700.pt (torch, 90637 bytes, 17 tensors)

embed.embed.weight f4 [32, 64]
-0.14939545 0.51394886 0.55578035 0.12559573 -0.035410088 -0.5852455 -1.0349746 -0.104326665
-0.39001602 0.16730666 -1.4685305 0.38044623 -0.28842506 -0.75789577 0.7563297 0.015796423
0.18301094 0.04045313 0.6952012 -0.59518677 -0.54768497 1.3821678 1.2808645 -0.8673823
-2.0151467 1.2662734 -0.83641416 2.012215 0.760213 0.7314614 -0.44420373 0.49094942
0.80939674 -0.7977092 0.24198365 -0.89934504 -1.0233895 0.5951636 -0.8254624 0.7106338
-1.6541877 -0.8573284 0.18636355 0.6768752 1.0930568 0.6759342 -0.4694797 -0.5506934
-0.6999745 -1.3938512 -0.13095392 -0.2786278 0.305844 1.0194817 0.047368106 -0.90981245
0.31677848 -0.49082708 -1.2362899 -1.406584 0.4253711 -0.28733575 0.035770588 0.77610946
0.52865577 -1.0571957 -0.99699223 0.13887726 1.7272843 -0.94734955 -0.2545092 -0.556083
0.30204478 -0.33301294 0.048810344 0.4390752 0.34348387 0.44357544 0.009214208 0.72781795
1.0661228 -0.51186025 0.97593474 0.31111798 0.2207114 -0.39655712 1.4742767 0.41427195
-0.0032456997 0.7933109 -1.2714763 0.4577839 -1.8169333 1.9087644 0.31219703 -1.0332208
-1.2119529 -1.2072662 0.45827702 0.014179109 0.83734596 0.77270114 1.0399573 0.24583241
-1.1942847 -0.17474075 0.8824201 0.45305306 -0.4185773 -0.15331511 -1.3117298 -1.2499287
-0.24336305 -0.08412931 1.0426944 0.061414912 -0.73345625 0.12701337 0.2995439 -0.9754502
0.083039284 -0.8927057 -0.36849618 -0.1389384 0.40291974 -2.1475506 -0.8080775 0.4416424
0.7671065 0.7980551 -0.370355 -0.22803989 -0.16341445 0.6743545 -0.5251727 -1.4248227
0.29362926 -0.8732506 0.29549876 -0.35662553 -0.6598594 0.80101895 0.2863756 0.3377358
-0.6615693 -0.7886238 -1.659088 -0.6457153 0.15779164 1.1044618 -0.8550031 -0.5247629
0.3233901 0.39093736 -0.5809786 0.19422065 -1.0248032 1.5005703 1.1294976 0.3969097
-0.81753033 0.4074495 0.2989209 1.0553707 -0.985063 -1.4047902 -0.39536905 2.3670323
-0.57976025 -0.90510166 0.033367246 0.061213356 -0.011142206 -0.7917292 0.7812464 -0.20072682
-0.21713024 -1.0732528 1.9677749 -0.034432974 0.16773397 -0.45831448 -1.510898 -0.4501834
0.6377617 -0.0899139 -0.60469586 0.8334512 -2.1470497 0.44571882 0.22770678 0.28429446
-1.138685 0.9740851 0.0672353 -0.11871925 -1.4081829 -0.39500967 1.2544472 0.39090654
-1.1537544 -1.1706054 -1.7641375 -0.22819638 -2.5907674 2.2988367 -1.1402665 0.39294896
0.3373187 -0.28764963 0.75541264 0.2711928 0.73284316 -0.6323423 -1.2425886 0.5552046
-1.8891559 1.3197173 0.13213584 0.5690713 0.25487807 -0.24470393 -0.28990653 0.81605685
0.7255698 0.65900844 -0.7204169 -0.81198895 -0.012170573 -0.76585746 0.37426907 1.3701749
1.5726323 -0.10044693 -0.8153037 0.815336 0.82208335 1.5638323 0.6469411 0.682668
0.680163 -0.700217 0.42513478 0.102697045 -1.3881848 1.052945 0.33550277 -0.60063076
0.3536938 1.0656105 -2.8253424 -0.2564565 0.061504595 -0.56422436 -0.7081992 -0.020324048
00000000: 1ffb 18be 2792 033f 9f47 0e3f 2b9c 003e
00000010: 2b0a 11bd a6d2 15bf 0c7a 84bf 38a9 d5bd
00000020: 2eb0 c7be 7052 2b3e cff8 bbbf d9c9 c23e
00000030: 73ac 93be 7505 42bf d39e 413f 8067 813c
00000040: 3867 3b3e 2eb2 253d b5f8 313f 295e 18bf
00000050: 1535 0cbf e0ea b03f 5ef3 a33f c40c 5ebf
00000060: 2af8 00c0 3f15 a23f 3d1f 56bf 21c8 0040
00000070: 529d 423f 0e41 3b3f ac6e e3be b95d fb3e
00000080: a034 4f3f ac36 4cbf 90ca 773e 7a3b 66bf
00000090: 6dfe 82bf a45c 183f 8151 53bf 19ec 353f
000000a0: 6cbc d3bf e079 5bbf 16d6 3e3e b147 2d3f
000000b0: 49e9 8b3f 060a 2d3f a55f f0be 3efa 0cbf
000000c0: 8731 33bf b769 b2bf c918 06be 4ea8 8ebe
000000d0: 9697 9c3e 607e 823f 0f05 423d 78e9 68bf
000000e0: ca30 a23e b04d fbbe bf3e 9ebf f20a b4bf
000000f0: 3eca d93e ac1d 93be 2e84 123d 1caf 463f
00000100: fc55 073f 3052 87bf e23a 7fbf d735 0e3e
00000110: a717 dd3f 8085 72bf 084f 82be 755b 0ebf
00000120: 9da5 9a3e ac80 aabe 5bed 473d 77ce e03e
00000130: 1edd af3e 521c e33e 31f7 163c 4752 3a3f
00000140: b676 883f 4609 03bf dcd6 793f db4a 9f3e
00000150: 2b02 623e 8909 cbbe 19b5 bc3f 741b d43e
00000160: ceb5 54bb 6c16 4b3f bcbf a2bf a762 ea3e
00000170: 4591 e8bf 6452 f43f 4ad8 9f3e 9440 84bf
00000180: 4621 9bbf b387 9abf 49a3 ea3e 7e4f 683c
00000190: 4e5c 563f becf 453f 521d 853f 7ebb 7b3e
000001a0: 52de 98bf 3def 32be 49e6 613f 92f6 e73e
000001b0: c44f d6be a3fe 1cbe c3e6 a7bf aafd 9fbf
000001c0: 2a34 79be fd4b acbd 0377 853f 348e 7b3d
000001d0: cac3 3bbf cb0f 023e d15d 993e 1bb7 79bf
000001e0: 8010 aa3d 5c88 64bf 88ab bcbe de45 0ebe
000001f0: 7f4b ce3e 7871 09c0 2bde 4ebf f41e e23e
00000200: 1761 443f 574d 4c3f 2c9f bdbe 4a83 69be
00000210: 1e56 27be 7fa2 2c3f b871 06bf 9760 b6bf
00000220: 9356 963e 5a8d 5fbf 9d4b 973e 9f97 b6be
00000230: 8cec 28bf 940f 4d3f d39f 923e b5eb ac3e
00000240: 9b5c 29bf 40e3 49bf ff5c d4bf 994d 25bf
00000250: 2294 213e 015f 8d3f 7ce1 5abf dd56 06bf
00000260: 6393 a53e f128 c83e 03bb 14bf c7e1 463e
00000270: c02c 83bf b012 c03f 6193 903f c037 cb3e
00000280: ab49 51bf 399d d03e 290c 993e 6316 873f
00000290: 172d 7cbf 2ad0 b3bf d06d cabe 757d 1740
000002a0: 2b6b 14bf beb4 67bf 18ac 083d dbba 7a3d
000002b0: cd8d 36bc c4ae 4abf c4ff 473f 558b 4dbe
000002c0: 6457 5ebe 5960 89bf 0ce0 fb3f 9709 0dbd
000002d0: 74c2 2b3e 32a8 eabe 1b65 c1bf 707e e6be
000002e0: 5a44 233f c724 b8bd 59cd 1abf 0f5d 553f
000002f0: 4369 09c0 4235 e43e f72b 693e 0b8f 913e
00000300: 6ec0 91bf a45d 793f a9b2 893d 1423 f3bd
00000310: 563f b4bf b53e cabe ba91 a03f e724 c83e
00000320: 39ae 93bf 66d6 95bf 42cf e1bf 50ac 69be
00000330: 22cf 25c0 2420 1340 41f4 91bf 9b30 c93e
00000340: 09b5 ac3e d046 93be b962 413f c8d9 8a3e
00000350: 9c9b 3b3f 2fe1 21bf 250d 9fbf e321 0e3f
00000360: dccf f1bf 7fec a83f 9e4e 073e a8ae 113f
00000370: 617f 823e ab93 7abe a16e 94be 1ae9 503f
00000380: f1be 393f c7b4 283f 3e6d 38bf 82de 4fbf
00000390: 1567 47bc 3c0f 44bf 32a0 bf3e e461 af3f
000003a0: 044c c93f 1fb7 cdbd beb7 50bf dcb9 503f
000003b0: 0e74 523f a82b c83f ef9d 253f 54c3 2e3f
000003c0: 2a1f 2e3f 6c41 33bf 44ab d93e d452 d23d
000003d0: 0ab0 b1bf e7c6 863f 05c7 ab3e f0c2 19bf
000003e0: 5b17 b53e ed65 883f 69d2 34c0 444e 83be
000003f0: 3eec 7b3d 0271 10bf 8b4c 35bf 9e7e a6bc

h.0.mha.W_q.weight f4 [64, 64]
-0.07210615 0.013122477 0.02017447 0.12077753 0.06785163 0.082181334 -0.079289444 0.007941673
-0.037420694 -0.12763236 -0.102099106 -0.024212176 -0.035167553 0.12804739 -0.042315166 -0.0629329
0.045808688 0.07591565 -0.055353597 0.0744333 0.056808174 -0.0292316 0.15449308 -0.06506511
0.074122675 0.054605164 0.02721687 0.024131566 -0.10188368 -0.09334625 -0.055008523 -0.03417254
-0.106642105 -0.055001043 -0.12109027 -0.119534515 0.06933216 0.021983132 0.02348307 -0.026152126
-0.0460272 -0.0723019 0.010718589 0.034024708 -0.018114885 -0.049890697 -0.0009410119 -0.06491725
0.008973515 -0.0008313235 -0.04716665 0.08917602 -0.04772051 -0.029852584 -0.043861587 -0.0133897485
0.07352162 0.03154916 0.060023997 -0.071436204 -0.024117189 0.05298986 0.01255767 0.02521128
-0.008208214 -0.045813628 -0.019665077 0.051015954 -0.045755 -0.07793545 -0.043762095 0.0067382
0.06454376 -0.030411486 -0.09951151 -0.08934391 -0.059465352 -0.02120985 -0.026832769 0.05486946
0.010317671 -0.001571827 0.020703763 -0.066605926 0.042445775 -0.033033963 -0.074593924 0.01011111
0.03157295 0.028955525 -0.07204419 -0.08679925 0.03922264 0.03971587 -0.090982735 -0.044371724
-0.047623143 -0.013563103 0.017507942 0.07739809 0.056738965 -0.022632657 0.0064773015 0.0077237734
0.060582943 0.022930892 -0.08424584 -0.016499646 -0.0011000187 -0.14518051 -0.0028230252 -0.057284996
-0.038336255 0.005786828 -0.123398006 0.0144179575 0.0063544577 0.056618012 -0.033340603 -0.037611984
-0.10538161 -0.012568261 0.013899795 -0.014716393 -0.010712202 0.08640881 0.018588869 -0.06989079
-0.044209484 -0.09126161 -0.120480984 0.050732452 -0.058321685 -0.045469698 -0.045062616 -0.06382427
-0.15616181 -0.02072941 0.095593244 -0.018595438 -0.024294931 -0.067201525 -0.07766132 -0.04488544
-0.088240504 0.10416641 -0.11233944 0.13311942 -0.08279972 0.0020114707 0.07632324 -0.022544209
-0.0001596424 0.06835989 -0.011275354 -0.06748576 -0.055362225 -0.029560128 0.08867374 0.004819076
0.029356046 0.009107105 0.048654117 0.08053826 -0.0030999042 -0.04138626 -0.013590782 -0.043910217
0.07033081 -0.019482069 -0.022266043 -0.01764589 0.013494446 -0.091731556 0.013138699 0.039465614
-0.092650324 -0.035505585 0.045288946 0.15995672 -0.042722017 0.005759794 0.07091202 -0.07432061
0.1129613 -0.06225042 -0.025846943 0.014864261 0.05354418 -0.044268083 -0.009795515 -0.0038516005
0.03243436 -0.026781254 0.057711042 -0.020965934 -0.04569114 -0.09302958 -0.040150825 -0.08746997
0.032417707 -0.03154407 0.012371611 -0.12746166 -0.050885655 0.011260492 0.040504076 0.07597097
-0.10741258 -0.028104588 -0.0627404 0.017167566 -0.013294279 -0.01932053 -0.030340428 -0.055144053
0.013367299 -0.020445997 -0.013563291 -0.05176221 -0.0146021 -0.036392227 -0.12028828 -0.06722253
0.011911488 0.08113126 0.07527467 -0.10231713 0.022640843 -0.05670598 0.083969355 0.010715952
0.0035817942 -0.042733353 0.0012078593 -0.16111733 0.0065955133 0.078896694 0.055162158 -0.091348976
0.14602381 0.044683937 0.01593094 -0.076783046 0.0085925795 0.01316203 -0.0020249558 0.07850765
0.008501253 0.06489067 0.10045347 -0.07128604 0.018659014 -0.039774816 0.05566244 -0.07835372
00000000: 64ac 93bd a8ff 563c ee44 a53c 365a f73d
00000010: ccf5 8a3d b04e a83d 8162 a2bd ca1d 023c
00000020: 7146 19bd 0fb2 02be 5619 d1bd 9d58 c6bc
00000030: da0b 10bd db1e 033e ab52 2dbd f7e2 80bd
00000040: e4a1 3b3d aa79 9b3d 74ba 62bd 7c70 983d
00000050: b0af 683d 1c77 efbc 6f33 1e3e db40 85bd
00000060: a1cd 973d aaa9 5f3d eaf5 de3c 90af c53c
00000070: 64a8 d0bd 522c bfbd 9e50 61bd 81f8 0bbd
00000080: 2d67 dabd c648 61bd 2dfe f7bd 83ce f4bd
00000090: 05fe 8d3d f815 b43c 915f c03c fc3c d6bc
000000a0: 0487 3cbd 0513 94bd 059d 2f3c 7e5d 0b3d
000000b0: ab65 94bc 305a 4cbd 3dae 76ba 56f3 84bd
000000c0: a605 133c 2ded 59ba d131 41bd eba1 b63d
000000d0: 9576 43bd 688d f4bc 35a8 33bd ad60 5bbc
000000e0: 8192 963d b139 013d b9db 753d 254d 92bd
000000f0: 6991 c5bc e50b 593d afbe 4d3c e387 ce3c
00000100: bf7b 06bc 12a7 3bbd a818 a1bc 1bf6 503d
00000110: 9869 3bbd 9f9c 9fbd e23f 33bd 1ecc dc3b
00000120: 852f 843d 8221 f9bc b1cc cbbd f1f9 b6bd
00000130: f191 73bd 48c0 adbc 65d0 dbbc cdbe 603d
00000140: 730b 293c c305 ceba f09a a93c b068 88bd
00000150: 9fdb 2d3d 9f4e 07bd b3c4 98bd 12a9 253c
00000160: a352 013d 2334 ed3c e78b 93bd cec3 b1bd
00000170: eba7 203d 1cad 223d 2855 babd 20bf 35bd
00000180: 7c10 43bd c737 5ebc d16c 8f3c e482 9e3d
00000190: 1e67 683d 1f68 b9bc 8b3f d43b b517 fd3b
000001a0: d225 783d 91d9 bb3c 1589 acbd 442a 87bc
000001b0: 812e 90ba 33aa 14be 8102 39bb aca3 6abd
000001c0: 7a06 1dbd 6f9f bd3b 18b8 fcbd 4c39 6c3c
000001d0: 0e39 d03b 4ae8 673d 2890 08bd 060f 1abd
000001e0: 50d2 d7bd 1beb 4dbc f7bb 633c 071d 71bc
000001f0: 3b82 2fbc 1af7 b03d af47 983c e722 8fbd
00000200: 0115 35bd 5ee7 babd bcbe f6bd d5cc 4f3d
00000210: b8e2 6ebd 6f3e 3abd 9493 38bd 4db6 82bd
00000220: e2e8 1fbe b9d0 a9bc 64c6 c33d 7655 98bc
00000230: 2a06 c7bc f4a0 89bd e60c 9fbd ccd9 37bd
00000240: 70b7 b4bd 3355 d53d 3812 e6bd 7550 083e
00000250: e692 a9bd e1d2 033b 5c4f 9c3d a2ae b8bc
00000260: ae65 27b9 4500 8c3d 43bc 38bc f935 8abd
00000270: 80c3 62bd 1528 f2bc 949a b53d 57e9 9d3b
00000280: 177c f03c f835 153c 8a49 473d 3ef1 a43d
00000290: c327 4bbb a484 29bd dfab 5ebc 33db 33bd
000002a0: 9a09 903d dc98 9fbc 4767 b6bc 1d8e 90bc
000002b0: cf17 5d3c c1dd bbbd b343 573c b2a6 213d
000002c0: 74bf bdbd 4e6e 11bd e780 393d b2cb 233e
000002d0: 48fd 2ebd a7bc bc3b 523a 913d 6735 98bd
000002e0: 4158 e73d 4cfa 7ebd f8bc d3bc 3b89 733c
000002f0: 2451 5b3d 7352 35bd 5e7d 20bc 226b 7cbb
00000300: e4d9 043d 5c64 dbbc 6a62 6c3d c0c0 abbc
00000310: a226 3bbd 4b86 bebd 3175 24bd 7523 b3bd
00000320: 6ec8 043d 5b34 01bd 4cb2 4a3c 4f85 02be
00000330: 7a6d 50bd ed7d 383c 9ae7 253d ab96 9b3d
00000340: 20fb dbbd 983b e6bc 0a7e 80bd ffa2 8c3c
00000350: 3fd0 59bc 1746 9ebc 7d8c f8bc bbde 61bd
00000360: 8402 5b3c 5d7e a7bc 9138 5ebc 9c04 54bd
00000370: a53d 6fbc 0410 15bd b459 f6bd f7ab 89bd
00000380: 6728 433c 2528 a63d 9b29 9a3d a58b d1bd
00000390: 4a79 b93c 8844 68bd 20f8 ab3d f691 2f3c
000003a0: 89bc 6a3b 2b09 2fbd 0851 9e3a f1fb 24be
000003b0: 2d1f d83b 9794 a13d b7f1 613d 2c15 bbbd
000003c0: 4487 153e 8106 373d 9a81 823c 6e40 9dbd
000003d0: e4c7 0c3c 8ea5 573c 1fb5 04bb 9ec8 a03d
000003e0: d748 0b3c 66e5 843d 8dba cd3d 6afe 91bd
000003f0: cada 983c ebea 22bd 4cfe 633d ea77 a0bd

h.0.mha.W_q.bias f4 [64]
0.14979443 -0.07839717 -0.095452584 -0.030468453 0.019771544 0.038733657 -0.16838998 -0.15263684
0.2897995 -0.45215216 -0.08424989 0.35639492 0.490931 0.18778811 -0.81483173 -0.15796588
0.29093915 0.81376684 -0.027816718 0.35461956 0.36559534 -0.090575255 0.40179783 0.07043397
-0.10669057 -0.18281075 -0.020689284 0.11878321 -0.117099434 -0.036076497 0.0912911 -0.11852732
0.03203491 -0.06253899 -0.0033723826 -0.034722026 -0.031530257 -0.101795346 -0.079973735 0.012950674
0.028026821 -0.005176451 0.08348502 0.0389527 -0.071786314 -0.07319906 -0.002314949 -0.060215242
0.0726968 0.13971563 -0.062015243 -0.046354536 0.05303294 -0.050043076 -0.03957937 0.0002945845
0.0099424925 0.09953869 0.01909783 0.05010438 0.046430305 -0.001357476 -0.005956511 0.032639742
00000000: b663 193e b28e a0bd a57c c3bd fa98 f9bc
00000010: eff7 a13c 2fa7 1e3d 6c6e 2cbe d54c 1cbe
00000020: 9a60 943e 7d80 e7be 358b acbd 6579 b63e
00000030: 4f5b fb3e 874b 403e d098 50bf cfc1 21be
00000040: faf5 943e 0653 503f e3df e3bc b290 b53e
00000050: 502f bb3e 857f b9bd 72b8 cd3e af3f 903d
00000060: 9680 dabd be32 3bbe 937c a9bc 9d44 f33d
00000070: d4d1 efbd f3c4 13bd d4f6 ba3d 74be f2bd
00000080: 0a37 033d 7114 80bd 3103 5dbb af38 0ebd
00000090: df25 01bd 147a d0bd 45c9 a3bd 102f 543c
000000a0: 8198 e53c 389f a9bb 32fa aa3d de8c 1f3d
000000b0: b404 93bd 64e9 95bd 66b6 17bb 42a4 76bd
000000c0: 0fe2 943d 9d11 0f3e b203 7ebd 41de 3dbd
000000d0: 1139 593d f8f9 4cbd fa1d 22bd 7672 9a39
000000e0: d6e5 223c f1da cb3d 0d73 9c3c 403a 4d3d
000000f0: b42d 3e3d 56ed b1ba d62e c3bb 40b1 053d

h.0.mha.W_k.weight f4 [64, 64]
-0.1367464 -0.021956893 0.006618913 0.030523185 -0.052250423 0.105866306 0.045936402 0.2202703
-0.09349487 -0.04312621 0.075658575 -0.066404924 0.016091192 0.038971294 0.009900863 -0.078768134
-0.07341976 0.028214667 -0.011630757 -0.13988924 0.09463841 -0.058888376 -0.030182116 -0.005682373
0.04322875 -0.010892407 0.062394977 0.07587938 0.021751514 -0.061296165 -0.120600894 -0.11154361
-0.07776737 0.013083388 -0.14934908 -0.009177635 -0.07871812 0.019785685 0.058766518 0.08148871
0.005985193 0.03157882 0.10283981 -0.01888852 -0.013780792 -0.045773737 -0.021313522 0.030719504
-0.016427904 0.0320156 0.0117806615 0.031240722 0.05213761 -0.07023422 -0.044995 0.0046321144
-0.088291 0.04971266 -0.016165828 -0.061695457 0.06780427 -0.033988275 0.09526634 0.020862894
0.019649608 0.08544006 -0.029243317 -0.05993973 0.006726966 -0.06662712 -0.06475053 0.11085603
0.005875619 0.011564592 -0.022436084 -0.050150532 0.037533127 -0.029775823 0.057036392 0.11078762
0.013689798 0.062528074 -0.03951871 -0.0752255 -0.0017489471 0.012878013 -0.07095533 -0.043130603
0.040771037 -0.08531029 0.09969143 0.0734375 0.046622973 -0.12464925 -0.12751485 -0.074160844
-0.03752895 0.0219644 -0.048341632 0.0017630212 0.06614697 0.14171997 0.062355645 -0.015072947
-0.06745861 0.06847786 -0.05676124 -0.0522734 0.0013517347 -0.031164384 -0.01583506 0.089346394
0.08549182 0.07945409 -0.0111387735 -0.04818936 -0.018724194 -0.051530015 -0.0819535 0.0053962297
-0.026558498 -0.06575597 0.08202713 0.031163478 -0.10647804 0.019377766 -0.07257337 -0.03188091
-0.0825521 -0.006059053 -0.010844375 -0.010750568 0.054405164 0.025541415 0.044408184 0.014047223
-0.011556655 0.018103687 0.047525153 -0.025229106 -0.06610637 0.014925007 0.0018407848 -0.08412064
-0.09752836 -0.07886364 -0.09076578 -0.033143774 -0.12737004 -0.01936305 -0.008773076 -0.046132345
-0.0219479 -0.048877094 0.023363423 0.044122268 -0.033006705 -0.044813357 0.06332184 -0.05367688
-0.049266636 0.046791133 -0.005989111 0.058111243 -0.00084290124 0.026237926 -0.0060609616 0.05764514
0.0033361993 -0.081665136 -0.08355972 -0.01787167 -0.009504457 0.04823417 -0.124280795 0.031803966
0.05644956 0.077574305 0.07583091 -0.0031065145 0.12881859 -0.064023755 0.094933495 0.019356897
-0.017878715 0.08619705 -0.039552264 -0.027776262 -0.049571943 0.0625587 -0.07422381 0.06346079
-0.047055937 -0.07503741 0.014147118 -0.027752372 -0.006543268 -0.046158962 -0.08338227 0.053510003
-0.03288065 7.698486e-05 -0.0581846 -0.0592466 -0.012985423 -0.094422035 -0.025953272 -0.04383864
0.06669976 0.061975986 -0.14619254 -0.017924527 -0.058781106 -0.10316622 -0.1528256 0.07320688
0.042616636 -0.048721913 0.0554842 -0.07226447 0.031420127 -0.05763114 -0.03411887 -0.058283187
-0.11056746 0.14043479 -0.06478573 0.047937687 -0.09388503 0.040841255 -0.011442292 -0.023682764
0.12509806 -0.051942024 -0.029433293 -0.09760997 -0.040299926 0.041628443 -0.039956387 0.0007286891
0.08901658 -0.02455378 0.03571334 0.010671916 0.16136254 0.07094124 0.07115368 -0.034558654
-0.05276273 0.055606302 0.06679497 -0.120534405 0.07120157 -0.0034100304 -0.0004750741 0.011725515
00000000: 4007 0cbe f1de b3bc 77e3 d83b c20b fa3c
00000010: 8a04 56bd 6fd0 d83d cf27 3c3d 8a8e 613e
00000020: 3d7a bfbd 1ca5 30bd e2f2 9a3d 4eff 87bd
00000030: add1 833c 5da0 1f3d 3b37 223c 3051 a1bd
00000040: 195d 96bd 7222 e73c ee8e 3ebc 203f 0fbe
00000050: c8d1 c13d f034 71bd 7c40 f7bc 3333 babb
00000060: a110 313d 1176 32bc e091 7f3d a666 9b3d
00000070: 3b30 b23c b011 7bbd 9afd f6bd fa70 e4bd
00000080: 8044 9fbd b55b 563c f7ee 18be cb5d 16bc
00000090: f736 a1bd 9715 a23c 29b5 703d 8ee3 a63d
000000a0: 701f c43b cb58 013d ae9d d23d 19bc 9abc
000000b0: d5c8 61bc 3e7d 3bbd b299 aebc 78a7 fb3c
000000c0: d093 86bc ca22 033d ad03 413c 8bec ff3c
000000d0: 3f8e 553d f5d6 8fbd ad4c 38bd fec8 973b
000000e0: e9d1 b4bd 819f 4b3d 336e 84bc 60b4 7cbd
000000f0: f7dc 8a3d 4a37 0bbd 001b c33d a9e8 aa3c
00000100: 37f8 a03c 33fb ae3d ae8f efbc 5d83 75bd
00000110: e16d dc3b cd73 88bd ed9b 84bd 7c08 e33d
00000120: 4488 c03b 6a79 3d3c e1cb b7bc a56a 4dbd
00000130: 56bc 193d 6dec f3bc fe9e 693d 9fe4 e23d
00000140: 2d4b 603c b80e 803d 5fde 21bd d40f 9abd
00000150: ed3c e5ba 4dfe 523c 0751 91bd b7a9 30bd
00000160: 88ff 263d 29b7 aebd 052b cc3d 6666 963d
00000170: bbf7 3e3d 1b48 ffbd 4193 02be a4e1 97bd
00000180: f5b7 19bd afee b33c e001 46bd 2d15 e73a
00000190: 1078 873d 0a1f 113e a268 7f3d 86f4 76bc
000001a0: bd27 8abd 1f3e 8c3d 797e 68bd a21c 56bd
000001b0: b12c b13a 734c ffbc 87b8 81bc 3efb b63d
000001c0: 5616 af3d d3b8 a23d 677f 36bc 3562 45bd
000001d0: 7b63 99bc 2311 53bd 3dd7 a7bd dbd2 b03b
000001e0: 3591 d9bc 11ab 86bd d7fd a73d 8d4a ff3c
000001f0: 2911 dabd 1fbe 9e3c 59a1 94bd 8f95 02bd
00000200: 1311 a9bd 058b c6bb 9bac 31bc 2623 30bc
00000210: f3d7 5e3d 3b3c d13c 5be5 353d 5326 663c
00000220: 2058 3dbc 2f4e 943c bca9 423d 45ad cebc
00000230: c762 87bd 0488 743c 7d46 f13a 7147 acbd
00000240: f3bc c7bd 4383 a1bd 69e3 b9bd c4c1 07bd
00000250: 4b6d 02be 429f 9ebc f3bc 0fbc 45f5 3cbd
00000260: 15cc b3bc 5933 48bd a664 bf3c 8db9 343d
00000270: 0a32 07bd 368e 37bd e1ae 813d 4adc 5bbd
00000280: d0cb 49bd 0fa8 3f3d 4e40 c4bb 0e06 6e3d
00000290: 25f6 5cba ebf0 d63c 089b c6bb 4f1d 6c3d
000002a0: 23a4 5a3b 0d40 a7bd 5c21 abbd 9c67 92bc
000002b0: 95b8 1bbc 3191 453d ee86 febd e044 023d
000002c0: a737 673d 47df 9e3d 3c4d 9b3d aa96 4bbb
000002d0: 05e9 033e e31e 83bd 7e6c c23d 5b92 9e3c
000002e0: 6276 92bc 1488 b03d 8e01 22bd 0b8b e3bc
000002f0: f30b 4bbd c71e 803d a702 98bd bbf7 813d
00000300: babd 40bd 37ad 99bd 50c9 673c f158 e3bc
00000310: e968 d6bb 2e11 3dbd 53c4 aabd 4e2d 5b3d
00000320: dcad 06bd ef72 a138 fa52 6ebd 90ac 72bd
00000330: d0c0 54bc 5760 c1bd f59b d4bc 2590 33bd
00000340: e299 883d 88da 7d3d 7fb3 15be 75d6 92bc
00000350: 75c4 70bd d048 d3bd 507e 1cbe 7ded 953d
00000360: c88e 2e3d a190 47bd 6743 633d 65ff 93bd
00000370: 64b2 003d a10e 6cbd 3ac0 0bbd 5aba 6ebd
00000380: 3171 e2bd 23ce 0f3e 61ae 84bd 4f5a 443d
00000390: cb46 c0bd 2949 273d 7378 3bbc 5b02 c2bc
000003a0: b519 003e 29c1 54bd 171e f1bc bce7 c7bd
000003b0: 8911 25bd 9682 2a3d 4fa9 23bd 7f05 3f3a
000003c0: 534e b63d 0225 c9bc 2748 123d 43d9 2e3c
000003d0: 393c 253e a449 913d 05b9 913d 608d 0dbd
000003e0: bb1d 58bd 6fc3 633d cdcb 883d beda f6bd
000003f0: 21d2 913d d17a 5fbb 5e13 f9b9 601c 403c

h.0.mha.W_k.bias f4 [64]
0.07135496 -0.03610815 0.07532123 -0.095217034 -0.059854887 -0.080451794 -0.024534117 -0.08771566
-0.20365147 -0.3864578 0.22955899 -0.15785073 0.2565036 -0.5923164 0.71033055 0.3018345
-0.71346277 -0.21432672 -0.34570283 0.19847213 -0.009976636 0.030392129 0.12791426 -0.0013974231
0.024762763 -0.06710672 0.28024718 -0.15226083 0.33352217 -0.23115748 -0.043881815 -0.035965044
-0.107380666 0.14997126 -0.05512056 -0.023864826 0.047596075 0.12255745 -0.35672238 0.11701705
0.046796814 0.1701326 -0.23314035 0.037151743 0.2783536 -0.16383715 -0.049970753 -0.40948328
-0.04153612 0.22561713 0.08091816 -0.16369541 0.17967255 -0.090472214 0.22029497 0.14761119
0.03056539 -0.19570227 -0.2031815 -0.16061531 0.059159473 0.0062267752 -0.39298862 -0.21265213
00000000: 8d22 923d 24e6 13bd 0442 9a3d 2601 c3bd
00000010: 662a 75bd e9c3 a4bd c6fb c8bc 45a4 b3bd
00000020: 038a 50be ccdd c5be 8311 6b3e 9fa3 21be
00000030: 7154 833e 0ca2 17bf 39d8 353f 0d8a 9a3e
00000040: 7fa5 36bf 7778 5bbe f6ff b0be 473c 4b3e
00000050: 0b75 23bc eaf8 f83c f5fb 023e bd29 b7ba
00000060: 47db ca3c 3f6f 89bd 8f7c 8f3e 43ea 1bbe
00000070: 6bc3 aa3e 8cb4 6cbe 6bbd 33bd 1550 13bd
00000080: 65ea dbbd 1192 193e 19c6 61bd 2b80 c3bc
00000090: 1af4 423d 66ff fa3d 51a4 b6be a3a6 ef3d
000000a0: 04ae 3f3d 3e37 2e3e 58bc 6ebe 6d2c 183d
000000b0: 5d84 8e3e edc4 27be 22ae 4cbd cba7 d1be
000000c0: c721 2abd 2d08 673e 6cb8 a53d c59f 27be
000000d0: 15fc 373e 7f49 b9bd 0195 613e 6327 173e
000000e0: 4564 fa3c 2d66 48be d00e 50be 5778 24be
000000f0: 3451 723d fa09 cc3b ce35 c9be 7bc1 59be

h.0.mha.W_v.weight f4 [64, 64]
0.063626006 -0.1861183 0.06150348 0.2686484 0.008223156 0.024041599 0.08918772 -0.024777478
-0.009019876 0.010135222 0.060833186 0.03844832 -0.11270317 -0.10135763 0.026520524 -0.12196322
0.14548574 0.061005812 -0.014284485 -0.10679622 0.12347429 0.15265317 -0.044664204 0.23068906
-0.049383696 0.030217998 0.063200794 -0.12151358 0.015492013 0.0117642265 0.10531224 -0.07302609
-0.14475666 0.014970294 -0.29050082 -0.15555125 -0.14906898 -0.04973862 0.062367525 0.0109248785
-0.17302546 0.038020734 0.027305929 0.03740663 -0.24397805 -0.0061191386 0.0052839504 0.20066905
-0.014092795 -0.047549266 -0.04297244 0.046289273 0.09485417 0.21207945 -0.04162971 0.15795508
0.15636739 -0.03216222 0.10404968 -0.16638452 -0.09306795 -0.066566266 0.008322061 0.059725914
0.026884697 -0.036553252 0.11016873 -0.059147347 0.088402316 0.025310831 0.39580113 0.118160896
0.22706611 -0.086451806 -0.014177923 0.06564775 0.15049323 -0.09285236 -0.0016955619 0.22893329
0.06248455 -0.14942972 -0.12573588 0.19448805 0.034422964 -0.14174633 0.015939 0.06334777
0.23954865 0.27852398 -0.15968081 0.019207872 0.0033559795 -0.07832293 -0.04858402 0.069959916
-0.02448956 0.040768467 -0.06355134 -0.06536297 -0.025162838 0.20610502 -0.13433005 -0.08207077
-0.07203741 0.04273785 -0.09726839 0.040050074 0.058167793 -0.08770971 -0.04304402 -0.06506046
0.04830947 -0.07034862 0.08170704 -0.1711297 -0.16972466 0.13932605 -0.19033372 -0.08700025
0.054699868 0.22267509 -0.053871922 -0.08559446 -0.027263109 0.17551948 0.22034173 -0.047114737
0.06441726 0.06293827 0.03831709 0.01759943 0.13016964 -0.022577249 -0.031704098 -0.054481182
-0.07090831 -0.02184806 -0.08436817 -0.01743016 0.030014431 0.13075688 0.097510025 -0.10454612
0.038939837 -0.10752697 0.074080855 0.22233993 -0.058028813 0.055096406 -0.037671465 0.091998816
0.0061676214 0.047039535 0.08029219 0.11866698 -0.12716423 0.094600156 -0.03786394 0.05323883
-0.17187996 0.1471851 0.048060246 0.0019325614 -0.071636 0.052751854 -0.10969322 -0.122187346
0.072756745 -0.13694209 0.07470985 -0.05867562 -0.017270394 -0.15766218 0.02260093 0.11433672
-0.060772676 0.086420834 -0.13037762 -0.0039238986 -0.07348953 0.11527863 0.021919947 -0.02773155
-0.033080857 -0.049900264 -0.023003036 0.06291595 0.026429754 0.07676679 -0.12848535 0.042100284
-0.025176564 -0.032959055 -0.07119321 0.04493855 0.0071325745 0.25869098 -0.27210283 -0.017258203
-0.16729519 -0.08428951 0.026234409 -0.16787146 0.023407359 -0.19263323 -0.043567106 -0.04337596
-0.11812255 -0.11813596 -0.0095559405 0.20336497 0.07872024 -0.0616553 0.04838711 0.1842118
-0.004988385 -0.0005096256 0.09651781 0.036904007 0.116781995 -0.05249224 -0.0883863 -0.17443529
0.00075787544 0.18058634 0.20458551 0.09359415 -0.100335434 0.12850788 -0.077031955 0.18103431
-0.16367681 0.23874874 0.115687944 0.045038115 -0.15282054 0.1786653 -0.05638423 0.019287132
0.084625736 -0.18705173 -0.037893187 0.107230596 -0.021925284 -0.09643847 0.023533983 -0.09685954
0.026020711 -0.019964965 -0.09371356 -0.012032541 -0.059487596 0.06936377 -0.24759462 -0.19202706
00000000: 5a4e 823d cc95 3ebe 13eb 7b3d 488c 893e
00000010: 6bba 063c e3f2 c43c 0da8 b63d 23fa cabc
00000020: 1ac8 13bc 340e 263c 382c 793d fc7b 1d3d
00000030: ebd0 e6bd 9794 cfbd 9241 d93c dac7 f9bd
00000040: 37fa 143e 3be1 793d 7909 6abc fab7 dabd
00000050: 17e0 fc3d 1d51 1c3e d0f1 36bd c139 6c3e
00000060: 8f46 4abd bc8b f73c 6b6f 813d 1ddc f8bd
00000070: 36d2 7d3c bebe 403c f2ad d73d b48e 95bd
00000080: 173b 14be f745 753c 86bc 94be d448 1fbe
00000090: 8aa5 18be b9ba 4bbd 1775 7f3d 43fe 323c
000000a0: 962d 31be a1bb 1b3d afb0 df3c b237 193d
000000b0: 62d5 79be 0e83 c8bb fd24 ad3b 307c 4d3e
000000c0: 77e5 66bc 05c3 42bd df03 30bd d299 3d3d
000000d0: e742 c23d 5b2b 593e ea83 2abd fabe 213e
000000e0: c61e 203e 88bc 03bd 0018 d53d b460 2abe
000000f0: 699a bebd e553 88bd 4159 083c 29a3 743d
00000100: 4c3d dc3c ddb8 15bd 25a0 e13d 7d44 72bd
00000110: 460c b53d a958 cf3c 72a6 ca3e 57fe f13d
00000120: 0584 683e a50d b1bd 854a 68bc 5472 863d
00000130: e61a 1a3e 6129 bebd 9e3d deba 7d6d 6a3e
00000140: cdef 7f3d 1b04 19be e8c0 00be e027 473e
00000150: 18ff 0c3d f325 11be 8192 823c 7abc 813d
00000160: 3e4c 753e b29a 8e3e 5e83 23be d459 9d3c
00000170: feef 5b3b c667 a0bd 0a00 47bd 2547 8f3d
00000180: 549e c8bc d6fc 263d 3427 82bd 05dd 85bd
00000190: 4c22 cebc 320d 533e d18d 09be b814 a8bd
000001a0: 5a88 93bd e20d 2f3d a634 c7bd 8c0b 243d
000001b0: 5a41 6e3d 26a1 b3bd ed4e 30bd 6b3e 85bd
000001c0: 27e0 453d f012 90bd 0556 a73d a03c 2fbe
000001d0: 4dcc 2dbe 7dab 0e3e d8e6 42be 302d b2bd
000001e0: f80c 603d f004 643e cea8 5cbd 264c afbd
000001f0: e256 dfbc 61bb 333e 43a1 613e 62fb 40bd
00000200: 32ed 833d c8e5 803d 62f2 1c3d ae2c 903c
00000210: 314b 053e ecf3 b8bc 28dc 01bd a927 5fbd
00000220: 6038 91bd b4fa b2bc 38c9 acbd b2c9 8ebc
00000230: d3e0 f53c 22e5 053e 56b3 c73d 471c d6bd
00000240: 617f 1f3d 1a37 dcbd b4b7 973d 14ad 633e
00000250: 9faf 6dbd c5ac 613d 654d 1abd e069 bc3d
00000260: c219 ca3b 87ac 403d 3b70 a43d ac07 f33d
00000270: 5737 02be babd c13d 3817 1bbd f610 5a3d
00000280: 4d01 30be b1b7 163e d2da 443d 004e fd3a
00000290: e5b5 92bd 5412 583d d7a6 e0bd 5c3d fabd
000002a0: 7d01 953d 8c3a 0cbe 7a01 993d d955 70bd
000002b0: a47a 8dbc 3272 21be 9625 b93c 5f29 ea3d
000002c0: c5ec 78bd 68fd b03d b681 05be 0c94 80bb
000002d0: ae81 96bd 3417 ec3d 7691 b33c 472d e3bc
000002e0: cb7f 07bd 3864 4cbd dd70 bcbc 14da 803d
000002f0: 3683 d83c e837 9d3d aa91 03be 5971 2c3d
00000300: 153f cebc 1300 07bd bfcd 91bd 7c11 383d
00000310: 5fb8 e93b 2573 843e 1051 8bbe 1361 8dbc
00000320: 6e4f 2bbe fb9f acbd 8be9 d63c 7fe6 2bbe
00000330: cac0 bf3c a541 45be 6c73 32bd feaa 31bd
00000340: 3cea f1bd 44f1 f1bd 8590 1cbc e83e 503e
00000350: 1438 a13d 458a 7cbd 9031 463d 05a2 3c3e
00000360: 9b75 a3bb 6598 05ba 21ab c53d a828 173d
00000370: 662b ef3d 1a02 57bd e003 b5bd 2a9f 32be
00000380: 29ac 463a a0eb 383e dd7e 513e 4aae bf3d
00000390: aa7c cdbd 9297 033e eec2 9dbd 0f61 393e
000003a0: e59a 27be 8d7a 743e cded ec3d e379 383d
000003b0: fd7c 1cbe 09f4 363e 26f3 66bd 0c00 9e3c
000003c0: 4250 ad3d 7d8a 3fbe e335 1bbd b79b db3d
000003d0: a79c b3bc 8881 c5bd 57ca c03c 4b5e c6bd
000003e0: 6329 d53c 918d a3bc e5ec bfbd 2324 45bc
000003f0: 44a9 73bd 980e 8e3d 7289 7dbe bea2 44be

h.0.mha.W_v.bias f4 [64]
0.053076603 -0.008246361 -0.06999159 0.0366179 0.057442125 -0.027432995 0.08931794 -0.0031008555
-0.086043395 0.05408873 0.04409676 -0.041257087 0.06812464 -0.004216666 -0.029378476 -0.12094575
-0.0413106 -0.030945228 -0.021766417 0.07773255 -0.03893703 0.019674147 0.0865569 0.032875054
0.10144753 -0.01380178 0.054767467 0.034381013 0.0112295905 -0.054554828 -0.12148601 -0.08834881
-0.062118094 -0.07478482 0.09540278 0.070898525 0.028273687 0.058493678 -0.09525347 -0.05974621
0.01802436 0.0376983 -0.023867933 -0.07361843 0.023076192 -0.11639281 -0.04864337 -0.07791008
0.052858032 0.039542846 0.057835717 -0.017088087 -0.08342135 -0.026291264 -0.09722799 0.08006074
-0.07408705 -0.08226253 0.05584103 0.06440282 -0.08473484 -0.0063576177 0.081505984 0.036721177
00000000: da66 593d bf1b 07bc c057 8fbd a7fc 153d
00000010: 6f48 6b3d 29bb e0bc 53ec b63d b937 4bbb
00000020: 8537 b0bd 258c 5d3d ce9e 343d 31fd 28bd
00000030: ee84 8b3d f52b 8abb 21ab f0bc 68b2 f7bd
00000040: 4e35 29bd d980 fdbc 7c4f b2bc 3e32 9f3d
00000050: 6f7c 1fbd ad2b a13c be44 b13d fea7 063d
00000060: b9c3 cf3d dc20 62bc da53 603d 1bd3 0c3d
00000070: 51fc 373c e274 5fbd a8cd f8bd 39f0 b4bd
00000080: 8b6f 7ebd c928 99bd 8862 c33d 3f33 913d
00000090: 389e e73c 1197 6f3d 4014 c3bd 71b8 74bd
000000a0: d3a7 933c 8869 1a3d af86 c3bc 42c5 96bd
000000b0: 480a bd3c 5b5f eebd 453e 47bd 528f 9fbd
000000c0: aa81 583d aef7 213d 25e5 6c3d 51fc 8bbc
000000d0: d0d8 aabd c760 d7bc 781f c7bd e3f6 a33d
000000e0: f4ba 97bd 4279 a8bd 90b9 643d a0e5 833d
000000f0: 7689 adbd 9053 d0bb 9cec a63d f268 163d

h.0.mha.W_o.weight f4 [64, 64]
-0.0771894 -0.06309563 0.013213426 0.14110765 -0.017156305 -0.016928297 -0.099399425 -0.00057670695
0.0021076566 -0.09416158 -0.014377818 -0.025830405 -0.05453756 0.18914904 0.16204505 -0.060172588
0.064633 -0.046447992 0.022607578 0.19440852 0.17018554 -0.009974011 -0.20072003 0.18058488
0.032434456 -0.13662985 0.069969945 -0.10107507 0.020799046 0.026042089 0.030031387 -0.087897055
-0.012093664 0.003039193 -0.2132402 0.2271339 0.06592596 -0.015413186 0.043225344 -0.027961185
-0.02347283 0.081038475 0.10052256 0.19540189 -0.15043493 -0.03207903 -0.042078584 0.08250406
-0.16244432 0.017600669 0.0061482824 0.038399663 0.008260949 0.00018038313 0.12651035 -0.029662523
-0.06963522 -0.106574126 0.0013406307 -0.0996867 0.115289815 0.03823169 0.0611824 0.045795266
-0.04773817 0.3383643 0.061642557 -0.018325862 0.012173341 -0.004207348 -0.019127943 0.20534629
-0.031179646 -0.09357858 -0.14950769 -0.030169157 0.092462115 0.05259477 -0.110920206 0.03531309
0.048636004 0.051097203 0.11033785 -0.11713406 0.17664176 0.07708757 -0.11993017 -0.13773055
0.09874928 0.042505138 0.10404146 -0.13879287 -0.12251711 -0.01858465 0.11250676 0.04945505
-0.1001024 0.1089956 -0.06835232 0.016931437 0.047344223 -0.16614039 -0.24582416 -0.13751751
-0.0062685637 0.29146716 -0.20578697 0.06153966 0.04526265 0.009478867 0.106927596 0.068634026
0.19794352 1.3502102e-05 -0.009484914 0.078222685 -0.06314848 0.004339636 0.09898968 -0.10293504
0.0843101 -0.07729169 -0.040785372 0.121311985 0.12621559 -0.10828665 -0.08127875 -0.16435233
0.007447477 0.06590212 0.056477815 -0.044997048 0.0016633042 -0.09499482 -0.20153648 -0.06670978
-0.0023556105 0.07091086 0.06019007 0.21175024 -0.16453154 0.18700227 0.043195754 -0.092507705
-0.05386843 -0.10118487 -0.03806857 -0.20202969 0.049009163 0.112144224 -0.11245727 0.033279408
0.03985882 -0.060740557 -0.20135649 0.17555752 -0.010397607 0.02702931 -0.0049792873 -0.09512378
-0.10970121 -0.08697126 -0.024098203 -0.054658372 -0.06137979 0.12112574 0.043012023 0.039762728
-0.16868538 -0.021024836 0.03068036 0.19077103 0.044076048 0.08885991 -0.047047105 -0.017990276
0.08037222 0.1612289 -0.17404488 -0.21018371 -0.07026891 -0.010400635 0.08246926 -0.11460983
0.14098898 0.09257125 -0.01439272 -0.037133813 0.05601145 0.0010765564 -0.06398534 -0.061588198
0.04966291 0.08534014 -0.11321332 0.09451905 0.13371402 0.047893606 0.08474536 0.05963543
-0.07233633 -0.05087204 0.012573336 -0.026862424 -0.24004894 -0.13559331 -0.00041711456 -0.17613477
-0.2595791 0.01991725 0.108273305 0.0064614946 0.06872409 -0.11290837 0.0013905618 -0.12302431
-0.15634274 -0.06431733 -0.00263801 -0.00079983147 -0.008069826 -0.05640311 0.043730315 0.02745078
-0.1324338 0.087879665 -0.04605869 -0.020771462 -0.022791171 -0.21524704 -0.020058839 0.31859893
0.2635314 -0.027916206 0.052934606 0.043664545 -0.00011431105 -0.091240615 -0.014911671 0.043195408
0.12515336 -0.18914264 -0.22679909 0.105746746 -0.09008137 0.012847312 0.08206613 0.050928738
0.096407376 -0.08801866 -0.0566501 0.06390832 0.008243648 -0.0267484 -0.0968665 0.13100915
00000000: 7a15 9ebd 4838 81bd 207d 583c 867e 103e
00000010: 618b 8cbc 36ad 8abc ed91 cbbd 262e 17ba
00000020: 9c20 0a3b c9d7 c0bd f190 6bbc 499a d3bc
00000030: c762 5fbd 49b0 413e 23ef 253e 8877 76bd
00000040: 4e5e 843d 4040 3ebd 8733 b93c 0713 473e
00000050: 1e45 2e3e 096a 23bc 8d89 4dbe 3eeb 383e
00000060: fed9 043d b2e8 0bbe 674c 8f3d 7200 cfbd
00000070: c362 aa3c 3856 d53c 6204 f63c 5f03 b4bd
00000080: 8124 46bc 332d 473b a45b 5abe ca95 683e
00000090: 3104 873d 9687 7cbc 0f0d 313d db0e e5bc
000000a0: 184a c0bc 80f7 a53d c6de cd3d 6f17 483e
000000b0: 9d0b 1abe 4d65 03bd 985a 2cbd e3f7 a83d
000000c0: ce57 26be 472f 903c 8877 c93b f748 1d3d
000000d0: ee58 073c 3a25 3d39 ee8b 013e d2fe f2bc
000000e0: e99c 8ebd 8943 dabd 1ab8 af3a 8a28 ccbd
000000f0: 111d ec3d d598 1c3d 659a 7a3d d193 3b3d
00000100: 1989 43bd 163e ad3e e87c 7c3d 1e20 96bc
00000110: b172 473c cbdd 89bb 34b2 9cbc 4c46 523e
00000120: 756c ffbc 20a6 bfbd 8b18 19be 4f25 f7bc
00000130: c75c bd3d 9d6d 573d 222a e3bd 75a4 103d
00000140: 8c36 473d 4d4b 513d d0f8 e13d fbe3 efbd
00000150: 94e1 343e 17e0 9d3d f39d f5bd 3d09 0dbe
00000160: 103d ca3d de19 2e3d b013 d53d b81f 0ebe
00000170: 40ea fabd d63e 98bc f269 e63d 6191 4a3d
00000180: 7d02 cdbd 1639 df3d 4dfc 8bbd ccb3 8a3c
00000190: 04ec 413d b520 2abe 54b9 7bbe 64d1 0cbe
000001a0: 8668 cdbb 2f3b 953e d2b9 52be 0311 7c3d
000001b0: 5465 393d 404d 1b3c dbfc da3d ff8f 8c3d
000001c0: b5b1 4a3e 1687 6237 9d66 1bbc 3733 a03d
000001d0: fe53 81bd 8133 8e3b 1abb ca3d 9bcf d2bd
000001e0: c6aa ac3d 1b4b 9ebd 900e 27bd 6b72 f83d
000001f0: a93e 013e 64c5 ddbd 7975 a6bd fa4b 28be
00000200: f709 f43b b1f7 863d 4855 673d d34e 38bd
00000210: 3a03 da3a a58c c2bd 945f 4ebe 239f 88bd
00000220: 9660 1abb b739 913d dd89 763d 0ed5 583e
00000230: f57a 28be 867d 3f3e 08ee 303d ae74 bdbd
00000240: 25a5 5cbd 033a cfbd caed 1bbd dfe0 4ebe
00000250: d5bd 483d dfab e53d ff4f e6bd fd4f 083d
00000260: 0143 233d 17cb 78bd 6530 4ebe 5ac5 333e
00000270: ba5a 2abc 926c dd3c 4a29 a3bb 42d0 c2bd
00000280: 07ab e0bd fd1d b2bd 9869 c5bc 75e1 5fbd
00000290: 6069 7bbd c610 f83d 602d 303d 3ede 223d
000002a0: dcbb 2cbe 473c acbc 6155 fb3c 7b59 433e
000002b0: 1689 343d 2ffc b53d 77b4 40bd 5860 93bc
000002c0: 319a a43d 3019 253e d238 32be 663a 57be
000002d0: 25e9 8fbd 6d67 2abc a5e5 a83d 8fb8 eabd
000002e0: 6a5f 103e ff95 bd3d 71cf 6bbc a019 18bd
000002f0: 436c 653d 3d1b 8d3a bf0a 83bd e843 7cbd
00000300: 566b 4b3d d0c6 ae3d 63dc e7bd 3493 c13d
00000310: 54ec 083e 162c 443d fa8e ad3d 4844 743d
00000320: 1225 94bd 335f 50bd 6500 4e3c 960e dcbc
00000330: 64cf 75be f9d8 0abe 2bb0 dab9 ac5c 34be
00000340: 8de7 84be 8029 a33c 65be dd3d f2ba d33b
00000350: 37bf 8c3d 813c e7bd 8343 b63a 2bf4 fbbd
00000360: 5018 20be ceb8 83bd 77e2 2cbb c8ab 51ba
00000370: 4e37 04bc f306 67bd 8f1e 333d 75e0 e03c
00000380: ba9c 07be 41fa b33d 09a8 3cbd ea28 aabc
00000390: 8db4 babc b869 5cbe 6f52 a4bc 661f a33e
000003a0: 96ed 863e 87b0 e4bc f5d1 583d 98d9 323d
000003b0: 47ba efb8 5cdc babd 1550 74bc abed 303d
000003c0: 3428 003e 9cae 41be 053e 68be c091 d83d
000003d0: 957c b8bd 887d 523c 4a12 a83d a79a 503d
000003e0: 3b71 c53d 2143 b4bd ef09 68bd 5ee2 823d
000003f0: 5e10 073c 761f dbbc f261 c6bd 4327 063e

h.0.mha.W_o.bias f4 [64]
-0.12162817 -0.051409077 0.11740507 0.035143353 -0.08626799 0.101354055 0.10526329 -0.08409314
0.029274989 -0.09761427 0.003977979 0.066954054 -0.03977704 0.01766337 -0.10730756 0.044967324
-0.00785934 -0.041069835 -0.060010493 0.03718965 -0.102444775 -0.073611416 -0.06203373 -0.029843412
0.015149836 -0.087340094 -0.02356317 0.09230791 -0.05792122 0.09626427 0.08378436 0.013301621
-0.05066999 -0.07806363 -0.113912754 0.11138533 0.08338292 0.14546722 -0.09193209 -0.018942352
-0.060231887 -0.10095691 0.03488552 0.048890226 -0.025218727 -0.03578992 -0.04444814 0.038935144
0.09255419 0.008398077 -0.14385973 0.065036975 -0.071311146 0.094319955 0.101790026 0.0014906223
-0.03469967 -0.07239285 -0.009973837 -0.041552477 0.07331298 0.059141386 0.09236665 0.07405485
00000000: 3118 f9bd 5392 52bd 1272 f03d 7af2 0f3d
00000010: 46ad b0bd b792 cf3d 4894 d73d 0639 acbd
00000020: 1ad2 ef3c fee9 c7bd b559 823b 351f 893d
00000030: 40ed 22bd c6b2 903c 11c4 dbbd a82f 383d
00000040: 76c4 00bc d838 28bd 90cd 75bd 2d54 183d
00000050: 91ce d1bd 95c1 96bd 1517 7ebd 2c7a f4bc
00000060: 0537 783c 5ddf b2bd 8d07 c1bc ee0b bd3d
00000070: cd3e 6dbd 3426 c53d 2297 ab3d 0bef 593c
00000080: 568b 4fbd d3df 9fbd 174b e9bd fe1d e43d
00000090: aac4 aa3d 5cf5 143e e446 bcbd fe2c 9bbc
000000a0: b6b5 76bd 7fc2 cebd 1ee4 0e3d 1e41 483d
000000b0: 8197 cebc 7398 12bd 410f 36bd 757a 1f3d
000000c0: 0d8d bd3d 1798 093c f74f 13be 1b32 853d
000000d0: 940b 92bd d22a c13d 4a77 d03d fc60 c33a
000000e0: 3e21 0ebd b442 94bd 4e69 23bc ee32 2abd
000000f0: 1e25 963d 3d3e 723d ba2a bd3d 12aa 973d

h.0.ln_1.weight f4 [64]
0.90073854 0.803797 0.9665004 0.8555667 0.6759744 0.81194556 0.79175866 0.94271046
0.8435417 0.81733674 0.85944265 0.84713954 0.812701 0.8516354 0.7092509 0.91005456
0.90360427 0.74828815 0.7600726 0.68349975 0.9864719 0.80489266 0.7003444 0.8359192
0.8168055 0.80358136 0.9363879 0.7437102 0.75073576 0.77535856 0.91982454 0.8494364
0.74359685 0.8109024 0.8445585 0.8848978 0.77436304 0.9453528 0.92048144 0.8009845
0.6598119 0.8944242 0.8342192 0.8637471 0.88426334 0.8646044 0.95992815 0.81414676
0.80682254 0.86562896 0.79698795 1.0173522 0.77085954 0.9233254 0.7947087 0.9428919
0.87212896 0.7540802 0.9173464 0.770143 0.73149395 0.8387742 0.93065476 0.7921588
00000000: cd96 663f a4c5 4d3f 926c 773f 6b06 5b3f
00000010: a90c 2d3f aadb 4f3f b2b0 4a3f 7955 713f
00000020: 59f2 573f fb3c 513f 6f04 5c3f 23de 583f
00000030: 2c0d 503f c704 5a3f 7891 353f 56f9 683f
00000040: 9c52 673f d08f 3f3f 1e94 423f d7f9 2e3f
00000050: 6c89 7c3f 720d 4e3f c549 333f cdfe 553f
00000060: 2a1a 513f 82b7 4d3f 1eb7 6f3f cb63 3e3f
00000070: 3830 403f e67d 463f 9f79 6b3f aa74 593f
00000080: 5d5c 3e3f 4d97 4f3f fc34 583f aa88 623f
00000090: a83c 463f a402 723f aca4 6b3f 520d 4d3f
000000a0: 6fe9 283f fcf8 643f 648f 553f 881e 5d3f
000000b0: 155f 623f b756 5d3f dabd 753f ec6b 503f
000000c0: ec8b 4e3f dc99 5d3f 6707 4c3f 9938 823f
000000d0: 0d57 453f 0e5f 6c3f 0872 4b3f 5d61 713f
000000e0: d843 5f3f 660b 413f 37d7 6a3f 1728 453f
000000f0: 3043 3b3f e8b9 563f 643f 6e3f ebca 4a3f

h.0.ln_1.bias f4 [64]
0.014467705 -0.08397407 -0.023335015 -0.010983766 -0.0700182 -0.06387481 0.0065494454 0.046976976
-0.0011233027 0.021099621 0.027214892 -0.0009278506 0.05848432 -0.0740243 -0.008178644 -0.07979583
0.008429707 0.046131954 0.05511262 0.022475721 -0.008133082 -0.022304114 0.06560363 0.014031207
0.030162087 -0.07021959 0.008844938 -0.019879054 -0.05215923 -0.062400214 -0.027400265 -0.017307391
0.07898399 0.07230793 0.0014053752 -0.020556021 0.029409299 0.00401369 0.031794105 -0.045864947
0.012194349 0.10095018 -0.010523695 0.014089231 -0.030251194 -0.0020947931 0.049160473 0.112753116
0.04106319 0.12796114 -0.052055348 0.028478548 0.03246554 -0.07381847 -7.522319e-05 0.029057214
-0.03204892 0.026072547 0.053466506 -0.007197437 0.047741 0.0023578596 -0.03204539 0.0018239893
00000000: f409 6d3c 99fa abbd 1329 bfbc 41f5 33bc
00000010: b465 8fbd ccd0 82bd bb9c d63b ee6a 403d
00000020: c93b 93ba 1dd9 ac3c c4f1 de3c 003b 73ba
00000030: 418d 6f3d 0d9a 97bd b8ff 05bc ff6b a3bd
00000040: c11c 0a3c dcf4 3c3d c5bd 613d 011f b83c
00000050: 9e40 05bc 1eb7 b6bc 325b 863d 26e3 653c
00000060: 7b16 f73c 4acf 8fbd 5cea 103c 66d9 a2bc
00000070: eba4 55bd 5e97 7fbd 8576 e0bc 3bc8 8dbc
00000080: 5cc2 a13d 2e16 943d 9134 b83a 1a65 a8bc
00000090: c5eb f03c 4685 833b 893a 023d e2dc 3bbd
000000a0: cfca 473c f8be ce3d 936b 2cbc 85d6 663c
000000b0: 5ad1 f7bc cc48 09bb 7e5c 493d 1beb e63d
000000c0: e031 283d 3f08 033e fd37 55bd d84b e93c
000000d0: 96fa 043d 232e 97bd 25c1 9db8 6509 ee3c
000000e0: ba45 03bd 1896 d53c b2ff 5a3d 7ad8 ebbb
000000f0: 118c 433d 5286 1a3b 0742 03bd ed12 ef3a

h.0.ln_2.weight f4 [64]
1.0 1.0 1.0 1.0 1.0 1.0 1.0 1.0
1.0 1.0 1.0 1.0 1.0 1.0 1.0 1.0
1.0 1.0 1.0 1.0 1.0 1.0 1.0 1.0
1.0 1.0 1.0 1.0 1.0 1.0 1.0 1.0
1.0 1.0 1.0 1.0 1.0 1.0 1.0 1.0
1.0 1.0 1.0 1.0 1.0 1.0 1.0 1.0
1.0 1.0 1.0 1.0 1.0 1.0 1.0 1.0
1.0 1.0 1.0 1.0 1.0 1.0 1.0 1.0
00000000: 0000 803f 0000 803f 0000 803f 0000 803f
00000010: 0000 803f 0000 803f 0000 803f 0000 803f
00000020: 0000 803f 0000 803f 0000 803f 0000 803f
00000030: 0000 803f 0000 803f 0000 803f 0000 803f
00000040: 0000 803f 0000 803f 0000 803f 0000 803f
00000050: 0000 803f 0000 803f 0000 803f 0000 803f
00000060: 0000 803f 0000 803f 0000 803f 0000 803f
00000070: 0000 803f 0000 803f 0000 803f 0000 803f
00000080: 0000 803f 0000 803f 0000 803f 0000 803f
00000090: 0000 803f 0000 803f 0000 803f 0000 803f
000000a0: 0000 803f 0000 803f 0000 803f 0000 803f
000000b0: 0000 803f 0000 803f 0000 803f 0000 803f
000000c0: 0000 803f 0000 803f 0000 803f 0000 803f
000000d0: 0000 803f 0000 803f 0000 803f 0000 803f
000000e0: 0000 803f 0000 803f 0000 803f 0000 803f
000000f0: 0000 803f 0000 803f 0000 803f 0000 803f

h.0.ln_2.bias f4 [64]
0.0 0.0 0.0 0.0 0.0 0.0 0.0 0.0
0.0 0.0 0.0 0.0 0.0 0.0 0.0 0.0
0.0 0.0 0.0 0.0 0.0 0.0 0.0 0.0
0.0 0.0 0.0 0.0 0.0 0.0 0.0 0.0
0.0 0.0 0.0 0.0 0.0 0.0 0.0 0.0
0.0 0.0 0.0 0.0 0.0 0.0 0.0 0.0
0.0 0.0 0.0 0.0 0.0 0.0 0.0 0.0
0.0 0.0 0.0 0.0 0.0 0.0 0.0 0.0
00000000: 0000 0000 0000 0000 0000 0000 0000 0000
00000010: 0000 0000 0000 0000 0000 0000 0000 0000
00000020: 0000 0000 0000 0000 0000 0000 0000 0000
00000030: 0000 0000 0000 0000 0000 0000 0000 0000
00000040: 0000 0000 0000 0000 0000 0000 0000 0000
00000050: 0000 0000 0000 0000 0000 0000 0000 0000
00000060: 0000 0000 0000 0000 0000 0000 0000 0000
00000070: 0000 0000 0000 0000 0000 0000 0000 0000
00000080: 0000 0000 0000 0000 0000 0000 0000 0000
00000090: 0000 0000 0000 0000 0000 0000 0000 0000
000000a0: 0000 0000 0000 0000 0000 0000 0000 0000
000000b0: 0000 0000 0000 0000 0000 0000 0000 0000
000000c0: 0000 0000 0000 0000 0000 0000 0000 0000
000000d0: 0000 0000 0000 0000 0000 0000 0000 0000
000000e0: 0000 0000 0000 0000 0000 0000 0000 0000
000000f0: 0000 0000 0000 0000 0000 0000 0000 0000

ln_f.weight f4 [64]
1.0 1.0 1.0 1.0 1.0 1.0 1.0 1.0
1.0 1.0 1.0 1.0 1.0 1.0 1.0 1.0
1.0 1.0 1.0 1.0 1.0 1.0 1.0 1.0
1.0 1.0 1.0 1.0 1.0 1.0 1.0 1.0
1.0 1.0 1.0 1.0 1.0 1.0 1.0 1.0
1.0 1.0 1.0 1.0 1.0 1.0 1.0 1.0
1.0 1.0 1.0 1.0 1.0 1.0 1.0 1.0
1.0 1.0 1.0 1.0 1.0 1.0 1.0 1.0
00000000: 0000 803f 0000 803f 0000 803f 0000 803f
00000010: 0000 803f 0000 803f 0000 803f 0000 803f
00000020: 0000 803f 0000 803f 0000 803f 0000 803f
00000030: 0000 803f 0000 803f 0000 803f 0000 803f
00000040: 0000 803f 0000 803f 0000 803f 0000 803f
00000050: 0000 803f 0000 803f 0000 803f 0000 803f
00000060: 0000 803f 0000 803f 0000 803f 0000 803f
00000070: 0000 803f 0000 803f 0000 803f 0000 803f
00000080: 0000 803f 0000 803f 0000 803f 0000 803f
00000090: 0000 803f 0000 803f 0000 803f 0000 803f
000000a0: 0000 803f 0000 803f 0000 803f 0000 803f
000000b0: 0000 803f 0000 803f 0000 803f 0000 803f
000000c0: 0000 803f 0000 803f 0000 803f 0000 803f
000000d0: 0000 803f 0000 803f 0000 803f 0000 803f
000000e0: 0000 803f 0000 803f 0000 803f 0000 803f
000000f0: 0000 803f 0000 803f 0000 803f 0000 803f

ln_f.bias f4 [64]
0.0 0.0 0.0 0.0 0.0 0.0 0.0 0.0
0.0 0.0 0.0 0.0 0.0 0.0 0.0 0.0
0.0 0.0 0.0 0.0 0.0 0.0 0.0 0.0
0.0 0.0 0.0 0.0 0.0 0.0 0.0 0.0
0.0 0.0 0.0 0.0 0.0 0.0 0.0 0.0
0.0 0.0 0.0 0.0 0.0 0.0 0.0 0.0
0.0 0.0 0.0 0.0 0.0 0.0 0.0 0.0
0.0 0.0 0.0 0.0 0.0 0.0 0.0 0.0
00000000: 0000 0000 0000 0000 0000 0000 0000 0000
00000010: 0000 0000 0000 0000 0000 0000 0000 0000
00000020: 0000 0000 0000 0000 0000 0000 0000 0000
00000030: 0000 0000 0000 0000 0000 0000 0000 0000
00000040: 0000 0000 0000 0000 0000 0000 0000 0000
00000050: 0000 0000 0000 0000 0000 0000 0000 0000
00000060: 0000 0000 0000 0000 0000 0000 0000 0000
00000070: 0000 0000 0000 0000 0000 0000 0000 0000
00000080: 0000 0000 0000 0000 0000 0000 0000 0000
00000090: 0000 0000 0000 0000 0000 0000 0000 0000
000000a0: 0000 0000 0000 0000 0000 0000 0000 0000
000000b0: 0000 0000 0000 0000 0000 0000 0000 0000
000000c0: 0000 0000 0000 0000 0000 0000 0000 0000
000000d0: 0000 0000 0000 0000 0000 0000 0000 0000
000000e0: 0000 0000 0000 0000 0000 0000 0000 0000
000000f0: 0000 0000 0000 0000 0000 0000 0000 0000
