subspace-alignment/data/1_layer_32_vocab/ckpt_9000.pt (torch, 90637 bytes, 17 tensors)

embed.embed.weight f4 [32, 64]
000000 c6 f7 1c be af de 07 3f 84 09 12 3f 86 9c 02 3e
       -0.15328893 0.53074163 0.5704577 0.12755021
000010 f8 1b 0a bd f6 c5 17 bf c4 92 85 bf c4 39 d0 bd
       -0.03371808 -0.5928644 -1.0435414 -0.10167268
000020 66 75 ca be c0 fc 2c 3e 12 a1 bd bf 8f 31 c1 3e
       -0.39542693 0.16893291 -1.481478 0.37733123
000030 b7 55 91 be c5 cb 42 bf 9a f6 45 3f 0c 9d ce 3c
       -0.28385708 -0.7609218 0.7732941 0.02522137
000040 76 4f 32 3e 91 a9 42 3d 7b 20 34 3f ab e9 18 bf
       0.17413124 0.047524992 0.7036206 -0.5973155
000050 77 0b 0c bf 90 3b b2 3f 00 dd a5 3f 89 1c 62 bf
       -0.54704994 1.3924427 1.2958069 -0.8832479
000060 a7 00 02 c0 cf 66 a4 3f a0 db 57 bf 21 6a 01 40
       -2.0312898 1.2843875 -0.84319496 2.0221026
000070 ba da 44 3f 4b da 3c 3f fb 76 e4 be 25 b0 f9 3e
       0.7689625 0.7377059 -0.44622025 0.487672
000080 01 04 54 3f 20 74 4e bf bb ae 7f 3e b7 7c 68 bf
       0.8281861 -0.8064594 0.24968998 -0.908153
000090 1a 5e 84 bf 31 30 18 3f 13 74 56 bf a3 28 35 3f
       -1.0341218 0.59448534 -0.83770865 0.7076513
0000a0 ae 9e d5 bf b9 5c 5c bf 24 d8 45 3e dc 7c 2e 3f
       -1.668905 -0.86078984 0.19320732 0.6815927
0000b0 6f 8d 8e 3f 78 f3 30 3f ca 2a f0 be cc 52 0d bf
       1.1136912 0.69121504 -0.46907645 -0.55204463
0000c0 8a b2 32 bf 68 ea b3 bf d5 28 05 be 50 77 8f be
       -0.6980368 -1.405591 -0.13003857 -0.28020716
0000d0 76 91 9f 3e 25 ca 83 3f 4b e2 1e 3d 09 15 6a bf
       0.31165665 1.0296065 0.03879003 -0.9143835
0000e0 92 40 a0 3e f8 f9 fc be 9d ad 9e bf b5 3b b7 bf
       0.31299263 -0.4940946 -1.2396733 -1.4315096
0000f0 ed 39 e1 3e 1b 62 9a be 23 7e 43 3d fc 80 45 3f
       0.43989506 -0.30152974 0.047727715 0.7714994
000100 c7 e0 0a 3f c6 4b 8b bf 4b 4a 82 bf fe f3 06 3e
       0.54249233 -1.0882499 -1.0178922 0.13179013
000110 70 f5 df 3f c6 33 72 bf 53 c0 83 be a7 3f 0d bf
       1.7496777 -0.9461025 -0.2573267 -0.5517525
000120 25 79 96 3e ae 82 ac be a4 0e 53 3d dd f1 e2 3e
       0.293893 -0.3369345 0.051527634 0.44325152
000130 35 a1 b0 3e b3 e8 e2 3e 2a 10 ab 3b 1d 96 3c 3f
       0.3449799 0.4431816 0.0052204328 0.73666555
000140 5b 44 8a 3f 64 17 05 bf 02 fa 7c 3f 6a dc 99 3e
       1.080211 -0.51988816 0.9881898 0.30050975
000150 ff 57 63 3e 3d f4 c7 be be f7 bf 3f c2 29 da 3e
       0.22201537 -0.39053527 1.499748 0.42609984
000160 a8 6e 27 3c 8b 1b 4d 3f b5 48 a3 bf d4 97 e6 3e
       0.010219254 0.8012015 -1.2756563 0.4503771
000170 be 55 eb bf c2 f7 f4 3f 09 b4 9f 3e cb bf 86 bf
       -1.8385541 1.913811 0.31192043 -1.052728
000180 88 1e 9c bf 13 d8 9d bf fc 80 f2 3e 49 dc 60 3c
       -1.2196817 -1.2331566 0.47364032 0.013724395
000190 45 9e 56 3f 24 7e 48 3f c3 98 86 3f 50 0a 7e 3e
       0.8383525 0.78317475 1.0515369 0.24808621
0001a0 bd 40 99 bf 19 86 31 be e4 c6 65 3f 39 f3 e6 3e
       -1.1972882 -0.1733631 0.8975661 0.4510744
0001b0 b2 42 df be 9a 77 21 be e7 9f a9 bf 5e ff a1 bf
       -0.43605572 -0.1576828 -1.3251923 -1.2656057
0001c0 aa 09 7b be 72 04 bc bd a4 39 87 3f c6 38 82 3d
       -0.24515405 -0.091805354 1.0564466 0.06358485
0001d0 87 91 3d bf c6 d0 11 3e 1b 25 9b 3e 24 d5 7a bf
       -0.7405018 0.14239797 0.30301747 -0.97981477
0001e0 d4 6d b7 3d e7 96 68 bf 9b 17 ba be cc fc 10 be
       0.08956495 -0.9085526 -0.36346135 -0.14158934
0001f0 8d d3 d1 3e f5 51 0a c0 fe 20 54 bf ef 57 e8 3e
       0.40981713 -2.1612523 -0.8286284 0.45379588
000200 57 23 45 3f b1 58 4e 3f ca 4c c0 be 25 39 68 be
       0.7700705 0.8060408 -0.37558585 -0.22678049
000210 6d ce 26 be be a2 2c 3f 9a 3f 07 bf 6f 9d b7 bf
       -0.16289683 0.67435825 -0.52831423 -1.434492
000220 bd 07 9f 3e 52 a1 5f bf 15 86 9b 3e dd 93 b8 be
       0.3106059 -0.8735553 0.30375734 -0.3605031
000230 ce 52 27 bf c3 50 4c 3f 60 0a 92 3e 66 12 b1 3e
       -0.65360725 0.7981073 0.2852354 0.3458435
000240 f8 6e 2b bf 9a f9 4d bf 18 3f d6 bf eb cf 27 bf
       -0.669662 -0.80458987 -1.6738005 -0.6555163
000250 5f d3 25 3e 4c d5 8e 3f a7 9a 5e bf 35 46 08 bf
       0.16193913 1.1158843 -0.8695473 -0.5323213
000260 c0 60 ab 3e 70 ec c8 3e 28 98 14 bf ac 75 41 3e
       0.33472252 0.39242887 -0.5804467 0.18892545
000270 dc 49 83 bf 06 74 c0 3f e1 5c 90 3f ff 6e ce 3e
       -1.0256915 1.5035408 1.1278344 0.40319058
000280 b7 95 52 bf bd 45 d6 3e bd 9c 99 3e 4e 82 88 3f
       -0.82259697 0.4185008 0.30002394 1.0664766
000290 d8 91 80 bf b2 a3 b6 bf e9 30 cb be 65 f5 17 40
       -1.0044508 -1.4268706 -0.39685753 2.3743527
0002a0 0d ea 13 bf cb 05 68 bf f9 08 04 3d 06 d7 65 3d
       -0.5777901 -0.9063384 0.03223512 0.056113265
0002b0 3d 99 aa bc b6 21 4b bf f0 18 4c 3f 1b de 4c be
       -0.020825023 -0.79348314 0.7972555 -0.20006602
0002c0 43 a5 62 be bc 11 8b bf 97 d1 fd 3f db 85 2b bd
       -0.22133355 -1.0864787 1.9829587 -0.0418757
0002d0 a4 a7 33 3e c9 e1 ee be 0c 93 c4 bf 09 6b e8 be
       0.17544419 -0.46656635 -1.5357375 -0.4539416
0002e0 1c 47 24 3f c7 6a b5 bd 4f 31 19 bf f6 1f 59 3f
       0.64171004 -0.08858257 -0.59840864 0.84814394
0002f0 56 22 0b c0 0f fc ea 3e 18 12 78 3e ef 78 90 3e
       -2.1739707 0.4589543 0.24225652 0.28217265
000300 d0 30 94 bf 46 62 7b 3f 84 c4 8a 3d 12 36 dd bd
       -1.1577396 0.9819683 0.06775764 -0.10801329
000310 22 0c b7 bf 7b 84 ca be 6c 47 a4 3f d9 52 c9 3e
       -1.4300578 -0.395542 1.2834296 0.3932102
000320 67 bd 95 bf f3 18 99 bf 5f de e2 bf 4b 85 6b be
       -1.1698426 -1.1960739 -1.7724112 -0.23000066
000330 9b a5 26 c0 2c d8 13 40 6b 86 93 bf a8 21 cb 3e
       -2.6038578 2.310069 -1.1525396 0.39674115
000340 35 7c b2 3e f0 01 96 be dd 05 42 3f ae 62 8a 3e
       0.34860387 -0.29298353 0.75790197 0.27028412
000350 4f 02 3d 3f 95 6a 21 bf 5c b9 a0 bf 53 cd 12 3f
       0.7383165 -0.63053256 -1.2556567 0.5734455
000360 a8 d4 f3 bf 7a b4 aa 3f 4a f9 06 3e d4 56 14 3f
       -1.9049273 1.3336327 0.13181034 0.5794499
000370 8b 8e 80 3e b5 ed 7d be 5c 96 98 be 84 53 53 3f
       0.25108752 -0.2479771 -0.29802215 0.8254931
000380 3d 7a 3c 3f e4 7a 2b 3f e0 5e 3a bf 8f 44 52 bf
       0.7362402 0.6698439 -0.7280102 -0.8213586
000390 cc b1 93 bc 93 99 45 bf db ca bf 3e 4d 4b af 3f
       -0.018029116 -0.7718746 0.37459454 1.3694855
0003a0 3c 7d ca 3f a0 65 b5 bd 2d dd 51 bf 1f f4 52 3f
       1.5819468 -0.08857274 -0.8197811 0.8240375
0003b0 e6 57 54 3f 4e 4a cb 3f 7d f2 26 3f 01 73 32 3f
       0.8294662 1.5882051 0.6521376 0.6970673
0003c0 fb 6c 33 3f 1b bc 34 bf 2c 1c d9 3e 9e 0f d9 3d
       0.70088166 -0.70599526 0.42404306 0.10598682
0003d0 9c 13 b3 bf 6f f9 88 3f b1 3a ae 3e c3 e6 17 bf
       -1.3990359 1.0701121 0.34029153 -0.5933649
0003e0 5d 6f bd 3e 06 0b 8b 3f 8b 92 35 c0 a5 06 88 be
       0.36999026 1.0862739 -2.8370693 -0.2656757
0003f0 e9 e8 84 3d c3 50 12 bf 07 ef 37 bf 46 a0 7d bc
       0.064897366 -0.5715448 -0.718491 -0.015480107

h.0.mha.W_q.weight f4 [64, 64]
000000 a6 3d 3d bd 8a 1a 9a 3c 73 ac 32 3d 0e 48 04 3e
       -0.04620137 0.018811483 0.04362149 0.12918112
000010 8b b6 99 3d 33 09 bb 3d 53 6f af bd 99 5c 8e ba
       0.075055204 0.09132614 -0.08566155 -0.0010861336
000020 ee 31 80 bd 3a 44 bb bd 79 6c 9a bd 6e 43 58 bd
       -0.06259523 -0.091438726 -0.07540221 -0.05279868
000030 e1 5e 7a bd 87 b0 db 3d 79 7a 66 bd 17 9f 75 bd
       -0.06112564 0.10727029 -0.056269143 -0.059966173
000040 86 7d 46 3c 7a 34 b5 3d 0d 73 74 bd e9 a4 6b 3d
       0.012114888 0.088479 -0.059680033 0.057530317
000050 a6 b9 4c 3d db 33 3f bc 66 9c 06 3e a9 67 90 bd
       0.049981736 -0.011670078 0.13145599 -0.070510216
000060 e8 9d a1 3d c6 be bf 3c 54 8e 70 3c 0c 6b bc 3c
       0.07891446 0.023406398 0.014682371 0.023000263
000070 cc cb 09 be 65 82 c0 bd 22 13 8d bd f7 45 1d bd
       -0.13456649 -0.09399871 -0.06888415 -0.0383968
000080 b3 0b df bd 8c c9 05 bd 9e 78 02 be 49 06 ab bd
       -0.10890903 -0.032662913 -0.12741324 -0.08350808
000090 23 99 87 3d 51 de d0 3c 48 74 52 3d eb b8 ae bb
       0.066210054 0.025496634 0.051380426 -0.0053321025
0000a0 a1 3a be bc b8 8e dd bd ea bf ac 3c 5b 7c 19 3d
       -0.023221316 -0.10818237 0.021087606 0.03747211
0000b0 68 ae 38 3c c7 17 85 bc 7a b4 83 3c 2b bc 87 bd
       0.01127205 -0.01624669 0.016077269 -0.06627687
0000c0 df 08 92 3c 6a d9 53 3c dd 04 94 bc db 8f 09 3e
       0.017826496 0.0129302535 -0.018068725 0.13433783
0000d0 91 1f 89 bd 16 1e 8d bd 3c eb 31 bd 85 78 d9 bc
       -0.06695474 -0.06890504 -0.043437228 -0.026546726
0000e0 52 94 80 3c 07 bd 9b 3c 6c c2 39 3d 72 c5 b6 bd
       0.015695725 0.019011034 0.04535143 -0.089243785
0000f0 13 7a 1d bd ae 69 6d 3d fc 87 e2 3c 74 52 cf 3c
       -0.038446497 0.057962112 0.027652733 0.025307871
000100 50 62 8e bc 9e e0 f0 bc 47 d1 19 bd f4 d9 2c 3d
       -0.017380863 -0.02940398 -0.037553098 0.042200044
000110 86 cc 3b bd d3 e9 d5 bd 11 da 89 bd 3e b4 a1 3b
       -0.045849346 -0.10444989 -0.06731046 0.0049348166
000120 91 c4 5e 3d 9d 90 15 bd f6 25 bb bd 3d f3 91 bd
       0.05438668 -0.036514867 -0.091381 -0.07126472
000130 66 f4 69 bd 74 23 29 bd 72 1e ae bb 7e 59 d0 3c
       -0.057117842 -0.041293576 -0.005313688 0.025433298
000140 fc 2d d6 ba a8 e8 8b bc 8a 26 e8 3c 5e 5e 52 bd
       -0.0016340609 -0.017078713 0.02833869 -0.051359527
000150 95 50 5a 3d 98 53 05 bd d4 33 5b bd bd 71 c9 ba
       0.053299505 -0.032550424 -0.053516224 -0.001536898
000160 07 e4 10 3d eb d8 2d 3d fb bf a3 bd 46 d8 89 bd
       0.035373714 0.042443197 -0.07995602 -0.06730704
000170 8f 3d 8d 3d 14 b3 40 3d 50 bc b6 bd 76 c6 09 bd
       0.06896507 0.047045782 -0.089226365 -0.033636533
000180 64 f8 c6 bc 77 a3 74 bc 5a b9 69 bc f1 81 95 3d
       -0.024288364 -0.014931551 -0.014265383 0.07300175
000190 c5 0a 83 3c 40 7d 7a bc 69 67 39 bc 43 c1 8a 3c
       0.015996346 -0.015288651 -0.011316159 0.016937857
0001a0 9a 8d 3c 3d 86 33 eb bb 34 7b d5 bd 98 f8 0f bc
       0.04603348 -0.007177773 -0.1042389 -0.008787297
0001b0 f2 69 da 3c b5 b0 00 be 2a 2d 54 bc 34 53 5d bd
       0.026661847 -0.12567408 -0.012950221 -0.054034427
0001c0 2e be a9 bd e3 de 38 ba 0b 7e f0 bd f7 a2 ac 3c
       -0.08288227 -0.00070522557 -0.11742791 0.021073801
0001d0 8d 36 03 3d 2f f7 56 3d 5f dc 07 bd f1 be aa b9
       0.032034446 0.052481826 -0.033169147 -0.0003256719
0001e0 80 57 b4 bd ed e9 32 bd d1 e2 9f 3c fa d2 21 bd
       -0.08805752 -0.04368012 0.019517334 -0.039507844
0001f0 41 53 7e bc 17 1d de 3d e1 65 da 3c 87 8e a0 bd
       -0.015522779 0.10845392 0.026659908 -0.07839685
000200 6b 8d 6f bd d2 a6 7b bd 3d 3f c7 bd a1 8d 1b 3d
       -0.058484476 -0.06143839 -0.097288586 0.037976865
000210 be 60 77 bd eb 8a 4e bd 01 86 5c bd 88 60 3d bd
       -0.060394995 -0.05042545 -0.053838734 -0.046234637
000220 a1 be 2e be 37 2b eb bc 56 e3 ac 3d 4a 9c 51 bd
       -0.17064907 -0.02870713 0.084417984 -0.05117444
000230 21 89 36 bd a6 3e cf bd d7 a3 f1 bd 49 40 29 bd
       -0.04456437 -0.10119371 -0.11798828 -0.041321073
000240 68 3d bb bd 7b f7 c8 3d e3 31 b0 bd 98 51 e9 3d
       -0.09142572 0.09812828 -0.08603265 0.11392516
000250 cd 00 c9 bd da 44 09 3c f6 97 85 3d a0 41 7a bc
       -0.09814606 0.008378232 0.06523125 -0.015274435
000260 0f c5 94 bc 51 64 ca 3d 8f e2 e3 3b 0c e2 66 bd
       -0.018160371 0.09882415 0.006954498 -0.05636792
000270 c3 6b f8 bc ad 00 2b bd f8 96 94 3d a1 49 62 3c
       -0.030324822 -0.04174869 0.072553575 0.0138115
000280 2f cd 8c 3d 82 93 b3 3c b0 85 5e 3d 1e da 52 3d
       0.06875073 0.021920923 0.054326713 0.051477544
000290 53 5d da bc 84 5e eb bc 19 9a 9f bc ef 87 18 bd
       -0.026655829 -0.028731592 -0.01948266 -0.03723901
0002a0 41 67 9e 3d 6e e9 a0 bc 24 ab b8 bc 34 55 d0 3b
       0.07734538 -0.019642558 -0.022542544 0.0063578133
0002b0 db 82 24 3d ba f4 71 bd 4d 34 75 3c 0d 9a b1 3c
       0.040163856 -0.05907128 0.014966083 0.021679902
0002c0 84 57 64 bd 4e 00 61 bd 8c ac 53 3d 7d 9f 0a 3e
       -0.055747524 -0.05493193 0.051678225 0.13537402
0002d0 c1 ad 14 bd 3f b1 11 3d fc d2 ac 3d d3 89 a6 bd
       -0.036298517 0.035569426 0.084386796 -0.08131757
0002e0 01 f5 ae 3d 80 6f 92 bd bc 2c 15 bd c6 8b 46 bc
       0.085428245 -0.07150173 -0.036419615 -0.0121182855
0002f0 fd b1 a0 3d 04 cc 07 bd 9a 2c b7 bc 81 a0 f2 bc
       0.078464486 -0.03315355 -0.022360135 -0.02961755
000300 00 62 c0 3c ee 30 1c bc 93 46 93 3d d3 96 88 bc
       0.02348423 -0.00953315 0.07191195 -0.016673481
000310 99 ca 9a bc eb 6d 05 be 90 da a3 bc dd 5e 75 bd
       -0.018895434 -0.13030212 -0.02000168 -0.05990492
000320 ea 64 c4 3c 77 03 45 3b f5 e7 39 3d 59 80 cc bd
       0.0239739 0.003006188 0.045387227 -0.09985418
000330 50 16 56 bd ab 6d a4 bc d5 7a 56 3d 47 01 20 3d
       -0.052267373 -0.020071825 0.052363236 0.03906372
000340 96 45 5b bd 97 f8 61 bd e1 35 66 bd 74 f2 e9 3c
       -0.05353316 -0.055168714 -0.056203727 0.028557993
000350 1f 33 a8 3c 29 19 b4 bc b4 3c 33 bd af 96 a2 bd
       0.020532189 -0.021984654 -0.043759063 -0.07938897
000360 04 96 b9 3c 07 44 bd bc dc 9d 28 bc 78 6f 8e bd
       0.02265454 -0.023103727 -0.010291543 -0.06954855
000370 e4 8c 9a bc 7b 71 23 bd 15 3c f7 bd 6e 64 d4 bd
       -0.01886601 -0.039903145 -0.120720066 -0.10370718
000380 f7 26 32 3c e4 69 a0 3d 22 0b 57 3d a3 62 cb bd
       0.010873548 0.07832697 0.05250085 -0.09930923
000390 83 3a 73 3d 0e 39 31 bd 4e 63 a5 3d 11 bd a8 bc
       0.059381973 -0.043267302 0.080755815 -0.020597966
0003a0 9f 73 9a 3c 46 52 51 bd 09 b1 b7 3c a7 56 2b be
       0.01885396 -0.051103853 0.022423284 -0.16732274
0003b0 20 29 0b 3d 01 bf 97 3d a6 f1 65 3d bd 6a a5 bd
       0.033974767 0.07409478 0.056138657 -0.08076999
0003c0 9c 17 21 3e e4 b0 13 3d 5d 42 6f bb 93 9b c1 bd
       0.15731663 0.036057368 -0.0036508061 -0.094535016
0003d0 4e 64 15 bc 67 1a e2 3b 7f 6a 97 3b 43 47 da 3d
       -0.009118153 0.00690012 0.0046208496 0.10658123
0003e0 36 e5 21 bd 1d 8e 23 3d de 32 b9 3d 05 4c b2 bd
       -0.039525233 0.03993045 0.09042905 -0.08705906
0003f0 20 53 45 3d 90 aa 53 bd 8f ae 04 3d 27 3e 5f bd
       0.048174977 -0.051676333 0.032393035 -0.054502632

h.0.mha.W_q.bias f4 [64]
000000 f0 94 22 3e 46 80 a1 bd 92 b2 d5 bd 9b ec 20 bd
       0.15877128 -0.07885794 -0.1043445 -0.039288145
000010 5d c1 f9 3c fd 34 74 3c b3 13 33 be 11 14 21 be
       0.03048771 0.0149052115 -0.17487983 -0.15730311
000020 66 fb 94 3e 5c e5 e5 be ea 4a a3 bd e1 29 af 3e
       0.29098052 -0.4490155 -0.07973273 0.3421164
000030 61 1b f8 3e b1 e3 3a 3e 91 7e 4d bf 7b e4 21 be
       0.48458388 0.1825092 -0.8027125 -0.15809815
000040 c0 61 96 3e 77 8f 48 3f 9f 1a c4 bc bd e4 b4 3e
       0.29371452 0.7834391 -0.023938475 0.35330763
000050 55 91 b7 3e 2a f8 d0 bd b5 53 ca 3e 3a e9 60 3d
       0.35853067 -0.102035835 0.39516988 0.054909922
000060 46 40 e9 bd e9 36 34 be 72 37 93 bc ab 30 01 3e
       -0.11389212 -0.17599072 -0.017970774 0.12616222
000070 74 b0 02 be ac 16 22 bd 1b ce ba 3d 29 0b f4 bd
       -0.12762624 -0.039572403 0.09121343 -0.11916191
000080 eb bc cb 3c c4 2b 81 bd a5 2d 81 bc c7 49 aa bc
       0.024870357 -0.06307176 -0.015768835 -0.020787133
000090 29 94 3c bd 85 20 df bd 94 52 c2 bd f4 99 fd 3b
       -0.046039734 -0.108948745 -0.09488407 0.0077393
0000a0 f0 5e f3 3c 41 fa 24 3b 35 03 b5 3d 4f 7b 44 3d
       0.029708356 0.0025173577 0.08838502 0.04796916
0000b0 4f 26 8b bd 7c e1 a5 bd cb 58 9a 3b 2b 55 33 bd
       -0.06794416 -0.08099648 0.004710292 -0.043782394
0000c0 c8 c7 95 3d f8 1e 13 3e a3 32 6c bd 01 a9 2e bd
       0.07313496 0.14367282 -0.05766548 -0.042641643
0000d0 74 31 09 3d 77 70 40 bd 9d 5a 59 bd fe 2e 1a 3c
       0.033494428 -0.046982255 -0.05306493 0.009410618
0000e0 a0 33 02 bb 73 2a c9 3d 59 6a 45 3c d8 99 4e 3d
       -0.0019867197 0.0982255 0.012049281 0.050439686
0000f0 ff d8 30 3d fc c9 f0 3a 15 7c d3 bb 62 06 18 3d
       0.043175694 0.0018370743 -0.0064540007 0.037115462

h.0.mha.W_k.weight f4 [64, 64]
000000 ea 31 f2 bd 56 1b 22 bd 21 55 a4 3c 8b fd a3 3d
       -0.118259266 -0.03957685 0.020060124 0.08007344
000010 17 2c 34 bd 8b 3d c5 3d 82 f5 8d 3d 71 90 49 3e
       -0.04398736 0.09630879 0.069315925 0.19684006
000020 01 c0 a0 bd a6 93 7e bd 0c 0c 83 3d 30 bc 0b bd
       -0.07849122 -0.062152527 0.06398782 -0.034115016
000030 92 d3 a2 3c ca 3d 24 3d 57 39 bb 3c 63 6c 9d bd
       0.019876275 0.04009799 0.02285449 -0.07686689
000040 55 4a 2a bd 01 3c 0a 3c 06 f9 40 bc 6a 5d 05 be
       -0.041574795 0.008437158 -0.011778122 -0.13023916
000050 56 23 b3 3d 4b a2 b7 bd c9 19 22 bd 4e 67 97 b9
       0.08746974 -0.08966502 -0.039575372 -0.00028877932
000060 a1 53 99 3d d4 10 ca bc 9a 07 39 3d 34 f7 a1 3d
       0.07486654 -0.024666227 0.045173265 0.079084784
000070 c0 bd af 3c 67 cd 82 bd bd 72 dd bd 86 f8 be bd
       0.021452785 -0.06386834 -0.108129 -0.09324746
000080 14 cd 69 bd 11 1a a4 bc 9f c2 2a be f9 db 8a 3c
       -0.057080343 -0.02003196 -0.16675805 0.016950594
000090 3c d6 cf bd e6 6a a7 3c a8 64 d9 3c 6d ed b1 3d
       -0.10148284 0.020436715 0.026537254 0.086878635
0000a0 c9 85 5c 3c 6b 8b 30 3d 2a 26 d4 3d bf 45 d6 3c
       0.013459631 0.04310171 0.10358842 0.026156304
0000b0 c5 71 6e bc 7a f4 96 bd ed ab 9e bd 2b 11 5b 3d
       -0.014553492 -0.07370849 -0.07747636 0.05348317
0000c0 fa 4c 4e bb a1 8c b0 3c 15 f9 b0 3c 85 a9 c0 3c
       -0.0031478987 0.021551432 0.021603147 0.023518333
0000d0 6a 91 bf 3c 9f 55 6e bd 7f b4 31 bd 96 90 2e 3d
       0.023384769 -0.058187123 -0.043385025 0.042618357
0000e0 a3 14 a3 bd 68 91 90 ba d7 69 02 bd ac a2 78 bd
       -0.079629205 -0.0011029663 -0.031839218 -0.06070201
0000f0 cf eb 3c 3d 1c b3 77 bc 19 04 a9 3d e6 cd d4 3c
       0.046123322 -0.015118387 0.08252735 0.025977086
000100 1b 09 f7 ba ea d5 8e 3d 5f 1c ea ba e9 13 8b bd
       -0.0018847318 0.069743946 -0.0017861238 -0.06790907
000110 b5 75 06 3c 1e ff 7d bd f1 c0 86 bd de 74 a2 3d
       0.0082067745 -0.062010877 -0.065797694 0.07932447
000120 8f 41 39 3c 76 bc a3 3c 3e a5 0b bd eb f9 b4 bc
       0.011307134 0.019987326 -0.034093134 -0.022091826
000130 63 68 d6 3c 41 e5 25 bc 57 50 94 3d 18 80 de 3d
       0.026172822 -0.010125459 0.07241886 0.10864276
000140 73 16 b4 3c 5c c7 87 3d 27 20 35 bd 81 c1 a7 bd
       0.02198336 0.06629822 -0.044220116 -0.08191205
000150 b1 0b d2 bc 3b 0a c7 ba ef 16 ba bd 7e 5b cb bc
       -0.02564034 -0.0015185544 -0.090864055 -0.0248239
000160 db a2 3d 3d cd 6b b4 bd a3 2a d0 3d ad 2b bf 3d
       0.04629789 -0.08809624 0.10164382 0.09334502
000170 ea 9b 81 3d d3 87 12 be b4 1d f6 bd e6 19 5a bd
       0.06328566 -0.14309625 -0.12017384 -0.053247355
000180 9f 0d fc bc 91 0e 06 3d ea 00 5c bd a8 b7 56 bb
       -0.030768214 0.032728735 -0.05371181 -0.0032763276
000190 51 4d 53 3d fa 9a 02 3e 4a 78 1f 3d 2d 8a 0f bc
       0.051587407 0.12754431 0.038933076 -0.008760971
0001a0 5e ef 3b bd e2 3c c0 3d 38 e3 93 bd fc 44 0f 3b
       -0.045882575 0.093866125 -0.07221073 0.0021861186
0001b0 a7 db 86 3b 32 8a 38 bd 6e f0 d4 bc 39 16 c2 3d
       0.00411554 -0.04505367 -0.025993552 0.09476895
0001c0 0a 73 65 3d 97 98 a1 3d 11 49 2f bd cf b6 ba bc
       0.056017913 0.07890432 -0.04279429 -0.022792248
0001d0 e5 88 ce 39 ac 18 8e bd f7 74 95 bd 2e 24 1c 3d
       0.00039393376 -0.069382995 -0.072977 0.03812044
0001e0 d0 11 a6 bc dc 17 b9 bd 5f 2b ab 3d 73 63 1e 3d
       -0.020272166 -0.09037754 0.08357882 0.03866906
0001f0 40 b8 15 be 77 90 1a 3d e2 60 89 bd a9 53 31 bd
       -0.14621067 0.03773543 -0.06707932 -0.043292675
000200 20 f7 9f bd ad 51 96 bc c2 e1 27 3c c9 67 74 3c
       -0.07810807 -0.018349493 0.010246696 0.014917322
000210 46 c1 5b 3d 8b 3d 0d 3d b1 4d 6a 3d 4a 34 2e 3d
       0.053651117 0.03448252 0.057203 0.042530335
000220 9a ee bd bb 8c fc 79 3c c4 d7 71 3d f6 3b d7 bc
       -0.005796266 0.015257966 0.05904366 -0.026273709
000230 e1 7e 55 bd be 25 c3 3a f2 d6 41 bc 4c a2 a6 bd
       -0.052122954 0.0014888567 -0.011831032 -0.081364244
000240 a3 1f ac bd 7e 8a c9 bd 23 5d be bd e9 6d c1 bc
       -0.08404472 -0.098408684 -0.09295108 -0.02361198
000250 fc 61 14 be a3 12 3a bc 49 fc ef bc d7 32 e1 bc
       -0.14490503 -0.011356982 -0.029295104 -0.027490063
000260 d2 c9 3e bc 83 ac 12 bd 4e 23 17 3c 88 27 04 3d
       -0.011644797 -0.03580905 0.009224726 0.032264262
000270 df fd 81 bd dc c5 55 bc f6 c1 b9 3d 0d c0 00 bd
       -0.0634725 -0.013047662 0.09070198 -0.031433154
000280 cc 03 b4 bd f7 ec 88 3d fd 87 ee 3c 44 87 90 3d
       -0.08789787 0.066858225 0.029117579 0.0705705
000290 0d 93 6e bc 6d dc af 3c 13 47 62 bc 61 2d 6a 3d
       -0.014561427 0.021467412 -0.013810891 0.057172183
0002a0 c0 dc 56 bd 4e 7d 5a bd 65 0a 9b bd 81 59 1a bb
       -0.052456617 -0.053342156 -0.07570342 -0.0023551884
0002b0 a9 6a ac bc cd 4f 4c 3c c3 7a 14 be 23 bd 32 3d
       -0.021046953 0.012470198 -0.14499955 0.043637406
0002c0 6d 1e a2 3d 85 51 ad 3d 95 16 90 3d 8d 5e 64 3b
       0.079159595 0.08462814 0.07035557 0.0034846396
0002d0 c1 d7 b9 3d 9d 69 15 bd fb 7c 32 3d 4c 2c 0a 3d
       0.09074355 -0.036477674 0.043576222 0.03373365
0002e0 63 ce 7e bc 2a 89 a3 3d f0 84 bd bc bc c0 8b bd
       -0.015552136 0.07985146 -0.023134679 -0.068238705
0002f0 46 6b 53 bd b9 8d 89 3d 84 d4 b4 bd 99 46 5d 3d
       -0.051615976 0.067164846 -0.08829597 0.054022405
000300 e2 16 7e bd a9 84 94 bd 83 97 5b 3c 9b d1 83 bb
       -0.06203354 -0.072518654 0.013402822 -0.0040227897
000310 47 df d9 bc 68 7f 5f bd 86 fc 36 bd 21 17 8c 3d
       -0.026595725 -0.054564863 -0.04467442 0.06840349
000320 e2 ad 4e bd 5a bd ec b9 e6 0c 28 bd 49 49 f5 bb
       -0.050458796 -0.00045154506 -0.041027926 -0.007485543
000330 3e fd 1d bd 2a ee a8 bd 29 49 85 bc b6 8d 2f bd
       -0.03857159 -0.08248551 -0.016270237 -0.042859755
000340 0c 35 bc 3d 03 1d ba 3c fc 31 1b be cb 8f 08 3c
       0.091898054 0.022718912 -0.15155786 0.008335064
000350 a2 f2 3a bd 25 ca d1 bd a4 4e 23 be bb 26 a9 3d
       -0.04564155 -0.10243634 -0.15947968 0.082593404
000360 c2 a8 04 3d 20 74 21 bd fe 20 9d 3c 81 9e aa bd
       0.032387502 -0.039417386 0.019180771 -0.083310135
000370 5b 19 17 3d 88 e9 03 bd 76 84 d2 bc 92 ce 9c bd
       0.036889415 -0.032205135 -0.025697928 -0.07656588
000380 3c 13 05 be 66 cf eb 3d ab 9c 82 bd e4 ca 81 3d
       -0.12995619 0.115141675 -0.06377538 0.063375264
000390 52 b7 94 bd b0 cd 6a 3d 82 5e 1d 3c 98 8d cf bc
       -0.07261528 0.057325065 0.009605052 -0.025336072
0003a0 7b ed 15 3e a5 a7 4e bd cd 8e 05 bd 96 98 96 bd
       0.14641373 -0.050452847 -0.03260689 -0.07353322
0003b0 4e 92 68 bd d6 9c c1 3c ef af 4d bd ca e4 f1 3c
       -0.056780152 0.023634356 -0.05021661 0.02952804
0003c0 b0 99 b8 3d 2d dc a0 bc 04 47 de 3c d0 d1 ed 3a
       0.090136886 -0.019636238 0.027133472 0.0018144194
0003d0 14 d9 00 3e d9 36 cc 3d 2d 3c 50 3d be 4f 09 bd
       0.12582809 0.09971399 0.050838638 -0.033523314
0003e0 d0 9a 2a bd 0d dc 60 3d 5e ad 95 3d c3 43 06 be
       -0.041651547 0.054897357 0.07308458 -0.13111787
0003f0 e2 04 70 3d 87 d1 81 bc e4 13 11 bd 46 fa 4a 3c
       0.058598407 -0.01584698 -0.03541936 0.012388771

h.0.mha.W_k.bias f4 [64]
000000 5e d6 c7 3d 94 df 91 bc d3 d8 b5 3d 1b 41 ac bd
       0.09757684 -0.017806806 0.088792466 -0.084108554
000010 d0 c3 3f bd ed 82 b0 bd 7b fe 94 bc fa 2e c9 bd
       -0.0468176 -0.08618722 -0.018187752 -0.09823413
000020 5b b0 53 be 78 44 c5 be 98 1a 6e 3e 74 61 29 be
       -0.20672743 -0.385288 0.23252332 -0.16541082
000030 39 54 82 3e 37 3e 12 bf e6 12 31 3f 8e 50 9c 3e
       0.25454882 -0.5712618 0.6916946 0.30530208
000040 61 c0 33 bf 52 7e 62 be 88 0e ac be 2d 4e 3d 3e
       -0.7021542 -0.221185 -0.33604836 0.18486853
000050 1e 0a aa bc 68 be 45 3d 48 19 f2 3d e6 b9 c9 3c
       -0.020756777 0.04827729 0.11821228 0.024624776
000060 93 3f 15 3d 43 bf 69 bd 29 51 8b 3e b7 7b 1c be
       0.036437582 -0.057067167 0.27210358 -0.15281568
000070 33 1e a2 3e eb 7b 75 be 6c 04 0d bd d2 b9 0d bd
       0.31663665 -0.23973052 -0.034428045 -0.03460104
000080 ee c1 ba bd 20 2b 0a 3e 44 ab ad bd c9 99 91 bc
       -0.091190204 0.13493013 -0.08479932 -0.017773526
000090 68 b9 98 3c be 77 d4 3d 05 6c a3 be ca 29 bb 3d
       0.018643096 0.103744015 -0.3191835 0.0913883
0000a0 c6 4f c1 3c 18 ee 23 3e df 82 80 be 00 e2 56 3d
       0.02359761 0.16008794 -0.25099847 0.052461624
0000b0 9d 29 91 3e b5 f0 3a be c3 e1 69 bd 68 8d c3 be
       0.2835206 -0.18255885 -0.05710007 -0.38193822
0000c0 6f fb 59 bd d0 d4 6d 3e 2c 69 67 3d ee b5 30 be
       -0.0532183 0.23225713 0.056496784 -0.172569
0000d0 a9 af 17 3e ac 66 ec bd f4 f1 5e 3e 79 85 03 3e
       0.14813103 -0.115430206 0.21771985 0.12843885
0000e0 f5 4c 05 3d 6a ef 35 be 49 03 62 be f5 a8 36 be
       0.032544095 -0.1776711 -0.22071566 -0.1783789
0000f0 ba b9 18 3d 26 b3 9d 3b 0c 2c d4 be c1 55 4e be
       0.037286498 0.004812616 -0.41439855 -0.201499

h.0.mha.W_v.weight f4 [64, 64]
000000 b3 1a 31 3d 74 20 42 be 13 25 39 3d ef 56 84 3e
       0.043238353 -0.18957692 0.045201372 0.25847575
000010 27 82 2f 3a ab 4e 1b 3c bb 8d bc 3d 6d 36 86 bc
       0.00066951144 0.009479205 0.092067204 -0.016383374
000020 20 98 00 bb 33 8f 91 bb 28 a2 6d 3d 4b be 17 3d
       -0.0019621924 -0.0044421195 0.058015972 0.037046712
000030 30 e6 f6 bd 70 96 a2 bd f7 07 c1 3c 63 db fe bd
       -0.120556235 -0.0793885 0.023563368 -0.124441884
000040 70 a1 20 3e a2 c2 73 3d df 6c 10 bc e3 3c dc bd
       0.15686584 0.05951179 -0.008815019 -0.10753801
000050 10 fe fc 3d 8a a6 0c 3e 98 d1 57 bd 12 be 6f 3e
       0.12353146 0.13735405 -0.05269012 0.2341235
000060 25 2e 72 bd 19 a8 3e 3d 20 ae 8b 3d 0d 70 f0 bd
       -0.059126038 0.04654703 0.06820321 -0.11740122
000070 3a 58 a7 3c b4 5f 59 3c 77 7d d8 3d 14 05 81 bd
       0.020427812 0.013267446 0.105708055 -0.06299797
000080 d4 9e 0c be 57 c5 30 3c ba 04 94 be 7c eb 2c be
       -0.13732463 0.010789237 -0.28909856 -0.16886705
000090 0a 64 09 be 69 75 66 bd fb 7b b0 3d 39 93 a2 3c
       -0.13417068 -0.056264315 0.086173974 0.019845592
0000a0 5b 62 23 be 81 a2 1e 3d a6 12 c6 3c e4 d9 5e 3d
       -0.15955488 0.038729195 0.024178814 0.054407015
0000b0 4a 75 80 be 76 cb cc ba 09 56 54 3b 50 9d 4e 3e
       -0.25089484 -0.0015624601 0.0032399914 0.20177197
0000c0 aa 97 1e bc cc d5 5e bd d0 bd 39 bd 0f 11 46 3d
       -0.009679714 -0.05440311 -0.045347035 0.048356112
0000d0 a7 22 b5 3d 25 40 5c 3e 49 2a 3a bd 49 2b 11 3e
       0.088445 0.21508844 -0.045450483 0.14176668
0000e0 33 57 26 3e 29 a2 bb bc 10 28 ca 3d 68 8c 1f be
       0.16244201 -0.022904472 0.098709226 -0.15580904
0000f0 b9 e0 ad bd 6a 62 96 bd 95 1f 6e bc 63 2e 36 3d
       -0.08490128 -0.0734299 -0.014533897 0.04447783
000100 41 ff 12 3d 31 10 eb bc 77 43 e0 3d 78 03 7e bd
       0.03588796 -0.028694244 0.10950368 -0.062015027
000110 1a e4 ae 3d e6 84 2c 3d 01 45 bc 3e a6 c0 c5 3d
       0.08539601 0.04211893 0.36771396 0.096558854
000120 64 a7 5b 3e 52 dd d7 bd 36 9d a0 bc 34 b8 77 3d
       0.21450573 -0.105402604 -0.019606214 0.060478404
000130 1e e2 18 3e 05 7c cb bd 5a cc 10 3c 78 b9 71 3e
       0.14930007 -0.09935764 0.008837784 0.23605907
000140 c9 be 66 3d ae 98 21 be 2c 73 07 be 19 a8 4c 3e
       0.05633429 -0.15780899 -0.13227528 0.19985999
000150 71 ba f9 3c 19 6d 0b be d0 a4 d1 3b ee 7c 70 3d
       0.03048441 -0.13615836 0.006397821 0.058712892
000160 90 00 75 3e 94 92 8c 3e 32 43 2f be 6d da c9 3c
       0.23925996 0.2745558 -0.17115477 0.024640286
000170 65 0e 20 3c 3b 84 8b bd 9a dc 3d bd 18 f1 97 3d
       0.009769057 -0.0681233 -0.04635296 0.07419032
000180 5b 7b 9a bc 5a 8a 21 3d e2 7c 3e bd ce 0b 5e bd
       -0.018857649 0.039438583 -0.046505816 -0.054210477
000190 39 32 8a bd 0f eb 4d 3e b5 9a 13 be e5 1f 89 bd
       -0.067478605 0.20109199 -0.14414485 -0.066955365
0001a0 08 32 99 bd 74 35 32 3d 31 0e ea bd 01 3d 3e 3d
       -0.07480246 0.043508008 -0.11428488 0.046444897
0001b0 8f c2 a0 3d 4f 7b a5 bd 63 b8 32 bd 11 7c 6e bd
       0.07849609 -0.0808016 -0.043632876 -0.058223788
0001c0 c1 14 45 3d c8 f1 bd bd 5f 05 d2 3d 1e df 32 be
       0.048115496 -0.09274632 0.10254931 -0.17467925
0001d0 f6 e3 22 be ef cb 06 3e 26 49 42 be 5f 7e 83 bd
       -0.15907273 0.13163732 -0.18973216 -0.06420588
0001e0 0e e5 4b 3d f2 fa 54 3e 83 74 4d bd 1c da 99 bd
       0.04977899 0.20798853 -0.050159942 -0.07512304
0001f0 38 f4 1c bd ac 94 4b 3e 59 a9 5c 3e 81 26 63 bd
       -0.038318843 0.19880933 0.21548976 -0.055456642
000200 4b 46 68 3d b5 6b 78 3d 03 6f 1f 3d c8 c0 3c bc
       0.05670766 0.060649592 0.03892423 -0.011520572
000210 d9 5a 08 3e ce 64 ae bc e3 f5 1b bd b2 2d 74 bd
       0.13315906 -0.021288302 -0.038076293 -0.05961389
000220 00 4a c6 bd 5a ab 9f bc 92 79 a5 bd 08 1e 1a bc
       -0.09682083 -0.019490886 -0.08079828 -0.009406574
000230 5c e6 b8 3c ed 3b 01 3e fe 0d ce 3d 60 83 eb bd
       0.022570781 0.12620516 0.100612625 -0.11499667
000240 9d e5 4d 3d 7a 74 db bd 44 6d 70 3d b5 b4 5d 3e
       0.050267804 -0.107155755 0.058697954 0.21650966
000250 52 56 48 bd 64 52 73 3d 93 76 24 bd 78 bb 89 3d
       -0.048910446 0.059404746 -0.040152144 0.0672521
000260 86 51 8a 3b d5 e7 5d 3d d4 64 b8 3d ef 7e e9 3d
       0.004221144 0.05417617 0.090036064 0.11401164
000270 57 dc e1 bd e9 73 b1 3d b4 2d be bc 74 49 74 3d
       -0.110283546 0.08664686 -0.023215152 0.059640363
000280 52 49 2b be c1 c9 2e 3e 39 9b 30 3d 66 3f cd ba
       -0.16727188 0.1706915 0.04311678 -0.0015659153
000290 7f 93 9e bd b2 9c 51 3d e7 be ee bd c2 01 03 be
       -0.077429764 0.051174827 -0.116575055 -0.1279364
0002a0 6c c6 89 3d b5 c4 02 be 06 ba 44 3d f2 42 80 bd
       0.06727299 -0.1277035 0.04802897 -0.06262769
0002b0 a0 68 32 bc 22 25 2b be db 32 27 3d de 05 f0 3d
       -0.010889202 -0.16713384 0.040819984 0.11719869
0002c0 ee 96 40 bd 6e 67 a3 3d 55 30 02 be 09 48 7a bb
       -0.047018938 0.07978712 -0.1271375 -0.003818991
0002d0 9a ee 87 bd 9e c4 cd 3d 15 68 fa 3c aa 2c 13 bc
       -0.066373065 0.100472674 0.030567208 -0.008982817
0002e0 ef 64 1e bd ec cf 1b bd 27 98 bb bc 77 79 89 3d
       -0.038670477 -0.038040087 -0.0228997 0.06712621
0002f0 cf 4e e4 3c b8 bb 9e 3d 79 e5 f2 bd f4 47 2e 3d
       0.02786961 0.07750648 -0.11860175 0.04254909
000300 9a ff 00 bd d8 84 1c bd 2e 01 9e bd 09 e6 4f 3d
       -0.03149376 -0.038212627 -0.07715069 0.050756488
000310 6f 7d 07 3c 27 f4 7a 3e 44 3b 84 be 9c da ee bb
       0.008269652 0.24507199 -0.25826466 -0.007289244
000320 86 22 2a be 1f 29 b4 bd 0b af d1 3c 4d 91 14 be
       -0.16614732 -0.08796906 0.025596162 -0.14508553
000330 10 66 c3 3c 77 bc 40 be 85 1a 48 bd c0 19 2f bd
       0.023852378 -0.18821894 -0.048853416 -0.042749166
000340 2d 48 f1 bd cd 89 02 be 2c f1 b7 bc bd e7 5f 3e
       -0.117813446 -0.1274788 -0.022453867 0.21865745
000350 50 07 ca 3d c0 b6 a2 bd e9 10 6d 3d 79 b4 43 3e
       0.09864676 -0.07945013 0.057877455 0.19111814
000360 d2 ed fd ba 29 28 90 bb ed e6 cd 3d 82 29 07 3d
       -0.0019373244 -0.0043993187 0.10053811 0.03299857
000370 b4 a6 eb 3d 93 f0 51 bd 27 8c b7 bd a7 99 2d be
       0.115064055 -0.05125482 -0.08962279 -0.16953145
000380 6c 3b bd ba bb 49 2d 3e df 6f 4a 3e b7 5f c1 3d
       -0.0014437265 0.16922657 0.19769238 0.09442084
000390 57 20 b3 bd 76 ad 05 3e 5b f3 86 bd 84 09 33 3e
       -0.08746403 0.13054451 -0.06589385 0.17484099
0003a0 06 a4 25 be dc ff 6c 3e e0 ce fd 3d 86 8e ff 3c
       -0.16175851 0.23144478 0.12392974 0.03119589
0003b0 7f bd 20 be 84 36 3b 3e 36 57 91 bd af 96 04 3d
       -0.15697287 0.18282515 -0.07096712 0.032370266
0003c0 a1 0d bf 3d ad b2 22 be 25 f6 34 bd 3a a5 e4 3d
       0.093287714 -0.15888472 -0.044180054 0.11164327
0003d0 7e e3 28 bd a6 3e a1 bd 14 34 c9 3c b0 f0 de bd
       -0.04123258 -0.07873277 0.024560966 -0.10885751
0003e0 f0 05 15 3d 2c 7c 2b bc ef 80 d6 bd 7a 73 3f bc
       0.036382616 -0.010466617 -0.10473811 -0.011685247
0003f0 12 fa 8e bd c9 3c 7b 3d e9 ed 6f be e1 cb 45 be
       -0.06981291 0.061337266 -0.234306 -0.19316055

h.0.mha.W_v.bias f4 [64]
000000 f5 e6 5b 3d 50 35 08 bc 13 d6 95 bd c3 21 22 3d
       0.053687055 -0.008313492 -0.07316222 0.03958298
000010 3d 7f 83 3d db e6 0b bd 8d 9d b5 3d fc 7c 8d bb
       0.06420753 -0.034155708 0.08867941 -0.004317878
000020 8e c5 a9 bd 6a 57 60 3d 2a 3b 44 3d 71 6b 07 bd
       -0.08289634 0.054770865 0.047907986 -0.03306145
000030 b3 57 82 3d 9d 5c 07 bc ac 4e b1 bc 06 a9 01 be
       0.063643835 -0.008261827 -0.021643959 -0.12662134
000040 9b 78 33 bd d0 a3 de bc 37 a1 bb bc d7 22 8c 3d
       -0.04381619 -0.027177721 -0.022904022 0.06842583
000050 b0 4f 05 bd d2 93 b2 3c 73 73 bb 3d 71 d4 dd 3c
       -0.0325467 0.021799002 0.091528796 0.027078839
000060 ab 97 c3 3d e8 a3 a4 bc 79 df 4c 3d 9a 6e 0c 3d
       0.09550413 -0.020097688 0.050017808 0.034285165
000070 89 ad 33 3c 41 94 68 bd b4 dd 00 be dc 8c b8 bd
       0.010966667 -0.05678201 -0.12584573 -0.09011242
000080 0f 9e 5a bd 25 20 a3 bd 2c db c7 3d 1f 5a 9d 3d
       -0.053373393 -0.079651155 0.097586006 0.07683205
000090 67 22 de 3c 10 c1 79 3d 7d 53 c6 bd 26 83 80 bd
       0.027116014 0.060975134 -0.09683893 -0.062750146
0000a0 90 e5 46 3c 9c ef 1b 3d 97 2a bf bc bf 44 9a bd
       0.012139693 0.038070306 -0.023335738 -0.075326435
0000b0 a1 2d b9 3c e3 5b f6 bd 19 57 27 bd 36 70 a9 bd
       0.022604765 -0.12029245 -0.040854547 -0.08273356
0000c0 8b d6 53 3d 86 5e 32 3d 14 77 52 3d 62 3d 92 bc
       0.051718276 0.043547176 0.051383093 -0.017851535
0000d0 d5 a7 a4 bd 4d 9f bf bc 8e 75 cc bd 48 2a 9f 3d
       -0.08039824 -0.02339139 -0.09983359 0.077717364
0000e0 50 ac 98 bd 47 a8 a2 bd 5b 31 4d 3d 49 9e 84 3d
       -0.07454741 -0.079422526 0.050095897 0.06475503
0000f0 b9 7e ae bd ce 01 fb bb ca 37 ab 3d 3c c9 26 3d
       -0.08520264 -0.0076601272 0.0836025 0.040719256

h.0.mha.W_o.weight f4 [64, 64]
000000 d0 23 a9 bd 34 b2 6d bd c9 c4 f4 b9 d4 4e fd 3d
       -0.08258784 -0.058031276 -0.00046685923 0.12368551
000010 5c 16 8d bc 05 6e 88 3b 9d 30 d5 bd 28 14 15 3c
       -0.017222576 0.004163506 -0.10409663 0.009099044
000020 58 06 46 3a 24 86 ad bd 46 0a 90 bc 69 f3 14 bd
       0.0007554046 -0.08472851 -0.017583024 -0.036364947
000030 2b 16 84 bd 23 47 3b 3e 88 91 31 3e 6a 94 9f bd
       -0.06449541 0.18288855 0.17340672 -0.077919796
000040 6d 94 99 3d e5 89 2f bd 59 46 70 3c dc 0a 37 3e
       0.07499013 -0.042856116 0.01466521 0.17875236
000050 18 71 2a 3e 79 f4 d5 bc 7f ac 3a be 06 3d 32 3e
       0.16644704 -0.02611755 -0.18229865 0.17406091
000060 8d d6 cd 3c ce 8e 0c be 5c 19 94 3d 24 24 df bd
       0.02512672 -0.1372635 0.072313994 -0.10895565
000070 c1 dc 0d 3c 09 5d 0f 3d 1a f6 28 3d 35 43 c3 bd
       0.008658589 0.035000835 0.041250326 -0.09534303
000080 57 46 92 bb f5 e4 c6 3b 2e 49 44 be 55 88 67 3e
       -0.0044639516 0.0060697743 -0.19168541 0.226106
000090 a4 38 80 3d ed da 62 bc a7 7d 55 3d 67 db db bc
       0.06260803 -0.013846141 0.052121785 -0.026838018
0000a0 3d 45 03 bd c0 00 af 3d 37 9f b3 3d c2 59 39 3e
       -0.032048453 0.08545065 0.08770602 0.18100646
0000b0 fd ad 17 be 3b 86 54 bd e5 86 27 bd 39 1c 70 3d
       -0.14812465 -0.051885825 -0.04090013 0.058620665
0000c0 2d c8 2e be 1c 54 97 3c d7 b5 3e 3b 67 0e 46 3d
       -0.17068549 0.018472724 0.0029100084 0.04835358
0000d0 8a 9c 80 3c 68 9b e1 b8 64 ca eb 3d 15 11 05 bd
       0.015699644 -0.00010757783 0.11513212 -0.032486994
0000e0 ad 8c 8e bd 8c 5e df bd 69 57 1b 3c b0 9f a5 bd
       -0.069604255 -0.10906705 0.009481289 -0.080870986
0000f0 c7 cf cb 3d 8b d4 86 3c be a9 8d 3d b4 87 86 3d
       0.0995174 0.01645877 0.069171414 0.06568852
000100 64 22 3a bd 61 75 a6 3e 29 7a 81 3d 8d 3c b2 3b
       -0.045442954 0.32511428 0.06322128 0.005439347
000110 7e 1b 8d bb 1f c1 0f 3c 1f 1a 85 bc 27 60 44 3e
       -0.004306256 0.008774071 -0.016247807 0.19177304
000120 50 04 55 bc 98 9e 88 bd 57 ee 26 be e6 4b e7 bc
       -0.013001516 -0.06670874 -0.16301857 -0.028234433
000130 dd f4 aa 3d 76 25 5a 3d b3 65 01 be 1b c1 e5 3c
       0.08347485 0.05325838 -0.12636451 0.028046181
000140 6d 86 3d 3d f7 02 54 3d 69 56 02 3e 3a 60 15 be
       0.046270777 0.05176064 0.12728275 -0.14587489
000150 2a f3 1a 3e 2f 44 98 3d 2d 14 c1 bd ab 35 0e be
       0.15131822 0.0743488 -0.09427676 -0.1388766
000160 c1 cd b9 3d 7b 88 e3 3c 25 f6 bf 3d 20 7f 11 be
       0.090724476 0.02777504 0.0937312 -0.1420865
000170 ab a2 01 be e9 f5 bc bc 32 e3 ec 3d ca 0f 68 3d
       -0.12659709 -0.023066478 0.115667716 0.056655683
000180 21 93 be bd e5 90 08 3e 00 1b 8d bd f6 3f ba 3b
       -0.09305406 0.13336523 -0.068899155 0.0056838943
000190 eb 95 1d 3d 62 88 21 be 6d 62 79 be 3c 20 fb bd
       0.03847305 -0.15774682 -0.24353953 -0.122620076
0001a0 ac 07 7c bc 94 3f 92 3e f0 bc 3d be 5f 73 83 3d
       -0.0153826885 0.2856413 -0.18529105 0.0641849
0001b0 7a 20 5c 3d c1 d7 e1 3a 37 5b fb 3d 50 40 7c 3d
       0.05374191 0.0017230437 0.12273257 0.06158477
0001c0 42 9f 4b 3e 55 45 d7 bb 7d d9 fa 3a be 2a a7 3d
       0.19884971 -0.0065695443 0.0019138303 0.08162449
0001d0 a5 52 96 bd 2b 60 54 3c c8 16 ca 3d 12 5d e5 bd
       -0.07339982 0.012962381 0.098676264 -0.111993924
0001e0 34 48 ac 3d a7 64 81 bd 33 fb 0e bd aa 59 d7 3d
       0.08412209 -0.06318026 -0.03490753 0.10515149
0001f0 18 18 f1 3d 5c 40 dd bd ef 51 d0 bd db d9 10 be
       0.11772174 -0.10803291 -0.101718776 -0.14145605
000200 c1 63 62 bc 07 ff 32 3d d3 20 bd 3c 7d 83 fe bc
       -0.0138177285 0.043700244 0.02308694 -0.031068558
000210 88 42 30 bb 9b d8 90 bd e6 8b 48 be 1f 3c 8e bd
       -0.0026895124 -0.07072564 -0.19584617 -0.06945061
000220 78 53 6c 3c 75 dd a8 3d e6 86 9d 3d 55 bf 63 3e
       0.014424197 0.082453646 0.076917455 0.22240956
000230 b2 55 02 be aa e9 40 3e 94 05 73 3d 97 77 b9 bd
       -0.12728003 0.18839136 0.05933149 -0.09056013
000240 55 c8 5e bd 19 b9 c1 bd f3 c3 92 bc 9b 8c 64 be
       -0.05439027 -0.09459133 -0.017915701 -0.22319262
000250 67 94 21 3d de 1c ea 3d fc ae d7 bd d8 e6 6c ba
       0.039448168 0.11431287 -0.105314225 -0.0009037084
000260 a7 fb 47 3d ae 27 65 bd 45 67 3a be 91 d1 28 3e
       0.04882398 -0.055946045 -0.18203457 0.16486193
000270 98 ea ae bc a6 a0 f2 3c dc 3a 66 3b 1d 91 c3 bd
       -0.021352097 0.029617619 0.0035130298 -0.095491625
000280 fd 0d e0 bd e9 70 b4 bd 86 05 c1 bc d7 ad 5a bd
       -0.10940168 -0.088105984 -0.023562204 -0.053388443
000290 86 b2 a4 bd db 13 05 3e 65 48 1f 3d ab 6a 19 3d
       -0.08041863 0.12995856 0.0388874 0.037455242
0002a0 a3 43 1b be 46 0d 6d bc 7d 20 dd 3c 96 6a 1f 3e
       -0.1516252 -0.014468497 0.02699303 0.15568003
0002b0 6a c7 2a 3d 52 68 de 3d 1d c1 c7 bc 9e d4 e4 bc
       0.041694082 0.10859741 -0.024384076 -0.027933415
0002c0 d9 a4 a1 3d d9 a7 24 3e 70 8a 32 be 73 26 6f be
       0.0789277 0.16079654 -0.17435622 -0.23354511
0002d0 44 4f 83 bd dc f0 00 bc 2e b4 a0 3d d6 49 f5 bd
       -0.06411603 -0.007869925 0.078468665 -0.11976974
0002e0 b7 c8 13 3e b0 a9 9e 3d 78 c3 ab bc de cb 08 bd
       0.14432035 0.07747209 -0.02096723 -0.033397548
0002f0 1e b7 6e 3d d7 25 ea bb ea c6 7a bd 92 f8 1f bd
       0.058280103 -0.007145624 -0.061224855 -0.039055414
000300 1b e3 63 3d 73 16 a4 3d 75 49 fd bd 9b 92 cf 3d
       0.055636507 0.08012094 -0.123675264 0.10135385
000310 ed 87 02 3e fe 63 06 3d 31 80 a3 3d fe 95 95 3d
       0.12747164 0.032810204 0.07983435 0.07303999
000320 45 b1 a8 bd 5c 00 58 bd bf 0c eb 3c 5a b1 07 bd
       -0.082369365 -0.052734718 0.028692601 -0.03312812
000330 16 00 7e be 7e f2 ea bd 14 59 31 bb 9c a8 23 be
       -0.2480472 -0.11472033 -0.0027061151 -0.15982288
000340 ad c6 86 be 66 99 4a 3c 5b 9d d0 3d 7c 9f fa b9
       -0.26323453 0.012365675 0.10186263 -0.0004780254
000350 c3 54 97 3d 54 d1 bf bd ee af cb bc c1 93 d5 bd
       0.07389214 -0.09366098 -0.024864163 -0.104285724
000360 5c cb 31 be 43 32 8e bd f1 47 a4 bc c3 c6 75 3c
       -0.17362732 -0.069431804 -0.020053836 0.015001002
000370 49 08 d0 3b c8 4c 9a bd 60 d3 37 3d 35 51 e3 3c
       0.006348644 -0.07534176 0.044879317 0.027748683
000380 58 2c 08 be dd 87 93 3d 35 ea 9a bc ac a1 c2 bc
       -0.13298166 0.07203648 -0.018910507 -0.023758732
000390 bd a0 83 bc bb fc 60 be 24 88 ca bc 6f 94 a3 3e
       -0.016067857 -0.21971409 -0.02472312 0.31949183
0003a0 cb 86 75 3e 0a c2 21 bd a7 0e 40 3d 18 30 1b 3d
       0.239772 -0.03949169 0.046888974 0.037887663
0003b0 2c f0 26 bc f9 8a c9 bd ed a4 ad bc 9d 70 5c 3d
       -0.010189097 -0.0984096 -0.021196807 0.053818334
0003c0 fc e0 f8 3d 68 b5 43 be 7f b8 74 be fa d3 ca 3d
       0.12152287 -0.1911217 -0.23898505 0.099037126
0003d0 2d 43 c5 bd 92 8e 3a 3b b6 43 b7 3d 75 41 09 3d
       -0.096319534 0.0028466326 0.08948462 0.03350969
0003e0 7c 26 dc 3d 23 fa c8 bd 45 4a 99 bd 88 89 b3 3d
       0.10749528 -0.09813335 -0.07484869 0.087664664
0003f0 4c 71 a6 bb bb ec f4 bb eb 01 d6 bd 74 6a ba 3d
       -0.005079424 -0.0074745095 -0.104495846 0.091023356

h.0.mha.W_o.bias f4 [64]
000000 b3 5c fe bd 07 fa 35 bd d1 c4 00 3e d9 1e 94 3c
       -0.12420025 -0.044427898 0.1257508 0.018081116
000010 e8 98 ab bd 74 0d ef 3d f8 6e da 3d 9d 4e b0 bd
       -0.08378774 0.11672488 0.10665697 -0.08608744
000020 15 92 d4 3c 35 69 c7 bd 8d 3d 7d 3b 0c 31 91 3d
       0.025948564 -0.097368635 0.0038641423 0.07089433
000030 f4 54 18 bd fb 65 37 3c b2 ed db bd d4 a8 57 3d
       -0.037190393 0.011193748 -0.10738696 0.05265124
000040 07 19 8d bc f6 f3 38 bd 77 e3 85 bd 39 9d 04 3d
       -0.017223848 -0.045154534 -0.06537526 0.0323765
000050 be eb d1 bd ec 3c 92 bd 45 ec 80 bd ef fc cd bc
       -0.102500424 -0.07140526 -0.06295065 -0.025145022
000060 17 4e 37 3c c1 72 c1 bd 91 af 75 bc f9 ef cc 3d
       0.011188052 -0.09445716 -0.014995472 0.10006709
000070 f2 cb 46 bd 60 d5 cc 3d 5e 53 b5 3d d8 81 bc 3c
       -0.04853434 0.100016356 0.08853792 0.023011133
000080 f7 a7 71 bd ad 70 a1 bd d1 a0 fa bd fd b6 e8 3d
       -0.058998074 -0.07882819 -0.122377045 0.11363027
000090 a5 04 9b 3d 60 8c 18 3e 62 97 bf bd cf 18 5a bc
       0.07569245 0.14897299 -0.09355046 -0.013311579
0000a0 17 5e 80 bd 96 dc c4 bd 7b 61 35 3d dc 31 34 3d
       -0.06267946 -0.09612386 0.044282418 0.043992862
0000b0 48 79 00 bd f7 85 1b bd 2c cc 42 bd cb 1b 30 3d
       -0.031365663 -0.037969556 -0.047557995 0.042995255
0000c0 43 73 d0 3d 64 e9 b7 3a 6d 45 14 be e6 6b 8b 3d
       0.101782344 0.0014031348 -0.14479609 0.06807689
0000d0 41 b3 93 bd 0f 56 c0 3d 88 99 c1 3d e8 44 bb ba
       -0.07211924 0.093914144 0.09453112 -0.0014287503
0000e0 6f 59 0e bd 6e 7d 8e bd 89 0a 86 3b a6 26 54 bd
       -0.03475326 -0.069575176 0.0040906114 -0.05179467
0000f0 1f 0d 97 3d 68 15 76 3d ac ac c4 3d 6f 79 a6 3d
       0.073755495 0.06007901 0.09603247 0.0812863

h.0.ln_1.weight f4 [64]
000000 d1 9c 68 3f 34 e1 52 3f 2f e5 79 3f 54 46 5e 3f
       0.9086428 0.8237488 0.9761533 0.8682606
000010 a6 77 30 3f 73 ea 51 3f 95 00 4d 3f 6f 64 74 3f
       0.6893257 0.81998366 0.80079013 0.9546575
000020 8a f0 59 3f 20 5e 54 3f bf 1d 60 3f fa 95 5d 3f
       0.8513266 0.82956123 0.8754539 0.8655697
000030 37 b5 54 3f 65 8f 5b 3f 03 5b 39 3f d6 4b 6a 3f
       0.8308901 0.8576568 0.724045 0.91521966
000040 35 21 6b 3f 6d 12 45 3f f2 cc 47 3f 71 e9 34 3f
       0.91847545 0.7698124 0.78047097 0.70668703
000050 bc 16 7e 3f 3c d5 51 3f 29 56 3a 3f 4b c8 5d 3f
       0.9925344 0.81965995 0.7278772 0.8663375
000060 20 05 52 3f 3c c5 4e 3f 9d 8f 74 3f 47 b1 3f 3f
       0.8203907 0.80769706 0.95531636 0.7487988
000070 fc 48 40 3f 7c 47 48 3f e1 a5 6e 3f 92 a7 5e 3f
       0.75111365 0.78234076 0.9322186 0.8697444
000080 57 78 46 3f 7e 3a 52 3f 03 37 5a 3f 75 6d 65 3f
       0.77527374 0.821205 0.8524019 0.89620143
000090 3a 33 4f 3f d5 c2 73 3f 7b 22 6f 3f 7a 5e 4f 3f
       0.8093754 0.95219165 0.9341199 0.81003535
0000a0 27 57 2a 3f 05 4a 65 3f d3 ab 5b 3f 39 1c 5e 3f
       0.66539234 0.8956607 0.8580906 0.86761814
0000b0 8e 82 69 3f c3 a6 5f 3f da e0 76 3f d4 ef 53 3f
       0.91214836 0.87363833 0.96436846 0.82787824
0000c0 5e c3 51 3f cd c5 5d 3f 54 36 50 3f a1 34 82 3f
       0.8193873 0.86629945 0.813329 1.0172311
0000d0 dd 25 45 3f b7 e7 6c 3f 35 c4 4d 3f 01 a4 74 3f
       0.770109 0.9254107 0.80377513 0.9556275
0000e0 58 7a 63 3f 24 28 43 3f ef 82 6c 3f 30 c9 4b 3f
       0.88858557 0.76233125 0.9238729 0.7960386
0000f0 de 04 44 3f 63 c4 59 3f 1e 2f 70 3f 81 96 50 3f
       0.76569927 0.8506529 0.93821895 0.8147965

h.0.ln_1.bias f4 [64]
000000 c0 bc 4d 3c 52 43 a6 bd 74 ec 5d bc 23 48 b6 bb
       0.012557209 -0.08118309 -0.013545144 -0.0055627986
000010 d8 46 8f bd 23 ee 61 bd ff 86 41 3b 35 68 2e 3d
       -0.06995934 -0.055158745 0.0029529927 0.04257985
000020 7b 9f c7 ba d2 06 32 3c 2f 04 a4 3c 93 7a 31 3b
       -0.0015230024 0.010865884 0.020021526 0.0027081117
000030 99 5f 4c 3d 52 d2 97 bd a6 7f 26 bc f8 50 99 bd
       0.049895857 -0.07413162 -0.01016227 -0.07486147
000040 9c b7 22 3c ea 2b 30 3d b2 a9 63 3d 63 79 a2 3c
       0.009931471 0.04301063 0.055581756 0.019833272
000050 63 16 88 bc fb 7d 9b bc f2 65 92 3d 34 e0 02 3c
       -0.016612237 -0.01898097 0.07148351 0.0079880245
000060 ee e0 ef 3c c0 d0 87 bd b2 17 7b 3b 50 7e 7e bc
       0.02928206 -0.06631613 0.0038313684 -0.015533045
000070 a9 68 4f bd 62 ce 4a bd 8c 7b 7b bc 79 15 a1 bc
       -0.05063692 -0.04951323 -0.01534928 -0.01966356
000080 e4 47 9c 3d 12 14 85 3d 57 85 14 3b 90 6d 85 bc
       0.076308995 0.06497969 0.0022662485 -0.016287595
000090 55 2c 03 3d a4 ea ac b8 41 04 00 3d eb b6 19 bd
       0.0320247 -8.245304e-05 0.031254057 -0.03752796
0000a0 fc 52 13 3c f2 b2 d0 3d 28 12 e1 bb 86 76 4b 3c
       0.008991953 0.10190381 -0.0068686195 0.012418395
0000b0 1d 8a c1 bc c1 45 5f 3a aa 9c 2e 3d 6e 3d f2 3d
       -0.023625428 0.0008517169 0.042629875 0.11828123
0000c0 9f 38 33 3d cb 05 f8 3d 8a bf 4d bd d0 24 ce 3c
       0.04375517 0.1211048 -0.050231494 0.025164038
0000d0 02 03 fa 3c 22 4d 86 bd 60 dc 72 bb 34 75 d0 3c
       0.030519012 -0.06557681 -0.0037057623 0.025446512
0000e0 2f f5 e3 bc 8d 24 bc 3c 73 a4 36 3d b8 8a e7 bb
       -0.027826874 0.022966648 0.044590425 -0.007066097
0000f0 10 e7 31 3d 8d 32 63 3b 4b d0 dd bc a4 a2 c2 3b
       0.04343325 0.0034667582 -0.02707686 0.0059397984

h.0.ln_2.weight f4 [64]
000000 00 00 80 3f 00 00 80 3f 00 00 80 3f 00 00 80 3f
       1.0 1.0 1.0 1.0
000010 00 00 80 3f 00 00 80 3f 00 00 80 3f 00 00 80 3f
       1.0 1.0 1.0 1.0
000020 00 00 80 3f 00 00 80 3f 00 00 80 3f 00 00 80 3f
       1.0 1.0 1.0 1.0
000030 00 00 80 3f 00 00 80 3f 00 00 80 3f 00 00 80 3f
       1.0 1.0 1.0 1.0
000040 00 00 80 3f 00 00 80 3f 00 00 80 3f 00 00 80 3f
       1.0 1.0 1.0 1.0
000050 00 00 80 3f 00 00 80 3f 00 00 80 3f 00 00 80 3f
       1.0 1.0 1.0 1.0
000060 00 00 80 3f 00 00 80 3f 00 00 80 3f 00 00 80 3f
       1.0 1.0 1.0 1.0
000070 00 00 80 3f 00 00 80 3f 00 00 80 3f 00 00 80 3f
       1.0 1.0 1.0 1.0
000080 00 00 80 3f 00 00 80 3f 00 00 80 3f 00 00 80 3f
       1.0 1.0 1.0 1.0
000090 00 00 80 3f 00 00 80 3f 00 00 80 3f 00 00 80 3f
       1.0 1.0 1.0 1.0
0000a0 00 00 80 3f 00 00 80 3f 00 00 80 3f 00 00 80 3f
       1.0 1.0 1.0 1.0
0000b0 00 00 80 3f 00 00 80 3f 00 00 80 3f 00 00 80 3f
       1.0 1.0 1.0 1.0
0000c0 00 00 80 3f 00 00 80 3f 00 00 80 3f 00 00 80 3f
       1.0 1.0 1.0 1.0
0000d0 00 00 80 3f 00 00 80 3f 00 00 80 3f 00 00 80 3f
       1.0 1.0 1.0 1.0
0000e0 00 00 80 3f 00 00 80 3f 00 00 80 3f 00 00 80 3f
       1.0 1.0 1.0 1.0
0000f0 00 00 80 3f 00 00 80 3f 00 00 80 3f 00 00 80 3f
       1.0 1.0 1.0 1.0

h.0.ln_2.bias f4 [64]
000000 00 00 00 00 00 00 00 00 00 00 00 00 00 00 00 00
       0.0 0.0 0.0 0.0
000010 00 00 00 00 00 00 00 00 00 00 00 00 00 00 00 00
       0.0 0.0 0.0 0.0
000020 00 00 00 00 00 00 00 00 00 00 00 00 00 00 00 00
       0.0 0.0 0.0 0.0
000030 00 00 00 00 00 00 00 00 00 00 00 00 00 00 00 00
       0.0 0.0 0.0 0.0
000040 00 00 00 00 00 00 00 00 00 00 00 00 00 00 00 00
       0.0 0.0 0.0 0.0
000050 00 00 00 00 00 00 00 00 00 00 00 00 00 00 00 00
       0.0 0.0 0.0 0.0
000060 00 00 00 00 00 00 00 00 00 00 00 00 00 00 00 00
       0.0 0.0 0.0 0.0
000070 00 00 00 00 00 00 00 00 00 00 00 00 00 00 00 00
       0.0 0.0 0.0 0.0
000080 00 00 00 00 00 00 00 00 00 00 00 00 00 00 00 00
       0.0 0.0 0.0 0.0
000090 00 00 00 00 00 00 00 00 00 00 00 00 00 00 00 00
       0.0 0.0 0.0 0.0
0000a0 00 00 00 00 00 00 00 00 00 00 00 00 00 00 00 00
       0.0 0.0 0.0 0.0
0000b0 00 00 00 00 00 00 00 00 00 00 00 00 00 00 00 00
       0.0 0.0 0.0 0.0
0000c0 00 00 00 00 00 00 00 00 00 00 00 00 00 00 00 00
       0.0 0.0 0.0 0.0
0000d0 00 00 00 00 00 00 00 00 00 00 00 00 00 00 00 00
       0.0 0.0 0.0 0.0
0000e0 00 00 00 00 00 00 00 00 00 00 00 00 00 00 00 00
       0.0 0.0 0.0 0.0
0000f0 00 00 00 00 00 00 00 00 00 00 00 00 00 00 00 00
       0.0 0.0 0.0 0.0

ln_f.weight f4 [64]
000000 00 00 80 3f 00 00 80 3f 00 00 80 3f 00 00 80 3f
       1.0 1.0 1.0 1.0
000010 00 00 80 3f 00 00 80 3f 00 00 80 3f 00 00 80 3f
       1.0 1.0 1.0 1.0
000020 00 00 80 3f 00 00 80 3f 00 00 80 3f 00 00 80 3f
       1.0 1.0 1.0 1.0
000030 00 00 80 3f 00 00 80 3f 00 00 80 3f 00 00 80 3f
       1.0 1.0 1.0 1.0
000040 00 00 80 3f 00 00 80 3f 00 00 80 3f 00 00 80 3f
       1.0 1.0 1.0 1.0
000050 00 00 80 3f 00 00 80 3f 00 00 80 3f 00 00 80 3f
       1.0 1.0 1.0 1.0
000060 00 00 80 3f 00 00 80 3f 00 00 80 3f 00 00 80 3f
       1.0 1.0 1.0 1.0
000070 00 00 80 3f 00 00 80 3f 00 00 80 3f 00 00 80 3f
       1.0 1.0 1.0 1.0
000080 00 00 80 3f 00 00 80 3f 00 00 80 3f 00 00 80 3f
       1.0 1.0 1.0 1.0
000090 00 00 80 3f 00 00 80 3f 00 00 80 3f 00 00 80 3f
       1.0 1.0 1.0 1.0
0000a0 00 00 80 3f 00 00 80 3f 00 00 80 3f 00 00 80 3f
       1.0 1.0 1.0 1.0
0000b0 00 00 80 3f 00 00 80 3f 00 00 80 3f 00 00 80 3f
       1.0 1.0 1.0 1.0
0000c0 00 00 80 3f 00 00 80 3f 00 00 80 3f 00 00 80 3f
       1.0 1.0 1.0 1.0
0000d0 00 00 80 3f 00 00 80 3f 00 00 80 3f 00 00 80 3f
       1.0 1.0 1.0 1.0
0000e0 00 00 80 3f 00 00 80 3f 00 00 80 3f 00 00 80 3f
       1.0 1.0 1.0 1.0
0000f0 00 00 80 3f 00 00 80 3f 00 00 80 3f 00 00 80 3f
       1.0 1.0 1.0 1.0
