subspace-alignment/data/1_layer_32_vocab/ckpt_4620.pt (torch, 90637 bytes, 17 tensors)

embed.embed.weight f4 [32, 64]
000000 23 a5 22 be 30 b4 1a 3f 5f fe 1a 3f 7c 20 09 3e
       -0.15883307 0.60431194 0.6054439 0.13391298
000010 c8 c4 2d bd 70 cd 24 bf 6a d5 92 bf f1 75 85 bd
       -0.042423993 -0.6437597 -1.1471379 -0.06516636
000020 b6 17 ef be d9 54 58 3e 8a 00 c3 bf 76 10 c0 3e
       -0.46697778 0.21126117 -1.523454 0.3751256
000030 79 a3 79 be ad fe 4c bf 1b 1e 57 3f e2 96 b3 3c
       -0.24378766 -0.80076104 0.8403031 0.021922532
000040 14 71 47 3e 7c a7 2f 3d f5 7f 44 3f 44 ba 27 bf
       0.1947673 0.042884335 0.76757747 -0.65518594
000050 92 5e 11 bf 2a f5 bf 3f 84 94 b0 3f 88 c5 78 bf
       -0.5678493 1.4996693 1.3795323 -0.9717641
000060 d8 5d 07 c0 61 81 b2 3f 22 5a 56 bf 85 0c 06 40
       -2.1151028 1.3945733 -0.8373128 2.0945141
000070 65 6d 56 3f 35 da 39 3f f6 37 00 bf f8 b5 04 3f
       0.8376067 0.7259858 -0.5008539 0.5184016
000080 76 5c 65 3f 53 9a 56 bf 41 3e 9d 3e fa 04 78 bf
       0.8959421 -0.8382923 0.30711558 -0.96882594
000090 a5 ab 92 bf 40 bb 20 3f 02 23 5b bf fc bb 32 3f
       -1.1458632 0.6278572 -0.8560029 0.6981809
0000a0 45 bf da bf a1 98 69 bf 26 af 46 3e 9c b1 3a 3f
       -1.7089621 -0.9124852 0.19402751 0.7292726
0000b0 9a d2 97 3f 4b 4c 42 3f ff 0e ea be 31 7e 1c bf
       1.1861145 0.75897664 -0.45714566 -0.6113005
0000c0 e6 8f 4c bf 91 9d c2 bf c2 5a 07 be ae f5 a8 be
       -0.7990707 -1.5204335 -0.13218215 -0.3299994
0000d0 3a 34 b9 3e 98 b7 8a 3f 48 5f 95 3d a9 52 6d bf
       0.36172658 1.0837278 0.07293564 -0.92704254
0000e0 ed 87 b6 3e dd 5b 03 bf 88 cf 9e bf 3d 9c c3 bf
       0.35650578 -0.5131205 -1.2407084 -1.5282055
0000f0 a9 af eb 3e 55 62 9b be f4 5d 34 3c 1e 6e 54 3f
       0.46032456 -0.3034846 0.011008728 0.82980525
000100 6b 5c 16 3f bc 01 97 bf fe 01 8a bf 85 61 19 3e
       0.5873477 -1.1797404 -1.0781858 0.14978607
000110 52 85 ef 3f 4c a3 84 bf ca 25 8b be 8b 6f 0e bf
       1.8712561 -1.0362334 -0.27177268 -0.5563895
000120 31 fb a6 3e 1e 22 aa be ac c4 b6 3d c9 1b e9 3e
       0.3261352 -0.33229154 0.08924231 0.4552901
000130 c6 0c c5 3e e6 7d d3 3e f5 40 22 3d 17 b6 51 3f
       0.38486308 0.4130699 0.03961273 0.8191847
000140 a5 af 98 3f cc 60 06 bf 48 f9 87 3f 8f c2 a4 3e
       1.1928602 -0.5249145 1.062295 0.32179686
000150 be 3f 80 3e b8 0b d1 be f2 f1 cc 3f 97 c0 f4 3e
       0.2504863 -0.40829253 1.6011336 0.47803184
000160 50 f2 0d 3d 3c de 5e 3f 75 53 a8 bf 7b 3b df 3e
       0.034654915 0.8705785 -1.3150469 0.43600067
000170 da 9e f9 bf d7 a3 fc 3f 70 e2 93 3e cd 85 91 bf
       -1.9501603 1.97375 0.28883696 -1.1368958
000180 d7 b2 a3 bf e7 29 a8 bf 87 71 07 3f ce 4d 2c 3a
       -1.2788953 -1.3137788 0.52907604 0.0006572873
000190 26 6a 6a 3f b7 46 4f 3f 98 22 8f 3f 29 9e 57 3e
       0.9156822 0.8096728 1.1182432 0.21056427
0001a0 d3 14 9e bf b4 bf 25 be 45 66 81 3f 7d 53 ea 3e
       -1.2350105 -0.1618641 1.0109335 0.45766822
0001b0 78 69 02 bf a8 98 15 be 21 2a af bf 99 7b ad bf
       -0.5094218 -0.14609015 -1.3684732 -1.3553344
0001c0 28 e6 8c be bb 4d d0 bd 48 5b 90 3f 85 61 14 3d
       -0.27519345 -0.10171076 1.1277857 0.036225814
0001d0 24 05 3f bf 07 9f 0f 3e f9 15 a3 3e 53 c4 7d bf
       -0.7461722 0.14025508 0.318527 -0.9912769
0001e0 a6 77 bf 3d 04 9d 70 bf 8d 84 a9 be fa 9f 22 be
       0.09348993 -0.93989587 -0.3310894 -0.15881339
0001f0 64 55 e2 3e 03 06 13 c0 82 65 65 bf 6e c2 e7 3e
       0.44205773 -2.297242 -0.89608014 0.45265526
000200 8e 8e 54 3f c7 97 5f 3f 33 c4 c5 be d2 13 72 be
       0.8303002 0.8734097 -0.3862625 -0.23640373
000210 a8 07 32 be fd d0 37 3f a2 92 12 bf 6a c0 c0 bf
       -0.17385733 0.71803266 -0.57254994 -1.505872
000220 79 19 a5 3e af c4 6c bf 4e fa ab 3e 47 29 c7 be
       0.32245997 -0.92487615 0.33589405 -0.3889868
000230 43 5a 27 bf a0 ae 4d 3f 82 a3 9a 3e a1 80 c2 3e
       -0.65372103 0.8034458 0.30202872 0.3798876
000240 7d 52 37 bf 81 68 59 bf 1f 1d e2 bf 75 dd 38 bf
       -0.7161024 -0.84925085 -1.7665137 -0.72212917
000250 d5 d6 42 3e c4 5c 99 3f 4f 84 71 bf 6f bc 11 bf
       0.19027264 1.1981435 -0.9434251 -0.5692815
000260 e1 d3 b9 3e 49 cb dd 3e 4f c3 17 bf 86 38 40 3e
       0.36294463 0.43319157 -0.5928239 0.18771562
000270 52 79 89 bf fe 15 c6 3f 94 b2 95 3f 91 c7 de 3e
       -1.0740149 1.5475461 1.1695123 0.43511632
000280 4d 01 5d bf 6c 66 f5 3e 79 53 a5 3e 04 c3 90 3f
       -0.8633011 0.47929704 0.32290247 1.1309514
000290 a9 07 8b bf 60 27 c2 bf 8f 11 d2 be 0f 0d 1c 40
       -1.0861713 -1.5168266 -0.4102902 2.438297
0002a0 b3 cd 16 bf b9 13 76 bf 74 0e f1 3c 80 1c a4 3d
       -0.5890762 -0.96123844 0.029425837 0.080132484
0002b0 7d 9d 0a bd 05 86 55 bf 69 29 58 3f a1 5a 60 be
       -0.0338416 -0.8340762 0.84438187 -0.21909572
0002c0 0a 2c 77 be ec c0 94 bf 7c 00 07 40 c9 cf 60 bd
       -0.24137893 -1.1621375 2.1094046 -0.05488566
0002d0 ab 0f 4d 3e 5a 75 07 bf 9f f1 d4 bf 7b 14 ec be
       0.20025508 -0.5291344 -1.6636237 -0.46109375
0002e0 f9 9d 33 3f 2a 06 85 bd c8 fe 16 bf fd bf 69 3f
       0.7016292 -0.06495316 -0.58982515 0.91308576
0002f0 fd f8 15 c0 aa 35 ff 3e 81 47 86 3e 30 d7 97 3e
       -2.343322 0.4984563 0.26226428 0.29656363
000300 dd 2f a1 bf d0 89 88 3f 0f 9d ae 3d 61 dc fb bd
       -1.2592732 1.0667057 0.0852605 -0.12297893
000310 e1 29 c3 bf a8 4b e5 be 64 06 b0 3f 4c 81 e7 3e
       -1.5247155 -0.44784284 1.375195 0.45215833
000320 e2 d1 a4 bf db 3f 9f bf e7 df eb bf 7f 25 83 be
       -1.2876551 -1.2441362 -1.8427705 -0.25614545
000330 18 a0 2a c0 69 cb 17 40 02 5b 9f bf 8b f8 e5 3e
       -2.6660213 2.3717902 -1.2449648 0.44916186
000340 74 eb ca 3e cd 9a 98 be 4c 0c 4c 3f 1c 63 97 3e
       0.3963276 -0.29805604 0.79706264 0.29567802
000350 78 7e 4a 3f 2d e0 2d bf a9 57 ae bf e2 c4 25 3f
       0.79099226 -0.6792019 -1.3620502 0.64753544
000360 77 e2 fd bf 5a 72 b7 3f 6d 6b 25 3e dc 6c 14 3f
       -1.9834737 1.4331772 0.16154261 0.57978606
000370 d7 ee 97 3e 27 91 9d be a5 8e aa be f4 aa 67 3f
       0.29674408 -0.30774805 -0.33311954 0.9049523
000380 4e 2d 4a 3f 21 e4 3b 3f b5 a6 43 bf 36 ea 62 bf
       0.7897538 0.7339497 -0.7642625 -0.8863863
000390 3b 15 56 bc 49 e5 52 bf cb f1 d6 3e 4c ea b2 3f
       -0.013066585 -0.8238111 0.41981348 1.3977752
0003a0 43 42 d6 3f d8 9b a2 bd 9f 92 67 bf 0c 68 5d 3f
       1.6738971 -0.07939881 -0.904581 0.8648689
0003b0 fd 86 65 3f 5c ca db 3f cc 07 32 3f d6 b0 3f 3f
       0.896591 1.717113 0.6954315 0.74879205
0003c0 26 6d 45 3f 8f 8d 41 bf ab be e8 3e 12 9d a7 3d
       0.7711967 -0.75606626 0.45457968 0.08184256
0003d0 14 a4 b8 bf 95 4c 95 3f 7b c8 c1 3e b4 ac 15 bf
       -1.4425073 1.1663996 0.37848267 -0.5846665
0003e0 60 9a ce 3e 71 fc 95 3f ec fe 38 c0 9e a6 8d be
       0.40352154 1.1717664 -2.8905592 -0.2766618
0003f0 ce 26 8a 3d da 2e 1a bf e6 e9 46 bf 74 bc 1a bd
       0.06745683 -0.6022774 -0.7770065 -0.03777738

h.0.mha.W_q.weight f4 [64, 64]
000000 47 89 b0 bd 08 22 8c 3c 93 4e e3 3c 7d d5 d7 3d
       -0.086199336 0.017106071 0.027747428 0.105387665
000010 26 d9 b9 3d 53 58 12 bc 1e 84 99 bd 5f cc ad 39
       0.09074621 -0.008932191 -0.074959025 0.000331494
000020 d1 ca 76 bc c4 85 ba bd 9f 2c dc bd 27 23 51 3c
       -0.015063004 -0.09107545 -0.10750698 0.012764729
000030 8b cf 1d bd 1a 9a da 3d be 4b 57 bd 12 f8 a9 bd
       -0.038528007 0.10673924 -0.052562468 -0.08299269
000040 55 67 37 3d bd f2 20 3d a3 0f 71 bd aa d7 2f 3d
       0.04477628 0.039293993 -0.058852803 0.042930283
000050 14 e4 a4 3d 36 90 c9 bc 79 8b 74 3d e6 a0 5d bd
       0.08051315 -0.024604898 0.059703324 -0.054108523
000060 04 6d e7 3d 28 03 93 3d 1a 32 43 3d 5c ec 05 3d
       0.1130009 0.071783364 0.047655202 0.032696113
000070 82 f7 04 be 8d 45 ab bd 36 c8 b7 bd 78 bb 53 bb
       -0.12985042 -0.08362875 -0.08973734 -0.0032307785
000080 49 86 8d bd 32 f9 b4 3b aa 10 a7 bd 7c 93 c4 bd
       -0.069103785 0.0055228705 -0.08157475 -0.09598443
000090 d2 5b 4a 3d 2f 3a ef bc f5 59 50 3d 85 dd 32 bd
       0.049403973 -0.029202549 0.05086704 -0.04366829
0000a0 5c 7e 0f bc 2a 66 b8 bd 8b 44 2c 3d 8a 4f a5 3d
       -0.008758154 -0.09003861 0.042057555 0.080718115
0000b0 8f 2e d6 3c 6c 71 15 bd 0c ab 1f 3c a6 89 30 bd
       0.026145248 -0.03648512 0.009745371 -0.04310002
0000c0 7f e0 a6 3d 54 69 16 bd e6 89 9d 3b b0 88 7d 3d
       0.08148288 -0.036721542 0.0048076985 0.061897933
0000d0 e1 27 7d bd 40 46 54 bd f9 6e ba bd 5a 17 ed bb
       -0.06180561 -0.051824808 -0.091031976 -0.0072354497
0000e0 bb f3 6c bc 66 5d a9 bc 90 17 ee 3c ea b3 9a bd
       -0.014462407 -0.020674419 0.02906397 -0.07553847
0000f0 76 ad bb bd 15 1c b8 3d 7b 33 70 bb be b1 07 3d
       -0.091639444 0.08989731 -0.0036651779 0.033128493
000100 3c aa 55 bb 1a 2d 87 3b 9d 3c 6b bd 92 23 19 3d
       -0.0032602688 0.0041252496 -0.057430852 0.037387438
000110 4e 03 24 bd d8 bb af bd 73 b4 86 bd 41 52 c8 bc
       -0.040042214 -0.0858075 -0.06577387 -0.024453284
000120 67 e2 f4 3c b0 37 71 3c 87 4d 87 bd 92 21 cf bd
       0.029893113 0.01472275 -0.06606584 -0.10113825
000130 f8 54 08 bd b0 31 86 bd 90 b0 e7 bb 53 9a 06 3d
       -0.033284158 -0.06552446 -0.0070706084 0.03286202
000140 17 81 d5 bc 5a 52 0e bd e8 c5 53 3c bf 3c 77 bd
       -0.026062531 -0.034746505 0.0129256025 -0.060360666
000150 74 7c 81 3d 3b 5a f2 bb 85 16 4c bd 0c 58 cb bc
       0.06322566 -0.00739601 -0.049826164 -0.024822257
000160 25 43 24 3d d2 29 f9 3c 98 89 8f bd bd 05 b1 bd
       0.040103097 0.03041545 -0.07008666 -0.086436726
000170 8a bf c2 3d 3a f0 f6 3c d7 28 b0 bd af 3e 85 bd
       0.095091894 0.030143846 -0.086015396 -0.065060966
000180 82 31 93 bc fa 03 28 bd 9a 23 24 bb 90 40 75 3d
       -0.017967943 -0.041019417 -0.0025045634 0.059876025
000190 0a 1d 14 3d 5b 59 e8 bc 3c ff 6f 3c 26 85 5f 3c
       0.036160506 -0.02836292 0.014648255 0.013642585
0001a0 51 d4 a7 3d 4b 12 67 bd fc ed c6 bd c5 6a 7b bd
       0.08194793 -0.05641393 -0.09713361 -0.06138112
0001b0 af 9c e4 3c 0d 40 df bd 4f e2 a8 3c a8 a8 69 bd
       0.027906744 -0.109008886 0.020615725 -0.05704561
0001c0 29 ea 4e bd 1e 7b 53 3c c0 61 cc bd 4e d6 05 bd
       -0.05051628 0.012907771 -0.09979582 -0.03267508
0001d0 f6 83 3b 3d 1b 36 b5 3b f7 5f eb bb 92 ed 47 3c
       0.045780145 0.0055301315 -0.0071830708 0.012202637
0001e0 66 74 83 bd b7 4b a2 bd 8a d7 59 3d 86 4b 08 bd
       -0.064186856 -0.07924598 0.05318407 -0.03327515
0001f0 9c fe eb 3c d7 ea b8 3d 00 b4 b4 bc 2f b2 9a bd
       0.02880793 0.09029167 -0.022058487 -0.07553517
000200 b0 64 c0 bd 2e 79 f7 bd bb f3 9c bd 05 6e 84 bb
       -0.093942046 -0.1208366 -0.076636754 -0.0040414357
000210 65 e8 0c bd 05 76 41 bc 45 aa 90 bd 16 9e 8e bd
       -0.034401316 -0.011807923 -0.07063726 -0.06963746
000220 a8 2b fa bd 74 f2 bc bb c3 0f e0 3d 9c 1d 7c bd
       -0.12215358 -0.0057662074 0.10940506 -0.061551675
000230 c9 87 93 3c d2 06 d9 bd f5 f1 7d bd 2b 8b 80 bd
       0.018009083 -0.10597004 -0.061998326 -0.06276544
000240 b3 6a 9a bd b9 36 06 3e 79 14 ed bd 29 c3 d1 3d
       -0.075398825 0.13106813 -0.115761705 0.10242302
000250 fd ee 88 bd 24 9d 7d bc 3d a5 9a 3d ed 36 2f bc
       -0.066862084 -0.01547936 0.07551048 -0.010694248
000260 a1 c9 c3 3c 20 6f 8d 3d f2 9b ac 3c 2d 50 7b bd
       0.023899855 0.06905961 0.021070454 -0.06135576
000270 30 47 ce 3b 40 71 46 bd 0f ee 4d 3d 9e 82 43 3d
       0.0062951073 -0.048447847 0.05027586 0.047731988
000280 bc cd 99 3d 6a 0c 59 bb 01 eb 15 3d d7 9d bd 3b
       0.07509944 -0.0033118972 0.03660107 0.0057866382
000290 45 29 d1 bc e6 0b 20 3c db b6 4c bd 75 d4 ac bd
       -0.025532374 0.009768462 -0.049979072 -0.084389605
0002a0 ca 45 74 3d c0 39 11 bd 66 c4 0b bd 00 dd ae bb
       0.05963687 -0.035455465 -0.034122847 -0.005336404
0002b0 f8 7b 67 bc ae 43 10 be 44 81 18 bc af 92 0a 3d
       -0.014128678 -0.14088318 -0.009308163 0.033831295
0002c0 3a f5 85 bd 15 5f 14 bd bf c6 0f 3d 42 ef fe 3d
       -0.06540914 -0.03622349 0.03510165 0.124479786
0002d0 e1 d4 02 3d d3 f8 04 3d 56 f4 d6 3d 18 ac 32 bd
       0.0319413 0.03246386 0.10495822 -0.043621153
0002e0 1d 03 87 3d 8c 71 af bd a0 ed 9a bb 5d 9f e2 bc
       0.06592391 -0.08566579 -0.004728034 -0.027663881
0002f0 9c ae 9a 3d a1 bb 39 bd 9e 8e 86 3c 04 dd 33 bd
       0.07552835 -0.045344952 0.016425427 -0.04391195
000300 55 cb 8e bc b9 6e 8a 3c 33 cb 3b 3d 48 85 35 3d
       -0.01743094 0.0168985 0.045848083 0.04431656
000310 da 2d fe bc a0 4d c6 bd cb e5 0c bd 18 a5 b1 bd
       -0.031027723 -0.096827745 -0.034398835 -0.08674067
000320 95 3c 49 3d 1d a3 2d bd c0 60 60 3d 4d 0a ad bd
       0.04913004 -0.042391885 0.054779768 -0.0844923
000330 7d 7c 60 bd cf 94 95 3c 69 75 d5 3d 2d 20 5e ba
       -0.05480622 0.018259434 0.10422785 -0.00084734225
000340 83 53 00 bc e0 70 bf bd 09 de 48 bd 0d 06 af 3d
       -0.007832411 -0.09347701 -0.049039874 0.08546076
000350 4e 20 dd bb b7 e3 b2 bc 73 1d 9d bc 58 3b 9f bd
       -0.006748236 -0.021837099 -0.019179082 -0.07774991
000360 3c 77 5b 3b 6f 5c 9b bb 18 71 91 bd 27 43 8d bd
       0.0033487817 -0.0047412436 -0.07101649 -0.06897574
000370 49 1c 74 bd c1 b6 c2 3c 1a da 8c bd 39 94 90 bd
       -0.059597287 0.023768784 -0.06877537 -0.07059521
000380 4a 00 ea bc 33 ba e9 3c 86 76 e3 3c 78 66 63 bd
       -0.028564591 0.02853117 0.027766477 -0.055517644
000390 b1 fe 68 3d 9f ab b3 bc 55 93 5b 3d 43 2a ec 3c
       0.056883518 -0.021932421 0.053607304 0.028828746
0003a0 45 74 26 3c 16 5b e5 bc a3 35 4d bb ca 47 e6 bd
       0.010159557 -0.027997535 -0.0031312488 -0.112441614
0003b0 f9 34 bc 3b 45 37 64 3d 3a e2 50 ba 11 f8 f8 bc
       0.0057436195 0.05571677 -0.00079682807 -0.030391725
0003c0 17 0e bd 3d 73 2d 20 bb 91 0c fc bc 1d eb 8c bd
       0.09231203 -0.0024441152 -0.03076771 -0.06880782
0003d0 cd 6e ab bd 17 af 1a bd 1f 49 82 bb 91 e9 db 3d
       -0.08370743 -0.037764635 -0.003976002 0.10737909
0003e0 64 c3 98 3c ec 43 26 3c b5 9c 60 3d 50 7f 88 bd
       0.018647857 0.01014803 0.054836947 -0.06664908
0003f0 2f 59 50 3d 0b 26 84 3b da 3d e7 3c 17 8b 1a bd
       0.050866302 0.0040328554 0.028227735 -0.037730303

h.0.mha.W_q.bias f4 [64]
000000 53 a6 ef 3d 73 f6 ef bd 6a 8b 06 be 85 e6 12 3d
       0.11701646 -0.11716928 -0.1313912 0.03586437
000010 27 51 0c 3b 0c 89 fe 3c 9e d8 2e be 33 c3 17 be
       0.0021410675 0.031071208 -0.1707482 -0.14820556
000020 cd e3 89 3e 87 36 c7 be 54 fe 32 bd 39 5d 84 3e
       0.2693161 -0.3890879 -0.043699577 0.25852373
000030 df 27 f4 3e ae 5b 57 3e 30 c1 3f bf 95 88 40 be
       0.4768667 0.21031067 -0.74904156 -0.18802102
000040 14 bd 95 3e e4 70 2a 3f b5 94 92 3c 3b b8 a6 3e
       0.29245818 0.6657851 0.017893175 0.32562432
000050 94 c8 9f 3e b0 19 e2 bd 59 96 a1 3e fc da 76 bb
       0.31207716 -0.11040056 0.3156002 -0.0037667146
000060 0d 6c cf bd 6b 41 18 be 6a fa f6 bc 73 81 fb 3d
       -0.10128031 -0.14868705 -0.030148704 0.1228055
000070 fe 62 16 be ff 7c 70 bd 32 d0 aa 3d 57 0b 0e be
       -0.146862 -0.058712956 0.08340491 -0.13871513
000080 55 82 58 bb 9c ea ca bd 87 eb b5 bb 06 50 01 bd
       -0.0033036668 -0.099080294 -0.0055517587 -0.031570457
000090 2a 0d 9d bd 7f 1f ef bd 6b 08 dc bd 1e ba 3d bb
       -0.076685265 -0.11675929 -0.10743793 -0.0028950046
0000a0 c9 2a eb 3c 26 1d 35 3d bd 86 c3 3d e5 35 99 3d
       0.028706925 0.04421725 0.09547184 0.07480983
0000b0 ec f6 ab bd f2 2a c3 bd 3d 50 7f 3c 84 75 14 bd
       -0.08396706 -0.095296755 0.015583095 -0.036244884
0000c0 a5 4b 86 3d 67 57 09 3e 33 62 23 bd 1e 2f 96 bb
       0.06557397 0.13412248 -0.039888572 -0.0045832535
0000d0 66 cb 7c 3b 6d f2 32 bd 1c 80 a2 bd 3d ee b4 3c
       0.0038573383 -0.043688226 -0.07934591 0.022086257
0000e0 d8 11 d7 3c 27 0b 13 3e d4 f9 d9 bb cc 8a 4d 3d
       0.026253626 0.14359723 -0.0066520963 0.050181195
0000f0 0f cc 92 bc cf 72 ec 3b 0a 45 04 3c a2 55 68 3d
       -0.017919568 0.0072158347 0.008073101 0.05672229

h.0.mha.W_k.weight f4 [64, 64]
000000 de 08 10 be 1d 45 45 bb 27 30 35 3d ce ff 6a 3d
       -0.14065883 -0.003010101 0.044235375 0.05737286
000010 a5 ff 02 bd 63 8e c0 3d 9b ef d5 3d fd 1e 08 3e
       -0.031982083 0.09402158 0.10446092 0.13293071
000020 d6 0c e5 bd d1 90 63 bd 5e 69 14 bc f9 d8 6e bb
       -0.11184089 -0.05555803 -0.009058325 -0.0036445244
000030 2e aa 9a 3c 5c 69 79 3d 69 c5 6f 3c 48 d8 29 bd
       0.018879976 0.060891494 0.014634469 -0.041466027
000040 42 ec a8 bc 92 ef 38 bd 02 52 00 bc 23 42 25 be
       -0.020620469 -0.045150347 -0.007832052 -0.1613851
000050 32 9c e1 3c 8d fd 5d bd c5 52 89 bc 9a 8f 7e bc
       0.0275403 -0.054196883 -0.0167631 -0.015537167
000060 71 c4 a7 3c 0a 69 9e 3d 81 b3 32 3d 20 1c 02 3e
       0.020479413 0.07734878 0.04362822 0.12706041
000070 83 aa d5 3a 5b 0e 87 bd ae d3 8b bd 73 2f 95 bd
       0.0016301427 -0.06594535 -0.06827484 -0.07284441
000080 bc 2e 8d bd 8d 08 49 bd fc dd ae bd 76 59 95 bc
       -0.068936795 -0.04908042 -0.08538434 -0.018231135
000090 a7 9b bc bd ce 41 f8 bb c7 d3 28 3d 83 69 c3 3d
       -0.09209376 -0.007576204 0.04121759 0.09541609
0000a0 f9 04 03 3d 13 1b 2e 3d 66 52 a4 3d 52 a5 77 3d
       0.031987164 0.04250629 0.08023529 0.060460396
0000b0 db bc 31 3d 2b 70 5a bd c6 90 48 bd 08 09 22 3d
       0.043392997 -0.053329628 -0.04896619 0.039559394
0000c0 c1 4e 94 bb 6f e4 01 bc 80 7b 13 bd 6c 65 09 3c
       -0.0045259898 -0.007927998 -0.03600645 0.008385997
0000d0 06 b3 5f 3d 3b d7 58 bd 20 50 92 bd 7d a5 04 bd
       0.05461409 -0.052939635 -0.07144189 -0.032384384
0000e0 19 da 25 bd fe 9b 48 bd 50 28 da bd eb a4 13 bd
       -0.040491197 -0.04897689 -0.1065222 -0.03604595
0000f0 23 43 3d 3c f3 48 2c ba 4c 73 c0 3d 82 88 67 3d
       0.011551651 -0.00065721496 0.09396991 0.05652667
000100 87 0d 9d bb 23 d5 86 3d 77 e2 4a bc be 34 7a bd
       -0.0047928724 0.06583621 -0.012383095 -0.061085455
000110 66 fc d5 bb 84 46 56 3c 78 a8 34 bd 9d a5 19 3d
       -0.0065303324 0.013078336 -0.044105977 0.037511457
000120 af 59 e6 bb e2 30 5b bd 7e e5 b5 ba 8b 9a 82 bd
       -0.007029734 -0.053513415 -0.0013877598 -0.06377133
000130 43 e9 48 3c e9 39 0f 3c ee 8f 81 3d 4e f6 0a 3e
       0.012262645 0.008741834 0.063262805 0.1357052
000140 ac 06 a6 3d 2f ed 23 3d a9 ee 8b bd 0d 81 4c bd
       0.08106741 0.040021118 -0.0683263 -0.04992776
000150 11 a0 85 bc 6b 4a 0c bd 29 9f 8f bd 54 ea 0c bd
       -0.016311677 -0.034250658 -0.07012779 -0.03440316
000160 a0 37 1e 3d 83 df a8 bd d4 3a 6b 3d f9 d8 85 3d
       0.038627267 -0.082457565 0.05742915 0.06535525
000170 b4 6b b2 3d ec 8b d1 bd 9d 54 7a bd f2 08 82 bd
       0.08711949 -0.10231766 -0.06111585 -0.063493624
000180 96 4c 26 bd 20 ce 08 3d 3d 29 b8 bd 5a 22 40 bc
       -0.04060038 0.0333997 -0.089922406 -0.01172694
000190 23 58 28 3d 08 20 13 3e 9c c6 38 3c 17 60 38 3d
       0.04109968 0.14367688 0.011277821 0.045013513
0001a0 a1 a8 6c bd 2a 8d 5c 3d 57 cc 9a bd 18 94 93 bb
       -0.057778005 0.053845562 -0.07558506 -0.004503738
0001b0 79 b5 12 3d f0 d1 ad bd 86 c2 f9 bc 86 e2 9d 3d
       0.035817597 -0.08487308 -0.030488264 0.077092215
0001c0 14 19 9f 3d e6 2a ea 3d f4 4a 5f bc e5 44 0a bd
       0.07768455 0.114339635 -0.01362871 -0.03375711
0001d0 bf f3 ac 3b fc d1 9e bd cc 4b 7c bd 3e f0 92 3d
       0.0052780802 -0.07754895 -0.061595723 0.07174729
0001e0 58 2b 69 3c 42 62 d9 bd 65 76 8b 3d 35 2e 36 3d
       0.014231525 -0.10614444 0.06809691 0.04447766
0001f0 fb 90 f3 bd 94 06 9c 3c 80 63 a4 bd 3a 75 a2 bd
       -0.11892887 0.019046105 -0.080267906 -0.079325154
000200 5e d2 e4 bd b6 86 8c bc d9 d4 09 bd b3 fa 34 bd
       -0.11172937 -0.017154079 -0.033650253 -0.044184398
000210 69 a2 98 3d b2 17 97 3d 7f 6b d9 3b e7 7e 65 bd
       0.07452852 0.073775664 0.006635129 -0.056029227
000220 4d 63 b4 3c 13 4f 50 3d e2 ff 25 3d af ed 23 bd
       0.022020007 0.05085666 0.040527232 -0.040021595
000230 ca 35 ed bc ee 41 4a 3d 14 b7 9a 3d ac 42 61 bd
       -0.028956313 0.04937928 0.07554451 -0.054995224
000240 85 b2 90 bd d0 46 2a bd 03 1e 50 bd fb 8a 22 bd
       -0.070653 -0.04157144 -0.05080987 -0.039683323
000250 28 ca 01 be 0d f1 09 bd 2b 2e 46 3d fe 9d 0e bd
       -0.12674773 -0.03367715 0.048383873 -0.03481864
000260 54 e6 ef 3c 6d c0 cf bb b6 dd 10 3d 41 dc 84 bc
       0.029284634 -0.0063400776 0.03536769 -0.016218306
000270 36 3e 82 3a 7a 87 8d bb dd c6 ac 3d 53 85 8c bd
       0.0009936753 -0.0043191286 0.08436368 -0.06861367
000280 7c a7 60 bd f0 70 93 bc b8 7e 3f bc db b1 07 3d
       -0.054847226 -0.017998189 -0.011687927 0.0331286
000290 5d 42 bf 3b 88 a8 b6 3c 37 58 9c bc 8f fb 3f 3d
       0.0058367685 0.022297159 -0.019085033 0.046870764
0002a0 75 20 b0 bc 4e 5b e0 3c 89 4d 07 be ef cc c8 3a
       -0.021499852 0.027387287 -0.13213171 0.0015319864
0002b0 ff 41 9c bd 9c a3 0b 3c 22 32 00 be 71 b6 6d 3d
       -0.07629775 0.008522894 -0.12519124 0.058035318
0002c0 ab 86 4b 3c 62 9a e2 bb a5 fe 1c 3d df 45 03 bd
       0.012422244 -0.0069153765 0.038328785 -0.032049056
0002d0 89 ad f7 3d 65 58 c3 bd de 3d 01 3e 43 f4 20 3d
       0.12093646 -0.09538344 0.12621257 0.039295446
0002e0 30 2c b4 ba c2 2e c6 3d eb 8e 98 bc 04 45 0d 3d
       -0.0013746079 0.09676887 -0.018622836 0.034489647
0002f0 7e f2 78 bd 5f 21 b8 3c f6 f8 a9 bd c4 f8 82 3d
       -0.060778134 0.02247685 -0.08299439 0.063951045
000300 3c 45 bd bd f0 31 19 bd 6f 1d a9 3b 58 11 cb 3b
       -0.09241721 -0.03740114 0.0051609795 0.006197136
000310 01 b1 e9 bc 1e 14 60 bd 14 d1 8c bd ad b2 1f 3d
       -0.028526785 -0.054706685 -0.06875816 0.038988758
000320 74 52 90 3c 5f 0c d0 bc 33 7f 1d bd d6 5a e0 bd
       0.017617442 -0.025396524 -0.038451385 -0.109548256
000330 2e 60 f1 3c 0c 6b 5e bd 6d ac b6 3c c0 f6 97 bd
       0.029464807 -0.054301307 0.022299016 -0.07420111
000340 7b d6 aa 3d 7a b4 6b 3d 6e 42 c5 bd 9d 77 02 3d
       0.0834169 0.057545163 -0.09631811 0.031852353
000350 7c bb a4 bd f3 c2 ec bd 67 93 a0 bd 57 52 dc 3d
       -0.08043572 -0.11560621 -0.07840615 0.107578926
000360 a9 8a 91 3d a1 c4 1d 3d 6f 01 ab 3b d0 fe e5 bd
       0.071065255 0.038517598 0.0052186768 -0.11230242
000370 3c da fe 3c dc 65 44 3d 72 e5 39 bc 1a 42 c7 bd
       0.031109922 0.047948703 -0.011346208 -0.09729405
000380 e0 26 c3 bd 9a 11 a0 3d 0d 9b ca bd 99 dd dd 3b
       -0.09528899 0.07815857 -0.09892855 0.0067708013
000390 f7 81 cc bd 3a 60 4e 3d fa 2d 96 ba 0d 18 85 3d
       -0.09985726 0.050384738 -0.0011457794 0.06498728
0003a0 0f a3 11 3e 6d 8c 9a bd 75 3a 26 bb f5 20 9b bd
       0.14222358 -0.07546315 -0.0025364433 -0.075746454
0003b0 70 88 86 bd 6a 94 e4 3c d4 aa 7d bd 13 14 b5 3b
       -0.06568992 0.0279028 -0.061930493 0.0055260747
0003c0 55 85 da 3c 48 92 14 bd f0 ab 3f bc 85 43 05 bc
       0.026674906 -0.036272317 -0.011698708 -0.008133774
0003d0 b2 97 b9 3d 24 43 f4 3c 40 80 d6 3c 7a 49 c1 bd
       0.09062137 0.029817171 0.026184201 -0.09437843
0003e0 47 91 7a 3d ce 77 bd 3c 85 ef 88 3c fe 40 b4 bd
       0.061173704 0.023128416 0.016715774 -0.08801459
0003f0 3a 94 f0 3d c4 6b d6 3b 10 eb 46 bd bc ed 83 3c
       0.11747022 0.0065436084 -0.048564017 0.016104572

h.0.mha.W_k.bias f4 [64]
000000 97 e4 f2 3d 32 19 25 3c 30 16 20 3d 10 fd a0 bd
       0.11860006 0.010076808 0.03908366 -0.07860768
000010 a1 7c ce bc 4e e2 69 bd ed 81 fe 3c ee fb 0b be
       -0.025205912 -0.057100587 0.031067813 -0.13670322
000020 91 67 35 be 1b de a4 be e4 fa 83 3e 90 71 be bd
       -0.17715289 -0.32200703 0.25777352 -0.09299004
000030 9b df 69 3e bc 90 0d bf b8 4b 15 3f 30 fb 9d 3e
       0.22839205 -0.5529897 0.5831866 0.30855703
000040 82 15 1f bf 93 25 83 be af ee c2 be 12 51 b4 3d
       -0.62142193 -0.25614604 -0.38072726 0.088045254
000050 6c 6d d5 bd 64 97 20 3e b4 63 4b 3d 14 b6 15 3e
       -0.10421261 0.15682751 0.04965563 0.14620239
000060 da fc ff 3d 3c 14 ca bc 7a e1 7b 3e 63 36 69 be
       0.124993995 -0.024667852 0.24597731 -0.22774653
000070 8d 43 60 3e 83 88 b1 be e2 10 db 3d bf e4 6b bc
       0.21900769 -0.34674463 0.106965795 -0.014397799
000080 d8 47 63 3c 22 a1 a1 bb 3a a8 99 bc 20 76 31 3d
       0.013872109 -0.0049325386 -0.018756974 0.043325543
000090 96 2e 89 3d 93 ac bc bc c5 ae 32 be f0 2a 9c bd
       0.06698339 -0.023031509 -0.17449482 -0.07625377
0000a0 b2 8b bb bd 72 cd 55 3e 11 a9 68 be 87 b3 64 3d
       -0.09157504 0.20879152 -0.22720744 0.055835273
0000b0 91 1e 71 3e 50 b1 1b be ed a7 7f bd 08 f2 b3 be
       0.23546816 -0.15204358 -0.062416006 -0.35145593
0000c0 b2 40 03 be 59 7f cb 3d e9 97 c8 bd 0e b4 c4 bd
       -0.12817648 0.09936399 -0.097945996 -0.09604655
0000d0 bd eb dd 3d 73 65 20 be 77 8b c5 3d ab 41 50 ba
       0.10835979 -0.156637 0.096457414 -0.00079443556
0000e0 1c b2 a5 bd 8f 81 ae bd d8 69 fe bd 98 ea 61 be
       -0.08090612 -0.08520805 -0.12422532 -0.22062147
0000f0 3f 4c b1 3d 1e 13 bf bd 9f d5 cd be d8 92 94 bd
       0.08657121 -0.09329818 -0.40202042 -0.07254571

h.0.mha.W_v.weight f4 [64, 64]
000000 ab 0f 35 3d ee 80 1a be 19 f2 7d 3d c4 fc 7f 3e
       0.044204395 -0.15088245 0.06199846 0.24998766
000010 01 0f eb 3b 4d 03 02 3d 50 d6 ae 3d d9 df 0d 3c
       0.0071734195 0.03174143 0.085369706 0.0086593265
000020 40 09 53 bc e6 c5 9c bb de 78 1b 3d e7 7a cf 3c
       -0.012880623 -0.0047843335 0.037957065 0.02532716
000030 44 24 b3 bd 23 39 5b bd 56 aa a2 3c 80 98 f3 bd
       -0.087471515 -0.053521287 0.019856613 -0.118943214
000040 ee 21 20 3e 78 ec 9e 3c 92 59 45 bc 63 4b e3 bd
       0.15637943 0.019399866 -0.012045281 -0.11098363
000050 f4 c9 e5 3d 02 ef f7 3d be 70 8b bd 18 1a 27 3e
       0.1122016 0.12106134 -0.06808613 0.16318548
000060 22 b8 66 bd fb b9 4e 3d e8 be 97 3d 86 f8 c6 bd
       -0.056327946 0.050470334 0.07409459 -0.09715371
000070 b0 22 80 3c 69 79 32 3c 68 37 f3 3d e6 4d 6c bd
       0.01564154 0.010893204 0.11875802 -0.057691477
000080 9a b2 14 be ed 68 66 3b 49 13 71 be 60 ce 1d be
       -0.14521256 0.0035157755 -0.23542513 -0.15410757
000090 b5 a4 11 be a5 55 13 bd 3e cf 75 3d 85 03 92 3c
       -0.14222987 -0.03597035 0.060012095 0.017823944
0000a0 a4 19 11 be 59 14 3f 3c e0 6f b9 bc 55 5a 33 3d
       -0.14169937 0.011662566 -0.022636354 0.04378732
0000b0 58 30 5e be 18 e5 dc bb 63 76 88 3c 27 ba 3b 3e
       -0.21698129 -0.0067411773 0.016658014 0.1833273
0000c0 ef fd c2 bc d7 a0 98 bd 6d 00 3c bd e6 f6 5e 3d
       -0.023802726 -0.07452553 -0.045898844 0.05443468
0000d0 92 61 d9 3d fe 9f 2a 3e 1c 46 e9 bc bc 50 07 3e
       0.10614313 0.16662595 -0.028475814 0.13214391
0000e0 fa d7 34 3e 45 2f 30 bd 62 69 b7 3d 5a be 1e be
       0.17660514 -0.04301383 0.08955647 -0.15502301
0000f0 4c af 9f bd d1 c0 7f bd 29 b0 d5 bc d9 86 88 3d
       -0.07797107 -0.062439743 -0.026084976 0.06666345
000100 fd 6a 24 3d 1f a6 65 bc de 84 d9 3d d5 9b 69 bd
       0.040141094 -0.014016657 0.106210455 -0.05703338
000110 27 e7 ae 3d e3 78 39 3d 7e e6 b1 3e a8 35 e5 3d
       0.085401826 0.045281302 0.34746164 0.11191875
000120 7d a8 45 3e d4 6f a9 bd db 57 1c bc 5a f5 4a 3d
       0.19302554 -0.08273283 -0.009542431 0.04955039
000130 75 87 17 3e 3c 80 b9 bd 42 46 98 3a 58 24 53 3e
       0.14797767 -0.09057662 0.0011617618 0.20619333
000140 e8 80 1b 3d e5 02 20 be de 19 03 be 87 c8 33 3e
       0.03796473 -0.15626104 -0.12802836 0.17556964
000150 89 f6 82 3d b2 41 16 be 9f 86 64 bb 76 db 57 3d
       0.06394679 -0.14673498 -0.003487028 0.05269953
000160 24 d9 63 3e b4 53 82 3e 1f 59 1d be 37 88 d7 3c
       0.22250801 0.25454485 -0.15366028 0.02631007
000170 3a e0 a5 3c 86 1f a7 bd 34 93 59 bd cf 93 8f 3d
       0.020248521 -0.081603095 -0.0531189 0.07010614
000180 b0 86 a4 bc 6e 1f 40 3d 2e 46 29 bd 53 11 7e bd
       -0.020083755 0.046904974 -0.041326694 -0.06202824
000190 88 30 99 bc e1 c6 4c 3e 60 48 03 be fc 18 7b bd
       -0.0186999 0.19997741 -0.12820578 -0.061303124
0001a0 f9 5a 69 bd 58 b1 23 3d 4e 68 cd bd 69 5c 5d 3d
       -0.056971524 0.03996405 -0.1002966 0.054043207
0001b0 0d f3 7f 3d 38 a4 95 bd 6c 3a b6 bc 24 8c 70 bd
       0.06248765 -0.07306713 -0.022244655 -0.0587274
0001c0 1e d3 b7 3d 9a 70 d4 bd 5e 2e be 3d c9 75 2e be
       0.08975814 -0.103730395 0.092861876 -0.17037119
0001d0 8d 50 12 be 45 a3 fd 3d c7 37 43 be 0e 4e c2 bd
       -0.1428854 0.12384657 -0.19064246 -0.09487544
0001e0 cb 49 83 3c 1d f3 45 3e cc 7e 4e bd f3 a6 7a bd
       0.016026398 0.19331022 -0.05041389 -0.06119437
0001f0 e3 c2 f6 bc 2b e0 2b 3e b7 aa 40 3e 33 7c 19 bd
       -0.030122226 0.16784732 0.18815123 -0.03747196
000200 8c 58 8f 3c d4 1d 36 3d de 6f 91 3d 73 1c ec 3b
       0.017498277 0.04446204 0.07101415 0.00720554
000210 76 84 e5 3d 73 4a 58 bd 9f 0c b6 3b 35 92 bd bd
       0.112069055 -0.052805375 0.005555704 -0.092564024
000220 f8 84 e0 bd e5 48 29 bc 34 a4 cb bd f0 9c 5d 3d
       -0.10962862 -0.010332321 -0.09943429 0.054104745
000230 b3 ad 5c bc fd b6 fe 3d 1a 5f 9e 3d 20 14 fd bd
       -0.0134691475 0.12437246 0.07732983 -0.12357354
000240 7b f5 5d 3d 2d 4a cc bd 7c ff ef 3c db 44 4e 3e
       0.054189187 -0.099750854 0.02929663 0.20143454
000250 3d f4 7d bd a6 ba 7f 3d 2d f0 48 bc 21 50 06 3e
       -0.062000502 0.06243386 -0.012264294 0.13116504
000260 31 61 91 bc f3 84 6b 3d ed d4 9d 3d 68 2b d3 3d
       -0.01774654 0.057499837 0.07706628 0.103110135
000270 03 0c f6 bd 76 b0 bb 3d 88 4b 82 bc d8 ea aa 3d
       -0.1201401 0.09164517 -0.015905157 0.08345574
000280 22 ac 27 be 8f 6a 31 3e d5 17 46 3b ff 51 2a bc
       -0.16374257 0.17325805 0.0030226607 -0.010395526
000290 29 9c 3a bd 9a ef 7a 3d 2a ea ed bd f7 d7 fb bd
       -0.045559082 0.061263658 -0.11616929 -0.122970514
0002a0 30 79 75 3d 67 24 dd bd 5f bb a8 3d 45 e5 bb bc
       0.059930027 -0.10797959 0.08238863 -0.022936473
0002b0 19 eb 54 bd f2 06 22 be 4f 57 fb 3c fc db e0 3d
       -0.05198202 -0.15822962 0.03068128 0.10979459
0002c0 1d 21 01 bd b5 25 f0 3d d5 80 08 be 2a 7c 74 3b
       -0.03152572 0.11725942 -0.13330396 0.0037305453
0002d0 18 f9 f0 bd c0 01 ea 3d 8b 65 47 3d 12 1f 15 b9
       -0.11766261 0.11426115 0.048680823 -0.00014221322
0002e0 11 eb 76 3b e2 94 33 bd 4a e9 0f bd aa ba 09 3d
       0.0037676732 -0.043843158 -0.03513459 0.033625282
0002f0 4f a1 26 3a 83 23 b3 3d fd a3 8e bd b2 57 7b 3d
       0.00063564343 0.08747008 -0.06964872 0.06136293
000300 38 9c 16 bd 6e 1a ea bc f3 21 91 bd 4c 6c 06 3d
       -0.036770076 -0.028577056 -0.070865534 0.032818124
000310 81 87 a4 3b 82 9e 80 3e cf 6e 54 be 7a 27 56 bd
       0.005021036 0.25120932 -0.20745395 -0.05228374
000320 14 fa 19 be 80 6f 87 bd 85 47 4c 3c 25 8d e1 bd
       -0.15036803 -0.06613064 0.012468223 -0.11013249
000330 d2 e3 c7 3b f4 9b 42 be 7a 83 48 bd af 8b ef bc
       0.0061001563 -0.19004804 -0.04895351 -0.029241411
000340 57 ca d6 bd 8e 1e d6 bd 96 e8 82 bd 71 e5 45 3e
       -0.10487812 -0.104550466 -0.063920185 0.19325806
000350 85 e4 6d 3d ac 27 45 bd 0d 18 b6 3d 73 3c 1d 3e
       0.05807926 -0.048133537 0.08891306 0.15355091
000360 e4 5e 77 bc 1a 30 c2 bb e0 05 bd 3d 25 1c fa 3c
       -0.015098307 -0.0059261443 0.09229636 0.030530998
000370 13 5e c0 3d 80 28 87 bd ab 4c a7 bd f2 1d 15 be
       0.09392943 -0.06599522 -0.0816892 -0.14562204
000380 b7 bd d6 bb f0 7d fa 3d d8 5f 31 3e a9 5d a7 3d
       -0.0065533775 0.12231052 0.17321718 0.08172161
000390 d7 a0 bf bd 18 10 12 3e bb 57 27 bd b6 f6 24 3e
       -0.0935685 0.14263952 -0.04085515 0.16109738
0003a0 c2 59 1e be e0 9b 5a 3e 9f b6 d5 3d 6b 07 9c 3c
       -0.15463927 0.21348524 0.10435223 0.019046506
0003b0 7c 29 25 be 42 41 2b 3e d1 be bd bd e4 be 37 bc
       -0.16129106 0.16724113 -0.09264911 -0.011214945
0003c0 82 06 a4 3d 3e 60 eb bd 25 f5 88 bc 9b 66 b7 3d
       0.08009054 -0.11492966 -0.016718457 0.08955117
0003d0 64 50 6a bd 71 e4 92 bd 3c cf 26 3d 51 97 b0 bd
       -0.057205573 -0.07172478 0.040724978 -0.08622611
0003e0 6b e0 81 3d 24 06 11 bc 2d 01 b4 bd d1 1c 66 bd
       0.063416325 -0.008851562 -0.08789287 -0.056179825
0003f0 c0 d5 d1 bc 81 bf a4 3d a7 37 50 be 5c 11 2e be
       -0.02561462 0.08044339 -0.2033373 -0.1699881

h.0.mha.W_v.bias f4 [64]
000000 cb 94 72 3d c0 16 5d bc 3f cd 5b bd 4e 00 20 3d
       0.05922393 -0.013494194 -0.053662535 0.03906279
000010 10 46 90 3d 9d 34 db bc b2 0b c8 3d b4 03 e5 3b
       0.07044613 -0.026758486 0.09767856 0.006988967
000020 fb 81 b9 bd 49 c5 76 3d 3b 49 4e 3d 6b e3 05 bd
       -0.09057995 0.06024674 0.050362807 -0.032687586
000030 6c bb 88 3d 0a 16 0e bc 51 37 a3 bc aa 52 f4 bd
       0.06676373 -0.008672247 -0.019923838 -0.119298294
000040 3f 6a 22 bd 4a 30 dd bc fc 17 0c bd ae 9e a1 3d
       -0.039652105 -0.027000565 -0.03420256 0.07891594
000050 4f 47 29 bd a9 2f 83 3c f3 87 af 3d dc 7e d4 3c
       -0.04132777 0.016013937 0.08570852 0.025939398
000060 e3 ce c6 3d c1 27 65 bc d5 86 67 3d 51 02 22 3d
       0.09707429 -0.013986529 0.05652507 0.03955299
000070 03 2f cd 3c cd d7 69 bd 19 e5 f9 bd e8 e5 dc bd
       0.025046831 -0.05709057 -0.122019 -0.10786039
000080 ea df 8b bd 1a 7c a5 bd ed 96 d1 3d 9f 74 9a 3d
       -0.068298176 -0.08080311 0.10233865 0.07541775
000090 53 4c bd 3c 28 b7 77 3d 63 94 bd bd 27 5d 7e bd
       0.023107683 0.060477406 -0.09256818 -0.062100556
0000a0 e3 1c 1f 3c 73 35 0d 3d 76 32 a1 bc 43 bf a5 bd
       0.009711477 0.0344748 -0.019677382 -0.08093121
0000b0 94 3b 8e 3c cc 9f fd bd 0c 08 3b bd fb ab 96 bd
       0.017362393 -0.123839945 -0.04566197 -0.073570214
0000c0 62 36 52 3d 24 c7 24 3d e1 a9 6a 3d 0a 86 d8 bc
       0.051321395 0.040228978 0.057290915 -0.026431102
0000d0 2d f3 a1 bd 13 8b 9d bc 86 d7 cb bd 2f 37 9f 3d
       -0.0790771 -0.019231355 -0.09953217 0.07774197
0000e0 f4 59 a9 bd 7a 9e a6 bd 85 62 3c 3d c7 c7 98 3d
       -0.0826911 -0.08135696 0.045992393 0.074599795
0000f0 18 55 b0 bd be 3c 8b bb 92 65 c2 3d 99 84 2f 3d
       -0.0860998 -0.0042491844 0.09492029 0.042851064

h.0.mha.W_o.weight f4 [64, 64]
000000 2d a5 85 bd 7c 48 48 bd da a1 f1 bb 22 5c c7 3d
       -0.065256454 -0.04889725 -0.0073740305 0.0973437
000010 8d 4e 5e bc 2c 3f 85 bb c6 56 b2 bd 71 71 c7 3a
       -0.013568533 -0.0040663686 -0.08707957 0.0015216303
000020 ae b3 1a bc 64 3d e4 bd cc 93 dc bc a9 07 97 bc
       -0.009442253 -0.11144522 -0.026925944 -0.01843627
000030 13 25 ad bd 63 d3 ec 3d ce 3b 44 3e 95 be ba bd
       -0.08454337 0.11563756 0.19163439 -0.09118382
000040 2d 83 99 3c 93 49 da bc ca 86 c9 3c 14 40 20 3e
       0.018739307 -0.026646411 0.024600405 0.15649444
000050 bc 1e 56 3e 6f c1 be bc 86 5d 0a be 07 20 28 3e
       0.20910162 -0.023285596 -0.13512239 0.16418467
000060 d1 f6 a7 3b 73 e5 ec bd 47 7c 1b 3d 31 19 f7 bd
       0.0051258584 -0.115672015 0.037960317 -0.12065352
000070 a7 91 41 3c 74 c1 bc 3c 3a d1 17 3d 19 17 ee bd
       0.011814511 0.023041464 0.03706477 -0.11625499
000080 8d dc 3b 3d a2 0a f7 3c 65 e8 47 be 5d a5 48 3e
       0.04586463 0.030156437 -0.19522245 0.19594331
000090 ae 33 5c 3d 36 03 0f 3b 0c 72 20 3d ad ab 28 bc
       0.053760223 0.0021821982 0.039171264 -0.010294837
0000a0 c2 4d c3 bc cc 77 29 3d de 86 ad 3d 35 c5 27 3e
       -0.023840789 0.041374013 0.084729895 0.16383822
0000b0 3e af c0 bd c0 e8 94 bd e9 d3 f1 bb bc f4 43 3d
       -0.09408425 -0.07270956 -0.007379998 0.04784082
0000c0 13 4f f4 bd e5 ac 24 3c 79 1a 24 bd b9 61 20 3d
       -0.11929145 0.010050987 -0.04006431 0.039155696
0000d0 77 a7 98 3c 6c c9 b4 bb 4c 20 bc 3d 2f c6 d9 bc
       0.018634541 -0.0055171754 0.09185848 -0.02658376
0000e0 8b 80 a9 bd 1d 6a 58 bd 95 60 91 3c 09 37 e3 bd
       -0.08276471 -0.052835573 0.01774625 -0.110944815
0000f0 1f 10 db 3d 2f 66 bf 3b 72 f9 aa 3d 41 fe 96 3d
       0.10696434 0.0058410387 0.08348359 0.07372714
000100 f5 fe b5 bd e4 9b a5 3e c8 4f 24 3d bc bc ae bd
       -0.0888652 0.32345498 0.040115148 -0.08532092
000110 0f bc 32 3d bd e9 0b 3c fa d4 32 bd 6c 4b 37 3e
       0.043636378 0.008539614 -0.04366014 0.17899865
000120 95 2b 88 bc fd 5e 5c bc d1 f7 13 be 57 80 fb bc
       -0.016622344 -0.013450381 -0.14450003 -0.030700846
000130 33 41 85 3d b8 c7 6c 3d 10 a5 08 be 75 b5 06 3d
       0.065065764 0.057807654 -0.13344216 0.032887895
000140 8d 94 a9 3d 8c 2c 46 3d ee 31 81 3d 68 c5 f9 bd
       0.08280287 0.048382327 0.063083515 -0.121958554
000150 67 15 16 3e f3 35 e0 3c 3d 52 bd bd 56 ac 24 be
       0.14656602 0.027369475 -0.09244201 -0.16081366
000160 84 79 56 3d ba d4 e0 3c de bc e1 3d f8 70 d4 bd
       0.05236198 0.027445186 0.11022352 -0.103731096
000170 3b f3 b7 bd dc a1 32 3c 07 29 cf 3d 47 eb b4 3c
       -0.089819394 0.010902848 0.10115247 0.022084845
000180 45 e5 e2 bd 5d ed d8 3d 56 f3 f1 bc da 97 cb bc
       -0.11078886 0.105921485 -0.029534977 -0.024852682
000190 b1 a0 b0 3d f7 02 53 be 56 e0 24 be 1b c3 e9 bd
       0.086243995 -0.206066 -0.16101202 -0.114141665
0001a0 e5 17 e6 bc 5a 18 85 3e b2 ce 15 be 77 b3 8d 3d
       -0.028087566 0.2599514 -0.14629629 0.06918996
0001b0 cf 1d 4b 3d 9f a2 1b 3d ba 57 54 3d 03 94 dc 3c
       0.049588975 0.037996884 0.051841475 0.026926046
0001c0 9d 3b 07 3e 04 87 2e bc 4c 91 25 bc 59 35 da 3d
       0.13206334 -0.010652307 -0.010105442 0.106547065
0001d0 3f 31 91 bd b0 b3 36 bd 6f 93 e2 3d 7b 50 cf bd
       -0.07089471 -0.044604957 0.11063277 -0.10122772
0001e0 82 6c a2 3d 63 ff 46 bd ef 02 3b bd 70 90 e1 3d
       0.079308525 -0.0485834 -0.045657095 0.110138774
0001f0 8c 29 0e 3e 64 23 fd bd 57 4c a7 bd dd 22 0b be
       0.13883036 -0.12360266 -0.081688575 -0.13587518
000200 23 6d 72 bd ea de 86 3d 8c 87 9b 3d a6 8a 9c bd
       -0.059186112 0.06585486 0.07594213 -0.076436326
000210 84 7e f6 3a 08 39 99 bd eb 54 41 be a7 4a ac bd
       0.0018806015 -0.07481581 -0.1888005 -0.08412676
000220 2c 03 f5 3c ba 1f 0c 3e d0 73 0d 3d e4 98 5f 3e
       0.029908739 0.13683978 0.034534276 0.21835667
000230 7a 04 25 be cf 87 1a 3e eb e2 be 3c 06 0b 05 be
       -0.16114989 0.1509087 0.023301562 -0.12992486
000240 a5 00 68 bc fd c7 1f be 97 18 93 bd 04 05 67 be
       -0.01416031 -0.15603633 -0.071824245 -0.22560507
000250 bb 34 09 3c 14 cb aa 3d 5d f3 9f bd 69 fd d4 3c
       0.008374388 0.08339515 -0.0781009 0.025999742
000260 32 b3 ab 3d 88 6d 2c bd 19 03 64 be 84 39 36 3e
       0.08383788 -0.042096645 -0.22266807 0.17795378
000270 f3 aa 53 bd 25 cd 70 bc ef 5c 37 3c 65 44 bb bd
       -0.0516767 -0.014697348 0.011191591 -0.091439046
000280 9b 8c c2 bd ab a6 bc bd 69 d0 e0 bc d1 7a 7d bd
       -0.094994746 -0.09211477 -0.027443128 -0.061884705
000290 a1 94 3c bd ab a1 0e 3e 8d 17 c2 3d 8e 63 ea 3c
       -0.04604018 0.13928859 0.09477148 0.028611924
0002a0 ee 1a 42 be 57 2f 2c bd ff 02 2e 3d 84 0b 1e 3e
       -0.18955585 -0.042037334 0.042483326 0.1543408
0002b0 fe 89 03 3d a8 15 a7 3d b4 e8 99 bd e7 4f df bc
       0.03211402 0.081584275 -0.07515088 -0.02725978
0002c0 16 53 9b 3d ad 14 1a 3e 1b 39 0c be 0b 3f 81 be
       0.07584207 0.1504695 -0.13693659 -0.2524341
0002d0 bf 3d 86 bd 84 8a 4c bd cb 4f 93 3d 61 70 d0 bd
       -0.06554746 -0.049936786 0.07192954 -0.101776846
0002e0 20 5b ca 3d 14 d7 b0 3d a0 d4 dd 3c d0 5c b1 bd
       0.09880662 0.08634773 0.027078927 -0.08660281
0002f0 40 39 b1 3d 13 30 be bc a7 9f 1a bd c0 91 91 3c
       0.08653498 -0.023216283 -0.037749913 0.017769694
000300 16 ea 21 3d 5c 34 96 3d 54 9b 00 be 99 7d ca 3d
       0.039529882 0.073342055 -0.12559253 0.09887237
000310 3a a4 03 3e bc 08 01 3d 78 ef 0e 3e ef f4 b1 3d
       0.12855616 0.03150247 0.13958538 0.086892955
000320 fb ea ff bd 51 6e 48 bd 90 7c ba 3c f6 43 0f bd
       -0.12495991 -0.04893333 0.022764474 -0.034976922
000330 ea ca 6f be 32 60 fe bd 0b b8 ab bc de d0 15 be
       -0.2341725 -0.124206915 -0.020961782 -0.14630458
000340 0e e7 86 be 0e dd b0 bb 79 96 a8 3d 1d 0a 70 3b
       -0.26348156 -0.0053974455 0.082318254 0.0036627122
000350 c0 d7 4e 3d 66 4c be bd b5 a4 12 bd 46 9d c1 bd
       0.050498724 -0.092919156 -0.035801608 -0.09453826
000360 bd 5b f6 bd 46 15 8d bd d7 95 a4 bc 78 d6 97 bc
       -0.120292164 -0.06888823 -0.02009098 -0.018534884
000370 bd 63 9a bc 69 89 55 bd 6d 64 6f 3d f4 8c 57 3d
       -0.018846387 -0.052132998 0.058445383 0.052624658
000380 f1 06 b9 bd 6a 88 df 3d e4 fc 54 bc 51 87 28 3b
       -0.09034527 0.10914691 -0.012999747 0.002571542
000390 09 72 58 bc f7 a3 25 be 65 f9 00 bc 57 b5 ac 3e
       -0.013210782 -0.16175829 -0.00787196 0.337321
0003a0 ab 3d 69 3e bf 31 33 bd ca 67 62 3d 4f d8 8d 3d
       0.2277743 -0.043748613 0.055274762 0.06926023
0003b0 0c bf 3c bb 42 f2 bb bd 13 e1 31 bd d1 7c 56 3d
       -0.0028800396 -0.091770664 -0.043427538 0.052365128
0003c0 00 3d eb 3d 08 6a 44 be 2c 12 6c be 24 67 fe 3d
       0.11486244 -0.19181073 -0.23053807 0.12422016
0003d0 c5 d0 b3 bd 37 57 d7 bc 6c 23 c7 3d 33 77 5b 3c
       -0.08780054 -0.026286704 0.09723553 0.0133951185
0003e0 42 2b 00 3e ff d3 a4 bd 4c 15 b2 bd 25 52 bd 3c
       0.12516502 -0.080482475 -0.08695468 0.023110459
0003f0 06 71 f7 3c a8 ec 07 bc 2b ad 99 bd 03 8f cb 3d
       0.030205261 -0.008296169 -0.07503732 0.09939387

h.0.mha.W_o.bias f4 [64]
000000 ea cb 28 be 6d ce 12 bc f5 f0 1a 3e f2 c1 35 3c
       -0.16484037 -0.008960349 0.1513098 0.011093603
000010 98 cb c2 bd da c1 1d 3e e1 f1 3a 3e f8 f3 e5 bd
       -0.09511489 0.1540598 0.18256332 -0.11228174
000020 ad f4 f1 3c 66 4d 0a be 9e c7 60 3c ce 13 c5 3d
       0.029535616 -0.13506088 0.013719467 0.09622918
000030 be 2b 52 bd ae 0d 3d 3b eb 3c 07 be 74 f1 b6 3d
       -0.051311247 0.0028847265 -0.13206832 0.08932772
000040 e5 56 25 bc 92 fe b1 bd 5d 85 96 bd 0c d3 ae 3c
       -0.010091518 -0.086911336 -0.07349656 0.02134087
000050 01 fe 0d be 81 d0 88 bd 20 fc c5 bd fc 06 4b bd
       -0.13866426 -0.06680394 -0.0966723 -0.049567208
000060 fc fb 26 3c a2 c3 ae bd 81 ad 9b bc d7 08 1b 3e
       0.010191914 -0.08533408 -0.019003632 0.15140091
000070 be 3e 82 bd d2 e5 15 3e 79 92 22 3e 2f 9d 4e 3d
       -0.063596234 0.1463845 0.15876187 0.05044287
000080 63 b6 9a bd 27 f3 ff bd da 00 22 be cb a8 20 3e
       -0.07554319 -0.124975495 -0.15820637 0.1568939
000090 d0 15 b4 3d 0c 80 4b 3e c1 29 fe bd f5 78 0b bd
       0.08793223 0.19873065 -0.12410308 -0.0340509
0000a0 45 db a8 bd 26 96 17 be 7a a7 26 3d a6 1c b9 3c
       -0.08244947 -0.14803371 0.04068706 0.022596668
0000b0 77 1c 0d bd 9d c1 cb bc 9e 4a ae bd ba 85 81 3d
       -0.034450974 -0.024872595 -0.08510326 0.063243344
0000c0 2c 7c 04 3e 6f 91 f8 bc be 9c 1f be 72 f6 ba 3d
       0.12937993 -0.030342786 -0.15587136 0.09129037
0000d0 1c 4c 39 bd 4f 86 22 3e d6 f1 d8 3d 27 83 38 3c
       -0.0452386 0.15871547 0.105930015 0.011261738
0000e0 a7 bc d8 bc d0 b9 ba bd 2f 3c 1b 3c d8 43 82 bd
       -0.026457144 -0.09117472 0.009474798 -0.063605964
0000f0 6b 33 d7 3d c2 e2 a7 3d 6e 4f 0e 3e bf 8a c9 3d
       0.10507854 0.081975475 0.13897488 0.09840917

h.0.ln_1.weight f4 [64]
000000 50 a0 7d 3f 26 0b 69 3f 51 96 84 3f 26 fa 77 3f
       0.9907274 0.91032636 1.0358373 0.9686607
000010 b9 a7 55 3f 4e 29 74 3f 46 b6 6a 3f 36 5c 80 3f
       0.8345905 0.95375526 0.9168438 1.002814
000020 15 56 71 3f d5 df 71 3f 34 8a 74 3f 43 4b 74 3f
       0.94271976 0.94482166 0.9552338 0.9542734
000030 f3 b1 67 3f 70 18 6c 3f eb e8 5e 3f dd 91 7f 3f
       0.90505904 0.9222479 0.87074155 0.99831945
000040 8a 3e 7d 3f 52 6c 61 3f a2 0a 5a 3f a3 48 5d 3f
       0.9892355 0.8805591 0.85172474 0.8643896
000050 d9 90 87 3f cd d7 6e 3f 14 04 5a 3f e0 32 72 3f
       1.0591079 0.93298036 0.8516247 0.9460888
000060 b5 40 6b 3f 26 18 63 3f be ad 81 3f dd a9 5c 3f
       0.9189561 0.8870872 1.0131147 0.8619669
000070 46 a1 61 3f b2 03 64 3f 43 5f 81 3f ac 33 72 3f
       0.8813671 0.8906814 1.0107197 0.94610095
000080 ec 0f 60 3f ff ad 69 3f 6b e0 6a 3f a1 1a 76 3f
       0.87524295 0.9128112 0.91748685 0.9613438
000090 bc 36 6d 3f 2f 46 84 3f 88 1f 7b 3f 48 71 68 3f
       0.92661643 1.0333918 0.9809499 0.90797853
0000a0 1b 56 49 3f 1f 26 80 3f d6 c1 6a 3f 9b 06 75 3f
       0.7864701 1.0011634 0.9170202 0.95713204
0000b0 c6 9f 7d 3f 38 9e 78 3f 55 ef 82 3f b8 fa 6c 3f
       0.9907192 0.9711642 1.0229288 0.92570066
0000c0 20 2c 75 3f d2 7f 75 3f 89 f4 65 3f f1 72 85 3f
       0.95770454 0.95898163 0.89826256 1.0425702
0000d0 ea c4 65 3f 9a 1a 7a 3f ac 7c 69 3f 96 10 83 3f
       0.8975359 0.9769684 0.9120586 1.0239437
0000e0 62 d5 79 3f ea 6d 64 3f f2 ff 7c 3f a0 d9 6b 3f
       0.9759122 0.89230216 0.9882804 0.92128944
0000f0 05 4a 63 3f 08 d6 69 3f 8a f4 7b 3f 6b 51 6c 3f
       0.8878482 0.9134221 0.9842001 0.92311734

h.0.ln_1.bias f4 [64]
000000 12 51 e6 ba 8d 06 62 bd cd 62 94 bb 1a a9 8a 3c
       -0.0017571768 -0.05518203 -0.0045283795 0.016926337
000010 64 4b 8d bd d9 13 2f bd 14 d4 aa 3b 3d ae 7c 3c
       -0.06899145 -0.042743538 0.00521327 0.015422401
000020 47 34 8f bc a9 ca 34 bd dc f9 e8 ba 21 e2 11 3d
       -0.017480982 -0.044138584 -0.0017774659 0.035616044
000030 cb 3f dd bb 96 97 d6 bc 9a b7 88 bc 0b 03 5f bd
       -0.0067519895 -0.026195329 -0.01668911 -0.05444626
000040 77 3e 28 3d 0d 10 d8 bb d6 da 1f 3d e7 bc c1 3b
       0.041075196 -0.0065937103 0.039027058 0.0059124115
000050 5a 53 39 bd d9 b4 49 bc a5 1a 88 3d 2b e0 3b bc
       -0.045245506 -0.012311184 0.06645707 -0.01146702
000060 19 de b5 bc fa d5 c5 bc a2 be e0 bc e6 91 62 3d
       -0.022200631 -0.024149884 -0.02743465 0.05531492
000070 25 db 9f bd 26 e2 1c 3c df 3e 1c 3c f1 74 3c 3c
       -0.078054704 0.009575402 0.009536474 0.01150249
000080 37 43 47 3d ba 91 3d 3d f3 c1 5e bc aa 67 43 3c
       0.048648085 0.046281554 -0.013596046 0.011926571
000090 80 12 90 3c 37 cd 19 3c e5 d2 82 3b 26 e2 b0 3c
       0.017586946 0.009387306 0.0039924257 0.021592211
0000a0 d0 d4 98 bc 02 ec 11 3d 23 d4 d9 3b 07 f2 9b 3d
       -0.018656164 0.035625465 0.006647603 0.076145224
0000b0 e7 a6 32 3c b9 d2 60 3c 6b 2e 80 3c 76 ef a7 3d
       0.01090405 0.013722115 0.015647134 0.081999704
0000c0 59 b0 b6 bb 23 35 a8 3d e4 90 9c bc 2f 2e 54 3d
       -0.0055752215 0.0821326 -0.019112058 0.051801857
0000d0 e1 8a 14 bb ea fa 3f bd c2 e7 49 bc e9 26 e9 bb
       -0.0022665786 -0.04687015 -0.012323322 -0.007115234
0000e0 70 f7 d7 3c cf ff 1b 3c 61 3f df 3b be d9 da bc
       0.026363105 0.009521439 0.0068129753 -0.026715156
0000f0 3f 22 da bc 87 44 97 3c 2f 7b 80 bb 57 b6 f1 3c
       -0.026627658 0.018465294 -0.0039209346 0.029505892

h.0.ln_2.weight f4 [64]
000000 00 00 80 3f 00 00 80 3f 00 00 80 3f 00 00 80 3f
       1.0 1.0 1.0 1.0
000010 00 00 80 3f 00 00 80 3f 00 00 80 3f 00 00 80 3f
       1.0 1.0 1.0 1.0
000020 00 00 80 3f 00 00 80 3f 00 00 80 3f 00 00 80 3f
       1.0 1.0 1.0 1.0
000030 00 00 80 3f 00 00 80 3f 00 00 80 3f 00 00 80 3f
       1.0 1.0 1.0 1.0
000040 00 00 80 3f 00 00 80 3f 00 00 80 3f 00 00 80 3f
       1.0 1.0 1.0 1.0
000050 00 00 80 3f 00 00 80 3f 00 00 80 3f 00 00 80 3f
       1.0 1.0 1.0 1.0
000060 00 00 80 3f 00 00 80 3f 00 00 80 3f 00 00 80 3f
       1.0 1.0 1.0 1.0
000070 00 00 80 3f 00 00 80 3f 00 00 80 3f 00 00 80 3f
       1.0 1.0 1.0 1.0
000080 00 00 80 3f 00 00 80 3f 00 00 80 3f 00 00 80 3f
       1.0 1.0 1.0 1.0
000090 00 00 80 3f 00 00 80 3f 00 00 80 3f 00 00 80 3f
       1.0 1.0 1.0 1.0
0000a0 00 00 80 3f 00 00 80 3f 00 00 80 3f 00 00 80 3f
       1.0 1.0 1.0 1.0
0000b0 00 00 80 3f 00 00 80 3f 00 00 80 3f 00 00 80 3f
       1.0 1.0 1.0 1.0
0000c0 00 00 80 3f 00 00 80 3f 00 00 80 3f 00 00 80 3f
       1.0 1.0 1.0 1.0
0000d0 00 00 80 3f 00 00 80 3f 00 00 80 3f 00 00 80 3f
       1.0 1.0 1.0 1.0
0000e0 00 00 80 3f 00 00 80 3f 00 00 80 3f 00 00 80 3f
       1.0 1.0 1.0 1.0
0000f0 00 00 80 3f 00 00 80 3f 00 00 80 3f 00 00 80 3f
       1.0 1.0 1.0 1.0

h.0.ln_2.bias f4 [64]
000000 00 00 00 00 00 00 00 00 00 00 00 00 00 00 00 00
       0.0 0.0 0.0 0.0
000010 00 00 00 00 00 00 00 00 00 00 00 00 00 00 00 00
       0.0 0.0 0.0 0.0
000020 00 00 00 00 00 00 00 00 00 00 00 00 00 00 00 00
       0.0 0.0 0.0 0.0
000030 00 00 00 00 00 00 00 00 00 00 00 00 00 00 00 00
       0.0 0.0 0.0 0.0
000040 00 00 00 00 00 00 00 00 00 00 00 00 00 00 00 00
       0.0 0.0 0.0 0.0
000050 00 00 00 00 00 00 00 00 00 00 00 00 00 00 00 00
       0.0 0.0 0.0 0.0
000060 00 00 00 00 00 00 00 00 00 00 00 00 00 00 00 00
       0.0 0.0 0.0 0.0
000070 00 00 00 00 00 00 00 00 00 00 00 00 00 00 00 00
       0.0 0.0 0.0 0.0
000080 00 00 00 00 00 00 00 00 00 00 00 00 00 00 00 00
       0.0 0.0 0.0 0.0
000090 00 00 00 00 00 00 00 00 00 00 00 00 00 00 00 00
       0.0 0.0 0.0 0.0
0000a0 00 00 00 00 00 00 00 00 00 00 00 00 00 00 00 00
       0.0 0.0 0.0 0.0
0000b0 00 00 00 00 00 00 00 00 00 00 00 00 00 00 00 00
       0.0 0.0 0.0 0.0
0000c0 00 00 00 00 00 00 00 00 00 00 00 00 00 00 00 00
       0.0 0.0 0.0 0.0
0000d0 00 00 00 00 00 00 00 00 00 00 00 00 00 00 00 00
       0.0 0.0 0.0 0.0
0000e0 00 00 00 00 00 00 00 00 00 00 00 00 00 00 00 00
       0.0 0.0 0.0 0.0
0000f0 00 00 00 00 00 00 00 00 00 00 00 00 00 00 00 00
       0.0 0.0 0.0 0.0

ln_f.weight f4 [64]
000000 00 00 80 3f 00 00 80 3f 00 00 80 3f 00 00 80 3f
       1.0 1.0 1.0 1.0
000010 00 00 80 3f 00 00 80 3f 00 00 80 3f 00 00 80 3f
       1.0 1.0 1.0 1.0
000020 00 00 80 3f 00 00 80 3f 00 00 80 3f 00 00 80 3f
       1.0 1.0 1.0 1.0
000030 00 00 80 3f 00 00 80 3f 00 00 80 3f 00 00 80 3f
       1.0 1.0 1.0 1.0
000040 00 00 80 3f 00 00 80 3f 00 00 80 3f 00 00 80 3f
       1.0 1.0 1.0 1.0
000050 00 00 80 3f 00 00 80 3f 00 00 80 3f 00 00 80 3f
       1.0 1.0 1.0 1.0
000060 00 00 80 3f 00 00 80 3f 00 00 80 3f 00 00 80 3f
       1.0 1.0 1.0 1.0
000070 00 00 80 3f 00 00 80 3f 00 00 80 3f 00 00 80 3f
       1.0 1.0 1.0 1.0
000080 00 00 80 3f 00 00 80 3f 00 00 80 3f 00 00 80 3f
       1.0 1.0 1.0 1.0
000090 00 00 80 3f 00 00 80 3f 00 00 80 3f 00 00 80 3f
       1.0 1.0 1.0 1.0
0000a0 00 00 80 3f 00 00 80 3f 00 00 80 3f 00 00 80 3f
       1.0 1.0 1.0 1.0
0000b0 00 00 80 3f 00 00 80 3f 00 00 80 3f 00 00 80 3f
       1.0 1.0 1.0 1.0
0000c0 00 00 80 3f 00 00 80 3f 00 00 80 3f 00 00 80 3f
       1.0 1.0 1.0 1.0
0000d0 00 00 80 3f 00 00 80 3f 00 00 80 3f 00 00 80 3f
       1.0 1.0 1.0 1.0
0000e0 00 00 80 3f 00 00 80 3f 00 00 80 3f 00 00 80 3f
       1.0 1.0 1.0 1.0
0000f0 00 00 80 3f 00 00 80 3f 00 00 80 3f 00 00 80 3f
       1.0 1.0 1.0 1.0
