subspace-alignment/data/1_layer_32_vocab/ckpt_5080.pt (torch, 90637 bytes, 17 tensors)

embed.embed.weight f4 [32, 64]
00000000: 0e69 2abe 0842 173f deef 183f 1dc7 0e3e
00000010: a162 0bbd 9562 22bf 7a07 92bf f5c9 86bd
00000020: 6731 e9be 99c2 4e3e 0dc8 c2bf 7605 c43e
00000030: 24c4 7fbe 2734 4dbf 126c 553f 02ea 953c
00000040: 55b7 473e 1def 4a3d bb90 403f 9f81 26bf
00000050: 28ae 11bf 2181 be3f f109 af3f 1453 75bf
00000060: 76c4 06c0 442c b03f aac2 56bf 1924 0640
00000070: d811 543f 197c 393f 9b44 fcbe 9b57 033f
00000080: 7775 633f 54ec 53bf fa5f 973e 92da 74bf
00000090: 1644 91bf ccff 1f3f d203 5dbf 63b1 323f
000000a0: 4796 d9bf 7584 66bf b5b0 4d3e 65c6 393f
000000b0: 1f77 973f ed26 413f 2caa eabe f989 19bf
000000c0: e154 4abf 852d c1bf e883 f8bd 122e a5be
000000d0: 2d8d b33e 30b3 8a3f 2b1d 8d3d d998 6dbf
000000e0: 99c9 b23e 5225 03bf f6a0 9ebf a5bc c2bf
000000f0: 4aa5 f13e fa45 9dbe 94b1 943c db09 543f
00000100: 425d 173f 9575 95bf cb6c 89bf 88b1 143e
00000110: 596d ed3f 2125 83bf dfb0 89be 1e3e 0ebf
00000120: 13a3 a43e 59a5 a8be 90ee bc3d 5378 e93e
00000130: 8825 c53e 7c05 d13e 55fd 183d 6a8b 503f
00000140: b813 973f d1dd 07bf 53a0 863f 7c4c a63e
00000150: c4f5 783e f100 cebe 2b78 cb3f a7d5 f63e
00000160: 743c 1e3d d48e 5d3f e385 a7bf d2e2 dd3e
00000170: f5bb f6bf ba09 fb3f 28f1 943e a8e9 8fbf
00000180: 6d9f a1bf e909 a7bf 21d3 053f 697f 2dbc
00000190: 1485 653f 47cb 4d3f dc0f 8f3f 9357 533e
000001a0: d5b8 9dbf 7e5a 23be 650f 803f dc4e e83e
000001b0: 3f4b febe d508 16be 8c41 aebf bb83 acbf
000001c0: 84a1 8cbe f015 bebd 78cb 8f3f b4ab 033d
000001d0: 7f0e 3ebf 8b45 0a3e ecce a33e e2ff 7cbf
000001e0: d87a bf3d a5c2 6fbf 9c4e a9be 3785 13be
000001f0: ecc0 db3e bf7a 12c0 6aef 64bf dd18 e93e
00000200: d825 533f 3eff 5f3f 6cf8 cabe cd06 77be
00000210: f33f 37be 630a 363f eddc 0fbf baeb bfbf
00000220: 7328 a73e 32aa 6bbf 8396 aa3e 4ed7 c8be
00000230: 699d 27bf ae34 4e3f cffc 9a3e 0764 bf3e
00000240: 8cad 35bf d938 58bf a72c e1bf 8e17 36bf
00000250: ecd2 3d3e 6044 983f 4462 70bf b170 11bf
00000260: af43 b63e 7a1e d73e 8f9c 16bf c5f2 433e
00000270: 0239 89bf af09 c63f ae09 953f e097 dd3e
00000280: c5c6 5abf ce08 f03e 8cfe a63e 5d0e 903f
00000290: 8cd7 89bf 9efe bfbf 4c8b d4be 95a4 1b40
000002a0: 44d3 17bf 0c72 75bf ecac 263d cb83 a63d
000002b0: 59fa e9bc 84a0 55bf 7fff 553f 8617 66be
000002c0: 37f1 71be 6977 93bf d9c4 0540 91a9 53bd
000002d0: 17f4 4a3e f130 08bf a6f2 d1bf e8b9 eabe
000002e0: f2b5 313f ea71 88bd cfb4 16bf 540a 693f
000002f0: 823e 15c0 77f6 003f 1b90 853e 1420 973e
00000300: ea19 9fbf 2489 883f e9b5 a93d 7838 fdbd
00000310: 420d c2bf 50cf e3be 8505 ae3f e43b e53e
00000320: eb0e a4bf 5d29 9ebf c863 eabf 12f1 81be
00000330: 9dff 29c0 ad57 1740 6c11 9ebf a657 e93e
00000340: 00c8 c03e 1d30 98be 7d41 4b3f e03f 943e
00000350: 7fd4 4a3f 9023 2ebf 999b acbf aecb 233f
00000360: 7dc3 fcbf 7634 b73f 8040 243e 3e69 143f
00000370: 4a34 963e a215 9abe c62d a9be 2393 643f
00000380: c83f 493f 6003 3a3f 2814 42bf 7296 62bf
00000390: 1acb 0fbc f4eb 52bf f05c d53e e12d b23f
000003a0: d360 d53f 233e a0bd c559 65bf 0482 5b3f
000003b0: 49a8 653f 4d95 d93f ef08 313f 82c0 3f3f
000003c0: d171 433f 011a 41bf 67c9 ea3e c535 a13d
000003d0: 8fdd b7bf dd4f 943f ec8d c23e dce1 15bf
000003e0: b602 c83e efde 953f db40 38c0 c1cf 8bbe
000003f0: 1939 873d 5b0a 19bf 1a92 46bf bd14 10bd
-0.16641638 0.5908513 0.5974101 0.13943143 -0.034029607 -0.63431674 -1.1408532 -0.06581489
-0.45545503 0.2019142 -1.5217301 0.38285416 -0.24977165 -0.80157703 0.8336803 0.01830006
0.1950353 0.049544442 0.7522084 -0.65041536 -0.56906366 1.4883157 1.3674909 -0.9582989
-2.105741 1.3763509 -0.83890784 2.0959532 0.8283973 0.72454983 -0.49271092 0.5130555
0.8885111 -0.82782483 0.29565412 -0.9564601 -1.1348903 0.6249969 -0.86333954 0.6980192
-1.6998986 -0.90045863 0.2008694 0.7256835 1.1833228 0.7545002 -0.45832956 -0.59976155
-0.79035765 -1.5092016 -0.12134534 -0.3226171 0.35068646 1.0835934 0.06890329 -0.9281135
0.34919432 -0.5122882 -1.2392871 -1.521382 0.47196418 -0.3071745 0.018151082 0.8282754
0.59126675 -1.1676508 -1.0736326 0.14520848 1.8548995 -1.0245706 -0.26892754 -0.55563533
0.32155666 -0.3293865 0.0922519 0.45599613 0.38505197 0.40824497 0.03735097 0.8146273
1.1802893 -0.5307284 1.0517677 0.32480228 0.24312502 -0.40235093 1.5896047 0.4820988
0.03863187 0.86546063 -1.3087734 0.43337113 -1.927611 1.9612343 0.29090238 -1.1243181
-1.2626778 -1.3049899 0.5227528 -0.010589459 0.89656186 0.803883 1.1176715 0.20638876
-1.2322031 -0.15952489 1.0004698 0.45372665 -0.49666783 -0.14651807 -1.3613753 -1.3477701
-0.27466977 -0.09281528 1.1233969 0.03214617 -0.7424087 0.13503091 0.31993806 -0.98827946
0.093496025 -0.9365638 -0.33067787 -0.14406286 0.42920625 -2.2887418 -0.89427817 0.45526782
0.8247962 0.87498844 -0.39642656 -0.24123688 -0.17895488 0.711096 -0.5619648 -1.4993813
0.32648048 -0.9205657 0.33317956 -0.39226764 -0.65474564 0.8054913 0.30271003 0.37381002
-0.70967937 -0.8446174 -1.7591752 -0.7112969 0.18537492 1.1895866 -0.9389994 -0.5681258
0.35598513 0.4201544 -0.5883264 0.19135578 -1.0720522 1.5471705 1.1643579 0.43279934
-0.8545955 0.46881717 0.3261608 1.1254383 -1.0768905 -1.4999578 -0.41512525 2.4319203
-0.5930674 -0.95877147 0.040692255 0.08130606 -0.028561758 -0.8344805 0.8359298 -0.22469911
-0.23627172 -1.1520816 2.0901396 -0.051675383 0.19819675 -0.5319968 -1.6402175 -0.4584496
0.6941825 -0.066623524 -0.5886964 0.91031384 -2.3319402 0.50376076 0.26086506 0.2951666
-1.2429783 1.0666852 0.0828665 -0.12364286 -1.5160296 -0.44494104 1.3595434 0.44772255
-1.2817053 -1.2356373 -1.8311701 -0.25379235 -2.6562264 2.3647263 -1.2349067 0.45574683
0.37652588 -0.29724208 0.793968 0.28954983 0.79230493 -0.68023014 -1.3484985 0.63982666
-1.9747158 1.4312885 0.1604023 0.57973087 0.29336768 -0.3009463 -0.33042735 0.8928701
0.7861295 0.726614 -0.75812006 -0.8851081 -0.0087764505 -0.82391286 0.41672468 1.3920251
1.6670173 -0.07824352 -0.895901 0.85745263 0.8970991 1.6998688 0.69154257 0.7490312
0.76345545 -0.75430304 0.45856783 0.07871584 -1.4364489 1.1586872 0.37998903 -0.5854776
0.39064568 1.1708659 -2.8789585 -0.2730694 0.066026874 -0.59781426 -0.77566683 -0.035176028

h.0.mha.W_q.weight f4 [64, 64]
00000000: 3a51 acbd aede 103c 28a1 f63c 97b4 fc3d
00000010: 5976 9d3d 6418 ed3c 43a5 a1bd 8d53 ecb8
00000020: b585 fbba 9215 dbbd 0756 dbbd 9085 83bc
00000030: 9ca2 7ebc 460e e63d 7135 7bbd 5f85 0ebd
00000040: 228d 413d 1d97 193d ff17 a5bd 6e20 353c
00000050: efcb 983d ebf9 08bc 6c56 703d 2feb 74bd
00000060: d927 f13d cde4 9c3d e9ea 643d 075b cb3c
00000070: da31 f7bd e5b2 94bd 93c3 9cbd 30d6 f2ba
00000080: a1d8 89bd 4869 84bc ba80 82bd 909b cebd
00000090: b371 513d cbf9 c4bc 89e3 f73c ac46 17bd
000000a0: 27c6 babc 7328 c3bd ad5b 023d b141 813d
000000b0: 6f54 52bb dd38 79bd 3feb bd3c 46af 6abd
000000c0: 346a d53d 31f9 2abd d49d bd3c 4ecb 093d
000000d0: bdcb 1ebd 0bd6 4dbd ff39 b6bd 4468 a5bc
000000e0: 2404 a23c 1886 dcbb eaf2 2f3d aa5f 98bd
000000f0: 31a2 c5bd f3ce 9b3d 074f 09bc 4b55 af3c
00000100: 210c 2abc ecbb d9ba 9f6c 8cbd c3a2 3f3d
00000110: 4f73 40bd 4395 cabd 355e 12bd 682f 06bd
00000120: f3bc 9a3b b1c0 503c d08d 95bd 5aff b7bd
00000130: 4d7b 87bd 6799 b6bc e639 c5ba 6294 e73c
00000140: fdee 65bc 8bef e1bc d6bc 093d 6fee 54bd
00000150: 64ae 983d 7f8c ecbc 16de 77bd 2226 d4bc
00000160: 236d 393d 9d71 063d 09af 88bd da41 adbd
00000170: e1e6 973d 85f0 f63c c87b b0bd 8848 75bd
00000180: 672d 20bc a194 bebc 8c08 74bd 7bed 973d
00000190: bf55 2e3d f4cc 3ebd f29e 043d 930b 8a3c
000001a0: 99ec d23d 4efb 92bd dfda eebd 5526 73bd
000001b0: 741a 503d 3e18 bbbd a756 903c 606b 1ebd
000001c0: 8872 50bd 9ac7 d23c 237a abbd 2724 b43b
000001d0: dfef 9e3c a2c6 013c 6fdc a3bb 7953 e43b
000001e0: 9ed0 98bd 88b5 95bd 3d51 2b3c d654 00bd
000001f0: e7b9 343c 4578 8f3d c3c8 1dbd eea9 87bd
00000200: 4663 01be 96f2 c5bd c494 d4bd 5c4d 57bb
00000210: 4140 55bd 109e 2bbd 960f b4bd 25ec a9bd
00000220: 3c32 0ebe 8ecf 16bd dfc4 b73d e671 1cbd
00000230: 4dbe a2bc 9023 afbd 31bc 87bd 117b 21bd
00000240: f1d7 17bd dff1 cc3d 7048 b6bd 4907 ad3d
00000250: 5497 9abd 3e3c 5f3c dd88 5b3d 2072 85bc
00000260: 6f04 793a 1c5f c93d eb99 a03a 5692 efbc
00000270: 93e0 14bb 44b7 83bc aa4a 723d 9880 5f3d
00000280: f603 c83d 9460 363c 3d17 bb3c 6f2f e83b
00000290: 6935 31bd 45bf 42bc 63ad 5fbd c48f 82bd
000002a0: b7e6 753d 9bea 1cbd 4cac 5abd 040d 123d
000002b0: 7ad8 c33c 1c53 d8bd f6d9 093c fc72 083d
000002c0: 3773 93bd 6859 b0bd bc2a 923d 05d7 fe3d
000002d0: 0f06 453d 85a5 283d 6ff3 e83d 66e3 99bc
000002e0: a356 7d3d cbc0 f4bd 93ea 03bd 3694 3cbd
000002f0: a0fa 823d 66ae 04bd 3f73 50bc ee9e 1dbd
00000300: 09db b4bc c6c3 5a3d 85f2 a03d 4ce5 673d
00000310: 958c 65bd 81af bcbd 5b7d 35bd 9d7c 84bd
00000320: 21aa 593d 62c6 cdbc 1258 213d 848b ccbd
00000330: 0c2d 61bd ea4d 293b c5c2 f43d 8be3 c6bc
00000340: 45a1 f7bc e893 b5bd 4ab8 67bd f725 873d
00000350: 2836 cabc d39c 89bb 5347 f2bb 3bcc bfbd
00000360: 2dae 8dbc e83c 16bb a83b 7ebd d2af 88bd
00000370: 541b f0bc c374 103c 235b 77bd ce31 60bd
00000380: 3ad6 77bc 1f70 463d 9a37 8f3c 166d 92bd
00000390: 47f5 1d3d 0064 d2bc 8b22 0c3c 3d39 0c3d
000003a0: 9b35 1cbc 71d4 38bd 109b 963c 5a0d e3bd
000003b0: 4ed2 1e3d 4e2a 713d 333a 4a3c 57df 0dbd
000003c0: f8d9 933d 858b 7ebb 6ce4 7ebd 3eac 7dbd
000003d0: 8043 92bd 4b96 bdbc 1578 61bc 318f e63d
000003e0: f39b 173d 0e0e 403c 8a85 6b3d edec c0bd
000003f0: 12d8 713d 9050 9b3c 991d 3f3d 1590 1fbd
-0.0841393 0.0088421535 0.030106142 0.12339132 0.07688589 0.028942294 -0.07892849 -0.000112689195
-0.0019189628 -0.106974736 -0.10709768 -0.016054899 -0.015541699 0.11233191 -0.061330263 -0.03479516
0.047253735 0.03749763 -0.080612175 0.011055095 0.07460772 -0.008360366 0.05867617 -0.0597946
0.117751785 0.07660828 0.05588809 0.024823679 -0.12070055 -0.07260684 -0.0765449 -0.0018526968
-0.06730772 -0.016163483 -0.06372209 -0.10088265 0.051133823 -0.024044892 0.030259864 -0.036932632
-0.022799565 -0.095291995 0.03182571 0.06311358 -0.0032093783 -0.060845245 0.023183463 -0.05729606
0.10420647 -0.041741554 0.023146547 0.033641152 -0.03876852 -0.050252955 -0.088977806 -0.02019132
0.019777365 -0.0067298524 0.04295627 -0.074401215 -0.09650076 0.07607832 -0.008380658 0.021402976
-0.010378868 -0.0016611791 -0.06856655 0.04678608 -0.046984967 -0.09891751 -0.035734374 -0.032760054
0.0047222315 0.012741254 -0.07302439 -0.08984251 -0.06615315 -0.022289945 -0.0015047162 0.028268997
-0.01403403 -0.027580043 0.033627354 -0.0519852 0.07455137 -0.028875588 -0.060514532 -0.02589709
0.045270097 0.032823194 -0.0667401 -0.08459826 0.074170835 0.030143986 -0.086173594 -0.059883624
-0.00977645 -0.023264231 -0.059578463 0.07418343 0.042562243 -0.046582177 0.032378145 0.016851222
0.10299034 -0.07176839 -0.1166284 -0.05936273 0.050806478 -0.09135483 0.017619444 -0.03867662
-0.050890476 0.025729943 -0.08372905 0.0054974738 0.019401489 0.007920893 -0.005000643 0.0069679585
-0.074616656 -0.07310015 0.01045638 -0.031330906 0.011030651 0.070053615 -0.03852154 -0.066242084
-0.12635526 -0.0966541 -0.10379937 -0.0032852506 -0.05206323 -0.041898787 -0.08792035 -0.08296994
-0.1388635 -0.036819033 0.08973097 -0.03819456 -0.019866133 -0.08551705 -0.066276915 -0.039424006
-0.037071172 0.10007071 -0.08900535 0.08448655 -0.07548395 0.013625203 0.05359732 -0.01628977
0.0009499257 0.09832594 0.0012252902 -0.029244583 -0.0022716864 -0.016078599 0.059153236 0.054565996
0.097663805 0.011131424 0.02283823 0.0070857327 -0.043263827 -0.0118864225 -0.054608714 -0.06375077
0.06003448 -0.038309675 -0.05338697 0.035656944 0.023906935 -0.10562727 0.008413782 0.033312783
-0.0719971 -0.08610803 0.07137057 0.124433555 0.04810148 0.041173477 0.11374556 -0.01878519
0.0618502 -0.11950835 -0.03220613 -0.046039782 0.06395459 -0.03239288 -0.012722789 -0.038481645
-0.0220771 0.05340936 0.07858757 0.05661516 -0.056042273 -0.09213162 -0.044309 -0.064690806
0.053140763 -0.02511901 0.03939063 -0.09987548 -0.0549746 0.0025833794 0.11951212 -0.024278423
-0.030228266 -0.088661015 -0.056572236 0.06599038 -0.024684027 -0.004199603 -0.0073937564 -0.09365126
-0.017294968 -0.0022924487 -0.06206861 -0.0667416 -0.029309906 0.008816901 -0.06038965 -0.054734997
-0.015126759 0.04844677 0.017482568 -0.07149713 0.038563993 -0.02568245 0.008553158 0.034234274
-0.009534265 -0.045124475 0.018384486 -0.11086531 0.03877478 0.058878236 0.012342977 -0.03463682
0.072193086 -0.0038840484 -0.06222956 -0.06193184 -0.07141781 -0.023142954 -0.01376154 0.1125778
0.03701396 0.011722101 0.0575004 -0.0942019 0.05904395 0.018959314 0.046659086 -0.038955767

h.0.mha.W_q.bias f4 [64]
00000000: b73e e13d a230 c3bd 54d8 ddbd 32cb 153d
00000010: 871f 9bbc 0d1c 893c 7542 2dbe ef64 28be
00000020: ac5c 903e 2e97 c7be 7ad7 61bd f983 883e
00000030: fb08 f43e 7b07 523e d5cd 41bf 3244 3cbe
00000040: e24a 943e 0881 2e3f bf01 003c cd66 aa3e
00000050: 97ea a23e 3a2d d9bd fa92 a83e e327 933b
00000060: 602a d7bd 6d56 1ebe 42a8 eabc 4cea 063e
00000070: 9126 17be 6c23 5fbd 1f51 9a3d 89ef 13be
00000080: 0318 94ba 5cca b7bd 3066 b1bb 0f30 e0bc
00000090: 65e7 8dbd 19a6 dcbd aee4 cdbd 2b0e 023a
000000a0: b3b7 c43c acbc 223d 0373 c13d 9108 953d
000000b0: e8ae a4bd 7581 b3bd 1f17 c63b 42ca 1ebd
000000c0: efb4 523d 3dce 0e3e 0013 26bd a06f 763a
000000d0: 6c7d 2b3c e27c 3dbd c1f5 94bd 03b4 c53c
000000e0: 8f4e d53c 3363 f63d 7d5a d4bb cc9f 503d
000000f0: c9bf 59bb 9499 843b 8029 833c 3acc 653d
0.1099829 -0.0953076 -0.10832277 0.036570735 -0.018935932 0.016737008 -0.16919883 -0.16444753
0.28195703 -0.38982528 -0.055137135 0.26663187 0.47663102 0.20510666 -0.757047 -0.1838539
0.2896338 0.68165636 0.007812916 0.33281556 0.31819603 -0.106043294 0.32924634 0.004490839
-0.10506129 -0.15462656 -0.028644685 0.13175315 -0.14760806 -0.05447714 0.07535004 -0.14446844
-0.001129866 -0.08974144 -0.005413793 -0.027366666 -0.06928901 -0.10773868 -0.10053383 0.00049612176
0.024013376 0.039730713 0.09445765 0.072770245 -0.08041173 -0.08764926 0.0060452367 -0.038767107
0.051442083 0.13945861 -0.040545464 0.00094007887 0.010466915 -0.046261676 -0.07273436 0.024133688
0.026038436 0.120306395 -0.0064805136 0.050933644 -0.0033225885 0.0040466283 0.016011 0.05610297

h.0.mha.W_k.weight f4 [64, 64]
00000000: 3c76 efbd 0109 c6bc 2ab5 813d 9462 803d
00000010: 9b0c a0bc f330 da3d 678a d43d ac0f 013e
00000020: 1277 b9bd e35f 56bd 2e4a d4bc 9763 52bc
00000030: 2028 553d cd44 633d 312d 073c eed5 afbc
00000040: 334d 03bd 6b18 c6bc 9da5 11bb 4916 2ebe
00000050: 7d88 a53c 4d02 7fbd 114f f6bb 7c6d b9bc
00000060: 77b0 863d 6409 5c3d d7e5 423d 9aa4 e83d
00000070: 596b 633c e2bd a8bd 726d bcbd 72d5 cabd
00000080: d6c2 08bd e3bf 80bd 5e4a bebd caf8 96bc
00000090: 4f22 c2bd 219e 4bbb dcfc ba3c d944 813d
000000a0: fbbf 2a3d 9977 483d e701 a63d b962 db3c
000000b0: 0868 633d ea0f 75bd 4777 54bd 4db3 053d
000000c0: 14e3 083b d463 533c 2742 d8bc 1025 0bbb
000000d0: 434e 823d 79cd 42bd e5ab 44bd adfd 37bd
000000e0: 0400 0dbd 6a48 62bd 2a59 dcbd d401 f7bc
000000f0: e871 03ba f11f 0abc 3dd8 c03d 6463 833d
00000100: d2db 43bc f4fc 6a3d b3b4 173b 72af 31bd
00000110: a403 a2bc 6bc3 9cbc 41ae 63bd 6d2e 9f3d
00000120: 4f9b fa3b f1e9 2fbd 226d d6bc 87fc 88bd
00000130: cc57 223d c0b4 74bb 7ad0 743d 8010 073e
00000140: 1652 9d3d 2712 2c3d 00ab a5bd cd6f 72bd
00000150: 7dd2 8ebc 30cb a73a e394 babd e89b e2bc
00000160: c18e fc3b 65c5 b0bd 2dd1 783d ddf9 753d
00000170: d4d4 8f3d 3af9 b3bd 0ad5 abbd 3990 8dbd
00000180: 0a59 1fbd e004 073d 94b8 2ebd 88f3 b5bc
00000190: 7b24 413d 5faa 1f3e d608 bd3c a785 123d
000001a0: 5679 7dbd 6f46 523d b7e0 4dbd 0568 3bbc
000001b0: c9a6 5c3c 583d 9cbd f479 a8bc b40d 8f3d
000001c0: 5661 c63d 1ba2 ce3d faa7 7fbc 84cb 60bd
000001d0: 68b5 88bc 74c1 babd 7d6e 86bd aa1f 333d
000001e0: cf1f f23c 5f22 b5bd 9005 763d 26dc 3d3d
000001f0: 977e babd c395 0a3d 530e acbd fc83 59bd
00000200: 5422 ccbd 6881 4dbc a030 8abd 0193 03bd
00000210: 0429 5e3d 7d7e 813d b2c9 4d3c 8921 38bd
00000220: 531c 31bc c3a5 403d b5fd 1c3d 56c4 17bd
00000230: ab05 d3bb 0d6b 303c 67e3 8f3d 51ff 97bd
00000240: 0207 a7bd 71a8 81bd 4923 5bbd 04de f9bc
00000250: db5a 01be bdfd d6bc 16f7 993d e150 dabb
00000260: 7586 0c3c 4ff8 89bc cff3 d93c 0486 48bd
00000270: 0ac3 80bc f83d 8fbc 952e c43d 2cd2 8abd
00000280: 0766 96bd 7849 e43b 88ed ae3c a495 f93c
00000290: f6cf 113c e36e 353d 06d1 703c 30f7 dd3c
000002a0: 5eb4 00bd 4c29 353d f204 fdbd 63b3 f13a
000002b0: c0cf 87bd e646 b13c c60b c0bd 9031 4a3d
000002c0: 05a4 fa3c a6b8 ba3c 4783 133d 9cba 70bd
000002d0: 64ac ec3d b4fc 04be a5b1 ee3d dba2 ab3c
000002e0: 8c52 b2bb 52d4 7b3d 62e0 893b 4a48 013d
000002f0: afbc 25bd d402 8e3d 57e7 84bd 29df 703d
00000300: 5bb3 e7bd e294 87bc f997 673c b6f6 11bc
00000310: 220c 55bd 942c 5dbd 28bf 81bd c4ec 333d
00000320: 757f a93c edeb 87bc 9d07 64bd cc37 a8bd
00000330: 73e4 603b cf17 25bd 29c4 543d a53b 8cbd
00000340: 4d95 da3d 2e3f 283d e5a9 00be 8797 343c
00000350: 75b6 60bd 36b3 0fbe a830 efbd c1f7 b23d
00000360: 189c 343d 3a86 463d 4676 49bc 0d2f 0bbe
00000370: aa2d 853d f1fc 653d 45ee 4f3b 4327 b0bd
00000380: ab1d e8bd c447 893d f5f2 a2bd 3338 8a3b
00000390: 8551 97bd acd2 343d 22d4 073c 63f6 493d
000003a0: 909b 283e 7756 89bd f1d4 c53c 9b54 5cbd
000003b0: 92dc cdbc a04c cb3c 71a3 3bbd 52c0 093d
000003c0: 13e6 233d adc3 9bbd 041e 85bc 464c 6abc
000003d0: ef69 943d 137d f83c 3276 803c 1341 adbd
000003e0: 8b5e b63c 9cbd 1b3d ab4b 8a3c 7eee b0bd
000003f0: 78fb fe3d 7864 98ba 36f5 70bd 0624 e13b
-0.11692473 -0.024174215 0.063333824 0.06268802 -0.01953726 0.106538676 0.10377961 0.12603635
-0.09055914 -0.05233754 -0.025914278 -0.012841127 0.05204022 0.055485535 0.008250521 -0.021464314
-0.032056045 -0.024181565 -0.0022223957 -0.17000689 0.020206684 -0.062258054 -0.0075167497 -0.022635214
0.06576627 0.053719893 0.047582474 0.1135952 0.013880574 -0.08239342 -0.092005625 -0.09903993
-0.033388935 -0.062865995 -0.09291528 -0.018429179 -0.094792 -0.0031069594 0.02282565 0.0631196
0.041686993 0.048942182 0.081058316 0.026780473 0.055519134 -0.05982963 -0.051871564 0.032641698
0.0020887302 0.012902219 -0.026398731 -0.0021231808 0.063625835 -0.047559235 -0.048015494 -0.04491966
-0.034423843 -0.05524484 -0.10759194 -0.030152239 -0.0005014227 -0.008430467 0.09416244 0.06415442
-0.011954265 0.05737014 0.0023148477 -0.04338021 -0.019777127 -0.019136151 -0.055586103 0.07772527
0.0076479088 -0.042947713 -0.026175085 -0.06688791 0.03963451 -0.003733918 0.05976913 0.13189888
0.07681672 0.0420095 -0.08089256 -0.059188653 -0.017434353 0.0012801643 -0.09110429 -0.027662233
0.0077074473 -0.086314 0.06074636 0.06005274 0.070230156 -0.087877706 -0.08390243 -0.06912274
-0.038903274 0.032963634 -0.042656496 -0.022210851 0.04715393 0.15592335 0.023075502 0.035771992
-0.061883293 0.051336702 -0.050263133 -0.011438374 0.013467499 -0.07628888 -0.020565964 0.069850355
0.09686534 0.10089513 -0.015604014 -0.054881588 -0.016688064 -0.091189295 -0.06564043 0.04373137
0.029556183 -0.088444464 0.0600639 0.046352528 -0.09106176 0.03383423 -0.0840117 -0.053104386
-0.09967485 -0.01254306 -0.06747556 -0.032122616 0.054238334 0.06322954 0.012560295 -0.044953857
-0.010809976 0.047033083 0.03832789 -0.037052475 -0.0064398847 0.01076771 0.070257954 -0.074217446
-0.081556335 -0.06330956 -0.053500447 -0.030501373 -0.12632315 -0.026244039 0.07517831 -0.0066624735
0.008576979 -0.016842036 0.026605515 -0.048955932 -0.015718002 -0.017485604 0.09579197 -0.06778368
-0.07343679 0.006966766 0.021353498 0.030466862 0.008899679 0.044295203 0.014698273 0.027095407
-0.03142201 0.044228837 -0.12354459 0.0018440302 -0.06631422 0.021640252 -0.093772456 0.049363673
0.030595789 0.022793125 0.036013868 -0.058771715 0.115563184 -0.12987024 0.11654977 0.020951679
-0.0054419693 0.06148178 0.0042076567 0.03156308 -0.040463146 0.06934133 -0.06489437 0.058806572
-0.11313506 -0.016550485 0.014135354 -0.008908918 -0.052013524 -0.05399759 -0.06335288 0.04392697
0.020690659 -0.01659199 -0.055671323 -0.082137674 0.0034315854 -0.04030591 0.051944885 -0.06847314
0.10673008 0.041075878 -0.1256481 0.011022455 -0.054861505 -0.14033207 -0.11679202 0.087386616
0.044094175 0.048467852 -0.012296265 -0.13592167 0.0650285 0.056149427 0.0031727713 -0.086012386
-0.11333784 0.06703141 -0.079564966 0.0042181253 -0.073885955 0.044146225 0.0082903225 0.04930724
0.16465592 -0.06705945 0.02414939 -0.053791624 -0.02512959 0.024816811 -0.045810167 0.033630677
0.040014338 -0.076056816 -0.016249664 -0.014300412 0.07246768 0.030333078 0.01568136 -0.084596775
0.022261878 0.038022622 0.016881784 -0.08639239 0.124503076 -0.0011626622 -0.0588276 0.0068707494

h.0.mha.W_k.bias f4 [64]
00000000: dd23 d93d ce67 16ba 9011 ba3c b45c a1bd
00000010: 8663 32bd 7412 9abd 188c 743c db45 03be
00000020: d29b 41be f45d a7be 21f2 7f3e 3c09 e7bd
00000030: df5c 6b3e 680d 0ebf c9e7 193f 25bd 9c3e
00000040: cdc0 22bf e575 82be e3bc bcbe d5b7 c53d
00000050: d9ec bbbd bc4b 1b3e 7774 733d dde0 0f3e
00000060: c9bd f33d f9f7 04bd a5a6 7e3e 016a 65be
00000070: e323 5d3e e423 acbe 69b3 bf3d d7cb acba
00000080: 0c0d a83c 3cb8 e63a 8f7f cfbc 6be7 7b3d
00000090: 032d 5c3d e6a2 303c c9bb 36be db95 a0bd
000000a0: b955 aebd f6cc 403e 7b7a 65be f59b 393d
000000b0: 1868 773e 2f7e 35be bb8d 5abd 56c0 afbe
000000c0: e919 f2bd 5adf bb3d 05de d0bd 6e06 c8bd
000000d0: aea6 d03d d2ff 24be 37f9 bc3d 53e8 003c
000000e0: 7829 bcbd fad0 d9bd ad40 10be 4636 5cbe
000000f0: 7077 c53d b08f 99bd 5020 d4be 3b04 8bbd
0.106025435 -0.0005737514 0.022713453 -0.0787901 -0.043551944 -0.07523051 0.014925979 -0.12819616
-0.18907097 -0.32688868 0.24994709 -0.11281058 0.22984646 -0.55489206 0.601193 0.30613056
-0.6357544 -0.2548057 -0.3686286 0.09654204 -0.091760345 0.15165609 0.05943724 0.14050622
0.11901433 -0.032463048 0.24868257 -0.22403719 0.21595721 -0.33621132 0.09360392 -0.0013183308
0.020514034 0.0017602514 -0.02532938 0.061499994 0.053753864 0.0107810255 -0.17845072 -0.07841083
-0.08512444 0.18828186 -0.22410004 0.045314748 0.24160802 -0.17723916 -0.05335782 -0.34326428
-0.11821348 0.0917346 -0.10198597 -0.09766851 0.101880416 -0.16113213 0.092272215 0.00786789
-0.09187597 -0.10635562 -0.14087172 -0.21505079 0.096419215 -0.07498109 -0.41430902 -0.06787916

h.0.mha.W_v.weight f4 [64, 64]
00000000: 4670 843d 592d 29be 5eb1 8e3d 360d 7b3e
00000010: 8edd a53c edef c43c cfe8 ae3d 85ca 403c
00000020: dd85 a5bc adca 373c 0ba6 483d 099c 0a3d
00000030: 135d cdbd 17cb 90bd 5113 f53c 0ce5 f3bd
00000040: 1acb 243e bacd 193d 86b9 213b dae6 eebd
00000050: 28aa db3d 4192 043e fa23 73bd a872 293e
00000060: 9606 6fbd c6fd 2f3d d0e7 9f3d 8fd1 c8bd
00000070: 6794 4d3c 2d43 94ba 42c6 de3d 8117 92bd
00000080: e2d0 17be 1f7e c93b 5135 7fbe d776 25be
00000090: 5813 13be e248 d1bc 66ab 973d d3ac f53b
000000a0: b639 15be af33 ab3c 2734 a6bc d381 383d
000000b0: 2d1a 51be 777d 95bb 8ced 7d3c 0108 393e
000000c0: f7fe 2fbd 59d3 84bd b182 6dbd 5078 783d
000000d0: b877 e83d 7252 3f3e 1c10 10bd e2a4 083e
000000e0: d8fa 133e 530f 0abd ed7b c03d 3bea 25be
000000f0: f3a2 8ebd 8cca 91bd b825 83bc f1b5 8b3d
00000100: a29d b03c 1a3e 3dbc 9f08 c23d 2e61 71bd
00000110: b618 ad3d a9a4 483d 7221 ad3e adda d73d
00000120: fdfd 393e 652a c1bd cca3 a2bc b782 5b3d
00000130: 8496 163e ab3a b4bd 0a64 06bb 79ed 623e
00000140: 974a 5d3d de3a 1fbe f86e fbbd c2ce 383e
00000150: 2f87 443d 4d22 12be d59f 863b 1264 783d
00000160: 3955 573e d6bb 8a3e 2d52 1cbe 6753 033d
00000170: 9498 ba3c 9f81 96bd ef38 45bd 23b0 8d3d
00000180: feb9 98bc 9e7e 103d 0f62 fdbc 9e7c 80bd
00000190: 428e d3bc 0682 483e 35e4 01be 9a69 5bbd
000001a0: c29b 8cbd dc6e 2e3d 13c7 dabd 7794 663d
000001b0: eaca 743d 1a6f 85bd 4fca f6bc 32cc 91bd
000001c0: 70c1 bb3d 01bf d8bd d2de b43d 9013 2dbe
000001d0: 2980 12be 1592 003e b376 36be 6115 bebd
000001e0: 2182 003d 3faf 473e 6029 54bd 68ed 64bd
000001f0: 05ec ddbc 9166 2a3e cfd8 393e d4c3 46bd
00000200: 6c37 313d 4ba2 6b3d 2b90 603d 38ef 043c
00000210: 1e52 063e aad2 59bd f997 62bb 0bc4 c6bd
00000220: 2728 e4bd 6d9c 6cba f0f2 bdbd 3b48 1a3d
00000230: ce3c 903a 51be e23d 26f7 b73d 1023 09be
00000240: 16a4 613d 0ff0 c1bd 258f 243d 0886 533e
00000250: 80d1 66bd 0764 903d 207b 00bc e793 073e
00000260: b440 3fbc c1f6 633d 5450 b53d 2823 d03d
00000270: a0c7 0abe 01a0 b33d a26e cbbc 48b5 8a3d
00000280: 4bc7 21be 2076 353e 9d8c 433c bcee 23bc
00000290: dd83 71bd 081f 923d cf7d dbbd 2dab fdbd
000002a0: e8d8 823d 223f ebbd 861f a53d 422f e0bc
000002b0: 49da 42bd 9d59 29be 4962 f23c c9e6 af3d
000002c0: 5a82 1dbd a82b f93d a87b 08be 8389 3dbc
000002d0: 8bce debd e8c9 d73d 2211 603d 8d21 31bc
000002e0: 786f 35bc d778 81bd 1fef 0dbd c3d6 423d
000002f0: a780 313c 8a49 b43d b76a a5bd 1309 863d
00000300: 0b23 97bc 76f2 babc 9ef4 8ebd 3a3b ae3c
00000310: 8308 543b 5922 843e b686 65be 8489 8cbd
00000320: 66e2 0ebe 4e2d 88bd ba3e 51ba 733f 00be
00000330: b43f 2c3c dfab 3cbe 59e6 17bd d52f 22bd
00000340: 5e63 fdbd ff71 d8bd 8971 6ebd 0b7c 373e
00000350: 3741 863d 293d 43bd a1af 9d3d dad2 1d3e
00000360: 82ff 23bc a742 faba 6bcd c13d b460 de3c
00000370: 2b11 c83d 8fb7 84bd 4d8b a1bd c8d0 14be
00000380: 78f5 00bc 1330 0f3e 5288 4a3e 5dad 953d
00000390: 09e4 e0bd 786f 0c3e a03a 1abd 8ad3 263e
000003a0: 91d6 17be cb9f 623e eb00 dd3d 346f dd3c
000003b0: 724d 14be 3e71 203e 0dad 9ebd dae6 06bc
000003c0: 8333 b33d bf85 0fbe b19c 09bc f68c 9e3d
000003d0: 79a4 13bd 33f5 9fbd ce17 c03c 3d6e c4bd
000003e0: 38e6 523d 0b55 afbc e086 b9bd f7f4 08bd
000003f0: 9377 f7bc df71 b23d 97ed 52be 8867 25be
0.06466727 -0.16521205 0.06967424 0.24516758 0.020247247 0.024040187 0.085404985 0.011767034
-0.020205433 0.011217755 0.048986476 0.033840213 -0.10027518 -0.07069986 0.029916437 -0.119089216
0.16093102 0.03754971 0.002467723 -0.11665125 0.10725814 0.12946416 -0.05936048 0.16547644
-0.05835589 0.042966627 0.078078866 -0.09805595 0.012547589 -0.0011311524 0.108776584 -0.07133389
-0.14825776 0.006149068 -0.24922682 -0.16158615 -0.14362848 -0.025547449 0.074057385 0.007497409
-0.14572796 0.020898668 -0.02028854 0.045045685 -0.20420142 -0.0045620757 0.01549853 0.1806946
-0.042967763 -0.06485624 -0.057985965 0.060661614 0.113509595 0.18683794 -0.035171613 0.13344148
0.14451158 -0.03370602 0.09398637 -0.16202633 -0.06964674 -0.07118711 -0.016009197 0.06821812
0.02155954 -0.011550451 0.094743006 -0.05893057 0.08451979 0.048985157 0.3381458 0.10539756
0.18163295 -0.09431914 -0.019853495 0.053591456 0.14705855 -0.088002525 -0.0020506405 0.22160901
0.054026213 -0.155498 -0.12277025 0.18047622 0.047980484 -0.14270897 0.004108409 0.06064231
0.21028604 0.27096432 -0.15265723 0.03206196 0.022777833 -0.07348942 -0.04815 0.06918361
-0.018643375 0.035277 -0.030930547 -0.06273769 -0.02582467 0.1958085 -0.1268471 -0.053567506
-0.06865646 0.042586192 -0.10682502 0.05629393 0.059763826 -0.065153316 -0.030125765 -0.07119025
0.09167755 -0.10583306 0.08831562 -0.16901994 -0.14306702 0.12555726 -0.17818718 -0.092814215
0.0313741 0.19500445 -0.05179727 -0.05589047 -0.027090082 0.16640688 0.18149112 -0.0485266
0.043265745 0.05752782 0.05482499 0.008113675 0.13117263 -0.05317942 -0.0034575446 -0.09705361
-0.11140471 -0.0009025995 -0.09274852 0.03766654 0.0011004449 0.11071456 0.08982687 -0.13392282
0.055088125 -0.09469616 0.040175576 0.20656598 -0.05635214 0.07050329 -0.007841855 0.13240014
-0.011673141 0.055655245 0.08853212 0.101629555 -0.13552713 0.08770753 -0.024833027 0.06772858
-0.1579868 0.17720842 0.01193538 -0.010005649 -0.058963645 0.07134825 -0.107173555 -0.12386165
0.06389028 -0.11486651 0.08062653 -0.027366284 -0.047571454 -0.16538091 0.029587882 0.08588941
-0.03845439 0.1216653 -0.13328421 -0.01156843 -0.10879239 0.105365574 0.05470384 -0.010811222
-0.0110739395 -0.063218765 -0.03465187 0.047568094 0.010833896 0.08803089 -0.08076995 0.065446995
-0.018449327 -0.022820693 -0.06980251 0.021268476 0.0032353706 0.25807455 -0.2241467 -0.068621665
-0.13953552 -0.06649266 -0.0007982064 -0.12524204 0.010513235 -0.18424939 -0.03708491 -0.039596397
-0.123724684 -0.10568618 -0.058213744 0.17918412 0.065554075 -0.04766575 0.07699514 0.15412465
-0.010009648 -0.001909335 0.094630085 0.027145721 0.097688995 -0.064803235 -0.07887898 -0.14532769
-0.007871024 0.13983183 0.19778565 0.07308457 -0.10980994 0.13714397 -0.037653565 0.16291633
-0.14827944 0.22131269 0.10791191 0.027030565 -0.14482668 0.15668198 -0.077478506 -0.00823375
0.087500595 -0.14015864 -0.008399175 0.0774173 -0.036045525 -0.0781044 0.023448851 -0.09591339
0.051489085 -0.021402856 -0.090589285 -0.03343674 -0.030208385 0.087131254 -0.20598446 -0.16152775

h.0.mha.W_v.bias f4 [64]
00000000: 657d 603d 5f8d 1fbc f6a3 7dbd bacb 053d
00000010: fae5 8f3d 36aa dabc 3368 c13d 1edb b7ba
00000020: 8f96 bebd 06d4 6c3d b2ba 4d3d c61e 17bd
00000030: 99dc 853d 5f20 06bc f81c 74bc ff3d 00be
00000040: 50ed 41bd 4366 ffbc bfa3 05bd d65f 9e3d
00000050: 325b 0cbd d46a 333c caae c43d 3379 e53c
00000060: 1759 c63d 8d5d 6ebc f5d8 603d 81f2 ef3c
00000070: 65e4 443c 97c7 4dbd e61e 02be be57 d4bd
00000080: b02e 7ebd 92bd a2bd caeb cf3d 592d 9f3d
00000090: fb8c c33c 1b3f 863d 4077 b2bd 3c01 85bd
000000a0: 3d09 2d3c d796 263d d4ad b2bc f540 a6bd
000000b0: 6def b13c 3905 f9bd d463 45bd b2cc adbd
000000c0: c426 513d e8e1 2a3d 7bb2 4d3d 9625 c6bc
000000d0: bbe7 9cbd 18c4 c8bc 2c60 cebd 85b5 a23d
000000e0: 7608 abbd bc2b b1bd 37a9 583d 4015 8f3d
000000f0: 1c73 abbd ab2e 2fbc 7dfc b83d 2136 353d
0.054807086 -0.009738295 -0.061923943 0.032664992 0.070262864 -0.026692491 0.094437025 -0.0014027094
-0.093060605 0.05781939 0.050226875 -0.036894582 0.06536216 -0.008186429 -0.014899485 -0.1252365
-0.04734546 -0.031176692 -0.032626864 0.07733123 -0.034266658 0.010950763 0.09603651 0.028011894
0.09684961 -0.014548671 0.054894406 0.02929044 0.012017344 -0.05023917 -0.127071 -0.10368298
-0.062056243 -0.07946314 0.10152395 0.07772321 0.023870936 0.06555005 -0.087141514 -0.06494376
0.010561285 0.040671196 -0.021811403 -0.08117858 0.021720612 -0.12159199 -0.048190907 -0.08486308
0.05106236 0.041719347 0.05021904 -0.024187844 -0.076613866 -0.024507567 -0.10076937 0.07944778
-0.08351223 -0.0865092 0.05289575 0.06986475 -0.08371565 -0.010692279 0.09032533 0.044241074

h.0.mha.W_o.weight f4 [64, 64]
00000000: 71ec 89bd 4692 18bd ccc3 523c cb83 de3d
00000010: 3782 c13b 13ef 08bc 01ca b8bd 9b91 bebc
00000020: badb 543c 3cf6 dcbd b802 c2bc ecca bcbc
00000030: 8ac4 8abd 2232 0b3e a3d8 3d3e 1c72 b2bd
00000040: bbff 183d 20b6 33bd 0648 a53c 34f5 2a3e
00000050: 42d7 463e b1db ccbc dbe1 15be b111 2d3e
00000060: 6a97 fc3b 8132 f4bd ceaa f13c e5bb f4bd
00000070: 3a5a ac3c 96eb 163c 380f e13c 78d6 f1bd
00000080: 3705 273d 4136 b23c 5685 5bbe 4321 593e
00000090: 2788 3f3d fdbb 9839 1634 143d 858f c5bc
000000a0: a00d debb 4259 243d 5626 c73d 0484 283e
000000b0: 3cda e2bd 5f28 7ebd 3be1 27bc 0329 5d3d
000000c0: 0b7a 02be 3ba3 3f3b 721a 1ebd 18d0 253d
000000d0: 6d28 bd3b 977e 4ebc edc6 de3d d352 c4bc
000000e0: 3cef a7bd 7343 2dbd bf43 833c f549 efbd
000000f0: 6378 f53d d0a8 3e3c c186 ab3d aa90 a43d
00000100: 69b2 a9bd 506c 9b3e dfad 0e3d fa1a 79bd
00000110: 25ee 193d 6096 203c 3e51 22bd 494c 303e
00000120: 659b 9bbc 24d2 17bc 568d 0dbe 462d 9ebc
00000130: da5b b33d ef1f 753d ee6f 05be a3db 1c3d
00000140: b27c 843d 5d69 4a3d 2066 973d f179 02be
00000150: 686c 133e 094e 153d 92b0 a7bd 930b 2dbe
00000160: 6133 883d 1211 633c 64ac e53d 8fa1 d3bd
00000170: 161f edbd f0a1 5f3c 433f bc3d 1984 f33c
00000180: d597 d4bd 4335 d53d 78a7 bbbc 98f7 abbc
00000190: 4c56 a33d 230c 43be 72b4 2abe 8ea6 f5bd
000001a0: 34f3 38bc 4691 893e 8d24 22be f349 5c3d
000001b0: 2282 6d3d 5178 723d 5df9 833d 34f0 ab3c
000001c0: 7586 e53d 8193 4c3c 359a 51bc 6f14 c03d
000001d0: f011 73bd 969b 2abd 7d24 ef3d a130 c9bd
000001e0: 8fe2 be3d 9f11 87bd c62b 6bbd 119c ce3d
000001f0: 0f19 113e 06de fbbd 435b a5bd d62b fabd
00000200: d908 64bd e658 203d 9063 903d 9216 9abd
00000210: a947 af3a 6388 98bd 211f 4bbe 2348 9fbd
00000220: 4ccb 263d 0c9f ff3d 954a ff3c 6314 5a3e
00000230: d090 25be b29f 183e 3020 b63c 8871 fbbd
00000240: c694 55bc 6434 15be 013c 44bd 406a 63be
00000250: 9977 df3b 6a88 ca3d bd18 babd 2ba6 d43c
00000260: 10a7 923d 31a7 60bd 0676 45be 1855 343e
00000270: 10f4 16bd 44a6 0dba 9b50 b63c a450 b5bd
00000280: 39d5 dbbd d980 b1bd 51df edbc 67dd 78bd
00000290: 6280 47bd 1bd5 f13d c2fc a53d d48a 3a3d
000002a0: e8c7 32be b9ff f1bc 88d6 853d b87a 303e
000002b0: 7e71 1d3d b951 9e3d 557a 5fbd 627c f3bc
000002c0: 6adf b93d 5446 0e3e a5ab 02be da67 7bbe
000002d0: 5795 91bd 5c40 ebbc e72b 873d acce cbbd
000002e0: d3d7 d53d c8c1 a63d 5cb5 833c f282 b6bd
000002f0: 0fbf 8a3d eb2e dcbc 83f5 6fbd 2d07 633b
00000300: a407 253d 2028 803d 41dc 05be 4f64 b93d
00000310: b262 0e3e 9080 cc3c 5614 073e 314d a03d
00000320: afbc dabd 8708 4ebd 1257 ba3c 5bac f6bc
00000330: d326 77be 7e36 06be cc62 c2bc 9a63 20be
00000340: 7cdb 80be 8c13 68bc 4508 ba3d 631c 39bb
00000350: ce5f 6c3d 5564 c3bd 57cf e3bc 0571 c6bd
00000360: 2342 0abe 7764 84bd 3115 00bd cf6f 96bc
00000370: d77f 48bc 9d6d 43bd 6a91 4f3d 4b9e 453d
00000380: 0486 bcbd 1d79 ce3d 7273 19ba 6972 be3b
00000390: 0b77 b0bb c8f4 2abe 9359 16bd fac7 a33e
000003a0: 2a4f 783e 4da2 13bd fac5 853d 2666 5e3d
000003b0: 685d 8cbc 91d9 a9bd 978e 59bc d3b5 503d
000003c0: 0476 f33d 5618 4bbe 94db 6dbe 185d e33d
000003d0: e1d9 b3bd 171d dfbc 78bf c03d becf 323c
000003e0: 798c e93d aaf2 b5bd a093 aabd e55d 1d3d
000003f0: 8e53 b93c ac71 8fbc 1829 a2bd 3734 d83d
-0.06734551 -0.037248872 0.012864064 0.10864981 0.0059054154 -0.008357781 -0.09022904 -0.02326279
0.01299184 -0.10789153 -0.023682937 -0.02304598 -0.06775768 0.13593343 0.18539672 -0.08713171
0.03735326 -0.04387486 0.020175945 0.166951 0.19418052 -0.0250071 -0.14636938 0.1690128
0.0077084797 -0.11923695 0.029500391 -0.119499005 0.021039117 0.0092114415 0.027473077 -0.11808485
0.040776458 0.021754386 -0.21437582 0.21204095 0.046760704 0.0002913176 0.036182486 -0.024116287
-0.0067765266 0.040124185 0.09724109 0.1645661 -0.11076781 -0.06205022 -0.01024657 0.05399419
-0.12741868 0.002924158 -0.03859944 0.040481657 0.0057726414 -0.012603424 0.10877786 -0.023965275
-0.08199927 -0.042300653 0.016023515 -0.11684028 0.119858526 0.011636928 0.08375312 0.08035405
-0.08285982 0.30356073 0.034833785 -0.060816742 0.037580628 0.009801477 -0.03962826 0.172166
-0.018994996 -0.00926641 -0.13823447 -0.019308697 0.08757754 0.059844907 -0.13030979 0.0382954
0.06469096 0.04941689 0.07392526 -0.1274183 0.14396822 0.036451373 -0.08187975 -0.16898946
0.06650425 0.01385905 0.112145215 -0.10333549 -0.11578195 0.013649449 0.09191754 0.029726075
-0.10380522 0.104105495 -0.022907004 -0.020992085 0.07975444 -0.19047599 -0.16670397 -0.119946584
-0.011288453 0.26868647 -0.15834256 0.05378146 0.057985432 0.059196774 0.06444047 0.020988561
0.11207286 0.01248634 -0.0127931135 0.093788974 -0.05934328 -0.041652285 0.116768815 -0.09823728
0.09320556 -0.06595158 -0.057414792 0.10088361 0.14169715 -0.12298207 -0.080740474 -0.12215392
-0.0556725 0.03914728 0.0705024 -0.07523836 0.0013372797 -0.07447889 -0.19836093 -0.07777431
0.040721223 0.12481508 0.031163493 0.2129684 -0.16168523 0.14904669 0.022232145 -0.12277514
-0.013035959 -0.14570767 -0.047908787 -0.222085 0.006819677 0.098893 -0.0908675 0.025958141
0.07160771 -0.054846946 -0.19283304 0.17610586 -0.03685385 -0.00054034987 0.022255233 -0.088532716
-0.10734028 -0.08667154 -0.02903715 -0.06075802 -0.04870642 0.11808225 0.0810485 0.045542553
-0.1745907 -0.029540883 0.06535059 0.17234313 0.038438313 0.07730431 -0.054560024 -0.029722396
0.09075816 0.13894016 -0.1276079 -0.24551335 -0.071085624 -0.028717212 0.066001706 -0.09951529
0.10441556 0.081424296 0.01607769 -0.089116946 0.06774723 -0.026877841 -0.058583748 0.0034641728
0.04029049 0.06257653 -0.13072301 0.090523355 0.13904837 0.024963647 0.13191351 0.07827223
-0.1068052 -0.0503011 0.022746596 -0.030111482 -0.24135904 -0.13106725 -0.02372875 -0.15662995
-0.25167453 -0.014164817 0.090836085 -0.002824568 0.057708554 -0.09540621 -0.027808828 -0.096895255
-0.13501792 -0.06464475 -0.03127021 -0.018363861 -0.012237511 -0.047711957 0.050675787 0.048246663
-0.09205249 0.10081694 -0.00058536895 0.0058119786 -0.005385285 -0.16694939 -0.03670652 0.31988508
0.24248949 -0.036043454 0.06531902 0.054296635 -0.017134383 -0.082934506 -0.013278625 0.05095465
0.11887744 -0.19833502 -0.23228294 0.111017406 -0.087817915 -0.02723555 0.0941152 0.010913787
0.11403746 -0.08884175 -0.083289385 0.038419623 0.02262285 -0.017510258 -0.07917994 0.10556834

h.0.mha.W_o.bias f4 [64]
00000000: 6070 21be 286d 72bc 3e6b 183e 1a79 213c
00000010: 22a6 cabd c591 203e b118 2a3e 419d e3bd
00000020: d5c3 fd3c ab6e 08be 6920 833b 1ba4 c73d
00000030: 3269 77bd aa51 443c d9ae 0abe 0131 ac3d
00000040: a525 f9bb 845b a9bd ff80 a5bd eba9 ef3c
00000050: 3af2 06be d48e 8dbd 74ff d6bd e12c 25bd
00000060: 1e81 423c 1660 b1bd 61d3 aebc 371e 1a3e
00000070: 3716 8cbd a491 0d3e e6f2 193e 6486 4e3d
00000080: 47a0 a2bd 41ab f5bd dcde 21be 2d8e 103e
00000090: 24f3 b23d 6bf7 4b3e 313d f1bd c14f ecbc
000000a0: 3c8e a5bd 5cc3 0abe 565e 603d 154b 083d
000000b0: 137f 38bd c33e 06bd 1cca b4bd 6080 683d
000000c0: 6762 003e 30db 03bd fc34 20be be24 be3d
000000d0: b0cd 46bd f513 223e bb4a e03d 0478 bd3b
000000e0: 2b84 f5bc 30cf b6bd 2518 c23b a191 73bd
000000f0: 171c ce3d ed85 a63d 3102 073e e885 db3d
-0.15765524 -0.014796533 0.1488466 0.009855533 -0.098949686 0.15680607 0.16610982 -0.11113978
0.030977169 -0.13323466 0.0040016663 0.097480975 -0.060403056 0.011982361 -0.13543262 0.08407784
-0.0076033645 -0.08269408 -0.08081245 0.029255828 -0.1317834 -0.06912008 -0.104979426 -0.040326003
0.011871604 -0.08660905 -0.021341028 0.15050589 -0.06840175 0.13825089 0.15034065 0.050421134
-0.07940727 -0.11995555 -0.1580767 0.14116736 0.08737782 0.19918601 -0.117792495 -0.028846623
-0.0808377 -0.13551086 0.054777466 0.03327473 -0.045043062 -0.032774698 -0.08827612 0.056763053
0.12537538 -0.032191455 -0.15645212 0.09284352 -0.048536003 0.15827926 0.10951754 0.0057821292
-0.02997025 -0.08926237 0.0059232884 -0.059465054 0.100639515 0.08131013 0.1318443 0.107189

h.0.ln_1.weight f4 [64]
00000000: 4bcd 7c3f 9e13 683f 558f 833f a28f 743f
00000010: ea6c 523f bfe1 6c3f 7c2e 673f 7ad8 7f3f
00000020: fe8a 703f ffa2 6b3f 2836 723f a24d 733f
00000030: e5e1 663f ffa3 6a3f 1fac 5a3f a093 803f
00000040: 17bb 7a3f aafd 5d3f 603b 563f 88ed 593f
00000050: 249e 853f bb13 6c3f c201 553f 3a42 6f3f
00000060: dd96 673f 916b 613f 82ee 803f 992d 593f
00000070: 42d4 5c3f 7634 5e3f 71c6 813f b8fb 703f
00000080: bf57 5c3f 4333 6b3f 206b 693f 887b 743f
00000090: 9c64 683f 70d2 823f 2675 7a3f 2bc7 633f
000000a0: cb60 433f 9b2d 7f3f 3d15 6b3f 3440 733f
000000b0: d389 7a3f 9ae8 773f 0f00 823f 846b 6b3f
000000c0: e28b 6f3f 04ea 733f 17aa 633f 40ce 843f
000000d0: a0dd 5d3f a3ac 7c3f d533 5f3f bc7a 813f
000000e0: 1b0e 753f 778b 623f 2158 7b3f 0d36 693f
000000f0: 9105 5f3f dc20 693f 8bcc 793f 0c7a 6a3f
0.9875075 0.90654933 1.0278116 0.95531666 0.8219744 0.9253196 0.90305305 0.9993969
0.93962085 0.9204559 0.94613886 0.95040333 0.9018844 0.9165649 0.85418886 1.0045052
0.97941726 0.86715186 0.8368435 0.8512807 1.0438886 0.92217606 0.8320581 0.9346043
0.90464574 0.8805476 1.0072787 0.848352 0.8626138 0.867988 1.0138685 0.9413409
0.8607139 0.91875094 0.91179085 0.95500994 0.9077852 1.022047 0.97835004 0.8897578
0.7631957 0.99678963 0.9182928 0.9501984 0.97866553 0.96839297 1.0156268 0.9196093
0.9357282 0.95278955 0.8893141 1.0375443 0.866663 0.9870092 0.87188464 1.011558
0.9572465 0.88494056 0.9818135 0.910981 0.8711787 0.91065764 0.9757773 0.9159248

h.0.ln_1.bias f4 [64]
00000000: 4679 17bb ad1d 64bd 15a8 c0bb cccc 533c
00000010: f4d9 8fbd 7c4c 3dbd b23a 5a3b f441 b73c
00000020: d466 4bbc 211c 15bd 34c6 063b b6ec 113d
00000030: be31 05bb bb4a fcbc fa49 47bc c3d4 63bd
00000040: adef 173d 5567 3fb8 f6fb 313d fdc7 fb3b
00000050: bd38 22bd 093c 8bbc 3355 803d 469d a3bc
00000060: 8f0a 81bc 4a30 05bd 9b79 b5bc 0d41 3f3d
00000070: 8a31 99bd ee87 d33b 8243 213c 7386 473c
00000080: 9a31 533d 795e 313d b827 8dbc 298f 853c
00000090: 1ed5 c73c 7c82 4d3c 11af 673b 272f 3e3c
000000a0: 8ff6 6dbc f989 253d 81e5 e33b dfcc 813d
000000b0: 6fd0 523c 1b08 193c 61b5 523c ed85 b23d
000000c0: d892 353b c8b6 a83d 5bcd 58bc 2e98 3c3d
000000d0: 272b 8d3b 8fa9 36bd 93cb debb 7cd8 a2b9
000000e0: d968 753c 01e7 323c c65d 413c 33fd b7bc
000000f0: 6af4 89bc 4417 313c 6d41 8ebb 0b28 e93c
-0.0023113056 -0.055692364 -0.005879412 0.012927245 -0.07023993 -0.04621552 0.0033299145 0.022370316
-0.012414653 -0.03640378 0.0020564916 0.035626136 -0.0020323838 -0.030797353 -0.0121636335 -0.055622827
0.037093807 -4.5634184e-05 0.04345318 0.0076837526 -0.03960489 -0.0169964 0.062662505 -0.019972455
-0.015752105 -0.032516755 -0.022152713 0.046692897 -0.07480152 0.006455413 0.009842755 0.012178051
0.051560976 0.043302987 -0.017230853 0.016303616 0.024393614 0.012543317 0.003535215 0.011607922
-0.014524116 0.040414784 0.006954849 0.06337904 0.012867077 0.009340311 0.012860627 0.087169506
0.0027705934 0.08237988 -0.013232554 0.046043567 0.0043081227 -0.044595297 -0.0067991703 -0.0003106034
0.014978611 0.010919333 0.0118021425 -0.022459602 -0.016840179 0.01080877 -0.0043412955 0.028461477

h.0.ln_2.weight f4 [64]
00000000: 0000 803f 0000 803f 0000 803f 0000 803f
00000010: 0000 803f 0000 803f 0000 803f 0000 803f
00000020: 0000 803f 0000 803f 0000 803f 0000 803f
00000030: 0000 803f 0000 803f 0000 803f 0000 803f
00000040: 0000 803f 0000 803f 0000 803f 0000 803f
00000050: 0000 803f 0000 803f 0000 803f 0000 803f
00000060: 0000 803f 0000 803f 0000 803f 0000 803f
00000070: 0000 803f 0000 803f 0000 803f 0000 803f
00000080: 0000 803f 0000 803f 0000 803f 0000 803f
00000090: 0000 803f 0000 803f 0000 803f 0000 803f
000000a0: 0000 803f 0000 803f 0000 803f 0000 803f
000000b0: 0000 803f 0000 803f 0000 803f 0000 803f
000000c0: 0000 803f 0000 803f 0000 803f 0000 803f
000000d0: 0000 803f 0000 803f 0000 803f 0000 803f
000000e0: 0000 803f 0000 803f 0000 803f 0000 803f
000000f0: 0000 803f 0000 803f 0000 803f 0000 803f
1.0 1.0 1.0 1.0 1.0 1.0 1.0 1.0
1.0 1.0 1.0 1.0 1.0 1.0 1.0 1.0
1.0 1.0 1.0 1.0 1.0 1.0 1.0 1.0
1.0 1.0 1.0 1.0 1.0 1.0 1.0 1.0
1.0 1.0 1.0 1.0 1.0 1.0 1.0 1.0
1.0 1.0 1.0 1.0 1.0 1.0 1.0 1.0
1.0 1.0 1.0 1.0 1.0 1.0 1.0 1.0
1.0 1.0 1.0 1.0 1.0 1.0 1.0 1.0

h.0.ln_2.bias f4 [64]
00000000: 0000 0000 0000 0000 0000 0000 0000 0000
00000010: 0000 0000 0000 0000 0000 0000 0000 0000
00000020: 0000 0000 0000 0000 0000 0000 0000 0000
00000030: 0000 0000 0000 0000 0000 0000 0000 0000
00000040: 0000 0000 0000 0000 0000 0000 0000 0000
00000050: 0000 0000 0000 0000 0000 0000 0000 0000
00000060: 0000 0000 0000 0000 0000 0000 0000 0000
00000070: 0000 0000 0000 0000 0000 0000 0000 0000
00000080: 0000 0000 0000 0000 0000 0000 0000 0000
00000090: 0000 0000 0000 0000 0000 0000 0000 0000
000000a0: 0000 0000 0000 0000 0000 0000 0000 0000
000000b0: 0000 0000 0000 0000 0000 0000 0000 0000
000000c0: 0000 0000 0000 0000 0000 0000 0000 0000
000000d0: 0000 0000 0000 0000 0000 0000 0000 0000
000000e0: 0000 0000 0000 0000 0000 0000 0000 0000
000000f0: 0000 0000 0000 0000 0000 0000 0000 0000
0.0 0.0 0.0 0.0 0.0 0.0 0.0 0.0
0.0 0.0 0.0 0.0 0.0 0.0 0.0 0.0
0.0 0.0 0.0 0.0 0.0 0.0 0.0 0.0
0.0 0.0 0.0 0.0 0.0 0.0 0.0 0.0
0.0 0.0 0.0 0.0 0.0 0.0 0.0 0.0
0.0 0.0 0.0 0.0 0.0 0.0 0.0 0.0
0.0 0.0 0.0 0.0 0.0 0.0 0.0 0.0
0.0 0.0 0.0 0.0 0.0 0.0 0.0 0.0

ln_f.weight f4 [64]
00000000: 0000 803f 0000 803f 0000 803f 0000 803f
00000010: 0000 803f 0000 803f 0000 803f 0000 803f
00000020: 0000 803f 0000 803f 0000 803f 0000 803f
00000030: 0000 803f 0000 803f 0000 803f 0000 803f
00000040: 0000 803f 0000 803f 0000 803f 0000 803f
00000050: 0000 803f 0000 803f 0000 803f 0000 803f
00000060: 0000 803f 0000 803f 0000 803f 0000 803f
00000070: 0000 803f 0000 803f 0000 803f 0000 803f
00000080: 0000 803f 0000 803f 0000 803f 0000 803f
00000090: 0000 803f 0000 803f 0000 803f 0000 803f
000000a0: 0000 803f 0000 803f 0000 803f 0000 803f
000000b0: 0000 803f 0000 803f 0000 803f 0000 803f
000000c0: 0000 803f 0000 803f 0000 803f 0000 803f
000000d0: 0000 803f 0000 803f 0000 803f 0000 803f
000000e0: 0000 803f 0000 803f 0000 803f 0000 803f
000000f0: 0000 803f 0000 803f 0000 803f 0000 803f
1.0 1.0 1.0 1.0 1.0 1.0 1.0 1.0
1.0 1.0 1.0 1.0 1.0 1.0 1.0 1.0
1.0 1.0 1.0 1.0 1.0 1.0 1.0 1.0
1.0 1.0 1.0 1.0 1.0 1.0 1.0 1.0
1.0 1.0 1.0 1.0 1.0 1.0 1.0 1.0
1.0 1.0 1.0 1.0 1.0 1.0 1.0 1.0
1.0 1.0 1.0 1.0 1.0 1.0 1.0 1.0
1.0 1.0 1.0 1.0 1.0 1.0 1.0 1.0

ln_f.bias f4 [64]
00000000: 0000 0000 0000 0000 0000 0000 0000 0000
00000010: 0000 0000 0000 0000 0000 0000 0000 0000
00000020: 0000 0000 0000 0000 0000 0000 0000 0000
00000030: 0000 0000 0000 0000 0000 0000 0000 0000
00000040: 0000 0000 0000 0000 0000 0000 0000 0000
00000050: 0000 0000 0000 0000 0000 0000 0000 0000
00000060: 0000 0000 0000 0000 0000 0000 0000 0000
00000070: 0000 0000 0000 0000 0000 0000 0000 0000
00000080: 0000 0000 0000 0000 0000 0000 0000 0000
00000090: 0000 0000 0000 0000 0000 0000 0000 0000
000000a0: 0000 0000 0000 0000 0000 0000 0000 0000
000000b0: 0000 0000 0000 0000 0000 0000 0000 0000
000000c0: 0000 0000 0000 0000 0000 0000 0000 0000
000000d0: 0000 0000 0000 0000 0000 0000 0000 0000
000000e0: 0000 0000 0000 0000 0000 0000 0000 0000
000000f0: 0000 0000 0000 0000 0000 0000 0000 0000
0.0 0.0 0.0 0.0 0.0 0.0 0.0 0.0
0.0 0.0 0.0 0.0 0.0 0.0 0.0 0.0
0.0 0.0 0.0 0.0 0.0 0.0 0.0 0.0
0.0 0.0 0.0 0.0 0.0 0.0 0.0 0.0
0.0 0.0 0.0 0.0 0.0 0.0 0.0 0.0
0.0 0.0 0.0 0.0 0.0 0.0 0.0 0.0
0.0 0.0 0.0 0.0 0.0 0.0 0.0 0.0
0.0 0.0 0.0 0.0 0.0 0.0 0.0 0.0
