subspace-alignment/data/1_layer_32_vocab/ckpt_7140.pt (torch, 90637 bytes, 17 tensors)

embed.embed.weight f4 [32, 64]
00000000: 4644 23be fcc4 0c3f 452e 163f ef0c 023e
00000010: cb5a d1bc f40d 1cbf a2f8 8bbf 27fb afbd
00000020: 5196 dbbe 6cca 413e 1db8 c0bf f0cb be3e
00000030: 7765 87be 8e8b 48bf 3ced 4a3f 82d8 153c
00000040: 4e23 413e 01a4 3c3d ae93 3b3f 8a26 1fbf
00000050: 7f01 10bf dbff b63f 351b ac3f f988 6bbf
00000060: 5583 04c0 3774 a83f 5936 56bf ef91 0340
00000070: 9a41 4d3f 3156 3a3f 1090 f1be 4bb0 023f
00000080: c227 5b3f 24cc 4ebf 0c62 853e ec43 6dbf
00000090: c33f 8bbf 71b6 1b3f 2d51 5abf c24c 343f
000000a0: 060b d7bf 7ed5 62bf 5e57 4f3e 8cd5 343f
000000b0: 338f 923f e90b 383f 9f13 eebe 2241 15bf
000000c0: 6ad5 3abf e99e b9bf d40a 00be 65e1 97be
000000d0: cb2a a83e d6b7 863f 4568 5f3d c9b1 6dbf
000000e0: b3d4 a73e 3c7e 01bf 56d5 9ebf 8eaa bcbf
000000f0: 6bed e83e 0a5f 9abe 75a0 193d 4103 4d3f
00000100: 390d 103f ebd9 8fbf 402c 85bf aea1 123e
00000110: 3b09 e63f 8cc6 7cbf b254 88be a6e0 0ebf
00000120: 2b85 9e3e 4a98 acbe ca47 8f3d 9d44 e73e
00000130: 0893 ba3e a6bd da3e aef1 653c 2d71 473f
00000140: 38f3 8f3f c20a 06bf a179 803f 6a34 a13e
00000150: 3b3c 6b3e 7589 cbbe 9833 c53f 7c75 e13e
00000160: 7bb3 c23c 63e1 553f 6ca7 a5bf 4439 e63e
00000170: 2693 f1bf 0bb2 f83f 982b 9b3e a364 8bbf
00000180: 0fcb 9fbf a744 a3bf f3cf 003f b430 263c
00000190: dad6 5e3f c3e7 4c3f 3a9a 8a3f 9f98 673e
000001a0: 1ddb 9bbf 0640 31be b074 713f 9908 ec3e
000001b0: 7cb7 eebe 6bca 17be 9bbb abbf db9d a6bf
000001c0: bb62 86be d1db b6bd 61d1 893f 629f 413d
000001d0: abcc 3dbf 38d4 093e d2e2 a03e d227 7bbf
000001e0: a1d9 b43d 2e7a 6bbf ff14 b1be ac87 1abe
000001f0: 2fed d43e 2368 0ec0 df4d 59bf bf1d e93e
00000200: 4606 4c3f d245 563f 5ec4 c5be cee1 6abe
00000210: fff2 2bbe 35a5 323f 333d 0dbf ff81 bbbf
00000220: e486 a33e 7dc3 62bf 52ff a53e 55bf c1be
00000230: 3353 26bf e023 4b3f c53c 973e 1058 ba3e
00000240: f552 30bf 2aa2 53bf ec3a dbbf 2c3a 2dbf
00000250: 3327 373e 7cf2 923f 0116 65bf ca3a 0cbf
00000260: 062c b23e 89df d03e daab 15bf b5d8 3b3e
00000270: 1bf3 85bf e24a c23f 6357 923f 7ee4 d33e
00000280: 9ad6 57bf 22b8 e23e 60d1 a03e 856e 8b3f
00000290: b924 85bf 95ab bcbf d843 cdbe e345 1940
000002a0: 8f26 15bf 3eec 6dbf f7af 0a3d 96d2 6d3d
000002b0: 7a74 8dbc bc70 50bf 4a34 513f 6510 51be
000002c0: e63a 63be 06ce 8fbf 1b2a 0240 5758 43bd
000002d0: d4ab 463e 9cdd fbbe 2017 cbbf 06ab e6be
000002e0: 201e 293f 2e2e a6bd 9b9a 16bf aee9 603f
000002f0: 531a 10c0 4ef7 f33e c9e5 833e 3124 933e
00000300: 46df 98bf b2c0 823f 5956 993d 45f7 e8bd
00000310: 4c39 bdbf b577 d6be 2b87 a83f c7ef d83e
00000320: bfc3 9cbf a24a 9abf 714a e7bf 335c 7abe
00000330: 976d 28c0 85d4 1540 60e5 98bf 9585 d53e
00000340: 3cea ba3e fd08 95be 333e 463f a241 953e
00000350: ef9d 423f e19a 28bf a2ec a6bf b2ce 193f
00000360: 1a0d f8bf 7d83 b03f 4e1b 133e abb7 143f
00000370: 513d 8c3e d76d 89be a8c6 a1be 0f93 573f
00000380: 818a 3f3f 1e31 303f d8fd 3ebf 792b 58bf
00000390: 82a8 4dbc d359 4bbf 2d24 cc3e 7595 b13f
000003a0: ed89 cf3f 99e9 abbd 6a91 5bbf c40c 573f
000003b0: 5b55 5c3f 4071 d13f 6990 2a3f e096 363f
000003c0: f60e 393f 4e8c 3cbf d773 e03e e3ce bf3d
000003d0: e977 b4bf 0169 8e3f 885e b83e 7ff1 17bf
000003e0: 95e4 c93e 6221 8f3f 906a 37c0 f251 83be
000003f0: c59a 803d b929 16bf 08f5 40bf eaf9 aabc
-0.15944013 0.54988074 0.5866435 0.12700246 -0.025555989 -0.6095879 -1.0935252 -0.085928254
-0.4288812 0.18924874 -1.5056187 0.37264967 -0.264446 -0.78337944 0.7926824 0.009145858
0.18861124 0.046054844 0.73272216 -0.6216818 -0.5625228 1.4296831 1.3445803 -0.9200588
-2.0705159 1.3160466 -0.8367668 2.055782 0.80178225 0.7278777 -0.47180223 0.5105025
0.8560754 -0.80780244 0.26051366 -0.92681766 -1.0878834 0.6082526 -0.85280114 0.70429623
-1.6800239 -0.88607013 0.20248172 0.70638347 1.1449951 0.71893173 -0.46499345 -0.5830251
-0.72981894 -1.450162 -0.1250413 -0.2966415 0.32845148 1.0524852 0.0545428 -0.92849404
0.32779464 -0.50583243 -1.2408855 -1.4739549 0.45493636 -0.30150634 0.03750654 0.8008309
0.56270176 -1.1238378 -1.0404129 0.14319488 1.7971567 -0.9874046 -0.26627117 -0.55811536
0.30960974 -0.33709937 0.069961146 0.45169535 0.364403 0.42722815 0.014034672 0.7790707
1.12461 -0.52360165 1.0037118 0.314853 0.22972195 -0.3975331 1.540637 0.44034946
0.023767224 0.8354704 -1.2941718 0.44965565 -1.8873031 1.9429334 0.30306697 -1.0890087
-1.2483844 -1.2755326 0.50317305 0.010143448 0.8704659 0.8004114 1.0828316 0.22616814
-1.2176243 -0.17309579 0.94318676 0.4610031 -0.46624362 -0.1482331 -1.3416628 -1.3016924
-0.262472 -0.089286454 1.0767022 0.04727114 -0.74140424 0.13459861 0.3142305 -0.98107636
0.08830572 -0.91983306 -0.3458633 -0.15090817 0.41587207 -2.225106 -0.84884447 0.45530507
0.7969707 0.8370029 -0.3862638 -0.229377 -0.16791914 0.69783336 -0.5517151 -1.4649047
0.3193885 -0.8857954 0.32421356 -0.37841287 -0.649707 0.79351616 0.2953855 0.3639531
-0.6887658 -0.8266932 -1.7127357 -0.6766689 0.17886047 1.148025 -0.894867 -0.54777205
0.34799212 0.40795544 -0.5846535 0.18344386 -1.0464815 1.5179102 1.1432918 0.41385263
-0.8431183 0.44281107 0.3140974 1.0893103 -1.0401832 -1.4739863 -0.40090823 2.3948905
-0.5826196 -0.929386 0.03385922 0.05806216 -0.017267454 -0.8142202 0.8172041 -0.2041641
-0.22190437 -1.1234748 2.03382 -0.04769167 0.19401485 -0.49192512 -1.5866432 -0.45052356
0.6606159 -0.08114277 -0.5882966 0.87856567 -2.2516067 0.47649616 0.2576125 0.2873855
-1.1943138 1.0215056 0.07487173 -0.11375288 -1.4783111 -0.41888204 1.316625 0.42370436
-1.2247237 -1.2054026 -1.8069593 -0.24449234 -2.6316888 2.3410962 -1.1945 0.41703478
0.36506832 -0.2910842 0.7743866 0.29151636 0.7602224 -0.65861326 -1.3040965 0.60081017
-1.9378998 1.3790127 0.14365885 0.58092755 0.2739053 -0.26841614 -0.31596875 0.8420877
0.74820715 0.68824947 -0.74606085 -0.84441334 -0.012552382 -0.79433936 0.3987135 1.3873736
1.6213967 -0.083941646 -0.8576876 0.84003854 0.8606774 1.6362686 0.666266 0.71323967
0.72288454 -0.7365159 0.4383838 0.093656324 -1.4099094 1.1125795 0.36009622 -0.5935287
0.39432207 1.1182063 -2.865879 -0.25648457 0.0627952 -0.58657414 -0.7537389 -0.020871121

h.0.mha.W_q.weight f4 [64, 64]
00000000: ba88 a7bd 85e4 663c 4877 8b3d d468 013e
00000010: 1f52 d53d 16ef 0f3d c61e 9bbd 86b3 99bb
00000020: 55d0 4ebc 0a73 0bbe 858d bfbd 9a64 983c
00000030: 918f 42bd 20b7 033e 8ddd abbd 7de4 8dbd
00000040: 2149 a33d 1453 713d 15e5 98bd af01 803d
00000050: 5fbb 7d3d faf1 f0bc 79f8 b33d f6dd 25bd
00000060: 6dc6 cc3d 7f86 173d 0603 5e3c 450c 4f3d
00000070: 5579 31be 9c08 3dbd 6ab2 c3bd aab5 55bd
00000080: 2ccb abbd 8cb1 bfbc 46fe efbd aed7 8abd
00000090: eff8 a83d 5b78 6d3c ad3e cd3b 7c15 aebc
000000a0: 6d53 fabb e473 f1bd 5aff 3b3d b756 3f3d
000000b0: 16ee 63bb 48d3 5dbd c910 6dbc 1751 c9bd
000000c0: 914e 013d 9a96 9a3c 5f88 23bc 1f82 003e
000000d0: 98aa 65bd 97ca 39bd e0e3 2fbd c962 0dbd
000000e0: d622 123d 32ef 15bb c234 563c 567c 77bd
000000f0: b300 d0bd 08b4 8c3d 7dc1 013d 1568 813d
00000100: ced2 173d 5875 efbc 4dc9 85bd 7a9b 533d
00000110: 0023 19bd ffe6 d5bd 5763 13bd 4e23 23bb
00000120: f366 5a3d cc69 df3a f95a 8bbd 286c cabd
00000130: e713 0fbd fe3d 4bbd 1554 10bc f4f7 203d
00000140: 4def 4cbd 84c3 d7bc 43cd 003d 1ee8 1fbd
00000150: 2488 a13d fa2b a6bc 0ac3 30bd e149 1abc
00000160: 4ad1 753d 2170 c23c ff98 bdbd c04d a6bd
00000170: 8478 823d 16e8 f13c d7f4 d0bd 99a8 93bd
00000180: 7f38 40bd 1a9a d3bc c681 72bc ca72 ab3d
00000190: 7d19 093d 0fab e3bc 2aaa d43c adf7 0b3c
000001a0: acc6 7f3d b855 45bd 8c2a a3bd c309 82bd
000001b0: 749b 593c 2d13 fabd e5eb b83a 6281 60bd
000001c0: 70d6 99bd fc17 b23c cfbd abbd a9a7 7fbc
000001d0: 544b e83c 6a57 413d d795 42bd 4dd8 37bc
000001e0: 4938 91bd cc79 3cbd 335c 4d3d 89e5 1dbd
000001f0: 911c 87ba d746 9c3d 45cb 2fbc 8555 88bd
00000200: ebd2 bebd 2092 7bbd 5a0d e7bd 1980 0e3b
00000210: 4b7d 81bd f369 8fbd 9a4f d0bd 4398 7dbd
00000220: 8f7e 28be de1d f6bc f4b6 893d fc44 e7bc
00000230: 01d9 67bc ca30 b3bd fd4f 7cbd afe2 7dbc
00000240: ceaf 6dbd bb88 f73d 9f1e d2bd 7233 933d
00000250: 15d1 a8bd daf7 ba3c e55f ad3d eb39 2abd
00000260: b93a eabc 1527 e13d 1d1e 823b 0b74 4ebc
00000270: c036 22bc 9554 71bc c6eb 803d 0656 0a3d
00000280: a012 b63d 934d 48ba b411 593d b6b0 153d
00000290: 465b 26bd 2f85 05bd ba22 68bd d622 fcbc
000002a0: 285f 0f3d 72d6 83bd 070d a5bc effa 063c
000002b0: a16e 643d 6748 6abd d0a8 093d 823f ddbb
000002c0: 3936 d7bd 7665 c0bd dcdd 763d 4bb2 233e
000002d0: 40d9 483c 0f8b e93b 0a53 ce3d 032d 94bd
000002e0: 59f6 c73d f491 8dbd ba8a 21bd 8d1a 8cbc
000002f0: 14c7 403d 15d0 1fbd e6aa b03c f21e c7bc
00000300: 0cfe 9cbc cba7 6dbb 9f3e 013e a505 5e3b
00000310: 5a56 32bd ce27 cabd 6c3a 09bd d772 3abd
00000320: 0f4f 843d ba18 b6bc 56b1 813c ab2d 8cbd
00000330: 1e99 4cbd 1267 5bbc 38ae ab3d adca 823c
00000340: f96f 53bd a9a3 8ebd e782 9ebd 89c8 503c
00000350: 187f e3ba 0471 c0bc 297d d2bc b233 a1bd
00000360: 03af b6bc 05f8 2a3c ab05 2fbd ab73 15bd
00000370: 524a 873c 4df5 08bc cb74 fdbd 5cbd 49bd
00000380: c1a7 a23c 9c01 fa3c c426 ca3d f886 fcbd
00000390: 7b45 743d db96 1f3c a2ed 403d 93ac 1d3c
000003a0: 1d3d e83a a20f 80bd f9da 5b3d e409 cbbd
000003b0: b55f 753b f8b9 d63c d83d 7f3c 8416 a8bd
000003c0: 988b 123e 9dd4 4d3c 5b67 54bd aba4 c0bd
000003d0: d40c 1fbc 314e 253d a010 8fbc c324 1b3d
000003e0: 1a33 913a b4e2 5e3d bbb8 993d eb2c b5bd
000003f0: 31d2 d63c 3784 01bd 1ff0 463d e709 62bd
-0.081803754 0.014092569 0.068098605 0.12637645 0.10416054 0.03514012 -0.07574229 -0.0046905903
-0.012622912 -0.13618103 -0.093531646 0.018602658 -0.047500197 0.12862825 -0.08391867 -0.06928346
0.079729326 0.05891712 -0.07465569 0.06250321 0.06194627 -0.029412258 0.08787627 -0.04049488
0.09998784 0.0369935 0.0135505255 0.05054881 -0.17331441 -0.04615079 -0.09555514 -0.0521752
-0.08388361 -0.02340009 -0.11718421 -0.06779419 0.08250605 0.014494027 0.006263575 -0.021250479
-0.0076393397 -0.117896825 0.04589782 0.046713557 -0.0034779361 -0.05415657 -0.014469334 -0.0982992
0.031569067 0.01887064 -0.009981244 0.12549637 -0.056070894 -0.04535922 -0.042941928 -0.034518037
0.035677753 -0.0022878167 0.013074102 -0.06042131 -0.10156383 0.06870276 0.031678665 0.0631868
0.037066273 -0.029230759 -0.06532536 0.051661946 -0.037386894 -0.1044445 -0.03598341 -0.002489287
0.053320836 0.001704508 -0.06804461 -0.098839104 -0.03493109 -0.049619667 -0.008809109 0.039298967
-0.050032903 -0.026338346 0.031445753 -0.039039724 0.07887295 -0.020284642 -0.043154754 -0.009417028
0.060014047 0.023735108 -0.09257697 -0.081202984 0.06370643 0.029529613 -0.102029495 -0.07209892
-0.04692888 -0.025830317 -0.014801448 0.08371504 0.033471573 -0.027791528 0.025960047 0.008542937
0.062445328 -0.04817745 -0.079670995 -0.06349518 0.013281692 -0.12210689 0.0014108388 -0.05481089
-0.07511604 0.021739952 -0.083858125 -0.015603938 0.028356232 0.047202505 -0.04750618 -0.011221004
-0.07090814 -0.046014592 0.050136756 -0.03854898 -0.0010308196 0.07630699 -0.010729616 -0.066569366
-0.09317573 -0.061418653 -0.112818435 0.0021743833 -0.06322726 -0.0700263 -0.10171433 -0.061912786
-0.16454528 -0.030043539 0.06724349 -0.028231137 -0.014150859 -0.0874954 -0.06159972 -0.01549594
-0.05802899 0.12086626 -0.10259747 0.07187547 -0.08243004 0.022823263 0.08465556 -0.04155914
-0.028592454 0.109937824 0.003970875 -0.012600909 -0.009900749 -0.014729639 0.0629497 0.033773445
0.08890271 -0.0007640954 0.0529954 0.036545478 -0.04061439 -0.032597717 -0.056673743 -0.03077833
0.035002857 -0.064373866 -0.020147813 0.008238538 0.055769566 -0.057197955 0.033608258 -0.0067519555
-0.10508389 -0.09394352 0.060270175 0.15985982 0.012258828 0.007127173 0.10074432 -0.07235148
0.09763784 -0.06912604 -0.03943894 -0.017102504 0.047064856 -0.039016802 0.021565866 -0.024306748
-0.019164108 -0.0036263342 0.12621544 0.0033877876 -0.043539383 -0.098708734 -0.03350298 -0.045519676
0.06460392 -0.022228587 0.01583163 -0.06844648 -0.04995071 -0.013391273 0.08382839 0.015965784
-0.051620457 -0.069648094 -0.077398114 0.012743124 -0.0017356602 -0.02349139 -0.025694447 -0.07871188
-0.022300249 0.010435109 -0.042730015 -0.036487263 0.01651493 -0.0083592655 -0.12375792 -0.049252853
0.019855382 0.030518346 0.09870675 -0.12330431 0.059636574 0.009740557 0.047101624 0.009623664
0.0017718408 -0.06252982 0.053675625 -0.09913996 0.003744108 0.026211724 0.01557871 -0.082074195
0.14311063 0.012562898 -0.05185638 -0.09406408 -0.009707648 0.040357772 -0.017463982 0.037876856
0.0011077852 0.05441542 0.07505938 -0.08846458 0.026223274 -0.03162023 0.04856884 -0.055185225

h.0.mha.W_q.bias f4 [64]
00000000: 56f8 343e 7148 d9bd 5cd8 c5bd 0c95 e13b
00000010: 150c 563c 922b 483c 8595 2bbe 967e 10be
00000020: 9e30 903e ad93 d9be 4435 8ebd 1ca0 963e
00000030: 8da5 f43e 9b79 433e c309 4abf 8475 29be
00000040: e745 983e cf66 3e3f 3c60 8cbb ccb0 ac3e
00000050: 9cd3 ab3e 9cdd d5bd 150b b93e b07b 163d
00000060: 704a d0bd 7845 26be 0239 01bd 342c f13d
00000070: 28de 05be 33f8 68bd 54c2 bb3d bbf2 04be
00000080: 7977 c13c 2105 98bd fd77 c0bb f821 21bd
00000090: 7416 48bd beef d8bd 5809 c8bd 113d 1f3c
000000a0: 2b28 063d f6c9 b83c 341f b33d cb4d 3f3d
000000b0: df58 92bd 40bc b4bd 5b92 53bb ce56 37bd
000000c0: 301a 853d e6e9 0a3e eca6 68bd f302 fcbc
000000d0: d25c ec3c 95de 53bd 70f9 8bbd 217e 3d3c
000000e0: 12f6 113c b9a9 e73d 58ec 443c 4d31 3d3d
000000f0: 5cee 023d 2022 603a affc dfbb fd31 403d
0.17672858 -0.1060952 -0.09660408 0.006884223 0.013064404 0.012217419 -0.16756256 -0.14110789
0.28162092 -0.4249548 -0.06943753 0.2941903 0.47782555 0.19089358 -0.78921145 -0.16548735
0.2974083 0.74375623 -0.004283933 0.33728635 0.33559883 -0.10442659 0.36141267 0.03673905
-0.10170448 -0.16237438 -0.031548508 0.11776009 -0.13073027 -0.056877326 0.091679245 -0.1298322
0.02361654 -0.07422853 -0.0058736787 -0.039339036 -0.048849538 -0.10592602 -0.09767407 0.009719149
0.03275315 0.02255724 0.08746186 0.04670505 -0.07145857 -0.08824968 -0.003228328 -0.044760518
0.064991355 0.13565788 -0.056799814 -0.030763125 0.028852854 -0.051725943 -0.06834686 0.011565716
0.008908765 0.11311669 0.012019239 0.046189595 0.0319656 0.0008550007 -0.006835542 0.046922673

h.0.mha.W_k.weight f4 [64, 64]
00000000: d18e 1cbe dee7 4fbc 1c10 2c3d 167d 963d
00000010: 8827 fcbc 7883 003e 097c c03d d584 0c3e
00000020: beea f4bd 770c 8ebd 766b 283d dff5 8c3c
00000030: 311a aa3c e5f6 313d 8452 da3c 5320 67bd
00000040: 1d79 bd3c ae13 1ebd 06d6 73bd 7219 18be
00000050: 56bc 333d 6266 d4bd 8729 a5bb 9203 b6bc
00000060: cc74 343d a637 713c 5241 723d e1ff ae3d
00000070: fdcf 753c 6d48 52bd 74de 0dbd 38d1 b4bd
00000080: 8fbf dcbd 6d2a 82bd 12cb 0cbe 1364 de3c
00000090: c302 84bd f2d1 d13c 3e91 3fbb 410a 923d
000000a0: 967f 853c 19bd 0b3d ff93 c13d 8de0 663c
000000b0: 5d42 b73c 302a bcbd d1a3 9dbd 4582 c43c
000000c0: aeae e73b de2d 203d 529d 22bd 0e7f 2c3d
000000d0: f2fe 563d 2f07 b0bd 8043 c5bc 8fd6 0d3d
000000e0: e098 7bbd 11d5 0dbd a694 8dbd 94f5 40bc
000000f0: 36c4 c03c 617f 8b3b 0106 053e e3ce 3c3d
00000100: 6731 26bd 35d6 2d3d 8dd7 28bd 99d5 b0bc
00000110: 4130 30bd 8f0a 5abd bb6e a5bd e71c 943d
00000120: 81d6 bdbb 27ea 18bc bbdc 0abd cedb 10bd
00000130: a470 683d 1304 94bc 042d cb3d 7302 b83d
00000140: ee35 3c3d 6259 8c3d eedf 71bd 43e3 9bbd
00000150: 4d20 6cbd e3a4 183d 6f9d cdbd 61bd acbb
00000160: 8537 2ebc 99fb 6ebd 42b9 f33d 9947 8e3d
00000170: e344 8c3d 2535 cebd 2a87 bbbd 26d5 30bd
00000180: 2289 02bd 7907 1a3d f37f 853a b61a 0ebd
00000190: e18b 253d fe37 023e 3076 ae3d f392 a33c
000001a0: 8edc 8cbd 271f 953d 06e1 61bd 22ff 5bbb
000001b0: a3e0 b2bc fb50 9ebd 5a9e b2bc ceaa a83d
000001c0: 1f0a ee3d 0521 da3d 0464 72bd 6dbc 71bd
000001d0: 3f4f 4c3c 552c bbbd a3a4 e7bd 7f35 09bc
000001e0: 4d33 753c 06b1 d4bd 7a19 a03d 61c6 a53d
000001f0: 14b2 bdbd 1b95 a23d 3119 b8bd c32a 7dbd
00000200: cc32 97bd 6ce9 f3bc c8ff 9a3c f990 03bc
00000210: 276f b03d 4109 233d 4b34 e13c 8ee7 ed3c
00000220: 9f29 053c 8bb8 bb3c 2c73 883d fe6b 19bd
00000230: 27c9 0cbd 2027 19bc c219 d13c 2185 72bd
00000240: 3629 79bd 3b02 22bd ef8f b2bd 3d1d 8dbc
00000250: 28f4 2dbe c402 27bb cbf3 86bc 6dd0 30bc
00000260: a87f c9bb e14d 9bbc a528 243d 4e42 073d
00000270: 0dfa 8fbd 366b 1fbd 3b24 763d e23b 42bd
00000280: f806 84bd 7c25 223d 6517 003d 9e0a 373d
00000290: 8b99 71bd 18bc c53c ab9c 1cbc 2fc1 aa3d
000002a0: cdc6 35bd f7bc 3bbc 3bab 06be 95a5 b03c
000002b0: e04e 74bd 2cd5 e0bb 456c 21be 16a9 763c
000002c0: c4ab 013c 98c0 993d fe9e a33c 5c4b 4a3b
000002d0: e4ee c83d e417 5fbd ec39 523d 8776 ca3c
000002e0: e4f6 7fbb 5647 f93d 754c 4cbc 8dc6 55bc
000002f0: 883e 47bd d09f 963d b868 9abd 1d12 333d
00000300: 00d1 aabd 5861 45bd 23f1 a83c b884 22bc
00000310: b99d 08bd 908f d2bc ef30 1abc 738f 3b3d
00000320: b118 61bb 5e2e cfba 46a6 6dbd 4eb6 54bd
00000330: f528 e13b a77e 0dbd 1154 2b3b c3d5 9ebd
00000340: 7177 7b3d 9714 853c facd ebbd fcdd 073d
00000350: 8da4 8dbd 206b 04be 9c56 0fbe fee6 6a3d
00000360: fe81 7c3d ff8d 09bd 8a5a 2cbd 3b7b 7fbd
00000370: e4d4 bf3c fa74 11bc b134 44bd 0eb9 90bd
00000380: ea29 0dbe ef81 9c3d 26cf 5fbd 56b5 573d
00000390: ce19 f0bc 9fde 883d d153 c43c 87e1 b8bc
000003a0: cfb6 513e 6d95 d2bd 147c 653c 8f64 cebd
000003b0: 18ea eebc 71af b53c 96b8 82bd f0f8 4e3d
000003c0: 998f 843d 701f 97bc 6bcb f2bb f1c3 f9b8
000003d0: a58a f93d 12b6 8a3d b5ad fd3c e470 d1bd
000003e0: c17a 00bd bb67 fa3c 5e4d 233d de3c e0bd
000003f0: 0b0b b83d 0aa6 fbb9 d2be 22bd 721d 143d
-0.15288855 -0.012689559 0.04200755 0.07348077 -0.030780569 0.12550151 0.09398658 0.13722546
-0.11958836 -0.06935971 0.041118108 0.017207084 0.020764442 0.043448348 0.026650675 -0.05642731
0.02312904 -0.038592987 -0.05953028 -0.14853457 0.043880783 -0.103710905 -0.005040351 -0.0222185
0.0440567 0.01472274 0.059144326 0.08544899 0.015003202 -0.0513386 -0.034635976 -0.08828968
-0.107787244 -0.06355748 -0.1374934 0.027147328 -0.06445839 0.025612805 -0.0029230858 0.07130862
0.01629619 0.034115884 0.09452056 0.014091623 0.022370512 -0.09187734 -0.07697261 0.023987899
0.007070384 0.039106242 -0.039700814 0.042113356 0.05248923 -0.0859512 -0.024080038 0.034628447
-0.06142509 -0.034627024 -0.06913118 -0.0117773 0.02353106 0.004257128 0.12990572 0.04609574
-0.040574457 0.042440612 -0.04122119 -0.021586226 -0.04301477 -0.053232726 -0.08077761 0.07232075
-0.005793393 -0.00933317 -0.03390191 -0.035365872 0.056748047 -0.018068349 0.099206954 0.08984842
0.04594987 0.06852986 -0.059051447 -0.07611706 -0.057647992 0.037266623 -0.10039794 -0.005271599
-0.010633354 -0.05834541 0.119005695 0.0694725 0.068490766 -0.1006873 -0.0915664 -0.043172024
-0.03186906 0.037604783 0.0010185227 -0.034693442 0.040416602 0.12716672 0.08518636 0.019967532
-0.06878005 0.072813325 -0.05514624 -0.003356882 -0.02183563 -0.077302895 -0.021804024 0.082357034
0.11623024 0.10650829 -0.059177414 -0.059017587 0.012470066 -0.09139315 -0.11310699 -0.008374571
0.014965844 -0.10385327 0.07817359 0.080944784 -0.09262481 0.07938596 -0.0898918 -0.06180836
-0.073827356 -0.02977439 0.018920794 -0.00803017 0.086149506 0.039803747 0.027490756 0.029041078
0.008127599 0.022915145 0.06662592 -0.037456505 -0.03437152 -0.009347707 0.025524978 -0.059208993
-0.060830317 -0.03955291 -0.087188594 -0.017225856 -0.1698767 -0.0025483826 -0.016473671 -0.01079188
-0.006149251 -0.018958034 0.040077824 0.033022217 -0.07030115 -0.038920604 0.060093146 -0.04742039
-0.06446642 0.03958653 0.03127231 0.04468786 -0.05898432 0.024137542 -0.009558837 0.08337628
-0.044379044 -0.011458627 -0.13151257 0.02156333 -0.059645534 -0.0068613496 -0.15763958 0.015054962
0.007914487 0.075074375 0.019973274 0.0030867672 0.0981119 -0.054466143 0.05132477 0.024714721
-0.003905707 0.121718094 -0.012469401 -0.0130478265 -0.04864362 0.073547006 -0.07539505 0.043718446
-0.08340645 -0.048188537 0.020622795 -0.009919338 -0.03335354 -0.025703222 -0.009411081 0.0457911
-0.0034346993 -0.0015806665 -0.0580199 -0.05193167 0.0068713375 -0.034544613 0.0026142637 -0.077556156
0.061393205 0.01624517 -0.11513896 0.033170685 -0.06916151 -0.1293149 -0.13997883 0.057349198
0.061647408 -0.033582684 -0.042078532 -0.06237338 0.023416944 -0.008877987 -0.047901813 -0.070665464
-0.1378552 0.0764197 -0.05464091 0.05266317 -0.02930918 0.066830866 0.023965748 -0.022568477
0.20479892 -0.10282407 0.014006633 -0.10077774 -0.029164359 0.022178384 -0.06382863 0.050530374
0.064727016 -0.018447608 -0.007409503 -0.00011909742 0.121846475 0.067730084 0.030966619 -0.1022661
-0.031367067 0.03056704 0.039868705 -0.109491095 0.08986481 -0.0004799816 -0.03973276 0.036160894

h.0.mha.W_k.bias f4 [64]
00000000: f72d 0f3e b0c8 b5bc e347 883d 71ef 8ebd
00000010: 0f0e 84bd 85aa c3bd 5871 a63c 81a3 d5bd
00000020: ea01 44be 5977 b8be d06b 743e 9513 11be
00000030: fce7 7a3e a6bf 0fbf c398 263f 5a5e 9e3e
00000040: 7bca 2abf e66b 79be b624 b0be 2277 0d3e
00000050: d16e 80bd 79db c33d 1f42 993d 73bd c13d
00000060: 1191 b93d ccf3 1bbd bf90 813e 7a73 4fbe
00000070: db08 973e c50f 8ebe dba3 c43c e1cc 04bc
00000080: 9fb9 7ebb d352 a73d 10d8 dabb a12e 9dbc
00000090: 78b8 343d eb81 633d b42e 85be e2e6 ef3b
000000a0: 566c 86bc 28b7 723e a448 58be e543 aa3d
000000b0: 3d7c 843e 2cc9 40be 6bf4 b5bd aaa7 bbbe
000000c0: 72cf cbbd 4de2 283e 3355 e93b 8f74 0abe
000000d0: 54cb 033e a4db 06be ff8a 093e a1d7 843d
000000e0: 46ad fbbc c0c4 2dbe 8bd4 0cbe 1923 54be
000000f0: a905 b03c 8a58 45bd e7b7 dfbe dae2 f9bd
0.13982378 -0.022190422 0.06654336 -0.069792636 -0.06447994 -0.095540084 0.020317718 -0.104315765
-0.19141355 -0.36028555 0.23869252 -0.14167626 0.24502558 -0.5615181 0.65076846 0.3093136
-0.6671521 -0.24357566 -0.34403008 0.13814977 -0.062711366 0.095633455 0.07483315 0.09459963
0.09060872 -0.0380743 0.25305745 -0.20258895 0.29498944 -0.27746406 0.024003914 -0.008105488
-0.0038867963 0.08170094 -0.0066785887 -0.019187273 0.044121236 0.05554382 -0.26012194 0.0073212245
-0.01640908 0.23702681 -0.2112146 0.08313731 0.25876036 -0.18826741 -0.0888451 -0.36651355
-0.099516764 0.16492577 0.0071207522 -0.13521026 0.12870532 -0.13169724 0.13431929 0.064864404
-0.030722272 -0.16969585 -0.13752954 -0.20716514 0.021487074 -0.04818014 -0.43694994 -0.122014716

h.0.mha.W_v.weight f4 [64, 64]
00000000: cc38 363d e3e7 39be dcf3 4a3d 0468 833e
00000010: 8247 74bb a935 e83c b18c d03d 41ba d2bb
00000020: 7a82 0fbc 3cd8 4dbc ca7b 7c3d 895c fb3c
00000030: 297b e6bd 2172 94bd 6e8d 853b b1f8 06be
00000040: 3144 1d3e 9266 3d3d 2c92 83bc a37e d9bd
00000050: 5d17 e23d 6cf4 033e 59a3 9cbd a217 523e
00000060: 51eb 46bd 1df6 e43c dfd1 943d 5dd8 efbd
00000070: fa29 b93c ae18 e439 56da e93d 6473 7fbd
00000080: 66b0 10be 0414 8d3c 1d67 90be 5957 1cbe
00000090: 04d4 03be 172d 82bd 9536 973d 7a11 2d3c
000000a0: 448c 15be dfef 3f3d b74f 09bb e39b 1c3d
000000b0: ca86 76be e31a 8dbb 4746 823c f2c0 5e3e
000000c0: 22fb 883b 3b11 5abd 07cd 46bd 8977 513d
000000d0: 6b83 c83d 1a8f 483e e2e5 4bbd a1a2 1b3e
000000e0: c268 1c3e 54d3 dbbc bf93 d83d 4f46 15be
000000f0: b80e b2bd 81dd 3cbd 6e32 0fbc 1268 3c3d
00000100: 525b d33c 930e aabc 6b95 da3d 97dd 2ebd
00000110: beb0 a73d a50c 253d 68b3 b73e 0359 e23d
00000120: 7ae3 593e 4260 b8bd d1f7 43bb 2ebb a03d
00000130: 8f4d 1b3e 4ebe c8bd 76c4 a93c c3b7 713e
00000140: 4924 823d f513 34be b857 12be 8c11 3b3e
00000150: 8172 1a3d 8df3 0dbe fc70 283a 18f1 2a3d
00000160: 135f 753e 7c44 8a3e ffc4 27be ee1c b63c
00000170: bab4 223c fdae 82bd 64cd 0abd a44e 843d
00000180: 7920 0abd ad2a b33c 69c6 e1bc 3d9a 3abd
00000190: 80b8 21bd e389 513e 1d3d 07be 4f01 93bd
000001a0: b689 96bd dabf cc3c 1efa c2bd 5a66 313d
000001b0: f6f4 983d d856 c9bd 90f8 3abd dcf3 7abd
000001c0: 167f 913d 2dda b7bd 9f02 be3d 804d 2dbe
000001d0: f687 17be 23d4 043e b099 4bbe ad68 98bd
000001e0: b07a 003d 3bbc 413e 7013 49bd 2c25 8dbd
000001f0: 09f5 2abd a9f2 3a3e 0bea 493e d71c 53bd
00000200: 1526 743d 0c43 8f3d 6116 1e3d 7b37 f43a
00000210: c706 f33d eb5e 20bd 9c2e 8abc f48e a6bd
00000220: 800a c5bd 347c b1bc fa16 c2bd 23a2 b437
00000230: 2d52 893c 90f7 023e 07c5 d73d a185 0dbe
00000240: bd6e 0c3d 7482 d9bd 9b68 333d 1d20 623e
00000250: 7585 4dbd c8bf 873d 57fd 12bd 826f bd3d
00000260: f213 55bb 29ac 5f3d 8a03 ae3d 2b40 e73d
00000270: d9b9 f5bd 725a aa3d aff5 e2bc 1883 9f3d
00000280: b93e 25be feca 363e b46a 223d 7f9a 88bb
00000290: 2567 a9bd cc96 fd3c d108 e6bd c27a f0bd
000002a0: 0bd6 8e3d 8cbe 02be 5eb3 8e3d c268 3bbd
000002b0: 8013 a6bc 91ee 24be 6672 213d 70d2 003e
000002c0: 71db 15bd 1e0c af3d 5757 02be f4b2 84bc
000002d0: e567 bebd fc4b dc3d c84c 3d3c cf64 83bc
000002e0: 80aa 3abc ab37 45bd a75c ecbc 1a57 923d
000002f0: 905f 8e3c f73f c33d fc0c d9bd 0521 6a3d
00000300: 0894 fdbc bde4 23bd 54af 9dbd 7911 2c3d
00000310: bea1 3c3c e7c3 793e f0f3 7abe 9d60 13bd
00000320: 5c2f 1fbe 83ad bbbd 85d9 993c 3918 0abe
00000330: cb1f ce3c 3b30 42be 55da 14bd 1d05 74bd
00000340: 7702 cdbd e6da eebd 731a 0cbd 4bab 543e
00000350: 5959 a03d d4cc 6ebd a708 893d 1cde 263e
00000360: cc23 acbb e352 0dbb 054c bc3d 55c2 233d
00000370: 7acc e03d 03dd 5abd 0d68 a7bd 6b14 23be
00000380: 3aed b83b 0673 1c3e a8b6 393e e50d a23d
00000390: dc0a cabd f559 063e a6b4 7abd 4b44 2d3e
000003a0: 784c 29be 95a9 5f3e 2467 e33d b2aa b93c
000003b0: 71d6 12be 0366 2c3e 89b6 95bd 94ce 893c
000003c0: d824 c23d 5d58 1bbe 7519 03bd 8efc c13d
000003d0: 2d2e eebc c0ad a5bd 29a2 1f3c 699d c9bd
000003e0: 4070 5c3d 3060 e0bc 05bf d4bd f5d8 a2bc
000003f0: 4b83 2cbd b83a a73d f647 5fbe c59d 2abe
0.04448776 -0.18154864 0.04954897 0.25665295 -0.0037274067 0.0283459 0.10183085 -0.0064308946
-0.008759135 -0.012563761 0.061641492 0.030683773 -0.1125396 -0.07248331 0.0040756976 -0.13180806
0.15358044 0.046240397 -0.016060911 -0.10619857 0.110396124 0.12886208 -0.076483436 0.20516828
-0.04856426 0.027949387 0.07266592 -0.1171119 0.022603024 0.00043505937 0.114185974 -0.062365904
-0.1412979 0.017221458 -0.2820367 -0.15267695 -0.12873846 -0.063562565 0.073834576 0.010563249
-0.14604288 0.04685962 -0.0020952055 0.038234603 -0.24074855 -0.0043061837 0.015902651 0.2175329
0.004180328 -0.05323909 -0.048535373 0.05113939 0.09790691 0.19585839 -0.04977978 0.15198757
0.15274337 -0.026834168 0.10575055 -0.14577602 -0.08694214 -0.04610968 -0.008740051 0.045997687
0.02580038 -0.020758903 0.106730305 -0.042691793 0.08188008 0.040295262 0.35879064 0.11052134
0.21278182 -0.09002735 -0.0029902349 0.07848202 0.15166305 -0.09801923 0.020723563 0.23605256
0.06354577 -0.17585738 -0.14291275 0.18268412 0.037706856 -0.13862438 0.00064255274 0.04173383
0.23962049 0.27005374 -0.16383742 0.022230592 0.009930784 -0.063810326 -0.033887282 0.06460312
-0.033722375 0.021870935 -0.02756043 -0.04555725 -0.039482594 0.20462756 -0.13206907 -0.07177984
-0.07350485 0.024993826 -0.09520362 0.0433105 0.074685976 -0.09831017 -0.045647204 -0.06126772
0.07104318 -0.089771606 0.09277844 -0.16924095 -0.14797959 0.12971549 -0.19882846 -0.0744184
0.031367004 0.1891946 -0.049090803 -0.068918556 -0.04173759 0.1825663 0.19718187 -0.051541176
0.05960663 0.0699521 0.03859556 0.0018632257 0.11866527 -0.03915302 -0.016867928 -0.08132735
-0.09621143 -0.02166567 -0.09477039 2.1533173e-05 0.016762817 0.1278975 0.10535627 -0.13820507
0.034285296 -0.10620585 0.04380093 0.22082563 -0.050176103 0.06628376 -0.035886135 0.09249784
-0.003251311 0.054607544 0.08496769 0.11291536 -0.11998338 0.08318032 -0.027705042 0.07788676
-0.16137208 0.17850873 0.03965254 -0.004168808 -0.082716264 0.030955695 -0.1123215 -0.11742164
0.06974419 -0.12768 0.06967805 -0.0457542 -0.02027297 -0.16106631 0.03941574 0.12580276
-0.03658623 0.08547233 -0.1272863 -0.016198613 -0.0929716 0.1075668 0.011553951 -0.01603928
-0.011393189 -0.048148792 -0.028852774 0.071455196 0.017379552 0.09533685 -0.1059818 0.057160396
-0.030954376 -0.040013064 -0.07699457 0.04200885 0.011513172 0.24391137 -0.24507117 -0.03598081
-0.1554541 -0.09163954 0.01878048 -0.13485803 0.025161644 -0.18963711 -0.03634103 -0.05957519
-0.10010236 -0.11662845 -0.03420491 0.20768468 0.07829542 -0.058300808 0.066911034 0.16295666
-0.0052532908 -0.0021564297 0.09194187 0.03998025 0.10976501 -0.05343343 -0.08174143 -0.15925758
0.005643514 0.15278253 0.18136084 0.079128064 -0.098653525 0.13120253 -0.061207436 0.16920583
-0.16533077 0.21842034 0.11103657 0.022664402 -0.14339615 0.1683579 -0.073102064 0.016822137
0.09479684 -0.15170427 -0.0320067 0.09471999 -0.029074753 -0.08089781 0.009743252 -0.09844477
0.053817987 -0.027389616 -0.103879966 -0.019878844 -0.0421174 0.081654966 -0.21804795 -0.16661747

h.0.mha.W_v.bias f4 [64]
00000000: b4b1 543d 9a77 f0bb cf43 8fbd 1a6f 253d
00000010: 9d21 8b3d 102e 02bd 85ac bf3d eda7 c1bb
00000020: 4c7b aebd 7f55 723d 54f7 383d cec4 14bd
00000030: e2d9 8b3d c4e0 9dbb 0da3 c5bc d1c9 01be
00000040: 9c58 20bd 1719 00bd 468b 01bd bd1e 973d
00000050: 162a 21bd 8750 983c 0b96 be3d 66ab b73c
00000060: 005e c93d d4a4 84bc 5bbe 5e3d c681 163d
00000070: 8298 1b3c 260e 6ebd 0822 fcbd 3836 b3bd
00000080: 9337 71bd 9324 a6bd 17bf d23d e049 953d
00000090: d9f1 023d f980 773d 9461 b9bd 445a 80bd
000000a0: ce5e 953c a268 2a3d 814e e9bc 1e0d 9dbd
000000b0: f6a4 a63c 5d5e ebbd b7f3 2fbd 7e9e a2bd
000000c0: bd06 573d 6b6b 173d 97cb 743d 874f d3bc
000000d0: ad40 a5bd c6ba bdbc 3bb9 cfbd 93e8 a63d
000000e0: a938 97bd b52d a6bd d442 4d3d fb83 833d
000000f0: 2674 b6bd 11fb f6bb ef0a af3d 5dc2 173d
0.051927283 -0.0073384764 -0.06995355 0.040389158 0.067935206 -0.03178221 0.09359077 -0.005909911
-0.08519611 0.059163567 0.045157745 -0.0363205 0.06828667 -0.004818054 -0.0241256 -0.12674643
-0.039147004 -0.031273928 -0.031626962 0.0737891 -0.039346777 0.018593086 0.09305962 0.022420596
0.09832382 -0.016191877 0.054380756 0.036744855 0.00949681 -0.05811896 -0.123111784 -0.08750576
-0.05889089 -0.08112445 0.10290354 0.07289481 0.031968925 0.060425732 -0.09051815 -0.06267217
0.018233683 0.041603692 -0.028479816 -0.076685175 0.020342331 -0.11492608 -0.042957034 -0.07940386
0.05249666 0.036967676 0.05976447 -0.025794758 -0.080689766 -0.02316035 -0.10142752 0.08149829
-0.07383854 -0.08114187 0.05011256 0.06421658 -0.08908872 -0.0075372537 0.08547007 0.037050594

h.0.mha.W_o.weight f4 [64, 64]
00000000: c2c1 a1bd ba16 3ebd d26b b4ba 0ad0 f73d
00000010: ed78 9cbc e1ba deb9 d6c8 bcbd 4fdf a33b
00000020: 578c e03b 1dbc d5bd 148a debc 4378 0cbd
00000030: 4356 62bd f3ea 223e 1a78 413e ac0b a7bd
00000040: dfb8 4b3d adaf 0cbd 3728 e43c a77f 253e
00000050: 1b85 413e 74a7 74bc b580 2fbe 28a4 303e
00000060: 4e90 863c a445 f6bd 7969 553d 3e8b efbd
00000070: d8cc 4d3c 206c d13c 06b3 0b3d c8a2 e1bd
00000080: b32e f23c f0c9 5e3c e0a4 50be ae3f 5d3e
00000090: 0718 783d 498a 0ebc 38b2 143d c986 e7bc
000000a0: a1c2 fabc b150 573d bace b93d 5d93 323e
000000b0: 6394 1dbe f5dc 65bd 7b30 aebc 94bd 743d
000000c0: a772 22be 3fe3 423c 5d61 44bc 5892 303d
000000d0: f964 193c de27 45bc a943 dc3d a56b e4bc
000000e0: 3ea1 88bd 9b2b a7bd 1005 533b 818d d0bd
000000f0: 740a ea3d 703d ec3c 5283 893d 0fd1 843d
00000100: 3475 8bbd 4711 a93e d3c6 ca3c 05ba 3ebc
00000110: e6fa 44bb 234a ac3c 0cb1 b5bc 2609 323e
00000120: 96c3 a2bc e34c 46bd a777 13be 97ac 5bbd
00000130: 4073 893d eb17 673d be24 e8bd dcc8 003d
00000140: 8b06 6e3d 8013 943d c3a6 c33d 3779 0ebe
00000150: 1376 0f3e 8d59 7b3d 3dff a4bd 98c8 0fbe
00000160: d38f 993d 473d cb3c 754b b63d d416 00be
00000170: fc93 fbbd eb3b 003c 36c0 9f3d a95b 573d
00000180: 6d4f 81bd 1853 d93d 5e72 5ebd 4136 2e3c
00000190: 6ac4 8a3d 3c3c 2abe 36b1 56be 2a7c fabd
000001a0: e6f4 8fbb 6caf 863e d461 36be 343f 713d
000001b0: a7ae 2f3d d6ee 013d e423 b43d 2d07 cd3c
000001c0: a2be 1a3e e8a7 2dbb e219 0bbc a812 e03d
000001d0: 1ded 87bd ae6a 19bd df91 f43d 5e48 c2bd
000001e0: 787e bc3d 7d93 adbd 9d81 2abd 86de ff3d
000001f0: 1cbc d93d bb55 c6bd e228 cabd f125 09be
00000200: f82f b7bc 231e 4f3d 073b 2d3d 9f73 61bd
00000210: 32cd 22bc d1d3 96bd ffc2 41be 1265 7dbd
00000220: d35b 41bc bc8e c23d 8694 133d e95b 6a3e
00000230: 6eb3 20be 050f 2a3e 3f1e 543d 5227 c6bd
00000240: edcb 48bd bef6 d2bd 1141 d0bc 32a6 61be
00000250: de4d db3c d447 d53d 4673 06be 0883 8d3c
00000260: 51e8 423d dd8d a0bd 0761 4cbe 22e4 223e
00000270: 4522 19bd 3e3f 043d 8338 a53b d12d 8fbd
00000280: f9cb e6bd 84fd b2bd 0b56 f2bc be62 72bd
00000290: a892 7bbd efd8 f93d 771f 563d ef13 d93c
000002a0: 17fb 1fbe cadb ffbb e12c 333d bd11 323e
000002b0: 0303 293c c29f c63d 04b1 79bd c2db 31bd
000002c0: efba 903d ba15 193e 09a7 10be 9bae 69be
000002d0: aad4 5bbd e450 24bd a3b0 d03d f3b3 d8bd
000002e0: b1df f73d afb5 773d b485 53bb ec94 76bd
000002f0: 4661 843d 800b 483c 995d a5bd a91c f1bc
00000300: a213 3a3d 6d41 763d 6c1a 0ebe 5e1a b43d
00000310: bda0 ee3d 5752 f53c 9307 fa3d e8b7 a53d
00000320: 2564 d4bd 9b18 65bd 2e4b b83c a43b 15bd
00000330: a5b7 7ebe 15b8 fabd 2738 5abc 4df3 1fbe
00000340: b603 86be d00c 23bb 10df ca3d f0fc 23bc
00000350: 06a5 4e3d 65ea b7bd 61c9 22bd 9ff9 dbbd
00000360: 1066 1abe af76 9abd 3291 e8bc 8d1b 7fbc
00000370: 3014 93bc 7961 80bd 53db 2f3d fbdc 7b3d
00000380: d8df 03be b47d 9d3d 9d00 e8bc a7b0 fa3a
00000390: 9c1e c5bb 9c97 3fbe e900 0abd 6d97 a13e
000003a0: 7f9d 793e 8732 f9bc 6884 513d 38c9 0b3d
000003b0: ba63 fcbc 63bf bcbd 972a c3bc 6192 4f3d
000003c0: b0c4 f83d 7a50 4dbe dbe5 5fbe b28d b53d
000003d0: 3d7a c1bd cf20 6dbc 5020 d63d 02db 653c
000003e0: b41b d63d 0afe e6bd 5eb4 9dbd d49c 493d
000003f0: 4f84 9b3b e0da 99bc 2541 d9bd 9cc9 c03d
-0.078982845 -0.046408392 -0.0013765043 0.12100227 -0.01910063 -0.00042482375 -0.09217994 0.0050009857
0.0068526673 -0.104362704 -0.02716545 -0.034294378 -0.055258047 0.15909939 0.18893471 -0.08156523
0.049736854 -0.034347225 0.027851207 0.16161977 0.18898432 -0.014932502 -0.17138942 0.1725012
0.016426232 -0.12025002 0.05210254 -0.1169648 0.012561046 0.025564253 0.034106277 -0.11017376
0.029563284 0.01359795 -0.20375395 0.21606323 0.06056979 -0.008699962 0.036302775 -0.028262513
-0.030610384 0.052567188 0.09072633 0.17439027 -0.15388636 -0.056118924 -0.021263352 0.05975111
-0.15864049 0.011895 -0.011986104 0.043108314 0.009362453 -0.012033431 0.10755093 -0.02788336
-0.066713795 -0.08162614 0.0032199062 -0.1018324 0.11427775 0.02883789 0.067145005 0.06485187
-0.06809464 0.33020994 0.02475301 -0.01164103 -0.0030056774 0.021031445 -0.02217915 0.17386302
-0.019868653 -0.04841317 -0.14401112 -0.05363139 0.06711435 0.056419294 -0.11335133 0.031441554
0.05811171 0.07230282 0.09553292 -0.13913427 0.14009885 0.0613647 -0.08056495 -0.14041364
0.074981354 0.024809493 0.08901111 -0.12508708 -0.12284085 0.007826786 0.07800333 0.05257765
-0.063139774 0.10611552 -0.054308288 0.010633052 0.06775744 -0.1662454 -0.20966038 -0.12230714
-0.004393208 0.2630571 -0.17810756 0.058898166 0.04289117 0.031721912 0.08795908 0.025027836
0.15111783 -0.0026497785 -0.008490058 0.109410584 -0.06637023 -0.037455253 0.11941885 -0.09486459
0.092038095 -0.08475397 -0.041627515 0.12493615 0.10631582 -0.096843205 -0.09871079 -0.1339338
-0.02236174 0.05056585 0.04229262 -0.055041905 -0.009936618 -0.073646195 -0.18922041 -0.061863966
-0.011801678 0.09499881 0.036030315 0.22886623 -0.15693447 0.16607292 0.051786657 -0.096754685
-0.049022604 -0.103009686 -0.025421651 -0.22036055 0.026770528 0.10414091 -0.13129911 0.017274395
0.047584835 -0.07839558 -0.19958888 0.15907338 -0.037386198 0.032286875 0.005042137 -0.06991161
-0.112693734 -0.087397605 -0.029582044 -0.0591762 -0.06141916 0.1219958 0.0522761 0.026498763
-0.15623127 -0.0078081833 0.04374397 0.17389579 0.010315659 0.0969844 -0.06095983 -0.043422468
0.07066905 0.14949694 -0.14126219 -0.22820513 -0.05366961 -0.040116206 0.10189941 -0.105811976
0.121032126 0.060476 -0.0032275738 -0.060200617 0.06463866 0.012209773 -0.08074493 -0.029432612
0.04542888 0.06012099 -0.13877267 0.08794092 0.11651752 0.02994649 0.12208476 0.08091718
-0.103706636 -0.05593167 0.022496786 -0.03643383 -0.24874742 -0.12242142 -0.013319052 -0.15620156
-0.26174706 -0.0024879463 0.09905827 -0.0100090355 0.050450347 -0.08980254 -0.03974283 -0.10740971
-0.15077996 -0.07542168 -0.028389547 -0.015570533 -0.017953962 -0.062685914 0.042933773 0.06149004
-0.12878358 0.076899916 -0.028320605 0.0019126133 -0.006015612 -0.18710178 -0.033692274 0.3156084
0.24376486 -0.030419601 0.051151663 0.034127444 -0.030809272 -0.092161916 -0.02382402 0.050676707
0.1214689 -0.2005023 -0.21865027 0.08864917 -0.09447143 -0.014473154 0.10455382 0.014029266
0.10454503 -0.11278923 -0.07700418 0.04922183 0.004745997 -0.018781126 -0.106081285 0.09413454

h.0.mha.W_o.bias f4 [64]
00000000: d061 19be 4d9d c8bc 8171 0d3e 2640 c8ba
00000010: 8227 afbd fd74 153e 0c8b 123e 6c71 cfbd
00000020: 38c5 8e3c 38fe ebbd 6bcb a83a e126 ba3d
00000030: 7819 4ebd 6019 903c e362 ecbd d4c8 8d3d
00000040: f2a5 2bbc e819 86bd d822 9cbd 87ca 0a3d
00000050: 0cfd e1bd 347b 99bd fd0f 9ebd f43e 09bd
00000060: ebe4 543c bc6a bebd 557d bdbc d142 f73d
00000070: d820 4dbd 2b2c fb3d b2c8 e43d 87f2 083d
00000080: a946 6fbd 6bd9 c9bd 0e76 14be 3ad3 003e
00000090: a6a8 c13d 19e4 363e dc4d dcbd ceba 71bc
000000a0: ce9f 8bbd a512 e7bd d5b5 2f3d 6ed6 523d
000000b0: fb07 16bd 8760 20bd 7ff6 5ebd 07bb 3b3d
000000c0: afdd e63d 0d17 7dbc 50c1 1bbe 8a0f 943d
000000d0: 6797 81bd 0806 f73d 42c5 fd3d c564 1e3c
000000e0: 0f41 bfbc af09 a9bd bec2 d63a d2ba 6fbd
000000f0: 7597 d23d bec6 8e3d ce6c dd3d 96fa a33d
-0.14978719 -0.02448907 0.1381283 -0.0015277907 -0.085524574 0.14595409 0.14310855 -0.101290554
0.017428026 -0.11523098 0.0012878006 0.09089447 -0.050317258 0.017590225 -0.11542299 0.069230705
-0.010476576 -0.0654791 -0.076238334 0.03388455 -0.11034593 -0.07494202 -0.07717893 -0.033507302
0.012994031 -0.09297702 -0.023131052 0.12073291 -0.05008015 0.12264284 0.11171092 0.033434417
-0.058416996 -0.09855922 -0.1449816 0.12580577 0.09455995 0.1786045 -0.10757038 -0.01475401
-0.0681759 -0.11282853 0.042898018 0.051474027 -0.036628705 -0.039154556 -0.054434296 0.04583266
0.112727515 -0.01544739 -0.15210462 0.07229526 -0.06327706 0.12061697 0.123911396 0.00966758
-0.023346452 -0.082538 0.0016384942 -0.058527775 0.102827944 0.06971501 0.108117685 0.0800678

h.0.ln_1.weight f4 [64]
00000000: e976 713f a917 593f 6908 803f 206c 683f
00000010: c263 3e3f aa67 5d3f 6a52 573f fcdd 793f
00000020: b8b9 663f 50e7 5f3f 1b5c 683f a3d2 683f
00000030: c6ed 5a3f 10ee 633f 9803 473f d890 753f
00000040: 0b38 703f 5427 543f e15c 503f d5d7 443f
00000050: 2684 823f d04f 5b3f 43c0 443f 26e0 643f
00000060: 8e0c 5f3f 140f 583f 046f 7c3f 6886 4b3f
00000070: 86c7 4e3f bb48 533f e0a3 763f bb9c 663f
00000080: 24d2 513f 6bcf 5f3f a8e3 603f eaf0 6c3f
00000090: f742 5b3f 595b 7e3f a2de 763f 8abc 573f
000000a0: 4a8b 3a3f aa51 713f 3c2e 633f b7b2 693f
000000b0: b16d 723f e890 693f 4c0b 7e3f e44b 5f3f
000000c0: 851b 5b3f 448c 683f 3e61 573f 2acf 823f
000000d0: ba01 4f3f 068b 743f 9a27 593f 3951 7a3f
000000e0: 28f5 673f 0448 513f 567e 743f c529 563f
000000f0: 45d6 4c3f 4b76 5e3f 1ed0 753f 259e 5c3f
0.9432207 0.8480173 1.0002567 0.90789986 0.7437097 0.86486304 0.8411013 0.97604346
0.90127134 0.8746233 0.9076554 0.90946406 0.85519063 0.8903513 0.7773986 0.9592414
0.93835515 0.8287251 0.8139172 0.76891834 1.0196579 0.8566866 0.7685587 0.89404523
0.8712853 0.8439801 0.98606896 0.7950196 0.807732 0.8253285 0.96343803 0.900829
0.81961274 0.8742587 0.87847376 0.92555106 0.85649055 0.99358135 0.9643346 0.8427206
0.7286879 0.94265234 0.88742423 0.9128832 0.94698626 0.91236734 0.9923599 0.87225175
0.85588866 0.9083903 0.84132755 1.0219471 0.8086201 0.9552463 0.8482605 0.97780186
0.90608454 0.8175051 0.95505273 0.83657485 0.8001445 0.8689925 0.96020687 0.8617881

h.0.ln_1.bias f4 [64]
00000000: d663 9e3b b636 91bd f45c 27bc 4c8d 0c3c
00000010: 22b0 92bd 69ec 52bd 3f52 db3b 105b 1b3d
00000020: 479e 1fbc 7ad0 b5bb ed95 703c 3d54 9f3c
00000030: 06a3 ff3c 49ed 73bd 8c08 94bc 3217 91bd
00000040: 94aa 8f3c b532 d33c 8d05 4c3d 2852 8b3c
00000050: 178b e3bc 2a66 77bc a403 813d b0e7 46bb
00000060: 0ac8 133c 01e0 58bd 92a4 09bb e346 813c
00000070: 2e84 75bd cfe6 00bd c0e5 69bc 907a 00bc
00000080: 5d67 873d 878b 613d e718 5ebb 232e 143a
00000090: 086b e43c 1ef6 e83b dbb8 a73c 8e53 8abc
000000a0: 2b7f 36bb 1a25 8a3d ebde 4fbb 7587 273d
000000b0: e193 63bc cb29 d93b ada9 043d 5dcc cd3d
000000c0: 88dc ea3c 3140 e43d 595e 1cbd 8a05 0a3d
000000d0: 7bc1 b43c d00b 80bd 0fb6 ecba 755e 873c
000000e0: cbf0 5cbc 2a1d 823c 780c fe3c 9641 abbc
000000f0: 1fba 983c 541e 2d3c c0af 7ebc dc98 aa3c
0.0048336787 -0.070905134 -0.010215033 0.00857861 -0.07162501 -0.05149499 0.006693154 0.03792864
-0.009742326 -0.005548534 0.014684183 0.019449348 0.031205665 -0.059552465 -0.018070482 -0.07084502
0.017537393 0.025781015 0.04980998 0.017006949 -0.027776284 -0.015100041 0.062995225 -0.00303505
0.009019861 -0.052948 -0.0021002633 0.015780872 -0.05994051 -0.031470116 -0.014275968 -0.007841721
0.06611512 0.055064704 -0.0033889355 0.0005652627 0.027883068 0.0071094176 0.020473888 -0.016885545
-0.0027846794 0.06745358 -0.0031718563 0.040900666 -0.013890238 0.0066272966 0.032388378 0.10048745
0.02866961 0.11145056 -0.038175914 0.03369669 0.022064915 -0.06252253 -0.0018059629 0.016524533
-0.013485144 0.015883047 0.031011805 -0.020905297 0.018643437 0.010566313 -0.015544832 0.020824842

h.0.ln_2.weight f4 [64]
00000000: 0000 803f 0000 803f 0000 803f 0000 803f
00000010: 0000 803f 0000 803f 0000 803f 0000 803f
00000020: 0000 803f 0000 803f 0000 803f 0000 803f
00000030: 0000 803f 0000 803f 0000 803f 0000 803f
00000040: 0000 803f 0000 803f 0000 803f 0000 803f
00000050: 0000 803f 0000 803f 0000 803f 0000 803f
00000060: 0000 803f 0000 803f 0000 803f 0000 803f
00000070: 0000 803f 0000 803f 0000 803f 0000 803f
00000080: 0000 803f 0000 803f 0000 803f 0000 803f
00000090: 0000 803f 0000 803f 0000 803f 0000 803f
000000a0: 0000 803f 0000 803f 0000 803f 0000 803f
000000b0: 0000 803f 0000 803f 0000 803f 0000 803f
000000c0: 0000 803f 0000 803f 0000 803f 0000 803f
000000d0: 0000 803f 0000 803f 0000 803f 0000 803f
000000e0: 0000 803f 0000 803f 0000 803f 0000 803f
000000f0: 0000 803f 0000 803f 0000 803f 0000 803f
1.0 1.0 1.0 1.0 1.0 1.0 1.0 1.0
1.0 1.0 1.0 1.0 1.0 1.0 1.0 1.0
1.0 1.0 1.0 1.0 1.0 1.0 1.0 1.0
1.0 1.0 1.0 1.0 1.0 1.0 1.0 1.0
1.0 1.0 1.0 1.0 1.0 1.0 1.0 1.0
1.0 1.0 1.0 1.0 1.0 1.0 1.0 1.0
1.0 1.0 1.0 1.0 1.0 1.0 1.0 1.0
1.0 1.0 1.0 1.0 1.0 1.0 1.0 1.0

h.0.ln_2.bias f4 [64]
00000000: 0000 0000 0000 0000 0000 0000 0000 0000
00000010: 0000 0000 0000 0000 0000 0000 0000 0000
00000020: 0000 0000 0000 0000 0000 0000 0000 0000
00000030: 0000 0000 0000 0000 0000 0000 0000 0000
00000040: 0000 0000 0000 0000 0000 0000 0000 0000
00000050: 0000 0000 0000 0000 0000 0000 0000 0000
00000060: 0000 0000 0000 0000 0000 0000 0000 0000
00000070: 0000 0000 0000 0000 0000 0000 0000 0000
00000080: 0000 0000 0000 0000 0000 0000 0000 0000
00000090: 0000 0000 0000 0000 0000 0000 0000 0000
000000a0: 0000 0000 0000 0000 0000 0000 0000 0000
000000b0: 0000 0000 0000 0000 0000 0000 0000 0000
000000c0: 0000 0000 0000 0000 0000 0000 0000 0000
000000d0: 0000 0000 0000 0000 0000 0000 0000 0000
000000e0: 0000 0000 0000 0000 0000 0000 0000 0000
000000f0: 0000 0000 0000 0000 0000 0000 0000 0000
0.0 0.0 0.0 0.0 0.0 0.0 0.0 0.0
0.0 0.0 0.0 0.0 0.0 0.0 0.0 0.0
0.0 0.0 0.0 0.0 0.0 0.0 0.0 0.0
0.0 0.0 0.0 0.0 0.0 0.0 0.0 0.0
0.0 0.0 0.0 0.0 0.0 0.0 0.0 0.0
0.0 0.0 0.0 0.0 0.0 0.0 0.0 0.0
0.0 0.0 0.0 0.0 0.0 0.0 0.0 0.0
0.0 0.0 0.0 0.0 0.0 0.0 0.0 0.0

ln_f.weight f4 [64]
00000000: 0000 803f 0000 803f 0000 803f 0000 803f
00000010: 0000 803f 0000 803f 0000 803f 0000 803f
00000020: 0000 803f 0000 803f 0000 803f 0000 803f
00000030: 0000 803f 0000 803f 0000 803f 0000 803f
00000040: 0000 803f 0000 803f 0000 803f 0000 803f
00000050: 0000 803f 0000 803f 0000 803f 0000 803f
00000060: 0000 803f 0000 803f 0000 803f 0000 803f
00000070: 0000 803f 0000 803f 0000 803f 0000 803f
00000080: 0000 803f 0000 803f 0000 803f 0000 803f
00000090: 0000 803f 0000 803f 0000 803f 0000 803f
000000a0: 0000 803f 0000 803f 0000 803f 0000 803f
000000b0: 0000 803f 0000 803f 0000 803f 0000 803f
000000c0: 0000 803f 0000 803f 0000 803f 0000 803f
000000d0: 0000 803f 0000 803f 0000 803f 0000 803f
000000e0: 0000 803f 0000 803f 0000 803f 0000 803f
000000f0: 0000 803f 0000 803f 0000 803f 0000 803f
1.0 1.0 1.0 1.0 1.0 1.0 1.0 1.0
1.0 1.0 1.0 1.0 1.0 1.0 1.0 1.0
1.0 1.0 1.0 1.0 1.0 1.0 1.0 1.0
1.0 1.0 1.0 1.0 1.0 1.0 1.0 1.0
1.0 1.0 1.0 1.0 1.0 1.0 1.0 1.0
1.0 1.0 1.0 1.0 1.0 1.0 1.0 1.0
1.0 1.0 1.0 1.0 1.0 1.0 1.0 1.0
1.0 1.0 1.0 1.0 1.0 1.0 1.0 1.0

ln_f.bias f4 [64]
00000000: 0000 0000 0000 0000 0000 0000 0000 0000
00000010: 0000 0000 0000 0000 0000 0000 0000 0000
00000020: 0000 0000 0000 0000 0000 0000 0000 0000
00000030: 0000 0000 0000 0000 0000 0000 0000 0000
00000040: 0000 0000 0000 0000 0000 0000 0000 0000
00000050: 0000 0000 0000 0000 0000 0000 0000 0000
00000060: 0000 0000 0000 0000 0000 0000 0000 0000
00000070: 0000 0000 0000 0000 0000 0000 0000 0000
00000080: 0000 0000 0000 0000 0000 0000 0000 0000
00000090: 0000 0000 0000 0000 0000 0000 0000 0000
000000a0: 0000 0000 0000 0000 0000 0000 0000 0000
000000b0: 0000 0000 0000 0000 0000 0000 0000 0000
000000c0: 0000 0000 0000 0000 0000 0000 0000 0000
000000d0: 0000 0000 0000 0000 0000 0000 0000 0000
000000e0: 0000 0000 0000 0000 0000 0000 0000 0000
000000f0: 0000 0000 0000 0000 0000 0000 0000 0000
0.0 0.0 0.0 0.0 0.0 0.0 0.0 0.0
0.0 0.0 0.0 0.0 0.0 0.0 0.0 0.0
0.0 0.0 0.0 0.0 0.0 0.0 0.0 0.0
0.0 0.0 0.0 0.0 0.0 0.0 0.0 0.0
0.0 0.0 0.0 0.0 0.0 0.0 0.0 0.0
0.0 0.0 0.0 0.0 0.0 0.0 0.0 0.0
0.0 0.0 0.0 0.0 0.0 0.0 0.0 0.0
0.0 0.0 0.0 0.0 0.0 0.0 0.0 0.0
