subspace-alignment/data/1_layer_32_vocab/ckpt_8040.pt (torch, 90637 bytes, 17 tensors)

embed.embed.weight f4 [32, 64]
-0.15539822 0.54368466 0.5832618 0.13721783 -0.038812187 -0.59682107 -1.0708331 -0.09498386
-0.40719736 0.17938828 -1.4954679 0.37620127 -0.2811591 -0.7757694 0.79028136 0.018590698
0.18599218 0.04509392 0.71608925 -0.6154918 -0.5517749 1.4160485 1.3121487 -0.89598984
-2.0492685 1.2975266 -0.84282035 2.037333 0.78121567 0.7313503 -0.4522031 0.51319844
0.84815675 -0.8116645 0.25464135 -0.92846704 -1.0521367 0.60001165 -0.8470469 0.71312845
-1.6797262 -0.8734518 0.19287135 0.6892284 1.1226797 0.7042708 -0.47149837 -0.5647187
-0.71741915 -1.42834 -0.12831625 -0.28901803 0.31872144 1.0381025 0.06157601 -0.91801697
0.3146091 -0.4947456 -1.2340829 -1.4540062 0.44311062 -0.30026212 0.03717628 0.793071
0.5480472 -1.1018416 -1.0352257 0.13027011 1.7716264 -0.9717548 -0.26677325 -0.5552017
0.29558593 -0.32818183 0.06753821 0.44945052 0.35923558 0.43641296 0.009887627 0.7597253
1.1054434 -0.5191618 0.9981669 0.30932143 0.22936021 -0.39983308 1.5191314 0.44849625
0.018294781 0.813371 -1.2858788 0.448789 -1.852648 1.9305116 0.3067671 -1.069445
-1.2301502 -1.2475333 0.492946 0.012945282 0.8474844 0.78888005 1.0693512 0.23018168
-1.2127771 -0.17402741 0.92327875 0.44775954 -0.45285133 -0.14079586 -1.333768 -1.2821885
-0.2574047 -0.09483044 1.0647657 0.050723802 -0.7368658 0.13744871 0.30802885 -0.9859595
0.091324285 -0.91240007 -0.35567293 -0.1348644 0.4153215 -2.198836 -0.8411852 0.44952998
0.7867507 0.82452863 -0.3846939 -0.22167525 -0.17008664 0.69265854 -0.5436806 -1.4525119
0.30746597 -0.88107824 0.30804554 -0.36507934 -0.6541825 0.8041306 0.28520483 0.36079016
-0.6798596 -0.8118965 -1.7018923 -0.6697847 0.16806704 1.1264288 -0.89537925 -0.5349123
0.33440137 0.39432427 -0.5882407 0.18708938 -1.0367346 1.5163952 1.1418502 0.40298715
-0.835901 0.41984984 0.30473205 1.0856477 -1.0181341 -1.4456981 -0.40353984 2.383004
-0.5857368 -0.9219635 0.032677315 0.06579105 -0.017162224 -0.81017524 0.8026124 -0.2061855
-0.22912224 -1.1077435 2.0136802 -0.03872725 0.18664093 -0.47576442 -1.557264 -0.458697
0.6675015 -0.08659769 -0.59861946 0.85266834 -2.2154617 0.46784034 0.24518332 0.2931266
-1.1759586 0.9959308 0.07183562 -0.1128912 -1.4436746 -0.41893157 1.3018432 0.41308618
-1.2095662 -1.2026726 -1.7917119 -0.24197392 -2.6124723 2.3332186 -1.176576 0.41135183
0.3603102 -0.28761607 0.7617483 0.2817098 0.74633455 -0.6476061 -1.2772287 0.58546907
-1.9188999 1.3602172 0.13525893 0.5799361 0.25855255 -0.26147044 -0.30144656 0.84003365
0.74586225 0.6808072 -0.74144495 -0.8332243 -0.012174534 -0.78024507 0.38119766 1.3843167
1.6006505 -0.08959961 -0.8363333 0.8359947 0.8406342 1.603878 0.66158736 0.70366055
0.70642555 -0.7220288 0.4281103 0.09753174 -1.4038508 1.0963712 0.3455145 -0.5973169
0.37018758 1.1056045 -2.8483598 -0.2668518 0.070604935 -0.5645662 -0.735657 -0.017325902
00000000: b620 1fbe eb2e 0b3f a550 153f d582 0c3e
00000010: 87f9 1ebd 44c9 18bf 0f11 89bf e686 c2bd
00000020: 2c7c d0be 90b1 373e 7e6b bfbf 749d c03e
00000030: 16f4 8fbe d398 46bf e14f 4a3f 854b 983c
00000040: bc74 3e3e 67b4 383d a051 373f df90 1dbf
00000050: 1f41 0dbf 1441 b53f 7df4 a73f 975f 65bf
00000060: 3727 03c0 5a15 a63f 13c3 57bf aa63 0240
00000070: c0fd 473f c639 3b3f 2a87 e7be f960 033f
00000080: cd20 593f 3fc9 4fbf 5a60 823e 04b0 6dbf
00000090: 6aac 86bf 5d9a 193f 11d8 58bf 968f 363f
000000a0: 4501 d7bf 8a9a 5fbf 1180 453e 4671 303f
000000b0: f8b3 8f3f 174b 343f 3c68 f1be 6891 10bf
000000c0: c8a8 37bf d8d3 b6bf 5665 03be 2cfa 93be
000000d0: 752f a33e 8be0 843f 2037 7c3d 2903 6bbf
000000e0: 7214 a13e 4c4f fdbe 6ef6 9dbf e01c babf
000000f0: 65df e23e f5bb 99be 2846 183d b306 4b3f
00000100: d24c 0c3f 2509 8dbf 4782 84bf 8765 053e
00000110: a7c4 e23f ecc4 78bf 8196 88be b321 0ebf
00000120: 0a57 973e 7307 a8be 7951 8a3d 611e e63e
00000130: baed b73e 8571 df3e b7ff 213c 5b7d 423f
00000140: 2b7f 8d3f cae7 04bf de87 7f3f 615f 9e3e
00000150: 67dd 6a3e ecb6 ccbe e672 c23f 4da1 e53e
00000160: f0de 953c 1539 503f ad97 a4bf acc7 e53e
00000170: 9223 edbf 011b f73f 9410 9d3e 93e3 88bf
00000180: 9075 9dbf 2caf 9fbf 6b63 fc3e 7318 543c
00000190: bdf4 583f 0bf4 493f 80e0 883f bfb4 6b3e
000001a0: 483c 9bbf 3e34 32be ff5b 6c3f bd40 e53e
000001b0: 21dc e7be ca2c 10be e9b8 aabf c11e a4bf
000001c0: 8dca 83be 7636 c2bd 3e4a 883f c3c3 4f3d
000001d0: 3da3 3cbf 5bbf 0c3e f5b5 9d3e d767 7cbf
000001e0: 3a08 bb3d 0d93 69bf c31a b6be e519 0abe
000001f0: 05a5 d43e bbb9 0cc0 ea57 57bf cb28 e63e
00000200: 7e68 493f 4f14 533f 99f6 c4be d6fe 62be
00000210: 312b 2ebe 1252 313f a72e 0bbf e9eb b9bf
00000220: 2e6c 9d3e 588e 61bf 25b8 9d3e aeeb babe
00000230: 8178 27bf 81db 4d3f 5e06 923e 7db9 b83e
00000240: 470b 2ebf 73d8 4fbf 9bd7 d9bf 0377 2bbf
00000250: c419 2c3e d22e 903f 9337 65bf 03f0 08bf
00000260: a836 ab3e dfe4 c93e f196 16bf 5c94 3f3e
00000270: b8b3 84bf 3d19 c23f 2628 923f 5554 ce3e
00000280: 9cfd 55bf 8ff6 d63e d705 9c3e 81f6 8a3f
00000290: 3852 82bf a30c b9bf c69c cebe 2383 1840
000002a0: d9f2 15bf cd05 6cbf a6d8 053d 75bd 863d
000002b0: cb97 8cbc a567 4fbf 0278 4d3f 4b22 53be
000002c0: 059f 6abe 8aca 8dbf 23e0 0040 77a0 1ebd
000002d0: cd1e 3f3e 6597 f3be 6d54 c7bf 55da eabe
000002e0: 61e1 2a3f 215a b1bd 203f 19bf 7948 5a3f
000002f0: 20ca 0dc0 c588 ef3e 5611 7b3e b114 963e
00000300: d085 96bf 52f5 7e3f 8e1e 933d 8033 e7bd
00000310: 54ca b8bf 337e d6be cca2 a63f 0880 d33e
00000320: 11d3 9abf 2df1 99bf d156 e5bf 03c8 77be
00000330: bf32 27c0 7453 1540 0b9a 96bf b59c d23e
00000340: 947a b83e 6a42 93be f001 433f 443c 903e
00000350: c80f 3f3f 83c9 25bf 3b7c a3bf 4de1 153f
00000360: 839e f5bf 991b ae3f 5181 0a3e b176 143f
00000370: 0061 843e 74df 85be 3457 9abe 720c 573f
00000380: d4f0 3e3f 6149 2e3f 56cf 3dbf 304e 55bf
00000390: b277 47bc 24be 47bf 572c c33e 4a31 b13f
000003a0: 1ee2 cc3f 0080 b7bd f019 56bf c003 563f
000003b0: ce33 573f e04b cd3f ca5d 293f 1923 343f
000003c0: 4ed8 343f e1d6 38bf 4631 db3e b9be c73d
000003d0: 62b1 b3bf e455 8c3f 47e7 b03e c3e9 18bf
000003e0: 3a89 bd3e 7384 8d3f 874b 36c0 cda0 88be
000003f0: 5299 903d 6987 10bf 0454 3cbf 0def 8dbc

h.0.mha.W_q.weight f4 [64, 64]
-0.07107606 0.0338782 0.077888936 0.15471788 0.0665964 0.07179671 -0.10070887 -0.014167151
-0.049926333 -0.09351753 -0.104665056 -0.016694393 -0.044493385 0.09798386 -0.037463818 -0.06812019
0.02803158 0.09248142 -0.07214051 0.02812401 0.024197174 -0.004961133 0.09216036 -0.07073898
0.072313234 0.028211461 0.022611326 0.05980171 -0.13309807 -0.0796646 -0.10287651 -0.0051575797
-0.07172449 -0.055037983 -0.09803815 -0.07231277 0.031808894 0.004586027 0.011066958 -0.0020433245
-0.018290425 -0.13335128 0.029566305 0.055372763 0.023805419 -0.016229162 -0.014071352 -0.06766745
0.03491338 -0.0130924415 -0.021606805 0.13173541 -0.04846144 -0.051246755 -0.06443984 -0.018386535
0.012276963 -0.0033190162 0.03634555 -0.08710832 -0.072410956 0.097559564 0.043181416 0.042411406
-0.0105092265 -0.043980893 -0.0704598 0.054499697 -0.06554421 -0.12127469 -0.07687355 0.027582983
0.02744173 -0.019291345 -0.10021731 -0.039378345 -0.033384677 -0.025752807 0.047323357 0.019980796
0.00452016 -0.018068992 0.02024798 -0.04696192 0.09466765 -0.05551767 -0.030529052 -0.055016547
0.015318724 0.035531525 -0.098881714 -0.082019486 0.096062645 0.049339335 -0.073737286 -0.020940948
-0.045599334 -0.05448349 0.008429316 0.07038114 0.03553783 -0.010017957 0.036244135 0.004167835
0.026837237 -0.0331846 -0.096915625 -0.044172175 0.06087525 -0.113477744 -0.014909223 -0.012193484
-0.057392158 -0.007444698 -0.10561874 0.022487264 -0.0024739928 0.04138094 -0.051973347 -0.008953124
-0.09246554 -0.026204301 0.029609723 -0.048195668 0.019840712 0.08221686 0.0045197685 -0.069314435
-0.06971811 -0.06574393 -0.12026938 0.03869355 -0.06605916 -0.061114363 -0.033420507 -0.04542181
-0.1665687 -0.031354282 0.091375425 -0.053751785 -0.023560084 -0.09925866 -0.09508686 -0.015028071
-0.09038801 0.097013354 -0.10614814 0.12249244 -0.08972903 0.0029453859 0.06595334 -0.007788676
-0.011113378 0.09328874 0.0006453508 -0.03319422 -0.012914858 -0.05183303 0.05038698 0.03094158
0.07520943 0.0004842922 0.052142438 0.049003046 -0.033576097 -0.052431617 -0.011004124 -0.025350764
0.0788475 -0.072297044 -0.008598616 0.0026940005 0.04670818 -0.04848558 0.0129410215 0.028442696
-0.07846981 -0.042994972 0.04548433 0.13989966 -0.029512692 0.019843588 0.06884134 -0.07694739
0.09593856 -0.07204991 -0.023718858 -0.010423479 0.058963273 -0.030553695 -0.019698787 -0.06335488
-0.008736781 -0.021019327 0.10156446 -0.02338999 -0.04113728 -0.09747415 -0.02379395 -0.07698843
0.06362229 -0.023265768 0.040505733 -0.0854732 -0.053898223 -0.0012612827 0.07830827 0.0109039685
-0.070944354 -0.08233394 -0.09383885 0.01748499 0.0037378627 -0.019331567 -0.06350084 -0.08647071
0.0136997495 -0.011434363 -0.030853214 -0.04687841 0.0056456323 -0.021537613 -0.09974725 -0.05081823
-0.0029222555 0.0655687 0.08995201 -0.11583043 0.05172009 -0.041793924 0.062016957 0.0007675932
0.022167956 -0.06501013 0.029189274 -0.13105519 0.009711196 0.021074193 0.048056453 -0.050796736
0.156675 0.016741715 -0.022517122 -0.085301705 0.025548186 0.01677418 -0.04224417 0.092517756
-0.0065668453 0.040780712 0.09727339 -0.068418585 0.018078655 -0.02109047 0.04601375 -0.05448841
00000000: 5390 91bd dec3 0a3d 3c84 9f3d 5d6e 1e3e
00000010: b263 883d 270a 933d 7440 cebd 571d 68bc
00000020: 8e7f 4cbd 1e86 bfbd a25a d6bd aec2 88bc
00000030: b23e 36bd c3ab c83d a973 19bd 9982 8bbd
00000040: 7ca2 e53c e666 bd3d 67be 93bd 5364 e63c
00000050: 2739 c63c 0091 a2bb 92be bc3d 99df 90bd
00000060: f618 943d b91b e73c 633b b93c a3f2 743d
00000070: dc4a 08be 3227 a3bd ebb0 d2bd ea00 a9bb
00000080: 4ae4 92bd 826f 61bd 3ac8 c8bd b818 94bd
00000090: 0b4a 023d 6246 963b 3052 353c 4ce9 05bb
000000a0: cdd5 95bc 3d8d 08be 0935 f23c 8dce 623d
000000b0: 9503 c33c 05f3 84bc 878b 66bc 3b95 8abd
000000c0: 5501 0f3d ae81 56bc c100 b1bc a6e5 063e
000000d0: 817f 46bd 1ee8 51bd 09f9 83bd 5c9f 96bc
000000e0: 5125 493c da83 59bb 12df 143d d965 b2bd
000000f0: 324c 94bd 4fcd c73d ffde 303d 95b7 2d3d
00000100: e42e 2cbc 4f25 34bd 3a4d 90bd 133b 5f3d
00000110: 0b3c 86bd dd5e f8bd e16f 9dbd b5f5 e13c
00000120: 7bcd e03c e208 9ebc bc3e cdbd 304b 21bd
00000130: 5fbe 08bd 8df7 d2bc 23d6 413d c4ae a33c
00000140: da1d 943b 6c05 94bc 17df a53c 245b 40bd
00000150: 1de1 c13d 7f66 63bd 1018 fabc 0859 61bd
00000160: 63fb 7a3c 8189 113d 7f82 cabd d5f9 a7bd
00000170: 7ebc c43d 0b18 4a3d 9303 97bd 5a8c abbc
00000180: 5ec6 3abd 142a 5fbd 1d1b 0a3c fd23 903d
00000190: 1e90 113d 5b22 24bc bb74 143d 5692 883b
000001a0: c4d9 db3c 93ec 07bd b37b c6bd e2ed 34bd
000001b0: 5358 793d 0567 e8bd d045 74bc 2ec7 47bc
000001c0: 0a14 6bbd a7f2 f3bb a34e d8bd 3637 b83c
000001d0: b622 22bb 0f7f 293d 01e2 54bd 20b0 12bc
000001e0: 935e bdbd 67aa d6bc 1790 f23c d268 45bd
000001f0: fd88 a23c 5061 a83d 911a 943b baf4 8dbd
00000200: 5ec8 8ebd c1a4 86bd cb4f f6bd 217d 1e3d
00000210: 064a 87bd 0e53 7abd f1e3 08bd 380c 3abd
00000220: fc90 2abe 596d 00bd 0a23 bb3d d52a 5cbd
00000230: 1401 c1bc 2048 cbbd e6bc c2bd 4c38 76bc
00000240: 591d b9bd f0ae c63d 3264 d9bd 51dd fa3d
00000250: dbc3 b7bd 6007 413b 8b12 873d 2638 ffbb
00000260: e314 36bc 2b0e bf3d c22c 293a aaf6 07bd
00000270: d798 53bc df4e 54bd 9462 4e3d 3279 fd3c
00000280: 6707 9a3d 99e8 fd39 4f93 553d 6bb7 483d
00000290: 1787 09bd 89c2 56bd a44a 34bc 68ac cfbc
000002a0: cc7a a13d 7910 94bd 36e1 0cbc d48d 303b
000002b0: 1451 3f3d d198 46bd 9406 543c a800 e93c
000002c0: c8b4 a0bd 7f1b 30bd c74d 3a3d db41 0f3e
000002d0: 9ac4 f1bc 058f a23c b0fc 8c3d 9896 9dbd
000002e0: 707b c43d e78e 93bd 0d4e c2bc 3dc7 2abc
000002f0: 7983 713d be4b fabc 5a5f a1bc 34c0 81bd
00000300: b724 0fbc b930 acbc 0701 d03d 5d9c bfbc
00000310: 917f 28bd 87a0 c7bd 88eb c2bc 1cac 9dbd
00000320: 674c 823d da97 bebc 57e9 253d 930c afbd
00000330: 62c4 5cbd a051 a5ba 1660 a03d 8fa6 323c
00000340: 464b 91bd b29e a8bd 952e c0bd af3c 8f3c
00000350: eef6 743b 3c5d 9ebc ba0c 82bd 8e17 b1bd
00000360: ea74 603c 3257 3bbc e1bf fcbc 9303 40bd
00000370: fffe b83b a66f b0bc 4948 ccbd c726 50bd
00000380: 5083 3fbb e248 863d c238 b83d 8138 edbd
00000390: 72d8 533d 1b30 2bbd 7e05 7e3d 4f38 493a
000003a0: 9399 b53c 0824 85bd 581e ef3c 5533 06be
000003b0: b51b 1f3c c9a3 ac3c d8d6 443d 3d10 50bd
000003c0: 696f 203e ec25 893c d475 b8bc a9b2 aebd
000003d0: 6e4a d13c 016a 893c 3908 2dbd f379 bd3d
000003e0: b12e d7bb ad09 273d 4537 c73d 0b1f 8cbd
000003f0: b019 943c ecc5 acbc ea78 3c3d 3d2f 5fbd

h.0.mha.W_q.bias f4 [64]
0.16345656 -0.08116414 -0.113534935 -0.014757517 0.016230553 -0.005073784 -0.14772964 -0.13873066
0.28515983 -0.4264553 -0.06924143 0.316603 0.48443195 0.18935995 -0.80690426 -0.15971103
0.29698062 0.7697465 -0.009990885 0.34502617 0.34553614 -0.099933274 0.37666607 0.047447734
-0.10204302 -0.17172633 -0.028488643 0.12599565 -0.12495741 -0.04198681 0.08647966 -0.11862882
0.02650234 -0.06841891 -0.0014690455 -0.039574753 -0.03374456 -0.11333105 -0.08979219 0.014605095
0.032450765 0.0064055054 0.097389795 0.04095389 -0.0760845 -0.08409928 0.00071173854 -0.048560742
0.06805677 0.13760893 -0.052320845 -0.035237953 0.033455677 -0.04699306 -0.0510376 0.017641488
0.007169598 0.108303934 0.0071823923 0.050338216 0.04931675 0.008110159 -0.0026417142 0.049550045
00000000: 2861 273e 6239 a6bd 0185 e8bd 83c9 71bc
00000010: f0f5 843c fc41 a6bb 7046 17be 690f 0ebe
00000020: 7800 923e 5958 dabe 73ce 8dbd ca19 a23e
00000030: 7707 f83e 93e7 413e 4791 4ebf 4a8b 23be
00000040: d80d 983e 1b0e 453f cfb0 23bc 45a7 b03e
00000050: 1dea b03e d1a9 ccbd 60da c03e 8e58 423d
00000060: eefb d0bd 07d9 2fbe 0461 e9bc 0105 013e
00000070: ace9 ffbd 5cfa 2bbd 3f1c b13d abf3 f2bd
00000080: 6f1b d93c 371f 8cbd fd8c c0ba 2319 22bd
00000090: bc37 0abd 1c1a e8bd f8e4 b7bd 354a 6f3c
000000a0: 18eb 043d 46e5 d13b 4d74 c73d 44bf 273d
000000b0: 31d2 9bbd 3e3c acbd f793 3a3a a1e7 46bd
000000c0: 5961 8b3d 5be9 0c3e 624e 56bd ac55 10bd
000000d0: d208 093d cb7b 40bd cd0c 51bd e284 903c
000000e0: f2ee ea3b 74ce dd3d 465a eb3b 722f 4e3d
000000f0: 5c00 4a3d 79e0 043c 9c20 2dbb fdf4 4a3d

h.0.mha.W_k.weight f4 [64, 64]
-0.14632766 -0.030155296 0.030961847 0.09571094 -0.075965345 0.10090494 0.049863387 0.18646675
-0.08471089 -0.05573222 0.013639602 -0.025618346 -0.00030761262 0.059559565 0.022960717 -0.053685527
-0.029092697 0.014093079 -0.004489426 -0.16502732 0.023158131 -0.05771359 -0.052186605 -0.009732227
0.013146206 -0.0061243903 0.0633386 0.1044087 0.010014813 -0.065001614 -0.088528015 -0.08936919
-0.06370914 -0.02537069 -0.13509455 0.021435283 -0.10354795 0.033416923 0.015620606 0.09774811
0.025429508 0.050187778 0.0983774 0.055165716 -0.009577803 -0.06421354 -0.078435965 0.007810958
-0.009781895 -0.0009317259 0.008353485 0.03346266 0.04244406 -0.08211326 -0.008511279 0.02448006
-0.07694518 -0.006242825 -0.047295753 -0.036596388 0.04987522 0.018596577 0.08499743 0.03082421
-0.017061915 0.07779199 -0.008389376 -0.04820663 0.009074197 -0.03215135 -0.059750326 0.05629569
0.0031023833 0.010969987 0.0013850962 -0.048293028 0.050144907 -0.02829137 0.06616764 0.08839383
0.0644278 0.062218767 -0.06666922 -0.0984789 -0.049751885 0.02234431 -0.107706286 -0.026217323
0.03742641 -0.07689597 0.120926015 0.06700139 0.049670525 -0.13219467 -0.09570715 -0.047994893
-0.014323673 0.032887813 -0.058009576 -0.01816778 0.077614665 0.11592746 0.043486882 0.015448454
-0.047775187 0.08755245 -0.06605762 0.006306424 -0.0077143167 -0.07461521 -0.0100819385 0.0849268
0.09830831 0.101400435 -0.064605206 -0.045834105 0.005399793 -0.09457512 -0.08390683 0.014779559
-0.011535732 -0.13451785 0.066531196 0.050078094 -0.11894391 0.05356214 -0.08180363 -0.045089863
-0.0580027 -0.011206089 0.010952701 -0.019488674 0.07029292 0.034526136 0.033292655 0.016487332
0.02724344 0.022091387 0.06701803 -0.022751657 -0.06330275 0.021039598 0.022644266 -0.07733436
-0.07241902 -0.057683468 -0.09734405 -0.055429857 -0.1465114 -0.0017240316 -0.019852243 -0.055882677
0.020939978 -0.021535883 0.070047565 0.0078059956 -0.049629923 -0.048084553 0.10283707 -0.05110067
-0.062430527 0.0521141 -0.0026528693 0.03120651 -0.03187495 0.004670741 -0.008401144 0.034549866
-0.033925284 -0.0053689447 -0.13426061 -0.003946217 -0.030202594 -0.028890327 -0.12610406 0.03228873
0.023927793 0.059365362 0.044096265 -0.014391991 0.14077507 -0.018142587 0.03683849 0.027197966
-0.012288791 0.1026833 -0.00880038 -0.011927638 -0.05059348 0.060486287 -0.076018475 0.0677253
-0.08601084 -0.025345009 0.03422255 -0.027510114 -0.019157674 0.01795198 -0.019945052 0.03888781
-0.062094856 0.012128432 -0.015754152 -0.011490981 -0.039167408 -0.06311659 -0.013032239 -0.04994263
0.11066992 -0.0021318719 -0.16050854 0.0026536882 -0.050778728 -0.13237816 -0.15987523 0.041439693
0.049246334 -0.04341824 -0.014208939 -0.079321675 0.04036249 -0.019914668 -0.0047703017 -0.071944065
-0.1660468 0.08036288 -0.07906613 0.09471699 -0.011549216 0.062865615 -0.01809421 -0.026388267
0.17522413 -0.049955815 -0.036509603 -0.08569267 -0.036522225 0.008214481 -0.04214696 0.05214278
0.07664941 -0.035818595 -0.010322603 0.029561656 0.13402423 0.082049765 0.05360823 -0.03288027
-0.07361636 0.04064848 0.06958088 -0.13368055 0.044111334 -0.02797666 -0.025972461 0.015564172
00000000: ebd6 15be 3d08 f7bc b3a3 fd3c 1904 c43d
00000010: b893 9bbd 40a7 ce3d 8d3d 4c3d 24f1 3e3e
00000020: e77c adbd 7847 64bd a378 5f3c 91dd d1bc
00000030: 1147 a1b9 bbf4 733d 1d18 bc3c 5be5 5bbd
00000040: cf53 eebc a8e6 663c 091c 93bb ecfc 28be
00000050: 1fb6 bd3c 1665 6cbd 9fc1 55bd eb73 1fbc
00000060: 2f63 573c 1caf c8bb abb7 813d 3ad4 d53d
00000070: 2c15 243c 911f 85bd 2d4e b5bd 3207 b7bd
00000080: f079 82bd 31d6 cfbc 3a56 0abe 0c99 af3c
00000090: f310 d4bd 2fe0 083d 92ed 7f3c 2930 c83d
000000a0: 8b51 d03c b391 4d3d 177a c93d 72f5 613d
000000b0: 38ec 1cbc 6382 83bd 09a3 a0bd 11f3 ff3b
000000c0: 3e44 20bc 113f 74ba 0edd 083c 2410 093d
000000d0: d3d9 2d3d ff2a a8bd e472 0bbc 688a c83c
000000e0: 6f95 9dbd 9d90 ccbb 31b9 41bd 18e6 15bd
000000f0: f549 4c3d d957 983c 2213 ae3d 0e83 fc3c
00000100: 6ec5 8bbc 6851 9f3d 9873 09bc 5174 45bd
00000110: f1ab 143c 22b1 03bd c2bc 74bd 4f96 663d
00000120: 5b51 4b3b 76bb 333c 1e8c b53a e9ce 45bd
00000130: bf64 4d3d 4ec3 e7bc e682 873d d307 b53d
00000140: b9f2 833d 1bd9 7e3d df89 88bd 4eaf c9bd
00000150: a2c8 4bbd 6a0b b73c 1d95 dcbd b6c5 d6bc
00000160: 6f4c 193d a27b 9dbd 0fa8 f73d 0638 893d
00000170: 5273 4b3d 0a5e 07be 1c02 c4bd 4b96 44bd
00000180: d7ad 6abc 5fb5 063d 739b 6dbd 99d4 94bc
00000190: 70f4 9e3d 606b ed3d 4d1f 323d 831b 7d3c
000001a0: eaaf 43bd b34e b33d 3849 87bd 1ea6 ce3b
000001b0: 61c8 fcbb dccf 98bd b72e 25bc 1aee ad3d
000001c0: de55 c93d 08ab cf3d bc4f 84bd 8bbc 3bbd
000001d0: bff0 b03b 9ab0 c1bd 58d7 abbd f725 723c
000001e0: 5e00 3dbc 0cbf 09be 8241 883d b01e 4d3d
000001f0: dd98 f3bd f963 5b3d a988 a7bd 26b0 38bd
00000200: 3d94 6dbd be99 37bc f572 333c b6a6 9fbc
00000210: bcf5 8f3d 476b 0d3d e15d 083d 7110 873c
00000220: a22d df3c fff8 b43c c040 893d af61 babc
00000230: dfa4 81bd 3c5b ac3c 7880 b93c 7a61 9ebd
00000240: 6c50 94bd 8045 6cbd 515c c7bd 6b0a 63bd
00000250: 1607 16be e7f8 e1ba 2ca1 a2bc 3ce5 64bd
00000260: 518a ab3c 056c b0bc 1975 8f3d 70c9 ff3b
00000270: bf48 4bbd 4ff4 44bd 3e9c d23d f04e 51bd
00000280: 27b7 7fbd 9875 553d c3db 2dbb cba4 ff3c
00000290: 4f8f 02bd 040d 993b f4a4 09bc 2984 0d3d
000002a0: 3df5 0abd f9ed afbb 9d7b 09be 444f 81bb
000002b0: 6e6b f7bc 68ab ecbc 6c21 01be 3041 043d
000002c0: 3804 c43c 1829 733d 499e 343d 63cc 6bbc
000002d0: 5727 103e c39f 94bc f5e3 163d 45ce de3c
000002e0: ed56 49bc 9f4b d23d 782f 10bc 246c 43bc
000002f0: 1c3b 4fbd 78c0 773d 93af 9bbd 90b3 8a3d
00000300: 7426 b0bd 56a0 cfbc f22c 0c3d e45c e1bc
00000310: 8ef0 9cbc 0810 933c ce63 a3bc d348 1f3d
00000320: 2d57 7ebd 55b6 463c da0e 81bc ab44 3cbc
00000330: 016e 20bd 4543 81bd 2c85 55bc a590 4cbd
00000340: e9a6 e23d e0b6 0bbb 5a5c 24be 80e9 2d3b
00000350: 5bfd 4fbd 248e 07be 55b6 23be abbc 293d
00000360: 86b6 493d 53d7 31bd 9ccc 68bc 6773 a2bd
00000370: 2353 253d 1624 a3bc 3150 9cbb 6957 93bd
00000380: 2c08 2abe 4b95 a43d 6ced a1bd fbfa c13d
00000390: ec38 3dbc b0bf 803d 4f3a 94bc 352c d8bc
000003a0: f46d 333e 789e 4cbd 188b 15bd a37f afbd
000003b0: 5498 15bd 0896 063c 4aa2 2cbd ab93 553d
000003c0: 5efa 9c3d 85b6 12bd 2320 29bc 492b f23c
000003d0: a63d 093e b509 a83d 4e94 5b3d 76ad 06bd
000003e0: 2dc4 96bd 057f 263d 6c80 8e3d 8ee3 08be
000003f0: 16ae 343d 4f2f e5bc 33c4 d4bc de00 7f3c

h.0.mha.W_k.bias f4 [64]
0.1196226 -0.018153897 0.0560724 -0.054676034 -0.039439138 -0.09491559 -0.010343857 -0.0944529
-0.19844893 -0.36525825 0.23325837 -0.14979132 0.2496733 -0.5722338 0.677942 0.3102214
-0.68451107 -0.23861787 -0.34786925 0.15689144 -0.05388148 0.081559494 0.08630603 0.06873265
0.07281443 -0.037884783 0.2656438 -0.1885637 0.30192035 -0.25836492 0.033710305 -0.02780992
-0.056107793 0.123315655 -0.037777968 -0.02888967 0.0060341186 0.051043533 -0.25146028 0.016288964
-0.008127464 0.2334374 -0.22518809 0.054746475 0.2852311 -0.19388053 -0.06461515 -0.3968192
-0.08182565 0.19223021 0.014547618 -0.15504733 0.12488318 -0.12481114 0.17438862 0.07536271
0.013134139 -0.16303374 -0.17537291 -0.19715221 0.037152242 -0.028078984 -0.40646452 -0.14579727
00000000: b2fc f43d 7bb7 94bc 2cac 653d faf3 5fbd
00000010: ef8a 21bd 1b63 c2bd 4879 29bc 8670 c1bd
00000020: 3236 4bbe 2103 bbbe 48db 6e3e e562 19be
00000030: 5caa 7f3e ea7d 12bf 9b8d 2d3f 57d5 9e3e
00000040: 1e3c 2fbf 3e58 74be eb1b b2be 26a8 203e
00000050: d4b2 5cbd aa08 a73d 37c1 b03d b4c3 8c3d
00000060: bb1f 953d 132d 1bbd 7702 883e d816 41be
00000070: 4e95 9a3e 6848 84be d113 0a3d a1d1 e3bc
00000080: 49d1 65bd eb8c fc3d 12bd 1abd 07aa ecbc
00000090: dbb9 c53b 0613 513d 67bf 80be 6f70 853c
000000a0: 0e29 05bc 370a 6f3e b597 66be d73d 603d
000000b0: d009 923e 9e88 46be f354 84bd e32b cbbe
000000c0: 3594 a7bd ffd7 443e 2259 6e3c bac4 1ebe
000000d0: c1c2 ff3d fc9c ffbd ee92 323e c457 9a3d
000000e0: 9230 573c 51f2 26be f594 33be 45e2 49be
000000f0: f32c 183d e605 e6bc 1e1c d0be e14b 15be

h.0.mha.W_v.weight f4 [64, 64]
0.060498588 -0.18435417 0.05988667 0.26082528 -0.0031777278 0.017792132 0.09317641 -0.011324391
-0.023601715 -0.0014097687 0.059213374 0.033966895 -0.12435169 -0.083310105 0.021894744 -0.12720244
0.1501324 0.052623417 -0.0073301904 -0.11692038 0.13037814 0.14544341 -0.06382088 0.21151015
-0.05858861 0.03827662 0.07442947 -0.112467885 0.018675271 0.0030908706 0.112562634 -0.058428176
-0.1437758 0.007832469 -0.28936845 -0.16630752 -0.15026753 -0.04740723 0.07524311 0.016294561
-0.15833364 0.0392949 -0.012346194 0.04807787 -0.24665989 -0.00054076983 0.016720695 0.21382381
-0.01508465 -0.07087278 -0.044102352 0.05095819 0.10434608 0.22081248 -0.0606145 0.14908205
0.15516098 -0.017544799 0.09663826 -0.16023113 -0.08773759 -0.064505786 0.005720296 0.06555369
0.03245059 -0.02439532 0.10721463 -0.057187613 0.074929 0.029781023 0.38134754 0.11903144
0.21288224 -0.09929722 -0.020750916 0.054298565 0.13824397 -0.087813936 -0.008388001 0.24710615
0.052116856 -0.15890479 -0.13358623 0.1808211 0.043092348 -0.14983965 0.0062608947 0.06169723
0.23394473 0.26948714 -0.15531234 0.022257617 0.013715445 -0.07877522 -0.03871818 0.07405882
-0.024267402 0.035175305 -0.06069803 -0.06402577 -0.036157213 0.1989521 -0.13532352 -0.06997154
-0.06373941 0.03156092 -0.09878367 0.039287988 0.07400959 -0.066366166 -0.03472656 -0.063485116
0.05935778 -0.08623033 0.09310409 -0.16617505 -0.15296668 0.13675635 -0.18526341 -0.0787857
0.047174457 0.224953 -0.054586668 -0.073890276 -0.034778867 0.17746589 0.22270745 -0.054637264
0.066433564 0.050698962 0.025614917 0.0077363304 0.12630442 -0.049788605 -0.008898732 -0.06176036
-0.100893214 -0.008909687 -0.08171852 0.00459308 0.015231198 0.12858164 0.09806653 -0.12460564
0.035510965 -0.11322681 0.07672555 0.2222442 -0.043421526 0.057257146 -0.027238876 0.08637229
0.009668252 0.054015227 0.08620692 0.11219044 -0.12557091 0.08254993 -0.025604147 0.057802077
-0.17850696 0.16087364 0.031001873 -0.003611023 -0.06463147 0.057031516 -0.09158762 -0.13648331
0.069547415 -0.12853794 0.060689453 -0.05726888 -0.02519769 -0.1629532 0.033084407 0.11987887
-0.040735327 0.091395535 -0.12005916 -0.010213346 -0.08038984 0.11507678 0.015830416 -0.01928241
-0.03423934 -0.05158063 -0.022112088 0.05606891 0.027985182 0.070524275 -0.11541258 0.057306003
-0.021243533 -0.048453342 -0.09559338 0.046436746 0.015464361 0.24418962 -0.2554961 -0.02794832
-0.16146809 -0.0821235 0.029280195 -0.14236103 0.03082144 -0.1854663 -0.028616881 -0.04102906
-0.10616722 -0.11748167 -0.015112568 0.2135489 0.095621355 -0.07436848 0.0661492 0.17561531
0.006221243 -0.009542202 0.099708565 0.029258642 0.11120205 -0.05531498 -0.08521937 -0.18115708
-0.006983139 0.1495291 0.18745719 0.08435445 -0.08881596 0.1306058 -0.051564235 0.1616492
-0.16310276 0.23125994 0.113400124 0.018906264 -0.1478652 0.16973184 -0.071326286 0.020781545
0.08867475 -0.1571323 -0.033185616 0.09847028 -0.024187148 -0.08529886 0.020803658 -0.09360485
0.03481664 -0.02905363 -0.093043454 -0.009781145 -0.047272433 0.055406086 -0.24097796 -0.18143284
00000000: 5ecd 773d 57c7 3cbe ba4b 753d e48a 853e
00000010: 6d41 50bb cec0 913c 46d3 be3d f089 39bc
00000020: 6258 c1bc fdc7 b8ba b989 723d df20 0b3d
00000030: 19ac febd 7d9e aabd 9b5c b33c 5b41 02be
00000040: 4fbc 193e a78b 573d 1832 f0bb f473 efbd
00000050: d981 053e 1eef 143e 86b4 82bd 1e96 583e
00000060: 9cfa 6fbd f2c7 1c3d 7a6e 983d 9055 e6bd
00000070: e2fc 983c 3490 4a3b 3d87 e63d 6252 6fbd
00000080: f739 13be c253 003c 1a28 94be 854c 2abe
00000090: bbdf 19be 152e 42bd 0f19 9a3d 2c7c 853c
000000a0: 3722 22be b0f3 203d b147 4abc 4ded 443d
000000b0: 6994 7cbe 73c2 0dba d7f9 883c a1f4 5a3e
000000c0: 9c25 77bc c025 91bd aba4 34bd 89b9 503d
000000d0: 66b3 d53d ab1c 623e e946 78bd f7a8 183e
000000e0: 85e2 1e3e 1cba 8fbc 48ea c53d a113 24be
000000f0: c4af b3bd 9c1b 84bd 5271 bb3b 0341 863d
00000100: e9ea 043d b2d8 c7bc 5893 db3d 8f3d 6abd
00000110: 6074 993d 55f7 f33c fc3f c33e c1c6 f33d
00000120: cdfd 593e 575c cbbd d3fd a9bc 2c68 5e3d
00000130: d48f 0d3e cbd7 b3bd d36d 09bc 6509 7d3e
00000140: 7c78 553d f0b7 22be d4ca 08be 2b29 393e
00000150: 9a81 303d 916f 19be 3128 cd3b 3cb6 7c3d
00000160: 358f 6f3e 38fa 893e 330a 1fbe 9b55 b63c
00000170: bfb6 603c e754 a1bd f496 1ebd 27ac 973d
00000180: 6ecc c6bc fb13 103d 7f9e 78bd f11f 83bd
00000190: 9619 14bd 19ba 4b3e 4092 0abe 3d4d 8fbd
000001a0: cf89 82bd 0646 013d 184f cabd 71ec 203d
000001b0: 5792 973d fcea 87bd 703d 0ebd 7c04 82bd
000001c0: 2521 733d 8799 b0bd 5bad be3d cb29 2abe
000001d0: 4ca3 1cbe db09 0c3e b1b5 3dbe 665a a1bd
000001e0: 013a 413d 145a 663e 4596 5fbd c953 97bd
000001f0: 4974 0ebd 9eb9 353e 6c0d 643e 53cb 5fbd
00000200: 520e 883d b7a9 4f3d 60d6 d13c 0b81 fd3b
00000210: f255 013e 23ef 4bbd fdcb 11bc 6ef8 7cbd
00000220: 1aa1 cebd f0f9 11bc 0a5c a7bd 8c81 963b
00000230: 468c 793c e8aa 033e 1bd7 c83d 3e31 ffbd
00000240: f273 113d 75e3 e7bd 4922 9d3d fc93 633e
00000250: c5da 31bd 7886 6a3d 1024 dfbc f5e3 b03d
00000260: 9767 1e3c 123f 5d3d 418d b03d 1ac4 e53d
00000270: a995 00be f00f a93d cabf d1bc dfc1 6c3d
00000280: 87ca 36be 0fbc 243e a4f7 fd3c eaa6 6cbb
00000290: 815d 84bd e199 693d 4a92 bbbd 48c2 0bbe
000002a0: e06e 8e3d 739f 03be 8195 783d c692 6abd
000002b0: 636b cebc 34dd 26be 8483 073d 0e83 f53d
000002c0: 16da 26bd 952d bb3d 94e1 f5bd e155 27bc
000002d0: 6ea3 a4bd 60ad eb3d caae 813c 25f6 9dbc
000002e0: 8d3e 0cbd 3646 53bd 6924 b5bc 83a8 653d
000002f0: 2e41 e53c 086f 903d 6e5d ecbd b3b9 6a3d
00000300: eb06 aebc 0377 46bd 76c6 c3bd 7534 3e3d
00000310: 3b5e 7d3c d80c 7a3e 63d0 82be e0f3 e4bc
00000320: e457 25be 5e30 a8bd 05dd ef3c 17c7 11be
00000330: 3f7d fc3c e1ea 3dbe f36d eabc 160e 28bd
00000340: 336e d9bd 3b9a f0bd b49a 77bc 90ac 5a3e
00000350: 21d5 c33d 804e 98bd 3b79 873d 80d4 333e
00000360: 92db cb3b e556 1cbc 0134 cc3d d2af ef3c
00000370: e6bd e33d f691 62bd 7e87 aebd 3e81 39be
00000380: d1d2 e4bb 281e 193e c7f4 3f3e 07c2 ac3d
00000390: 24e5 b5bd 87bd 053e 0535 53bd 5e87 253e
000003a0: 6904 27be 68cf 6c3e 533e e83d 4fe1 9a3c
000003b0: fa69 17be 2fce 2d3e 8413 92bd 0f3e aa3c
000003c0: 1b9b b53d 4ae7 20be a4ed 07bd c9aa c93d
000003d0: 2024 c6bc 2bb1 aebd 6f6c aa3c e6b3 bfbd
000003e0: e59b 0e3d e101 eebc 918d bebd 1841 20bc
000003f0: bda0 41bd 7ef1 623d edc2 76be 88c9 39be

h.0.mha.W_v.bias f4 [64]
0.05270229 -0.008446982 -0.07298172 0.0321873 0.06418596 -0.034361716 0.096753664 0.0034630653
-0.081693985 0.058573235 0.049693935 -0.030675123 0.07027995 -0.0058107995 -0.026449885 -0.123943776
-0.042722095 -0.029273814 -0.027306098 0.07690004 -0.039242838 0.017497323 0.09016953 0.027436942
0.097477965 -0.024381747 0.04647459 0.03234571 0.008314517 -0.060381956 -0.11517569 -0.087506056
-0.060146924 -0.08369411 0.09814823 0.07436323 0.026574766 0.06539955 -0.095191225 -0.062040906
0.01258071 0.041226488 -0.024667492 -0.074774824 0.022097034 -0.12489581 -0.046427466 -0.08018703
0.054171335 0.042956885 0.058683265 -0.017060678 -0.07675213 -0.020187447 -0.101493716 0.07750901
-0.07756125 -0.08551666 0.055681873 0.06028671 -0.08400288 -0.014719895 0.083388716 0.040747695
00000000: 5bde 573d 3665 0abc 7177 95bd d5d6 033d
00000010: ee73 833d dfbe 0cbd c926 c63d 98f4 623b
00000020: 2d4f a7bd 7dea 6f3d de8b 4b3d 654a fbbc
00000030: efee 8f3d 8568 bebb 6ead d8bc 3cd6 fdbd
00000040: 5dfd 2ebd a3cf efbc 0ab1 dfbc c57d 9d3d
00000050: 19bd 20bd 8c56 8f3c cdaa b83d 70c3 e03c
00000060: 87a2 c73d 3bbc c7bc 245c 3e3d ef7c 043d
00000070: 9d39 083c 1253 77bd 3be1 ebbd 6036 b3bd
00000080: 9f5c 76bd d167 abbd f001 c93d c04b 983d
00000090: 53b3 d93c 33f0 853d 9ef3 c2bd 9b1e 7ebd
000000a0: 531f 4e3c 1bdd 283d 7b13 cabc 8b23 99bd
000000b0: d704 b53c 60c9 ffbd ba2a 3ebd 1939 a4bd
000000c0: c3e2 5d3d 8ff3 2f3d dd5d 703d d6c2 8bbc
000000d0: 3930 9dbd 2560 a5bc f0db cfbd 0bbd 9e3d
000000e0: 6fd8 9ebd 5c23 afbd ad12 643d 32ef 763d
000000f0: b409 acbd b72b 71bc b4c7 aa3d 0ee7 263d

h.0.mha.W_o.weight f4 [64, 64]
-0.08159567 -0.041100267 -0.012597501 0.13297695 -0.017071258 0.0040831803 -0.086911626 -0.0038626813
0.0155457435 -0.087653406 -0.020673955 -0.058263693 -0.05916384 0.15635937 0.18461977 -0.09398868
0.052764617 -0.0285669 0.031098908 0.17829642 0.17168339 -0.020459322 -0.17422006 0.17167877
0.017976487 -0.1355128 0.06912371 -0.11491563 0.0016831956 0.03892047 0.030772576 -0.09401221
0.02118185 0.023223868 -0.20905021 0.19425647 0.07148038 -0.015356157 0.05250217 -0.03034868
-0.016660754 0.05644042 0.081967555 0.16413145 -0.14993745 -0.049541593 -0.034420233 0.07387662
-0.16924576 -0.00078648276 0.003529342 0.059612807 0.01920826 -0.019221941 0.101922296 -0.005349063
-0.057487715 -0.11579825 0.015457158 -0.08519915 0.098036274 0.032330476 0.074875355 0.06553013
-0.052108005 0.34755167 0.035982836 -0.024019849 -0.0033047795 0.0024322253 -0.014501693 0.21575016
-0.029095097 -0.06884752 -0.16621827 -0.030207023 0.07222838 0.043255005 -0.10423339 0.025779122
0.045328926 0.08035776 0.096231595 -0.11296712 0.16008627 0.052094236 -0.09388486 -0.14603525
0.07285243 0.03334831 0.113922365 -0.1237305 -0.11164392 0.003685123 0.10163301 0.06333637
-0.09342519 0.14310957 -0.07324601 -0.008705813 0.077409655 -0.19749287 -0.21138127 -0.12728333
-0.006550683 0.2594134 -0.20274043 0.06936879 0.03202372 0.01380368 0.06858046 0.062326025
0.15234686 -0.007361309 0.0032023813 0.1146752 -0.057178747 0.002832935 0.09904599 -0.092872135
0.11272569 -0.080088824 -0.0425427 0.11517939 0.120641574 -0.109500915 -0.098598994 -0.15065219
-0.0032177533 0.04958789 0.03764607 -0.055404123 0.0011738046 -0.0660383 -0.1997536 -0.07049268
-0.019295799 0.1056567 0.062013377 0.22346082 -0.16134499 0.18927531 0.044900544 -0.08085416
-0.059694435 -0.1081271 -0.015058937 -0.22790149 0.032456417 0.11278233 -0.12558621 0.024880175
0.051972013 -0.07180371 -0.19119816 0.17616986 -0.042064052 0.028870435 -0.0046489295 -0.07804437
-0.11751588 -0.08956411 -0.0050718337 -0.06954621 -0.07361404 0.14166483 0.05433266 0.025599958
-0.16780661 9.503366e-05 0.05263937 0.17286235 0.027273422 0.113694 -0.05735999 -0.059424862
0.068362504 0.17344725 -0.17914495 -0.21746936 -0.05114163 -0.037053872 0.091702834 -0.107684314
0.12070261 0.068111405 0.011133726 -0.028592171 0.06550659 0.005207266 -0.06827327 -0.028707579
0.05240956 0.08118191 -0.121458136 0.0921489 0.14077477 0.010031118 0.11315962 0.09309894
-0.107860364 -0.0487098 0.019009927 -0.030594876 -0.25260133 -0.12681977 -0.016817607 -0.14453024
-0.27417168 0.002307437 0.10902051 -0.001620937 0.0712513 -0.0909144 -0.050012067 -0.11480087
-0.15820166 -0.061143976 -0.022152064 0.011590772 -0.024506388 -0.079722196 0.050279185 0.051300276
-0.13695133 0.062429816 -0.0063305493 -0.01068599 -0.019156188 -0.19501758 -0.023005689 0.32252687
0.2384274 -0.022094045 0.06621272 0.049126007 -0.04039335 -0.08346408 -0.026633726 0.061663873
0.11614297 -0.18680753 -0.22899054 0.085719146 -0.07624409 0.0047461693 0.095026985 0.04206535
0.096780695 -0.11821907 -0.08885609 0.06434636 0.0229776 -0.005967253 -0.10838593 0.08852921
00000000: a11b a7bd c158 28bd c065 4ebc 1c2b 083e
00000010: 06d9 8bbc 33cc 853b b9fe b1bd 0a25 7dbb
00000020: 93b3 7e3c a183 b3bd 6d5c a9bc e9a5 6ebd
00000030: c855 72bd ac1c 203e f70c 3d3e 237d c0bd
00000040: b61f 583d 2205 eabc 23c3 fe3c 5693 363e
00000050: c5cd 2f3e 4f9a a7bc be66 32be 8fcc 2f3e
00000060: 6d43 933c dec3 0abe bb90 8d3d e358 ebbd
00000070: ac9e dc3a 126b 1f3d c516 fc3c 7989 c0bd
00000080: 8f85 ad3c fb3f be3c 4211 56be 2beb 463e
00000090: 4e64 923d 6498 7bbc 840c 573d cc9d f8bc
000000a0: 227c 88bc 122e 673d 9bde a73d 1312 283e
000000b0: 3489 19be 20ec 4abd 3bfc 0cbd a04c 973d
000000c0: c34e 2dbe f72b 4eba 884c 673b 8f2c 743d
000000d0: a45a 9d3c 5577 9dbc a3bc d03d 3147 afbb
000000e0: 3d78 6bbd a227 edbd 0540 7d3c e47c aebd
000000f0: 3ec7 c83d f66c 043d 4058 993d a934 863d
00000100: 346f 55bd 4bf2 b13e bd62 133d 46c5 c4bc
00000110: 0095 58bb f865 1f3b 8298 6dbc 9ced 5c3e
00000120: d758 eebc eeff 8cbd 1f35 2abe b874 f7bc
00000130: 79ec 933d 292c 313d 5178 d5bd bd2e d33c
00000140: d3aa 393d 9c92 a43d 1215 c53d 4e5b e7bd
00000150: a8ed 233e c460 553d b546 c0bd 448a 15be
00000160: a833 953d 3d98 083d 2150 e93d 6b66 fdbd
00000170: 91a5 e4bd 1b82 713b f824 d03d 80b6 813d
00000180: b555 bfbd 518b 123e 0102 96bd d4a2 0ebc
00000190: f488 9e3d 923b 4abe 5574 58be 9056 02be
000001a0: 1da7 d6bb d5d1 843e 309b 4fbe 3911 8e3d
000001b0: 4e2b 033d d528 623c ea73 8c3d 9349 7f3d
000001c0: d100 1c3e 2337 f1bb 0bdf 513b d5da ea3d
000001d0: 4334 6abd c3a8 393b a0d8 ca3d bf33 bebd
000001e0: badc e63d 9c05 a4bd 4141 2ebd 2ce3 eb3d
000001f0: ee12 f73d 0442 e0bd 45ee c9bd 9144 1abe
00000200: f1e0 52bb ac1c 4b3d c432 1a3d 6fef 62bd
00000210: 59da 993a 173f 87bd 358c 4cbe 775e 90bd
00000220: 3912 9ebc 8a62 d83d bd01 7e3d ead2 643e
00000230: 9f37 25be 63d1 413e a2e9 373d de96 a5bd
00000240: 2782 74bd be71 ddbd c2b9 76bc 025f 69be
00000250: 05f1 043d 6cfa e63d ac99 00be 82d1 cb3c
00000260: 9be0 543d d30d 93bd 73c9 43be df65 343e
00000270: 5b4b 2cbd b181 ec3c 0c56 98bb bad5 9fbd
00000280: 2aac f0bd 636d b7bd a031 a6bb 3e6e 8ebd
00000290: f5c2 96bd 9610 113e ec8b 5e3d 01b7 d13c
000002a0: 7fd5 2bbe cf4c c738 619c 573d d402 313e
000002b0: 836c df3c 66d8 e83d 4ff2 6abd 7c67 73bd
000002c0: a401 8c3d 289c 313e c671 37be 4ab0 5ebe
000002d0: e379 51bd cdc5 17bd b2ce bb3d 9889 dcbd
000002e0: ee32 f73d fe7d 8b3d 3b6a 363c 213a eabc
000002f0: 5228 863d b7a1 aa3b dbd2 8bbd 282c ebbc
00000300: 68ab 563d b442 a63d 0bbf f8bd 90b8 bc3d
00000310: 4327 103e 8f59 243c 3bc0 e73d a8aa be3d
00000320: e5e5 dcbd ed83 47bd b5ba 9b3c 1ba2 fabc
00000330: f654 81be 0bdd 01be 14c5 89bc bcff 13be
00000340: 3b60 8cbe 5e38 173b 2546 df3d 9f75 d4ba
00000350: 34ec 913d 5431 babd 74d9 4cbd b81c ebbd
00000360: 9eff 21be 1b72 7abd 3f78 b5bc 39e7 3d3c
00000370: 9fc1 c8bc 6445 a3bd 8cf1 4d3d 3d20 523d
00000380: f83c 0cbe 68b6 7f3d 7f70 cfbb 4a14 2fbc
00000390: 70ed 9cbc b0b2 47be 6d76 bcbc 3e22 a53e
000003a0: 5026 743e 92fe b4bc 899a 873d 5a38 493d
000003b0: 7f73 25bd 37ef aabd f92e dabc 4293 7c3d
000003c0: 5edc ed3d 794a 3fbe 7f7c 6abe 858d af3d
000003d0: dd25 9cbd c185 9b3b 829d c23d b74c 2c3d
000003e0: f534 c63d d71c f2bd 2ffa b5bd 06c8 833d
000003f0: 853b bc3c f288 c3bb 71f9 ddbd cd4e b53d

h.0.mha.W_o.bias f4 [64]
-0.1334468 -0.031614065 0.12953897 0.0045844447 -0.07241184 0.14063106 0.12843183 -0.09319194
0.023531359 -0.09807836 0.0020957058 0.07271587 -0.041871633 0.008911759 -0.11432348 0.05958146
-0.018395465 -0.04536682 -0.07177771 0.024897087 -0.10335267 -0.06498428 -0.07823927 -0.03241277
0.014648268 -0.091315314 -0.022494672 0.11339487 -0.052463945 0.10731685 0.09629732 0.027867377
-0.060224824 -0.08142768 -0.13919885 0.12374105 0.08445016 0.16154882 -0.1060031 -0.02044426
-0.07695653 -0.10718956 0.037705332 0.05219286 -0.032348268 -0.039753478 -0.059265 0.0527904
0.10603081 0.0012073786 -0.14940846 0.06900192 -0.06795651 0.10457988 0.11111327 0.0088908
-0.03473865 -0.08030228 0.0059773745 -0.057077743 0.08354223 0.055396244 0.09895626 0.08465363
00000000: 47a6 08be c07d 01bd dda5 043e 1c39 963b
00000010: a94c 94bd 9701 103e a283 033e 6adb bebd
00000020: d6c4 c03c 4fdd c8bd 1c58 093b 0fec 943d
00000030: 9781 2bbd a002 123c 6e22 eabd b00b 743d
00000040: 16b2 96bc 8fd2 39bd 3100 93bd faf4 cb3c
00000050: 91aa d3bd 7a16 85bd e93b a0bd 41c3 04bd
00000060: 4aff 6f3c 8603 bbbd bf46 b8bc 923b e83d
00000070: 6fe4 56bd f0c8 db3d 8837 c53d 204a e43c
00000080: 4eae 76bd 8ec3 a6bd 258a 0ebe f36b fd3d
00000090: 35f4 ac3d 0e6d 253e 2718 d9bd b97a a7bc
000000a0: 639b 9dbd 3386 dbbd e870 1a3d 2ec8 553d
000000b0: 9e7f 04bd 8bd4 22bd dbbf 72bd bf3a 583d
000000c0: ae26 d93d e740 9e3a 88fe 18be e150 8d3d
000000d0: c82c 8bbd fa2d d63d 5b8f e33d b8aa 113c
000000e0: 1d4a 0ebd 8675 a4bd dadd c33b 5aca 69bd
000000f0: 3018 ab3d 2ce7 623d 94a9 ca3d e25e ad3d

h.0.ln_1.weight f4 [64]
0.9236043 0.8415736 0.98866576 0.8854865 0.7253323 0.8550869 0.8237699 0.96189016
0.87221384 0.84849447 0.8919943 0.8929528 0.840674 0.87333447 0.7536155 0.9386211
0.9311748 0.7911937 0.7942486 0.7364082 1.0118443 0.8348991 0.7486144 0.8706838
0.85092556 0.8238024 0.95857877 0.77491885 0.7828403 0.80858403 0.9466617 0.892057
0.7918868 0.85621196 0.8764875 0.9140391 0.81520224 0.96787953 0.9491447 0.8334739
0.6930559 0.9194882 0.87566817 0.89044404 0.9187882 0.8905895 0.986297 0.8589984
0.84168446 0.8825735 0.82397175 1.0197585 0.7913366 0.9504182 0.81311077 0.9624318
0.906866 0.7956894 0.9313783 0.8235494 0.7856129 0.8588661 0.95330346 0.8466671
00000000: 5571 6c3f 5e71 573f 3319 7d3f 3eaf 623f
00000010: 61af 393f fae6 5a3f 96e2 523f 6f3e 763f
00000020: 6849 5f3f ef36 593f bd59 643f 8e98 643f
00000030: 6936 573f d992 5f3f f2ec 403f 7949 703f
00000040: 7961 6e3f ac8b 4a3f e053 4b3f 3f85 3c3f
00000050: 1d84 813f f3bb 553f 31a5 3f3f 22e5 5e3f
00000060: 42d6 593f b7e4 523f 6b65 753f 1561 463f
00000070: 3968 483f 5dff 4e3f 6c58 723f d95d 643f
00000080: 18b9 4a3f b530 5b3f 7c61 603f 77fe 693f
00000090: 18b1 503f f4c6 773f 26fb 723f 8c5e 553f
000000a0: 1d6c 313f 9463 6b3f ca2b 603f 24f4 633f
000000b0: b435 6b3f acfd 633f f67d 7c3f 52e7 5b3f
000000c0: a278 573f 56f0 613f d0ef 523f 7287 823f
000000d0: 0995 4a3f 9b4e 733f 0728 503f ee61 763f
000000e0: 5f28 683f 4db2 4b3f cf6e 6e3f 22d4 523f
000000f0: ed1d 493f a6de 5b3f b20b 743f 2dbf 583f

h.0.ln_1.bias f4 [64]
0.010812895 -0.07499875 -0.012310376 7.651979e-05 -0.07008849 -0.0539277 0.0058232355 0.043787222
-0.0005493813 -0.0030001553 0.0216006 0.007886127 0.042653844 -0.06707944 -0.012929058 -0.073081546
0.02268785 0.03441684 0.049918696 0.019168466 -0.02106081 -0.020050304 0.06227609 0.0010212892
0.021521559 -0.06576434 0.00082493684 -0.0041455803 -0.060693834 -0.03914058 -0.015628152 -0.0093092
0.07293154 0.0587126 -0.003909435 -0.009125035 0.034994308 0.004120934 0.02137876 -0.027534232
0.006458521 0.08332477 -0.0034717815 0.02486427 -0.014693127 -0.0011156958 0.036969114 0.10909777
0.03268318 0.11545093 -0.05237775 0.029001366 0.02401651 -0.06618088 -0.0013033473 0.02193403
-0.021347579 0.018692674 0.042244237 -0.015146493 0.03509382 0.010498737 -0.022317601 0.015869046
00000000: 9228 313c f298 99bd 76b1 49bc 4079 a038
00000010: 8e8a 8fbd 4be3 5cbd d7d0 be3b 3b5a 333d
00000020: 5b04 10ba 419e 44bb bef3 b03c d034 013c
00000030: ccb5 2e3d f260 89bd 66d4 53bc c7ab 95bd
00000040: dfdb b93c acf8 0c3d 8c77 4c3d 3007 9d3c
00000050: b887 acbc 8940 a4bc 3715 7f3d c7dc 853a
00000060: fb4d b03c 74af 86bd 9340 583a a6d7 87bb
00000070: 199a 78bd df51 20bd 9c06 80bc 9d85 18bc
00000080: 225d 953d a07c 703d b81a 80bb 2c81 15bc
00000090: 3156 0f3d e608 873b 8222 af3c 788f e1bc
000000a0: 00a2 d33b 2da6 aa3d d486 63bb 27b0 cb3c
000000b0: 71bb 70bc 8a3c 92ba ed6c 173d a76e df3d
000000c0: ccde 053d 8a71 ec3d 0d8a 56bd 4694 ed3c
000000d0: 46be c43c d789 87bd 14d5 aaba ffae b33c
000000e0: 1ee1 aebc 6121 993c 4b08 2d3d ff28 78bc
000000f0: 8abe 0f3d e502 2c3c 67d3 b6bc cdff 813c

h.0.ln_2.weight f4 [64]
1.0 1.0 1.0 1.0 1.0 1.0 1.0 1.0
1.0 1.0 1.0 1.0 1.0 1.0 1.0 1.0
1.0 1.0 1.0 1.0 1.0 1.0 1.0 1.0
1.0 1.0 1.0 1.0 1.0 1.0 1.0 1.0
1.0 1.0 1.0 1.0 1.0 1.0 1.0 1.0
1.0 1.0 1.0 1.0 1.0 1.0 1.0 1.0
1.0 1.0 1.0 1.0 1.0 1.0 1.0 1.0
1.0 1.0 1.0 1.0 1.0 1.0 1.0 1.0
00000000: 0000 803f 0000 803f 0000 803f 0000 803f
00000010: 0000 803f 0000 803f 0000 803f 0000 803f
00000020: 0000 803f 0000 803f 0000 803f 0000 803f
00000030: 0000 803f 0000 803f 0000 803f 0000 803f
00000040: 0000 803f 0000 803f 0000 803f 0000 803f
00000050: 0000 803f 0000 803f 0000 803f 0000 803f
00000060: 0000 803f 0000 803f 0000 803f 0000 803f
00000070: 0000 803f 0000 803f 0000 803f 0000 803f
00000080: 0000 803f 0000 803f 0000 803f 0000 803f
00000090: 0000 803f 0000 803f 0000 803f 0000 803f
000000a0: 0000 803f 0000 803f 0000 803f 0000 803f
000000b0: 0000 803f 0000 803f 0000 803f 0000 803f
000000c0: 0000 803f 0000 803f 0000 803f 0000 803f
000000d0: 0000 803f 0000 803f 0000 803f 0000 803f
000000e0: 0000 803f 0000 803f 0000 803f 0000 803f
000000f0: 0000 803f 0000 803f 0000 803f 0000 803f

h.0.ln_2.bias f4 [64]
0.0 0.0 0.0 0.0 0.0 0.0 0.0 0.0
0.0 0.0 0.0 0.0 0.0 0.0 0.0 0.0
0.0 0.0 0.0 0.0 0.0 0.0 0.0 0.0
0.0 0.0 0.0 0.0 0.0 0.0 0.0 0.0
0.0 0.0 0.0 0.0 0.0 0.0 0.0 0.0
0.0 0.0 0.0 0.0 0.0 0.0 0.0 0.0
0.0 0.0 0.0 0.0 0.0 0.0 0.0 0.0
0.0 0.0 0.0 0.0 0.0 0.0 0.0 0.0
00000000: 0000 0000 0000 0000 0000 0000 0000 0000
00000010: 0000 0000 0000 0000 0000 0000 0000 0000
00000020: 0000 0000 0000 0000 0000 0000 0000 0000
00000030: 0000 0000 0000 0000 0000 0000 0000 0000
00000040: 0000 0000 0000 0000 0000 0000 0000 0000
00000050: 0000 0000 0000 0000 0000 0000 0000 0000
00000060: 0000 0000 0000 0000 0000 0000 0000 0000
00000070: 0000 0000 0000 0000 0000 0000 0000 0000
00000080: 0000 0000 0000 0000 0000 0000 0000 0000
00000090: 0000 0000 0000 0000 0000 0000 0000 0000
000000a0: 0000 0000 0000 0000 0000 0000 0000 0000
000000b0: 0000 0000 0000 0000 0000 0000 0000 0000
000000c0: 0000 0000 0000 0000 0000 0000 0000 0000
000000d0: 0000 0000 0000 0000 0000 0000 0000 0000
000000e0: 0000 0000 0000 0000 0000 0000 0000 0000
000000f0: 0000 0000 0000 0000 0000 0000 0000 0000

ln_f.weight f4 [64]
1.0 1.0 1.0 1.0 1.0 1.0 1.0 1.0
1.0 1.0 1.0 1.0 1.0 1.0 1.0 1.0
1.0 1.0 1.0 1.0 1.0 1.0 1.0 1.0
1.0 1.0 1.0 1.0 1.0 1.0 1.0 1.0
1.0 1.0 1.0 1.0 1.0 1.0 1.0 1.0
1.0 1.0 1.0 1.0 1.0 1.0 1.0 1.0
1.0 1.0 1.0 1.0 1.0 1.0 1.0 1.0
1.0 1.0 1.0 1.0 1.0 1.0 1.0 1.0
00000000: 0000 803f 0000 803f 0000 803f 0000 803f
00000010: 0000 803f 0000 803f 0000 803f 0000 803f
00000020: 0000 803f 0000 803f 0000 803f 0000 803f
00000030: 0000 803f 0000 803f 0000 803f 0000 803f
00000040: 0000 803f 0000 803f 0000 803f 0000 803f
00000050: 0000 803f 0000 803f 0000 803f 0000 803f
00000060: 0000 803f 0000 803f 0000 803f 0000 803f
00000070: 0000 803f 0000 803f 0000 803f 0000 803f
00000080: 0000 803f 0000 803f 0000 803f 0000 803f
00000090: 0000 803f 0000 803f 0000 803f 0000 803f
000000a0: 0000 803f 0000 803f 0000 803f 0000 803f
000000b0: 0000 803f 0000 803f 0000 803f 0000 803f
000000c0: 0000 803f 0000 803f 0000 803f 0000 803f
000000d0: 0000 803f 0000 803f 0000 803f 0000 803f
000000e0: 0000 803f 0000 803f 0000 803f 0000 803f
000000f0: 0000 803f 0000 803f 0000 803f 0000 803f

ln_f.bias f4 [64]
0.0 0.0 0.0 0.0 0.0 0.0 0.0 0.0
0.0 0.0 0.0 0.0 0.0 0.0 0.0 0.0
0.0 0.0 0.0 0.0 0.0 0.0 0.0 0.0
0.0 0.0 0.0 0.0 0.0 0.0 0.0 0.0
0.0 0.0 0.0 0.0 0.0 0.0 0.0 0.0
0.0 0.0 0.0 0.0 0.0 0.0 0.0 0.0
0.0 0.0 0.0 0.0 0.0 0.0 0.0 0.0
0.0 0.0 0.0 0.0 0.0 0.0 0.0 0.0
00000000: 0000 0000 0000 0000 0000 0000 0000 0000
00000010: 0000 0000 0000 0000 0000 0000 0000 0000
00000020: 0000 0000 0000 0000 0000 0000 0000 0000
00000030: 0000 0000 0000 0000 0000 0000 0000 0000
00000040: 0000 0000 0000 0000 0000 0000 0000 0000
00000050: 0000 0000 0000 0000 0000 0000 0000 0000
00000060: 0000 0000 0000 0000 0000 0000 0000 0000
00000070: 0000 0000 0000 0000 0000 0000 0000 0000
00000080: 0000 0000 0000 0000 0000 0000 0000 0000
00000090: 0000 0000 0000 0000 0000 0000 0000 0000
000000a0: 0000 0000 0000 0000 0000 0000 0000 0000
000000b0: 0000 0000 0000 0000 0000 0000 0000 0000
000000c0: 0000 0000 0000 0000 0000 0000 0000 0000
000000d0: 0000 0000 0000 0000 0000 0000 0000 0000
000000e0: 0000 0000 0000 0000 0000 0000 0000 0000
000000f0: 0000 0000 0000 0000 0000 0000 0000 0000
