subspace-alignment/data/1_layer_32_vocab/ckpt_6820.pt (torch, 90637 bytes, 17 tensors)

embed.embed.weight f4 [32, 64]
0	0xbe2503c0	-0.16114712
1	0x3f0caa18	0.5494704
2	0x3f1747cc	0.5909393
3	0x3dfc3639	0.1231503
4	0xbd2b6d97	-0.04185256
5	0xbf1c1408	-0.60968065
6	0xbf8cd6ad	-1.1003014
7	0xbda5e330	-0.08099973
8	0xbed7d5d2	-0.4215532
9	0x3e42becd	0.19018097
10	0xbfc0bad4	-1.5057015
11	0x3ec08984	0.37604916
12	0xbe843086	-0.2581827
13	0xbf494539	-0.7862125
14	0x3f4d32bc	0.8015554
15	0x3c1b2c71	0.009471045
16	0x3e453508	0.19258511
17	0x3d256663	0.040380847
18	0x3f3c0d5c	0.73457885
19	0xbf1d83e7	-0.6152939
20	0xbf1015cb	-0.56283253
21	0x3fb90fec	1.4457984
22	0x3fac5b84	1.3465428
23	0xbf6b82c3	-0.919964
24	0xc005503a	-2.0830216
25	0x3faab401	1.3336183
26	0xbf599557	-0.849935
27	0x4003b1b7	2.0577219
28	0x3f4cc776	0.79991853
29	0x3f3b5948	0.7318311
30	0xbef29175	-0.473766
31	0x3f01daeb	0.5072467
32	0x3f5bc356	0.85844934
33	0xbf528943	-0.82240695
34	0x3e86cdad	0.26328793
35	0xbf6eda6f	-0.93302053
36	0xbf8af0bf	-1.085472
37	0x3f195833	0.59900206
38	0xbf5bb63d	-0.8582495
39	0x3f337e55	0.7011464
40	0xbfd7aee7	-1.6850251
41	0xbf6351ba	-0.8879658
42	0x3e4ac709	0.19802488
43	0x3f36715c	0.7126672
44	0x3f93cfac	1.1547751
45	0x3f3864b4	0.7202866
46	0xbeef9d58	-0.4679973
47	0xbf146182	-0.57961285
48	0xbf3b9ef7	-0.73289436
49	0xbfbb2958	-1.4621992
50	0xbe00c90c	-0.12576693
51	0xbe993cf9	-0.2992933
52	0x3eaa9053	0.33313236
53	0x3f89014f	1.0703524
54	0x3d70de68	0.058805853
55	0xbf6ce1da	-0.9253212
56	0x3ea8c1c4	0.3296033
57	0xbefe838a	-0.4970973
58	0xbf9ee312	-1.2413046
59	0xbfbe3966	-1.4861267
60	0x3ee9ac65	0.4563934
61	0xbe9b3d69	-0.3032029
62	0x3d2346c0	0.039862394
63	0x3f4e497c	0.8058088
64	0x3f130ebe	0.5744437
65	0xbf8eca9e	-1.1155584
66	0xbf858600	-1.0431519
67	0x3e19a104	0.15002829
68	0x3fe6d417	1.8033475
69	0xbf800594	-1.0001702
70	0xbe88ebe3	-0.26742467
71	0xbf0edc74	-0.55805135
72	0x3ea41579	0.32047632
73	0xbeabccd1	-0.335547
74	0x3da58693	0.080823086
75	0x3ee72931	0.45148614
76	0x3ebc5141	0.36780742
77	0x3eda0a29	0.42585877
78	0x3cbf6861	0.023365201
79	0x3f48249a	0.7818085
80	0x3f90b824	1.1306195
81	0xbf03c845	-0.5147746
82	0x3f819fb0	1.0126858
83	0x3ea486b1	0.3213401
84	0x3e6c52f6	0.23078522
85	0xbed1b2c6	-0.40956706
86	0x3fc59345	1.5435568
87	0x3ee3e419	0.44509962
88	0x3cd96bdf	0.026540695
89	0x3f5768d7	0.8414435
90	0xbfa59b61	-1.2938043
91	0x3ee5557e	0.44791788
92	0xbff1d3d8	-1.8892775
93	0x3ff8096f	1.9377879
94	0x3e9aef34	0.30260623
95	0xbf8ba8a4	-1.091084
96	0xbfa05f8a	-1.2529156
97	0xbfa355fc	-1.2760615
98	0x3f02d4a9	0.51105744
99	0x3bb03301	0.005377174
100	0x3f6002a3	0.87504023
101	0x3f4e0a6e	0.80484664
102	0x3f8bfc12	1.0936301
103	0x3e68eb69	0.22746052
104	0xbf9c4b5a	-1.2210495
105	0xbe2d58be	-0.16928384
106	0x3f741b5b	0.9535424
107	0x3ee7dbc0	0.45284843
108	0xbef0cd0b	-0.47031435
109	0xbe1956d7	-0.14974533
110	0xbfac192e	-1.3445184
111	0xbfa7ef3c	-1.3119884
112	0xbe8a9dce	-0.2707352
113	0xbdbb3cfe	-0.09142493
114	0x3f8bd8e3	1.0925564
115	0x3d3a186a	0.04543344
116	0xbf3cc502	-0.7373811
117	0x3e080e88	0.13286793
118	0x3ea05146	0.31312007
119	0xbf7b6ef9	-0.98216206
120	0x3dba0edb	0.09084865
121	0xbf6b17a2	-0.91832936
122	0xbeb3c729	-0.35112885
123	0xbe1a1078	-0.15045345
124	0x3ed5d5e0	0.41764736
125	0xc00f3ba3	-2.238015
126	0xbf5c718b	-0.8611075
127	0x3ee90132	0.45508724
128	0x3f4d8bb4	0.80291295
129	0x3f56ee6e	0.83957565
130	0xbec748e2	-0.38922793
131	0xbe6c5ff6	-0.23083481
132	0xbe2cd0fa	-0.16876593
133	0x3f31d64a	0.69467604
134	0xbf0d02bf	-0.55082315
135	0xbfbca4a0	-1.473774
136	0x3e9eea41	0.31038097
137	0xbf6495d4	-0.8929112
138	0x3ea673f0	0.32510328
139	0xbebd0a11	-0.36921743
140	0xbf26e142	-0.65187466
141	0x3f4e1855	0.8050588
142	0x3e8f3b84	0.27975094
143	0x3ebaa236	0.36451882
144	0xbf320997	-0.6954588
145	0xbf5344eb	-0.82527035
146	0xbfdcdb9a	-1.7254517
147	0xbf2f5dd1	-0.6850253
148	0x3e362a89	0.17789663
149	0x3f93defc	1.1552424
150	0xbf67694d	-0.9039505
151	0xbf0de177	-0.5542216
152	0x3eaf1250	0.3419366
153	0x3ed0347d	0.40665045
154	0xbf170ea3	-0.5900671
155	0x3e450214	0.19239074
156	0xbf85ee03	-1.046326
157	0x3fc3d8c6	1.5300529
158	0x3f93555e	1.1510427
159	0x3ed12e28	0.40855527
160	0xbf591c37	-0.8480868
161	0x3eded670	0.43522978
162	0x3e9f4bfa	0.31112653
163	0x3f8d47b7	1.1037511
164	0xbf849e03	-1.0360721
165	0xbfbc799f	-1.4724616
166	0xbed392f7	-0.41323063
167	0x4019f2b9	2.4054396
168	0xbf1666c9	-0.5875059
169	0xbf71205b	-0.94189996
170	0x3d0be83c	0.034157023
171	0x3d8b41de	0.067996725
172	0xbcab55e2	-0.020914976
173	0xbf52c3a6	-0.82329786
174	0x3f50ce83	0.8156511
175	0xbe57f5e4	-0.21089894
176	0xbe63a957	-0.22232567
177	0xbf905bc6	-1.1278007
178	0x4002c21f	2.0430982
179	0xbd2db540	-0.04240918
180	0x3e43e809	0.19131483
181	0xbefd84d3	-0.495154
182	0xbfcbcf01	-1.5922548
183	0xbeec7020	-0.46179295
184	0x3f2c2ebe	0.6725882
185	0xbda82bdf	-0.08211493
186	0xbf16ce3a	-0.58908427
187	0x3f615fee	0.88037
188	0xc010a3d3	-2.259999
189	0x3ef83822	0.48480326
190	0x3e8624ca	0.26199943
191	0x3e9681a4	0.29395783
192	0xbf9a0746	-1.203347
193	0x3f835dce	1.0263002
194	0x3d9fc5c3	0.07801392
195	0xbde5198e	-0.11186515
196	0xbfbd4906	-1.478791
197	0xbed8e718	-0.4236381
198	0x3fa9e1f5	1.3272082
199	0x3ed9f572	0.42570072
200	0xbf9d82c7	-1.2305535
201	0xbf9b0a6d	-1.2112557
202	0xbfe7870b	-1.8088087
203	0xbe7e1a75	-0.2481478
204	0xc028a6f3	-2.6351898
205	0x4015a617	2.3382623
206	0xbf9abc03	-1.2088627
207	0x3edae6ff	0.4275436
208	0x3ebe8cb1	0.37216714
209	0xbe952883	-0.2913247
210	0x3f47e32b	0.78081006
211	0x3e936934	0.287912
212	0x3f436c4b	0.76337117
213	0xbf2945b6	-0.66121995
214	0xbfa75914	-1.307406
215	0x3f1b0b6a	0.6056429
216	0xbff7bb06	-1.935395
217	0x3fb15e05	1.3856817
218	0x3e159a43	0.14609627
219	0x3f148b15	0.5802472
220	0x3e8be00a	0.27319366
221	0xbe8f1d2b	-0.2795194
222	0xbea00081	-0.31250384
223	0x3f5c1d99	0.8598266
224	0x3f41c9ed	0.7569874
225	0x3f3378a4	0.7010596
226	0xbf3f1d53	-0.7465412
227	0xbf5a904f	-0.8537645
228	0xbc168a2b	-0.009188215
229	0xbf4b61c0	-0.7944603
230	0x3ecd9950	0.4015603
231	0x3fb231ec	1.3921485
232	0x3fd0ea16	1.6321437
233	0xbdae740f	-0.0851823
234	0xbf5c4398	-0.8604064
235	0x3f56780c	0.83776927
236	0x3f5ec657	0.8702139
237	0x3fd2562f	1.6432551
238	0x3f2bf5db	0.6717202
239	0x3f38958b	0.72103184
240	0x3f3a97d0	0.728879
241	0xbf3bd8d4	-0.7337773
242	0x3ee0e99c	0.4392823
243	0x3dbdba3d	0.09264038
244	0xbfb61403	-1.4224857
245	0x3f9048e4	1.1272244
246	0x3eb5821a	0.35450822
247	0xbf182e85	-0.59445983
248	0x3ec71ff9	0.3889158
249	0x3f91378c	1.1345077
250	0xc0379a24	-2.868783
251	0xbe86ac54	-0.2630335
252	0x3d824903	0.06361582
253	0xbf155bf9	-0.58343464
254	0xbf40678f	-0.7515802
255	0xbcc46e9e	-0.023978528

h.0.mha.W_q.weight f4 [64, 64]
0	0xbdbb5009	-0.09146125
1	0x3c76c450	0.015061453
2	0x3dbe5423	0.092933916
3	0x3de44577	0.11146062
4	0x3db04e71	0.086087115
5	0x3c5895ea	0.013219336
6	0xbda10913	-0.07863059
7	0x3ad39fb2	0.0016145615
8	0xbc0acca4	-0.008471642
9	0xbde26db2	-0.11056079
10	0xbdebbb65	-0.11510352
11	0x3c968e9a	0.018378545
12	0xbd3123c7	-0.04324701
13	0x3de61dca	0.112361506
14	0xbd859df9	-0.065242715
15	0xbdd31761	-0.103071935
16	0x3d36c9ef	0.044626173
17	0x3da00600	0.078136444
18	0xbd966405	-0.07343296
19	0x3d53f19d	0.051744092
20	0x3d91430e	0.07092868
21	0xbcd74311	-0.026277097
22	0x3dab8146	0.08374266
23	0xbd579294	-0.052630022
24	0x3dd0859d	0.10181735
25	0x3cf3c56c	0.029757224
26	0x3cc343c0	0.023836017
27	0x3d11ef93	0.035628866
28	0xbe00ce8f	-0.12578796
29	0xbd900d3e	-0.07033776
30	0xbdff3462	-0.12461163
31	0xbd7a90db	-0.0611733
32	0xbd21e730	-0.03952712
33	0xbc3b9b15	-0.011450549
34	0xbe014f53	-0.12627916
35	0xbdc9281c	-0.098221034
36	0x3d94fa70	0.0727433
37	0x3cb0bb2a	0.021573622
38	0xba9f150c	-0.001213701
39	0xbd29eea7	-0.041487362
40	0x3c7a01bf	0.015259205
41	0xbdeab954	-0.1146113
42	0x3d42a33f	0.047518965
43	0x3d2df0ed	0.042466093
44	0x3c8192b5	0.015817026
45	0xbd21dbdc	-0.039516315
46	0x3c70fe2c	0.014709037
47	0xbda6de31	-0.081478484
48	0x3d04318c	0.032273814
49	0x3c03092f	0.007997795
50	0xbc921ee2	-0.017836992
51	0x3db5b285	0.088719405
52	0xbd494da4	-0.04914631
53	0xbd8198c3	-0.06327965
54	0xbd02a060	-0.031891227
55	0xbd107625	-0.03526892
56	0x3d16e5f7	0.036840405
57	0xb7c71505	-2.3732437e-05
58	0x3c1e298a	0.009653458
59	0xbd6c5f88	-0.057708293
60	0xbdc555d9	-0.09635515
61	0x3db14e4e	0.086575136
62	0x3d135934	0.035973743
63	0x3d982dc1	0.07430602
64	0x3ca47478	0.020075068
65	0xbc6b8bf9	-0.014376634
66	0xbd4afdf5	-0.0495586
67	0x3d50990d	0.05092721
68	0xbd803699	-0.06260414
69	0xbdc4331b	-0.0958006
70	0xbd27d811	-0.04097754
71	0xbc471484	-0.012150887
72	0x3cbd6286	0.023118269
73	0xb99c7766	-0.00029843597
74	0xbde4661b	-0.111522876
75	0xbdb2a77e	-0.08723353
76	0xbd80f685	-0.0629702
77	0xbd0fbf21	-0.035094384
78	0xbbbff634	-0.005858207
79	0x3d65e1fc	0.05612372
80	0xbd7aba3a	-0.061212756
81	0xbcbe0c4a	-0.02319922
82	0x3cdcac45	0.026937613
83	0xbd6c46b4	-0.057684615
84	0x3d8da84a	0.06916864
85	0x3a0a9f27	0.0005287998
86	0xbd28349a	-0.04106579
87	0xbd09a401	-0.033603672
88	0x3ca4833a	0.020082105
89	0x3d1bda22	0.038049825
90	0xbdb3e403	-0.08783724
91	0xbd5bca28	-0.053659588
92	0x3db8d23e	0.090244755
93	0x3cce1e63	0.025160974
94	0xbdd558f9	-0.10417361
95	0xbd0ea6f3	-0.034827184
96	0xbca81fbd	-0.020522946
97	0xbcac54aa	-0.021036465
98	0xbc93a967	-0.018025113
99	0x3d94de26	0.07268934
100	0x3c91b6d5	0.017787376
101	0xbd34ad34	-0.044110492
102	0x3c30f55c	0.010800686
103	0x3cea1e72	0.02857897
104	0x3d7ee730	0.062232196
105	0xbd94ebb2	-0.07271518
106	0xbdb474dc	-0.08811352
107	0xbd712945	-0.05887725
108	0x3d36ca1e	0.044626348
109	0xbdb5c8cb	-0.08876189
110	0x3c2a2b73	0.010386336
111	0xbd145da7	-0.036222126
112	0xbd7b122a	-0.06129662
113	0x3bdc9338	0.006731417
114	0xbdad5674	-0.08463755
115	0xbb0c0dfa	-0.0021370635
116	0x3d11e8a4	0.035622254
117	0x3d94fd95	0.072749294
118	0xbd021c82	-0.03176547
119	0xbcff363c	-0.03115379
120	0xbd6fcf1c	-0.058547124
121	0xbcee2065	-0.029068181
122	0x3c842ff5	0.016136149
123	0xbd3ead1e	-0.046551816
124	0xbc57a0f2	-0.013160931
125	0x3d9dbbaf	0.077018134
126	0x3a826b1e	0.0009950136
127	0xbd78e4aa	-0.060764946
128	0xbdc73bb5	-0.09728185
129	0xbd8f8ded	-0.07009492
130	0xbde6adc5	-0.11263613
131	0xbc98dbb7	-0.018659456
132	0xbd3383cb	-0.04382686
133	0xbd535534	-0.051594928
134	0xbd8e5b01	-0.06950951
135	0xbda0ca58	-0.07851094
136	0xbe3bf1b7	-0.18353926
137	0xbd3f67d7	-0.04672989
138	0x3dacc2aa	0.08435567
139	0xbc603210	-0.013683811
140	0xbd103132	-0.035203166
141	0xbdb7bd97	-0.08971708
142	0xbdca8e0e	-0.09890376
143	0xbcc4a4b6	-0.024004322
144	0xbcf4ec2c	-0.029897772
145	0x3dd15241	0.10220767
146	0xbdd28f22	-0.10281207
147	0x3dc1bfba	0.09460397
148	0xbd73e01e	-0.059539907
149	0xbcbc0391	-0.02295092
150	0x3d7db4f5	0.061940152
151	0x39d27147	0.0004013872
152	0xbc50acc1	-0.0127365
153	0x3dbe63a7	0.09296351
154	0x3cad8d8c	0.021185659
155	0xbcf0741e	-0.029352244
156	0xbcc9fe1f	-0.024657307
157	0xbd13416f	-0.035951074
158	0x3d954008	0.072876036
159	0x3ceecd4d	0.02915063
160	0x3d8a665b	0.06757804
161	0x3c31bafa	0.010847801
162	0x3d0ef87c	0.034904942
163	0x3d2e8784	0.042609707
164	0xbcaa72b4	-0.020806648
165	0xbc9fefb3	-0.019523477
166	0xbd524e1f	-0.051344033
167	0xbd5ba14d	-0.053620625
168	0x3d8d401c	0.068969935
169	0xbcb780ef	-0.022400348
170	0xbd4f0061	-0.05053747
171	0x3cbbe4d9	0.022936272
172	0x3d0db291	0.034594122
173	0xbd9f617a	-0.07782264
174	0x3cc16faf	0.023612825
175	0xbc262639	-0.010140949
176	0xbda7404e	-0.08166562
177	0xbd85f62b	-0.065410934
178	0x3d44f187	0.0480819
179	0x3e22f419	0.15913428
180	0x3ca2f0f7	0.019890292
181	0x3c66e185	0.014091854
182	0x3dfb467b	0.122693025
183	0xbd1dc2f3	-0.038515996
184	0x3d56bfbc	0.052428946
185	0xbd9e0c06	-0.07717137
186	0xbd09e25b	-0.033663135
187	0x3b99c045	0.00469211
188	0x3d35a6e4	0.044348612
189	0xbd1ae883	-0.037819397
190	0x3d0ff685	0.03514721
191	0xbd26ea69	-0.040750895
192	0x3bca2a56	0.0061695976
193	0xbc9a4676	-0.018832427
194	0x3d9a07cb	0.07521018
195	0x3c2321fa	0.009956831
196	0xbced8139	-0.028992282
197	0xbddb43dd	-0.10706303
198	0xbd2a8601	-0.041631702
199	0xbd8ea5eb	-0.0696524
200	0x3d6e30b2	0.05815191
201	0xbc372c95	-0.011180063
202	0x3cdab066	0.026695441
203	0xbd9cdd56	-0.07659404
204	0xbd4c94fa	-0.049946763
205	0xbbc9d442	-0.0061593363
206	0x3deabde0	0.11461997
207	0x3c5630c2	0.013073148
208	0xbd60738c	-0.054797694
209	0xbd5903f6	-0.052982293
210	0xbd8ba214	-0.06818023
211	0x3cf7de95	0.030257503
212	0x3cc069fc	0.023488037
213	0xbd24f5d3	-0.0402735
214	0xbc4f33cc	-0.012646627
215	0xbd8500e2	-0.06494309
216	0xbc22c0d7	-0.009933672
217	0x3b2748bb	0.0025525528
218	0xbcd7d9b8	-0.026348934
219	0xbd1f05b5	-0.038823802
220	0xbb8f2418	-0.0043683164
221	0xbc6860ab	-0.014183204
222	0xbde6e7f6	-0.11274712
223	0xbd364288	-0.044497043
224	0xbb588daf	-0.0033043434
225	0x3d0a4d61	0.0337652
226	0x3d94f0d9	0.072725005
227	0xbdd5e9bb	-0.10444971
228	0x3d4fc036	0.050720416
229	0xbb824057	-0.003974955
230	0x3d6faf28	0.05851665
231	0x3c7c6a70	0.015406236
232	0xbc11cbe3	-0.008898708
233	0xbd7c7281	-0.061632637
234	0x3d4b91ed	0.049699713
235	0xbdc732e7	-0.09726506
236	0xbc7a406a	-0.015274147
237	0x3ccdbc98	0.025114343
238	0xbbb2ad29	-0.005452771
239	0xbd9f4e59	-0.077786155
240	0x3e005933	0.12534027
241	0x3c0581ea	0.00814865
242	0xbd287957	-0.041131344
243	0xbd9ff193	-0.078097485
244	0xbc74be1c	-0.014937904
245	0x3cafc23b	0.021454921
246	0xbc954f4b	-0.018226286
247	0x3d6b04f1	0.05737776
248	0xbc591d27	-0.013251579
249	0x3d6c7efd	0.057738293
250	0x3d9bda80	0.07610035
251	0xbd7a13b2	-0.06105394
252	0x3ca13d99	0.019682692
253	0xbd27b247	-0.040941503
254	0x3d7f0c30	0.062267482
255	0xbd7f1c94	-0.062283114

h.0.mha.W_q.bias f4 [64]
0	0x3e199198	0.14996946
1	0xbdb33f6d	-0.08752332
2	0xbdc9bdb0	-0.09850633
3	0x3b84f801	0.0040578847
4	0x3cc4a35f	0.024003683
5	0x3c7f0236	0.015564492
6	0xbe209208	-0.15680707
7	0xbe26cbe3	-0.16288714
8	0x3e915976	0.28388566
9	0xbed3a824	-0.4133922
10	0xbd89674d	-0.06709156
11	0x3e94ed6c	0.2908739
12	0x3ef432ee	0.47695106
13	0x3e4878ad	0.19577284
14	0xbf48daaf	-0.78458685
15	0xbe2c19a3	-0.16806655
16	0x3e963ee4	0.29344857
17	0x3f3d6301	0.7397919
18	0xbc0a969d	-0.008458761
19	0x3eae348a	0.3402446
20	0x3ea90ad2	0.33016068
21	0xbdc8b500	-0.09800148
22	0x3eb5de83	0.35521325
23	0x3cffd533	0.031229591
24	0xbdc994ee	-0.09842859
25	0xbe24da6b	-0.16098945
26	0xbcebd4d5	-0.02878801
27	0x3dfe3849	0.12413079
28	0xbdfc930c	-0.123327345
29	0xbd79861a	-0.060918905
30	0x3db1c2cc	0.08679733
31	0xbdf2804e	-0.118408784
32	0x3c802703	0.015643602
33	0xbd9f0373	-0.0776433
34	0xbc619b4a	-0.013769934
35	0xbcc823df	-0.024431167
36	0xbd587c6b	-0.05285303
37	0xbdf01fac	-0.11724791
38	0xbdc69225	-0.096958436
39	0x3c346c49	0.011012145
40	0x3cd9e8bd	0.026600236
41	0x3cd7a07d	0.026321644
42	0x3dbff9ee	0.09373842
43	0x3d5aab97	0.053386297
44	0xbd908e46	-0.070583865
45	0xbdadba61	-0.084828146
46	0x3c3426f1	0.0109956125
47	0xbd3aa510	-0.045567572
48	0x3d85b5a6	0.06528787
49	0x3e090611	0.1338122
50	0xbd5cd20a	-0.053911246
51	0xbcc489f5	-0.023991564
52	0x3cc22afb	0.023702135
53	0xbd4c21ca	-0.04983691
54	0xbd8c550b	-0.06852158
55	0x3c0261bc	0.007957872
56	0x3b93d387	0.0045113
57	0x3df81033	0.12112465
58	0x3bb82189	0.005619232
59	0x3d4a68c1	0.049416307
60	0x3c9aad8c	0.018881582
61	0xbadff44c	-0.0017086356
62	0xbc0d1053	-0.008609849
63	0x3d45abd6	0.04825958

h.0.mha.W_k.weight f4 [64, 64]
0	0xbe18c3b6	-0.14918408
1	0x3c2d728f	0.010586395
2	0x3ca019cd	0.019543553
3	0x3d92224a	0.07135446
4	0xbd92c8fa	-0.071672395
5	0x3e07fee1	0.13280822
6	0x3d980830	0.07423437
7	0x3dfb62ff	0.122747414
8	0xbdef0b72	-0.11672105
9	0xbd73c814	-0.05951698
10	0x3aaaa6f2	0.0013019724
11	0xbc1f6e7a	-0.0097309295
12	0x3d197b37	0.037471022
13	0x3d7109bb	0.05884717
14	0x3cd64d0d	0.026159788
15	0xbd4e1c27	-0.050319817
16	0xbcb6b33e	-0.022302266
17	0xbcf87077	-0.030327065
18	0xbc8c55e6	-0.017130803
19	0xbe365a19	-0.17807807
20	0x3c81a276	0.015824538
21	0xbdaedace	-0.085378274
22	0xbab008bf	-0.0013430341
23	0xbcc8374f	-0.024440436
24	0x3d23d4a6	0.03999772
25	0x3d0d0352	0.034426995
26	0x3d643be3	0.055721175
27	0x3d833c9f	0.06408047
28	0x3c6ace7e	0.014331458
29	0xbd3a78b7	-0.04552528
30	0xbcddc263	-0.02707023
31	0xbdb3fdd6	-0.0878865
32	0xbdd9fca1	-0.10643888
33	0xbd846652	-0.064648286
34	0xbdccce77	-0.100003175
35	0x3c9576e9	0.018245177
36	0xbd96530f	-0.07340061
37	0x3c03e38f	0.00804986
38	0x3ccd8323	0.025086945
39	0x3d69507e	0.05696153
40	0x3c5f68aa	0.013635794
41	0x3d9f9123	0.077913545
42	0x3db3ca90	0.0877887
43	0x3be3679f	0.006939843
44	0x3d45bd9e	0.048276536
45	0xbd8a03d0	-0.067390084
46	0xbd3c4e02	-0.04597283
47	0x3cd2a30a	0.025712509
48	0x3cc1126b	0.023568353
49	0x3b1d1939	0.0023971333
50	0xbc7faf8c	-0.0156058185
51	0x3c8fa7e7	0.017536117
52	0x3d70f952	0.05883152
53	0xbdc225c4	-0.094798595
54	0xbd3a2bcc	-0.045451924
55	0x3c582d8d	0.013194454
56	0xbd8d7c1c	-0.069084376
57	0xbd6f8cd7	-0.058483925
58	0xbd0e3b7b	-0.034724694
59	0xbc88c95a	-0.016697574
60	0x3d36137b	0.04445217
61	0x3cee5bca	0.029096503
62	0x3de998c5	0.114060916
63	0x3d30e522	0.043187268
64	0xbd59fcb3	-0.05321951
65	0x3dac72cf	0.084203355
66	0xbd26fe9c	-0.04077016
67	0xbd324e55	-0.043531734
68	0xbd2a499a	-0.0415741
69	0xbd5df1dc	-0.054185733
70	0xbd83c94f	-0.06434881
71	0x3da53107	0.08065992
72	0xbc57b085	-0.013164644
73	0xbc954d09	-0.01822521
74	0xbc344c84	-0.011004571
75	0xbd0c7788	-0.03429368
76	0x3d5273e3	0.05138005
77	0xbcd10d5c	-0.025519066
78	0x3d903a13	0.07042327
79	0x3da54002	0.08068849
80	0x3d3af359	0.04564223
81	0x3d18a15c	0.03726326
82	0xbdab5abb	-0.08366915
83	0xbd96c2a5	-0.07361344
84	0xbd4b5b5c	-0.049647674
85	0x3b8537c4	0.0040654857
86	0xbdb5712d	-0.08859477
87	0xbbb7f98b	-0.0056144646
88	0xbc4e220c	-0.01258136
89	0xbd314aa6	-0.04328408
90	0x3ddda4f4	0.10822478
91	0x3d8de3ae	0.06928192
92	0x3d79036e	0.060794286
93	0xbdaa4dc0	-0.08315611
94	0xbd7fbf7e	-0.06243848
95	0xbd10892f	-0.03528708
96	0xbd92f057	-0.071747474
97	0x3d07af48	0.033126146
98	0x3b0f9712	0.0021910113
99	0xbc9a89b1	-0.018864485
100	0x3d89c480	0.067269325
101	0x3dfec484	0.12439826
102	0x3da0dccf	0.07854616
103	0x3cd44469	0.025911527
104	0xbda16612	-0.078807965
105	0x3d774968	0.06037274
106	0xbd0cddf4	-0.03439136
107	0xbca2bdee	-0.019865956
108	0xbc3bf4f3	-0.011471975
109	0xbd85aa2d	-0.06526599
110	0xbc6ace91	-0.014331476
111	0x3d88bd02	0.066766754
112	0x3de7a66a	0.11311038
113	0x3de2e05c	0.110779494
114	0xbd87878c	-0.066176504
115	0xbd2bb171	-0.04191727
116	0x3b36fa1d	0.0027920075
117	0xbdd9eb39	-0.10640568
118	0xbe0c54d4	-0.13704234
119	0x3b07e5f4	0.0020736428
120	0x3ca6a361	0.020341577
121	0xbdbcc475	-0.09217159
122	0x3dc9aa06	0.098468825
123	0x3d978acc	0.0739952
124	0xbdbd3f3e	-0.09240578
125	0x3dace254	0.08441606
126	0xbd6e6696	-0.058203302
127	0xbd8adcb6	-0.067803785
128	0xbdb05731	-0.086103804
129	0xbc134e95	-0.008990903
130	0xbc5706b4	-0.013124157
131	0xbc914d8a	-0.017737169
132	0x3d9e0512	0.07715811
133	0x3c20f480	0.009823918
134	0x3cc9b5f2	0.024622891
135	0x3d516788	0.051124126
136	0x3c0c569c	0.008565571
137	0x3d08f781	0.033439163
138	0x3d5b21cf	0.05349904
139	0x3bbcdc93	0.005763599
140	0xbd310315	-0.04321583
141	0xbc4db1e3	-0.0125546185
142	0x3d2c3b0d	0.042048503
143	0xbd07b558	-0.033131927
144	0xbd0bfa68	-0.034174353
145	0xbd6b2078	-0.05740401
146	0xbdbfb352	-0.093603745
147	0xbc54da29	-0.012991467
148	0xbe1540ef	-0.14575551
149	0x3c3fc3de	0.011704413
150	0xbc2c1a57	-0.010504327
151	0xbc9d07f5	-0.019168833
152	0xbd014fdd	-0.031570304
153	0xbbfad23a	-0.0076544555
154	0x3d0e0418	0.034671873
155	0x3ca03957	0.019558592
156	0xbd7890b4	-0.060684875
157	0xbced25f3	-0.02894876
158	0x3d292433	0.041294288
159	0xbd9ca5ef	-0.07648837
160	0xbd6fe714	-0.058569983
161	0x3d132678	0.03592536
162	0x3d3bcbe0	0.045848727
163	0x3d573ef4	0.05255027
164	0xbd34d6bf	-0.04415011
165	0x3cc1628d	0.023606563
166	0x3c963af9	0.018338667
167	0x3d69e613	0.05710418
168	0xbd122061	-0.03567541
169	0xbba3f5d8	-0.005003672
170	0xbde4a88a	-0.11164959
171	0x3cd3a430	0.025835127
172	0xbd384c76	-0.044994794
173	0x3c02d71b	0.007985855
174	0xbe1448fa	-0.14480963
175	0x3c303138	0.010753922
176	0xbb846b21	-0.004041091
177	0x3d79a9a5	0.0609528
178	0x3cfd081f	0.030887662
179	0xbd0791a5	-0.03309788
180	0x3da02908	0.07820326
181	0xbd397886	-0.045280956
182	0x3da7d9d9	0.08195848
183	0x3cd4ab7c	0.025960676
184	0xbcbb923e	-0.022896882
185	0x3e0c1c67	0.1368271
186	0xbc412029	-0.011787453
187	0xbc3d975e	-0.011571733
188	0xbd52ebfe	-0.05149459
189	0x3d7b10be	0.061295263
190	0xbdd4e981	-0.103961
191	0x3cf91142	0.030403737
192	0xbd97c4d3	-0.07410588
193	0xbd375101	-0.044754986
194	0x3c7a3870	0.015272245
195	0xbbeaa40f	-0.0071606706
196	0xbd129186	-0.035783313
197	0xbd05f77d	-0.032706726
198	0xbcb01b48	-0.021497384
199	0x3d735c32	0.059414096
200	0xbbd3839e	-0.006454899
201	0xbc40de54	-0.011771757
202	0xbd90bbd8	-0.07067078
203	0xbda08913	-0.07838645
204	0x3d078260	0.03308332
205	0xbcd544d7	-0.026033802
206	0x3bd0c3c1	0.006370992
207	0xbd832095	-0.06402699
208	0x3d9fe85e	0.078079924
209	0x3cb537d5	0.02212135
210	0xbdeed477	-0.11661618
211	0x3d12f910	0.035882056
212	0xbd66c965	-0.05634441
213	0xbdffc0cd	-0.12487946
214	0xbe04c916	-0.12967333
215	0x3d949c59	0.072563834
216	0x3d324a3a	0.04352782
217	0xbcfe833b	-0.031068435
218	0xbd34f193	-0.044175696
219	0xbd8c2a9c	-0.068440646
220	0x3af53eb2	0.0018710701
221	0xbb9f6999	-0.004864883
222	0xbd22ff0e	-0.03979402
223	0xbd3b1288	-0.04567197
224	0xbe1626c4	-0.14663225
225	0x3d9bcb70	0.07607162
226	0xbd4308e7	-0.04761591
227	0x3cfb6fd6	0.030692976
228	0xbd841147	-0.06448608
229	0x3d735582	0.05940772
230	0x3c1705e4	0.009217713
231	0x3b224573	0.0024760633
232	0x3e30d6b0	0.17269397
233	0xbdb708e0	-0.0893724
234	0xbc169bca	-0.009192416
235	0xbdae316a	-0.08505519
236	0xbd141a1f	-0.036157724
237	0x3cf30ffd	0.02967071
238	0xbd76623b	-0.060152274
239	0x3d33fe02	0.043943413
240	0x3d4f4f80	0.050612926
241	0xbd11d174	-0.03560014
242	0x3abf00bb	0.0014572361
243	0xbbcccb90	-0.0062498525
244	0x3dd05dcf	0.101741426
245	0x3d646068	0.055756003
246	0x3cf4e35e	0.029893573
247	0xbd96397f	-0.07335185
248	0xbb4be6f1	-0.0031112994
249	0x3cf9a845	0.030475745
250	0x3d5c3fbc	0.05377172
251	0xbe0e385e	-0.1388869
252	0x3df600b6	0.12011854
253	0x3b6b22f9	0.0035879
254	0xbd1589c2	-0.03650833
255	0x3d1283c6	0.0357702

h.0.mha.W_k.bias f4 [64]
0	0x3de94457	0.11389988
1	0xbc2e1675	-0.010625471
2	0x3d2e1b35	0.042506415
3	0xbd9927b2	-0.074782744
4	0xbd8832e5	-0.06650332
5	0xbdb10001	-0.08642579
6	0x3b0c14f1	0.0021374787
7	0xbdc7a88b	-0.09748944
8	0xbe466bb0	-0.19377017
9	0xbeb24001	-0.34814456
10	0x3e73f162	0.23822549
11	0xbe0b017f	-0.1357479
12	0x3e756c64	0.23967129
13	0xbf0fdd26	-0.5619682
14	0x3f2629b3	0.6490738
15	0x3e9af965	0.30268398
16	0xbf2b244a	-0.6685225
17	0xbe7560a0	-0.23962641
18	0xbeb1780b	-0.34661898
19	0x3e0c9c63	0.13731532
20	0xbd811567	-0.0630291
21	0x3dddea82	0.108357444
22	0x3da6cbe9	0.081443615
23	0x3dc4b99a	0.09605713
24	0x3dbb7879	0.09153838
25	0xbce7de5a	-0.028304268
26	0x3e6cb6b3	0.23116569
27	0xbe50db2a	-0.20396104
28	0x3e98afdc	0.2982167
29	0xbe951c80	-0.29123306
30	0x3c9020d0	0.017593771
31	0x3c6cb1dd	0.014446703
32	0xbbe17822	-0.006880776
33	0x3dbd574c	0.09245166
34	0xb9155bf0	-0.00014243997
35	0xbbe08e60	-0.00685291
36	0x3d71ce5f	0.0590347
37	0x3d75e082	0.06002856
38	0xbe801a42	-0.25020033
39	0x3c3f6ac2	0.011683168
40	0xbcdf8d83	-0.027289158
41	0x3e556720	0.2084012
42	0xbe589ad3	-0.21152811
43	0x3d87acb8	0.0662474
44	0x3e729383	0.23689084
45	0xbe47ecde	-0.19523951
46	0xbdbfaf4f	-0.09359609
47	0xbebca594	-0.36845076
48	0xbdcda715	-0.10041634
49	0x3e157857	0.14596687
50	0xbc3a5828	-0.011373557
51	0xbe070f0f	-0.13189338
52	0x3de722c9	0.112859316
53	0xbe1b75ef	-0.15181707
54	0x3df88048	0.12133843
55	0x3d7602ae	0.06006115
56	0xbd07dfd1	-0.033172432
57	0xbe2603b9	-0.16212358
58	0xbe114bce	-0.14189073
59	0xbe57e2cb	-0.21082608
60	0x3d2aa498	0.041660875
61	0xbd364a88	-0.044504672
62	0xbedc7bb9	-0.43063143
63	0xbdc2fdfc	-0.095211

h.0.mha.W_v.weight f4 [64, 64]
0	0x3d61a0b8	0.055084914
1	0xbe32e5c2	-0.17470458
2	0x3d6e01a6	0.05810704
3	0x3e758a59	0.23978557
4	0x3be5a825	0.00700857
5	0x3d30581c	0.043052778
6	0x3db6409f	0.08899044
7	0xbbdc6f54	-0.0067271385
8	0xbcf5d195	-0.030007163
9	0xbc06392b	-0.008192341
10	0x3d6a1717	0.057150926
11	0x3c5e414a	0.013565371
12	0xbde617cf	-0.1123501
13	0xbdb63bde	-0.088981375
14	0x3b97d532	0.004633569
15	0xbdf932ee	-0.12167917
16	0x3e1b1844	0.15145975
17	0x3d36f89d	0.04467069
18	0xbc21c87f	-0.009874462
19	0xbdda7a82	-0.10667898
20	0x3dfbede1	0.12301231
21	0x3e0560b0	0.13025165
22	0xbd8f2a08	-0.06990439
23	0x3e4f32dc	0.20234245
24	0xbd70f45a	-0.05882678
25	0x3d1fdc41	0.03902841
26	0x3d9c712f	0.076387756
27	0xbde3034a	-0.11084612
28	0x3cf06a0d	0.029347444
29	0xbb16234c	-0.0022909222
30	0x3de0e8e1	0.10981918
31	0xbd752e7c	-0.059858784
32	0xbe19cdf4	-0.15019971
33	0x3c83e95c	0.016102485
34	0xbe85a960	-0.26105785
35	0xbe27f0af	-0.16400407
36	0xbe17d146	-0.14825925
37	0xbd2bfc45	-0.04198863
38	0x3d9115cc	0.070842355
39	0x3c65aa9e	0.014017729
40	0xbe1e9bbe	-0.15489098
41	0x3d170197	0.03686675
42	0xbc242f33	-0.010021019
43	0x3d178996	0.036996447
44	0xbe6d427f	-0.23169897
45	0xb98c492e	-0.00026757404
46	0x3c92f93b	0.017941108
47	0x3e4fd6e5	0.2029682
48	0x3c2c58ed	0.010519248
49	0xbd834cd4	-0.06411138
50	0xbd41f100	-0.047348976
51	0x3d487739	0.048941825
52	0x3de54424	0.111946374
53	0x3e52ec48	0.20597947
54	0xbd2bcfb1	-0.041946117
55	0x3e1992cd	0.14997406
56	0x3e0eebd0	0.13957143
57	0xbc844da4	-0.016150303
58	0x3dd400d4	0.103517205
59	0xbe1ea58b	-0.15492837
60	0xbd948395	-0.0725166
61	0xbd73167f	-0.059347626
62	0xba290d35	-0.00064488064
63	0x3d39aae8	0.045329005
64	0x3caff68d	0.02147987
65	0xbcbd1e29	-0.02308567
66	0x3dc65db9	0.09685845
67	0xbd4d9302	-0.050189026
68	0x3da19b29	0.078909226
69	0x3cd83c82	0.02639604
70	0x3eb974bb	0.3622187
71	0x3dd620bd	0.10455463
72	0x3e4ac7e3	0.19802813
73	0xbdbe169f	-0.092816584
74	0xbcde92c8	-0.0271696
75	0x3d8ff2aa	0.07028706
76	0x3e16020e	0.14649221
77	0xbda77b9d	-0.08177874
78	0x3c6f47bd	0.014604506
79	0x3e77c92d	0.24197836
80	0x3d88846d	0.06665883
81	0xbe29394d	-0.16525765
82	0xbdf0fd3b	-0.1176705
83	0x3e351725	0.1768461
84	0x3d28fa75	0.04125448
85	0xbe05345e	-0.13008258
86	0x3c133472	0.008984672
87	0x3d2b7922	0.041863568
88	0x3e64119e	0.22272345
89	0x3e918a2f	0.28425738
90	0xbe2a46f7	-0.16628633
91	0x3d163623	0.036672723
92	0x3bec1a51	0.0072052856
93	0xbd8459b0	-0.06462419
94	0xbd28380a	-0.041069068
95	0x3d9fc86f	0.078019015
96	0xbca80905	-0.020512113
97	0x3c9e4181	0.019318344
98	0xbd208c4b	-0.039196294
99	0xbd7fe7af	-0.06247681
100	0xbd150b0e	-0.036387496
101	0x3e4490dd	0.19195886
102	0xbe0464d3	-0.12929086
103	0xbd84d993	-0.064868115
104	0xbda1c330	-0.07898557
105	0x3cdf6f4d	0.027274752
106	0xbddef317	-0.108862095
107	0x3d4cc0a5	0.049988408
108	0x3da6f64f	0.081524484
109	0xbd8cc5e4	-0.06873682
110	0xbd1a4c20	-0.037670255
111	0xbd56e7e0	-0.052467227
112	0x3d8d2bfb	0.06893154
113	0xbde1ac96	-0.11019246
114	0x3dc5b4a0	0.09653592
115	0xbe2bfa55	-0.16794713
116	0xbe182831	-0.14859082
117	0x3e13bd75	0.14427741
118	0xbe4bc4b7	-0.1989926
119	0xbdb49dc7	-0.08819156
120	0x3d3598fa	0.044335343
121	0x3e465d64	0.19371563
122	0xbd8230ea	-0.06356986
123	0xbda6d7c3	-0.08146622
124	0xbd1ce761	-0.038306598
125	0x3e2d645a	0.16932812
126	0x3e48a289	0.19593252
127	0xbd0996a3	-0.033590924
128	0x3d40641d	0.046970475
129	0x3d5fe704	0.054663673
130	0x3d40e1e8	0.04709044
131	0x3a3d9804	0.000723243
132	0x3e002c21	0.12516834
133	0xbd16a729	-0.03678051
134	0xbcb71873	-0.022350525
135	0xbdaf41b6	-0.08557455
136	0xbdc4e9aa	-0.096148804
137	0xbc3ee7b1	-0.011651919
138	0xbdc31eaa	-0.09527333
139	0x3bdda6f2	0.006764286
140	0x3ca13765	0.019679734
141	0x3df809c0	0.12111235
142	0x3dde39a6	0.10850839
143	0xbe0a8979	-0.13529004
144	0x3d2696c7	0.040671136
145	0xbdc31221	-0.09524942
146	0x3d6a6287	0.05722287
147	0x3e5a1a15	0.21299012
148	0xbd833414	-0.064064175
149	0x3d95ec43	0.07320454
150	0xbccd3de4	-0.025053926
151	0x3dba99ac	0.09111342
152	0xbb6ad88e	-0.0035834643
153	0x3d7f53bf	0.062335726
154	0x3daa558c	0.08317098
155	0x3df1b6ba	0.118024305
156	0xbdf17b7d	-0.11791132
157	0x3db1dddb	0.08684894
158	0xbd0c6c72	-0.03428311
159	0x3da7add6	0.081874534
160	0xbe1e7bf3	-0.1547697
161	0x3e26130b	0.16218202
162	0x3d0e1e11	0.034696642
163	0xbc4a05fe	-0.01233053
164	0xbda834cf	-0.082131974
165	0x3d4e516a	0.05037061
166	0xbdec91f0	-0.11551273
167	0xbdf9f0bf	-0.12204122
168	0x3d7a4990	0.06110531
169	0xbdfbe8d2	-0.12300266
170	0x3d77a23b	0.06045745
171	0xbd281f7d	-0.041045655
172	0xbd0bf217	-0.03416642
173	0xbe26145a	-0.16218701
174	0x3cddc55d	0.02707165
175	0x3df6730b	0.120336615
176	0xbd266d1e	-0.040631406
177	0x3daab3fe	0.08335112
178	0xbe05d62b	-0.1306998
179	0xbc5ef005	-0.01360703
180	0xbdadcc53	-0.084862374
181	0x3de4478a	0.111464575
182	0x3cc53e12	0.024077449
183	0xbc81895b	-0.015812567
184	0xbc38cff4	-0.011280049
185	0xbd5bed43	-0.053693067
186	0xbce76a8b	-0.028249046
187	0x3d5b07cb	0.05347423
188	0x3cbf2a69	0.023335652
189	0x3db97008	0.090545714
190	0xbdd10891	-0.10206712
191	0x3d7dadb7	0.061933246
192	0xbd16dc0c	-0.036830947
193	0xbd27fa9a	-0.041010477
194	0xbd9afc44	-0.07567647
195	0x3d0ee69d	0.0348879
196	0x3c63dcb2	0.013907598
197	0x3e84156d	0.25797597
198	0xbe71a693	-0.235987
199	0xbcf05adf	-0.029340206
200	0xbe2879eb	-0.16452758
201	0xbda8aeff	-0.08236503
202	0x3cbeb00c	0.023277305
203	0xbe0a77ad	-0.13522215
204	0x3ce8a8ca	0.028400797
205	0xbe4579a9	-0.19284691
206	0xbd140ee2	-0.036147006
207	0xbd544ef7	-0.05183312
208	0xbdbf9855	-0.09355227
209	0xbde7e69a	-0.11323281
210	0xbd24e411	-0.040256564
211	0x3e56b720	0.20968294
212	0x3db0aacd	0.08626328
213	0xbd8ed296	-0.0697376
214	0x3d8730b3	0.066010855
215	0x3e2976ab	0.16549174
216	0xbb92e3fa	-0.0044827433
217	0x3b305399	0.0026905297
218	0x3dcf9b44	0.101370364
219	0x3cf4dcdf	0.029890476
220	0x3ded0dd5	0.11574904
221	0xbd71b589	-0.059011016
222	0xbdab3915	-0.08360497
223	0xbe217e7e	-0.15770909
224	0x384abd8a	4.8337075e-05
225	0x3e134e2d	0.1438529
226	0x3e41403b	0.18872158
227	0x3d96af43	0.07357647
228	0xbdbcd931	-0.092211135
229	0x3e167b05	0.14695366
230	0xbd4801ac	-0.04882972
231	0x3e27c64d	0.1638424
232	0xbe24b3f9	-0.16084279
233	0x3e65edcc	0.22453994
234	0x3dccb0cd	0.099946596
235	0x3ca91f26	0.020644736
236	0xbe20af90	-0.15691972
237	0x3e206eca	0.15667263
238	0xbd9c71b3	-0.07638874
239	0x3c70a8ca	0.01468868
240	0x3dd91ae1	0.1060083
241	0xbe12fcc3	-0.14354233
242	0xbd27d61b	-0.04097567
243	0x3db72af7	0.08943742
244	0xbd2602cd	-0.040530015
245	0xbda9139b	-0.082556926
246	0x3c935102	0.017982963
247	0xbdd1f4e1	-0.10251785
248	0x3d3a56dd	0.045492996
249	0xbc36abd5	-0.011149366
250	0xbdcf0e2b	-0.10110124
251	0xbca91ce3	-0.020643657
252	0xbd0bdd1c	-0.034146413
253	0x3d934ea1	0.07192732
254	0xbe616ce3	-0.22014193
255	0xbe3875c6	-0.18013677

h.0.mha.W_v.bias f4 [64]
0	0x3d48ca60	0.049021125
1	0xbb9ae7db	-0.0047273464
2	0xbd8b4ca5	-0.06801728
3	0x3d114aa0	0.03547156
4	0x3d8ae88d	0.06782637
5	0xbcc40d7e	-0.023932215
6	0x3dc50f9f	0.0962212
7	0x3b3f7566	0.0029214262
8	0xbdb624f8	-0.0889377
9	0x3d6c24af	0.05765217
10	0x3d3c9a67	0.046045687
11	0xbcfc6350	-0.030809075
12	0x3d85060c	0.06495294
13	0xbbae71b5	-0.0053236135
14	0xbcb6d3e7	-0.02231784
15	0xbdf69c50	-0.12041533
16	0xbd20e805	-0.03928377
17	0xbd011778	-0.031516522
18	0xbcf54c32	-0.02994356
19	0x3d9ca3f0	0.07648456
20	0xbd1579e6	-0.036493205
21	0x3c487809	0.01223565
22	0x3db959fa	0.09050365
23	0x3cafe89a	0.021473218
24	0x3dd5fd63	0.1044872
25	0xbc98444c	-0.018587254
26	0x3d5dec5f	0.0541805
27	0x3cf8c328	0.030366495
28	0x3c4acbea	0.012377718
29	0xbd6965cc	-0.056981847
30	0xbdf1cb38	-0.11806339
31	0xbdbd35ef	-0.09238803
32	0xbd6c6c4b	-0.057720464
33	0xbdaceb81	-0.08443356
34	0x3dd42023	0.10357692
35	0x3da6958a	0.08133991
36	0x3cfaf2f2	0.030633423
37	0x3d82f534	0.06394425
38	0xbdbc2877	-0.091874056
39	0xbd830d89	-0.06399066
40	0x3c77573d	0.015096483
41	0x3d321df5	0.0434856
42	0xbcbb6487	-0.022875084
43	0xbd8cf424	-0.06882504
44	0x3cbe1e92	0.023207936
45	0xbdf7b4e1	-0.12095047
46	0xbd2ea326	-0.04263606
47	0xbdb6ea22	-0.08931376
48	0x3d505d3a	0.050870158
49	0x3d1d32c0	0.038378477
50	0x3d60c5e1	0.054876212
51	0xbcc9f281	-0.024651768
52	0xbda48377	-0.080328874
53	0xbc89b5ba	-0.016810287
54	0xbdc98c0d	-0.09841166
55	0x3d9997ff	0.07499694
56	0xbd9f8520	-0.077890635
57	0xbda72260	-0.081608534
58	0x3d592932	0.053017803
59	0x3d82c807	0.063858084
60	0xbdae5a24	-0.08513287
61	0xbc27d0da	-0.010242665
62	0x3da8e6a3	0.082471155
63	0x3d343a55	0.044000942

h.0.mha.W_o.weight f4 [64, 64]
0	0xbd9a8be6	-0.07546215
1	0xbd5bd7d2	-0.05367262
2	0xbb9472a5	-0.0045302683
3	0x3ddbdf6b	0.10735973
4	0xbcd26f1f	-0.025687752
5	0x3cb07997	0.021542354
6	0xbdc92a8d	-0.09822569
7	0xbbe792dd	-0.007067068
8	0xbb68e3a6	-0.003553608
9	0xbdc49a55	-0.09599749
10	0xbcf81c1d	-0.030286843
11	0xbd2fd5a4	-0.042928353
12	0xbd80553d	-0.06266258
13	0x3e26a2b7	0.16273008
14	0x3e33da72	0.17563799
15	0xbd9e1d23	-0.07720401
16	0x3d53ec68	0.051739126
17	0xbcf4a248	-0.029862538
18	0x3cfdac6f	0.030966012
19	0x3e1e3176	0.15448555
20	0x3e304239	0.17212762
21	0xbcfc312b	-0.030785164
22	0xbe368ea0	-0.17827845
23	0x3e33fc87	0.175768
24	0x3c7f375c	0.015577164
25	0xbdf995b7	-0.12186759
26	0x3d82d66f	0.06388556
27	0xbe01697e	-0.12637898
28	0x3c81267a	0.015765417
29	0x3d1eb539	0.038747046
30	0x3d11773a	0.035514094
31	0xbdd45ebe	-0.10369633
32	0x3c66a5a9	0.014077582
33	0x3c91fcac	0.017820679
34	0xbe5753fd	-0.21028133
35	0x3e4d4e63	0.20049433
36	0x3d8da4b6	0.06916182
37	0xbc14e6cc	-0.009088229
38	0x3d001cd9	0.03127751
39	0xbd16ef08	-0.03684905
40	0x3a2f33f5	0.00066834624
41	0x3d88ddee	0.06682955
42	0x3db0e27c	0.086369485
43	0x3e243b8d	0.16038342
44	0xbe143230	-0.1447227
45	0xbd6f839f	-0.058475133
46	0xbcf10a7e	-0.029423948
47	0x3d1ef9f1	0.03881258
48	0xbe175bab	-0.14781062
49	0x3b5b8ceb	0.0033500742
50	0xbcb6031c	-0.02221828
51	0x3d3ed71a	0.046591856
52	0x398831ac	0.0002597695
53	0xbca7e56b	-0.020495137
54	0x3ddd41c8	0.108035624
55	0xbd0dc739	-0.03461382
56	0xbd9a01f3	-0.07519903
57	0xbdbafa81	-0.09129811
58	0x3cc51481	0.024057629
59	0xbdbde707	-0.092725806
60	0x3dc619c3	0.096728824
61	0x3cd42c6d	0.02590009
62	0x3d61f2d9	0.05516324
63	0x3d8bbde8	0.06823331
64	0xbd89bd97	-0.067256145
65	0x3ea204d8	0.3164432
66	0x3cca83e7	0.024721099
67	0xbd295ab9	-0.041346285
68	0x3c08fee4	0.008361552
69	0x3c0cfac6	0.008604711
70	0xbcd5276d	-0.026019776
71	0x3e460e9f	0.19341515
72	0xbcd3ed21	-0.025869908
73	0xbcfbfa4e	-0.030759003
74	0xbe0e5bff	-0.13902281
75	0xbd1bf743	-0.038077604
76	0x3d918fe6	0.071075246
77	0x3d5e9f83	0.05435134
78	0xbe02f8e5	-0.12790258
79	0x3cdd8426	0.027040552
80	0x3d75d42d	0.0600168
81	0x3d8f164b	0.06986674
82	0x3de594bd	0.1121001
83	0xbe0b2c93	-0.13591222
84	0x3e227729	0.15865768
85	0x3d5db3b0	0.05412644
86	0xbdc203a2	-0.09473349
87	0xbe169ae8	-0.1470753
88	0x3d8fe01d	0.07025168
89	0x3c94bb70	0.018155783
90	0x3da349e5	0.07973079
91	0xbdf51160	-0.11966205
92	0xbdfc51e7	-0.12320309
93	0x3b3ec5ac	0.002910952
94	0x3daf85aa	0.08570416
95	0x3d3c2f33	0.04594345
96	0xbd93610e	-0.07196246
97	0x3dd02cf5	0.10164825
98	0xbc880366	-0.016603183
99	0x3a2f06b0	0.0006676717
100	0x3d907cfe	0.0705509
101	0xbe2393bb	-0.15974323
102	0xbe5b263e	-0.21401307
103	0xbdfc5c2d	-0.12322269
104	0xbcbd8903	-0.023136621
105	0x3e9470a3	0.28992185
106	0xbe2351ea	-0.15949216
107	0x3d3e4636	0.046453677
108	0x3cda0921	0.026615681
109	0x3d065a76	0.032801114
110	0x3dc89f90	0.09796059
111	0x3cc588de	0.024113115
112	0x3e0af060	0.13568258
113	0xba84da03	-0.0010135773
114	0xbc6c2e7b	-0.014415379
115	0x3dbf1657	0.09330433
116	0xbd798df7	-0.060926404
117	0xbd04270a	-0.032263793
118	0x3de4fc0b	0.11180886
119	0xbdedb383	-0.11606505
120	0x3da4479d	0.08021472
121	0xbdc03677	-0.09385388
122	0xbd36ecaa	-0.044659294
123	0x3dfde0b9	0.12396378
124	0x3e0135a1	0.12618114
125	0xbde4520b	-0.11148461
126	0xbdcb8b03	-0.09938624
127	0xbe0692cc	-0.13141936
128	0xbc939491	-0.018015178
129	0x3d3c7cc1	0.046017412
130	0x3d2129a0	0.039346337
131	0xbd4dcda5	-0.050244946
132	0x3bfd1f71	0.0077246954
133	0xbdb810ff	-0.08987617
134	0xbe3e1d30	-0.18565822
135	0xbd95921d	-0.073032595
136	0xbbfe1c2d	-0.0077548237
137	0x3db1687c	0.08662507
138	0x3d233788	0.03984788
139	0x3e5793ce	0.21052477
140	0xbe18f269	-0.14936222
141	0x3e22ca70	0.15897536
142	0x3d64d56a	0.05586759
143	0xbdd37146	-0.103243396
144	0xbd2011ae	-0.03907936
145	0xbdd1667c	-0.102246255
146	0xbd24af25	-0.040206093
147	0xbe5b4add	-0.21415277
148	0x3d07b3d4	0.03313048
149	0x3de3ac24	0.111168176
150	0xbdef248b	-0.11676892
151	0x3ceab4f8	0.028650746
152	0x3d2604a6	0.040531777
153	0xbd9b40c6	-0.07580714
154	0xbe514f34	-0.2044037
155	0x3e296b0c	0.16544741
156	0xbcbc2507	-0.022966875
157	0x3d055d36	0.032559596
158	0xbbb3adb7	-0.005483355
159	0xbd9734b7	-0.073831014
160	0xbdc7b7db	-0.097518645
161	0xbdac3aa4	-0.08409622
162	0xbcd5327e	-0.026025053
163	0xbd55910e	-0.052140288
164	0xbd8a8065	-0.067627706
165	0x3e0309ff	0.12796782
166	0x3d5a7386	0.053332828
167	0x3d178de9	0.03700057
168	0xbe21fa5b	-0.1581816
169	0xbc57800b	-0.013153086
170	0x3d48de89	0.04904035
171	0x3e3048ff	0.17215346
172	0x3c8a10f3	0.016853785
173	0x3dad46c2	0.084607616
174	0xbd417970	-0.047234952
175	0xbd0f515d	-0.034989703
176	0x3d8c7332	0.06857909
177	0x3e163e2b	0.14672153
178	0xbe28fb4a	-0.16502109
179	0xbe59eb60	-0.21281195
180	0xbd8eccb1	-0.069726355
181	0xbd218d05	-0.039441127
182	0x3dba7a67	0.09105378
183	0xbdcc7322	-0.09982897
184	0x3dfa7688	0.12229639
185	0x3da59c0a	0.08086403
186	0xbc46182f	-0.012090727
187	0xbd51165a	-0.051046707
188	0x3dad400e	0.08459483
189	0x3beb8474	0.0071874205
190	0xbd885930	-0.06657636
191	0xbcbd3d70	-0.023100585
192	0x3d2b9efc	0.041899666
193	0x3d9a5368	0.0753544
194	0xbe08cf95	-0.13360436
195	0x3dabc9f9	0.083881326
196	0x3e01fb20	0.12693453
197	0x3c9954c1	0.018717172
198	0x3df6a20e	0.12042628
199	0x3dd2ae44	0.10287145
200	0xbddb24ad	-0.10700355
201	0xbd91b393	-0.07114329
202	0x3c8b525c	0.017007045
203	0xbd0f2af4	-0.034953073
204	0xbe799b0a	-0.24375549
205	0xbdebebef	-0.1151961
206	0xbc28ccde	-0.01030275
207	0xbe0ca67e	-0.13735387
208	0xbe7b9535	-0.24568637
209	0xba0b483b	-0.00053131924
210	0x3db0b5ee	0.0862845
211	0x3c8b603f	0.017013667
212	0x3d7dde30	0.061979473
213	0xbdbccc9c	-0.09218714
214	0xbc899f57	-0.016799612
215	0xbdddedaa	-0.108363464
216	0xbe0e5c77	-0.1390246
217	0xbd92a6b5	-0.07160703
218	0xbcd4f058	-0.025993511
219	0xbc89bd47	-0.016813887
220	0xbcd2367c	-0.025660746
221	0xbd956411	-0.07294477
222	0x3d4d37ba	0.050101973
223	0x3d833321	0.064062364
224	0xbde9479b	-0.11390611
225	0x3d8cf973	0.06883516
226	0x3a6aaea0	0.0008952413
227	0x3c83d9d4	0.01609508
228	0xbcaab4d3	-0.020838177
229	0xbe480c94	-0.19536048
230	0xbcdaebe2	-0.026723806
231	0x3eab5470	0.33462858
232	0x3e658e57	0.2241758
233	0xbd100644	-0.035162225
234	0x3d458fc0	0.048232794
235	0x3d84984b	0.0647436
236	0xbd37774e	-0.044791512
237	0xbdbf7963	-0.093493246
238	0xbcb65d2c	-0.022261225
239	0x3d586e73	0.052839708
240	0x3de85dce	0.11346017
241	0xbe43c18c	-0.19116801
242	0xbe52070a	-0.20510498
243	0x3ddf68a2	0.10908629
244	0xbd89d8a3	-0.06730773
245	0xbb4de308	-0.0031415839
246	0x3db25456	0.08707492
247	0x3d201fff	0.039093014
248	0x3db82414	0.08991256
249	0xbdcc63d2	-0.09979977
250	0xbdb5a36a	-0.088690594
251	0x3d547bc8	0.05187586
252	0x3c9916af	0.018687574
253	0xbc5b2200	-0.013374805
254	0xbdb213f4	-0.08695212
255	0x3ddab0a6	0.10678224

h.0.mha.W_o.bias f4 [64]
0	0xbe18d8b5	-0.14926417
1	0xbcee1b65	-0.029065797
2	0x3e10136e	0.14069912
3	0xbb0c7881	-0.002143413
4	0xbdaf7f22	-0.085691705
5	0x3e18c718	0.14919698
6	0x3e1c0323	0.15235572
7	0xbdd9da9b	-0.10637399
8	0x3ce68520	0.02813965
9	0xbde7955f	-0.11307787
10	0x399dede5	0.0003012262
11	0x3db72fef	0.089446895
12	0xbd46302d	-0.048385788
13	0x3c81eccd	0.015859986
14	0xbdf1d4c5	-0.11808161
15	0x3d831e2f	0.064022414
16	0xbc5cd059	-0.013477408
17	0xbd8188f9	-0.063249536
18	0xbda80caf	-0.08205544
19	0x3d0ec732	0.034857936
20	0xbde9cbdb	-0.114158355
21	0xbda03d0b	-0.07824143
22	0xbda2e888	-0.07954508
23	0xbcf0d8d9	-0.029400276
24	0x3c272507	0.010201699
25	0xbdc49aea	-0.0959986
26	0xbd04298f	-0.032266196
27	0x3e006895	0.12539895
28	0xbd5477ac	-0.05187194
29	0x3df72fe1	0.12069679
30	0x3deebe96	0.11657445
31	0x3d0ad546	0.0338948
32	0xbd8709f8	-0.06593698
33	0xbdce9778	-0.10087484
34	0xbe1490d7	-0.14508377
35	0x3e0149fc	0.12625879
36	0x3dc22103	0.09478953
37	0x3e3f4af5	0.18680938
38	0xbde1456b	-0.109995686
39	0xbc872ce8	-0.016500905
40	0xbd9dbeb9	-0.07702393
41	0xbded6d72	-0.11593141
42	0x3d24468d	0.040106345
43	0x3d56f383	0.052478325
44	0xbd1cb1d4	-0.038255528
45	0xbd035ae8	-0.032069117
46	0xbd7d4d76	-0.06184145
47	0x3d5b7046	0.05357387
48	0x3deb90a9	0.11502201
49	0xbc638a05	-0.013887887
50	0xbe19cee6	-0.15020332
51	0x3d94744f	0.072487466
52	0xbd6f7ff4	-0.058471635
53	0x3ded3dd1	0.11584056
54	0x3df1b992	0.11802973
55	0x3b933b0e	0.004493124
56	0xbcfa4bc6	-0.03055371
57	0xbdb5ab05	-0.0887051
58	0x3be8eaed	0.0071080835
59	0xbd660a4a	-0.056162156
60	0x3dc85423	0.09781673
61	0x3d9623c0	0.073310375
62	0x3df23c48	0.11827904
63	0x3dbcd897	0.09220999

h.0.ln_1.weight f4 [64]
0	0x3f74c92f	0.9561948
1	0x3f5b203b	0.85596055
2	0x3f80a630	1.0050716
3	0x3f6973f6	0.9119257
4	0x3f43a96f	0.7643041
5	0x3f617958	0.8807578
6	0x3f5ae442	0.85504544
7	0x3f78a3bf	0.97124857
8	0x3f6900ce	0.9101685
9	0x3f5ee5e6	0.8706955
10	0x3f694fee	0.9113759
11	0x3f6abfe2	0.9169904
12	0x3f5d0550	0.8633623
13	0x3f6205d7	0.8829016
14	0x3f4a97a3	0.7913763
15	0x3f745d72	0.95455086
16	0x3f710a64	0.9415648
17	0x3f531411	0.82452494
18	0x3f50589b	0.813852
19	0x3f4583a7	0.7715401
20	0x3f848b00	1.035492
21	0x3f5de714	0.8668072
22	0x3f48cab4	0.784343
23	0x3f651a69	0.89493424
24	0x3f5e3ada	0.8680855
25	0x3f5a44da	0.8526131
26	0x3f7ef692	0.99594986
27	0x3f4bd64e	0.7962388
28	0x3f50d37b	0.81572694
29	0x3f56c79a	0.8389832
30	0x3f75ed0b	0.96064824
31	0x3f674f3c	0.9035528
32	0x3f517299	0.8181549
33	0x3f601f18	0.87547445
34	0x3f62eebe	0.8864554
35	0x3f6db48c	0.9285362
36	0x3f59fdb8	0.8515277
37	0x3f7cb0fb	0.9870755
38	0x3f76a2cf	0.96342176
39	0x3f5aff9b	0.85546273
40	0x3f3e5c57	0.7435965
41	0x3f7254dc	0.94660735
42	0x3f66992e	0.90077484
43	0x3f68c15a	0.9092003
44	0x3f73ead1	0.95280176
45	0x3f694951	0.91127497
46	0x3f7f53d3	0.9973728
47	0x3f622a75	0.88346034
48	0x3f5e9aa3	0.86954707
49	0x3f68cb13	0.90934867
50	0x3f5abac9	0.8544126
51	0x3f833122	1.0249369
52	0x3f522403	0.820862
53	0x3f77916b	0.96706265
54	0x3f59c0c7	0.8505978
55	0x3f7c0020	0.9843769
56	0x3f68525d	0.90750676
57	0x3f53f294	0.8279202
58	0x3f76da81	0.9642716
59	0x3f5903d2	0.84771454
60	0x3f52cf9d	0.8234804
61	0x3f60631b	0.8765122
62	0x3f761308	0.9612279
63	0x3f5ed2fb	0.8704068

h.0.ln_1.bias f4 [64]
0	0x3ba4a0bb	0.0050240434
1	0xbd87f631	-0.06638754
2	0xbc1da74a	-0.009622404
3	0x3befd909	0.007319574
4	0xbd8baf2b	-0.0682052
5	0xbd57fe97	-0.05273303
6	0x3c03be5d	0.008040992
7	0x3d1469bb	0.036233645
8	0xbc0abc31	-0.00846772
9	0xbc31ccd9	-0.010852062
10	0x3c81d9a1	0.015850844
11	0x3ca46c33	0.020071125
12	0x3cf6ec16	0.030141871
13	0xbd5d627d	-0.054049004
14	0xbc073d12	-0.008254306
15	0xbd7e0e0a	-0.062025107
16	0x3ce47045	0.027885566
17	0x3cbd27b8	0.023090228
18	0x3d586de4	0.052839175
19	0x3ca1dc75	0.019758442
20	0xbcfb389c	-0.030666642
21	0xbc70828a	-0.01467956
22	0x3d82f75b	0.063948356
23	0xbbea4a64	-0.0071499813
24	0x3c31eb52	0.010859327
25	0xbd3f8f8c	-0.046767756
26	0xbbb88b51	-0.005631842
27	0x3ca3e081	0.020004513
28	0xbd82c84d	-0.063858606
29	0xbcbf18c3	-0.023327237
30	0xbc199b37	-0.009375385
31	0xbb8d9868	-0.0043211468
32	0x3d858d60	0.06521106
33	0x3d581fb7	0.05276462
34	0xbbaff090	-0.0053692535
35	0xb9905edc	-0.00027536496
36	0x3d028b47	0.031871106
37	0x3bbfe3cc	0.005856013
38	0x3c97f92f	0.018551437
39	0xbc0beaf9	-0.008539909
40	0xbb8356b2	-0.0040081376
41	0x3d83adb7	0.06429618
42	0xbb9db5c6	-0.004812929
43	0x3d1ec28a	0.038759746
44	0xbb4cfeed	-0.0031279877
45	0x3ba14c71	0.0049224426
46	0x3cf00cb2	0.029302929
47	0x3dd0088a	0.10157879
48	0x3cb0541d	0.021524483
49	0x3dce4335	0.100714125
50	0xbd27400a	-0.040832557
51	0x3d06b05a	0.032883026
52	0x3c71d5d6	0.014760455
53	0xbd6c6cbe	-0.057720892
54	0xbbd60479	-0.006531295
55	0x3c054914	0.008135099
56	0xbbdd50b2	-0.0067540044
57	0x3cbbbaa9	0.022916155
58	0x3cb56c02	0.022146229
59	0xbc626dfe	-0.0138201695
60	0x3c98596d	0.018597329
61	0x3bd5e071	0.0065269996
62	0xbc85a072	-0.016311858
63	0x3caa62f2	0.020799134

h.0.ln_2.weight f4 [64]
0	0x3f800000	1.0
1	0x3f800000	1.0
2	0x3f800000	1.0
3	0x3f800000	1.0
4	0x3f800000	1.0
5	0x3f800000	1.0
6	0x3f800000	1.0
7	0x3f800000	1.0
8	0x3f800000	1.0
9	0x3f800000	1.0
10	0x3f800000	1.0
11	0x3f800000	1.0
12	0x3f800000	1.0
13	0x3f800000	1.0
14	0x3f800000	1.0
15	0x3f800000	1.0
16	0x3f800000	1.0
17	0x3f800000	1.0
18	0x3f800000	1.0
19	0x3f800000	1.0
20	0x3f800000	1.0
21	0x3f800000	1.0
22	0x3f800000	1.0
23	0x3f800000	1.0
24	0x3f800000	1.0
25	0x3f800000	1.0
26	0x3f800000	1.0
27	0x3f800000	1.0
28	0x3f800000	1.0
29	0x3f800000	1.0
30	0x3f800000	1.0
31	0x3f800000	1.0
32	0x3f800000	1.0
33	0x3f800000	1.0
34	0x3f800000	1.0
35	0x3f800000	1.0
36	0x3f800000	1.0
37	0x3f800000	1.0
38	0x3f800000	1.0
39	0x3f800000	1.0
40	0x3f800000	1.0
41	0x3f800000	1.0
42	0x3f800000	1.0
43	0x3f800000	1.0
44	0x3f800000	1.0
45	0x3f800000	1.0
46	0x3f800000	1.0
47	0x3f800000	1.0
48	0x3f800000	1.0
49	0x3f800000	1.0
50	0x3f800000	1.0
51	0x3f800000	1.0
52	0x3f800000	1.0
53	0x3f800000	1.0
54	0x3f800000	1.0
55	0x3f800000	1.0
56	0x3f800000	1.0
57	0x3f800000	1.0
58	0x3f800000	1.0
59	0x3f800000	1.0
60	0x3f800000	1.0
61	0x3f800000	1.0
62	0x3f800000	1.0
63	0x3f800000	1.0

h.0.ln_2.bias f4 [64]
0	0x00000000	0.0
1	0x00000000	0.0
2	0x00000000	0.0
3	0x00000000	0.0
4	0x00000000	0.0
5	0x00000000	0.0
6	0x00000000	0.0
7	0x00000000	0.0
8	0x00000000	0.0
9	0x00000000	0.0
10	0x00000000	0.0
11	0x00000000	0.0
12	0x00000000	0.0
13	0x00000000	0.0
14	0x00000000	0.0
15	0x00000000	0.0
16	0x00000000	0.0
17	0x00000000	0.0
18	0x00000000	0.0
19	0x00000000	0.0
20	0x00000000	0.0
21	0x00000000	0.0
22	0x00000000	0.0
23	0x00000000	0.0
24	0x00000000	0.0
25	0x00000000	0.0
26	0x00000000	0.0
27	0x00000000	0.0
28	0x00000000	0.0
29	0x00000000	0.0
30	0x00000000	0.0
31	0x00000000	0.0
32	0x00000000	0.0
33	0x00000000	0.0
34	0x00000000	0.0
35	0x00000000	0.0
36	0x00000000	0.0
37	0x00000000	0.0
38	0x00000000	0.0
39	0x00000000	0.0
40	0x00000000	0.0
41	0x00000000	0.0
42	0x00000000	0.0
43	0x00000000	0.0
44	0x00000000	0.0
45	0x00000000	0.0
46	0x00000000	0.0
47	0x00000000	0.0
48	0x00000000	0.0
49	0x00000000	0.0
50	0x00000000	0.0
51	0x00000000	0.0
52	0x00000000	0.0
53	0x00000000	0.0
54	0x00000000	0.0
55	0x00000000	0.0
56	0x00000000	0.0
57	0x00000000	0.0
58	0x00000000	0.0
59	0x00000000	0.0
60	0x00000000	0.0
61	0x00000000	0.0
62	0x00000000	0.0
63	0x00000000	0.0

ln_f.weight f4 [64]
0	0x3f800000	1.0
1	0x3f800000	1.0
2	0x3f800000	1.0
3	0x3f800000	1.0
4	0x3f800000	1.0
5	0x3f800000	1.0
6	0x3f800000	1.0
7	0x3f800000	1.0
8	0x3f800000	1.0
9	0x3f800000	1.0
10	0x3f800000	1.0
11	0x3f800000	1.0
12	0x3f800000	1.0
13	0x3f800000	1.0
14	0x3f800000	1.0
15	0x3f800000	1.0
16	0x3f800000	1.0
17	0x3f800000	1.0
18	0x3f800000	1.0
19	0x3f800000	1.0
20	0x3f800000	1.0
21	0x3f800000	1.0
22	0x3f800000	1.0
23	0x3f800000	1.0
24	0x3f800000	1.0
25	0x3f800000	1.0
26	0x3f800000	1.0
27	0x3f800000	1.0
28	0x3f800000	1.0
29	0x3f800000	1.0
30	0x3f800000	1.0
31	0x3f800000	1.0
32	0x3f800000	1.0
33	0x3f800000	1.0
34	0x3f800000	1.0
35	0x3f800000	1.0
36	0x3f800000	1.0
37	0x3f800000	1.0
38	0x3f800000	1.0
39	0x3f800000	1.0
40	0x3f800000	1.0
41	0x3f800000	1.0
42	0x3f800000	1.0
43	0x3f800000	1.0
44	0x3f800000	1.0
45	0x3f800000	1.0
46	0x3f800000	1.0
47	0x3f800000	1.0
48	0x3f800000	1.0
49	0x3f800000	1.0
50	0x3f800000	1.0
51	0x3f800000	1.0
52	0x3f800000	1.0
53	0x3f800000	1.0
54	0x3f800000	1.0
55	0x3f800000	1.0
56	0x3f800000	1.0
57	0x3f800000	1.0
58	0x3f800000	1.0
59	0x3f800000	1.0
60	0x3f800000	1.0
61	0x3f800000	1.0
62	0x3f800000	1.0
63	0x3f800000	1.0

ln_f.bias f4 [64]
0	0x00000000	0.0
1	0x00000000	0.0
2	0x00000000	0.0
3	0x00000000	0.0
4	0x00000000	0.0
5	0x00000000	0.0
6	0x00000000	0.0
7	0x00000000	0.0
8	0x00000000	0.0
9	0x00000000	0.0
10	0x00000000	0.0
11	0x00000000	0.0
12	0x00000000	0.0
13	0x00000000	0.0
14	0x00000000	0.0
15	0x00000000	0.0
16	0x00000000	0.0
17	0x00000000	0.0
18	0x00000000	0.0
19	0x00000000	0.0
20	0x00000000	0.0
21	0x00000000	0.0
22	0x00000000	0.0
23	0x00000000	0.0
24	0x00000000	0.0
25	0x00000000	0.0
26	0x00000000	0.0
27	0x00000000	0.0
28	0x00000000	0.0
29	0x00000000	0.0
30	0x00000000	0.0
31	0x00000000	0.0
32	0x00000000	0.0
33	0x00000000	0.0
34	0x00000000	0.0
35	0x00000000	0.0
36	0x00000000	0.0
37	0x00000000	0.0
38	0x00000000	0.0
39	0x00000000	0.0
40	0x00000000	0.0
41	0x00000000	0.0
42	0x00000000	0.0
43	0x00000000	0.0
44	0x00000000	0.0
45	0x00000000	0.0
46	0x00000000	0.0
47	0x00000000	0.0
48	0x00000000	0.0
49	0x00000000	0.0
50	0x00000000	0.0
51	0x00000000	0.0
52	0x00000000	0.0
53	0x00000000	0.0
54	0x00000000	0.0
55	0x00000000	0.0
56	0x00000000	0.0
57	0x00000000	0.0
58	0x00000000	0.0
59	0x00000000	0.0
60	0x00000000	0.0
61	0x00000000	0.0
62	0x00000000	0.0
63	0x00000000	0.0
